checkpoints/ifind1_sononet_8_andi/001_net_class_only_from_50.pth (torch_old, 671523 bytes, 90 tensors)

conv1.conv1.0.weight f4 [8, 1, 3, 3]
00000000: 4370 763e abc0 653e 8816 b13e 376a 57be
00000010: d4ad fe3e 328d bcbe 642e dc3d 2f51 2c3f
00000020: 6ace 7bbf dc71 043f 9dae 42bf bf7f b9be
00000030: d52f 4c3e f062 043f e5e3 52be 08ab 3b3e
00000040: 6fde 403e ab04 9b3e 2b25 7ebf da23 c8be
00000050: 7d5d cb3e c0e4 e63d 1b53 a33d e751 8dbe
00000060: 1d39 20bf 47c3 e03d 45b2 7bbf 1473 27bf
00000070: 3d3e c03e adbc e9bd 461a 88be 993d 52bf
00000080: 01a4 e1be bba4 0c3d 3be0 a6be 0a93 9b3e
00000090: b7af 7abf 5447 29be 5173 7bbe 14fd 6d3e
000000a0: ed48 efbe 7b3d 3dbf d746 3a3f aa14 8a3d
000000b0: 3b6c 53bf 235a b6be b27a 81bf fac2 83bf
000000c0: f482 9dbd ac92 cfbe 30d8 95bf d0bf fcbe
000000d0: 35bc 703e 8bc7 e5be 822c d73e 3994 28bf
000000e0: b92d 6ebe a9bc a2be 842c 6b3f 73ed 95bd
000000f0: a237 013f 0027 df3d 5e44 a83e 2d3f a43e
00000100: 99f5 ad3d a768 613e b27d ebbd 8b8b bdbe
00000110: 1263 79bf 57da ef3d 5c21 8dbe fc95 103f
0.24066262 0.22436778 0.34587502 -0.21036611 0.49741995 -0.36826473 0.10751036 0.67311376
-0.9836184 0.51736236 -0.7604769 -0.36230275 0.19940121 0.51713467 -0.20594747 0.18326962
0.18834852 0.30277 -0.99275464 -0.39089853 0.39719763 0.11274099 0.079748355 -0.2760155
-0.6258715 0.10974746 -0.9831889 -0.6540997 0.37547484 -0.1141294 -0.26582545 -0.8212524
-0.44070438 0.034336787 -0.3259295 0.3038562 -0.9792437 -0.16531116 -0.24555708 0.23241073
-0.46735325 -0.73921937 0.72764343 0.067422226 -0.8258702 -0.35615644 -1.0115569 -1.0293877
-0.07690993 -0.4054159 -1.17066 -0.4936509 0.23509295 -0.44878802 0.42026144 -0.6585117
-0.2325963 -0.3178456 0.918648 -0.073206805 0.50475514 0.108961105 0.3286466 0.3207945
0.0849411 0.22012578 -0.11498584 -0.37020525 -0.97416794 0.11711567 -0.27564514 0.5647886

conv1.conv1.0.bias f4 [8]
00000000: 3d71 40be b461 85be f8bc 573e d1f6 9e3e
00000010: 008d 463e 17cb 5f3e 1976 dbbd 1cf4 e9bd
-0.18793197 -0.26051104 0.2106818 0.3104768 0.19389725 0.21854816 -0.10715885 -0.11423513

conv1.conv1.1.weight f4 [8]
00000000: f031 813f 84d1 7c3f 2fc4 713f a8b6 893f
00000010: 2305 833f 0d99 713f 9ee5 713f c902 8b3f
1.0093365 0.98757195 0.9443998 1.0758867 1.0235943 0.9437416 0.94490993 1.0860225

conv1.conv1.1.bias f4 [8]
00000000: 1700 0c3d 60bb ff3d 6425 0cbd abda 073e
00000010: 1d03 083e 7465 be3d c146 e63c 30a0 f53d
0.034179773 0.12486911 -0.034215346 0.13267009 0.13282438 0.092966944 0.02810991 0.11993444

conv1.conv1.1.running_mean f4 [8]
00000000: b7fa 43be ba52 84be 3512 523e c608 9e3e
00000010: 38c6 423e 8058 583e a957 d6bd 5734 eabd
-0.19138609 -0.25844365 0.20514758 0.3086607 0.19020927 0.2112751 -0.104659386 -0.11435764

conv1.conv1.1.running_var f4 [8]
00000000: 13d9 af3e 131b dd3e 8ac6 c440 a3f0 6240
00000010: 2d63 b240 2bfe ab41 df9f 863f db56 7e3e
0.34345302 0.43184718 6.1492357 3.5459373 5.5746064 21.499105 1.0517539 0.2483782

conv1.conv2.0.weight f4 [8, 8, 3, 3]
00000000: d1d2 103e f1bb 84be aec1 f8be 5d9c b0bc
00000010: 6be5 b63e f937 37be 1e0f 313e c874 2bbd
00000020: d998 133e 0254 9dbc e58f 83be 2121 2c3d
00000030: c709 bbbd abd1 1ebe 73c4 a7bd fcdb a6be
00000040: c2e0 2b3e d8e1 b6bd 6a2e ca3b 27b1 8cbe
00000050: dde3 1b3e 3f7c 893e 4695 853d 3333 b43d
00000060: 33d3 403e c11d 733e 2d7c a83d a9a0 afbd
00000070: afe6 0bbe 0d58 74be 72f2 a63e 12bd cebd
00000080: a311 5fbd 08be 943e 7b8a f63d 8dc1 aebc
00000090: c82c 6d3d 7276 2dbd 43a2 80be 9e94 3cbe
000000a0: d328 bd3d f43a 6fbe d571 b73d 1275 333e
000000b0: 0c99 78be 71fa a1bd 7cd1 46be 1041 bc3d
000000c0: c7bf 48be 43e5 0f3d e1f6 5fbe 498e 803e
000000d0: e3e6 4d3e 6ace bbbd 1bed a53d b370 47be
000000e0: 495c abbe 17d1 dcbd bc43 78bd 8797 f4bd
000000f0: 2e48 c9bd 91fb 053e f5a9 553e 6fab 49bd
00000100: c701 ebbd fef6 b8bd 93e7 87be 9585 19be
00000110: 1b1a 3c3e 0a8c cd3e 740f 3d3d 3d93 27be
00000120: e9ec fabc 56c8 c9bc 47ad 6cbe 01ce 3fbe
00000130: b25b 263e 6b33 56be 203c 4d3e e110 033e
00000140: 89ba 4b3e 71e6 6d3c 5736 cbbd 5964 5abd
00000150: b925 62be a7d3 b2bd 8302 273d 6e4c 9c3d
00000160: ae3b 253e 660a 19bc 157c 1e3e a2a0 c9bd
00000170: d45c 59be f00a 9dbd 112c 683e f73c a4bd
00000180: 8087 e3bd 6899 c8bd 4b5f 28bd 4511 7d3e
00000190: 32a9 7a3e c3f2 98bd 2b6f a63b 7501 9a3d
000001a0: e0e3 123d d809 68be cd2e 9bbd 0395 5e3d
000001b0: 639e d13d b5ce 653d 9b4e 023d d0d1 10be
000001c0: 1492 313e ffcc 0d3e 4ce2 4cbe 9ecb 95bd
000001d0: 4e3d 0abd 803c 183e b8b8 153c 82f5 083d
000001e0: 9063 52be cf70 9e3d 205e a6bb bd0f 533e
000001f0: b75c 213e a7ac 45bd a857 b9bd 9e46 a23d
00000200: 42e7 90bd 2765 7d3d 5f48 1b3d af35 f53c
00000210: 9dee 84be 2c84 1d3d c4a7 74be 077f c03d
00000220: e8f3 553e 2f55 b63e 0f64 e63b ca81 af3d
00000230: 51e0 05be 1c3d 14be 5132 d53d 81cf 48be
00000240: 4e2f 19bd c448 22bd ae71 8a3e 8cad 7b3d
00000250: 06c6 0f3e bcc1 893c 1d1d f3bd 4ed0 823d
00000260: 3461 6bbe 470b 4a3e 05e8 c1be 9c0f 0fbe
00000270: b13a 4a3e f013 bb3d 4aba ee3c 5cfa 293e
00000280: 5700 2c3e 9e0a ad3d a6c4 8e3e 1eeb 19bd
00000290: 9453 7abd 7137 0a3e eaa1 cc3c eeba a7bd
000002a0: 1ce8 183d e843 843e 39bb 9a3e eac3 453e
000002b0: b8c3 6abd c2b7 44bd 6bee 373e c127 533e
000002c0: 3d76 a7bd 9ce0 993e 5613 29be 74b5 9d3e
000002d0: 984d 833d 746c 95be 5253 0b3e 956c 0f3e
000002e0: 22cc 963d c4ab 4d3e 1a93 9c3c e10f 8c3d
000002f0: 72ee b03e 9fd7 ef3c 4fa9 b9bd 4d31 163e
00000300: c935 ffbd 51ca 1abe e093 21be 9633 403e
00000310: 1f0a bf3e c955 8fbe e2f6 1d3e 923d a13d
00000320: 1b11 41be 99f1 843e d8c5 e5bb 6013 ac3e
00000330: c7c0 533e 2bd4 8a3e 37f6 60bc fc83 b03d
00000340: eb31 273c 1f0d ad3c d8e6 943c 411f c13d
00000350: d5d5 ce3d 2cfb e93c 66ca df3d 095b 653e
00000360: 5df3 003e bcbf ed3e fb20 8c3e e34d 883e
00000370: c4c1 083d a9a1 5bbe 884d e93c 003d 173e
00000380: e929 64be f11e 673a ce84 1abe 7555 52be
00000390: ed61 e9bd 6919 be3e a0f4 c1bd b82d a5bc
000003a0: 4757 093d c9d6 16be 59b2 69be 0b91 e3bd
000003b0: d22c 03be 5099 d83e 5fe3 a43b 7c9a 393e
000003c0: cfef 913e 6cc5 cbbd 62fd b9be 7346 0d3c
000003d0: dcd2 c13d 6a68 86be 4da0 543d 704e 26bd
000003e0: b16b 773d d020 683b 59e4 08be 092b 40bc
000003f0: c417 10bc c3f9 90be 0f29 fcbe e663 5f3d
0.1414292 -0.25924638 -0.48585266 -0.021558935 0.35721907 -0.17892446 0.17290923 -0.04185942
0.14413776 -0.019205097 -0.2569572 0.04202378 -0.09132724 -0.1550967 -0.081917666 -0.3258971
0.16784957 -0.08929795 0.006170084 -0.27478907 0.15223642 0.26852605 0.06522612 0.08798828
0.18830566 0.23741819 0.0822681 -0.08575565 -0.13662218 -0.23861714 0.32606846 -0.10094656
-0.05446018 0.29051232 0.12038132 -0.021332527 0.057904035 -0.042349286 -0.25123796 -0.18416068
0.09236302 -0.23362333 0.089572586 0.17525128 -0.24277133 -0.07909096 -0.1941585 0.09192097
-0.19604407 0.03513075 -0.2187152 0.25108555 0.20107608 -0.0917023 0.08101865 -0.19476585
-0.33468845 -0.10782068 -0.06061147 -0.11942964 -0.0982822 0.13084246 0.20865615 -0.049235757
-0.114749484 -0.09031485 -0.26543865 -0.14992364 0.18369333 0.40145904 0.046157315 -0.1636476
-0.030630546 -0.02463166 -0.23112975 -0.18730928 0.16245916 -0.20918052 0.20042467 0.12799408
0.19895376 0.014520274 -0.09922474 -0.053318355 -0.22084703 -0.08731776 0.04077388 0.07631765
0.16136047 -0.009340858 0.15477021 -0.098450914 -0.21226817 -0.07668102 0.2267306 -0.080194406
-0.11109829 -0.09794885 -0.041106503 0.24713619 0.24478605 -0.07468178 0.00507917 0.07519809
0.03586185 -0.22660005 -0.07577286 0.054341327 0.10235288 0.056105334 0.031813245 -0.14142537
0.1734088 0.13847731 -0.200082 -0.073142275 -0.03374987 0.14866829 0.009138279 0.03343726
-0.20545793 0.0773636 -0.0050771385 0.20611472 0.15758024 -0.048260357 -0.09049922 0.079236254
-0.07075359 0.061864045 0.037910815 0.029932825 -0.25963297 0.038456127 -0.23892123 0.093992285
0.20893824 0.35611865 0.007030971 0.08569677 -0.13073851 -0.14476436 0.10409988 -0.19610406
-0.03739863 -0.039620176 0.27039856 0.061444804 0.14040384 0.016816013 -0.11870787 0.06387387
-0.22986299 0.19730864 -0.3787233 -0.13970798 0.19748951 0.09134662 0.029141564 0.16599411
0.16797005 0.08449291 0.27884406 -0.03757774 -0.061114863 0.13497712 0.02497955 -0.08189951
0.03733073 0.25833058 0.30220965 0.19313017 -0.05731556 -0.048026808 0.17962043 0.20620634
-0.08176849 0.30054176 -0.16511282 0.308025 0.06411284 -0.29184306 0.13606003 0.14006265
0.07363154 0.20085055 0.019113112 0.06838966 0.3455692 0.02927762 -0.09065496 0.14667244
-0.124614306 -0.1511624 -0.15779066 0.18769678 0.3731241 -0.27995136 0.1542621 0.07873072
-0.18854181 0.25965574 -0.00701211 0.33608532 0.20679007 0.27114996 -0.013730577 0.08618924
0.010204772 0.02112442 0.018176481 0.09429789 0.10099379 0.02856215 0.10927276 0.22398008
0.12592836 0.46435344 0.27368912 0.26621923 0.033387914 -0.21448387 0.028479353 0.14769363
-0.22281612 0.00088165613 -0.15089723 -0.20540412 -0.11395631 0.3712876 -0.09470487 -0.020163402
0.0335305 -0.14730372 -0.2282194 -0.11111649 -0.12810066 0.42304468 0.0050319876 0.18125337
0.28503272 -0.099497646 -0.36326128 0.008622753 0.09464046 -0.26251537 0.051910687 -0.040602148
0.060405437 0.0035419948 -0.13368358 -0.01172901 -0.008794729 -0.28315553 -0.49250075 0.05453863

conv1.conv2.0.bias f4 [8]
00000000: d45f 2cbd ec08 233d 712c 563d 83af 5f3d
00000010: e9d9 c4bd 981b e2bd c2a7 d6bd a9be c4bc
-0.042083576 0.03980343 0.052288476 0.05461074 -0.096118756 -0.11040419 -0.10481216 -0.024016695

conv1.conv2.1.weight f4 [8]
00000000: db14 7d3f 1348 853f c7c9 803f 1338 873f
00000010: cdb9 7d3f 01d8 743f 9058 743f 997d 813f
0.9885995 1.041262 1.0061578 1.0563987 0.99111634 0.95642096 0.95447636 1.0116454

conv1.conv2.1.bias f4 [8]
00000000: 44dd 4cbd 1107 363d 71a3 fabd a282 cc3b
00000010: faaa e13c 38e0 90bc 6324 b5bd 108c 8fbc
-0.050015703 0.044440333 -0.12238205 0.0062411586 0.027547348 -0.01768504 -0.08844831 -0.017522842

conv1.conv2.1.running_mean f4 [8]
00000000: 9dac 4bbf 989e 5f3e d581 0c40 68e5 99bf
00000010: 4bb1 abbf da36 84bd ca31 24bf 078f 243f
-0.7956026 0.21837842 2.1954243 -1.2023134 -1.341348 -0.064557746 -0.6413847 0.6428074

conv1.conv2.1.running_var f4 [8]
00000000: 79b0 5f3f e4f7 043f 8a6d a63f be2b 3840
00000010: ef54 5040 8699 d23f f855 ee3e 3cb4 753f
0.8737865 0.5194075 1.3002179 2.8776698 3.255184 1.6453102 0.46549964 0.9597814

conv1.conv3.0.weight f4 [8, 8, 3, 3]
00000000: d65a 823e f4f7 1ebe de5e b4be aa8a 5fbd
00000010: 31f6 2a3d 5161 11be 1aff ec3e 9a71 a13d
00000020: cdcd a4be a347 cf3c 8017 5b3d 60c2 9dbd
00000030: 3d51 ed3e 5795 b9be 3c71 e4bd f9be 11be
00000040: 838c debd 019d 733e 425d 71be 9cad 3fbe
00000050: c35a 8b3c 65f0 74bc 7edd 423e 3600 d1bd
00000060: ee63 973d d862 e7bb 0410 3cbe 4cbb 42bd
00000070: 79cf a93e fda4 ac3d 24b9 063e 3e6d 2cbc
00000080: e33d c0bd ad4f 70bd feff 96bd cd84 243e
00000090: 01ea 25bd 4216 703c ecd5 243e d597 b13e
000000a0: 749e 883e 3373 cd3e 76e8 103e 4723 8ebe
000000b0: d3ea 2c3e 2442 b43e fc8d f0bc 2f00 233e
000000c0: 08d1 fabd 5780 383d aa9a c5bb ddd8 383e
000000d0: 8066 e83e 0139 a03c 4625 423e c8d7 3fbe
000000e0: 1082 4cbd 6bb0 d0bd 7ecf 133d 50f5 a6bd
000000f0: 67a5 89be f2c6 47be e286 e1bd c0d2 883d
00000100: 0445 24be 2b15 a63d f86b 933e 8f16 76be
00000110: 1426 613d 9f7b d6bd 5bb3 b1bd d5c0 6dbe
00000120: 1ee2 f63c b644 d03d c288 3f3e 3b4c 513d
00000130: 8ae7 5d3e a449 cdbc d595 6e3d 971e 85bc
00000140: 7a85 053e d716 a4bd 9026 39be cda5 b1bd
00000150: ecfe cfbe e853 8a3d 9fe0 ae3e 8658 c83d
00000160: 01ad 5ebd a845 2ebc cd8b 8ebe 3c52 83be
00000170: 957f e1bd 8e5c 0bbd 3531 52be 15f6 3abd
00000180: deb5 5d3e 48fb 723e 63cf b03d 1bb9 3fbe
00000190: 76aa b5bd 056a da3c 10f1 18be c890 21be
000001a0: 6bab 58be 6351 913e 67b1 8bbe 1e8b 63be
000001b0: 601b 8ebc 144f 85bd 0b8e 67be e3ba 5b3e
000001c0: f545 ce3c 7265 35be 9255 3cbe 92ae ae3d
000001d0: 7cef 81bc b9f8 80be 27bf 4f3d e767 51bd
000001e0: 6f17 cb3d 0a22 9a3d 3269 24bd 294b 653d
000001f0: 074c fa3d 070f 69be cb54 993d 632c 1ebd
00000200: 96c5 6bbd 756f 43be bd2a d53d 18a2 18bc
00000210: 902a 41be e26b 083e ae66 6abe 7d5c 953d
00000220: ccc8 a03d 5b68 edbc 8632 243e 2a1c 9f3d
00000230: 7a2d 3a3e 7cc5 61bd 3267 4e3d 7953 113e
00000240: 0e6e bf3d 9da2 b7bc 2d19 9b3e 65d1 383e
00000250: 183a 28b7 9cf7 9a3c 9709 7c3e 834f 363c
00000260: 947b 203e a2a7 133e a402 90be 40f3 dc3d
00000270: 6c1b 243e e8ac 92bd 9e6d b9be ebfd abba
00000280: a45e acbd 05e1 9abe e20b 9f3d acd6 b0be
00000290: deaa 17be adb2 683d ed28 80be 9932 cb3d
000002a0: a3da 24be a82b 0d3d 5456 533a 7033 20be
000002b0: 8b82 7e3e 524e b4bd 83b6 6d3d 4b5c b7bd
000002c0: a0da 2f3e c402 4d3d f7a9 7bbe fbee a1be
000002d0: 0092 32bd 99c2 84bd 6ab4 a13e 9b0d d2bd
000002e0: 43fe b4bc cd3d 86bd 78ab 6ebc f146 813d
000002f0: dd4e 0d3c c936 c6bd 5b1f 123e d292 e43d
00000300: c5fb 4b3e afd3 303d 4bec 1e3e 4fc8 fbbc
00000310: 32a3 4f3e 717a 1cbe 0efe 03be 50b2 573d
00000320: 9b91 44bd 0999 29be dce8 4c3e 1fbd cf3e
00000330: c3f5 8d3d 6458 713d 6153 8c3e 6d61 7c3e
00000340: bdbd 593e f8b3 00be 9962 633e 3c09 2d3e
00000350: 99b1 e9bd 4334 023e cdf1 6e3d c5ac 423e
00000360: 0e54 b73e b8fb 4fbe a898 e13d 9099 9a39
00000370: d314 bf3e 7f19 e5ba 5b36 cd3d 27b8 b0bb
00000380: 3646 b73d c21f 9f3d 3dd3 89be ddc9 023d
00000390: 8170 2b3e c1b6 513e f00c 43be 09da 823c
000003a0: 1138 c3be d0f1 ccbd 822c 03bc 2bd8 d1bc
000003b0: a18b 1d3e 0301 253e 8730 83bc f72a c7bd
000003c0: 5228 e3bd 4cb6 e13c 5740 c0bd b888 6d3d
000003d0: 78ca 9c3e 9ded 283e 23cc e13e 307d 1c3e
000003e0: ac75 8a3e e16b 88bd f225 013e c77e 5e3c
000003f0: 844e 753d ebe3 61be 4542 163e 8723 6cbd
0.25459927 -0.15524274 -0.35228628 -0.0545756 0.041738693 -0.1419728 0.46288377 0.07882996
-0.32188264 0.025302714 0.05348921 -0.0770309 0.46351042 -0.3624675 -0.1115441 -0.14233007
-0.10866644 0.23790361 -0.23570731 -0.1871857 0.017011052 -0.014949893 0.19029805 -0.10205118
0.07392107 -0.0070613436 -0.18365484 -0.0475419 0.33166102 0.084299065 0.13156563 -0.010524092
-0.09386804 -0.058669735 -0.073730454 0.16066284 -0.040506367 0.014653744 0.1609723 0.3468615
0.2668339 0.40126953 0.14151177 -0.2776129 0.16886453 0.3520671 -0.029364578 0.15918039
-0.12246901 0.04504427 -0.0060304003 0.18051477 0.453907 0.019558432 0.18959531 -0.18734658
-0.049928725 -0.10189899 0.03608655 -0.081522584 -0.26884004 -0.19509485 -0.11012055 0.06680822
-0.16041952 0.08109506 0.2879331 -0.24032043 0.054967955 -0.104727976 -0.086767875 -0.23218091
0.030137118 0.101693556 0.18704513 0.05109809 0.21670356 -0.025059529 0.05824836 -0.016249938
0.13039199 -0.08012169 -0.18081117 -0.08674202 -0.40624177 0.06754285 0.34155747 0.097825095
-0.054364208 -0.0106367245 -0.27841035 -0.25648677 -0.110106625 -0.034023814 -0.20526583 -0.04564484
0.21651408 0.23728669 0.08633306 -0.18722956 -0.088704035 0.026661882 -0.14935708 -0.15777886
-0.21159141 0.28382406 -0.27283785 -0.22221038 -0.017347038 -0.065092236 -0.22612779 0.2145801
0.025179842 -0.1771448 -0.18392017 0.085293904 -0.015861265 -0.2518976 0.050719406 -0.05112448
0.09916579 0.07526024 -0.040139385 0.05597988 0.12221532 -0.22759639 0.07486876 -0.03861655
-0.05756148 -0.19085486 0.10408542 -0.00931599 -0.18863893 0.13322404 -0.22890732 0.07293031
0.07850799 -0.028980425 0.16034898 0.07769044 0.1818141 -0.055119976 0.050391383 0.14191999
0.09347163 -0.022416407 0.30292645 0.18048628 -1.0027106e-05 0.018916897 0.24613033 0.0111273555
0.15672141 0.14419416 -0.28127015 0.10788584 0.16026086 -0.071618855 -0.36216444 -0.0013121938
-0.08416489 -0.302498 0.07765938 -0.34538782 -0.14811274 0.056811024 -0.25031224 0.0992176
-0.16099028 0.034465462 0.0008061875 -0.15644622 0.24854486 -0.08804001 0.058035385 -0.0895315
0.17173243 0.050051466 -0.24576555 -0.3162764 -0.043596268 -0.06482429 0.31582958 -0.10256501
-0.022093898 -0.06554756 -0.0145672485 0.06312359 0.0086247595 -0.09678418 0.14269774 0.11160816
0.19920261 0.043170627 0.15519826 -0.030735163 0.20277098 -0.15281083 -0.12889883 0.052660286
-0.047990423 -0.16562285 0.20010704 0.40573975 0.06931641 0.058922186 0.27407363 0.2464654
0.21263786 -0.12568653 0.22205581 0.16898054 -0.11410827 0.12715249 0.058336068 0.19011219
0.35806316 -0.20310867 0.11015445 0.00029487582 0.37320575 -0.0017478912 0.10020133 -0.0053930464
0.089489385 0.07769729 -0.26918975 0.031930793 0.16742136 0.20479871 -0.19047904 0.015973108
-0.38128713 -0.100070596 -0.008006217 -0.025615772 0.15385295 0.16113667 -0.01601435 -0.09724992
-0.11091675 0.027552746 -0.09387272 0.057991713 0.3062322 0.16496892 0.44101056 0.1528213
0.27042902 -0.06661201 0.12612131 0.013580031 0.05988933 -0.220596 0.14673717 -0.05765107

conv1.conv3.0.bias f4 [8]
00000000: e523 89bd 641e fd3c 2c69 2bbc c115 e2bd
00000010: cc6b 343a ee01 193d 8e87 ac3d 1c97 c33d
-0.066962995 0.03089828 -0.010462087 -0.110393055 0.0006882518 0.037355356 0.084242925 0.09550306

conv1.conv3.1.weight f4 [8]
00000000: a4bb 863f e6b0 893f af56 553f 2263 7c3f
00000010: f9d0 783f b8b4 5f3f 0f58 913f 25f6 8b3f
1.0526013 1.075711 0.83335394 0.98588765 0.97193867 0.8738513 1.1354998 1.0934492

conv1.conv3.1.bias f4 [8]
00000000: e519 983d aecc 833d 812e b7bc c6e6 afbc
00000010: 84c7 70bc 963b 6c3d e25b 9e3d 6164 ca3d
0.07426814 0.06435524 -0.022361042 -0.021472346 -0.014696006 0.057674013 0.07732369 0.09882427

conv1.conv3.1.running_mean f4 [8]
00000000: b690 ec3e d0be 02bf d561 fb3e 0e95 d13d
00000010: d6c3 b0bf 35c3 633f 27f2 853e 8a02 4dbf
0.46204156 -0.51072407 0.49098077 0.10233508 -1.3809764 0.8896974 0.2616131 -0.80082

conv1.conv3.1.running_var f4 [8]
00000000: c6f5 0e40 f0dc ba3f e9e8 d63e 12d4 5e3f
00000010: cf17 923f e79b 0a40 c26e 853f 2e75 af3f
2.2337508 1.4598675 0.4197457 0.87042344 1.1413516 2.1657655 1.0424426 1.3707635

conv2.conv1.0.weight f4 [16, 8, 3, 3]
00000000: dc9c 56be 9ecc adbd 9c5c bf3d b0cf 2ebd
00000010: 9c94 953d 5f56 753e 406a e9bd 87ee 853e
00000020: 08c4 6e3d 74d9 3abe d619 c03d 4a00 70bd
00000030: 4155 7fbe bb34 57bd df41 8bbe 898b a2bd
00000040: 557c 4e3e 0af0 f5bd 8654 743e 7901 8c3e
00000050: 74ca 333e 31f1 3cbd 6daa d7be abbc 20bd
00000060: 8815 8ebd 85f7 df3d ded2 2cbd ab9b 65be
00000070: 4dc7 88be 6b9e 26be d2e2 3d3e 2577 183e
00000080: bb2b dd3d b063 33be fe00 8f3d 0283 c8bd
00000090: 1216 353e 04d9 b0bb adcf 1f3c 47c5 703d
000000a0: b28f 35be 6e22 f8bd 759b 28be bcd7 b2ba
000000b0: c5e3 c0bd 6dcd 873d 9699 fb3d ba5c 843e
000000c0: 223c cbbd 14c9 623e f209 e53d 681e afbe
000000d0: 79fc dabd 195a 00be 14eb 873d 321b 0f3e
000000e0: 3c8a 84ba f01a ac3c 137d b73d 7e32 72be
000000f0: 1295 0dbe bdc9 75be 1a4f 26bc a2da f2bd
00000100: 2990 ebbc 48db 6abc dcb1 193d 3505 86be
00000110: c19b 2bbc 8048 cb3d 1548 81be 58e3 d33d
00000120: 5c5b 9a3e 6339 583e 2321 afbd d370 30be
00000130: 3760 e5bd aafe 5abe 9377 bebd 8617 47be
00000140: 94f1 9fbc 9330 8bbd 068f 023e dfa3 88be
00000150: 8441 bdbe 0066 27be 2780 973c 4a7e 833d
00000160: cb0e 373e 16c9 993c 841e 263d c59b 293d
00000170: 9982 f43a 5105 33be 352d 69bc ae29 8c3e
00000180: eaf0 0bbf ea9d 1d3c 02f0 4a3d 5f5e e73c
00000190: 6f65 f93d 1a94 243e 0fc7 10be 0e15 c6bd
000001a0: 0f82 743e 4ee8 443b 4490 013e 47e6 0dbe
000001b0: eda0 093e 875e 633d 2867 8dbe 781c 6cbe
000001c0: 30d4 c7bd 075a 7e3d fe03 5dbe 4302 11bd
000001d0: 5ffb 963d e407 40be a2b1 8dbe 27f7 43be
000001e0: 7978 2ebd f16d 2ebe cf31 853e 0096 623e
000001f0: 0899 493e ac4c 1cbe c040 a63d dbfa e1bd
00000200: 7d47 283e 434b cdbd dcb3 0dbd 6aeb d3be
00000210: 8f5c 683e b8bd 4fbe ff2d 10be 5223 2d3e
00000220: cd28 8bbd 5f70 193e 1741 673e 5621 383d
00000230: 69ff 103d 3cac 8e3e 203c 6c3e 82fa 603e
00000240: 15b6 bd3b 44da ee3d a0fd 7d3e 0a78 4b3d
00000250: 9f75 8dbd 1ab5 0d3e 2a76 d53e 93d6 72bd
00000260: 0ffd 8a3e 4897 abbd 1b58 123e dfbd f9bd
00000270: aa2c 3bbe a100 a13e ebd4 983d 0291 02be
00000280: 0889 febd a95c 5d3d b4cd e53c 8c2a 1cbe
00000290: b328 40be 9412 5a3e 94c7 7d3e 0693 b2be
000002a0: d8fa 813e a20a db3d cbad 64be c1da 86bd
000002b0: 5f65 023e 42bb a63c 8a4e 5a3e a670 993d
000002c0: 4e33 743e fcaf 80bc 2a2a fb3d 0b85 8a3d
000002d0: a663 7abe 4092 b0bd 49cb 8a3d 702d fdbe
000002e0: 312d a4bd 67e7 2e3b 4e0a 8fbd 9e84 2a3e
000002f0: 2152 093e 8ea8 bfbd 1819 983d 4c25 fb3d
00000300: d10a 67bc d14e 4e3e d649 8cbd 8cb1 7dbd
00000310: 42e8 2fbe 14c4 cc3e e1f4 a03e 3f5a 30be
00000320: c30e 17be 5dce 9a3e 9964 013d 6ac5 4abe
00000330: 2339 5dbd 978f 0e3c d5cd 263c 4830 73bd
00000340: fdc5 433e 9a2a 253e beef 1cbf 363b ee3d
00000350: 754b 97be 3641 5c3e b12a 133e 86da 70be
00000360: e187 5e3e e124 f23c 3c15 543c bc19 eebd
00000370: 1cf4 983e fbc0 0fbe e0f2 b1bc 23a0 99bd
00000380: 26a5 09bc dd9b 1a3e d584 39be 709a 2ebe
00000390: 4aa0 fbbd 2438 b4bd bd51 c53b 793f c03d
000003a0: eb91 2d3e a862 e93d 3bd9 a1be 814b a83d
000003b0: 4913 7abb 7941 ec3d 6737 8dbe 37d7 9c3c
000003c0: bf95 69be 9bb7 85be 04ef 303e a619 60be
000003d0: d5dd 11be 369e 47ba 91c0 34be a161 2dbe
000003e0: eef2 30bd 201f dc3d 8344 8e3d d189 ac3d
000003f0: 0743 69be 1072 4b3e 60fb 77bc 0460 e2bd
-0.20958275 -0.08486293 0.09343836 -0.042678535 0.073037356 0.23958729 -0.11397219 0.26158544
0.05829242 -0.18247014 0.09379928 -0.058594026 -0.24934866 -0.052540522 -0.27198693 -0.079367705
0.20164616 -0.120086744 0.23860368 0.27344874 0.17557698 -0.046128456 -0.42122212 -0.039242428
-0.069377005 0.109358825 -0.042193286 -0.22422664 -0.26714554 -0.16271369 0.18543556 0.148892
0.107993565 -0.17518497 0.06982611 -0.09790613 0.176842 -0.005396964 0.009754104 0.05878189
-0.17730597 -0.12115942 -0.16465552 -0.0013644616 -0.094184436 0.06630979 0.122851536 0.25851995
-0.09923579 0.22147018 0.111835375 -0.34202886 -0.106926866 -0.1253437 0.066366345 0.13975218
-0.0010111998 0.021008939 0.08959403 -0.23652074 -0.13826397 -0.24002738 -0.010150695 -0.11858107
-0.028755264 -0.014334507 0.037523136 -0.26175848 -0.010474146 0.09925938 -0.25250307 0.10346097
0.30147827 0.21115641 -0.08551242 -0.17230539 -0.11199992 -0.21386209 -0.09300151 -0.19442567
-0.019524373 -0.06796374 0.12749872 -0.26687524 -0.36964047 -0.16347504 0.018493725 0.06420572
0.17876737 0.018772643 0.040556446 0.04140832 0.0018654644 -0.17482497 -0.01423197 0.2737555
-0.5466448 0.009620169 0.049545296 0.028243242 0.1217755 0.16072121 -0.14138435 -0.096719846
0.23877738 0.003004569 0.12652689 -0.13857375 0.13440295 0.05551007 -0.27617764 -0.23057735
-0.097572684 0.062097576 -0.21583554 -0.035402548 0.07372164 -0.1875301 -0.27674586 -0.1913725
-0.04259536 -0.17034127 0.26014563 0.22127533 0.19687283 -0.15263623 0.08117819 -0.11034175
0.1643352 -0.10024121 -0.034595355 -0.41390544 0.22691558 -0.20287216 -0.14080046 0.16908005
-0.067948915 0.14984272 0.22583424 0.044953667 0.035399828 0.2786578 0.23069811 0.21970561
0.005789528 0.116627246 0.24803782 0.049675025 -0.069072 0.13838616 0.41691715 -0.059286665
0.27146193 -0.08378464 0.14291422 -0.12194418 -0.18278757 0.31445792 0.07462486 -0.12750629
-0.124284804 0.054043446 0.028052188 -0.15250605 -0.18765526 0.2129615 0.24783164 -0.34877795
0.2538669 0.106953874 -0.22331922 -0.06584693 0.12733983 0.020352963 0.21319023 0.07492189
0.23847696 -0.015708916 0.122639015 0.06763657 -0.24452075 -0.08621645 0.06777055 -0.4944873
-0.08016432 0.002668822 -0.06984387 0.16652152 0.13410236 -0.09358321 0.07426661 0.12262973
-0.0141017 0.20147254 -0.068500206 -0.0619369 -0.17178443 0.39993346 0.31436828 -0.17221926
-0.14751725 0.30235568 0.031590078 -0.1980187 -0.054009568 0.008701227 0.01018091 -0.059372216
0.19118495 0.16129532 -0.6130332 0.11632387 -0.29549757 0.21509251 0.14371754 -0.2352086
0.21731521 0.0295586 0.012944516 -0.11626002 0.2987374 -0.1403846 -0.021722257 -0.07501247
-0.008401191 0.1509852 -0.18117078 -0.170511 -0.12286432 -0.087997705 0.006021707 0.093871064
0.16950195 0.1139577 -0.31611046 0.08217526 -0.0038158468 0.115359254 -0.2758133 0.019145591
-0.2281103 -0.26116642 0.17278677 -0.21884784 -0.14244778 -0.0007614823 -0.17651583 -0.16931774
-0.043200426 0.10748124 0.06946661 0.08424724 -0.22779475 0.1986773 -0.015135616 -0.1105347

conv2.conv1.0.bias f4 [16]
00000000: 9e7f a93d d86b afbb 958e c3bd 54ff ac3d
00000010: 55aa 11bc f4c9 3e3d 5f4e 86bd c2e7 b03d
00000020: 14be a63d b9bf 253b 86ab c03d 3162 99bc
00000030: fabf efbc 9720 af3d 95bc 063d 0f4f d53d
0.08276294 -0.005353432 -0.0954868 0.084471375 -0.008890708 0.046579316 -0.06557917 0.08637954
0.08141723 0.0025291278 0.094077155 -0.01872358 -0.029266346 0.08551138 0.03289469 0.1041547

conv2.conv1.1.weight f4 [16]
00000000: decb 823f 0b05 7d3f 26af 6d3f d760 903f
00000010: 74b3 7f3f 14ab 833f 8c2c 813f 8702 7a3f
00000020: 33bb 843f ae4b 823f bcc9 803f 6ac4 763f
00000030: f2a4 843f fb95 7a3f 381c 743f d89c 813f
1.0218465 0.9883582 0.9284538 1.1279553 0.998832 1.0286584 1.009172 0.97660106
1.0369629 1.0179346 1.0061564 0.96393454 1.0362837 0.978851 0.9535556 1.012599

conv2.conv1.1.bias f4 [16]
00000000: 10c5 7bba c4e3 853c 983c cbbd 788d c63d
00000010: edf4 87bd 0306 993c 1d06 fd3c ad71 a43c
00000020: 3588 1fbc 6867 043d 2c58 1abc f744 acbd
00000030: 6b00 bc3c 5c27 21bc f9da 81bd 8797 7fbd
-0.0009604255 0.016343959 -0.09923667 0.09694952 -0.06638513 0.018679624 0.030886704 0.020073736
-0.009737064 0.03232518 -0.009420436 -0.084115915 0.022949418 -0.009836044 -0.06340594 -0.062400367

conv2.conv1.1.running_mean f4 [16]
00000000: 5ffa 65bf 49ac ccbe b366 1f3f 1290 7bbf
00000010: 61f3 99bf 917e 49be ee4f 23be c8c3 7e3f
00000020: 17b7 02c0 e53b 4cbe 921f 86be 6144 153e
00000030: b487 d8bf 8637 1dbd c998 afbf 557e b1bf
-0.8983516 -0.39975193 0.6226608 -0.9826671 -1.2027398 -0.19677188 -0.1594846 0.9951749
-2.042425 -0.19944723 -0.2619596 0.14576866 -1.6916413 -0.03838303 -1.3718501 -1.3866678

conv2.conv1.1.running_var f4 [16]
00000000: 477f 8f3f a723 8c3f e48e c23f 619d 913f
00000010: 3997 c23f cdd6 b53f 716d 0840 6eeb 1a40
00000020: 7ae6 b53f 1bdd 813f f8e7 cb3f 1d2c cd3f
00000030: f136 ce3f 1514 053f 72c7 993f d89b 843f
1.1210717 1.094838 1.5199857 1.1376153 1.52024 1.4206177 2.1316798 2.4206195
1.4210961 1.0145601 1.5930166 1.6029087 1.6110517 0.5198377 1.2013991 1.036006

conv2.conv2.0.weight f4 [16, 16, 3, 3]
00000000: a8d5 a3bd 41bd 433c 37c2 de3d cecf bc3d
00000010: 8a70 863e 03e7 bcbd feea 8dbd dfce 06be
00000020: 7b8b 06be 82d0 7d3d 37e4 c83d ec0a 67bd
00000030: daa2 843b a6d7 2a3e bb89 25bd 31f3 073e
00000040: 8bb1 5a3e d309 9b3d e5be 0d3e 64a6 073d
00000050: d916 dbbc 4143 533e ac5e 5bbe bfd0 3e3c
00000060: 29a7 c9bd 8f54 88be 54fa 80bc 7e07 6dbe
00000070: c324 893d c427 23be 9a0e 19be f186 40be
00000080: 174e d43d bc59 653e 4e08 e23d 6d9c 7abe
00000090: 9e6f 01bd 0cac 263d 16b8 5e3b c75e 2c3e
000000a0: 7c7a c73d e6f8 bebb 832e d8bc 8773 923d
000000b0: e6ee d73d 8bf3 31bd 8355 0abd 45c8 babd
000000c0: f9da f63d 6651 9ebd f3fb bb3b c9a2 84be
000000d0: 177c d33c 83ee b13c d51c 2a3d 1040 cfbd
000000e0: 52c9 d03d 096a 4f3d 4967 b4bd 4de8 a8bd
000000f0: ccff 2e3d 0f34 28be f6ac 16be 8b0c 02be
00000100: f9c3 e93d 5db2 e5bd c0e7 32be 4fd0 30be
00000110: 8567 36bc 525d bd3c b1c4 6c3d 4c60 95bd
00000120: b791 8db9 991e 443d 22d2 f3bd 2961 103e
00000130: d646 043e 87b3 72be c949 223e a250 1c3c
00000140: fa0b 0e3d 95aa 32be 3e8a 0a3e 4c0a d73d
00000150: 57c2 07be 3c35 863d e3b5 b1be 3e47 f73c
00000160: a531 30be 718d 8abd a3d7 183e 6ab8 18bd
00000170: e36d 9d3d eb7b d8bc bf19 1d3e e248 913d
00000180: eecf 86bc f2ba 343e ef82 8dbd d75d 83bd
00000190: 8ec1 bfbd 0ffa 19be a04e ce3d 5387 8d3c
000001a0: 6f20 04be 2df5 4bbe d035 bebc 3fbe 6e3e
000001b0: 7cd6 eebc d7d8 463e 1a04 73be d4e3 22bd
000001c0: 3f23 49bb fc13 83be 8e68 fbbd cd8b a63d
000001d0: 04d9 f53c 0afc dc3b ba31 013e 8015 c5ba
000001e0: b8c4 683e 4033 a7bd d7c6 323e e214 e2bd
000001f0: 4245 9abc 3fff 1c3e 050a 293e c246 78bd
00000200: 2547 323d dc2e eebd d98b aa3d a5dd 723d
00000210: 4450 01bd d02c 893e feaa 85bc 7559 9b3d
00000220: 08e4 d43d 396e 1bbe d2d9 1f3e a105 1c3e
00000230: 1483 aebd 0ae0 6c3d 78a7 c6be 8834 323e
00000240: 2764 093e a121 1dbd 7955 cabc c407 813c
00000250: accf dc3e c228 9cbd ac06 cebd 7d33 6d3e
00000260: b7be e2bd 7e9d 84bd 8455 62bd f1a7 80bd
00000270: af4c 3abd 6248 6f3d bea0 3e3c d72f 393e
00000280: 49ce a6bd 1355 85be 2069 90bd 779a 0f3d
00000290: 6f61 16bd 9be9 24be ca2d 3e3b 14dc 67bd
000002a0: 2b2f 09be b2b0 3bbd 5e0a 0f3c 749c 163e
000002b0: 4e92 30be 5941 6cbe 2631 7dbe 92a0 8e3c
000002c0: a0c9 0bbe 31d5 22bc 702e ab3d 4fc9 91bd
000002d0: a1bc 8d3e 4637 fd3d dbb9 7cbc ee60 f83d
000002e0: d712 643e 3e12 223e 42a9 5dbd 04ce 123e
000002f0: c1bf 4abe 2607 59be 74a5 0a3e 391a cb3d
00000300: b2a3 693d 616f 02be 9316 263e 847a 1cbd
00000310: e10e 083d 43ad dd3c 866b e73d b539 b8bc
00000320: 4ccc 4b3e 6c6f a5bd b4a0 923d 0ea0 02be
00000330: 6fd4 83bd fb3c 54be 056b 5dbe 824e 35be
00000340: 4e5f 97be 38c3 d8bd 8b20 953d 37fb b43c
00000350: 299e ce3d 4130 99bc d771 3b3e 3ce0 013e
00000360: 6cd8 163b a7a6 28be ead4 3ebe 0d6d d6bd
00000370: 9585 373e 69c9 41bc bcaf 8a3e 5ab3 373d
00000380: 82d1 bdbc 3b5a ee3d b5c5 a1bd db2c efbd
00000390: 59d1 68bd 69cd 05bd 50e2 84bd 53ad 903d
000003a0: a06c 1abd 6576 03bc fdaa e73c b706 003e
000003b0: df7d 32be decd 943d f78b 59be abdc 8e3d
000003c0: f9e4 453d b8a3 823d 4754 1c3d fad9 9b3d
000003d0: 41e0 403e 5b65 6d3e b23d f73c a561 073e
000003e0: 3ead a4be 93d7 09bd 6d55 febd 6080 acbd
000003f0: d983 133e 3d61 863e f45c a8bd 56e6 3e3e
-0.07999736 0.011946977 0.10876887 0.09219323 0.26257735 -0.092237495 -0.06929587 -0.13164853
-0.13139145 0.061966427 0.098091535 -0.0564069 0.0040477337 0.16683826 -0.040414553 0.13276364
0.2135679 0.07570233 0.13842352 0.033117667 -0.026744293 0.20631124 -0.21422833 0.011646449
-0.098463364 -0.26627013 -0.015744366 -0.2314739 0.06696465 -0.15933138 -0.14946976 -0.18801476
0.10366457 0.22397512 0.1103674 -0.24473734 -0.031600587 0.04069142 0.0033984235 0.1683303
0.09740159 -0.005828011 -0.026389366 0.07150941 0.10543613 -0.04344515 -0.033772957 -0.0912023
0.120534845 -0.07730369 0.005736822 -0.25905445 0.025816007 0.021720177 0.041531403 -0.10119641
0.10194649 0.050638232 -0.088087626 -0.08247433 0.042724416 -0.16426109 -0.14714417 -0.12700097
0.11414332 -0.11215661 -0.17471218 -0.17266963 -0.011133079 0.023115788 0.057804767 -0.07293758
-0.00027002182 0.047880743 -0.11905314 0.14099564 0.12917647 -0.23701297 0.1584846 0.009540709
0.03467939 -0.17447884 0.13529298 0.10500011 -0.13257729 0.065531224 -0.3470908 0.030185338
-0.17206438 -0.06765259 0.14926009 -0.037285246 0.07686975 -0.026426276 0.15341853 0.070939794
-0.01645657 0.17649439 -0.06909739 -0.06414383 -0.093630895 -0.15036796 0.1007359 0.017276442
-0.12902997 -0.19917746 -0.02321902 0.2331476 -0.029155008 0.19418655 -0.23732033 -0.039768055
-0.0030691174 -0.25601184 -0.122758016 0.08132134 0.030010708 0.0067439126 0.12616625 -0.0015036315
0.22731292 -0.08164072 0.17458664 -0.11039139 -0.018831853 0.15331744 0.16507728 -0.060614355
0.04352488 -0.116300315 0.08327455 0.059293408 -0.031570688 0.26792002 -0.016316887 0.07585422
0.10395056 -0.15178765 0.15610436 0.15236522 -0.08521095 0.057830848 -0.38799644 0.17402852
0.13417111 -0.03836215 -0.02469896 0.015750773 0.4312719 -0.076249614 -0.10059866 0.23164172
-0.11071532 -0.06475352 -0.055257335 -0.06282032 -0.045483287 0.05841864 0.011635004 0.18084656
-0.081448145 -0.2604147 -0.07051301 0.03505942 -0.036714014 -0.16104738 0.0029018992 -0.056606367
-0.133969 -0.045822807 0.008730499 0.1470812 -0.17243311 -0.23071803 -0.2472578 0.01741055
-0.13651133 -0.009938524 0.083584666 -0.07118475 0.27682975 0.12364058 -0.015425171 0.12127863
0.22272812 0.15827271 -0.054116495 0.14336401 -0.19799711 -0.21194133 0.13539678 0.09917111
0.057040878 -0.127378 0.16219549 -0.038202778 0.033217315 0.027060157 0.11299805 -0.022488454
0.19902152 -0.08077893 0.07159558 -0.12756369 -0.06437003 -0.20726387 -0.21622856 -0.1770573
-0.295649 -0.1058411 0.07281598 0.022092445 0.100887604 -0.018699767 0.18305145 0.12683195
0.002301718 -0.16469823 -0.18635908 -0.104700185 0.17922051 -0.011827805 0.270872 0.044848777
-0.02317119 0.11638304 -0.07899038 -0.116784774 -0.056840274 -0.032666598 -0.06488478 0.07064309
-0.03770125 -0.008023833 0.028279776 0.12502562 -0.17430829 0.072658285 -0.21244799 0.06975683
0.04831407 0.06378883 0.03816631 0.07609935 0.18835546 0.23183195 0.030180786 0.13220842
-0.32163423 -0.033652853 -0.124186374 -0.08422923 0.14405765 0.26246062 -0.082208544 0.18642554

conv2.conv2.0.bias f4 [16]
00000000: a573 c9bb 9ee9 a53c 0240 a33d ec6e bdbb
00000010: b21c 55bd 5e75 a53a da4f 78bd 5ea0 c13c
00000020: ea2f a43d 30fe 873d 7e2b 7d3d f8af 6e3d
00000030: d9e2 5fbd 9e86 853d 7711 82bd 8508 cebc
-0.006147819 0.020252999 0.07971193 -0.005781045 -0.05202932 0.0012623479 -0.060623027 0.02363604
0.080169514 0.06640279 0.061809056 0.058273286 -0.0546597 0.06519817 -0.063509874 -0.025150547

conv2.conv2.1.weight f4 [16]
00000000: f9d7 783f 1de8 813f b615 8b3f 7454 803f
00000010: 4e1c 823f ea02 7c3f 4181 873f 99a3 7e3f
00000020: 537f 6f3f fedc 793f 5a24 7e3f 07f3 713f
00000030: a53a 893f b198 823f cf29 843f 5be1 733f
0.9720455 1.014896 1.0866001 1.0025773 1.0164888 0.98441947 1.058632 0.9946838
0.93553656 0.9760283 0.9927422 0.94511455 1.0721022 1.0202848 1.0325259 0.9526574

conv2.conv2.1.bias f4 [16]
00000000: 2259 f23b 06e0 8dbc 225f 643d 8c42 f9bb
00000010: d3ab 2f3a 9274 59ba 07e4 fd3d 6572 5fbd
00000020: 4316 28bd 6e3f fc3b 2c2d ae3c c322 14bc
00000030: 728a 843d a902 ba3d 5be4 393c efa4 e8bc
0.0073958794 -0.017318737 0.05575479 -0.00760681 0.0006701324 -0.00082952634 0.123970084 -0.054552455
-0.041036855 0.007697991 0.021261774 -0.009041491 0.06471719 0.09082539 0.011345948 -0.028398959

conv2.conv2.1.running_mean f4 [16]
00000000: 1ed3 b7be 8292 163e 4411 713e 3ada adbf
00000010: 3810 593f a016 7e3f b6e6 1fbf 40ec 29be
00000020: 1148 863e 8990 4abe 7c3c d03f 512f 043f
00000030: 3fb5 59be f0c1 ddbe 8228 88be 565d 73bf
-0.35903257 0.14704326 0.23541743 -1.3582222 0.8479037 0.99253273 -0.6246141 -0.16594028
0.26226857 -0.19781698 1.6268458 0.516347 -0.21260546 -0.43312025 -0.26593405 -0.95064294

conv2.conv2.1.running_var f4 [16]
00000000: bd1a 973f 8925 683f 311d 0940 2fa5 f93f
00000010: 2c00 c73f c2e6 1540 f555 c43f b4c2 ae3f
00000020: 32f1 d63f 5913 9e3f 724e b63f f88c ed3f
00000030: edfa ba3f 61dc 9d3f 29ad 8f3f 16c0 773f
1.1805035 0.90682274 2.1424067 1.9503535 1.5546927 2.3422093 1.5338732 1.3653169
1.6792357 1.2349654 1.424269 1.8558645 1.4607826 1.2332879 1.1224719 0.96777475

conv2.conv3.0.weight f4 [16, 16, 3, 3]
00000000: 735a 563d c9fb c8bc e9c3 443c 5dc1 dc3c
00000010: 738b 9c3d 28eb 5abe d983 08be a206 4b3c
00000020: e550 42bd 0a9d 813c 48ee 38bc 6cab 043d
00000030: 9d4a fcbd 6046 b8bd b925 953d d6c2 a2bd
00000040: 3ecc d3bd 540a 2d3d 3220 82bc 6e6e 64bd
00000050: cfc8 b83d ef2f b63c 8694 013d 9d1d 33bd
00000060: 809d b13d 74dc 3c3d c721 333e 1377 243d
00000070: fd56 4f3d 59e6 a33a be61 303d 1160 3bbd
00000080: e96f bd3c df2a 263e b4c8 903d 097c 93bb
00000090: 0d23 1f3e 08ca c0ba 972d 75be a4ed 323e
000000a0: 73fb d1bd 0759 933c 4c64 653c b3b1 c5bc
000000b0: 62ea 883d 2c77 02be 3b53 febd cfea 8a3d
000000c0: 141f 5abe 5132 c33c 04d2 37be 8ef5 4a3d
000000d0: 3ff0 e03c 2823 233e 21ac 2bbe 91da 42bd
000000e0: 0020 4ebe ea60 7abe 4e04 283d 7229 61be
000000f0: 06b8 45be 52c9 8fbc 1e41 babe a2e8 093e
00000100: 53d6 ce3d 2873 07bd 20c5 1a3e 83c7 f9bd
00000110: 9d2b 18be 5e9f e7bd 0ef3 4d3c e132 343d
00000120: 783f da3d 920d c1bd 6d5d 033d dd8e 81bc
00000130: 73f4 b6bd 0bf8 6d3c 1d25 3fbe 1f27 b3be
00000140: a247 873b 2f8a dabd b37a 13be ab94 87ba
00000150: 7e49 05be 5acc 27bd 5f81 bfbc a557 45bd
00000160: d2d3 9dbd 7ca7 803c 6b7d cc3d 1f8b afbc
00000170: 51df d2bd c3a1 7cbd 4930 313e 0973 503e
00000180: 23df 84be 0254 31be 0609 d63c 9061 8cbd
00000190: cf94 27bd b126 4b3e 5f57 04be 48b3 12be
000001a0: 64b1 fcbd e9b6 2ebe 4a0c ee3d ce6c acbd
000001b0: 5894 9c3d f46e 513d ae2a bfbd 1774 5cbd
000001c0: 1fd1 9b3d a15c d33d b850 fc3d ec42 553d
000001d0: 84c6 593e b978 773d 647a 5d3e 2500 8a3d
000001e0: e5d5 5c3c dbdc f43d 6f2c aabb 52cb e43d
000001f0: 3546 12be 404a d0bd 9dea c6bd 958a 5b3e
00000200: b2a0 053e c07f d73c 0eac fc3c 0ec6 64be
00000210: c988 ee3c af2b 8bbd 88eb 1d3d a60e 333e
00000220: 865f 063d b111 22bd 16fc 9fbd b659 353b
00000230: a2d9 99bd 45e0 c0bd 4731 32bc b9cf 94bd
00000240: 668a 24be 8506 a33d 7a5f 133d d510 933c
00000250: c518 633d d337 153d 721d 15bd 5d75 18be
00000260: 5e81 993c ad8d 693d 519b 2bbd 7415 99bc
00000270: c5fd edbc 8ad1 5ebd 76e1 ca3d d6ff 433e
00000280: 51ee bc3d 670d d03d e4f2 a33c 2f3a 8abe
00000290: babe 143d 527e 263e ec24 8ebd 2c70 2cbe
000002a0: 0a24 c7ba 8cda 4d3d 8482 503e 124a 9dbd
000002b0: 5c6b 353c e003 8c3c 0efd b53d c3ca 753d
000002c0: 6724 77bc bdf6 02ba 2cfe 8dbc 2154 8d3d
000002d0: ce26 0ebe bd4b bdbd ba41 ad3d d9a1 3e3e
000002e0: 41aa 11be b003 693d 5768 24be 0892 453d
000002f0: 165c d23d c6d9 9fbc a049 48bd de85 c0bd
00000300: 75e2 9cbc d33e a13b 213e 03bd 22de 893b
00000310: b11e de3d ed83 1a3e 124e 973d 0443 7ebe
00000320: fe0d 0ebe 072a d5bd 2208 aabd 259b 5dbe
00000330: 7448 033d 9b69 01be f518 20bd 1ffa 403d
00000340: f1ff fb3d 5fbc 783e 091c 5e3e 592a 7ebd
00000350: f35b c33b bf63 cf3d ab63 9dbe 55c9 d4bd
00000360: 8652 063e 089d f33d 2fa7 9c3e 0fda 153c
00000370: 0c9d 383e 120d c03d 984a b6bd 00f1 b73d
00000380: 6444 1c3c 024a 2cbd 4a9d b9bb 17fe 473e
00000390: a0a6 8bba b660 33bd fb64 163d e374 db3d
000003a0: 75e2 07bd e1fa 2dbe f661 b03c 3b6f a4be
000003b0: eaff d5bd 8207 4a3c a523 8cbb cab2 2abe
000003c0: ce1f 463e 3a68 7cbe 2553 3e3c 9e43 d03a
000003d0: 6031 4bbe f163 9b3d 295a d63d fcdc 113c
000003e0: effe 75bd 234b 37be 777a bd3d 674b bd3d
000003f0: 7549 87bc 79e8 53bd 5104 00be d338 2abe
0.052332353 -0.024534123 0.012009599 0.026947672 0.07643785 -0.21378767 -0.13331546 0.012391718
-0.04744043 0.015821952 -0.011287279 0.032390043 -0.12318919 -0.08997798 0.07282586 -0.07947318
-0.103416905 0.042246178 -0.015884493 -0.055769376 0.09022676 0.022239653 0.031635784 -0.043729413
0.08672619 0.046108678 0.17493354 0.04015262 0.050620068 0.0012504562 0.043061964 -0.045745913
0.023124652 0.16227292 0.07069531 -0.00450087 0.15540715 -0.0014708648 -0.23943172 0.17473465
-0.10253038 0.017986787 0.014000963 -0.024132585 0.0668533 -0.12740773 -0.12418219 0.067830674
-0.21300918 0.023827704 -0.17951208 0.049550585 0.027458308 0.1593138 -0.1676488 -0.047571722
-0.20129395 -0.24451032 0.04101973 -0.21988466 -0.1930848 -0.017552052 -0.36377805 0.13467649
0.10099473 -0.033068806 0.1511426 -0.12196257 -0.14860387 -0.11309694 0.012570156 0.043993834
0.10656637 -0.094264165 0.03207152 -0.015815193 -0.08933344 0.01452447 -0.18666501 -0.34990785
0.0041284123 -0.10670888 -0.14402275 -0.0010343989 -0.13016316 -0.04096637 -0.023377119 -0.048179287
-0.07706417 0.015704863 0.09984859 -0.021428643 -0.102965005 -0.061677705 0.17303576 0.20356382
-0.2595149 -0.17317203 0.02612735 -0.06854546 -0.0409134 0.19838978 -0.12923954 -0.14326203
-0.12338522 -0.17061962 0.11623438 -0.0841919 0.07645482 0.051131204 -0.093343124 -0.05382165
0.07608246 0.10320402 0.123200834 0.052065775 0.21267134 0.060417864 0.2162872 0.06738309
0.013478731 0.11956187 -0.005193285 0.11171593 -0.14284594 -0.10170412 -0.09712718 0.21439584
0.13049582 0.026306033 0.03084376 -0.22341177 0.029117959 -0.06795441 0.0385547 0.17486057
0.032805942 -0.039567653 -0.078117535 0.002767188 -0.07512213 -0.09417776 -0.010876006 -0.072661825
-0.1606842 0.07960228 0.035979725 0.017952362 0.055443544 0.03643019 -0.036405034 -0.1488852
0.018738445 0.05701988 -0.04189617 -0.018686987 -0.02905167 -0.05439905 0.099062845 0.19140562
0.09225143 0.10158806 0.02001328 -0.26997516 0.036314704 0.16259125 -0.06940636 -0.16839665
-0.0015193236 0.05025725 0.20362288 -0.076801434 0.01107296 0.017091691 0.08886157 0.06000782
-0.015084363 -0.00049958733 -0.017333113 0.06900812 -0.1388199 -0.092429616 0.08459802 0.18616427
-0.14225103 0.056888282 -0.16055427 0.04823497 0.1027147 -0.019513022 -0.04889834 -0.09400533
-0.019150952 0.0049208193 -0.032041673 0.0042073885 0.10845698 0.15089388 0.073879376 -0.24830252
-0.13872525 -0.10408407 -0.083023325 -0.21641214 0.03205152 -0.12637942 -0.0390863 0.047113534
0.12304676 0.24290608 0.21690382 -0.062052105 0.005961889 0.10126447 -0.30740103 -0.103899635
0.13117418 0.11895186 0.305963 0.0091462275 0.18028659 0.09377493 -0.089009464 0.08981514
0.00953779 -0.042062767 -0.0056645023 0.19530521 -0.0010654517 -0.043793403 0.036717396 0.10715654
-0.03317495 -0.16990234 0.021531086 -0.32116112 -0.10449202 0.012330892 -0.00427671 -0.16669765
0.1934807 -0.24649134 0.011616503 0.0015889292 -0.19843054 0.07587422 0.104664154 0.008902784
-0.060057577 -0.17899756 0.09251874 0.092428975 -0.01651452 -0.051735375 -0.12501647 -0.16623239

conv2.conv3.0.bias f4 [16]
00000000: a88b 88bc 28f5 323d 9ae5 4ebd 1db0 22bd
00000010: 6715 a13d bed8 043c 2fc6 a4bd 8216 073c
00000020: 7be1 6dbd adab 2c3d a0da 2d3c 62ba 9a3d
00000030: 4386 5a3c dfbf 763d bca1 9e3d 4225 9e3d
-0.016668156 0.04369083 -0.050511934 -0.039718736 0.0786541 0.008108316 -0.08045613 0.008245112
-0.058076363 0.04215591 0.010611206 0.07555081 0.013337675 0.060241576 0.07745692 0.0772195

conv2.conv3.1.weight f4 [16]
00000000: 5784 853f 36f8 873f 16fb 7d3f 8aad 723f
00000010: 0a46 7d3f 5a8f 833f d471 843f bb4d 603f
00000020: 87b3 843f 053f 853f 9a9a 7b3f c91f 873f
00000030: e4cc 6e3f 9f44 653f 041b 863f f027 863f
1.0431012 1.0622623 0.9921125 0.9479605 0.98934996 1.0278122 1.0347238 0.8761861
1.0367287 1.0409857 0.9828278 1.0556575 0.9328139 0.8955783 1.0476995 1.0480938

conv2.conv3.1.bias f4 [16]
00000000: 7096 c8ba bab3 883d 7068 2bbd e895 043c
00000010: 3a58 81bd 3e33 ee3c 40d8 c63c d5c4 21bc
00000020: dbc3 9b3c 7b0e be3c 18fa f3bc ef6a 6e3c
00000030: 68d3 61bc 7d66 b4bb 8692 60bc 8b98 b93c
-0.0015303623 0.06674905 -0.041847646 0.008092381 -0.06315656 0.029077169 0.024273038 -0.009873589
0.01901429 0.023200264 -0.02978234 0.014551862 -0.013783313 -0.0055053816 -0.013706809 0.022655746

conv2.conv3.1.running_mean f4 [16]
00000000: 136c 65bf 247d 0e3f 7617 b23f 3165 983c
00000010: d7dd 89bf 2819 af3d 2e01 85bd 4a03 91be
00000020: 481d 86bf 399c b7bf f45b ab3f 8698 e83e
00000030: ed4d 413e 7d40 a23d 012b 2cbd 84c9 cc3f
-0.89618033 0.556597 1.391341 0.01860294 -1.0770825 0.0854972 -0.06494366 -0.28322822
-1.0477686 -1.434455 1.3387437 0.45428866 0.18877383 0.079224564 -0.0420332 1.5998998

conv2.conv3.1.running_var f4 [16]
00000000: 6961 a13f e4ad c63f 58d1 1240 fe4f 8d3f
00000010: 4226 d63f 04ef d53f 9f4e 8b3f c099 0c40
00000020: a954 da3f a020 8d3f 8b77 563f 8bd5 a73f
00000030: 0704 9a3f ffb8 f13f bd44 0e40 0268 3c40
1.2607852 1.5521817 2.2940273 1.1040037 1.6730425 1.6713567 1.0883368 2.1968842
1.7057086 1.1025581 0.8377616 1.3112043 1.2032479 1.8884581 2.2229455 2.9438481

conv3.conv1.0.weight f4 [32, 16, 3, 3]
00000000: e97c dfbb 97f1 3cbd 896d c93c 3114 9a3d
00000010: 2b86 523d 81d8 1cbe abe2 e0bd 0d64 60be
00000020: ad9b c1bc afd1 863d d4bf 403e b4f2 18be
00000030: 9c5b 293d 0a47 df3b 23d2 ee3d 5397 22bc
00000040: 7301 a73d 404e d1bd 4ffe 053c 97e4 32bc
00000050: f117 953d 1ee2 08bd 5b01 463d 6d15 55be
00000060: 25af 6dbc 6ab5 e6bc f63f b33d 554f 8fbd
00000070: 521f 0ebe 2de4 89bd 7d00 8bbd 5e15 66be
00000080: 665c 5ebd 91fe 9f3c 5187 9ebd adf7 0fbe
00000090: 6f3f ec3d 80ec c6bd 6e4b 883d d94a b0bc
000000a0: 4f5b 443e f928 17be 640f 853d 00d3 b83c
000000b0: f385 f23c 67bb 3c3e 8946 353e 607b 70be
000000c0: 5c76 b53d 073e b63d 9c17 df3d b72f fe3d
000000d0: 6dce 373b ef37 443e 37c7 aabd b91d 113e
000000e0: fd86 2bbe bb5e 6abc 3a63 9abd 5283 b4bb
000000f0: 8297 d13a cb9f bf3e 21a8 c6bd 708e 93bd
00000100: cb7e e13c 881f c93b 8a3f 48be 6a8e 453c
00000110: aa5f cb3c 0eb6 c9bd 3385 403e d5ae 023c
00000120: 2823 5fbe 3b44 4fbd f5fa c63d 3ab1 01be
00000130: 567b 913c abfd 6bbe 31ab 1a3d 7f79 c6bc
00000140: 2258 1dbd e48a a9bd 4c2b a2bd 47cd 39bd
00000150: edd0 0abe 4bbc a73d 6730 a5bd 4923 d63d
00000160: 1ea6 b43d f933 123e c247 933d b2bc 6f3e
00000170: 6e75 963e 26d4 bc3d cf23 5abc 727b 5fbc
00000180: 7b80 0bbe 6aec 623d 111d babc 9b4f 9ebe
00000190: 96f3 ca3d e2af e6bd 0e85 cc3d ce42 c6bd
000001a0: b40a 90bc 244c 2abd dc08 8d3d 5ba9 e43c
000001b0: 06bc fa3c 308b 623d 9918 0abd 9b9b eb3d
000001c0: 3230 f53c c31c 413e 1a47 7dbd 466c ce3e
000001d0: fffa aa3c 086a f3bd 4763 fd3d dfe5 cbbd
000001e0: 3c4f b43d efd9 26bd 7a8a 7f3d 55f2 bcbc
000001f0: 72c9 84bb a9c1 e23d e3ed 1e3e b918 cebd
00000200: 1244 59bd cc61 a23c 3a98 ebbc c4ac 59bd
00000210: 1336 2abd a10d 37be 47f8 06be 98d0 ca3b
00000220: 3e61 293e 944c 8fbd ba43 58be a14d d2bd
00000230: 2bb7 a93e baed 2f3d cc28 0f3d e11a 003e
00000240: 4c1f 5fbd 39d3 ad3b 31c9 5fbd 3dd6 0fbc
00000250: 5c12 eb3c 7f1e c13d 8da3 a43d 1a65 4ebe
00000260: 822d 6ebd 83ac 6fbd c10f 5b3b 8d58 ae3d
00000270: 3bd4 41be 17db 2ebd 7153 963d f1a0 50be
00000280: e773 113e 481e 143e bd64 7e3e 2361 293e
00000290: 8150 29bd e6be 1a3c 29c5 223e d659 5fbe
000002a0: 0cfd f23d 560e 0a3d 67b6 98be 59e3 1c3e
000002b0: eff6 0dbe 78e3 32bc 8c66 873d fbdb 893c
000002c0: fc42 9abd 2987 7e3d 1291 9fba 40f3 3c3e
000002d0: 310f 983d 36a3 693d 7b6b 36be f177 193e
000002e0: dd5f c7bd b93c 383c b008 423e b32d 473e
000002f0: 6cdd 6ebd 50e0 5b3e 3897 7abe 804b 41bd
00000300: e940 edbd 9191 9e3d c0c6 d13d f0b6 b13d
00000310: 2ed3 49be 4e97 ae3d b630 d5bd d348 f0bc
00000320: d912 4ebe 52f5 d8bc 7a6d 253c 3cd0 993d
00000330: c23f 4fbe 3758 e8bd d2e8 773d 3ce6 19be
00000340: bc2f bdbe 51bf 963d a263 a3bd 14e6 8d3e
00000350: ca24 143e 7e57 2e3b 8506 693d 4353 84bd
00000360: b040 f0bb 6583 ca3d ad5d 01be 284c 56bd
00000370: 054b 49bd 58e2 703b 1536 173e 39ef a5bd
00000380: 5a98 5739 7ede d53d 05d1 79be b316 763d
00000390: 15a5 87be d155 1ebe 1e33 a4bd 53c9 e73c
000003a0: 91d5 163e 4fbc db3c eeba e2bd 764e 06be
000003b0: 291e b8bd aff6 6c3d c347 d4bd bd70 24bb
000003c0: 6a1b 063e d2bc 283e 7e75 96bc f69c 0c3d
000003d0: d03c a03c 01be 1dbe 04de 29be 65ba 0d3d
000003e0: 7669 4bbe e01a 9fbc 2a19 ccbc b4f7 11bd
000003f0: 5fdf a3bd fe63 8ebd dbb7 12be 411a 303c
-0.0068203104 -0.046128836 0.024588363 0.075233825 0.051397484 -0.15316965 -0.109807335 -0.21913166
-0.023633802 0.06582963 0.18823177 -0.14936334 0.04134713 0.0068138884 0.11661174 -0.009923774
0.08154573 -0.10220003 0.008178308 -0.010918758 0.07279957 -0.033418767 0.048341136 -0.20808955
-0.01450709 -0.028162677 0.08752434 -0.06997553 -0.13879135 -0.06732974 -0.067872025 -0.22469088
-0.054287337 0.019530566 -0.07740653 -0.14059325 0.115355365 -0.097130775 0.06655012 -0.021520065
0.19175456 -0.14761724 0.06497076 0.02256155 0.029604888 0.18430863 0.17702688 -0.23484564
0.08860466 0.088985495 0.10893175 0.12411445 0.0028046623 0.19161962 -0.083387785 0.14171495
-0.16750713 -0.014304812 -0.07538457 -0.0055088187 0.0015990587 0.374266 -0.09700037 -0.07204902
0.02752628 0.006137792 -0.19555488 0.01205788 0.02482589 -0.09849177 0.18800811 0.0079762535
-0.21790755 -0.05060218 0.09715835 -0.12665263 0.017759006 -0.23045985 0.037760917 -0.024227856
-0.038414128 -0.082784444 -0.079184145 -0.045361783 -0.13556261 0.08190211 -0.08065873 0.10455949
0.08820747 0.14277638 0.07191421 0.23411825 0.29386467 0.092201516 -0.0133142015 -0.0136402715
-0.1362323 0.055401243 -0.022718938 -0.3092011 0.099097416 -0.11264016 0.09986316 -0.09680711
-0.017583229 -0.04157652 0.068864554 0.027912786 0.030607235 0.05530852 -0.033714864 0.11504289
0.029930208 0.18858628 -0.061835386 0.4031698 0.020871637 -0.11885458 0.12372451 -0.09955954
0.08804175 -0.04073518 0.06238792 -0.023064772 -0.0040523345 0.11072094 0.15520434 -0.10063309
-0.053043433 0.019822024 -0.02875911 -0.053143278 -0.041555475 -0.17876293 -0.13180648 0.006189417
0.16541001 -0.06997028 -0.21119586 -0.10268713 0.3314756 0.042951323 0.034951016 0.12510253
-0.054473206 0.0053047207 -0.05463523 -0.008779106 0.028695278 0.09429645 0.08039007 -0.20155755
-0.05814887 -0.05851413 0.0033426138 0.085129835 -0.18928616 -0.04268941 0.07340134 -0.20373894
0.1420437 0.14464676 0.24843116 0.16540961 -0.04133654 0.009444928 0.15895523 -0.21811613
0.11864671 0.033705078 -0.29826662 0.15321101 -0.13863729 -0.010918491 0.06611356 0.016828528
-0.075323075 0.062140618 -0.0012173972 0.18452168 0.074247725 0.057040416 -0.17814438 0.1498716
-0.09735081 0.011244946 0.18948627 0.19451027 -0.058316633 0.21472287 -0.24471748 -0.047191143
-0.11584646 0.07742608 0.10242987 0.08677471 -0.19709465 0.08524953 -0.104096815 -0.0293316
-0.20124377 -0.026484165 0.010096902 0.07510421 -0.20239165 -0.11344951 0.06052477 -0.15029234
-0.3695048 0.073607095 -0.07977988 0.27714598 0.14467159 0.0026602442 0.056890983 -0.064611934
-0.00733193 0.09888343 -0.1263339 -0.052318722 -0.04914381 0.0036756005 0.14766724 -0.08102269
0.00020560753 0.10442828 -0.24396141 0.06008024 -0.26493135 -0.15462424 -0.08017562 0.028294241
0.14729907 0.026823191 -0.1107081 -0.13115868 -0.089901276 0.057852443 -0.1036525 -0.0025091611
0.13096395 0.16478279 -0.018366572 0.034329377 0.019560248 -0.15404512 -0.16588598 0.034601588
-0.19864449 -0.019421995 -0.024914343 -0.03563662 -0.08001589 -0.06952666 -0.14327948 0.010748447

conv3.conv1.0.bias f4 [32]
00000000: 0fe3 60bd 648c 5bbd 5642 983c bd43 a1bd
00000010: 5cfb 66bd 9988 0cbd cc24 22bd 2c38 0f3d
00000020: 7829 803d f889 893d eaf0 113d 3e6b 96bd
00000030: ce99 9b3d 7c87 373b 2a7c 7ebc dfa2 7e3d
00000040: aff3 d83c 4cd1 35bd 5778 1a3c f36b 3b3d
00000050: ac2d 013d 9325 a73d 0926 b4bb 9b91 fa3c
00000060: ebcb 49bd c599 aabd dfb1 333d b7b7 10bc
00000070: ae45 91bd 525b 7e3c d52e a63d 9442 ef3c
-0.05490404 -0.053600684 0.018586319 -0.07874248 -0.05639206 -0.034309957 -0.039585873 0.03496568
0.062579095 0.067157686 0.035630144 -0.073446736 0.07597695 0.002800434 -0.015532533 0.062167045
0.026483385 -0.044389054 0.009428105 0.045757245 0.031537697 0.081614636 -0.005497698 0.030587008
-0.049266737 -0.083301105 0.043870803 -0.0088328635 -0.070933685 0.015524702 0.08114401 0.029206552

conv3.conv1.1.weight f4 [32]
00000000: e1a1 733f 9758 843f 4e5c 7b3f 48d9 7b3f
00000010: f487 863f d6b9 723f 461d 843f a777 773f
00000020: 2af2 853f f0b6 713f 2c37 7d3f e478 7c3f
00000030: 83c6 813f c7e5 743f 3925 833f 7ee5 853f
00000040: 4dbd 783f 9d0c 7a3f 484c 813f fc01 843f
00000050: 4379 813f 1cdd 853f 8156 6f3f 0c9a 8a3f
00000060: 2c9a 803f dfdb 783f 4a80 773f 7650 813f
00000070: 9dbe 813f f76f 743f 20a9 883f a5ad 8c3f
0.9516888 1.0339535 0.9818772 0.9837842 1.051024 0.94814813 1.0321434 0.9666695
1.0464528 0.94419765 0.9891231 0.98621964 1.0138706 0.9566311 1.0245734 1.046066
0.9716385 0.97675496 1.0101404 1.0313106 1.0115131 1.0458102 0.9349137 1.0828261
1.004705 0.97210497 0.9668013 1.010268 1.0136296 0.95483345 1.0676613 1.0990492

conv3.conv1.1.bias f4 [32]
00000000: 4dc2 3cbd 048b 703b efcb 9f3c 9909 563c
00000010: 023f 573d 6717 27bd 9dbe 2fbc 97ee 54bc
00000020: c910 6b3d 38d6 fcbb ad19 4bbc c363 cfbb
00000030: 68d8 293d 5756 79bd c517 9239 c2b8 503d
00000040: 8ef3 b4bc 9139 0bbd 6cee e83c 4185 d7bc
00000050: ff8f 08bd d2e8 8a3c 46c8 20bd 82f2 26bb
00000060: 1c97 c33c 193a 3ebd 0496 8abd 9d87 9f3b
00000070: 721e 16bc 9c80 2cbd 538c babc 0293 0a3d
-0.046083737 0.0036703954 0.019506423 0.013063812 0.052550323 -0.040793803 -0.010726598 -0.012996337
0.057389054 -0.0077159666 -0.012396258 -0.006329031 0.041466147 -0.060873356 0.00027865 0.05095745
-0.022088792 -0.033990446 0.028434 -0.026308658 -0.03334045 0.01695672 -0.039253496 -0.0025474136
0.023875766 -0.046442125 -0.067668945 0.0048684613 -0.009162532 -0.04211484 -0.02277199 0.033831604
