checkpoints/ifind1_sononet_8_andi/005_net_emb_010_from_50.pth (torch_old, 671523 bytes, 90 tensors)

conv1.conv1.0.weight f4 [8, 1, 3, 3]
0.23923372 0.22543047 0.3500901 -0.21208596 0.4975592 -0.3652293 0.11222359 0.677907
-0.979229 0.5134905 -0.7606026 -0.35867274 0.19694355 0.51849604 -0.20138991 0.18750045
0.19467488 0.3096552 -0.9920891 -0.390893 0.39678118 0.11329604 0.07957663 -0.2768101
-0.62570435 0.10928646 -0.9839097 -0.65379024 0.37566018 -0.11351102 -0.2655262 -0.82149094
-0.44096187 0.03148438 -0.32912233 0.30062166 -0.97974956 -0.16566329 -0.2449182 0.23110303
-0.46849728 -0.7395455 0.7253765 0.06561586 -0.8269525 -0.35633892 -1.0115974 -1.0290853
-0.077048875 -0.40542972 -1.1704625 -0.4944081 0.23444484 -0.44920886 0.42103726 -0.6575109
-0.23039918 -0.31759483 0.9199285 -0.07131434 0.5042407 0.10934248 0.32898185 0.32814288
0.086838886 0.21883081 -0.10960763 -0.3716463 -0.97739434 0.10700357 -0.29027596 0.5498777
00000000: aff9 743e 3fd7 663e 023f b33e 102d 59be
00000010: 14c0 fe3e 56ff babe 7bd5 e53d 508b 2d3f
00000020: c0ae 7abf 1d74 033f dab6 42bf f4a3 b7be
00000030: 92ab 493e 28bc 043f 2839 4ebe 1e00 403e
00000040: da58 473e 208b 9e3e 8df9 7dbf 2123 c8be
00000050: e726 cb3e c107 e83d 12f9 a23d 0eba 8dbe
00000060: 292e 20bf 94d1 df3d 82e1 7bbf cc5e 27bf
00000070: 8856 c03e 7778 e8bd 0df3 87be 3b4d 52bf
00000080: c1c5 e1be c4f5 003d b982 a8be 15eb 993e
00000090: ded0 7abf a3a3 29be d6cb 7abe 46a6 6c3e
000000a0: e0de efbe db52 3dbf 46b2 393f 9c61 863d
000000b0: 29b3 53bf 0e72 b6be 067c 81bf 11b9 83bf
000000c0: cdcb 9dbd 7c94 cfbe b7d1 95bf 0f23 fdbe
000000d0: 4f12 703e b4fe e5be 3292 d73e a252 28bf
000000e0: c3ed 6bbe ca9b a2be 6f80 6b3f 410d 92bd
000000f0: eb15 013f f3ee df3d 4f70 a83e 5802 a83e
00000100: 96d8 b13d 2f15 603e f779 e0bd 6d48 bebe
00000110: 8436 7abf b024 db3d 0d9f 94be c9c4 0c3f

conv1.conv1.0.bias f4 [8]
-0.18793294 -0.26051039 0.21068093 0.31047684 0.19389649 0.21854751 -0.10715956 -0.11423379
00000000: 7e71 40be 9e61 85be bebc 573e d2f6 9e3e
00000010: cd8c 463e ebca 5f3e 7976 dbbd 68f3 e9bd

conv1.conv1.1.weight f4 [8]
1.0038769 0.9845253 0.9438075 1.076206 1.0269177 0.94597876 0.9494493 1.0843569
00000000: 0a7f 803f da09 7c3f 5e9d 713f 1ec1 893f
00000010: 0a72 833f aa2b 723f 1c0f 733f 35cc 8a3f

conv1.conv1.1.bias f4 [8]
0.039270274 0.124787234 -0.030280825 0.13637024 0.13381384 0.093664885 0.028508015 0.120689794
00000000: ded9 203d 7390 ff3d 7e0f f8bc a4a4 0b3e
00000010: 7f06 093e 60d3 bf3d a489 e93c 362c f73d

conv1.conv1.1.running_mean f4 [8]
-0.19118775 -0.25816575 0.20428002 0.30829838 0.18985718 0.21034984 -0.10443946 -0.11417451
00000000: b9c6 43be 4d2e 84be c82e 513e 49d9 9d3e
00000010: ec69 423e f365 573e 5be4 d5bd 53d4 e9bd

conv1.conv1.1.running_var f4 [8]
0.36103046 0.4601553 6.1389465 3.565591 5.5994596 21.47777 1.0735153 0.27891302
00000000: fcd8 b83e 7a99 eb3e 4072 c440 a532 6440
00000010: c62e b340 79d2 ab41 f368 893f b0cd 8e3e

conv1.conv2.0.weight f4 [8, 8, 3, 3]
0.14320038 -0.2581985 -0.48526078 -0.020225506 0.35790664 -0.17782137 0.1736818 -0.042496618
0.14365992 -0.018798795 -0.25708878 0.042112265 -0.08854961 -0.15365367 -0.0814291 -0.32509753
0.16848727 -0.08960428 0.0017358144 -0.27873117 0.14918616 0.2653468 0.06282651 0.08612865
0.18668571 0.23669323 0.082116514 -0.09127168 -0.14177789 -0.24230114 0.32152152 -0.104724795
-0.056915272 0.2872186 0.11838573 -0.021969635 0.05332348 -0.04622207 -0.2543069 -0.18752266
0.08968159 -0.23566307 0.08740779 0.17374788 -0.2439292 -0.08427131 -0.19843298 0.088992335
-0.19997033 0.03234466 -0.22061181 0.2489184 0.20004696 -0.09242844 0.08136903 -0.19471365
-0.33501127 -0.10634117 -0.059984192 -0.11956316 -0.098022535 0.13100335 0.20754077 -0.051630367
-0.11509693 -0.08898023 -0.26889572 -0.15146028 0.18220182 0.39854613 0.044985674 -0.16365206
-0.029795296 -0.024242809 -0.23013163 -0.1845888 0.16503717 -0.20636994 0.20137827 0.13039505
0.20175062 0.016151743 -0.098151475 -0.052239615 -0.22414322 -0.091125675 0.036448967 0.07572222
0.15885243 -0.013299869 0.1587231 -0.09493863 -0.21012387 -0.07305195 0.2297227 -0.07841479
-0.106876075 -0.09516931 -0.03971329 0.2505 0.24790703 -0.0731409 0.009194537 0.078189485
0.037431102 -0.22151497 -0.07232446 0.0556731 0.10517717 0.05759913 0.03132821 -0.13954677
0.17468049 0.13874151 -0.19679944 -0.071162105 -0.03363449 0.15216362 0.011522824 0.033804644
-0.20224051 0.07964331 -0.0041958904 0.20999418 0.15971683 -0.048093896 -0.08873511 0.08081514
-0.06872415 0.06052649 0.036445163 0.02877395 -0.26000032 0.036622617 -0.24146064 0.09361535
0.20704038 0.35199547 0.009092108 0.08563324 -0.1324336 -0.14442855 0.10186086 -0.19959171
-0.0334989 -0.03701025 0.27117637 0.06328144 0.14212224 0.017794432 -0.11869552 0.064132884
-0.22941104 0.19828887 -0.37830475 -0.13944788 0.19741803 0.09083025 0.027156599 0.164946
0.16687599 0.0819566 0.27793303 -0.038316973 -0.061902974 0.13511305 0.025331484 -0.08161611
0.03846772 0.25962883 0.3035925 0.19157511 -0.058784686 -0.049770556 0.17893083 0.20574632
-0.08210168 0.30131412 -0.16411921 0.30902955 0.06242295 -0.29366863 0.13393502 0.13934469
0.07313941 0.20030102 0.019282963 0.068557054 0.34603012 0.027935164 -0.09207768 0.14512385
-0.12499039 -0.15146178 -0.1581438 0.18858522 0.37408915 -0.2790617 0.15464254 0.07855196
-0.18896697 0.25958836 -0.0074631767 0.33481935 0.20587634 0.26996687 -0.015991246 0.08612766
0.009923769 0.0198555 0.018587053 0.094942436 0.10110587 0.029007599 0.10972088 0.22478804
0.12339126 0.46447587 0.2767175 0.262929 0.03404522 -0.210651 0.02807962 0.14908819
-0.22008078 -0.003792585 -0.15451114 -0.20871359 -0.115609735 0.3694372 -0.0974683 -0.023410367
0.032295942 -0.1478652 -0.22787637 -0.11102981 -0.1279585 0.42305505 0.004968274 0.18134987
0.2842845 -0.10007182 -0.36330348 0.007764079 0.09353077 -0.26330978 0.051132776 -0.04132438
0.06000396 0.0026414052 -0.13439329 -0.011580424 -0.009837267 -0.2838031 -0.49262565 0.053861912
00000000: 1fa3 123e 9832 84be 1a74 f8be f6af a5bc
00000010: 8a3f b73e ce16 36be a4d9 313e ef10 2ebd
00000020: 961b 133e eeff 99bc 24a1 83be e97d 2c3d
00000030: 7f59 b5bd 6357 1dbe 4dc4 a6bd 2f73 a6be
00000040: ed87 2c3e 7382 b7bd 4484 e33a dab5 8ebe
00000050: 42c4 183e 89db 873e 2fab 803d 3864 b03d
00000060: 8a2a 3f3e b65f 723e b42c a83d a6ec babd
00000070: 392e 11be ca1d 78be 789e a43e f479 d6bd
00000080: fd1f 69bd 510e 933e 3874 f23d aaf9 b3bc
00000090: b969 5a3d 5a53 3dbd 8434 82be f105 40be
000000a0: fbaa b73d a951 71be db02 b33d f7ea 313e
000000b0: 94c8 79be 7096 acbd 0432 4bbe 9d41 b63d
000000c0: 06c5 4cbe d67b 043d 10e8 61be 77e4 7e3e
000000d0: 1cd9 4c3e 1f4b bdbd cea4 a63d 0463 47be
000000e0: 9986 abbe 66c9 d9bd fcb1 75bd 88dd f4bd
000000f0: 0ac0 c8bd be25 063e 9185 543e 5d7a 53bd
00000100: f0b7 ebbd 443b b6bd b3ac 89be 6718 1bbe
00000110: 1d93 3a3e 3d0e cc3e e642 383d 6894 27be
00000120: 4415 f4bc db98 c6bc a0a7 6bbe d904 3dbe
00000130: 81ff 283e a452 53be 1b36 4e3e 4886 053e
00000140: b797 4e3e a950 843c a403 c9bd 35f9 55bd
00000150: cd85 65be 19a0 babd 834b 153d 4014 9b3d
00000160: 36aa 223e b2e7 59bc 4f88 223e 2f6f c2bd
00000170: b62a 57be 439c 95bd 6d3c 6b3e ef97 a0bd
00000180: d8e1 dabd 21e8 c2bd 67aa 22bd 8941 803e
00000190: 57db 7d3e e5ca 95bd afa4 163c cf21 a03d
000001a0: 5b51 193d d2d4 62be d91e 94bd 7a09 643d
000001b0: 2167 d73d 11ed 6b3d 0252 003d 59e5 0ebe
000001c0: 71df 323e 4112 0e3e cb85 49be 70bd 91bd
000001d0: 52c4 09bd c8d0 1b3e 3aca 3c3c bd76 0a3d
000001e0: 2318 4fbe 081c a33d ae7d 89bb b708 573e
000001f0: cf8c 233e 1bfe 44bd c1ba b5bd 6882 a53d
00000200: 3fbf 8cbd a0ea 773d 8647 153d 59b7 eb3c
00000210: c31e 85be 9901 163d 7541 77be 68b9 bf3d
00000220: 6502 543e c038 b43e 11f7 143c 7b60 af3d
00000230: ac9c 07be 14e5 13be 6d9c d03d c561 4cbe
00000240: 2436 09bd 0f98 17bd a1d7 8a3e b399 813d
00000250: 7e88 113e a1c5 913c a316 f3bd 1a58 833d
00000260: baea 6abe 3d0c 4b3e 29b1 c1be 6dcb 0ebe
00000270: f427 4a3e 3605 ba3d 8477 de3c 9be7 283e
00000280: 8ae1 2a3e ddd8 a73d 3d4d 8e3e 42f2 1cbd
00000290: f98d 7dbd 135b 0a3e f983 cf3c 5926 a7bd
000002a0: 5490 1d3d 12ee 843e 7a70 9b3e 442c 443e
000002b0: 36c8 70bd 36dc 4bbd a539 373e 2aaf 523e
000002c0: ed24 a8bd d845 9a3e de0e 28be 1f39 9e3e
000002d0: 35af 7f3d bc5b 96be 4326 093e 60b0 0e3e
000002e0: 1dca 953d b61b 4d3e 4ef7 9d3c a467 8c3d
000002f0: dc2a b13e 49d8 e43c 3993 bcbd 599b 143e
00000300: f6fa ffbd cc18 1bbe 73f0 21be 7c1c 413e
00000310: 9d88 bf3e 2de1 8ebe 9d5a 1e3e dadf a03d
00000320: 8f80 41be c4e8 843e aa8d f4bb 716d ab3e
00000330: 3fd1 523e 1939 8a3e 1300 83bc b363 b03d
00000340: 4e97 223c 00a8 a23c e043 983c 2e71 c23d
00000350: 9810 cf3d 58a1 ed3c 57b5 e03d d62e 663e
00000360: 8fb4 fc3d c8cf ed3e ebad 8d3e a19e 863e
00000370: 0073 0b3d e5b4 57be 3b07 e63c 93aa 183e
00000380: db5c 61be 058d 78bb 2b38 1ebe 04b9 55be
00000390: ccc4 ecbd df26 bd3e 769d c7bd 19c7 bfbc
000003a0: c048 043d fa69 17be 6c58 69be 9963 e3bd
000003b0: 8e07 03be ac9a d83e e7cc a23b c8b3 393e
000003c0: bd8d 913e 74f2 ccbd ea02 babe d169 fe3b
000003d0: 0f8d bf3d 8ad0 86be 9a70 513d c143 29bd
000003e0: b6c6 753d 6d1b 2d3b 659e 09be d2bb 3dbc
000003f0: 7d2c 21bc a44e 91be 6e39 fcbe 4f9e 5c3d

conv1.conv2.0.bias f4 [8]
-0.04208378 0.03980384 0.05228871 0.054611523 -0.096118204 -0.11040618 -0.10481447 -0.024015972
00000000: 0b60 2cbd 5a09 233d b02c 563d 55b0 5f3d
00000010: 9fd9 c4bd a31c e2bd f8a8 d6bd 25bd c4bc

conv1.conv2.1.weight f4 [8]
0.9858709 1.0433795 1.0121615 1.0550964 0.9947757 0.9492454 0.9541497 1.011735
00000000: 0962 7c3f 768d 853f 828e 813f 660d 873f
00000010: 9fa9 7e3f bf01 733f 2843 743f 8880 813f

conv1.conv2.1.bias f4 [8]
-0.055162054 0.041904733 -0.11743198 0.0044547226 0.027901461 -0.015575289 -0.0869163 -0.016002772
00000000: 9bf1 61bd 4ca4 2b3d 2e80 f0bd ecf8 913b
00000010: 9b91 e43c 7f2f 7fbc 2c01 b2bd 3f18 83bc

conv1.conv2.1.running_mean f4 [8]
-0.83709353 0.24034747 2.1965294 -1.1956949 -1.3165658 -0.08430584 -0.6347313 0.62285274
00000000: c34b 56bf a61d 763e f093 0c40 880c 99bf
00000010: 3a85 a8bf 8aa8 acbd c07d 22bf 4773 1f3f

conv1.conv2.1.running_var f4 [8]
0.808464 0.5551902 1.3510925 2.937451 3.3581975 1.6821709 0.47767648 0.9818857
00000000: 7ff7 4e3f f220 0e3f 99f0 ac3f 32ff 3b40
00000010: b5ec 5640 6051 d73f 0392 f43e dc5c 7b3f

conv1.conv3.0.weight f4 [8, 8, 3, 3]
0.25223306 -0.15805914 -0.35451415 -0.057022933 0.039348237 -0.14403553 0.46269777 0.0794317
-0.32082808 0.025476571 0.0527072 -0.078113995 0.46283293 -0.36272773 -0.11164354 -0.14264736
-0.109020665 0.23797573 -0.23543267 -0.18669973 0.018453388 -0.013592974 0.19220534 -0.09994985
0.07368049 -0.007816509 -0.1844617 -0.045028128 0.33424398 0.087346174 0.13219106 -0.008912476
-0.09114356 -0.057330295 -0.07221016 0.16239026 -0.040812615 0.014894501 0.16320583 0.347819
0.26742953 0.40179944 0.14085396 -0.27928105 0.16731353 0.35037217 -0.030910904 0.15924016
-0.12366574 0.04243475 -0.009490103 0.17661417 0.4485576 0.014038922 0.19560155 -0.1823308
-0.047177296 -0.101468645 0.036839414 -0.08073072 -0.26924965 -0.19705735 -0.11383436 0.06657098
-0.16045147 0.08160065 0.286819 -0.24109927 0.0546482 -0.10587608 -0.087668374 -0.23239851
0.027734227 0.101727515 0.18772407 0.04644384 0.21270186 -0.027714424 0.055641975 -0.018764598
0.12901132 -0.08054174 -0.17985682 -0.08373081 -0.41074872 0.066209845 0.3433842 0.09834279
-0.05210411 -0.0072986796 -0.27729312 -0.255866 -0.10950262 -0.031997908 -0.20442925 -0.045077153
0.21634279 0.23649316 0.08482994 -0.18498884 -0.08725763 0.027684052 -0.1481934 -0.15731993
-0.21112028 0.2861032 -0.27188134 -0.22153984 -0.015160185 -0.06399626 -0.22565432 0.21925314
0.028092451 -0.1756248 -0.17821984 0.089014284 -0.013504458 -0.24946244 0.052360766 -0.049923413
0.10452312 0.0779511 -0.03929161 0.059067726 0.12295781 -0.22820047 0.07943391 -0.03671017
-0.057781927 -0.18820558 0.106629655 -0.005900286 -0.18828723 0.13209638 -0.23126934 0.07487928
0.0811463 -0.026015775 0.16096339 0.079586744 0.18323885 -0.05835159 0.048089687 0.139881
0.09286919 -0.023472762 0.30179438 0.1766743 -0.0034429647 0.01543433 0.24115443 0.0055466224
0.15260185 0.14520255 -0.27995807 0.10901699 0.15820374 -0.07351717 -0.3637149 -0.0022478616
-0.08495884 -0.30334485 0.07185878 -0.3498782 -0.15103945 0.052722838 -0.25544846 0.09389968
-0.16416731 0.030099604 -0.004377189 -0.15878281 0.24603255 -0.08980795 0.056271236 -0.0917877
0.16860732 0.0507885 -0.246666 -0.3183798 -0.043329984 -0.06515438 0.31508842 -0.10206187
-0.021122135 -0.06453298 -0.01502703 0.06278373 0.008249546 -0.09503395 0.14563099 0.11506436
0.20051508 0.044629034 0.15773603 -0.031918906 0.20156252 -0.15372303 -0.12986012 0.051991563
-0.049764067 -0.16452083 0.20257708 0.40989655 0.06572647 0.055733245 0.27237934 0.24392904
0.21039864 -0.12714437 0.21945338 0.16691345 -0.116028175 0.123721816 0.05573864 0.18851343
0.35700458 -0.20496151 0.10790522 -0.0006566313 0.3706245 -0.0043362333 0.10211244 -0.0051492136
0.08916438 0.07693047 -0.2689887 0.033363275 0.16686104 0.20543025 -0.18943791 0.0124280555
-0.38453883 -0.102924936 -0.0155421505 -0.03280918 0.14747751 0.15351036 -0.022881208 -0.10311248
-0.121132225 0.018593887 -0.1016645 0.056673583 0.3038204 0.16162816 0.4394458 0.15053622
0.26804122 -0.0687798 0.124290876 0.012630786 0.058147583 -0.22171968 0.14514914 -0.057540085
00000000: b124 813e 41da 21be e182 b5be e190 69bd
00000010: 9e2b 213d 0d7e 13be b9e6 ec3e 16ad a23d
00000020: 9443 a4be 3eb4 d03c 81e3 573d 3bfa 9fbd
00000030: 70f8 ec3e 73b7 b9be 5ea5 e4bd 2612 12be
00000040: 3a46 dfbd e9af 733e 4315 71be 372e 3fbe
00000050: 8f2b 973c 11b5 5ebc 7ad1 443e 82b2 ccbd
00000060: cce5 963d d110 00bc 87e3 3cbe 6a6f 38bd
00000070: 0722 ab3e 8de2 b23d 185d 073e a205 12bc
00000080: 7aa9 babd 2cd3 6abd ece2 93bd a249 263e
00000090: 212b 27bd 1108 743c 6e1f 273e 5515 b23e
000000a0: 86ec 883e a8b8 cd3e 053c 103e edfd 8ebe
000000b0: 3d54 2b3e fb63 b33e dd38 fdbc da0f 233e
000000c0: 7744 fdbd 0fd0 2d3d 617c 1bbc 58da 343e
000000d0: 57a9 e53e 8203 663c c64b 483e edb4 3abe
000000e0: fb3c 41bd cbce cfbd ede4 163d 2656 a5bd
000000f0: 17db 89be 67c9 49be fd21 e9bd 5e56 883d
00000100: 644d 24be 3e1e a73d f1d9 923e bae2 76be
00000110: cad6 5f3d 8fd5 d8bd 7a8b b3bd e0f9 6dbe
00000120: e432 e33c 8456 d03d bd3a 403e e53b 3e3d
00000130: 84ce 593e 5c09 e3bc d7e8 633d 37b8 99bc
00000140: 8b1b 043e 11f3 a4bd 632c 38be 0f7b abbd
00000150: a84d d2be 0799 873d 0ed0 af3e f267 c93d
00000160: 1f6b 55bd c329 efbb 5df9 8dbe de00 83be
00000170: e942 e0bd 3d10 03bd e755 51be d2a2 38bd
00000180: f788 5d3e 432b 723e 52bb ad3d b76d 3dbe
00000190: 21b4 b2bd aac9 e23c 03c0 17be 7a18 21be
000001a0: ea2f 58be 1e7c 923e 0834 8bbe 57db 62be
000001b0: 6d62 78bc 7910 83bd ed11 67be e583 603e
000001c0: 2422 e63c fdd6 33be 437f 36be 1f4d b63d
000001d0: cd41 5dbc 1573 7fbe 3e78 563d 7e7c 4cbd
000001e0: 3810 d63d d4a4 9f3d 3df0 20bd 00f1 713d
000001f0: 4ed1 fb3d 62ad 69be 3fae a23d 675d 16bd
00000200: beac 6cbd f7b8 40be a660 da3d 3057 c1bb
00000210: 5ece 40be 4644 073e dfd1 6cbe 4f5a 993d
00000220: 0830 a63d 091f d5bc 96d3 243e 60fe a23d
00000230: f7a2 3b3e 1402 6fbd b1f9 443d f73c 0f3e
00000240: 3432 be3d f349 c0bc cb84 9a3e 1cea 343e
00000250: 5da3 61bb 46e0 7c3c 30f1 763e 71c0 b53b
00000260: a943 1c3e faaf 143e aa56 8fbe 4d44 df3d
00000270: 2900 223e 2c90 96bd d738 babe dc50 13bb
00000280: e6fe adbd 0450 9bbe b22a 933d 3c23 b3be
00000290: 16aa 1abe e7f3 573d 24ca 82be 7a4e c03d
000002a0: 7a1b 28be 7293 f63c 866e 8fbb f697 22be
000002b0: f5ef 7b3e 3bed b7bd ab7c 663d 31fb bbbd
000002c0: 66a7 2c3e 9a07 503d 0396 7cbe ad02 a3be
000002d0: c87a 31bd a96f 85bd 4553 a13e d005 d1bd
000002e0: 5408 adbc de29 84bd ef33 76bc c294 803d
000002f0: 1b29 073c 29a1 c2bd 4a20 153e dda6 eb3d
00000300: d353 4d3e efcc 363d 8e85 213e 66bd 02bd
00000310: 6866 4e3e 9269 1dbe 0dfa 04be 1bf5 543d
00000320: 68d5 4bbd 2678 28be 5e70 4f3e f6dd d13e
00000330: 999b 863d 8b48 643d 4e75 8b3e 89c8 793e
00000340: be72 573e 2232 02be 63b8 603e 5ceb 2a3e
00000350: 2ea0 edbd dd61 fd3d 334e 643d aa09 413e
00000360: 4ec9 b63e 6ee1 51be 69fd dc3d c821 2cba
00000370: 7fc2 bd3e f616 8ebb 5420 d13d bcba a8bb
00000380: d19b b63d b98d 9d3d e3b8 89be eea7 083d
00000390: 9fdd 2a3e 4f5c 523e 03fc 41be 0b9f 4b3c
000003a0: 46e2 c4be 4fca d2bd 81a4 7ebc eb62 06bd
000003b0: 5804 173e d231 1d3e 5f71 bbbc a32c d3bd
000003c0: 2c14 f8bd 3552 983c 7a35 d0bd 8f22 683d
000003d0: 598e 9b3e da81 253e 0aff e03e 2b26 1a3e
000003e0: b33c 893e 6cdc 8cbd 378c fe3d 5bf1 4e3c
000003f0: 292c 6e3d 7c0a 63be faa1 143e 27af 6bbd

conv1.conv3.0.bias f4 [8]
-0.066962436 0.030899497 -0.010462671 -0.11039236 0.0006899899 0.037357688 0.08424373 0.09550303
00000000: 9a23 89bd f120 fd3c 9f6b 2bbc 6415 e2bd
00000010: 70e0 343a 6004 193d fa87 ac3d 1897 c33d

conv1.conv3.1.weight f4 [8]
1.0499934 1.0820224 0.8341072 0.9774668 0.97189814 0.8679804 1.1493936 1.08705
00000000: 2f66 863f b67f 8a3f 0d88 553f 443b 7a3f
00000010: 51ce 783f f733 5e3f 541f 933f 7424 8b3f

conv1.conv3.1.bias f4 [8]
0.07267201 0.068739384 -0.016739607 -0.020941282 -0.013570127 0.05555137 0.08445924 0.09410005
00000000: 10d5 943d 3cc7 8c3d 8021 89bc 0d8d abbc
00000010: 3d55 5ebc d589 633d f7f8 ac3d 87b7 c03d

conv1.conv3.1.running_mean f4 [8]
0.44825247 -0.49988887 0.44772744 0.03300062 -1.3544445 0.9025532 0.28011924 -0.78130054
00000000: 5981 e53e 6ff1 ffbe 883c e53e a82b 073d
00000010: 705e adbf ba0d 673f ca6b 8f3e 5003 48bf

conv1.conv3.1.running_var f4 [8]
2.2110102 1.3667369 0.4630247 0.9377868 1.2132015 2.2128565 1.0621134 1.4511731
00000000: 3181 0d40 3cf1 ae3f 9311 ed3e cc12 703f
00000010: 304a 9b3f 719f 0d40 55f3 873f 0ac0 b93f

conv2.conv1.0.weight f4 [16, 8, 3, 3]
-0.21245217 -0.08746375 0.092000715 -0.042705912 0.07263823 0.23842089 -0.11261848 0.26241663
0.05819298 -0.18089333 0.094643794 -0.058413405 -0.2487026 -0.053176012 -0.2725625 -0.07647221
0.203202 -0.11886518 0.23733982 0.27223533 0.17400293 -0.04664011 -0.42493263 -0.044635277
-0.06937865 0.107864484 -0.04538148 -0.22384624 -0.264808 -0.15924148 0.18690601 0.14987563
0.109249964 -0.17726782 0.067903414 -0.0989088 0.17700551 -0.005115908 0.009992729 0.059965193
-0.17629823 -0.121380046 -0.16726886 -0.0026115142 -0.09566281 0.060070973 0.11752935 0.2542645
-0.10034998 0.21868363 0.10764656 -0.34194386 -0.10820376 -0.12813549 0.0708585 0.14291403
-0.0006472468 0.020053934 0.0867746 -0.24150531 -0.13930959 -0.24324624 -0.014653288 -0.11637086
-0.02664328 -0.012601755 0.038371142 -0.259349 -0.0074139214 0.096461855 -0.25342298 0.10303571
0.3024647 0.21081501 -0.08609933 -0.17151998 -0.1110158 -0.21253745 -0.0913171 -0.1931784
-0.018161092 -0.066323005 0.12853093 -0.26565707 -0.36863968 -0.16268799 0.01939397 0.06587908
0.17995144 0.018679582 0.037366733 0.040880315 0.0006758119 -0.17766449 -0.016031776 0.27213183
-0.54933625 0.0047628996 0.04296283 0.026800994 0.120189495 0.15836161 -0.14172193 -0.099543296
0.23392735 0.0026873127 0.12632181 -0.14079742 0.133654 0.055066805 -0.27605835 -0.23192334
-0.0991061 0.06114232 -0.21928902 -0.038684674 0.0719672 -0.1887908 -0.27746612 -0.1920017
-0.044155426 -0.17135043 0.26021442 0.22136897 0.1961368 -0.15442294 0.078181796 -0.11405997
0.15927665 -0.10247892 -0.037510842 -0.41561934 0.2250848 -0.2041549 -0.14347062 0.1679297
-0.06869804 0.15037832 0.2246311 0.043776453 0.034103677 0.27650762 0.22999981 0.21951093
0.005696989 0.11644561 0.2470938 0.05013027 -0.067571424 0.13881421 0.41614047 -0.05905958
0.2721806 -0.08335613 0.14334726 -0.12182724 -0.18230511 0.31458005 0.07426532 -0.12809134
-0.124236375 0.054409057 0.031816516 -0.15097378 -0.18785803 0.21553412 0.25055096 -0.3481437
0.25759497 0.11097681 -0.22173761 -0.06341426 0.12780015 0.019194432 0.21100351 0.073121704
0.23815586 -0.015005453 0.12421695 0.0691843 -0.24290572 -0.08456374 0.06898937 -0.4925841
-0.0781367 0.0036965583 -0.068262644 0.16698726 0.13376233 -0.091902845 0.07541773 0.121670045
-0.012265789 0.20360933 -0.06767325 -0.060582258 -0.16952507 0.4018647 0.31535515 -0.17197476
-0.1473573 0.30164656 0.030858606 -0.19798642 -0.054207426 0.009609701 0.012522548 -0.05772623
0.19265145 0.16269775 -0.61144745 0.118252374 -0.2938422 0.21905656 0.14607134 -0.23387313
0.21960253 0.031701997 0.014662896 -0.11517523 0.30028132 -0.13866365 -0.021438612 -0.07547782
-0.008557934 0.1469266 -0.18519674 -0.17525141 -0.124521255 -0.08939287 0.0038762311 0.09530944
0.17035595 0.11226665 -0.31369936 0.08622622 0.005773721 0.11753132 -0.27559447 0.022187373
-0.2255822 -0.2581265 0.17581253 -0.21699955 -0.1410106 0.001268458 -0.17223649 -0.16499758
-0.04058537 0.11226909 0.076972336 0.09444338 -0.22750066 0.19963278 -0.0124473255 -0.111191384
00000000: 108d 59be 3220 b3bd df6a bc3d 65ec 2ebd
00000010: 5ac3 943d 9b24 743e 85a4 e6bd 795b 863e
00000020: c35b 6e3d 1a3c 39be 9bd4 c13d e542 6fbd
00000030: e5ab 7ebe 17cf 59bd 508d 8bbe 769d 9cbd
00000040: 2f14 503e 966f f3bd 3609 733e 6e62 8b3e
00000050: d32d 323e b309 3fbd c590 d9be 7bd3 36bd
00000060: 6516 8ebd 0ee8 dc3d eee1 39bd f337 65be
00000070: ea94 87be 3310 23be 4a64 3f3e ff78 193e
00000080: 72be df3d b285 35be f210 8b3d b290 cabd
00000090: ef40 353e 59a3 a7bb 8bb8 233c 109e 753d
000000a0: 8687 34be 1a96 f8bd 8748 2bbe f025 2bbb
000000b0: ddea c3bd fb0c 763d 3ab3 f03d f52e 823e
000000c0: 4a84 cdbd 9aee 5f3e cd75 dc3d 4413 afbe
000000d0: ef99 ddbd f335 03be 431e 913d 0e58 123e
000000e0: ffab 29ba 2648 a43c e2b6 b13d 2b4d 77be
000000f0: 2ca7 0ebe 8b15 79be 5814 70bc d853 eebd
00000100: 0243 dabc 9777 4ebc 0f2b 1d3d 64c9 84be
00000110: 7bf0 f2bb cb8d c53d a8c0 81be 6304 d33d
00000120: a7dc 9a3e e4df 573e d854 b0bd efa2 2fbe
00000130: 405c e3bd 6ba3 59be 7604 bbbd 8fd0 45be
00000140: 92c6 94bc 5bd4 87bd 9d9d 033e 3404 88be
00000150: 57be bcbe ae97 26be 1ae0 9e3c 9ceb 863d
00000160: 3145 383e ec05 993c dc0d 193d 1e72 273d
00000170: f828 313a aeed 35be 1255 83bc dd54 8b3e
00000180: 4da1 0cbf 1912 9c3b cbf9 2f3d c28d db3c
00000190: e925 f63d 8c29 223e 8e1f 11be 5bdd cbbd
000001a0: a78a 6f3e a01d 303b 815a 013e 332d 10be
000001b0: 98dc 083e bb8d 613d 8557 8dbe 507d 6dbe
000001c0: 24f8 cabd 5f70 7a3d 4d8d 60be d273 1ebd
000001d0: 8a63 933d 6052 41be 0a10 8ebe 189c 44be
000001e0: 52dc 34bd 7d76 2fbe d33a 853e 8cae 623e
000001f0: 16d8 483e 0c21 1ebe c71d a03d 4698 e9bd
00000200: 6b19 233e 78e0 d1bd f8a4 19bd 0fcc d4be
00000210: a17c 663e fb0d 51be f6e9 12be c3f5 2b3e
00000220: 8fb1 8cbd c6fc 193e b205 663e f04e 333d
00000230: 4cb0 0b3d 6892 8d3e 1285 6b3e 79c7 603e
00000240: cfad ba3b 097b ee3d 2806 7d3e 6655 4d3d
00000250: e362 8abd 5025 0e3e 5d10 d53e 75e8 71bd
00000260: 415b 8b3e 9eb6 aabd a0c9 123e 8f80 f9bd
00000270: 31ae 3abe a310 a13e 6b18 983d 602a 03be
00000280: a46f febd 08dc 5e3d 0952 023d df98 1abe
00000290: db5d 40be fab4 5c3e 3748 803e e43f b2be
000002a0: 7de3 833e cf47 e33d 2f0f 63be 56df 81bd
000002b0: 0bde 023e a43d 9d3c 4e11 583e d5c0 953d
000002c0: 21df 733e 6ed9 75bc 7565 fe3d 80b0 8d3d
000002d0: 47bc 78be c12f adbd 4c4a 8d3d fc33 fcbe
000002e0: 2206 a0bd f541 723b 49cd 8bbd b5fe 2a3e
000002f0: fef8 083e 8f37 bcbd 9c74 9a3d 252e f93d
00000300: 73f6 48bc f77e 503e 4698 8abd 1a25 78bd
00000310: fb97 2dbe 36c1 cd3e 3b76 a13e 271a 30be
00000320: d5e4 16be 6b71 9a3e 30cb fc3c f4bc 4abe
00000330: 9b08 5ebd 0272 1d3c 602b 4d3c 5772 6cbd
00000340: 6c46 453e 3d9a 263e d287 1cbf 4d2e f23d
00000350: 7c72 96be 5d50 603e ba93 153e 707c 6fbe
00000360: 7cdf 603e f4d9 013d a53c 703c fee0 ebbd
00000370: 79be 993e d8fd 0dbe 07a0 afbc 1e94 9abd
00000380: 9436 0cbc ed73 163e 37a4 3dbe 1b75 33be
00000390: 0005 ffbd 9c13 b7bd 5e08 7e3b 9831 c33d
000003a0: ca71 2e3e 0fec e53d 349d a0be 5f97 b03d
000003b0: 7b31 bd3b 43b4 f03d b81a 8dbe 4bc2 b53c
000003c0: 05ff 66be 2829 84be 3308 343e 2135 5ebe
000003d0: 1565 10be 6342 a63a c35e 30be 20f5 28be
000003e0: d83c 26bd 56ed e53d aca3 9d3d 886b c13d
000003f0: eff5 68be 896c 4c3e deef 4bbc 4fb8 e3bd

conv2.conv1.0.bias f4 [16]
0.08276281 -0.005353391 -0.095486425 0.08447103 -0.00889066 0.04657909 -0.06557916 0.086379245
0.08141692 0.0025290477 0.09407698 -0.018723644 -0.029266255 0.08551115 0.03289466 0.1041545
00000000: 8c7f a93d 806b afbb 638e c3bd 26ff ac3d
00000010: 21aa 11bc b7c9 3e3d 5e4e 86bd 9ae7 b03d
00000020: eabd a63d 61be 253b 6fab c03d 5462 99bc
00000030: c9bf efbc 7820 af3d 8dbc 063d f44e d53d

conv2.conv1.1.weight f4 [16]
1.0166465 0.9869179 0.9276391 1.1241688 0.99754816 1.0279431 1.0119193 0.978775
1.041667 1.0197151 1.0026817 0.9727639 1.0370494 0.9772853 0.9499187 1.015191
00000000: 7921 823f a7a6 7c3f c279 6d3f c3e4 8f3f
00000010: 515f 7f3f a493 833f 9286 813f 0091 7a3f
00000020: 5855 853f 0686 823f e057 803f 0e07 793f
00000030: 09be 843f 5f2f 7a3f df2d 733f c7f1 813f

conv2.conv1.1.bias f4 [16]
5.922025e-05 0.014409894 -0.09594504 0.0893706 -0.06742851 0.018589124 0.032261174 0.020299926
-0.0095100785 0.03769032 -0.011163138 -0.075669296 0.021694025 -0.00950023 -0.06885988 -0.060211718
00000000: 4263 7838 7a17 6c3c d57e c4bd ef07 b73d
00000010: f517 8abd 3848 983c 4b24 043d 084c a63c
00000020: 29d0 1bbc 2a61 1a3d 98e5 36bc 81f8 9abd
00000030: abb7 b13c daa6 1bbc 6906 8dbd 90a0 76bd

conv2.conv1.1.running_mean f4 [16]
-0.9109823 -0.46053857 0.65160435 -0.89420855 -1.2437141 -0.21988995 -0.10980723 1.0164082
-2.0428169 -0.20448466 -0.2815369 0.15427318 -1.6538839 -0.012421247 -1.4061732 -1.3359627
00000000: 2336 69bf b6cb ebbe 8bcf 263f daea 64bf
00000010: 0632 9fbf d52a 61be 9de2 e0bd aa19 823f
00000020: 83bd 02c0 6d64 51be 9b25 90be caf9 1d3e
00000030: 78b2 d3bf 7c82 4bbc 7cfd b3bf d300 abbf

conv2.conv1.1.running_var f4 [16]
1.106516 1.0491619 1.4113921 1.0442593 1.509938 1.4921042 2.0278227 2.378223
1.3007879 1.0341856 1.6244301 1.4807119 1.5242856 0.51553506 1.1448277 1.0435965
00000000: 51a2 8d3f f04a 863f 7fa8 b43f 4aaa 853f
00000010: a645 c13f 45fd be3f d9c7 0140 ce34 1840
00000020: 3880 a63f 3260 843f 53ed cf3f f887 bd3f
00000030: ca1b c33f 1bfa 033f b789 923f 9294 853f

conv2.conv2.0.weight f4 [16, 16, 3, 3]
-0.082109876 0.008722053 0.10636588 0.09538041 0.2639908 -0.0909265 -0.06888634 -0.13066792
-0.1290369 0.06458566 0.10129452 -0.054952092 0.0063287076 0.16909878 -0.03901536 0.13396847
0.21389136 0.077350475 0.1397717 0.035465553 -0.02422696 0.20543355 -0.21473455 0.012316377
-0.09734309 -0.26492697 -0.017119106 -0.23079659 0.0672433 -0.16029124 -0.14717253 -0.18573242
0.10552014 0.22369301 0.11039296 -0.24453919 -0.031581506 0.041731283 0.004429265 0.16959776
0.0970865 -0.006220269 -0.028290099 0.070210345 0.10547787 -0.041571725 -0.03297742 -0.09101282
0.11942279 -0.07765627 0.0065039424 -0.2606377 0.024388984 0.020397546 0.040925536 -0.102780126
0.10025777 0.050381184 -0.08907799 -0.08396945 0.04397951 -0.16377942 -0.14735416 -0.1271246
0.11305112 -0.11408573 -0.17533432 -0.17298917 -0.011170194 0.02176768 0.056796197 -0.07335944
0.0009308897 0.048372995 -0.11833537 0.14024974 0.12874159 -0.23785174 0.15888104 0.009046941
0.033549916 -0.17337967 0.1357009 0.10420142 -0.13109358 0.06713823 -0.3450093 0.032097824
-0.1691299 -0.0661068 0.1508154 -0.036964826 0.07609949 -0.025175523 0.15390046 0.06952769
-0.015581049 0.17689063 -0.06884391 -0.06501564 -0.09433855 -0.15047671 0.10196731 0.017156411
-0.13064805 -0.19790769 -0.023296647 0.23149681 -0.029989108 0.19302315 -0.23873568 -0.040802132
-0.004800157 -0.25734445 -0.12348861 0.07987208 0.028186642 0.0063224253 0.12607996 -0.0011130299
0.2277124 -0.08003799 0.17640333 -0.11127376 -0.020439465 0.15203832 0.16406135 -0.060624205
0.042530105 -0.11536238 0.08248622 0.058375034 -0.032048665 0.26734474 -0.016794289 0.08036998
0.108084336 -0.14760575 0.1576131 0.1537991 -0.08289349 0.059370507 -0.3883591 0.17419654
0.13133118 -0.04098534 -0.025026139 0.01385186 0.43337157 -0.07182423 -0.099666715 0.23416613
-0.10873751 -0.06488367 -0.05478528 -0.06472999 -0.04539012 0.05849965 0.009803922 0.1828471
-0.07955303 -0.25726342 -0.0709995 0.03515994 -0.036775593 -0.1632015 0.001829776 -0.057701975
-0.13846889 -0.050557934 0.005354742 0.14701013 -0.17235355 -0.23119594 -0.24717121 0.017841669
-0.13653453 -0.0106789 0.083622485 -0.071278185 0.27702507 0.12469125 -0.013396965 0.12350882
0.22356056 0.15799746 -0.05599645 0.14217584 -0.1987033 -0.21169536 0.13645002 0.10021717
0.057040915 -0.12698956 0.16404273 -0.04174193 0.031358838 0.026447529 0.111091316 -0.024267567
0.19752061 -0.08206644 0.07121133 -0.12785792 -0.0642157 -0.2060282 -0.21458049 -0.17664798
-0.29345548 -0.10299673 0.07032604 0.021584643 0.10325353 -0.021338198 0.1822063 0.1263578
0.00053307123 -0.16739663 -0.18778872 -0.10586043 0.1770272 -0.01483582 0.26873907 0.041866273
-0.025659766 0.116891764 -0.078403026 -0.11676897 -0.059156124 -0.03420593 -0.064674705 0.06990264
-0.039100017 -0.009608288 0.026966188 0.1242701 -0.17561689 0.07145345 -0.21490854 0.06702583
0.05051907 0.06590243 0.04101717 0.06847637 0.18240127 0.22624964 0.024446411 0.12580884
-0.328962 -0.034532573 -0.1254672 -0.08592003 0.14482264 0.26266128 -0.08218845 0.1878292
00000000: 3929 a8bd f1e6 0e3c 5bd6 d93d ce56 c33d
00000010: cd29 873e ac37 babd 4814 8dbd d0cd 05be
00000020: 4022 04be 7d45 843d 8073 cf3d 7215 61bd
00000030: 0c61 cf3b 3b28 2d3e 92ce 1fbd 082f 093e
00000040: 5606 5b3e ed69 9e3d 5020 0f3e 5444 113d
00000050: 9e77 c6bc 2c5d 523e 60e3 5bbe a1ca 493c
00000060: d05b c7bd 82a4 87be 5e3d 8cbc f155 6cbe
00000070: dbb6 893d 6323 24be 65b4 16be a430 3ebe
00000080: f11a d83d c80f 653e b415 e23d 7b68 7abe
00000090: 9c5b 01bd 6cee 2a3d 5e23 913b 09ab 2d3e
000000a0: 49d5 c63d 66d3 cbbb a3c0 e7bc 71ca 8f3d
000000b0: c804 d83d 1d47 2abd 5513 07bd ee64 babd
000000c0: f093 f43d 400a 9fbd 061f d53b 4e72 85be
000000d0: 68cb c73c c118 a73c 89a1 273d 637e d2bd
000000e0: f253 cd3d 805c 4e3d 856e b6bd 2df8 abbd
000000f0: dc23 343d cbb5 27be 02e4 16be f32c 02be
00000100: 5887 e73d c7a5 e9bd d78a 33be 1324 31be
00000110: 3003 37bc 2252 b23c 21a3 683d 793d 96bd
00000120: f306 743a c322 463d d159 f2bd a19d 0f3e
00000130: d6d4 033e 688f 73be b6b1 223e 9f39 143c
00000140: a36b 093d 718a 31be 2df5 0a3e 8e67 d53d
00000150: 653d 06be c57f 893d 0fa5 b0be 0279 033d
00000160: 6330 2dbe 0163 87bd 5a6f 1a3e 6e68 17bd
00000170: 0dda 9b3d e63c cebc 1598 1d3e 8964 8e3d
00000180: a847 7fbc d122 353e 09fe 8cbd eb26 85bd
00000190: 9234 c1bd 9116 1abe 3dd4 d03d 9a8b 8c3c
000001a0: 9ac8 05be 50a8 4abe 9cd8 bebc 800d 6d3e
000001b0: b8ab f5bc dca7 453e 2077 74be 2320 27bd
000001c0: a34a 9dbb a7c2 83be 99e7 fcbd f993 a33d
000001d0: ace7 e63c 592c cf3b 1b1b 013e 16e3 91ba
000001e0: 702d 693e f5ea a3bd 13a3 343e 7fe3 e3bd
000001f0: aa70 a7bc efaf 1b3e b3ff 273e 1651 78bd
00000200: 0c34 2e3d 1d43 ecbd 89ee a83d a91a 6f3d
00000210: 7645 03bd 69e1 883e 2d94 89bc 0499 a43d
00000220: 525b dd3d f625 17be 5465 213e 837d 1d3e
00000230: 10c4 a9bd 7d2e 733d 01d7 c6be 9460 323e
00000240: ae7b 063e 3ee0 27bd 9e03 cdbc e9f2 623c
00000250: e1e2 dd3e 9518 93bd 101e ccbd 3fc9 6f3e
00000260: c6b1 debd bbe1 84bd 8866 60bd 2891 84bd
00000270: feea 39bd 549d 6f3d a1a0 203c 453c 3b3e
00000280: b3ec a2bd 08b8 83be 3068 91bd df03 103d
00000290: 01a2 16bd 4b1e 27be 18d5 ef3a e858 6cbd
000002a0: caca 0dbe d615 4fbd d576 af3b d389 163e
000002b0: 737d 30be a1be 6cbe 731a 7dbe b128 923c
000002c0: b5cf 0bbe 8ef6 2ebc 4442 ab3d 4cfa 91bd
000002d0: 3bd6 8d3e 205e ff3d f27e 5bbc 31f2 fc3d
000002e0: 0fed 643e 16ca 213e 895c 65bd 8b96 113e
000002f0: e178 4bbe abc6 58be 8eb9 0b3e a93e cd3d
00000300: bca3 693d 8d09 02be d1fa 273e 96f9 2abd
00000310: 2072 003d 7da8 d83c d883 e33d c7cc c6bc
00000320: d842 4a3e 7312 a8bd 3fd7 913d 30ed 02be
00000330: 8583 83bd 0ef9 52be fdba 5bbe 35e3 34be
00000340: cc3f 96be f3ef d2bd 1907 903d 47d2 b03c
00000350: 9676 d33d 72cd aebc 4a94 3a3e f063 013e
00000360: cebd 0b3a 066a 2bbe b04b 40be 5acd d8bd
00000370: 9e46 353e f011 73bc 2b98 893e f87b 2b3d
00000380: 6e34 d2bc f364 ef3d c491 a0bd 9224 efbd
00000390: b14d 72bd 841b 0cbd 2c74 84bd 1e29 8f3d
000003a0: 5727 20bd 156c 1dbc 32e8 dc3c 5281 fe3d
000003b0: ead4 33be 3056 923d fc10 5cbe d744 893d
000003c0: 16ed 4e3d daf7 863d 9f01 283d 573d 8c3d
000003d0: 66c7 3a3e fcad 673e d743 c83c 08d4 003e
000003e0: b56d a8be 0772 0dbd 797a 00be d7f6 afbd
000003f0: 634c 143e 8a7b 863e 6b52 a8bd 4c56 403e

conv2.conv2.0.bias f4 [16]
-0.0061477367 0.020252783 0.07971163 -0.005781075 -0.05202916 0.0012623639 -0.060622964 0.023635954
0.08016924 0.06640275 0.06180887 0.058273066 -0.054659493 0.06519806 -0.06350953 -0.025150578
00000000: f472 c9bb 2ae9 a53c da3f a33d 2c6f bdbb
00000010: 871c 55bd e775 a53a c94f 78bd 30a0 c13c
00000020: c52f a43d 2afe 873d 4c2b 7d3d bdaf 6e3d
00000030: a2e2 5fbd 8f86 853d 4911 82bd 9608 cebc

conv2.conv2.1.weight f4 [16]
0.971043 1.0125802 1.0909692 1.0016016 1.0150398 0.9849983 1.060066 0.991655
0.9304958 0.9780003 1.0016035 0.94289076 1.0795135 1.014786 1.0265956 0.95416516
00000000: 4696 783f 3a9c 813f e1a4 8b3f 7b34 803f
00000010: d3ec 813f d928 7c3f 3eb0 873f 1add 7d3f
00000020: f934 6e3f 3a5e 7a3f 8b34 803f 4a61 713f
00000030: 802d 8a3f 82e4 813f 7c67 833f 2b44 743f

conv2.conv2.1.bias f4 [16]
0.0057336437 -0.014881448 0.057494033 -0.009108611 -0.0070180655 0.0004288536 0.12412581 -0.05519501
-0.042762842 0.008803268 0.021307183 -0.0064134127 0.07108565 0.08649957 0.016095774 -0.030684074
00000000: 4ae1 bb3b 51d1 73bc dd7e 6b3d 493c 15bc
00000010: cdf7 e5bb c1d7 e039 ac35 fe3d 2a14 62bd
00000020: 1728 2fbd 953b 103c 678c ae3c 9b27 d2bb
00000030: 5a95 913d b026 b13d 49db 833c 2b5d fbbc

conv2.conv2.1.running_mean f4 [16]
-0.35418424 0.13383357 0.2584479 -1.3541021 0.87268007 0.9662245 -0.58946896 -0.19699319
0.27958098 -0.21662368 1.6382358 0.5009313 -0.20720033 -0.4494141 -0.32347432 -0.95294344
00000000: a357 b5be ab0b 093e 4853 843e 3853 adbf
00000010: f667 5f3f 7d5a 773f 70e7 16bf 95b8 49be
00000020: 3d25 8f3e 99d2 5dbe b6b1 d13f 093d 003f
00000030: 532c 54be 9b19 e6be 6d9e a5be 1af4 73bf

conv2.conv2.1.running_var f4 [16]
1.1660829 1.0071496 2.0955882 1.8665742 1.5086725 2.114593 1.6124257 1.4093016
1.6732634 1.2365354 1.328105 1.8763074 1.2903066 1.266181 1.2542086 1.0324944
00000000: 3442 953f 47ea 803f 1e1e 0640 e7eb ee3f
00000010: 2e1c c13f 7e55 0740 f763 ce3f ff63 b43f
00000020: 7f2d d63f cb46 9e3f 58ff a93f d72a f03f
00000030: c428 a53f 3812 a23f e889 a03f c728 843f

conv2.conv3.0.weight f4 [16, 16, 3, 3]
0.053750824 -0.02312414 0.013798422 0.027185334 0.0771144 -0.21250688 -0.13405176 0.01312081
-0.046201985 0.015144581 -0.011296959 0.032381836 -0.12530586 -0.09292846 0.067829356 -0.084066905
-0.10827333 0.03782417 -0.016389122 -0.056607068 0.08896034 0.019733626 0.029256647 -0.045783866
0.08490138 0.044977706 0.17499568 0.042229142 0.05292985 0.0028169516 0.04346422 -0.045821622
0.02339573 0.16206719 0.07068762 -0.00467527 0.15597774 -0.0034048348 -0.24140377 0.17261267
-0.105838366 0.014577574 0.010976242 -0.0282941 0.062446367 -0.12740186 -0.12396352 0.0677226
-0.21243274 0.024500791 -0.17909151 0.049251862 0.027453624 0.15857409 -0.16704887 -0.04760677
-0.20246102 -0.24716397 0.03895339 -0.22035587 -0.19721326 -0.01934723 -0.36309907 0.13064183
0.09893717 -0.03276439 0.15352389 -0.11965468 -0.14654376 -0.11121786 0.013904106 0.0463517
0.10268899 -0.09846606 0.028849058 -0.018548544 -0.09255282 0.012620647 -0.18647246 -0.3511922
0.0012212435 -0.10751837 -0.14512351 -0.0026673551 -0.12958328 -0.041339595 -0.024043677 -0.049422093
-0.07757124 0.014976785 0.099744655 -0.02157327 -0.10291794 -0.062321335 0.17286725 0.20327814
-0.26056132 -0.17445295 0.024134502 -0.06744258 -0.040762387 0.19976594 -0.12740253 -0.14302918
-0.12439059 -0.16980822 0.11406585 -0.08770302 0.07384874 0.04811272 -0.09621128 -0.0569271
0.073946804 0.10174601 0.12103014 0.05122975 0.21074739 0.05954328 0.21454935 0.067495495
0.013608093 0.1183017 -0.0045820507 0.10912075 -0.14499384 -0.102134064 -0.09949502 0.21137276
0.12861149 0.025902692 0.03164224 -0.22242008 0.03095549 -0.06756814 0.036805496 0.17731737
0.03294341 -0.039873768 -0.07976399 0.0019546256 -0.07514762 -0.09347784 -0.009949354 -0.070850305
-0.16170616 0.07888416 0.034802426 0.015607535 0.05334998 0.033758216 -0.038667906 -0.15179527
0.015218556 0.05298442 -0.045501385 -0.021341309 -0.032709137 -0.057756465 0.09453498 0.18523368
0.08531287 0.09322286 0.020590456 -0.2697666 0.03666905 0.1624517 -0.06975083 -0.16879451
0.0005914121 0.051526397 0.2038626 -0.07318966 0.014423347 0.020390252 0.093883105 0.06290802
-0.013403319 0.0011926264 -0.016777512 0.06951026 -0.13951387 -0.093087256 0.084539235 0.18645835
-0.14368175 0.055616517 -0.16063163 0.047379322 0.10067619 -0.015912598 -0.046778165 -0.09283944
-0.015531068 0.007662476 -0.029993178 0.007393312 0.11144572 0.15409641 0.074703634 -0.24930184
-0.1417743 -0.10447668 -0.08652795 -0.2217929 0.029289473 -0.13063346 -0.041223854 0.04343301
0.12072508 0.24196298 0.21343978 -0.06482993 0.0056456174 0.10064839 -0.3075483 -0.10415931
0.12767224 0.11642889 0.30377272 0.0074074348 0.1788579 0.091880836 -0.08976651 0.08996153
0.010177101 -0.040128943 -0.0041293562 0.19641791 0.003466707 -0.03931474 0.04126254 0.11057394
-0.030290114 -0.16648087 0.019693328 -0.32352298 -0.10755849 0.0134330755 -0.005357258 -0.16847074
0.19409958 -0.24766132 0.009867443 -0.0022708585 -0.20275187 0.07183947 0.10301648 0.007160739
-0.061332677 -0.18273033 0.087894134 0.08765755 -0.012302871 -0.05003572 -0.12338618 -0.16066676
00000000: d329 5c3d d66e bdbc c712 623c c7b3 de3c
00000010: 28ee 9d3d 679b 59be dd44 09be aaf8 563c
00000020: 4b3e 3dbd fa20 783c e116 39bc d1a2 043d
00000030: 2e50 00be 4751 bebd 1eea 8a3d 452b acbd
00000040: 68be ddbd 84ed 1a3d 7b42 86bc d0dc 67bd
00000050: d730 b63d 6aa8 a13c a3ab ef3c dd87 3bbd
00000060: c6e0 ad3d 8b3a 383d 1132 333e 77f8 2c3d
00000070: f8cc 583d 9b9c 383b 8a07 323d 74af 3bbd
00000080: 67a8 bf3c f1f4 253e acc4 903d 0233 99bb
00000090: a1b8 1f3e a623 5fbb 8d32 77be 60c1 303e
000000a0: c9c1 d8bd c7d6 6e3c b2d5 333c 07c9 e7bc
000000b0: c3c7 7f3d a275 02be 96e0 fdbd 26b2 8a3d
000000c0: f887 59be e2b5 c83c c463 37be 52bc 493d
000000d0: 6ce6 e03c 3f61 223e dc0e 2bbe 51ff 42bd
000000e0: f151 4fbe 8d18 7dbe 978d 1f3d f8a4 61be
000000f0: 46f2 49be 157e 9ebc 1fe8 b9be f9c6 053e
00000100: 929f ca3d f433 06bd 5e35 1d3e 830d f5bd
00000110: 910f 16be 30c6 e3bd 0cce 633c 48db 3d3d
00000120: 9b4e d23d 93a8 c9bd dc54 ec3c 1ef3 97bc
00000130: 558c bdbd d5c6 4e3c a3f2 3ebe 77cf b3be
00000140: 2212 a03a 9732 dcbd 429b 14be cbce 2ebb
00000150: 7bb1 04be b553 29bd 3ff7 c4bc d26e 4abd
00000160: acdd 9ebd 3061 753c ed46 cc3d 6dba b0bc
00000170: a4c6 d2bd a844 7fbd 1d04 313e 2528 503e
00000180: 4b68 85be cba3 32be b8b5 c53c 561f 8abd
00000190: 76f6 26bd 718f 4c3e cf75 02be 3e76 12be
000001a0: 7ec0 febd 35e2 2dbe 5b9b e93d a49d b3bd
000001b0: 023e 973d d811 453d 6b0a c5bd 642c 69bd
000001c0: 6c71 973d 3660 d03d a6de f73d 49d6 513d
000001d0: 2ace 573e a8e3 733d d3b2 5b3e 143b 8a3d
000001e0: 7bf4 5e3c 2948 f23d 0725 96bb b37a df3d
000001f0: 4479 14be aa2b d1bd 0cc4 cbbd 1a72 583e
00000200: bbb2 033e e231 d43c 4b9b 013d 17c2 63be
00000210: 5e96 fd3c 2a61 8abd 5cc1 163d af92 353e
00000220: abef 063d ad52 23bd 4e5b a3bd 2d19 003b
00000230: ffe6 99bd 4f71 bfbd 9e02 23bc f719 91bd
00000240: 4d96 25be 058e a13d fd8c 0e3d bfb6 7f3c
00000250: 8285 5a3d 0e46 0a3d 3d62 1ebd 3870 1bbe
00000260: 4057 793c 3106 593d a95f 3abd f8d3 aebc
00000270: 04fa 05bd 0b92 6cbd 8e9b c13d e6ad 3d3e
00000280: 84b8 ae3d a0eb be3d 51ad a83c d91e 8abe
00000290: 4932 163d bd59 263e 86d9 8ebd 78d8 2cbe
000002a0: ff08 1b3a 580d 533d 5bc1 503e 76e4 95bd
000002b0: e74f 6c3c 7509 a73c c945 c03d ecd5 803d
000002c0: 9899 5bbc e751 9c3a fe70 89bc 655b 8e3d
000002d0: b9dc 0ebe 88a4 bebd e822 ad3d f0ee 3e3e
000002e0: 4f21 13be 25ce 633d 9e7c 24be d210 423d
000002f0: 512f ce3d 235b 82bc 769a 3fbd 9b22 bebd
00000300: 0576 7ebc 8215 fb3b 41b4 f5bc 9943 f23b
00000310: a73d e43d 73cb 1d3e 38fe 983d fb48 7fbe
00000320: 482d 11be dff7 d5bd 9135 b1bd ae1d 63be
00000330: 7af0 ef3c c7c4 05be 58da 28bd d0e6 313d
00000340: b63e f73d 25c5 773e f58f 5a3e 8ec5 84bd
00000350: dffe b83b be20 ce3d f976 9dbe 7a51 d5bd
00000360: 83bc 023e 4572 ee3d 1988 9b3e 11ba f23b
00000370: 8626 373e 052c bc3d 81d7 b7bd c03d b83d
00000380: dbbd 263c 3f5e 24bd 8d4f 87bb c721 493e
00000390: b131 633b 7e08 21bd e902 293d 9774 e23d
000003a0: f922 f8bc f679 2abe e753 a13c cea4 a5be
000003b0: a047 dcbd 6716 5c3c f08b afbb 9883 2cbe
000003c0: 0ac2 463e ee9a 7dbe 0eab 213c afd2 14bb
000003d0: 309e 4fbe 9220 933d 4efa d23d a2a4 ea3b
000003e0: f937 7bbd a91d 3bbe d701 b43d cd85 b33d
000003f0: fb91 49bc 41f2 4cbd e5b1 fcbd d485 24be

conv2.conv3.0.bias f4 [16]
-0.016668156 0.04369082 -0.050511844 -0.039718628 0.078653954 0.008108376 -0.08045608 0.008245079
-0.058076255 0.042155802 0.010611232 0.07555063 0.013337763 0.060241397 0.07745653 0.07721939
00000000: a88b 88bc 25f5 323d 82e5 4ebd 00b0 22bd
00000010: 5315 a13d fed8 043c 28c6 a4bd 5e16 073c
00000020: 5ee1 6dbd 90ab 2c3d bcda 2d3c 4aba 9a3d
00000030: a286 5a3c afbf 763d 87a1 9e3d 3325 9e3d

conv2.conv3.1.weight f4 [16]
1.0404332 1.0616606 1.000569 0.94061166 0.9869013 1.0367149 1.0388398 0.8742339
1.0370479 1.044535 0.9824743 1.0439304 0.9324084 0.8928004 1.0447979 1.0541593
00000000: ea2c 853f 7fe4 873f a512 803f edcb 703f
00000010: 90a5 7c3f 13b3 843f b4f8 843f cbcd 5f3f
00000020: fcbd 843f 53b3 853f 7083 7b3f 839f 853f
00000030: 51b2 6e3f 918e 643f f0bb 853f b1ee 863f

conv2.conv3.1.bias f4 [16]
-0.0025783814 0.07108399 -0.04295897 0.005019874 -0.06786938 0.030225797 0.025426455 -0.012094752
0.016500555 0.025202725 -0.032683685 0.009247047 -0.0124743 -0.012096019 -0.01609751 0.024511399
00000000: 10fa 28bb 7c94 913d bff5 2fbd c17d a43b
00000010: 1aff 8abd 179c f73c 244b d03c 1129 46bc
00000020: 2c2c 873c f275 ce3c 54df 05bd ed80 173c
00000030: 0261 4cbc 622e 46bc edde 83bc 21cc c83c

conv2.conv3.1.running_mean f4 [16]
-0.942028 0.536512 1.3959194 0.024264913 -1.0906385 0.12104933 -0.09210868 -0.26226997
-1.0299388 -1.4507157 1.3585176 0.4698997 0.20970733 0.0826412 -0.05584568 1.6245427
00000000: bf28 71bf da58 093f 7dad b23f 36c7 c63c
00000010: 0b9a 8bbf b6e8 f73d 7aa3 bcbd 4048 86be
00000020: 09d5 83bf 0db1 b9bf e8e3 ad3f b296 f03e
00000030: 85bd 563e ca3f a93d 71be 64bd 04f1 cf3f

conv2.conv3.1.running_var f4 [16]
1.3268656 1.5023443 2.2896924 1.0790554 1.6617811 1.6680614 1.0772206 2.140561
1.5605111 1.0814347 0.7346232 1.4327104 1.1783324 1.8036739 2.162597 2.9428313
00000000: bbd6 a93f d14c c03f 528a 1240 7d1e 8a3f
00000010: 3eb5 d43f 0983 d53f 5de2 893f f4fe 0840
00000020: d4be c73f 746c 8a3f 4410 3c3f 0e63 b73f
00000030: 99d3 963f c9de e63f fd67 0a40 5957 3c40

conv3.conv1.0.weight f4 [32, 16, 3, 3]
-0.00940847 -0.048498638 0.023077993 0.07274387 0.05067722 -0.15288645 -0.11066548 -0.21954486
-0.024334574 0.06417515 0.18625315 -0.15180457 0.04235547 0.009920033 0.12169935 -0.005641404
0.08438324 -0.100361936 0.009045175 -0.009058699 0.07474675 -0.032207884 0.04991544 -0.2057909
-0.014158955 -0.026549352 0.090658955 -0.0693754 -0.13751584 -0.06555345 -0.068251416 -0.22475713
-0.05288231 0.016098075 -0.07890141 -0.13850155 0.1138908 -0.09801569 0.06575126 -0.022495257
0.19044213 -0.14859147 0.06370228 0.021087626 0.028452268 0.18638395 0.1794923 -0.23390646
0.089504 0.08913693 0.10686638 0.12363087 0.0032608444 0.19323298 -0.08324995 0.14038618
-0.16951476 -0.012163102 -0.074781924 -0.0060461205 0.0050205966 0.37515986 -0.09827406 -0.07168125
0.028798593 0.00862044 -0.19424327 0.013551539 0.02563178 -0.097594336 0.18983123 0.010375474
-0.21957348 -0.05170837 0.09687528 -0.1262519 0.017827569 -0.23084 0.035380036 -0.025171386
-0.03871078 -0.085900925 -0.07998203 -0.043336038 -0.13367009 0.08209501 -0.08131727 0.102550015
0.08712425 0.14212018 0.07228605 0.23590338 0.29563352 0.09375745 -0.01155393 -0.01074903
-0.13340762 0.059653997 -0.018479917 -0.3045801 0.100862056 -0.112140335 0.10287973 -0.09522909
-0.016960738 -0.038030487 0.07027897 0.028892893 0.031619973 0.057373177 -0.032250382 0.117532454
0.03172442 0.1902283 -0.058012642 0.4063908 0.021996772 -0.11783356 0.12433822 -0.09928401
0.089232884 -0.039304856 0.06469402 -0.021036325 -0.0039205076 0.11166242 0.15762696 -0.097431354
-0.048578266 0.023998063 -0.02492927 -0.05045863 -0.038339168 -0.17431338 -0.1274078 0.005172981
0.16486397 -0.07067186 -0.21221747 -0.10401316 0.32900387 0.0427986 0.03461403 0.124200076
-0.05250452 0.007346623 -0.05273088 -0.006641967 0.031184906 0.096614115 0.07996613 -0.20253663
-0.05938776 -0.054214254 0.008981955 0.09069544 -0.18895619 -0.042286 0.07380682 -0.20571606
0.13971144 0.14229727 0.24954154 0.16660663 -0.04237466 0.008977774 0.15807365 -0.21966138
0.1163848 0.02938703 -0.30225202 0.15294981 -0.13869755 -0.011730253 0.06601397 0.0148205785
-0.07866236 0.060660876 -0.006066516 0.17929268 0.07208547 0.05492725 -0.18086563 0.1481745
-0.099063195 0.009069037 0.18980591 0.19484392 -0.058587883 0.2144962 -0.2469347 -0.049538184
-0.11437735 0.077026494 0.09889403 0.08578736 -0.19817573 0.08343163 -0.10245212 -0.026386268
-0.19708611 -0.02614165 0.010955971 0.07574135 -0.19956398 -0.11079661 0.061435543 -0.15100284
-0.37228402 0.071316786 -0.07965685 0.2757037 0.14171141 0.0023648306 0.055613328 -0.0663964
-0.008586422 0.0969094 -0.12781665 -0.051751163 -0.048426744 0.0032400638 0.14755358 -0.08145905
-0.000299339 0.10588056 -0.24040622 0.064402476 -0.2644586 -0.15262602 -0.078642115 0.029965067
0.14926706 0.02826808 -0.10921525 -0.13012703 -0.09040658 0.057127014 -0.103713006 -0.003632603
0.13027367 0.16319554 -0.020120256 0.035480995 0.018434754 -0.15521014 -0.1654591 0.03384738
-0.19932579 -0.01898968 -0.024091307 -0.03451929 -0.08023561 -0.06973588 -0.14420691 0.013182398
00000000: fc25 1abc 82a6 46bd 0f0e bd3c bdfa 943d
00000010: eb92 4f3d 448e 1cbe 95a4 e2bd 5ed0 60be
00000020: 4d59 c7bc 436e 833d 25b9 3e3e a872 1bbe
00000030: ee7c 2d3d a287 223c 823d f93d 87db b8bb
00000040: 1fd1 ac3d 8f8a cdbd 3732 143c f06a 14bc
00000050: d314 993d 6aec 03bd 2274 4c3d daba 52be
00000060: f6fa 67bc 077e d9bc 67ab b93d b114 8ebd
00000070: f4d0 0cbe e340 86bd 66c7 8bbd bc26 66be
00000080: 1f9b 58bd 1ce0 833c 1097 a1bd 5ad3 0dbe
00000090: 943f e93d 73bc c8bd 99a8 863d f947 b8bc
000000a0: 4303 433e 5d28 18be 5776 823d f5bf ac3c
000000b0: bb14 e93c 6fdb 3e3e d4cc 373e 2d85 6fbe
000000c0: e04d b73d 6c8d b63d c3dc da3d 2e32 fd3d
000000d0: e4b3 553b dede 453e f37e aabd 65c1 0f3e
000000e0: 4795 2dbe bf47 47bc 4427 99bd 891e c6bb
000000f0: d183 a43b f414 c03e e943 c9bd 9fcd 92bd
00000100: 07eb eb3c bf3c 0d3c b5e7 46be 4607 5e3c
00000110: bdf9 d13c 8adf c7bd 1e63 423e e4fd 293c
00000120: dfd7 60be 28cc 53bd 8c66 c63d 2e48 01be
00000130: 1f0b 923c 5261 6cbe a8ea 103d 3934 cebc
00000140: 328f 1ebd d3ec afbd 9ecd a3bd 2181 31bd
00000150: d0e0 08be 6e21 a83d ab89 a6bd be05 d23d
00000160: 336e b23d f487 113e b50a 943d a890 713e
00000170: 475d 973e e803 c03d b24c 3dbc b31c 30bc
00000180: 029c 08be c057 743d 3263 97bc ecf1 9bbe
00000190: c490 ce3d d5a9 e5bd 9cb2 d23d 7807 c3bd
000001a0: 3ff1 8abc dbc5 1bbd 6cee 8f3d cab0 ec3c
000001b0: f283 013d 2300 6b3d fa18 04bd dbb4 f03d
000001c0: 77f1 013d 35cb 423e aa9e 6dbd 7412 d03e
000001d0: 9332 b43c b952 f1bd 09a5 fe3d 6a55 cbbd
000001e0: bbbf b63d 21fe 20bd 4c7e 843d 5f54 acbc
000001f0: 9a77 80bb 44af e43d f668 213e 178a c7bd
00000200: 01fa 46bd 9697 c43c 7838 ccbc b5ad 4ebd
00000210: 8809 1dbd 357f 32be 3177 02be 1c82 a93b
00000220: 1ad2 283e 68bc 90bd 894f 59be da04 d5bd
00000230: 3273 a83e 964d 2f3d 71c7 0d3d 9c5c fe3d
00000240: fb0e 57bd f1bb f03b 56fc 57bd dca4 d9bb
00000250: 7d77 ff3c 9fdd c53d 48c5 a33d c365 4fbe
00000260: 9440 73bd c40f 5ebd 0d29 133c 88be b93d
00000270: bb7d 41be 1634 2dbd 0828 973d 3ba7 52be
00000280: 8410 0f3e 60b6 113e d187 7f3e ee9a 2a3e
00000290: 0d91 2dbd 8317 133c 0fde 213e eaee 60be
000002a0: 275b ee3d 12bd f03c c7c0 9abe e09e 1c3e
000002b0: bb06 0ebe 3f30 40bc 5532 873d 03d2 723c
000002c0: bb19 a1bd 8a77 783d a0c9 c6bb 8098 373e
000002d0: 8ca1 933d 65fb 603d d734 39be 0ebb 173e
000002e0: a5e1 cabd 4c96 143c 7b5c 423e 2a85 473e
000002f0: d9f9 6fbd e4a4 5b3e 73dc 7cbe 8de8 4abd
00000300: ac3e eabd 11c0 9d3d f488 ca3d 49b1 af3d
00000310: 94ee 4abe 34de aa3d 6bd2 d1bd 0428 d8bc
00000320: f1d0 49be 0327 d6bc ac80 333c 481e 9b3d
00000330: 805a 4cbe 55e9 e2bd d6a3 7b3d 7da0 1abe
00000340: 039c bebe 890e 923d 2123 a3bd 0929 8d3e
00000350: cc1c 113e 46fb 1a3b cdca 633d d6fa 87bd
00000360: 10ae 0cbc 6f78 c63d 5ee2 02be 07f9 53bd
00000370: 1f5b 46bd 4057 543b 4918 173e 01d4 a6bd
00000380: 9af0 9cb9 e8d7 d83d 0c2d 76be 72e5 833d
00000390: 1e67 87be ff49 1cbe 1e0f a1bd 4d79 f53c
000003a0: 77d9 183e 7692 e73c 3fac dfbd 0540 05be
000003b0: 1627 b9bd 04fe 693d 7c67 d4bd f710 6ebb
000003c0: 7666 053e bb1c 273e 3cd3 a4bc 8554 113d
000003d0: 7b04 973c 68ef 1ebe 1c6e 29be 8da3 0a3d
000003e0: 0f1c 4cbe 3f90 9bbc 225b c5bc 1964 0dbd
000003f0: 9152 a4bd afd1 8ebd faaa 13be fcfa 573c

conv3.conv1.0.bias f4 [32]
-0.054903854 -0.053600498 0.01858628 -0.07874211 -0.056391872 -0.03430991 -0.039585687 0.034965616
0.062579095 0.067157686 0.035630077 -0.07344667 0.07597671 0.0028004271 -0.015532487 0.06216686
0.026483292 -0.04438887 0.00942808 0.045757066 0.031537697 0.081614286 -0.0054976786 0.030586915
-0.04926655 -0.08330073 0.043870643 -0.008832849 -0.07093363 0.015524666 0.081143655 0.02920646
00000000: dde2 60bd 328c 5bbd 4142 983c 8b43 a1bd
00000010: 2afb 66bd 8c88 0cbd 9a24 22bd 1b38 0f3d
00000020: 7829 803d f889 893d d8f0 113d 356b 96bd
00000030: ad99 9b3d 5f87 373b f97b 7ebc ada2 7e3d
00000040: 7df3 d83c 1bd1 35bd 3c78 1a3c c36b 3b3d
00000050: ac2d 013d 6425 a73d df25 b4bb 6991 fa3c
00000060: b9cb 49bd 9399 aabd b4b1 333d a7b7 10bc
00000070: a745 91bd 2b5b 7e3c a52e a63d 6342 ef3c

conv3.conv1.1.weight f4 [32]
0.95261663 1.0303999 0.9789402 0.98061943 1.0479329 0.94595265 1.0312978 0.96441674
1.043259 0.9437561 0.9850899 0.9925121 1.0110375 0.9573902 1.0237015 1.0433077
0.9754771 0.97874236 1.011206 1.035063 1.0120476 1.0437741 0.93786097 1.087806
1.0041306 0.9732476 0.965999 1.0136678 1.0170381 0.9548483 1.0642723 1.1034197
00000000: afde 733f 25e4 833f d39b 7a3f e009 7b3f
00000010: aa22 863f f429 723f 9101 843f 04e4 763f
00000020: 8389 853f 009a 713f da2e 7c3f 4615 7e3f
00000030: ad69 813f 8617 753f a708 833f 1b8b 853f
00000040: deb8 793f dc8e 7a3f 336f 813f f27c 843f
00000050: c78a 813f 649a 853f a817 703f 3a3d 8b3f
00000060: 5a87 803f c126 793f b64b 773f debf 813f
00000070: 4e2e 823f f070 743f 133a 883f db3c 8d3f

conv3.conv1.1.bias f4 [32]
-0.04752585 0.001866882 0.020346116 0.010353654 0.050347455 -0.039879605 -0.009780506 -0.014673476
0.055433318 -0.009561272 -0.01623306 -0.0040889094 0.040567417 -0.06041471 -0.0003337139 0.052151434
-0.020590698 -0.032108195 0.028969709 -0.02525858 -0.034090154 0.015904315 -0.038440883 0.0009362907
0.021210022 -0.044475153 -0.066477284 0.00657924 -0.008609477 -0.0420488 -0.02246552 0.036135938
00000000: 77aa 42bd 2ab2 f43a e6ac a63c 5fa2 293c
00000010: 2239 4e3d cc58 23bd 6a3e 20bc 0569 70bc
00000020: 0c0e 633d e2a6 1cbc 32fb 84bc 42fc 85bb
00000030: 052a 263d 6a75 77bd 52f6 aeb9 be9c 553d
00000040: d3ad a8bc e283 03bd e251 ed3c 15eb cebc
00000050: 1ea2 0bbd c449 823c 3074 1dbd 6871 753a
00000060: a4c0 ad3c 942b 36bd 3e25 88bd aa96 d73b
00000070: c40e 0dbc 5d3b 2cbd 9c09 b8bc 4703 143d
