checkpoints/ifind1_sononet_8_andi/006_net_emb_020_from_50.pth (torch_old, 671523 bytes, 90 tensors)

conv1.conv1.0.weight f4 [8, 1, 3, 3]
0	0x3e9c7f65	0.30565944
1	0x3dc5fff3	0.09667959
2	0x3db2de05	0.08733753
3	0xbc0198cc	-0.007909965
4	0x3efcbb2a	0.49361545
5	0xbf110f61	-0.5666409
6	0x3e95950b	0.29215273
7	0x3f31da38	0.694736
8	0xbf936d49	-1.1517726
9	0x3ea1bc5e	0.31589025
10	0xbf5c99de	-0.8617228
11	0xbed755fe	-0.42057794
12	0x3e28b264	0.164743
13	0x3f06ac87	0.52607006
14	0xbdda23f2	-0.10651387
15	0x3ea135a6	0.31486243
16	0x3eb44035	0.35205236
17	0x3f07b79b	0.53014535
18	0xbf7d5e18	-0.989717
19	0xbec51721	-0.38494208
20	0x3ed36c6f	0.41293666
21	0x3dac5288	0.08414179
22	0x3d736dc5	0.059430856
23	0xbe8ead56	-0.2786662
24	0xbf26cf58	-0.6516013
25	0x3dc7c5d8	0.097545326
26	0xbf78940c	-0.971009
27	0xbf2025c1	-0.6255761
28	0x3ec80074	0.39062846
29	0xbdd4fc42	-0.10399677
30	0xbe887c6d	-0.2665743
31	0xbf509396	-0.814752
32	0xbede084a	-0.433657
33	0x3e2b0f89	0.16705145
34	0xbe48e7af	-0.1961963
35	0x3edcebd5	0.43148676
36	0xbf796f32	-0.97435296
37	0xbe21813e	-0.15771958
38	0xbe6f60fd	-0.23376842
39	0x3e90ccb3	0.28281173
40	0xbed2c241	-0.4116383
41	0xbf2a682d	-0.6656521
42	0x3f7fa2c8	0.9985776
43	0x3eaec18d	0.34132043
44	0xbf09fb0b	-0.53898686
45	0xbeba732e	-0.36416
46	0xbf82f931	-1.0232297
47	0xbf85924d	-1.0435272
48	0xbd93fad7	-0.07225578
49	0xbeceb93e	-0.40375704
50	0xbf961748	-1.1725855
51	0xbee33ca6	-0.4438221
52	0x3e9141fd	0.28370658
53	0xbecde495	-0.40213457
54	0x3ee5ca0c	0.44880712
55	0xbf167cf1	-0.58784395
56	0xbe1368b1	-0.14395405
57	0xbe02d15f	-0.12775181
58	0x3f8c0243	1.093819
59	0x3e07dd60	0.13268042
60	0x3f48cac1	0.7843438
61	0x3eb66c82	0.3562966
62	0x3f174f3c	0.5910528
63	0xbd667936	-0.05626794
64	0xbe8a1b2e	-0.2697386
65	0xbdd68d7e	-0.10476206
66	0xbeea711a	-0.45789415
67	0xbf29f409	-0.66387993
68	0xbf9d0193	-1.2266105
69	0xbe36fd32	-0.17870024
70	0xbf0a7cbd	-0.54096586
71	0x3ea7fafb	0.3280867

conv1.conv1.0.bias f4 [8]
0	0xbe406d19	-0.18791617
1	0xbe856554	-0.2605387
2	0x3e57b70f	0.21065925
3	0x3e9ef2a4	0.31044495
4	0x3e468840	0.19387913
5	0x3e5fc526	0.2185255
6	0xbddb7a1d	-0.10716651
7	0xbde9ed24	-0.11422184

conv1.conv1.1.weight f4 [8]
0	0x3f84c107	1.0371407
1	0x3f7a5c8c	0.97797465
2	0x3f531a3f	0.82461923
3	0x3f9c4a27	1.221013
4	0x3fa7ea65	1.3118407
5	0x3f84cafa	1.0374444
6	0x3f64f8ec	0.89442325
7	0x3f8fd4bc	1.1236796

conv1.conv1.1.bias f4 [8]
0	0xbd84e68f	-0.06489288
1	0x3d8eecbb	0.069787465
2	0xbdcfdb20	-0.10149217
3	0x3ddb28ea	0.10701163
4	0x3e9b1f07	0.3029711
5	0x3dccb26c	0.09994969
6	0x3df0548a	0.117348745
7	0x3dc246fe	0.09486197

conv1.conv1.1.running_mean f4 [8]
0	0xbe444415	-0.19166596
1	0xbe83c8e1	-0.25739196
2	0x3e51d68e	0.20492002
3	0x3e9e8303	0.3095933
4	0x3e44c12b	0.19214313
5	0x3e582046	0.21106061
6	0xbdd048f9	-0.101701684
7	0xbdf2372c	-0.118269295

conv1.conv1.1.running_var f4 [8]
0	0x3ea2f5ce	0.3182816
1	0x3f46d683	0.7767107
2	0x40cc8d44	6.3922443
3	0x400824e9	2.1272528
4	0x400e470b	2.223086
5	0x41a41774	20.511452
6	0x40cd082f	6.407249
7	0x411b945e	9.723722

conv1.conv2.0.weight f4 [8, 8, 3, 3]
0	0x3ecc8d3a	0.39951497
1	0xbbf0f980	-0.0073539615
2	0xbe855132	-0.2603851
3	0x3e39c330	0.18140864
4	0x3f0b4b68	0.54411936
5	0xbc00e099	-0.007866048
6	0x3e8e7d4a	0.27829963
7	0x3d975029	0.07388336
8	0x3e84c7ae	0.25933594
9	0x3dbc8bb6	0.09206335
10	0xbe0282b9	-0.12745179
11	0x3e465fcf	0.19372486
12	0xbc954f96	-0.018226426
13	0xbd72e7e6	-0.059303187
14	0x3d426937	0.047463622
15	0xbe64412d	-0.22290488
16	0x3e8e86a9	0.27837113
17	0x3d2638f3	0.040581655
18	0xbdfb4616	-0.12269227
19	0xbed21f6c	-0.41039598
20	0x3c5e8803	0.013582232
21	0x3e54d5a0	0.20784616
22	0xbb47c8d8	-0.0030484702
23	0x3c2d1831	0.01056485
24	0x3e37b8fc	0.1794166
25	0x3e63a83c	0.22232145
26	0x3d6740af	0.05645817
27	0xbe8fc652	-0.28080994
28	0xbeaf34f6	-0.34220093
29	0xbee88586	-0.4541437
30	0x3e728ca9	0.2368647
31	0xbe519fae	-0.20471069
32	0xbe34255d	-0.17592378
33	0x3e90e4b1	0.28299478
34	0x3dd187a2	0.10230948
35	0xbd6a7033	-0.057235908
36	0xbe28d7a3	-0.16488509
37	0xbe8c573e	-0.2741031
38	0xbef55b19	-0.47921064
39	0xbea83bf7	-0.3285825
40	0xbd8e15e1	-0.06937767
41	0xbeccbe3d	-0.3998889
42	0x3d0f498b	0.034982245
43	0x3dd3f959	0.10350294
44	0xbea83b70	-0.32857847
45	0xbe86de04	-0.2634126
46	0xbec5bdc0	-0.3862133
47	0xbdcaf09d	-0.099091746
48	0xbe9c221c	-0.30494773
49	0xbdb15822	-0.08659388
50	0xbeb0ee9b	-0.34557042
51	0x3e63161f	0.22176407
52	0x3e228b39	0.15873422
53	0xbe1737e0	-0.14767408
54	0x3e222b93	0.15836935
55	0xbdc43488	-0.09580332
56	0xbe5742c7	-0.21021567
57	0xbd6db834	-0.058036998
58	0x3cb8c24b	0.022553584
59	0x3a8a381b	0.0010545285
60	0xbcb96a40	-0.022633672
61	0x3e66b96e	0.22531673
62	0x3eab39c6	0.33442515
63	0xbe43b582	-0.19112208
64	0xbe8bcfd9	-0.27307013
65	0xbe8477ab	-0.2587255
66	0xbe8b5c90	-0.27219057
67	0xbe3b0a18	-0.18265569
68	0x3df7a824	0.12092617
69	0x3ee66ba1	0.4500399
70	0x3d9c9d3c	0.076471776
71	0xbe18a78d	-0.14907666
72	0xbdada89e	-0.08479427
73	0xbd602ac8	-0.0547283
74	0xbe8511d6	-0.2599017
75	0xbe4791db	-0.19489233
76	0x3e3c635e	0.1839728
77	0xbe4278ed	-0.18991442
78	0x3e35ae04	0.17742163
79	0x3df69d95	0.12041775
80	0x3e401d8c	0.18761271
81	0xbc2a8ba8	-0.010409273
82	0xbdfd5fc7	-0.12371784
83	0xbdb42e79	-0.087979265
84	0xbe9a7153	-0.30164585
85	0xbe2d5379	-0.16926374
86	0xbd354176	-0.04425188
87	0x3ccbe895	0.024891177
88	0x3df4facb	0.119618975
89	0xbce3abaa	-0.027791817
90	0x3e59989f	0.21249627
91	0xbd34bcbf	-0.044125315
92	0xbe2cc610	-0.1687243
93	0xbd35eb9e	-0.044414155
94	0x3e80a164	0.2512313
95	0xbd97db92	-0.074149266
96	0xbe1ff2b8	-0.15619934
97	0xbe198386	-0.14991578
98	0xbde24aa1	-0.110493906
99	0x3eb6d079	0.35705927
100	0x3eaeefe0	0.34167385
101	0x3c2f89ed	0.010714036
102	0x3dc6d5ad	0.09708724
103	0x3e1dd3b0	0.15412784
104	0x3dc83ffb	0.09777828
105	0xbe52ba7f	-0.20578955
106	0xbd96518b	-0.07339772
107	0x3cd0e89b	0.02550154
108	0x3e38e8bf	0.18057536
109	0x3df16cc6	0.11788325
110	0x3dadc48d	0.08484755
111	0xbd1762b3	-0.03695936
112	0x3e80dd59	0.25168875
113	0x3e4a313b	0.19745342
114	0xbe278bc4	-0.1636191
115	0xbd7a553a	-0.061116435
116	0xbd35b212	-0.044359274
117	0x3e68dfda	0.22741643
118	0x3d984933	0.07435837
119	0x3db17d93	0.086665295
120	0xbe05d66a	-0.13070074
121	0x3e080fc0	0.13287258
122	0x3cf4e750	0.029895455
123	0x3e5dbfc6	0.21655187
124	0x3e10d4f7	0.1414374
125	0xbdb8a736	-0.09016268
126	0xbdb7c7b0	-0.08973634
127	0x3da3f0ea	0.08004935
128	0xbd9ff01e	-0.078094706
129	0x3cb5b8df	0.02218288
130	0xbbbf75ea	-0.005842914
131	0xbcbc5d0e	-0.02299359
132	0xbe90b062	-0.2825957
133	0x3cc98d54	0.024603523
134	0xbe779623	-0.24178366
135	0x3dfdfbe0	0.12401557
136	0x3e4612bc	0.19343084
137	0x3ea71e3a	0.3264025
138	0x3c32a399	0.0109032625
139	0x3dbc8e74	0.09206858
140	0xbdf0a8a3	-0.11750915
141	0xbe18768a	-0.14888969
142	0x3d8a4d92	0.067530766
143	0xbe8646d6	-0.2622592
144	0x3d8cbaba	0.06871553
145	0x3da0a2e6	0.078435704
146	0x3ec6eafd	0.38851157
147	0x3e5bc68e	0.21462461
148	0x3e99da83	0.30049524
149	0x3e2fde09	0.17174543
150	0x3db9cce3	0.09072282
151	0x3e87b59b	0.2650574
152	0xbd4b3750	-0.049613297
153	0x3ed2aae4	0.41146004
154	0xbe3af1a7	-0.18256246
155	0x3d23e32c	0.04001157
156	0x3eeab6dd	0.4584264
157	0x3ea696e6	0.32537
158	0x3e6d8605	0.23195656
159	0x3ee30f00	0.44347382
160	0x3ed756c9	0.420584
161	0x3e9d0daf	0.30674502
162	0x3e62c13e	0.22144029
163	0xbdd25efa	-0.102720216
164	0xbe05ab45	-0.13053615
165	0x3d583976	0.052789174
166	0xbd85a6c6	-0.0652595
167	0xbe33f1ac	-0.17572659
168	0xbd8ba2cc	-0.068181604
169	0x3e141669	0.14461674
170	0x3e3d3d81	0.18480493
171	0x3e0b7fd5	0.13622983
172	0xbdf901ea	-0.12158568
173	0xbdedcc4d	-0.11611233
174	0x3dc19d04	0.094537765
175	0x3dec39dc	0.11534473
176	0xbe3400a5	-0.17578371
177	0x3e352b6a	0.17692342
178	0xbe968111	-0.29395345
179	0x3e359520	0.17732668
180	0x3c5246c2	0.012834253
181	0xbeb22888	-0.34796548
182	0x3d9461e0	0.07245231
183	0x3d99d4d2	0.075112954
184	0x3b6abb0f	0.0035817062
185	0x3e014f02	0.12627795
186	0xbda9e53c	-0.08295676
187	0xbd17a1db	-0.03701959
188	0x3e7555a0	0.23958445
189	0xbcba1f1c	-0.022719912
190	0xbe1847f9	-0.14871205
191	0x3dab89da	0.083759025
192	0xbe4abef1	-0.19799401
193	0xbe6ac7cf	-0.22927783
194	0xbe7462a2	-0.2386575
195	0x3dae2d7d	0.0850477
196	0x3e8882f7	0.26662418
197	0xbec66f45	-0.38756767
198	0x3eb86867	0.36017153
199	0x3e88e18b	0.26734576
200	0xbc62e208	-0.013847835
201	0x3f00c4b6	0.5030016
202	0x3e53ef65	0.2069679
203	0x3f06a77e	0.5259932
204	0x3eed6258	0.46364093
205	0x3effa2e4	0.49928963
206	0x3e3f4056	0.18676886
207	0x3b3e4abb	0.0029036242
208	0xbda574dc	-0.0807893
209	0xbd931e00	-0.071834564
210	0xbde559ca	-0.111987665
211	0xbcdba98c	-0.026814245
212	0xbc60b5e0	-0.013715237
213	0xbdf57415	-0.119850315
214	0xbd29d0b5	-0.041458804
215	0x3d9670dd	0.07345746
216	0x3e37e7e9	0.1795956
217	0x3f08f3cb	0.53497
218	0x3eb7b532	0.3588043
219	0x3eca7d06	0.3954851
220	0x3e04e352	0.12977341
221	0xbe1d8ab2	-0.1538494
222	0x3d6186e8	0.055060297
223	0x3e09beaa	0.13451639
224	0xbe8d38f6	-0.2758252
225	0xbca7f1ea	-0.020501096
226	0xbe58fe3e	-0.21190736
227	0xbea6eb6a	-0.32601482
228	0xbe7ff373	-0.24995212
229	0x3e5f4199	0.21802367
230	0xbe92cd7d	-0.286724
231	0xbe42dd27	-0.19029675
232	0xbe09b917	-0.13449512
233	0xbead5ab9	-0.33858278
234	0xbe90800f	-0.282227
235	0xbe2543ce	-0.16139147
236	0xbe304f8c	-0.17217845
237	0x3ebd02aa	0.36916095
238	0xbd39c8ce	-0.045357518
239	0x3e11530a	0.14191833
240	0x3e973fc9	0.29540852
241	0xbdb0f7b2	-0.08640994
242	0xbeaedd46	-0.34153193
243	0xbe01715c	-0.126409
244	0xbd1455b3	-0.03621454
245	0xbec64ac2	-0.3872891
246	0xbdd446d7	-0.10365074
247	0xbe4dabbd	-0.20085044
248	0xbdb45a66	-0.08806305
249	0xbd568d44	-0.052380815
250	0xbe4e08fb	-0.20120613
251	0xbd81f238	-0.06345028
252	0xbdfaae1b	-0.12240239
253	0xbec15bcc	-0.37765348
254	0xbf1324d3	-0.57478064
255	0xbdf40421	-0.1191485

conv1.conv2.0.bias f4 [8]
0	0xbd2c5dcd	-0.042081643
1	0x3d2304d6	0.039799534
2	0x3d56268d	0.05228286
3	0x3d5f8a57	0.05457529
4	0xbdc4d4dd	-0.09610913
5	0xbde214eb	-0.11039146
6	0xbdd69ea7	-0.10479479
7	0xbcc4b86d	-0.024013722

conv1.conv2.1.weight f4 [8]
0	0x3f38b239	0.72146946
1	0x3fa0fab5	1.257651
2	0x3f3009ad	0.68764764
3	0x3fa32bfe	1.27478
4	0x3f8b5cbf	1.0887679
5	0x3f9c41ce	1.2207582
6	0x3f8ea0ba	1.11428
7	0x3f8193cb	1.0123228

conv1.conv2.1.bias f4 [8]
0	0xbf00de2f	-0.50339025
1	0x3df65552	0.12027992
2	0xbecdf910	-0.40229082
3	0x3eb4567c	0.35222232
4	0x3e04dd81	0.12975122
5	0x3e34112f	0.1758468
6	0x3c245314	0.010029573
7	0xbd14af97	-0.036300268

conv1.conv2.1.running_mean f4 [8]
0	0xc001ba47	-2.0269945
1	0x3f4b5e7b	0.7944104
2	0x401bb36c	2.432826
3	0xc08b5486	-4.354068
4	0xbfa5b91c	-1.2947116
5	0xbe5db533	-0.21651153
6	0xc0963968	-4.6945076
7	0x3eb262da	0.34841043

conv1.conv2.1.running_var f4 [8]
0	0x414a5f70	12.6483
1	0x406415cd	3.5638306
2	0x41a294aa	20.32259
3	0x4128603b	10.523494
4	0x412d9bb1	10.850511
5	0x40691a16	3.6422172
6	0x40e60816	7.188487
7	0x3fba8b98	1.4573851

conv1.conv3.0.weight f4 [8, 8, 3, 3]
0	0x3e8bcc97	0.27304527
1	0xbe06d1a2	-0.13165906
2	0xbea49b1d	-0.32149592
3	0xbcfecf8b	-0.031104824
4	0x3d87ba23	0.066273
5	0xbdf7d8d2	-0.12101902
6	0x3ee726d3	0.45146808
7	0x3da7042d	0.08155093
8	0xbea29090	-0.31750917
9	0x3d0652ec	0.032793924
10	0x3d5c142d	0.05373018
11	0xbdbe28e9	-0.09285147
12	0x3ee0d22e	0.43910354
13	0xbec3f259	-0.38270834
14	0xbe0c739e	-0.1371598
15	0xbe2b06f7	-0.16701876
16	0xbe04244c	-0.12904471
17	0x3e595cb7	0.21226774
18	0xbe91d5fa	-0.28483564
19	0xbe59fa42	-0.21286872
20	0xba1f7d1c	-0.00060840114
21	0xbd90c0f6	-0.070680544
22	0x3e18fcdd	0.1494021
23	0xbe123ab2	-0.14280203
24	0x3d3034a6	0.04301896
25	0xbd1ef358	-0.03880629
26	0xbe67a3a9	-0.22621025
27	0xbe8da7cd	-0.27667084
28	0x3e046496	0.12928995
29	0xbd9d8ed6	-0.076932594
30	0x3ca17170	0.019707412
31	0xbdaa7a6d	-0.08324132
32	0xbdfd4904	-0.12367442
33	0xbd5aa8ae	-0.05338352
34	0xbc38d0d0	-0.0112802535
35	0x3e8ee365	0.27907863
36	0x3cdda040	0.027053952
37	0x3de42e06	0.11141591
38	0x3e8ca00f	0.27465865
39	0x3ece4df3	0.40293846
40	0x3eb1ffa7	0.3476536
41	0x3ef819d2	0.484572
42	0x3e314693	0.17312078
43	0xbe7113ff	-0.23542784
44	0x3e587786	0.21139345
45	0x3f0b0b47	0.5431408
46	0x3e2aaa22	0.16666463
47	0x3ead8f97	0.33898613
48	0xbcea2c24	-0.028585501
49	0x3e000913	0.12503462
50	0x3d25617f	0.040376183
51	0x3e05e1db	0.13074438
52	0x3eba20de	0.363532
53	0xbdcff459	-0.101540275
54	0x3e5a1031	0.21295239
55	0xbe642e32	-0.22283247
56	0xbdf29ab2	-0.11845912
57	0xbe03c571	-0.12868287
58	0xbd743afd	-0.059626568
59	0xbe5cb873	-0.21554737
60	0xbe5c12e0	-0.21491575
61	0xbe59565e	-0.21224353
62	0xbe237fbf	-0.159667
63	0x3d80745e	0.06272195
64	0xbe23336c	-0.15937585
65	0x3da1ba78	0.07896894
66	0x3e8c02d1	0.273459
67	0xbe800678	-0.25004935
68	0x3d369dc2	0.044584043
69	0xbdc619af	-0.096728675
70	0xbda7eff4	-0.08200064
71	0xbe6cf372	-0.23139742
72	0x3dc42a5c	0.09578392
73	0x3e402961	0.18765785
74	0x3e89283d	0.26788512
75	0x3dab2e7f	0.08358478
76	0x3e930067	0.28711244
77	0x3d6496a5	0.05580773
78	0xbc87d208	-0.016579643
79	0xbd69f357	-0.057116833
80	0x3dc97453	0.0983664
81	0xbe20d7d2	-0.15707329
82	0xbe734b2c	-0.23759145
83	0xbdf2fd56	-0.11864726
84	0xbed29236	-0.41127175
85	0x3d4cfafe	0.050044052
86	0x3ea8680a	0.32891876
87	0x3e67cb6e	0.22636196
88	0x3d9bf4f8	0.076150835
89	0x3ddbd8cf	0.10734712
90	0x3d064d37	0.03278848
91	0x3d5c5118	0.053788275
92	0x3e5ac8a4	0.21365601
93	0x3eb1edf7	0.34751865
94	0x3e2de5db	0.16982214
95	0x3eaa4587	0.3325617
96	0x3f2fa006	0.6860355
97	0x3f328854	0.6973927
98	0x3f0a92ec	0.54130435
99	0xbe1f4f8e	-0.15557691
100	0xbdc00378	-0.093756616
101	0x3c4be3a9	0.012444415
102	0xbe3b246c	-0.18275613
103	0xbe5625f3	-0.20912914
104	0xbe87e3be	-0.2654094
105	0x3e6af216	0.22943911
106	0xbeab66d3	-0.33476886
107	0xbe8b447f	-0.27200696
108	0x3c39ed37	0.01134806
109	0xbd6e33d4	-0.058154896
110	0xbe59bcf1	-0.21263482
111	0x3e69f506	0.22847375
112	0x3cea6130	0.028610796
113	0xbe2d4ccc	-0.16923827
114	0xbe190b51	-0.14945723
115	0x3dd37b3a	0.10326238
116	0x3c0e5105	0.008686309
117	0xbec0e1bf	-0.3767223
118	0xbdb44a8d	-0.08803282
119	0xbe3a66e8	-0.18203318
120	0x3d52cb34	0.05146332
121	0x3ca14c6a	0.019689757
122	0xbdb1919c	-0.08670351
123	0x3d4cd6cf	0.050009545
124	0x3dcb91fd	0.099399544
125	0xbe7da122	-0.24768499
126	0xbe24a6ad	-0.16079207
127	0xbe6ecc1b	-0.23320048
128	0xbe7a8aa7	-0.24466954
129	0xbed0926f	-0.4073672
130	0xbda95e6c	-0.08269963
131	0xbe427bce	-0.1899254
132	0xbed81036	-0.42199868
133	0xbd949e13	-0.07256713
134	0xbed64cff	-0.41855618
135	0x3d9fe7bb	0.07807871
136	0x3d98c746	0.074598834
137	0xbd171f6f	-0.03689521
138	0x3e89f2e8	0.26943135
139	0x3e3a521a	0.18195382
140	0x3e8b0d6b	0.27158675
141	0x3d0996fa	0.033591248
142	0x3e0b6099	0.13611068
143	0x3e593a19	0.21213569
144	0x3ccad357	0.024758978
145	0xbde61ae5	-0.112355985
146	0x3e44ac4c	0.19206351
147	0x3e1cc9fa	0.15311423
148	0xbd6623a1	-0.056186322
149	0xbda91bb2	-0.082572356
150	0x3e53a04f	0.20666622
151	0xbd45fe1e	-0.04833805
152	0x3d64ee1f	0.055891152
153	0xbdb3b754	-0.087752014
154	0xbf075fc5	-0.5288051
155	0xbe09d04e	-0.13458368
156	0xbd611af4	-0.054957345
157	0xbe9a2c5e	-0.30111974
158	0xbf1675e9	-0.58773667
159	0xbe40947a	-0.1880664
160	0xbe920399	-0.2851837
161	0xbf005eb2	-0.50144494
162	0x3defe9bc	0.11714503
163	0xbe95a26f	-0.2922549
164	0xbdb1ee1f	-0.08687996
165	0x3df8baf3	0.12145033
166	0xbe335fbe	-0.17516991
167	0x3e418e80	0.18902016
168	0xbd584eb2	-0.052809425
169	0x3e1ba565	0.15199812
170	0x3dfd3526	0.12363653
171	0x3e0cd322	0.13752416
172	0x3f03b449	0.5144697
173	0x3e06ff47	0.13183318
174	0x3e851b8c	0.2599758
175	0x3d84abe5	0.06478099
176	0x3e9962b6	0.29958123
177	0x3e18ddba	0.14928332
178	0xbe49d2e6	-0.19709358
179	0xbe8ddf22	-0.277093
180	0x3e2d21d4	0.16907436
181	0x3e1e7519	0.15474357
182	0x3f0ccc15	0.54998904
183	0x3dcec62a	0.100963905
184	0x3e562862	0.20913842
185	0x3e459822	0.19296315
186	0x3e3cfcff	0.18455885
187	0x3e9b452e	0.30326217
188	0x3e95f7c3	0.2929059
189	0x3a1a1de3	0.0005879087
190	0x3e9589af	0.29206607
191	0x3ea225cb	0.3166946
192	0x3ead5716	0.33855504
193	0x3e7b8283	0.24561505
194	0x3edac579	0.42728785
195	0x3de83a87	0.11339288
196	0x3ed41ce7	0.414283
197	0x3e02e0a5	0.12781008
198	0xbe914d36	-0.2837922
199	0xbd90c9a3	-0.07069709
200	0xbe16e899	-0.14737166
201	0xbe812876	-0.25226182
202	0x3e68caff	0.22733687
203	0x3f012aa2	0.5045568
204	0x3bf29bfc	0.0074038487
205	0x3dbe8842	0.09303333
206	0x3eb6239d	0.35574046
207	0x3d232acf	0.039835747
208	0x3c99bbe8	0.018766358
209	0xbea37913	-0.3192831
210	0x3d567029	0.052353058
211	0xbb477a45	-0.0030437869
212	0xbe957462	-0.29190356
213	0xbbc46274	-0.005993182
214	0xbdb47e97	-0.088132076
215	0x3cfce136	0.030869108
216	0x3e95059b	0.2910584
217	0xbe871aa6	-0.2638752
218	0x3d7af6ee	0.061270647
219	0xbc57668a	-0.013147006
220	0x3eab934a	0.3351081
221	0xbd0ed2b1	-0.0348689
222	0x3e10e8bc	0.14151281
223	0x3c0b7864	0.00851259
224	0x3db1f6c1	0.08689643
225	0xbdcc49e6	-0.099750325
226	0xbee4467d	-0.44585028
227	0xbe08ce37	-0.13359915
228	0xbd7787c7	-0.06043222
229	0xbd2b7c15	-0.04186638
230	0xbedd196d	-0.4318346
231	0xbe53888b	-0.20657556
232	0xbf1eb906	-0.62001073
233	0xbea35cc4	-0.31906712
234	0xbe1cd1d9	-0.15314426
235	0xbe25b507	-0.16182338
236	0x3cab4095	0.020904819
237	0xbc40f2d8	-0.011776648
238	0xbe312f8c	-0.17303294
239	0xbe71d53d	-0.236165
240	0xbe8993fb	-0.26870713
241	0xbdf53ae2	-0.11974122
242	0xbe6c8ecc	-0.23101348
243	0x3d13ce42	0.036085375
244	0x3eaaff35	0.33397833
245	0x3e5c3e8d	0.21508236
246	0x3f08c159	0.53420025
247	0x3e907cf1	0.28220323
248	0x3ed0c0de	0.40772146
249	0xbdcd7112	-0.10031332
250	0x3de06827	0.109573655
251	0xbb48627c	-0.003057628
252	0x3e0a7f35	0.13525088
253	0xbe26dac6	-0.16294393
254	0x3e434c1c	0.19072002
255	0xbdb2961c	-0.08720037

conv1.conv3.0.bias f4 [8]
0	0xbd891a77	-0.06694501
1	0x3cfd201f	0.030899106
2	0xbc2b82eb	-0.010468225
3	0xbde21411	-0.110389836
4	0x3a35a8a7	0.0006929733
5	0x3d190115	0.037354548
6	0x3dac843b	0.084236585
7	0x3dc39790	0.09550393

conv1.conv3.1.weight f4 [8]
0	0x3f73fee2	0.95310795
1	0x3f600bfc	0.87518287
2	0x3eec3b85	0.4613916
3	0x3fdd09ef	1.7268656
4	0x3f678cdf	0.9044933
5	0x3f146dfd	0.5798033
6	0x3fa89595	1.3170649
7	0x3f91f0ab	1.1401571

conv1.conv3.1.bias f4 [8]
0	0x3e3c2728	0.18374312
1	0x3ca36430	0.019945234
2	0xbedc5b16	-0.43038243
3	0x3f310b50	0.69157887
4	0xbce224b2	-0.027605388
5	0xbe945a18	-0.28974986
6	0x3ebeb464	0.37247002
7	0x3ea4f152	0.32215363

conv1.conv3.1.running_mean f4 [8]
0	0x3f35ef20	0.71068
1	0xbfc3bac2	-1.5291369
2	0x3fc7d3d0	1.5611515
3	0xbfa71746	-1.3053977
4	0xc079f707	-3.9057024
5	0x3f95deb5	1.170859
6	0xc02058da	-2.505423
7	0x3ea5c93a	0.32380086

conv1.conv3.1.running_var f4 [8]
0	0x409a7fdd	4.8281083
1	0x40ff9a78	7.987606
2	0x41f10a9e	30.130184
3	0x4128b8f2	10.545153
4	0x4198cdfd	19.10058
5	0x40d10205	6.5314965
6	0x41508187	13.031623
7	0x41263d5c	10.38998

conv2.conv1.0.weight f4 [16, 8, 3, 3]
0	0xbe8e9aa2	-0.2785235
1	0xbdf6c44a	-0.12049158
2	0x3dc47edc	0.09594509
3	0xbc845574	-0.016154028
4	0x3e1d0819	0.1533512
5	0x3ea7ac23	0.32748517
6	0xbdfd79b8	-0.12376732
7	0x3e8af90a	0.27143127
8	0x3d8077b1	0.06272829
9	0xbe779b49	-0.2418033
10	0x3d712401	0.058872227
11	0xbd8dce4c	-0.06924114
12	0xbebc4935	-0.36774603
13	0xbe0c5621	-0.1370473
14	0xbeaac27f	-0.33351514
15	0xbe63b200	-0.2223587
16	0x3db87bb1	0.09007967
17	0xbe59224b	-0.21204488
18	0x3e667d0b	0.22508638
19	0x3e6d69ef	0.23184942
20	0x3dd871cf	0.10568582
21	0xbd987112	-0.074434415
22	0xbeef8730	-0.46782827
23	0xbd417bbd	-0.047237147
24	0xbe32b4c5	-0.1745177
25	0x3d334659	0.04376826
26	0xbd6fb8a9	-0.058525715
27	0xbe2add31	-0.1668594
28	0xbeabf2f9	-0.3358381
29	0xbe926142	-0.28589827
30	0x3e1b761f	0.15181778
31	0xbc01f048	-0.007930823
32	0xbd94ce8c	-0.07265958
33	0xbdfc8a27	-0.12331038
34	0x3d8adebd	0.06780765
35	0xbdbe52c9	-0.09293134
36	0x3e6b0395	0.22950585
37	0x3d29312a	0.041306652
38	0x3d218986	0.039437793
39	0x3d5f1204	0.05446054
40	0xbe39455c	-0.18092865
41	0xbdf85b34	-0.121267706
42	0xbe5e01d1	-0.2168038
43	0xbd1ee05d	-0.03878819
44	0xbdd86c1f	-0.105674975
45	0x3d341fcf	0.043975648
46	0x3de5f73a	0.11228795
47	0x3e76abc9	0.24088968
48	0xbd7301ff	-0.059328075
49	0x3e86bdb2	0.263166
50	0x3e1821a0	0.14856577
51	0xbea9ea81	-0.33186725
52	0xbdc0ba05	-0.094104804
53	0xbde1845e	-0.11011575
54	0xbcf14c82	-0.029455427
55	0x3d9460df	0.07245039
56	0xbd10cd90	-0.03535229
57	0xbe0a1f48	-0.13488495
58	0xbd500dd4	-0.050794438
59	0xbeaf2b3f	-0.34212682
60	0xbea954ae	-0.33072418
61	0xbece9ec0	-0.40355492
62	0xbe13b2fb	-0.14423744
63	0xbdeb628e	-0.11493407
64	0xbdc0da85	-0.09416679
65	0xbe0cece7	-0.13762246
66	0xbd4a200a	-0.04934696
67	0xbec9efee	-0.39440864
68	0xbe20c9d7	-0.15701996
69	0x3dd73621	0.10508371
70	0xbe89809c	-0.26855934
71	0x3dad9053	0.08474793
72	0x3ec00f97	0.37511894
73	0x3e8e8a80	0.27840042
74	0xbb245ad7	-0.0025078559
75	0xbdd627b1	-0.10456789
76	0xbd64d0ad	-0.05586307
77	0xbe1a288e	-0.15054533
78	0xbcbfecec	-0.023428403
79	0xbe019c9a	-0.12657395
80	0x3d452c6e	0.048138075
81	0xbe212419	-0.15736426
82	0x3c26f399	0.010189914
83	0xbecb7408	-0.39736962
84	0xbeef20fb	-0.4670485
85	0xbe98d24e	-0.2984795
86	0xbe022e63	-0.12713008
87	0xbc1aa55d	-0.00943884
88	0x3d7e5495	0.062092382
89	0xbde1bb64	-0.1102207
90	0x3d706848	0.0586932
91	0x3cf1c088	0.029510751
92	0xbd955476	-0.072915
93	0xbe2e936b	-0.17048423
94	0xbd3b0e25	-0.045667786
95	0x3e61bf07	0.22045527
96	0xbf11b90b	-0.5692298
97	0xbd2cf093	-0.042221617
98	0xbc81b472	-0.015833113
99	0x3d3d1d74	0.046170667
100	0x3e461eaf	0.19347642
101	0x3e826a9f	0.2547197
102	0xbd60147b	-0.05470703
103	0x3d08a9fc	0.033365235
104	0x3eb6c341	0.35695842
105	0x3e0e55f5	0.13899978
106	0x3e868cff	0.26279446
107	0xbcd9d0c7	-0.02658881
108	0x3e03ad9f	0.128592
109	0x3d1e1db3	0.038602542
110	0xbea2b9fc	-0.3178252
111	0xbe77634d	-0.24158974
112	0xbdf750bf	-0.12075948
113	0x3ce2a4a9	0.027666407
114	0xbe82dbd8	-0.25558352
115	0xbd8d7c2f	-0.06908452
116	0x3d69ae4a	0.05705098
117	0xbddbaff6	-0.10726921
118	0xbe60403a	-0.218995
119	0xbe106ec7	-0.14104758
120	0x3b856cba	0.004071799
121	0xbe14c3e8	-0.14527857
122	0x3e951f3f	0.291254
123	0x3e899379	0.26870325
124	0x3e6e3345	0.23261745
125	0xbde9d7d8	-0.11418122
126	0x3dd3bb2b	0.10338434
127	0xbdbe3779	-0.09287924
128	0x3e2ae625	0.16689356
129	0xbde1d47f	-0.110268585
130	0xbd537589	-0.051625762
131	0xbedee0ba	-0.43530828
132	0x3e82e85d	0.25567904
133	0xbe52108b	-0.20514123
134	0xbe23ddf7	-0.16002642
135	0x3e101d19	0.140736
136	0xbd91644c	-0.07099208
137	0x3e16ec01	0.14738466
138	0x3e6afc70	0.2294786
139	0x3d6d12c9	0.057879243
140	0x3cf6c4e6	0.030123185
141	0x3e8b54ac	0.27213037
142	0x3e66d4fa	0.22542182
143	0x3e546380	0.20741081
144	0x3bb5b6e8	0.0055454858
145	0x3e0792e9	0.13239636
146	0x3e81f3e4	0.25381386
147	0x3d16d5d2	0.03682501
148	0xbd9b80ba	-0.07592912
149	0x3dd865cc	0.10566291
150	0x3eabeb49	0.33577946
151	0xbe070e8a	-0.1318914
152	0x3e4c5874	0.19955617
153	0xbdd6d9f7	-0.10490792
154	0x3dd9efce	0.10641442
155	0xbe25ddde	-0.16197917
156	0xbe51b755	-0.20480092
157	0x3e8d4413	0.27591
158	0x3d2751a9	0.04084936
159	0xbe33a6f7	-0.17544161
160	0xbe353234	-0.17694932
161	0x3c3b345a	0.011426056
162	0x3d653152	0.05595524
163	0xbe21aaa6	-0.15787753
164	0xbe5ae3f2	-0.21376017
165	0x3e4dd6f2	0.20101526
166	0x3e70b510	0.2350657
167	0xbebcd292	-0.36879402
168	0x3e5c92f2	0.2154043
169	0x3d986201	0.07440568
170	0xbe85f57a	-0.26163846
171	0xbe06a5c6	-0.13149175
172	0x3df1243e	0.11774491
173	0x3d89a648	0.06721169
174	0x3dd59239	0.104282804
175	0x3daa8301	0.08325768
176	0x3ea74530	0.32669973
177	0x3cc5ba7a	0.02413677
178	0x3e77a1e1	0.24182846
179	0x3e4f8531	0.20265652
180	0xbe56dcb1	-0.20982625
181	0xbd91d16a	-0.07120021
182	0x3da55319	0.0807249
183	0xbee92f86	-0.4554407
184	0xbd98a865	-0.07453994
185	0xba421b2c	-0.00074045616
186	0xbd6a02a1	-0.057131413
187	0x3e245c53	0.16050844
188	0x3de90a6b	0.1137894
189	0xbd8fea57	-0.07027119
190	0x3dad7113	0.08468833
191	0x3dda1986	0.106493995
192	0xbccd9a0e	-0.025097873
193	0x3e3b9c82	0.18321422
194	0xbde06d4f	-0.10958349
195	0xbdf7d6ec	-0.1210154
196	0xbe672c0f	-0.22575401
197	0x3eb01cf3	0.34397087
198	0x3eab724c	0.3348564
199	0xbe3e328b	-0.18573968
200	0xbe4bfb10	-0.19919991
201	0x3e9b2672	0.3030277
202	0x3c31cae3	0.010851595
203	0xbe7c2f79	-0.24627484
204	0xbd87f5a6	-0.066386506
205	0xbc871a0a	-0.016491909
206	0xbcd3a905	-0.02583743
207	0xbd9c5cdd	-0.076349
208	0x3e6bafd5	0.23016293
209	0x3e80fd0f	0.25193068
210	0xbf1de8ff	-0.6168365
211	0x3e303ef2	0.17211512
212	0xbe52136f	-0.20515226
213	0x3e9705bf	0.2949657
214	0x3e83fb24	0.25777543
215	0xbe02c987	-0.12772189
216	0x3e7ca499	0.24672164
217	0x3c8b236a	0.01698466
218	0xbc2f8485	-0.010712747
219	0xbd32d9c9	-0.043664727
220	0x3e9f489a	0.31110078
221	0xbe1157f1	-0.14193703
222	0x3da2023c	0.079105824
223	0xbd27adc2	-0.040937193
224	0xbb48bec0	-0.0030631274
225	0x3e7043c4	0.2346335
226	0xbdb25769	-0.087080784
227	0xbdc5a8c6	-0.096513316
228	0xbd3206a8	-0.04346338
229	0x3bb2e8c2	0.005459876
230	0x3db88893	0.090104245
231	0x3e16c815	0.14724763
232	0x3e787068	0.2426163
233	0x3e41aac6	0.18912801
234	0xbea62d90	-0.32456636
235	0x3dbf77cd	0.09349022
236	0x3c4158a2	0.011800917
237	0x3e0435d5	0.1291116
238	0xbe636607	-0.22206889
239	0x3d338f5c	0.04383789
240	0xbe2e37f8	-0.17013538
241	0xbe4512ff	-0.19245528
242	0x3e49f2c2	0.19721511
243	0xbebf0c9a	-0.37314302
244	0xbe81e9fc	-0.25373828
245	0xbd354584	-0.04425575
246	0xbe634421	-0.22193958
247	0xbe28434c	-0.16431922
248	0x3c0d3520	0.008618623
249	0x3e2f7af6	0.1713675
250	0x3e3b7cb2	0.18309286
251	0x3e869c6e	0.2629122
252	0xbea55a64	-0.32295525
253	0x3e033f58	0.12817132
254	0xbd8eb3d6	-0.06967895
255	0xbe5bde04	-0.21471411

conv2.conv1.0.bias f4 [16]
0	0x3da97b1c	0.082754344
1	0xbbaf6990	-0.00535316
2	0xbdc38937	-0.09547656
3	0x3dacfa70	0.08446205
4	0xbc11a629	-0.008889713
5	0x3d3ec32a	0.04657284
6	0xbd864ad2	-0.065572396
7	0x3db0e2ee	0.086370334
8	0x3da6b978	0.08140844
9	0x3b25b902	0.0025287275
10	0x3dc0a52f	0.09406506
11	0xbc995df0	-0.01872155
12	0xbcefb917	-0.029263062
13	0x3daf1c1e	0.08550285
14	0x3d06b8ca	0.032891072
15	0x3dd549c5	0.10414461

conv2.conv1.1.weight f4 [16]
0	0x3f96f017	1.179202
1	0x3f7dd242	0.9914895
2	0x3f7c339a	0.9851624
3	0x3f65eb35	0.8981202
4	0x3f95caff	1.1702574
5	0x3fc09815	1.5046412
6	0x3f6e36dd	0.93052465
7	0x3f2b2b76	0.6686319
8	0x3f70747d	0.93927747
9	0x3f338de3	0.70138377
10	0x3fb81bc6	1.4383476
11	0x3f36d88c	0.71424174
12	0x3fa4e814	1.2883325
13	0x3f994423	1.1973919
14	0x3f647008	0.89233446
15	0x3f084d61	0.5324307

conv2.conv1.1.bias f4 [16]
0	0x3eb13e91	0.34618047
1	0x3d339e93	0.0438524
2	0x3d12daca	0.035853185
3	0xbe80b5b2	-0.25138623
4	0x3df5133a	0.11966558
5	0x3f40cc81	0.7531205
6	0x3bdc09a5	0.006715017
7	0xbe4a9ec4	-0.19787127
8	0x3c130018	0.00897219
9	0xbf1c3091	-0.61011606
10	0x3eb71fae	0.35766357
11	0xbe5b4ed3	-0.21416788
12	0x3e099deb	0.13439147
13	0x3e08bdb0	0.1335361
14	0x3e2b814a	0.16748539
15	0xbf00ca98	-0.50309134

conv2.conv1.1.running_mean f4 [16]
0	0xc06412aa	-3.5636392
1	0x3f9eb145	1.2397848
2	0x3fbbb27a	1.4663842
3	0xbfdca9f4	-1.7239366
4	0x402909b9	2.6412184
5	0xbd2b0f02	-0.04176236
6	0xbefd63b3	-0.49490127
7	0xbff239c0	-1.8923874
8	0xbfe101a9	-1.7578632
9	0x412622a0	10.383453
10	0x402f9d66	2.7439818
11	0x3f9b24a6	1.2120559
12	0xc0388cf9	-2.8836043
13	0x3f0991bc	0.53738
14	0xc095648e	-4.6685247
15	0xbfb13363	-1.3843807

conv2.conv1.1.running_var f4 [16]
0	0x404fd47d	3.2473443
1	0x4148f2b3	12.559253
2	0x408c128b	4.3772635
3	0x4061d762	3.528771
4	0x40556fc2	3.3349462
5	0x40d49b3a	6.6439486
6	0x407cf175	3.9522374
7	0x409ace1c	4.83766
8	0x40ad6a4c	5.4192257
9	0x431e55b6	158.33481
10	0x40d2037c	6.5629253
11	0x40d7e08e	6.7461615
12	0x410a3159	8.637048
13	0x403a3215	2.9093068
14	0x41afad19	21.95952
15	0x4079e8a3	3.904824

conv2.conv2.0.weight f4 [16, 16, 3, 3]
0	0xbd94bcb3	-0.07262554
1	0xbc10a185	-0.008827572
2	0x3daff117	0.08590906
3	0x3cc9288c	0.024555467
4	0x3e296348	0.16541779
5	0xbe1d077a	-0.15334883
6	0xbe1c8271	-0.15284134
7	0xbe478193	-0.19483022
8	0xbdd7a502	-0.105295196
9	0x3d5dc083	0.05413867
10	0x3dc0ea36	0.09419672
11	0xbd95a1dc	-0.07306263
12	0x3dda1053	0.10647645
13	0x3e8ecda0	0.27891254
14	0x3cb8da3f	0.022565005
15	0x3e5ea969	0.21744312
16	0x3e887440	0.26651192
17	0x3d959fc0	0.073058605
18	0x3e2fbf18	0.1716274
19	0x3d19866d	0.037481714
20	0xbcedfd3f	-0.029051421
21	0x3e96204c	0.29321516
22	0xbe1d3e6a	-0.1535584
23	0x3d4fa746	0.050696634
24	0xbbf40508	-0.007446889
25	0xbe6c3b4f	-0.230695
26	0xbc1f5344	-0.009724442
27	0xbe432e88	-0.19060719
28	0x3dcf8667	0.10133057
29	0xbe00611e	-0.12537047
30	0xbdb4bd6c	-0.08825192
31	0xbe2b6c49	-0.16740526
32	0x3ddb1df8	0.106990755
33	0x3e68f018	0.22747838
34	0x3da528c1	0.08064414
35	0xbe8806f4	-0.26567805
36	0xbda22069	-0.07916338
37	0xbceb4d9e	-0.028723534
38	0xbda0d9b3	-0.07854023
39	0x3c34e92f	0.011041923
40	0xbd5b32a8	-0.053515106
41	0xbe024c6c	-0.12724465
42	0x3c4fe9f7	0.012690059
43	0x3e207a17	0.15671574
44	0x3e5af497	0.21382366
45	0x3cbfb7e1	0.02340311
46	0xbd8e8fbe	-0.069610104
47	0xbe212c5e	-0.15739581
48	0x3e0e69bb	0.1390752
49	0xbd9e711e	-0.07736419
50	0x3cab8faf	0.020942537
51	0xbd4afa61	-0.049555186
52	0x3e6e3974	0.23264104
53	0x3e4b4215	0.19849427
54	0x3c054e4e	0.008136345
55	0xbdf871de	-0.121310934
56	0x3dcde9aa	0.100543335
57	0xbb395479	-0.002827911
58	0xbdf7ae39	-0.12093777
59	0xbdd597e4	-0.104293615
60	0x3afab173	0.001912637
61	0xbe4760c3	-0.19470505
62	0xbe34796e	-0.17624447
63	0xbdea4494	-0.114388615
64	0x3df3d5dd	0.119060256
65	0xbdd41ab9	-0.103566594
66	0xbe1e9e1f	-0.15490006
67	0xbe250b7b	-0.1611766
68	0xbb90ff59	-0.004424971
69	0x3d03abbc	0.0321462
70	0x3d43cdde	0.047803752
71	0xbd91e69c	-0.071240634
72	0xbcb2172a	-0.021739561
73	0xbc0ece7e	-0.008716224
74	0xbe3aa62f	-0.18227457
75	0x3e04f528	0.12984145
76	0x3da35c99	0.07976646
77	0xbe87850f	-0.26468703
78	0x3e4869f9	0.19571675
79	0x3cb624ae	0.022234287
80	0x3d95e6db	0.07319423
81	0xbe50d523	-0.20393805
82	0x3dc3b00a	0.09555061
83	0x3dc64f93	0.09683146
84	0xbdce02e6	-0.100591466
85	0x3ddeb336	0.108740255
86	0xbe91821e	-0.28419584
87	0x3e249028	0.16070616
88	0xbd44df33	-0.04806442
89	0x3d3ac506	0.045598052
90	0x3e02ca82	0.12772563
91	0xbd205261	-0.039141063
92	0x3db54e2e	0.08852802
93	0x3e221f1b	0.15832178
94	0x3eb48028	0.35254025
95	0x3e62f0cb	0.22162168
96	0x3e66e9a5	0.22550066
97	0x3eb421db	0.3518208
98	0x3ca6d771	0.020366402
99	0xba88ec92	-0.001044648
100	0xbd42660c	-0.0474606
101	0xbdd8eb9d	-0.10591815
102	0x3e26d2af	0.16291307
103	0x3d74d179	0.05977008
104	0xbdaaff32	-0.08349456
105	0xbe0672e9	-0.13129772
106	0x3c95a5a9	0.01826747
107	0x3e8a44cd	0.27005616
108	0xbdeac61e	-0.11463569
109	0x3e0ec7fc	0.13943475
110	0xbe8a6840	-0.2703266
111	0xbe0c86d5	-0.1372331
112	0xbd9796f5	-0.0740184
113	0xbe9c338b	-0.30508074
114	0xbe5e3f82	-0.21703914
115	0x3a1910f4	0.0005839013
116	0xbd273aa2	-0.0408274
117	0xbbdd6fea	-0.006757726
118	0x3dcffdb9	0.10155816
119	0xbda069cf	-0.078326814
120	0x3e980dca	0.2969802
121	0xbcd81686	-0.026377928
122	0x3e60be52	0.21947601
123	0x3d3209a8	0.04346624
124	0x3e0b4f03	0.1360436
125	0x3e965b01	0.29366305
126	0x3ded0a3d	0.115742184
127	0xbdc0c06d	-0.09411702
128	0x3d0b1936	0.03395959
129	0xbe40e7bd	-0.18838401
130	0x3c82d206	0.015969288
131	0x3c40fbfe	0.01177883
132	0xbe020700	-0.12697983
133	0x3e411be2	0.18858293
134	0xbdb218df	-0.0869615
135	0x3dbde0ba	0.09271379
136	0x3dfea0b5	0.12432996
137	0xbe0d0769	-0.13772358
138	0x3e0a7e36	0.13524708
139	0x3dfa2937	0.12214892
140	0xbde20278	-0.11035627
141	0x3cc6de57	0.024275942
142	0xbed76113	-0.4206625
143	0x3e242fcb	0.16033857
144	0x3d1903fb	0.03735731
145	0xbd89e151	-0.06732429
146	0x3bc55f4a	0.006023322
147	0xbd2cdebf	-0.042204615
148	0x3ee72ac0	0.45149803
149	0xbd519a89	-0.051172767
150	0xbccd2ae4	-0.025044866
151	0x3ea1257e	0.31473917
152	0xbdeab9d3	-0.114612244
153	0xbe2040f1	-0.15649773
154	0xbe0efeb5	-0.1396435
155	0xbe0abd74	-0.13548833
156	0xbe2da15e	-0.16956088
157	0xbd912019	-0.070862
158	0xbddf6324	-0.109075814
159	0x3cff169b	0.031138709
160	0xbe665ab7	-0.22495542
161	0xbecf96ba	-0.40544683
162	0xbd10bbc8	-0.035335332
163	0x3d26f922	0.040764935
164	0xbd4577ef	-0.04821008
165	0xbdf41fc1	-0.11920119
166	0x3c6c0531	0.014405535
167	0xbd1da731	-0.038489524
168	0xbe1c7ac6	-0.1528121
169	0xbd3756ea	-0.044760622
170	0x3d852a3e	0.06502198
171	0x3e39e146	0.18152341
172	0xbe191f38	-0.14953315
173	0xbe516ed4	-0.20452434
174	0xbe84ac6c	-0.25912797
175	0x3ce84bf4	0.02835653
176	0xbde45f41	-0.11150981
177	0xbd2a271e	-0.04154121
178	0x3dc899ea	0.09794982
179	0xbcc84ecf	-0.024451641
180	0x3e9511df	0.29115197
181	0x3e05e8b4	0.1307705
182	0xbb8aa92d	-0.004231593
183	0x3e3ae340	0.18250751
184	0x3ea4c13d	0.3217868
185	0x3e6e7525	0.23286875
186	0xbd9bf633	-0.07615318
187	0x3df6cda4	0.120509416
188	0xbe810782	-0.2520104
189	0xbe44c51b	-0.19215815
190	0x3e23b86e	0.15988323
191	0x3df82b19	0.12117595
192	0x3de30e0d	0.11086664
193	0xbdc9a8eb	-0.09846672
194	0x3e1a8f54	0.15093738
195	0xbd38e3b7	-0.04513904
196	0xbcbc23dc	-0.022966318
197	0xbdc01850	-0.09379637
198	0x3dafffe3	0.085937284
199	0xbd883489	-0.06650645
200	0x3e013f39	0.12621774
201	0xbd7b865e	-0.06140744
202	0x3d860375	0.06543628
203	0xbe20112e	-0.15631554
204	0xbc929eb2	-0.017897937
205	0xbe3d6524	-0.18495613
206	0xbe607de3	-0.21923022
207	0xbe6c054c	-0.23048896
208	0xbeb2a3ae	-0.34890503
209	0xbe068d24	-0.13139778
210	0x3c8bf130	0.01708278
211	0x3c29800f	0.010345473
212	0x3e069631	0.13143231
213	0xbd1100e6	-0.035401247
214	0x3e517ff2	0.20458964
215	0x3e0d1cba	0.1378049
216	0xbc552915	-0.013010283
217	0xbe0f3b34	-0.13987428
218	0xbde93a4d	-0.11388073
219	0xbdd68182	-0.104739204
220	0x3e74819c	0.23877567
221	0x3d584d3a	0.052808024
222	0x3eab3568	0.33439183
223	0x3e126851	0.14297606
224	0x3d84a4f5	0.064767756
225	0x3dec7b1d	0.115469195
226	0xbdbcf200	-0.09225845
227	0xbe0b45d8	-0.13600862
228	0xbcdec761	-0.02719468
229	0xbca9cd65	-0.020727823
230	0xbd83ef52	-0.06442131
231	0x3d8781ca	0.06616552
232	0xbd8cd9a2	-0.06877448
233	0xbd3aa1ff	-0.045564648
234	0x3df045c2	0.11732055
235	0x3e396dc4	0.18108279
236	0xbe04f093	-0.12982397
237	0x3d98c7b9	0.07459969
238	0xbe844121	-0.2583094
239	0x3c1afaad	0.00945918
240	0xbdd7dbb6	-0.105399534
241	0xbe05e17b	-0.13074295
242	0xbe1f3e91	-0.15551211
243	0x3e1ab542	0.15108207
244	0x3e8ea19b	0.2785767
245	0x3e9ebe18	0.31004405
246	0x3dd965ce	0.10615121
247	0x3e5af938	0.21384132
248	0xbe7b5602	-0.24544528
249	0x3ce77b1a	0.028256942
250	0xbd77762f	-0.060415443
251	0xbc18f9e5	-0.009336923
252	0x3e23379b	0.1593918
253	0x3e8964a1	0.26834586
254	0xbde83108	-0.11337477
255	0x3e8b1334	0.27163088

conv2.conv2.0.bias f4 [16]
0	0xbbc98023	-0.0061493083
1	0x3ca5e563	0.020250982
2	0x3da33b8c	0.07970342
3	0xbbbd6f81	-0.0057811146
4	0xbd551689	-0.052023444
5	0x3aa56fc3	0.0012621809
6	0xbd784947	-0.060616758
7	0x3cc19eb6	0.02363525
8	0x3da42b72	0.08016099
9	0x3d87fa8d	0.06639586
10	0x3d7d2441	0.061802153
11	0x3d6ea91b	0.05826674
12	0xbd5fdcde	-0.054653995
13	0x3d8582f4	0.06519118
14	0xbd820dd6	-0.06350295
15	0xbcce03a8	-0.025148228

conv2.conv2.1.weight f4 [16]
0	0x3fa419dd	1.2820393
1	0x3f8a9df5	1.0829455
2	0x3f5bf57e	0.85921466
3	0x3f9e2b9d	1.235706
4	0x3f8a87ba	1.082267
5	0x3f4bff5b	0.79686517
6	0x3f515815	0.8177503
7	0x3f975866	1.1823852
8	0x3f96e6f0	1.1789227
9	0x3f63af18	0.88939047
10	0x3f51d744	0.81969094
11	0x3f79ea34	0.9762299
12	0x3f8c2a35	1.095038
13	0x3f8ed5ce	1.1158998
14	0x3f35da67	0.7103638
15	0x3f965453	1.1744484

conv2.conv2.1.bias f4 [16]
0	0x3eabd8b6	0.33563775
1	0x3e91623f	0.28395268
2	0xbec9c0cc	-0.39404905
3	0x3d4e0843	0.050300848
4	0x3e82de9f	0.2556047
5	0xbd7d2149	-0.06179932
6	0x3db3b056	0.08773868
7	0x3dabb938	0.08384937
8	0xbee0ad23	-0.43882093
9	0xbdbef5e4	-0.09324244
10	0xbea4f43e	-0.32217592
11	0x3d632953	0.05545933
12	0x3e0f7da6	0.14012775
13	0x3dab03eb	0.08350357
14	0xbf2c4f60	-0.67308617
15	0x3e86baf4	0.2631451

conv2.conv2.1.running_mean f4 [16]
0	0x3f8129f8	1.0090933
1	0x3ea69ef9	0.32543162
2	0x402b52da	2.6769319
3	0xc058f972	-3.390225
4	0x3f93fe29	1.1561939
5	0xbdacdbf1	-0.08440388
6	0xc0755f4d	-3.8339417
7	0xbf052c76	-0.52020967
8	0x413f8b8d	11.97157
9	0x4033a3d7	2.806875
10	0x3fff07b7	1.9924229
11	0x3efa0239	0.4882982
12	0xc03c832b	-2.9455059
13	0x40a5e05e	5.1836386
14	0x4137638c	11.461803
15	0x3db054b3	0.08609905

conv2.conv2.1.running_var f4 [16]
0	0x413d13b3	11.817309
1	0x40b8ec1d	5.7788224
2	0x4173f8be	15.248228
3	0x40a6c3eb	5.211416
4	0x4109c725	8.611119
5	0x4119f13b	9.621394
6	0x417f8fa5	15.972569
7	0x40a37eb3	5.109216
8	0x431c5698	156.33826
9	0x4092f6f0	4.5926437
10	0x3fe42b2f	1.7825679
11	0x409c458a	4.8834887
12	0x4106dee8	8.42942
13	0x4203b8ff	32.93066
14	0x434852e6	200.32382
15	0x40f0d4f1	7.525994

conv2.conv3.0.weight f4 [16, 16, 3, 3]
0	0xbddcd156	-0.10782115
1	0xbe2c5258	-0.16828287
2	0xbdb61065	-0.08889846
3	0xbdd4e7ef	-0.103958
4	0xbc9a3aaa	-0.018826801
5	0xbe92c4df	-0.28665826
6	0xbe529b17	-0.20566975
7	0xbd37ac31	-0.04484195
8	0xbdd14762	-0.10218693
9	0xbda6a03d	-0.08136032
10	0xbdb7c916	-0.08973901
11	0xbd362da5	-0.044477124
12	0xbe739b68	-0.23789752
13	0xbe5410c3	-0.20709519
14	0xbcfc0a1f	-0.030766545
15	0xbe398600	-0.18117523
16	0xbe6904a9	-0.22755684
17	0xbdb1fa10	-0.08690274
18	0xbe699e22	-0.22814229
19	0xbe8a8c7c	-0.27060306
20	0xbe13b494	-0.14424354
21	0xbe30d11c	-0.17267269
22	0xbe3920f8	-0.18078983
23	0xbe93a101	-0.28833774
24	0xbdb30d48	-0.087427676
25	0xbe1cbe10	-0.15306878
26	0xbd5d834e	-0.0540803
27	0x3da54047	0.080689006
28	0x3dd4f7df	0.1039884
29	0x3db520e5	0.08844165
30	0x3dcd4211	0.10022367
31	0x3ce111c3	0.02747429
32	0x3e05e305	0.13074882
33	0x3e7bb398	0.24580228
34	0x3e368097	0.1782249
35	0x3e12dbda	0.14341679
36	0x3d0f1ea6	0.034941338
37	0xbdfbdca3	-0.122979425
38	0xbec05033	-0.37561187
39	0x3d5ce982	0.053933628
40	0xbe648815	-0.22317536
41	0xbdde2845	-0.108475246
42	0xbdc2f59a	-0.09519501
43	0xbe12b662	-0.14327386
44	0xbd6d0c12	-0.05787284
45	0xbea75ea2	-0.32689387
46	0xbe9e887f	-0.30963513
47	0xbe0316a2	-0.12801602
48	0xbed2b007	-0.41149923
49	0xbe32355e	-0.1740317
50	0xbec815b3	-0.39079055
51	0xbe2a851f	-0.16652344
52	0xbe3d1d71	-0.18468262
53	0xbd8f7215	-0.07004181
54	0xbe404062	-0.1877456
55	0xbd390510	-0.045170844
56	0xbe305ab2	-0.17222098
57	0xbe8a160b	-0.26969942
58	0x3cd43faf	0.025909273
59	0xbe6e2f9a	-0.23260346
60	0xbe3fea0e	-0.18741629
61	0xbd051e6b	-0.032499712
62	0xbec7121f	-0.38881013
63	0x3da452a7	0.08023577
64	0x3cfb42b1	0.03067145
65	0xbded211a	-0.11578579
66	0x3dfde3e1	0.1239698
67	0xbe159fbf	-0.1461172
68	0xbe4117fc	-0.18856806
69	0xbe36de19	-0.17858161
70	0xbd359ac2	-0.04433704
71	0xbc3d79d7	-0.011564693
72	0x3c52d0a8	0.01286713
73	0xbe51118c	-0.2041685
74	0xbd5a800b	-0.053344768
75	0xbd72a338	-0.05923769
76	0xbe1ee665	-0.15517576
77	0xbd27fc46	-0.04101207
78	0xbe6ee672	-0.23330095
79	0xbecc7190	-0.3993039
80	0xbd3bcfb7	-0.04585239
81	0x3d60e310	0.054904044
82	0x3c4eb480	0.012616277
83	0x3e0089f4	0.12552625
84	0x3cf63ec4	0.030059226
85	0x3dfc4b84	0.12319091
86	0x3de6da19	0.112720676
87	0x3ded43f4	0.11585227
88	0x3da5f933	0.081041716
89	0x3e2b7c7b	0.16746704
90	0xbdc25613	-0.094890736
91	0xbe6dc852	-0.23220947
92	0xbeb144a0	-0.3462267
93	0xbe80bdc0	-0.25144768
94	0xbd19ee14	-0.037580565
95	0xbd64544f	-0.055744465
96	0xbeda8873	-0.42682227
97	0xbeb92b37	-0.36165783
98	0xbe43e382	-0.19129756
99	0xbe51ce19	-0.20488776
100	0xbe31f2c3	-0.17377762
101	0x3d2ec6c3	0.042670023
102	0xbe8e5574	-0.2779957
103	0xbe8f6a6f	-0.2801089
104	0xbe87fe99	-0.2656143
105	0xbea0bc60	-0.3139372
106	0xbca81ce6	-0.020521592
107	0xbe6ab87b	-0.22921936
108	0x3d81c054	0.06335512
109	0x3d0da9a7	0.03458562
110	0xbdf3e84a	-0.1190954
111	0xbd50237e	-0.050815098
112	0x3d68f829	0.05687729
113	0x3d99f8ae	0.07518135
114	0x3e02b06b	0.1276261
115	0x3d283274	0.04106374
116	0x3e512cbc	0.20427221
117	0x3e16f2ce	0.1474106
118	0x3e7e8ed2	0.24859169
119	0x3d829279	0.06375594
120	0x3da267d8	0.07929963
121	0x3e1e520f	0.1546099
122	0x3ca5aa24	0.020222731
123	0x3e3be5b5	0.18349345
124	0xbdad9465	-0.0847557
125	0xbd885100	-0.066560745
126	0xbd3c5734	-0.0459816
127	0x3e7e0522	0.24806646
128	0x3e2cb577	0.16866098
129	0x3da62b31	0.08113707
130	0x3da3c72a	0.07996972
131	0xbe199a96	-0.15000376
132	0x3e13b561	0.1442466
133	0x3d88c985	0.06679062
134	0x3e4d6e77	0.2006167
135	0x3d2dd30d	0.0424376
136	0xbdfe9ccd	-0.12432251
137	0xbe34a530	-0.17641139
138	0xbe4a56e6	-0.19759712
139	0xbe1bbafe	-0.1520805
140	0xbe64fd1d	-0.2236218
141	0xbe3288ea	-0.17435041
142	0xbe044fb9	-0.12921037
143	0xbe350602	-0.17678073
144	0x3e3eae16	0.18621096
145	0x3ee6aee2	0.450553
146	0x3ec43b30	0.38326406
147	0x3eb23b0d	0.34810677
148	0x3ec2f95a	0.38080865
149	0x3eb4ffc5	0.35351387
150	0x3e8901f9	0.26759318
151	0x3df53686	0.1197329
152	0x3e8f41a0	0.27979755
153	0x3e9fb083	0.31189355
154	0x3e574b56	0.21024832
155	0x3e6949af	0.22782014
156	0x3e58ae87	0.21160327
157	0x3e4aa435	0.19789203
158	0x3eb4367b	0.35197815
159	0x3ed7f5e7	0.42179796
160	0x3ea9bce3	0.33151922
161	0x3eac1fd0	0.3361802
162	0x3e891398	0.2677276
163	0xbc4804d6	-0.012208184
164	0x3e965805	0.2936403
165	0x3eda0a53	0.42586002
166	0x3e544156	0.20728049
167	0x3deb8d6e	0.11501585
168	0x3e9b89cc	0.30378568
169	0x3eb7a20a	0.35865813
170	0x3f047387	0.5173878
171	0xbe0c7582	-0.137167
172	0xbd2841b4	-0.041078284
173	0xbcde720b	-0.02715399
174	0x3d2da588	0.04239419
175	0x3c1d61ff	0.009605884
176	0xbd827ec6	-0.06371836
177	0xbd92fc56	-0.071770355
178	0xbdca1234	-0.09866753
179	0xbba036cf	-0.004889346
180	0x3dd937c5	0.1060634
181	0x3e158175	0.14600165
182	0x3ea995e3	0.33122167
183	0x3f00627d	0.5015028
184	0x3e1cb7f9	0.15304555
185	0x3eb09754	0.34490454
186	0x3e218a10	0.15775323
187	0x3ebbb668	0.36662602
188	0x3ed2dce5	0.41184154
189	0x3e510b8c	0.20414561
190	0x3e245624	0.16048485
191	0x3dd44eb6	0.103665754
192	0x3e38f200	0.18061066
193	0x3e572469	0.21009983
194	0x3e394377	0.18092142
195	0x3e5821cd	0.21106644
196	0x3ea0c072	0.31396824
197	0x3ebbbfa5	0.3666965
198	0x3e08d37d	0.13361926
199	0xbe497387	-0.19672976
200	0xbdbb6994	-0.09150997
201	0xbdf129a6	-0.11775522
202	0xbd837575	-0.064188875
203	0xbe5fa110	-0.21838784
204	0x3c32665b	0.010888661
205	0xbe29a91f	-0.16568421
206	0xbdbac1ca	-0.091189936
207	0x3ec60bf1	0.38680986
208	0x3ee90d14	0.4551779
209	0x3f13304d	0.57495576
210	0x3f0cb8b4	0.54969335
211	0x3e79ac32	0.24382094
212	0x3e9bcdb9	0.3043039
213	0x3ec35090	0.38147402
214	0xbce30c87	-0.027715934
215	0x3e339dd0	0.1754067
216	0x3ec14375	0.37746778
217	0x3ebfa989	0.37434033
218	0x3f151032	0.5822784
219	0x3e876a42	0.26448256
220	0x3ed78b89	0.42098644
221	0x3e9b6ed6	0.30358
222	0x3e1e1101	0.15436174
223	0x3e9a3e86	0.30125827
224	0x3e3e1714	0.18563491
225	0xbef16202	-0.47145087
226	0xbed9f6ba	-0.4257105
227	0xbe55c577	-0.20876108
228	0xbed00ba0	-0.4063387
229	0xbee1fc33	-0.44137725
230	0xbeb541ad	-0.3540167
231	0xbe87de0c	-0.26536596
232	0xbed132c0	-0.40859032
233	0xbf0d39db	-0.55166405
234	0x3e683969	0.2267815
235	0xbdf47b9a	-0.119376376
236	0x3de92991	0.11384881
237	0x3e6d9c47	0.23204146
238	0x3e57ef96	0.21087489
239	0x3d49af04	0.049239174
240	0x3ee4cb73	0.4468647
241	0xba0e1651	-0.00054201955
242	0x3e864e82	0.26231772
243	0x3e900883	0.28131494
244	0x3d463b62	0.048396476
245	0x3ea90ff4	0.33019984
246	0x3ec8f902	0.39252478
247	0x3e95d6d8	0.29265475
248	0x3e5dbaef	0.21653341
249	0x3dddb0be	0.108247265
250	0x3ec2090b	0.37897524
251	0x3ebcf3d6	0.36904782
252	0xbea6b2f0	-0.32558393
253	0xbeb56302	-0.354271
254	0xbed71114	-0.42005217
255	0xbeeb610b	-0.45972475

conv2.conv3.0.bias f4 [16]
0	0xbc888826	-0.016666483
1	0x3d32f054	0.043686226
2	0xbd4ee07c	-0.050507054
3	0xbd22ab9c	-0.03971444
4	0x3da10f2d	0.07864223
5	0x3c04d99e	0.008108525
6	0xbda4c214	-0.0804483
7	0x3c071150	0.008243874
8	0xbd6ddaf0	-0.058070123
9	0x3d2ca610	0.042150557
10	0x3c2dd762	0.010610433
11	0x3d9ab691	0.07554353
12	0x3c5a8113	0.013336438
13	0x3d76ba11	0.06023604
14	0x3d9e9d72	0.07744874
15	0x3d9e20b2	0.0772108

conv2.conv3.1.weight f4 [16]
0	0x3f80aa7d	1.0052029
1	0x3fa9b0e3	1.3257107
2	0x3f6dafbe	0.92846286
3	0x3f6d961f	0.9280719
4	0x3f8643f2	1.0489485
5	0x3f6cfd5a	0.92574084
6	0x3f7b4497	0.98151535
7	0x3f6e994c	0.9320266
8	0x3f0b5eeb	0.5444171
9	0x3f8f8980	1.1213837
10	0x3f8d1866	1.1023071
11	0x3fcba164	1.5908628
12	0x3f73aea9	0.95188385
13	0x3f939d2c	1.153234
14	0x3f7de4f8	0.99177504
15	0x3f231b97	0.63713974

conv2.conv3.1.bias f4 [16]
0	0x3e11a88c	0.14224452
1	0xbebbe057	-0.36694595
2	0x3db242f3	0.08704176
3	0xbd1729d5	-0.03690513
4	0xbe14a806	-0.14517221
5	0x3d9bd407	0.076088004
6	0xbe2d10b1	-0.16900899
7	0xbd01fdf6	-0.031736337
8	0xbeba530d	-0.36391488
9	0xbd675ae9	-0.056483183
10	0x3e14fb0d	0.14548893
11	0x3f20be24	0.6279013
12	0x3d2f86ed	0.042853285
13	0x3ed258df	0.41083428
14	0xbd9078db	-0.07054301
15	0xbe5a0b6d	-0.21293421

conv2.conv3.1.running_mean f4 [16]
0	0xc094a5e9	-4.6452527
1	0x40feef2a	7.966695
2	0x3ea07fd1	0.31347516
3	0x405f0e10	3.4852333
4	0xbf818ab9	-1.012046
5	0xbeae69e6	-0.3406517
6	0x4083184b	4.0967155
7	0xbf6f872c	-0.9356563
8	0xc08750dd	-4.228621
9	0x401ca84a	2.4477715
10	0x3f554d79	0.8332134
11	0x3ebd084b	0.3692039
12	0xbf8af7ad	-1.0856835
13	0x3f295303	0.6614229
14	0xbf0ba3ce	-0.5454682
15	0x3ffec8d4	1.9905038

conv2.conv3.1.running_var f4 [16]
0	0x4143a38a	12.227427
1	0x42c55bc5	98.67924
2	0x40c6b707	6.209842
3	0x42337ba5	44.870747
4	0x40a7a9ec	5.2394924
5	0x40b3d7d0	5.6200943
6	0x41635a38	14.209526
7	0x409de473	4.934137
8	0x414c89ee	12.783674
9	0x4200faac	32.244797
10	0x4087150c	4.221319
11	0x417e9657	15.911704
12	0x40a77a65	5.2336907
13	0x40c5b8f2	6.1788263
14	0x40a8884d	5.2666383
15	0x402ce4cb	2.7014644
