checkpoints/ifind1_sononet_8_andi/007_net_class_only_from_50.pth (torch_old, 671523 bytes, 90 tensors)

conv1.conv1.0.weight f4 [8, 1, 3, 3]
00000000: 5590 763e d3ab 643e d706 b03e f083 57be
00000010: 8831 fe3e 9d12 bdbe 9cd5 ec3d ddfa 2d3f
00000020: 76b3 7abf f42b 063f 6359 40bf c0cb b3be
00000030: 7359 513e 4227 063f 2e4f 4abe c221 403e
00000040: 8b58 473e b8fe 9e3e 4e0f 7ebf a229 c8be
00000050: cd4e cb3e 1c50 e73d 8ad5 a23d 938d 8dbe
00000060: b82d 20bf 9361 e03d c0c9 7bbf 8d8d 27bf
00000070: f046 c03e d137 e8bd 6503 88be 173d 52bf
00000080: 63bb e1be 849b 0d3d 4308 a7be 8eff 9a3e
00000090: b2ad 7abf 34cf 28be 3d53 7abe 61c7 6d3e
000000a0: 9a6e efbe 5143 3dbf 5b32 3a3f bc2b 893d
000000b0: 7791 53bf 3a57 b6be 7876 81bf 46ba 83bf
000000c0: 4c9b 9dbd 2495 cfbe 56d9 95bf 10fe fcbe
000000d0: 7d32 703e 870d e6be c296 d73e fc21 28bf
000000e0: 8150 6bbe 9ca2 a2be cd6f 6b3f 0ed4 93bd
000000f0: d643 013f 3961 e13d e4f5 a83e afcd a33e
00000100: 69b4 aa3d 4064 5f3e f264 eebd 565f bfbe
00000110: ab2b 7abf feaf e53d 68d5 90be e251 0e3f
0.24078496 0.2233117 0.34380218 -0.21046424 0.49647164 -0.36928263 0.1156418 0.6796091
-0.97930086 0.5241082 -0.75136393 -0.35116386 0.20444278 0.5240365 -0.19756767 0.18762878
0.1946737 0.3105371 -0.99242103 -0.39094263 0.39708558 0.112945765 0.079508856 -0.27647075
-0.6256976 0.10956111 -0.9835472 -0.65450364 0.3755412 -0.11338771 -0.2656509 -0.82124466
-0.44088277 0.03457214 -0.3262349 0.30273098 -0.9792129 -0.16485292 -0.24445815 0.23220588
-0.4676407 -0.7393084 0.72733086 0.06697795 -0.82643837 -0.35613424 -1.0114279 -1.0291221
-0.07695636 -0.40543473 -1.1706951 -0.49412584 0.2345676 -0.44932196 0.42107207 -0.65676856
-0.22979929 -0.31764686 0.9196747 -0.072181806 0.50494134 0.11004872 0.330001 0.31992862
0.08335192 0.21815586 -0.116403475 -0.37377423 -0.9772288 0.112152085 -0.28287816 0.55593693

conv1.conv1.0.bias f4 [8]
00000000: 5771 40be b561 85be f8bc 573e d1f6 9e3e
00000010: 008d 463e 17cb 5f3e 0076 dbbd 19f4 e9bd
-0.18793236 -0.26051107 0.2106818 0.3104768 0.19389725 0.21854816 -0.10715866 -0.11423511

conv1.conv1.1.weight f4 [8]
00000000: e1a0 803f a200 7c3f d140 713f 4fc1 893f
00000010: 32a0 833f 426d 723f 899b 723f 81e8 8a3f
1.0049096 0.98438466 0.94239527 1.0762118 1.0283263 0.94697964 0.9476858 1.0852205

conv1.conv1.1.bias f4 [8]
00000000: e3f9 223d 0eec f63d 8f99 08bd 1f1d 093e
00000010: 0cb0 063e 2859 bc3d 8b64 cf3c 36d0 f53d
0.03978909 0.120567426 -0.03334957 0.13390015 0.13153094 0.09196693 0.025316497 0.12002604

conv1.conv1.1.running_mean f4 [8]
00000000: f7e9 43be 6a4c 84be ce17 523e f504 9e3e
00000010: 3ab3 423e e641 583e b26b d6bd a660 eabd
-0.1913222 -0.2583955 0.20516893 0.30863157 0.19013682 0.21118888 -0.1046976 -0.114442155

conv1.conv1.1.running_var f4 [8]
00000000: 1dbd bc3e 3471 013f 89a7 c440 3b0b 6340
00000010: 635f b240 04eb ab41 985e 893f afcc 913e
0.36863032 0.5056336 6.145451 3.5475605 5.574144 21.489754 1.0731993 0.28476474

conv1.conv2.0.weight f4 [8, 8, 3, 3]
00000000: 9a99 133e 84dd 83be 8670 f8be 9ae3 91bc
00000010: f643 b83e 46c3 34be 3898 333e 8b45 26bd
00000020: bd71 143e 10ac 90bc cae3 82be 4607 343d
00000030: 3c1d b6bd e447 1dbe 9f2c a6bd 52bf a5be
00000040: e62c 2d3e ea41 b6bd 32a8 063b 45d8 8ebe
00000050: 1fb4 173e 7f9b 873e 357f 7d3d 4573 ad3d
00000060: a83a 3e3e a4f0 703e 7eb4 a43d ac94 b9bd
00000070: f1f0 10be 6d06 79be f1a8 a43e b076 d7bd
00000080: fae7 6fbd 01c7 923e a1f8 ef3d f826 c4bc
00000090: a28f 593d db80 41bd 7e0e 83be fdc6 40be
000000a0: b6ba b43d 218a 73be b619 b13d 3894 303e
000000b0: f6ab 7bbe 7a56 abbd 2541 4bbe 4c32 b43d
000000c0: e5d6 4cbe 5ae4 003d 8fa4 63be 930c 7e3e
000000d0: af48 4b3e 4f21 c1bd c654 a83d 7e41 46be
000000e0: 5ea7 aabe 4d46 d9bd b3cd 72bd f15a f2bd
000000f0: 15c9 c5bd 2a3f 073e 010b 563e 3940 56bd
00000100: 6b5f efbd 2b26 bdbd 5755 89be 0e90 1cbe
00000110: 173e 383e 93a7 cb3e 8499 323d 4fa9 29be
00000120: fd44 02bd 280b cdbc 0aa1 6cbe 85ba 3ebe
00000130: b46d 273e c019 55be 6989 4f3e 565c 053e
00000140: 58ba 4d3e b0e9 913c d9be c6bd fa7e 52bd
00000150: d000 60be 9ece afbd 75e6 293d d9a3 9c3d
00000160: 017b 243e d5bf 2abc c757 203e 65d6 c6bd
00000170: a2b6 58be 42fc 99bd b41b 693e b657 a3bd
00000180: 460e dfbd 5fb6 c6bd 902c 27bd ec58 7f3e
00000190: 1729 7c3e 205d 98bd 9d48 ae3b c163 993d
000001a0: 49a8 103d 6d41 67be f009 9cbd 3893 5a3d
000001b0: f482 d63d 8f4d 6c3d 458d 043d 2266 10be
000001c0: 7bf0 313e c5d0 0d3e 8840 4dbe a539 97bd
000001d0: b101 0ebd c032 1a3e 9228 233c 7bc9 083d
000001e0: 5fb6 51be 94a4 9e3d 359e b1bb b053 533e
000001f0: 09fb 203e 47e8 48bd 6752 b5bd 0151 a53d
00000200: 665e 8ebd 71d6 803d b747 1d3d 98e4 f33c
00000210: f4b3 84be a805 1a3d 14a7 75be db29 bf3d
00000220: 308d 533e 8284 b43e 89e5 1c3b b5f0 a73d
00000230: 94fe 08be 0d82 17be 0b3a ce3d 9fcf 4bbe
00000240: 6704 0cbd 69db 17bd 7e14 8b3e c7c9 803d
00000250: 2c1c 113e 2732 933c 5872 f2bd 0dc7 823d
00000260: 1715 6bbe 20af 493e 2729 c2be 73cb 0fbe
00000270: e96b 4a3e b2a9 ba3d b3e6 e33c 4dcb 293e
00000280: c2da 2b3e 5b44 ab3d e595 8e3e 4f99 1bbd
00000290: 41ea 7bbd af5a 0a3e 8885 cd3c a77d a7bd
000002a0: c387 1c3d 6cb3 843e 9f32 9b3e 3bfa 443e
000002b0: 2716 6ebd 923b 48bd 6b43 373e a757 523e
000002c0: 9dfa a8bd 7af9 993e 42e1 28be a8cc 9d3e
000002d0: ba70 813d 60e0 95be c27c 0a3e 94c8 0e3e
000002e0: b6d6 953d 2e5d 4d3e c2e6 9a3c 586b 8b3d
000002f0: 0edf b03e 026e ea3c 3716 bbbd b880 153e
00000300: fa05 00be 513d 1bbe 00e1 21be 2f6e 403e
00000310: c21f bf3e 2a3e 8fbe 25fb 1d3e 2ea4 a03d
00000320: 9099 41be 1601 853e c8f4 edbb 0f99 ab3e
00000330: 108d 533e 3ba7 8a3e ffd5 6fbc 6bbc af3d
00000340: 2124 233c 2924 a83c e501 883c 8844 be3d
00000350: 35f4 cb3d 92cc e43c 9043 df3d 609a 653e
00000360: d5f2 f93d fc23 ec3e 0121 8b3e d611 873e
00000370: 3bef 043d 3fbb 5abe 1904 f13c 905c 183e
00000380: ed69 62be 2171 7aba f167 1cbe f96b 54be
00000390: 449d e7bd 7bf1 bd3e 32f8 c5bd 3be3 a4bc
000003a0: eba9 0a3d 7e32 17be 13bc 69be b28a e4bd
000003b0: d3b3 03be 823f d83e 4e5a 8b3b e918 393e
000003c0: 4154 913e 54b0 cdbd 4730 babe 9a4e 033c
000003d0: 1942 bf3d b218 87be aed0 4e3d 6be2 2cbd
000003e0: 1742 723d 0b36 f13a 307e 0abe 57a2 4bbc
000003f0: 509f 1cbc 6a67 91be df69 fcbe 0556 5a3d
0.14414063 -0.2575494 -0.4852335 -0.017808724 0.3598935 -0.17652616 0.17538536 -0.040593665
0.14496513 -0.01766017 -0.25564414 0.04395225 -0.08892295 -0.15359455 -0.081139795 -0.32372528
0.16911659 -0.08899291 0.002054703 -0.27899376 0.14814804 0.26485822 0.061888892 0.084692515
0.18577063 0.23529297 0.08042239 -0.0906156 -0.14154412 -0.24318857 0.32160142 -0.10520685
-0.05857084 0.28667453 0.11717344 -0.023944363 0.053115495 -0.047242027 -0.25596994 -0.18825908
0.08824675 -0.23783161 0.08647482 0.17244041 -0.24577317 -0.083661035 -0.1984907 0.08798656
-0.20003851 0.031467773 -0.22230743 0.24809484 0.19851945 -0.09430181 0.08219294 -0.19360921
-0.33330816 -0.10609112 -0.0592782 -0.11833752 -0.09657494 0.13207689 0.20902635 -0.05230734
-0.116881214 -0.092357956 -0.26822922 -0.15289328 0.17992435 0.39776286 0.043603435 -0.16568492
-0.031804074 -0.025029734 -0.23108307 -0.18625839 0.16350442 -0.20810604 0.20267262 0.13023505
0.20090616 0.017811626 -0.0970437 -0.051390626 -0.2187531 -0.08584331 0.041479547 0.07648439
0.16062547 -0.010421713 0.15658484 -0.09708861 -0.21163419 -0.075188175 0.22764474 -0.07975714
-0.10891394 -0.09702753 -0.040813982 0.24936265 0.2462505 -0.07439637 0.005318715 0.0748973
0.03531674 -0.22583552 -0.07619083 0.053363055 0.10474196 0.057691153 0.032361288 -0.1410146
0.17376892 0.1384917 -0.20044148 -0.07384042 -0.03466958 0.15058422 0.009958403 0.03339527
-0.20479725 0.077462345 -0.005420471 0.20637393 0.15720762 -0.049049642 -0.088536076 0.08072091
-0.06951599 0.062909015 0.03839847 0.029772088 -0.25918543 0.03760305 -0.23989516 0.09334155
0.20659328 0.35257345 0.0023940525 0.08200208 -0.13378364 -0.14795704 0.100696646 -0.1990342
-0.034183886 -0.03707448 0.27164072 0.06288486 0.14170903 0.01796825 -0.118382156 0.06385622
-0.22957264 0.19695711 -0.37922022 -0.14042453 0.19767727 0.09114398 0.027819967 0.1658146
0.16782668 0.08362647 0.27848735 -0.037988003 -0.0615027 0.13511156 0.025088087 -0.08178263
0.03821541 0.25918138 0.30312058 0.1923608 -0.058126595 -0.048884936 0.17896812 0.20541249
-0.08250926 0.30073148 -0.16492179 0.30820203 0.06320329 -0.29272747 0.13524154 0.13943702
0.073163435 0.20055076 0.018908862 0.068075836 0.34545177 0.028616909 -0.091350965 0.14599884
-0.1250228 -0.15160109 -0.15808487 0.18792032 0.37328917 -0.27977115 0.15427835 0.07843815
-0.18906236 0.2597739 -0.007261846 0.33515212 0.2065928 0.27080712 -0.014638423 0.0858086
0.009957344 0.020525055 0.016602466 0.09290415 0.09958688 0.027929578 0.109015584 0.2242217
0.1220452 0.46121204 0.27173617 0.26380795 0.03245471 -0.21360491 0.0294209 0.1487906
-0.2211072 -0.00095536007 -0.15274025 -0.20744313 -0.11309293 0.37098297 -0.0966648 -0.020127883
0.033853453 -0.14765355 -0.22825651 -0.111592665 -0.12861566 0.42235953 0.0042527085 0.18075909
0.28384593 -0.100433975 -0.36364958 0.008014346 0.09338779 -0.2638603 0.05049198 -0.042208117
0.05914506 0.0018402947 -0.13524699 -0.012428842 -0.009559467 -0.2839921 -0.49299523 0.05330469

conv1.conv2.0.bias f4 [8]
00000000: ee5f 2cbd fd08 233d 612c 563d 26af 5f3d
00000010: e0d9 c4bd 9a1b e2bd 9ca7 d6bd cabe c4bc
-0.042083673 0.039803494 0.052288417 0.054610394 -0.09611869 -0.11040421 -0.10481188 -0.024016757

conv1.conv2.1.weight f4 [8]
00000000: 335d 7d3f d075 853f b166 813f e2df 863f
00000010: a77d 7e3f 0d17 733f 0950 743f 4574 813f
0.98970336 1.0426579 1.0109464 1.0537074 0.9941048 0.9495705 0.95434624 1.0113608

conv1.conv2.1.bias f4 [8]
00000000: daa7 52bd 1b62 343d a7b8 f0bd 2bc4 b53b
00000010: f785 023d 6508 a8bc 94c8 b2bd d475 88bc
-0.051429607 0.044038873 -0.1175397 0.0055470667 0.03186604 -0.020511815 -0.087296635 -0.016657747

conv1.conv2.1.running_mean f4 [8]
00000000: 9e24 58bf 1bd6 5b3e 166b 0c40 7b99 9abf
00000010: 21ac acbf 31af 87bd a307 1cbf ef0d 243f
-0.84430873 0.21468394 2.194036 -1.2078089 -1.349003 -0.06625212 -0.6094915 0.6408376

conv1.conv2.1.running_var f4 [8]
00000000: ab20 463f a180 ff3e 7fdc a73f fb33 4140
00000010: 04be 5140 8c2f d63f 7407 e33e 21bf 853f
0.773936 0.49902824 1.3114165 3.0187976 3.2772226 1.673326 0.44341624 1.0448953

conv1.conv3.0.weight f4 [8, 8, 3, 3]
00000000: b857 823e 2ed5 1fbe d3e8 b4be 16d1 5dbd
00000010: 62fc 273d cb80 12be b515 ee3e 5030 a63d
00000020: 8df9 a3be 1778 cf3c 5685 573d e641 a0bd
00000030: 8b5c ed3e 0982 b9be ac0b e5bd e91d 12be
00000040: 40f7 dfbd 31de 723e 1a2d 71be 2610 3fbe
00000050: 97d7 923c 762a 73bc 1fc0 433e 11d9 cebd
00000060: 2213 963d 6e1e f5bb 8381 3cbe e1ed 3ebd
00000070: 7752 aa3e f1fd ae3d a8bf 063e 2924 23bc
00000080: 8858 bdbd 04ae 6bbd 4d0e 94bd 3fcc 253e
00000090: 56a7 27bd d348 7c3c 2e1c 273e e1a8 b13e
000000a0: a5e6 883e 01c0 cd3e 3090 0f3e d992 8ebe
000000b0: 9e34 2c3e 353f b33e 9c16 f6bc 9f44 243e
000000c0: 75cb ffbd 2e8a 2e3d 2bb5 08bc a04f 343e
000000d0: 4833 e63e 5e90 823c 84b8 443e 4807 3dbe
000000e0: 941b 41bd f279 d1bd d4a2 173d b02a a2bd
000000f0: e55c 8abe 9cba 49be 41b2 e4bd 15d5 873d
00000100: 5a9e 24be 42f7 a53d d2fa 923e b5dc 76be
00000110: 3d45 5f3d da6a d8bd 3117 b3bd 3d25 6ebe
00000120: b3a2 ea3c 6ccd ce3d b5f2 3e3e 3c98 433d
00000130: cc7d 5b3e d490 d7bc b73c 653d b6c5 8fbc
00000140: 59ff 043e 2492 a7bd d99c 39be fc24 afbd
00000150: 21f6 d0be 6363 893d 0f6f af3e e745 c53d
00000160: 5617 60bd cc1a 23bc 8ebd 8fbe 15a5 84be
00000170: bdfd e6bd 6fdc 13bd c288 54be 7d6b 45bd
00000180: 688b 5b3e 7995 703e f952 aa3d 725b 3ebe
00000190: 71b9 b4bd 7aa3 db3c 6742 18be 312e 21be
000001a0: 7212 58be 5e16 923e 4342 8bbe 61a5 62be
000001b0: 845e 7ebc defd 83bd 2ff4 66be 5bc1 5e3e
000001c0: 3145 dd3c cd2c 34be 17a5 37be da71 b53d
000001d0: 397c 65bc e755 7fbe 4dd2 553d 55c1 4bbd
000001e0: 4d15 d53d 3fe9 9f3d c545 1ebd b601 793d
000001f0: 403f 003e e9bf 67be ed75 9c3d 1f1e 1bbd
00000200: 832e 6dbd 6a1d 41be fdcc d83d 47f6 e9bb
00000210: 7ff8 3ebe 52a7 083e 9169 6bbe 56d5 953d
00000220: ab79 a23d 8d4c e6bc b969 233e fad5 9f3d
00000230: 743a 3a3e ff99 67bd 10ca 483d a1fa 0f3e
00000240: 4ece bf3d f31e b2bc b9e5 9b3e 6577 363e
00000250: 74d2 a3ba 707c 963c 8aa3 7a3e 7a62 203c
00000260: 2038 203e 08fa 143e c579 8fbe 0b04 de3d
00000270: fc06 233e c040 95bd 94f6 b9be b289 1ebb
00000280: 57ff acbd dfc9 9abe afb7 973d 775a b2be
00000290: 4424 1abe 3647 583d c00e 82be 1fa6 c43d
000002a0: c658 29be 2117 f33c e61a 83bb 4dd5 23be
000002b0: 6f94 7a3e 7ea0 babd b2ca 5d3d 228f bfbd
000002c0: 6c8c 2b3e 5a4a 473d 0917 7ebe 8534 a3be
000002d0: b19a 34bd ae19 87bd 4417 a13e 0436 d5bd
000002e0: 63c3 bebc f0ed 87bd 9e3b 8fbc 90f2 783d
000002f0: ca00 d53b 74c9 c2bd 17eb 143e bfda ea3d
00000300: bd24 4c3e 5efa 333d c389 203e d0b8 08bd
00000310: 7539 4d3e 3777 1ebe f7ec 01be c4d9 5f3d
00000320: d4ad 41bd 86f2 2abe 2367 4c3e c19b cf3e
00000330: 9f8c 873d aec4 643d a0ce 8a3e f359 7a3e
00000340: b6fa 573e 24e7 01be ced0 603e 8821 2b3e
00000350: ac16 ecbd 83c2 003e 8cea 693d d2b2 413e
00000360: de6f b73e 7c99 4fbe de18 e13d 96b8 553a
00000370: 021c bf3e 76ff b3ba a035 d03d 2865 8cbb
00000380: f43f b83d 995e 9f3d 23d8 89be 5aac 043d
00000390: 5d79 2b3e fa8f 513e 6200 43be 8ece 613c
000003a0: c976 c4be 744f d2bd d2ec 6dbc 101e 03bd
000003b0: 1614 173e 1eb6 1f3e c171 abbc 7b25 d1bd
000003c0: 6644 f0bd 4524 b33c 2e65 cabd 73ae 613d
000003d0: d0c7 9a3e 4b2e 243e d6db e03e ac31 1a3e
000003e0: c121 893e a5a5 89bd a24b 003e b11f 523c
000003f0: ff69 733d 3ef3 61be 176d 153e 6625 6cbd
0.2545755 -0.15608665 -0.3533388 -0.054154478 0.041012175 -0.14306943 0.46500936 0.08114684
-0.3202633 0.025325818 0.052617393 -0.07825069 0.46359667 -0.3623202 -0.11183867 -0.14269222
-0.10935831 0.23717572 -0.23552361 -0.18658504 0.017925067 -0.014841666 0.19116257 -0.10099996
0.07327868 -0.007480434 -0.1840878 -0.046613578 0.3326604 0.08544529 0.13159049 -0.009957352
-0.092454016 -0.057539 -0.0722929 0.16191195 -0.04093107 0.015398222 0.16319343 0.34699157
0.26738468 0.4018555 0.14019847 -0.2784641 0.16816947 0.3500916 -0.030040078 0.16041802
-0.12489978 0.042612247 -0.008343975 0.176085 0.44961 0.01593798 0.19211012 -0.18459809
-0.04714544 -0.10228337 0.03702052 -0.07918298 -0.27023998 -0.19700092 -0.11166812 0.06632439
-0.16076031 0.08103801 0.28706986 -0.2410763 0.05450939 -0.10567255 -0.08744658 -0.23256393
0.028642034 0.10097775 0.18647273 0.047752604 0.21434706 -0.026314177 0.055966105 -0.01755033
0.12988032 -0.08182171 -0.18126239 -0.08551976 -0.4081278 0.0670841 0.34264418 0.096324734
-0.054709755 -0.009955119 -0.28074306 -0.25907198 -0.112788655 -0.036098894 -0.20755294 -0.048198212
0.21439898 0.2349452 0.08316607 -0.18589571 -0.08824433 0.02681135 -0.1486908 -0.15740277
-0.21100786 0.2853269 -0.2719899 -0.221334 -0.015525464 -0.06444906 -0.22554086 0.21753447
0.027010532 -0.17595215 -0.1793407 0.08859606 -0.014006668 -0.24935113 0.05220251 -0.049744923
0.104044534 0.0780816 -0.038640756 0.060792647 0.12524128 -0.22631802 0.0763968 -0.037870523
-0.057905685 -0.18858877 0.105859734 -0.0071399543 -0.18649481 0.13345078 -0.22989489 0.07316081
0.079333626 -0.028112674 0.15958299 0.07804485 0.1818636 -0.056543346 0.049020827 0.14060451
0.09365521 -0.021743273 0.30448702 0.17818983 -0.0012498633 0.018369883 0.24476448 0.009789104
0.1564641 0.14548504 -0.2802259 0.10840615 0.15920633 -0.07287741 -0.36320937 -0.002419096
-0.0844714 -0.3023214 0.07408082 -0.34834644 -0.15052897 0.052802287 -0.25401878 0.096019976
-0.1653777 0.029674115 -0.0040010093 -0.15999337 0.24470685 -0.09112643 0.054148383 -0.09353472
0.16752785 0.04865489 -0.24813475 -0.31876007 -0.044092838 -0.06596695 0.31463063 -0.10410693
-0.023286527 -0.0663718 -0.017484482 0.0607782 0.006500338 -0.095110804 0.14542805 0.11467504
0.1993589 0.04393994 0.15677552 -0.033379376 0.2004145 -0.15475164 -0.12688051 0.054651037
-0.047284916 -0.16694078 0.19961219 0.40548518 0.06618618 0.05585163 0.27110767 0.24448375
0.21091732 -0.1268583 0.21954653 0.1671201 -0.11527762 0.125742 0.057108447 0.18915871
0.35827535 -0.20273393 0.10991071 0.00081528106 0.37326056 -0.001373275 0.10166478 -0.0042845197
0.08996573 0.07781715 -0.26922712 0.03239093 0.16745515 0.20465079 -0.19043115 0.013782157
-0.38371876 -0.10269061 -0.014521794 -0.03201109 0.14753756 0.15596816 -0.020928266 -0.10212227
-0.11731796 0.02186788 -0.0988258 0.05509801 0.3023057 0.16033284 0.43917722 0.15058011
0.26783565 -0.06721047 0.12528852 0.012824939 0.059427258 -0.22065446 0.14592396 -0.057652853

conv1.conv3.0.bias f4 [8]
00000000: e623 89bd a41e fd3c 7069 2bbc bc15 e2bd
00000010: 7b63 343a 0a02 193d 8f87 ac3d 0797 c33d
-0.066963 0.0308984 -0.01046215 -0.11039302 0.0006881279 0.03735546 0.08424293 0.095502906

conv1.conv3.1.weight f4 [8]
00000000: 1e68 863f 25f8 893f 15e4 553f 3d08 7b3f
00000010: cf5e 793f fbff 5e3f 2720 923f 529e 8b3f
1.0500524 1.0778853 0.8355115 0.98059446 0.9741029 0.87109345 1.1416062 1.090769

conv1.conv3.1.bias f4 [8]
00000000: 64c4 933d 302b 823d e780 87bc 9fd1 a3bc
00000010: 94de 30bc 9d5d 723d 0626 a93d 8127 c93d
0.07215193 0.063558936 -0.016540958 -0.019997416 -0.010795254 0.059171308 0.082592055 0.09821988

conv1.conv3.1.running_mean f4 [8]
00000000: c7bd ea3e 4c29 03bf a5f1 e03e 873c 643d
00000010: 72aa afbf b143 643f e4ed 8c3e 1dcb 46bf
0.45847914 -0.5123489 0.4393436 0.055721786 -1.3723891 0.8916579 0.27525246 -0.77653676

conv1.conv3.1.running_var f4 [8]
00000000: 3aa4 0e40 f7a2 ad3f d7c2 e23e cd4c 663f
00000010: ba2d 903f 51f6 0c40 21f1 8a3f b409 b43f
2.2287736 1.3565358 0.44289276 0.8996094 1.1263955 2.202534 1.0854837 1.4065461

conv2.conv1.0.weight f4 [16, 8, 3, 3]
00000000: b6e1 58be b142 b0bd 7d83 c03d 938c 2cbd
00000010: 26bc 953d 09b4 743e 7f60 e4bd 079b 863e
00000020: 6544 6d3d b4ae 39be 7ea5 c03d 0d34 71bd
00000030: 6db3 7ebe c195 55bd d25b 8bbe 8933 9fbd
00000040: ea79 4f3e db96 f4bd cf1d 713e 74b8 8a3e
00000050: 1c4a 303e 05c6 43bd 8a01 d9be 3d08 2cbd
00000060: ee10 92bd 576f d93d 14d0 36bd b5ba 66be
00000070: 665a 88be 82af 25be 6cc5 3b3e ef92 173e
00000080: 6bb4 dd3d 699c 35be 37a2 8b3d 051d cbbd
00000090: cc14 343e 5ead d2bb 1dac 0f3c 2e71 6f3d
000000a0: 0243 36be ef4a fbbd 8a4d 2bbe 7b5f 5fbb
000000b0: 7892 c4bd 794a 7d3d 0adc f43d d46f 833e
000000c0: d6c5 cdbd f515 613e 2a06 e13d fa5e afbe
000000d0: 9747 debd bb4d 02be 02a9 8b3d babf 103e
000000e0: b29e bcba c292 a43c 8e17 b53d 13e4 73be
000000f0: 1b0a 0fbe f508 78be 518d 4fbc 95a2 f4bd
00000100: af9d ecbc 41af 6abc 857b 153d 669c 85be
00000110: 2ac2 1fbc a2b0 c53d 81fb 81be cfd1 d13d
00000120: 1f26 9b3e f41d 593e 6517 aebd d2f2 2fbe
00000130: 5071 e4bd fa2a 5bbe 1600 bdbd f518 47be
00000140: 3706 9fbc a3a0 88bd e4a5 033e e5cf 87be
00000150: 084d bdbe b610 27be cf2a a03c 24cc 833d
00000160: 8996 373e 73de 9c3c df9d 233d 030a 293d
00000170: 96d3 de39 a0c4 35be 6fb6 8abc d43a 8b3e
00000180: 2a48 0cbf 1d5c cd3b 1ac7 363d 6285 df3c
00000190: a2a4 f53d dcec 223e 5e08 11be 9f59 c9bd
000001a0: 9fd5 713e 7845 503b cf3a 013e a62e 0fbe
000001b0: e5fd 083e 8476 623d 0b90 8dbe 90af 6cbe
000001c0: f666 c9bd 145e 7a3d c231 5ebe c190 16bd
000001d0: 89d5 953d c65f 40be bab8 8dbe b253 44be
000001e0: 7a0f 33bd a878 2fbe a6ce 843e bcbb 623e
000001f0: a4a4 483e f0f9 1dbe 65d8 a33d 6e91 e5bd
00000200: aa9b 253e 624e cfbd b23c 13bd aa62 d4be
00000210: e46d 673e e24e 50be 8671 12be b0c6 2b3e
00000220: f5f6 8cbd a05a 183e 9344 673e bd85 373d
00000230: d89b 0c3d 763b 8e3e f585 6b3e b25e 603e
00000240: 8de2 623b 7ea2 eb3d f90a 7d3e 3afc 443d
00000250: 46d6 8dbd 1343 0d3e 2399 d43e 78a0 73bd
00000260: d1fd 8a3e a36a acbd 29b0 113e 14aa fbbd
00000270: 5ed1 3abe 70d5 a03e 0497 973d 9540 03be
00000280: de1d 00be 4451 5c3d e6b7 f63c 427d 1cbe
00000290: 9339 42be 3fdc 5c3e 0760 7e3e c79f b2be
000002a0: bf15 843e 63a4 e13d 2b43 63be 54ee 82bd
000002b0: 933f 033e b2e9 a43c 401f 593e b032 983d
000002c0: 3492 743e 9b84 71bc 75c3 fb3d c1eb 893d
000002d0: 293e 79be fd1f adbd d7d2 8d3d 606d fcbe
000002e0: 4e9e a1bd 093e 723b d304 8bbd 5694 2b3e
000002f0: bce6 093e 43ad c2bd be28 953d f79e f63d
00000300: 7eb2 68bc ed5c 4e3e 7786 8dbd 9786 7abd
00000310: e831 2ebe b98c cd3e 3905 a13e d8f0 30be
00000320: adda 17be 21be 9a3e 2fb6 ff3c edde 4abe
00000330: 8685 5bbd ace0 113c 948e 303c 717c 6bbd
00000340: c30f 463e 4d91 273e e272 1cbf 13f2 f23d
00000350: 5928 96be 963c 5f3e cf08 153e 64f9 6fbe
00000360: 261c 5e3e eaba eb3c 3d82 453c 5dd7 edbd
00000370: 7532 993e 94c4 0ebe 51df a9bc 8770 97bd
00000380: ed1b c3bb 2645 1a3e d695 3abe 48a9 2fbe
00000390: b28c fabd f16d b5bd e2f2 8a3b 521d c23d
000003a0: 61a2 2d3e e63f e63d 45be a1be f84e ab3d
000003b0: 4960 533a ad7a f23d c93c 8cbe 17c1 ba3c
000003c0: 0e64 68be d73e 85be 5a1b 323e 869c 5ebe
000003d0: 62b7 10be 5754 323a 1771 33be b2a8 2cbe
000003e0: 43c9 32bd 3fd8 dc3d c96e 923d d513 b33d
000003f0: 6c64 6cbe 50b9 483e ad85 8cbc e7af e7bd
-0.21179852 -0.086064704 0.094000794 -0.04212625 0.07311277 0.23896803 -0.11151218 0.2629015
0.057926554 -0.1813305 0.09406565 -0.05888753 -0.24873133 -0.05214477 -0.2721849 -0.077735014
0.2026135 -0.11942836 0.23546527 0.27093852 0.1721577 -0.047796268 -0.42383987 -0.042000044
-0.07132135 0.106169395 -0.044632033 -0.2253216 -0.2663147 -0.16180232 0.18337029 0.14802144
0.108254276 -0.17735447 0.068180494 -0.099176444 0.17586058 -0.0064293584 0.008769062 0.058457546
-0.17798999 -0.12270152 -0.16728798 -0.003408401 -0.09598249 0.0618386 0.119560316 0.25671256
-0.100475 0.21981032 0.10987504 -0.3425215 -0.108534984 -0.12724964 0.06819345 0.14135638
-0.0014390557 0.02008951 0.08842383 -0.23817472 -0.13968699 -0.24222167 -0.01266797 -0.119450726
-0.028883783 -0.01432401 0.03649475 -0.26095885 -0.009750882 0.09652831 -0.25387195 0.10245096
0.30302522 0.21202832 -0.08500556 -0.17182472 -0.11154425 -0.21403113 -0.09228532 -0.19443114
-0.019412143 -0.06671264 0.12856251 -0.26525798 -0.36972833 -0.16314968 0.019551663 0.06435421
0.17928518 0.01914904 0.03994548 0.041269314 0.00042500783 -0.17750788 -0.016932694 0.2719332
-0.54797614 0.0062670843 0.04462347 0.027285282 0.11994292 0.15910667 -0.14163348 -0.09831547
0.23616646 0.0031779688 0.1262009 -0.13982639 0.13378103 0.055288807 -0.2764896 -0.23113847
-0.09834091 0.061124876 -0.21698669 -0.03675914 0.07316119 -0.18786535 -0.27679998 -0.19172552
-0.04371593 -0.1713587 0.2593891 0.22141927 0.19594055 -0.15427375 0.08000258 -0.11209379
0.16172662 -0.10122372 -0.035946555 -0.41481525 0.22600514 -0.20342591 -0.14301118 0.16775012
-0.06883041 0.1487832 0.22584753 0.044805277 0.03432831 0.2777974 0.2300032 0.21911123
0.0034619898 0.11505602 0.24711217 0.048092104 -0.06925635 0.13795118 0.41523084 -0.059479207
0.27146772 -0.08418777 0.14227356 -0.12288299 -0.1824393 0.3141284 0.07401851 -0.12817605
-0.12511393 0.05378844 0.030116986 -0.15282157 -0.18967275 0.21568392 0.24841319 -0.34887525
0.2579784 0.110176824 -0.22193591 -0.06393114 0.1281722 0.020130966 0.21203327 0.07431543
0.23883897 -0.014741088 0.1229314 0.067344196 -0.24340118 -0.08453367 0.0692498 -0.49302197
-0.07891522 0.0036963245 -0.067880295 0.16755804 0.13466924 -0.09505703 0.072831616 0.12042039
-0.014202712 0.20152636 -0.06910413 -0.06116351 -0.17011225 0.40146425 0.31449297 -0.17279375
-0.14829512 0.30223182 0.031214802 -0.19811602 -0.053594135 0.008903664 0.010776181 -0.057491723
0.1934195 0.16364022 -0.611128 0.11862578 -0.29327658 0.21800455 0.14554141 -0.23434979
0.21690425 0.028775651 0.012054977 -0.11613343 0.29921308 -0.13942176 -0.020736368 -0.0739451
-0.0059542567 0.1506544 -0.1822122 -0.1715442 -0.12233867 -0.0885886 0.0042403797 0.09478249
0.16956474 0.112426564 -0.31590477 0.083646715 0.0008063359 0.11839805 -0.27390125 0.02279715
-0.22694418 -0.26024505 0.17393246 -0.21739396 -0.14132455 0.0006802729 -0.17523609 -0.16861227
-0.04364897 0.10783433 0.07150037 0.08744017 -0.23085183 0.19601941 -0.017153585 -0.113128476

conv2.conv1.0.bias f4 [16]
00000000: 9e7f a93d f86b afbb 958e c3bd 54ff ac3d
00000010: 55aa 11bc f4c9 3e3d 5f4e 86bd c2e7 b03d
00000020: 14be a63d a2bf 253b 86ab c03d 3162 99bc
00000030: fabf efbc 9720 af3d 95bc 063d 0f4f d53d
0.08276294 -0.005353447 -0.0954868 0.084471375 -0.008890708 0.046579316 -0.06557917 0.08637954
0.08141723 0.0025291224 0.094077155 -0.01872358 -0.029266346 0.08551138 0.03289469 0.1041547

conv2.conv1.1.weight f4 [16]
00000000: 3184 823f 03b2 7c3f 0c6d 6d3f 80ef 8f3f
00000010: 2b0a 7f3f 1470 833f 5307 813f 4d70 7a3f
00000020: 2366 853f b298 823f 9e6f 803f b860 783f
00000030: 87a0 843f 9c46 7a3f d4ad 733f 6347 823f
1.0196592 0.98709124 0.9274452 1.1244965 0.9962489 1.0268579 1.008036 0.9782761
1.0421795 1.0202849 1.0034063 0.9702258 1.0361489 0.9776399 0.95187116 1.0178035

conv2.conv1.1.bias f4 [16]
00000000: d1c8 96ba b959 7c3c dfde c7bd a835 b53d
00000010: b1e8 8bbd 0b02 8c3c 913d ec3c cb0b ae3c
00000020: fae1 05bc 1bbf 0e3d ccb0 38bc f791 a0bd
00000030: 0d21 af3c cce0 09bc a65f 88bd 25de 78bd
-0.001150394 0.015402251 -0.09759306 0.08848125 -0.06831492 0.017090818 0.02883795 0.021245858
-0.008171553 0.03485022 -0.01127262 -0.078403406 0.021378065 -0.008415412 -0.066588685 -0.06075873

conv2.conv1.1.running_mean f4 [16]
00000000: 2c9f 6ebf e508 e0be 72bc 233f 06cc 6ebf
00000010: e2e2 9ebf 3646 68be cbb7 04be 8d29 813f
00000020: b30d 03c0 bae3 51be 6c38 8bbe 76d3 2e3e
00000030: f282 d5bf 47ad 303d 4a2a b4bf 320c acbf
-0.93211627 -0.43756786 0.6395942 -0.93280065 -1.2412989 -0.22683033 -0.12960736 1.0090805
-2.0477111 -0.20497027 -0.27191484 0.17072853 -1.6680586 0.043134 -1.4075406 -1.3441222

conv2.conv1.1.running_var f4 [16]
00000000: 8e95 873f c4e6 853f d65d b63f 1c97 8f3f
00000010: 5196 ba3f 8f46 b53f 2aae 0040 4aad 1a40
00000020: dda7 ab3f b76b 813f c00c c53f c126 bd3f
00000030: 7e85 cf3f 4c30 073f 59d7 953f eea0 7d3f
1.0592515 1.0461049 1.4247386 1.121799 1.4577123 1.4162158 2.0106301 2.4168267
1.3410603 1.0110997 1.5394516 1.4777452 1.6212614 0.5280807 1.1706344 0.99073684

conv2.conv2.0.weight f4 [16, 16, 3, 3]
00000000: 4d7f a5bd d38c 323c d58a da3d f00c c33d
00000010: 83cc 863e 99b5 bdbd dbdf 8cbd 2536 06be
00000020: 7d7a 05be 3e55 7f3d 9dfe cc3d 10e6 5ebd
00000030: dbff 933b 55b0 2c3e 4b21 20bd d3e1 073e
00000040: 56f5 5a3e 0b28 9d3d e47b 103e 01aa 153d
00000050: 7532 c3bc c0bd 533e 0768 5bbe 92ca 493c
00000060: 83af c7bd a71f 88be 415d 87bc 4daa 6bbe
00000070: 1e2a 8b3d a505 23be 5055 17be 38ae 3ebe
00000080: 03f1 d63d be2c 653e 3e22 e13d ad9b 7abe
00000090: ed19 01bd 5e9c 283d d668 813b d444 2d3e
000000a0: bdc0 c63d d28d c2bb e0af e1bc 5828 903d
000000b0: aebe d73d 6d75 2abd 6b97 04bd eaba b9bd
000000c0: 3d76 f53d cb47 9ebd 2256 d73b 5aec 85be
000000d0: 63b4 c83c de3b a93c 315a 2b3d 0ec3 cfbd
000000e0: faf5 ce3d 2f69 513d 862e b5bd f549 aabd
000000f0: 208d 343d 9099 27be 4547 16be 004e 01be
00000100: 87d1 e93d 3ef1 e6bd ce85 33be ad16 31be
00000110: 0b9d 3cbc ac6d b13c 2fef 6a3d 7e7c 95bd
00000120: 34ac 4f3a e9e7 473d f24a f2bd 3316 103e
00000130: 4edb 033e ab0f 73be f336 223e 7ce1 0d3c
00000140: 8c5a 093d 372a 31be 4c99 0b3e ffa6 d73d
00000150: e904 06be 186e 893d 4696 b0be a045 033d
00000160: a43e 2ebe 4fe6 88bd 71f3 1a3e 0131 14bd
00000170: 60de 9e3d b48d c7bc 76d4 1e3e b673 903d
00000180: 4ed3 70bc ce90 353e 19c6 8dbd 9e6c 83bd
00000190: d992 c1bd 157e 1abe 22c3 d13d 16a9 933c
000001a0: f126 04be 0f1a 4bbe dc53 bfbc f755 6e3e
000001b0: 2c8c f5bc 151d 463e 3727 74be 29b1 25bd
000001c0: 76ef 83bb e9b1 83be 1423 fcbd 7cfe a43d
000001d0: 1ec3 ed3c bf1b af3b 7d05 003e 1d90 b3ba
000001e0: 20e3 673e 7bf2 a7bd 07d0 323e b8b7 e2bd
000001f0: eb98 a4bc a1d0 1c3e 3a67 283e 7522 78bd
00000200: cbd2 2f3d 2ca3 edbd 94ce a93d 4315 713d
00000210: d386 04bd 6ed1 883e b303 8bbc c025 9b3d
00000220: 5e5d d53d 2ed9 1bbe 2993 1e3e bf4b 1b3e
00000230: 3386 adbd 310e 693d ab6e c7be f08b 323e
00000240: ac00 093e b272 1dbd be1f c0bc e3d6 813c
00000250: c6f0 dd3e f204 94bd 6a0d cabd e26c 713e
00000260: e603 d8bd 66a7 82bd ced2 60bd e136 82bd
00000270: 3eff 3dbd 7e05 6c3d 0e6a 273c ce36 383e
00000280: e6c7 a6bd 3dcf 84be 2d6f 8fbd 8f2f 123d
00000290: 998a 13bd 08b2 23be c5f5 973b b733 60bd
000002a0: be8e 09be 7665 3cbd 5be3 183c 6a5e 183e
000002b0: f8d4 2fbe dc71 6cbe f332 7cbe 4851 973c
000002c0: 7b3e 0bbe 50f3 13bc b46e ac3d fd7b 90bd
000002d0: ddba 8d3e 0e38 fe3d 9049 60bc 3842 fa3d
000002e0: fd6b 633e 79c3 203e b01d 5bbd 1e2b 133e
000002f0: 4ee9 4abe 9e08 58be c7a6 0c3e 3119 d03d
00000300: 80ab 6c3d 25a6 00be bb66 293e ac1c 21bd
00000310: 80a8 053d cf31 e23c 7107 e53d 53f7 c5bc
00000320: 17c8 493e df57 a6bd fbca 913d 1714 03be
00000330: 1920 83bd a240 53be 2b84 5cbe c136 34be
00000340: 8869 96be 333c d3bd e694 943d 59eb bc3c
00000350: df10 d43d 6e7e a4bc 79a7 3a3e 6379 013e
00000360: 38b9 c93a 6d49 2abe 5ecd 40be ca7e d5bd
00000370: 3bcd 363e b1d6 61bc 4fe2 8a3e 08d5 353d
00000380: 3b50 c5bc 82f3 ef3d ab40 a0bd 9f9e efbd
00000390: b355 68bd 026e 03bd 8767 84bd 6909 8e3d
000003a0: c6f1 1fbd 18c8 1cbc 7654 e33c a621 ff3d
000003b0: ba3f 33be fa56 933d b367 5abe 7273 8c3d
000003c0: 6ee8 443d 89c2 823d ccae 203d ad0f 993d
000003d0: 5258 3f3e cdc4 6b3e b457 f63c ab52 063e
000003e0: 5ab1 a5be 7d89 fcbc 4986 f8bd 460b a7bd
000003f0: 7f60 153e 97ed 863e 787a a7bd 3fb8 403e
-0.08080921 0.010897833 0.10671011 0.09523952 0.26327905 -0.09263153 -0.068786345 -0.13106592
-0.13035007 0.062337153 0.10009501 -0.054418623 0.0045165843 0.1686414 -0.03909425 0.13269739
0.2138265 0.07673653 0.1410976 0.03653908 -0.02382777 0.20677853 -0.21426402 0.012316363
-0.09750273 -0.2658665 -0.01652396 -0.23014183 0.067951426 -0.15920122 -0.14778638 -0.18621147
0.10495188 0.22380349 0.10992859 -0.24473448 -0.031518865 0.04116475 0.003949265 0.16920787
0.09704731 -0.0059373165 -0.027549684 0.07038945 0.10534416 -0.041615892 -0.032370966 -0.09068854
0.11985443 -0.07728537 0.006571547 -0.26156884 0.024500078 0.02065843 0.04183406 -0.101446256
0.1010551 0.0511257 -0.08846764 -0.083148874 0.0440799 -0.16367173 -0.14675625 -0.12627411
0.11416917 -0.11276482 -0.17531511 -0.17293806 -0.011512051 0.021658741 0.05735701 -0.072991356
0.00079220836 0.04880515 -0.11830701 0.14070968 0.12876627 -0.23736446 0.15841274 0.008659717
0.033533618 -0.1730126 0.13632697 0.10529899 -0.1308781 0.06710452 -0.3448965 0.03204882
-0.17016083 -0.06684553 0.15131928 -0.036179546 0.077572584 -0.024359562 0.15510735 0.0705332
-0.014698816 0.1773102 -0.0692255 -0.064172015 -0.09451837 -0.15087159 0.10242297 0.018024962
-0.1290548 -0.1983416 -0.023355417 0.2327498 -0.029974066 0.19347031 -0.23843084 -0.040452156
-0.0040263487 -0.25721672 -0.12311378 0.080563515 0.029023703 0.0053438838 0.12502094 -0.0013699565
0.22645235 -0.08200546 0.17462169 -0.11070198 -0.020092448 0.1531396 0.16445628 -0.060579736
0.042925637 -0.11603388 0.08291355 0.058858167 -0.03235514 0.26722282 -0.016969537 0.075755596
0.10418199 -0.15219566 0.15485825 0.15165614 -0.08472862 0.0568983 -0.3895162 0.17436194
0.13379163 -0.03843946 -0.023452636 0.015849536 0.43347758 -0.07227506 -0.0986584 0.23576692
-0.105476186 -0.06379585 -0.05488854 -0.063581236 -0.046385996 0.057622425 0.0102181565 0.17989656
-0.08143596 -0.2593936 -0.07003627 0.035689887 -0.03602085 -0.15985882 0.0046374523 -0.05473682
-0.13433358 -0.0459952 0.0093315495 0.14879766 -0.17171085 -0.23090309 -0.2462881 0.018471375
-0.13598053 -0.009030178 0.084195524 -0.07054899 0.27681628 0.12413035 -0.013689414 0.122196615
0.22209163 0.15699567 -0.05349511 0.14371917 -0.19815561 -0.21097037 0.13735496 0.10161055
0.057780743 -0.12563379 0.16543095 -0.039333984 0.032631397 0.027611641 0.1118306 -0.024165785
0.19705234 -0.08122229 0.071187936 -0.12800632 -0.064026065 -0.20630124 -0.21534793 -0.17599012
-0.2937739 -0.103142165 0.072549626 0.023061441 0.103547804 -0.020079818 0.18227948 0.12643962
0.0015390282 -0.16629572 -0.18828341 -0.10424574 0.17851727 -0.013784097 0.27125785 0.044392616
-0.024086108 0.11716367 -0.078248344 -0.117001764 -0.056722354 -0.032087334 -0.06465059 0.069353886
-0.039048932 -0.00956919 0.027750235 0.1245759 -0.17504779 0.07194324 -0.2132862 0.06857957
0.048073225 0.06384761 0.0392292 0.07473693 0.18686035 0.23024292 0.030071117 0.13117473
-0.3236187 -0.030827278 -0.12134988 -0.08156447 0.14587592 0.26353142 -0.08177656 0.18820284

conv2.conv2.0.bias f4 [16]
00000000: 8973 c9bb 99e9 a53c 0240 a33d d96e bdbb
00000010: b21c 55bd 7075 a53a da4f 78bd 5ea0 c13c
00000020: ea2f a43d 30fe 873d 7e2b 7d3d f8af 6e3d
00000030: d9e2 5fbd 9e86 853d 7711 82bd 7c08 cebc
-0.006147806 0.02025299 0.07971193 -0.0057810363 -0.05202932 0.00126235 -0.060623027 0.02363604
0.080169514 0.06640279 0.061809056 0.058273286 -0.0546597 0.06519817 -0.063509874 -0.02515053

conv2.conv2.1.weight f4 [16]
00000000: d8c5 783f 74b2 813f 7961 8b3f c8f8 7f3f
00000010: 4a15 823f 867d 7c3f 23cb 873f 4b69 7e3f
00000020: ad9f 6e3f f9b4 793f 1c96 7f3f 18f6 703f
00000030: 787c 8a3f 85ea 813f 65be 833f d87c 733f
0.97176886 1.0132585 1.0889121 0.99988985 1.0162747 0.98629034 1.0608867 0.99379414
0.93212396 0.9754177 0.99838424 0.9412551 1.0819235 1.0149695 1.0292479 0.9511237

conv2.conv2.1.bias f4 [16]
00000000: 0757 d63b 5f99 87bc 3bc4 623d 14e3 02bc
00000010: 694d 1fbb 7f4d 243b 0424 013e cea6 5fbd
00000020: 1f48 2abd 92e4 f93b 7971 b33c 7f58 30bc
00000030: c55e 943d a0ef af3d 6b31 733c 10ef f3bc
0.006541136 -0.016552625 0.05536292 -0.00798871 -0.0024307615 0.0025070605 0.12611395 -0.054602437
-0.041572686 0.0076261247 0.021904694 -0.010763287 0.07244638 0.08590627 0.014843325 -0.02977708

conv2.conv2.1.running_mean f4 [16]
00000000: a4fc b0be a3f9 293e 36e5 833e f8ce acbf
00000010: aaed 603f a45a 793f c1eb 13bf cb7b 3abe
00000020: 51a7 853e 3b87 74be 23b8 d03f 73f0 043f
00000030: 1610 56be f86d e4be 6df3 a6be 194d 75bf
-0.3456775 0.16599135 0.25760812 -1.3500662 0.87862647 0.9740393 -0.57781607 -0.18211286
0.26104215 -0.23879711 1.6306194 0.51929396 -0.20904574 -0.4461515 -0.32607594 -0.95820767

conv2.conv2.1.running_var f4 [16]
00000000: ec98 943f 281e 7a3f df5f 0d40 ed2c f53f
00000010: 9961 c93f 9b15 0f40 c18a cb3f fb51 af3f
00000020: b4d5 d43f 389e 9f3f b797 ac3f 3e2f ec3f
00000030: 9844 a03f 3e0d a23f 7786 983f 52ee 803f
1.1609168 0.97702265 2.2089765 1.9154335 1.573291 2.2356937 1.5901719 1.3696893
1.6627717 1.247016 1.34838 1.8451917 1.2520933 1.2660291 1.1916035 1.007273

conv2.conv3.0.weight f4 [16, 16, 3, 3]
00000000: 99a2 543d 232c c7bc 2ae4 4c3c 7f7a db3c
00000010: bd92 9e3d e6f9 59be 960f 09be b423 4e3c
00000020: 6398 43bd 0e93 7b3c 17b7 33bc 4868 093d
00000030: 4d0c ffbd b2f4 babd f6f4 913d 4794 a4bd
00000040: 66d4 d6bd abf0 263d d302 80bc c29b 64bd
00000050: ed02 b83d 36d3 b43c 7333 003d 8494 35bd
00000060: f535 b33d 4583 3e3d c89f 333e 43b7 253d
00000070: b621 523d 7e37 cd3a 6fe7 283d 7592 40bd
00000080: ba54 b43c a69b 243e 7859 903d a5a1 9dbb
00000090: c9fa 203e 8259 47ba 92d7 74be c646 343e
000000a0: 01bb d0bd 1b5a 963c 44bf 833c e84f bebc
000000b0: ca1e 883d a5a1 03be c434 00be e8ce 883d
000000c0: 0cc9 59be 1a65 c43c 8b01 38be db76 483d
000000d0: 1880 dd3c cf58 223e 843f 2bbe d1aa 42bd
000000e0: 21a3 4ebe 80e4 7bbe e3ac 203d 480b 62be
000000f0: 0873 46be 5a9f 94bc 60fc b9be ce0a 073e
00000100: b8aa cc3d d69d 06bd 8f7e 1b3e f080 f6bd
00000110: ea7e 16be 00a5 e6bd 8787 523c 3a62 363d
00000120: 38f6 d73d 496a c5bd d0b5 f63c 78b8 89bc
00000130: 227c babd 12e5 593c 6eef 3fbe 20c5 b3be
00000140: c446 1a3b c896 dabd 40a8 13be 2c8b 00bb
00000150: 7401 04be ef03 26bd 80c7 c0bc b8c1 45bd
00000160: 75f9 9dbd a63f 813c cc6f cd3d 5ecb a9bc
00000170: e041 d1bd 237d 7abd efb9 313e b1ad 503e
00000180: e2b5 84be fd89 31be 642d d13c b054 89bd
00000190: d804 23bd 40d1 4c3e a727 03be 0e1e 12be
000001a0: 4eae fbbd 3409 2dbe 606a ee3d 964c adbd
000001b0: ac74 9a3d c747 4c3d e438 c2bd cabd 60bd
000001c0: 1c9c 9a3d a924 d23d 05c2 fc3d b2ed 563d
000001d0: bcfc 583e 761e 743d c1d9 5b3e fed4 873d
000001e0: 4e02 583c a148 f43d 3ee2 c0bb 4001 e13d
000001f0: 3e16 13be e68f d1bd 39f1 c5bd bbfa 5a3e
00000200: 2a50 053e 3054 d63c 5243 f73c 008b 65be
00000210: 62f5 e63c 9538 8fbd 90ec 113d b443 343e
00000220: 46bf 063d 9f8b 21bd d5bc a2bd be18 d53a
00000230: 1a66 9abd 4851 c1bd a344 38bc 0700 94bd
00000240: fdc4 25be 37f9 a13d 1cfb 0c3d 349e 823c
00000250: 2158 5b3d 1c02 0c3d d659 1cbd c2bb 1bbe
00000260: 5356 773c 6d8b 6b3d f80f 2bbd e202 9abc
00000270: 5306 fabc 10aa 62bd 3b10 c83d 5289 403e
00000280: 5bd3 b33d 68d5 c33d 7015 a43c f552 8abe
00000290: 3c56 123d a12c 253e c393 90bd 8eb7 2dbe
000002a0: 41e7 18ba 22a9 4d3d 3581 4f3e 1a5b 97bd
000002b0: 7f76 6f3c ce8c ab3c 3828 ba3d 5d31 7e3d
000002c0: c80f 4dbc 76f5 8eba 0b2c 8dbc d405 8f3d
000002d0: 2762 0fbe d8de bebd 9afe ab3d 6f7c 3e3e
000002e0: 79eb 12be 4e59 613d f4fa 24be 63f2 403d
000002f0: 9d68 ce3d 4d88 8ebc 01c6 43bd a656 c0bd
00000300: 8384 86bc ccb1 db3b 1d12 ffbc 926a c53b
00000310: 5b2d e23d 6188 1c3e dbeb 9a3d ba7c 7dbe
00000320: 0057 0fbe 19ba d6bd 6be2 aebd c8a2 60be
00000330: b214 d93c 7ad2 06be 0587 2fbd 8f04 313d
00000340: e263 f33d f42f 753e f0c2 5d3e d968 80bd
00000350: 080b be3b 4a63 cf3d 8558 9dbe 65df d5bd
00000360: fa8e 023e 1c55 ed3d d01f 9b3e c2a3 033c
00000370: e66f 363e 8b19 ba3d f966 b4bd 40e0 b83d
00000380: fad6 1f3c 977f 26bd 2e2a 69bb 0c0f 4a3e
00000390: 8800 363b ddd1 22bd 39eb 273d f0ab e23d
000003a0: 3d75 eebc d9d4 29be 4c68 ab3c eb83 a5be
000003b0: 1412 dcbd 361f 5b3c 0ac0 aabb 7365 2cbe
000003c0: 1475 473e 6c43 7cbe 2fe5 283c 6b3c 06ba
000003d0: 5824 4ebe 834c 953d 7454 d43d 5533 063c
000003e0: 55ba 78bd 9c58 3abe c279 b63d 52d7 b43d
000003f0: ee04 65bc 4a05 4dbd af61 fdbd e231 27be
0.051912878 -0.024313038 0.01250557 0.02679181 0.07742832 -0.21286735 -0.13384852 0.0125817545
-0.04775275 0.015354885 -0.010968945 0.033546716 -0.12453518 -0.09128703 0.07126801 -0.08036094
-0.104897305 0.040756863 -0.015626347 -0.055812605 0.08984933 0.02207337 0.031299066 -0.04433109
0.08750526 0.046511907 0.1754142 0.040457975 0.05130168 0.0015656797 0.041236337 -0.047014672
0.022013057 0.16075 0.07048315 -0.0048105293 0.15720667 -0.0007604585 -0.23910359 0.17605123
-0.10191918 0.018353513 0.016082413 -0.023231462 0.066464975 -0.12854631 -0.12520128 0.06680089
-0.212681 0.02397399 -0.17969339 0.048941474 0.027038619 0.1585419 -0.16723448 -0.047526184
-0.20179416 -0.24598885 0.039227378 -0.22074616 -0.19379818 -0.018142391 -0.3632536 0.13187715
0.099934995 -0.032865368 0.15184997 -0.120363116 -0.14696851 -0.1126194 0.012849695 0.04452727
0.105450094 -0.09639413 0.030115992 -0.016811594 -0.09105708 0.0132992435 -0.18743679 -0.35111332
0.0023540715 -0.106732905 -0.14419651 -0.0019614203 -0.1289118 -0.040531095 -0.023532629 -0.048280448
-0.07713596 0.01577742 0.10031089 -0.020726856 -0.10217643 -0.061154496 0.17356084 0.20378758
-0.25920016 -0.17337795 0.02553434 -0.06705606 -0.03979954 0.20001698 -0.12808095 -0.14269277
-0.12289105 -0.16898042 0.11641383 -0.08461873 0.07541785 0.04987314 -0.09483507 -0.054868497
0.07549307 0.102608986 0.12341694 0.052472778 0.2119016 0.059599362 0.21469785 0.06632422
0.013184143 0.11927915 -0.005886345 0.109865665 -0.14363953 -0.102325246 -0.0966515 0.21384709
0.13018861 0.02616319 0.030183468 -0.22416306 0.02819318 -0.06993214 0.035625994 0.17603952
0.032897256 -0.039439794 -0.07946173 0.0016257984 -0.075390056 -0.09439331 -0.011246833 -0.07226568
-0.16188426 0.07908862 0.034419164 0.015944578 0.053550843 0.0341817 -0.03817161 -0.15208343
0.015096265 0.057506014 -0.041763276 -0.018800203 -0.030520594 -0.055337965 0.09768721 0.18802384
0.08780547 0.095621884 0.020029753 -0.27016416 0.03572677 0.16130306 -0.07059433 -0.16964552
-0.00058327994 0.050210126 0.20264132 -0.07390423 0.014615654 0.020941164 0.09089702 0.062058795
-0.01251597 -0.0010906893 -0.017232915 0.069835335 -0.14002286 -0.09319848 0.08398171 0.18602155
-0.14347638 0.05501681 -0.16111356 0.047106158 0.10078547 -0.017398978 -0.047796253 -0.09391527
-0.016420608 0.0067045446 -0.031136567 0.006024667 0.11043807 0.152864 0.07564517 -0.2475461
-0.13998032 -0.10484714 -0.085392796 -0.21937096 0.026499126 -0.13166228 -0.042853374 0.043217238
0.118842855 0.23944074 0.21656394 -0.06269998 0.005799655 0.1012636 -0.30731598 -0.10443
0.12749854 0.11588499 0.3029771 0.008034648 0.17816123 0.09086903 -0.08808703 0.09027147
0.009755844 -0.040649023 -0.003557812 0.19732302 0.0027771313 -0.039750922 0.04099581 0.11067951
-0.029108638 -0.16585101 0.020923756 -0.32327208 -0.10745636 0.0133741405 -0.005210881 -0.16835575
0.19478256 -0.24635094 0.010308548 -0.00051206973 -0.20131052 0.07289984 0.10367671 0.008190949
-0.060724575 -0.18197864 0.08909942 0.088301316 -0.013978226 -0.050053872 -0.12372147 -0.16327623

conv2.conv3.0.bias f4 [16]
00000000: a38b 88bc 29f5 323d 9ae5 4ebd 15b0 22bd
00000010: 6715 a13d afd8 043c 2fc6 a4bd 7f16 073c
00000020: 7be1 6dbd aeab 2c3d 9dda 2d3c 62ba 9a3d
00000030: 3e86 5a3c dfbf 763d bca1 9e3d 4225 9e3d
-0.016668146 0.043690834 -0.050511934 -0.039718706 0.0786541 0.008108302 -0.08045613 0.00824511
-0.058076363 0.042155914 0.0106112035 0.07555081 0.01333767 0.060241576 0.07745692 0.0772195

conv2.conv3.1.weight f4 [16]
00000000: 103e 853f 95f6 873f 2fc0 7e3f f839 703f
00000010: fc60 7d3f 9700 843f 1159 843f 1e4e 603f
00000020: ba5b 843f aeef 853f 6184 7b3f 17e2 863f
00000030: daa8 6e3f 4476 653f e91c 863f fd9e 863f
1.0409565 1.0622126 0.99512 0.93838453 0.9897611 1.031268 1.0339681 0.876192
1.0340493 1.046377 0.9824887 1.0537747 0.932264 0.89633584 1.0477573 1.0517269

conv2.conv3.1.bias f4 [16]
00000000: cf58 1dbb fb36 913d cb91 2dbd ca09 ec3b
00000010: 3f46 85bd 076a f43c 231a c03c cfb2 34bc
00000020: cca6 823c 5873 e63c beb8 00bd b248 543c
00000030: 2f84 5bbc ed4e 06bc 39fa 75bc 8190 b83c
-0.0024009233 0.07090565 -0.042375367 0.0072033154 -0.06507539 0.029835714 0.023449963 -0.011028959
0.015948676 0.028131172 -0.031426184 0.012956785 -0.013398214 -0.008197528 -0.015013271 0.022529842

conv2.conv3.1.running_mean f4 [16]
00000000: 8d93 69bf 0f75 0a3f 0cfd b03f 4aea 233c
00000010: 07ac 8cbf 6e92 de3d 4a05 c5bd b912 8cbe
00000020: 948e 86bf 27ff b9bf 2db5 a83f 894b fb3e
00000030: a367 383e d8fb cd3d 4957 22bd 688e d13f
-0.9124077 0.5408487 1.3827224 0.010004589 -1.0989999 0.10867773 -0.096201494 -0.27358034
-1.0512261 -1.4530991 1.318029 0.49081066 0.18008284 0.10057801 -0.039634023 1.6371584

conv2.conv3.1.running_var f4 [16]
00000000: 9bf5 a83f a343 bf3f 3ecf 1440 9a77 893f
00000010: 2402 d03f f59c d63f d229 903f 2346 0b40
00000020: 0f1f cb3f 478e 8a3f 040f 453f b5e0 b93f
00000030: 4b15 8e3f c7e2 e63f b607 0d40 9336 3e40
1.3199953 1.4942516 2.325149 1.0739625 1.6250653 1.676665 1.1262763 2.1761558
1.5868853 1.082467 0.7697604 1.45217 1.1100248 1.8037957 2.2035956 2.972081

conv3.conv1.0.weight f4 [32, 16, 3, 3]
00000000: 30d5 00bc 525e 41bd 23ae c53c 3b96 983d
00000010: 2448 513d ced5 1cbe 1af6 e1bd 2c68 60be
00000020: 54a8 c2bc a9d7 833d 77cf 3e3e 42bf 1abe
00000030: be9b 333d 9b38 153c 0213 f33d 84ce 00bc
00000040: 6a8b a93d 571b cfbd 0920 2d3c 277e 06bc
00000050: 8245 983d 50ce 01bd 925a 4b3d 8a6a 54be
00000060: 02ca 5abc 2084 dbbc 328b b73d 9c94 89bd
00000070: b59b 0bbe 5c58 85bd bb8c 8cbd 00c8 66be
00000080: fa43 5dbd c7c2 8f3c 7bb5 9ebd f6fc 0dbe
00000090: cc30 ef3d f130 c3bd 5376 8a3d 80c3 aabc
000000a0: 3143 453e 7122 16be 4dfd 863d 59cc bd3c
000000b0: 34f6 f33c db8c 3d3e 43c1 353e 0e1d 71be
000000c0: 86da ac3d 2ca3 ae3d 7210 d83d 67ab fa3d
000000d0: bc74 063b 369c 433e e484 acbd 397b 0f3e
000000e0: 7725 2ebe 5683 4cbc af0f 99bd d340 ccbb
000000f0: a003 373b 116a bf3e 7e91 c8bd 3921 8fbd
00000100: 86ee f33c 3af8 0d3c 107a 47be 6a40 4d3c
00000110: 19de ce3c 0821 c8bd 5cbf 413e a54b 1a3c
00000120: eed9 5fbe 1f42 4fbd 28fd c73d 65e9 01be
00000130: 2538 8f3c 7562 6cbe 376b 163d 9a4b c8bc
00000140: 4b3b 1ebd 9d31 aabd e32f a1bd 247e 35bd
00000150: b565 09be f200 aa3d 9a41 a2bd 07b9 d53d
00000160: 5a33 b53d 97cc 123e bccd 973d 76b3 713e
00000170: 1f4e 973e 840f c23d ea6a 37bc 9af0 41bc
00000180: 0c3c 09be 954e 6e3d 11e9 a2bc 5675 9ebe
00000190: 6c36 c93d b4a1 e9bd 08ee c83d 6253 c8bd
000001a0: 70ba 93bc 6f03 2ebd b4cf 893d e44d d73c
000001b0: 125a 023d 34fd 6a3d 4b3b 06bd 7caa ef3d
000001c0: 9360 033d 5956 433e 1b84 70bd f977 cf3e
000001d0: 843d b23c 720f f4bd 61a0 fc3d 2fbe ccbd
000001e0: c402 b53d aa59 27bd 2476 813d 6954 babc
000001f0: e216 88bb 98e9 e23d c182 233e 4b8c c5bd
00000200: a55f 47bd 7f3d c13c eca5 cebc d095 4ebd
00000210: 9ed9 20bd 8f69 34be 1ae7 03be a5a7 8c3b
00000220: 3ecb 273e 24b4 93bd 15ce 5abe 3898 d6bd
00000230: eb6c a83e a445 2e3d 538d 0a3d 45d4 fc3d
00000240: a243 5fbd 534d c13b 2917 5cbd 1730 ffbb
00000250: 165c f63c 1f50 c43d 7fad a43d 6766 4ebe
00000260: 07f5 6dbd 5fcf 5fbd 72b4 003c 4a91 b83d
00000270: dcff 3fbe 6b72 28bd 9430 9a3d 7e96 50be
00000280: 452a 113e faf9 133e f212 7d3e 7f17 283e
00000290: cd73 32bd 6acc 123c 6e03 223e 3777 60be
000002a0: 8642 f33d f0ca 043d a581 99be 4e2d 1e3e
000002b0: 7576 0dbe c312 38bc 3191 893d c0c9 843c
000002c0: 9d31 9dbd 9648 823d 3673 11bb 38f8 3a3e
000002d0: 5665 943d 758e 623d 03f6 38be f619 183e
000002e0: 21e0 c8bd 82b8 253c 257c 413e 0795 473e
000002f0: a75c 6ebd f28c 5d3e 07b2 7abe a0b7 42bd
00000300: 92ab e8bd fedf 9f3d 9071 cf3d 62ea b43d
00000310: 1f2c 49be b1a4 ad3d 59cc d2bd ab8e e6bc
00000320: 7a86 4bbe dcc8 cabc fa39 323c 5de2 9a3d
00000330: d8b3 4cbe ac8a e4bd 1475 7b3d 54aa 19be
00000340: 4cb8 bdbe ac56 943d 546a a1bd b3d2 8d3e
00000350: 629e 123e eaaa 783b 4a88 6a3d 6abb 83bd
00000360: 9d4d 0dbc ca58 c73d 9dfa 02be 6e67 58bd
00000370: 2a11 49bd 09e8 573b 25a2 153e df1a a8bd
00000380: 3194 bab9 c6f5 d93d b13a 77be 4446 813d
00000390: 0b48 87be fadb 1cbe 83e2 a0bd 507c f63c
000003a0: 9869 183e 8835 df3c d073 e3bd 7e38 07be
000003b0: d952 bbbd 495a 6c3d cb25 d5bd caac 5cbb
000003c0: 9534 063e bb6f 283e e106 96bc 459e 113d
000003d0: f193 a03c ac39 1ebe d7bc 28be d431 0f3d
000003e0: 015f 4bbe 1c7f a3bc 4b01 c9bc e14f 0dbd
000003f0: 86bc a2bd 1262 8dbd c9b4 12be b6db 5b3c
-0.007863328 -0.04720909 0.024130886 0.07450529 0.05109419 -0.15315935 -0.11033268 -0.21914738
-0.023761906 0.06437618 0.18633829 -0.15112022 0.0438497 0.009107734 0.1186886 -0.007861737
0.08278544 -0.101126365 0.01056672 -0.008208788 0.074351326 -0.031690896 0.04964692 -0.20743766
-0.0133538265 -0.0267964 0.08962096 -0.06717798 -0.13633616 -0.06510994 -0.0686278 -0.22537231
-0.054019906 0.017548932 -0.077494584 -0.13866028 0.11679229 -0.09530819 0.0676085 -0.020845175
0.19263913 -0.14661576 0.06591282 0.02316873 0.029780485 0.18510763 0.17749505 -0.2354624
0.084401175 0.08527216 0.10550012 0.12239724 0.0020516356 0.19102558 -0.084237844 0.1401185
-0.17006479 -0.012482485 -0.074736945 -0.0062333136 0.0027925745 0.3738561 -0.097933754 -0.069887586
0.029776823 0.008665139 -0.19480157 0.012527565 0.025252389 -0.09771925 0.18920654 0.009417449
-0.21860477 -0.050600167 0.097650826 -0.12686689 0.017482826 -0.23084433 0.03672334 -0.024450112
-0.038630765 -0.08310244 -0.07870462 -0.04430975 -0.13417704 0.083009616 -0.07922669 0.10435682
0.08847685 0.14335857 0.074122876 0.23603615 0.2955179 0.094756156 -0.011194924 -0.011837149
-0.13401812 0.05818041 -0.019886525 -0.30948895 0.09824833 -0.114077955 0.09811026 -0.09781529
-0.018033236 -0.042483743 0.06729069 0.026282258 0.03182418 0.05737038 -0.03277139 0.11702439
0.032074522 0.19075908 -0.058719736 0.4052122 0.021757849 -0.119170085 0.12335277 -0.09997212
0.08838418 -0.040856995 0.06321362 -0.022745328 -0.0041531185 0.11079711 0.15967847 -0.096458994
-0.048675198 0.023588894 -0.025225602 -0.05043584 -0.039270036 -0.17618392 -0.12881127 0.0042924457
0.16386124 -0.072120935 -0.21367677 -0.10478252 0.32895598 0.042546883 0.033826184 0.12345175
-0.05450786 0.0058991103 -0.053733025 -0.007787715 0.030073207 0.095855944 0.08040904 -0.20156251
-0.058095004 -0.054641124 0.0078555215 0.09012087 -0.18749946 -0.041124742 0.07528797 -0.20369908
0.14176281 0.14450827 0.24714258 0.16415213 -0.043567467 0.008959869 0.15821621 -0.21920477
0.11877923 0.0324201 -0.29981723 0.1544697 -0.13814719 -0.011234942 0.06717146 0.016209483
-0.076754786 0.06361501 -0.0022193915 0.1825875 0.07245891 0.05531164 -0.18062596 0.14853653
-0.09808374 0.010114791 0.18895014 0.19490443 -0.05819383 0.21635798 -0.24481975 -0.0475384
-0.113608494 0.07806395 0.10129082 0.088337675 -0.19645737 0.08478678 -0.102928825 -0.028144201
-0.19875517 -0.02475398 0.0108780805 0.075627066 -0.1999048 -0.11159262 0.06139095 -0.15006381
-0.3705467 0.07243094 -0.078816086 0.27699813 0.14318231 0.003794367 0.05725888 -0.06432231
-0.0086244615 0.09733732 -0.12790914 -0.052833013 -0.049088635 0.00329447 0.14612634 -0.0820825
-0.00035587096 0.10642581 -0.24143483 0.0631223 -0.26422152 -0.1531829 -0.07855704 0.030088574
0.14884031 0.027247205 -0.11106074 -0.13205144 -0.09146661 0.05770329 -0.10407599 -0.0033672326
0.13105996 0.16448872 -0.018313827 0.03555133 0.019601794 -0.15451688 -0.16478287 0.03495963
-0.1986046 -0.019958071 -0.02453675 -0.034500007 -0.07946114 -0.06903471 -0.14326777 0.013419082

conv3.conv1.0.bias f4 [32]
00000000: 0fe3 60bd 648c 5bbd 5642 983c bd43 a1bd
00000010: 5cfb 66bd 9988 0cbd cc24 22bd 2c38 0f3d
00000020: 7829 803d f889 893d eaf0 113d 3e6b 96bd
00000030: ce99 9b3d 7c87 373b 2a7c 7ebc dfa2 7e3d
00000040: aff3 d83c 4cd1 35bd 5778 1a3c f36b 3b3d
00000050: ac2d 013d 9325 a73d 0926 b4bb 9b91 fa3c
00000060: ebcb 49bd c599 aabd dfb1 333d b7b7 10bc
00000070: ae45 91bd 525b 7e3c d52e a63d 9442 ef3c
-0.05490404 -0.053600684 0.018586319 -0.07874248 -0.05639206 -0.034309957 -0.039585873 0.03496568
0.062579095 0.067157686 0.035630144 -0.073446736 0.07597695 0.002800434 -0.015532533 0.062167045
0.026483385 -0.044389054 0.009428105 0.045757245 0.031537697 0.081614636 -0.005497698 0.030587008
-0.049266737 -0.083301105 0.043870803 -0.0088328635 -0.070933685 0.015524702 0.08114401 0.029206552

conv3.conv1.1.weight f4 [32]
00000000: 0bc1 733f a20e 843f d266 7b3f 501b 7b3f
00000010: 7f25 863f 5725 723f 4c28 843f 12fc 763f
00000020: 16bd 853f e2f1 713f 3cd7 7c3f 8866 7c3f
00000030: 7151 813f b319 753f 85ed 823f 70cb 853f
00000040: 0d9c 793f ed2c 7a3f 357a 813f 4d41 843f
00000050: 9763 813f 59a7 853f f92f 6f3f 1739 8b3f
00000060: b3ad 803f 9e21 793f b748 773f f5b0 813f
00000070: 13e1 813f cbca 743f 8c91 883f 7c34 8d3f
0.95216435 1.0316966 0.98203766 0.9808855 1.0480193 0.94588226 1.0324798 0.9647838
1.044833 0.9450971 0.9876592 0.9859395 1.0102979 0.9574234 1.0228735 1.0452709
0.9750374 0.977248 1.011542 1.0332428 1.0108517 1.0441695 0.93432575 1.0876797
1.0053009 0.9731692 0.9659533 1.0132128 1.0146812 0.9562194 1.0669417 1.1031642

conv3.conv1.1.bias f4 [32]
00000000: e6bc 40bd b035 b43a 16f9 a13c 5c7b 2f3c
00000010: fc3f 4a3d a6a4 22bd d06d 31bc 0d63 87bc
00000020: 66ca 653d 32c6 0cbc 2d58 5cbc c598 f5bb
00000030: b3e6 233d d4c5 74bd 734f f3ba 16be 553d
00000040: 734f b0bc 936a 0bbd 2b8a e73c b5cb d1bc
00000050: b6fb 0ebd 4f73 883c bd80 23bd a0e7 deba
00000060: 1d2f b83c 957a 3abd 7e3c 8cbd 4644 d03b
00000070: a53a 21bc 1aef 28bd 8870 bbbc 4d76 143d
-0.047055148 0.001374891 0.019772094 0.0107105635 0.049377427 -0.039707802 -0.010829404 -0.016526723
0.056101225 -0.008592175 -0.013448757 -0.007495018 0.040014934 -0.059758976 -0.0018563106 0.052183233
-0.02152226 -0.034037184 0.028264126 -0.02560983 -0.03490802 0.016656546 -0.039917696 -0.0017006285
0.022483403 -0.04552706 -0.068474755 0.006355795 -0.009840642 -0.04124365 -0.022880808 0.036245633
