checkpoints/ifind1_sononet_8_andi/012_net_class_only_from_50.pth (torch_old, 671523 bytes, 90 tensors)

conv1.conv1.0.weight f4 [8, 1, 3, 3]
0.23654445 0.22076792 0.34387797 -0.21420398 0.49357003 -0.37032267 0.115570545 0.67775035
-0.98260736 0.5117687 -0.76079744 -0.35854274 0.19623879 0.519625 -0.20095067 0.18560095
0.19610709 0.31124 -0.99176764 -0.39116046 0.39599794 0.11352366 0.0792608 -0.27752894
-0.625732 0.10896994 -0.9842476 -0.6535558 0.3757638 -0.11322678 -0.26540715 -0.821716
-0.4416326 0.03156342 -0.3298457 0.29880455 -0.9798608 -0.1654647 -0.24391752 0.23099011
-0.46860206 -0.7392659 0.7258433 0.06580405 -0.8269417 -0.35624295 -1.0113978 -1.028716
-0.077189125 -0.4054966 -1.1704705 -0.49509752 0.23350468 -0.45017436 0.41950715 -0.65831697
-0.23121981 -0.31862545 0.91978765 -0.072398394 0.50324893 0.109855816 0.3293025 0.32924035
0.08431271 0.2140455 -0.10658409 -0.37447423 -0.98138934 0.106593035 -0.29769838 0.5396733
00000000: b538 723e fc10 623e c610 b03e 4a58 5bbe
00000010: 36b5 fc3e ef9a bdbe 40b0 ec3d 0c81 2d3f
00000020: 288c 7bbf 4603 033f 9fc3 42bf ea92 b7be
00000030: d2f2 483e 2506 053f 03c6 4dbe 2d0e 3e3e
00000040: 4cd0 483e d95a 9f3e 7ce4 7dbf 2f46 c8be
00000050: 3ec0 ca3e 187f e83d 7c53 a23d 4618 8ebe
00000060: f92f 20bf a22b df3d a7f7 7bbf 6f4f 27bf
00000070: 1d64 c03e 71e3 e7bd 72e3 87be fb5b 52bf
00000080: ab1d e2be a548 013d 89e1 a8be e9fc 983e
00000090: 28d8 7abf 946f 29be 84c5 79be ac88 6c3e
000000a0: 9cec efbe 8840 3dbf ded0 393f 46c4 863d
000000b0: 74b2 53bf 7a65 b6be 7c75 81bf f7ac 83bf
000000c0: 5515 9ebd 409d cfbe fad1 95bf 6c7d fdbe
000000d0: da1b 6f3e 417d e6be a4c9 d63e 7687 28bf
000000e0: e3c4 6cbe e022 a3be 3477 6b3f 9c45 94bd
000000f0: ecd4 003f 16fc e03d 569a a83e 3192 a83e
00000100: 24ac ac3d be2e 5b3e c248 dabd 16bb bfbe
00000110: 553c 7bbf 734d da3d ec6b 98be 0828 0a3f

conv1.conv1.0.bias f4 [8]
-0.1879396 -0.26050264 0.21068017 0.3104734 0.1938961 0.21854621 -0.107158385 -0.114231385
00000000: 3d73 40be 9a60 85be 8bbc 573e 5ff6 9e3e
00000010: b38c 463e 94ca 5f3e db75 dbbd 25f2 e9bd

conv1.conv1.1.weight f4 [8]
1.002489 0.9811353 0.9438406 1.075928 1.0295104 0.94761854 0.9535525 1.0836107
00000000: 8f51 803f af2b 7b3f 8a9f 713f 02b8 893f
00000010: ffc6 833f 2197 723f 041c 743f c1b3 8a3f

conv1.conv1.1.bias f4 [8]
0.04815926 0.1225481 -0.03121119 0.13532752 0.123964995 0.086911075 0.027528413 0.117608406
00000000: a542 453d 80fa fa3d 9cae ffbc 4c93 0a3e
00000010: 5ce1 fd3d 6ffe b13d 4483 e13c addc f03d

conv1.conv1.1.running_mean f4 [8]
-0.19116466 -0.2581364 0.20410578 0.3082638 0.18977596 0.21015437 -0.104400896 -0.114187144
00000000: abc0 43be 742a 84be 1b01 513e c1d4 9d3e
00000010: a154 423e b532 573e 23d0 d5bd f3da e9bd

conv1.conv1.1.running_var f4 [8]
0.35070935 0.46318376 6.148827 3.581812 5.598611 21.492268 1.0666928 0.31225494
00000000: 2d90 b33e 6c26 ed3e 31c3 c440 683c 6540
00000010: d227 b340 2af0 ab41 6489 883f e1df 9f3e

conv1.conv2.0.weight f4 [8, 8, 3, 3]
0.1461053 -0.25797078 -0.4863302 -0.017145371 0.35911116 -0.17666976 0.17467503 -0.043001354
0.14309008 -0.018210737 -0.25729245 0.040948033 -0.084875196 -0.15196058 -0.08136107 -0.31718305
0.17505251 -0.08573939 -0.0007696191 -0.2807294 0.14794318 0.2637359 0.062064912 0.08581559
0.1861311 0.23678903 0.082910575 -0.0946103 -0.14391561 -0.2432634 0.31879082 -0.10611359
-0.05726249 0.28547814 0.11831306 -0.020703547 0.051603623 -0.047429383 -0.2552914 -0.18910117
0.08874568 -0.23622307 0.08670652 0.17358147 -0.2436043 -0.08669751 -0.19987556 0.08840661
-0.20168845 0.03155264 -0.2206979 0.24824315 0.20057656 -0.09150472 0.081533 -0.1949627
-0.33608723 -0.10408776 -0.058852587 -0.11955759 -0.09224221 0.13579361 0.20972952 -0.05287131
-0.11436491 -0.08767203 -0.26993182 -0.15100245 0.18264061 0.39978564 0.048195645 -0.16056922
-0.029797755 -0.022925552 -0.22862485 -0.18238382 0.16659398 -0.20519368 0.20240778 0.13209505
0.20251207 0.01811705 -0.09664807 -0.052119277 -0.22220588 -0.090900816 0.034917273 0.07502962
0.15669428 -0.017070418 0.15970843 -0.094030485 -0.2105983 -0.07209798 0.23032975 -0.07877484
-0.10464808 -0.094584644 -0.03997023 0.2527138 0.24861215 -0.07435761 0.008242054 0.076816805
0.035495546 -0.221444 -0.073778406 0.053237263 0.10671085 0.05795196 0.029769583 -0.1399646
0.17474423 0.13760218 -0.19769001 -0.072057195 -0.035372823 0.1534027 0.011146619 0.031641033
-0.20231041 0.07885686 -0.0061613997 0.20971376 0.1585258 -0.050250918 -0.0876239 0.081467986
-0.068883136 0.061335646 0.035859622 0.026755443 -0.26053733 0.033725232 -0.24532798 0.095071636
0.20416929 0.34588778 0.0023595018 0.07880283 -0.14000638 -0.15188697 0.09387985 -0.20671761
-0.033331424 -0.037008483 0.26964003 0.06466802 0.14311521 0.01888762 -0.118239515 0.0640921
-0.22927502 0.2006299 -0.3767935 -0.13990231 0.1979475 0.091674946 0.025698168 0.16325492
0.1658721 0.08039265 0.2780528 -0.038579788 -0.062680125 0.13574159 0.025934685 -0.081263065
0.039925814 0.2610216 0.30496368 0.19196744 -0.059050087 -0.0510005 0.17891403 0.20556381
-0.08242626 0.30228868 -0.16328052 0.3097007 0.062073365 -0.29483482 0.13211274 0.13957049
0.073236056 0.20000495 0.019508438 0.068803206 0.3464597 0.027504021 -0.09312965 0.14341429
-0.12492609 -0.15165205 -0.1587013 0.18932505 0.37474605 -0.27847835 0.15580647 0.07854804
-0.19034642 0.25955582 -0.0077808504 0.33288392 0.20430022 0.26848444 -0.018434398 0.08690409
0.0101519795 0.018257426 0.016849943 0.09371126 0.09965604 0.030090174 0.1100228 0.22494844
0.120167404 0.46269813 0.27677876 0.26021004 0.033493266 -0.20825322 0.028115662 0.15003346
-0.21799245 -0.0047067273 -0.15557562 -0.21101895 -0.1116924 0.37176374 -0.09796504 -0.020983987
0.036019925 -0.14491233 -0.22737248 -0.111260824 -0.12844941 0.4228648 0.0045178677 0.18107605
0.28326422 -0.100752324 -0.36331514 0.0071494062 0.09257895 -0.26437002 0.050015047 -0.042398304
0.059111472 0.0015106419 -0.13512412 -0.01134359 -0.0101505425 -0.28418395 -0.4932305 0.05304077
00000000: a19c 153e bf14 84be 4600 f9be 7374 8cbc
00000010: 6bdd b73e ebe8 34be 03de 323e 3022 30bd
00000020: 3586 123e af2e 95bc d6bb 83be 20b9 273d
00000030: 0cd3 adbd 8e9b 1bbe a2a0 a6bd d165 a2be
00000040: f740 333e 2298 afbd 43c0 49ba c4bb 8fbe
00000050: 6b7e 173e 6408 873e c737 7e3d 16c0 af3d
00000060: 2799 3e3e d378 723e 05cd a93d 0cc3 c1bd
00000070: 9d5e 13be 0a1a 79be 8d38 a33e 1552 d9bd
00000080: 138c 6abd 312a 923e 1e4e f23d 7c9a a9bc
00000090: 525e 533d 5045 42bd 8eb5 82be bda3 41be
000000a0: 4cc0 b53d 76e4 71be 3093 b13d 57bf 313e
000000b0: 6873 79be 778e b1bd 2eac 4cbe 860e b53d
000000c0: 6b87 4ebe 573d 013d a1fe 61be 7433 7e3e
000000d0: f163 4d3e d466 bbbd c6fa a63d 4da4 47be
000000e0: a013 acbe f72b d5bd 690f 71bd 9cda f4bd
000000f0: 7ce9 bcbd 7b0d 0b3e 56c3 563e 968f 58bd
00000100: 2638 eabd 658d b3bd 8134 8abe 63a0 1abe
00000110: 2406 3b3e b4b0 cc3e cc68 453d 426c 24be
00000120: 6c1a f4bc 5ece bbbc a21c 6abe d3c2 3abe
00000130: 9d97 2a3e 4b1e 52be fc43 4f3e ed43 073e
00000140: 535f 4f3e 356a 943c 6cef c5bd 067b 55bd
00000150: f089 63be 352a babd 6a05 0f3d 21a9 993d
00000160: 7774 203e 43d7 8bbc 9b8a 233e 0e93 c0bd
00000170: 15a7 57be 1ba8 93bd 90db 6b3e b454 a1bd
00000180: bc51 d6bd 98b5 c1bd d3b7 23bd b463 813e
00000190: 2f94 7e3e cd48 98bd ae09 073c 2152 9d3d
000001a0: c763 113d 37c2 62be 2219 97bd 510f 5a3d
000001b0: 388b da3d 095f 6d3d 57df f33c e152 0fbe
000001c0: 27f0 323e 96e7 0c3e 406f 4abe b992 93bd
000001d0: 18e3 10bd 9915 1d3e 4fa0 363c 079a 013d
000001e0: 762a 4fbe b57f a13d 91e5 c9bb 34bf 563e
000001f0: 9654 223e e8d3 4dbd 2974 b3bd b0d8 a63d
00000200: 9a12 8dbd 163b 7b3d 8ae1 123d 3b2e db3c
00000210: 2665 85be 7823 0a3d 4237 7bbe ebb4 c23d
00000220: c111 513e 3418 b13e dfa1 1a3b 6163 a13d
00000230: d55d 0fbe 4288 1bbe 1444 c03d c8ad 53be
00000240: 8886 08bd 3596 17bd 420e 8a3e ab70 843d
00000250: cb8c 123e 36ba 9a3c 8f27 f2bd b842 833d
00000260: 12c7 6abe ed71 4d3e 14eb c0be 8d42 0fbe
00000270: c0b2 4a3e 13c0 bb3d f784 d23c 4c2c 273e
00000280: 60da 293e e7a4 a43d f05c 8e3e d705 1ebd
00000290: 705e 80bd d8ff 0a3e fa74 d43c 406d a6bd
000002a0: 4089 233d a0a4 853e 3324 9c3e 1d93 443e
000002b0: 81de 71bd e6e5 50bd 3d35 373e 527f 523e
000002c0: 19cf a8bd 95c5 9a3e 0233 27be 1791 9e3e
000002d0: a440 7e3d 97f4 96be 9048 073e 91eb 0e3e
000002e0: c9fc 953d 19ce 4c3e 29d0 9f3c b2e8 8c3d
000002f0: 2a63 b13e 1d50 e13c c2ba bebd 32db 123e
00000300: 40d9 ffbd ad4a 1bbe 9882 22be 6dde 413e
00000310: b7de bf3e b794 8ebe bb8b 1f3e cbdd a03d
00000320: 2cea 42be 80e4 843e 81f6 febb c36f aa3e
00000330: 1434 513e cb76 893e bc03 97bc c6fa b13d
00000340: 7d54 263c 9990 953c e408 8a3c b0eb bf3d
00000350: 7718 cc3d ab7f f63c a253 e13d e258 663e
00000360: 541a f63d c5e6 ec3e f2b5 8d3e 403a 853e
00000370: 3c30 093d 5540 55be d152 e63c 5fa2 193e
00000380: 6a39 5fbe e43a 9abb 374f 1fbe 5a15 58be
00000390: fcbe e4bd d157 be3e e5a1 c8bd 9ce6 abbc
000003a0: a189 133d e663 14be 55d4 68be b7dc e3bd
000003b0: 3e88 03be bc81 d83e 9f0a 943b 006c 393e
000003c0: 0208 913e 3c57 cebd 7104 babe 9145 ea3b
000003d0: 089a bd3d 825b 87be 94dc 4c3d d8a9 2dbd
000003e0: df1e 723d bb00 c63a fa5d 0abe 77da 39bc
000003f0: 764e 26bc 8f80 91be b588 fcbe 4741 593d

conv1.conv2.0.bias f4 [8]
-0.042082004 0.039803058 0.052288227 0.05461017 -0.09611753 -0.11040254 -0.10481447 -0.024016373
00000000: 2e5e 2cbd 8808 233d 2e2c 563d eaae 5f3d
00000010: 44d9 c4bd ba1a e2bd f8a8 d6bd fcbd c4bc

conv1.conv2.1.weight f4 [8]
0.98259634 1.0435919 1.0143051 1.0553085 0.99422836 0.9437063 0.96421176 1.0091107
00000000: 6f8b 7b3f 6b94 853f c0d4 813f 5914 873f
00000010: c085 7e3f bc96 713f 95d6 763f 8a2a 813f

conv1.conv2.1.bias f4 [8]
-0.062042687 0.039008673 -0.11418591 0.0058432496 0.028755223 -0.01915916 -0.08098731 -0.017913444
00000000: 7920 7ebd 8fc7 1f3d 4dda e9bd bb78 bf3b
00000010: 1390 eb3c acf3 9cbc addc a5bd 37bf 92bc

conv1.conv2.1.running_mean f4 [8]
-0.82045263 0.21929206 2.1908948 -1.1978287 -1.2933869 -0.076375715 -0.6048543 0.6188596
00000000: 2f09 52bf 198e 603e 9f37 0c40 7352 99bf
00000010: b48d a5bf df6a 9cbd bbd7 1abf 956d 1e3f

conv1.conv2.1.running_var f4 [8]
0.7672896 0.53226554 1.3378898 3.0337634 3.3658695 1.6721481 0.4656003 0.9895761
00000000: 176d 443f 8e42 083f f93f ab3f 2e29 4240
00000010: 686a 5740 f308 d63f 2a63 ee3e dc54 7d3f

conv1.conv3.0.weight f4 [8, 8, 3, 3]
0.25253892 -0.15802063 -0.3546352 -0.056743823 0.038820103 -0.14452119 0.46278128 0.08164014
-0.31801 0.02325355 0.049401596 -0.08179777 0.46260342 -0.36282638 -0.112246744 -0.14354193
-0.11031269 0.23643228 -0.2350088 -0.18628599 0.01926048 -0.013171129 0.19389293 -0.09852852
0.07208991 -0.008481739 -0.18491244 -0.043565594 0.33537516 0.089243375 0.13130215 -0.008648578
-0.08892091 -0.055993933 -0.0701809 0.16401601 -0.039558936 0.01693571 0.16716789 0.34872445
0.26818925 0.40296945 0.13974357 -0.2802832 0.16566968 0.35069942 -0.02973112 0.16198374
-0.12565377 0.03974645 -0.012402354 0.17009693 0.44230404 0.007980362 0.20079981 -0.17792967
-0.04455737 -0.10125943 0.038192153 -0.08029315 -0.27112976 -0.20056511 -0.118832804 0.06541201
-0.1613947 0.08038962 0.28566262 -0.24202318 0.0536983 -0.10743773 -0.08906362 -0.2337211
0.024514517 0.099875696 0.18652894 0.042910628 0.20998761 -0.030052487 0.05387045 -0.019558692
0.12884389 -0.0768999 -0.17469855 -0.07702556 -0.41182768 0.06724398 0.3470051 0.09899674
-0.048780423 -0.0021929159 -0.2769392 -0.2564908 -0.109831735 -0.030794343 -0.20418379 -0.045462497
0.2167554 0.23656629 0.08372524 -0.18330415 -0.086732484 0.027890297 -0.14857608 -0.15770714
-0.21067545 0.287665 -0.27119514 -0.22026256 -0.015043565 -0.06434364 -0.22561736 0.22196928
0.029789742 -0.17439316 -0.17254873 0.092710115 -0.011694874 -0.24745782 0.053178627 -0.04929015
0.11050147 0.08086627 -0.038442012 0.06339265 0.12451966 -0.22919244 0.08255304 -0.03397681
-0.056263454 -0.18585779 0.10842698 -0.0041467925 -0.18621664 0.13252534 -0.232833 0.0781406
0.08512556 -0.021809561 0.16285507 0.081875615 0.18483123 -0.057436854 0.049280364 0.14039248
0.08936893 -0.026774969 0.29939783 0.17044215 -0.008447622 0.010784129 0.23653294 4.79058e-05
0.1477732 0.14750771 -0.2781284 0.110774726 0.15577441 -0.07499977 -0.36346802 -0.0076998924
-0.08815904 -0.30415174 0.066752724 -0.35391212 -0.15353918 0.047361653 -0.25995326 0.09046928
-0.16903998 0.025252003 -0.009491655 -0.15882903 0.24423006 -0.09152545 0.054564834 -0.09486071
0.16456875 0.049333215 -0.24891998 -0.32143798 -0.04455578 -0.06730584 0.31261975 -0.10262294
-0.02135516 -0.06467386 -0.016182624 0.06282655 0.008124819 -0.09636295 0.14662756 0.11793197
0.20081653 0.04572115 0.16074105 -0.031206187 0.20185465 -0.15439029 -0.12849079 0.057359964
-0.046776086 -0.1622198 0.2080486 0.41698202 0.06371296 0.0550463 0.27331772 0.23782645
0.20560376 -0.1296366 0.2143165 0.16415556 -0.11695921 0.12117022 0.054064926 0.1881375
0.3557626 -0.20422393 0.10959958 -0.00077948964 0.36970112 -0.0030220274 0.10394352 -0.0033521017
0.09035968 0.07742718 -0.26811728 0.03381911 0.1695914 0.20809782 -0.18685918 0.010043646
-0.3866742 -0.10516437 -0.01890961 -0.0362901 0.14431374 0.1538563 -0.022905827 -0.10361015
-0.12351291 0.016964601 -0.10286022 0.055892833 0.3019495 0.15947163 0.43914753 0.15070151
0.26963782 -0.06993722 0.123786144 0.013555546 0.059042484 -0.22066861 0.14502335 -0.054209523
00000000: c84c 813e 29d0 21be bf92 b5be 366c 68bd
00000010: d401 1f3d 5dfd 13be abf1 ec3e f232 a73d
00000020: 35d2 a2be 3b7e be3c 5459 4a3d 9785 a7bd
00000030: 5bda ec3e 61c4 b9be 9fe1 e5bd a8fc 12be
00000040: 9feb e1bd 4e1b 723e 26a6 70be c1c1 3ebe
00000050: 27c8 9d3c b8cb 57bc de8b 463e 52c9 c9bd
00000060: e0a3 933d fef6 0abc b059 3dbe d671 32bd
00000070: 4bb6 ab3e 3bc5 b63d 1274 063e c4b2 0dbc
00000080: 2b1c b6bd e559 65bd 01bb 8fbd d0f3 273e
00000090: 8d08 22bd c2bc 8a3c 0f2e 2b3e 038c b23e
000000a0: 1a50 893e 0352 ce3e f018 0f3e 4881 8fbe
000000b0: 50a5 293e e08e b33e ae8e f3bc 11df 253e
000000c0: 62ab 00be 2ccd 223d 3e33 4bbc e42d 2e3e
000000d0: ad75 e23e 10c0 023c 779e 4d3e 3233 36be
000000e0: ca81 36bd 1b61 cfbd 606f 1c3d bc70 a4bd
000000f0: 85d1 8abe f160 4dbe 9d5e f3bd bbf6 853d
00000100: a744 25be 50a3 a43d 5f42 923e edd4 77be
00000110: c0f2 5b3d 5008 dcbd fd66 b6bd 9654 6fbe
00000120: abd2 c83c a18b cc3d 7101 3f3e 0ec3 2f3d
00000130: fe06 573e a230 f6bc 43a7 5c3d 8d39 a0bc
00000140: a7ef 033e b27d 9dbd 2de4 32be 94bf 9dbd
00000150: 14db d2be 36b7 893d a7aa b13e cebe ca3d
00000160: fbcd 47bd 06b7 0fbb faca 8dbe c352 83be
00000170: 76ef e0bd 6b44 fcbc 8e15 51be e236 3abd
00000180: 21f5 5d3e 6f3e 723e 2378 ab3d 15b4 3bbe
00000190: cda0 b1bd 317a e43c 5424 18be fb7d 21be
000001a0: 4ebb 57be d448 933e 17da 8abe 828c 61be
000001b0: 4979 76bc 99c6 83bd 3d08 67be ea4b 633e
000001c0: 9e09 f43c 1f94 32be 9db0 30be cdde bd3d
000001d0: db9b 3fbc 9565 7dbe d5d1 593d 78e4 49bd
000001e0: 984e e23d 379d a53d 5f75 1dbd 01d4 813d
000001f0: 2a04 ff3d 6cb1 6abe 9111 a93d 442b 0bbd
00000200: 8274 66bd 8151 3ebe f70e de3d d1e1 87bb
00000210: 93af 3ebe b9b4 073e c66b 6ebe 2e08 a03d
00000220: 4f56 ae3d f7a9 b2bc 7bc3 263e 67ae a73d
00000230: 6644 3d3e e842 6bbd 35da 493d 0cc3 0f3e
00000240: 0f07 b73d 2e57 dbbc ac4a 993e 6388 2e3e
00000250: e567 0abc eaaf 303c b135 723e 76ee 4838
00000260: dc51 173e 430c 173e d866 8ebe dcdd e23d
00000270: 5483 1f3e 7b99 99bd 7b18 babe 614f fcbb
00000280: ba8c b4bd c7b9 9bbe a7b5 883d f833 b5be
00000290: 6039 1dbe 4bfe 413d 9818 85be f547 b93d
000002a0: d118 2dbe 4add ce3c e382 1bbc 14a4 22be
000002b0: 7217 7a3e b271 bbbd 607f 5f3d 5546 c2bd
000002c0: b684 283e a011 4a3d e1e4 7ebe 8593 a4be
000002d0: 1f80 36bd a5d7 89bd b20f a03e fa2b d2bd
000002e0: 04f1 aebc bb73 84bd 6c91 84bc 35ab 803d
000002f0: f61d 053c f059 c5bd 8925 163e 5186 f13d
00000300: d9a2 4d3e 1a46 3b3d 4d99 243e 1ea4 ffbc
00000310: fcb2 4e3e 7d18 1ebe 1793 03be 48f2 6a3d
00000320: 4898 3fbd f21c 26be b10a 553e ab7e d53e
00000330: f17b 823d 3b78 613d 4df0 8b3e c788 733e
00000340: cb89 523e 75bf 04be c975 5b3e 6518 283e
00000350: 4f88 efbd 1828 f83d 2f73 5d3d 1ea7 403e
00000360: 8426 b63e 1420 51be bf75 e03d aa56 4cba
00000370: 7749 bd3e 350d 46bb 57e0 d43d efae 5bbb
00000380: 7f0e b93d 2492 9e3d ab46 89be e885 0a3d
00000390: 5ea9 2d3e 9817 553e 0358 3fbe 1b8e 243c
000003a0: 29fa c5be 6b60 d7bd 54e8 9abc eea4 14bd
000003b0: fbc6 133e 828c 1d3e 00a5 bbbc 8f31 d4bd
000003c0: 56f4 fcbd 59f9 8a3c 61a8 d2bd e2ef 643d
000003d0: 2099 9a3e 884c 233e f2d7 e03e 7f51 1a3e
000003e0: f80d 8a3e 3f3b 8fbd 9783 fd3d 1518 5e3c
000003f0: 88d6 713d f4f6 61be 0081 143e ce0a 5ebd

conv1.conv3.0.bias f4 [8]
-0.06696112 0.030899739 -0.010462041 -0.11039538 0.0006874568 0.037356965 0.08424463 0.09550139
00000000: e922 89bd 7321 fd3c fb68 2bbc f916 e2bd
00000010: 7236 343a 9e03 193d 7388 ac3d 3c96 c33d

conv1.conv3.1.weight f4 [8]
1.0444338 1.0812944 0.83240235 0.9762568 0.9725995 0.8678988 1.1546357 1.089572
00000000: 02b0 853f db67 8a3f 5218 553f f7eb 793f
00000010: 48fc 783f 9e2e 5e3f 1acb 933f 1877 8b3f

conv1.conv3.1.bias f4 [8]
0.070269085 0.06401748 -0.012027209 -0.020721164 -0.013027813 0.055687834 0.08956865 0.094212316
00000000: 3de9 8f3d 991b 833d c50d 45bc 6ebf a9bc
00000010: 9c72 55bc ed18 643d c56f b73d 63f2 c03d

conv1.conv3.1.running_mean f4 [8]
0.43647975 -0.46926534 0.39295638 0.037854217 -1.3369355 0.9096601 0.2985697 -0.7682141
00000000: 467a df3e 8c43 f0be 9431 c93e 060d 1b3d
00000010: b420 abbf 7cdf 683f 21de 983e aea9 44bf

conv1.conv3.1.running_var f4 [8]
2.235878 1.321521 0.48163953 0.94258463 1.2032697 2.1905453 1.0569904 1.4163032
00000000: a018 0f40 9a27 a93f 7599 f63e 3a4d 713f
00000010: be04 9a3f e531 0c40 764b 873f 6c49 b53f

conv2.conv1.0.weight f4 [16, 8, 3, 3]
-0.21489277 -0.088869885 0.09228764 -0.042500306 0.0725605 0.23841918 -0.10857224 0.26469973
0.059040744 -0.17897882 0.0954965 -0.059460055 -0.24572921 -0.051498774 -0.27194798 -0.07596633
0.20438343 -0.116632864 0.23703916 0.27378 0.17522223 -0.04263382 -0.42194155 -0.04219111
-0.074104495 0.10339322 -0.046534535 -0.22210273 -0.26219675 -0.15849225 0.18481752 0.14915532
0.11010392 -0.18395028 0.06227775 -0.09970172 0.1764996 -0.0048090755 0.011754493 0.061284482
-0.1761637 -0.12172768 -0.16707173 -0.0018884445 -0.09533296 0.056524765 0.1169538 0.25597253
-0.09962277 0.22012816 0.109513015 -0.34201145 -0.10898538 -0.12902868 0.071942285 0.14423186
-0.0013311367 0.022273486 0.086187065 -0.2450806 -0.13935176 -0.24521403 -0.01677746 -0.11672697
-0.027808962 -0.013254031 0.037864424 -0.25936496 -0.007481392 0.09467984 -0.25335824 0.10307846
0.30487293 0.21177962 -0.084969945 -0.16835415 -0.10877276 -0.2102175 -0.088871166 -0.19108996
-0.014368961 -0.06513958 0.12961918 -0.26321715 -0.3690344 -0.1628802 0.020968642 0.0677907
0.18115117 0.019046977 0.03645719 0.0413313 -0.002240133 -0.18134776 -0.018745529 0.2708385
-0.5484315 0.003208166 0.0394587 0.029815054 0.1189133 0.15611848 -0.14084867 -0.10301446
0.2292997 0.008139526 0.12768027 -0.14318955 0.13305204 0.054721963 -0.27774355 -0.23189639
-0.0998809 0.05938971 -0.22144495 -0.04073498 0.07146009 -0.18853362 -0.27628824 -0.19193955
-0.045265287 -0.17188936 0.261125 0.22361907 0.19793123 -0.153302 0.08052565 -0.11350707
0.15813234 -0.10340005 -0.03904783 -0.4157122 0.22445366 -0.2057644 -0.14753646 0.16823131
-0.06898222 0.14807394 0.22675723 0.045637954 0.033091985 0.27531704 0.22997344 0.21887074
0.0028733874 0.113510996 0.24391419 0.046396688 -0.07100634 0.13406275 0.41333956 -0.06140148
0.26928326 -0.08286615 0.14347991 -0.122456826 -0.179941 0.3161446 0.07445512 -0.12786971
-0.12402089 0.05470579 0.03113 -0.152729 -0.19038036 0.21724376 0.2503386 -0.3489657
0.2600957 0.11441294 -0.21880852 -0.05991815 0.12924126 0.018952241 0.21129015 0.07567288
0.24221425 -0.017787665 0.12418409 0.07032938 -0.24378492 -0.085081145 0.06924381 -0.49303618
-0.07856351 0.0025297287 -0.06619212 0.16762014 0.13373563 -0.09385107 0.072674505 0.11765413
-0.013132379 0.20101726 -0.072458886 -0.05965969 -0.16865955 0.401565 0.31650066 -0.17183354
-0.14726052 0.3053099 0.03461654 -0.19478807 -0.052620504 0.012641441 0.016823998 -0.05592456
0.19359384 0.16544907 -0.6113011 0.11913295 -0.29044396 0.22181459 0.14704973 -0.23309524
0.21681929 0.029123671 0.011742544 -0.11767732 0.2994189 -0.13848366 -0.021101365 -0.07474951
-0.007024742 0.14563102 -0.186329 -0.1766543 -0.12525764 -0.09158988 0.00046885008 0.09584628
0.16803634 0.10666606 -0.31080136 0.0906637 0.01776058 0.1212407 -0.2741488 0.02619999
-0.22369677 -0.2552642 0.1769132 -0.21894191 -0.14267789 0.0019057373 -0.1755161 -0.16749756
-0.04273128 0.10682886 0.077018715 0.09943518 -0.22910397 0.19865753 -0.009707426 -0.11236158
00000000: da0c 5cbe 6a01 b6bd 4d01 bd3d cd14 2ebd
00000010: 999a 943d 2824 743e 1f5b debd b986 873e
00000020: b5d4 713d 3946 37be ab93 c33d 638c 73bd
00000030: 70a0 7bbe 61f0 52bd c43c 8bbe 3c94 9bbd
00000040: e449 513e 36dd eebd 65ba 723e e42c 8c3e
00000050: 756d 333e cda0 2ebd b908 d8be 96d0 2cbd
00000060: 19c4 97bd d3bf d33d ff9a 3ebd e66e 63be
00000070: a73e 86be cb4b 22be ce40 3d3e 2cbc 183e
00000080: 2a7e e13d 765d 3cbe f416 7f3d 6a30 ccbd
00000090: 50bc 343e 7395 9dbb eb95 403c 7005 7b3d
000000a0: 4264 34be 5d4c f9bd da14 2bbe af85 f7ba
000000b0: ed3d c3bd 8386 673d 7985 ef3d d50e 833e
000000c0: 0607 ccbd 4769 613e 5c48 e03d 201c afbe
000000d0: ba33 dfbd 1820 04be 7a56 933d 84b1 133e
000000e0: 8979 aeba e376 b63c d882 b03d 69f6 7abe
000000f0: 3ab2 0ebe 6319 7bbe e270 89bc 8d0e efbd
00000100: 9fcf e3bc 6f27 59bc ba17 1b3d 7ccb 84be
00000110: 7726 f5bb 81e7 c13d 2cb8 81be cd1a d33d
00000120: 4e18 9c3e c2dc 583e b904 aebd 0865 2cbe
00000130: 41c4 debd 4243 57be 1602 b6bd 16ad 43be
00000140: ca6b 6bbc e667 85bd e4ba 043e 66c4 86be
00000150: 14f2 bcbe 11ca 26be 6ec6 ab3c dad5 8a3d
00000160: b17f 393e 6808 9c3c 2254 153d 024b 293d
00000170: 32cf 12bb 3ab3 39be 3990 99bc 58ab 8a3e
00000180: 0266 0cbf 1840 523b 729f 213d b33e f43c
00000190: d188 f33d 86dd 1f3e a23a 10be 3ff9 d2bd
000001a0: 8acd 6a3e a55b 053c 9ebe 023e 48a0 12be
000001b0: cb3e 083e 2324 603d 6734 8ebe 3f76 6dbe
000001c0: 5b8e ccbd a042 733d 77c2 62be b9d9 26bd
000001d0: ab59 923d f50e 41be a775 8dbe cd8b 44be
000001e0: 1868 39bd c403 30be 2db2 853e 66fc 643e
000001f0: 7cae 4a3e 33fb 1cbe a2ea a43d 6576 e8bd
00000200: 72ed 213e 68c3 d3bd 9ef0 1fbd 3bd8 d4be
00000210: 2ed7 653e e7b3 52be cc13 17be d444 2c3e
00000220: 8d46 8dbd b2a0 173e 0c33 683e ddee 3a3d
00000230: 768b 073d 5bf6 8c3e 287e 6b3e a71f 603e
00000240: 714f 3c3b 7478 e83d a4c4 793e 740a 3e3d
00000250: c66b 91bd bf47 093e 3ea1 d33e 1e80 7bbd
00000260: 7fdf 893e bab5 a9bd 66ec 123e a5ca fabd
00000270: 7442 38be b4dd a13e ed7b 983d 47f0 02be
00000280: aafe fdbd 2e13 603d 5704 ff3c fe64 1cbe
00000290: 12f3 42be 2675 5e3e 622c 803e a2ab b2be
000002a0: 432b 853e 5551 ea3d 570f 60be bc6c 75bd
000002b0: d257 043e bb41 9b3c 725c 583e 62fa 9a3d
000002c0: 0307 783e 70b7 91bc 3a54 fe3d da08 903d
000002d0: c1a2 79be 063f aebd b3cf 8d3d 3d6f fcbe
000002e0: e8e5 a0bd cec9 253b bc8f 87bd 9da4 2b3e
000002f0: fef1 083e fd34 c0bd 5fd6 943d a6f4 f03d
00000300: 3129 57bc 78d7 4d3e 5365 94bd b85d 74bd
00000310: 17b5 2cbe ed99 cd3e 600c a23e 22f5 2fbe
00000320: 76cb 16be 9451 9c3e 13ca 0d3d 8676 47be
00000330: 9988 57bd 0c1e 4f3c 7bd2 893c 2711 65bd
00000340: 773d 463e 7b6b 293e 3b7e 1cbf fafb f33d
00000350: 12b5 94be 5d23 633e 3494 163e 85b0 6ebe
00000360: e005 5e3e c494 ee3c cd63 403c cf00 f1bd
00000370: 6f4d 993e a9ce 0dbe c5dc acbc 4516 99bd
00000380: cf2f e6bb 4c20 153e 08cd 3ebe dde4 34be
00000390: 8a43 00be 7a93 bbbd fecf f539 0e4b c43d
000003a0: b811 2c3e bc73 da3d 5b21 9fbe e4ad b93d
000003b0: a37e 913c 0b4d f83d 3b5d 8cbe 5da1 d63c
000003c0: c410 65be fdb1 82be bc28 353e 4f32 60be
000003d0: 271a 12be efc9 f93a 7eba 33be 7b84 2bbe
000003e0: ff06 2fbd 17c9 da3d fdbb 9d3d aca4 cb3d
000003f0: 3b9a 6abe e16c 4b3e e50b 1fbc d41d e6bd

conv2.conv1.0.bias f4 [16]
0.08276224 -0.005353368 -0.095486045 0.08447051 -0.00889067 0.046579115 -0.065579 0.08637887
0.08141637 0.0025290952 0.09407658 -0.01872346 -0.029266126 0.085510656 0.032894593 0.104153864
00000000: 407f a93d 4e6b afbb 308e c3bd e0fe ac3d
00000010: 2caa 11bc bec9 3e3d 484e 86bd 68e7 b03d
00000020: a0bd a63d 2dbf 253b 39ab c03d f161 99bc
00000030: 84bf efbc 3620 af3d 7bbc 063d 9f4e d53d

conv2.conv1.1.weight f4 [16]
1.0190191 0.98082113 0.9289932 1.1233966 0.9920316 1.0304197 1.0125481 0.97451484
1.044061 1.0258157 1.0048614 0.97149366 1.0364827 0.97840047 0.95114565 1.0140367
00000000: 386f 823f 1817 7b3f 80d2 6d3f 76cb 8f3f
00000010: c8f5 7d3f cbe4 833f 2d9b 813f ce79 793f
00000020: caa3 853f ee4d 833f 4c9f 803f cfb3 783f
00000030: 77ab 843f 7478 7a3f 487e 733f f4cb 813f

conv2.conv1.1.bias f4 [16]
0.001966047 0.01314045 -0.09182468 0.0867481 -0.07111184 0.01711775 0.029463898 0.017289918
-0.010635537 0.041977182 -0.011619585 -0.07821498 0.018590784 -0.0050454503 -0.067704886 -0.058698535
00000000: ccd8 003b 0b4b 573c 940e bcbd fda8 b13d
00000010: 16a3 91bd 863a 8c3c 465e f13c 96a3 8d3c
00000020: ad40 2ebc 44f0 2b3d 1260 3ebc 2d2f a0bd
00000030: b34b 983c 4e54 a5bb dca8 8abd e06d 70bd

conv2.conv1.1.running_mean f4 [16]
-0.924013 -0.46294463 0.6632601 -0.9086747 -1.2300587 -0.25212398 -0.094078936 1.0268881
-2.0345688 -0.22006908 -0.28485873 0.15300503 -1.6295824 0.05193589 -1.4274302 -1.3797121
00000000: 1e8c 6cbf 1407 edbe 6acb 293f e89e 68bf
00000010: 9072 9dbf 6516 81be 75ac c0bd 1271 833f
00000020: 6036 02c0 ca59 61be 01d9 91be 5aad 1c3e
00000030: 2896 d0bf baba 543d 08b6 b6bf 689a b0bf

conv2.conv1.1.running_var f4 [16]
1.0811942 1.0548788 1.349046 1.0516696 1.4922242 1.4735099 2.0420654 2.3516057
1.2675527 1.0262657 1.6296504 1.4889632 1.5071192 0.53427184 1.1462785 1.0371826
00000000: 9264 8a3f 4506 873f 8aad ac3f 1c9d 863f
00000010: 3401 bf3f f99b bc3f 33b1 0240 b580 1640
00000020: 2b3f a23f ad5c 833f 6298 d03f 5996 be3f
00000030: 48e9 c03f 0ac6 083f 41b9 923f 66c2 843f

conv2.conv2.0.weight f4 [16, 16, 3, 3]
-0.082009606 0.01270068 0.10918707 0.10226473 0.2705311 -0.0847142 -0.06444009 -0.12784967
-0.12643966 0.06077019 0.099643596 -0.05574588 0.0025446434 0.16718273 -0.040474042 0.13144833
0.21345466 0.07855175 0.14164352 0.038028147 -0.022786869 0.2067657 -0.21357149 0.014307976
-0.09633564 -0.26524392 -0.018672535 -0.23085313 0.068370335 -0.15871498 -0.14622442 -0.18446334
0.10657717 0.22279343 0.1092972 -0.24421103 -0.029124288 0.04363661 0.005402508 0.17177851
0.09745621 -0.006649475 -0.032273415 0.06768182 0.10403198 -0.039784074 -0.030235427 -0.08888405
0.12010982 -0.075905 0.0077813733 -0.2625084 0.025252301 0.021546513 0.040024407 -0.10488678
0.09716991 0.05001712 -0.09128142 -0.08630903 0.04554508 -0.1635615 -0.1476875 -0.12619112
0.11433176 -0.1126064 -0.175536 -0.1727958 -0.01001145 0.019018436 0.056600854 -0.073201135
0.0014637873 0.050399095 -0.11591359 0.14100778 0.13079767 -0.23569079 0.15942523 0.009294911
0.033441935 -0.1707844 0.13613947 0.103435665 -0.12781711 0.07050937 -0.34238365 0.035972796
-0.16446769 -0.062771745 0.1533051 -0.035195388 0.07738734 -0.023226928 0.15709397 0.07117897
-0.012729029 0.18052113 -0.06715062 -0.064394064 -0.09405262 -0.14967987 0.10590453 0.018259346
-0.13097389 -0.19615285 -0.024017727 0.22839876 -0.029097348 0.19417168 -0.23818736 -0.04127398
-0.0054804944 -0.25842324 -0.123849064 0.07856237 0.026241861 0.0086899735 0.12699677 -0.0008538471
0.2292117 -0.07951238 0.17555273 -0.11304889 -0.026303893 0.14887752 0.16350074 -0.058356144
0.043255173 -0.11497984 0.08282557 0.058724757 -0.032452956 0.2667962 -0.017758643 0.084666155
0.11390491 -0.14376795 0.15894035 0.15529571 -0.0801733 0.058778696 -0.39159495 0.17417468
0.12928125 -0.04399846 -0.02791431 0.011313007 0.4319664 -0.07098578 -0.09529615 0.24021797
-0.1025851 -0.06446996 -0.05466896 -0.066197164 -0.045915853 0.058535017 0.007705581 0.18386975
-0.07917332 -0.25825587 -0.06815484 0.038720664 -0.03456595 -0.16238809 0.0032523733 -0.057385746
-0.14119527 -0.052554116 0.004626585 0.14629368 -0.17254719 -0.23200016 -0.24710266 0.020441132
-0.13356473 -0.011566954 0.085429944 -0.068579696 0.27762473 0.1271949 -0.009400886 0.12224409
0.22057596 0.15406972 -0.05834625 0.14022344 -0.2008802 -0.21102609 0.13819109 0.103656866
0.058511414 -0.123627566 0.16964248 -0.042863067 0.033216912 0.028031083 0.11041325 -0.025497895
0.19555406 -0.08176957 0.071571365 -0.12773365 -0.063403144 -0.20442496 -0.21297184 -0.17709757
-0.29137468 -0.099738695 0.068725154 0.022719355 0.10723603 -0.023378408 0.18314719 0.12476542
-0.0032878874 -0.17008848 -0.18958241 -0.10626076 0.17661174 -0.017589495 0.26764143 0.041394375
-0.026464477 0.11773192 -0.07787115 -0.11798192 -0.061631113 -0.035435967 -0.06466729 0.06911519
-0.041983493 -0.014812157 0.025415424 0.12373604 -0.17712723 0.07103537 -0.21748614 0.06437157
0.05232462 0.06697664 0.041261386 0.0632555 0.17704892 0.21964505 0.021638332 0.12219975
-0.3331305 -0.03411361 -0.1248688 -0.08438472 0.14451343 0.26216283 -0.08270048 0.1888697
00000000: a7f4 a7bd 8316 503c 789d df3d 2c70 d13d
00000010: 0d83 8a3e a37e adbd 2af9 83bd 06eb 02be
00000020: 6679 01be 2aea 783d f111 cc3d cb55 64bd
00000030: 08c4 263b f331 2b3e 1cc8 25bd 649a 063e
00000040: dc93 5a3e bddf a03d 000b 113e 67c3 1b3d
00000050: 87ab babc 63ba 533e 7cb2 5abe 006c 6a3c
00000060: 9f4b c5bd 0dce 87be 25f7 98bc c364 6cbe
00000070: bf05 8c3d 2e86 22be dbbb 15be f5e3 3cbe
00000080: 2245 da3d f623 643e 36d7 df3d 7512 7abe
00000090: 0f96 eebc 4dbc 323d 8607 b13b b5e6 2f3e
000000a0: 1f97 c73d d7e3 d9bb 2131 04bd c49c 8a3d
000000b0: b80e d53d a0f4 22bd 49b0 f7bc d708 b6bd
000000c0: 23fc f53d 1574 9bbd e4fa fe3b 8067 86be
000000d0: eadd ce3c 5082 b03c a2f0 233d e1ce d6bd
000000e0: 0501 c73d c0de 4c3d c1f1 babd cac2 b0bd
000000f0: 7a8d 3a3d aa7c 27be 643b 17be 3f38 01be
00000100: c526 ea3d 2f9e e6bd b6bf 33be 62f1 30be
00000110: 1107 24bc 8dcc 9b3c 4cd6 673d 7aea 95bd
00000120: 8ddc bf3a 486f 4e3d 1b64 edbd 5864 103e
00000130: d3ef 053e ed58 71be 5e40 233e af49 183c
00000140: 69fa 083d 1be2 2ebe 2568 0b3e 14d6 d33d
00000150: 7de2 02be 3767 903d e94c afbe 3658 133d
00000160: 386a 28be 798e 80bd 03fc 1c3e 0a29 10bd
00000170: 417d 9e3d 6646 bebc 3edd 203e 48c6 913d
00000180: 6b8d 50bc 88da 383e 4486 89bd 09e1 83bd
00000190: a99e c0bd ae45 19be 79e4 d83d a094 953c
000001a0: 051e 06be 4bdc 48be d3c0 c4bc 5de1 693e
000001b0: 905d eebc f1d4 463e 63e7 73be e80e 29bd
000001c0: b895 b3bb 0d50 84be 94a4 fdbd 4fe5 a03d
000001d0: 2cf9 d63c 6460 0e3c 710b 023e b5d4 5fba
000001e0: 79b6 6a3e 63d7 a2bd 18c4 333e 2d86 e7bd
000001f0: 437b d7bc 5973 183e bd6c 273e da06 6fbd
00000200: 562c 313d 8d7a ebbd 74a0 a93d 5f89 703d
00000210: 64ed 04bd 8399 883e 937a 91bc 7365 ad3d
00000220: fa46 e93d e837 13be 42c1 223e d705 1f3e
00000230: e631 a4bd eec1 703d 227f c8be d95a 323e
00000240: 4e62 043e bb37 34bd 8dac e4bc 315a 393c
00000250: b32a dd3e fe60 91bd a12a c3bd b3fb 753e
00000260: 2318 d2bd d408 84bd 8fec 5fbd 6192 87bd
00000270: 4312 3cbd 6ac2 6f3d 197f fc3b 5a48 3c3e
00000280: 9f25 a2bd 1d3a 84be c494 8bbd 8f99 1e3d
00000290: 0795 0dbd 1049 26be c525 553b 510d 6bbd
000002a0: 7e95 10be fc42 57bd 9c9a 973b 03ce 153e
000002b0: 36b0 30be 7391 6dbe 7b08 7dbe 2974 a73c
000002c0: 31c5 08be 5283 3dbc e5f5 ae3d 8373 8cbd
000002d0: d424 8e3e 613f 023e 2c06 1abc 1c5b fa3d
000002e0: aade 613e 74c4 1d3e 7afc 6ebd bc96 0f3e
000002f0: 8ab3 4dbe 3917 58be f781 0d3e 0d4a d43d
00000300: aaa9 6f3d 7330 fdbd c2b6 2d3e 2f91 2fbd
00000310: 750e 083d 71a1 e53c 5820 e23d f6e0 d0bc
00000320: 533f 483e ce76 a7bd 0294 923d 9ccc 02be
00000330: 82d9 81bd c754 51be 4a15 5abe 1159 35be
00000340: 102f 95be cd43 ccbd c6bf 8c3d f11d ba3c
00000350: 909e db3d 1384 bfbc f08a 3b3e 0385 ff3d
00000360: 9979 57bb ad2b 2ebe e421 42be 3e9f d9bd
00000370: b5d9 343e d817 90bc 4c08 893e 268d 293d
00000380: 08cc d8bc 6f1d f13d e97a 9fbd 81a0 f1bd
00000390: e870 7cbd 4e25 11bd 4970 84bd 448c 8d3d
000003a0: e2f6 2bbd b0ae 72bc 0234 d03c 5269 fd3d
000003b0: d760 35be fe7a 913d b0b4 5ebe 3ed5 833d
000003c0: 5752 563d 0c2b 893d b301 293d 198c 813d
000003d0: 504c 353e a2ea 603e df42 b13c dd43 fa3d
000003e0: 1590 aabe b6ba 0bbd 37bb ffbd e5d1 acbd
000003f0: 54fb 133e 353a 863e df5e a9bd 0f67 413e

conv2.conv2.0.bias f4 [16]
-0.0061476426 0.020253124 0.07971108 -0.0057810955 -0.052029092 0.001262336 -0.060622763 0.023635875
0.08016899 0.06640279 0.061808653 0.058272835 -0.054659374 0.06519791 -0.063509986 -0.025150307
00000000: 2a72 c9bb e1e9 a53c 903f a33d 586f bdbb
00000010: 751c 55bd f874 a53a 934f 78bd 06a0 c13c
00000020: a42f a43d 30fe 873d 122b 7d3d 7faf 6e3d
00000030: 82e2 5fbd 7b86 853d 8611 82bd 0408 cebc

conv2.conv2.1.weight f4 [16]
0.97221655 1.0091975 1.0858305 0.9943598 1.0135581 0.98315406 1.0605795 0.99727905
0.9317977 0.9811636 1.008667 0.94194657 1.0827768 1.0118713 1.023774 0.9582227
00000000: 2fe3 783f 622d 813f 7efc 8a3f 5d8e 7e3f
00000010: 46bc 813f fcaf 7b3f 12c1 873f ae4d 7f3f
00000020: 4b8a 6e3f 8a2d 7b3f 001c 813f 6923 713f
00000030: 6e98 8a3f 0085 813f 070b 833f 154e 753f

conv2.conv2.1.bias f4 [16]
0.0064740716 -0.011295481 0.055612054 -0.012027399 -0.011013656 0.00047282563 0.130793 -0.05498849
-0.04233458 0.011012674 0.017552555 -0.0063146614 0.07224436 0.08083079 0.020690281 -0.028301647
00000000: 7324 d43b ae10 39bc 77c9 633d 910e 45bc
00000010: 9f72 34bc 95e5 f739 9aee 053e 9c3b 61bd
00000020: 0667 2dbd 816e 343c 60ca 8f3c 38eb cebb
00000030: daf4 933d 9d8a a53d aa7e a93c dbd8 e7bc

conv2.conv2.1.running_mean f4 [16]
-0.32484075 0.0955336 0.28781846 -1.3572489 0.89802074 0.96791166 -0.6074151 -0.19103104
0.2895289 -0.21754692 1.6457317 0.47155514 -0.19603643 -0.4857283 -0.31597632 -0.9350619
00000000: 8751 a6be 1fa7 c33d f15c 933e 55ba adbf
00000010: b0e4 653f 0fc9 773f 8e7f 1bbf a49d 43be
00000020: 223d 943e 9fc4 5ebe 56a7 d23f ad6f f13e
00000030: c6bd 48be 61b1 f8be a6c7 a1be 3760 6fbf

conv2.conv2.1.running_var f4 [16]
1.1648272 1.0195302 2.0897675 1.8189243 1.5696266 2.1799836 1.5797939 1.4177188
1.6004305 1.2423974 1.3177974 1.847959 1.2827004 1.282864 1.2331803 1.0535983
00000000: 0f19 953f f77f 823f c0be 0540 83d2 e83f
00000010: 86e9 c83f da84 0b40 b036 ca3f cf77 b53f
00000020: e8da cc3f e106 9f3f 96ad a83f ec89 ec3f
00000030: 872f a43f e334 a43f dad8 9d3f 4fdc 863f

conv2.conv3.0.weight f4 [16, 16, 3, 3]
0.050965596 -0.023051083 0.014914873 0.026146622 0.07934428 -0.20944348 -0.13411841 0.015606813
-0.044853643 0.014491873 -0.010745981 0.033380855 -0.1260354 -0.0946126 0.06580451 -0.08468962
-0.11024711 0.0362921 -0.020506646 -0.060927935 0.08491673 0.015392398 0.024716971 -0.05000906
0.084254354 0.0441643 0.17473637 0.039820496 0.051469147 0.00083816587 0.03926233 -0.04874401
0.021389877 0.15904783 0.06856504 -0.006344355 0.15457205 -0.0059663975 -0.24273086 0.170506
-0.108762436 0.01223915 0.011779457 -0.02838899 0.061331216 -0.12725341 -0.12417745 0.06719313
-0.21212235 0.024097616 -0.17992812 0.048530933 0.026732944 0.15775762 -0.16729656 -0.04740471
-0.20360506 -0.2496254 0.036467437 -0.22171105 -0.1985028 -0.020381898 -0.36316672 0.12550773
0.09556065 -0.033926535 0.15396053 -0.117781706 -0.14456517 -0.11021744 0.01600125 0.049230516
0.10407959 -0.096493386 0.03141463 -0.016372139 -0.09156174 0.014122293 -0.18860778 -0.35389364
-0.0012606232 -0.107256606 -0.14449301 -0.0032633077 -0.12898938 -0.041447695 -0.024134878 -0.04980947
-0.077102244 0.015153882 0.09738719 -0.02317258 -0.10404015 -0.06373935 0.17159885 0.20156318
-0.2653702 -0.17836048 0.020455694 -0.06637604 -0.040709067 0.2012795 -0.12751183 -0.14375763
-0.12436453 -0.1680772 0.11345918 -0.08844149 0.07165376 0.045104973 -0.10010251 -0.058855206
0.07238136 0.100177705 0.121863805 0.053507984 0.2096091 0.05844657 0.21143384 0.066873625
0.01485302 0.11858456 -0.0048349346 0.10668534 -0.14623013 -0.103676714 -0.09822222 0.21262886
0.129278 0.028386269 0.03444119 -0.21794221 0.03099527 -0.070507884 0.033158064 0.18088111
0.03392356 -0.038249563 -0.08250199 0.000623546 -0.07487942 -0.09191032 -0.009180053 -0.06977949
-0.16504736 0.0752372 0.03212693 0.014098471 0.054423828 0.03455106 -0.042536028 -0.15492678
0.01311205 0.053732317 -0.044570677 -0.019863842 -0.032681737 -0.057608888 0.09372496 0.18641199
0.08563441 0.0916976 0.02272314 -0.26768157 0.038385008 0.16117088 -0.07031221 -0.16884811
-9.237579e-05 0.050452903 0.20158009 -0.07286103 0.015490268 0.022875031 0.093848534 0.06132672
-0.013256189 -0.0051537543 -0.024518002 0.06294851 -0.1391086 -0.09219062 0.08495956 0.18673158
-0.14468485 0.053719245 -0.15800568 0.04856886 0.10078747 -0.012676263 -0.044942908 -0.092977166
-0.011856202 0.010193411 -0.028871479 0.009125343 0.112849064 0.15505968 0.07663322 -0.24862707
-0.14228816 -0.1011339 -0.086518414 -0.22213794 0.02592982 -0.13310492 -0.041069873 0.04202171
0.120417684 0.24153484 0.21123865 -0.06738002 0.0062721437 0.101797245 -0.30512062 -0.10264355
0.12798367 0.117348336 0.30457866 0.012032126 0.18132973 0.09155211 -0.08874143 0.09128918
0.010801659 -0.039993387 -0.002860538 0.1978059 0.0059457943 -0.036064688 0.04479357 0.117584035
-0.024522552 -0.16257684 0.02127878 -0.3227598 -0.10900207 0.015681602 -0.004663909 -0.16970824
0.19273847 -0.25030187 0.0052059363 -0.0029161025 -0.20412457 0.069906384 0.10470831 0.009469911
-0.059089247 -0.18407089 0.08654977 0.08602295 -0.011524215 -0.05128201 -0.12527652 -0.16217636
00000000: 4dc1 503d a0d5 bcbc 835d 743c 7131 d63c
00000010: 417f a23d 5a78 56be 5656 09be b8b3 7f3c
00000020: 74b8 37bd 526f 6d3c e90f 30bc 5dba 083d
00000030: 6d0f 01be 40c4 c1bd 84c4 863d c071 adbd
00000040: 3dc9 e1bd 06a7 143d 8efd a7bc 928f 79bd
00000050: d3e8 ad3d 6630 7c3c 3f7b ca3c 4dd6 4cbd
00000060: 8c8d ac3d a0e5 343d 17ee 323e d11a 233d
00000070: 50d1 523d 5cb8 5b3a 89d1 203d cda7 47bd
00000080: d339 af3c 6fdd 223e d46b 8c3d 4fe4 cfbb
00000090: 2348 1e3e c581 c3bb 708e 78be 2099 2e3e
000000a0: d7be debd b786 483c a0fe 403c 0790 e8bc
000000b0: 7136 7b3d b84e 02be bf50 febd 8d9c 893d
000000c0: 9a36 59be 5d68 c53c 143f 38be 5fc8 463d
000000d0: 0cff da3c 378b 213e ca4f 2bbe 712b 42bd
000000e0: d87d 50be cd9d 7fbe e15e 153d 3908 63be
000000f0: 5144 4bbe f0f7 a6bc fdf0 b9be 1985 003e
00000100: 4db5 c33d 8df6 0abd d4a7 1d3e 8937 f1bd
00000110: e408 14be aeb9 e1bd 0e15 833c f0a5 493d
00000120: ae27 d53d 539e c5bd a1ac 003d dd1e 86bc
00000130: b984 bbbd 3161 673c 6622 41be 8c31 b5be
00000140: 7f3b a5ba 5aa9 dbbd faf5 13be 38dd 55bb
00000150: cb15 04be 0fc5 29bd 82b6 c5bc 0405 4cbd
00000160: c8e7 9dbd fd47 783c ef72 c73d 6cd4 bdbc
00000170: 0113 d5bd c789 82bd 9cb7 2f3e 9466 4e3e
00000180: 9ade 87be 21a4 36be b392 a73c 29f0 87bd
00000190: 8dbe 26bd 371c 4e3e 7692 02be 3335 13be
000001a0: d5b2 febd 6e1c 2cbe 495d e83d d020 b5bd
000001b0: 35bf 923d febf 383d 8b02 cdbd 2812 71bd
000001c0: ae3c 943d f829 cd3d bb93 f93d 302b 5b3d
000001d0: c5a3 563e ac65 6f3d 1d82 583e 0af5 883d
000001e0: 155a 733c 76dc f23d 5f6e 9ebb d87d da3d
000001f0: 5abd 15be 7554 d4bd bb28 c9bd 61bb 593e
00000200: 7461 043e 528a e83c 3512 0d3d 3e2c 5fbe
00000210: cbe9 fd3c 7066 90bd c0d0 073d e638 393e
00000220: 6ef3 0a3d 93ab 1cbd cef6 a8bd 7775 233a
00000230: 625a 99bd 7a3b bcbd ef67 16bc 8de8 8ebd
00000240: 2d02 29be f615 9a3d 8797 033d 46fd 663c
00000250: 85eb 5e3d 6a85 0d3d 423a 2ebd 20a5 1ebe
00000260: ecd3 563c 6b16 5c3d be8f 36bd 7fb9 a2bc
00000270: 49dd 05bd 4cf7 6bbd dff2 bf3d c9e2 3e3e
00000280: 1861 af3d f4cb bb3d e125 ba3c 8f0d 89be
00000290: 9939 1d3d fb09 253e d9ff 8fbd 85e6 2cbe
000002a0: e0b9 c1b8 b4a7 4e3d 036b 4e3e 2a38 95bd
000002b0: e5ca 7d3c 6b64 bb3c a933 c03d ba31 7b3d
000002c0: 7d30 59bc d3e0 a8bb fad9 c8bc 26eb 803d
000002d0: 7c72 0ebe 70ce bcbd 47ff ad3d 9036 3f3e
000002e0: 4428 14be b608 5c3d 3ecc 21be 24f0 463d
000002f0: a969 ce3d 1ab0 4fbc 0e16 38bd d06a bebd
00000300: 8440 42bc 4402 273c e183 ecbc 7682 153c
00000310: 691d e73d f7c7 1e3e e1f1 9c3d 1898 7ebe
00000320: fdb3 11be 4a1f cfbd 9130 b1bd 2178 63be
00000330: c66a d43c a84c 08be e238 28bd f51e 2c3d
00000340: 8c9d f63d e954 773e f24e 583e 89fe 89bd
00000350: 8e86 cd3b 137b d03d c538 9cbe c836 d2bd
00000360: 270e 033e 5354 f03d bcf1 9b3e 6522 453c
00000370: 80ae 393e ac7f bb3d 11be b5bd d2f5 ba3d
00000380: 71f9 303c 1bd0 23bd dd77 3bbb a18d 4a3e
00000390: f0d4 c23b 91b8 13bd 7679 373d e6cf f03d
000003a0: 85e3 c8bc 8b7a 26be d650 ae3c c640 a5be
000003b0: 7a3c dfbd b476 803c b4d3 98bb ffc7 2dbe
000003c0: 3c5d 453e 9127 80be 8f96 aa3b 151c 3fbb
000003d0: 0806 51be 142b 8f3d 4f71 d63d b027 1b3c
000003e0: 9107 72bd 147d 3cbe 0141 b13d cd2c b03d
000003f0: 10d0 3cbc 160d 52bd 7d48 00be 8f11 26be

conv2.conv3.0.bias f4 [16]
-0.016668018 0.04369074 -0.05051158 -0.039718732 0.078653574 0.00810822 -0.08045564 0.008245073
-0.058075957 0.042155616 0.010611173 0.07555052 0.013337637 0.060241196 0.07745638 0.07721901
00000000: 5e8b 88bc 10f5 323d 3be5 4ebd 1cb0 22bd
00000010: 2015 a13d 57d8 043c edc5 a4bd 5816 073c
00000020: 0ee1 6dbd 5eab 2c3d 7cda 2d3c 3bba 9a3d
00000030: 1b86 5a3c 79bf 763d 73a1 9e3d 0025 9e3d

conv2.conv3.1.weight f4 [16]
1.0376182 1.0629323 1.0008259 0.9295898 0.98759323 1.04055 1.0390916 0.8759517
1.0351311 1.0493274 0.98650366 1.0369102 0.93510056 0.89270616 1.044125 1.0574713
00000000: acd0 843f 2a0e 883f 101b 803f 99f9 6d3f
00000010: e9d2 7c3f be30 853f f400 853f 5f3e 603f
00000020: 2d7f 843f 5c50 863f 818b 7c3f 79b9 843f
00000030: c062 6f3f 6488 643f e3a5 853f 385b 873f

conv2.conv3.1.bias f4 [16]
-0.0044545913 0.073127 -0.044245247 0.0055934796 -0.06952393 0.03033356 0.027407354 -0.013343418
0.01013807 0.025194895 -0.037292447 0.0036419178 -0.009914468 -0.012296635 -0.017398797 0.02430572
00000000: d2f7 91bb 9cc3 953d 813a 35bd 8249 b73b
00000010: 9062 8ebd 167e f83c 6385 e03c 5a9e 5abc
00000020: 261a 263c 8665 ce3c f7bf 18bd 3ead 6e3b
00000030: 4b70 22bc d377 49bc ec87 8ebc ca1c c73c

conv2.conv3.1.running_mean f4 [16]
-1.0051466 0.5317425 1.3943833 -0.0034106902 -1.0576388 0.099257685 -0.13433453 -0.25271526
-1.0196325 -1.4399356 1.3628135 0.5127816 0.21370499 0.08054093 -0.10601234 1.6584933
00000000: a5a8 80bf 4720 083f 277b b23f e385 5fbb
00000010: b560 87bf 9d47 cb3d fe8e 09be e563 81be
00000020: 5183 82bf cf4f b8bf ac70 ae3f a845 033f
00000030: 7bd5 5a3e a5f2 a43d ff1c d9bd 8249 d43f

conv2.conv3.1.running_var f4 [16]
1.3379209 1.5045528 2.287934 1.0244981 1.6626897 1.6839137 1.0645809 2.1722348
1.5130365 1.0788784 0.6776104 1.5581156 1.2091622 1.7919339 2.121791 2.9241958
00000000: fe40 ab3f 3095 c03f 836d 1240 c122 833f
00000010: 04d3 d43f 7c8a d73f 3044 883f e505 0b40
00000020: 2eab c13f b018 8a3f e077 2d3f 5570 c73f
00000030: d4c5 9a3f 175e e53f 6ccb 0740 0626 3b40

conv3.conv1.0.weight f4 [32, 16, 3, 3]
-0.011827647 -0.050687842 0.020495351 0.07130116 0.049214352 -0.15342712 -0.11114531 -0.22085981
-0.024572862 0.06660475 0.18499908 -0.15489426 0.046167064 0.014394107 0.124823205 -0.0006453946
0.08585472 -0.100891165 0.010648607 -0.0064235767 0.07628422 -0.03178565 0.05080353 -0.2070967
-0.013419725 -0.025678711 0.09089641 -0.06806245 -0.13430633 -0.061463192 -0.06911319 -0.22645454
-0.053672496 0.013539027 -0.07877778 -0.1355499 0.1145732 -0.09742722 0.06616913 -0.023153435
0.18906857 -0.14844887 0.06355396 0.020310277 0.025505276 0.18905498 0.18462765 -0.23091121
0.08754111 0.08877092 0.10401343 0.121450044 0.0035064323 0.19523528 -0.08139421 0.1418212
-0.16972451 -0.008187287 -0.072297715 -0.0052962857 0.008458561 0.37529472 -0.100300096 -0.07044981
0.031817727 0.012298081 -0.19353975 0.0153541025 0.02721439 -0.09737264 0.19143265 0.013177556
-0.22188595 -0.0530014 0.0961006 -0.12504072 0.017258747 -0.23200402 0.033968195 -0.026013216
-0.040342126 -0.08614305 -0.07877002 -0.040186767 -0.12965018 0.08522643 -0.0781899 0.10287482
0.08838373 0.14401822 0.073920466 0.23744869 0.29658833 0.0936016 -0.011626673 -0.009020944
-0.13131034 0.06389238 -0.01585408 -0.30527124 0.098663926 -0.11443771 0.09900026 -0.09705352
-0.017396286 -0.038988907 0.07038204 0.030473705 0.0315036 0.059833337 -0.0309865 0.11878776
0.035018526 0.19060433 -0.05827949 0.4073986 0.022179026 -0.118443996 0.12365451 -0.099974826
0.088736676 -0.03966402 0.06702039 -0.021815969 -0.0045067673 0.114205815 0.15802088 -0.094878614
-0.04481157 0.025731321 -0.023203405 -0.0489876 -0.03766807 -0.17133778 -0.12281573 0.0028218976
0.16246498 -0.07425958 -0.21665677 -0.108800784 0.3210036 0.039330825 0.029981904 0.117928974
-0.050851952 0.009094604 -0.05152849 -0.0036655117 0.033179067 0.098874174 0.07887498 -0.20462371
-0.061457142 -0.051711302 0.011116543 0.093204655 -0.18834664 -0.042314854 0.07464798 -0.20800643
0.13686337 0.13970087 0.2443225 0.16224317 -0.046712287 0.006667323 0.15524258 -0.22187227
0.1166335 0.026536146 -0.3055032 0.15119363 -0.14083591 -0.013146526 0.06643629 0.012690541
-0.08109355 0.06049182 -0.008447753 0.17588925 0.070646696 0.053238224 -0.18306631 0.14622289
-0.1003886 0.0070399484 0.18804741 0.19395497 -0.05886504 0.21339221 -0.24939547 -0.051702805
-0.11378307 0.07693281 0.09553909 0.08435258 -0.19892946 0.08143494 -0.100389734 -0.025168514
-0.19474599 -0.024394374 0.011635195 0.075352825 -0.19631907 -0.10810924 0.060497858 -0.15394379
-0.37616974 0.06810728 -0.080265604 0.27333164 0.13893372 0.0014310733 0.053738683 -0.067293294
-0.0094792675 0.095978044 -0.12821873 -0.052187797 -0.0474859 0.003078757 0.14689024 -0.08128144
-0.0004596457 0.1079438 -0.23863596 0.06774587 -0.26308626 -0.15163313 -0.078724794 0.032852177
0.15102994 0.028449642 -0.11111213 -0.13370547 -0.094893955 0.056850947 -0.10519113 -0.005403342
0.13148068 0.16244906 -0.02078526 0.037119903 0.017862106 -0.15719041 -0.16462044 0.032854497
-0.20009066 -0.019610377 -0.023540018 -0.03225766 -0.08130766 -0.07110856 -0.14671628 0.014067326
00000000: bfc8 41bc 0e9e 4fbd dee5 a73c 5806 923d
00000010: fd94 493d 001c 1dbe 27a0 e3bd 1329 62be
00000020: 074d c9bc 1268 883d 6670 3d3e 9a9c 1ebe
00000030: ad19 3d3d 43d5 6b3c 4fa3 ff3d b32f 29ba
00000040: 99d4 af3d 07a0 cebd 7f77 2e3c de7c d2bb
00000050: e73a 9c3d ab31 02bd 5d17 503d 2811 54be
00000060: 68de 5bbc 295c d2bc e627 ba3d 5364 8bbd
00000070: 9987 09be d4c0 7bbd 378b 8dbd b3e3 67be
00000080: b1d7 5bbd ccd2 5d3c 3f56 a1bd 98cd 0abe
00000090: 5ba5 ea3d ec87 c7bd ae83 873d 46ac bdbc
000000a0: 319b 413e fb02 18be 9428 823d bd61 a63c
000000b0: 71f0 d03c a197 413e 080f 3d3e fd73 6cbe
000000c0: c148 b33d 87cd b53d fe04 d53d cdba f83d
000000d0: 2ccc 653b c2eb 473e 02b2 a6bd 9439 113e
000000e0: 43cc 2dbe f823 06bc d310 94bd 778c adbb
000000f0: c795 0a3c a126 c03e 236a cdbd fd47 90bd
00000100: 4e53 023d e47d 493c 492f 46be c68f 7b3c
00000110: b6f0 de3c 4f6b c7bd ec06 443e ade6 573c
00000120: 1236 63be ff17 59bd 64d0 c43d ad0a 00be
00000130: 3762 8d3c 7692 6dbe 3c22 0b3d ab19 d5bc
00000140: c93d 25bd c46b b0bd 2d52 a1bd e19a 24bd
00000150: 04c3 04be 328b ae3d 0722 a0bd 09b0 d23d
00000160: 8702 b53d 8379 133e 9d63 973d c025 733e
00000170: 6dda 973e 32b2 bf3d cd7d 3ebc 95cc 13bc
00000180: 3876 06be 02da 823d 6ae0 81bc 834c 9cbe
00000190: 5010 ca3d 515e eabd a6c0 ca3d ffc3 c6bd
000001a0: a882 8ebc d5b2 1fbd 7624 903d fea3 f93c
000001b0: eb09 013d cd13 753d 67d7 fdbc ff46 f33d
000001c0: 966f 0f3d c82d 433e 79b6 6ebd 8d96 d03e
000001d0: cab0 b53c c492 f2bd 933e fd3d 9abf ccbd
000001e0: 93bb b53d bd76 22bd fc41 893d 67b7 b2bc
000001f0: 81ad 93bb bde4 e93d 3ad0 213e b84f c2bd
00000200: 568c 37bd 7eca d23c 1115 bebc 39a7 48bd
00000210: d649 1abd 2c73 2fbe d086 fbbd 96ef 383b
00000220: 385d 263e 6815 98bd 46db 5dbe f2d2 debd
00000230: 955a a43e 5c19 213d 9c9c f53c bf84 f13d
00000240: 234a 50bd 8901 153c 8a0f 53bd 1539 70bb
00000250: c6e6 073d 8b7e ca3d 3589 a13d e188 51be
00000260: 7cba 7bbd 3bcf 53bd 2922 363c 15e2 be3d
00000270: f1dd 40be 5752 2dbd 0ae1 983d a3ff 54be
00000280: e925 0c3e bf0d 0f3e ad2f 7a3e 1323 263e
00000290: 6255 3fbd 8f79 da3b e9f7 1e3e 7c32 63be
000002a0: 8bdd ee3d 5562 d93c ea6a 9cbe 81d2 1a3e
000002b0: 4a37 10be 8764 57bc c00f 883d fdeb 4f3c
000002c0: 6014 a6bd 45c6 773d 7268 0abc 501c 343e
000002d0: 37af 903d 5310 5a3d bc75 3bbe 74bb 153e
000002e0: 8a98 cdbd 5eaf e63b 808f 403e 229c 463e
000002f0: 781c 71bd 7d83 5a3e 8761 7fbe 52c6 53bd
00000300: 1907 e9bd f38e 9d3d 00aa c33d 0cc1 ac3d
00000310: 2ab4 4bbe 5dc7 a63d 2299 cdbd 332e cebc
00000320: 7e6b 47be b6d6 c7bc 8ca1 3e3c 9552 9a3d
00000330: de07 49be 6168 ddbd 9acc 773d 71a3 1dbe
00000340: 5299 c0be d47b 8b3d 4b62 a4bd 20f2 8b3e
00000350: a444 0e3e da92 bb3a 181d 5c3d 11d1 89bd
00000360: ee4e 1bbc 2390 c43d c54b 03be dfc2 55bd
00000370: 9380 42bd f9c4 493b 656a 163e e276 a6bd
00000380: 9afc f0b9 a411 dd3d fc5c 74be 59be 8a3d
00000390: 3eb3 86be b745 1bbe 773a a1bd 0190 063d
000003a0: 98a7 1a3e 390f e93c c28e e3bd 16ea 08be
000003b0: c357 c2bd 8adc 683d 726e d7bd 850e b1bb
000003c0: dfa2 063e 0c59 263e d945 aabc 0a0b 183d
000003d0: 8d53 923c 86f6 20be 4392 28be 7092 063d
000003e0: 91e4 4cbe f1a5 a0bc ffd6 c0bc 9c20 04bd
000003f0: a184 a6bd 5da1 91bd cb3c 16be a47a 663c

conv3.conv1.0.bias f4 [32]
-0.054903593 -0.053600237 0.018586226 -0.07874159 -0.05639161 -0.03430984 -0.039585475 0.034965657
0.062579095 0.067157686 0.03563003 -0.07344629 0.07597657 0.0028004132 -0.015532426 0.062166598
0.026483161 -0.044388615 0.009428055 0.0457568 0.031537693 0.08161376 -0.0054976586 0.030586787
-0.04926629 -0.08330021 0.043870363 -0.008832799 -0.07093358 0.015524604 0.08114312 0.029206337
00000000: 97e2 60bd ec8b 5bbd 2442 983c 4543 a1bd
00000010: e4fa 66bd 7a88 0cbd 6124 22bd 2638 0f3d
00000020: 7829 803d f889 893d cbf0 113d 026b 96bd
00000030: 9b99 9b3d 2387 373b b77b 7ebc 67a2 7e3d
00000040: 37f3 d83c d6d0 35bd 2178 1a3c 7b6b 3b3d
00000050: ab2d 013d 1d25 a73d b425 b4bb 2491 fa3c
00000060: 73cb 49bd 4d99 aabd 69b1 333d 72b7 10bc
00000070: a045 91bd e95a 7e3c 5d2e a63d 2142 ef3c

conv3.conv1.1.weight f4 [32]
0.9569835 1.0277829 0.9785135 0.98046136 1.0427257 0.94627947 1.0303395 0.96539915
1.0424963 0.94679785 0.9818337 0.9954034 1.0136945 0.9581423 1.0212829 1.0396777
0.97551346 0.98022497 1.0116379 1.0386654 1.0110376 1.046115 0.9377668 1.0908558
1.002388 0.9737051 0.9623219 1.0103667 1.0176845 0.95581 1.0600381 1.1091654
00000000: dffc 743f 648e 833f dc7f 7a3f 84ff 7a3f
00000010: 0978 853f 5f3f 723f 2ae2 833f 6624 773f
00000020: 8570 853f 5861 723f 7459 7b3f c2d2 7e3f
00000030: bec0 813f d048 753f 66b9 823f 2914 853f
00000040: 40bb 793f 06f0 7a3f 5a7d 813f fdf2 843f
00000050: ae69 813f 19e7 853f 7c11 703f 2aa1 8b3f
00000060: 404e 803f bd44 793f ba5a 763f b253 813f
00000070: 7c43 823f f7af 743f 54af 873f 22f9 8d3f

conv3.conv1.1.bias f4 [32]
-0.044761907 0.0027281898 0.022078166 0.010121718 0.042276792 -0.03828738 -0.012674912 -0.015184311
0.05366983 -0.008130709 -0.017940061 -0.0052998993 0.03990253 -0.062380407 -0.001602927 0.05254509
-0.022550445 -0.033203132 0.028978864 -0.024603339 -0.034658276 0.019150767 -0.037990816 0.0008734623
0.019735293 -0.041340724 -0.06725965 0.0037811112 -0.011501569 -0.041258432 -0.024163088 0.042424016
00000000: 4358 37bd 6ecb 323b 45dd b43c 90d5 253c
00000010: 6e2a 2d3d 3ad3 1cbd 6faa 4fbc 9ec7 78bc
00000020: e5d4 5b3d aa36 05bc 09f7 92bc c7aa adbb
00000030: d670 233d 9982 7fbd 4e19 d2ba 8539 573d
00000040: b6bb b8bc 0200 08bd 1565 ed3c f18c c9bc
00000050: d6f5 0dbd 12e2 9c3c 429c 1bbd 10f9 643a
00000060: e9ab a13c e454 29bd 6dbf 89bd 85cc 773b
00000070: 1471 3cbc 9afe 28bd abf1 c5bc cec4 2d3d
