checkpoints/ifind1_sononet_8_andi/014_net_emb_020_from_50.pth (torch_old, 671523 bytes, 90 tensors)

conv1.conv1.0.weight f4 [8, 1, 3, 3]
00000000: d84f c33e 238c e03d 1235 483d 09b6 ae3c
00000010: f973 f23e 3a05 24bf a64c aa3e d658 313f
00000020: 0940 9ebf 7fbe 8f3e bb52 69bf 74ca fcbe
00000030: 5920 3e3e 3a2e 063f 01b0 f9bd 9c5e bf3e
00000040: 4ab4 c23e 2890 0b3f 07f1 7cbf ef62 c4be
00000050: 4755 d43e 3a73 a33d ecf1 633d c9f2 8fbe
00000060: 5da6 27bf b12f c43d b85b 78bf c953 17bf
00000070: e44f c63e 79ba 06be 8a3b 86be 7955 51bf
00000080: 568d dfbe da12 503e 1c81 24be 607e f33e
00000090: 4c4e 6fbf 5af5 21be b3fb 7fbe 1e85 a63e
000000a0: f7f0 c0be 0cf3 1ebf 145a 8d3f afe3 de3e
000000b0: 3252 e3be bf59 b6be e8e2 82bf c82e 86bf
000000c0: 694a 8ebd 264b cfbe ae53 96bf f76e dfbe
000000d0: cbe6 933e aa00 cbbe 76dd d73e 49bd 21bf
000000e0: 5885 4fbe daae 05be b072 893f a573 ca3d
000000f0: 391b 4c3f 6be7 b53e e1b4 133f 84dc 30bd
00000100: 168c 8abe 29a5 e7bd 2693 eabe b3b6 2abf
00000110: 1f07 9dbf d022 2bbe fffa 06bf 3945 b23e
0.38146853 0.10964229 0.048878737 0.021327036 0.47354105 -0.64070475 0.33261603 0.6927618
-1.2363292 0.28075024 -0.9114186 -0.4937321 0.18567027 0.52414286 -0.12191773 0.3737687
0.38028175 0.5451684 -0.9880528 -0.3835673 0.4147131 0.07980962 0.055650637 -0.28114918
-0.65488225 0.09579409 -0.9701495 -0.5911222 0.38732827 -0.13157071 -0.262173 -0.81771046
-0.43662518 0.20319691 -0.16064876 0.47557354 -0.93478847 -0.1581625 -0.2499836 0.32523435
-0.37683842 -0.6208961 1.1043115 0.43533084 -0.44398648 -0.35615346 -1.0225496 -1.0483027
-0.06947786 -0.4048702 -1.1744287 -0.43639347 0.2888702 -0.39648944 0.4216115 -0.6317945
-0.2026571 -0.13054982 1.0738125 0.09885339 0.7972904 0.3552812 0.57697874 -0.04317905
-0.27060002 -0.11310799 -0.4581539 -0.66685027 -1.2267798 -0.16712499 -0.5272674 0.34818438

conv1.conv1.0.bias f4 [8]
00000000: 6b68 40be 2c63 85be 1fb3 573e f4ef 9e3e
00000010: 3984 463e 2dc1 5f3e 2576 dbbd dce8 e9bd
-0.18789832 -0.26052225 0.21064423 0.31042445 0.19386376 0.21851034 -0.10715894 -0.114213675

conv1.conv1.1.weight f4 [8]
00000000: 6b39 803f 6d8f 7d3f a17b 573f b437 9d3f
00000010: 6a49 ad3f 130a 853f 0ff8 5d3f 6354 933f
1.0017523 0.99046975 0.8417302 1.2282624 1.3538029 1.03937 0.8670663 1.1510128

conv1.conv1.1.bias f4 [8]
00000000: e23f 0fbe 84a7 5d3e 9c11 55bd 2fbc 113e
00000010: 4355 973e 0f77 ef3d 7b31 ed3d f80a f33d
-0.13989213 0.21645933 -0.052018747 0.14231943 0.29557237 0.116926305 0.11581703 0.118673265

conv1.conv1.1.running_mean f4 [8]
00000000: f2d3 44be 5f9f 83be 47c8 513e d39b 9e3e
00000010: d7e8 453e 9449 583e 28c2 d0bd ffe7 f1bd
-0.19221476 -0.25707528 0.20486556 0.3097826 0.19327103 0.21121818 -0.10193282 -0.11811828

conv1.conv1.1.running_var f4 [8]
00000000: 4122 433e e99a 5b3f 807b ce40 afd1 e73f
00000010: 0ce4 953f 5076 a241 11dd af40 5c26 1741
0.19056036 0.8578325 6.4525757 1.8110865 1.1710219 20.30777 5.4957356 9.446865

conv1.conv2.0.weight f4 [8, 8, 3, 3]
00000000: 1242 cd3e ffa4 08bc 1d7b 86be 6831 3a3e
00000010: 67fe 0b3f a1fc 98bb 2cf9 8e3e 892f 9f3d
00000020: b1e8 863e 7ce6 cd3d 75aa f4bd e287 4c3e
00000030: 01e7 59bc 73f6 60bd 6027 523d 4b6d 60be
00000040: d5d2 903e 776c 343d 4c6c fcbd 0248 d2be
00000050: 1233 593c 211b 533e e11e 94bb 849a 173c
00000060: 35c4 353e 0dcf 613e 9cb4 603d 2a59 8fbe
00000070: df14 afbe 4538 e8be 9db3 713e 7ed7 52be
00000080: f357 35be c7f0 8e3e 8fe8 c93d f656 77bd
00000090: 7403 27be a9cd 8abe c63d f3be 3669 a8be
000000a0: a5c5 8cbd 659c cbbe 111a 023d 5bc3 cf3d
000000b0: 7308 a9be 5bc5 86be 8f9f c5be 4140 c9bd
000000c0: 58ae 9cbe d17b b3bd 4958 b1be 17e5 603e
000000d0: 0fa4 203e 7017 19be 05b3 253e 7f80 bebd
000000e0: 20fe 54be d242 63bd e0f4 c93c d82c 3a3b
000000f0: fa31 9ebc aa1b 6a3e 866f ac3e b0c8 43be
00000100: 85ea 8bbe 3962 84be c762 8cbe cb09 3dbe
00000110: 72ea f33d 9b08 e53e 8609 973d 0a48 1bbe
00000120: d0ab e7bd 3440 91bd 2e69 88be b4c2 6fbe
00000130: 1183 253e dcd1 48be 758f 0b3e ed79 d03d
00000140: 4043 3e3e 11d9 00bd 2b4e 06be 057d b3bd
00000150: fb14 abbe 290c 40be 2ce4 52bd e2b3 3d3c
00000160: 2146 f13d 903d abbc 7dba 443e 4916 66bd
00000170: c478 37be a653 9cbd 0bdb 683e 988f c5bd
00000180: 5c36 54be 5827 45be e51d 19be cd10 b33e
00000190: a5e4 b23e 562d d63c 50dd b83d 920d 1c3e
000001a0: 57b1 c13d 039a 78be d9a6 d8bd 9fe7 3dbc
000001b0: 0d9e 133e 0428 d73d d355 bb3d a514 e4bc
000001c0: a90d 873e d783 573e 436e 10be 3dd4 4ebd
000001d0: 8e3d 30bd 8f7c 653e f8a6 a03d 7ba6 bf3d
000001e0: 1902 0ebe ef1d 003e 6ffb 8e3c 9f13 393e
000001f0: 72ac d73d 82e4 07be f626 acbd 9667 bf3d
00000200: 9338 80bd 4f40 923c d718 16bb 40e2 66bc
00000210: 6519 90be 8126 103d 3ddb 64be 602f 013e
00000220: 8c30 4e3e f9d7 aa3e b623 dcbb 8b9b 9c3d
00000230: 5a6b 0fbe 8829 4ebe 4d80 913c 48ba a2be
00000240: 9d6e 9a3d 6ce1 aa3d 5bd2 c83e c939 613e
00000250: 3f36 9d3e 9ab0 343e d2f1 c83d f8ec 8b3e
00000260: 4208 31bd 08c8 cf3e 23ec 46be a4ba c23c
00000270: fe18 ee3e 8cb9 a73e e14b 6a3e c1f7 e43e
00000280: 43e3 d83e 7fe0 9c3e 9997 623e 6599 d2bd
00000290: c3d5 05be 0c6e 533d 21e7 87bd 5110 35be
000002a0: 2644 8ebd 1eda 123e fd00 3c3e 8446 0d3e
000002b0: 0c18 f6bd 002a ecbd 1793 c73d 8de6 f23d
000002c0: 95ac 30be 8d9a 343e a7c3 96be 8b52 353e
000002d0: ad16 893c 6ab0 b1be 084e 903d 017d ab3d
000002e0: 29fc 593c 3d28 0c3e 5eac a2bd 9003 fdbc
000002f0: f5de 7e3e 4aef babc 37b7 18be ed4b a93d
00000300: bd56 4bbe 708b 6bbe cea2 75be 64d6 aa3d
00000310: babf 873e 7826 c7be b26b b63e 9a9b 843e
00000320: a48a d0bc c56d 003f 7692 4e3e e65d 043f
00000330: 288d eb3e 7c77 fc3e 5da3 353e 0f29 393b
00000340: 1f26 a6bd 07bf 94bd 136a e6bd 669f e1bc
00000350: 7a56 6fbc 2110 f9bd 1c85 30bd feee 923d
00000360: 5745 2b3e b5e8 083f 7e24 bb3e cb82 cc3e
00000370: 5963 0d3e 5d15 10be 50da 703d c993 0d3e
00000380: 68db 8cbe 6ea1 843b 4ae6 3abe 5e8c 94be
00000390: ef25 7dbe b836 6c3e 9672 8abe 623a 3cbe
000003a0: 2393 fabd d0d1 a4be 6f2e 90be bb34 2cbe
000003b0: 348b 3abe 3b0f bf3e ef63 46bd 9e4a 0b3e
000003c0: 0177 9a3e 1075 aebd 670f afbe df6a 01be
000003d0: 5462 54bd a24c d2be b0df dcbd e75a 5fbe
000003e0: 3032 e3bd 1686 35bd 22a9 51be fc59 8fbd
000003f0: 81c2 00be 259f c2be 3ecf 14bf e7f5 13be
0.4008947 -0.008340119 -0.26265803 0.1818291 0.5468506 -0.0046687876 0.27924478 0.077727385
0.26349404 0.10053727 -0.119465746 0.1997371 -0.0132997045 -0.054922532 0.051307082 -0.21916692
0.28285852 0.044048753 -0.123253435 -0.41070563 0.013256805 0.20615818 -0.0045202826 0.009253148
0.17750628 0.2205164 0.054859743 -0.27997714 -0.3419561 -0.4535543 0.23603673 -0.20590016
-0.17709331 0.27918074 0.0985881 -0.060385667 -0.16309911 -0.2711003 -0.47508067 -0.3289277
-0.06873635 -0.39767757 0.03176314 0.10144683 -0.3301426 -0.26322445 -0.38598296 -0.098267086
-0.30601764 -0.087638505 -0.3463767 0.21962391 0.15687583 -0.14950347 0.16181572 -0.093018524
-0.20800066 -0.055483647 0.024652898 0.0028408077 -0.01931094 0.22862116 0.33678836 -0.19119525
-0.27327362 -0.25856188 -0.2741911 -0.18460767 0.11909951 0.44733128 0.07374863 -0.151642
-0.113120675 -0.07092324 -0.26642746 -0.23414117 0.16163279 -0.19611305 0.13628943 0.101795055
0.18580341 -0.03145701 -0.13115756 -0.0876408 -0.33414444 -0.18754639 -0.051487133 0.011578532
0.11780954 -0.020903379 0.19211765 -0.056173597 -0.17917162 -0.07633142 0.22739808 -0.09646529
-0.20723861 -0.1925329 -0.1495281 0.34973755 0.34940067 0.026144665 0.09026587 0.15239552
0.09457653 -0.24277501 -0.10578699 -0.011590867 0.1441576 0.10505679 0.09147229 -0.027841875
0.2637761 0.21046387 -0.14104562 -0.050495375 -0.043027453 0.22410797 0.07844347 0.093579255
-0.13867988 0.12511419 0.017453877 0.18073891 0.10530938 -0.13270763 -0.08405869 0.09345929
-0.06260791 0.01785293 -0.002290299 -0.014092028 -0.28144374 0.03519297 -0.22349258 0.12615728
0.20135707 0.333679 -0.0067181243 0.07646855 -0.14005795 -0.2013303 0.017761374 -0.31782746
0.07540629 0.08343777 0.39222988 0.219947 0.3070545 0.17645493 0.098117486 0.2732923
-0.043220766 0.405823 -0.19426017 0.023770638 0.46503443 0.3275875 0.22880508 0.4472027
0.42360887 0.30640027 0.22128142 -0.10283164 -0.13069825 0.05161862 -0.06635881 -0.17682005
-0.06946592 0.14341018 0.18359752 0.13796431 -0.12016305 -0.11531448 0.09744852 0.1186038
-0.17253335 0.17637081 -0.29446146 0.17707269 0.016734445 -0.34704906 0.07046133 0.08373452
0.013304749 0.13687225 -0.07943033 -0.030885488 0.24889739 -0.02281918 -0.14913641 0.08266435
-0.19857307 -0.2300241 -0.23987886 0.08341673 0.26513463 -0.38896537 0.3562904 0.25899965
-0.025456734 0.50167495 0.20173058 0.5170578 0.4600613 0.4930991 0.177381 0.0028253233
-0.0811274 -0.07262998 -0.11250701 -0.027541827 -0.01460802 -0.121612795 -0.043095693 0.071744904
0.1672567 0.5348008 0.3655128 0.39943537 0.1380743 -0.1407065 0.05880195 0.13825907
-0.27511144 0.004047564 -0.18251911 -0.29013342 -0.24721502 0.23067749 -0.27040547 -0.18381646
-0.12235095 -0.32191324 -0.28160426 -0.1681699 -0.18217164 0.37316307 -0.048435148 0.13602683
0.30168918 -0.08518422 -0.3419144 -0.12638424 -0.051851586 -0.4107409 -0.107848525 -0.2181202
-0.11093557 -0.044317327 -0.20474675 -0.06999585 -0.12574197 -0.38012043 -0.58128726 -0.14449273

conv1.conv2.0.bias f4 [8]
00000000: 275b 2cbd 9a02 233d 0f23 563d 6882 5f3d
00000010: 98d1 c4bd ec10 e2bd 7c9a d6bd e8b4 c4bc
-0.042079117 0.039797403 0.05227953 0.054567724 -0.09610289 -0.11038384 -0.10478684 -0.024012044

conv1.conv2.1.weight f4 [8]
00000000: 9698 303f c50e ab3f 4aad 3b3f e82d 9d3f
00000010: b459 8d3f 9b90 993f bb3b 913f 7ab9 883f
0.6898283 1.3363882 0.73311293 1.2279634 1.1043 1.1997255 1.1346353 1.0681603

conv1.conv2.1.bias f4 [8]
00000000: b86f 09bf c3f1 1a3e 0008 b0be 1e09 9b3e
00000010: 0019 933d c88d fe3d 268b 45bd 0855 82bb
-0.53686094 0.15131287 -0.34381104 0.30280393 0.07182503 0.124293864 -0.048228405 -0.0039774217

conv1.conv2.1.running_mean f4 [8]
00000000: f7b4 0dc0 0f1c bc3e 3e06 1840 d439 96c0
00000010: 004d 94bf c442 23be 8977 99c0 56fc f53e
-2.2141702 0.36740157 2.375381 -4.694559 -1.1585999 -0.15943438 -4.7958417 0.4804408

conv1.conv2.1.running_var f4 [8]
00000000: 2d5d 3141 5c9c 2940 add6 8f41 d711 3c41
00000010: c43d 2a41 a85f ea40 b394 1141 2af8 ba3f
11.085248 2.6501684 17.979822 11.754355 10.6400795 7.324177 9.0988035 1.4606984

conv1.conv3.0.weight f4 [8, 8, 3, 3]
00000000: 5a5a 8d3e e9ee 05be 548b a5be 3e5c ccbc
00000010: e880 993d 52be e3bd fdbc e93e 7049 b93d
00000020: 0a4c 9dbe 266d 513d 8b42 8a3d 0ab3 9bbd
00000030: effb e73e 5a4d b9be c908 e3bd f742 17be
00000040: 0c44 d8bd 4e05 753e 5d4d 91be 94b5 53be
00000050: 8dd0 c33b 8af7 7ebd 7c83 283e 2b9b 01be
00000060: ad61 3e3d f68f f8bc 0a09 5dbe 63d4 8dbe
00000070: 2709 fc3d dd1d b6bd 8002 aa3c 07f1 a6bd
00000080: 9407 fdbd f313 63bd 24a5 36bc afb2 8c3e
00000090: da4f 273d d7d9 fb3d d2e4 923e 5556 d63e
000000a0: f810 b83e bb69 fe3e db26 3a3e 69d1 6dbe
000000b0: 3f52 593e 0744 103f 7b3b 393e 1fc3 b03e
000000c0: a308 e5bc 58a0 e53d b1fd cb3c 973c f03d
000000d0: 65a8 b03e 24c9 f6bd 8fdd 5c3e 840a 65be
000000e0: 87b7 03be 0afa f4bd 3024 7dbd 2c19 6ebe
000000f0: dcdc 55be dfe9 5fbe 384d 2ebe cfb7 733d
00000100: e9ef 24be f8e3 a03d a40c 8c3e f40a 80be
00000110: 8572 253d 0a5b b1bd b356 8fbd 20d7 5ebe
00000120: 1165 d33d 6845 433e 376d 883e a822 c13d
00000130: 2308 973e ecbd 783d 9be2 51bc 3ff4 5ebd
00000140: 1a1d cd3d 1533 4bbe e126 8abe 542b 13be
00000150: 1420 f2be 6763 8eb9 11be 943e 6961 383e
00000160: 57fc 223d 9f55 a33d ea79 2b3d 2bfa 533d
00000170: 361f 4d3e fed8 b93e b414 353e 9e45 a73e
00000180: 4dad 343f 31d6 363f 9b73 0c3f 61f0 fabd
00000190: 1016 8dbd 5c37 133d 28eb 09be 844f 2cbe
000001a0: 79e7 65be 69b2 8a3e 57bb 9abe b8f2 73be
000001b0: 48b7 353d 71be 29bd b972 52be 2a62 813e
000001c0: 2e70 2a3d 9e65 2abe 0f1e f5bd 6290 fe3d
000001d0: 4178 9f3c 5b46 c5be 0934 e7bd 4f0a 57be
000001e0: 0988 613d 4c7a 113c 57d2 cfbd ea69 913d
000001f0: 9ccd e83d 7109 71be 1515 2dbe aaee 77be
00000200: 75c6 7cbe c41d d5be e3d7 c4bd c0dc 4bbe
00000210: b92c d4be 98ce 99bd 4cac d9be 0a6d e53c
00000220: 9c9b 043d dff8 93bd 68e9 8c3e 54aa 483e
00000230: 6e7b 933e b7c9 123d c2d2 113e 92e4 5d3e
00000240: 909f d33c 9851 e4bd a24b 453e 65be 1d3e
00000250: 2d8d 63bd caab a8bd 3eef 543e dbd4 41bd
00000260: dc0e 673d 550f b2bd 5828 07bf fd03 09be
00000270: 7e14 60bd 81fb 99be e95e 16bf c266 40be
00000280: 36e2 91be 674d 00bf 7f07 f53d cddc 94be
00000290: 20fb b0bd 652b ff3d 5a12 31be 77c3 423e
000002a0: 9130 4abd e995 1e3e 32a4 003e 17a3 0f3e
000002b0: 4ba0 043f 23e2 0a3e b73b 853e 048c 863d
000002c0: 56d5 993e 6c35 183e 5a00 4abe d814 8ebe
000002d0: 2ae4 2c3e 04a1 1d3e 5d6c 0c3f 86b3 d13d
000002e0: 2ad0 563e d46e 453e 389a 3f3e 2200 9c3e
000002f0: f83c 963e bbd4 ffba 1f98 933e eb1a a03e
00000300: 8c85 ad3e 7b10 7b3e d1e7 da3e 5fca ec3d
00000310: ae28 d53e 3bf8 053e 2a91 93be f767 99bd
00000320: cbcb 19be 7458 84be 68c4 623e 031e 003f
00000330: 145d bb3a cf28 b23d b9bc b33e 0d1c 273d
00000340: eafc a03c 2c06 a3be 9a52 593d 03f8 f5ba
00000350: 2baf 94be 4ec9 a9bb 369e b2bd d72d 023d
00000360: bfb8 8b3e 6f79 90be 9f92 373d 3120 e7bc
00000370: cc39 a43e 7c3f 46bd 83d9 033e f6e0 bcbb
00000380: 459d 943d b223 8bbd 0ad1 dbbe 862f f8bd
00000390: 04d5 a0bd d543 97bd 0f87 f0be a310 73be
000003a0: 1b8d 29bf 11b5 b8be fe98 07be 520b 12be
000003b0: a719 213d ec74 4c3c fdb3 1bbe 7bde 5ebe
000003c0: 972f 6fbe 302b babd 552e 55be 6370 d6bc
000003d0: 84a4 923e 80ae 343e 6a81 073f 6c29 933e
000003e0: b326 d33e 60ff b3bd eb0c 063e afa1 3f3c
000003f0: 552d 0d3e 2821 23be 3e6b 4b3e 21a9 c4bd
0.27607995 -0.13079418 -0.3233286 -0.024946328 0.0749529 -0.11120285 0.45652 0.0904721
-0.30722076 0.051129483 0.06750973 -0.07602508 0.45309398 -0.36191827 -0.1108566 -0.14771639
-0.10559854 0.23927805 -0.28379336 -0.20674735 0.005975789 -0.06224779 0.16456407 -0.12656848
0.04647987 -0.030342083 -0.2158548 -0.277011 0.12306433 -0.08892415 0.020753145 -0.08151441
-0.12354961 -0.055438947 -0.011147771 0.27480075 0.040847637 0.12297409 0.286902 0.4186274
0.35950446 0.4969004 0.18178885 -0.23224415 0.2122278 0.563538 0.18089096 0.34523866
-0.02795822 0.11212224 0.024901243 0.117303066 0.34503475 -0.12050083 0.21568893 -0.22367293
-0.12862979 -0.11961754 -0.06180209 -0.2325179 -0.20885032 -0.21866558 -0.17021644 0.059501465
-0.16107143 0.078559816 0.27353394 -0.25008357 0.040392417 -0.086599424 -0.069989584 -0.21761751
0.10322011 0.19069445 0.26645824 0.09430438 0.29498395 0.060728 -0.012810375 -0.05443215
0.10015316 -0.19843705 -0.26982787 -0.14371997 -0.472901 -0.0002715841 0.2905126 0.18005909
0.03979143 0.07975315 0.041864313 0.05175225 0.20031437 0.36298364 0.17683679 0.326703
0.70576936 0.7142058 0.548639 -0.1225288 -0.06888974 0.035941467 -0.13468611 -0.16827208
-0.22451581 0.2708924 -0.30221054 -0.23823059 0.044364244 -0.041441385 -0.20551576 0.25270206
0.04161089 -0.16640326 -0.11968624 0.124298826 0.019466521 -0.3853024 -0.11289222 -0.21000026
0.055061374 0.0088792555 -0.10147541 0.0710028 0.11367342 -0.23538758 -0.16902573 -0.24212137
-0.2468508 -0.41624272 -0.096114896 -0.19908428 -0.4144037 -0.07510108 -0.42514265 0.028006095
0.032374963 -0.07225203 0.27521825 0.19596225 0.28805107 0.0358369 0.14240554 0.21669224
0.025832921 -0.11148375 0.19267133 0.15404661 -0.055554558 -0.08235891 0.20794389 -0.047322135
0.056410655 -0.086943306 -0.52795935 -0.13380428 -0.054707043 -0.30074695 -0.5873857 -0.18789199
-0.28492898 -0.50118107 0.119643204 -0.29074708 -0.08641648 0.12459449 -0.17292157 0.19019876
-0.049362723 0.15486874 0.12562636 0.14027058 0.5180709 0.13562827 0.2602212 0.065696746
0.30045575 0.14864129 -0.19726697 -0.27750278 0.16883913 0.15393454 0.5485285 0.102393195
0.20977846 0.19280559 0.18711174 0.3046885 0.2934339 -0.0019518355 0.28826997 0.31270537
0.3389095 0.24518006 0.42754987 0.11562037 0.416326 0.13082974 -0.2882169 -0.07490533
-0.15019147 -0.25848734 0.22145236 0.50045794 0.0014294707 0.0869919 0.3510492 0.040798236
0.019651849 -0.31840646 0.05305729 -0.001876593 -0.29039893 -0.005181468 -0.087215826 0.031781998
0.27289388 -0.28217646 0.044817563 -0.028213592 0.32075346 -0.048400387 0.12875943 -0.005764122
0.07256559 -0.06793918 -0.42932922 -0.121184394 -0.078531295 -0.07385985 -0.46978042 -0.23736815
-0.66230935 -0.36075643 -0.13241956 -0.14262131 0.039331105 0.012479048 -0.15205379 -0.21764557
-0.23357998 -0.090902686 -0.20818456 -0.026176637 0.2864114 0.17644691 0.52931845 0.2874254
0.41240463 -0.08788943 0.13090865 0.011696263 0.13786824 -0.15930617 0.19865128 -0.09602571

conv1.conv3.0.bias f4 [8]
00000000: f217 89bd 4419 fd3c b07f 2bbc 4f0f e2bd
00000010: a1a3 353a c6fd 183d 1b81 ac3d 0494 c33d
-0.0669402 0.030895837 -0.010467455 -0.11038076 0.00069289847 0.037351392 0.084230624 0.09549716

conv1.conv3.1.weight f4 [8]
00000000: dad1 7d3f ce9f 743f 5289 de3e e696 d53f
00000010: 6162 603f 07de 243f 3a59 a63f b945 8e3f
0.99148333 0.9555634 0.43464142 1.6686676 0.87650114 0.64401287 1.299598 1.1115028

conv1.conv3.1.bias f4 [8]
00000000: 785c 0f3e c014 0f3e 3ae3 eabe 5031 463f
00000010: 9a48 5dbd c0ae 93be 89b4 ba3e 8ba8 bd3e
0.14000118 0.13972759 -0.45876485 0.77418995 -0.054024316 -0.2884426 0.36465862 0.3704265

conv1.conv3.1.running_mean f4 [8]
00000000: 9274 4b3f d5aa a5bf 4027 a53f fb38 e0bf
00000010: f887 75c0 70c1 913f 9952 11c0 2d25 883e
0.7947475 -1.2942759 1.2902603 -1.7517389 -3.8364239 1.1387157 -2.2706664 0.26590863

conv1.conv3.1.running_var f4 [8]
00000000: 7f72 8740 f00f ad40 16eb f141 f474 2a41
00000010: 70a2 8f41 4af3 c940 55ea 4f41 c0bc 2241
4.2327266 5.4081955 30.239788 10.653553 17.954315 6.3109484 12.99471 10.171082

conv2.conv1.0.weight f4 [16, 8, 3, 3]
00000000: 9871 95be 79a1 e0bd 7740 f53d c1b6 e1bc
00000010: d238 313e 26f9 b43e c4da 16be 4134 8b3e
00000020: 5814 953d 0021 82be 48e6 533d 6f68 73bd
00000030: 206e dabe 7585 37be 6699 b0be 63d0 91be
00000040: ebfb 733d 32bd 56be 73af 6b3e 0845 763e
00000050: 2301 e23d 2e8c 87bd 442c e9be 9393 16bd
00000060: e4f3 2abe 6f6e 593d 4345 4dbd f2ad 0ebe
00000070: 6cab a5be cc45 93be eb8a 263e 7a43 563c
00000080: 9d45 2abd 8f45 23be d4fa 043d 8a1c fdbd
00000090: baa7 743e 19c8 3d3d a6f2 423d 84d7 7a3d
000000a0: cb25 36be 377f edbd b187 5abe b40b 17bd
000000b0: ff67 d2bd 52bc 1b3d 92b2 fc3d f843 823e
000000c0: 0763 84bd 5b8a 8f3e 9bb7 2f3e 817e afbe
000000d0: 779b b2bd 127d c1bd 2f6e 8cbc 9553 7c3d
000000e0: 1ef1 68bd bcf2 19be f5ec 98bd 8856 bcbe
000000f0: 38bd b7be 6afc d8be bc03 20be bb23 9abd
00000100: 1ec8 85bd f228 f1bd 98ba f1bc 02d9 c0be
00000110: c9a5 04be adcc b53d 25cd 92be 5162 933d
00000120: de7b b33e 92c4 833e 33ad 73bc 8f1b efbd
00000130: f4d8 8fbd 20fb 23be 444f babc 7d32 09be
00000140: 483b 1c3d dc79 1dbe c203 2c3c 8a2b ccbe
00000150: 95dd ecbe 9231 9abe a201 08be 4416 4eba
00000160: cd00 853d 1d8e e5bd 674f 6a3d 686f ef3c
00000170: 5672 90bd 5265 31be 9217 44bd f4f9 613e
00000180: df0b 12bf cb9e 34bd 6507 88bc 07ad 823d
00000190: c751 633e 5470 923e 544d 93bd 8a74 053d
000001a0: 66ad bb3e 3268 003e f44d 873e 8acd 4dbc
000001b0: 5c98 013e 1752 023d f010 a7be f853 79be
000001c0: 4f17 00be 7a90 b43c 2b92 84be 34f1 98bd
000001d0: 1ae9 503d ef09 eabd b02a 65be ffd8 0ebe
000001e0: 2784 90ba 79c9 1bbe bc0d 943e a6de 8a3e
000001f0: 98c0 6b3e 6450 efbd 8794 e73d 777e b5bd
00000200: 8254 2b3e 9133 cdbd 1823 3abd 4d11 dcbe
00000210: e9fe 833e 3d9e 50be 67c8 20be 6ed0 0d3e
00000220: ae40 80bd 2d2e 223e e58f 593e 390e 533d
00000230: ea31 ed3c 0867 863e 7484 653e ab95 573e
00000240: 290a 21bb ec22 093e 7ae2 833e 9d6d 1f3d
00000250: 1b15 93bd d284 d53d e069 a23e a649 1cbe
00000260: 69f9 373e ae75 e7bd a9aa c93d ca6a 2cbe
00000270: c59f 60be c37c 863e 1641 de3c bcc9 47be
00000280: 2baf 45be 03af 3ebb e8df 613d 59ff 22be
00000290: ec72 5dbe 4ab8 4a3e 4351 6d3e dd63 bebe
000002a0: 793a 573e 1963 8e3d 10f4 87be 8380 17be
000002b0: 41dd ca3d 8d2b 7a3d ef82 7b3d 0cde 383d
000002c0: d99e 9a3e 5f20 f73c 42ae 813e 06d9 573e
000002d0: e7c2 52be 2720 8dbd f24e a23d c95b e8be
000002e0: eae9 95bd 48ea 2ebb aada 6bbd e367 233e
000002f0: e7c5 e23d ec27 93bd 82a5 ab3d e9e6 d33d
00000300: f4ad efbc e020 363e 4932 f0bd b117 0bbe
00000310: 0aae 76be 3640 a93e a9b8 b43e 0e16 32be
00000320: 2069 48be e541 a03e 4eb1 8b3c d740 77be
00000330: 6830 8ebd 3281 b0bc 0c74 fbbc 9303 c8bd
00000340: 2d55 563e 7632 783e cd1b 24bf ad22 1b3e
00000350: 53d1 60be 8a00 9c3e 3899 893e b771 fcbd
00000360: 5b2c 7d3e 7c5d c13c 87be 90bc bebd fcbc
00000370: c958 a83e bd62 0abe 4aad 803d be54 69bd
00000380: 2030 b8bc 24c1 803e fa64 71bd 110c 89bd
00000390: c343 50bd 12d7 3f3c 0759 dc3d f3a9 093e
000003a0: 61b6 7b3e 7fa0 503e 81e5 a4be 470f be3d
000003b0: 6ce4 b83b 72f9 033e b74f 65be cf25 1d3d
000003c0: c0bc 34be e811 4cbe 7263 423e 093e bebe
000003d0: 6783 7bbe 10ea b9bc ad75 6bbe b6d2 32be
000003e0: f6d3 503b 6212 6b3e a5ff 6a3e cd84 953e
000003f0: 4080 a1be 95a3 083e e400 84bd 06c3 57be
-0.29188228 -0.109682985 0.11975186 -0.027552964 0.17306831 0.35346335 -0.1473189 0.27188304
0.07279271 -0.25415802 0.051733285 -0.059425768 -0.42662144 -0.17922004 -0.34492034 -0.284793
0.05956642 -0.2097061 0.23016147 0.24049771 0.11035373 -0.06618534 -0.45541584 -0.03676183
-0.166946 0.053083833 -0.05011488 -0.13933542 -0.32357347 -0.28764188 0.1626393 0.013077611
-0.041570295 -0.15944503 0.03246577 -0.12358959 0.23892108 0.046333406 0.04759469 0.061240688
-0.17787854 -0.1159653 -0.21340825 -0.036876395 -0.10273742 0.038021393 0.12338747 0.2544248
-0.064642005 0.28035244 0.17159884 -0.34276202 -0.08721059 -0.094476834 -0.017142383 0.061603148
-0.056870572 -0.15034002 -0.07467071 -0.36784768 -0.3588655 -0.42380077 -0.15626425 -0.07526346
-0.0653231 -0.11775388 -0.02950792 -0.37665564 -0.12953867 0.088769294 -0.28672138 0.07196487
0.3505544 0.2573591 -0.014872837 -0.11675178 -0.070238024 -0.16013765 -0.022742875 -0.13398166
0.038142473 -0.15378517 0.010498943 -0.39876968 -0.46262804 -0.30115944 -0.13281873 -0.0007861594
0.06494293 -0.112087466 0.05720463 0.029227927 -0.07053058 -0.17323807 -0.04787404 0.22068006
-0.57049364 -0.04409675 -0.016605088 0.063806586 0.22199164 0.28601325 -0.071924835 0.032581843
0.3665573 0.12539747 0.2642666 -0.012561211 0.12655777 0.03181657 -0.3263011 -0.24348438
-0.12508892 0.022041548 -0.25892767 -0.07467881 0.051003553 -0.11427676 -0.22379565 -0.13949965
-0.0011025713 -0.15213574 0.28916728 0.27122992 0.23022687 -0.11685255 0.11307626 -0.08862012
0.16731456 -0.10019601 -0.045443624 -0.4298195 0.2578042 -0.20372863 -0.15701447 0.13849041
-0.06262337 0.15837927 0.21246298 0.051527236 0.028954465 0.26250482 0.22413808 0.21053188
-0.0024572706 0.13392228 0.25758725 0.038922895 -0.0718176 0.10425724 0.317214 -0.1526247
0.17966236 -0.113017425 0.09847004 -0.16837612 -0.21935947 0.2626706 0.027130645 -0.1951055
-0.19305103 -0.0029096014 0.055145174 -0.1591772 -0.2162587 0.19796863 0.2317553 -0.37185565
0.210184 0.06952495 -0.26553392 -0.14795117 0.09905482 0.06107669 0.061404165 0.045133635
0.30199316 0.030166803 0.2532826 0.21078882 -0.20582162 -0.06890898 0.07925214 -0.45382527
-0.07320006 -0.0026689935 -0.05758158 0.15957598 0.11072903 -0.07185349 0.083811775 0.10346777
-0.029257752 0.17785978 -0.11728341 -0.13583256 -0.24089828 0.33056802 0.35297135 -0.17391226
-0.19571352 0.31300274 0.017052319 -0.24145828 -0.069428265 -0.02154598 -0.030694984 -0.09766307
0.2093093 0.24238 -0.6410492 0.15149947 -0.21954851 0.3046916 0.2687471 -0.12326377
0.24723952 0.023604147 -0.017668976 -0.030852195 0.32880238 -0.13514228 0.06283052 -0.056965582
-0.022483885 0.25147355 -0.05893419 -0.066917546 -0.050845873 0.011708992 0.10759168 0.13443737
0.24581291 0.20373724 -0.32206348 0.09280258 0.0056424644 0.12888125 -0.2239369 0.038366135
-0.17650127 -0.19928706 0.18983248 -0.37156704 -0.24561845 -0.022694618 -0.22994108 -0.17463192
0.003186462 0.22956231 0.22949083 0.2920288 -0.3154316 0.13343652 -0.064454824 -0.2107049

conv2.conv1.0.bias f4 [16]
00000000: db77 a93d 7766 afbb ba85 c3bd 30f7 ac3d
00000010: 17a4 11bc 5cc0 3e3d 8e48 86bd 8edf b03d
00000020: 69b6 a63d 1cb6 253b 10a1 c03d fc5a 99bc
00000030: a9b4 efbc d818 af3d 8ab6 063d d945 d53d
0.08274814 -0.005352791 -0.09546991 0.08445585 -0.00888922 0.046570167 -0.065568075 0.0863639
0.08140261 0.0025285548 0.0940572 -0.018720143 -0.02926095 0.085496604 0.032888927 0.10413713

conv2.conv1.1.weight f4 [16]
00000000: a1e4 953f 6b15 7a3f 4b94 7a3f 024b 743f
00000010: 0e00 933f 44a4 c23f f7a9 6c3f da2a 353f
00000020: 2154 773f eb10 373f e45d b33f 44ee 2e3f
00000030: e598 a63f e941 9f3f 6a97 683f 3b2c 0e3f
1.1710397 0.9768893 0.9788253 0.9542695 1.1484392 1.520638 0.92446846 0.7076851
0.96612746 0.7151019 1.4013028 0.68332314 1.301541 1.2441989 0.9085604 0.5553624

conv2.conv1.1.bias f4 [16]
00000000: 9ac8 c73e 868e cc3d 2278 483d 893b 7abe
00000010: 3b6c 2b3e aedb 233f 24cb c9ba 1dba 33be
00000020: ec8c 55ba 34ef 1cbf a55a ae3e 2863 7abe
00000030: cd31 103e d9a9 1c3e 61c1 193e fc09 00bf
0.39020234 0.09988122 0.048942693 -0.24436773 0.16740505 0.6400708 -0.0015395624 -0.17551465
-0.0008146304 -0.61302495 0.3405353 -0.24451888 0.14081497 0.15299167 0.15015174 -0.50015235

conv2.conv1.1.running_mean f4 [16]
00000000: 1c3e 78c0 2007 953f b817 8e3f 9754 abbf
00000010: ed38 2740 d4e5 d8be fcc7 05bf 43c9 f6bf
00000020: 68d9 cbbf 5bef 2041 dd97 3840 7e8a a43f
00000030: d3c1 2dc0 1ed9 973f d0ad 8bc0 25c9 d2bf
-3.8787909 1.1642799 1.1100988 -1.338519 2.6128495 -0.42362845 -0.52258277 -1.928017
-1.5925722 10.058436 2.884269 1.2854764 -2.714955 1.1863134 -4.3649673 -1.6467634

conv2.conv1.1.running_var f4 [16]
00000000: 6532 5d40 4fd8 4241 b12f 5940 9c9f 7240
00000010: 79dc 5d40 b364 aa40 c0db 4d40 ce94 a340
00000020: d813 b840 f7dd 1843 e078 0341 63ad dc40
00000030: 4b70 0241 fe0f 6040 b0ff ac41 9d2a 7f40
3.4562008 12.17781 3.3935359 3.7909918 3.4665816 5.3247924 3.2165375 5.1119146
5.7524223 152.86705 8.2170105 6.8961654 8.152415 3.500976 21.624847 3.986976

conv2.conv2.0.weight f4 [16, 16, 3, 3]
00000000: a431 d8bd b02b 0dbd 8d63 aa3d a7d2 4bbc
00000010: 5ae4 0b3e 824a 1cbe 2b62 2ebe ad36 57be
00000020: 9a3b dabd 788d 583d 4530 d03d fb23 85bd
00000030: 8ab1 df3d de81 953e 336a 083d e0c6 5f3e
00000040: 346b 8c3e 69f1 a23d bf4d 2a3e 932e 433d
00000050: b5a3 48bc dcd3 963e 604e 18be 9960 563d
00000060: 8b2a 74bb 23f3 67be 3872 45bc 04a1 4cbe
00000070: bec1 ad3d 1b13 19be 38ed d0bd 4ed4 43be
00000080: f8d1 aa3d fa23 753e bfd5 a73d 5da5 87be
00000090: 3094 58bd 5c01 a2ba 57a3 44bd fb39 eb3c
000000a0: d12a 53bd e4b2 f9bd 9299 813c 9a14 263e
000000b0: 2dea 613e f142 063b 14ed b0bd a39b 1fbe
000000c0: 7686 dd3d 6586 c6bd 56b6 4b3c a7f1 71bd
000000d0: 7042 7f3e 6f05 5c3e 23fc 203c f10d 01be
000000e0: 7486 b23d bb0f feba e9c0 00be 3a86 e4bd
000000f0: a3e1 f8bb 5ef9 54be a885 3ebe e2f5 00be
00000100: 6bf9 e13d ac3e d4bd 4e19 28be 0525 2bbe
00000110: 0bf6 ddba e5b3 1d3d 3a4b 583d 608b 7ebd
00000120: b1b4 4ebd 3bb2 09bd a83f 45be 28ce e43d
00000130: 1190 733d 78f5 8cbe 7c01 4a3e 37cb 9e3c
00000140: eeb7 953d 2db2 57be d2ba b43d b2f7 bf3d
00000150: 3281 cebd 3d2f df3d c552 90be 8ecb 253e
00000160: 4430 3ebd 7dd3 423d c767 c63d 8616 4ebd
00000170: deaa c13d 4f47 043e 7b01 b43e e561 6b3e
00000180: 5d43 583e 6621 b33e b3bd b33c 6dd8 bfbb
00000190: 16b7 38bd 6c26 cdbd fbee 2a3e f591 8d3d
000001a0: fe1c 9abd 3c07 ffbd b2d1 e33c b997 8d3e
000001b0: 2ba8 e1bd fb39 063e 349d 92be fedd 03be
000001c0: 40c4 9fbd 065f a1be 7240 53be c04d f939
000001d0: 9d5d 33bd b4ff 183b 9569 df3d 9be8 8bbd
000001e0: 06e0 a53e 9dd3 5dba 6a6b 743e d092 c33d
000001f0: cd31 3f3e b55a b13e 0971 e73d 3cc4 dbbd
00000200: 4e31 763c 52b8 3abe 6a42 793c 4849 c73b
00000210: 1ce8 fabd f870 423e 856d aebd ba23 a73d
00000220: 754e eb3d 5707 14be 986b 073e cbd1 f53d
00000230: 83f6 e4bd b378 d53c 1131 d7be 6847 233e
00000240: 8002 0d3c 6b2a bdbd 3d68 59bc f838 85bd
00000250: f886 e23e 18c5 67bd 501e 1dbd 955d a03e
00000260: 75b7 f4bd a1c0 1fbe 93e0 19be 6620 20be
00000270: d3fe 25be 44c2 9dbd 0531 fabd d735 dd3c
00000280: 51c5 6cbe 2081 d2be 6d83 ffbc e080 e83c
00000290: 6765 8fbd 818a f6bd 3420 cb3b 19ba 33bd
000002a0: 8e0f 26be 6e98 48bd 620c 803d b783 2b3e
000002b0: 3010 2abe ff90 5fbe ff9f 8cbe 0469 b23c
000002c0: 4c8e debd 8280 7cbd e74d cd3d 1498 d7bb
000002d0: feb6 803e c2bd e23d e4c0 febb ee97 333e
000002e0: c7f4 a03e ab77 5a3e e00b 5abd f9d9 f43d
000002f0: 8499 8ebe 453c 61be bd1b 0c3e d471 c63d
00000300: 955b 013e 7ba7 cfbd 2f3a 003e 3db1 02bd
00000310: 03cf 21bd 05f0 0abe b003 c93d c5dd 5abd
00000320: a71a 113e 8f9e 28bd b03a b23d 5071 05be
00000330: 5969 943c df8c 1bbe 223a 45be 12ca 7dbe
00000340: d867 babe bafa 13be 85a1 863b 347e 9b3b
00000350: 8ed9 023e 3f05 20bd 10d8 563e 1654 133e
00000360: e989 22bd 02c7 21be 7610 01be bf3b 03be
00000370: 8afc 6d3e 4c6a 5e3d d4c9 a43e c9d2 123e
00000380: 302a 8d3d 5e4e ec3d 097f bdbd 1379 0ebe
00000390: cbfd b5bc 68c2 96bc a726 88bd b937 903d
000003a0: 10ad 89bd 6095 3abd 3d63 e33d 1d34 1d3e
000003b0: 0afa 32be 8a8b ca3d c529 88be 327c 9abc
000003c0: b9c6 cbbd 37b6 06be e2f3 1ebe 1248 193e
000003d0: 40e1 8a3e 90c8 983e 3e99 d93d fb82 573e
000003e0: a6a0 7fbe 3469 d33c b56f 85bd ae8f 7cbc
000003f0: 038f 3d3e e5af 973e 5ff7 aebd 8881 a03e
-0.10556343 -0.03446549 0.08319769 -0.01244036 0.13661328 -0.15262797 -0.17029636 -0.21016951
-0.10655899 0.05286929 0.10165457 -0.06501003 0.10922535 0.29200643 0.033304404 0.21853209
0.2742554 0.079562016 0.1663122 0.04765184 -0.012246062 0.2945851 -0.14873648 0.052338216
-0.0037256803 -0.22651343 -0.012051158 -0.19983298 0.08484219 -0.14948694 -0.10201496 -0.19123957
0.083408296 0.23939505 0.08195066 -0.2649335 -0.052875698 -0.0012360024 -0.048007336 0.02871417
-0.051554505 -0.12192324 0.015820298 0.16218796 0.22061987 0.0020486678 -0.08638969 -0.15586714
0.10816662 -0.096936025 0.012433609 -0.05906835 0.24927688 0.21486448 0.009825739 -0.12602974
0.08717051 -0.001938335 -0.1257359 -0.11158414 -0.0075952574 -0.20798251 -0.18605673 -0.12593797
0.11033901 -0.10363516 -0.16415903 -0.1671334 -0.0016934288 0.03850164 0.052806117 -0.062144637
-0.05046529 -0.03361724 -0.19262564 0.11172134 0.059463564 -0.27531028 0.19727129 0.01938401
0.073104724 -0.21064062 0.08824696 0.09373416 -0.10083236 0.10897682 -0.28188148 0.16190931
-0.04643275 0.047564972 0.09687763 -0.05031445 0.094564185 0.12917827 0.3515738 0.22986563
0.21119447 0.34986418 0.021941042 -0.0058546574 -0.04509648 -0.10017094 0.16692726 0.06912605
-0.07525061 -0.12452552 0.027809951 0.27654818 -0.110184036 0.13108055 -0.2863556 -0.12877652
-0.078011036 -0.3151781 -0.20630053 0.0004755091 -0.04379045 0.002334577 0.1090881 -0.06831475
0.3239748 -0.0008462014 0.238691 0.09549487 0.18671341 0.34639516 0.113008566 -0.10730788
0.015026404 -0.18234375 0.015213588 0.006081734 -0.122513026 0.18988407 -0.08516983 0.08161111
0.11489574 -0.14455925 0.13224638 0.120029055 -0.11179831 0.02605853 -0.42029622 0.15945208
0.008606553 -0.09236606 -0.013269481 -0.065050066 0.44243598 -0.056584448 -0.038358986 0.31321397
-0.11949054 -0.15600826 -0.15027075 -0.15637359 -0.16210489 -0.07703069 -0.12216381 0.027003212
-0.23122145 -0.4111414 -0.031190598 0.028381765 -0.07001763 -0.12038136 0.0061989073 -0.04387865
-0.16216871 -0.048973493 0.06252362 0.16749464 -0.16607738 -0.21832655 -0.27465817 0.021778591
-0.10866985 -0.061645992 0.10024624 -0.0065794084 0.25139612 0.1107135 -0.007774459 0.17538425
0.3143675 0.21334712 -0.05323398 0.119556375 -0.27851498 -0.21995647 0.13682456 0.0968968
0.12632592 -0.10139366 0.12522195 -0.03190731 -0.039504062 -0.13568123 0.098151565 -0.053434152
0.14170323 -0.04116684 0.087026 -0.13031507 0.01811664 -0.15190457 -0.19260457 -0.24784115
-0.36407351 -0.14451113 0.00410861 0.004745269 0.12778303 -0.039067503 0.20980859 0.14387545
-0.039682303 -0.15798572 -0.12603936 -0.1281576 0.23240867 0.05430059 0.32185233 0.1433822
0.06892812 0.11538385 -0.09252746 -0.13913374 -0.022215744 -0.018403247 -0.06647997 0.07041878
-0.06722462 -0.04555261 0.111029126 0.15351911 -0.17478195 0.09889896 -0.26594368 -0.018858049
-0.09950013 -0.13155447 -0.15522721 0.14968899 0.27124977 0.29840517 0.10624932 0.21046059
-0.24963626 0.025807 -0.06515447 -0.015415115 0.18511586 0.29626384 -0.08543276 0.31348825

conv2.conv2.0.bias f4 [16]
00000000: 5a81 c9bb 7ae2 a53c 9338 a33d 946b bdbb
00000010: 8d12 55bd fc6d a53a c744 78bd 439b c13c
00000020: 9528 a43d 12f8 873d 4b1f 7d3d 8ea4 6e3d
00000030: fed8 5fbd 8680 853d 960b 82bd 79ff cdbc
-0.006149453 0.020249594 0.07969775 -0.0057806466 -0.052019645 0.0012621279 -0.060612466 0.023633605
0.08015553 0.066391125 0.06179742 0.0582624 -0.0546503 0.065186545 -0.06349866 -0.025146233

conv2.conv2.1.weight f4 [16]
00000000: 46f9 9b3f 7d4b 8b3f 6dc8 583f 25ee 9d3f
00000010: 302c 8a3f ec74 513f e8e0 583f af6c 983f
00000020: f361 923f 9d67 7d3f c4e9 533f e25b 803f
00000030: 3a1e 913f ea97 8f3f 2511 423f ecc7 903f
1.2185447 1.0882412 0.84680825 1.2338301 1.0794735 0.81819034 0.8471818 1.1908168
1.1436142 0.98986226 0.82778573 1.002804 1.133735 1.1218235 0.7580741 1.1311011

conv2.conv2.1.bias f4 [16]
00000000: 8f34 813e c58d 863e 070c e0be ab4b 923d
00000010: 2fa7 6a3e d538 9abd 857d d73d 4737 143e
00000020: c44b e0be 1ef3 63bd d556 a5be d9c8 813d
00000030: b978 1f3e 451f 243d 83ed 24bf 152d 953e
0.25235412 0.26280037 -0.43759176 0.07143339 0.22915338 -0.07530371 0.10521988 0.14474212
-0.43807805 -0.055651776 -0.3229281 0.06337137 0.15573396 0.040068883 -0.64424914 0.29135957

conv2.conv2.1.running_mean f4 [16]
00000000: 0d77 823f 09f7 863d 6b68 2b40 d5d2 4dc0
00000010: 522d 723f 4992 a83c fe8d 71c0 2a03 a1bf
00000020: 8da6 3d41 491b 2440 d678 0e40 2486 233f
00000030: 731a 2dc0 d014 9d40 aca1 3641 9c66 353e
1.0192581 0.06590087 2.6782482 -3.2159932 0.94600403 0.020577567 -3.7742915 -1.257909
11.853162 2.5641654 2.2261252 0.6387656 -2.7047393 4.9087906 11.414471 0.17714924

conv2.conv2.1.running_var f4 [16]
00000000: c631 6f41 e56e 0841 54be 7141 ab8b ad40
00000010: dd2f e440 5d1d 2c41 27de 7f41 8f14 9940
00000020: b2b5 1d43 7ad9 8840 1423 3540 ded7 7e40
00000030: 5fd3 dc40 b7ba ef41 cdd9 4f43 f307 0b41
14.949652 8.527074 15.108967 5.4232993 7.1308427 10.757169 15.991736 4.7837596
157.70975 4.2765474 2.830266 3.9819255 6.900802 29.96617 207.85078 8.689441

conv2.conv3.0.weight f4 [16, 16, 3, 3]
00000000: 295c cbbd 014c 26be aa3a aebd 3a87 9cbd
00000010: 5fab 1ebb c036 8ebe 9933 35be 1ae3 b1bc
00000020: 9f63 b1bd d06b b8bd 272d c4bd 66cd 30bd
00000030: 9b74 82be 46ef 62be 78d7 0ebd f577 4dbe
00000040: d8d4 7cbe 0d05 d3bd 8b6f 69be 5713 8bbe
00000050: 1711 15be 658a 31be 15cf 3abe 8580 94be
00000060: f85f b4bd fe40 1ebe bc26 65bd f068 b03d
00000070: 8623 de3d ef21 b73d d347 c93d e5e2 d23c
00000080: 3947 fd3d c717 743e f61b 363e 45d7 153e
00000090: 06b4 0f3d 137e 00be 7138 bfbe fdbe 713d
000000a0: 8874 5fbe e8dc d0bd 7272 afbd 7c4e 0cbe
000000b0: a3e1 62bd 02ec aabe f48a a2be 29f0 08be
000000c0: 942d d8be 94a3 3dbe 0e86 ccbe 05f6 36be
000000d0: e19b 48be 9eb3 9fbd 0063 4fbe 7ba0 67bd
000000e0: 442f 37be c5b4 92be bdf0 673c d585 73be
000000f0: 982d 56be 9b93 48bd db3c cbbe 4371 b23d
00000100: 8e55 ff3c 26c0 eabd f2b7 0b3e 427d 13be
00000110: 12d1 43be 19f2 32be 6de9 34bd dee4 41bc
00000120: 0a31 013c 8d88 53be 5c21 52bd 664b 77bd
00000130: 61f8 20be a721 28bd 0157 6cbe 59f1 cbbe
00000140: f140 32bd 831f 3a3d 9901 d33b 1e4d f73d
00000150: c568 ac3c ea2a f13d ba79 de3d b081 e23d
00000160: c065 a23d 21a4 2c3e 7fe8 bfbd fef9 6cbe
00000170: 1e08 b1be 75b7 7dbe fcc7 0cbd 6c44 56bd
00000180: 3587 d9be 5a99 b8be 78b9 40be d5b1 4ebe
00000190: 7d75 35be 7cb5 223d 64e2 8dbe bbd6 8fbe
000001a0: c273 86be 4c56 9fbe 225c b5bc 0498 6abe
000001b0: ddeb 2b3d 25a3 893c 0fb8 07be 4c10 a3bd
000001c0: a4d1 123d 176e 803d 0cf5 be3d 7303 8d3c
000001d0: 70fe 413e 324b 163e 27c1 7c3e 5b5f 863d
000001e0: e103 a33d ed67 1e3e 6398 bf3c 9342 3e3e
000001f0: 1a7e abbd e077 86bd ad3b 45bd f62b 7d3e
00000200: 7a60 2d3e 8ced a43d 3a06 a13d a5b6 1abe
00000210: 5d6a 153e 2045 883d 96d9 4c3e 94c6 433d
00000220: 8d0f e4bd 9df5 20be b4a9 41be 0f81 12be
00000230: 6094 5cbe ecd9 18be 2ce0 e6bd dbdb 2abe
00000240: 2c95 413e b9c4 e73e f3d7 c23e eb67 b73e
00000250: 0479 c73e 8431 b73e 342a 8d3e 4358 013e
00000260: cca5 913e 267f 9a3e 1119 4d3e 3f57 613e
00000270: 9b0d 593e b847 4a3e 1ac7 b33e 04a1 d63e
00000280: 4bcd a83e bbe3 aa3e 944f 853e 74ad 98bc
00000290: e481 933e 3287 d63e 570f 4e3e 21c4 e23d
000002a0: afca 993e 3c5d b63e a1e4 033f 6bd2 10be
000002b0: 631a 42bd a534 05bd 2436 1e3d cbad b13b
000002c0: 80da 87bd bb8c 9abd 083f d1bd 35b7 03bc
000002d0: a1c6 c73d aec8 0e3e deb5 a63e 586b ff3e
000002e0: 9165 1b3e 44b2 af3e ba70 253e d947 bd3e
000002f0: 0ff9 d23e 3279 483e 97e2 193e 0dee be3d
00000300: c298 313e 040f 4f3e 3f33 313e 698c 533e
00000310: b561 9e3e 1d77 b93e baae 063e baf4 4bbe
00000320: 81e8 c0bd 2c14 f6bd 8029 88bd bdeb 61be
00000330: 918d 0f3c dd28 2bbe ac2e bdbd c7e3 c63e
00000340: b917 ea3e a277 133f aeef 0d3f 4a0d 7c3e
00000350: bbea 9e3e 390b be3e 5b3c 14bd d8ff 2e3e
00000360: 209c c03e 7eb4 be3e d165 143f 574f 863e
00000370: c3f6 d53e 5fad 983e ca4c 1f3e e8f1 993e
00000380: 35d9 3a3e 9ba4 f8be 0ba3 e1be 0927 63be
00000390: 8763 d5be e991 e7be 8665 babe 2c50 8abe
000003a0: 6b66 d3be ae29 0ebf 3771 613e d921 01be
000003b0: aee8 dd3d 3070 683e 4080 503e 4c73 313d
000003c0: 2a0f e03e a9c1 3cbc 7750 813e 1f6a 8b3e
000003d0: 2e9b 263d 2c92 a63e d224 c73e cbfe 943e
000003e0: 3664 5d3e 6650 ea3d d54d c43e 362b be3e
000003f0: c5ef a7be 971d b7be 268a d8be 9b18 edbe
-0.099296875 -0.1623993 -0.08507283 -0.0764298 -0.0024211032 -0.27776146 -0.17695464 -0.021714736
-0.08661579 -0.090049386 -0.095789246 -0.043164633 -0.25479588 -0.22161588 -0.034873456 -0.20065291
-0.24690568 -0.10303698 -0.22796457 -0.27163193 -0.145573 -0.1733795 -0.18243058 -0.29004303
-0.08807367 -0.1545448 -0.055945143 0.08613765 0.10846619 0.08942019 0.098281525 0.025742957
0.123671 0.23837195 0.17784104 0.146329 0.035083793 -0.12548093 -0.3734775 0.05902003
-0.21821797 -0.101983845 -0.085667506 -0.13701814 -0.055390965 -0.33383185 -0.31746638 -0.13372864
-0.42222273 -0.18519431 -0.39946026 -0.17867287 -0.19590713 -0.07797931 -0.20252609 -0.05654953
-0.17889124 -0.2865354 0.014156518 -0.23781522 -0.2091583 -0.048968893 -0.39694867 0.08713009
0.031168725 -0.11462431 0.13644388 -0.14403251 -0.19122723 -0.17475165 -0.044167925 -0.011834351
0.007885227 -0.20657559 -0.051301345 -0.06037464 -0.15719749 -0.04104772 -0.23080064 -0.3983257
-0.043518964 0.04544021 0.0064393994 0.12075256 0.021046052 0.11775763 0.10863061 0.11059892
0.079295635 0.16859485 -0.09370517 -0.2314224 -0.34576505 -0.24777015 -0.034370407 -0.052311346
-0.42485967 -0.36054498 -0.1882075 -0.20185025 -0.177206 0.03972386 -0.27711785 -0.28093514
-0.2626019 -0.31120527 -0.022138659 -0.22909552 0.041972984 0.016801426 -0.13253807 -0.07962093
0.03584446 0.06270998 0.09324083 0.017213559 0.18944716 0.14677122 0.24683057 0.06561156
0.07959724 0.15469332 0.023388093 0.18580084 -0.08373661 -0.06565833 -0.048152614 0.24723801
0.16931334 0.08053121 0.07862516 -0.15108736 0.14591356 0.066538095 0.20004877 0.0477968
-0.111357786 -0.15718694 -0.18912393 -0.14307044 -0.21540976 -0.1492688 -0.11273226 -0.1668543
0.18904561 0.45267275 0.3805538 0.3582147 0.38959515 0.35779965 0.2757126 0.12631325
0.28446805 0.30175132 0.20029093 0.22005938 0.21196596 0.19753921 0.3511284 0.4191972
0.32969126 0.3337687 0.26037276 -0.018637396 0.28810036 0.4190002 0.20123039 0.11072565
0.30037448 0.35618007 0.51520735 -0.14142768 -0.047388446 -0.03252091 0.03862585 0.005422329
-0.066334724 -0.075463735 -0.102171004 -0.008039285 0.09754682 0.1394374 0.3256063 0.49886584
0.15175463 0.34315693 0.16156283 0.36968878 0.41205642 0.19577482 0.15027843 0.09322748
0.17343429 0.20220572 0.17304705 0.20659031 0.3093392 0.3622369 0.1315259 -0.19917575
-0.094193466 -0.12015566 -0.066485405 -0.22062583 0.008761779 -0.16714807 -0.092374176 0.38845655
0.45721224 0.5760442 0.5544385 0.24614444 0.3103846 0.37117937 -0.036190372 0.17089784
0.37619114 0.3724708 0.5796786 0.26232406 0.41789827 0.29819772 0.15556636 0.30067372
0.1824692 -0.48563084 -0.44069704 -0.2218286 -0.41677496 -0.45228508 -0.3640558 -0.2701429
-0.41289076 -0.5553235 0.22015844 -0.12610568 0.10835396 0.22699046 0.20361423 0.043322846
0.4376157 -0.011520782 0.25256702 0.272294 0.040675335 0.32533395 0.3889528 0.29100642
0.21620259 0.11441116 0.3834063 0.37142342 -0.32800117 -0.35764763 -0.422929 -0.46307835

conv2.conv3.0.bias f4 [16]
00000000: 7e85 88bc 07ed 323d 7edc 4ebd 8da8 22bd
00000010: 840c a13d 33d6 043c 03bf a4bd b30f 073c
00000020: add6 6dbd d2a2 2c3d 79d6 2d3c d0b3 9a3d
00000030: 487d 5a3c 03b6 763d 759a 9e3d d11d 9e3d
-0.016665217 0.04368308 -0.050503246 -0.039711524 0.07863715 0.00810771 -0.08044245 0.008243489
-0.05806606 0.042147465 0.010610216 0.07553828 0.013335533 0.060232174 0.07744304 0.07720531

conv2.conv3.1.weight f4 [16]
00000000: 0421 833f 3f07 a43f e067 663f a7e5 6c3f
00000010: ca15 8e3f ac04 6b3f 3568 883f 790d 733f
00000020: 7251 153f ada9 903f 8af4 873f 8765 c63f
00000030: dcc3 743f e5fb 933f 5c53 773f d626 313f
1.024445 1.2814711 0.9000225 0.9253792 1.11004 0.91804004 1.0656801 0.9494243
0.583274 1.1301781 1.0621502 1.5499734 0.9561136 1.1561247 0.9661157 0.69199884

conv2.conv3.1.bias f4 [16]
00000000: 3560 543e 0eae bbbe c0d6 193d e27d 2dbd
00000010: 3609 afbd 272d 5e3d 4b7d 0ebe d5dc 97bd
00000020: 0b71 aebe b840 843c 39ad 043e b830 373f
00000030: 2dd4 11bb 7131 ec3e 375f b3bd 638f 3fbe
0.20739825 -0.3665623 0.037558317 -0.04235638 -0.08546679 0.05424228 -0.13914983 -0.07415167
-0.3407062 0.016144142 0.12956704 0.71558714 -0.002225171 0.4613147 -0.08758395 -0.18707041

conv2.conv3.1.running_mean f4 [16]
00000000: e23a 93c0 7683 ec40 5c63 dd3e 497b 4640
00000010: 56b9 60bf d453 3ebf 7e6d 6e40 a217 6cbf
00000020: 5887 82c0 0b9c fe3f fd1e 8e3f 7815 46be
00000030: 6e45 acbf 07f8 163f 4a62 53bf a489 0a40
-4.600938 7.3910475 0.43239868 3.1012747 -0.877828 -0.7434666 3.7254329 -0.9222356
-4.0790215 1.989137 1.1103207 -0.19344127 -1.3458688 0.5897221 -0.8257185 2.164651

conv2.conv3.1.running_var f4 [16]
00000000: 4d88 fd40 747e 9142 a9c1 d040 df6f 0a42
00000010: ab8d 9740 58aa 7640 2a80 3c41 1548 8540
00000020: 186d 1841 6bb0 de41 501b 8e40 b300 8a41
00000030: ed0c 7540 7eb5 b740 84c3 a140 71a2 2740
7.9228883 72.74698 6.52364 34.60925 4.7360435 3.854147 11.78129 4.165049
9.526634 27.836142 4.440834 17.250341 3.828914 5.740905 5.0551167 2.6192896

conv3.conv1.0.weight f4 [32, 16, 3, 3]
00000000: a634 b2bc c077 5ebd 529a 1e3d 0565 163d
00000010: bb79 d33c ba83 33be ed18 1bbe cae6 80be
00000020: 0e2f 84bd fc93 2dbc 54f7 273e a1c6 25be
00000030: 1da0 cabd c579 b2bd cee3 b03d 1bec c0bd
00000040: 9a90 d93c de0f cdbd 4fdf 563d 914f 533d
00000050: 7d7a 173e 4466 2fbd 6d72 d03d d3ff ccbd
00000060: cac3 63bd 85bf adbb c24b 443e 5272 64bd
00000070: 7ce9 8fbd fa62 3b3c 6cd4 1abe dcb7 70be
00000080: c1e5 de3b 8054 1ebd 4984 debd af2a debd
00000090: 265b bd3d 5c76 efbd edbe 7c3d 6fb3 913b
000000a0: dc9f 453e cbd1 02be 5158 933d 7310 a53c
000000b0: 55c4 e33c ec40 2c3e 12d3 6c3e 6f5c 41be
000000c0: 3a6c acbc 6c94 9e3d 8f67 213e a868 d6ba
000000d0: 3e16 2bbd 5a2a 7f3e 5f15 debd 3e64 ca3d
000000e0: dbaf 70be 9f5a 303c 099c 9dbd 2b24 c5bc
000000f0: ea55 5b3d ebaa cf3e a677 a0bd 7574 aabd
00000100: ea60 ae3c a226 7c3c 0dcd 8dbe 5e66 d4bb
00000110: 58c2 453d 30c3 5fbe c36c 013e 2697 143c
00000120: 39cd 57be 4c02 36bd 6fd8 d33d ac6c fbbd
00000130: 1b5a 903c e154 69be 0bf2 fe3c bb45 c4bc
00000140: 9ce6 fbbc ffda aabd a7cf 9fbd 9832 12bd
00000150: 4f81 01be 9bc7 8f3d 709b a7bd 264d 333e
00000160: 876e dc3d 1b8d 273e 7dd0 c73d 0638 923e
00000170: 8a12 b13e bf9d 3f3d 5927 08bb 0748 3f3d
00000180: 2e87 42be 8258 723d 3274 353d 2b97 89be
00000190: 6efb 033e a513 d5bd 7bf3 183e f552 adbd
000001a0: f698 0ebc a0b4 e13d 47b4 063e bbb6 553d
000001b0: 6fd2 18bd 5a9a d63b 41da 7abd 3a85 8a3d
000001c0: 0f72 3fbb 7992 453e f514 13be 00ab b53e
000001d0: b5a5 c43c cfab c8bd 5a68 163e 638e bfbd
000001e0: 0066 4b3d 1683 bebd 5f6c 0b3d 3ea0 e4bc
000001f0: a190 69bd 076a 903d cbb2 dd3d 2ace 0ebe
00000200: ca01 b3bd 112e 2f3d 4a9d 88ba 140b 89bc
00000210: f0e2 acbd ea39 63be 3221 2dbe ac98 593d
00000220: 6a21 563e 1190 49bc 5b06 68be 7220 b4bd
00000230: 844d ca3e 8ee9 953c bcab 793d 3cc4 4b3e
00000240: 9aa2 3bbd f124 f13b 726e 80bd ba29 13bc
00000250: 2a1c 0f3d 4987 cc3d 4d93 9a3d 0ecd 44be
00000260: e144 8abd 123b 18be 61a2 adbd c65d 193c
00000270: 05de 99be b7ea 08be 633c 8d3b 532d a8be
00000280: 6fee e23c bcb8 1c3d 13e1 e73d e6a4 213d
00000290: a887 33be a048 f8bd 508c ae3c 2308 bbbe
000002a0: dd12 5ebd 7f7c 18be 7f04 f2be b2d5 573e
000002b0: 9b31 78bd cdda 8c3d 2585 083e 8c00 bd3d
000002c0: e938 1138 e68f b43d 3d51 033d b89b 753e
000002d0: 2c73 adbd e4f0 cbbd 7dfe a6be 7b6b 90bc
000002e0: 63c2 86be d363 21be 3576 623d d7e1 543d
000002f0: 4397 5abe f218 d13c c66a d3be f340 67be
00000300: a4c6 94be 8478 cdbd 624d b9bd ab50 c5bd
00000310: fb03 cabe d87a e5bd 3a23 42bb 9983 a83d
00000320: 7de6 a6bd 06f1 7f3d a334 d13d a934 3f3e
00000330: 269c d9bd 7068 cbbb b5fc 2c3e c5c8 99be
00000340: 02dd fbbe d8ee 15bd cb01 62be f6b3 103e
00000350: 5cac 76bb b191 1bbe 750b d5bd 0e10 64be
00000360: ca82 4dbe 77aa fabd bb35 b4be c9a5 7ebe
00000370: 6b0e 8abe db5c 63be 9bbd f3bc 2011 92be
00000380: 6dfc 4bbe 09d6 de3d 238f 75be 0646 8b3d
00000390: 8509 92be d3ad 34be f136 a4bd d5c4 a73c
000003a0: 64b2 023e 221f 973c 78de 71be a19a 76be
000003b0: a9cd 53be 557d 95bd 5860 6fbe e7be 15be
000003c0: d070 02bd 5a80 91bb f22d 3dbe 7e9f e8bd
000003d0: f96d fcbd aa58 93be 0bb4 a7be 3c17 10be
000003e0: 47b2 bcbe d4f1 43be ec6a 54be d0da 56be
000003f0: b457 80be c69c 55be 72f1 88be 425c 14be
-0.02175362 -0.05431342 0.03872139 0.036717433 0.025814882 -0.17530718 -0.15146227 -0.25176078
-0.064542875 -0.010594364 0.16402942 -0.16189052 -0.098938204 -0.08714632 0.086372 -0.094200335
0.02655821 -0.10012792 0.052459057 0.051589552 0.1479282 -0.042822137 0.10178075 -0.10009732
-0.05560664 -0.005302372 0.19169524 -0.055773087 -0.070269555 0.011437172 -0.15120095 -0.23507637
0.006802291 -0.038654804 -0.10865075 -0.10847985 0.09245901 -0.11692497 0.06170552 0.004446439
0.19299263 -0.12775342 0.071945794 0.020149445 0.02780358 0.1682164 0.23127392 -0.18882917
-0.0210477 0.07743153 0.1576216 -0.0016358094 -0.04176926 0.249185 -0.1084392 0.09882401
-0.23504584 0.010763793 -0.07695777 -0.024065098 0.05354873 0.40560088 -0.07835321 -0.08322994
0.021286447 0.01539007 -0.27695504 -0.0064819297 0.048281044 -0.21851802 0.12639146 0.00906924
-0.2107438 -0.044435784 0.10344016 -0.12276587 0.01762109 -0.22786285 0.031121274 -0.023959031
-0.030749612 -0.083425514 -0.078032784 -0.03569278 -0.12646984 0.070204936 -0.08183944 0.17509899
0.10763269 0.16362421 0.09756563 0.28558367 0.34584457 0.046781298 -0.0020775406 0.04669955
-0.1899688 0.05916644 0.044300266 -0.26873145 0.12888882 -0.104041375 0.1493663 -0.084630884
-0.008703461 0.110207796 0.13154708 0.05217622 -0.03731006 0.006549162 -0.0612433 0.06763692
-0.0029212271 0.19294156 -0.14363463 0.35482025 0.024004797 -0.09798395 0.14688244 -0.0935333
0.04965782 -0.093023464 0.034038898 -0.02790844 -0.057022694 0.07051473 0.10825118 -0.13945833
-0.087405756 0.04276854 -0.0010422852 -0.016728915 -0.084417224 -0.22190061 -0.16907194 0.053124115
0.20911184 -0.0123024145 -0.22658674 -0.08795251 0.39512265 0.018299844 0.060954794 0.19899076
-0.045809366 0.00735914 -0.06271066 -0.008982116 0.03493897 0.09986741 0.07547627 -0.19218847
-0.06751419 -0.14866284 -0.08478237 0.009360736 -0.300522 -0.13370787 0.004310177 -0.3284708
0.027701585 0.038262114 0.113222264 0.0394639 -0.17532218 -0.12123227 0.02130714 -0.36529645
-0.05421721 -0.14891241 -0.47269055 0.21077612 -0.060594182 0.068776704 0.1333204 0.0922862
3.4623696e-05 0.08816509 0.032059897 0.23985183 -0.08469233 -0.099580556 -0.32616034 -0.017629376
-0.2632018 -0.15760736 0.055288512 0.05197319 -0.21346764 0.02552459 -0.412924 -0.2258337
-0.290578 -0.10032752 -0.09047963 -0.09634527 -0.39456162 -0.11205071 -0.0029623047 0.08228225
-0.08149431 0.062485717 0.10215118 0.18672432 -0.10625486 -0.0062075183 0.16893275 -0.30035987
-0.49192053 -0.036604732 -0.22070996 0.1413115 -0.0037639355 -0.15192296 -0.10402576 -0.2227175
-0.20069423 -0.12239545 -0.35197243 -0.2486793 -0.26964125 -0.2220339 -0.029753497 -0.2852869
-0.19920512 0.10880668 -0.23980384 0.06800465 -0.28522888 -0.17644434 -0.08018292 0.020479599
0.12763363 0.018447462 -0.23620021 -0.24082424 -0.20683922 -0.07299296 -0.23376596 -0.14623605
-0.031845868 -0.0044403495 -0.18474558 -0.11358546 -0.12325663 -0.28778583 -0.3275455 -0.14071363
-0.36854765 -0.19135219 -0.20743912 -0.20981908 -0.25066912 -0.20860586 -0.26746708 -0.14488319

conv3.conv1.0.bias f4 [32]
00000000: bcd8 60bd 8b82 5bbd 5c3b 983c a63c a1bd
00000010: 8af0 66bd ec81 0cbd 9e1d 22bd 2b31 0f3d
00000020: cf23 803d 7583 893d f7e9 113d 4464 96bd
00000030: c392 9b3d 0f7f 373b 8870 7ebc 7997 7e3d
00000040: 7de9 d83c f4c8 35bd 6971 1a3c 7b63 3b3d
00000050: 0a28 013d 271e a73d 371d b4bb 0086 fa3c
00000060: 2bc2 49bd b591 aabd 70a9 333d 1cb1 10bc
00000070: a63e 91bd a24f 7e3c 7d27 a63d 7037 ef3c
-0.054894194 -0.053591292 0.018582992 -0.07872896 -0.05638174 -0.03430359 -0.039579026 0.034959
0.0625683 0.067145266 0.035623517 -0.07343343 0.07596352 0.0027999317 -0.015529759 0.062156174
0.026478523 -0.044381097 0.009426453 0.04574917 0.031532325 0.08160048 -0.0054966467 0.030581474
-0.04925744 -0.08328573 0.04386276 -0.008831289 -0.07092027 0.015521916 0.081130005 0.02920124

conv3.conv1.1.weight f4 [32]
00000000: 5058 753f c533 753f 1134 743f 9c79 8e3f
00000010: afd5 a63f 7ee4 7f3f 3b98 773f 9c19 573f
00000020: 7499 9b3f 76ee 7c3f 2a78 8d3f c8c0 a23f
00000030: 4678 8a3f 4eee 6e3f 3842 5b3f e241 9b3f
00000040: 6486 763f 5260 5f3f c348 873f 42b4 8c3f
00000050: 8c5c 893f 9546 6c3f 248c 4f3f 5ac6 613f
00000060: e377 793f 0402 373f 00b2 563f 69af 8a3f
00000070: 330e 7f3f 3198 723f df54 733f ffc7 a33f
0.9583788 0.9578212 0.9539195 1.1130862 1.3033961 0.99958026 0.9671666 0.8402345
1.2156205 0.9880136 1.1052296 1.2715082 1.0817955 0.93332374 0.85647917 1.2129481
0.96298814 0.8725635 1.056908 1.099251 1.0731368 0.922952 0.8107321 0.88193285
0.9744856 0.7148745 0.83865356 1.0834781 0.9963104 0.94763476 0.9505138 1.2795409

conv3.conv1.1.bias f4 [32]
00000000: 80fc 61bd 80d4 ec3d 5621 63bd e46e d6bc
00000010: 404a 173e 0338 1abc 271d d4bc 0ef6 9ebd
00000020: d57c f53c 9fe9 7f3d 2ebe 83bd c028 ac3d
00000030: 83d2 e9bd 9eff 8c3d 5c69 f4bc 2f3c 9a3d
00000040: f658 f1bc b347 76bd 93bd d53e b438 afbd
00000050: 2ca5 b03d e0d2 9a3d 41a0 03be af80 82bd
00000060: 74fe 7f3e 2cba c7bd 9b6d 50be a67f 8ebd
00000070: 8c09 96bd ef71 56be 3a0d 99bd 8bc3 e83d
-0.055172443 0.11563969 -0.055451714 -0.026175924 0.14774418 -0.009412768 -0.025892807 -0.07761775
0.029966751 0.062478658 -0.06432758 0.0840621 -0.11417105 0.068846926 -0.029835396 0.0753101
-0.029461365 -0.06012697 0.41746196 -0.08555737 0.08625254 0.075597525 -0.12854101 -0.06372201
0.2499941 -0.09752306 -0.20354311 -0.06957941 -0.0732604 -0.209419 -0.07473226 0.11365422
