checkpoints/ifind1_sononet_8_6classes/003_net_6classes_base.pth (torch_old, 671819 bytes, 90 tensors)

conv1.conv1.0.weight f4 [8, 1, 3, 3]
0	0xbd84eb34	-0.06490174
1	0x3f6c2f12	0.92259324
2	0x3e676d04	0.2260018
3	0x3e9225ad	0.2854437
4	0xbef1bcea	-0.47214442
5	0x3ea70044	0.3261739
6	0xbdb34cb1	-0.08754862
7	0x3ea69820	0.32537937
8	0xbf4dca65	-0.80386955
9	0x3f064b80	0.52458954
10	0x3f28c8e3	0.6593153
11	0xbea33d44	-0.3188268
12	0x3f188425	0.59576637
13	0x3f4ca478	0.7993846
14	0xbf26cd99	-0.6515747
15	0xbdfb84ef	-0.122812144
16	0x3f616e51	0.88058954
17	0x3ecee2ed	0.40407506
18	0x3f6c2938	0.92250395
19	0xbf2dd1b6	-0.6789812
20	0xbe95ac4f	-0.29233024
21	0x3ebedb51	0.372767
22	0x3e77bb31	0.24192502
23	0xbe0882b8	-0.13331115
24	0xbed80e77	-0.42198536
25	0xbd13a607	-0.036047008
26	0x3f82bd5c	1.0214038
27	0x3f230fd5	0.6369603
28	0x3f18fe3a	0.5976292
29	0x3f899a44	1.0750203
30	0xbf2a010d	-0.66407853
31	0xbf01088f	-0.50403684
32	0xbe1bcb09	-0.1521417
33	0xbf0bbabc	-0.5458181
34	0xbf0ec984	-0.5577624
35	0x3df2c59d	0.11854098
36	0xbc8e8270	-0.017396182
37	0x3d655073	0.055984925
38	0xbf87375a	-1.0563767
39	0xbe77389f	-0.24142693
40	0x3d1b47a3	0.037910115
41	0x3e4759e3	0.19467883
42	0x3f32a622	0.6978475
43	0x3d0030b5	0.03129645
44	0x3e8ba709	0.27275875
45	0xbe50361c	-0.20333141
46	0x3d84a39d	0.06476519
47	0x3e9b4d7a	0.30332547
48	0xbf0caf4c	-0.5495498
49	0xbf401f83	-0.75048083
50	0x3e0fb0d5	0.140323
51	0xbeb8ad01	-0.36069492
52	0x3dfa338e	0.122168645
53	0x3f9b3001	1.2124025
54	0xbf20372c	-0.62584186
55	0x3f01b7e8	0.50671244
56	0x3e565341	0.20930196
57	0x3dab6419	0.083687015
58	0xbe0cce2c	-0.13750523
59	0x3da7103e	0.08157395
60	0x3f4b27b3	0.7935745
61	0xbe8437f3	-0.25823936
62	0x3da5b972	0.080920115
63	0xbe80cd50	-0.2515664
64	0xbeb6d307	-0.35707876
65	0x3f2bcd58	0.67110205
66	0x3cb23769	0.021754937
67	0xbf2e89f5	-0.68179256
68	0xbf15d8e1	-0.58534056
69	0x3b91532a	0.0044349628
70	0xbf0c6162	-0.54836094
71	0x3f680d87	0.9064564

conv1.conv1.0.bias f4 [8]
0	0x3ea43607	0.3207247
1	0xbe8cd345	-0.27504936
2	0xbea940d9	-0.33057287
3	0xbe85884f	-0.26080558
4	0xbe65a5e4	-0.22426564
5	0x3e0a3ca4	0.13499695
6	0x3df46afd	0.11934469
7	0x3e8dcb3d	0.2769412

conv1.conv1.1.weight f4 [8]
0	0x3f8695b2	1.0514433
1	0x3f42d908	0.76112413
2	0x3f6e8fe0	0.93188286
3	0x3f8c12f9	1.094329
4	0x3f85fb4e	1.0467317
5	0x3f924f94	1.1430535
6	0x3f62a322	0.8853017
7	0x3f815038	1.0102606

conv1.conv1.1.bias f4 [8]
0	0xbe1209f8	-0.14261615
1	0xbb9209f6	-0.004456754
2	0x3e8331a7	0.2562382
3	0x3e0958b1	0.1341274
4	0x3d8c03de	0.06836675
5	0x3f1dccde	0.6164073
6	0xbd98a19d	-0.074527
7	0x3d5f8ea5	0.054579396

conv1.conv1.1.running_mean f4 [8]
0	0x3ea3f6c8	0.32024217
1	0xbe8c4bca	-0.27401572
2	0xbea7e5b1	-0.32792428
3	0xbe854a2e	-0.26033157
4	0xbe658991	-0.22415759
5	0x3e0b7aaf	0.13621019
6	0x3df694db	0.12040111
7	0x3e8e7cca	0.27829581

conv1.conv1.1.running_var f4 [8]
0	0x3efe108f	0.49622008
1	0x40ec7990	7.389839
2	0x3f814c04	1.0101323
3	0x3f0ab16d	0.5417698
4	0x3e4118ab	0.18857066
5	0x3e4ec240	0.20191288
6	0x3eb21bac	0.34786737
7	0x3f59478b	0.8487479

conv1.conv2.0.weight f4 [8, 8, 3, 3]
0	0x3d43d1f0	0.047807634
1	0x3eb5b8cd	0.35492554
2	0xbd7e0254	-0.06201394
3	0x3d085cd4	0.033291653
4	0x3e72fc39	0.23729028
5	0xbd8c4549	-0.068491526
6	0x3c439693	0.011937755
7	0x3e87dc87	0.26535437
8	0xbdcf1ee4	-0.10113314
9	0xbe24f607	-0.16109477
10	0x3ea502bf	0.32228658
11	0x3e967f73	0.2939411
12	0xbd4c3e05	-0.049863834
13	0x3e2ec016	0.17065462
14	0x3e0dfd22	0.13866094
15	0xbe22fc0e	-0.15916464
16	0xbe492924	-0.196446
17	0xbe061999	-0.13095702
18	0xbdccaa48	-0.09993416
19	0xbe1a555b	-0.15071623
20	0x3d687017	0.056747522
21	0xbef1b063	-0.47204885
22	0xbe014bc8	-0.12626565
23	0xbd3a66b4	-0.0455081
24	0xbc7f03b6	-0.01556485
25	0x3e936bf8	0.2879331
26	0x3d870170	0.06592071
27	0x3e680d7b	0.22661392
28	0xbde566fa	-0.11201282
29	0x3dcc925a	0.09988852
30	0x3d689a92	0.056788035
31	0xbe02f452	-0.12788513
32	0xbe30d0e2	-0.17267182
33	0xbc53894d	-0.012911153
34	0x3dce4087	0.10070901
35	0xbe7ec63c	-0.24880308
36	0x3e621e57	0.22081886
37	0x3e25bb21	0.16184665
38	0x3e54b611	0.20772578
39	0xbdc2ee5f	-0.09518122
40	0xbd820189	-0.06347949
41	0xbd82db38	-0.06389469
42	0xbe81d77f	-0.25359723
43	0xbdaba08d	-0.08380232
44	0x3c8af85f	0.016964136
45	0x3e839120	0.2569666
46	0x3be7e60c	0.0070769843
47	0xbe3b0caf	-0.18266557
48	0xbeb80803	-0.35943612
49	0xbe7ca09d	-0.24670644
50	0xbe496e95	-0.1967109
51	0x3ee895b3	0.4542671
52	0xbe072f01	-0.13201524
53	0x3d81112c	0.063021034
54	0xbd79f3c8	-0.061023504
55	0x3cdbd2f9	0.026833998
56	0x3dd42896	0.10359304
57	0x3e87f540	0.26554298
58	0x3d4f821a	0.050661184
59	0xbe030769	-0.12795796
60	0x3da5b07f	0.080903046
61	0x3d5b7dc3	0.053586733
62	0xbe4706fb	-0.19436257
63	0xbe856d25	-0.26059833
64	0xbe8afba0	-0.271451
65	0x3e3112db	0.17292349
66	0xbda98781	-0.082777984
67	0xbdb8a3f1	-0.09015644
68	0xbe0329c8	-0.12808907
69	0xbda333f1	-0.079688914
70	0xbe88df96	-0.26733083
71	0xbe11f8f5	-0.14255126
72	0x3eafe928	0.34357572
73	0xbde1f824	-0.11033657
74	0xbd3be640	-0.04587388
75	0x3e1dc82c	0.15408391
76	0x3d0b4e50	0.03401023
77	0x3d60b900	0.05486393
78	0x3ea2c981	0.3179436
79	0x3eb0bb4b	0.34517893
80	0xbd576133	-0.05258293
81	0x3e2e21e2	0.17005113
82	0x3e9922ce	0.29909366
83	0x3e405f8e	0.18786451
84	0xbd155b62	-0.036464103
85	0x3d0e3710	0.03472048
86	0xbddd06a7	-0.107922845
87	0xbb17bc43	-0.0023152984
88	0xbe73f569	-0.23824085
89	0xbe25e29d	-0.16199727
90	0x3d1d8db3	0.038465213
91	0xbddf0125	-0.1088889
92	0x3e729bb4	0.23692209
93	0x3e2bab84	0.16764647
94	0x3e212c70	0.15739608
95	0x3ea30666	0.3184082
96	0x3e5268e3	0.20547824
97	0x3e23fe33	0.16014938
98	0xbd414f2b	-0.04719464
99	0xbe626554	-0.22108966
100	0xbe517b35	-0.20457156
101	0x3c522b53	0.012827712
102	0x3e3cf146	0.18451414
103	0xbdcb9fa6	-0.0994256
104	0x3dc83d88	0.09777361
105	0x3d7a9e0b	0.061185878
106	0xbe703182	-0.23456386
107	0xbd869145	-0.06570677
108	0xbd83295f	-0.06404375
109	0xbd5c8301	-0.053835873
110	0x3e3565f0	0.17714667
111	0x3e4d1faa	0.2003161
112	0xbc51affa	-0.012798304
113	0xbc9f163c	-0.019419782
114	0x3d069065	0.03285255
115	0x3dda778f	0.10667335
116	0xbe141f82	-0.14465144
117	0xbe8c2cbb	-0.27377877
118	0x3e8991c3	0.2686902
119	0x3e91d737	0.28484508
120	0xbec0b4a6	-0.37637824
121	0xbe0ce9d8	-0.1376108
122	0xbd45712e	-0.04820364
123	0xbd9e281d	-0.07722495
124	0xbd1133e4	-0.035449877
125	0xbe7df1b9	-0.24799241
126	0xbe2afeda	-0.1669878
127	0x3e2fa70a	0.17153564
128	0xbdc1c049	-0.094605036
129	0xbe63b303	-0.22236256
130	0xbd491afe	-0.049098007
131	0xbdbeb349	-0.0931154
132	0xbd80f5ec	-0.06296906
133	0xbe0546fd	-0.13015361
134	0xbe21a44a	-0.15785328
135	0xbe4c62dc	-0.19959587
136	0xbe303cc1	-0.17210676
137	0xbd7b8bb6	-0.061412536
138	0xbdad6a5d	-0.08467553
139	0x3e3b9993	0.18320303
140	0xbe1d0c38	-0.15336692
141	0xbbaf3b14	-0.005347619
142	0xbe04c8ef	-0.12967275
143	0x3d4e4809	0.050361667
144	0xbdc8abbc	-0.09798381
145	0x3de9c166	0.11413841
146	0x3debdd7e	0.11516856
147	0x3b11eae0	0.002226524
148	0x3e09692b	0.13419025
149	0xbe9c22b2	-0.3049522
150	0xbcf7bb07	-0.030240549
151	0xbe8b397e	-0.271923
152	0xbe7e589b	-0.24838488
153	0xbe994efa	-0.29943067
154	0xbdbd4978	-0.09242529
155	0x3d901ce7	0.07036763
156	0x3c11787d	0.008878824
157	0x3da7cc1c	0.08193228
158	0x3d6e91b4	0.058244422
159	0xbe3b4359	-0.1828741
160	0xbd922a95	-0.07137028
161	0x3e1d5723	0.15365271
162	0xbd6244ca	-0.055241384
163	0x3e8749f0	0.26423597
164	0x3e0e864a	0.13918415
165	0xbe59d5da	-0.21272984
166	0xbc76dbd4	-0.01506706
167	0xbede1ee8	-0.43382955
168	0xbeabe4f9	-0.3357313
169	0xbe07129b	-0.13190691
170	0x3d1c3cac	0.0381438
171	0xbdd5d406	-0.10440831
172	0xbe56f064	-0.20990139
173	0x3d6c4e78	0.05769202
174	0x3dfeede4	0.12447718
175	0x3e2c8959	0.16849269
176	0x3e22b196	0.15888056
177	0xbea7eaaa	-0.32796222
178	0x3bd41fb1	0.0064735045
179	0x3d460742	0.048346765
180	0xbe071199	-0.13190307
181	0x3cdc1cc1	0.02686918
182	0xbde7ad43	-0.11312344
183	0xbce97f01	-0.028502943
184	0xbe76edad	-0.24114104
185	0xbbacdd26	-0.0052753864
186	0x3dc5f5a9	0.096659966
187	0xbe18d9dc	-0.14926857
188	0x3e32099f	0.17386483
189	0xbdc5afb7	-0.096526556
190	0xbe5f3cdc	-0.2180056
191	0xbc9138d3	-0.017727291
192	0x3cec9dbd	0.02888381
193	0x3bb5b507	0.005545262
194	0x3e54c0fb	0.20776741
195	0x3f1314c0	0.57453537
196	0x3d7efebe	0.06225466
197	0x3dd6db22	0.10491015
198	0x3d3c5d9c	0.04598771
199	0xbe6adc1b	-0.22935526
200	0xbcb64e3c	-0.022254102
201	0x3bc01dde	0.0058629354
202	0xbdcac10c	-0.09900102
203	0xbd20c2f1	-0.03924841
204	0x3e35e986	0.17764863
205	0xbe206dfb	-0.15666954
206	0xbd0420da	-0.032257892
207	0xbe06593e	-0.1311998
208	0x3b4cd385	0.0031254005
209	0x3bf8fc42	0.007598431
210	0x3e126b8f	0.14298843
211	0x3e02bd25	0.12767465
212	0x3d318be4	0.0433463
213	0xbdd661c1	-0.10467864
214	0xbd0cc719	-0.03436956
215	0x3e370853	0.17874269
216	0x3dde6210	0.10858548
217	0x3e29c5fc	0.16579431
218	0x3d97d803	0.07414248
219	0x3dac6898	0.08418387
220	0xbd2ad96c	-0.041711256
221	0xbc89c55b	-0.01681774
222	0xbe0465c1	-0.12929441
223	0x3d5eb874	0.054375127
224	0xbe0cca04	-0.13748938
225	0xbd2e52bf	-0.04255938
226	0xbdca7043	-0.098846935
227	0xbd809e76	-0.06280224
228	0xbd865da9	-0.06560833
229	0xbdf29dd6	-0.11846511
230	0xbd9f7471	-0.07785881
231	0x3a3086b7	0.0006733941
232	0xbe5dd7bb	-0.21664326
233	0x3d16543d	0.03670143
234	0x3d14a995	0.03629454
235	0xbe702dea	-0.23455015
236	0xbe267c41	-0.16258337
237	0x3d49cd7c	0.04926823
238	0xbdea5d2c	-0.114435524
239	0x3e451c27	0.1924902
240	0xbdc2e80b	-0.09516915
241	0xbe106794	-0.14102012
242	0xbdb8a72c	-0.090162605
243	0xbcb2d62d	-0.021830643
244	0xbd515b3a	-0.05111239
245	0x3e60163f	0.21883486
246	0xbdb44082	-0.088013664
247	0x3e074517	0.1320995
248	0x3e5454b5	0.20735438
249	0x3d84dc36	0.064873144
250	0xbe0fd433	-0.14045791
251	0xbe1e998c	-0.15488261
252	0x3e26ec6a	0.16301122
253	0x3dbfbf14	0.09362617
254	0xbe0410c9	-0.12897028
255	0xbcc31827	-0.023815228

conv1.conv2.0.bias f4 [8]
0	0xbc9f1ad7	-0.019421978
1	0xbd895e62	-0.06707455
2	0xbc9c149b	-0.019052794
3	0x3dc3b85b	0.095566474
4	0xbdb2fd82	-0.08739759
5	0x3cdb1f5d	0.026748354
6	0xbded3a26	-0.115833566
7	0x3d7cf4dd	0.061756957

conv1.conv2.1.weight f4 [8]
0	0x3f6e70bd	0.93140775
1	0x3f6ef6b5	0.93345195
2	0x3f6aee04	0.91769433
3	0x3f8d370f	1.1032428
4	0x3f885855	1.0651957
5	0x3f4985fe	0.7872008
6	0x3f9013cb	1.125604
7	0x3f9bf39b	1.2183717

conv1.conv2.1.bias f4 [8]
0	0x3d44b0b5	0.048020083
1	0xbe0e54a4	-0.13899475
2	0xbd9c7226	-0.076389596
3	0x3d208248	0.039186746
4	0xbd0a36aa	-0.033743538
5	0xbdfe2a3c	-0.12410399
6	0xbd6b2c14	-0.057415083
7	0x3e1a91ed	0.15094729

conv1.conv2.1.running_mean f4 [8]
0	0xbf2e42c6	-0.6807064
1	0xbe8deaa9	-0.27718094
2	0xbe9d0add	-0.3067235
3	0x3ee9df7f	0.45678326
4	0xbe55ff83	-0.20898251
5	0xc000a7af	-2.0102346
6	0xbf48327a	-0.7820202
7	0xbf024931	-0.5089293

conv1.conv2.1.running_var f4 [8]
0	0x3fb37219	1.4019195
1	0x3ff29fe9	1.8955051
2	0x40355e39	2.833876
3	0x401f1ef4	2.4862642
4	0x409b3196	4.849803
5	0x400f7919	2.2417662
6	0x40263726	2.597116
7	0x3f844439	1.033332

conv1.conv3.0.weight f4 [8, 8, 3, 3]
0	0x3e149900	0.1451149
1	0xbb8470be	-0.00404176
2	0xbc6033f9	-0.013684266
3	0x3ed981cd	0.42481843
4	0x3e2364a3	0.15956359
5	0x3d82012f	0.06347882
6	0xbd88c211	-0.0667764
7	0x3e541755	0.20712025
8	0x3dc3c8dd	0.09559796
9	0xbe7ab011	-0.24481227
10	0x3e40d17b	0.1882991
11	0x3ee2fdd4	0.4433428
12	0xbe18c304	-0.14918143
13	0xbdc8eed6	-0.09811179
14	0x3cade48d	0.021227146
15	0x3e11e6f8	0.14248264
16	0x3e7822df	0.24232052
17	0xbc70bd29	-0.014693537
18	0xbe3ead2b	-0.18620746
19	0x3d4ef85e	0.05052983
20	0xbc0fa7e2	-0.008768054
21	0xbe2b9e43	-0.16759591
22	0xbd04623b	-0.032320242
23	0x3e26acdc	0.16276878
24	0xbe2dd7b8	-0.16976821
25	0x3e403a48	0.18772233
26	0xbe58ec4b	-0.21183889
27	0xbedeec1d	-0.43539515
28	0x3c258bb8	0.010104112
29	0x3d4a5eb8	0.049406737
30	0x3b8210fa	0.003969309
31	0xbe1f6892	-0.15567234
32	0x3dc5a86d	0.09651265
33	0x3e223d45	0.15843685
34	0xbd3dc1f6	-0.046327554
35	0xbd3c0de8	-0.0459117
36	0x3cc76dfc	0.024344437
37	0x3e54b551	0.20772292
38	0x3ead39a9	0.33833054
39	0x3e89df12	0.26928002
40	0x3e858005	0.26074234
41	0x3d8c2ebc	0.068448514
42	0x3de9a813	0.11409011
43	0x3d66c72f	0.0563423
44	0x3e8fa282	0.2805367
45	0xbe05f071	-0.13080002
46	0x3d638782	0.055549152
47	0xbe96a136	-0.2941987
48	0x3dd98441	0.106209286
49	0x3e02952f	0.12752222
50	0x3e7b1e32	0.24523237
51	0x3dd6540b	0.10465249
52	0xbe791554	-0.24324542
53	0x3d1141ec	0.03546326
54	0xbdd06545	-0.10175566
55	0x3d644256	0.055727325
56	0x3e417ef2	0.18896082
57	0xbd4e9399	-0.05043373
58	0x3ce9b837	0.028530223
59	0x3ead3002	0.3382569
60	0x3d4e0d3c	0.05030559
61	0xbd186e79	-0.03721473
62	0xbdd493f4	-0.10379782
63	0xbd9d8082	-0.076905265
64	0x3bc7191f	0.0060759927
65	0x3c0529a4	0.008127604
66	0x3e3a7fc6	0.18212804
67	0x3e4fdfdf	0.20300244
68	0xbe15c41c	-0.14625591
69	0x3e844638	0.25834823
70	0xbc24711f	-0.010036736
71	0x3df6abc5	0.12044481
72	0xbc50ef37	-0.012752346
73	0xbe196544	-0.14980036
74	0xbd963886	-0.07335
75	0x3e4312ac	0.19050092
76	0x3d86095d	0.06544755
77	0x3e37c35d	0.17945619
78	0x3c255d7e	0.010093091
79	0x3e6a46d3	0.2287858
80	0x3b7abde1	0.003826015
81	0x3d347728	0.04405895
82	0xbe5c3a88	-0.21506703
83	0xbdbebeca	-0.09313734
84	0xbe1f12f5	-0.15534575
85	0xbca12470	-0.019670695
86	0x3e114e2a	0.14189973
87	0x3d836bc7	0.06417041
88	0xbd023a1d	-0.031793702
89	0x3e5811e5	0.21100576
90	0x3e0146e4	0.12624699
91	0xbe37e09b	-0.17956774
92	0x3d7258a3	0.05916656
93	0xbeafc8be	-0.34332842
94	0xbe092a62	-0.13395074
95	0xbc94e2d5	-0.018174568
96	0x3df41bd1	0.11919368
97	0xbe42913e	-0.19000718
98	0xbceaf82c	-0.02868279
99	0x3e2534ff	0.16133498
100	0x3d08199c	0.033227548
101	0xbe15f0bb	-0.14642613
102	0xbd9c5c96	-0.07634847
103	0x3e7e533d	0.2483644
104	0xbe8ea48e	-0.2785992
105	0x3e401151	0.18756606
106	0xbe16384e	-0.14669916
107	0xbe272d9d	-0.16325994
108	0x3ea311f4	0.31849635
109	0x3ee52436	0.4475419
110	0x3e0e4729	0.13894333
111	0x3daf772a	0.085676506
112	0xbd8cad31	-0.06868971
113	0x3e0b2c48	0.1359111
114	0x3dd58cbe	0.10427235
115	0x3e095ea5	0.1341501
116	0x3e547fa2	0.20751813
117	0xbe7464cc	-0.23866576
118	0xbc413c45	-0.0117941545
119	0x3d1080dd	0.035279144
120	0xbd7f913e	-0.062394373
121	0x3dad971d	0.08476088
122	0x3e534b7f	0.20634268
123	0xbd8c35f3	-0.068462275
124	0xbe787397	-0.24262844
125	0xbe0adba7	-0.13560353
126	0x3ddc284f	0.10749876
127	0xbd58abd3	-0.05289824
128	0xbe3c4c88	-0.1838857
129	0xbd5c974b	-0.05385522
130	0xbd639481	-0.055561546
131	0xbd49206e	-0.049103193
132	0xbe184be4	-0.148727
133	0xbe2d245d	-0.16908403
134	0x3c49d224	0.012318168
135	0xbd13c420	-0.03607571
136	0xbbfa1dec	-0.0076329615
137	0xbe1badc1	-0.15203
138	0xbe153400	-0.14570618
139	0xbded0cb5	-0.11574689
140	0x3e79d28e	0.24396726
141	0xbd168840	-0.036751032
142	0x3e0dfbbf	0.13865565
143	0x3c8eadf6	0.017416935
144	0xbdf45286	-0.119298026
145	0xbe161227	-0.14655362
146	0x3e8fdf9f	0.28100297
147	0x3d59da9d	0.053187
148	0x3c955748	0.018230096
149	0x3ca1654c	0.019701622
150	0x3ddef6f7	0.108869486
151	0x3ebca34e	0.36843342
152	0xbd6dcbd3	-0.05805571
153	0xbdf2e185	-0.11859421
154	0x3e264d1b	0.16240351
155	0x3d263398	0.040576547
156	0xbeb87b58	-0.36031604
157	0x3e255094	0.1614402
158	0x3e8f1810	0.27948046
159	0xbf3cf66c	-0.7381351
160	0x3d2b2991	0.041787688
161	0xbe2dfeb4	-0.16991693
162	0x3e08935c	0.13337463
163	0xbe4e5f12	-0.20153454
164	0x3d71a984	0.058999553
165	0xbe61504a	-0.22003284
166	0xbe4fc512	-0.2029002
167	0x3e30fd84	0.17284209
168	0xbeb6f744	-0.35735524
169	0x3c7d047e	0.015442966
170	0xbe766911	-0.24063517
171	0x3d1707b7	0.03687259
172	0x3dd64b64	0.10463598
173	0xbe70e1f8	-0.235237
174	0xbe8764a7	-0.2644398
175	0xbe22426b	-0.15845649
176	0xbe5f49b4	-0.2180546
177	0xbde6026a	-0.11230929
178	0xbd4386a3	-0.04773582
179	0xbe59d06a	-0.2127091
180	0x3e175145	0.14777096
181	0x3d418652	0.04724724
182	0xbe6fc1c6	-0.23413762
183	0xbe162a82	-0.14664653
184	0xbeafad8d	-0.34312096
185	0xbf3ccd5e	-0.73750865
186	0x3da9d19d	0.08291934
187	0x3d51caa5	0.051218648
188	0xbea06697	-0.3132827
189	0x3e4e7747	0.20162688
190	0xbebc5302	-0.3678208
191	0x3d1798ab	0.03701083
192	0xbbec9485	-0.0072198533
193	0xbdd2dd43	-0.102961086
194	0x3effedb2	0.49986035
195	0x3d2b97b5	0.041892726
196	0x3d31b98a	0.043389834
197	0x3db40916	0.087907955
198	0xbe5d76d2	-0.21627358
199	0xbd9853f9	-0.074378915
200	0xbd3f7ae2	-0.04674805
201	0xbf043ef0	-0.51658535
202	0xbe46cf49	-0.1941501
203	0xbdef5fea	-0.11688216
204	0x3c6405c3	0.013917389
205	0xbd1e76c5	-0.038687486
206	0xbed10c4d	-0.40829697
207	0xbe292a3f	-0.16520022
208	0xbf01e10c	-0.5073402
209	0x3e374afe	0.17899701
210	0xbe94c0f7	-0.2905347
211	0x3e75f04b	0.24017446
212	0x3ebfb733	0.37444457
213	0x3dfdfc7f	0.124016754
214	0xbd0585c8	-0.032598287
215	0x3e96d878	0.29462028
216	0x3cb187ab	0.021671137
217	0x3d5dd05f	0.054153796
218	0x3e33c68d	0.1755621
219	0x3eae79bf	0.3407726
220	0xbe5eb586	-0.21748933
221	0xbe9ad52f	-0.3024077
222	0x3ea80805	0.32818618
223	0xbd81bb7a	-0.063345864
224	0x3ebcec1b	0.36898884
225	0x3e0eaeea	0.13933912
226	0x3a6f6ead	0.00091336184
227	0x3d62ee3b	0.055402976
228	0xbe9798f5	-0.29608884
229	0x3eb088ff	0.3447952
230	0xbe341cf0	-0.17589164
231	0x3e8919bc	0.26777446
232	0x3d535d5e	0.051602714
233	0xbe0d4467	-0.13795625
234	0x3e68652e	0.22694847
235	0xbe2e689a	-0.1703209
236	0xbe452a23	-0.19254355
237	0x3e25c31f	0.16187714
238	0xbbd7bb83	-0.0065836324
239	0x3d9f817f	0.07788371
240	0x3d7fd40d	0.062458087
241	0x3d0b9787	0.034080055
242	0xbcdca589	-0.026934402
243	0xbdfe54d0	-0.124185205
244	0xbdb2b60a	-0.087261274
245	0xbeb0094b	-0.3438209
246	0xbd17b0b3	-0.037033748
247	0xbeb461e4	-0.35230935
248	0xbde2d136	-0.1107506
249	0x3e5cd325	0.2156492
250	0xbbb6cbdb	-0.0055785007
251	0xbe2eb20b	-0.17060106
252	0x3d855162	0.06509663
253	0x3d9b5fcd	0.07586632
254	0xbdf0fd03	-0.11767008
255	0xbca00e86	-0.019538175

conv1.conv3.0.bias f4 [8]
0	0xbd7d7fe7	-0.061889555
1	0xbb8c3993	-0.0042793243
2	0x3cb4aaf9	0.022054182
3	0xbd003021	-0.0312959
4	0x3da47a42	0.08031131
5	0x3c52ecbf	0.0128738275
6	0xbddf0782	-0.10890104
7	0xbc5089e9	-0.012728193

conv1.conv3.1.weight f4 [8]
0	0x3f7642dd	0.96195775
1	0x3f7c5589	0.98568016
2	0x3f9813d4	1.1881051
3	0x3f3d769e	0.7400912
4	0x3f8ffe1f	1.1249427
5	0x3f894c31	1.0726377
6	0x3f882e80	1.0639191
7	0x3f78f997	0.97255844

conv1.conv3.1.bias f4 [8]
0	0xbccafec2	-0.024779681
1	0x3d561f47	0.052275922
2	0x3dd22f5f	0.102629416
3	0xbe25d922	-0.16196111
4	0xbcb09b80	-0.021558523
5	0x3d461738	0.048361987
6	0x3e07557d	0.13216205
7	0x3d9fd395	0.07804028

conv1.conv3.1.running_mean f4 [8]
0	0x3f923f85	1.1425635
1	0x3b30ae92	0.002695952
2	0xbfd1ff14	-1.6405969
3	0xba454ee1	-0.00075267075
4	0x3d8a65cf	0.067577
5	0xbf24151b	-0.64094704
6	0xbf76912a	-0.9631525
7	0xbed8ee98	-0.42369533

conv1.conv3.1.running_var f4 [8]
0	0x407b32c1	3.9249728
1	0x40126382	2.2873235
2	0x400b6e8e	2.1786227
3	0x3fcbbddd	1.5917317
4	0x3f50ce10	0.81564426
5	0x3fb55705	1.4167181
6	0x3f87860f	1.0587786
7	0x3fcdb610	1.6071186

conv2.conv1.0.weight f4 [16, 8, 3, 3]
0	0x3dd809d4	0.105487496
1	0xbe31100c	-0.17291278
2	0xbd4232f5	-0.047411878
3	0xbe05c997	-0.13065182
4	0xbe61aee9	-0.22039379
5	0xbe56048d	-0.20900173
6	0x3e0c2cb3	0.13688926
7	0x3ddd0029	0.10791046
8	0x3daf09d8	0.085467994
9	0xbd5bf141	-0.053696875
10	0x3d84d9e2	0.0648687
11	0xbea3d40b	-0.31997713
12	0x3dbab97e	0.09117411
13	0xbc9ee45d	-0.019396001
14	0x3e618d1f	0.2202649
15	0xbe846429	-0.25857666
16	0x3d918fdf	0.07107519
17	0xbe7b4c7f	-0.245409
18	0x3d18ee1c	0.037336454
19	0x3d7e52c2	0.062090643
20	0xbe16036b	-0.14649741
21	0xbec68e2a	-0.38780338
22	0x3e33e930	0.17569423
23	0xbe81d1e0	-0.25355434
24	0x3df2c37b	0.11853691
25	0x3e3785ba	0.17922106
26	0x3d60e667	0.05490723
27	0x3e83a310	0.25710344
28	0x3df96999	0.12178344
29	0xbe60ffd7	-0.21972595
30	0x3d41d0ec	0.047318384
31	0xbd93eddf	-0.07223105
32	0x3c917c12	0.017759357
33	0xbc87b0e5	-0.016563842
34	0xbda1e399	-0.07904739
35	0x3dae502d	0.08511386
36	0xbd6031ae	-0.05473488
37	0x3ca37761	0.019954385
38	0x3e24b1e3	0.16083483
39	0xbb0ec71c	-0.002178616
40	0x3e3b836c	0.18311852
41	0x3c2b6037	0.010459951
42	0x3c481268	0.01221142
43	0xbd633eed	-0.055479933
44	0xbd304059	-0.043030117
45	0x3d2a3e36	0.041563235
46	0xbe1fcfe3	-0.15606646
47	0xbe3b827e	-0.18311498
48	0x3d683ea5	0.056700367
49	0xbead03af	-0.33791873
50	0xbcf2921c	-0.029610686
51	0xbe1b4d81	-0.15166284
52	0xbc997da9	-0.018736677
53	0xbef2daad	-0.4743246
54	0xbd9a0747	-0.07520919
55	0xbe47fb8e	-0.19529554
56	0xbd2a5999	-0.041589353
57	0x3e8a47c1	0.2700787
58	0x3c8b3675	0.01699374
59	0x3e1db3fb	0.15400688
60	0xbc9ecc56	-0.019384544
61	0xbcee4ae1	-0.02908844
62	0x3e71767a	0.23580351
63	0xbe73e1fd	-0.23816676
64	0xbe08fb06	-0.13377008
65	0x3d8cf6e6	0.0688303
66	0xbe9de6d7	-0.3084018
67	0x3de148de	0.110002264
68	0x3e8788e4	0.26471627
69	0x3d06d524	0.03291811
70	0x3d69fd32	0.05712623
71	0xbdc21018	-0.09475726
72	0x3db03d9f	0.08605503
73	0x3e9c8513	0.30570278
74	0x3b9c4bb0	0.004769765
75	0x3eeae72c	0.45879495
76	0x3e08ece9	0.13371624
77	0xbd58e54a	-0.052953042
78	0x3e3ad9e1	0.18247177
79	0x3e0fa36c	0.14027184
80	0xbc8366d5	-0.016040245
81	0x3e4bdddb	0.1990885
82	0xbdf75c84	-0.12078193
83	0xbd1764a5	-0.036961216
84	0x3e908e2d	0.28233472
85	0xbef1693c	-0.471506
86	0xbe0364ca	-0.12831417
87	0x3f266faf	0.65014166
88	0x3dca9ea1	0.09893537
89	0x3df70197	0.1206085
90	0xbe2e8981	-0.17044641
91	0x3e2de6ac	0.16982526
92	0x3dba4d36	0.09096758
93	0xbe5d41cf	-0.21607135
94	0x3df6562c	0.12028155
95	0xbe2985c8	-0.1655494
96	0xbe9b9e66	-0.30394286
97	0xbbb39afd	-0.0054811225
98	0xb9adaddb	-0.00033126664
99	0xbca889ea	-0.020573575
100	0x3c8c7f12	0.017150436
101	0xbde8a617	-0.11359804
102	0xbe939b2d	-0.28829327
103	0xbd830bf0	-0.06398761
104	0xbebcf112	-0.36902672
105	0x3e1fb187	0.15595065
106	0xbc9917d2	-0.018688116
107	0xbe314b5f	-0.17313908
108	0xbece8b8e	-0.40340847
109	0xbe137b4d	-0.14402504
110	0xbe4cce1a	-0.20000497
111	0x3d91cc50	0.07119048
112	0x3c8b3daf	0.016997186
113	0x3d692fcf	0.05693036
114	0x3dc3b346	0.09555678
115	0xbdb7a085	-0.089661635
116	0x3e22d537	0.15901648
117	0xba7871b6	-0.00094773935
118	0x3e81f145	0.25379387
119	0xbe6954a0	-0.22786188
120	0xbe4dad36	-0.20085606
121	0xbe27a9b1	-0.16373326
122	0xbdc61a61	-0.09673
123	0xbe1ad2ab	-0.15119426
124	0xbe4a1351	-0.19733931
125	0x3e2de71c	0.16982692
126	0xbe65f130	-0.22455287
127	0x3e09e6b5	0.13466914
128	0x3e93e07d	0.28882208
129	0xbe34cc9d	-0.17656179
130	0xbe230ea8	-0.1592356
131	0x3e8444b8	0.25833678
132	0xbea9f0d8	-0.33191562
133	0x3dcd04ee	0.10010706
134	0xbe81a837	-0.2532365
135	0xbed38656	-0.41313428
136	0xbe481c5c	-0.19542068
137	0x3dd0cb1c	0.1019499
138	0xbe9a9bf7	-0.30197117
139	0xbdd0254f	-0.10163366
140	0xbd7f0257	-0.06225809
141	0xbe2b17d5	-0.1670831
142	0x3c078e67	0.008273697
143	0x3d3a1b4a	0.04543618
144	0x3d008c95	0.03138407
145	0xbea02a95	-0.31282488
146	0x3d3fa813	0.046791147
147	0x3deaa4d9	0.114572234
148	0x3d871b4b	0.065970026
149	0x3e1cb9fb	0.15305321
150	0xbdf919b7	-0.12163108
151	0x3e838381	0.25686267
152	0x3dd4b6f8	0.10386461
153	0xbe0f1f59	-0.13976802
154	0x3e4b338e	0.19843885
155	0x3e79e2ca	0.2440292
156	0x3eb778b2	0.3583427
157	0x3e1db006	0.15399179
158	0x3e0ac84b	0.13552968
159	0xb99360cf	-0.00028110153
160	0xbd80900b	-0.06277474
161	0x3daf9f81	0.08575345
162	0xbe15338d	-0.14570446
163	0x3d0c87f3	0.03430934
164	0xbe1196db	-0.14217703
165	0xbed5a954	-0.4173075
166	0x3e84cbcd	0.25936738
167	0xbe817e97	-0.25291893
168	0xbe98490c	-0.2974323
169	0x3d2cc5d4	0.04218085
170	0xbe3def86	-0.18548402
171	0xbdd4beb4	-0.10387936
172	0xbeb20494	-0.34769118
173	0xbd362279	-0.04446647
174	0x3cfbb1f9	0.030724512
175	0x3df6c8bd	0.120500065
176	0x3e18b602	0.1491318
177	0x3a911042	0.0011067467
178	0xbdd72530	-0.1050514
179	0x3ed201c4	0.41016972
180	0x3e68b30d	0.22724552
181	0x3e26eefd	0.16302104
182	0x3dcafb0e	0.09911166
183	0x3e965027	0.29358026
184	0x3d2a668d	0.041601706
185	0xbe17dacc	-0.14829558
186	0xbdaaa9ea	-0.0833319
187	0xbebe29c2	-0.37141234
188	0xbd8f311f	-0.06991791
189	0xbd7ed8af	-0.062218364
190	0xbe51eb9c	-0.20500034
191	0x3d72f4a3	0.059315335
192	0xbe7e1d3f	-0.24815844
193	0x3c6e6087	0.014549381
194	0x3dc5744e	0.09641324
195	0x3c1e87b1	0.009675906
196	0x3e906e1c	0.28209007
197	0xbdc53487	-0.096291594
198	0xbc190dfe	-0.009341715
199	0xbd9d8555	-0.07691447
200	0xbe666cc4	-0.22502428
201	0xbd887f7f	-0.06664943
202	0xbd18f117	-0.037339296
203	0xbaaa603c	-0.0012998651
204	0x3dc6479d	0.09681628
205	0xbbd9c932	-0.006646299
206	0xbcb8d67f	-0.022563217
207	0x3e97b94a	0.29633552
208	0x3e2afd45	0.16698177
209	0xbeffc507	-0.49955007
210	0x3e0c6324	0.13709694
211	0xbb2dd134	-0.00265224
212	0x3e3a7ba3	0.18211226
213	0xbda7cc61	-0.08193279
214	0xbe356042	-0.177125
215	0x3eb8b244	0.36073506
216	0x3ea9ad2e	0.33139938
217	0x3d901d15	0.07036797
218	0x3dc60a29	0.09669907
219	0xbcb525a2	-0.022112671
220	0x3da32e88	0.079678595
221	0x3e7127d9	0.23550357
222	0xbe8bea60	-0.2732725
223	0x3caff5dc	0.02147954
224	0x3e8cefc9	0.27526692
225	0xbd60f0ca	-0.054917134
226	0x3d839bcf	0.064262025
227	0xbe4110d2	-0.18854073
228	0xbe0b6c61	-0.13615562
229	0x3d916451	0.07099212
230	0x3e2c5cd8	0.16832292
231	0xbece1cb3	-0.4025627
232	0xbd9f2c02	-0.07772066
233	0xbc403642	-0.011731686
234	0x3c6a049d	0.014283326
235	0x3e341862	0.17587426
236	0x3e7ec4ec	0.24879807
237	0x3ee91238	0.45521712
238	0x3ebd2758	0.3694408
239	0x3d632817	0.055458155
240	0xbe028cfc	-0.12749094
241	0x3dcdc3f0	0.10047138
242	0xbe53d107	-0.20685206
243	0xbded4fc5	-0.115874805
244	0x3dbe2bce	0.09285699
245	0x3e9bf62f	0.3046126
246	0xbe06fc66	-0.1318222
247	0xbd19c2e5	-0.03753938
248	0xbdb84f4a	-0.08999498
249	0x3e86c46d	0.26321736
250	0x3d8cb397	0.068701915
251	0x3d990edb	0.074735366
252	0xbcd308c8	-0.025761023
253	0xbddc1282	-0.107457176
254	0xbea35595	-0.3190123
255	0xbdd81a05	-0.10551838

conv2.conv1.0.bias f4 [16]
0	0xbc8c21d3	-0.017105972
1	0xbdc59b22	-0.0964873
2	0x3ce2886a	0.027652938
3	0x3d101a83	0.035181534
4	0xbdbef5f6	-0.09324257
5	0xbdd87cc0	-0.10570669
6	0x3c4a7ef5	0.0123593705
7	0x3deba713	0.11506476
8	0xbdd7dace	-0.105397806
9	0xbd6c7d5b	-0.057736736
10	0xbd26734f	-0.04063731
11	0xbdd52aae	-0.10408531
12	0xbd94970e	-0.07255374
13	0x3dbd6bef	0.09249102
14	0x3db892cf	0.090123765
15	0xbdb18a89	-0.086690016

conv2.conv1.1.weight f4 [16]
0	0x3f83afc8	1.0288019
1	0x3f88e7f2	1.0695784
2	0x3f83a76b	1.0285467
3	0x3f73a730	0.9517698
4	0x3f86f90f	1.0544757
5	0x3f76365b	0.9617669
6	0x3f62a4ff	0.88533014
7	0x3f7a699f	0.97817415
8	0x3f8a8774	1.0822587
9	0x3f831a1f	1.0242347
10	0x3f88bb75	1.0682207
11	0x3f71444e	0.9424485
12	0x3f6a88d0	0.9161501
13	0x3f7477bc	0.954952
14	0x3f8310db	1.0239519
15	0x3f8df4b8	1.1090307

conv2.conv1.1.bias f4 [16]
0	0x3d1ea75c	0.038733825
1	0x3e03554e	0.1282551
2	0xbd490219	-0.049074266
3	0xbdcb6869	-0.09932024
4	0x3cf0720d	0.029351259
5	0xbce3eef0	-0.027823895
6	0xbdd93828	-0.10606414
7	0x3cb4d8f5	0.02207611
8	0x3d1b7d55	0.037961323
9	0xbc67b394	-0.014141936
10	0x3d21365b	0.039358478
11	0xbd7fe9a4	-0.062478676
12	0xbd34acad	-0.04410999
13	0x3c5622a8	0.013069786
14	0xbb46d2f8	-0.003033815
15	0x3d5eec37	0.05442449

conv2.conv1.1.running_mean f4 [16]
0	0xbf85d813	-1.0456566
1	0xbfaa275b	-1.329326
2	0xbb80bc9b	-0.0039287335
3	0x3f21f64f	0.6326646
4	0xbeab60df	-0.33472344
5	0xbfd406ad	-1.6564537
6	0x3ed9af4a	0.42516547
7	0x3fac1df9	1.3446647
8	0xbf19cae4	-0.6007521
9	0x3c8e8cc7	0.017401112
10	0xbfb39455	-1.4029642
11	0xbea2c109	-0.317879
12	0x3d7e0748	0.062018663
13	0x3ed88e7e	0.42296213
14	0xbfac4b59	-1.3460494
15	0xc00af4c8	-2.1711903

conv2.conv1.1.running_var f4 [16]
0	0x4035637b	2.8341968
1	0x3ff73d61	1.9315606
2	0x4004550d	2.067691
3	0x405c543c	3.4426413
4	0x3fe38956	1.7776287
5	0x3fed572d	1.8542229
6	0x3fec1727	1.8444566
7	0x3fe167b4	1.7609773
8	0x3f9ed081	1.240738
9	0x40144798	2.3168697
10	0x401d49dc	2.457633
11	0x401be090	2.4355812
12	0x3fc2b2fe	1.5210874
13	0x3f97d2a7	1.1861161
14	0x3fd0c2d9	1.6309463
15	0x3fc905a3	1.5704845

conv2.conv2.0.weight f4 [16, 16, 3, 3]
0	0xbe1be0c2	-0.15222457
1	0xbd95d601	-0.07316209
2	0x3d2f61cc	0.042817876
3	0xbde59923	-0.11210849
4	0xbe4eaf75	-0.20184119
5	0x3d6907db	0.056892257
6	0xbe8f0b64	-0.27938378
7	0xbba06585	-0.0048949146
8	0xbdd73223	-0.1050761
9	0x3d8bb7c4	0.0682216
10	0x3dd21797	0.10258406
11	0x3d10c4ce	0.035343938
12	0x3e445219	0.19171943
13	0x3e457a75	0.19284995
14	0x3d9c9eb8	0.07647461
15	0xbca71393	-0.020395076
16	0xbdc694f3	-0.096963786
17	0xbcfd69e1	-0.030934276
18	0xbe0f9602	-0.14022067
19	0xbe6ae091	-0.22937228
20	0x3d6db365	0.058032412
21	0xbd3a1c2b	-0.04543702
22	0x3e0d757e	0.13814351
23	0x3d785cac	0.060635254
24	0xbe3b49f9	-0.18289937
25	0x3bb8e5d4	0.005642632
26	0xbd8dcede	-0.069242224
27	0x3d90fbed	0.07079301
28	0xbe3ed259	-0.18634929
29	0xbe693fd6	-0.22778258
30	0xbdb1c08c	-0.086793035
31	0x3e1373ff	0.14399718
32	0x3d057a65	0.032587428
33	0x3c1c2e1c	0.009532478
34	0x3c84eca9	0.01622613
35	0xbd5f23e1	-0.054477576
36	0x3c972940	0.018452287
37	0xbe0c6e9d	-0.1371407
38	0x3d3629a0	0.04447329
39	0x3d934d01	0.07192422
40	0xbc9501ff	-0.018189428
41	0xbe00192a	-0.125096
42	0xbc231170	-0.009952888
43	0xbca1f8a6	-0.019771885
44	0xbe10d3ff	-0.1414337
45	0x3c036aec	0.008021098
46	0xbe0a2b10	-0.1349299
47	0xbc957552	-0.01824442
48	0x3d2f8e9c	0.042860612
49	0x3e29d94d	0.165868
50	0x3db336d6	0.087506935
51	0xbe00f652	-0.12593964
52	0x3df0ab32	0.11751403
53	0xbd64f37e	-0.055896275
54	0xbd5cbdff	-0.053892132
55	0x3dbe29a9	0.0928529
56	0xbcb18c84	-0.021673448
57	0xbdb73a87	-0.0894671
58	0xbd48df98	-0.04904136
59	0xbd42c932	-0.047555156
60	0x3e06a385	0.13148315
61	0xbe0fa80e	-0.14028952
62	0xbe1097b3	-0.14120369
63	0xbeaea8b9	-0.341131
64	0x3e247b50	0.16062665
65	0x3e66d27a	0.22541228
66	0x3d97660c	0.07392511
67	0xbe53869c	-0.20656818
68	0xbe0785ca	-0.1323463
69	0x3da472ed	0.08029733
70	0xbe2b9e0b	-0.16759507
71	0xbd5fb930	-0.054619968
72	0xbcd9fb42	-0.026609067
73	0x3b488c3f	0.0030601171
74	0x3dd4962e	0.10380207
75	0xbe6a3538	-0.22871864
76	0xbe3e88b1	-0.18606831
77	0x3e0f78c4	0.14010912
78	0x3d72bed1	0.059264008
79	0xbd4d6d1a	-0.050152875
80	0x3e068b05	0.13138969
81	0x3e024e48	0.12725174
82	0xbc79a97f	-0.015238165
83	0x3d4965b8	0.049169272
84	0xbddd5cee	-0.108087406
85	0xbe56e0be	-0.2098417
86	0xbeb21f35	-0.34789434
87	0x3cc4a1f8	0.024003014
88	0xbd4b2365	-0.0495943
89	0xbc829959	-0.015942262
90	0x3dd25292	0.10269655
91	0xbd020664	-0.031744376
92	0xbd984f4a	-0.07436998
93	0x3d5dd46c	0.05415766
94	0xbd6a4bc9	-0.05720118
95	0x3d8f1ba0	0.06987691
96	0xbdd9c9b8	-0.10634178
97	0x3c5b6c9c	0.013392594
98	0x3c9423e3	0.018083518
99	0x3a9dd9df	0.001204308
100	0xbc227a1a	-0.009916807
101	0xbde2bba8	-0.11070949
102	0x3d383f3b	0.044982176
103	0xbdef8869	-0.1169594
104	0xbe666425	-0.2249914
105	0x3da2e273	0.07953348
106	0x3c625994	0.013815302
107	0xbcd82466	-0.026384544
108	0xbdc744f6	-0.0972995
109	0x3c0df215	0.008663674
110	0xbde8ce4d	-0.11367474
111	0xbd84efcf	-0.06491052
112	0xbd4b956b	-0.049703043
113	0x3ad8f2c9	0.0016551848
114	0x3d37093e	0.04468655
115	0xbd6c46c1	-0.057684664
116	0xbaba1342	-0.0014196413
117	0xbe6bdd61	-0.23033668
118	0x3d4fd481	0.05073977
119	0xbda4d2b9	-0.08048005
120	0x3c7e1918	0.0155089125
121	0x3e1b3efc	0.15160745
122	0xbdf4373d	-0.11924598
123	0x3e869e53	0.26292667
124	0xbd2f39a1	-0.04277957
125	0xbd1c6d96	-0.038190447
126	0xbc1c1a35	-0.009527733
127	0x3d525aef	0.051356252
128	0xbe31283f	-0.17300509
129	0x3e238274	0.15967733
130	0x3d667c31	0.056270782
131	0xbe23022e	-0.159188
132	0x3e16a077	0.1470965
133	0xbce157b2	-0.027507637
134	0xbd036f66	-0.03208866
135	0xbdaaed78	-0.08346075
136	0xbe12f06b	-0.14349525
137	0xbdb753a9	-0.08951504
138	0xbcb6afe3	-0.022300666
139	0x3d5657ab	0.0523297
140	0x3dc63a75	0.096791185
141	0x3e16ad84	0.14714628
142	0x3d572e2e	0.052534275
143	0x3ddd3273	0.10800638
144	0xbd1848cb	-0.037178796
145	0xbd8005a7	-0.06251078
146	0xbe2b8d24	-0.1675306
147	0x3e25d2bc	0.1619367
148	0xbdba4cfa	-0.09096713
149	0xbe0f6e64	-0.14006954
150	0x3e3387af	0.17532228
151	0x3d7d321c	0.061815366
152	0x3d8c3bf3	0.06847372
153	0xbcb220b1	-0.021744104
154	0x3dd3b777	0.103377275
155	0x3e330712	0.17483166
156	0x3cc7335e	0.024316486
157	0x3d3adfb9	0.045623515
158	0x3d8db93f	0.069200985
159	0xbe699f5a	-0.22814694
160	0xbd37e381	-0.0448947
161	0xbd733b24	-0.059382573
162	0xbdbd8ab2	-0.0925497
163	0x3de2b7ca	0.11070211
164	0x3e144d30	0.1448257
165	0x3a2ca23b	0.00065854535
166	0x3e318bdf	0.17338513
167	0x3deaacac	0.11458716
168	0xbea7304b	-0.32654032
169	0x3da3fa01	0.08006669
170	0x3cce21b3	0.025162553
171	0xbe238198	-0.15967405
172	0xbd3cfddb	-0.046140533
173	0xbe0cee0b	-0.13762681
174	0x3dcf1805	0.10112003
175	0x3e5b7f50	0.21435285
176	0xbd051fe3	-0.032501113
177	0x3da24887	0.0792399
178	0xbdbf4730	-0.0933975
179	0x3e0e8f02	0.1392174
180	0x3beda37f	0.0072521563
181	0xbe405c6d	-0.18785258
182	0x3c787167	0.015163756
183	0xbc96f4e4	-0.01842732
184	0xbdda1c0d	-0.106498815
185	0x3df70669	0.120617695
186	0xbe290e20	-0.16509295
187	0x3cbd5887	0.023113502
188	0x3e38e955	0.18057759
189	0x3d6e22b7	0.058138575
190	0x3e71bae4	0.2360645
191	0xba72c37d	-0.00092606974
192	0x3d814007	0.0631104
193	0x3e690f7a	0.2275981
194	0xbd0bf55e	-0.034169547
195	0x3db5ef70	0.0888356
196	0xbe42362a	-0.18965974
197	0x3dce4be6	0.1007307
198	0xbdf6a470	-0.12043083
199	0x3eaa5850	0.33270502
200	0x3e2adeb4	0.16686517
201	0xbe005431	-0.12532116
202	0xbba74d47	-0.0051056477
203	0x3c0b6e36	0.008510163
204	0x3da53a14	0.08067718
205	0x3d0145e9	0.031560812
206	0xbccc364b	-0.024928233
207	0x3e2a1c9c	0.16612476
208	0xbe0404b6	-0.12892422
209	0xbd8a1dff	-0.067440026
210	0xbea8a320	-0.32936954
211	0x3c465f95	0.0121077495
212	0x3e0504d0	0.12990117
213	0x3d993033	0.074798964
214	0x3e343114	0.17596847
215	0x3d912c07	0.07088476
216	0xbdd22cd5	-0.10262457
217	0xbe26649f	-0.16249321
218	0xbce1180d	-0.027477289
219	0x3e24e794	0.16103965
220	0xbdbe74b2	-0.092996016
221	0x3e10145d	0.14070268
222	0xbd6b2a30	-0.05741328
223	0xbc9ce586	-0.019152414
224	0xbe3a322c	-0.18183202
225	0xbc412f3e	-0.011791049
226	0xbd421601	-0.047384266
227	0xbd8a582b	-0.06755098
228	0x3eac2b25	0.33626667
229	0x3e229dd5	0.1588052
230	0x3dac0ac0	0.08400488
231	0x3d3f5bd1	0.046718422
232	0x3decae4c	0.11556682
233	0xbe8df644	-0.27726948
234	0x3cbfa36a	0.023393352
235	0xbc900217	-0.017579122
236	0xbcd89324	-0.02643735
237	0x3dfec9f5	0.12440864
238	0xbd419c59	-0.047268245
239	0x3d3c763b	0.04601119
240	0xbe1a1960	-0.15048742
241	0xbdb6b877	-0.089219026
242	0x3d1e7a93	0.038691115
243	0x3d48127c	0.048845753
244	0x3da3affb	0.0799255
245	0x3d82179b	0.06352159
246	0xbdf47e37	-0.11938136
247	0xbe2e0429	-0.16993774
248	0x3d22b267	0.03972092
249	0xbe1224df	-0.14271878
250	0x3d87d78e	0.06632911
251	0x3de4df98	0.111754596
252	0x3d307661	0.043081645
253	0xbdba1196	-0.090853855
254	0x3e439bef	0.19102453
255	0xbd8738b8	-0.06602615

conv2.conv2.0.bias f4 [16]
0	0xbcb59b5d	-0.02216881
1	0x3d3b20ff	0.045685764
2	0xbd49a60f	-0.04923063
3	0xbcb4643f	-0.022020457
4	0x3d9c689b	0.076371394
5	0x3d35c708	0.044379264
6	0xbd845f25	-0.0646346
7	0xbcbb9944	-0.022900231
8	0x3c060335	0.008179476
9	0x3cf69d40	0.03010428
10	0xbd1d03ab	-0.038333576
11	0x3d6ef7e3	0.058341872
12	0x3aaae0b5	0.0013036939
13	0xbd938a80	-0.07204151
14	0x3cb6e7fd	0.022327418
15	0xbda5a733	-0.08088531

conv2.conv2.1.weight f4 [16]
0	0x3f73ec4b	0.9528243
1	0x3f77c85f	0.9679012
2	0x3f8806ad	1.0627037
3	0x3f50e33d	0.8159674
4	0x3f71b35b	0.944143
5	0x3f8269cd	1.0188538
6	0x3f5782e6	0.8418411
7	0x3f7eb352	0.9949237
8	0x3f8cd097	1.1001157
9	0x3f6d8060	0.9277401
10	0x3f88d563	1.069012
11	0x3f854271	1.0410901
12	0x3f832b6b	1.0247625
13	0x3f8dd99c	1.1082034
14	0x3f8dfba3	1.1092418
15	0x3f6cfb81	0.92571265

conv2.conv2.1.bias f4 [16]
0	0x3aeaddde	0.0017918905
1	0xbcb52015	-0.022110024
2	0xbd992f6e	-0.074797496
3	0xbd0e2c62	-0.034710295
4	0xbd1471a4	-0.03624119
5	0x3db1fe47	0.08691078
6	0xbce23740	-0.027614236
7	0xbdbdffa5	-0.09277276
8	0x3d0c4011	0.034240786
9	0xbce8170d	-0.028331304
10	0xbe169060	-0.14703512
11	0x3d5bfe53	0.05370934
12	0xbc24c169	-0.010055878
13	0x3d4f5f8a	0.050628223
14	0x3d92bfc9	0.07165486
15	0xbdd39b8b	-0.10332402

conv2.conv2.1.running_mean f4 [16]
0	0xbf87ec0a	-1.0618908
1	0x3f576854	0.8414357
2	0x3eda0742	0.42583662
3	0x3e8bbd37	0.27292797
4	0x3f5b6cc2	0.85712826
5	0xbf8f1192	-1.1177237
6	0xbe125443	-0.14289956
7	0xbed08376	-0.40725297
8	0xbfa72edd	-1.3061177
9	0x3f08901e	0.53344905
10	0x3fa07e28	1.25385
11	0x3eff889b	0.4990891
12	0xbfbf9efb	-1.4970392
13	0xbeadcfa9	-0.33947495
14	0xbf7d2f7d	-0.98900586
15	0xc00b3a6d	-2.175441

conv2.conv2.1.running_var f4 [16]
0	0x3f19e0b8	0.6010852
1	0x3f9cfe64	1.2265134
2	0x3fd64be2	1.6741908
3	0x3fea3892	1.8298514
4	0x3f6a47b8	0.91515684
5	0x3fba010b	1.4531568
6	0x3fa32239	1.2744819
7	0x3fba9f8e	1.4579942
8	0x40181657	2.3763635
9	0x3fbf1b12	1.4930136
10	0x3fc2ff45	1.5234152
11	0x3f8fbec3	1.1230091
12	0x400af47d	2.1711724
13	0x3f3a3c2c	0.72748065
14	0x4057f08b	3.3740566
15	0x3f95bc45	1.169808

conv2.conv3.0.weight f4 [16, 16, 3, 3]
0	0xbe27bb2f	-0.16379999
1	0x3dc37c99	0.095452495
2	0xbe2a51d6	-0.1663278
3	0x3de9bccb	0.114129625
4	0x3d6d8bae	0.057994537
5	0x3cccb0c6	0.024986636
6	0x3e020202	0.12696078
7	0xbde5751d	-0.11203978
8	0xbc5601ac	-0.013061922
9	0xbcbb9387	-0.022897495
10	0xbd60d030	-0.054886043
11	0xbcc1377a	-0.023586024
12	0xbd67ba4b	-0.056574147
13	0x3ca0b23c	0.019616239
14	0x3d6e4aa3	0.058176648
15	0x3daee06c	0.08538899
16	0xbc6775a5	-0.01412717
17	0xbd9559f2	-0.07292546
18	0xbdd62242	-0.10455753
19	0xbe8c8998	-0.27448726
20	0xbcc9cbc8	-0.024633303
21	0xba181b94	-0.00058024493
22	0xbd8ab3b2	-0.067725554
23	0xbe5ddfcf	-0.21667407
24	0xbdb1ade3	-0.086757444
25	0xbe69500c	-0.22784442
26	0x3dbcb65c	0.0921447
27	0x3ca498dd	0.020092422
28	0x3d153b40	0.03643346
29	0x3e1e3c32	0.1545265
30	0xbdc69970	-0.09697235
31	0x3d855df2	0.06512059
32	0x3d88a995	0.0667297
33	0x3e0c83cd	0.13722153
34	0xbd9e4fd2	-0.07730068
35	0x3e521ac6	0.20518026
36	0x3c865a92	0.01640061
37	0xbd8e802c	-0.069580406
38	0xbe3ff022	-0.18743947
39	0x3d757b98	0.05993232
40	0x3e70c931	0.23514248
41	0xbdb3b678	-0.087750375
42	0xbdeb9fbd	-0.11505077
43	0x3e2bf928	0.16794264
44	0xbc370b6c	-0.011172157
45	0x3e45c8ba	0.19314852
46	0x3db3005f	0.08740305
47	0xbdc4e267	-0.09613495
48	0x3da40c0a	0.08010109
49	0x3e14dfcd	0.14538498
50	0x3db33e55	0.08752123
51	0x3e7bc66d	0.24587412
52	0x3d61a47f	0.055088516
53	0xbedd102e	-0.43176407
54	0x3e541c68	0.20713961
55	0xbdc4cc7a	-0.09609313
56	0x3d91510c	0.070955366
57	0x3e16437f	0.14674185
58	0xbd2e1a3a	-0.04250548
59	0x3cdf5741	0.027263286
60	0xbdda5c3a	-0.10662122
61	0x3ca3a33f	0.019975303
62	0xbdfecfd5	-0.124419846
63	0x3de0441a	0.10950489
64	0x3dad92d6	0.08475272
65	0x3e3fef54	0.1874364
66	0xbd3d10a4	-0.046158448
67	0xbdc266ca	-0.09492262
68	0xbe6297eb	-0.22128265
69	0x3dad821b	0.08472081
70	0xbd1116ad	-0.035422016
71	0x3d2ba249	0.041902814
72	0xbe599ed3	-0.21251993
73	0x3c6094d5	0.013707359
74	0x3de97cab	0.11400732
75	0x3dcdabea	0.10042556
76	0x3c08536b	0.00832067
77	0xbdc0703e	-0.093964085
78	0x3e5ed8ad	0.21762343
79	0xbe16f19c	-0.14740604
80	0xbe701274	-0.2344454
81	0x3e8ae9e1	0.2713156
82	0x3e0e21ea	0.13880125
83	0xbdaabaa1	-0.08336378
84	0xbdc6935b	-0.096960746
85	0x3dd3ea74	0.10347453
86	0x3a676143	0.0008826444
87	0xbd6dd53f	-0.058064695
88	0x3d4eb2be	0.05046343
89	0x3de85909	0.11345107
90	0x3d56126f	0.052263673
91	0xbd37fb19	-0.0449172
92	0xb9c66cba	-0.0003784651
93	0xbcf3f016	-0.029777568
94	0x3d51d2d4	0.051226452
95	0x3d02ab36	0.03190156
96	0x3d7c52b0	0.061602294
97	0xbaa17d3c	-0.0012320648
98	0x3d13a4bf	0.036045786
99	0xbe51de17	-0.20494877
100	0xbcfe730c	-0.031060718
101	0xbe41f216	-0.18940005
102	0xbbc05c58	-0.0058703832
103	0x3d1edcdc	0.038784847
104	0xbdeace03	-0.11465075
105	0xbdc721fd	-0.097232796
106	0xbd70a934	-0.058755115
107	0xbdc03997	-0.093859844
108	0xbdbec192	-0.09314264
109	0x3cb03667	0.021510316
110	0x3ca5d516	0.020243209
111	0xbe00b791	-0.12570025
112	0x3cfc25d5	0.030779758
113	0x3d713d1e	0.058896177
114	0x3e2c576f	0.16830228
115	0xbe2b22fe	-0.16712567
116	0x3d90de2a	0.070736244
117	0xbdbd161c	-0.09232733
118	0x3d84b3e8	0.06479627
119	0xbe49bf87	-0.19701968
120	0xbddd5d27	-0.10808783
121	0xbcfb932b	-0.030709824
122	0xbd83289b	-0.06404229
123	0x3e6580d5	0.22412427
124	0xbd3f6bc4	-0.046733633
125	0x3d390f6d	0.045180727
126	0x3de49901	0.11161996
127	0xbbcedbcb	-0.0063128225
128	0xbe4ba320	-0.19886446
129	0x3e1bbc39	0.1520852
130	0x3dc4e869	0.09614641
131	0xbe289fc0	-0.1646719
132	0x3c36e0e0	0.011162013
133	0xbd8b33af	-0.06796967
134	0xbe5dbebd	-0.21654792
135	0x3e727d14	0.23680526
136	0xbe139d1a	-0.14415398
137	0xbd643fca	-0.055724896
138	0x3e25313c	0.16132063
139	0x3c44b90c	0.012007009
140	0x3e1bc854	0.15213138
141	0x3cbcaec1	0.023032548
142	0xbca0bc30	-0.019620985
143	0x3d7c39f9	0.061578725
144	0x3c766ca6	0.015040552
145	0x3d897a9a	0.067128375
146	0xbd445c75	-0.047939736
147	0x3e6ab29f	0.22919701
148	0xbdd2431e	-0.10266708
149	0xbdd19e2a	-0.102352455
150	0x3e746751	0.23867537
151	0xbc525249	-0.012837001
152	0x3d4fe7f4	0.050758317
153	0xbdf05fda	-0.11737032
154	0x3e957b3e	0.2919559
155	0x3e1fea94	0.15616828
156	0x3e0ec7e6	0.13943443
157	0xbd5a67aa	-0.053321518
158	0xbca6c1e5	-0.020356128
159	0xbe012c5a	-0.12614575
160	0xbc82be08	-0.015959755
161	0x3e21e853	0.15811281
162	0xbe206861	-0.15664817
163	0x3d49ecb4	0.049298003
164	0x3e065164	0.13116986
165	0xbe669b3f	-0.22520159
166	0xbdb110f1	-0.086458094
167	0xbd25cfab	-0.04048125
168	0x3c82aac0	0.01595056
169	0x3db6ef13	0.089323185
170	0xbdb9d9f2	-0.09074773
171	0xbd8d0d60	-0.06887317
172	0xbd2b771f	-0.04186165
173	0xbe61f09a	-0.22064438
174	0x3d7b5b86	0.06136658
175	0x3d51f2c0	0.051256895
176	0xbc4f4478	-0.012650602
177	0xbe9b055a	-0.3027752
178	0x3e07c8d3	0.13260202
179	0xbd1f3faf	-0.038879093
180	0x3cab2000	0.020889282
181	0xbb21009b	-0.0024567011
182	0x3db041f4	0.086063296
183	0xbcb0eb8d	-0.021596694
184	0x3c642d00	0.013926744
185	0xbe41fef2	-0.1894491
186	0x3dc5e57b	0.096629106
187	0x3c0fb0a8	0.0087701455
188	0xbd52cdd2	-0.051465817
189	0x3d748c18	0.059703916
190	0x3c87691d	0.016529614
191	0xbd2c79b7	-0.042108264
192	0x3e59d151	0.21271254
193	0x3c60ca13	0.013720053
194	0xbcde0ac0	-0.027104735
195	0x3d8326cb	0.064038835
196	0x3d4c8ebb	0.049940806
197	0x3d80652f	0.06269299
198	0x3dffed4f	0.12496435
199	0xbcb55950	-0.022137314
200	0x3de27720	0.110578775
201	0x3e82bdd4	0.25535452
202	0xbda69f66	-0.081358716
203	0xbaeb9902	-0.0017974677
204	0x3db9c40d	0.09070597
205	0x3ccf6379	0.025315987
206	0x3de98c52	0.11403717
207	0xbd5c2135	-0.053742606
208	0xbdfaf8fb	-0.122545205
209	0x3bad7b2d	0.0052942247
210	0xbdbce2ce	-0.09222947
211	0x3d589772	0.052878805
212	0x3da8ecda	0.08248301
213	0x3e266bc3	0.16252045
214	0x3cbd7d54	0.02313105
215	0x3db7eab4	0.08980313
216	0x3e1e67b4	0.15469247
217	0x3e5a2fb3	0.21307258
218	0x3e4c780f	0.19967674
219	0x3d6ee373	0.05832238
220	0x3e2cbf58	0.16869867
221	0xbde1dea4	-0.110287935
222	0x3d7326ae	0.05936306
223	0xbe320f16	-0.17388567
224	0x3d7babb4	0.061443046
225	0xbdd59612	-0.10429014
226	0xbd5f3ec9	-0.054503236
227	0xbcea35d1	-0.028590115
228	0xbe0a2006	-0.13488778
229	0xbd2454f0	-0.040120065
230	0x3e004bef	0.12528966
231	0x3da0d4c4	0.07853082
232	0xbe17f95c	-0.14841217
233	0x3dcbf1f7	0.099582605
234	0xbcba7427	-0.022760464
235	0x3e3a26e3	0.18178897
236	0x3e9e6ccf	0.3094239
237	0x3e706fdb	0.2348017
238	0x3da322e8	0.07965642
239	0x3e504248	0.20337784
240	0xbd1b35c7	-0.037893083
241	0xbe145719	-0.1448635
242	0xbd020e2e	-0.031751804
243	0xbd8af590	-0.067851186
244	0x3dd74e7a	0.10513015
245	0xbe1353fa	-0.14387503
246	0x3dfdc51b	0.123911105
247	0xbdcde69d	-0.100537516
248	0x3e18a829	0.14907898
249	0xbe1d217a	-0.15344802
250	0x3d27b83e	0.04094719
251	0xbd955f80	-0.07293606
252	0xbd20f5f0	-0.039297044
253	0xbdf7afc6	-0.12094073
254	0xbd9c4468	-0.07630235
255	0x3d02d5f3	0.03194232

conv2.conv3.0.bias f4 [16]
0	0xbc48580c	-0.012228023
1	0xbd746e6a	-0.05967561
2	0x3b185959	0.0023246615
3	0x3d436b8f	0.047709998
4	0x3b350fe2	0.0027627875
5	0x3d568e45	0.052381773
6	0xbd00edb4	-0.03147669
7	0x3d85d2d9	0.065343566
8	0x3ca29e5f	0.019850908
9	0xbce565b0	-0.02800259
10	0x3d248e4b	0.040174764
11	0x3d27d56f	0.04097503
12	0xbd1254b0	-0.035725296
13	0xbc784c99	-0.015154981
14	0x3d302367	0.043002512
15	0xbd9662f9	-0.07343096

conv2.conv3.1.weight f4 [16]
0	0x3f663f96	0.89940774
1	0x3f7e11b8	0.99245787
2	0x3f8400ee	1.0312784
3	0x3f8a8ec1	1.0824815
4	0x3f802820	1.0012245
5	0x3f78375d	0.9695948
6	0x3f8822da	1.0635636
7	0x3f70f79a	0.9412781
8	0x3f84bb98	1.0369749
9	0x3f768a85	0.96305114
10	0x3f806eba	1.0033791
11	0x3f844127	1.0332383
12	0x3f7d27ca	0.9888884
13	0x3f80998c	1.0046859
14	0x3f846178	1.0342245
15	0x3f82029e	1.0157049

conv2.conv3.1.bias f4 [16]
0	0x3bc68e18	0.0060594194
1	0xbbc85b4b	-0.0061143986
2	0x3c86b3a8	0.016443089
3	0xbbd35a83	-0.006449999
4	0xbbc2a6fb	-0.005940316
5	0xbd0c8048	-0.034302026
6	0x3d60c508	0.054875404
7	0x3d8042e9	0.06262762
8	0xbca4ccc4	-0.020117171
9	0xbb618670	-0.0034412406
10	0x3cbd88ef	0.023136584
11	0x3c134a00	0.008989811
12	0x3d4b7d5f	0.04968011
13	0x3cde05d9	0.027102398
14	0x3ca6a7ae	0.020343628
15	0xbbbd7378	-0.005781587

conv2.conv3.1.running_mean f4 [16]
0	0xbe1bdd63	-0.15221171
1	0x3f296be3	0.6618025
2	0x3eb04847	0.34430143
3	0xbf1bfd6c	-0.60933566
4	0xbe5c9625	-0.2154165
5	0xbded4b88	-0.11586672
6	0xbef7e808	-0.48419213
7	0xbf8ca526	-1.0987899
8	0xbec3736d	-0.38174
9	0xbf83fcc9	-1.0311519
10	0x3ebeff89	0.37304333
11	0x3f1dcfbf	0.6164512
12	0xbeb04e97	-0.3443496
13	0xbf7b0e27	-0.9806847
14	0xbe4b0403	-0.19825749
15	0x3f072321	0.5278798

conv2.conv3.1.running_var f4 [16]
0	0x3f87a307	1.0596627
1	0x3fd7f963	1.6872982
2	0x3fac6916	1.346957
3	0x3fe8e850	1.8195896
4	0x3fdb2793	1.7121452
5	0x4001697f	2.022064
6	0x3fe568f0	1.7922649
7	0x3f8481bf	1.0352095
8	0x4009ea0c	2.15491
9	0x3f906f7d	1.1284024
10	0x3fada1e3	1.3565029
11	0x401803cd	2.375232
12	0x3fb0254f	1.3761386
13	0x3f5746ea	0.8409258
14	0x3fa6cf12	1.3031943
15	0x3fb4f970	1.4138622
