checkpoints/ifind1_sononet_8_6classes/006_net_6classes_new_emb001.pth (torch_old, 671819 bytes, 90 tensors)

conv1.conv1.0.weight f4 [8, 1, 3, 3]
-0.18841736 0.82042474 0.42510867 0.23431054 -0.43406633 0.5691547 -0.12021859 0.37118053
-0.63393795 0.5293888 0.59211123 -0.47428405 0.61123306 0.76601046 -0.77142775 -0.16087992
0.81872475 0.29732448 0.7863681 -0.76052773 -0.18977296 0.015788311 0.08590515 -0.0065532234
-0.7570748 -0.08385828 1.2962221 0.6010347 0.65604436 1.0566142 -0.65782326 -0.4776204
-0.015438284 -0.5941427 -0.72769076 0.0058329143 0.12961031 0.064515844 -1.131387 -0.42451787
-0.07292695 0.39819464 0.40369347 0.06575336 0.7405315 -0.16207272 0.2608568 0.5387813
-0.43015918 -0.49674562 0.06040174 -0.27647662 0.20115256 0.8274159 -0.5918078 0.5417155
0.12570867 0.10000482 -0.13788165 0.027435452 0.7084034 -0.366245 0.00051586464 -0.2355313
-0.31478885 0.7328398 0.014063076 -0.6992646 -0.53597283 0.02119623 -0.57902646 0.8872442
00000000: 7bf0 40be 5b07 523f d8a7 d93e 1aef 6f3e
00000010: f13d debe 1fb4 113f 2a35 f6bd 600b be3e
00000020: c249 22bf 0686 073f 9a94 173f 5cd5 f2be
00000030: c579 1c3f 4319 443f 4a7c 45bf b5bd 24be
00000040: f297 513f ea3a 983e 6b4f 493f f2b1 42bf
00000050: d853 42be 7d56 813c 0aef af3d 6cbc d6bb
00000060: a7cf 41bf e4bd abbd 9bea a53f 69dd 193f
00000070: 86f2 273f 223f 873f 1b67 28bf a98a f4be
00000080: dbf0 7cbc bc19 18bf f149 3abf 0822 bf3b
00000090: 91b8 043e e220 843d 4ad1 90bf 685a d9be
000000a0: ba5a 95bd 2be0 cb3e e9b0 ce3e b3a9 863d
000000b0: 7993 3d3f 64f6 25be 068f 853e 92ed 093f
000000c0: d33d dcbe 7155 febe d167 773d 588e 8dbe
000000d0: f0fa 4d3e 87d1 533f b780 17bf dead 0a3f
000000e0: c6b9 003e 54cf cc3d d930 0dbe 50c0 e03c
000000f0: ed59 353f 7784 bbbe 173b 073a 1e2f 71be
00000100: 012c a1be 649b 3b3f d168 663c 0103 33bf
00000110: 8435 09bf b7a3 ad3c 143b 14bf 7022 633f

conv1.conv1.0.bias f4 [8]
0.3207257 -0.2750452 -0.3305873 -0.26074135 -0.22418219 0.13495065 0.1193433 0.27691758
00000000: 2936 a43e b9d2 8cbe bd42 a9be e47f 85be
00000010: 0490 65be 8130 0a3e 436a f43d 24c8 8d3e

conv1.conv1.1.weight f4 [8]
0.93258214 0.93793654 1.0203823 1.3002812 0.9831214 1.0304323 0.7797623 0.89923245
00000000: b4bd 6e3f 9c1c 703f e39b 823f 9d6f a63f
00000010: d8ad 7b3f 35e5 833f 819e 473f 1934 663f

conv1.conv1.1.bias f4 [8]
0.35105708 -0.19413514 0.48594335 0.38504598 0.24319379 0.45647433 -0.038005352 -0.028033605
00000000: c1bd b33e 5dcb 46be 91cd f83e bf24 c53e
00000010: cb07 793e 01b7 e93e 80ab 1bbd bba6 e5bc

conv1.conv1.1.running_mean f4 [8]
0.32133737 -0.27481642 -0.32875714 -0.25985092 -0.22405507 0.13604687 0.119958654 0.27836776
00000000: 5586 a43e bdb4 8cbe db52 a8be 2e0b 85be
00000010: b16e 65be df4f 0b3e e2ac f53d 3886 8e3e

conv1.conv1.1.running_var f4 [8]
1.1444465 4.751527 0.22960176 0.6806371 0.22758375 0.30562708 0.1655229 0.58531517
00000000: 397d 923f 820c 9840 b91c 6b3e 3c3e 2e3f
00000010: b70b 693e 277b 9c3e d67e 293e 37d7 153f

conv1.conv2.0.weight f4 [8, 8, 3, 3]
0.022093132 0.36638638 0.020069439 -0.042481374 0.15993817 -0.068540365 0.0105783185 0.20752348
-0.13245448 -0.26105848 0.23012812 0.25066364 -0.14758414 0.13304155 0.1315014 -0.23715627
-0.24112624 -0.121474236 0.04265237 -0.35753512 -0.16458 -0.48389256 -0.2011237 -0.03254563
-0.13859752 0.4004184 0.30351675 0.090006284 -0.16169333 0.1736286 -0.021236008 -0.11478066
-0.0687039 0.18828852 0.32510468 -0.07469879 0.18448141 -0.024833074 0.02558041 -0.14050393
-0.053660054 -0.03845123 -0.22812536 0.13540454 0.21325766 0.29931659 0.07814342 -0.18703033
-0.35030314 -0.14501892 -0.08537057 0.56400454 0.08607208 0.2974106 -0.17627382 0.0428877
0.21013458 0.16216694 0.057298295 -0.1335784 0.042388882 0.017758103 -0.2751209 -0.28013584
-0.3262259 0.09371423 -0.10186661 -0.1008872 -0.15073438 -0.084101506 -0.25580993 -0.13142788
0.2688188 -0.07992785 0.18027367 0.08909382 0.1207868 0.35416496 0.25895572 0.41647595
0.119931586 0.07806713 0.28791586 0.32447162 -0.1613715 -0.021522246 -0.025458772 -0.12522697
-0.33401883 -0.15631907 -0.009188102 0.00508751 0.4711638 0.057432402 0.1593616 0.43927616
0.16126785 0.056355815 -0.09374502 -0.40060404 -0.2871294 -0.009996851 0.06801392 -0.030370105
0.27880794 0.14167263 0.0033061109 0.27032915 -0.13673806 -0.1627183 0.17629261 0.01680219
-0.17252949 -0.14339195 0.0051601967 -0.031430054 -0.33825824 -0.101137504 0.54248774 0.58089894
-0.23073241 0.11599416 0.16776739 -0.011857811 0.15745227 -0.044470258 -0.115335666 0.2427276
0.12239142 -0.16941497 0.04457127 0.06117673 -0.09487274 -0.042387806 -0.0060711326 -0.19039346
-0.15032575 -0.012290923 -0.06371571 0.22976963 -0.097921915 0.033108957 -0.06504774 0.13166155
-0.24429739 -0.023720006 -0.001973434 0.020448878 0.19157876 -0.20678686 0.12879597 -0.06950524
-0.042091414 -0.30284542 -0.081471294 0.07465504 0.047276627 0.17876326 0.16076651 -0.1414639
0.048345752 0.31404203 0.07081823 0.3319507 0.0978575 -0.07066957 0.14371122 -0.38134983
-0.24260084 0.011138597 0.16555303 -0.10456479 -0.2588754 -0.032386728 -0.041780856 -0.015009027
-0.002450447 -0.3370419 0.007984389 0.0034313295 0.12617765 0.28994977 0.12277094 0.14472629
-0.04721625 0.119726166 0.0793311 -0.08239618 0.2514825 0.019087631 -0.12469168 0.014158055
0.090287074 0.036642663 0.18484439 0.64758015 0.20245908 0.21788277 0.045003384 -0.1917605
0.06433705 0.05232497 -0.040192 0.06540777 0.2524373 -0.076290384 0.047107335 -0.10169996
0.011461228 -0.0006941567 0.14463918 0.111959316 0.0063574505 -0.12193421 -0.049738288 0.1393387
-0.036392644 0.08820861 0.031894375 0.07768891 0.01843733 0.044847555 -0.068367526 0.20773491
-0.0005931482 -0.030148095 -0.044327058 0.00066249724 -0.041706223 -0.018066637 0.050297216 -0.014908431
-0.13509925 0.15573344 0.20854884 -0.09455026 -0.16285318 0.2061767 0.008342647 0.23268923
-0.04918133 -0.09585793 -0.03147481 0.059033785 -0.03417481 0.13610278 -0.1103282 0.09789873
0.15533313 -0.008479022 -0.15943186 -0.13019529 0.35529926 0.33613762 0.07299326 0.056849726
00000000: a8fc b43c ff96 bb3e aa68 a43c f300 2ebd
00000010: d5c6 233e e45e 8cbd af50 2d3c 0981 543e
00000020: 26a2 07be 75a9 85be b5a6 6b3e fc56 803e
00000030: 4c20 17be 0b3c 083e 4ea8 063e 18d9 72be
00000040: cce9 76be 7cc7 f8bd 40b4 2e3d d80e b7be
00000050: a987 28be c4c0 f7be 5ff3 4dbe 914e 05bd
00000060: 82ec 0dbe a403 cd3e 8c66 9b3e 3755 b83d
00000070: f092 25be b2cb 313e 23f7 adbc 1f12 ebbd
00000080: a1b4 8cbd b5ce 403e 1f74 a63e aefb 98bd
00000090: b2e8 3c3e bb6e cbbc 028e d13c 43e0 0fbe
000000a0: a5ca 5bbd 097f 1dbd b299 69be 7da7 0a3e
000000b0: 3760 5a3e 0640 993e a809 a03d e184 3fbe
000000c0: ef5a b3be d77f 14be c4d6 aebd 9a62 103f
000000d0: 8f46 b03d 3446 983e 2081 34be 03ab 2f3d
000000e0: 852d 573e 170f 263e 9eb1 6a3d c7c8 08be
000000f0: f79f 2d3d 7179 913c a6dc 8cbe f76d 8fbe
00000100: 1507 a7be 3fed bf3d 719f d0bd f39d cebd
00000110: 1d5a 1abe 693d acbd 85f9 82be 0895 06be
00000120: 9ea2 893e 36b1 a3bd a999 383e d276 b63d
00000130: 125f f73d 1c55 b53e d895 843e 563c d53e
00000140: b19e f53d a9e1 9f3d b569 933e 2521 a63e
00000150: 923e 25be 6c4f b0bc ea8e d0bc 803b 00be
00000160: 8404 abbe 1b12 20be b189 16bc 21b5 a63b
00000170: 623c f13e 3d3e 6b3d b02f 233e cee8 e03e
00000180: 6623 253e 5bd5 663d 64fd bfbd f91b cdbe
00000190: a002 93be d5c9 23bc e24a 8b3d baca f8bc
000001a0: eabf 8e3e a112 113e 56ab 583b 9568 8a3e
000001b0: 1005 0cbe a09f 26be 0d86 343e bfa4 893c
000001c0: 92ab 30be 57d5 12be de16 a93b cdbc 00bd
000001d0: 2f30 adbe 2e21 cfbd 7ae0 0a3f cbb5 143f
000001e0: 1e45 6cbe 598e ed3d 37cb 2b3e 4447 42bc
000001f0: 2b3b 213e 7226 36bd 1b35 ecbd 958d 783e
00000200: 5aa8 fa3d 1e7b 2dbe 5d90 363d 7394 7a3d
00000210: a44c c2bd d69e 2dbd 5af0 c6bb 81f6 42be
00000220: feee 19be de5f 49bc 627d 82bd bb48 6b3e
00000230: 498b c8bd 429d 073d c037 85bd 49d2 063e
00000240: 1829 7abe 7550 c2bc ba54 01bb 6884 a73c
00000250: 392d 443e efbf 53be 17e3 033e c358 8ebd
00000260: 0c68 2cbd 8e0e 9bbe 6cda a6bd bee4 983d
00000270: 23a5 413d b70d 373e fa9f 243e eadb 10be
00000280: 3206 463d 1eca a03e 2609 913d 71f5 a93e
00000290: 8369 c83d 35bb 90bd 0929 133e 4940 c3be
000002a0: 5b6c 78be a97e 363c bc86 293e 1126 d6bd
000002b0: 518b 84be f2a7 04bd 6722 2bbd 6ce8 75bc
000002c0: ae97 20bb c290 acbe f4d0 023c 28e0 603b
000002d0: b734 013e 4c74 943e 556f fb3d 2133 143e
000002e0: d465 41bd fe32 f53d 5878 a23d 54bf a8bd
000002f0: 50c2 803e aa5d 9c3c 5a5e ffbd 30f7 673c
00000300: 6ee8 b83d 9e16 163d d947 3d3e d0c7 253f
00000310: 6f51 4f3e a91c 5f3e 7855 383d dd5c 44be
00000320: 25c3 833d b552 563d 5ea0 24bd 82f4 853d
00000330: 763f 813e 223e 9cbd 9ff3 403d 1248 d0bd
00000340: e0c7 3b3c 11f8 35ba 4b1c 143e ed4a e53d
00000350: 2952 d03b a5b8 f9bd 60ba 4bbd ceae 0e3e
00000360: 7410 15bd b7a6 b43d ada3 023d 5d1b 9f3d
00000370: e209 973c 12b2 373d 4604 8cbd 76b8 543e
00000380: 807d 1bba 23f9 f6bc 4a90 35bd 70ab 2d3a
00000390: 25d4 2abd 7c00 94bc 7404 4e3d 7e42 74bc
000003a0: 7557 0abe 9678 1f3e d48d 553e 91a3 c1bd
000003b0: fcc2 26be fc1f 533e 99af 083c 1646 6e3e
000003c0: 5d72 49bd 2a51 c4bd bbeb 00bd 69cd 713d
000003d0: e3fa 0bbd 875e 0b3e c0f3 e1bd 217f c83d
000003e0: a60f 1f3e 99eb 0abc 1b42 23be ea51 05be
000003f0: c9e9 b53e 3b1a ac3e 7e7d 953d 42db 683d

conv1.conv2.0.bias f4 [8]
-0.019406522 -0.06707449 -0.019052098 0.09556325 -0.08746038 0.026738727 -0.115793645 0.061768528
00000000: 6dfa 9ebc 5a5e 89bd 2513 9cbc aab6 c33d
00000010: 6d1e b3bd 2d0b db3c 3825 edbd ff00 7d3d

conv1.conv2.1.weight f4 [8]
1.0129596 0.8598175 0.85401964 0.7645864 0.99801826 1.080026 0.98045456 1.4131969
00000000: a9a8 813f 001d 5c3f 08a1 5a3f efbb 433f
00000010: 207e 7f3f 4b3e 8a3f 12ff 7a3f a3e3 b43f

conv1.conv2.1.bias f4 [8]
0.06408012 -0.08644511 -0.027817192 -0.062347356 0.25429386 -0.073876746 -0.09625586 0.5242518
00000000: 703c 833d 220a b1bd e1e0 e3bc f15f 7fbd
00000010: ce32 823e b14c 97bd cb21 c5bd 5e35 063f

conv1.conv2.1.running_mean f4 [8]
-0.11712948 1.9929103 0.8307404 1.5111781 0.3999268 -1.8934923 -0.22563083 -0.4496222
00000000: 95e1 efbd af17 ff3f 67ab 543f 496e c13f
00000010: 35c3 cc3e f55d f2bf c50b 67be e234 e6be

conv1.conv2.1.running_var f4 [8]
1.1476839 9.55564 3.50795 3.2332387 3.3851023 7.9870005 3.4053237 1.7952901
00000000: 4ee7 923f e7e3 1841 4182 6040 62ed 4e40
00000010: 84a5 5840 8295 ff40 d3f0 5940 11cc e53f

conv1.conv3.0.weight f4 [8, 8, 3, 3]
-0.08181407 -0.15056092 0.009092442 0.24573563 0.03161472 0.09710614 -0.22370575 0.05758873
0.07838402 -0.29217097 0.22758305 0.49743044 -0.16858746 -0.08037631 0.020222953 0.088427104
0.15048113 -0.14392291 -0.28054902 0.04635243 0.07130732 -0.22333619 -0.00086236565 0.27353278
-0.2775327 0.16795112 -0.16957764 -0.52129 0.03407547 0.15413037 -0.06264588 -0.11738992
0.22790307 0.08820166 0.001328765 0.06482133 -0.09509073 0.24962035 0.5130719 0.21566366
0.32860366 0.23713127 -0.06089914 -0.049255762 0.23552884 -0.17186837 0.013614257 -0.33719105
0.082479864 0.09264327 0.20306866 0.10614563 -0.25279814 0.016865805 -0.16899118 0.031397488
0.18799727 -0.16857359 -0.058125306 0.27508676 -0.08718625 -0.15920313 -0.19514525 0.008690174
-0.055230014 -0.08455687 0.09619835 0.083951704 -0.26395553 0.18128201 -0.14648512 -0.028386967
-0.1644108 -0.20913082 0.06422976 0.15800254 0.15973099 0.28347674 0.018560186 0.26321146
-0.015222799 0.32529926 -0.044194236 0.013786396 -0.059157893 0.010778827 0.15679714 0.19256873
0.080657855 0.24613145 0.19187208 -0.030767595 0.21120839 -0.31199482 -0.06942388 0.032048795
0.09797281 -0.18342602 0.0069183186 0.12911917 0.114544965 -0.02989809 -0.07204815 0.28042004
-0.2851219 0.15600148 -0.13897249 -0.08905173 0.2744801 0.42445517 0.088878885 -0.034794483
-0.18825169 0.107519075 -0.054722477 0.06909485 0.25732443 -0.21369895 0.012338499 0.060902186
-0.030096466 0.10761766 0.22799453 -0.020534232 -0.2065933 -0.107837975 0.07434611 -0.058035966
-0.15219234 -0.11071882 -0.053506225 -0.009767717 -0.13698062 -0.14431132 0.049028523 0.02324755
-0.063790165 -0.29116762 -0.23424906 -0.25718474 0.21638493 -0.12846522 0.01252408 -0.09691992
-0.06321031 -0.2397395 0.16705601 -0.0031383687 -0.12771155 -0.09362151 0.053583927 0.24220818
-0.06881738 -0.16791004 0.052560505 -0.10544466 -0.09959911 0.25411078 0.26702455 -0.3362768
0.26831627 -0.031585153 0.09891855 -0.26850766 0.00087956176 -0.19974016 -0.1826809 0.2282467
-0.2464072 0.09399223 -0.16911058 0.039739423 0.118939005 -0.174797 -0.16773859 -0.035119068
-0.015724167 -0.062639825 0.006948451 -0.11205547 0.10965554 0.034716923 -0.17988254 -0.09530324
-0.15526576 -0.4422219 0.06683814 0.14153348 -0.1002421 0.24549915 -0.30505753 0.1040888
-0.018719366 -0.11696677 0.4790748 0.012596304 0.013081387 0.062054258 -0.19544926 -0.005959295
0.092821136 -0.47402084 -0.1220771 0.025360206 -0.09219596 -0.13224481 -0.47849408 -0.20474899
-0.65129095 0.01621611 -0.08682262 0.30755427 0.31680194 0.111040875 0.053585514 0.5598176
-0.13700964 -0.064204246 0.1292169 0.3028652 -0.144709 -0.14092399 0.28585947 -0.109215766
0.2888051 0.08960468 -0.096338056 -0.047029816 -0.3124611 0.28087357 -0.23199758 0.28045282
0.06167678 -0.16582501 0.2904166 -0.060860835 -0.06976669 0.31830382 0.1729165 0.24281108
0.18742867 0.19824441 0.13623327 0.057681963 0.077814296 -0.21930398 0.22430266 -0.09807866
0.10582311 0.45233664 0.21752153 0.025290629 0.05939598 0.100101165 -0.066430174 0.03913217
00000000: 238e a7bd a42c 1abe 77f8 143c 1fa2 7b3e
00000010: 707e 013d 95df c63d 1f13 65be 29e2 6b3d
00000020: cd87 a03d 6f97 95be 880b 693e 34af fe3e
00000030: 31a2 2cbe 569c a4bd 9baa a53c 4519 b53d
00000040: ba17 1a3e 8760 13be 1fa4 8fbe 0cdc 3d3d
00000050: 9209 923d 3eb2 64be 6110 62ba 7d0c 8c3e
00000060: c418 8ebe 61fb 2b3e c3a5 2dbe 4373 05bf
00000070: b892 0b3d 5ad4 1d3e 7c4c 80bd 206a f0bd
00000080: 6c5f 693e 12a3 b43d f429 ae3a 0cc1 843d
00000090: eebe c2bd 7a9c 7f3e ae58 033f efd6 5c3e
000000a0: bd3e a83e 8ad2 723e 6071 79bd 69c0 49bd
000000b0: 792e 713e 43fe 2fbe 550e 5f3c 4ea4 acbe
000000c0: 34eb a83d c1bb bd3d 3bf1 4f3e e162 d93d
000000d0: c26e 81be 282a 8a3c 060c 2dbe a79a 003d
000000e0: 5b82 403e 8e9e 2cbe cd14 6ebd 2cd8 8c3e
000000f0: b48e b2bd 2506 23be 28d4 47be 3b61 0e3c
00000100: de38 62bd 272c adbd a403 c53d dfee ab3d
00000110: 2e25 87be fea1 393e 3200 16be c98b e8bc
00000120: 4e5b 28be 6426 56be e48a 833d 6bcb 213e
00000130: 8590 233e dd23 913e 880b 983c a7c3 863e
00000140: 0c69 79bc a08d a63e 0405 35bd 56e0 613c
00000150: 8c4f 72bd ad99 303c 6e8f 203e bd30 453e
00000160: f22f a53d e209 7c3e 1d7a 443e 530c fcbc
00000170: 0347 583e c9bd 9fbe 1b2e 8ebd 9945 033d
00000180: f8a5 c83d 08d4 3bbe 10b3 e23b d137 043e
00000190: 8d96 ea3d d7ec f4bc fb8d 93bd 3793 8f3e
000001a0: 7ffb 91be dabe 1f3e ce4e 0ebe c160 b6bd
000001b0: a888 8c3e 3052 d93e 2206 b63d a984 0ebd
000001c0: 0dc5 40be f632 dc3d ad24 60bd 9a81 8d3d
000001d0: 07c0 833e e6d3 5abe 6a27 4a3c 9274 793d
000001e0: dd8c f6bc a666 dc3d 6677 693e 6837 a8bc
000001f0: 328d 53be 28da dcbd c642 983d 1fb7 6dbd
00000200: 4fd8 1bbe 8cc0 e2bd 5829 5bbd c608 20bc
00000210: a644 0cbe 59c6 13be 22d2 483d a571 be3c
00000220: 6ba4 82bd ec13 95be fcde 6fbe b8ad 83be
00000230: 0394 5d3e 638c 03be cd31 4d3c f37d c6bd
00000240: 6874 81bd 467e 75be bb10 2b3e 17ad 4dbb
00000250: d1c6 02be a2bc bfbd d27a 5b3d 6c05 783e
00000260: 20f0 8cbd 9cf0 2bbe af49 573d 5ff3 d7bd
00000270: 9efa cbbd cf1a 823e 71b7 883e 792c acbe
00000280: c060 893e 6f5f 01bd cf95 ca3d d679 89be
00000290: 6492 663a af88 4cbe b410 3bbe 81b9 693e
000002a0: 2b52 7cbe 007f c03d 532b 2dbe cec5 223d
000002b0: 4b96 f33d fcfd 32be aac3 2bbe 03d9 0fbd
000002c0: f8cf 80bc 4f49 80bd d5af e33b 577d e5bd
000002d0: 1593 e03d 5533 0e3d 2133 38be 582e c3bd
000002e0: fdfd 1ebe e96a e2be 6fe2 883d 27ee 103e
000002f0: bb4b cdbd 2164 7b3e 8030 9cbe 822c d53d
00000300: 5b59 99bc 468c efbd 4b49 f53e ba60 4e3c
00000310: 5053 563c 9b2c 7e3d da23 48be 3146 c3bb
00000320: 0219 be3d dcb2 f2be 8f03 fabd 35c0 cf3c
00000330: 3cd1 bcbd 2f6b 07be 2dfd f4be b8a9 51be
00000340: 01bb 26bf a6d7 843c 0fd0 b1bd c177 9d3e
00000350: dd33 a23e 6669 e33d 7c7c 5b3d 3550 0f3f
00000360: 414c 0cbe 847d 83bd 6f51 043e 2611 9b3e
00000370: 992e 14be 614e 10be 2c5c 923e 84ac dfbd
00000380: 43de 933e a982 b73d e34c c5bd 56a2 40bd
00000390: e7fa 9fbe a9ce 8f3e c690 6dbe 8397 8f3e
000003a0: cba0 7c3d 08ce 29be 7cb1 943e 3649 79bd
000003b0: d7e1 8ebd b8f8 a23e 0611 313e 78a3 783e
000003c0: 4ded 3f3e 9500 4b3e bc80 0b3e ec43 6c3d
000003d0: 1a5d 9f3d 3991 60be 99af 653e 77dd c8bd
000003e0: c9b9 d83d ab98 e73e f7bd 5e3e 4b2e cf3c
000003f0: 3349 733d d701 cd3d 8b0c 88bd 0e49 203d

conv1.conv3.0.bias f4 [8]
-0.061875597 -0.004272342 0.021996178 -0.031295117 0.08030833 0.012849577 -0.10886933 -0.012762419
00000000: 4471 7dbd 01ff 8bbb 5431 b43c 4f2f 00bd
00000010: b278 a43d 0887 523c e2f6 debd 7719 51bc

conv1.conv3.1.weight f4 [8]
1.058369 0.7865653 1.1611718 0.86418766 1.3645772 1.0850194 0.81866443 1.0319514
00000000: a378 873f 585c 493f 47a1 943f 673b 5d3f
00000010: 77aa ae3f eae1 8a3f fe93 513f fc16 843f

conv1.conv3.1.bias f4 [8]
-0.0044900593 -0.090133645 0.23057339 0.044590287 -0.057003364 0.2957301 -0.078703545 0.085921384
00000000: 5921 93bb fd97 b8bd 6e1b 6c3e 4ea4 363d
00000010: 5c7c 69bd f069 973e 532f a1bd 8df7 af3d

conv1.conv3.1.running_mean f4 [8]
0.20851728 -0.0065757157 -0.53363997 0.8442095 -0.14565346 -1.281233 -1.070755 -0.15387736
00000000: 8e85 553e 1a79 d7bb a19c 08bf 1d1e 583f
00000010: 2e26 15be 71ff a3bf 800e 89bf 0792 1dbe

conv1.conv3.1.running_var f4 [8]
1.8687494 2.941438 2.004994 4.864602 3.5559192 2.4083986 1.4905546 2.1229897
00000000: 2e33 ef3f 8540 3c40 d251 0040 d2aa 9b40
00000010: 2e94 6340 3423 1a40 7eca be3f 10df 0740

conv2.conv1.0.weight f4 [16, 8, 3, 3]
-0.002497814 -0.21761872 -0.017537715 -0.19381869 -0.25168765 -0.15954597 0.07756719 0.0357993
0.10889794 -0.10627007 0.014395586 -0.3249328 0.023765476 -0.06865303 0.18886977 -0.2918351
0.014061114 -0.29869574 0.08008954 0.15337025 -0.08624867 -0.32277137 0.29493406 -0.20556098
0.06580774 0.15731512 0.090927325 0.20448583 0.061051358 -0.25957254 0.060107592 -0.06928586
-0.006644088 0.0033385854 -0.067832515 0.10345707 0.05244135 0.17425168 0.26746586 -0.0026366455
0.32854655 0.1098717 -0.0064145126 -0.020993792 -0.018815434 -0.00017021297 -0.15068366 -0.16475631
0.024971861 -0.34026694 0.0021410119 -0.15302417 -0.040992253 -0.45640552 -0.13554913 -0.2583056
-0.057697855 0.26480955 -0.0077863494 0.19963911 -0.014705565 -0.028675789 0.24413787 -0.2958479
-0.21910505 -0.026009923 -0.2636056 0.101453975 0.22059704 0.15925084 0.15457247 -0.014497509
-0.012696875 0.2604923 -0.0065655857 0.39665717 0.070063524 -0.12276153 -0.018508088 0.010241596
-0.034187455 0.15917139 -0.12518163 -0.054607447 0.19897832 -0.52844095 -0.1794707 0.43538406
-0.041028835 0.06708783 -0.267974 0.12694678 0.09861714 -0.056810036 0.14909318 -0.19019742
-0.2551743 -0.08086841 -0.027378503 -0.013103188 0.010391782 -0.13474056 -0.23504108 -0.03291004
-0.38306588 0.1293757 -0.034826692 -0.15955219 -0.39707252 -0.065818295 -0.12274483 0.10434111
0.034458064 0.1449489 0.19623014 -0.024686098 0.2142708 -0.09161675 0.2659103 -0.19672723
-0.23074584 -0.18823113 -0.12830101 -0.14992777 -0.17253411 0.19814596 -0.21073844 0.07479913
0.14106214 -0.13915306 -0.09216493 0.26730815 -0.20312576 0.1817506 -0.28721878 -0.38805524
-0.13137218 0.15012586 -0.16831185 -0.0047513596 -0.032731246 -0.12355063 -0.0020619973 0.029841801
-0.034624055 -0.38168213 0.06473182 0.14996678 -0.017129956 0.08579336 -0.13512376 0.25883543
0.10592823 -0.20623402 0.085092954 0.20578176 0.29747298 0.031014208 0.04515115 -0.07799446
-0.12958893 0.07528382 0.029435998 0.1826281 -0.045077015 -0.25986892 0.3727054 -0.1780075
-0.17761151 0.1270158 -0.12576155 -0.14728448 -0.39266387 -0.07389019 0.025598343 0.10363989
0.13413675 -0.019372273 -0.10705887 0.38778934 0.22444691 0.15103188 0.060316704 0.32509357
0.07572743 -0.12569304 -0.09113933 -0.34303623 -0.033821307 -0.007982672 -0.2042522 0.053236432
-0.11907837 0.10318201 0.19325526 0.15143828 0.35189992 0.030330082 -0.115760274 -0.16408765
-0.2756504 -0.11563766 -0.004887978 0.043489583 0.014668243 -0.025374854 0.019569552 0.24397162
0.1581597 -0.50911874 0.12387324 -0.0078054713 0.16699736 -0.02483566 -0.07586157 0.48914066
0.24514917 0.047513824 0.093952626 -0.11369528 -0.026427895 0.09981985 -0.28626087 0.010034104
0.21944262 -0.07758747 0.042549495 -0.1756411 -0.15908328 0.022518909 0.10717601 -0.38504836
-0.08010162 -0.052634194 -0.036168065 0.167532 0.20263234 0.37804854 0.280789 -0.061989687
-0.16513005 0.013118294 -0.2570464 -0.23582998 -0.019934855 0.2270733 -0.23135912 -0.1780532
-0.263876 0.27995497 0.070904784 0.011910865 0.046847995 -0.06981691 -0.32687306 -0.013717681
00000000: 5db2 23bb 71d7 5ebe 41ab 8fbc 6878 46be
00000010: 34dd 80be 0560 23be 8cdb 9e3d 49a2 123d
00000020: e205 df3d 1fa4 d9bd 77db 6b3c 985d a6be
00000030: d1af c23c f699 8cbd 1467 413e 696b 95be
00000040: 9660 663c a6ee 98be fc05 a43d 170d 1d3e
00000050: 25a3 b0bd 4a42 a5be 9901 973e 947e 52be
00000060: 35c6 863d 3717 213e 1b38 ba3d bc64 513e
00000070: fd10 7a3d b1e6 84be 6133 763d bfe5 8dbd
00000080: a6b6 d9bb 2bcc 5a3b c6eb 8abd 4de1 d33d
00000090: becc 563d 086f 323e 49f1 883e 92cb 2cbb
000000a0: 4137 a83e 6a04 e13d d530 d2bb 2cfb abbc
000000b0: d322 9abc 327b 32b9 d14c 1abe e1b5 28be
000000c0: ca91 cc3c 7837 aebe 3850 0c3b 5eb2 1cbe
000000d0: 7ee7 27bd fcad e9be 64cd 0abe a240 84be
000000e0: 9654 6cbd 1e95 873e a224 ffbb 326e 4c3e
000000f0: 9cef 70bc 7de9 eabc 47ff 793e 6079 97be
00000100: 135d 60be c312 d5bc 50f7 86be 1ac7 cf3d
00000110: 31e4 613e a712 233e 3f48 1e3e f686 6dbc
00000120: 8e06 50bc 3f5f 853e 2024 d7bb a616 cb3e
00000130: 777d 8f3d 666a fbbd 469e 97bc 5ecc 273c
00000140: 2508 0cbd d3fd 223e 9d2f 00be 0fac 5fbd
00000150: f9c0 4b3e e847 07bf 2bc7 37be a9ea de3e
00000160: da0d 28bd 5865 893d e333 89be 56fe 013e
00000170: c8f7 c93d a4b1 68bd e2ab 183e 1dc3 42be
00000180: 35a6 82be 569e a5bd e248 e0bc c1ae 56bc
00000190: 4b42 2a3c 6ef9 09be 9cae 70be aecc 06bd
000001a0: 3621 c4be 107b 043e 6fa6 0ebd a661 23be
000001b0: 174d cbbe becb 86bd a461 fbbd cbb0 d53d
000001c0: e623 0d3d 7c6d 143e 8ef0 483e 803a cabc
000001d0: ce69 5b3e 90a1 bbbd 6525 883e dd72 49be
000001e0: a348 6cbe a9bf 40be 5761 03be aa86 19be
000001f0: c8ac 30be c6e6 4a3e d1cb 57be 4930 993d
00000200: 9872 103e 247e 0ebe f8c0 bcbd 9ddc 883e
00000210: 3300 50be d41c 3a3e 570e 93be 2daf c6be
00000220: 6e86 06be 98ba 193e f159 2cbe 4bb1 9bbb
00000230: 3311 06bd 1d08 fdbd 9322 07bb cb76 f43c
00000240: f4d1 0dbd d76b c3be 1e92 843d e490 193e
00000250: 1f54 8cbc 6eb4 af3d e25d 0abe 1486 843e
00000260: e6f0 d83d 032f 53be 3745 ae3d 74b8 523e
00000270: 614e 983e 8211 fe3c 6af0 383d 8fbb 9fbd
00000280: f6b2 04be 672e 9a3d c323 f13c dc02 3b3e
00000290: ada2 38bd 8a0d 85be 3ed3 be3e 9947 36be
000002a0: cbdf 35be 6e10 023e a3c7 00be bed1 16be
000002b0: 3d0b c9be bd53 97bd 9eb3 d13c 2741 d43d
000002c0: 255b 093e 9ab2 9ebc ae41 dbbd 538c c63e
000002d0: 69d5 653e 1aa8 1a3e a60e 773d aa72 a63e
000002e0: fc16 9b3d adb5 00be 42a7 babd 72a2 afbe
000002f0: 3688 0abd c1c9 02bc 7d27 51be 720e 5a3d
00000300: 5cdf f3bd 1751 d33d b5e4 453e a312 1b3e
00000310: 3a2c b43e cb76 f83c b913 edbd 9806 28be
00000320: 0d22 8dbe 70d3 ecbd 552b a0bb 2222 323d
00000330: 1253 703c edde cfbc 5350 a03c b2d3 793e
00000340: 9ef4 213e 9b55 02bf 41b1 fd3d 0ac5 ffbb
00000350: 5b01 2b3e 2774 cbbc 505d 9bbd a570 fa3e
00000360: 6208 7b3e db9d 423d 3c6a c03d 12d9 e8bd
00000370: 507f d8bc 596e cc3d c990 92be 1566 243c
00000380: 91b5 603e 2ee6 9ebd 6148 2e3d 43db 33be
00000390: bae6 22be 9379 b83c 197f db3d 0f25 c5be
000003a0: 510c a4bd f496 57bd f724 14bd 828d 2b3e
000003b0: da7e 4f3e 948f c13e 93c3 8f3e e6e8 7dbd
000003c0: da17 29be 1dee 563c 969b 83be 6a7d 71be
000003d0: 6c4e a3bc e785 683e 68e9 6cbe 9453 36be
000003e0: c11a 87be 4256 8f3e 8736 913d ca25 433c
000003f0: afe3 3f3d 2bfc 8ebd e85b a7be 20c0 60bc

conv2.conv1.0.bias f4 [16]
-0.01710365 -0.096479535 0.027648522 0.035179313 -0.0932319 -0.10569737 0.012358869 0.115054466
-0.105388306 -0.057731405 -0.04063233 -0.10407452 -0.0725475 0.09248424 0.09011477 -0.086681426
00000000: f41c 8cbc 1097 c5bd 277f e23c 2f18 103d
00000010: 5ef0 bebd dd77 d8bd db7c 4a3c ada1 eb3d
00000020: d3d5 d7bd c477 6cbd 166e 26bd 0625 d5bd
00000030: c993 94bd 6168 bd3d 188e b83d 0886 b1bd

conv2.conv1.1.weight f4 [16]
1.0626696 0.93188035 0.82367873 1.0169405 1.1069841 1.1988527 0.93149877 1.0073408
1.0400227 0.9282357 1.051027 0.98331976 1.0688753 0.95753807 0.9932245 1.0540762
00000000: 8f05 883f b68f 6e3f 9cdc 523f 1b2b 823f
00000010: a8b1 8d3f 0174 993f b476 6e3f 8bf0 803f
00000020: 771f 853f dba0 6d3f 0e88 863f d8ba 7b3f
00000030: e8d0 883f 3721 753f f643 7e3f f8eb 863f

conv2.conv1.1.bias f4 [16]
0.09255912 -0.06597089 -0.09384757 0.04985248 -0.04275892 -0.12161112 0.049488164 0.00078068895
-0.06798723 0.0040558823 -0.021534478 0.05201515 0.07849817 -0.117268 0.03449253 -0.074069984
00000000: a38f bd3d bf1b 87bd 2833 c0bd 1d32 4c3d
00000010: fa23 2fbd 400f f9bd 1ab4 4a3d 26a7 4c3a
00000020: e43c 8bbd 35e7 843b 1369 b0bc d70d 553d
00000030: a6c3 a03d 352a f0bd 0a48 0d3d 01b2 97bd

conv2.conv1.1.running_mean f4 [16]
-0.92884564 -1.5627246 0.6836523 -0.1306578 -1.1899345 -3.8923283 -0.6388551 1.321478
-1.659324 0.56297576 -2.1165578 -0.80282545 -0.38280064 1.38783 -0.6759052 -2.3817468
00000000: d4c8 6dbf 5c07 c8bf d603 2f3f 29cb 05be
00000010: c64f 98bf e81b 79c0 028c 23bf 3126 a93f
00000020: bb64 d4bf 2e1f 103f af75 07c0 f885 4dbf
00000030: 72fe c3be 6aa4 b13f 2008 2dbf 8a6e 18c0

conv2.conv1.1.running_var f4 [16]
5.759358 1.7079701 1.3058203 3.691767 3.05149 3.6829643 2.452394 2.2858045
4.9061036 1.6954567 3.075527 5.0408573 2.2993562 2.8497596 3.2800696 3.0023594
00000000: a94c b840 c49e da3f 1f25 a73f e945 6c40
00000010: 9d4b 4340 b0b5 6b40 06f4 1c40 9f4a 1240
00000020: cdfe 9c40 ba04 d93f 6fd5 4440 b44e a140
00000030: a728 1340 7662 3640 a9ec 5140 a826 4040

conv2.conv2.0.weight f4 [16, 16, 3, 3]
-0.09506394 -0.03979941 0.08341271 -0.110394806 -0.21054465 0.07440596 -0.25893468 0.011881512
-0.09799882 0.00594802 0.04598163 0.031002875 0.13752243 0.14848617 0.064955965 -0.051619366
-0.16903652 -0.1162887 -0.10619717 -0.18677965 0.05498651 -0.055876695 0.13194768 0.022591451
-0.21991424 -0.010494078 -0.07340307 0.08144246 -0.20891407 -0.23579876 -0.004593537 0.21041574
0.026437309 -0.03558663 -0.08746525 -0.15681417 -0.048428364 -0.060908247 0.10069104 0.024815908
0.010721081 -0.08621113 -0.09554567 -0.06021528 -0.23411737 -0.10562411 -0.229055 -0.028472135
0.03802435 0.22787723 0.12865184 -0.11846973 0.1559912 0.051461343 -0.09746388 0.090484515
-0.056552593 -0.014563702 0.00095734146 -0.044675555 0.12871464 -0.07862068 -0.096874796 -0.3254329
0.17317574 0.095763125 0.08125028 -0.14885943 -0.16225354 0.102001004 -0.12093322 -0.033089925
-0.023821607 0.033008423 0.09514491 -0.28080818 -0.18851282 0.09874373 0.015535137 -0.06653113
0.12125267 0.20362379 0.059792202 0.09950503 -0.09904966 -0.24319099 -0.34399694 0.05467965
-0.0016653799 -0.014035505 0.04899237 -0.03398623 -0.0668635 0.03957062 -0.039481077 0.07623556
-0.17994499 -0.017760662 -0.010563761 0.06542993 0.03138545 -0.08442016 0.030978706 -0.11092419
-0.19685845 0.08055017 0.035650827 -0.006230529 0.041590694 0.13680212 -0.0336223 -0.16078597
-0.16573025 -0.07391743 0.1827758 0.030059503 0.08065314 -0.16115467 0.054589823 -0.07627003
0.04497537 0.13814518 -0.13189538 0.2924534 -0.056527976 -0.08348687 0.018296639 0.106933475
-0.18425117 0.035796452 0.011035754 -0.17798162 0.11541878 -0.04846298 -0.07241221 -0.085777916
-0.12460658 -0.0826181 -0.06820234 0.006001088 0.04220077 0.08174014 -0.07619864 0.04962446
-0.0005085373 -0.054210622 -0.15417598 0.20277111 -0.057878427 -0.12368592 0.16499715 0.04265908
0.022269601 -0.011043907 0.07546143 0.15861529 0.07240325 0.02983691 -0.014407815 -0.1840883
-0.028380368 -0.09023883 -0.029261814 0.074420005 0.052617993 0.07546518 0.24465449 0.15993273
-0.33990705 0.026028143 -0.008676327 0.005643671 0.115159206 -0.01687056 0.12960494 0.2552907
-0.017997317 0.041728284 -0.119492576 0.1451879 -0.07778333 -0.25059342 -0.015030386 -0.049293164
-0.12788527 0.09026323 -0.19250405 0.022848181 0.16158211 -0.0027834887 0.17735448 -0.022399973
-0.042279124 0.11687657 -0.028352713 0.02666215 -0.29381433 0.12764202 -0.22296306 0.28370327
0.16893886 -0.21559186 -0.021923361 -0.04762477 -0.017717302 -0.027591012 -0.10605238 0.0780072
-0.22532126 -0.14284928 -0.4188827 -0.059804633 0.030811861 0.09177097 0.18100463 0.014702673
-0.13235782 -0.16270031 0.0032273734 0.115470976 -0.12959825 0.11767062 -0.06373573 0.0046104365
-0.16253895 -0.0016602202 -0.013310215 0.010056963 0.38580114 0.19942588 0.12278395 0.14418145
0.21262574 -0.1970499 0.01143458 0.025611129 -0.011044593 0.048472352 0.008844319 0.15155594
-0.16479163 -0.07330887 0.12075271 0.037956037 0.084689915 0.092922 -0.145731 -0.19594185
0.021360734 -0.13404599 0.06336725 0.09638501 -0.025899813 -0.14402002 0.1798368 -0.035464916
00000000: e2b0 c2bd b504 23bd 48d4 aa3d ac16 e2bd
00000010: 0499 57be 2762 983d 1693 84be acaa 423c
00000020: 9bb3 c8bd 9ce7 c23b 3c57 3c3d bef9 fd3c
00000030: aed2 0c3e c20c 183e a207 853d d46e 53bd
00000040: e917 2dbe c528 eebd e77d d9bd 2a43 3fbe
00000050: 8939 613d f6de 64bd 4b1d 073e b511 b93c
00000060: 3331 61be 5aef 2bbc 5954 96bd 4ecb a63d
00000070: 92ed 55be 3b75 71be 6285 96bb 3977 573e
00000080: 0e93 d83c 49c3 11bd fb20 b3bd e593 20be
00000090: d25c 46bd ed7a 79bd 1b37 ce3d bb4a cb3c
000000a0: 79a7 2f3c 768f b0bd 73ad c3bd 4ca4 76bd
000000b0: 77bc 6fbe 7451 d8bd 658d 6abe 653e e9bc
000000c0: 6cbf 1b3d a658 693e 4fbd 033e 42a0 f2bd
000000d0: 28bc 1f3e 21c9 523d 259b c7bd f24f b93d
000000e0: b1a3 67bd 989c 6ebc 19f6 7a3a b7fd 36bd
000000f0: c5cd 033e e103 a1bd 4b66 c6bd 249f a6be
00000100: fb54 313e 751f c43d 8c66 a63d 9b6e 18be
00000110: cb25 26be e7e5 d03d d6ab f7bd 4d89 07bd
00000120: 8825 c3bc d733 073d 56db c23d 17c6 8fbe
00000130: 8109 41be 273a ca3d 1687 7e3c 7941 88bd
00000140: 5253 f83d c182 503e abe8 743d 4bc9 cb3d
00000150: 8cda cabd 0f07 79be 5e20 b0be c5f7 5f3d
00000160: e048 daba 2df5 65bc 39ac 483d 2535 0bbd
00000170: bbef 88bd cd14 223d e9b6 21bd 6421 9c3d
00000180: 8043 38be cf7e 91bc a013 2dbc 2100 863d
00000190: 088e 003d 7ae4 acbd 0ec7 fd3c 392c e3bd
000001a0: 4395 49be 7df7 a43d 9a06 123d 7729 ccbb
000001b0: 015b 2a3d db15 0c3e 89b7 09bd 14a5 24be
000001c0: 31b5 29be 0662 97bd 9429 3b3e 593f f63c
000001d0: 792d a53d bb05 25be 9499 5f3d 7633 9cbd
000001e0: 1838 383d ee75 0d3e 950f 07be 74bc 953e
000001f0: e189 67bd 2afb aabd d5e2 953c f0ff da3d
00000200: 57ac 3cbe 4d9f 123d 4fcf 343c d040 36be
00000210: ae60 ec3d 1e81 46bd da4c 94bd 55ac afbd
00000220: bc31 ffbd ae33 a9bd abad 8bbd c6a4 c43b
00000230: b7da 2c3d 6067 a73d 080e 9cbd 0543 4b3d
00000240: 5c4f 05ba f50b 5ebd 4fe0 1dbe 3ba3 4f3e
00000250: ee11 6dbd 0b4f fdbd 03f5 283e 4abb 2e3d
00000260: bd6e b63c 81f1 34bc 868b 9a3d 0c6c 223e
00000270: 2848 943d 896c f43c c20e 6cbc a581 3cbe
00000280: f27d e8bc 23cf b8bd 79b6 efbc 8469 983d
00000290: f785 573d 7d8d 9a3d b586 7a3e 68c5 233e
000002a0: 4c08 aebe f938 d53c 2727 0ebc 8bee b83b
000002b0: 97d8 eb3d 2134 8abc 28b7 043e 76b5 823e
000002c0: 1c6f 93bc 47eb 2a3d 86b8 f4bd 23ac 143e
000002d0: de4c 9fbd c84d 80be 0242 76bc a1e7 49bd
000002e0: 5bf4 02be eedb b83d c81f 45be 1c2c bb3c
000002f0: c875 253e 316b 36bb 6a9c 353e 2680 b7bc
00000300: e02c 2dbd fc5c ef3d f343 e8bc 956a da3c
00000310: d56e 96be 97b4 023e 6e50 64be 8e41 913e
00000320: 4ffe 2c3e 1dc4 5cbe 9f98 b3bc 3112 43bd
00000330: e023 91bc 8c06 e2bc fd31 d9bd 3dc2 9f3d
00000340: 9eba 66be 1547 12be cb77 d6be b4f5 74bd
00000350: 2869 fc3c 6bf2 bb3d 4759 393e 7be3 703c
00000360: cf88 07be e99a 26be 5782 533b 0c7c ec3d
00000370: 67b5 04be 4bfd f03d e187 82bd 2513 973b
00000380: 9c70 26be bf9b d9ba 1713 5abc f6c5 243c
00000390: ba87 c53e 4c36 4c3e 2776 fb3d 4da4 133e
000003a0: 90ba 593e 73c7 49be 1b58 3b3c 6ece d13c
000003b0: 61f4 34bc f28a 463d c3e7 103c 7b31 1b3e
000003c0: 23bf 28be f622 96bd 324d f73d ca77 1b3d
000003d0: e871 ad3d e44d be3d 823a 15be fba4 48be
000003e0: b5fc ae3c 5a43 09be b0c6 813d 8165 c53d
000003f0: d82b d4bc fc79 13be 2327 383e a943 11bd

conv2.conv2.0.bias f4 [16]
-0.022166451 0.045680564 -0.049225774 -0.02201813 0.07636277 0.04437385 -0.06462873 -0.022897169
0.008182148 0.030099396 -0.038329396 0.058338862 0.0013032424 -0.07203399 0.022324821 -0.080877304
00000000: 6b96 b5bc 8b1b 3b3d f7a0 49bd 5e5f b4bc
00000010: 1564 9c3d 5bc1 353d 115c 84bd d892 bbbc
00000020: 6b0e 063c 0293 f63c 49ff 1cbd bbf4 6e3d
00000030: 8fd1 aa3a 8e86 93bd 8be2 b63c 00a3 a5bd

conv2.conv2.1.weight f4 [16]
1.0615953 1.0048598 1.0303186 0.9550211 0.9955907 1.0479035 0.93295276 0.8375824
0.89532775 1.0254923 0.96931565 0.89382285 1.1171896 1.0802293 1.082381 1.0507689
00000000: 5be2 873f 3f9f 803f 7be1 833f 437c 743f
00000010: 08df 7e3f b421 863f fed5 6e3f cd6b 563f
00000020: 3334 653f 5543 833f 1225 783f 93d1 643f
00000030: 1200 8f3f f444 8a3f 768b 8a3f 987f 863f

conv2.conv2.1.bias f4 [16]
0.078296684 -0.00055958465 0.031591777 -0.055978347 -0.017248917 0.109569415 -0.060867544 -0.16302854
0.042406205 0.028772684 -0.017335068 -0.08590936 0.08305807 -0.09992881 0.11590749 0.030435177
00000000: 035a a03d 17b1 12ba 6166 013d 8d49 65bd
00000010: 9a4d 8dbc ee65 e03d 3f50 79bd f4f0 26be
00000020: 21b2 2d3d b1b4 eb3c 4602 8ebc 3ff1 afbd
00000030: 591a aa3d 7aa7 ccbd e860 ed3d 3153 f93c

conv2.conv2.1.running_mean f4 [16]
-1.2360278 0.36164942 0.24561772 -0.117299 1.0044816 -1.1265303 0.3216554 -2.2410042
-0.15727806 0.21564423 0.74213487 0.45770097 -0.36588246 -0.18719782 -0.97374135 -0.77173257
00000000: 2936 9ebf 1d2a b93e 3683 7b3e 753a f0bd
00000010: da92 803f 2532 90bf 04b0 a43e 9d6c 0fc0
00000020: 800d 21be d7d1 5c3e 8dfc 3d3f c857 ea3e
00000030: f254 bbbe c9b0 3fbe 1d47 79bf 4490 45bf

conv2.conv2.1.running_var f4 [16]
0.86519825 1.3480453 1.384823 1.5074344 2.173615 1.9460876 1.8203495 1.7130634
2.6522524 1.122452 3.5364761 1.4934444 1.9418287 1.0368102 2.649658 3.0917323
00000000: a27d 5d3f c08c ac3f e141 b13f 9cf3 c03f
00000010: 821c 0b40 6619 f93f 3601 e93f a945 db3f
00000020: 81be 2940 82ac 8f3f a055 6240 3029 bf3f
00000030: d88d f83f 32b6 843f ff93 2940 f1de 4540

conv2.conv3.0.weight f4 [16, 16, 3, 3]
-0.27819332 0.0331687 -0.22399026 0.12847249 0.121433735 0.050630536 0.1260499 -0.17863324
-0.07296715 0.05901058 -0.036703933 -0.050800845 -0.055416796 0.0017589779 -0.027826417 0.13525109
0.0074295467 -0.11815873 -0.087983586 -0.19001502 -0.032247473 -0.0035627102 -0.043217678 -0.24608345
0.019268913 -0.16475566 0.10057882 -0.036967814 -0.011340333 0.099205874 -0.15921146 0.00089762727
0.014731259 0.10530761 -0.09807384 0.14414261 -0.011177465 -0.059981868 -0.17745449 -0.014131902
0.15742573 -0.090331934 -0.13855456 0.068799645 -0.09400952 0.13239372 0.06776304 -0.041152775
0.110175125 0.20025258 0.14823163 0.33047947 0.19763605 -0.3646711 0.15843847 -0.09637185
0.14940988 0.2098901 0.02081911 0.09997038 -0.028886827 0.051978618 -0.1134193 0.00401036
0.02123283 0.089965686 -0.017406585 -0.051000357 -0.2205251 0.14159732 -0.011918208 0.061537288
-0.26462898 -0.08299329 0.003793142 0.087156594 -0.06537859 -0.14836639 0.23126394 -0.12260224
-0.18885691 0.022721931 -0.08960692 -0.20850448 -0.16758738 0.051280256 -0.053961173 -0.09916564
-0.0044513396 0.028238427 0.05996824 -0.0868074 -0.08799525 -0.004240502 0.043790013 0.0021515726
0.07207487 -0.022072101 0.022561582 -0.18438254 0.022810947 -0.15815389 0.04351483 0.11075385
-0.06450655 -0.05348607 -0.012229201 -0.061296124 -0.062004086 0.05908484 0.07223751 -0.13316232
0.07828275 0.10857358 0.179514 -0.17466302 0.10175818 -0.09222983 0.11164006 -0.14602831
-0.092883185 0.0064305537 -0.035127915 0.09961402 -0.16835721 0.0014376907 0.21727 0.12952216
-0.08926554 0.25919068 0.2164836 -0.06058509 0.121415675 0.02999087 -0.096585594 0.18728854
-0.18824758 -0.09351893 0.08326258 -0.030497545 0.10713675 0.025013322 -0.026912576 0.110884555
0.007484898 0.04264832 -0.09409705 0.20126618 -0.12642546 -0.12965135 0.21754481 -0.03467566
0.024048747 -0.12343881 0.19249564 0.13321887 0.14995645 -0.13087438 -0.02586723 -0.14586367
-0.03976071 0.15834753 -0.06303732 0.0339401 0.052735932 -0.15727243 -0.07802022 -0.045856472
-0.04363596 0.0078106555 -0.15092535 -0.011980106 0.014307156 -0.1848516 0.20703395 0.15367632
0.04256333 -0.18803045 0.21804719 0.038637895 0.113019794 0.045393582 0.1403044 0.07050848
0.14111853 -0.074804485 0.17946884 0.14546704 0.10225678 -0.049870048 -0.009003583 -0.040248062
0.1492036 -0.0064527895 -0.014569658 -0.006523223 0.005579894 0.04373595 0.13377221 -0.034019828
0.09848607 0.28976038 -0.09063823 -0.010922806 0.05407866 -0.011950813 0.103913866 -0.08256279
-0.1408751 0.0002593396 -0.1315448 0.00026827469 0.043487724 0.10497139 0.007815498 0.056920037
0.12180316 0.15605897 0.17942002 0.027165972 0.10732334 -0.12497659 0.11636366 -0.12758543
0.08649572 -0.11063796 -0.037951563 0.020916585 -0.13787787 -0.08476738 0.102029905 0.07571728
-0.13707742 0.16237317 -0.027891243 0.08901568 0.2466922 0.21368314 0.029716853 0.16491061
-0.035510063 -0.16704097 -0.07754397 -0.017601872 0.13161984 -0.11529424 0.13232467 -0.09363823
0.15200934 -0.12376909 0.06827983 -0.057523206 -0.03744779 -0.14133002 -0.075127594 0.07453539
00000000: 5b6f 8ebe e7db 073d b45d 65be 4b8e 033e
00000010: 40b2 f83d f761 4f3d 3a13 013e a2eb 36be
00000020: cd6f 95bd 14b5 713d dd56 16bd 8c14 50bd
00000030: b9fc 62bd 818d e63a 3af4 e3bc 437f 0a3e
00000040: 8e73 f33b 34fd f1bd bd30 b4bd 4c93 42be
00000050: ed15 04bd 5c7c 69bb 0505 31bd 4dfd 7bbe
00000060: d7d9 9d3c b5b5 28be 45fc cd3d 906b 17bd
00000070: cecc 39bc 732c cb3d 5408 23be bf4e 6b3a
00000080: 615b 713c 84ab d73d f0da c8bd 1f9a 133e
00000090: b021 37bc 8caf 75bd a1b6 35be 7e89 67bc
000000a0: 3634 213e f3ff b8bd 3fe1 0dbe d4e6 8c3d
000000b0: 1088 c0bd 3892 073e 59c7 8a3d d08f 28bd
000000c0: 7fa3 e13d 030f 4d3e 08ca 173e 9b34 a93e
000000d0: 1b61 4a3e 2cb6 babe b23d 223e 9b5e c5bd
000000e0: e7fe 183e 6eed 563e d78c aa3c 45bd cc3d
000000f0: 11a4 ecbc 88e7 543d 6148 e8bd 5769 833b
00000100: 79f0 ad3c ee3f b83d 4198 8ebc c0e5 50bd
00000110: 55d1 61be e3fe 103e 9644 43bc 860e 7c3d
00000120: 737d 87be 63f8 a9bd 5d96 783b 287f b23d
00000130: 36e5 85bd 5ced 17be 74d0 6c3e e216 fbbd
00000140: b563 41be 5823 ba3c d583 b7bd 3382 55be
00000150: 079c 2bbe 3f0b 523d 6406 5dbd 5b17 cbbd
00000160: 8bdc 91bb 4654 e73c 42a1 753d 14c8 b1bd
00000170: db36 b4bd e9f3 8abb 285d 333d 6601 0d3b
00000180: fd9b 933d 8dd0 b4bc 11d3 b83c c7ce 3cbe
00000190: 06de ba3c 18f3 21be 9b3c 323d ead2 e23d
000001a0: 031c 84bd 3614 5bbd fd5c 48bc a511 7bbd
000001b0: fff7 7dbd f202 723d 42f1 933d b45b 08be
000001c0: b552 a03d d35b de3d 85d2 373e ddda 32be
000001d0: 9866 d03d fee2 bcbd 8ba3 e43d 7288 15be
000001e0: 8a39 bebd 65b7 d23b 4ae2 0fbd 6f02 cc3d
000001f0: d565 2cbe e570 bc3a 077c 5e3e 75a1 043e
00000200: dad0 b6bd a4b4 843e e0ad 5d3e 1228 78bd
00000210: c8a8 f83d 6aaf f53c abce c5bd 91c8 3f3e
00000220: f9c3 40be da86 bfbd 9285 aa3d fdd5 f9bc
00000230: 836a db3d bde8 cc3c c377 dcbc 7117 e33d
00000240: e043 f53b 01b0 2e3d f4b5 c0bd b918 4e3e
00000250: ad75 01be 53c3 04be 11c4 5e3e 1108 0ebd
00000260: e101 c53c 7dcd fcbd 941d 453e 876a 083e
00000270: 2f8e 193e ef03 06be 83e7 d3bc 495d 15be
00000280: 20dc 22bd db25 223e b619 81bd c604 0b3d
00000290: a201 583d 060c 21be 11c9 9fbd ffd3 3bbd
000002a0: 9fbb 32bd 87f0 ff3b 2d8c 1abe 3548 44bc
000002b0: 9068 6a3c bd49 3dbe b500 543e 535d 1d3e
000002c0: e356 2e3d 0e8b 40be c347 5f3e c542 1e3d
000002d0: ec76 e73d 9fee 393d f5ab 0f3e c066 903d
000002e0: 6081 103e 1833 99bd aec6 373e 50f5 143e
000002f0: 016c d13d 8944 4cbd c483 13bc 27db 24bd
00000300: d4c8 183e ec71 d3bb 93b5 6ebc c3c0 d5bb
00000310: 8bd7 b63b 7824 333d 95fb 083e 6058 0bbd
00000320: 11b3 c93d 795b 943e 89a0 b9bd 92f5 32bc
00000330: 9681 5d3d 58cd 43bc cbd0 d43d ae16 a9bd
00000340: 9041 10be f9f7 8739 aeb3 06be 38a7 8c39
00000350: 2f20 323d 3dfb d63d 930c 003c fc24 693d
00000360: ef73 f93d eccd 1f3e e2b9 373e 2c8b de3c
00000370: 57cc db3d baf3 ffbd 1250 ee3d c1a5 02be
00000380: ab24 b13d 2896 e2bd 1973 1bbd 4259 ab3c
00000390: db2f 0dbe 859a adbd 0ef5 d03d a911 9b3d
000003a0: 065e 0cbe 2745 263e 2d7c e4bc da4d b63d
000003b0: e19c 7c3e c1cf 5a3e c270 f33c 54de 283e
000003c0: 0073 11bd ca0c 2bbe 5fcf 9ebd cd31 90bc
000003d0: 5ac7 063e 631f ecbd 1e80 073e 66c5 bfbd
000003e0: 56a8 1b3e a67a fdbd 4cd6 8b3d 749d 6bbd
000003f0: db62 19bd d1b8 10be 7fdc 99bd 03a6 983d

conv2.conv3.0.bias f4 [16]
-0.012225445 -0.059669796 0.002329241 0.04770371 0.0027617319 0.052379232 -0.03147617 0.06533971
0.019850252 -0.027999613 0.040169086 0.040971205 -0.03572145 -0.015154764 0.04299806 -0.07342272
00000000: 3c4d 48bc 5168 74bd 2ea6 183b f764 433d
00000010: 2cfe 343b 9b8b 563d 28ed 00bd d3d0 853d
00000020: ff9c a23c 725f e5bc 5788 243d 6cd1 273d
00000030: a850 12bd b04b 78bc bc1e 303d a75e 96bd

conv2.conv3.1.weight f4 [16]
1.0115107 0.8647149 1.0371414 1.1963036 1.170668 0.95222074 1.0325526 0.9770932
0.94696754 1.0049413 1.1168787 0.8411404 1.0253255 0.98110574 1.0588673 0.8333568
00000000: 2f79 813f f55d 5d3f 0dc1 843f 7a20 993f
00000010: 73d8 953f bdc4 733f af2a 843f c822 7a3f
00000020: 776c 723f eba1 803f e2f5 8e3f fa54 573f
00000030: de3d 833f bf29 7b3f f788 873f df56 553f

conv2.conv3.1.bias f4 [16]
-0.01243679 0.024576453 0.021654196 -0.033822995 -0.033145756 0.052805517 -0.012111587 0.08344652
-0.038238354 -0.07337783 0.15758662 0.053840548 0.054624364 0.031814408 0.06319788 -0.06561056
00000000: aec3 4bbc 8f54 c93c 2464 b13c fb89 0abd
00000010: d8c3 07bd 994a 583d ae6f 46bc 02e6 aa3d
00000020: d29f 1cbd 1e47 96bd 635e 213e e887 5c3d
00000030: ccbd 5f3d d34f 023d e46d 813d d45e 86bd

conv2.conv3.1.running_mean f4 [16]
-0.084076166 0.6455847 0.11485351 -1.0528824 -0.8803934 0.894699 0.30979785 -1.0686592
-0.7514728 -0.73061895 -0.7565725 1.3154577 -0.38183394 -0.9896197 -0.91665727 0.82337797
00000000: 2030 acbd 0a45 253f 5138 eb3d dac4 86bf
00000010: 7661 61bf fe0a 653f d39d 9e3e d3c9 88bf
00000020: 8560 40bf d809 3bbf bcae 41bf eb60 a83f
00000030: bd7f c3be b757 7dbf 0daa 6abf e6c8 523f

conv2.conv3.1.running_var f4 [16]
2.2986238 2.2703001 1.8484544 3.2286575 3.5934713 2.3606675 2.3848045 1.7703074
3.2352123 2.3711748 4.281102 4.018559 1.3034768 2.3808699 2.4738421 3.4172077
00000000: a71c 1340 994c 1140 279a ec3f 53a2 4e40
00000010: 6ffb 6540 2d15 1740 a3a0 1840 6f99 e23f
00000020: b80d 4f40 54c1 1740 cafe 8840 0998 8040
00000030: 54d8 a63f 2c60 1840 6e53 1e40 88b3 5a40

conv3.conv1.0.weight f4 [32, 16, 3, 3]
-0.2204465 0.013146348 0.19850475 0.10928664 -0.10981173 -0.12721156 -0.0034746162 0.02121871
0.123836085 0.066158615 -0.029629562 -0.19480677 0.06452104 -0.05250729 -0.06315605 0.01765757
0.0029088776 -0.14747338 -0.04562488 -0.31399912 -0.107859634 -0.024060318 -0.05221998 0.05637071
-0.1597472 -0.23677023 0.053110052 -0.1973853 0.30577347 -0.18482873 0.075218335 0.16329095
-0.042707942 -0.13143125 0.26489955 -0.087077096 -0.16350336 -0.078774005 0.091704816 -0.02798161
-0.047710378 -0.025150493 -0.13238433 -0.034672085 0.023806099 -0.08820258 0.0064340923 -0.06490779
0.055402707 0.0141500225 -0.22181177 -0.021063775 -0.12558964 0.15184158 -0.11879013 0.29657272
0.06668548 -0.03309172 -0.26587725 -0.08218525 0.1322722 0.15832068 -0.059505023 0.09298553
-0.100476585 -0.18909185 0.13994205 0.022214275 -0.05232381 -0.09106934 0.100363724 -0.10449582
0.11934883 0.15961799 -0.0478708 -0.010661784 0.10269139 -0.16316013 -0.095134564 0.19893536
0.002694251 -0.027215647 0.12989047 0.08046087 0.09681413 0.13800949 -0.10015933 -0.046605486
-0.12377065 -0.06957284 0.03183988 0.044236626 0.14449498 -0.082495764 -0.021971993 -0.09088716
-0.013392969 -0.08016632 -0.060715117 -0.05923352 -0.0536499 -0.05325567 -0.039969176 -0.037890192
-0.1720504 -0.13310096 0.046970546 0.11870669 0.14774592 -0.05678561 -0.05095282 0.10902819
-0.06735621 0.19752167 0.085993156 -0.047636144 0.09124798 -0.018269818 0.04752068 -0.040666968
-0.14246145 -0.005100709 -0.00828114 -0.032188505 -0.061111778 -0.06054265 0.058471896 0.33343256
-0.14145705 -0.10251789 -0.1754224 0.015548431 -0.0039194603 -0.071708374 0.040933624 0.034175515
0.03164605 -0.052080683 -0.015760595 0.13022429 0.009357282 -0.13729613 -0.053565223 -0.18661556
-0.022524534 0.13317181 0.06913851 0.072763056 0.03798129 0.21518184 0.015640328 0.11354675
0.19763237 -0.047578856 0.23478945 0.069222786 -0.21375157 -0.23308408 0.17597574 0.11287999
0.05899551 -0.1566021 -0.011275984 -0.10700336 0.20340198 0.039152242 -0.0017264044 -0.08915545
-0.14795625 -0.20675719 0.004659323 0.11120602 -0.07258058 0.019605452 -0.254672 -0.0024068695
0.044561338 0.03269704 0.076395206 0.057083018 0.14975205 -0.30226585 0.0041900044 -0.11417485
0.21538773 0.28766462 0.21638954 0.19086973 0.04334954 -0.04355205 -0.06005764 -0.15820284
0.13267228 0.04471592 -0.021364661 -0.062713355 0.021075675 0.20360337 -0.04620174 -0.13761032
0.009216693 -0.19887047 -0.13777404 -0.07243686 -0.012659482 -0.08301241 -0.024438592 -0.2299458
-0.120901234 -0.112218715 -0.1945191 -0.078549564 -0.14692365 0.10263826 0.15986389 -0.15289031
-0.16509423 -0.31286207 0.100149944 0.069354944 -0.080028154 -0.059542105 -0.046527132 -0.018287681
0.15343961 -0.09939572 0.032357156 -0.014761324 -0.11302083 -0.10750662 0.09626241 0.21693665
0.05937191 0.014360829 -0.28223178 -0.14718841 0.055445734 0.2142902 -0.058520027 0.16925944
-0.07434969 -0.13396114 0.11063984 -0.1753025 -0.26172084 -0.028325558 -0.11181313 -0.026500607
0.0021803179 -0.066932075 0.009327334 0.1503097 0.052824866 -0.06372027 0.027540961 0.13297422
00000000: babc 61be c863 573c d444 4b3e add1 df3d
00000010: f9e4 e0bd bf43 02be 63b6 63bb dcd2 ad3c
00000020: c69d fd3d 2b7e 873d b2b9 f2bc 6d7b 47be
00000030: 9b23 843d e211 57bd f657 81bd 9ca6 903c
00000040: dea2 3e3b 4303 17be 27e1 3abd 7ec4 a0be
00000050: 83e5 dcbd 251a c5bc 9ee4 55bd f9e4 663d
00000060: c594 23be e573 72be ed89 593d 5f1f 4abe
00000070: 578e 9c3e be43 3dbe 120c 9a3d be35 273e
00000080: 86ee 2ebd ea95 06be eaa0 873e 7a55 b2bd
00000090: 6d6d 27be 4454 a1bd bccf bb3d b039 e5bc
000000a0: f56b 43bd 6808 cebc c28f 07be 5104 0ebd
000000b0: 0205 c33c 8ea3 b4bd 14d5 d23b 60ee 84bd
000000c0: f3ed 623d 7fd5 673c a022 63be f08d acbc
000000d0: 929a 00be 5c7c 1b3e 3d48 f3bd 61d8 973e
000000e0: 6692 883d 2f8b 07bd 1021 88be be50 a8bd
000000f0: 5d72 073e d11e 223e 8abb 73bd 336f be3d
00000100: abc6 cdbd 4ba1 41be f84c 0f3e b6fa b53c
00000110: 7e51 56bd 9082 babd 7f8b cd3d e801 d6bd
00000120: 296d f43d e672 233e 2c14 44bd c3ae 2ebc
00000130: dd4f d23d 7313 27be e9d5 c2bd b6b5 4b3e
00000140: 0892 303b 59f3 debc 0202 053e abc8 a43d
00000150: 7d46 c63d 5c52 0d3e 5620 cdbd 65e5 3ebd
00000160: 777b fdbd 357c 8ebd 896a 023d 7731 353d
00000170: 7ef6 133e 8af3 a8bd 9cfe b3bc 0c23 babd
00000180: 2f6e 5bbc 3d2e a4bd 6ab0 78bd d99e 72bd
00000190: ffbf 5bbd 9e22 5abd b8b6 23bd bf32 1bbd
000001a0: fb2d 30be 9e4b 08be 3064 403d 7e1c f33d
000001b0: b54a 173e 0798 68bd e7b3 50bd 2c4a df3d
000001c0: 0df2 89bd 1f43 4a3e 2e1d b03d 1e1e 43bd
000001d0: 39e0 ba3d 96aa 95bc 0ba5 423d 6892 26bd
000001e0: 6ae1 11be d923 a7bb 9ead 07bc 18d8 03bd
000001f0: 5850 7abd 92fb 77bd 3a80 6f3d acb7 aa3e
00000200: 1eda 10be e6f4 d1bd eea1 33be d9be 7e3c
00000210: d16e 80bb d7db 92bd 04aa 273d a0fb 0b3d
00000220: 4a9f 013d 8e52 55bd 5d1c 81bc 8459 053e
00000230: 494f 193c 5b97 0cbe 3567 5bbd 2618 3fbe
00000240: 5f85 b8bc 315e 083e 7e98 8d3d cc04 953d
00000250: 4592 1b3d a158 5c3e 2520 803c 338b e83d
00000260: 2460 4a3e 0ce2 42bd a56c 703e adc4 8d3d
00000270: b1e1 5abe 98ad 6ebe fc32 343e a02d e73d
00000280: 47a5 713d 4d5c 20be e8be 38bc 9424 dbbd
00000290: 9c48 503e 1a5e 203d 8548 e2ba 2297 b6bd
000002a0: d881 17be 28b8 53be 3cad 983b fbbf e33d
000002b0: 21a5 94bd 9d9b a03c 5e64 82be 92bc 1dbb
000002c0: f385 363d 55ed 053d 1775 9c3d e2cf 693d
000002d0: 9a58 193e 97c2 9abe 4e4c 893b 81d4 e9bd
000002e0: 9a8e 5c3e c748 933e 3895 5d3e 5b73 433e
000002f0: 4a8f 313d a263 32bd 00ff 75bd edff 21be
00000300: 3edb 073e 0a28 373d f104 afbc dc6f 80bd
00000310: e5a6 ac3c 677d 503e 093e 3dbd b8e9 0cbe
00000320: 9d01 173c b3a4 4bbe a314 0dbe c759 94bd
00000330: b769 4fbc 6902 aabd 7133 c8bc e976 6bbe
00000340: 119b f7bd edd2 e5bd 0430 47be 98de a0bd
00000350: 2773 16be 0234 d23d 5cb3 233e 478f 1cbe
00000360: 760e 29be 752f a0be 6a1b cd3d f709 8e3d
00000370: cde5 a3bd 6ce2 73bd 3c93 3ebd 0cd0 95bc
00000380: 461f 1d3e fc8f cbbd f088 043d 7bd9 71bc
00000390: 7777 e7bd 6e2c dcbd 3a25 c53d a424 5e3e
000003a0: f62f 733d af49 6b3c af80 90be 8fb8 16be
000003b0: 111b 633d e46e 5b3e b2b2 6fbd 5952 2d3e
000003c0: a644 98bd 1c2d 09be 2497 e23d 8082 33be
000003d0: 4600 86be 000b e8bc 48fe e4bd cd17 d9bc
000003e0: aae3 0e3b af13 89bd add1 183c c9ea 193e
000003f0: e35e 583d c67f 82bd 959d e13c 652a 083e

conv3.conv1.0.bias f4 [32]
-0.07680461 0.022497442 0.07795592 0.0051017213 0.08118277 -0.073391005 -0.0432861 -0.025306351
0.07122094 -0.076316185 -0.0151434615 -0.07461306 0.016025022 -0.07235673 -0.06842415 -0.051852543
-0.031998847 0.052902408 0.013474446 -0.075104274 0.07877971 -0.0016909417 0.024333052 -0.043021355
-0.039281268 -0.062396847 -0.06550964 -0.04256991 0.045981158 -0.031706635 -0.070700176 0.024414824
00000000: bc4b 9dbd 8e4c b83c 5aa7 9f3d 572c a73b
00000010: 2743 a63d 064e 96bd c44c 31bd 444f cfbc
00000020: 49dc 913d a94b 9cbd 481c 78bc bbce 98bd
00000030: e846 833c c42f 94bd f621 8cbd 5563 54bd
00000040: 3911 03bd 32b0 583d ecc3 5c3c 45d0 99bd
00000050: 4257 a13d 97a2 ddba 1c56 c73c 2937 30bd
00000060: 65e5 20bd d693 7fbd eb29 86bd c95d 2ebd
00000070: bd56 3c3d d1de 01bd 41cb 90bd 9901 c83c

conv3.conv1.1.weight f4 [32]
1.0120232 1.0688984 1.0333924 0.93270975 1.045986 0.9917435 0.92718786 1.0063581
1.0673697 1.0827953 0.9843384 1.0259969 1.0278794 0.9834311 0.98839086 1.0171554
1.1168995 0.95351464 0.9733651 1.0315094 1.0050968 0.95199275 0.99842566 1.0331621
0.95607 0.8539306 1.0156741 0.9857007 1.0283817 0.9917233 0.9717396 0.99030906
00000000: fa89 813f aad1 883f 3446 843f 11c6 6e3f
00000010: dfe2 853f e7e2 7d3f 2f5c 6d3f 58d0 803f
00000020: 929f 883f 0999 8a3f 9afd 7b3f de53 833f
00000030: 8d91 833f 24c2 7b3f 2f07 7d3f 2632 823f
00000040: 90f6 8e3f 8919 743f 752e 793f 8008 843f
00000050: 03a7 803f ccb5 733f d398 7f3f a83e 843f
00000060: 01c1 743f 329b 5a3f 9c01 823f e256 7c3f
00000070: 03a2 833f 94e1 7d3f edc3 783f e584 7d3f

conv3.conv1.1.bias f4 [32]
0.032442126 0.0014341505 0.07424675 -0.013977842 0.03877267 -0.041110266 -0.029263727 -0.034380052
-0.035271604 -0.09192689 0.023363523 -0.03636897 -0.009191709 0.04896716 -0.076896824 -0.038716804
0.01854283 -0.047464553 0.0014026766 -0.008187698 -0.039814465 -0.017770818 -0.04644226 0.034010883
-0.043467358 -0.0010927577 -0.027667088 -0.0010382714 0.020842189 -0.016375687 -0.005242659 -0.030684061
00000000: 09e2 043d 1bfa bb3a ae0e 983d 5203 65bc
00000010: 17d0 1e3d 3d63 28bd 7cba efbc 19d2 0cbd
00000020: f578 10bd 2a44 bcbd dc64 bf3c a1f7 14bd
00000030: d298 16bc ca91 483d 157c 9dbd 8395 1ebd
00000040: 22e7 973c 316a 42bd 04da b73a b225 06bc
00000050: 7e14 23bd 1b94 91bc 3d3a 3ebd ff4e 0b3d
00000060: d40a 32bd dd3a 8fba 17a6 e2bc 9b16 88ba
00000070: 3dbd aa3c 4e26 86bc 9cca abbb 245d fbbc
