checkpoints/ifind1_sononet_8_6classes/007_net_6classes_class.pth (torch_old, 671819 bytes, 90 tensors)

conv1.conv1.0.weight f4 [8, 1, 3, 3]
00000000: 6e5f b5bc b049 7fbe 98c3 73be 6fd0 ec3e
00000010: 3997 743f ac38 84bf be2d 113e 478f dfbd
00000020: 8144 54be 0e0f 86bf f384 953e b34b 51bf
00000030: dd03 9d3e c028 fcbd 2e48 b2be ffa9 923f
00000040: 5604 53bc 0aa3 3b3f 9ac4 313e 427d 87be
00000050: af24 b4bd 1837 7abf 78c1 f83e 3fb6 eabc
00000060: 4c25 9ebe c0f2 aabe 640f 5ebf e0e6 82bf
00000070: 4e87 523e 640b cabe 238b 08bd 0e98 0e3e
00000080: fdd4 de3d a015 96be a6f2 6f3f b56f 36be
00000090: bba2 843d 84c1 8a3e 5eb5 41be 600b d93e
000000a0: cc1c d5be 0a88 83be 3c4f aabe d7ca 17be
000000b0: 4518 813c 8487 893e 43ef a63e e1ac 1f3f
000000c0: 585b 743f 778e babe 1fff 423e 6f99 6bbe
000000d0: 9d5f 42be 6d6a ee3d b140 533e d334 8a3d
000000e0: bb27 7fbc 78d6 5dbf 4955 723e da1b 8c3e
000000f0: 0369 0bbf 8908 5ebd 5401 e83e ed74 46bf
00000100: 2d67 bb3e 3265 433f 720d 65be b5f5 053f
00000110: baf8 a2bd 7d01 ba3c a12c ccbd c6d6 2dbe
-0.022140231 -0.24930453 -0.23805082 0.46252772 0.9554325 -1.0329795 0.14177606 -0.10916
-0.20729257 -1.0473344 0.29202995 -0.8175613 0.3066701 -0.1231246 -0.34820694 1.1458129
-0.012879452 0.7329565 0.17360154 -0.26462752 -0.08796059 -0.97740316 0.48585105 -0.028651355
-0.3088783 -0.3338833 -0.86742234 -1.0226707 0.20559427 -0.39461815 -0.033335816 0.13925192
0.10880468 -0.29313374 0.9372963 -0.1781605 0.06476351 0.27100766 -0.18916842 0.4239149
-0.41623533 -0.25689727 -0.33263576 -0.14823471 0.015758643 0.26861203 0.32604417 0.6237317
0.9545188 -0.36436817 0.19042633 -0.23007749 -0.18981786 0.11641393 0.20630147 0.06748357
-0.015573437 -0.8665538 0.23665346 0.27365 -0.5445711 -0.05420736 0.45313513 -0.77522165
0.36602154 0.76326287 -0.2236841 0.52328044 -0.07957597 0.022705788 -0.0996945 -0.16976461

conv1.conv1.0.bias f4 [8]
00000000: f647 8fbc cf1e 7cbe f024 4bbe 1d4e bd3d
00000010: 1e88 88be 5b7a 9d3e d9f1 be3c d713 123e
-0.017490368 -0.24621128 -0.1983831 0.092434146 -0.2666635 0.30757412 0.023308681 0.14265381

conv1.conv1.1.weight f4 [8]
00000000: 39a5 893f 57fc 843f 8063 593f a355 843f
00000010: 4517 7c3f 17ae 7f3f 2410 833f 4f20 8c3f
1.0753547 1.0389508 0.8491745 1.0338634 0.98473006 0.99875015 1.0239301 1.094736

conv1.conv1.1.bias f4 [8]
00000000: 2d1f 223d ba38 d53d 006e d7bd 49a3 83bd
00000010: e89c e1bd c6f5 063d 0ff1 4d3c f2f1 853e
0.039580513 0.1041121 -0.10519028 -0.064276285 -0.110162556 0.03294923 0.01256968 0.26161152

conv1.conv1.1.running_mean f4 [8]
00000000: 8a85 a7bc 536f 7cbe 8bde 4fbe de89 b63d
00000010: c301 89be 4d84 9f3e 1aec be3c 76ef 113e
-0.020449419 -0.24651842 -0.20299737 0.08913015 -0.26759157 0.31155625 0.023305941 0.14251503

conv1.conv1.1.running_var f4 [8]
00000000: 82bb 3d3e 4a5d 263f 989e 9340 abd4 d73e
00000010: be46 ac3e 86c0 3340 43a1 193e 85ae 403e
0.1852856 0.649861 4.6131096 0.4215444 0.33647722 2.8086257 0.15002923 0.18816574

conv1.conv2.0.weight f4 [8, 8, 3, 3]
00000000: 4cf2 0cbd 4f18 3e3e 5e3c c6bd bc5b 80bc
00000010: d777 da3e d0be 8d3d 216a 85be 5b21 9bbc
00000020: 33e0 d8bd c8c7 b73e a18c 44bb 4773 4fbe
00000030: f57f 183e 8d9f 833e 0a23 423e 45cf bfbc
00000040: e498 a8bb cb69 b6bd fb61 283d afd3 50bc
00000050: 72d0 54bd 7178 a93d 47aa 1bbc 031a b93d
00000060: 9409 4cbc ad9c 6d3e ea9b c03c 761e 00be
00000070: 0f13 9f3d 4abe e1bd 103d 37be 35a4 ba3d
00000080: 50df f23d 3978 e23d 0eab c93d 8726 7cbe
00000090: b5f3 f23d 05ee 3cbe cfc4 753e c114 4d3e
000000a0: fee4 cfbe 0148 183d 128b b83d e65e 06be
000000b0: abd1 99be 2c29 1a3d 8934 f63d 2ea3 50be
000000c0: 1671 243e aa32 e33d 4bf5 733e d564 c03e
000000d0: 44c9 c13e d16f 36be 59f3 c8be 45ef 21bc
000000e0: fa7b 8abe 59f4 f5bc 79db 223d 8342 eb3d
000000f0: 931f acbd b784 563c abfb eebd c947 0abd
00000100: 9210 85bd dc9c 50be 54a2 393e 301f fcbc
00000110: b6c8 a7be 4c73 463e 3c7b 93bc cc8c 65be
00000120: ebed c3bd a9b2 aa3d 901f 30bd bca8 39bd
00000130: 68a2 513e 84e0 d33d d08b c23e 5d17 bfbe
00000140: 53fb a8be f788 09be 7ee4 62bd 331c 793e
00000150: e907 39bd 8c1a 84be 7b2e a43d 7c76 36be
00000160: 7ed0 9bbc 0be8 69be a3bc d33c a33c 28be
00000170: b1a0 ffb6 0d31 7fbe 9253 4b3e 1cfc b83d
00000180: f66e c0bc 5620 673e bfb1 d0bd 36b1 34be
00000190: c539 063e 908b e4bd f941 b03d b34b 6abe
000001a0: 3091 a33c 5c37 543e e110 f73c 8c73 2a3d
000001b0: 027c 0d3e c3fc 1d3e 2427 433c 3780 a5bc
000001c0: 4608 21be ebdc 7d3d cdf5 d8bc 55a2 d6bc
000001d0: b80a 883e da58 123d f386 45be 0015 523e
000001e0: e9cd 5d3e f1da e83d a61a 86be 773d 053c
000001f0: 1e45 23be 6c62 3e3e 2c3f 353e 9bdb 213d
00000200: af9a 1cbe 552a f8ba e903 11be 435e 0a3d
00000210: bf9b 70be 892c 9bbe b4b0 fa3e 97d7 82be
00000220: bf8f e7bd e87d 05bd 42f3 fa3d 5a3c b8bd
00000230: 581b b3bc ee13 0f3e a592 b53c 8cf4 083e
00000240: a2e5 603e 3d30 43be 1188 183e dbdb fdbc
00000250: 3e3c 20be a8d5 29be 4d91 cbbb bb51 d8bd
00000260: 4080 60be 49ab 8f3e 177e e33d 6e25 8ebd
00000270: 4c20 643d 671d 383e 79ab 8f3d 18b3 353e
00000280: 95e5 223e 7b7f b0be 04bf b1bd 978e 39be
00000290: 70d7 aabd f7fd 003e ade9 313e c8f2 c4bc
000002a0: c38c c73d f2cf ebbd 5110 acbd f423 3cbe
000002b0: 7545 e1bd a624 39be b0eb 4ebe 39cd 53be
000002c0: 62a0 d4bc fd5b 9d3d 6c70 13be 2777 8fbd
000002d0: 68be 503e 1aa3 503d b8b8 353d e4cc 0b3e
000002e0: c783 873e 54c0 88be 62cf 4d3e 39b3 22be
000002f0: b05c 053e c119 e8be 7dcd fcbd 1c64 383e
00000300: 5f5f d13b 7365 0c3e 121a d5bd 4bee ccbd
00000310: bc98 623d b544 be3e 4af4 fa3d 4f86 f2bd
00000320: c9f3 413d a24c f5bc 84a5 cd3d 01cf c73d
00000330: 26c4 2d3d 4ccd d93d 1f60 37be 4de3 00bf
00000340: 5a54 13be affe 5ebc 9a33 86be d62d 9c3e
00000350: c5de b03e 7dc3 9fbd 9788 a33e 996c c33e
00000360: 0686 863e f808 adbd acb0 1cbe 18d9 943d
00000370: 284a 86be 5e9e 35bd 6ddf 8cbe 7af9 04be
00000380: 2798 2cbe f0a0 983e 4335 cf3d b717 88be
00000390: 3598 fb3d 2d8e 853d 8cd3 80be ad69 ea3c
000003a0: f6d6 05be 2a39 023f 2da6 043d e3d2 e63c
000003b0: 46c6 a9bb 1a38 873e 5c54 5abc a877 06bf
000003c0: 9003 a3bd 8011 edbd 395f 8b3e 7dc0 90be
000003d0: 226e 84bc 684c 013e 346f e23d 2b93 63bd
000003e0: 3eec 8c3d 9dfe 64be 31aa 1b3d d945 623c
000003f0: 0d64 05be 4f85 48be 956d 1a3e f5df 613e
-0.03441076 0.1856396 -0.09679483 -0.015668742 0.42669556 0.0692116 -0.26057532 -0.018936804
-0.105896376 0.35894608 -0.0029991048 -0.20258819 0.14892562 0.25707665 0.18958679 -0.023414264
-0.005145179 -0.08906897 0.041109066 -0.012745782 -0.0519566 0.082749255 -0.0095010465 0.090381645
-0.0124534555 0.23204298 0.023511846 -0.1251162 0.07767307 -0.11022623 -0.17894387 0.09113351
0.11859 0.11058087 0.09847079 -0.24624072 0.1186289 -0.18450172 0.24000858 0.20027448
-0.40604395 0.037178043 0.090109006 -0.13122138 -0.30042776 0.03763692 0.12021739 -0.20374748
0.16058764 0.11093648 0.2382404 0.3757693 0.37848866 -0.17816092 -0.3924816 -0.009883706
-0.27047712 -0.03002374 0.039760087 0.114872955 -0.0840446 0.013093165 -0.116690956 -0.033759866
-0.06497301 -0.20372337 0.1812833 -0.03077659 -0.32770318 0.1937992 -0.018003099 -0.22416991
-0.095668636 0.08334858 -0.04299885 -0.045326933 0.2047211 0.10345557 0.37997293 -0.37322512
-0.33004245 -0.13431154 -0.05539369 0.24327163 -0.04517356 -0.25801504 0.08016678 -0.17818636
-0.019020315 -0.22842424 0.025846785 -0.16429381 -7.618299e-06 -0.24921055 0.19856098 0.09032461
-0.02349041 0.22570929 -0.101901524 -0.17645726 0.13107975 -0.11159432 0.08606333 -0.2288044
0.019966692 0.20724243 0.030159416 0.0416141 0.13816836 0.15428452 0.011911187 -0.02020274
-0.15725812 0.061978262 -0.026484394 -0.026200453 0.26570678 0.035729267 -0.1928976 0.20515823
0.2166058 0.11369885 -0.26192206 0.00813233 -0.15944335 0.18592232 0.1769988 0.039516073
-0.15293382 -0.0018933514 -0.14161648 0.0337813 -0.23496912 -0.30307415 0.4896294 -0.25555107
-0.11306714 -0.032590777 0.12253429 -0.08995886 -0.021863624 0.13972446 0.022164652 0.13374537
0.21962598 -0.1906137 0.14895655 -0.030988624 -0.1564798 -0.1658541 -0.0062123896 -0.10562464
-0.21923923 0.28060368 0.11108034 -0.06940733 0.055694863 0.17979966 0.07015128 0.177441
0.15907891 -0.3447226 -0.086790115 -0.181208 -0.08341873 0.1259688 0.17374296 -0.024041548
0.09743645 -0.11514272 -0.084015496 -0.1837309 -0.10999576 -0.18080387 -0.20207095 -0.20683755
-0.025955383 0.07683561 -0.14398354 -0.070051484 0.20385134 0.050936796 0.044365615 0.13652378
0.26467726 -0.26709235 0.20098642 -0.1588868 0.13023639 -0.4533215 -0.12343881 0.18006939
0.006389543 0.13710575 -0.10405363 -0.10006388 0.05532144 0.37161794 0.12253626 -0.118420236
0.047351632 -0.029943768 0.10041335 0.0975628 0.04242339 0.106348604 -0.17907761 -0.50346833
-0.14387646 -0.013610526 -0.26211244 0.3050372 0.3454496 -0.07800958 0.31940147 0.3816879
0.26274127 -0.08448976 -0.1530177 0.0726797 -0.26228452 -0.044340484 -0.2751421 -0.12985793
-0.16854917 0.29810286 0.10117581 -0.26580593 0.122848906 0.065212585 -0.25161397 0.028614843
-0.13070282 0.50868475 0.03238504 0.02817673 -0.0051811067 0.2640999 -0.013325777 -0.5252633
-0.07959664 -0.115756035 0.27221087 -0.28271857 -0.016165797 0.12626803 0.110563666 -0.055560272
0.06880997 -0.22362752 0.038004104 0.013810598 -0.13026448 -0.19582103 0.15080865 0.22058089

conv1.conv2.0.bias f4 [8]
00000000: b225 d4bd c498 473d 8a1f 3eba a0e4 d93c
00000010: e3e9 ab3c cd5b dfbd 5021 9bbb e317 a7bd
-0.10358752 0.048729673 -0.00072526245 0.026598275 0.02098555 -0.109061815 -0.004734196 -0.08158853

conv1.conv2.1.weight f4 [8]
00000000: 70fb 843f 1333 933f 7893 6d3f f55d 833f
00000010: 50c4 6d3f e05a 853f d2cf 843f 6182 713f
1.0389233 1.1499962 0.92803144 1.0263048 0.92877674 1.0418358 1.0375922 0.9433957

conv1.conv2.1.bias f4 [8]
00000000: a3aa 713d 881a de3d a88a b4bd 2c76 aabc
00000010: 56db 27be e734 9b3d 4de7 433c c638 12bd
0.059000622 0.10844904 -0.08815509 -0.020808302 -0.16392264 0.0757845 0.011957002 -0.035698675

conv1.conv2.1.running_mean f4 [8]
00000000: 3c63 8c3b 9faf cebd a05b cf3c 4a42 febe
00000010: 7610 5a3e f081 4ebf f026 4fbf c01f 213f
0.0042842906 -0.10092091 0.025312245 -0.4965995 0.21295342 -0.8066702 -0.8091879 0.6293907

conv1.conv2.1.running_var f4 [8]
00000000: 4ac1 a73f 80c4 cf3e c3ef 913f 7ded 193f
00000010: 0b9f 5a3f 0377 f13f fe4a 0140 bdb0 0040
1.3105862 0.40579605 1.1401294 0.60128003 0.8539893 1.8864444 2.0202022 2.0107872

conv1.conv3.0.weight f4 [8, 8, 3, 3]
00000000: d757 4e3e 60e3 023e 26a0 153e d1b9 b1be
00000010: 3f37 82be 6e65 d13d 0052 223e bc5c 9a3d
00000020: f9ce 92bc a47b 67bd 641a 243d 0ec7 c43d
00000030: c612 db3c bb27 d33d e654 34be 91cf 403d
00000040: cf99 fcbc 727f 09be a8c1 113e 9f56 023e
00000050: b3fa 07be 027c b63d 90b0 b5be 0db1 5abe
00000060: 7cdb f1bd 4c78 62be 2dd9 f13d a859 0abe
00000070: ff9a 82be 5282 153e 21b8 83bd 1654 94bd
00000080: 4c37 fb3b e848 bc3d 75fa bfbe e92e 883e
00000090: dfa0 95bd 01f0 50bd 549e bdbe 3cd5 61be
000000a0: 84a1 b8be d10a d2bd 6df6 243e c9f5 223e
000000b0: 46f1 d03d 9bc7 1cbe 6a00 823d 60d4 92be
000000c0: 44db a5be d41d 9bbe 2317 31be 796f 793e
000000d0: fba7 bfbe 0956 933d a3d5 963e e803 1d3d
000000e0: 9ac6 6cbe b6a6 cbbe 61be aabc 1d6c 5e3c
000000f0: b308 7dbe e9a9 8ebd e4c3 423e b91b 543d
00000100: bd2c 19be 3d22 923d 0062 903d 1dcc 24be
00000110: a661 99be a280 c5bd 67ba 3b3d 0c70 debc
00000120: e9ff 143e 53e8 b1bd 208b 4bbc fc66 3ebd
00000130: f32d dbbd 5cfe e3bd d0f2 f63d f05b 813d
00000140: 53fb dcbd 3e6b 57be 4958 3cbc e95c ab3e
00000150: e75f 913d e4be 05be 0ea9 e93c 70a2 8b3e
00000160: 2c56 b5be 7b2f ef3c e1f8 c3bb fa29 82bd
00000170: a4df b0be b14b aebe 344e 20be 19ed 5ebd
00000180: e897 563d eb1a 83be 07ca 3abe d399 a13e
00000190: 1828 66bd aa95 16be ab95 8a3e 8d9d a3be
000001a0: 9ea9 04bd c91c 91bd 79df 7cbe 2389 a33d
000001b0: 161a 2bbe 2599 02be d1aa 143e a112 8abe
000001c0: 3480 0d3e 5a95 b9bb e985 9a3b 5bc9 83be
000001d0: c47d 31bd 676e 97bd ceeb 883d 7f4f f7bc
000001e0: 8bc8 b13d 4da0 543e 63f6 283e f465 893d
000001f0: e685 23be fde1 41bd 9ea3 853c d855 b83e
00000200: 0017 333e 5cd8 b1bd f706 2a3e 2766 00be
00000210: af34 293e e649 1dbc c742 143b c1ad b8bd
00000220: 490e a73e 1736 4cbe 1a02 b8be e1d9 67bc
00000230: a065 503d b479 7e3e 1b2a 793e 187f 63be
00000240: cb98 7bbd 3dc5 0b3e cdf4 b2be 2ac0 a73e
00000250: c5a0 263e a1e1 4cbe b47b 013e 9664 ec3d
00000260: 1956 e73b f34e e7bd 55f0 74be 3b35 83bb
00000270: ade4 4a3e 459b 9e3d be09 b5bc ffc7 4b3e
00000280: 0bd0 93bc 32e8 e3bd 4295 883e 1ff4 b3bc
00000290: 9006 2a3e 500d 773d 9d13 013d 6bea 9c3e
000002a0: b422 b1bd 846a d53c 18d3 a83e 996a bc3d
000002b0: b372 ad3e 9c6a b43c 307c 083e 9c1f 293e
000002c0: b1c1 1b3e daf6 233e 3132 76bc 877f 8c3c
000002d0: 5b4a 4cbd c055 a0be 6bb9 28bd bef3 3d3e
000002e0: c17d 91be 68eb 9fbe 0b92 0cbd 01c1 563e
000002f0: 0538 163d 14e8 4ebe 44f8 52be 8901 97bd
00000300: f747 24be 455d 123e 7825 3fbe ef31 c1bd
00000310: 25f0 80bc 86fa 2cbe 0922 cfbd 411f 01be
00000320: 2865 7dbd 8250 3d3e 8034 333e 46d3 bf3d
00000330: 5047 893d 76e1 f0bd 897e 36be 43ce bcbd
00000340: bd71 7dbe fa5d 5fbc c20c c73d dcf3 5bbe
00000350: 59b4 e4bd b1b9 e83d ecfe 68be 2b8d 863e
00000360: 18b4 74be bc1e 49bd f866 b8bd 87b8 a83d
00000370: a86f 98be 68a8 debc d3bc 87be e09d 48be
00000380: a003 b63e 6eb6 c23d 6f32 12bf 0576 383e
00000390: cad8 9b3e 360e 29bd 5b59 04be e737 babe
000003a0: 9e67 913e 7270 e73d 05ae 79be 258a 7dbd
000003b0: 8295 ddbd f004 1ebe d157 8fbc 3ac4 a83e
000003c0: 72e0 423e c738 6cbe 22d8 a2be 0ccb a9be
000003d0: fa3f be3e 07d4 2ebb 49e8 17bd 6afa 5f3e
000003e0: fd20 76bc 3264 363e cc43 103e 148f 83be
000003f0: 566d 9abe 8380 fb3c 8133 983d f523 073e
0.20150696 0.12782049 0.14611873 -0.3471208 -0.25432774 0.10224424 0.15851593 0.07537219
-0.017920958 -0.056514397 0.04006423 0.09608279 0.02674235 0.10310312 -0.17610511 0.04707295
-0.03083506 -0.13427523 0.1423403 0.12728356 -0.13279228 0.08910371 -0.3548627 -0.21356602
-0.118094414 -0.22116202 0.11809001 -0.13510764 -0.25508878 0.14600495 -0.06431604 -0.072426006
0.007666504 0.09193593 -0.3749577 0.2659829 -0.07306074 -0.051010136 -0.37034857 -0.22053999
-0.36060727 -0.10255969 0.16109629 0.15914072 0.10202269 -0.15310518 0.06347735 -0.28677654
-0.3239385 -0.30296195 -0.17293982 0.2435893 -0.37432846 0.07194144 0.29459867 0.038333803
-0.23122635 -0.39775628 -0.020842733 0.013575581 -0.2471035 -0.069660015 0.19020039 0.05178425
-0.14958473 0.07135437 0.07049942 -0.16093488 -0.29957312 -0.096436754 0.045832064 -0.027153037
0.14550747 -0.086868905 -0.012423307 -0.046484932 -0.107021235 -0.111324996 0.120580316 0.06316364
-0.10790124 -0.21037003 -0.011495658 0.33469322 0.0709837 -0.130611 0.028522994 0.27272367
-0.35417306 0.029197445 -0.0059805964 -0.06355663 -0.34545624 -0.34042123 -0.15654832 -0.054425333
0.052390963 -0.25606474 -0.1824113 0.3156267 -0.05619058 -0.1470553 0.27067313 -0.3195614
-0.032388322 -0.070855685 -0.24694623 0.07985141 -0.1670917 -0.12753733 0.14518286 -0.26967338
0.13818437 -0.005663556 0.0047156704 -0.2573956 -0.04333283 -0.073941045 0.06685601 -0.030189274
0.08680829 0.20764275 0.16500239 0.06708899 -0.15969047 -0.04733466 0.01631337 0.36002994
0.17489243 -0.086838454 0.1660422 -0.12538968 0.16524003 -0.009600138 0.002262281 -0.09017516
0.32628086 -0.19942509 -0.35939103 -0.0141510675 0.050878167 0.24851114 0.24332468 -0.22216451
-0.06142501 0.13649459 -0.34952393 0.32763797 0.16272266 -0.20007946 0.12644845 0.11542623
0.007059824 -0.11294355 -0.23919804 -0.0040041483 0.19813795 0.07744459 -0.022099372 0.19900511
-0.018043539 -0.11128272 0.26676375 -0.021966992 0.16604066 0.06031543 0.031512845 0.30647597
-0.08649197 0.026051767 0.32973552 0.092000194 0.3387657 0.022023492 0.13328624 0.16515964
0.15210606 0.16012135 -0.015026615 0.017150654 -0.0498756 -0.31315422 -0.041192453 0.18550012
-0.28416255 -0.31234288 -0.034318965 0.20972063 0.03667452 -0.20205718 -0.20602518 -0.0737334
-0.16043077 0.14293392 -0.18666637 -0.09433352 -0.01573951 -0.16892442 -0.101139136 -0.12609579
-0.06186405 0.18487743 0.17500496 0.09366469 0.06703055 -0.11761753 -0.17821707 -0.09219029
-0.24750419 -0.013633246 0.0971923 -0.21479744 -0.11167211 0.11363543 -0.22753495 0.26279578
-0.23896825 -0.049101576 -0.09004015 0.08238321 -0.29772687 -0.027179912 -0.2651125 -0.19591475
0.3554964 0.09507452 -0.57108206 0.18013771 0.30438834 -0.04127332 -0.12924711 -0.36370775
0.28399366 0.11300744 -0.2438279 -0.061899323 -0.10819532 -0.15431571 -0.017497929 0.3296221
0.19030932 -0.23068534 -0.3180552 -0.33162725 0.37158185 -0.002667667 -0.03708676 0.21872869
-0.015022513 0.17811659 0.14088362 -0.25695097 -0.30161542 0.030700928 0.074316986 0.1319731

conv1.conv3.0.bias f4 [8]
00000000: 048a d7bc c84e 6bbc 406a 9abd bf38 e83b
00000010: 24cf 94bd 4744 c1bd 4109 d93d 2e37 20bb
-0.026310928 -0.014362045 -0.07539797 0.007086843 -0.072660714 -0.09436851 0.10597468 -0.0024446952

conv1.conv3.1.weight f4 [8]
00000000: 9773 833f 0048 8a3f 834d 823f c545 773f
00000010: aecf 653f 6240 863f 6c99 853f 943b 7c3f
1.026965 1.0803223 1.0179905 0.96590835 0.8977002 1.0488398 1.0437446 0.9852841

conv1.conv3.1.bias f4 [8]
00000000: c192 c53c 8fff 013e c0db 2c3e 19d1 d03d
00000010: 2499 353d f021 d63d 928a b03d 3710 ae3d
0.02411783 0.12695144 0.16880703 0.10196132 0.0443355 0.10455692 0.0862018 0.084991865

conv1.conv3.1.running_mean f4 [8]
00000000: 2973 acbf 5535 8fbe 2f72 243b dd13 b7be
00000010: f9ef 91bf 364e 28bf c307 16be b0a1 b8be
-1.3472644 -0.27970377 0.0025092473 -0.35757342 -1.1401359 -0.6574434 -0.14651398 -0.36060858

conv1.conv3.1.running_var f4 [8]
00000000: bb23 843f f9e8 ce3f 4c0f f93f 287d 503f
00000010: 7328 d43f 6790 2340 e21d b63f 9dbc d83f
1.0323404 1.6164848 1.9457793 0.81440973 1.6574844 2.5556886 1.422787 1.693256

conv2.conv1.0.weight f4 [16, 8, 3, 3]
00000000: d4c6 21bd e2a0 ed3c 1633 22be 7cd8 86be
00000010: 3be3 e13c 065f b83e aefb 7f3e 2e50 b3bd
00000020: 0eed a83d 8301 b13c 453b 1abd f5b7 6f3c
00000030: 3806 42be 9ed0 a6bd 0b9a b1bd 1768 923d
00000040: 8f96 073e 5c87 3cbe 9b59 babd e323 cabe
00000050: ff7b f13d e76b bebc 612d 993e 1eb5 f63d
00000060: 4a58 2d3e 2714 6e3e ff86 6cbc d3bd 143e
00000070: 8054 f13d a23d 403d d307 a33e 2bbf e3bd
00000080: bb00 9bbe 565d c0bd 77cc eabc 8377 b1bc
00000090: 0093 bb3c 2d2d bcbd 7de5 50bc 2abe 903e
000000a0: f758 bebd 8c4c 14bd 1737 25be 54d0 48bd
000000b0: b7cb c6bd 57d1 e4bc b1f6 39be 32f6 d33d
000000c0: c79a 4dbe b853 09be 186d 1abe 348e 57be
000000d0: 4b31 0bbe 36e4 4ebe 7f6f 80be 688c 0ebe
000000e0: 35ea adbd d454 c03c 3686 22bd 4734 05bd
000000f0: 7784 003c 3b5c 16be 9bcb 0bbd 1ded 1c3e
00000100: c68a d3bd 0a23 c03d fa95 84bb 17b7 7f3e
00000110: a8a1 083c 4baa dc3b c1f3 0c3e 8806 ae3e
00000120: fad2 cabd b172 b93d 92cc afbe 6751 93bd
00000130: 720e 42be ee01 85be c75d 673e c411 06be
00000140: ba9a 763e dca4 a33e 0b27 863e c510 af3d
00000150: 52a9 6d3e 2a19 793e cf10 c9bd 1a39 e23b
00000160: a2a8 663e 65f8 3b3e cf7a 2cbe c864 17be
00000170: 0ad1 8abe 5c8a 153e 2172 18be fe12 94be
00000180: 3b2e 49be e7da 5c3e 8f1d 063d 0a3e d0bc
00000190: 9d24 42be 0801 043d ead3 a83e 6352 91be
000001a0: aa86 ee3d b2aa f63d 666e 84be 0567 493e
000001b0: 65ef 3c3d 740a b3ba 2293 6dbe 651c bb3d
000001c0: 8c4b 6cbc 2949 f3bd cd45 a2bd 953c 1c3e
000001d0: c8fc eabd 7117 22be 632f c3bb 93e5 2a3c
000001e0: 7dd5 ccbd d41b 38bd 2b1f b2be 7e36 563e
000001f0: 96b5 aebd 1c59 6b3e 9010 973d 82fe 693e
00000200: 2f96 16be 7fb2 9a3e 80a4 fa3d fc18 ca3d
00000210: be3f b23d 6daa 4e3e e1c0 d0bd 7566 11bc
00000220: 6ce5 9e3a 5b91 c13d f773 4d3e 08a0 dfbe
00000230: c34e d2bd 38b3 0f3e c7af 06bd 2bae 633c
00000240: 347f 1abe 57f8 19be f5e5 ae3d a87e 04be
00000250: b5d1 b13d 2521 083f b4d2 a43d 4527 3abe
00000260: efe6 123e c90d e4bc e8e4 23be 48ce 65be
00000270: ab21 223e 5f22 1ebd 913c 623e 1e71 3fbe
00000280: f0f3 253d 3a2e 333e f6a5 3ebe 3e93 94be
00000290: a2e5 78be c47c e9bd 1855 193e 8173 6d3e
000002a0: 2db1 4f3e 3dd1 3e3e ecea 35be d9ca 37be
000002b0: 761d ff3e 4db7 5b3e 173e 0e3d be83 9d3e
000002c0: 00b1 f1bc 003a 123e 2ce0 9bbc 97c4 123c
000002d0: 47f7 433e ed3a 1b3e cac8 1a3d 7ac8 3cbd
000002e0: 74dd 66bc 5e76 f9bd c61f f2bd 40fe 823c
000002f0: c0f3 a13d ade6 41be 94d0 8ebe 264d 073e
00000300: 9090 f2bd 7f0f f43d 208e 64be 83b8 a4bc
00000310: 4e84 113e 714d 653c 99c0 45be 7638 8bbe
00000320: 6796 aabe 9acb 0fbe d6c8 6ebd 76ef 143d
00000330: ff3c 723e ef9f 6a3c df84 6fbd c23b 29be
00000340: 90b7 e5bd 41cc f63d 57fd 07be 3d95 9f3e
00000350: 03fd 843c c6c4 bbbd e437 96be fda7 263d
00000360: f0aa ae3d cc1b 2cbe dfec 6a3d 20eb 95be
00000370: d97c 89bd 118c ad3c e17f a63e 4a4e a3bc
00000380: 4d00 11be ed33 6cbe 6211 22be 29be 85be
00000390: e217 aebd 6ba3 7d3e d01a d53d 11b7 5c3d
000003a0: 18e5 12be 3b1d a4bd f227 bb3c 2623 393c
000003b0: fbf9 13bd 9c3d 30be c341 84bd 3ca0 9c3d
000003c0: b326 ddbd e82c ba3d 8c34 0c3e 3423 ba3d
000003d0: 6b16 6bbd 6b36 a0bc 3efb a4be 3501 b63d
000003e0: 5451 38bd 57fd 90be 2e3e 47bd 9a80 5a3e
000003f0: ad1f a83b 2826 c0bc fbc3 b7bd aac3 683e
-0.039496258 0.029007379 -0.158398 -0.2633704 0.027574172 0.36009997 0.24998352 -0.087555274
0.082483396 0.021607166 -0.03765418 0.014631261 -0.18947685 -0.08145259 -0.086719595 0.0714876
0.13241027 -0.1841101 -0.09099122 -0.39480504 0.117912285 -0.023244811 0.29917434 0.12046264
0.16928211 0.23249875 -0.014436482 0.14525537 0.11783695 0.046933778 0.31841907 -0.11120447
-0.30273995 -0.093928024 -0.02866195 -0.021663433 0.022897243 -0.09188304 -0.012750027 0.28270084
-0.092943124 -0.036205813 -0.16134296 -0.049026802 -0.09706824 -0.027931852 -0.18160512 0.103496924
-0.20078574 -0.13410842 -0.15080678 -0.2105034 -0.13593023 -0.20204243 -0.25085065 -0.13920748
-0.08491937 0.02347795 -0.039678775 -0.03252056 0.007844082 -0.1468362 -0.03412972 0.15324827
-0.10329203 0.09381683 -0.004046199 0.24972187 0.008339323 0.0067341677 0.1376486 0.33989358
-0.09903522 0.09055079 -0.34335762 -0.07193261 -0.18950823 -0.25978035 0.22594367 -0.13092715
0.24082461 0.31961715 0.26201662 0.085481204 0.23209122 0.24326006 -0.09817659 0.0069037797
0.22525266 0.18356474 -0.16843723 -0.14784539 -0.2711261 0.14603561 -0.14887287 -0.2892074
-0.19646542 0.2156788 0.032743033 -0.025420208 -0.1895928 0.032227546 0.32974178 -0.2838317
0.11646779 0.12044276 -0.25865477 0.19668205 0.046126742 -0.0013659731 -0.23200658 0.09136275
-0.014422309 -0.118791886 -0.0792347 0.15257485 -0.114739954 -0.15829255 -0.0059565767 0.010430711
-0.10001657 -0.044948414 -0.34789404 0.20919225 -0.085307285 0.22983211 0.07376206 0.22850993
-0.14705728 0.30214307 0.12238407 0.09868047 0.08703564 0.201822 -0.10193039 -0.008874525
0.0012122816 0.094515525 0.20063768 -0.43676782 -0.10268929 0.1403321 -0.032882478 0.013896505
-0.15087587 -0.1503614 0.085399546 -0.1293894 0.086825766 0.53175575 0.08048001 -0.18179043
0.14345907 -0.027838605 -0.1600529 -0.22441971 0.15833156 -0.038606998 0.22093417 -0.18695495
0.04051584 0.17498103 -0.18617997 -0.29018587 -0.24306348 -0.1140075 0.14973867 0.23188592
0.20282431 0.18634506 -0.17765397 -0.17948474 0.49827164 0.21456642 0.034727182 0.30764574
-0.029503345 0.14279938 -0.019027792 0.0089580035 0.19137298 0.15159197 0.037789144 -0.046089627
-0.0140908845 -0.1218078 -0.118224666 0.015990376 0.0790782 -0.18935652 -0.27893507 0.13213024
-0.11843979 0.11917018 -0.22319841 -0.020107513 0.14210626 0.013995514 -0.19311751 -0.27191514
-0.33317873 -0.14042512 -0.058297 0.03636118 0.2365608 0.014320358 -0.058476325 -0.16526702
-0.112166524 0.12050677 -0.13280235 0.31168547 0.016233927 -0.09168391 -0.29339516 0.04068755
0.085286975 -0.16807479 0.057354804 -0.2928095 -0.06713266 0.021184953 0.3251944 -0.019934792
-0.14160271 -0.23066683 -0.15826944 -0.26121643 -0.08500649 0.2476937 0.10405505 0.053885523
-0.14345205 -0.08013388 0.022846196 0.011299884 -0.03612707 -0.17211002 -0.064578556 0.0764775
-0.10798397 0.090905964 0.1369192 0.09088746 -0.057394426 -0.019557199 -0.32222933 0.08886949
-0.044999436 -0.28318283 -0.048643284 0.2133812 0.005130729 -0.023455694 -0.08972927 0.2273089

conv2.conv1.0.bias f4 [16]
00000000: eb09 a0bd e276 0abd 7b20 d23d 37e0 1c3d
00000010: 9619 e83d 7e68 3aba 9b0e 80bd e156 b13c
00000020: a719 e4bb 8747 cabc d7b9 a139 c87a 90bd
00000030: 3b25 133d 35ed 8dbc fc57 aebd cfcd cebd
-0.07814392 -0.03380478 0.102601014 0.038299765 0.11333005 -0.00071109075 -0.06252786 0.021647872
-0.006961066 -0.02469231 0.00030846774 -0.07054669 0.035924178 -0.017325023 -0.085128754 -0.100978486

conv2.conv1.1.weight f4 [16]
00000000: 228f 833f 0e97 883f 46a0 7a3f 7346 6c3f
00000010: 82ee 863f 4301 5a3f 4828 813f 42db 893f
00000020: 900f 5f3f 62a5 6c3f e791 793f d0af 8d3f
00000030: 5d80 673f 1bae 853f 7d0c 7b3f 182a 8e3f
1.0278056 1.0671098 0.9790081 0.92294997 1.0541537 0.85158175 1.0090418 1.0770037
0.8713312 0.92439854 0.97488254 1.1069279 0.9043024 1.0443758 0.9806593 1.1106596

conv2.conv1.1.bias f4 [16]
00000000: 2b62 a73c 38b8 0e3e 4cc4 67bb 99ae 50bc
00000010: 5e51 db3c 4c32 49bd d8d0 f23c 93ba b73d
00000020: e4f1 9d3b 901d dcbd f814 a3bd 7d25 27ba
00000030: e760 9ebd 813d 4c3d 245d 3dbd c25f 2a3d
0.020432552 0.13937461 -0.0035364805 -0.01273694 0.026772197 -0.049120232 0.0296406 0.08971133
0.0048200954 -0.10747826 -0.07962984 -0.00063761306 -0.077333264 0.049863342 -0.046231404 0.041595228

conv2.conv1.1.running_mean f4 [16]
00000000: a2ed 05bf 1a93 513e ed94 08bd a525 febd
00000010: f4a3 a73f 26a6 8d3e f439 8cbf ec4c 5abf
00000020: 0491 80be 912c 403e 15c7 133e 1ff7 acbf
00000030: 731d d2bf 5efb 463e 9ee6 1bbf a12b 0fc0
-0.52315724 0.20466271 -0.03334515 -0.12409524 1.309691 0.27665824 -1.0955186 -0.85273623
-0.25110638 0.18767 0.14431413 -1.3512915 -1.6415237 0.19431826 -0.6089877 -2.237038

conv2.conv1.1.running_var f4 [16]
00000000: 7de4 0240 9fe9 9b3f bec7 ee3f cb55 f03f
00000010: 0dce 3a3f db87 743f a98c 0b40 ddda 853f
00000020: 62f7 8d3f 0c31 ba3f 683f 8b3f e1a3 963f
00000030: a640 603f 32c4 e93f a2ac ec3f cd67 873f
2.0451958 1.218067 1.8654706 1.8776182 0.7297066 0.955198 2.1804602 1.0457417
1.109112 1.4546218 1.0878725 1.1768762 0.87598646 1.8262999 1.8490183 1.0578552

conv2.conv2.0.weight f4 [16, 16, 3, 3]
00000000: c598 0fbe 890d e93d 2d96 013e a5e5 3bbd
00000010: 41f8 96be 79d2 cdbc 7924 4cbe fa62 983d
00000020: 5ff7 febd 741e 133d e096 f63d dbaa e93c
00000030: 1494 9abe 8a45 1d3e 19f8 67be 6a38 83bd
00000040: 720d efbc 51b3 1ebd 1c0f 4f3d c6bf c53d
00000050: b572 a9be fdc6 173d 6afd bb3c 7b78 27be
00000060: 3d3a ba3c 39ae 65bd 411b 66bd f56f be3c
00000070: 1a7b 98bd 1bfc 063e c199 2cbd 644f 4e3e
00000080: 271b c03d 50d0 b5bc 626b 37bd 7571 afbd
00000090: aec2 4d3e 948f d5bd c623 9c3d 6c54 92be
000000a0: 3766 d23c 2810 21bd 7255 743e 02d8 68be
000000b0: 63a4 5cbe 394c f73d f633 4ebe 5d08 503e
000000c0: b2fc 16be 0ae3 fd3d 3221 36bd f1b9 09bd
000000d0: 5ba7 42bd 9d5f 463e 0ee4 92bd 488d 0c3e
000000e0: 06ef 1d3e b531 92bc cbc1 c43e 6afe b73d
000000f0: 72c5 173e 4fd3 28bb a2ed eabb 78e6 093e
00000100: 7242 32bc 2aa8 1bbe ba4b 8f3d 1f85 98be
00000110: 903c 35be e19c 42bd f6d7 68bb c4c0 75bd
00000120: 450f d93d 49e5 0bbd 5a8e 12be 6eb4 60be
00000130: ac93 633b 8f48 9cbd 8908 91bd 97cf 393e
00000140: db9e a03d 9b77 c3bd af7f 25bc e341 273e
00000150: eaf3 d43d 4efd 6abd 92ef 6abe cf19 3dbe
00000160: 98b7 dbbd 7d5f 51bd 2d80 b23d ee88 fa3d
00000170: f8ca 0fbd dda0 30be ee53 1e3e 3532 73be
00000180: 4dab 59bd 0640 d63d 1c74 d4bd 8f18 9f3d
00000190: 15b7 af3d b319 b13d e94e a5bc 25e3 2abd
000001a0: e0ab 853d acb5 4b3e 5f60 823d 8082 793e
000001b0: ecda 95bd 40be 973d 5e0d 4cbd 2596 a6bd
000001c0: 6c1d 3ebe cb80 b03c 7bdb abbc 41e7 2c3c
000001d0: 8bfb 44bd e3fe 9f3d 7f95 583e 7bfc 07be
000001e0: 2824 d2bd ce95 59be e443 23bd 7880 893d
000001f0: bbe9 513d bd78 19be c27d 13be ac09 eabc
00000200: 9e36 393e a4ff e0bd 2163 383d a68f eebd
00000210: 4b2f 743d 9ce5 d73c 3c30 41be 9888 3cbd
00000220: 4ce4 c63d f17e 4cbd ebcc ac3d 3b81 f8bc
00000230: 9d0c 7cbc c045 9abe 0dee 913d 59a3 b3bd
00000240: e3dc bcbd 93c8 f33c cdd5 163e 2258 1bbb
00000250: 2a62 973d d4b7 823d 23f4 6dbd 717b a93d
00000260: 8fa1 97bd beb9 1d3e 0e4b 753e 44cf 333c
00000270: 25d9 06be 5736 243c 6d3c fc3c 8137 943d
00000280: ed6e 4bbe 2f12 23bc 084b 953d 680e ea3c
00000290: 98d0 edbd 0c7e 653e e187 02be 1362 1b3d
000002a0: d969 1ebe c51b ed3d 1ac5 3a3e 4f95 2e3e
000002b0: 3cdb 943d 813c 59bd e9ff 1d3e b06c 52bd
000002c0: d391 103e ddd1 303e 0588 003e 962b 743d
000002d0: 68e1 49be 3fce ce3c 2941 df3c 77ec 96bd
000002e0: 87c9 733d 2bf8 b03c bd60 0cbe 6184 2bbd
000002f0: b7ce 72bd f43b 9b3d a603 1f3b a3fe d5bd
00000300: a41e e5bc 9448 d93d e83e 7ebe 648e 5e3d
00000310: 6ca8 54bd 1d7d d53c e8f6 01bd cc97 eebd
00000320: d492 c23d 292e c33d 95a6 10be 1ba7 9cbd
00000330: d433 6e3d 76f4 6e3d c71e 6e3d e815 57be
00000340: 8a85 e0bc 5bd1 a7bd 5015 8bbd 8f5f edbd
00000350: fc52 01be ed54 2ebe 1b57 663d 72d3 143d
00000360: 7f9f 873e 5f9c 00bd d796 e3bd 41db c6bc
00000370: b7c1 203e 628c ef3c c40e 42bd 3fd6 df3d
00000380: 990d 763e 1284 3fbd 031a 9abd 4bb7 4bbe
00000390: bd3c 06be 5ebc 5ebd 6a8c 2cbe 1319 37be
000003a0: 4d91 bebd 9940 2d3d aadf 5c3d cee7 263e
000003b0: ce75 43bd 6ce2 5e3e 5d20 f83d d1bd a43d
000003c0: 5cc4 d13d 84d6 8f3e df4d 1dbe dc8f 75bd
000003d0: eb1c c83e 3dde e53d 52f6 3dbd 0900 3bbe
000003e0: 662c 233d 5451 01be 31cb b43d ac5f 10be
000003f0: d6f3 eb3d d8e4 ecbe 24e7 983e daba ea3d
-0.1402312 0.11379535 0.12654944 -0.045873303 -0.29486278 -0.025124775 -0.19935788 0.07440753
-0.12449526 0.035917714 0.12040496 0.028523853 -0.301911 0.15358558 -0.22653235 -0.064072445
-0.029181216 -0.03874523 0.05055152 0.096557185 -0.33095327 0.037055004 0.022947986 -0.16354553
0.022732848 -0.056074355 -0.056178335 0.023246745 -0.07445355 0.13182108 -0.04213882 0.20147473
0.09380179 -0.022194058 -0.044780143 -0.08566562 0.20093796 -0.10427776 0.07624011 -0.28580034
0.025683505 -0.03932205 0.2386072 -0.2273865 -0.21547084 0.12075085 -0.20137009 0.2031569
-0.14744833 0.1239682 -0.04446525 -0.033624593 -0.047522884 0.19372411 -0.07172404 0.1372577
0.15423211 -0.017845968 0.38429102 0.089840725 0.14821413 -0.0025760715 -0.0071694413 0.13466823
-0.0108801 -0.15200868 0.069968656 -0.29789063 -0.17698884 -0.047512893 -0.0035529113 -0.05999829
0.105986156 -0.03415421 -0.14312115 -0.21943828 0.003472547 -0.07631027 -0.07081706 0.18145595
0.07842799 -0.09544297 -0.010101243 0.16333728 0.103980854 -0.057370476 -0.22942951 -0.18466876
-0.10728377 -0.051116455 0.08715854 0.122331485 -0.035105675 -0.17248864 0.15461704 -0.23749621
-0.05314188 0.1046143 -0.103737086 0.07768356 0.08579842 0.0864748 -0.020179229 -0.04172053
0.06526923 0.19893521 0.063660376 0.24366188 -0.07317147 0.07409334 -0.049817435 -0.081341065
-0.18565911 0.021545788 -0.02097868 0.010553182 -0.048091453 0.07812288 0.21150778 -0.13279907
-0.102608025 -0.21248552 -0.039859667 0.067139566 0.051248293 -0.14987464 -0.14403442 -0.028569065
0.18087241 -0.109862596 0.04501641 -0.116484925 0.059615415 0.026354603 -0.18866056 -0.046028703
0.09711513 -0.04992575 0.084375225 -0.03033506 -0.015383867 -0.3013134 0.07125483 -0.087713905
-0.09221818 0.029758727 0.14729996 -0.0023703654 0.0739177 0.06382719 -0.058094155 0.08275498
-0.07403862 0.15402886 0.23954412 0.010974709 -0.13168772 0.010022721 0.030790532 0.07237149
-0.19866534 -0.009953066 0.07289702 0.028571323 -0.11612052 0.22411364 -0.12747146 0.037935328
-0.15470065 0.11577562 0.18239251 0.17049144 0.07268378 -0.053036217 0.15429653 -0.051373184
0.14118128 0.17267556 0.12551887 0.05961188 -0.19714892 0.02524483 0.02725275 -0.07369321
0.059518363 0.02160271 -0.13708778 -0.041874293 -0.05927917 0.075797945 0.002426365 -0.10448959
-0.027968712 0.10609546 -0.24828684 0.054335013 -0.051918432 0.026060635 -0.03172961 -0.11650047
0.095006615 0.09530289 -0.14126046 -0.0764906 0.058154896 0.058338605 0.05813482 -0.2100445
-0.027407426 -0.08194228 -0.067911744 -0.11590492 -0.12629312 -0.17024584 0.056235414 0.036334462
0.26488873 -0.031399127 -0.11112755 -0.02427447 0.15698896 0.029241744 -0.047377363 0.10929536
0.24028625 -0.04675681 -0.075244926 -0.1989414 -0.13109107 -0.05437886 -0.16850439 -0.17880659
-0.09305058 0.042297933 0.05392424 0.16299364 -0.04771977 0.2176606 0.12115548 0.08044017
0.10242531 0.2809335 -0.15361737 -0.059951648 0.39084563 0.11224029 -0.046377487 -0.18261732
0.039837264 -0.1262868 0.08827818 -0.14098996 0.115211174 -0.46268344 0.29863846 0.1146142

conv2.conv2.0.bias f4 [16]
00000000: f944 9fbc 65ed 7cbd 00f3 8fbd c80c 76bd
00000010: 7fba 063d e3bb 0fbc 52a9 b0bc 09e5 e13c
00000020: 2e7d 4f3d ad49 3e3d 0b6d e13c 7e5e a13d
00000030: 2428 683b 645e ff3a 44d3 063d 971b aa3d
-0.019442068 -0.061749835 -0.070287704 -0.060070783 0.0328927 -0.008772823 -0.021565113 0.027575033
0.05065649 0.04645698 0.027517816 0.07879351 0.0035424316 0.0019483087 0.032916322 0.083060436

conv2.conv2.1.weight f4 [16]
00000000: b804 843f 2256 833f 5b9a 693f ce0a 7e3f
00000010: 66f0 7f3f 7b03 693f e5b2 833f 61a5 7c3f
00000020: 8f15 883f 7cae 813f 448f 683f b2f9 6e3f
00000030: a130 8c3f d287 853f e8cd 823f 8dfb 783f
1.031394 1.0260661 0.9125115 0.99235237 0.99976194 0.91020936 1.0288969 0.9868985
1.0631579 1.0131373 0.90843606 0.93349755 1.095234 1.0432074 1.0219088 0.97258836

conv2.conv2.1.bias f4 [16]
00000000: 5b5a c83c 32df 1b3d ca7d 1d3c a371 bf3c
00000010: 7f0c babc 7663 a73d 6f59 b23d fd2f 4fbb
00000020: 52b6 483d eabc 903d d39d 2e3d 9063 acbd
00000030: 016c a93d 4832 183d 65a5 833c cde5 783d
0.024457147 0.038054653 0.00961251 0.023369616 -0.022711037 0.081732675 0.08708464 -0.0031614297
0.049002 0.070672825 0.04263098 -0.084174275 0.08272553 0.037157327 0.016070077 0.06076603

conv2.conv2.1.running_mean f4 [16]
00000000: 1dd8 46bf b256 703e ce59 b8be afb2 cfbe
00000010: b58e 7cbf 3710 c23e 913b 013f 70f2 ab3f
00000020: a101 6fbf bd83 89bf 7d70 49bf 2081 823f
00000030: d458 7ebd 91de 853f ccab 8abf 0b0c 17bf
-0.7767351 0.23470572 -0.36006016 -0.40566012 -0.98655254 0.37902996 0.50481516 1.3433361
-0.9336186 -1.0743328 -0.7868727 1.0195656 -0.06209643 1.0458547 -1.0833678 -0.5900275

conv2.conv2.1.running_var f4 [16]
00000000: 4af2 8c3f 0765 823f ea4e 0c3f f5b7 513f
00000010: 0b53 ae3f 3408 5240 8f7f 613f 66ee 3d40
00000020: 64d6 c33f b6ea e23f 268b a63f f8ca b83f
00000030: 5880 a63f 99fd a53f 10db a83f 0168 f93f
1.1011441 1.0187081 0.54807913 0.8192132 1.3619093 3.2817507 0.88085264 2.9676757
1.5299802 1.7727878 1.3011215 1.4436941 1.3007917 1.2968017 1.3191853 1.9484864

conv2.conv3.0.weight f4 [16, 16, 3, 3]
00000000: 6ee9 0f3e da4b 9cbd 1cf2 d53d f7bb d93d
00000010: 79c7 acbd 9a22 073e ecac 22bd a1d7 d6bc
00000020: 9d59 81ba c47b cb3d 1363 24ba 315b e63d
00000030: 4615 feba bd7d f53d 1136 493d 0825 f83d
00000040: 25b3 563e aeec ba3d 30f3 65bd 9573 9bbd
00000050: 6adf 003e 4825 92bd bc27 033e a30f 403e
00000060: 9f2f 72bd 1576 bf3c 09f9 193e 8e25 07bd
00000070: 835c 19be 3916 80bd a05a c4bd 6391 f03d
00000080: 120b da3d 26a8 a83d b4ed 2d3d 80d3 b1bd
00000090: 2fae 97bd 0faa 213d b3f1 f0bd 0b0f 13be
000000a0: 7e32 a3bd d2cb 043d 1cff acbd febe 3fbd
000000b0: effc 06bd f171 cdbd 5f83 bfbc 4c9d 6cbd
000000c0: 26c9 b8bd 9b2c c13d 8088 1e3e d40d 9abd
000000d0: 8d4c c63d e0b6 813e 79e5 10bd 3939 8d3c
000000e0: 56d9 b53d 9a8f ec3d 516c 1abd f6c3 1a3e
000000f0: 70bb a53d 1eb8 ca3b 414d 043e c7c0 33be
00000100: 8df2 23be bc66 40bc 08cd ea3c 1144 723d
00000110: a382 8a3d 1c73 d23c a257 3ebd 09cf 123d
00000120: 4d5a 94bd 242e 16bd 2f68 73bb 6fb0 103c
00000130: 298b 35bd 199a 3a3d a1e8 23be 31bd 03bd
00000140: a145 e4bd 0a5f 38bd ae33 9b3b a631 433e
00000150: fb06 853d 9cc9 c03d e300 d33d ceb9 913d
00000160: 83a7 ca3c 222e 583e b961 713c 53c4 01be
00000170: 6a50 6f3e 034c 31be 87ab 32be fa70 85be
00000180: e126 c4bd cf16 97bd ed36 c4bd 27fd ea3d
00000190: 9587 24be a853 e53d 77d0 853c 307d 31bd
000001a0: 8e6a 02be 2229 fc3c 65dd 90bc 99df 023d
000001b0: 7fc8 b43d c929 c43d b8a6 0c3d c1da 1b3d
000001c0: 41d6 98bc f1a0 fa3d 9eef 6e3e bef7 e9bc
000001d0: 7552 a63d bff5 183e 4038 47bd 5ebd 83be
000001e0: 05d3 a3be 0c73 4b3d 12d8 cbbd 85c7 f0bd
000001f0: dd05 63be 2361 30bd 12e3 233d 497f cf3d
00000200: 9391 92bc 0d1a 4e3d 3775 2a3d 4640 aabd
00000210: 2a6d 1fbd ee5c 943d f811 41bd 91b7 893d
00000220: bef3 95bd 3c88 6bbe 51c6 743c dcef 143e
00000230: 8670 a53d 1ab7 44be b946 6d3d 1d61 ce3c
00000240: a7c3 b9bd 8578 b1bd 980a 81bd dbea 803d
00000250: 5e2d 5e3e bf7e e73c 582c 4abd 2d68 8ebc
00000260: bdbc 883d 81b3 e7bc 5f31 9c3d 4f65 c03d
00000270: ccd6 8bbc 29d7 763c 8aaf c03d f693 983d
00000280: 9fe5 b7bd 160e f5bb 37f1 993c c9d5 42be
00000290: f01b babd 0112 4cbd 46da 97bd a490 9dbd
000002a0: 6587 1dbd 971e 52bd 30e2 ad3d 124c 803d
000002b0: 9c89 8d3d a43a b2bc 9b8c e43d 1a6a bf3c
000002c0: 4b80 a5bc 972f 103c 3513 88be 06ab d23d
000002d0: 1b1f 873e 2447 f4bd cbfe e4bd 839c 343e
000002e0: 4b6a 81bd 31be 5e3e a203 1d3d 538f 7db9
000002f0: 8b3b 23bd 1950 9ebc 60f0 8cbc 16dc 17bc
00000300: 3a64 2dbc f7da d3bd 8395 2b3c fd4d 7a3e
00000310: b367 d23d 05b5 ed3d 9837 a03e 1947 6b3e
00000320: d43a e83d a507 6d3d 9672 45bd a353 2f3d
00000330: d633 cd3d 5fbd 4c3d 2955 b1bd 4e2c d73c
00000340: 6e0a 1d3e 3d8a 003e b14c 563e 7ce1 8b3d
00000350: 5262 ba3e d03e 933c 89bd ba3c cb69 e13d
00000360: 08f4 913d bbe9 bdbd 39b5 f6bd ddb3 4a3e
00000370: c59b c53d 55b7 003e 2c9b a9be e783 36be
00000380: 1625 d63d 70f4 063e f1e6 5cbc f6d7 97bd
00000390: f417 533e 7ff5 4b3e 5701 08bd 1171 94bc
000003a0: 4bf1 b6bc d45f 48bd 19f7 a938 1697 c7bd
000003b0: 8db9 8d3d cc0d ddbd 1f23 b83c 64ab 673d
000003c0: 98f5 e53d c6a9 8d3d d462 a43d 7015 57ba
000003d0: 2d70 c2bd 231c c3bb 8fa8 eabd 1c75 e03d
000003e0: f57f 5e3d 1c6e bebd 7314 a43d 9b33 2fbc
000003f0: df61 ffbd 08fc a03d 00e4 57bc 0ad2 5abe
0.1405389 -0.07631655 0.10446569 0.106315546 -0.08436484 0.13196793 -0.039715692 -0.026225867
-0.0009868626 0.09935716 -0.0006270867 0.11247862 -0.0019385002 0.11986873 0.049123827 0.12116438
0.20966776 0.09127174 -0.056140125 -0.07590405 0.12585226 -0.07136017 0.12808126 0.18755965
-0.059127446 0.023371736 0.15036406 -0.0329948 -0.14976697 -0.06254239 -0.09587598 0.1174648
0.10646643 0.08235197 0.04246302 -0.086829185 -0.0740627 0.03946882 -0.117648505 -0.14361207
-0.07968615 0.03242094 -0.08447096 -0.046813004 -0.03295606 -0.10031498 -0.023378072 -0.057767197
-0.09022741 0.09432336 0.15481758 -0.07522169 0.0968257 0.25334835 -0.035375092 0.0172392
0.08879344 0.11550827 -0.037700955 0.15113816 0.080923915 0.0061864993 0.12920095 -0.17554007
-0.16010495 -0.011743244 0.02866222 0.059146944 0.06763198 0.025689654 -0.046470292 0.035841975
-0.07243786 -0.036665097 -0.0037140956 0.008831128 -0.044322167 0.045557115 -0.1600671 -0.03216285
-0.11146093 -0.04501251 0.0047363853 0.19061908 0.06495472 0.09413454 0.103029035 0.071155176
0.024738079 0.21111348 0.014732772 -0.12672548 0.2337052 -0.17314152 -0.17448245 -0.26062757
-0.09577728 -0.07377397 -0.09580789 0.11474066 -0.16067345 0.11197597 0.016334755 -0.04333228
-0.1273596 0.030781332 -0.017683694 0.03195152 0.08827304 0.095782824 0.034338683 0.038050417
-0.018656852 0.122377284 0.23333594 -0.028560515 0.08121196 0.14937495 -0.04863763 -0.25730413
-0.31996933 0.049670264 -0.099533215 -0.11756805 -0.22170205 -0.043061387 0.040011473 0.101316996
-0.01789168 0.050317813 0.04161569 -0.083130404 -0.038922466 0.072442874 -0.047136277 0.06724466
-0.07321881 -0.23001188 0.01493986 0.14544624 0.08078103 -0.19210473 0.057928775 0.025192792
-0.09070521 -0.086655654 -0.06300849 0.06294795 0.21696994 0.02825868 -0.049358696 -0.01738366
0.06676624 -0.028283836 0.07626604 0.09394323 -0.017070197 0.015065947 0.094084814 0.07450096
-0.089793436 -0.007478486 0.018791778 -0.19026865 -0.0908736 -0.049821857 -0.07414679 -0.07693604
-0.0384592 -0.051298704 0.084904075 0.06264509 0.069110125 -0.021756478 0.11159631 0.023366023
-0.020202776 0.008800409 -0.26577154 0.102865264 0.2639092 -0.119276315 -0.111814104 0.1763783
-0.06319102 0.2175224 0.038333543 -0.00024181353 -0.039851706 -0.019325303 -0.017204463 -0.009268781
-0.010582978 -0.103444986 0.010472658 0.24443813 0.10273685 0.11606792 0.31292415 0.2297634
0.113393456 0.05786862 -0.04820498 0.04280437 0.100196525 0.049985286 -0.08658821 0.026266243
0.1533601 0.12552734 0.20927693 0.06830117 0.36403137 0.017974287 0.022795456 0.110065065
0.071266234 -0.09273096 -0.12046284 0.19795175 0.09648851 0.12569936 -0.331262 -0.17823754
0.10456292 0.13179183 -0.013482795 -0.07414238 0.20614606 0.19917868 -0.033204403 -0.01812032
-0.022331854 -0.048919514 8.1045735e-05 -0.09745614 0.06920157 -0.10793647 0.022477685 0.056559935
0.11228484 0.06917147 0.080266625 -0.00082047936 -0.09494052 -0.005954282 -0.11457931 0.10959837
0.054321248 -0.092983454 0.08011713 -0.010693456 -0.12469839 0.07860571 -0.013176918 -0.21369186

conv2.conv3.0.bias f4 [16]
00000000: 3604 0cbc 647a 9e3d 70ab 86bd 77cd 32bd
00000010: 2af3 5bbd 0c24 8c3d 199c 5c3d 9111 9bbd
00000020: 59b4 593c 41de 84bd 832c adbc c51e 713c
00000030: 2fb9 8b3c 1ffa 74bd 699c 59bd 0d22 3cbd
-0.008545926 0.07738188 -0.06575668 -0.043652978 -0.053698696 0.06842813 0.053859804 -0.0757171
0.013287627 -0.06487704 -0.021139389 0.014716809 0.017056076 -0.059808847 -0.05312768 -0.04593091

conv2.conv3.1.weight f4 [16]
00000000: a2d4 903f 0ab6 6c3f 3ec1 873f 4e7b 723f
00000010: cb38 813f ac50 883f 0689 873f 5adf 7e3f
00000020: 72f8 733f 8e52 643f e324 823f b4af 853f
00000030: f7fb 863f 6c3d 7c3f d55a 733f b076 6f3f
1.131489 0.9246527 1.0605848 0.947194 1.0095457 1.0649619 1.0588691 0.9955956
0.9530097 0.8918847 1.0167507 1.0444245 1.0545644 0.9853122 0.95060474 0.9354048

conv2.conv3.1.bias f4 [16]
00000000: f264 413d 3cdb 42bd 26c9 b63b 9dd4 d03c
00000010: 179d 8ebc cb68 d1bc 596d 1c3d d5ad 44bc
00000020: 1806 923d dcd2 85bc 950a c03c d63f 723c
00000030: 6bb3 78bd 1f38 e8bc b0f2 c13c b968 3a3d
0.04721541 -0.04757236 0.005578178 0.025492007 -0.01740889 -0.025562664 0.03819022 -0.012004335
0.071300685 -0.016335897 0.023442546 0.0147857275 -0.06071798 -0.028347073 0.023675293 0.045510028

conv2.conv3.1.running_mean f4 [16]
00000000: 8caa ac3e 4eef 973f 7444 24bf b04c c6be
00000010: 9824 42bf 0e1b abbe 27e7 cbbf dcff b1bf
00000020: f355 c13e 6c86 41bf 2f7d bebe dc0e 943d
00000030: 0c91 8a3e 1084 0b3f f5b3 023e e66d 383f
0.33723867 1.1869905 -0.6416695 -0.38730383 -0.7583709 -0.3341908 -1.5929917 -1.3906207
0.37760887 -0.75595737 -0.37204883 0.07229397 0.27063787 0.54498386 0.1276396 0.7204269

conv2.conv3.1.running_var f4 [16]
00000000: 6761 973f 4051 d13f 147b c73f 319c c33f
00000010: 5596 be3f 678d e73f 5074 843f 9f7c 0740
00000020: 3c83 2b40 86d3 7a3f 23a3 953f edac f63f
00000030: 6202 fc3f 7572 dc3f 593d a23f 1721 a23f
1.18266 1.635292 1.5584435 1.5282041 1.4889628 1.8090028 1.0347996 2.1169813
2.679885 0.9797901 1.169041 1.9271523 1.9688227 1.722243 1.2674972 1.2666348

conv3.conv1.0.weight f4 [32, 16, 3, 3]
00000000: c08e 40be bbbd d0bc 4d64 7e3e 847e 95bd
00000010: 54e9 263e 60eb 01be 77c5 f5bc ae55 333d
00000020: c032 33be dcce f93d 303b fa3d 9c69 593e
00000030: 18ee 65bd 8672 98be 87bb f03d 89d1 32be
00000040: abd8 e4bc 028a 393e 6f94 6a3d b18b a13d
00000050: f641 0abe 6de3 f1bc 6d26 5c3d e008 18be
00000060: 2b18 8a3c 859c b73d 5ba1 69be baa0 9abd
00000070: 0064 463c 5116 3abd dd19 9ebd c86c 073d
00000080: 05ac 2dbe 6744 7fbd 5b04 413c bcc6 f4bc
00000090: 003f 123e 9a8a f7bd 0633 533d 1e19 98bd
000000a0: ec89 713e 2dce a2bb 5dee babc 39b5 cdbd
000000b0: ef0a e13b 46e0 4c3d 6c9a 023e d93a e73d
000000c0: 621e 813c 471b 6fbc d13c 19be a48e f4bb
000000d0: f4f1 6bbc e87c 0b3e dd36 5abd f171 1ebe
000000e0: f4f2 f1bd 59c9 c5bc d982 c9bc 1f8a 4c3d
000000f0: 89b4 213e c1a5 06be 00c9 21bd 409f 3ebd
00000100: 8aa4 fdbd 5896 b9bb 2298 d1bc 407b e73b
00000110: 23b8 9fbd cd6e debd 4c44 2e3e 7b3e c9bb
00000120: 71fa 503e 1084 13be 6153 15be fd67 3f3e
00000130: b07b 363e 8f6c 39be 5e5c 32bd b190 a43d
00000140: b046 07be c10c 693e 6a73 1abd c1fa 233e
00000150: c86d 603e 0449 8d3e c812 c1bd 8f16 9bbd
00000160: 7316 323d 7f9e e2bd 29f9 f8bd f4ac 9ebd
00000170: 1fbb e4bc e0e7 08be c515 c3bd f5c1 103e
00000180: baf6 283e 1929 0abe 57a3 bdbc c4a0 d33d
00000190: 143a 623d 5e9e 0fbe 9c4a 69bd e588 313e
000001a0: 95d0 38be 726a 89be 87af 3fbd fd0c bfbd
000001b0: 8b79 ed3d 34d5 37bc 62ab 6d3d 2c57 823e
000001c0: 455e 34bd 7a18 313e f526 04bd 379a 7b3e
000001d0: fb5d 20be 26fd 67be d735 c0bd 05be 9ebd
000001e0: daf1 0ebd 9a8b 39bd c382 283e efb7 2dbe
000001f0: 2d02 7e3d 8e64 5dbe 985c b03c 58a7 7c3c
00000200: 5477 57be 81dc 12bd e9dc 323e 0d1f 8a3e
00000210: 78c1 b3bd 3ef1 0fbd 6ade e23d 3471 093e
00000220: 3171 9e3e 9805 513a 9b72 843e 78cf 04bd
00000230: 75fd 5cbd 5ea8 793d b967 203e a7a8 8abd
00000240: ed28 96bb 101a 96bd 51de 5b3c 9c94 69be
00000250: 0c2e b1bd 1ce5 1b3e 68ec 2d3d 5b53 103e
00000260: 49f2 243e 1787 133c fbcf 853e 278d 9cbd
00000270: e22d 00be e0d6 423d 00c1 a4bc 651e 61bc
00000280: 5134 8cbd 304e 1cbd 41eb b93d 3bcd 923d
00000290: 4201 87bd d582 26bd 0962 443e 4460 b4bd
000002a0: df9d a43e fac1 97bc 436a 933d c121 a2bd
000002b0: 208b 353e 5037 443e 7a4b b03d 0976 0a3e
000002c0: 0ef7 6e3e 14a2 1c3e ed16 923e e5fc abbc
000002d0: faa2 073e 451b afbc e73d 3d3e 7cfe a3bd
000002e0: ef5a 57be f91b 6ebe dd1b 44be 6a91 06be
000002f0: 0500 fe3d 04e4 293c f833 c83d a032 d0bd
00000300: 4f72 d43c 0eff babb 752c ff3d 326a ae3e
00000310: cc30 233d b088 41bc 7625 01be 5ff5 a0bd
00000320: 20e8 2fbc ffc7 2abd 8223 503d eff8 ee3d
00000330: 6d08 2bbe 8a74 5d3a 27bc 60bd 738d 02be
00000340: fcfc 1cbe 84c0 9f3d 93f9 77bc 8304 293d
00000350: 2228 eebd 4c6d 133e 4e7f db3c a391 833c
00000360: 3faf e63d be83 353d 5aea 973d 443d 61bd
00000370: 9151 47be f172 8ebd 87e6 e0bd 2a31 133e
00000380: 05e1 0abe 49e1 b4bd e104 9d3d 55a3 c83d
00000390: 256f 72be b2b5 1abe 5ee2 5b3d 5a38 3f3e
000003a0: 7ff9 1dbd 9052 203d f919 803c 7841 34be
000003b0: abe0 35be 85f8 e0bc bd89 243e 9155 c53d
000003c0: b5b3 a5bd adf4 e7bd 238a 703e 8d42 bdbd
000003d0: 0258 afbd b7f2 8fbd 4bcf 9c3d 19e5 be3c
000003e0: 0ff0 1fbe 6a45 e13d 6bde 8cbd 7b20 d03d
000003f0: 4497 a93d b884 62bc e72f 633d 4c79 b3ba
-0.18804455 -0.025481096 0.24842949 -0.072995216 0.16299945 -0.12687445 -0.030001385 0.043782882
-0.17499828 0.121976584 0.1221832 0.21231693 -0.056135267 -0.29774874 0.11754518 -0.17462744
-0.027935347 0.18119052 0.057270464 0.07887972 -0.13501725 -0.02952739 0.053747583 -0.14847136
0.016857227 0.089654006 -0.22815458 -0.075501874 0.012108803 -0.04543144 -0.07719777 0.033062726
-0.16960151 -0.062321093 0.011780824 -0.02987992 0.14281845 -0.12086983 0.05156233 -0.07426666
0.2358777 -0.0049684257 -0.022818739 -0.10044331 0.0068677585 0.05001857 0.1275422 0.11290521
0.015761558 -0.014593906 -0.14964606 -0.007463293 -0.014400948 0.13621867 -0.053274978 -0.15473153
-0.11813918 -0.024143862 -0.024598526 0.04993641 0.15791525 -0.13149168 -0.03949833 -0.04653859
-0.12384899 -0.0056636743 -0.025585238 0.007064253 -0.07798793 -0.10860977 0.1701824 -0.0061414815
0.20408036 -0.14405847 -0.14582588 0.18692012 0.1782062 -0.18107818 -0.04354512 0.0803541
-0.13210559 0.22758771 -0.037707724 0.16013624 0.21916878 0.2759477 -0.0942741 -0.07572662
0.04347844 -0.11065387 -0.121568985 -0.07747832 -0.027921258 -0.13369703 -0.095256366 0.14136489
0.16500369 -0.1349224 -0.023149176 0.10333398 0.05523117 -0.14025256 -0.05695592 0.17337377
-0.18048318 -0.26839024 -0.046798255 -0.09328649 0.11595448 -0.011220265 0.05802477 0.25457132
-0.044035215 0.17294493 -0.032263715 0.24570547 -0.1566085 -0.22655162 -0.09385269 -0.07751087
-0.034898616 -0.04529915 0.16456132 -0.16964696 0.062013794 -0.2162039 0.021528527 0.015420757
-0.21041614 -0.03585482 0.17467083 0.26976815 -0.087771356 -0.035142176 0.11077578 0.1342209
0.30945733 0.0007973551 0.25868687 -0.03242442 -0.053952653 0.060951583 0.15664567 -0.06770449
-0.0045825155 -0.0732919 0.013419704 -0.22810596 -0.08651361 0.15224117 0.042461783 0.14094298
0.1610805 0.009004376 0.2613524 -0.0764411 -0.12517503 0.047568202 -0.02011156 -0.013740157
-0.06845916 -0.038160503 0.09078074 0.07168051 -0.06592037 -0.040652115 0.19178022 -0.08807424
0.32151696 -0.018525112 0.07198002 -0.07916594 0.17728853 0.19161725 0.08608146 0.1352159
0.23336431 0.15296203 0.28533116 -0.020994613 0.13245764 -0.021375308 0.18480645 -0.080075234
-0.21030782 -0.23252858 -0.19151254 -0.13141409 0.124023475 0.010369305 0.09775537 -0.10165906
0.025933413 -0.0057066744 0.124596514 0.34065396 0.03984146 -0.011812374 -0.12611946 -0.07859301
-0.010736495 -0.041694637 0.050815113 0.11668574 -0.16702433 0.00084478466 -0.054866936 -0.12749271
-0.15330881 0.07800391 -0.015135187 0.04126407 -0.116287485 0.14397162 0.026794102 0.016060656
0.11263894 0.044315092 0.07417746 -0.054990068 -0.19464709 -0.06955517 -0.109814696 0.14374223
-0.135624 -0.08832032 0.07666946 0.09796778 -0.23675211 -0.15108374 0.053682677 0.1867384
-0.038568016 0.039141238 0.015637385 -0.176031 -0.17761485 -0.027462253 0.16068168 0.09635461
-0.08090917 -0.11325965 0.23490195 -0.09241209 -0.08561708 -0.07028716 0.076567255 0.023302602
-0.15618919 0.10999568 -0.0687836 0.10162445 0.08280805 -0.013825588 0.055465605 -0.0013692765

conv3.conv1.0.bias f4 [32]
00000000: 0832 15bd 7951 693d 055c 8ebd 6622 b73b
00000010: 7cf6 9a3d b697 acbb 8e82 a6bd 5eed b5bc
00000020: c561 c6bb 2488 a7bc 3564 713d 74d3 a2bd
00000030: 66eb 88bd d231 67bd 5cfb 19bc ca05 a2bd
00000040: ddb8 43bd 7be4 1ebd df39 863d ee13 a9bd
00000050: fbf8 ce3c 556b 44bc 9b22 323d d74e 2f3c
00000060: 8a17 9cbc 47a0 dabc 0f06 7e3d 4259 47bd
00000070: aedf c0bc c964 85bd fe2f 703d ba54 a63c
-0.036424667 0.056962464 -0.06951145 0.0055888174 0.075665444 -0.005267109 -0.0813037 -0.022207912
-0.0060541355 -0.02045066 0.058933455 -0.07950488 -0.06685524 -0.056443997 -0.009398308 -0.079112604
-0.04778372 -0.038792115 0.06554007 -0.082557544 0.025265208 -0.011988481 0.043490034 0.010699949
-0.019054193 -0.026687754 0.062017497 -0.048669107 -0.023544159 -0.06513364 0.05863952 0.020304073

conv3.conv1.1.weight f4 [32]
00000000: c15a 6d3f 2291 853f 667f 853f ca4c 8f3f
00000010: d09a 743f 3229 813f de86 7c3f 6c07 823f
00000020: 901b 713f 4b04 823f 9e5f 6d3f 0050 873f
00000030: 5a62 803f 179a 783f eb95 6b3f a7ac 733f
00000040: 18f9 823f fc56 823f 6e34 843f b478 843f
00000050: bfb0 7e3f 246c 813f 6c0e 893f 10fc 8b3f
00000060: 4c32 803f 0144 743f 653d 763f f9d8 813f
00000070: 511a 7f3f f438 813f 9631 833f 28c3 783f
0.92716604 1.0434916 1.0429504 1.1195309 0.95548725 1.0090697 0.9864329 1.0158515
0.9418268 1.015756 0.92724025 1.0571289 1.0030015 0.9711012 0.9202563 0.9518532
1.0232267 1.0182796 1.03285 1.0349336 0.99488443 1.0111127 1.0707526 1.0936298
1.0015349 0.95416266 0.9618743 1.014434 0.9964953 1.0095506 1.0249507 0.97172785

conv3.conv1.1.bias f4 [32]
00000000: 6f85 64bd 56b7 243d 45ee 963c 2483 00bc
00000010: 96b9 273c 1044 003d 814f 81bd c89b 903c
00000020: b822 48bc b5cb 1a3d 0b75 61bc a75a 293c
00000030: 6252 5f3d 4664 b8bc aca0 46bd 35d0 a2bc
00000040: e161 053b 31b3 5fbc 120c e9bb dc29 42bd
00000050: 4ae8 a4bb 89be b6bc 9a1a 14bd 8945 ee3c
00000060: 02b2 3fbc d158 2dbc 2929 203d a8d4 d93c
00000070: 8b42 ed3c c704 a0bc 49e2 d3bc 0f42 35bd
-0.055791315 0.040213905 0.018424163 -0.007843766 0.010237118 0.03131491 -0.06313992 0.017652407
-0.012215309 0.037791926 -0.013760815 0.010336555 0.054521926 -0.022508752 -0.048493072 -0.019874671
0.002035253 -0.013653562 -0.0071120346 -0.0474032 -0.005032574 -0.022307651 -0.03615818 0.029085891
-0.011700155 -0.0105802575 0.039101753 0.02659066 0.028962394 -0.019533528 -0.025864737 -0.04425245
