checkpoints/ifind1_sononet_8_6classes/008_net_6classes_base.pth (torch_old, 671819 bytes, 90 tensors)

conv1.conv1.0.weight f4 [8, 1, 3, 3]
0	0xbe57020d	-0.20996876
1	0x3f588d78	0.84590864
2	0x3ee9cff0	0.45666456
3	0x3e514298	0.2043556
4	0xbedf6750	-0.4363351
5	0x3f0e41d5	0.555692
6	0xbe1d19c8	-0.15341866
7	0x3eace316	0.33767003
8	0xbf2fed5d	-0.6872156
9	0x3f0921c4	0.5356715
10	0x3f14bde5	0.58102256
11	0xbf04c4b3	-0.5186264
12	0x3f1c6ad3	0.611005
13	0x3f406e9d	0.7516878
14	0xbf501326	-0.8127922
15	0xbe326db6	-0.17424664
16	0x3f49224b	0.7856795
17	0x3e77836b	0.24171226
18	0x3f4c5906	0.7982334
19	0xbf546f66	-0.8298248
20	0xbe9d429f	-0.3071489
21	0x3c8de3e3	0.017320579
22	0x3d96626c	0.07342991
23	0xbcdd2afd	-0.026998037
24	0xbf392c63	-0.72333354
25	0x3cb9465c	0.022616558
26	0x3fb222a8	1.3916826
27	0x3f1d0e14	0.61349607
28	0x3f3d135f	0.7385768
29	0x3f8ce19b	1.1006349
30	0xbf3058e4	-0.68885636
31	0xbf01fe69	-0.50778824
32	0xbc821146	-0.015877377
33	0xbf20ed56	-0.62862146
34	0xbf52060d	-0.8204048
35	0xbd0ac08f	-0.033875044
36	0x3d62a861	0.05533636
37	0xbcf275fa	-0.029597271
38	0xbfa3748e	-1.2769945
39	0xbf014192	-0.5049068
40	0xbdf703a6	-0.12061243
41	0x3eb764f7	0.35819218
42	0x3ea9bfd7	0.33154175
43	0x3ccf1028	0.025276259
44	0x3f3adb49	0.7299085
45	0xbe5317c6	-0.20614538
46	0x3e9f7900	0.31147003
47	0x3f1c9008	0.61157274
48	0xbef7e4c8	-0.48416734
49	0xbeea2ba6	-0.45736426
50	0x3e02b723	0.12765174
51	0xbeaa64bc	-0.3327998
52	0x3e84e881	0.25958636
53	0x3f715c46	0.94281423
54	0xbf1bb680	-0.6082535
55	0x3f111a71	0.5668097
56	0x3df6e3da	0.12055178
57	0x3db8a1d6	0.09015243
58	0xbe0087de	-0.12551829
59	0x3c521bc8	0.012824006
60	0x3f3503bd	0.7070883
61	0xbeb805a4	-0.35941803
62	0x3c750e3c	0.014957007
63	0xbe3e25fd	-0.18569179
64	0xbe96aa8b	-0.2942699
65	0x3f3d6c68	0.7399354
66	0x3caa456a	0.020785052
67	0xbf3b3926	-0.73134077
68	0xbf09cfbb	-0.53832597
69	0x3c889078	0.01667045
70	0xbf22dbf2	-0.6361686
71	0x3f5a85ed	0.85360605

conv1.conv1.0.bias f4 [8]
0	0x3ea42f7d	0.3206748
1	0xbe8ccdd5	-0.27500787
2	0xbea93eac	-0.33055627
3	0xbe857afb	-0.2607039
4	0xbe65879f	-0.22415017
5	0x3e0a2eb5	0.1349438
6	0x3df4680a	0.119339064
7	0x3e8dc2fd	0.27687827

conv1.conv1.1.weight f4 [8]
0	0x3f6983b3	0.9121658
1	0x3f6bf105	0.9216464
2	0x3f69b9a6	0.912989
3	0x3fa866a4	1.3156323
4	0x3f6bb59c	0.9207399
5	0x3f898891	1.0744802
6	0x3f3b315f	0.7312221
7	0x3f7fd831	0.99939257

conv1.conv1.1.bias f4 [8]
0	0x3eaf26f0	0.34209394
1	0xbeadd2bb	-0.33949837
2	0x3f0e2255	0.55521137
3	0x3f011bd0	0.50433064
4	0x3eb70724	0.35747635
5	0x3f0dff3a	0.5546757
6	0xbda0a4bd	-0.07843921
7	0xbdab428b	-0.083623014

conv1.conv1.1.running_mean f4 [8]
0	0x3ea461a9	0.3210576
1	0xbe8ccdc0	-0.27500725
2	0xbea85bb8	-0.32882476
3	0xbe85063c	-0.2598132
4	0xbe661133	-0.22467498
5	0x3e0b61c0	0.13611507
6	0x3df5960c	0.1199151
7	0x3e8e7c4f	0.27829215

conv1.conv1.1.running_var f4 [8]
0	0x3f57f740	0.8436165
1	0x407b9eff	3.9315794
2	0x3e8d59d6	0.27607602
3	0x3f509867	0.8148255
4	0x3eb430d1	0.35193494
5	0x3f4e1757	0.80504364
6	0x3e48f112	0.19623211
7	0x3f234208	0.6377263

conv1.conv2.0.weight f4 [8, 8, 3, 3]
0	0x3cdb14ca	0.026743311
1	0x3ec47cca	0.38376456
2	0x3cc588be	0.024113055
3	0xbc884ef2	-0.016639207
4	0x3e3d88df	0.18509243
5	0xbd8b0c42	-0.06789447
6	0x3caa1bd2	0.020765219
7	0x3e560ffb	0.20904534
8	0xbe14cea7	-0.14531957
9	0xbe93105b	-0.28723416
10	0x3e7661b9	0.24060716
11	0x3e8adf6a	0.27123576
12	0xbe2e800f	-0.17041038
13	0x3e0a3f91	0.13500811
14	0x3e0da1ad	0.13831206
15	0xbe85b829	-0.26117066
16	0xbe825063	-0.25451955
17	0xbe089fd4	-0.1334222
18	0x3debc4e9	0.11512167
19	0xbeb4693b	-0.35236534
20	0xbdfebe56	-0.124386474
21	0xbf047be3	-0.51751536
22	0xbe707d73	-0.23485355
23	0x3bd704c0	0.0065618455
24	0xbe3134bb	-0.17305271
25	0x3ee154de	0.4401006
26	0x3ec123e5	0.37722698
27	0x3d0d24e6	0.034459017
28	0xbe6f3363	-0.23359446
29	0x3dc5d485	0.096596755
30	0xbc80a893	-0.015705382
31	0xbde034e3	-0.10947587
32	0xbd9d54bd	-0.07682178
33	0x3e2f24ee	0.17103931
34	0x3ea53177	0.322643
35	0xbda63a3e	-0.081165776
36	0x3e10a6e1	0.14126159
37	0xbdb8d379	-0.0902471
38	0xbd5371ca	-0.05162219
39	0xbe4b147d	-0.19832034
40	0xbdf87e7b	-0.12133499
41	0xbde1a7e0	-0.11018348
42	0xbe9f87fb	-0.31158432
43	0x3d75ff33	0.06005783
44	0x3e12342e	0.14277717
45	0x3ec21c56	0.37912244
46	0x3dad6457	0.08466404
47	0xbe5e9af1	-0.21738793
48	0xbe9c2b0f	-0.305016
49	0xbe139439	-0.14412011
50	0xbdc1ae4b	-0.09457072
51	0x3f1189f2	0.5685111
52	0x3dcfba34	0.10142937
53	0x3ea43d88	0.32078195
54	0xbe39735b	-0.18110411
55	0x3d591b94	0.053004816
56	0x3e52e707	0.20595942
57	0x3e361015	0.17779572
58	0x3da80dd8	0.082057655
59	0xbe265f1a	-0.16247216
60	0x3d6febb6	0.0585744
61	0x3c68cde9	0.014209249
62	0xbe9bab5c	-0.30404174
63	0xbe9cc46f	-0.30618617
64	0xbeb9518e	-0.36195034
65	0x3d2a4791	0.041572157
66	0xbe015f7d	-0.12634082
67	0xbe09bb20	-0.13450289
68	0xbe4bf697	-0.19918285
69	0xbdc75904	-0.09733775
70	0xbe8d8fb4	-0.276487
71	0xbe2d287f	-0.1690998
72	0x3e9901e8	0.29884267
73	0xbd3bc2e0	-0.045840144
74	0x3e5e13fe	0.21687314
75	0x3dd135ad	0.10215316
76	0x3e11ad25	0.14226206
77	0x3ec0bada	0.37642556
78	0x3e85a28c	0.26100576
79	0x3edb22cc	0.42799985
80	0x3e074a82	0.13212016
81	0x3d9f6a82	0.07783987
82	0x3e97c419	0.29641798
83	0x3eaf06a7	0.34184763
84	0xbe2d3452	-0.1691449
85	0xbcca2be3	-0.02467913
86	0xbca9b7bf	-0.0207175
87	0xbe0bcf5b	-0.13653319
88	0xbeaffc7e	-0.34372324
89	0xbe26b0c9	-0.16278376
90	0xbd65679b	-0.05600701
91	0xbd1016bb	-0.035177927
92	0x3edd9a87	0.43281958
93	0x3c1ae8d4	0.009454925
94	0x3de5638e	0.11200629
95	0x3ecc8950	0.3994851
96	0x3df49435	0.11942331
97	0x3bcc28e5	0.006230461
98	0xbe151570	-0.14558959
99	0xbeb91151	-0.36146024
100	0xbe7d90f6	-0.2476233
101	0x3cf72ca0	0.030172646
102	0x3daec365	0.08533362
103	0xbbf1cd70	-0.0073792264
104	0x3e9b92a4	0.30385315
105	0x3e1769a2	0.1478639
106	0x3ca55743	0.020183211
107	0x3e9394a2	0.28824335
108	0xbe20a965	-0.15689619
109	0xbe3f9431	-0.18708874
110	0x3e1cb011	0.15301539
111	0x3c604e59	0.013690555
112	0xbe3774c8	-0.17915642
113	0xbe162c2d	-0.14665289
114	0x3c201914	0.009771604
115	0xbcc56769	-0.024097161
116	0xbea76545	-0.3269445
117	0xbd87ab10	-0.066244245
118	0x3f134248	0.5752301
119	0x3f19756d	0.599448
120	0xbe5ed898	-0.21762311
121	0x3e02c88b	0.12771814
122	0x3e2aa431	0.16664197
123	0xbc866d3d	-0.01640951
124	0x3e18d8b4	0.14926416
125	0xbd8a9db0	-0.06768358
126	0xbdd738d0	-0.10508883
127	0x3e80aa65	0.2513
128	0x3e068f1a	0.13140526
129	0xbe2745a0	-0.16335154
130	0x3d49aa41	0.049234632
131	0x3d81c60c	0.063366026
132	0xbdca4742	-0.098768726
133	0xbd3f90ec	-0.046769068
134	0xbc2d6d33	-0.010585117
135	0xbe3f8a62	-0.18705133
136	0xbe1972fc	-0.1498527
137	0xbbee23f8	-0.0072674714
138	0xbd78542f	-0.06062716
139	0x3e6e26bd	0.23256965
140	0xbdb92219	-0.09039707
141	0x3d18c2c9	0.037295137
142	0xbd80d6b4	-0.06290951
143	0x3e0c7ec0	0.13720226
144	0xbe8a7e9f	-0.2704973
145	0xbd501a01	-0.05080605
146	0xbd1e0bdf	-0.03858554
147	0x3d034ff1	0.03205866
148	0x3e549794	0.20760947
149	0xbe4ac79a	-0.19802704
150	0x3e190e47	0.14946853
151	0xbd29fc8b	-0.04150061
152	0xbc96b3df	-0.018396316
153	0xbe99478a	-0.29937392
154	0xbd6b3668	-0.057424933
155	0x3de04297	0.10950201
156	0x3d338740	0.043830156
157	0x3e52c925	0.20584543
158	0x3e4fbe1e	0.20287368
159	0xbe19aa16	-0.15006289
160	0x3d8af43a	0.06784864
161	0x3eb2ab13	0.34896144
162	0x3e1dead3	0.1542161
163	0x3ebfb4d3	0.37442645
164	0x3dff2053	0.12457337
165	0xbd2f0d50	-0.042737305
166	0x3e2a0079	0.16601743
167	0xbeae614b	-0.34058604
168	0xbe5dbae1	-0.2165332
169	0x3d17c53e	0.03705334
170	0x3e47f6bb	0.19527714
171	0xbdd377a5	-0.10325555
172	0xbe90ae59	-0.28258017
173	0xbd99b338	-0.075048864
174	0xbd2cc8f9	-0.04218385
175	0xbd0c16ab	-0.034201305
176	0xbcef8a12	-0.029240642
177	0xbea9a634	-0.33134615
178	0xbc279c0d	-0.0102300765
179	0xbd460984	-0.04834892
180	0x3e075581	0.13216211
181	0x3e935fc7	0.2878401
182	0x3e032d35	0.12810214
183	0x3de59909	0.1121083
184	0xbdaed6b4	-0.08537045
185	0x3dd17998	0.1022827
186	0x3d52e7c7	0.05149057
187	0xbde588e4	-0.112077504
188	0x3e657d97	0.2241119
189	0x3cc1901a	0.023628283
190	0xbe18f57c	-0.14937395
191	0xbd06ea5a	-0.03293834
192	0x3dc2cc7c	0.095116585
193	0x3cdd7acf	0.027036099
194	0x3e2848df	0.16434048
195	0x3f2f233c	0.6841314
196	0x3e734268	0.237558
197	0x3e7bb059	0.2457899
198	0x3ce8728c	0.028374933
199	0xbe490c72	-0.19633654
200	0x3d936c91	0.07198442
201	0x3d4c3874	0.049858525
202	0xbd1e422e	-0.038637333
203	0x3d822dc6	0.06356387
204	0x3e86952a	0.26285678
205	0xbd871b25	-0.06596974
206	0x3d658c0b	0.05604176
207	0xbddef6e5	-0.10886935
208	0x38e1df0b	0.00010770381
209	0xbc1e65ed	-0.009667856
210	0x3e081d26	0.13292369
211	0x3dc6cc98	0.09706992
212	0xbbcd5226	-0.0062658964
213	0xbe05062b	-0.12990634
214	0xbd8823df	-0.06647467
215	0x3dfeea9a	0.124470904
216	0xbd5d7c13	-0.054073405
217	0x3da4e10b	0.08050736
218	0x3ce43bec	0.027860604
219	0x3d950ffd	0.0727844
220	0x3cb47dca	0.022032637
221	0x3d2d5a8f	0.04232269
222	0xbd82d7be	-0.06388806
223	0x3e5bdbf5	0.21470626
224	0xbb344bad	-0.0027510927
225	0xbd1cca98	-0.038279146
226	0xbcde3262	-0.027123634
227	0x3ce3641d	0.027757699
228	0xbd52d8f2	-0.051476426
229	0x3a7ede13	0.00097224227
230	0x3da68040	0.081299305
231	0xbcdd9ade	-0.027051385
232	0xbdfa1f12	-0.122129574
233	0x3e3946c5	0.18093403
234	0x3e6da469	0.23207249
235	0xbdda6e43	-0.10665562
236	0xbe471187	-0.1944028
237	0x3e516e21	0.20452167
238	0xbbdf32e5	-0.006811487
239	0x3e6e8002	0.23291019
240	0xbd5c7cf9	-0.05383012
241	0xbdda67e6	-0.10664348
242	0xbceed35f	-0.029153524
243	0x3dc27a83	0.094960235
244	0xbca9894b	-0.02069535
245	0x3e14df9f	0.1453843
246	0xbdb6fcbf	-0.08934926
247	0x3dcda772	0.10041703
248	0x3e1b5243	0.15168099
249	0x3bf802a6	0.007568675
250	0xbe27928b	-0.16364495
251	0xbe2b0e7f	-0.16704749
252	0x3ebd3d4b	0.36960825
253	0x3eabb050	0.33532953
254	0x3d86d1ad	0.06582961
255	0x3d3da137	0.046296325

conv1.conv2.0.bias f4 [8]
0	0xbc9ef8b7	-0.019405706
1	0xbd895990	-0.06706536
2	0xbc9c29ec	-0.019062959
3	0x3dc3afc7	0.09555011
4	0xbdb31b18	-0.08745402
5	0x3cdb1cea	0.026747186
6	0xbded1c51	-0.115776666
7	0x3d7cf6d4	0.06175883

conv1.conv2.1.weight f4 [8]
0	0x3f84d25c	1.0376697
1	0x3f522c87	0.82099193
2	0x3f59db71	0.85100466
3	0x3f3a383d	0.7274206
4	0x3f8529b1	1.0403348
5	0x3f88047c	1.0626369
6	0x3f7a2458	0.97711706
7	0x3fbdff33	1.4843506

conv1.conv2.1.bias f4 [8]
0	0x3e092733	0.1339386
1	0xbe50e5dd	-0.20400186
2	0x3c6faf20	0.014629155
3	0xbdec153d	-0.115274884
4	0x3e9f18c0	0.3107357
5	0xbd289dfa	-0.041166283
6	0xbe4bec1e	-0.1991429
7	0x3f12e4ed	0.57380563

conv1.conv2.1.running_mean f4 [8]
0	0xbeb7879e	-0.35845655
1	0x40000fe9	2.000971
2	0x3f69befb	0.9130704
3	0x3fd1460b	1.63495
4	0x3ed5356e	0.41642326
5	0xbfce9d5d	-1.6141773
6	0x3ef1cece	0.47228092
7	0xbf3272ca	-0.69706404

conv1.conv2.1.running_var f4 [8]
0	0x400a3e6f	2.1600606
1	0x41368bdf	11.409148
2	0x4069d1bb	3.653426
3	0x403cef4a	2.952105
4	0x40a6cea2	5.2127237
5	0x41055fcb	8.335887
6	0x403ad7ef	2.9194295
7	0x40200f89	2.5009482

conv1.conv3.0.weight f4 [8, 8, 3, 3]
0	0xbe398c15	-0.18119843
1	0xbe283bfd	-0.16429134
2	0x3dacf7c9	0.08445699
3	0x3e6d41d6	0.23169646
4	0x3d944491	0.072396405
5	0x3e3016f9	0.17196263
6	0xbe70a3b5	-0.2349995
7	0xbbd525b1	-0.0065047373
8	0x3d069874	0.032860234
9	0xbeb0c74d	-0.34527054
10	0x3e3a6539	0.18202676
11	0x3eec3506	0.46134204
12	0xbe61951a	-0.22029534
13	0xbdf6e45d	-0.120552756
14	0x3b6f4f44	0.0036515752
15	0x3d4b4398	0.04962501
16	0x3e0f030d	0.13966008
17	0xbe14b37d	-0.14521594
18	0xbea6ac28	-0.3255322
19	0x3ccf7f22	0.025329176
20	0x3d716279	0.0589318
21	0xbe5497b7	-0.20761
22	0x3cde5e92	0.027144704
23	0x3e9c6b3f	0.30550572
24	0xbe9a9824	-0.301942
25	0x3e10b470	0.14131331
26	0xbe35c0c6	-0.17749318
27	0xbf0cf081	-0.5505448
28	0x3d2a2ec4	0.041548505
29	0x3e30d47c	0.17268556
30	0xbd910be0	-0.07082343
31	0xbdb35d74	-0.08758059
32	0x3e7fb6aa	0.24972025
33	0x3d8b1ad0	0.067922235
34	0x3c10096e	0.008791311
35	0x3da8c989	0.08241565
36	0xbdc2d9bb	-0.09514185
37	0x3e89714d	0.26844254
38	0x3f09134b	0.53545064
39	0x3e849290	0.25893068
40	0x3ece3809	0.40277126
41	0x3ea3ebe6	0.32015914
42	0xbd80bfaf	-0.06286561
43	0xbd1eaea2	-0.03874076
44	0x3e821e5f	0.25413796
45	0xbe4d0d5b	-0.20024626
46	0xbc52ea5f	-0.012873261
47	0xbeb94637	-0.36186382
48	0x3d63571a	0.05550299
49	0x3d88de49	0.066830225
50	0x3e400114	0.18750411
51	0x3ddee72c	0.10883936
52	0xbe81b06f	-0.2532992
53	0x3cb419e2	0.021984998
54	0xbe328cc7	-0.17436515
55	0x3ced6900	0.028980732
56	0x3e2bcca0	0.16777277
57	0xbe3c6b3f	-0.18400286
58	0xbda75e44	-0.081722766
59	0x3e6ecd4b	0.233205
60	0xbe032d17	-0.12810169
61	0xbe4cabf1	-0.19987465
62	0xbe7d0b19	-0.24711265
63	0xbce07073	-0.02739737
64	0xbdf8bebf	-0.12145757
65	0xbe10c72b	-0.14138477
66	0x3dabd137	0.08389514
67	0xbcf16c1a	-0.029470492
68	0xbea14ec0	-0.31505394
69	0x3e5f7336	0.21821293
70	0xbd4ceddd	-0.05003153
71	0x3cce818e	0.02520826
72	0xbe15787a	-0.1459674
73	0xbe33f073	-0.17572193
74	0x3d98141c	0.074257106
75	0x3dfe94e0	0.124307394
76	0x3e045d6b	0.12926261
77	0x3e894214	0.26808226
78	0xbcbf0001	-0.023315432
79	0x3e7c8126	0.24658641
80	0xbb13d294	-0.0022555934
81	0x3eb52b28	0.35384488
82	0xbbab988b	-0.0052366904
83	0x3d6e7b9c	0.05822335
84	0xbd34f493	-0.044178557
85	0x3d227bc7	0.039668825
86	0x3e439912	0.1910136
87	0x3e418503	0.18898396
88	0x3db0d150	0.08633673
89	0x3e8461c7	0.25855848
90	0x3e323024	0.17401177
91	0xbd2b37ca	-0.04180125
92	0x3e58992a	0.21152177
93	0xbea25a0e	-0.3170933
94	0xbd8bf25a	-0.06833334
95	0x3d26181d	0.04055034
96	0x3dc3c69f	0.09559368
97	0xbe413d3b	-0.18871014
98	0xbb3b5dc3	-0.0028589822
99	0x3e0e4eb4	0.1389721
100	0x3e070977	0.13187204
101	0xbc67cdd7	-0.014148197
102	0xbd730077	-0.059326615
103	0x3e96e0d2	0.294684
104	0xbe8b14c0	-0.27164268
105	0x3e30db7c	0.17271227
106	0xbdfbb5b7	-0.12290519
107	0xbd9e98dc	-0.07743999
108	0x3e8d9b0c	0.27657354
109	0x3ee02c51	0.4378381
110	0x3dc040f1	0.093873866
111	0xbc9476f8	-0.018123135
112	0xbe24e1cd	-0.16101761
113	0x3e0f0af3	0.1396902
114	0xbd42f133	-0.047593307
115	0x3d921e51	0.07134689
116	0x3e7f0137	0.24902807
117	0xbe64afbd	-0.22332664
118	0x3b4ea297	0.0031530017
119	0x3d57007d	0.0524907
120	0xbd20329a	-0.039110757
121	0x3dccf1dc	0.100070685
122	0x3e633fbb	0.2219228
123	0xbce8b6e3	-0.02840752
124	0xbe5a2624	-0.21303612
125	0xbde950ad	-0.11392341
126	0x3d84cd54	0.06484476
127	0xbd80e57a	-0.06293769
128	0xbe2735f3	-0.16329174
129	0xbe0c60fe	-0.13708875
130	0xbd9e71e3	-0.07736566
131	0xbcf2f4cd	-0.029657746
132	0xbe2166dc	-0.15761894
133	0xbe1f43ca	-0.15553203
134	0x3d35c9c6	0.04438188
135	0x3be332f2	0.0069335634
136	0xbdcb6a3c	-0.09932372
137	0xbeab9e54	-0.33519232
138	0xbe6b72d0	-0.22993016
139	0xbe8b7169	-0.27234963
140	0x3e44051c	0.19142574
141	0xbdd75144	-0.10513547
142	0x3c8abfdf	0.016937194
143	0xbdf822e7	-0.12116032
144	0xbd787e70	-0.060667455
145	0xbe56d292	-0.20978764
146	0x3e673b8f	0.22581314
147	0x3c1d3c97	0.009596965
148	0xbdc85c5b	-0.097832404
149	0xbd87fdb7	-0.06640189
150	0x3d2aba58	0.041681617
151	0x3e43df85	0.19128235
152	0xbdcadd90	-0.09905541
153	0xbe5ac402	-0.21363834
154	0x3c84995e	0.016186412
155	0xbe081003	-0.13287358
156	0xbe12df76	-0.14343056
157	0x3e62d4a5	0.2215143
158	0x3e736ff4	0.23773175
159	0xbeb9f1df	-0.36317345
160	0x3e842547	0.2580969
161	0xbd18f22e	-0.037340336
162	0x3db3436f	0.08753096
163	0xbe8d309c	-0.2757615
164	0x3b5d4ada	0.003376654
165	0xbe558dd1	-0.2085488
166	0xbe453e2a	-0.19261995
167	0x3e6b907a	0.23004332
168	0xbe89bd49	-0.26902226
169	0x3d9dbfb4	0.0770258
170	0xbe25bb09	-0.1618463
171	0x3b3b64ad	0.0028593943
172	0x3dc38a94	0.09547916
173	0xbe39cfb7	-0.18145643
174	0xbe4f62da	-0.20252553
175	0xbd7723cc	-0.060336873
176	0xbcb94eba	-0.022620548
177	0xbddf5646	-0.10905127
178	0xbcb0c9fe	-0.021580692
179	0xbe000bc8	-0.12504494
180	0x3df8f160	0.12155414
181	0x3da8ad70	0.082362056
182	0xbdf34964	-0.118792325
183	0xbdaedba4	-0.08537987
184	0xbdfc20af	-0.123109214
185	0xbec81b88	-0.39083505
186	0x3d24b81a	0.040214635
187	0x3e1f751b	0.15572016
188	0xbd4ddb9e	-0.05025827
189	0x3e6a81a1	0.22901012
190	0xbe9f14fb	-0.31070694
191	0x3dce3127	0.10067969
192	0xbb1c8d30	-0.0023887865
193	0xbdc3edab	-0.09566816
194	0x3efeca96	0.49763936
195	0x3d087606	0.03331568
196	0x3cf7989b	0.030224135
197	0x3d9b75cc	0.07590827
198	0xbe44ea82	-0.19230083
199	0xbc67727f	-0.014126419
200	0x3d6c13ab	0.057635944
201	0xbefd5899	-0.49481657
202	0xbe1e78d9	-0.15475787
203	0xbcda77a3	-0.026668375
204	0xbe094eae	-0.1340892
205	0xbe32d3a5	-0.17463548
206	0xbf045440	-0.51691055
207	0xbe7d7041	-0.24749853
208	0xbf3406cb	-0.70322865
209	0xbcee905d	-0.029121572
210	0xbc6641d2	-0.014053779
211	0x3eb8af3c	0.36071193
212	0x3eb1555f	0.34635445
213	0x3e1e606f	0.15466474
214	0x3dc305db	0.09522601
215	0x3f13aad2	0.57682526
216	0xbe1642fa	-0.14673987
217	0xbdb36fe1	-0.087615736
218	0x3dcc6635	0.09980432
219	0x3e9fe62e	0.312303
220	0xbe0cd67a	-0.13753691
221	0xbe11a1f0	-0.1422193
222	0x3e8f3277	0.2796819
223	0xbde61d4a	-0.11236055
224	0x3e85faf2	0.2616802
225	0x3dd297e2	0.102828756
226	0xbdc272f9	-0.094945855
227	0xbd6b905a	-0.05751071
228	0xbe921006	-0.2852785
229	0x3e9970dd	0.2996892
230	0xbe658d55	-0.22417195
231	0x3e9a004a	0.30078346
232	0x3da9f9f4	0.08299628
233	0xbe19445f	-0.14967488
234	0x3e99fef3	0.30077323
235	0xbd478377	-0.04870936
236	0xbd6d97fe	-0.05800628
237	0x3eab9197	0.33509514
238	0x3e3eafe4	0.18621784
239	0x3e7d0011	0.24707057
240	0x3e460911	0.19339396
241	0x3e571165	0.21002729
242	0x3e1c63ea	0.15272489
243	0x3d98dc20	0.074638605
244	0x3db43a0e	0.088001356
245	0xbe61a972	-0.22037295
246	0x3e702eee	0.23455402
247	0xbdbccd1b	-0.09218808
248	0x3dd202e9	0.10254461
249	0x3eee3555	0.46525064
250	0x3e6b7af3	0.2299612
251	0x3d0b243d	0.033970106
252	0x3db94753	0.09046807
253	0x3dd8309e	0.10556148
254	0xbd9858a4	-0.07438782
255	0x3d94be19	0.07262821

conv1.conv3.0.bias f4 [8]
0	0xbd7d73a9	-0.06187788
1	0xbb8bdee9	-0.0042685163
2	0x3cb43998	0.02200012
3	0xbd0028af	-0.0312888
4	0x3da4725f	0.08029627
5	0x3c52261b	0.012826468
6	0xbddef115	-0.108858265
7	0xbc51279d	-0.012765792

conv1.conv3.1.weight f4 [8]
0	0x3f8f2c31	1.1185361
1	0x3f411112	0.7541667
2	0x3f9cc5ee	1.2247903
3	0x3f55ac38	0.8346591
4	0x3fb02448	1.3761072
5	0x3f918dff	1.1371459
6	0x3f507c11	0.8143931
7	0x3f7becfc	0.98408484

conv1.conv3.1.bias f4 [8]
0	0x3db1c958	0.086809814
1	0xbd826692	-0.0636722
2	0x3e8f3ef6	0.27977723
3	0x3d8dbad2	0.06920399
4	0xbdeb3408	-0.114845335
5	0x3eab5b6b	0.33468184
6	0xbd4a4682	-0.049383648
7	0x3e347877	0.17624079

conv1.conv3.1.running_mean f4 [8]
0	0x3d82fabb	0.06395479
1	0xbd717126	-0.058945797
2	0xbee19c5e	-0.4406461
3	0x3f422fb9	0.7585407
4	0xbe0adbea	-0.13560453
5	0xbf941e06	-1.1571662
6	0xbf86950a	-1.0514233
7	0xbda38237	-0.07983821

conv1.conv3.1.running_var f4 [8]
0	0x400a5f3e	2.1620631
1	0x407a2438	3.9084606
2	0x40643146	3.5655074
3	0x40b75404	5.729006
4	0x40838d5f	4.111007
5	0x402ae1ef	2.67004
6	0x3fc94a10	1.5725727
7	0x40277fb3	2.6171691

conv2.conv1.0.weight f4 [16, 8, 3, 3]
0	0xbd10d065	-0.03535499
1	0xbe6db700	-0.2321434
2	0x3c44f244	0.012020651
3	0xbe65dd6d	-0.22447748
4	0xbe8ba1e4	-0.2727195
5	0xbe023ae9	-0.12717785
6	0x3da33152	0.079683915
7	0x3c9d67ad	0.019214476
8	0x3df91552	0.1216227
9	0xbdd98e4f	-0.10622846
10	0x3c2fed96	0.010737797
11	0xbea0948e	-0.31363338
12	0x3d067cfd	0.032834042
13	0xbd98a5c9	-0.07453496
14	0x3e496941	0.19669057
15	0xbe83db86	-0.2575342
16	0x3cee7e46	0.029112946
17	0xbe967dcf	-0.2939286
18	0x3d792cfd	0.06083392
19	0x3e14786c	0.14499062
20	0xbdf328e4	-0.11873034
21	0xbea4cf96	-0.32189626
22	0x3ea3b83b	0.31976494
23	0xbe4b381c	-0.19845623
24	0x3c8eefcf	0.017448334
25	0x3dfb33fe	0.12265776
26	0x3d94f5ae	0.07273422
27	0x3e4f0d80	0.20219994
28	0x3d479443	0.048725378
29	0xbe80416f	-0.25049922
30	0x3dae2c26	0.085045144
31	0xbd802223	-0.06256511
32	0x3afca6b0	0.0019275751
33	0x3d60792b	0.054803055
34	0xbd0e56c1	-0.034750704
35	0x3e0bf2d1	0.13666846
36	0x3cfac868	0.03061314
37	0x3e3de8e2	0.18545869
38	0x3e96366b	0.29338393
39	0xbcf97de6	-0.03045554
40	0x3eacddfe	0.33763117
41	0x3dc816ef	0.09769999
42	0xbd448ad5	-0.047983963
43	0xbd1c0884	-0.03809406
44	0xbd3bc0ee	-0.04583829
45	0xba497bf9	-0.0007686015
46	0xbe1d5d38	-0.15367591
47	0xbe3abbf2	-0.18235758
48	0xbc8d94ff	-0.017282961
49	0xbec46150	-0.38355494
50	0xbccccdff	-0.02500057
51	0xbe3d2079	-0.18469419
52	0xbdb1f1cd	-0.08688698
53	0xbeffed82	-0.49985892
54	0xbe04c150	-0.12964368
55	0xbe6cd43e	-0.23127839
56	0xbc9ec4e1	-0.019380989
57	0x3e8c908c	0.2745403
58	0xbb617ab1	-0.0034405405
59	0x3e6e39a2	0.23264173
60	0x3bdd325d	0.0067503885
61	0xbc9f867c	-0.019473307
62	0x3e8aa1f9	0.270767
63	0xbea2acc6	-0.3177244
64	0xbe82d09c	-0.2554978
65	0xbce02e60	-0.027365863
66	0xbe80436e	-0.25051445
67	0x3dcbc2c8	0.09949261
68	0x3e5a27f4	0.21304303
69	0x3e49372e	0.19649956
70	0x3e4a1518	0.19734609
71	0x3d111c24	0.035427228
72	0xbb9fa4ef	-0.0048719565
73	0x3e8a77a3	0.270444
74	0x3bc1f077	0.005918558
75	0x3ec079f3	0.3759304
76	0x3d6cd852	0.057823487
77	0xbe0b99fb	-0.13632958
78	0xbd3537fe	-0.04424285
79	0x3bcacf00	0.006189227
80	0xbd35f9d0	-0.044427693
81	0x3e277ff9	0.16357411
82	0xbe01e534	-0.1268509
83	0xbd55cc1b	-0.052196603
84	0x3e457b03	0.19285206
85	0xbf098971	-0.53725344
86	0xbe3dfff7	-0.18554674
87	0x3ed67e54	0.41893256
88	0xbd551709	-0.05202392
89	0x3d828a51	0.06374038
90	0xbe750bf4	-0.23930341
91	0x3e4246fa	0.18972388
92	0x3e2e0fac	0.16998166
93	0x3b21f072	0.0024709967
94	0x3e4652c0	0.19367504
95	0xbe15b835	-0.1462105
96	0xbe6f9eb3	-0.23400383
97	0xbda68b53	-0.08132043
98	0xbc84d11b	-0.01621299
99	0xbc17826f	-0.009247406
100	0x3c488b57	0.012240252
101	0xbe097b4e	-0.13425943
102	0xbe7a851e	-0.24464843
103	0xbd2a8281	-0.041628364
104	0xbec6ae97	-0.38805076
105	0x3de4d5e4	0.11173609
106	0xbd4c9724	-0.049948826
107	0xbe337945	-0.1752673
108	0xbed1e4c8	-0.4099486
109	0xbda99555	-0.08280436
110	0xbdfd607e	-0.1237192
111	0x3dd4a4d8	0.10383004
112	0x3d60e10f	0.054902133
113	0x3e2c55de	0.1682963
114	0x3e4fa70d	0.20278569
115	0xbcd934b0	-0.026514381
116	0x3e566305	0.2093621
117	0xbd7fc7e5	-0.062446494
118	0x3e9289c0	0.2862072
119	0xbe2c118e	-0.16803572
120	0xbe6c1b77	-0.23057352
121	0xbe441766	-0.19149551
122	0xbe10c55b	-0.14137785
123	0xbe28646d	-0.1644456
124	0xbe348517	-0.17628895
125	0x3e4725de	0.19448039
126	0xbe54a4ba	-0.20765963
127	0x3da935f4	0.08262244
128	0x3e33c2d6	0.17554793
129	0xbe11eb02	-0.14249805
130	0xbdaf6514	-0.08564201
131	0x3e91cf00	0.2847824
132	0xbe45abdb	-0.19303839
133	0x3e564e49	0.20928301
134	0xbe928f0b	-0.28624758
135	0xbebd8c7a	-0.37021238
136	0xbdfdbacc	-0.12389144
137	0x3e1bc2ff	0.15211104
138	0xbe24dbfa	-0.1609954
139	0x3b886f2c	0.0041636433
140	0xbcdfd986	-0.027325403
141	0xbe05063f	-0.12990664
142	0xbb9bebfd	-0.0047583566
143	0x3c8e7e13	0.017394101
144	0xbca7dc75	-0.020490864
145	0xbec0e8e8	-0.37677693
146	0x3da96d74	0.0827283
147	0x3e65b669	0.22432865
148	0x3d81e6d4	0.06342855
149	0x3e0ec75e	0.1394324
150	0xbdca0134	-0.09863511
151	0x3ea0ad51	0.3138223
152	0x3e140268	0.14454043
153	0xbe3c2533	-0.18373565
154	0x3db253c0	0.0870738
155	0x3e4a48a6	0.19754276
156	0x3eaaee29	0.33384827
157	0x3d7dcbd6	0.06196197
158	0x3d6c6b32	0.057719417
159	0xbdd40bb6	-0.10353796
160	0xbdfbb509	-0.12290389
161	0x3db716a5	0.08939866
162	0x3d441af7	0.04787728
163	0x3e68a817	0.22720371
164	0xbcac9247	-0.021065844
165	0xbe77a69c	-0.2418465
166	0x3ebce80c	0.36895788
167	0xbe3e7695	-0.18599923
168	0xbe4e7471	-0.20161606
169	0x3dd99e96	0.10625951
170	0xbe0d6de6	-0.13811454
171	0xbe06bb2f	-0.13157342
172	0xbec34a41	-0.3814259
173	0xbd887a62	-0.06663968
174	0x3bbae0b1	0.005703055
175	0x3decf544	0.11570218
176	0x3e12b108	0.14325345
177	0xbd49c145	-0.04925658
178	0xbdfc599f	-0.12321781
179	0x3ec567cb	0.3855575
180	0x3e612c84	0.21989638
181	0x3e32cec3	0.17461686
182	0x3db4376f	0.087996356
183	0x3ea407c7	0.32037184
184	0x3da82435	0.08210031
185	0xbdea43e6	-0.11438732
186	0xbde20a0c	-0.110370725
187	0xbeb48b43	-0.35262498
188	0xbd268c5c	-0.0406612
189	0xbc20da8f	-0.009817733
190	0xbe6baf6a	-0.23016134
191	0x3cc6e7b1	0.024280401
192	0xbd780e1e	-0.06056034
193	0x3e1f1fe2	0.15539506
194	0x3e6bc8a2	0.23025754
195	0x3e0af5c0	0.13570309
196	0x3eb45156	0.35218304
197	0x3d1a3fe5	0.03765859
198	0xbe101055	-0.1406873
199	0xbe4dfe67	-0.20116578
200	0xbe8d0322	-0.27541453
201	0xbdded519	-0.10880489
202	0x3ae80e52	0.0017704463
203	0x3d531203	0.05153085
204	0xbc6d3030	-0.014476821
205	0xbcf947b5	-0.0304297
206	0x3d123b04	0.035700813
207	0x3e6dfc8c	0.2324087
208	0x3e217f74	0.15771276
209	0xbf021b0a	-0.5082251
210	0x3d9ba69f	0.0760014
211	0xbbffc07b	-0.007804928
212	0x3e252f94	0.16131431
213	0xbc3d68e4	-0.011560652
214	0xbd748a29	-0.059702072
215	0x3f00247c	0.5005567
216	0x3e80e97e	0.2517814
217	0x3dd7ec77	0.10543149
218	0x3e20fd8f	0.15721725
219	0xbe0fd801	-0.14047243
220	0x3c3c963a	0.011510426
221	0x3e3062a2	0.17225125
222	0xbe922aa8	-0.2854817
223	0x3d2a21dd	0.0415362
224	0x3e93840b	0.28811678
225	0xbd938826	-0.07203703
226	0x3d974f63	0.07388189
227	0xbded5b63	-0.11589696
228	0xbe2ff498	-0.17183149
229	0x3d096f09	0.033553157
230	0x3e126d22	0.14299443
231	0xbec89868	-0.39178777
232	0xbd9d979e	-0.07694934
233	0xbd00d945	-0.031457204
234	0xbd8219c3	-0.0635257
235	0x3e0c6dcf	0.13713764
236	0x3e285103	0.16437154
237	0x3eb097cf	0.3449082
238	0x3e81e457	0.25369522
239	0xbdd4f8ba	-0.10399003
240	0xbe7711b6	-0.2412785
241	0xbd332bf8	-0.043743104
242	0xbe952eff	-0.29137418
243	0xbe831864	-0.25604546
244	0xbc88a509	-0.016680257
245	0x3e813705	0.2523729
246	0xbe823268	-0.25429082
247	0xbe3d9a14	-0.18515807
248	0xbe828294	-0.25490248
249	0x3e8a2d5b	0.26987728
250	0x3da62471	0.081124194
251	0x3d24735c	0.040149078
252	0x3d028aa2	0.03187049
253	0xbd9a8b0b	-0.075460516
254	0xbeaf3fe1	-0.34228423
255	0xbc205266	-0.00978527

conv2.conv1.0.bias f4 [16]
0	0xbc8c17d6	-0.01710121
1	0xbdc58fec	-0.096465915
2	0x3ce2762d	0.027644241
3	0x3d10132d	0.035174537
4	0xbdbee9b0	-0.09321916
5	0xbdd8710e	-0.105684385
6	0x3c4a72d1	0.012356476
7	0x3deb9992	0.115039006
8	0xbdd7ce02	-0.1053734
9	0xbd6c6f1a	-0.057723142
10	0xbd2667db	-0.040626388
11	0xbdd51d50	-0.104059815
12	0xbd948e77	-0.072537355
13	0x3dbd61d7	0.09247177
14	0x3db88796	0.09010236
15	0xbdb17f91	-0.086669095

conv2.conv1.1.weight f4 [16]
0	0x3f8b12d1	1.0865117
1	0x3f76b4f2	0.9636985
2	0x3f4f401b	0.8095719
3	0x3f81deb8	1.0146093
4	0x3f97e9df	1.1868247
5	0x3f9fad01	1.2474672
6	0x3f60ceba	0.8781544
7	0x3f80f955	1.007609
8	0x3f89b121	1.075718
9	0x3f61a26c	0.8813846
10	0x3f85420d	1.0410782
11	0x3f7d0d8f	0.98848814
12	0x3f8a45d9	1.0802566
13	0x3f68b0b8	0.9089465
14	0x3f6cd420	0.9251118
15	0x3f90455a	1.1271164

conv2.conv1.1.bias f4 [16]
0	0x3df07a79	0.1174211
1	0xbd8296f6	-0.0637645
2	0xbde97d0a	-0.114008024
3	0x3d79da52	0.060999222
4	0x3d17c461	0.037052516
5	0xbe0ed6d3	-0.13949136
6	0x3d55c012	0.052185126
7	0x3cc727c0	0.024310946
8	0xbdab706f	-0.083710544
9	0xbc386cd1	-0.011256413
10	0xbd25af5c	-0.04045044
11	0x3d40d91b	0.047082048
12	0x3df56fc3	0.119842075
13	0xbe28965b	-0.16463606
14	0x37e93259	2.779921e-05
15	0xbda593ad	-0.080848075

conv2.conv1.1.running_mean f4 [16]
0	0xbf91420f	-1.1348284
1	0xbf9c1809	-1.2194835
2	0x3f825f8c	1.0185409
3	0xbdbbf856	-0.09178226
4	0xbfcb4428	-1.5880175
5	0xc08a6e68	-4.3259773
6	0xbe19e9f2	-0.1503065
7	0x3f2aba0c	0.66690135
8	0xbfce05f9	-1.6095573
9	0xbd4891f4	-0.048967317
10	0xc01dee36	-2.4676642
11	0xbf876dc3	-1.0580372
12	0xbf1621b5	-0.5864518
13	0x3fe9d7ab	1.8268942
14	0xbfa89cce	-1.3172853
15	0xc015f70e	-2.343204

conv2.conv1.1.running_var f4 [16]
0	0x40b07dd9	5.5153623
1	0x3fe24703	1.7677921
2	0x3fd65ff6	1.6748035
3	0x4030e13f	2.763748
4	0x4057291b	3.3618839
5	0x40825cf2	4.073846
6	0x4047737d	3.1164238
7	0x402790e1	2.6182177
8	0x404fcc64	3.24685
9	0x4040561b	3.0052555
10	0x403cf84a	2.9526544
11	0x40a0f396	5.0297346
12	0x4046602f	3.0996206
13	0x403e9657	2.977926
14	0x40464987	3.0982378
15	0x40212ae2	2.5182424

conv2.conv2.0.weight f4 [16, 16, 3, 3]
0	0xbd9ae705	-0.07563595
1	0xbcc3e559	-0.023913072
2	0x3df39a0b	0.11894616
3	0xbdd73c1d	-0.105095126
4	0xbe4f1f21	-0.20226718
5	0x3dd2a1ec	0.102847904
6	0xbe8a9a65	-0.2707092
7	0x3ba63a46	0.0050728647
8	0xbdc1e1c3	-0.09466889
9	0xbbf72f6d	-0.0075434954
10	0x3cdab88d	0.026699329
11	0x3cb9a3d9	0.022661136
12	0x3e164934	0.14676362
13	0x3e21388a	0.15744224
14	0x3d804e0c	0.06264886
15	0xbd556c24	-0.052105084
16	0xbe3fcecc	-0.1873123
17	0xbe07e2fc	-0.13270181
18	0xbddf92d6	-0.109166786
19	0xbe4382a1	-0.190928
20	0x3d231b36	0.039820872
21	0xbdaa5b07	-0.08318143
22	0x3dacd90b	0.08439835
23	0xbc8a5155	-0.016884485
24	0xbe7b3211	-0.24530818
25	0xbd3deb3f	-0.046366926
26	0xbdcdfb09	-0.10057647
27	0x3d971095	0.0737621
28	0xbe7a63d8	-0.2445215
29	0xbe84421c	-0.25831687
30	0x3d08e5c4	0.033422247
31	0x3e670dae	0.22563812
32	0x3d26d3cd	0.040729333
33	0xbd3e536c	-0.046466276
34	0xbdffc039	-0.124878354
35	0xbe3b2b74	-0.18278295
36	0xbdbd184a	-0.092331484
37	0xbd9a8b4b	-0.07546099
38	0x3dd76f8d	0.105193235
39	0x3d96463a	0.073376134
40	0x3d702b49	0.05863503
41	0xbd390468	-0.045170218
42	0xbdeb1eba	-0.1148047
43	0xbda53212	-0.08066191
44	0xbe7c27f5	-0.24624617
45	0xbdbba25f	-0.09161829
46	0xbe68ca04	-0.22733313
47	0xbcab4733	-0.020907974
48	0x3d30d135	0.043168265
49	0x3e63d62b	0.22249667
50	0x3de0165d	0.109417655
51	0xbd905165	-0.07046775
52	0x3e3dc649	0.18532671
53	0x3d8cceda	0.06875391
54	0xbdaf7413	-0.08567061
55	0x3df18fbe	0.11794995
56	0xbd31896c	-0.043343946
57	0xbd4359a5	-0.047692914
58	0xbcd96be3	-0.026540702
59	0xbd49f1ae	-0.04930275
60	0x3dda22b3	0.106511496
61	0xbdbca6a0	-0.09211469
62	0xbdc16f61	-0.09445072
63	0xbea5a8c3	-0.32355317
64	0x3e446e1f	0.19182633
65	0x3dd1b208	0.10239035
66	0x3d47abf6	0.04874798
67	0xbe3b2bc7	-0.18278418
68	0xbe41a1b2	-0.18909338
69	0x3d5031bb	0.050828677
70	0xbe3842b7	-0.179942
71	0xbda489f3	-0.08034124
72	0xbc04491c	-0.008074071
73	0x3d81e997	0.06343382
74	0x3e0117e0	0.12606764
75	0xbe8820c1	-0.2658749
76	0xbe284e8a	-0.1643621
77	0x3e061350	0.13093305
78	0x3cc66703	0.024219042
79	0xbd505f88	-0.050872356
80	0x3e1acca2	0.15117124
81	0x3e55153c	0.20808882
82	0x3d8857bc	0.06657359
83	0x3dd04a9d	0.10170481
84	0xbdc1e860	-0.0946815
85	0xbe784d2e	-0.24248192
86	0xbeaac5d4	-0.33354056
87	0x3cfd0eb2	0.030890796
88	0xbc61c9bf	-0.01378101
89	0xbcd4a5b6	-0.025957923
90	0x3d2012e5	0.03908052
91	0xbd475f13	-0.048674654
92	0xbda21758	-0.07914609
93	0x3d3b2764	0.045691863
94	0xbd5a8c85	-0.053356666
95	0x3d8c7ba1	0.06859518
96	0xbe2b27ea	-0.16714445
97	0xbce81436	-0.02832995
98	0xbc8ad46b	-0.016946992
99	0x3d3807e8	0.044929415
100	0x3cde9541	0.02717078
101	0xbd9362f0	-0.07196605
102	0x3b9922f3	0.0046733557
103	0xbdf5dd8b	-0.120051466
104	0xbe3cea72	-0.18448809
105	0x3d450709	0.048102412
106	0x3cbf54f8	0.023355946
107	0x3a29ec5b	0.0006482058
108	0x3d8d452e	0.068979606
109	0x3e22c29c	0.1589455
110	0xbcdc2021	-0.026870789
111	0xbe4c22a3	-0.19935088
112	0xbe649ad9	-0.22324695
113	0xbdfda2e3	-0.12384584
114	0x3e2de7ec	0.16983002
115	0x3ce4dd2c	0.027937494
116	0x3dc94ef6	0.09829514
117	0xbe2ddfd5	-0.16979916
118	0x3ba8157e	0.005129515
119	0xbdf06cad	-0.11739478
120	0x3ccd38d3	0.02505151
121	0x3de28852	0.11061157
122	0xbe1c796e	-0.15280697
123	0x3e91840e	0.28421062
124	0xbd6bc7a6	-0.057563446
125	0xbddcd183	-0.10782149
126	0x3c36b0a0	0.011150509
127	0x3dc6f63b	0.097149335
128	0xbe47e712	-0.1952174
129	0xbba36665	-0.0049865716
130	0xbcd920a5	-0.026504824
131	0xbe578f16	-0.21050677
132	0x3ddb32ec	0.10703072
133	0xbd8a6f55	-0.06759516
134	0xbdc606ab	-0.096692406
135	0xbe214760	-0.15749884
136	0xbe2a139a	-0.1660904
137	0xbdd923d3	-0.10602536
138	0xbdce51be	-0.10074185
139	0xbc7530b0	-0.014965221
140	0x3cf826fe	0.03029203
141	0x3db750bf	0.08950948
142	0xbd87c7f1	-0.06629933
143	0x3d3fdead	0.04684322
144	0x3797726c	1.8053885e-05
145	0xbd184fd7	-0.037185516
146	0xbdf68a58	-0.12038106
147	0x3e438c17	0.19096409
148	0xbd745fd5	-0.059661705
149	0xbdca8a29	-0.09889633
150	0x3e1252ff	0.14289473
151	0x3cd92f58	0.026511833
152	0x3d0013c0	0.031268835
153	0xbb160085	-0.0022888493
154	0x3da49de8	0.08037931
155	0x3e20fdfe	0.1572189
156	0x3da8940b	0.08231362
157	0x3cc34ed7	0.023841305
158	0xbce8ef2f	-0.028434364
159	0xbe403330	-0.18769526
160	0xbd0af4cb	-0.03392486
161	0xbdb5d01b	-0.088775836
162	0xba205329	-0.00061159075
163	0x3dd5278b	0.10407933
164	0x3d73cc69	0.059521113
165	0x3db6535c	0.08902618
166	0x3e858203	0.26075754
167	0x3e32f4fc	0.17476267
168	0xbeae1e6a	-0.3400758
169	0xb86e243a	-5.677736e-05
170	0xbd08de66	-0.03341522
171	0xbcce41d6	-0.025177877
172	0x3d8d1558	0.068888366
173	0xbd72c458	-0.05926928
174	0x3dbae695	0.09126011
175	0x3e5477dd	0.20748849
176	0xbd87eb3f	-0.066366665
177	0x3c05dd8d	0.008170498
178	0xbe1c8f08	-0.15288937
179	0x3dfdab9c	0.123862475
180	0xbdc71f58	-0.09722775
181	0xbe8fa893	-0.280583
182	0xbd4f9f41	-0.050688986
183	0xbdaa0060	-0.08300853
184	0xbe200495	-0.15626748
185	0x3d696636	0.05698224
186	0xbe5211ed	-0.2051465
187	0x3ce3cecd	0.027808571
188	0x3e2153e4	0.15754658
189	0x3c802eef	0.01564738
190	0x3e4086c3	0.18801408
191	0xbd0e7c85	-0.03478672
192	0xbc9eff44	-0.01940883
193	0x3e0b6b36	0.13615116
194	0xbbd92157	-0.006626289
195	0x3d9f583b	0.077805005
196	0xbe811929	-0.25214508
197	0x3e34db7d	0.17661853
198	0xbe84df18	-0.25951457
199	0x3e8cfa29	0.27534607
200	0x3e19232b	0.14954822
201	0xbe66d652	-0.22542694
202	0xbb29ebf9	-0.0025928004
203	0xbd690788	-0.056891948
204	0xbc0cc114	-0.008590955
205	0xbce455fb	-0.02787303
206	0xbdfb5b76	-0.12273304
207	0x3d3ccc37	0.046093192
208	0xbe85454f	-0.2602944
209	0xbe539331	-0.20661618
210	0xbeda8950	-0.42682886
211	0xbd97f763	-0.07420232
212	0x3c0e849f	0.0086986115
213	0x3dc912bb	0.09818026
214	0x3e390299	0.18067397
215	0x3c83def8	0.01609753
216	0xbe06c0be	-0.13159463
217	0xbe21a5d5	-0.15785916
218	0x3c78586d	0.015157801
219	0x3dcba463	0.09943464
220	0xbe0da4f0	-0.1383245
221	0x3df4db3d	0.11955879
222	0xbda834c6	-0.08213191
223	0xbc13641c	-0.008996036
224	0xbe2769c7	-0.16348945
225	0xbbf0b759	-0.0073460755
226	0x3bc23c94	0.0059276316
227	0x3d68f778	0.05687663
228	0x3ec4024b	0.38283
229	0x3e4d445d	0.2004561
230	0x3e079484	0.13240248
231	0x3e0de8c9	0.13858332
232	0x3e63e9e3	0.2225719
233	0xbe2c05a4	-0.16799027
234	0x3c9a060b	0.01880171
235	0x3d1a6197	0.037690725
236	0xbc8c16b0	-0.017100662
237	0x3d8887a0	0.066664934
238	0x3d33119e	0.043717973
239	0x3e4620cc	0.19348449
240	0xbe0b7362	-0.13618234
241	0xbd5d0803	-0.05396272
242	0x3e08eb10	0.13370919
243	0x3d144548	0.036198884
244	0x3db2d460	0.087319136
245	0x3dfbe2ed	0.12299142
246	0xbe2b1776	-0.16708168
247	0xbe457273	-0.1928194
248	0x3d30f9db	0.04320703
249	0xbe1f4fe3	-0.15557818
250	0x3d6aa3fd	0.057285298
251	0x3dcddab3	0.10051479
252	0xbcf6c132	-0.03012142
253	0xbe1bf971	-0.15231873
254	0x3e3903f0	0.18067908
255	0xbd19899b	-0.037484746

conv2.conv2.0.bias f4 [16]
0	0xbcb590f8	-0.022163853
1	0x3d3b14c7	0.04567411
2	0xbd499969	-0.04921857
3	0xbcb4598b	-0.022015354
4	0x3d9c5e6e	0.076351985
5	0x3d35bae9	0.044367705
6	0xbd845724	-0.06461933
7	0xbcbb8d4d	-0.022894526
8	0x3c060bfc	0.008181568
9	0x3cf68ab0	0.030095428
10	0xbd1cf9bc	-0.038324103
11	0x3d6eec5d	0.058330882
12	0x3aaad14a	0.0013032344
13	0xbd938174	-0.072024256
14	0x3cb6dbe3	0.022321647
15	0xbda59d42	-0.08086635

conv2.conv2.1.weight f4 [16]
0	0x3f884300	1.0645447
1	0x3f7f37b2	0.9969436
2	0x3f82e829	1.02271
3	0x3f707c47	0.9393963
4	0x3f845bcb	1.0340513
5	0x3f8d6f93	1.1049675
6	0x3f6da17e	0.9282454
7	0x3f60535d	0.876272
8	0x3f69e6a1	0.91367537
9	0x3f6ea76c	0.93224216
10	0x3f652c0f	0.89520353
11	0x3f61f9c9	0.88271767
12	0x3f979a6e	1.1844003
13	0x3f85753a	1.04264
14	0x3f91fc2b	1.140508
15	0x3f895319	1.0728484

conv2.conv2.1.bias f4 [16]
0	0x3daff291	0.08591188
1	0x3d1458e8	0.0362176
2	0x3d4c0229	0.049806748
3	0xbd8a7b28	-0.067617714
4	0xbd30ac76	-0.04313322
5	0x3e1c8dfb	0.15288536
6	0xbd253109	-0.040329967
7	0xbdeca314	-0.11554542
8	0x3d8b33e9	0.067970105
9	0x3d13568b	0.035971206
10	0xbd25707c	-0.040390477
11	0xbdc54d33	-0.09633865
12	0x3e1ecf25	0.15508707
13	0xbe5f0eb1	-0.21782948
14	0x3e28c3a5	0.16480882
15	0xbcb91ba2	-0.022596184

conv2.conv2.1.running_mean f4 [16]
0	0xbfc35936	-1.52616
1	0x3e80c3d5	0.25149408
2	0x3e4068b4	0.18789941
3	0xbec107cb	-0.37701258
4	0x3f64354a	0.8914381
5	0xbfb5c426	-1.4200485
6	0x3e0ad3ca	0.13557354
7	0xc02bac61	-2.6823962
8	0xbd28f215	-0.041246492
9	0xbc18acbf	-0.00931853
10	0x3f4b25da	0.7935463
11	0x3f0a1e29	0.5395227
12	0xbf13d20a	-0.5774237
13	0xbece005b	-0.40234646
14	0xbf8afd51	-1.0858556
15	0xbf16df4e	-0.58934486

conv2.conv2.1.running_var f4 [16]
0	0x3fa5c9ce	1.2952211
1	0x3fc4a03a	1.5361397
2	0x3fb18689	1.3869182
3	0x400028be	2.0024867
4	0x40368244	2.8517008
5	0x40055acf	2.0836675
6	0x3ff10dd8	1.883235
7	0x3ff5aca8	1.9193316
8	0x40704960	3.7544785
9	0x3f98165e	1.1881826
10	0x4066c2b2	3.6056333
11	0x3fd9fff8	1.703124
12	0x402e9e45	2.72841
13	0x3fc1584d	1.5105072
14	0x4035208c	2.8301115
15	0x406d626a	3.7091317

conv2.conv3.0.weight f4 [16, 16, 3, 3]
0	0xbe8bc9e4	-0.27302468
1	0x3d18d4ab	0.03731219
2	0xbe59955e	-0.21248385
3	0x3e0e5816	0.1390079
4	0x3e0dd7d0	0.13851857
5	0x3d8b133c	0.06790778
6	0x3e29cd34	0.16582185
7	0xbe216c4f	-0.15763973
8	0xbd37cd76	-0.044873677
9	0x3d7c0091	0.061523978
10	0xbcf89336	-0.030343633
11	0xbd374f74	-0.044753507
12	0xbd9240a1	-0.07141233
13	0xbb3dfc2e	-0.0028989422
14	0xbd49f54d	-0.049306203
15	0x3e0a6784	0.1351605
16	0x3c62e9d5	0.013849695
17	0xbddc836a	-0.10767253
18	0xbdb9b9f0	-0.09068668
19	0xbe3c398e	-0.1838133
20	0xbce17210	-0.02752021
21	0xbc07f466	-0.008298015
22	0xbd171168	-0.036881834
23	0xbe7881c3	-0.2426825
24	0x3cfbed32	0.030752752
25	0xbe153ed8	-0.14574754
26	0x3e00e526	0.12587413
27	0xbd34dcbe	-0.04415583
28	0xbc7a16a7	-0.01526419
29	0x3dd15c2d	0.10222659
30	0xbe2a30d4	-0.16620189
31	0x3b0d899d	0.0021596916
32	0x3cddccb3	0.027075147
33	0x3dcf7037	0.10128825
34	0xbdc7d13e	-0.09756707
35	0x3e1a906a	0.15094152
36	0xbc2f0ff4	-0.010684956
37	0xbd6a74e5	-0.057240386
38	0xbe29b338	-0.16572273
39	0xbcd1bf20	-0.02560383
40	0x3e16d5fa	0.14730063
41	0xbdb4378f	-0.087996595
42	0xbe134425	-0.14381464
43	0x3d77ccf6	0.0604982
44	0xbdcc466a	-0.09974368
45	0x3e0b118c	0.13580912
46	0x3d9e1e39	0.07720608
47	0xbd16b2ae	-0.036791496
48	0x3df76908	0.1208058
49	0x3e604a5c	0.21903366
50	0x3e2c9d8d	0.16856976
51	0x3eb2fd1c	0.34958732
52	0x3e6fe531	0.23427273
53	0xbeb05052	-0.3443628
54	0x3e1e1cf7	0.15440737
55	0xbdc766ce	-0.09736405
56	0x3e1a16a6	0.15047702
57	0x3e4d2663	0.20034175
58	0x3c53b3a6	0.0129212495
59	0x3dbba5ad	0.091624595
60	0xbd01e0e3	-0.03170861
61	0x3d66d568	0.056355864
62	0xbdd3e07b	-0.103455506
63	0xb9082394	-0.00012983225
64	0x3c7b6590	0.015344039
65	0x3db0af7e	0.086272225
66	0xbc7e0c37	-0.015505842
67	0xbd2e3f0b	-0.04254059
68	0xbe55296f	-0.20816587
69	0x3e21f651	0.15816619
70	0x3b3efeb0	0.0029143505
71	0x3da2df52	0.07952751
72	0xbe8901b0	-0.267591
73	0xbda8cf37	-0.08242648
74	0x3c4845d7	0.012223682
75	0x3da73cfa	0.08165927
76	0xbd8a4866	-0.0675209
77	0xbe1a6324	-0.15076882
78	0x3e6973bc	0.22798055
79	0xbdfc8687	-0.123303466
80	0xbe3754eb	-0.17903487
81	0x3cceec9a	0.025259305
82	0xbdaaefa6	-0.083464906
83	0xbe3b7881	-0.18307687
84	0xbe367d4f	-0.17821239
85	0x3d29dd20	0.041470647
86	0xbd692053	-0.056915592
87	0xbddfdf11	-0.109312184
88	0xbc2d9926	-0.010595595
89	0x3d0f36d5	0.0349644
90	0x3d8cf7eb	0.06883224
91	0xbda03a09	-0.07823569
92	0xbd9e4a2a	-0.077289894
93	0xbae74272	-0.0017643704
94	0x3d4132e2	0.047167666
95	0xb9a86023	-0.00032115084
96	0x3d879672	0.06620492
97	0xbce4ce3f	-0.027930377
98	0x3c0284d0	0.007966235
99	0xbe380168	-0.17969286
100	0x3d08124f	0.033220585
101	0xbe12c726	-0.14333782
102	0x3d546d22	0.05186189
103	0x3df636fe	0.12022208
104	0xbd525ddc	-0.051359043
105	0xbd500740	-0.050788164
106	0xbbe5057f	-0.0069891806
107	0xbd67ebd6	-0.056621395
108	0xbd78e9e7	-0.06076994
109	0x3da01a0e	0.078174695
110	0x3da6ad3f	0.08138513
111	0xbe0c4c89	-0.13701071
112	0x3dbbc7cf	0.0916897
113	0x3de61b21	0.11235643
114	0x3e2ecb50	0.17069745
115	0xbe2789a6	-0.16361102
116	0x3df038a2	0.11729552
117	0xbdc3de21	-0.09563852
118	0x3dde7b51	0.108633645
119	0xbe117af9	-0.14207067
120	0xbda80014	-0.0820314
121	0x3cb7f691	0.02245644
122	0xbc97a3ed	-0.018510783
123	0x3dce7c2d	0.100822784
124	0xbe2f0abb	-0.17093937
125	0x3bf06a0b	0.00733686
126	0x3e70280c	0.23452777
127	0x3e1fdd94	0.15611869
128	0xbd77eff5	-0.060531575
129	0x3e97d24a	0.29652625
130	0x3e7a677f	0.24453543
131	0xbd4cae6d	-0.049971033
132	0x3e17e249	0.14832415
133	0x3d56aea9	0.052412663
134	0xbdb1175f	-0.08647036
135	0x3e439e57	0.1910337
136	0xbe3717b5	-0.17880137
137	0xbda64baa	-0.081199005
138	0x3d98feba	0.0747046
139	0xbcefd589	-0.029276626
140	0x3de5cdef	0.11220919
141	0x3cd3a60a	0.02583601
142	0xbca589db	-0.020207336
143	0x3df9e801	0.12202454
144	0x3bc823b1	0.0061077704
145	0x3d4d0769	0.050055895
146	0xbdc9885e	-0.09840463
147	0x3e482d30	0.19548488
148	0xbe106163	-0.1409965
149	0xbe0d0925	-0.1377302
150	0x3e6b5adc	0.22983879
151	0xbd2780d7	-0.040894356
152	0x3c28a91c	0.010294225
153	0xbe00950c	-0.12556857
154	0x3e4113b9	0.1885518
155	0x3dfea21f	0.12433266
156	0x3e0b2cb7	0.13591276
157	0xbe217dc2	-0.15770629
158	0xbd58c3dc	-0.05292116
159	0xbe25f378	-0.16206157
160	0xbd50a84d	-0.050941754
161	0x3e2b7133	0.16742401
162	0xbda01c8a	-0.078179434
163	0x3c496ec4	0.012294475
164	0x3c9c1d04	0.019056804
165	0xbe23e9a3	-0.16007094
166	0xbd960642	-0.07325412
167	0xbd568d4d	-0.05238085
168	0xbd47b417	-0.04875573
169	0xbacb83dd	-0.0015526969
170	0xbe2753c4	-0.16340548
171	0xbc667cd7	-0.01406785
172	0x3cb59238	0.02216445
173	0xbe35d240	-0.17755985
174	0x3e63c264	0.22242123
175	0x3e35fce4	0.17772251
176	0x3d8c62ce	0.06854783
177	0xbe15f988	-0.1464597
178	0x3e8151b0	0.25257635
179	0x3d8b8164	0.06811789
180	0x3dc4f23b	0.09616514
181	0x3d443be4	0.04790868
182	0x3e1dc2e6	0.15406379
183	0x3da8c25e	0.082401976
184	0x3e27127d	0.16315646
185	0xbd61f51c	-0.055165395
186	0x3e5d3906	0.21603784
187	0x3e2e5c12	0.1702731
188	0x3df450f6	0.119295046
189	0xbd86e848	-0.06587273
190	0xbb413315	-0.002947991
191	0xbcfb419e	-0.030670937
192	0x3e0b1fd9	0.13586368
193	0xbb97461f	-0.0046165134
194	0x3ab33875	0.0013673442
195	0xbcc4b62b	-0.024012646
196	0xbb0c5c2b	-0.002141724
197	0x3d4c1fa6	0.04983487
198	0x3e0df786	0.13863954
199	0xbce74e10	-0.028235465
200	0x3dca28b7	0.09871047
201	0x3e8ed166	0.27894133
202	0xbdb8023f	-0.089848034
203	0xbc52e75e	-0.012872545
204	0x3d26c169	0.040711794
205	0xbcec613c	-0.028854959
206	0x3d9e8ee0	0.07742095
207	0xbdd41fa8	-0.103576005
208	0xbe22efa5	-0.1591173
209	0xbcaa5c31	-0.020795913
210	0xbe14276d	-0.14468165
211	0xbc25c8ae	-0.010118647
212	0x3cc37648	0.023860112
213	0x3dd2c12b	0.1029075
214	0x3bc21b53	0.0059236675
215	0x3d439c52	0.0477565
216	0x3df15076	0.11782925
217	0x3e09db28	0.13462508
218	0x3e1db5a1	0.15401317
219	0x3d01079c	0.031501397
220	0x3df54deb	0.11977752
221	0xbdd89005	-0.105743445
222	0x3e07687a	0.13223448
223	0xbdcabdb1	-0.09899462
224	0x3e05d9a4	0.13071305
225	0xbdab33ee	-0.08359514
226	0xbc618e6d	-0.013766867
227	0x3cfc1ed1	0.030776413
228	0xbe1370bb	-0.14398472
229	0xbdc013b7	-0.0937876
230	0x3da487ee	0.08033739
231	0x3d8cce46	0.06875281
232	0xbe09feff	-0.1347618
233	0x3e173460	0.14766073
234	0xbb9cffc2	-0.004791231
235	0x3dd63560	0.10459399
236	0x3e8a9066	0.27063292
237	0x3e75f806	0.24020395
238	0x3cfe720a	0.031060237
239	0x3e25000b	0.16113298
240	0xbcd78078	-0.026306376
241	0xbe2f563c	-0.1712274
242	0xbdbbf6c1	-0.09177924
243	0xbc99b582	-0.018763307
244	0x3df95b84	0.12175658
245	0xbe06a809	-0.13150038
246	0x3e132327	0.14368878
247	0xbd909099	-0.0705883
248	0x3e1d9c7a	0.15391722
249	0xbdcd2511	-0.100168355
250	0x3dc78e3d	0.09743927
251	0xbd2917e2	-0.041282542
252	0xbc74ae8e	-0.014934195
253	0xbe0ccf48	-0.13750947
254	0xbd8df906	-0.06932263
255	0x3da0442b	0.07825502

conv2.conv3.0.bias f4 [16]
0	0xbc48482f	-0.012224241
1	0xbd74606e	-0.059662275
2	0x3b18983e	0.0023284103
3	0x3d435e6f	0.04769748
4	0x3b34f2f9	0.0027610643
5	0x3d56849e	0.052372567
6	0xbd00e8a1	-0.031471852
7	0x3d85cbd2	0.06533016
8	0x3ca29587	0.01984669
9	0xbce5577d	-0.02799582
10	0x3d248259	0.04016337
11	0x3d27cbd1	0.04096586
12	0xbd124be7	-0.035716917
13	0xbc784247	-0.0151525205
14	0x3d3017b8	0.04299137
15	0xbd965958	-0.0734126

conv2.conv3.1.weight f4 [16]
0	0x3f892ec1	1.0717393
1	0x3f4a68f2	0.79066384
2	0x3f8403a5	1.0313612
3	0x3fa51caa	1.2899373
4	0x3f96a7fa	1.1770012
5	0x3f7efde3	0.9960615
6	0x3f81fcbb	1.0155252
7	0x3f60f0e9	0.878676
8	0x3f7266c3	0.9468805
9	0x3f7690b6	0.9631456
10	0x3f9e0bfd	1.2347409
11	0x3f4c555d	0.79817754
12	0x3f823ada	1.017421
13	0x3f7de0bc	0.9917104
14	0x3f86a14c	1.0517974
15	0x3f495d7b	0.78658265

conv2.conv3.1.bias f4 [16]
0	0x3c1045be	0.00880569
1	0x3c549c4f	0.01297672
2	0x3d8ddb71	0.06926621
3	0x3a201b3d	0.00061075744
4	0xbc722b9f	-0.014780908
5	0x3dc4b997	0.09605711
6	0xbd3956ea	-0.045248903
7	0x3e0ca52a	0.1373488
8	0xbd5eac78	-0.054363698
9	0xbd960989	-0.073260374
10	0x3e540a24	0.20706993
11	0x3cc865c9	0.024462597
12	0x3d64f7cb	0.055900376
13	0x3d2d2caa	0.042278923
14	0x3d84ba15	0.06480805
15	0xbdc5d930	-0.09660566

conv2.conv3.1.running_mean f4 [16]
0	0x3eabfdcc	0.3359207
1	0x3f2609e9	0.6485887
2	0x3d508110	0.050904334
3	0xbfc5c0c8	-1.5449457
4	0xbf8bedc7	-1.0931939
5	0x3f9c84e5	1.2228056
6	0x3e9b884b	0.3037742
7	0xbfb9bebc	-1.4511333
8	0xbf66527c	-0.8996961
9	0xbf8fa52b	-1.122228
10	0xbf202336	-0.6255373
11	0x3fbede7b	1.4911646
12	0xbf1f7a18	-0.62295675
13	0xbf8896ea	-1.0671055
14	0xbf5af887	-0.8553547
15	0x3f728340	0.9473152

conv2.conv3.1.running_var f4 [16]
0	0x40231669	2.5482428
1	0x403ab1f7	2.917112
2	0x400eacc0	2.2292938
3	0x408024fe	4.0045156
4	0x4095b9cc	4.6789303
5	0x406d33a8	3.7062778
6	0x40755e36	3.8338752
7	0x406b7dde	3.6795573
8	0x404a7db0	3.1639214
9	0x404b79b3	3.179303
10	0x4086e1f7	4.2150836
11	0x4085ae65	4.1775384
12	0x40041675	2.0638707
13	0x4011797c	2.2730398
14	0x4051aa9e	3.2760386
15	0x4084102b	4.1269736
