checkpoints/ifind1_sononet_8_6classes/008_net_6classes_new_improved_emb001.pth (torch_old, 671819 bytes, 90 tensors)

conv1.conv1.0.weight f4 [8, 1, 3, 3]
-0.1874825 0.8191467 0.4199958 0.23653263 -0.43803826 0.55921423 -0.12013468 0.35972732
-0.6515174 0.532762 0.5929604 -0.47539037 0.61308604 0.766216 -0.7724879 -0.16473977
0.8137166 0.29240397 0.7705552 -0.7720261 -0.2013797 0.003989864 0.08603189 -0.003131852
-0.7520615 -0.070004664 1.3057642 0.6027672 0.6511646 1.0469979 -0.66281235 -0.49454072
-0.02743449 -0.60461724 -0.7444905 0.0041387817 0.120409414 0.060485587 -1.1348639 -0.42927006
-0.07210953 0.4016247 0.39882705 0.06623195 0.74526805 -0.18780716 0.25577876 0.540526
-0.43950358 -0.48868647 0.073994264 -0.27155402 0.21349213 0.84780186 -0.5830382 0.54554856
0.11945086 0.10505181 -0.14529692 0.012517476 0.7062985 -0.38026866 -0.015723394 -0.20289929
-0.28862682 0.7637664 0.03803902 -0.6812167 -0.5076034 0.04672033 -0.55430067 0.92355174
00000000: 6afb 3fbe 99b3 513f b109 d73e 9c35 723e
00000010: 8d46 e0be aa28 0f3f 2c09 f6bd 2e2e b83e
00000020: d8c9 26bf 1763 083f 41cc 173f 5e66 f3be
00000030: 35f3 1c3f bb26 443f c4c1 45bf 8bb1 28be
00000040: bb4f 503f f9b5 953e 1b43 453f 81a3 45bf
00000050: 7b36 4ebe 68bd 823b 7d31 b03d c23f 4dbb
00000060: 1a87 40bf 9b5e 8fbd 4823 a73f f44e 1a3f
00000070: b9b2 263f 0704 863f 12ae 29bf 7134 fdbe
00000080: 4cbe e0bc 32c8 1abf ee96 3ebf 9e9e 873b
00000090: 3699 f63d bcbf 773d 3843 91bf 49c9 dbbe
000000a0: 29ae 93bd c1a1 cd3e 0f33 cc3e 9ea4 873d
000000b0: e3c9 3e3f 8550 40be 6ff5 823e e95f 0a3f
000000c0: 9d06 e1be 1d35 fabe 4e8a 973d 2109 8bbe
000000d0: ae9d 5a3e 8b09 593f fe41 15bf 12a9 0b3f
000000e0: a7a2 f43d 6725 d73d b7c8 14be 1a16 4d3c
000000f0: facf 343f 93b2 c2be 59ce 80bc d5c4 4fbe
00000100: e5c6 93be 3286 433f cece 1b3d 3864 2ebf
00000110: 4cf2 01bf d15d 3f3d a6e6 0dbf e36d 6c3f

conv1.conv1.0.bias f4 [8]
0.32072172 -0.2750434 -0.3305988 -0.26073515 -0.22417799 0.1349539 0.11933689 0.27691466
00000000: a335 a43e 7dd2 8cbe 3f44 a9be 147f 85be
00000010: ea8e 65be 5b31 0a3e e666 f43d c2c7 8d3e

conv1.conv1.1.weight f4 [8]
0.9394351 0.90899056 0.99536735 1.343716 0.9981306 1.0211703 0.78634864 0.88852715
00000000: d27e 703f 9bb3 683f 65d0 7e3f e3fe ab3f
00000010: 7d85 7f3f b5b5 823f 254e 493f 8476 633f

conv1.conv1.1.bias f4 [8]
0.3342029 -0.20831294 0.5258179 0.35927576 0.22799952 0.42838505 -0.03384325 -0.038665716
00000000: a41c ab3e fd4f 55be 009c 063f fef2 b73e
00000010: b578 693e 4955 db3e 389f 0abd f15f 1ebd

conv1.conv1.1.running_mean f4 [8]
0.32115838 -0.27470675 -0.3288744 -0.26028627 -0.22397806 0.13583289 0.11990718 0.2785017
00000000: df6e a43e 5da6 8cbe 3a62 a8be 3e44 85be
00000010: 815a 65be c717 0b3e e591 f53d c697 8e3e

conv1.conv1.1.running_var f4 [8]
1.068258 4.720193 0.22666118 0.73493624 0.22710535 0.363638 0.13036521 0.31176472
00000000: aebc 883f d20b 9740 de19 683e c824 3c3f
00000010: 4e8e 683e c32e ba3e 757e 053e a09f 9f3e

conv1.conv2.0.weight f4 [8, 8, 3, 3]
0.0151598295 0.36105454 0.01600168 -0.050111435 0.15262559 -0.07355484 -0.001814089 0.19586824
-0.14286777 -0.26460353 0.22980079 0.25171947 -0.14890444 0.13326058 0.1331881 -0.235009
-0.23869099 -0.11681694 0.038392805 -0.36412346 -0.17498282 -0.48915955 -0.20474951 -0.039871
-0.12795177 0.4180494 0.30735993 0.10318638 -0.14331765 0.19897684 -0.006417762 -0.09862596
-0.056917436 0.19525881 0.3223467 -0.09070491 0.18367383 -0.029414736 0.020540666 -0.13837777
-0.048634753 -0.041216522 -0.22837025 0.13949618 0.21257006 0.29404575 0.066979185 -0.19852029
-0.34724957 -0.14219646 -0.09093182 0.56726295 0.09730824 0.3015331 -0.17708272 0.04008659
0.20825379 0.16751178 0.062048923 -0.13726172 0.040961806 0.018623604 -0.27384493 -0.27235413
-0.321833 0.095465645 -0.09530401 -0.09624752 -0.14888118 -0.073681295 -0.25011697 -0.12990932
0.27198964 -0.0765461 0.18324603 0.093946956 0.12442984 0.3558303 0.2668048 0.42177066
0.121919245 0.08008002 0.29041612 0.32612196 -0.1576737 -0.01736627 -0.02254726 -0.12087584
-0.32972723 -0.15316337 -0.007870391 0.0007056215 0.4655812 0.056897808 0.15739734 0.43894622
0.15874498 0.057577256 -0.08686087 -0.4083162 -0.29393783 -0.01299676 0.060633052 -0.03792459
0.27427775 0.14749268 0.009286661 0.27738383 -0.13084555 -0.16043039 0.17520298 0.021207483
-0.16920602 -0.14031492 0.005222678 -0.029915405 -0.33385634 -0.09309827 0.54329693 0.57915014
-0.22684143 0.11336763 0.16404873 -0.010505106 0.15412727 -0.046561483 -0.11025605 0.24930064
0.12796688 -0.16315453 0.050733693 0.064524256 -0.08983688 -0.039941736 -0.0062527233 -0.19123688
-0.15143396 -0.012675561 -0.06559586 0.22786835 -0.09914935 0.030629504 -0.06771452 0.13019463
-0.2563934 -0.033794936 -0.010221355 0.015472407 0.18750328 -0.20923312 0.12724991 -0.071492165
-0.042688005 -0.3092202 -0.086758845 0.068997145 0.041342437 0.17500252 0.15629424 -0.1477862
0.042590644 0.30817273 0.07913838 0.33378214 0.10102672 -0.07803698 0.1412981 -0.37305462
-0.26088002 0.0056540878 0.17576912 -0.10102701 -0.2542951 -0.02718676 -0.044789236 -0.017129261
-0.0007416427 -0.3465215 0.0035998865 0.004172665 0.13548872 0.29708296 0.1325918 0.14016727
-0.052229278 0.12000202 0.0666601 -0.09007016 0.24808557 0.012114419 -0.13528931 0.010848594
0.07863193 0.022195632 0.17975701 0.63656116 0.19505212 0.2230696 0.035198897 -0.19697534
0.062430054 0.049342703 -0.04510084 0.059969902 0.25422633 -0.07961684 0.038620267 -0.106069386
0.008725767 -0.0022390427 0.14255618 0.111409396 0.0059816847 -0.11980474 -0.04860534 0.13893302
-0.04645546 0.07933443 0.024967602 0.07123863 0.013242056 0.040223457 -0.07033869 0.20573437
-0.0021389115 -0.034291826 -0.047773622 -0.0030490193 -0.04387724 -0.019199194 0.048853345 -0.016171446
-0.13645835 0.15412688 0.21380927 -0.092611454 -0.16171199 0.20565914 0.009336211 0.24087225
-0.05594388 -0.096845575 -0.023379976 0.06257342 -0.02984152 0.14032422 -0.1131191 0.09365401
0.15168867 -0.022427889 -0.16977915 -0.13662691 0.36279997 0.3424692 0.07888294 0.057535294
00000000: ef60 783c 24dc b83e f515 833c a641 4dbd
00000010: e249 1c3e eca3 96bd bac6 edba af91 483e
00000020: ee4b 12be 1d7a 87be e650 6b3e 60e1 803e
00000030: 687a 18be 7675 083e 7662 083e 33a6 70be
00000040: 696b 74be b83d efbd c641 1d3d 646e babe
00000050: b22e 33be 1f73 fabe dba9 51be c64f 23bd
00000060: ca05 03be 920a d63e 485e 9d3e 6153 d33d
00000070: ddc1 12be 96c0 4b3e 174c d2bb 68fc c9bd
00000080: 4222 69bd edf1 473e a00a a53e 7fc3 b9bd
00000090: fe14 3c3e 2cf7 f0bc e644 a83c e7b2 0dbe
000000a0: 3c35 47bd a8d2 28bd e4d9 69be 16d8 0e3e
000000b0: f7ab 593e 2a8d 963e 622c 893d e748 4bbe
000000c0: b2ca b1be f39b 11be 763a babd 2538 113f
000000d0: 8b49 c73d 8c62 9a3e 2c55 35be d631 243d
000000e0: 7b40 553e 3588 2b3e 0327 7e3d 568e 0cbe
000000f0: 91c7 273d 8790 983c 6735 8cbe 0072 8bbe
00000100: 4cc7 a4be 7e83 c33d c02e c3bd 6b1d c5bd
00000110: 4f74 18be 38e6 96bd 550f 80be f306 05be
00000120: 3a42 8b3e 34c4 9cbd d9a4 3b3e 4367 c03d
00000130: 12d5 fe3d 642f b63e a49a 883e 53f2 d73e
00000140: ccb0 f93d fe00 a43d 6cb1 943e 75f9 a63e
00000150: 3775 21be b543 8ebc 08b5 b8bc c18d f7bd
00000160: 02d2 a8be dcd6 1cbe d0f2 00bc 75f9 383a
00000170: a960 ee3e ad0d 693d c52c 213e 8fbd e03e
00000180: 0b8e 223e 21d6 6b3d 1de4 b1bd d20e d1be
00000190: 057f 96be 5df0 54bc 5d5a 783d d156 1bbd
000001a0: 226e 8c3e 5208 173e 1427 183c 4105 8e3e
000001b0: 60fc 05be dd47 24be 6968 333e 51bb ad3c
000001c0: 5844 2dbe b7ae 0fbe 0023 ab3b 2711 f5bc
000001d0: 38ef aabe 4eaa bebd 8215 0b3f 2f43 143f
000001e0: 1f49 68be 4a2d e83d 64fc 273e 9c1d 2cbc
000001f0: 8ad3 1d3e 41b7 3ebd edcd e1bd ab48 7f3e
00000200: c009 033e fb11 27be 22ce 4f3d 4b25 843d
00000210: 66fc b7bd f299 23bd a5e3 ccbb 9ad3 43be
00000220: 8111 1bbe 28ad 4fbc 1f57 86bd 5256 693e
00000230: d00e cbbd baea fa3c e9ad 8abd be51 053e
00000240: ff45 83be 8f6c 0abd 7877 27bc fb7f 7d3c
00000250: dc00 403e 3541 56be cd4d 023e 7c6a 92bd
00000260: 9ed9 2ebd 1c52 9ebe 9fae b1bd 604e 8d3d
00000270: b056 293d dc33 333e 990b 203e 4455 17be
00000280: 8773 2e3d d1c8 9d3e 4e13 a23d 7ee5 aa3e
00000290: 19e7 ce3d dad1 9fbd 73b0 103e 0401 bfbe
000002a0: 1192 85be ed45 b93b d2fc 333e 40e7 cebd
000002b0: f832 82be c5b6 debc eb74 37bd aa52 8cbc
000002c0: cd6a 42ba 446b b1be 13ec 6b3b daba 883b
000002d0: 8ebd 0a3e 421b 983e 25c6 073e 0288 0f3e
000002e0: 5eee 55bd 9ec3 f53d 1785 883d b476 b8bd
000002f0: 250a 7e3e 8e7b 463c 4889 0abe 4dbe 313c
00000300: c709 a13d 9dd3 b53c 3912 383e acf5 223f
00000310: bebb 473e 5b6c 643e b82c 103d e7b3 49be
00000320: a8b6 7f3d 931b 4a3d a9bb 38bd 00a3 753d
00000330: f429 823e 270e a3bd 4930 1e3d e83a d9bd
00000340: 85f6 0e3c e7bc 12bb 3ffa 113e 9c2a e43d
00000350: 0202 c43b 305c f5bd 6516 47bd 7544 0e3e
00000360: 1548 3ebd 177a a23d db88 cc3c 8fe5 913d
00000370: 35f5 583c 5ac1 243d bb0d 90bd 08ac 523e
00000380: fb2c 0cbb 9675 0cbd 46ae 43bd 0ed2 47bb
00000390: 9fb8 33bd a147 9dbc 721a 483d fb79 84bc
000003a0: bdbb 0bbe 70d3 1d3e d1f0 5a3e 13ab bdbd
000003b0: d497 25be 4f98 523e e8f6 183c 37a7 763e
000003c0: 6925 65bd f956 c6bd 5d87 bfbc 7e26 803d
000003d0: 3476 f4bc 27b1 0f3e fdaa e7bd accd bf3d
000003e0: 4654 1b3e b1ba b7bc 96da 2dbe ede7 0bbe
000003f0: ebc0 b93e 1f58 af3e 618d a13d 21aa 6b3d

conv1.conv2.0.bias f4 [8]
-0.019406386 -0.06707591 -0.019049816 0.095564924 -0.08745793 0.026738552 -0.11579276 0.061767355
00000000: 24fa 9ebc 185f 89bd 5c0e 9cbc 8bb7 c33d
00000010: 251d b3bd cf0a db3c c124 edbd c4ff 7c3d

conv1.conv2.1.weight f4 [8]
0.9990861 0.83962226 0.8597915 0.7637661 1.0071793 1.0771722 0.9585866 1.4270662
00000000: 1bc4 7f3f 7cf1 563f 4c1b 5c3f 2d86 433f
00000010: 40eb 803f c7e0 893f ee65 753f 1baa b63f

conv1.conv2.1.bias f4 [8]
0.060457047 -0.07646733 -0.026026085 -0.06316739 0.26478782 -0.07953033 -0.1271423 0.5681262
00000000: cfa1 773d e79a 9cbd a834 d5bc e85d 81bd
00000010: 4592 873e cce0 a2bd 9731 02be b870 113f

conv1.conv2.1.running_mean f4 [8]
-0.08265233 2.0195398 0.7213285 1.4488118 0.42304724 -1.9219916 -0.1865866 -0.7605573
00000000: a045 a9bd 2440 0140 fca8 383f aa72 b93f
00000010: a699 d83e d203 f6bf 8f10 3fbe e2b3 42bf

conv1.conv2.1.running_var f4 [8]
1.028434 9.7817 3.3224041 3.0645041 3.4748747 7.3413534 3.1755054 2.0059223
00000000: baa3 833f d881 1c41 45a2 5440 d620 4440
00000010: 5964 5e40 5eec ea40 7b3b 4b40 0861 0040

conv1.conv3.0.weight f4 [8, 8, 3, 3]
-0.07957347 -0.13333163 0.040261798 0.25720236 0.047816135 0.114766285 -0.2115319 0.06846881
0.07214677 -0.28459042 0.2312046 0.502503 -0.17820376 -0.09273395 0.014365499 0.0739699
0.13173875 -0.15600322 -0.28105378 0.042804305 0.060376726 -0.21872343 -0.00076553784 0.2691035
-0.28007916 0.15925688 -0.18118005 -0.5213908 0.028958376 0.14479883 -0.05874811 -0.11865971
0.2242377 0.08784041 -0.0071327933 0.056684326 -0.076887056 0.2629302 0.5237619 0.2094233
0.31313178 0.2271159 -0.07380025 -0.081466466 0.20266074 -0.18072264 0.0044895723 -0.34526297
0.078586176 0.08663287 0.19663477 0.10987602 -0.24960169 0.019545728 -0.14737323 0.05888746
0.21506563 -0.17394583 -0.055844415 0.28220946 -0.09457899 -0.16665596 -0.20120776 0.0061082337
-0.073904075 -0.1160015 0.10331475 0.07767838 -0.2789088 0.17899096 -0.12775382 -0.0043841214
-0.16045398 -0.20733012 0.061248507 0.15051228 0.14903925 0.27316946 0.013514302 0.254911
-0.027088374 0.330193 -0.038459077 0.022384174 -0.0562566 0.016240774 0.16524205 0.19149512
0.08064249 0.24819507 0.1965539 -0.02823752 0.21370275 -0.30541548 -0.06322253 0.039098226
0.10248135 -0.17899054 0.011768543 0.13383374 0.11713775 -0.026614184 -0.06663601 0.28443986
-0.28038752 0.1611369 -0.13421021 -0.083875775 0.28538576 0.43198684 0.096519776 -0.034373097
-0.18693823 0.11277441 -0.060376216 0.06235986 0.25223204 -0.21417062 0.01171775 0.060203534
-0.030717975 0.10701267 0.22757761 -0.02000755 -0.20622098 -0.10705006 0.083316796 -0.04954177
-0.14551303 -0.1095837 -0.05044349 -0.004896756 -0.13878195 -0.14563325 0.04881791 0.015629478
-0.070037685 -0.29176027 -0.24247377 -0.26729006 0.20773557 -0.12768365 0.014705519 -0.09575587
-0.028281571 -0.20161356 0.20459333 0.026707496 -0.10941517 -0.074747816 0.060575243 0.25482333
-0.055203572 -0.16136545 0.059708133 -0.098634504 -0.09894645 0.2527797 0.264394 -0.33392063
0.2711242 -0.028350763 0.096986115 -0.27083936 -0.0020387885 -0.20718503 -0.18703575 0.22629973
-0.25197807 0.09269808 -0.1645157 0.03678139 0.118389875 -0.17432886 -0.17128746 -0.037022725
-0.015911957 -0.06619183 0.0077030584 -0.10905625 0.12277465 0.05818822 -0.1553578 -0.09665612
-0.1544714 -0.44039923 0.061557725 0.14485562 -0.09207854 0.2428186 -0.30810332 0.103088394
-0.013509339 -0.11388316 0.4809723 0.02482981 0.023789976 0.07031997 -0.16203536 0.026484232
0.12096798 -0.45747527 -0.10729563 0.038744245 -0.08488439 -0.12259243 -0.46847767 -0.22043744
-0.6730239 0.004064877 -0.05714341 0.3322775 0.3182135 0.1298878 0.06808673 0.5758836
-0.14435217 -0.07532006 0.120633185 0.2987937 -0.14712559 -0.14185162 0.26631808 -0.12229649
0.28483084 0.08472968 -0.099189505 -0.048276834 -0.31538185 0.27789956 -0.2351406 0.2763838
0.058815155 -0.16763836 0.2896546 -0.061534237 -0.068445 0.322387 0.176325 0.24538888
0.19339536 0.20349614 0.14082415 0.05501419 0.07565622 -0.21994089 0.22560997 -0.0960055
0.10790231 0.45459408 0.22035274 0.02827983 0.057361733 0.09939403 -0.061040066 0.044629652
00000000: 6af7 a2bd 1688 08be 8ee9 243d 07b0 833e
00000010: dada 433d 960a eb3d d29b 58be 6039 8c3d
00000020: b0c1 933d d6b5 91be e6c0 6c3e 09a4 003f
00000030: 0c7b 36be 4ceb bdbd 455d 6b3c 887d 973d
00000040: 86e6 063e 4fbf 1fbe 48e6 8fbe 9153 2f3d
00000050: 964d 773d 09f9 5fbe 60ae 48ba efc7 893e
00000060: 8966 8fbe 3c14 233e 4387 39be de79 05bf
00000070: 1e3a ed3c 2546 143e dca1 70bd dd03 f3bd
00000080: 919e 653e ace5 b33d 35ba e9bb d32d 683d
00000090: f676 9dbd ca9e 863e 4315 063f 1073 563e
000000a0: cf52 a03e 1291 683e 9624 97bd e4d7 a6bd
000000b0: 4c86 4f3e 5b0f 39be 431d 933b 4fc6 b0be
000000c0: caf1 a03d 936c b13d a05a 493e ae06 e13d
000000d0: 9697 7fbe 5d1e a03c 02e9 16be fa33 713d
000000e0: 2a3a 5c3e db1e 32be 1dbd 64bd c27d 903e
000000f0: a1b2 c1bd dca7 2abe 6809 4ebe 9427 c83b
00000100: 055b 97bd 3292 edbd af96 d33d d815 9f3d
00000110: 22cd 8ebe 6849 373e e6d1 02be ada8 8fbb
00000120: 0c4e 24be 594e 54be b7df 7a3d e41f 1a3e
00000130: bf9d 183e dedc 8b3e 176b 5d3c b283 823e
00000140: 70e8 ddbc 0f0f a93e 4487 1dbd 045f b73c
00000150: 526d 66bd 5f0b 853c 3635 293e 4c17 443e
00000160: e427 a53d d926 7e3e 6d45 493e 5f52 e7bc
00000170: e5d4 5a3e 6b5f 9cbe d07a 81bd 7625 203d
00000180: bee1 d13d 4c49 37be d9d0 403c b60b 093e
00000190: ebe5 ef3d fd05 dabc 7678 88bd 1aa2 913e
000001a0: f48e 8fbe 1201 253e 676e 09be 10c7 abbd
000001b0: 151e 923e 612d dd3e 29ac c53d ceca 0cbd
000001c0: bc6c 3fbe 45f6 e63d 0d4d 77bd 0d6d 7f3d
000001d0: 8f24 813e 8b4f 5bbe cefb 3f3c fb97 763d
000001e0: 43a4 fbbc 7529 db3d 1b0a 693e e0e6 a3bc
000001f0: 982b 53be 103d dbbd ffa1 aa3d 50ec 4abd
00000200: 5e01 15be 6b6d e0bd d59d 4ebd f774 a0bb
00000210: db1c 0ebe e220 15be 4af5 473d 6409 803c
00000220: eb6f 8fbd 9a61 95be 0b4b 78be 3eda 88be
00000230: a2b8 543e 81bf 02be 6bef 703c a71b c4bd
00000240: c1ae e7bc c973 4ebe ea80 513e aec9 da3c
00000250: 1015 e0bd 6215 99bd bf1d 783d 3478 823e
00000260: 241d 62bd fc3c 25be 8490 743d e300 cabd
00000270: 70a4 cabd 576c 813e a65e 873e a5f7 aabe
00000280: cbd0 8a3e dc3f e8bc a8a0 c63d 75ab 8abe
00000290: 329d 05bb 5028 54be 4d86 3fbe 1ebb 673e
000002a0: 4503 81be 7ed8 bd3d ce76 28be 15a8 163d
000002b0: 6476 f23d 4483 32be fb65 2fbe 24a5 17bd
000002c0: cb59 82bc 958f 87bd f069 fc3b e258 dfbd
000002d0: 4771 fb3d c556 6e3d 1d16 1fbe a5f3 c5bd
000002e0: c02d 1ebe 027c e1be f423 7c3d 0855 143e
000002f0: ac93 bcbd 70a5 783e b8bf 9dbe 0220 d33d
00000300: 4656 5dbc 933b e9bd 0042 f63e e367 cb3c
00000310: 32e3 c23c eb03 903d 99ec 25be 76f5 d83c
00000320: 0fbe f73d 333a eabe d0bd dbbd 49b2 1e3d
00000330: ded7 adbd bd11 fbbd 4edc efbe 5aba 61be
00000340: 4b4b 2cbf a932 853b 350f 6abd 4720 aa3e
00000350: e1ec a23e 4f01 053e 0e71 8b3d 1c6d 133f
00000360: 0ed1 13be 6741 9abd 880e f73d 7dfb 983e
00000370: 17a8 16be 8d41 11be d85a 883e 9576 fabd
00000380: 59d5 913e c186 ad3d de23 cbbd eebd 45bd
00000390: bb79 a1be da48 8e3e b3c8 70be 2d82 8d3e
000003a0: 29e8 703d 64a9 2bbe 9c4d 943e 530b 7cbd
000003b0: e42c 8cbd e90f a53e 8a8e 343e 3947 7b3e
000003c0: 6f09 463e 4b61 503e 3534 103e 8f56 613d
000003d0: a6f1 9a3d 2f38 61be 4d06 673e 889e c4bd
000003e0: e3fb dc3d 8ec0 e83e 26a4 613e 1aab e73c
000003f0: 23f4 6a3d 198f cb3d 2605 7abd 95cd 363d

conv1.conv3.0.bias f4 [8]
-0.061876383 -0.004272326 0.021998737 -0.031295836 0.080308266 0.012848402 -0.10886799 -0.012758814
00000000: 1772 7dbd defe 8bbb b236 b43c 1030 00bd
00000010: a978 a43d 1b82 523c 2ef6 debd 580a 51bc

conv1.conv3.1.weight f4 [8]
1.046811 0.785709 1.1740884 0.85838336 1.3484015 1.1133343 0.7951066 1.0524882
00000000: e7fd 853f 3a24 493f 8748 963f 03bf 5b3f
00000010: 6c98 ac3f bd81 8e3f 1b8c 4b3f efb7 863f

conv1.conv3.1.bias f4 [8]
0.01968656 -0.08503819 0.23156887 0.030371403 -0.07670172 0.30099902 -0.06958049 0.069094196
00000000: b545 a13c 8128 aebd 6420 6d3e 73cd f83c
00000010: cb15 9dbd 8b1c 9a3e 3780 8ebd 4281 8d3d

conv1.conv3.1.running_mean f4 [8]
0.19847348 -0.024838727 -0.27237695 0.8871447 -0.0709038 -1.273457 -1.1162422 -0.034114387
00000000: a23c 4b3e 967a cbbc fe74 8bbe ea1b 633f
00000010: 0336 91bd a400 a3bf 06e1 8ebf 87bb 0bbd

conv1.conv3.1.running_var f4 [8]
1.8753743 3.4383223 2.1422496 4.780813 3.6801724 2.470422 1.3090755 2.3322515
00000000: 440c f03f 790d 5c40 9e1a 0940 6cfc 9840
00000010: f287 6b40 651b 1e40 c98f a73f 9c43 1540

conv2.conv1.0.weight f4 [16, 8, 3, 3]
-0.005670975 -0.2208706 -0.010927794 -0.19409233 -0.24770208 -0.14941254 0.082078956 0.04423927
0.12038735 -0.10493126 0.013777236 -0.3250272 0.025049623 -0.06844725 0.19036935 -0.29080957
0.016825357 -0.29453585 0.078861035 0.157339 -0.08350558 -0.32422265 0.28810513 -0.21646442
0.05496205 0.14470276 0.0752737 0.20369521 0.05998977 -0.25598285 0.058365997 -0.0680033
-0.0011002106 -4.9650775e-05 -0.06627399 0.110370696 0.044978626 0.16845319 0.26152226 -0.014992422
0.3171973 0.09813709 -0.021435572 -0.040604427 -0.036293697 -0.0053784046 -0.15944138 -0.17649564
0.016536841 -0.3511832 -0.0067970245 -0.15816826 -0.047913607 -0.4622982 -0.13182387 -0.25880575
-0.052634437 0.2634783 -0.00660623 0.20425087 -0.013140052 -0.028062606 0.24693704 -0.29928964
-0.21889448 -0.021034485 -0.26687762 0.103687905 0.22575094 0.15003583 0.1561594 -0.005143011
-0.0075524645 0.2630382 -0.007944406 0.3958687 0.07237686 -0.12255621 -0.0149952425 0.017326586
-0.027888406 0.1633942 -0.124116085 -0.054378644 0.19790587 -0.52908367 -0.17970891 0.4366331
-0.039200928 0.069567986 -0.26959845 0.1295699 0.107069515 -0.05427288 0.1520439 -0.19128725
-0.25152075 -0.07965076 -0.028189445 -0.011057452 0.010732922 -0.13536955 -0.23570749 -0.0330206
-0.38190296 0.13043627 -0.03248835 -0.15659183 -0.40100926 -0.06747518 -0.12286146 0.098946415
0.03287679 0.14416781 0.19035353 -0.030000014 0.21072207 -0.08357818 0.27127337 -0.19567315
-0.22818108 -0.18668734 -0.131388 -0.1467009 -0.17117602 0.19951849 -0.2085113 0.07795344
0.14276949 -0.13935946 -0.09015757 0.26688778 -0.20087522 0.18346351 -0.28588924 -0.39075187
-0.13374035 0.14935103 -0.16716215 -0.0040903487 -0.029605554 -0.12016743 0.0020515553 0.033581283
-0.032098766 -0.37912467 0.06387025 0.16454905 -0.0062805493 0.09641484 -0.12353198 0.27006927
0.11803645 -0.20408204 0.08881168 0.20865516 0.2986326 0.03394925 0.048491653 -0.07360111
-0.12466665 0.07772608 0.02806416 0.18410285 -0.045755763 -0.24789034 0.3864335 -0.1706738
-0.18238139 0.13060935 -0.12247986 -0.15057418 -0.39271218 -0.07198108 0.032537673 0.11168093
0.13854441 -0.015658965 -0.102053724 0.3909002 0.21477711 0.14549439 0.05703963 0.313077
0.0680157 -0.13041182 -0.09428731 -0.34259936 -0.035473477 -0.0013915382 -0.20136373 0.051612422
-0.11509314 0.1067094 0.19773541 0.14101186 0.3433176 0.024562601 -0.1218451 -0.16617619
-0.27727133 -0.11263765 0.003537628 0.052794386 0.009917536 -0.026714213 0.028345866 0.23707762
0.15473528 -0.51122946 0.14103441 0.00778466 0.17160706 -0.016933069 -0.06780426 0.4916768
0.2572437 0.060613487 0.11260498 -0.108742945 -0.019814689 0.11538169 -0.2820988 0.019641364
0.23305717 -0.07123907 0.05254834 -0.16616483 -0.1572064 0.02683782 0.11193121 -0.38250768
-0.07640815 -0.046790093 -0.04835558 0.16169317 0.19981766 0.38218817 0.28588754 -0.058738925
-0.1670693 0.015487052 -0.2535713 -0.23723602 -0.019325126 0.23052287 -0.23176992 -0.17787078
-0.25984195 0.28171903 0.07495046 0.019548627 0.039276112 -0.07719559 -0.3352412 -0.02469124
00000000: 96d3 b9bb e72b 62be 7d0a 33bc 24c0 46be
00000010: 9da5 7dbe 9aff 18be 0319 a83d 3d34 353d
00000020: a58d f63d 33e6 d6bd ebb9 613c f769 a6be
00000030: de34 cd3c 122e 8cbd 2ff0 423e fee4 94be
00000040: 55d5 893c 67cd 96be e581 a13d 7a1d 213e
00000050: f904 abbd 8300 a6be 8482 933e d9a8 5dbe
00000060: e31f 613d f62c 143e 1929 9a3d 7a95 503e
00000070: d5b7 753d 2f10 83be 2f11 6f3d 5045 8bbd
00000080: f134 90ba 1d40 50b8 a8ba 87bd 080a e23d
00000090: 823b 383d fe7e 2c3e 3fe6 853e c7a2 75bc
000000a0: af67 a23e 19fc c83d a799 afbc d450 26bd
000000b0: b3a8 14bd 543d b0bb 9a44 23be 46bb 34be
000000c0: 4578 873c 49ce b3be 93b9 debb dcf6 21be
000000d0: 0f41 44bd 5ab2 ecbe d6fc 06be 3082 84be
000000e0: 3597 57bd a1e6 863e 1379 d8bb 2427 513e
000000f0: 5f49 57bc 8de3 e5bc 10dd 7c3e 7e3c 99be
00000100: e025 60be 8350 acbc 2fa4 88be 535a d43d
00000110: 412b 673e fea2 193e 40e8 1f3e b486 a8bb
00000120: aa7a f7bb f1ac 863e 4129 02bc 4daf ca3e
00000130: 523a 943d c0fe fabd 9bae 75bc 7cf0 8d3c
00000140: 3a76 e4bc cf50 273e 9330 febd 24bc 5ebd
00000150: d6a7 4a3e 0772 07bf 9d05 38be 608e df3e
00000160: 2791 20bd a979 8e3d cf08 8abe f9ad 043e
00000170: 4347 db3d 3d4d 5ebd 65b1 1b3e cee0 43be
00000180: 54c7 80be f01f a3bd 8ded e6bc 512a 35bc
00000190: 23d9 2f3c 519e 0abe 4e5d 71be 9c40 07bd
000001a0: c988 c3be 1691 053e 8112 05bd 9c59 20be
000001b0: 1651 cdbe 6d30 8abd ca9e fbbd 6ba4 ca3d
000001c0: d0a9 063d baa0 133e 09ec 423e 97c2 f5bc
000001d0: 87c7 573e 092b abbd 58e4 8a3e 8b5e 48be
000001e0: 4da8 69be f72a 3fbe 938a 06be c338 16be
000001f0: c448 2fbe 934e 4c3e fc83 55be 0ea6 9f3d
00000200: 2a32 123e 3fb4 0ebe 88a4 b8bd 84a5 883e
00000210: 3cb2 4dbe dcdd 3b3e 1360 92be a110 c8be
00000220: 3bf3 08be 7aef 183e 8e2c 2bbe 5508 86bb
00000230: 5987 f2bc 571a f6bd 6373 063b 878c 093d
00000240: ff79 03bd a11c c2be 68ce 823d 8c7f 283e
00000250: 11cd cdbb 2575 c53d 56fe fcbd 8546 8a3e
00000260: 18bd f13d e2fa 50be e6e2 b53d b3a9 553e
00000270: 5fe6 983e 5e0e 0b3d 2f9f 463d 2ebc 96bd
00000280: 3b51 ffbd da2e 9f3d cfe6 e53c 7585 3c3e
00000290: 656a 3bbd f7d6 7dbe 9dda c53e 1dc5 2ebe
000002a0: 30c2 3abe 75be 053e b9d6 fabd 1e30 1abe
000002b0: 9211 c9be d16a 93bd 3946 053d f9b8 e43d
000002c0: 96de 0d3e 3b47 80bc 8b01 d1bd 1224 c83e
000002d0: 88ee 5b3e 7bfc 143e 63a2 693d a14b a03e
000002e0: d14b 8b3d ad8a 05be b519 c1bd 2f69 afbe
000002f0: a34c 11bd 4664 b6ba 4b32 4ebe 8c67 533d
00000300: f4b5 ebbd 758a da3d 277b 4a3e 6a65 103e
00000310: 53c7 af3e 8237 c93c ec89 f9bd 172a 2abe
00000320: 82f6 8dbe 91ae e6bd 8dd7 673b ed3e 583d
00000330: 297d 223c c4d7 dabc 9735 e83c 7ac4 723e
00000340: ed72 1e3e efdf 02bf 536b 103e 7616 ff3b
00000350: c3b9 2f3e 38b7 8abc f6dc 8abd 10bd fb3e
00000360: 72b5 833e d945 783d 719d e63d 9fb4 debd
00000370: 6a52 a2bc 3c4d ec3d 416f 90be ede6 a03c
00000380: 8aa6 6e3e cae5 91bd ee3c 573d 1d27 2abe
00000390: b7fa 20be fdda db3c 313c e53d 0cd8 c3be
000003a0: e07b 9cbd f8a6 3fbd 8010 46bd e592 253e
000003b0: 009d 4c3e 2bae c33e da5f 923e 3a98 70bd
000003c0: 3714 2bbe 67bd 7d3c 19d4 81be 00ee 72be
000003d0: ba4f 9ebc 300e 6c3e 1855 6dbe c223 36be
000003e0: 010a 85be 7a3d 903e a07f 993d 7124 a03c
000003f0: fddf 203d b918 9ebd bca4 abbe 4945 cabc

conv2.conv1.0.bias f4 [16]
-0.017103504 -0.09647883 0.0276485 0.035178967 -0.09323102 -0.105696775 0.012358508 0.115053564
-0.10538733 -0.05773069 -0.040631965 -0.1040738 -0.07254678 0.09248331 0.09011385 -0.08668057
00000000: a61c 8cbc b196 c5bd 1b7f e23c d217 103d
00000010: e8ef bebd 8d77 d8bd 577b 4a3c 34a1 eb3d
00000020: 50d5 d7bd 0477 6cbd b46d 26bd a524 d5bd
00000030: 6893 94bd e467 bd3d 9c8d b83d 9585 b1bd

conv2.conv1.1.weight f4 [16]
1.0562538 0.93188566 0.8395124 1.0169009 1.1301973 1.2039889 0.90522236 0.99038106
1.0559653 0.9186214 1.054758 0.98538 1.0719087 0.95168287 0.993816 1.0534551
00000000: 5333 873f 0f90 6e3f 49ea 563f cf29 823f
00000010: 4eaa 903f 4f1c 9a3f a7bc 673f 9d89 7d3f
00000020: df29 873f c62a 6b3f 4f02 873f dd41 7c3f
00000030: 4e34 893f 7da1 733f ba6a 7e3f 9ed7 863f

conv2.conv1.1.bias f4 [16]
0.090138845 -0.06617342 -0.09501533 0.050306685 -0.03399414 -0.093778305 0.033916675 0.0243243
-0.052889027 0.003909957 0.00073147455 0.061196715 0.08508038 -0.13057272 0.036139518 -0.08479241
00000000: b79a b83d ee85 87bd 6697 c2bd 620e 4e3d
00000010: 703d 0bbd d70e c0bd 36ec 0a3d c143 c73c
00000020: 2aa2 58bd 191f 803b 6dc0 3f3a 68a9 7a3d
00000030: 9f3e ae3d dbb4 05be 0807 143d a5a7 adbd

conv2.conv1.1.running_mean f4 [16]
-1.0854448 -1.53239 0.8091782 0.038453996 -1.2260058 -3.9227715 -0.64970183 1.2713498
-1.6288095 0.4511879 -2.2131834 -0.6949456 -0.37963697 1.5049187 -0.88410735 -2.3191547
00000000: dbef 8abf 5b25 c4bf 4d26 4f3f f081 1d3d
00000010: c2ed 9cbf b00e 7bc0 dc52 26bf 97bb a23f
00000020: d47c d0bf 1a02 e73e cca4 0dc0 f4e7 31bf
00000030: c75f c2be 2da1 c03f dc54 62bf 086d 14c0

conv2.conv1.1.running_var f4 [16]
5.677767 1.6776175 1.5599774 3.5888667 2.9051654 3.6899343 2.4620106 2.4613295
4.873813 1.8711383 3.121802 4.888258 2.5554757 3.0476012 3.2962463 2.6402583
00000000: 44b0 b540 2cbc d63f 57ad c73f feaf 6540
00000010: 3bee 3940 e227 6c40 9591 1d40 6c86 1d40
00000020: 47f6 9b40 7681 ef3f 9bcb 4740 9c6c 9c40
00000030: ea8c 2340 e60b 4340 b3f5 5240 fef9 2840

conv2.conv2.0.weight f4 [16, 16, 3, 3]
-0.09287969 -0.034158166 0.09335268 -0.10906118 -0.20457079 0.084295854 -0.26122898 0.008665073
-0.09680514 0.008464205 0.05118458 0.036714833 0.1406425 0.14684659 0.06252138 -0.049506605
-0.16777658 -0.11350055 -0.101889655 -0.18738635 0.04872618 -0.056031603 0.12931721 0.018379316
-0.22547232 -0.018592747 -0.08207452 0.08280976 -0.20958622 -0.23778853 -0.008338239 0.20074388
0.016123824 -0.037581727 -0.09110987 -0.15870102 -0.049877614 -0.067248285 0.086332045 0.029021762
0.012881924 -0.09388967 -0.101224005 -0.06527911 -0.24004366 -0.096648 -0.21823287 -0.022956911
0.044259094 0.23330858 0.13422084 -0.118485615 0.15781775 0.055803545 -0.09791397 0.08995564
-0.057183657 -0.01991386 -0.0052829506 -0.04783316 0.1176379 -0.08308589 -0.09689497 -0.3208664
0.17377095 0.09695912 0.08316421 -0.1545942 -0.17122036 0.099111795 -0.12062424 -0.03686576
-0.017730348 0.041993566 0.10478076 -0.27613896 -0.18048985 0.108779 0.019219197 -0.06020934
0.12768373 0.19908853 0.059894335 0.098466374 -0.102154806 -0.24483271 -0.3419749 0.051398743
-0.004984275 -0.017897176 0.056442115 -0.030729229 -0.06933377 0.038234655 -0.037407484 0.07937392
-0.18295518 -0.020056298 -0.009740017 0.06390567 0.03151037 -0.080391094 0.030950047 -0.10848847
-0.19485031 0.08362129 0.043230865 0.00036946285 0.034921084 0.12406101 -0.04989209 -0.16344413
-0.17088245 -0.07983979 0.17845578 0.020048901 0.069882415 -0.16381577 0.049045544 -0.08064552
0.04244737 0.1424131 -0.124660775 0.29112867 -0.060934167 -0.09159374 0.018448835 0.10114507
-0.19255657 0.02759542 0.006523761 -0.18273361 0.114624046 -0.048771728 -0.07780676 -0.08995333
-0.1298645 -0.08417275 -0.07391826 0.0044931904 0.04434196 0.08542401 -0.0697934 0.055072363
0.0024517928 -0.047348272 -0.14430462 0.20004761 -0.05670318 -0.11869469 0.1570589 0.038279027
0.020866018 -0.009982123 0.077727765 0.1610433 0.07179457 0.029500103 -0.01343685 -0.18513075
-0.028342573 -0.088945605 -0.018546702 0.08357451 0.0598132 0.08126772 0.25271037 0.1673859
-0.34588107 0.018995013 -0.0151911415 -0.00081052096 0.10857816 -0.024237314 0.12166444 0.24593908
-0.027014274 0.03655839 -0.124625154 0.14175239 -0.076110825 -0.2568096 -0.02737523 -0.046448812
-0.13107423 0.0818044 -0.18804999 0.02624894 0.16435105 -0.003456957 0.1808165 -0.019738106
-0.03588293 0.12585197 -0.018534949 0.037573278 -0.27950618 0.14097215 -0.22738774 0.2766586
0.15878312 -0.21724929 -0.026544986 -0.052092403 -0.020750642 -0.034450453 -0.106575504 0.07475525
-0.2318495 -0.15013805 -0.41661233 -0.06383252 0.033466518 0.09304627 0.18673553 0.02875837
-0.13305065 -0.16094506 0.0062547633 0.11387482 -0.12969036 0.11767075 -0.06594346 0.004802714
-0.16207628 0.0022909013 -0.0032940018 0.023494825 0.38849708 0.20287246 0.12566893 0.13400522
0.20272487 -0.20360415 0.013931262 0.029860634 -0.003949612 0.05743176 0.020187026 0.16693468
-0.16074476 -0.06537295 0.13086997 0.032527093 0.08237346 0.09351533 -0.14869371 -0.19714753
0.019076498 -0.14262392 0.05808627 0.09275184 -0.026699947 -0.14870107 0.17632817 -0.037145663
00000000: b537 bebd 6fe9 0bbd b12f bf3d 785b dfbd
00000010: 017b 51be 4ea3 ac3d cebf 85be f3f7 0d3c
00000020: c641 c6bd 73ad 0a3c eca6 513d 4b62 163d
00000030: 9604 103e f45e 163e 360b 803d 70c7 4abd
00000040: a0cd 2bbe fa72 e8bd 86ab d0bd 35e2 3fbe
00000050: 1a95 473d 6581 65bd bb6b 043e 3890 963c
00000060: 37e2 66be d14f 98bc b016 a8bd 2a98 a93d
00000070: c59d 56be d67e 73be 1c9d 08bc ce8f 4d3e
00000080: 1c16 843c 4cef 19bd d097 babd 8582 22be
00000090: 784c 4cbd 78b9 89bd dbce b03d 0cbf ed3c
000000a0: b50e 533c 3a49 c0bd 884e cfbd 0eb1 85bd
000000b0: 01ce 75be 63ef c5bd 7078 5fbe 2210 bcbc
000000c0: 0649 353d 72e8 6e3e 3071 093e 96a8 f2bd
000000d0: fa9a 213e 4292 643d 1f87 c8bd aa3a b83d
000000e0: 6939 6abd 6422 a3bc 9a1c adbb b4ec 43bd
000000f0: 24ec f03d ef28 aabd df70 c6bd 9a48 a4be
00000100: 03f1 313e 8192 c63d ff51 aa3d f14d 1ebe
00000110: 6454 2fbe 20fb ca3d d709 f7bd 8d00 17bd
00000120: 3c3f 91bc 7201 2c3d 4c97 d63d 1662 8dbe
00000130: 55d2 38be 86c7 de3d 9471 9d3c 129e 76bd
00000140: 86bf 023e dddd 4b3e c353 753d bda8 c93d
00000150: 8a36 d1bd 6db5 7abe 5617 afbe 7d87 523d
00000160: 2153 a3bb 199d 92bc d92f 673d ddbb fbbc
00000170: ddfe 8dbd f19b 1c3d 9738 19bd cb8e a23d
00000180: 9a58 3bbe 1b4d a4bc 9894 1fbc fae0 823d
00000190: 0511 013d 16a4 a4bd f48a fd3c 342f debd
000001a0: d786 47be a441 ab3d d912 313d 77b4 c139
000001b0: 6909 0f3d b313 fe3d a65b 4cbd e65d 27be
000001c0: cffb 2ebe 0b83 a3bd 1dbd 363e 983d a43c
000001d0: 831e 8f3d 52bf 27be fbe3 483d 7a29 a5bd
000001e0: 4bdd 2d3d bdd4 113e 264e ffbd d10e 953e
000001f0: 1b96 79bd 8095 bbbd 0322 973c 2525 cf3d
00000200: 8d2d 45be ca0f e23c 46c5 d53b 851e 3bbe
00000210: 03c0 ea3d ddc4 47bd 2759 9fbd 7439 b8bd
00000220: 33fb 04be c362 acbd 7562 97bd 9d3b 933b
00000230: ea9f 353d c9f2 ae3d d8ef 8ebd 8f93 613d
00000240: 42ae 203b 43f0 41bd 97c4 13be 48d9 4c3e
00000250: 9841 68bd 3416 f3bd 0cd4 203e 78ca 1c3d
00000260: 36ef aa3c 0f8c 23bc bc2f 9f3d 89e8 243e
00000270: 0809 933d 33aa f13c 3c26 5cbc ea92 3dbe
00000280: af2e e8bc 1d29 b6bd 41ef 97bc 1d29 ab3d
00000290: b0fe 743d b16f a63d 4163 813e 3667 2b3e
000002a0: 5317 b1be 6e9b 9b3c 44e4 78bc 2479 54ba
000002b0: 3a5e de3d 558d c6bc 352b f93d 74d7 7b3e
000002c0: 0a4d ddbc 40be 153d 793b ffbd 8a27 113e
000002d0: fedf 9bbd 8c7c 83be 0542 e0bc 1c41 3ebd
000002e0: 5338 06be 1189 a73d 2d90 40be 0408 d73c
000002f0: a44b 283e 1d8e 62bb f627 393e cfb1 a1bc
00000300: fbf9 12bd 57df 003e 9bd6 97bc 70e6 193d
00000310: 6f1b 8fbe 015b 103e 55d8 68be 32a6 8d3e
00000320: 0b98 223e 9976 5ebe df74 d9bc d85e 55bd
00000330: 40fd a9bc eb1b 0dbd 4244 dabd 4819 993d
00000340: f569 6dbe cabd 19be 364e d5be a0ba 82bd
00000350: 3014 093d 0b8f be3d 9937 3f3e ac96 eb3c
00000360: 6e3e 08be c8ce 24be c2f4 cc3b 3437 e93d
00000370: 8dcd 04be 5dfd f03d 5d0d 87bd 1660 9d3b
00000380: 53f7 25be f222 163b 2ee0 57bb 3878 c03c
00000390: 17e9 c63e ccbd 4f3e 5baf 003e aa38 093e
000003a0: 1c97 4f3e 9b7d 50be f33f 643c 4a9e f43c
000003b0: bf6b 81bb 913d 6b3d 435f a53c edf0 2a3e
000003c0: 469a 24be 41e2 85bd c702 063e 213b 053d
000003d0: 6bb3 a83d f784 bf3d 2a43 18be 0be1 49be
000003e0: 5146 9c3c 010c 12be deeb 6d3d adf4 bd3d
000003f0: d9b9 dabc 1845 18be 5f8f 343e 0d26 18bd

conv2.conv2.0.bias f4 [16]
-0.022166263 0.04568014 -0.04922501 -0.022017997 0.07636239 0.04437334 -0.06462799 -0.02289658
0.00818187 0.03009914 -0.03832895 0.05833829 0.001302867 -0.07203329 0.022325212 -0.0808767
00000000: 0696 b5bc 191b 3b3d 2aa0 49bd 165f b4bc
00000010: e263 9c3d d2c0 353d ae5b 84bd 9c91 bbbc
00000020: 400d 063c 7992 f63c d1fe 1cbd 21f4 6e3d
00000030: f6c4 aa3a 3186 93bd 5de3 b63c afa2 a5bd

conv2.conv2.1.weight f4 [16]
1.0644904 1.000632 1.0258021 0.95594084 0.97444606 1.0657427 0.92295843 0.8430959
0.8947847 1.0174328 0.96923 0.8985355 1.1243674 1.0829211 1.103289 1.0309865
00000000: 3941 883f b614 803f 7c4d 833f 8ab8 743f
00000010: 4c75 793f 426a 883f 0147 6c3f 22d5 573f
00000020: 9c10 653f 3d3b 823f 751f 783f 6c06 663f
00000030: 45eb 8f3f 299d 8a3f 9338 8d3f 5ef7 833f

conv2.conv2.1.bias f4 [16]
0.082504235 -0.0016726896 0.026182763 -0.05186207 -0.00959189 0.12908007 -0.067717746 -0.16922817
0.05703937 0.029502673 -0.012994124 -0.079850875 0.09199159 -0.1129954 0.13081306 0.014949344
00000000: fbf7 a83d 263e dbba 3c7d d63c 526d 54bd
00000010: 4d27 1dbc 912d 043e 9aaf 8abd 264a 2dbe
00000020: 1da2 693d 97af f13c 4ee5 54bc db88 a3bd
00000030: 1666 bc3d 226a e7bd dcf3 053e 18ee 743c

conv2.conv2.1.running_mean f4 [16]
-1.2744566 0.35390538 0.27395776 -0.09893161 1.0682565 -1.126367 0.26663008 -2.2017994
-0.20712112 0.18420205 0.79030246 0.4172659 -0.4420902 -0.16093312 -0.9118354 -0.80421215
00000000: 6521 a3bf 1633 b53e 3144 8c3e a89c cabd
00000010: a1bc 883f cb2c 90bf bd83 883e 48ea 0cc0
00000020: 8f17 54be 769f 3c3e 4351 4a3f e0a3 d53e
00000030: a659 e2be a7cb 24be 0b6e 69bf d9e0 4dbf

conv2.conv2.1.running_var f4 [16]
1.0101659 1.4689368 1.5069891 1.567182 2.4086556 1.858121 1.7819488 1.503359
2.6606252 1.1136888 3.3758507 1.3773457 1.8946406 0.9992652 2.7524793 3.2728262
00000000: 1e4d 813f 1f06 bc3f 05e5 c03f 6b99 c83f
00000010: 6a27 1a40 e9d6 ed3f e616 e43f 116e c03f
00000020: af47 2a40 5b8d 8e3f f00d 5840 dd4c b03f
00000030: 9583 f23f d8cf 7f3f 9f28 3040 fc75 5140

conv2.conv3.0.weight f4 [16, 16, 3, 3]
-0.28389955 0.028008228 -0.22759283 0.13405581 0.12854286 0.058232244 0.12329215 -0.18086006
-0.07116315 0.05800416 -0.03330366 -0.046518613 -0.052429035 0.0074769086 -0.022219054 0.13802212
0.012524393 -0.11479309 -0.08515547 -0.18497296 -0.027218198 -0.006449422 -0.040440112 -0.24165645
0.017945917 -0.1645331 0.10419092 -0.03758775 -0.009446523 0.10464123 -0.16045484 0.0022180849
0.019016478 0.103287265 -0.09647067 0.14908434 -0.012379862 -0.059145387 -0.17444812 -0.016388364
0.15811199 -0.08683536 -0.13817914 0.07169054 -0.08818619 0.13259882 0.069670916 -0.042759288
0.11627185 0.20714095 0.14997642 0.33600634 0.2025903 -0.36194366 0.15953946 -0.09289344
0.15222599 0.20738219 0.021826502 0.102237746 -0.030059407 0.05121188 -0.111870565 0.006474101
0.022968682 0.08920791 -0.017895501 -0.049423195 -0.2165022 0.14332475 -0.010860425 0.06370265
-0.26201612 -0.07866503 0.0074850367 0.08878936 -0.06429257 -0.14775743 0.23158394 -0.11893699
-0.18352813 0.028938534 -0.0798205 -0.1964295 -0.16390437 0.05868812 -0.046030324 -0.09667123
-0.0035753204 0.031051511 0.064419 -0.079779044 -0.0804553 -0.0012343344 0.048706606 0.0084697725
0.073718295 -0.015468897 0.028525207 -0.1829959 0.025521925 -0.15393324 0.04411162 0.11247521
-0.060342446 -0.0552565 -0.010206796 -0.057279073 -0.054485712 0.07147763 0.0845405 -0.13063602
0.086102135 0.11893543 0.18525329 -0.1651272 0.11010163 -0.086371176 0.11846674 -0.13689223
-0.08813391 0.009034519 -0.03250812 0.101007424 -0.16515829 0.005942149 0.22005534 0.13329847
-0.08516685 0.26325813 0.22267416 -0.055389225 0.12671381 0.034083698 -0.09014982 0.1898601
-0.18544 -0.09126982 0.08172616 -0.028814465 0.10916051 0.023411559 -0.026384225 0.11219945
0.0036115947 0.04226911 -0.09255225 0.20838094 -0.12162303 -0.12751323 0.22364055 -0.037011366
0.01973769 -0.12708497 0.18911517 0.13233209 0.1428214 -0.1392708 -0.031515643 -0.15344363
-0.046486452 0.15337095 -0.06392037 0.035088953 0.055224255 -0.15481853 -0.07404522 -0.04744987
-0.04114215 0.006801639 -0.14949557 -0.01828745 0.012450421 -0.18809919 0.21380305 0.15965997
0.039855585 -0.17955688 0.22065607 0.032507896 0.107906975 0.041143447 0.13752009 0.071867764
0.14221922 -0.08103303 0.18674597 0.14459682 0.09393074 -0.052910283 -0.010835935 -0.039567385
0.1432453 -0.008308883 -0.014629134 -0.012127909 0.0025632998 0.042298507 0.13473697 -0.034024768
0.09578646 0.28433648 -0.09502467 -0.015801596 0.048185922 -0.020578684 0.091784224 -0.084278196
-0.14236735 -0.0039526015 -0.12719375 0.0025580474 0.04499018 0.11109684 0.011516878 0.058874443
0.122968584 0.15631102 0.18058093 0.02583441 0.110263646 -0.11960395 0.12339833 -0.11917469
0.094976865 -0.10574286 -0.033629883 0.026319807 -0.13635238 -0.08092398 0.10689992 0.0767741
-0.14029005 0.16076082 -0.025662415 0.09224442 0.25346023 0.21401954 0.026615566 0.1614491
-0.044568513 -0.17793357 -0.08803971 -0.016674003 0.1327325 -0.11407994 0.14105713 -0.08463003
0.15503326 -0.114566565 0.074949265 -0.058128454 -0.03548616 -0.13900639 -0.06912654 0.07243266
00000000: 485b 91be 8371 e53c 180e 69be ed45 093e
00000010: bda0 033e ef84 6e3d 9880 fc3d 6133 39be
00000020: fcbd 91bd c595 6d3d 6b69 08bd 4d8a 3ebd
00000030: d4bf 56bd db00 f53b bc04 b6bc ac55 0d3e
00000040: 1d33 4d3c a418 ebbd fe65 aebd 8d69 3dbe
00000050: b3f8 debc ac55 d3bb 88a4 25bd ca74 77be
00000060: 5103 933c 5d7b 28be 0d62 d53d 9df5 19bd
00000070: 97c5 1abc 244e d63d 464e 24be 4a5d 113b
00000080: 72c8 9b3c 4688 d33d 6a92 c5bd 91a9 183e
00000090: e8d4 4abc 6f42 72bd 87a2 32be e440 86bc
000000a0: 1ce8 213e bdd6 b1bd d57e 0dbe 7dd2 923d
000000b0: f69a b4bd fcc7 073e a0af 8e3d 5d24 2fbd
000000c0: f01f ee3d c21c 543e 6b93 193e 0609 ac3e
000000d0: d573 4f3e ae50 b9be 505e 233e ea3e bebd
000000e0: 21e1 1b3e ff5b 543e 7ecd b23c 0662 d13d
000000f0: 253f f6bc 8cc3 513d 651c e5bd b224 d43b
00000100: d128 bc3c a3b2 b63d 9699 92bc fa6f 4abd
00000110: c1b2 5dbe b9c3 123e edef 31bc 8976 823d
00000120: fa26 86be 221b a1bd 0a45 f53b 32d7 b53d
00000130: d3ab 83bd b94d 17be 5724 6d3e 3d95 f3bd
00000140: ccee 3bbe 8110 ed3c ee78 a3bd d124 49be
00000150: 8cd6 27be f462 703d 4b8a 3cbd 91fb c5bd
00000160: ec4f 6abb bd5f fe3c 1cee 833d 3263 a3bd
00000170: c0c5 a4bd 64c9 a1ba 9480 473d cdc4 0a3c
00000180: 9ef9 963d 4271 7dbc b2ad e93c 4763 3bbe
00000190: 5b13 d13c ada0 1dbe 63ae 343d 6759 e63d
000001a0: a429 77bd a454 62bd 683a 27bc 769d 6abd
000001b0: 692c 5fbd dd62 923d 9223 ad3d 73c5 05be
000001c0: 5156 b03d 6b94 f33d 0ab3 3d3e 1b17 29be
000001d0: f77c e13d 5fe3 b0bd b19e f23d 7a2d 0cbe
000001e0: 8d7f b4bd 8505 143c 3c27 05bd fbdc ce3d
000001f0: 411f 29be 5cb6 c23b 3056 613e 657f 083e
00000200: f56b aebd c5c9 863e b204 643e d0df 62bd
00000210: 44c1 013e 599b 0b3d 78a0 b8bd b06a 423e
00000220: fce3 3dbe aceb babd 0c60 a73d 500c ecbc
00000230: 8c8f df3d 99c9 bf3c bb23 d8bc d3c8 e53d
00000240: 81b0 6c3b 6022 2d3d 098c bdbd d061 553e
00000250: 7f15 f9bd d492 02be 0702 653e 3b99 17bd
00000260: f0b0 a13c 9022 02be 68a7 413e 1082 073e
00000270: c63f 123e 019d 0ebe 8c16 01bd 5420 1dbe
00000280: 9468 3ebd 460d 1d3e afe8 82bd 6fb9 0f3d
00000290: d432 623d c088 1ebe 05a5 97bd cb5a 42bd
000002a0: ac84 28bd 49e0 de3b 5e15 19be 90cf 95bc
000002b0: dafc 4b3c 139d 40be 30ef 5a3e e77d 233e
000002c0: 9c3f 233d c2dd 37be aaf3 613e 0027 053d
000002d0: 55fe dc3d 0886 283d 11d2 0c3e 682f 933d
000002e0: eaa1 113e a5f4 a5bd 563a 3f3e 3011 143e
000002f0: c35e c03d 74b8 58bd 3589 31bc 6911 22bd
00000300: e5ae 123e fb21 08bc 09af 6fbc 23b4 46bc
00000310: 09fd 273b 3341 2d3d 7df8 093e 8e5d 0bbd
00000320: b12b c43d 8d94 913e 4b9c c2bd 5972 81bc
00000330: 9a5e 453d a194 a8bc 5ef9 bb3d 0c9a acbd
00000340: bfc8 11be d384 81bb 143f 02be eaa4 273b
00000350: 9f47 383d bd86 e33d 4ab1 3c3c 5426 713d
00000360: f4d6 fb3d ff0f 203e 35ea 383e afa2 d33c
00000370: e8d1 e13d eaf2 f4bd 43b8 fc3d dc11 f4bd
00000380: 3b83 c23d b68f d8bd 7dbf 09bd a39c d73c
00000390: f59f 0bbe 79bb a5bd 58ee da3d bd3b 9d3d
000003a0: 32a8 0fbe 7c9e 243e fc39 d2bc a4ea bc3d
000003b0: 8ac5 813e f027 5b3e e308 da3c ea52 253e
000003c0: 798d 36bd 3834 36be 2a4e b4bd eb97 88bc
000003d0: 07eb 073e bea2 e9bd 4871 103e 8252 adbd
000003e0: 0ac1 1e3e e0a1 eabd 007f 993d 1a18 6ebd
000003f0: f059 11bd b157 0ebe 3792 8dbd 9357 943d

conv2.conv3.0.bias f4 [16]
-0.012225255 -0.059669226 0.0023292322 0.047702827 0.0027620322 0.052378833 -0.031476006 0.06533899
0.019850021 -0.027999246 0.040168658 0.04097108 -0.035721026 -0.01515446 0.042997796 -0.07342202
00000000: 704c 48bc b867 74bd 08a6 183b 0a64 433d
00000010: 3603 353b 308b 563d fcec 00bd 73d0 853d
00000020: 839c a23c ad5e e5bc e487 243d 4bd1 273d
00000030: 3650 12bd 6a4a 78bc 751e 303d 495e 96bd

conv2.conv3.1.weight f4 [16]
1.0447351 0.85716265 1.035804 1.1782522 1.160222 0.95907766 1.0353712 0.9656616
0.9562645 0.991942 1.1452242 0.8187532 1.0280796 0.98664004 1.0504982 0.83190453
00000000: e1b9 853f 036f 5b3f 3a95 843f f8d0 963f
00000010: 2882 943f 1d86 753f 0b87 843f 9935 773f
00000020: c0cd 743f e9ef 7d3f b596 923f cf99 513f
00000030: 1d98 833f 7194 7c3f ba76 863f b2f7 543f

conv2.conv3.1.bias f4 [16]
0.015799914 0.025629073 0.017456077 -0.038750358 -0.025993692 0.06536171 -0.026483443 0.08522358
-0.037691474 -0.076551884 0.19119571 0.04700661 0.04427905 0.032223847 0.05253585 -0.069672085
00000000: d26e 813c 10f4 d13c 0c00 8f3c b2b8 1ebd
00000010: b9f0 d4bc 5cdc 853d cef3 d8bc b389 ae3d
00000020: 6062 1abd 3cc7 9cbd cfc8 433e 018a 403d
00000030: f35d 353d 27fd 033d d52f 573d 3db0 8ebd

conv2.conv3.1.running_mean f4 [16]
0.10380922 0.6204955 0.17453253 -1.2592249 -0.9847177 0.8484515 0.43274575 -1.3309767
-0.7484701 -0.90251666 -0.78066593 1.3361434 -0.36412486 -0.9552763 -1.0055736 0.8211282
00000000: ee99 d43d cbd8 1e3f a8b8 323e 482e a1bf
00000010: 7616 7cbf 1e34 593f da90 dd3e 725d aabf
00000020: bd9b 3fbf 550b 67bf b9d9 47bf bf06 ab3f
00000030: 936e babe fd8c 74bf a3b6 80bf 7535 523f

conv2.conv3.1.running_var f4 [16]
1.980602 2.208281 1.7145033 3.3396308 3.793488 2.5038602 2.4038074 1.624819
3.039416 2.5087647 3.9715526 3.943193 1.280638 2.241305 2.138455 3.7498412
00000000: 5e84 fd3f 7a54 0d40 d874 db3f 83bc 5540
00000010: 82c8 7240 3f3f 2040 fbd7 1940 12fa cf3f
00000020: cb85 4240 9a8f 2040 eb2d 7e40 465d 7c40
00000030: f2eb a33f 8b71 0f40 72dc 0840 66fd 6f40

conv3.conv1.0.weight f4 [32, 16, 3, 3]
-0.22372365 0.007806505 0.19098397 0.10538387 -0.11435295 -0.13418138 -0.0036844204 0.020589482
0.121968396 0.064879656 -0.024852341 -0.186856 0.06372212 -0.05347894 -0.06178927 0.013556544
-0.0013903817 -0.14822607 -0.049132973 -0.3126445 -0.10946512 -0.03255307 -0.05412241 0.054181773
-0.16374663 -0.23836419 0.05339499 -0.1989857 0.3065477 -0.18460831 0.0695573 0.15831918
-0.043019436 -0.13225056 0.26093778 -0.08900965 -0.17005542 -0.08648605 0.0863695 -0.03141765
-0.05059738 -0.026000228 -0.14045653 -0.039884154 0.023363829 -0.09286389 0.0009361362 -0.07005871
0.05061776 0.008021251 -0.22683235 -0.019562695 -0.12599732 0.15180627 -0.121707805 0.29491112
0.065231875 -0.03620751 -0.27110767 -0.08768875 0.1334026 0.15789606 -0.06051939 0.0957077
-0.09529234 -0.18549493 0.14023624 0.028803231 -0.04727388 -0.09566128 0.09878712 -0.10400958
0.1162613 0.15526184 -0.051591806 -0.012885186 0.10151563 -0.16347477 -0.09617088 0.1984642
0.0021560297 -0.023858227 0.13456169 0.09077401 0.093982585 0.13635975 -0.09425926 -0.045143735
-0.122531876 -0.068518095 0.02666338 0.037614137 0.13786082 -0.08488541 -0.026235165 -0.09671526
-0.010134525 -0.0766557 -0.060423926 -0.05998404 -0.050128847 -0.049963247 -0.04355062 -0.03804182
-0.17095117 -0.13764952 0.04477892 0.11788737 0.14037344 -0.058686227 -0.051451746 0.10368533
-0.06728046 0.20290166 0.08607361 -0.049754567 0.084477775 -0.02314588 0.04490692 -0.04376195
-0.144 -0.0045369305 -0.009028131 -0.033258405 -0.0616318 -0.06084899 0.059890404 0.3355648
-0.13914499 -0.09937407 -0.16798072 0.018187912 -0.0052215536 -0.06887886 0.04204513 0.03890583
0.03864895 -0.04740917 -0.019960642 0.13047257 0.011639948 -0.14064105 -0.056100994 -0.18841587
-0.016682653 0.1413567 0.08231909 0.072635144 0.041632537 0.22373597 0.01765842 0.11966741
0.20789304 -0.04355596 0.2365441 0.070603095 -0.20758623 -0.2302514 0.17924276 0.11462922
0.055218156 -0.15918033 0.004176254 -0.09470566 0.21935782 0.045067634 0.007929681 -0.07765242
-0.14505856 -0.20069864 0.0110108545 0.115342826 -0.06757698 0.025556913 -0.2537153 -0.00015364622
0.049269304 0.03695093 0.08008477 0.06217442 0.15285 -0.3000379 0.00082057656 -0.11052459
0.21988097 0.28853288 0.22029606 0.19297242 0.044878073 -0.03422595 -0.049820486 -0.14587323
0.13059857 0.045054305 -0.018258302 -0.06758501 0.0167083 0.20154363 -0.0416292 -0.13349317
0.014715698 -0.20265397 -0.14118296 -0.07400148 -0.021314885 -0.09135047 -0.029905094 -0.22779362
-0.122018166 -0.11530695 -0.19144908 -0.07409291 -0.14317484 0.10256025 0.15939683 -0.15754329
-0.1663419 -0.31206065 0.10166231 0.068443425 -0.078674376 -0.057050396 -0.04595393 -0.014336329
0.15767373 -0.104584575 0.024217105 -0.025925107 -0.11350867 -0.11006547 0.09033205 0.21925974
0.059171785 0.013547096 -0.28180233 -0.14236851 0.06526459 0.21078539 -0.057707995 0.17467423
-0.07309599 -0.12588294 0.12178588 -0.16939388 -0.25796 -0.024516487 -0.107169166 -0.023376884
0.003931843 -0.06930056 0.0033271513 0.14617075 0.0629068 -0.060465362 0.024195721 0.1450195
00000000: d017 65be b6cd ff3b 4d91 433e 80d3 d73d
00000010: e131 eabd d866 09be 5176 71bb 46ab a83c
00000020: 91ca f93d a0df 843d 2397 cbbc 2e57 3fbe
00000030: be80 823d bc0c 5bbd bf16 7dbd 441c 5e3c
00000040: 783d b6ba 93c8 17be a83f 49bd f112 a0be
00000050: 402f e0bd 5e56 05bd 76af 5dbd b5ed 5d3d
00000060: 32ad 27be be15 74be b4b4 5a3d e8c2 4bbe
00000070: d2f3 9c3e f609 3dbe 0f74 8e3d 6c1e 223e
00000080: 2635 30bd b16c 07be a399 853e b14a b6bd
00000090: 0223 2ebe 991f b1bd 7ee2 b03d cbaf 00bd
000000a0: 333f 4fbd 6efe d4bc d6d3 0fbe 915d 23bd
000000b0: 8065 bf3c 6c2f bebd 0967 753a f17a 8fbd
000000c0: 9154 4f3d 916b 033c bd46 68be f241 a0bc
000000d0: 7105 01be 1a73 1b3e f141 f9bd 97fe 963e
000000e0: 4a98 853d 534e 14bd a0ce 8abe 2996 b3bd
000000f0: b19a 083e 81af 213e 2ee3 77bd 6602 c43d
00000100: a128 c3bd 62f2 3dbe 179a 0f3e c1f4 eb3c
00000110: 42a2 41bd 10ea c3bd e750 ca3d fa02 d5bd
00000120: 681a ee3d f6fc 1e3e ee51 53bd 631c 53bc
00000130: 6de7 cf3d ee65 27be 3df5 c4bd 333a 4b3e
00000140: 2d4c 0d3b 5472 c3bc 8aca 093e b9e7 b93d
00000150: f179 c03d e4a1 0b3e 000b c1bd a3e8 38bd
00000160: fef1 fabd 3753 8cbd 296d da3c 4811 1a3d
00000170: 632b 0d3e 67d8 adbd 21eb d6bc a612 c6bd
00000180: 470b 26bc aafd 9cbd 147f 77bd d3b1 75bd
00000190: e853 4dbd 43a6 4cbd 2362 32bd bdd1 1bbd
000001a0: d30d 2fbe fff3 0cbe 1a6a 373d ef6e f13d
000001b0: 0ebe 0f3e f860 70bd 11bf 52bd f958 d43d
000001c0: 56ca 89bd 74c5 4f3e 5c47 b03d 72cb 4bbd
000001d0: af02 ad3d 6e9c bdbc 52f0 373d bb3f 33bd
000001e0: bc74 13be 88aa 94bb baea 13bc f739 08bd
000001f0: a071 7cbd ca3c 79bd a44f 753d 26cf ab3e
00000200: 067c 0ebe a284 cbbd 2303 2cbe d1fe 943c
00000210: 9119 abbb 5c10 8dbd 8437 2c3d b85b 1f3d
00000220: 5d4e 1e3d 1e30 42bd 8084 a3bc 9a9a 053e
00000230: 7bb5 3e3c 3504 10be 28ca 65bd 17f0 40be
00000240: 0faa 88bc d0bf 103e e996 a83d bcc1 943d
00000250: e186 2a3d 0b1b 653e 64a8 903c 3014 f53d
00000260: eae1 543e bc67 32bd 9e38 723e 5b98 903d
00000270: 7c91 54be 06c7 6bbe 6a8b 373e b9c2 ea3d
00000280: 6f2c 623d 2b00 23be f5d8 883b 0bf5 c1bd
00000290: 569f 603e d798 383d 7eeb 013c 3b08 9fbd
000002a0: 3b8a 14be f283 4dbe df66 343c dc38 ec3d
000002b0: cd65 8abd bb5c d13c f9e6 81be 181c 21b9
000002c0: 9cce 493d dc59 173d 7c03 a43d 9baa 7e3d
000002d0: b684 1c3e 919e 99be f61b 573a b75a e2bd
000002e0: 7a28 613e 95ba 933e 4a95 613e 909a 453e
000002f0: 12d2 373d 8230 0cbd 9110 4cbd cb5f 15be
00000300: a2bb 053e dd8a 383d 6f92 95bc 026a 8abd
00000310: d8df 883c 7461 4e3e 6183 2abd 6fb2 08be
00000320: 1c1a 713c 8684 4fbe 4492 10be 178e 97bd
00000330: 8e9c aebc f515 bbbd 87fb f4bc bb42 69be
00000340: a9e4 f9bd 0d26 ecbd 3a0b 44be 06be 97bd
00000350: 6d9c 12be 1c0b d23d ec38 233e 0753 21be
00000360: 8855 2abe 6ac6 9fbe 5434 d03d 112c 8c3d
00000370: 0820 a1bd adad 69bd 303a 3cbd ece2 6abc
00000380: 3975 213e 7030 d6bd f362 c63c e460 d4bc
00000390: 3c77 e8bd 016a e1bd 0300 b93d a085 603e
000003a0: 1d5e 723d a4f4 5d3c 6548 90be 0dc9 11be
000003b0: 71a9 853d 20d8 573e 385f 6cbd cddd 323e
000003c0: 5ab3 95bd 75e7 00be e06a f93d 9775 2dbe
000003d0: 5513 84be cdd6 c8bc 827b dbbd e180 bfbc
000003e0: b1d6 803b 74ed 8dbd 560c 5a3b c9ad 153e
000003f0: 48d5 803d 87aa 77bd 1b36 c63c fe7f 143e

conv3.conv1.0.bias f4 [32]
-0.076803885 0.022497263 0.0779552 0.005101663 0.081182055 -0.073390305 -0.043285746 -0.025306173
0.07122021 -0.07631547 -0.0151433265 -0.07461234 0.016024835 -0.072356015 -0.06842343 -0.05185213
-0.031998485 0.052902028 0.013474299 -0.07510355 0.07877899 -0.0016909287 0.024332855 -0.043020997
-0.039280906 -0.062396146 -0.06550892 -0.04256955 0.0459808 -0.031706277 -0.070699476 0.024414623
00000000: 5b4b 9dbd 2e4c b83c faa6 9f3d da2b a73b
00000010: c742 a63d a84d 96bd 654c 31bd e44e cfbc
00000020: e7db 913d 494b 9cbd b71b 78bc 5bce 98bd
00000030: 8446 833c 642f 94bd 9521 8cbd e662 54bd
00000040: d810 03bd ccaf 583d 4ec3 5c3c e4cf 99bd
00000050: e156 a13d 27a2 ddba b255 c73c c936 30bd
00000060: 04e5 20bd 1a93 7fbd 8a29 86bd 695d 2ebd
00000070: 5d56 3c3d 71de 01bd e3ca 90bd 2d01 c83c

conv3.conv1.1.weight f4 [32]
1.0056341 1.08105 1.050943 0.9470988 1.0419384 0.99206597 0.9145077 1.0054249
1.0638963 1.0757821 0.9905497 1.0172901 1.0308104 0.97485346 0.9993978 1.0130937
1.1165748 0.9481498 0.9671891 1.0331515 0.9989042 0.9530841 1.0009632 1.0324906
0.95537007 0.85643023 1.0206871 0.9891125 1.0148625 0.98836184 0.9618651 1.0118129
00000000: 9eb8 803f d95f 8a3f 4d85 863f 1175 723f
00000010: 3d5e 853f 09f8 7d3f 2d1d 6a3f c3b1 803f
00000020: c12d 883f 3ab3 893f aa94 7d3f 9036 823f
00000030: 98f1 833f ff8f 793f 89d8 7f3f 0ead 813f
00000040: eceb 8e3f f2b9 723f b499 773f 4f3e 843f
00000050: 30b8 7f3f 52fd 733f 901f 803f a728 843f
00000060: 2293 743f 033f 5b3f e0a5 823f 7a36 7d3f
00000070: 04e7 813f 4805 7d3f cb3c 763f 1683 813f

conv3.conv1.1.bias f4 [32]
0.023779782 0.008113736 0.09375747 -0.017188905 0.034683034 -0.046432015 -0.038084637 -0.03159643
-0.026506059 -0.10372348 0.023525197 -0.045953356 -0.008305864 0.05273104 -0.07632657 -0.03854722
0.016099112 -0.044038985 0.0034658615 -0.009986026 -0.04827017 -0.027575888 -0.048891038 0.02494576
-0.04500447 0.0026492204 -0.023452183 0.0026939646 0.021037554 -0.022070367 -0.004567119 -0.021379566
00000000: d1cd c23c 7aef 043c eb03 c03d bfcf 8cbc
00000010: cc0f 0e3d 7f2f 3ebd a3fe 1bbd 426b 01bd
00000020: 3c23 d9bc fa6c d4bd eab7 c03c 9639 3cbd
00000030: 5215 08bc 81fc 573d 1b51 9cbd b1e3 1dbd
00000040: 49e2 833c 3962 34bd 8223 633b 6e9c 23bc
00000050: f1b6 45bd d4e6 e1bc f841 48bd 0d5b cc3c
00000060: 9b56 38bd 8b9e 2d3b cb1e c0bc 3a8d 303b
00000070: f356 ac3c eacc b4bc c5a7 95bb 3324 afbc
