checkpoints/ifind1_sononet_8_6classes/009_net_6classes_new_emb001.pth (torch_old, 671819 bytes, 90 tensors)

conv1.conv1.0.weight f4 [8, 1, 3, 3]
-0.19158128 0.8203823 0.4276603 0.2277545 -0.4377598 0.56790227 -0.12476742 0.37006077
-0.63249075 0.53177434 0.5954576 -0.47066998 0.6125371 0.76770455 -0.7692542 -0.16069737
0.817114 0.29518154 0.7849862 -0.76637644 -0.19126117 -0.006872768 0.061129164 -0.014532901
-0.7789473 -0.10510964 1.2843235 0.5878011 0.6533144 1.054428 -0.66848475 -0.48557955
-0.019876812 -0.6031314 -0.7357493 0.0068067713 0.12423716 0.04632282 -1.1524855 -0.430313
-0.09126687 0.3805646 0.3948448 0.05328002 0.72636294 -0.17845914 0.2567133 0.5369486
-0.4416959 -0.49449366 0.05770705 -0.28072566 0.2080713 0.8289101 -0.5946931 0.5440278
0.12357902 0.09652896 -0.13653891 0.02443444 0.70609313 -0.36674353 -0.0004865617 -0.21900508
-0.3042523 0.7431686 0.021684915 -0.69649285 -0.53088176 0.022305837 -0.5789213 0.89206725
00000000: e22d 44be 9304 523f 4af6 da3e 7a38 693e
00000010: 0d22 e0be 0b62 113f 1086 ffbd 9b78 bd3e
00000020: eaea 21bf 5d22 083f e96f 183f a8fb f0be
00000030: 3bcf 1c3f 4988 443f d8ed 44bf da8d 24be
00000040: 622e 513f 0922 973e dbf4 483f 3f31 44bf
00000050: f8d9 43be f534 e1bb 9362 7a3d 681b 6ebc
00000060: 1769 47bf b943 d7bd b664 a43f 227a 163f
00000070: 9d3f 273f 7ff7 863f d121 2bbf e29d f8be
00000080: b2d4 a2bc d266 1abf 115a 3cbf 560b df3b
00000090: 0d70 fe3d ffbc 3d3d a584 93bf fc51 dcbe
000000a0: 20ea babd 5dd9 c23e 1929 ca3e 263c 5a3d
000000b0: ecf2 393f febd 36be ed6f 833e 7775 093f
000000c0: f725 e2be 462e fdbe 3a5e 6c3d 46bb 8fbe
000000d0: a510 553e 7433 543f cf3d 18bf 6845 0b3f
000000e0: ff16 fd3d fab0 c53d dbd0 0bbe bc2a c83c
000000f0: 85c2 343f cfc5 bbbe 3519 ffb9 de42 60be
00000100: f5c6 9bbe 4c40 3e3f 90a4 b13c 5b4d 32bf
00000110: dee7 07bf bbba b63c 3034 14bf 855e 643f

conv1.conv1.0.bias f4 [8]
0.32072115 -0.27504182 -0.3305875 -0.26073712 -0.22417462 0.13494812 0.119338185 0.27691323
00000000: 9035 a43e 48d2 8cbe c442 a9be 567f 85be
00000010: 088e 65be d72f 0a3e 9467 f43d 92c7 8d3e

conv1.conv1.1.weight f4 [8]
0.91447055 0.9281877 1.0064927 1.3085712 0.9929244 1.0328943 0.77219427 0.89154977
00000000: be1a 6a3f b69d 6d3f c1d4 803f 437f a73f
00000010: 4b30 7e3f e135 843f 86ae 453f 9b3c 643f

conv1.conv1.1.bias f4 [8]
0.35425937 -0.19950674 0.51371795 0.40608203 0.24310997 0.47447306 -0.030799283 -0.043039016
00000000: 7c61 b53e 7f4b 4cbe 0583 033f fce9 cf3e
00000010: d2f1 783e 22ee f23e c74e fcbc ae49 30bd

conv1.conv1.1.running_mean f4 [8]
0.32126048 -0.2747709 -0.32889858 -0.260016 -0.22408406 0.13593318 0.11993928 0.27840704
00000000: 417c a43e c5ae 8cbe 6565 a8be d120 85be
00000010: 4b76 65be 1132 0b3e baa2 f53d 5e8b 8e3e

conv1.conv1.1.running_var f4 [8]
1.1158804 4.8014784 0.14740478 0.69624573 0.21342902 0.3084762 0.16231711 0.49638036
00000000: 2bd5 8e3f b6a5 9940 47f1 163e 293d 323f
00000010: 238d 5a3e 98f0 9d3e 7536 263e 9125 fe3e

conv1.conv2.0.weight f4 [8, 8, 3, 3]
0.0055591236 0.35321963 0.009841397 -0.060292054 0.14607735 -0.077878125 0.00012429427 0.19570744
-0.14505684 -0.2766205 0.21714786 0.23834862 -0.15711434 0.12611656 0.1226142 -0.24020913
-0.24050951 -0.121105075 0.038222212 -0.36835536 -0.17099449 -0.4681902 -0.21270391 -0.049620356
-0.12085255 0.415812 0.31782737 0.085272044 -0.1606166 0.17784157 -0.03734705 -0.12852885
-0.07796173 0.17840134 0.2997447 -0.103796646 0.20416413 -0.009309027 0.039881546 -0.12186442
-0.03676375 -0.028583255 -0.2240778 0.14177495 0.21542296 0.30400535 0.072985955 -0.19380856
-0.34958023 -0.15172647 -0.094996184 0.5703299 0.084298775 0.29766142 -0.18342622 0.03691633
0.20817839 0.15433908 0.059321012 -0.13255708 0.0375241 0.017427515 -0.27753484 -0.28018734
-0.3270637 0.09111367 -0.10262369 -0.10412749 -0.15657523 -0.08526642 -0.25888544 -0.13590454
0.26937583 -0.0783251 0.18326181 0.089368865 0.12151319 0.3543573 0.26005083 0.41734242
0.11934315 0.0759278 0.2864681 0.32377124 -0.16340758 -0.023240244 -0.025943715 -0.12636812
-0.33539468 -0.15687633 -0.010296892 0.0022937888 0.4630081 0.054803226 0.15705508 0.4378619
0.15925238 0.057865158 -0.08915892 -0.39991227 -0.28689185 -0.006969773 0.06925746 -0.026172401
0.28509858 0.14879647 0.013992052 0.28033558 -0.13592982 -0.16338141 0.17142999 0.01999411
-0.16939713 -0.1407555 0.005576673 -0.028956376 -0.33248612 -0.095794275 0.54676014 0.5824699
-0.23141412 0.11524869 0.16529714 -0.012073144 0.15896519 -0.044424053 -0.11427993 0.24414597
0.1238161 -0.16849117 0.045625813 0.06053758 -0.09515892 -0.04307466 -0.007972834 -0.19187438
-0.1524185 -0.013871904 -0.06557214 0.22761865 -0.099204466 0.031773727 -0.066681884 0.13038461
-0.24502258 -0.023790954 -0.0006534881 0.020368738 0.19262683 -0.20378594 0.13116556 -0.06555685
-0.036237933 -0.30290502 -0.08267943 0.07315902 0.04763895 0.17797224 0.15975785 -0.14019294
0.04797908 0.31301075 0.07449602 0.33810732 0.10368265 -0.07143069 0.14521156 -0.37846908
-0.24077949 0.010584982 0.16039029 -0.098912716 -0.25405812 -0.02892758 -0.04627969 -0.014861743
-0.0010157727 -0.34561652 0.0062374505 0.005742904 0.13288526 0.2971554 0.13137645 0.1498196
-0.043020736 0.12239999 0.07620119 -0.0852783 0.24656326 0.019591464 -0.11934623 0.02089622
0.085407406 0.03646239 0.18653876 0.6448653 0.20486559 0.21934602 0.04638834 -0.19229548
0.06514392 0.055031665 -0.038950507 0.06692295 0.25308084 -0.07547883 0.04821997 -0.09969633
0.0120183 -0.0016211945 0.14501621 0.11074609 0.0041184253 -0.12029806 -0.05041122 0.13677645
-0.035319865 0.09012768 0.034072164 0.07682744 0.018640824 0.045209017 -0.06915303 0.20778683
0.0003049821 -0.031659756 -0.04571551 -4.9840975e-05 -0.042786088 -0.019624984 0.049633842 -0.015097894
-0.13670677 0.15401183 0.20544337 -0.093775004 -0.16276778 0.20266391 0.008280264 0.23549412
-0.04562167 -0.09389127 -0.030352311 0.07138361 -0.025081703 0.14174818 -0.105879344 0.10414434
0.15755999 -0.010773702 -0.15792418 -0.13059418 0.35639527 0.33687347 0.074554704 0.061770648
00000000: 4f29 b63b 34d9 b43e d03d 213c cdf4 76bd
00000010: 4d95 153e 917e 9fbd fd54 0239 8867 483e
00000020: c889 14be 34a1 8dbe 025c 5e3e a911 743e
00000030: 95e2 20be b324 013e 271d fb3d 62f9 75be
00000040: 2048 76be f005 f8bd e58e 1c3d 1399 bcbe
00000050: 2e19 2fbe a0b6 efbe 0ecf 59be b73e 4bbd
00000060: 8b81 f7bd 4fe5 d43e 45ba a23e 1ca3 ae3d
00000070: ae78 24be 1a1c 363e 38f9 18bd 119d 03be
00000080: 66aa 9fbd d7ae 363e 2378 993e 5693 d4bd
00000090: 6710 513e e484 18bc d55a 233d 0e94 f9bd
000000a0: 9695 16bd 6e27 eabc a774 65be 742d 113e
000000b0: d697 5c3e 97a6 9b3e a979 953d c075 46be
000000c0: 2efc b2be 2f5e 1bbe 5c8d c2bd 2401 123f
000000d0: d6a4 ac3d 1467 983e 15d4 3bbe 9435 173d
000000e0: b72c 553e 100b 1e3e 97fa 723d 0bbd 07be
000000f0: dfb2 193d 26c4 8e3c 0c19 8ebe b774 8fbe
00000100: e574 a7be ce99 ba3d 5f2c d2bd cb40 d5bd
00000110: 4255 20be 29a0 aebd a28c 84be 8f2a 0bbe
00000120: a1eb 893e e968 a0bd fca8 3b3e 0607 b73d
00000130: e8db f83d 526e b53e 6225 853e e8ad d53e
00000140: 2e6a f43d 0980 9b3d f2ab 923e 58c5 a53e
00000150: 5154 27be 5362 bebc ea87 d4bc a566 01be
00000160: dab8 abbe 30a4 20be 4cb4 28bc 6453 163b
00000170: 660f ed3e 5979 603d 0cd3 203e 6f2f e03e
00000180: 0e13 233e 0404 6d3d f498 b6bd 4dc1 ccbe
00000190: 7de3 92be b262 e4bb dbd6 8d3d 8167 d6bc
000001a0: 71f8 913e 1a5e 183e eb3e 653c 2588 8f3e
000001b0: 3031 0bbe 754d 27be 588b 2f3e b0ca a33c
000001c0: 7176 2dbe 3622 10be 86bc b63b ec35 edbc
000001d0: 9f3b aabe ca2f c4bd 79f8 0b3f bf1c 153f
000001e0: d3f7 6cbe 8107 ec3d a743 293e 70ce 45bc
000001f0: c5c7 223e fff5 35bd 990b eabd 6701 7a3e
00000200: 4c93 fd3d f388 2cbe 22e2 3a3d 41f6 773d
00000210: aee2 c2bd 0e6f 30bd 7da0 02bc b87a 44be
00000220: 9813 1cbe fc46 63bc b04a 86bd dd14 693e
00000230: b62b cbbd 2b25 023d 8390 88bd 8b83 053e
00000240: 33e7 7abe 3fe5 c2bc d84e 2bba 57dc a63c
00000250: f83f 453e 43ad 50be 4450 063e ab42 86bd
00000260: 3a6e 14bd 5e16 9bbe d553 a9bd 65d4 953d
00000270: 0f21 433d 5b3e 363e 9097 233e bd8e 0fbe
00000280: b685 443d f242 a03e 5f91 983d 671c ad3e
00000290: 9257 d43d 414a 92bd 57b2 143e b3c6 c1be
000002a0: e68e 76be a26c 2d3c 5a3d 243e c092 cabd
000002b0: e813 82be 88f9 ecbc c68f 3dbd ab7e 73bc
000002c0: ad23 85ba a6f4 b0be 8763 cc3b f82e bc3b
000002d0: 1313 083e c124 983e 8c87 063e 4f6a 193e
000002e0: 8336 30bd d9ac fa3d 5f0f 9c3d 64a6 aebd
000002f0: 147b 7c3e 477e a03c cc6b f4bd 8d2e ab3c
00000300: 14ea ae3d 9659 153d 0404 3f3e e415 253f
00000310: 49c8 513e 3e9c 603e b301 3e3d 1be9 44be
00000320: 2d6a 853d e268 613d 918a 1fbd e60e 893d
00000330: d093 813e a594 9abd 4e82 453d 972d ccbd
00000340: 67e8 443c 437e d4ba 217f 143e d9ce e23d
00000350: dbf3 863b d45e f6bd ff7b 4ebd 200f 0c3e
00000360: 90ab 10bd dc94 b83d 418f 0b3d b457 9d3d
00000370: a4b4 983c 172d 393d 1ba0 8dbd 12c6 543e
00000380: 01e6 9f39 a9ad 01bd 3040 3bbd 570c 51b8
00000390: 7740 2fbd 93c4 a0bc db4c 4b3d 285d 77bc
000003a0: dcfc 0bbe 47b5 1d3e bf5f 523e 1c0d c0bd
000003b0: 99ac 26be 2187 4f3e f2a9 073c 5f25 713e
000003c0: cadd 3abd 114a c0bd 69a5 f8bc 9231 923d
000003d0: 2578 cdbc 6f26 113e 45d7 d8bd a149 d53d
000003e0: 6857 213e 2e84 30bc e0b6 21be 7bba 05be
000003f0: 7179 b63e ae7a ac3e 23b0 983d 3803 7d3d

conv1.conv2.0.bias f4 [8]
-0.019406144 -0.06707336 -0.019052757 0.095561564 -0.08745867 0.026737273 -0.11579183 0.061767858
00000000: a2f9 9ebc c25d 89bd 8714 9cbc c8b5 c33d
00000010: 881d b3bd 2008 db3c 4424 edbd 4b00 7d3d

conv1.conv2.1.weight f4 [8]
1.0176692 0.83283436 0.860167 0.76911795 0.9954475 1.0757959 0.9761048 1.4179308
00000000: fc42 823f a234 553f e833 5c3f eae4 443f
00000010: a6d5 7e3f aeb3 893f 01e2 793f c27e b53f

conv1.conv2.1.bias f4 [8]
0.076193266 -0.09304146 -0.009488037 -0.04528912 0.28730732 -0.07134561 -0.107399404 0.54193664
00000000: 370b 9c3d 858c bebd b673 1bbc 1681 39bd
00000010: f219 933e a61d 92bd 38f4 dbbd 5cbc 0a3f

conv1.conv2.1.running_mean f4 [8]
-0.17699616 2.0328467 0.8719149 1.5733792 0.40019408 -1.9950066 -0.28348708 -0.3826167
00000000: 7b3e 35be 291a 0240 d135 5f3f 7d64 c93f
00000010: 3de6 cc3e 605c ffbf 3825 91be 56e6 c3be

conv1.conv2.1.running_var f4 [8]
1.1580077 9.549586 3.5397444 3.2159393 3.5085301 7.4539523 3.1593368 1.8475381
00000000: 9939 943f 1bcb 1841 2c8b 6240 f3d1 4d40
00000010: c28b 6040 c786 ee40 9332 4a40 217c ec3f

conv1.conv3.0.weight f4 [8, 8, 3, 3]
-0.10423728 -0.17132059 0.020101232 0.26345712 0.04868766 0.11133872 -0.18568353 0.07568482
0.07352632 -0.28694582 0.23316637 0.49590716 -0.17261611 -0.08549022 0.011620159 0.08076551
0.1419067 -0.15725334 -0.27813354 0.04708411 0.07064171 -0.21499799 0.0034737103 0.27328724
-0.27627894 0.16488382 -0.17506859 -0.5202779 0.032539375 0.1516746 -0.05977142 -0.11393915
0.2288956 0.08814737 0.0012641228 0.06305033 -0.09205206 0.2613515 0.5229739 0.21401511
0.32018736 0.22827712 -0.07441059 -0.07592188 0.2030224 -0.17594488 0.008590565 -0.34128922
0.08031915 0.08800502 0.19791073 0.106214166 -0.25391504 0.014625967 -0.17354105 0.034513734
0.19427304 -0.17783046 -0.065994985 0.2703756 -0.09362596 -0.17053276 -0.20691624 0.018984877
-0.061814133 -0.09958569 0.105848424 0.0860395 -0.2664461 0.16402705 -0.1320676 0.002548134
-0.16989006 -0.21252282 0.059924636 0.14904094 0.14778434 0.2771702 0.013439991 0.25916892
-0.016659327 0.32566115 -0.04252694 0.016358037 -0.061474938 0.00950069 0.15712371 0.1889773
0.07568203 0.24091189 0.19112991 -0.031824764 0.20921028 -0.31191903 -0.06953547 0.032087673
0.098552614 -0.18293358 0.0063470695 0.13087659 0.11656026 -0.029181147 -0.072438404 0.28017813
-0.28610307 0.15601034 -0.13892707 -0.09015859 0.27801934 0.43003127 0.093442366 -0.039445575
-0.19031511 0.1083587 -0.056917503 0.06309388 0.25059116 -0.2157413 0.010692852 0.059567142
-0.032518126 0.10575804 0.22662143 -0.02309797 -0.20885365 -0.10982537 0.07321509 -0.059868228
-0.15464155 -0.11669762 -0.058466222 -0.013363935 -0.14363709 -0.15094396 0.04247025 0.022480637
-0.065480866 -0.29438087 -0.2342248 -0.25808862 0.21229179 -0.13068403 0.009367827 -0.1028743
-0.04796617 -0.2232537 0.17879416 0.0024399352 -0.12704232 -0.095888674 0.05099781 0.23847657
-0.06491197 -0.1658771 0.056785427 -0.09962731 -0.101012416 0.2530463 0.26976794 -0.33802685
0.2672011 -0.030795248 0.09260643 -0.27363902 -0.0024606816 -0.20897579 -0.19236702 0.22009411
-0.2538761 0.08694977 -0.17137085 0.033646476 0.11469163 -0.1760633 -0.17500064 -0.04167269
-0.021860767 -0.07114502 0.00070402503 -0.11459176 0.110397175 0.04176769 -0.1686753 -0.107903086
-0.16508277 -0.4453492 0.048814178 0.13273485 -0.10210292 0.2453446 -0.30460167 0.10358395
-0.015343344 -0.11235581 0.48218215 0.016219813 0.018275682 0.06759343 -0.18459095 0.0036299448
0.10016165 -0.47047237 -0.11801229 0.031479526 -0.0938268 -0.13291912 -0.48002645 -0.2062069
-0.660318 0.0029812015 -0.07667311 0.31178495 0.30598405 0.110002965 0.06135999 0.5622211
-0.13181093 -0.05857223 0.13388623 0.30604023 -0.13974714 -0.13808866 0.2797732 -0.11287004
0.28662208 0.0925746 -0.09401103 -0.04592481 -0.31150752 0.2817984 -0.23096354 0.2803808
0.06028586 -0.16821389 0.28980458 -0.060688898 -0.07006948 0.31975758 0.17521249 0.24348836
0.1907223 0.20257747 0.13890581 0.057506762 0.0781748 -0.21973348 0.22589377 -0.095481604
0.106795184 0.45496354 0.22056687 0.026075518 0.063238084 0.10223238 -0.06516043 0.041950103
00000000: 5b7a d5bd aa6e 2fbe 57ab a43c dae3 863e
00000010: b66c 473d 8e05 e43d d323 3ebe a500 9b3d
00000020: f894 963d 90ea 92be 2ac3 6e3e 8be7 fd3e
00000030: 47c2 30be 7f15 afbd 7b62 3e3c 6368 a53d
00000040: fd4f 113e 0507 21be 8567 8ebe 45db 403d
00000050: 9aac 903d 6f28 5cbe 30a7 633b 4eec 8b3e
00000060: 6f74 8dbe 4ed7 283e 2e45 33be ef30 05bf
00000070: 0248 053d 9650 1b3e e0d2 74bd ee58 e9bd
00000080: 9c63 6a3e 9c86 b43d ecb0 a53a 8820 813d
00000090: ca85 bcbd ddcf 853e 9ee1 053f c726 5b3e
000000a0: 99ef a33e 7ac1 693e 9464 98bd ee7c 9bbd
000000b0: 1be5 4f3e e52a 34be 71bf 0c3c 76bd aebe
000000c0: 5e7e a43d fa3b b43d 1ca9 4a3e d086 d93d
000000d0: 2701 82be c0a1 6f3c bfb4 31be 465e 0d3d
000000e0: 83ef 463e 3019 36be 6128 87bd ac6e 8a3e
000000f0: f8be bfbd 24a0 2ebe dae1 53be 2c86 9b3c
00000100: d130 7dbd 95f3 cbbd 0fc7 d83d 7a35 b03d
00000110: a06b 88be b5f6 273e bb3c 07be 98fe 263b
00000120: a9f7 2dbe 959f 59be 8973 753d 309e 183e
00000130: c754 173e 41e9 8d3e 6833 5c3c cab1 843e
00000140: 2479 88bc 0fbd a63e bb30 2ebd 4a01 863c
00000150: 25cd 7bbd c8a8 1b3c 0ae5 203e 4483 413e
00000160: 2eff 9a3d 9bb1 763e 8fb7 433e af5a 02bd
00000170: 383b 563e dab3 9fbe 9d68 8ebd 5d6e 033d
00000180: f4d5 c93d f152 3bbe 14fb cf3b 8304 063e
00000190: 25b7 ee3d 4d0d efbc 965a 94bd 8273 8f3e
000001a0: 1a7c 92be 2dc1 1f3e e642 0ebe 11a5 b8bd
000001b0: 8d58 8e3e 0f2d dc3e b65e bf3d af91 21bd
000001c0: f7e1 42be 2beb dd3d 5422 69bd 5d37 813d
000001d0: 7c4d 803e 4aeb 5cbe 1231 2f3c adfc 733d
000001e0: ba31 05bd ac97 d83d 730f 683e f437 bdbc
000001f0: bbdd 55be 20ec e0bd cbf1 953d 6338 75bd
00000200: 5b5a 1ebe 29ff eebd 477a 6fbd 68f4 5abc
00000210: 9a15 13be 0e91 1abe 49f5 2d3d 5029 b83c
00000220: d51a 86bd 17b9 96be a0d8 6fbe 3124 84be
00000230: 0563 593e 09d2 05be 847b 193c c3af d2bd
00000240: 2d78 44bd 9e9c 64be d115 373e 52e7 1f3b
00000250: 6217 02be 4861 c4bd 14e3 503d 3433 743e
00000260: 91f0 84bd b0db 29be d697 683d 6709 ccbd
00000270: 99df cebd 498f 813e 061f 8a3e db11 adbe
00000280: 95ce 883e 5146 fcbc 71a8 bd3d 6a1a 8cbe
00000290: 6343 21bb c0fd 55be dcfb 44be 5a60 613e
000002a0: 0cfc 81be b912 b23d d77b 2fbe e3d0 093d
000002b0: 72e3 ea3d f049 34be 5e33 33be fcb0 2abd
000002c0: 5a15 b3bc 7bb4 91bd 528e 383a 16af eabd
000002d0: ea17 e23d 9914 2b3d 38b9 2cbe 4bfc dcbd
000002e0: 750b 29be cf04 e4be 60f1 473d a5eb 073e
000002f0: 561b d1bd 9d3b 7b3e c0f4 9bbe d223 d43d
00000300: a662 7bbc ce1a e6bd 94e0 f63e 6adf 843c
00000310: e2b6 953c 6d6e 8a3d 6905 3dbe 5ee4 6d3b
00000320: 8d21 cd3d c1e1 f0be 6db0 f1bd adf0 003d
00000330: 4428 c0bd f31b 08be 07c6 f5be e727 53be
00000340: 9a0a 29bf 4360 433b cb06 9dbd 47a2 9f3e
00000350: f1a9 9c3e 3c49 e13d 9d54 7b3d b9ed 0f3f
00000360: 72f9 06be 6fe9 6fbd 7919 093e 4eb1 9c3e
00000370: e019 0fbe 1d67 0dbe 6f3e 8f3e 6828 e7bd
00000380: 21c0 923e c097 bd3d db88 c0bd a71b 3cbd
00000390: ea7d 9fbe e147 903e b581 6cbe 128e 8f3e
000003a0: 4eee 763d 4340 2cbe 4461 943e ec94 78bd
000003b0: 9680 8fbd 44b7 a33e e76a 333e 0355 793e
000003c0: b54c 433e 7870 4f3e 533d 0e3e 368c 6b3d
000003d0: 1c1a a03d d001 61be b250 673e dc8b c3bd
000003e0: 6fb7 da3d fbf0 e83e 48dc 613e 539c d53c
000003f0: f882 813d 365f d13d d572 85bd dfd3 2b3d

conv1.conv3.0.bias f4 [8]
-0.06187423 -0.0042724265 0.021995159 -0.031294636 0.08030719 0.012848781 -0.108867325 -0.012764309
00000000: d56f 7dbd b6ff 8bbb 312f b43c ce2e 00bd
00000010: 1978 a43d b283 523c d5f5 debd 6421 51bc

conv1.conv3.1.weight f4 [8]
1.0503501 0.7680151 1.1593757 0.873833 1.3587508 1.0990924 0.80993956 1.0535944
00000000: df71 863f a39c 443f 6c66 943f 85b3 5f3f
00000010: 8ceb ad3f 0faf 8c3f 3358 4f3f 2edc 863f

conv1.conv3.1.bias f4 [8]
0.009314243 -0.09001157 0.23065995 0.04343337 -0.06097246 0.2894266 -0.08215502 0.09047405
00000000: c49a 183c fc57 b8bd 1f32 6c3e 30e7 313d
00000010: 42be 79bd b92f 943e e440 a8bd 754a b93d

conv1.conv3.1.running_mean f4 [8]
0.23264857 -0.04019795 -0.5301748 0.91531456 -0.20092744 -1.2742742 -0.99622047 -0.038109064
00000000: 6d3b 6e3e 9ba6 24bd 89b9 07bf 0e52 6a3f
00000010: ecbf 4dbe 6b1b a3bf 4e08 7fbf 4018 1cbd

conv1.conv3.1.running_var f4 [8]
1.7694645 2.7501965 2.3640478 5.0603266 3.6167479 2.627194 1.7529576 2.187467
00000000: d07d e23f 3803 3040 8f4c 1740 32ee a140
00000010: cc78 6740 f223 2840 ea60 e03f 76ff 0b40

conv2.conv1.0.weight f4 [16, 8, 3, 3]
-0.0016680853 -0.21642238 -0.011465179 -0.19517599 -0.25193554 -0.15326221 0.07686937 0.035643883
0.11838796 -0.102147385 0.016223567 -0.32232955 0.028171862 -0.06691044 0.19196989 -0.28681782
0.016227206 -0.29563263 0.088783994 0.1615198 -0.08131705 -0.31488544 0.30317262 -0.2012933
0.07350092 0.1680443 0.096907906 0.2061498 0.06034287 -0.25810146 0.06010666 -0.0706899
-0.0051901625 0.0046024467 -0.06669632 0.10791568 0.046589535 0.17122354 0.2638706 -0.010025493
0.32353237 0.10326478 -0.020280235 -0.029922368 -0.02974397 0.0009928163 -0.15091245 -0.16585863
0.028676366 -0.33885276 0.0034554368 -0.14715573 -0.040419087 -0.45419732 -0.12928858 -0.25522816
-0.051286466 0.27326563 -0.0030230484 0.20847155 -0.0055226358 -0.025479108 0.25206757 -0.29933804
-0.22364761 -0.02795752 -0.269198 0.09607508 0.21969613 0.15600903 0.15331624 -0.007780535
-0.007960119 0.26224804 -0.0063905017 0.39509502 0.073182195 -0.12082865 -0.018708313 0.011843989
-0.02798969 0.15886839 -0.12637194 -0.05614461 0.1972642 -0.5298589 -0.18039 0.43416286
-0.042625733 0.06804568 -0.2625547 0.13337688 0.1051785 -0.052181385 0.15557009 -0.18613398
-0.25468037 -0.08175274 -0.031513683 -0.013928093 0.009422451 -0.1351647 -0.23613179 -0.03247795
-0.38113418 0.13044648 -0.033734255 -0.15794589 -0.39637405 -0.064291485 -0.12224822 0.10750137
0.037565485 0.14730053 0.19837825 -0.020687636 0.21665184 -0.09402117 0.26154765 -0.20024842
-0.23172589 -0.19234769 -0.13828452 -0.15502557 -0.1792922 0.19122377 -0.21121235 0.071945585
0.13920428 -0.14227267 -0.09225462 0.26302123 -0.20464423 0.17780198 -0.28666654 -0.38781437
-0.12816866 0.15449926 -0.16662084 -0.0012963989 -0.027141372 -0.11689904 0.001966647 0.032208033
-0.030946176 -0.3777033 0.064212896 0.16002615 -0.008741206 0.09366097 -0.1397891 0.25274852
0.10489723 -0.1990708 0.09041878 0.21278062 0.30597332 0.038678095 0.052700363 -0.07615514
-0.13244776 0.0711807 0.030764848 0.18411213 -0.046522103 -0.25254044 0.3796028 -0.17130655
-0.17239434 0.13666317 -0.11424604 -0.14268792 -0.38790882 -0.069674484 0.027973816 0.1012032
0.1298097 -0.015585524 -0.10859288 0.38335767 0.22375415 0.15212387 0.060580984 0.3200216
0.07649359 -0.12601963 -0.09583471 -0.3439369 -0.03429388 0.0035695022 -0.199096 0.060531717
-0.101557724 0.12257974 0.2146027 0.1565709 0.35484383 0.033815343 -0.1138248 -0.16667432
-0.27184188 -0.11082587 0.0015900541 0.048439816 0.01651703 -0.025644595 0.024140727 0.24649507
0.15860943 -0.510555 0.12535974 -0.014095349 0.15818779 -0.016215654 -0.07088301 0.49160826
0.24441649 0.050268732 0.095305115 -0.116819814 -0.026844626 0.09973457 -0.28740007 0.012996227
0.22245537 -0.07597568 0.045195796 -0.1731824 -0.1594276 0.02180898 0.10585172 -0.38737553
-0.08185538 -0.05391082 -0.046206065 0.1595865 0.20028594 0.37395024 0.2788028 -0.059121862
-0.16244893 0.015538224 -0.25660613 -0.23739167 -0.02238498 0.22501934 -0.23537965 -0.18303739
-0.26708415 0.27835047 0.0707374 0.01404459 0.044652693 -0.07424909 -0.3310643 -0.018469667
00000000: a8a3 daba d49d 5dbe 72d8 3bbc 37dc 47be
00000010: b2fd 80be c5f0 1cbe b06d 9d3d 52ff 113d
00000020: 6375 f23d a632 d1bd 49e7 843c 6108 a5be
00000030: adc8 e63c 5708 89bd c193 443e c9d9 92be
00000040: ebee 843c 295d 97be 62d4 b53d 7265 253e
00000050: 8e89 a6bd aa38 a1be 7139 9b3e d51f 4ebe
00000060: a687 963d ce13 2c3e a777 c63d ef18 533e
00000070: 162a 773d e025 84be 6732 763d dec5 90bd
00000080: 3d12 aabb 1fd0 963b 1598 88bd e502 dd3d
00000090: abd4 3e3d 3955 2f3e 0c1a 873e f741 24bc
000000a0: 09a6 a53e 7c7c d33d bc22 a6bc c11f f5bc
000000b0: a0a9 f3bc 6321 823a cb88 1abe d8d6 29be
000000c0: b3ea ea3c 1c7e adbe 9c74 623b feaf 16be
000000d0: 7c8e 25bd 8d8c e8be 3a64 04be 44ad 82be
000000e0: c211 52bd 79e9 8b3e 561e 46bb 9179 553e
000000f0: 3af7 b4bb 90b9 d0bc 000f 813e d642 99be
00000100: e103 65be 2b07 e5bc 52d4 89be 03c3 c43d
00000110: 06f8 603e d5c0 1f3e effe 1c3e dcf3 febb
00000120: 296b 02bc 6045 863e 6a67 d1bb e549 ca3e
00000130: 8ce0 953d 0375 f7bd 2d42 99bc 4a0d 423c
00000140: a24a e5bc 65ae 223e a567 01be e4f7 65bd
00000150: a0ff 493e d5a4 07bf 28b8 38be 984a de3e
00000160: 5298 2ebd 895b 8b3d 926d 86be f393 083e
00000170: d367 d73d 26bc 55bd c44d 1f3e e899 3ebe
00000180: 7765 82be fb6d a7bd 7e14 01bd a832 64bc
00000190: a060 1a3c 9d68 0abe 88cc 71be 9907 05bd
000001a0: 0524 c3be c393 053e ee2c 0abd 91bc 21be
000001b0: 8af1 cabe 41ab 83bd 465d fabd ae29 dc3d
000001c0: 44de 193d f3d5 163e ab23 4b3e 1e79 a9bc
000001d0: fbd9 5d3e 2c8e c0bd 93e9 853e ec0d 4dbe
000001e0: 8d49 6dbe cbf6 44be 759a 0dbe 06bf 1ebe
000001f0: 6098 37be 2ad0 433e 0d48 58be 3558 933d
00000200: 918b 0e3e edaf 11be fdef bcbd b8aa 863e
00000210: 428e 51be b911 363e f5c5 92be 9b8f c6be
00000220: a53e 03be 0e35 1e3e a79e 2abe eeeb a9ba
00000230: 9557 debc c468 efbd dde2 003b 92ec 033d
00000240: d682 fdbc 5462 c1be 0d82 833d e5dd 233e
00000250: 4637 0fbc 53d1 bf3d e024 0fbe 4168 813e
00000260: 5cd4 d63d 37d9 4bbe 7b2d b93d 2ae3 593e
00000270: 89a8 9c3e ec6c 1e3d 56dc 573d 3af7 9bbd
00000280: 63a0 07be 30c7 913d 9006 fc3c e487 3c3e
00000290: f68d 3ebd fb4c 81be 4c5b c23e fc6a 2fbe
000002a0: 2488 30be 6ef1 0b3e d4f9 e9bd c81c 12be
000002b0: fc9b c6be 7fb1 8ebd 5829 e53c a043 cf3d
000002c0: d6ec 043e 6d5a 7fbc f265 debd 7547 c43e
000002d0: cf1f 653e 5cc6 1b3e c423 783d dfd9 a33e
000002e0: aca8 9c3d 4a0b 01be fd44 c4bd 7f18 b0be
000002f0: bd77 0cbd 4fee 693b d2df 4bbe 1bf0 773d
00000300: 7ffd cfbd 160b fb3d cfc0 5b3e 1f54 203e
00000310: 17ae b53e f581 0a3d fa1c e9bd acac 2abe
00000320: dc2e 8bbe acf8 e2bd 5d69 d03a d468 463d
00000330: b94e 873c 9d14 d2bc c6c2 c53c 3469 7c3e
00000340: 836a 223e bcb3 02bf 4e5e 003e 2ef0 66bc
00000350: fbfb 213e b1d6 84bc 1d2b 91bd 14b4 fb3e
00000360: 5148 7a3e 96e6 4d3d 542f c33d 3a3f efbd
00000370: 43e9 dbbc a341 cc3d 1a26 93be 20ee 543c
00000380: 57cb 633e 2399 9bbd 3a1f 393d ba56 31be
00000390: fd40 23be bfa8 b23c c9c8 d83d 1656 c6be
000003a0: cba3 a7bd 98d1 5cbd 9242 3dbd a56a 233e
000003b0: c217 4d3e 6876 bf3e 3ebf 8e3e c429 72bd
000003c0: 0359 26be 0994 7e3c e161 83be cd16 73be
000003d0: b560 b7bc 786b 663e 5d07 71be 276e 3bbe
000003e0: 41bf 88be f483 8e3e c5de 903d 481b 663c
000003f0: bee5 363d e80f 98bd 4381 a9be b34d 97bc

conv2.conv1.0.bias f4 [16]
-0.017103383 -0.09647846 0.027648067 0.035178743 -0.09323012 -0.1056962 0.012358774 0.11505295
-0.10538716 -0.057730634 -0.04063179 -0.10407345 -0.07254643 0.09248306 0.09011365 -0.08668036
00000000: 651c 8cbc 8096 c5bd 337e e23c 9617 103d
00000010: 6fef bebd 4077 d8bd 757c 4a3c e2a0 eb3d
00000020: 39d5 d7bd f576 6cbd 856d 26bd 7624 d5bd
00000030: 3993 94bd c267 bd3d 818d b83d 7985 b1bd

conv2.conv1.1.weight f4 [16]
1.0598067 0.9380879 0.8334075 1.0077555 1.1141698 1.1962389 0.9162328 1.0012532
1.0453992 0.9331221 1.0421957 0.9932915 1.0571436 0.97018504 0.99709326 1.0600146
00000000: bfa7 873f 8726 703f 325a 553f 22fe 803f
00000010: 1e9d 8e3f 5b1e 993f 3c8e 6a3f 1129 803f
00000020: a4cf 853f 17e1 6e3f ab66 853f 5a48 7e3f
00000030: 7b50 873f 0c5e 783f 8141 7f3f 8fae 873f

conv2.conv1.1.bias f4 [16]
0.08072266 -0.060294047 -0.08500403 0.047718745 -0.03961229 -0.12167157 0.05244429 0.009893938
-0.06242917 0.0011628636 -0.014586197 0.07031143 0.06908515 -0.116070986 0.050639305 -0.07122109
00000000: ec51 a53d e4f6 76bd 9816 aebd bb74 433d
00000010: 7f40 22bd f22e f9bd d3cf 563d 2f1a 223c
00000020: bbb5 7fbd 3a6b 983a f2fa 6ebc 70ff 8f3d
00000030: 847c 8d3d a0b6 edbd 296b 4f3d 5ddc 91bd

conv2.conv1.1.running_mean f4 [16]
-0.8492029 -1.5739422 0.8804793 -0.07826344 -1.2805848 -3.879116 -0.7266093 1.1519539
-1.6387274 0.627639 -2.3438525 -0.8121946 -0.4547328 1.5078571 -0.9736838 -2.4826672
00000000: 5c65 59bf f076 c9bf 1767 613f 9548 a0bd
00000010: 34ea a3bf 7043 78c0 1103 3abf 3a73 933f
00000020: d2c1 d1bf f3ac 203f ae01 16c0 fceb 4fbf
00000030: bdd2 e8be 7601 c13f 5743 79bf 05e4 1ec0

conv2.conv1.1.running_var f4 [16]
4.782329 1.7666755 1.3200427 3.7082791 2.71087 3.808832 2.3408074 2.2099657
4.9094315 1.797381 2.8978145 4.637487 2.5397341 2.97484 3.149419 3.0488536
00000000: d708 9940 6c22 e23f 29f7 a83f 7254 6d40
00000010: e57e 2d40 e7c3 7340 cacf 1540 1470 0d40
00000020: 101a 9d40 9510 e63f cb75 3940 4b66 9440
00000030: 018b 2240 c763 3e40 1590 4940 6b20 4340

conv2.conv2.0.weight f4 [16, 16, 3, 3]
-0.09380571 -0.04030531 0.08561017 -0.10972477 -0.20934536 0.079165235 -0.26201135 0.010926833
-0.09492761 0.013426952 0.04988495 0.034795146 0.13913867 0.14855994 0.06559498 -0.0506329
-0.16705962 -0.1126935 -0.10392531 -0.18588135 0.05719013 -0.049897723 0.13323985 0.02313085
-0.2179463 -0.008963064 -0.0769802 0.08649292 -0.20727277 -0.23817381 -0.0071379975 0.20721777
0.024413709 -0.03350256 -0.08898334 -0.15708835 -0.067338325 -0.06986439 0.09680461 0.015556895
0.0075893966 -0.08752916 -0.093332335 -0.058773212 -0.23721199 -0.10077999 -0.22126472 -0.02296164
0.04723057 0.23595868 0.13311954 -0.10936483 0.16251586 0.057762682 -0.104916684 0.09007684
-0.058976434 -0.01821421 0.00067771354 -0.04761611 0.1191008 -0.08940757 -0.10766442 -0.32118133
0.18510628 0.10616508 0.08204195 -0.14662378 -0.16080798 0.1048437 -0.11865916 -0.033352826
-0.022450302 0.035505425 0.09816584 -0.27915648 -0.1852833 0.10264676 0.016764168 -0.06258067
0.12740584 0.2006245 0.057038873 0.099473335 -0.099569805 -0.2418811 -0.34235892 0.050785214
-0.0012772523 -0.0133287255 0.055105362 -0.029884532 -0.06316536 0.047002304 -0.035002407 0.078734845
-0.17704736 -0.013086122 -0.0027210584 0.061007377 0.02871585 -0.08260424 0.025554366 -0.111391045
-0.19333392 0.07764567 0.037859693 -0.00018498568 0.0414123 0.14029725 -0.027708428 -0.15609258
-0.15943006 -0.06770708 0.19810739 0.04347656 0.08381037 -0.15026623 0.056988627 -0.07498213
0.050378617 0.14288731 -0.12794662 0.29395038 -0.053985562 -0.081097715 0.020919686 0.108611435
-0.18138562 0.034049634 0.010119487 -0.17735656 0.11345284 -0.050177794 -0.073702864 -0.09259261
-0.12608534 -0.08332748 -0.07311135 0.0039374786 0.04254673 0.08180962 -0.07293053 0.049057327
0.00012856642 -0.051106866 -0.1480265 0.20311372 -0.05466643 -0.1165385 0.16368102 0.04291519
0.024741052 -0.012733676 0.074981995 0.1591323 0.0712216 0.029300598 -0.01668126 -0.18581404
-0.03086793 -0.09352838 -0.02768638 0.0753838 0.054559644 0.08345526 0.24949524 0.16341552
-0.33888832 0.02436569 -0.011191133 0.0009398777 0.11079451 -0.020560388 0.12129958 0.24744748
-0.025243793 0.0359094 -0.12520416 0.13939227 -0.07433073 -0.25063378 -0.016422762 -0.048608005
-0.12892024 0.0884757 -0.18802883 0.024814395 0.16257577 -0.0022585115 0.17435013 -0.03152217
-0.043658372 0.11753228 -0.032837547 0.023953997 -0.29300168 0.12637345 -0.22488827 0.28034726
0.16711536 -0.21703283 -0.024218066 -0.050917774 -0.019576723 -0.028754631 -0.105994776 0.07675435
-0.22431506 -0.14291842 -0.42042345 -0.060164295 0.028268006 0.092230156 0.18028986 0.010437813
-0.13557172 -0.16408315 0.0026242908 0.110338576 -0.13299172 0.11589326 -0.06831935 0.0008346042
-0.16593324 -0.001256012 -0.008604812 0.012904962 0.3899648 0.20498718 0.13151574 0.15221332
0.21696703 -0.19584446 0.012683732 0.024798598 -0.013503343 0.05290332 0.0129122455 0.1529494
-0.1625945 -0.070312075 0.121940285 0.034254912 0.08638531 0.096049614 -0.15055788 -0.19940144
0.021242613 -0.14159065 0.05886783 0.09392198 -0.017589185 -0.14050533 0.18255116 -0.028877448
00000000: 351d c0bd 2e17 25bd 6354 af3d 61b7 e0bd
00000010: a15e 56be 6221 a23d 5a26 86be 7606 333c
00000020: 6869 c2bd b8fc 5b3c 2954 4c3d 5b85 0e3d
00000030: 5e7a 0e3e 1920 183e a956 863d 7264 4fbd
00000040: ad11 2bbe dacb e6bd cbd6 d4bd ae57 3ebe
00000050: 3340 6a3d 8e61 4cbd 0770 083e e97c bd3c
00000060: 512d 5fbe d1d9 12bc cca7 9dbd 3323 b13d
00000070: 503f 54be d6e3 73be dde5 e9bb e530 543e
00000080: 42ff c73c fb39 09bd e63c b6bd c5db 20be
00000090: ade8 89bd 1015 8fbd 7f41 c63d 59e2 7e3c
000000a0: 79b0 f83b 7d42 b3bd 0625 bfbd 2ebc 70bd
000000b0: b3e7 72be bd65 cebd 3893 62be 0d1a bcbc
000000c0: d874 413d 279f 713e 7d50 083e abfa dfbd
000000d0: 8f6a 263e 9098 6c3d 8fde d6bd 357a b83d
000000e0: 4691 71bd f835 95bc 96a8 313a 1c09 43bd
000000f0: 1feb f33d 511b b7bd 2a7f dcbd e171 a4be
00000100: 808c 3d3e 146d d93d 9c05 a83d 8b24 16be
00000110: d9aa 24be 4bb8 d63d 9303 f3bd f99c 08bd
00000120: b2e9 b7bc 236e 113d 2c0b c93d 99ed 8ebe
00000130: e8ba 3dbe 7738 d23d 0255 893c 4b2a 80bd
00000140: ad76 023e 8270 4d3e 98a1 693d adb8 cb3d
00000150: 41eb cbbd aeaf 77be ab49 afbe 2804 503d
00000160: 7a69 a7ba ba60 5abc 29b6 613d 68d0 f4bc
00000170: d75c 81bd 7d85 403d af5e 0fbd bc3f a13d
00000180: e74b 35be 2d67 56bc c953 32bb dfe2 793d
00000190: 813d eb3c 692c a9bd 6457 d13c fd20 e4bd
000001a0: 54f9 45be b104 9f3d c412 1b3d b7f8 41b9
000001b0: f29f 293d 15aa 0f3e c9fc e2bc bcd6 1fbe
000001c0: a241 23be 02aa 8abd aadc 4a3e 7a14 323d
000001d0: c5a4 ab3d 64df 19be e86c 693d 3b90 99bd
000001e0: cf59 4e3d 0d51 123e 7004 03be aa80 963e
000001f0: f71f 5dbd 8f16 a6bd c35f ab3c ac6f de3d
00000200: 27bd 39be a177 0b3d 34cc 253c f59c 35be
00000210: f659 e83d 3b87 4dbd 87f1 96bd 32a1 bdbd
00000220: 841c 01be 99a7 aabd 67bb 95bd f705 813b
00000230: 7b45 2e3d cd8b a73d 9a5c 95bd 56f0 483d
00000240: c9cf 0639 6f55 51bd 4294 17be 0bfd 4f3e
00000250: e8e9 5fbd bdab eebd ff9b 273e d7c7 2f3d
00000260: bfad ca3c e8a0 50bc 2990 993d 94f3 223e
00000270: a1dc 913d cf07 f03c 23a7 88bc 0946 3ebe
00000280: bede fcbc cf8b bfbd 8cce e2bc d262 9a3d
00000290: ef79 5f3d 97ea aa3d ae7b 7f3e 6656 273e
000002a0: c582 adbe 8e9a c73c 045b 37bc 2062 763a
000002b0: 3be8 e23d 426e a8bc ea6b f83d df62 7d3e
000002c0: 12cc cebc bc15 133d 8535 00be d9bc 0e3e
000002d0: b63a 98bd 1253 80be 0789 86bc 3019 47bd
000002e0: ab03 04be bf32 b53d a18a 40be 8f47 cb3c
000002f0: 437a 263e 8903 14bb d788 323e 641d 01bd
00000300: 1fd3 32bd c4b4 f03d aa80 06bd 2c3b c43c
00000310: 5104 96be 0b68 013e 1c49 66be ad89 8f3e
00000320: 4a20 2b3e db3d 5ebe f764 c6bc 288f 50bd
00000330: 5d5f a0bc d58e ebbc ca13 d9bd 6231 9d3d
00000340: d9b2 65be 3559 12be be41 d7be d66e 76bd
00000350: 4e92 e73c 2ae3 bc3d e89d 383e 5c03 2b3c
00000360: 50d3 0abe 6a05 28be 4bfc 2b3b 31f9 e13d
00000370: fb2e 08be 7259 ed3d 04eb 8bbd 57c9 5a3a
00000380: 67ea 29be c5a0 a4ba 33fb 0cbc 556f 533c
00000390: 77a9 c73e 29e8 513e 10ac 063e cfdd 1b3e
000003a0: 9b2c 5e3e 738b 48be 6ecf 4f3c 6e26 cb3c
000003b0: 203d 5dbc 27b1 583d e28d 533c c49e 1c3e
000003c0: 2c7f 26be c7ff 8fbd d4bb f93d e14e 0c3d
000003d0: c8ea b03d a9b5 c43d d82b 1abe e42f 4cbe
000003e0: fd04 ae3c 24fd 10be 651f 713d 2b5a c03d
000003f0: 3217 90bc a1e0 0fbe b1ee 3a3e 6690 ecbc

conv2.conv2.0.bias f4 [16]
-0.022166213 0.04567996 -0.04922484 -0.022017911 0.07636169 0.044373315 -0.064627774 -0.02289697
0.0081820795 0.03009898 -0.038328853 0.058338024 0.0013033053 -0.07203297 0.022324426 -0.08087619
00000000: eb95 b5bc e91a 3b3d fc9f 49bd e85e b4bc
00000010: 8563 9c3d cbc0 353d 915b 84bd 6d92 bbbc
00000020: 210e 063c 2392 f63c b7fe 1cbd daf3 6e3d
00000030: abd3 aa3a 0686 93bd b7e1 b63c 6aa2 a5bd

conv2.conv2.1.weight f4 [16]
1.0656359 1.0011723 1.014416 0.9479915 0.971979 1.0684084 0.93548054 0.84311265
0.9012114 1.0268672 0.9639737 0.8855588 1.1401141 1.0758684 1.0943494 1.0390714
00000000: c266 883f 6a26 803f 62d8 813f 92af 723f
00000010: 9ed3 783f 9bc1 883f a77b 6f3f 3bd6 573f
00000020: cab5 663f 6270 833f fbc6 763f fbb3 623f
00000030: 42ef 913f 0eb6 893f a413 8c3f 4b00 853f

conv2.conv2.1.bias f4 [16]
0.07892209 -0.001228809 0.03281424 -0.056785084 -0.017992271 0.11672528 -0.05340123 -0.17050157
0.050330773 0.030837342 -0.016631283 -0.07640791 0.08949211 -0.10399449 0.1296253 0.021692498
00000000: e8a1 a13d fd0f a1ba 3968 063d 7a97 68bd
00000010: 8764 93bc aa0d ef3d 40bb 5abd f797 2ebe
00000020: a427 4e3d 989e fc3c 543e 88bc c07b 9cbd
00000030: a447 b73d 10fb d4bd 7fbc 043e 77b4 b13c

conv2.conv2.1.running_mean f4 [16]
-1.1812617 0.30934176 0.16249692 -0.1512226 1.0032146 -1.0646455 0.28378373 -2.21976
-0.14889823 0.13923857 0.6892173 0.4009433 -0.36733416 -0.16679806 -0.98022836 -0.8008252
00000000: 9533 97bf 0b62 9e3e 9865 263e 19da 1abe
00000010: 5669 803f 4e46 88bf 1a4c 913e 8c10 0ec0
00000020: c778 18be 8e94 0e3e 8c70 303f 7148 cd3e
00000030: 3913 bcbe 1ccd 2abe 3ff0 7abf e102 4dbf

conv2.conv2.1.running_var f4 [16]
0.9024769 1.4677933 1.4434918 1.4948087 2.1843128 1.5285106 1.6811501 1.6191049
2.5640996 1.0127841 3.733332 1.506078 1.9205346 1.0522417 2.493145 3.0422034
00000000: ba08 673f a7e0 bb3f 57c4 b83f e455 bf3f
00000010: c8cb 0b40 3ca6 c33f ed2f d73f d43e cf3f
00000020: 351a 2440 e9a2 813f e9ee 6e40 2ac7 c03f
00000030: 14d4 f53f dbaf 863f b08f 1f40 76b3 4240

conv2.conv3.0.weight f4 [16, 16, 3, 3]
-0.2773258 0.033424683 -0.22187668 0.13186918 0.12550436 0.054090116 0.124420315 -0.17780074
-0.07163213 0.05707844 -0.03596513 -0.04576295 -0.05479957 0.004632118 -0.02555294 0.13317794
0.0073626535 -0.11717743 -0.087745726 -0.18991384 -0.030873904 -0.004113951 -0.041473296 -0.2433835
0.01909604 -0.16442823 0.09940788 -0.03880696 -0.011290465 0.10167035 -0.15938073 0.0034963137
0.017945578 0.10320969 -0.096271 0.14537734 -0.010959675 -0.05875015 -0.1747023 -0.015253117
0.1587265 -0.08785493 -0.14132382 0.0681014 -0.09449607 0.13631603 0.072931275 -0.033802252
0.11514736 0.20740639 0.15738387 0.33838695 0.20538369 -0.35863143 0.15870416 -0.09452817
0.15017381 0.20701613 0.019259006 0.100548476 -0.03153015 0.04940833 -0.115536384 0.001680503
0.017588906 0.0875545 -0.02077374 -0.054330453 -0.22204518 0.13670294 -0.016150143 0.058766104
-0.2626134 -0.082351744 0.0035780456 0.088346176 -0.06536416 -0.14836624 0.23298477 -0.11992852
-0.18649322 0.023523688 -0.08922459 -0.20610668 -0.16513886 0.053150643 -0.05147539 -0.09832469
-0.0036736948 0.027663797 0.060994964 -0.085002765 -0.08680626 -0.0024356805 0.04483558 0.0036401849
0.07147071 -0.02257107 0.02270827 -0.1842155 0.023408901 -0.15711617 0.04317951 0.11242797
-0.061149433 -0.0536676 -0.010277911 -0.059958942 -0.063630246 0.060203224 0.07561802 -0.13345978
0.077807695 0.10792795 0.17988805 -0.17377888 0.102922365 -0.08985442 0.11532948 -0.14219481
-0.09238239 0.0077907997 -0.032102566 0.09895761 -0.16643953 0.0039818557 0.21615462 0.13027056
-0.087047875 0.2582518 0.21567395 -0.06129035 0.12407658 0.029842405 -0.098328784 0.19113551
-0.18577924 -0.09160995 0.08545012 -0.028199157 0.10869635 0.02775255 -0.023724651 0.11399233
0.0050749434 0.038972322 -0.097064234 0.20430651 -0.12582313 -0.13222794 0.22224624 -0.03200021
0.025432097 -0.12621526 0.18559606 0.12685561 0.15488407 -0.13278714 -0.029581496 -0.14240016
-0.036416348 0.16082801 -0.062254652 0.036300153 0.052132197 -0.1526143 -0.077026136 -0.051103543
-0.031598732 0.015077682 -0.15209123 -0.012312168 0.014112833 -0.18933195 0.20636101 0.1571524
0.040182266 -0.18377903 0.22522566 0.040502887 0.107358776 0.041201953 0.1349039 0.067866534
0.14208579 -0.077191606 0.18379553 0.15543698 0.11026378 -0.058863427 -0.015855944 -0.04371189
0.13892178 -0.013413152 -0.01860745 -0.0148560805 -0.00013050018 0.042189635 0.13585353 -0.033647075
0.095330715 0.2895385 -0.09081433 -0.014478063 0.055216085 -0.009913682 0.10234341 -0.08491968
-0.14497967 -0.0052870046 -0.13013333 -0.0003793909 0.04013098 0.108156554 0.009098575 0.055167243
0.12579587 0.15882763 0.18295924 0.028911693 0.10898475 -0.122588865 0.12086869 -0.124260634
0.08941568 -0.10593263 -0.033304006 0.019316778 -0.13345355 -0.08284899 0.0999547 0.087439835
-0.13231051 0.15965506 -0.029121265 0.08653279 0.24193195 0.21446602 0.025868276 0.15732886
-0.033482652 -0.16960225 -0.08751691 -0.01976324 0.1315455 -0.11793026 0.13124962 -0.09269447
0.14858761 -0.118209675 0.07324053 -0.056613818 -0.030321624 -0.13960594 -0.07414644 0.0853038
00000000: a6fd 8dbe 52e8 083d a433 63be b708 073e
00000010: 3784 003e 998d 5d3d 14d0 fe3d 6611 36be
00000020: deb3 92bd 15cb 693d 2c50 13bd ee71 3bbd
00000030: 8475 60bd 06c9 973b 6654 d1bc cc5f 083e
00000040: 6a42 f13b b8fa efbd 08b4 b3bd c678 42be
00000050: 45eb fcbc 53ce 86bb e7df 29bd 8639 79be
00000060: 4c6f 9c3c e05f 28be 5c96 cb3d 0cf4 1ebd
00000070: a4fb 38bc 8b38 d03d b434 23be 6922 653b
00000080: 9b02 933c 9a5f d33d bb29 c5bd ccdd 143e
00000090: 3590 33bc ffa3 70bd 29e5 32be 36e8 79bc
000000a0: 3389 223e 49ed b3bd 31b7 10be bf78 8b3d
000000b0: 2887 c1bd 6e96 0b3e fe5c 953d 3b74 0abd
000000c0: 61d2 eb3d 5762 543e 3d29 213e 0e41 ad3e
000000d0: 1a50 523e 8a9e b7be 5883 223e fc97 c1bd
000000e0: 2ac7 193e 09fc 533e 10c5 9d3c 5cec cd3d
000000f0: c225 01bd 6460 4a3d 579e ecbd 5344 dc3a
00000100: 9c16 903c c64f b33d b12d aabc 9c89 5ebd
00000110: d05f 63be dbfb 0b3e 4e4d 84bc bab4 703d
00000120: 4375 86be 08a8 a8bd a57d 6a3b d7ee b43d
00000130: a5dd 85bd 52ed 17be 8f93 6e3e 159d f5bd
00000140: 14f8 3ebe c0b4 c03c 62bb b6bd a10d 53be
00000150: 291a 29be 7db4 593d dcd7 52bd 745e c9bd
00000160: 5fc2 70bb 309f e23c dbd5 793d ee15 aebd
00000170: 7bc7 b1bd f09f 1fbb 83a5 373d 2b90 6e3b
00000180: 3c5f 923d f7e6 b8bc b206 ba3c fda2 3cbe
00000190: 06c4 bf3c 10e3 20be ffdc 303d a340 e63d
000001a0: d477 7abd 8fd2 5bbd af64 28bc 8297 75bd
000001b0: 9350 82bd a897 763d 9fdd 9a3d aea9 08be
000001c0: a459 9f3d 5409 dd3d 9334 383e 17f3 31be
000001d0: f6c8 d23d 9805 b8bd dd31 ec3d 849b 11be
000001e0: fa32 bdbd f749 ff3b fb7d 03bd 4aaa ca3d
000001f0: 206f 2abe 3a7a 823b a357 5d3e a565 053e
00000200: 2846 b2bd 9439 843e a2d9 5c3e 970b 7bbd
00000210: dd1b fe3d 0f78 f43c 9a60 c9bd 07b9 433e
00000220: ea3c 3ebe ff9d bbbd 7900 af3d eb01 e7bc
00000230: 319c de3d 5159 e33c 335a c2bc d074 e93d
00000240: b64b a63b 71a1 1f3d 9dc9 c6bd ba35 513e
00000250: c7d7 00be c366 07be 8594 633e a712 03bd
00000260: f956 d03c 933e 01be e50c 3e3e 70e6 013e
00000270: ee99 1e3e 5af9 07be e554 f2bc 59d1 11be
00000280: 4f29 15bd 19b0 243e bcfe 7ebd 78af 143d
00000290: 9288 553d ec46 1cbe e1bf 9dbd f351 51bd
000002a0: ac6d 01bd 6208 773c cebd 1bbe fab8 49bc
000002b0: 8339 673c 3ce0 41be 4d50 533e 8fec 203e
000002c0: 2996 243d 9230 3cbe 8ea1 663e 5be6 253d
000002d0: ebde db3d 61c3 283d 3f24 0a3e 9cfd 8a3d
000002e0: f07e 113e a216 9ebd e534 3c3e df2a 1f3e
000002f0: fad1 e13d c71a 71bd 53e4 81bc 3d0b 33bd
00000300: 8341 0e3e d6c2 5bbc a76e 98bc eb66 73bc
00000310: e0d6 08b9 0acf 2c3d 301d 0b3e 84d1 09bd
00000320: c03c c33d 643e 943e ddfc b9bd 6635 6dbc
00000330: 432a 623d ff6c 22bc 6c99 d13d 5fea adbd
00000340: 8d75 14be 9c3e adbb ac41 05be fce8 c6b9
00000350: 6260 243d 2f81 dd3d 3112 153c 0cf7 613d
00000360: a2d0 003e b6a3 223e ab59 3b3e 37d8 ec3c
00000370: 6633 df3d df0f fbbd 018a f73d 5c7c febd
00000380: 911f b73d 35f3 d8bd c869 08bd 383e 9e3c
00000390: 0ca8 08be bbac a9bd 0db5 cc3d a813 b33d
000003a0: 687c 07be 9e7c 233e b88f eebc 1a38 b13d
000003b0: 02bd 773e fb9c 5b3e b5e9 d33c d11a 213e
000003c0: 1b25 09bd 36ac 2dbe 113c b3bd 85e6 a1bc
000003d0: ddb3 063e 6c85 f1bd 4d66 063e 99d6 bdbd
000003e0: 5a27 183e ea17 f2bd 22ff 953d e4e3 67bd
000003f0: 0e65 f8bc dcf4 0ebe 17da 97bd c2b3 ae3d

conv2.conv3.0.bias f4 [16]
-0.012225254 -0.059668913 0.0023290953 0.04770326 0.0027616709 0.0523784 -0.03147583 0.065338746
0.019850004 -0.02799902 0.040168516 0.0409705 -0.035720848 -0.015154543 0.04299737 -0.07342165
00000000: 6f4c 48bc 6467 74bd bca3 183b 7e64 433d
00000010: 26fd 343b bc8a 563d cdec 00bd 52d0 853d
00000020: 7a9c a23c 335e e5bc be87 243d afd0 273d
00000030: 0650 12bd c34a 78bc 031e 303d 175e 96bd

conv2.conv3.1.weight f4 [16]
1.0284799 0.8385162 1.0377184 1.1849045 1.1761003 0.9675168 1.0303417 0.96796733
0.9525277 0.9986115 1.1480472 0.83294386 1.0234504 0.9865978 1.0460311 0.82186496
00000000: 3ba5 833f ffa8 563f f5d3 843f f3aa 973f
00000010: 748a 963f 2eaf 773f 3de2 833f b5cc 773f
00000020: dbd8 733f 01a5 7f3f 36f3 923f cf3b 553f
00000030: 6c00 833f ac91 7c3f 59e4 853f be65 523f

conv2.conv3.1.bias f4 [16]
-0.0026942426 0.02144693 0.023052454 -0.028509235 -0.03186651 0.058185823 -0.01678301 0.080537334
-0.0332435 -0.07441446 0.17293271 0.051543243 0.043886736 0.03384088 0.07151665 -0.072647996
00000000: e491 30bb 79b1 af3c 80d8 bc3c 338c e9bc
00000010: 7586 02bd 4254 6e3d 867c 89bc c2f0 a43d
00000020: 562a 08bd 9c66 98bd 4615 313e 021f 533d
00000030: 94c2 333d bc9c 0a3d 5277 923d 79c8 94bd

conv2.conv3.1.running_mean f4 [16]
-0.0065595815 0.63053155 0.10708346 -1.1888044 -0.7957995 0.8971791 0.2834111 -1.0124356
-0.77395797 -0.8009875 -0.564039 1.3743979 -0.4036674 -1.0059373 -0.9987428 0.7997991
00000000: c2f1 d6bb 846a 213f 934e db3d be2a 98bf
00000010: 84b9 4bbf 88ad 653f 421b 913e 7d97 81bf
00000020: 1c22 46bf 840d 4dbf dc64 10bf 45ec af3f
00000030: 7ead cebe 8ec2 80bf 9cad 7fbf a2bf 4c3f

conv2.conv3.1.running_var f4 [16]
2.1374073 2.219766 1.6764461 3.4380548 3.5906851 2.524587 2.5474057 1.8189288
3.349703 2.3090482 3.6635015 4.138517 1.2762792 2.4757314 2.514793 3.4443433
00000000: 48cb 0840 a510 0e40 c995 d63f 1709 5c40
00000010: c9cd 6540 d592 2140 b208 2340 a9d2 e83f
00000020: 8961 5640 72c7 1340 cf76 6a40 bb6e 8440
00000030: 1e5d a33f 6272 1e40 5ef2 2040 1f70 5c40

conv3.conv1.0.weight f4 [32, 16, 3, 3]
-0.21990176 0.014449797 0.20029315 0.10997817 -0.107735746 -0.12590343 -0.0036494725 0.021266367
0.1229641 0.06595093 -0.027912116 -0.19411421 0.06405586 -0.0511192 -0.062478755 0.017309476
0.0045145084 -0.14725949 -0.04669694 -0.3134832 -0.10588603 -0.02283001 -0.050419778 0.056470368
-0.15894444 -0.2362119 0.05534698 -0.19191135 0.30556595 -0.18598185 0.07795764 0.16606079
-0.043432165 -0.12992634 0.26723877 -0.086834654 -0.16569304 -0.08358407 0.08752902 -0.035024058
-0.055666413 -0.029598398 -0.13739233 -0.040571276 0.018684983 -0.08746749 0.0071681133 -0.063992396
0.055257924 0.014583757 -0.22095726 -0.020246137 -0.12352036 0.15430392 -0.11750279 0.29873145
0.06782978 -0.03188864 -0.2641887 -0.08147123 0.1335665 0.16048764 -0.0570283 0.09300601
-0.099875845 -0.18835807 0.13775586 0.021487813 -0.053894334 -0.090492696 0.10106484 -0.103621274
0.1195341 0.15809835 -0.04788442 -0.013283851 0.09990211 -0.16519806 -0.09764488 0.19661546
0.0011931723 -0.025086617 0.12692423 0.07835101 0.09705652 0.13854975 -0.102198154 -0.049778834
-0.12571658 -0.07151259 0.032291144 0.046689153 0.1476979 -0.08040837 -0.021124799 -0.0901419
-0.013872191 -0.081100054 -0.060557503 -0.059563264 -0.05402129 -0.053317647 -0.041368354 -0.038632397
-0.17178579 -0.13395631 0.046943527 0.11949616 0.14778967 -0.057474777 -0.052036863 0.10682864
-0.068024985 0.19436485 0.08694819 -0.046409998 0.092799574 -0.016838238 0.045911487 -0.041426655
-0.1436794 -0.005503913 -0.009417414 -0.033537965 -0.06148599 -0.06135099 0.056877643 0.33040974
-0.14459147 -0.104422234 -0.1785293 0.010821972 -0.00392873 -0.071532406 0.041017096 0.03477876
0.03243842 -0.051343113 -0.017129099 0.12954578 0.0083534885 -0.1376555 -0.0532092 -0.18551685
-0.015611138 0.14015579 0.076246925 0.07694413 0.042784598 0.21936001 0.019601895 0.11817337
0.2018938 -0.044527244 0.23541488 0.06909106 -0.21175805 -0.23272778 0.17622581 0.11433615
0.059232894 -0.15703091 -0.0007748196 -0.09872508 0.21467036 0.043970652 0.0036898397 -0.08119132
-0.14466015 -0.20254807 0.0090378905 0.11502395 -0.07039736 0.026432889 -0.25307065 -0.0011696499
0.04866594 0.033860203 0.07858063 0.0602379 0.14905934 -0.30346507 0.00021764883 -0.1115814
0.21650659 0.28542265 0.22116388 0.19486226 0.0440245 -0.03714295 -0.053021505 -0.15162572
0.13424568 0.04723797 -0.018694896 -0.06558694 0.017715828 0.19806443 -0.042583022 -0.1340902
0.01436157 -0.19946241 -0.13717182 -0.07146131 -0.014280607 -0.08536266 -0.026888506 -0.22968854
-0.12255436 -0.11415628 -0.19264393 -0.0756744 -0.14315808 0.103369236 0.16149059 -0.14973009
-0.16638564 -0.3145278 0.09914623 0.06863691 -0.08048842 -0.060125418 -0.045343835 -0.017022708
0.15477704 -0.09357938 0.037014045 -0.0113262255 -0.10765208 -0.105711855 0.09711967 0.22139032
0.061160117 0.015409486 -0.27361372 -0.13800755 0.06524139 0.21929161 -0.052826982 0.1745294
-0.06830515 -0.1293079 0.11361783 -0.1750479 -0.26247954 -0.027852431 -0.11301187 -0.026601762
0.0033224053 -0.06944488 0.0071464404 0.14857316 0.062272977 -0.05669673 0.033157166 0.13885048
00000000: ed2d 61be d7be 6c3c a619 4d3e 3c3c e13d
00000010: 8fa4 dcbd d4ec 00be fd2b 6fbb ce36 ae3c
00000020: 9ad4 fb3d 4811 873d f3a7 e4bc e0c5 46be
00000030: b82f 833d 5e62 51bd b9e9 7fbd 9acc 8d3c
00000040: 71ee 933b 31cb 16be 4a45 3fbd df80 a0be
00000050: c6da d8bd 0006 bbbc f884 4ebd 794d 673d
00000060: 55c2 22be 88e1 71be 84b3 623d 6984 44be
00000070: 2473 9c3e 0772 3ebe 41a8 9f3d d70b 2a3e
00000080: ede5 31bd 690b 05be 85d3 883e 5ed6 b1bd
00000090: 70ab 29be 202e abbd 6a42 b33d 6375 0fbd
000000a0: 7702 64bd 5778 f2bc 93b0 0cbe 112e 26bd
000000b0: 4011 993c 2822 b3bd 7ee2 ea3b 720e 83bd
000000c0: 2256 623d b6f0 6e3c 9f42 62be 3adb a5bc
000000d0: 3ef8 fcbd d901 1e3e 4ea5 f0bd 54f3 983e
000000e0: 57ea 8a3d aa9d 02bd be43 87be 63da a6bd
000000f0: a8c5 083e df56 243e 8296 69bd ef79 be3d
00000100: b58b ccbd f0e0 40be df0f 0d3e 3607 b03c
00000110: 4ec0 5cbd 3c54 b9bd 15fb ce3d 6437 d4bd
00000120: 4bce f43d 89e4 213e 7422 44bd 82a4 59bc
00000130: 7a99 cc3d ae29 29be 0afa c7bd 9055 493e
00000140: 3864 9c3a 7382 cdbc 6df8 013e 7f76 a03d
00000150: 92c5 c63d fcdf 0d3e 444d d1bd e4e4 4bbd
00000160: d9bb 00be 3175 92bd b843 043d 203d 3f3d
00000170: 1e3e 173e 25ad a4bd ea0d adbc 519c b8bd
00000180: 3048 63bc c917 a6bd 250b 78bd 9cf8 73bd
00000190: 6e45 5dbd 9b63 5abd dd71 29bd 013d 1ebd
000001a0: 9de8 2fbe d82b 09be db47 403d 67ba f43d
000001b0: 2d56 173e ac6a 6bbd 9b24 55bd f9c8 da3d
000001c0: af50 8bbd 9407 473e e511 b23d 6918 3ebd
000001d0: b40d be3d 58f0 89bc af0d 3c3d ffae 29bd
000001e0: b120 13be 2b5a b4bb 7f4b 1abc 1b5f 09bd
000001f0: bcd8 7bbd 2d4b 7bbd 88f8 683d 772b a93e
00000200: c90f 14be 53db d5bd 63d0 36be a44e 313c
00000210: 93bc 80bb 957f 92bd 8b01 283d 2c74 0e3d
00000220: 26de 043d 284d 52bd 5352 8cbc a6a7 043e
00000230: 12dd 083c 90f5 0cbe e4f1 59bd 21f8 3dbe
00000240: dcc5 7fbc 0085 0f3e 5927 9c3d e294 9d3d
00000250: e73e 2f3d e99f 603e 2794 a03c e104 f23d
00000260: 40bd 4e3e 3362 36bd 9910 713e 9d7f 8d3d
00000270: 1ad7 58be 3150 6ebe 8a74 343e 1229 ea3d
00000280: 319e 723d b6cc 20be 431d 4bba 6030 cabd
00000290: 8cd2 5b3e 921a 343d 3dd1 713b a347 a6bd
000002a0: ca21 14be c368 4fbe a913 143c ad91 eb3d
000002b0: 7e2c 90bd c989 d83c 7a92 81be f04e 99ba
000002c0: f055 473d ffb0 0a3d e2ee a03d 04bc 763d
000002d0: 03a3 183e c65f 9bbe aa38 6439 ca84 e4bd
000002e0: e7b3 5d3e eb22 923e c978 623e f989 473e
000002f0: 0953 343d 3523 18bd 142d 59bd c643 1bbe
00000300: b377 093e 9a7c 413d 0a26 99bc 7252 86bd
00000310: c920 913c 67d1 4a3e 896b 2ebd f14e 09be
00000320: ca4c 6b3c e03f 4cbe c576 0cbe 4f5a 92bd
00000330: 35f9 69bc 9ed2 aebd 4945 dcbc 7933 6bbe
00000340: c8fd fabd c5ca e9bd 7344 45be 2efb 9abd
00000350: 0898 12be 40b3 d33d ca5d 253e d852 19be
00000360: ff60 2abe ca09 a1be 2e0d cb3d 8291 8c3d
00000370: 1dd7 a4bd 1246 76bd 75ba 39bd 3573 8bbc
00000380: df7d 1e3e 8ca6 bfbd 0a9c 173d a291 39bc
00000390: b278 dcbd 757f d8bd ade6 c63d 25b4 623e
000003a0: 0883 7a3d 1278 7c3c 1917 8cbe da51 0dbe
000003b0: 479d 853d fb8d 603e 1b61 58bd d6b7 323e
000003c0: 92e3 8bbd 4a69 04be 77b0 e83d c23f 33be
000003d0: b863 86be c82a e4bc c472 e7bd f0eb d9bc
000003e0: b6bc 593b 1e39 8ebd b02c ea3b 9023 183e
000003f0: f311 7f3d d53a 68bd cfcf 073d d22e 0e3e

conv3.conv1.0.bias f4 [32]
-0.076803535 0.022497173 0.07795484 0.0051016505 0.0811817 -0.07338993 -0.043285564 -0.025306083
0.07121987 -0.07631511 -0.01514321 -0.074611984 0.016024753 -0.07235566 -0.06842308 -0.051851906
-0.03199831 0.05290185 0.0134742325 -0.0751032 0.07877864 -0.001690917 0.024332782 -0.04302082
-0.03928073 -0.062395774 -0.06550857 -0.042569373 0.04598062 -0.0317061 -0.0706991 0.024414545
00000000: 2c4b 9dbd fe4b b83c caa6 9f3d bf2b a73b
00000010: 9742 a63d 764d 96bd 344c 31bd b44e cfbc
00000020: b9db 913d 194b 9cbd 3a1b 78bc 2bce 98bd
00000030: 5846 833c 342f 94bd 6621 8cbd aa62 54bd
00000040: a910 03bd 9caf 583d 07c3 5c3c b5cf 99bd
00000050: b256 a13d c2a1 ddba 8b55 c73c 9936 30bd
00000060: d5e4 20bd b692 7fbd 5b29 86bd 395d 2ebd
00000070: 2d56 3c3d 41de 01bd b1ca 90bd 0301 c83c

conv3.conv1.1.weight f4 [32]
1.0097222 1.0712521 1.0395082 0.9356813 1.0467883 1.0069587 0.9159464 1.005741
1.0698692 1.0843008 0.984268 1.0210173 1.0230639 0.9748034 0.99590987 1.0273273
1.1087743 0.9428966 0.987242 1.030936 1.0032438 0.94621235 1.0097063 1.0309567
0.9568272 0.85594165 1.0178704 0.9778127 1.0262252 0.99121165 0.96757066 0.9896408
00000000: 943e 813f ca1e 893f 9b0e 853f cf88 6f3f
00000010: 29fd 853f 06e4 803f 777b 6a3f 1fbc 803f
00000020: 79f1 883f 5eca 8a3f fdf8 7b3f b2b0 823f
00000030: c2f3 823f b78c 793f f3f3 7e3f 767f 833f
00000040: 51ec 8d3f ac61 713f e4bb 7c3f b6f5 833f
00000050: 4b6a 803f f93a 723f 0e3e 813f 64f6 833f
00000060: a1f2 743f fe1e 5b3f 9449 823f ef51 7a3f
00000070: 595b 833f 0cc0 7d3f b6b2 773f 1959 7d3f

conv3.conv1.1.bias f4 [32]
0.027586158 0.0052820654 0.084324256 -0.016208896 0.03986323 -0.03974267 -0.03511692 -0.031957697
-0.023091666 -0.088651314 0.023906227 -0.036353774 -0.010064302 0.048285652 -0.06925619 -0.042008422
0.007285791 -0.047443405 0.0065488485 -0.01331319 -0.040434066 -0.023286067 -0.038552735 0.02533756
-0.040482078 -0.00023006496 -0.023396213 -0.004802263 0.02500206 -0.018028852 -0.011523387 -0.038225252
00000000: 5efc e13c 2d15 ad3b 32b2 ac3d 85c8 84bc
00000010: a047 233d 36c9 22bd c2d6 0fbd 13e6 02bd
00000020: bc2a bdbc d28e b5bd fed6 c33c b2e7 14bd
00000030: bee4 24bc 2dc7 453d 30d6 8dbd 0611 2cbd
00000040: a5bd ee3b 0454 42bd b997 d63b 911f 5abc
00000050: 319e 25bd 6cc2 bebc 79e9 1dbd b790 cf3c
00000060: 89d0 25bd 983d 71b9 6aa9 bfbc 4d5c 9dbb
00000070: 1fd1 cc3c 3eb1 93bc 97cc 3cbc 1592 1cbd
