checkpoints/ifind1_sononet_8_6classes/010_net_6classes_new_noaug_emb001.pth (torch_old, 671819 bytes, 90 tensors)

conv1.conv1.0.weight f4 [8, 1, 3, 3]
0	0xbe569523	-0.20955329
1	0x3f4f0fb0	0.8088331
2	0x3ed97842	0.42474562
3	0x3e551380	0.2080822
4	0xbee8326a	-0.45350963
5	0x3f0f7c3f	0.5604896
6	0xbe034708	-0.12820065
7	0x3eb54eb4	0.35411608
8	0xbf27b2a5	-0.65506965
9	0x3f064fa2	0.5246526
10	0x3f159df6	0.58444154
11	0xbef9d94b	-0.48798594
12	0x3f1b58db	0.6068246
13	0x3f424ed8	0.75901556
14	0xbf493ac8	-0.7860532
15	0xbe29fab4	-0.16599542
16	0x3f50d40a	0.81573546
17	0x3e95f068	0.29284978
18	0x3f46d1d9	0.7766395
19	0xbf460ca8	-0.7736306
20	0xbe3f3600	-0.18672943
21	0x3d29d99c	0.041467294
22	0x3dd92f07	0.10604673
23	0x3c954f8f	0.018226413
24	0xbf4d251b	-0.80134743
25	0xbdf417ef	-0.119186275
26	0x3fa25ef8	1.2685232
27	0x3f19117a	0.5979229
28	0x3f22c909	0.63588005
29	0x3f8416d6	1.0319469
30	0xbf2abde7	-0.6669602
31	0xbef8dc18	-0.48605418
32	0xbc90883f	-0.017643092
33	0xbf20fa60	-0.6288204
34	0xbf42dcf5	-0.76118404
35	0xbc56a634	-0.013101149
36	0x3d980339	0.0742249
37	0x3cc791a0	0.024361432
38	0xbf938ef6	-1.1528003
39	0xbedb5cc8	-0.42844224
40	0xbd935428	-0.07193786
41	0x3ed073ab	0.40713248
42	0x3ec96a77	0.3933904
43	0x3d4a2ce4	0.049359217
44	0x3f3ac637	0.729587
45	0xbe29eb39	-0.16593637
46	0x3e84c3a3	0.2593051
47	0x3f0974bf	0.53693765
48	0xbed319a3	-0.41230497
49	0xbef237e0	-0.47308254
50	0x3db31c76	0.08745663
51	0xbe85c01b	-0.26123127
52	0x3e6b3a48	0.22971451
53	0x3f5b7609	0.8572698
54	0xbf218078	-0.6308665
55	0x3f0534f1	0.5203391
56	0x3dc6d9db	0.097095214
57	0x3d6a983f	0.0572741
58	0xbe344d80	-0.17607689
59	0xbca357d9	-0.01993935
60	0x3f31cfac	0.6945751
61	0xbec6a92c	-0.38800943
62	0xbd00aa63	-0.031412493
63	0xbe51f504	-0.20503622
64	0xbe9ad86b	-0.3024324
65	0x3f3c422b	0.73538464
66	0x3c9a2e02	0.018820766
67	0xbf31fb5a	-0.6952416
68	0xbf07a19c	-0.5298097
69	0x3cb2fc4e	0.021848824
70	0xbf12c38c	-0.5732963
71	0x3f6875a5	0.9080451

conv1.conv1.0.bias f4 [8]
0	0x3ea43514	0.32071745
1	0xbe8cd241	-0.2750416
2	0xbea9426a	-0.33058482
3	0xbe857f80	-0.26073837
4	0xbe659041	-0.2241831
5	0x3e0a304b	0.13494985
6	0x3df46ae8	0.11934453
7	0x3e8dc76c	0.2769121

conv1.conv1.1.weight f4 [8]
0	0x3f6d34a3	0.9265844
1	0x3f738956	0.95131433
2	0x3f804dca	1.0023739
3	0x3facfd73	1.3514847
4	0x3f75e9d9	0.9605995
5	0x3f81d159	1.0142013
6	0x3f4c3483	0.79767627
7	0x3f647dec	0.8925464

conv1.conv1.1.bias f4 [8]
0	0x3ea87123	0.32898816
1	0xbe5225a7	-0.20522176
2	0x3f010fd4	0.50414777
3	0x3ebcb19c	0.36854255
4	0x3e7090ae	0.23492691
5	0x3eda7f69	0.4267533
6	0x3a511e78	0.00079772575
7	0xbc1c021d	-0.009521988

conv1.conv1.1.running_mean f4 [8]
0	0x3ea4af81	0.3216515
1	0xbe8d05b3	-0.2754341
2	0xbea7e639	-0.32792833
3	0xbe847fc8	-0.2587874
4	0xbe65b838	-0.22433555
5	0x3e0d0980	0.13773155
6	0x3df5396e	0.119738445
7	0x3e8f193d	0.27948943

conv1.conv1.1.running_var f4 [8]
0	0x3f6f4135	0.93458873
1	0x408e0687	4.438297
2	0x3e52eb25	0.20597513
3	0x3f6c6283	0.92337817
4	0x3e92104e	0.28528064
5	0x3ee7041c	0.45120323
6	0x3d25b82a	0.040458836
7	0x3efd3620	0.49455357

conv1.conv2.0.weight f4 [8, 8, 3, 3]
0	0x3c7cc31f	0.01542738
1	0x3ebd015e	0.36915106
2	0x3cf59322	0.029977385
3	0xbd350a01	-0.044198994
4	0x3e251f7c	0.16125292
5	0xbd854124	-0.06506565
6	0x3c96b030	0.01839456
7	0x3e5bca06	0.21463785
8	0xbe023dc8	-0.1271888
9	0xbe8952c6	-0.26820964
10	0x3e65fa90	0.22458863
11	0x3e82f11c	0.25574577
12	0xbe1b2d80	-0.15154076
13	0x3e06cd86	0.13164338
14	0x3e0e2c8b	0.1388418
15	0xbe7925cd	-0.24330826
16	0xbe7ed2d4	-0.24885112
17	0xbdfe3aa7	-0.12413531
18	0x3da05e29	0.078304596
19	0xbeb61425	-0.35562244
20	0xbe3949f4	-0.18094617
21	0xbef51983	-0.47871026
22	0xbe43bd1c	-0.19115108
23	0xbc6f61a3	-0.014610681
24	0xbe2912b1	-0.16511036
25	0x3ecd5a76	0.4010808
26	0x3ea1ce7a	0.31602842
27	0x3da0f5b1	0.07859362
28	0xbe39019a	-0.18067017
29	0x3e32fa4e	0.17478296
30	0xb9db3cfe	-0.00041816378
31	0xbdb86399	-0.09003372
32	0xbd212fa8	-0.03935209
33	0x3e5f0cc3	0.21782212
34	0x3eb50286	0.35353488
35	0xbd8e37d2	-0.06944241
36	0x3e4d29a6	0.20035419
37	0xbc8d791b	-0.017269662
38	0x3d22d3f7	0.039752927
39	0xbe01e354	-0.12684375
40	0xbd20da8b	-0.03927092
41	0xbc95615c	-0.018234901
42	0xbe85e80b	-0.26153597
43	0x3dd2fe40	0.103024006
44	0x3e3a8778	0.1821574
45	0x3e993931	0.29926446
46	0x3d98424f	0.07434522
47	0xbe4b355f	-0.19844578
48	0xbeaaece2	-0.33383852
49	0xbe013aef	-0.12620138
50	0xbd9289db	-0.071552
51	0x3f09edf8	0.53878736
52	0x3d9401a4	0.072268754
53	0x3e8e8588	0.2783625
54	0xbe3707d9	-0.17874087
55	0x3d57b46a	0.05266229
56	0x3e6cdbb4	0.23130685
57	0x3e2d1154	0.16901141
58	0x3d9cb921	0.07652498
59	0xbe01cc0a	-0.12675491
60	0x3d5bab1d	0.053629983
61	0x3c88ae92	0.016684804
62	0xbe91f0fc	-0.2850417
63	0xbe8d1e45	-0.27562156
64	0xbea65904	-0.3248979
65	0x3dc3a36e	0.09552656
66	0xbdc9e442	-0.0985799
67	0xbdc91199	-0.098178096
68	0xbe18a944	-0.1490832
69	0xbd9fc140	-0.078005314
70	0xbe829d1f	-0.255105
71	0xbe0b2e3b	-0.13591854
72	0x3e8877e8	0.2665398
73	0xbda7793b	-0.0817742
74	0x3e379651	0.17928435
75	0x3dbdc196	0.09265439
76	0x3dfd6f06	0.12374692
77	0x3eb69593	0.3566099
78	0x3e84b6f9	0.25920847
79	0x3ed57775	0.416927
80	0x3df62291	0.12018312
81	0x3d9d5abf	0.07683324
82	0x3e937dcb	0.2880691
83	0x3ea66d89	0.32505444
84	0xbe27b7a8	-0.16378653
85	0xbcb3c627	-0.021945072
86	0xbcce8dc8	-0.025214091
87	0xbe026bb0	-0.12736392
88	0xbeabbf1f	-0.3354425
89	0xbe223bd5	-0.15843137
90	0xbbf1539c	-0.0073647033
91	0x3b0a3cef	0.0021093448
92	0x3ef0a7dc	0.47003067
93	0x3d45f17f	0.04832601
94	0x3e1b898a	0.15189186
95	0x3edf820a	0.436539
96	0x3e168716	0.14699969
97	0x3d3b1249	0.045671735
98	0xbdd0631c	-0.101751536
99	0xbecc3323	-0.39882764
100	0xbe951183	-0.29114923
101	0xbc6a1b41	-0.014288724
102	0x3d9ce875	0.07661525
103	0xbcda3a14	-0.026639022
104	0x3e912cef	0.28354594
105	0x3e159e6a	0.14611211
106	0x3c21ce2c	0.009875815
107	0x3e910490	0.28323793
108	0xbe0f3d8a	-0.13988319
109	0xbe2b7168	-0.1674248
110	0x3e2e094f	0.16995738
111	0x3bfe88ae	0.0077677583
112	0xbe37ac0d	-0.17936726
113	0xbe183095	-0.14862283
114	0xba94f9da	-0.0011365965
115	0xbd120533	-0.03564949
116	0xbeaeaf58	-0.34118152
117	0xbdd0edfe	-0.102016434
118	0x3f09b313	0.5378887
119	0x3f13b81b	0.577028
120	0xbe6b2ec2	-0.22967055
121	0x3de5b704	0.11216548
122	0x3e284e30	0.16436076
123	0xbc42a461	-0.011880011
124	0x3e1df3da	0.15425053
125	0xbd4407f9	-0.047859166
126	0xbded66ca	-0.11591871
127	0x3e7b6d0e	0.2455332
128	0x3dfe2770	0.12409866
129	0xbe2a6d47	-0.16643248
130	0x3d414b3d	0.047190893
131	0x3d723bad	0.059138943
132	0xbdb58b90	-0.0886451
133	0xbd277aaa	-0.040888466
134	0xbc20fec6	-0.009826368
135	0xbe41dd75	-0.18932135
136	0xbe18d72e	-0.14925835
137	0xbc0c37e1	-0.008558244
138	0xbd7e5ce9	-0.062100325
139	0x3e6dc53b	0.23219769
140	0xbdc0980d	-0.094040014
141	0x3d168cc8	0.036755353
142	0xbd7b7100	-0.061387062
143	0x3e0c06bb	0.13674442
144	0xbe843bf6	-0.25826997
145	0xbcf2a0ab	-0.029617628
146	0xbb840df0	-0.004029982
147	0x3c47997b	0.012182589
148	0x3e3ca899	0.1842369
149	0xbe565e33	-0.20934372
150	0x3e011ad9	0.12607898
151	0xbda183fc	-0.07886502
152	0xbd571d08	-0.05251792
153	0xbea09442	-0.31363112
154	0xbdbe6ebd	-0.092984654
155	0x3d89775f	0.06712221
156	0x3d292f01	0.041304592
157	0x3e3159c5	0.173194
158	0x3e1e5e4e	0.15465662
159	0xbe170f46	-0.1475192
160	0x3d2f9d23	0.042874467
161	0x3e9eca9f	0.31013963
162	0x3d6268b6	0.05527564
163	0x3e9a3fcb	0.30126795
164	0x3db0a267	0.08624726
165	0xbd84e544	-0.064890414
166	0x3e18cf92	0.14922932
167	0xbec2fc1a	-0.38082963
168	0xbe74661e	-0.2386708
169	0x3d0bbc6b	0.034115236
170	0x3e4b68fb	0.19864266
171	0xbe0f3629	-0.13985504
172	0xbe8f1f2e	-0.27953476
173	0xbd3b3f93	-0.045714926
174	0xbd5869d0	-0.052835286
175	0xbd01f340	-0.031726122
176	0xbc9f6af6	-0.019460183
177	0xbeb8932f	-0.36049792
178	0xbc9fce68	-0.019507602
179	0xbcd05950	-0.025433213
180	0x3e095524	0.13411385
181	0x3e8fca24	0.2808391
182	0x3df0c9a8	0.11757213
183	0x3e16ee53	0.14739351
184	0xbd52d982	-0.051476963
185	0x3de68f42	0.11257793
186	0x3da23d23	0.07921817
187	0xbd9c1856	-0.07621829
188	0x3e824cef	0.2544932
189	0xbb1d7ec3	-0.0024031855
190	0xbe103d25	-0.14085825
191	0x3bdbb9c7	0.006705496
192	0x3dabfa5b	0.08397361
193	0x3d10ca50	0.03534919
194	0x3e46ca73	0.19413166
195	0x3f234e99	0.63791806
196	0x3e465d7e	0.19371602
197	0x3e6233c4	0.2209006
198	0x3d2c43b3	0.04205675
199	0xbe3bb0cd	-0.18329163
200	0x3d7480f7	0.059693303
201	0x3d2abc99	0.041683767
202	0xbd48fd87	-0.049069908
203	0x3d80951c	0.0627844
204	0x3e7e92f7	0.2486075
205	0xbdb90ea1	-0.09035993
206	0x3d108e9d	0.035292257
207	0xbdf3edb6	-0.11910574
208	0xbb97c9f9	-0.0046322313
209	0xbc5ef896	-0.013609072
210	0x3e0494bb	0.12947361
211	0x3dcbcd82	0.09951307
212	0xbb64599d	-0.0034843453
213	0xbe0be7e2	-0.13662675
214	0xbd814684	-0.06312278
215	0x3e024792	0.12722614
216	0xbd4c8e91	-0.04994065
217	0x3da8bf2e	0.0823959
218	0x3cffc982	0.031224016
219	0x3d8f3160	0.069918394
220	0x3c481696	0.012212416
221	0x3d320e32	0.04347057
222	0xbd882997	-0.06648558
223	0x3e52e6e5	0.20595892
224	0xbb9f27d2	-0.004857042
225	0xbd0fb74b	-0.03508691
226	0xbd4c5192	-0.04988248
227	0xbb87be11	-0.0041425307
228	0xbd2effdd	-0.04272448
229	0xbc962476	-0.018327933
230	0x3d494f5e	0.049147956
231	0xbc843fa2	-0.016143624
232	0xbe0b4c9f	-0.13603447
233	0x3e1f26a8	0.1554209
234	0x3e4cde66	0.20006713
235	0xbdf11ee9	-0.11773474
236	0xbe34aa42	-0.17643073
237	0x3e593a3a	0.21213618
238	0x3c04f834	0.008115817
239	0x3e69eeaf	0.22844957
240	0xbd38a818	-0.04508218
241	0xbdb1659a	-0.08661957
242	0xbc6ee654	-0.014581282
243	0x3d313dd0	0.04327184
244	0xbd2312a2	-0.03981269
245	0x3e0bc860	0.13650656
246	0xbdfb46d2	-0.12269367
247	0x3da92abd	0.08260105
248	0x3e126103	0.1429482
249	0xbc5dfb61	-0.013548703
250	0xbe2cf835	-0.16891558
251	0xbe0efa8e	-0.13962767
252	0x3ebd0f91	0.3692594
253	0x3eac7ecc	0.33690488
254	0x3d8cc591	0.0687362
255	0x3d773635	0.06035443

conv1.conv2.0.bias f4 [8]
0	0xbc9f0119	-0.019409703
1	0xbd895e1a	-0.067074016
2	0xbc9c0c71	-0.019048901
3	0x3dc3b6f9	0.09556384
4	0xbdb31e9b	-0.08746072
5	0x3cdb0b49	0.02673878
6	0xbded23be	-0.11579083
7	0x3d7cfeb3	0.061766338

conv1.conv2.1.weight f4 [8]
0	0x3f7cc9c0	0.98745346
1	0x3f524b9f	0.8214664
2	0x3f5c5996	0.860742
3	0x3f419c89	0.7562948
4	0x3f84253c	1.0323863
5	0x3f8b26a2	1.0871165
6	0x3f79aa7c	0.97525764
7	0x3fb34863	1.4006466

conv1.conv2.1.bias f4 [8]
0	0x3d5885f5	0.052862126
1	0xbe020865	-0.12698515
2	0x3c25457a	0.010087365
3	0xbd5784bd	-0.052616823
4	0x3e979a5d	0.29609957
5	0xbdb5a2f7	-0.08868974
6	0xbda56c8b	-0.080773436
7	0x3f16930b	0.5881812

conv1.conv2.1.running_mean f4 [8]
0	0x3c766f9a	0.015041256
1	0x3ff1c4e5	1.8888212
2	0x3f14aa7e	0.5807265
3	0x3faf6aa4	1.3704419
4	0x3e80c12c	0.25147378
5	0xc002e04d	-2.0449402
6	0xbf0aeb22	-0.54265034
7	0xbf00a136	-0.5024599

conv1.conv2.1.running_var f4 [8]
0	0x3fbf6018	1.49512
1	0x4119201a	9.570337
2	0x40382bac	2.8776655
3	0x40285cf5	2.6306736
4	0x405b8973	3.4302642
5	0x40e86c3c	7.263212
6	0x40785ad4	3.8805437
7	0x400bfe76	2.187406

conv1.conv3.0.weight f4 [8, 8, 3, 3]
0	0xbda7b803	-0.08189394
1	0xbe134650	-0.14382291
2	0x3c9d29e1	0.019185008
3	0x3e5a69e9	0.21329464
4	0x3bed74fb	0.007246611
5	0x3da99bd7	0.08281677
6	0xbe6a815c	-0.22900909
7	0x3d28e98a	0.041238345
8	0x3d940695	0.07227818
9	0xbe93a5a3	-0.28837308
10	0x3e6ae342	0.22938254
11	0x3f00b941	0.50282675
12	0xbe35d5a1	-0.17757274
13	0xbdaf1a47	-0.08549934
14	0x3ccce203	0.025010115
15	0x3da83d5f	0.082148306
16	0x3e167626	0.14693508
17	0xbe14d7ab	-0.14535396
18	0xbe910f03	-0.28331766
19	0x3d1fdc99	0.039028738
20	0x3d84c590	0.064829946
21	0xbe4f9ed6	-0.20275435
22	0x3bdad280	0.0066779256
23	0x3e8d31dc	0.27577102
24	0xbe90a2e9	-0.2824929
25	0x3e17f7d7	0.14840637
26	0xbe3c43f5	-0.18385299
27	0xbf06b138	-0.52614164
28	0x3d099410	0.03358847
29	0x3e16ec14	0.14738494
30	0xbd7dba8b	-0.06194548
31	0xbdf3d9c0	-0.11906767
32	0x3e60e754	0.21963245
33	0x3d9e727b	0.07736679
34	0xbc3f2ef3	-0.011668908
35	0x3d5a6ce2	0.053326495
36	0xbdd1358c	-0.102152914
37	0x3e80f55f	0.25187203
38	0x3f034a31	0.5128508
39	0x3e6e18ac	0.23251599
40	0x3eb1396d	0.34614125
41	0x3e82df4c	0.25560987
42	0xbd41bb81	-0.04729796
43	0xbd2b0780	-0.0417552
44	0x3e6f3562	0.23360208
45	0xbe31c8a4	-0.17361695
46	0x3c42cb6d	0.011889321
47	0xbead6f20	-0.33873844
48	0x3da5b3ff	0.08090972
49	0x3db5c123	0.088747285
50	0x3e4c65ee	0.19960758
51	0x3de6236e	0.112372264
52	0xbe7d7fbb	-0.24755757
53	0x3cb1ab8c	0.021688245
54	0xbe1248bf	-0.14285563
55	0x3d4f12f4	0.050555184
56	0x3e4a3aaa	0.19748941
57	0xbe2f8d95	-0.17143853
58	0xbd591143	-0.052994978
59	0x3e947296	0.28993672
60	0xbdad1af5	-0.08452407
61	0xbe1aa44a	-0.15101734
62	0xbe3fb47b	-0.18721192
63	0x3c8e3456	0.01735894
64	0xbdc2fdd6	-0.095210716
65	0xbdf2a9ad	-0.11848769
66	0x3db9e2e1	0.09076477
67	0x3cc7a55c	0.024370842
68	0xbe9919a8	-0.29902387
69	0x3e3114ba	0.17293063
70	0xbe03069e	-0.12795493
71	0xbb9f9016	-0.0048694713
72	0xbe28f2be	-0.16498849
73	0xbe545516	-0.20735583
74	0x3d841a9d	0.064503886
75	0x3e1a0815	0.15042146
76	0x3e1d0248	0.15332901
77	0x3e908861	0.2822905
78	0x3ad4def3	0.001624076
79	0x3e7c406c	0.2463395
80	0xbca1f969	-0.019772248
81	0x3ea51062	0.32239062
82	0xbd445c6b	-0.0479397
83	0x3c43f3ff	0.011960029
84	0xbd690428	-0.05688873
85	0x3c722710	0.014779821
86	0x3e27f946	0.16403684
87	0x3e417ea2	0.18895963
88	0x3da0c662	0.078503385
89	0x3e7da98f	0.24771713
90	0x3e49642c	0.19667119
91	0xbcecbf39	-0.028899776
92	0x3e58e682	0.21181682
93	0xbea1b866	-0.31585997
94	0xbd9abcaf	-0.0755552
95	0x3ce95750	0.028484017
96	0x3dc23949	0.094835825
97	0xbe411d13	-0.18858747
98	0x3b53ad24	0.0032299245
99	0x3e063c29	0.13108887
100	0x3def1b30	0.116751075
101	0xbce4b8ff	-0.027920244
102	0xbd986e74	-0.07442942
103	0x3e8e50e2	0.27796084
104	0xbe931984	-0.28730404
105	0x3e1e5c01	0.15464784
106	0xbe0e51b5	-0.13898356
107	0xbdb680a9	-0.08911259
108	0x3e920b08	0.2852404
109	0x3eda8edd	0.4268712
110	0x3db3d170	0.087801814
111	0xbd03832b	-0.032107513
112	0xbe3504ed	-0.1767766
113	0x3dfc1e2b	0.123104416
114	0xbd80be74	-0.06286326
115	0x3d874914	0.066057354
116	0x3e866813	0.26251277
117	0xbe6024b2	-0.21888998
118	0x3bfc7a42	0.007705004
119	0x3d6c16bf	0.05763888
120	0xbd10e574	-0.035375074
121	0x3dd1c99d	0.10243533
122	0x3e652b54	0.2237981
123	0xbcc01c6a	-0.023451049
124	0xbe577e20	-0.21044207
125	0xbde60284	-0.112309486
126	0x3d9e18c5	0.07719568
127	0xbd729ba1	-0.05923045
128	0xbe21aa6f	-0.15787672
129	0xbdd7d51b	-0.105386935
130	0xbd40b178	-0.047044247
131	0xbbc9012a	-0.006134172
132	0xbe10b2ab	-0.14130656
133	0xbe1506b7	-0.14553343
134	0x3d4f8e77	0.050672974
135	0x3c97209d	0.018448168
136	0xbd8d7455	-0.06906954
137	0xbe9493ed	-0.29019108
138	0xbe6e5dd3	-0.23277979
139	0xbe897c1e	-0.26852506
140	0x3e458925	0.19290598
141	0xbdffc764	-0.124892026
142	0x3c930772	0.017947886
143	0xbdcc5444	-0.0997701
144	0xbd8a7637	-0.06760829
145	0xbe83d193	-0.2574583
146	0x3e0cae22	0.13738301
147	0xbc4bf712	-0.012449043
148	0xbe02dda3	-0.1277986
149	0xbd92a758	-0.071608245
150	0x3d8f462b	0.06995805
151	0x3e853a79	0.26021174
152	0xbd65ec59	-0.0561336
153	0xbe29b0f2	-0.16571406
154	0x3d77fe93	0.060545515
155	0xbdc35e94	-0.09539524
156	0xbdbec140	-0.09314203
157	0x3e874810	0.26422167
158	0x3e8d34f1	0.27579454
159	0xbea4b386	-0.32168216
160	0x3e91f549	0.2850745
161	0xbc5ea520	-0.013589174
162	0x3deedad4	0.11662832
163	0xbe840eb9	-0.25792482
164	0x3c57b648	0.013166018
165	0xbe409b9f	-0.18809365
166	0xbe32c657	-0.17458473
167	0x3e714812	0.23562649
168	0xbe751bd0	-0.23936391
169	0x3dcd6017	0.10028093
170	0xbe296c51	-0.16545226
171	0x3d47ad33	0.04874916
172	0x3e05d85e	0.13070819
173	0xbe22960c	-0.15877551
174	0xbe26d57f	-0.1629238
175	0xbcfd6ab8	-0.030934677
176	0xbbf2a2dc	-0.0074046683
177	0xbd5f7eac	-0.054564163
178	0x3c81f274	0.015862681
179	0xbdd9e25c	-0.10638878
180	0x3dee201f	0.1162722
181	0x3d23a52e	0.03995245
182	0xbe3fcc3c	-0.18730253
183	0xbd9f9835	-0.07792703
184	0xbe116201	-0.14197542
185	0xbee4cc93	-0.44687328
186	0x3db6b86e	0.08921896
187	0x3e200c07	0.15629588
188	0xbdcc7394	-0.09982982
189	0x3e71ec63	0.2362533
190	0xbe9d45c2	-0.30717283
191	0x3de37740	0.111067295
192	0xbc8dcb19	-0.017308759
193	0xbdf144df	-0.11780714
194	0x3efa68ad	0.48907986
195	0x3ce28b15	0.02765421
196	0x3c844750	0.016147286
197	0x3d889301	0.06668664
198	0xbe1dbbae	-0.15403625
199	0x3c868e4f	0.01642528
200	0x3dc9fcc0	0.09862661
201	0xbeecfbdb	-0.462859
202	0xbded91a8	-0.11600047
203	0x3c6d6ce0	0.01449129
204	0xbdbd524a	-0.09244211
205	0xbe0c1dd4	-0.13683254
206	0xbef9788e	-0.48724788
207	0xbe8c1621	-0.27360633
208	0xbf2fd69a	-0.6868683
209	0x3cc1dff0	0.023666352
210	0xbdf36461	-0.1188438
211	0x3e82889e	0.25494856
212	0x3e9adf29	0.30248383
213	0x3e203088	0.15643513
214	0x3d377424	0.044788495
215	0x3f079507	0.5296177
216	0xbe0dd292	-0.13849857
217	0xbd97d215	-0.07413117
218	0x3e010a41	0.12601568
219	0x3e9503f3	0.29104576
220	0xbe203830	-0.15646434
221	0xbe114b44	-0.14188868
222	0x3e8ce337	0.275171
223	0xbddd78da	-0.10814066
224	0x3e9ab5fb	0.30216965
225	0x3db3d1cb	0.08780249
226	0xbdc46255	-0.09589068
227	0xbd39f147	-0.045396116
228	0xbea1e586	-0.31620425
229	0x3e8db925	0.27680317
230	0xbe724d45	-0.23662288
231	0x3e8c90f5	0.27454343
232	0x3d6f2f84	0.058394924
233	0xbe2c5132	-0.16827849
234	0x3e950147	0.29102537
235	0xbd59d7ce	-0.053184323
236	0xbd60db5a	-0.05489669
237	0x3ea31f55	0.31859842
238	0x3e32980a	0.17440811
239	0x3e7e4c34	0.24833757
240	0x3e47cfa8	0.19512808
241	0x3e4cd537	0.2000321
242	0x3e0c5477	0.13704096
243	0x3d59cc59	0.053173397
244	0x3da1689f	0.07881283
245	0xbe58b33f	-0.21162127
246	0x3e5f4b0c	0.21805972
247	0xbdd00017	-0.10156267
248	0x3dd77fdb	0.10522433
249	0x3ee83f86	0.45360965
250	0x3e5deabe	0.21671578
251	0x3cc0a9ab	0.023518404
252	0x3d5eb9f2	0.05437655
253	0x3de0c40f	0.10974895
254	0xbd3f0675	-0.046637017
255	0x3cd201da	0.025635649

conv1.conv3.0.bias f4 [8]
0	0xbd7d6e9b	-0.06187306
1	0xbb8bed16	-0.004270206
2	0x3cb43659	0.021998571
3	0xbd002e6f	-0.031294283
4	0x3da4772e	0.08030544
5	0x3c5269cb	0.012842606
6	0xbddef812	-0.108871594
7	0xbc51278a	-0.0127657745

conv1.conv3.1.weight f4 [8]
0	0x3f87933e	1.059181
1	0x3f3df132	0.7419616
2	0x3f955d92	1.166918
3	0x3f5a7e4a	0.8534895
4	0x3faaf954	1.3357339
5	0x3f90a6a1	1.1300851
6	0x3f56e8ba	0.8394886
7	0x3f855336	1.0416019

conv1.conv3.1.bias f4 [8]
0	0x3c40aa08	0.011759289
1	0xbdc4e6c5	-0.09614328
2	0x3e69b5eb	0.22823302
3	0x3d6e441a	0.058170415
4	0xbd65162b	-0.055929344
5	0x3ea749d6	0.3267352
6	0xbd5b7b10	-0.05358416
7	0x3dc6df7d	0.09710596

conv1.conv3.1.running_mean f4 [8]
0	0x3e0da09a	0.13830796
1	0xbdc00cde	-0.09377454
2	0xbf08102a	-0.53149664
3	0x3f687851	0.9080859
4	0xbe936b21	-0.2879267
5	0xbfaa4b02	-1.330414
6	0xbf9ae332	-1.2100585
7	0x3d222c15	0.03959282

conv1.conv3.1.running_var f4 [8]
0	0x3fe8f422	1.8199503
1	0x403bd395	2.934789
2	0x3fd58070	1.6679821
3	0x409a8c79	4.8296475
4	0x4080faae	4.0306005
5	0x402c50a1	2.6924212
6	0x3fe0fa28	1.7576342
7	0x4026964d	2.6029236

conv2.conv1.0.weight f4 [16, 8, 3, 3]
0	0xbb1c9463	-0.0023892156
1	0xbe5d2ce0	-0.2159915
2	0xbc8bd7cd	-0.017070675
3	0xbe515cbd	-0.20445533
4	0xbe848718	-0.25884318
5	0xbe248502	-0.16066363
6	0x3d9f11a4	0.077670366
7	0x3d285f4d	0.04110651
8	0x3de9238b	0.113837324
9	0xbdcb9836	-0.09941141
10	0x3c97dc58	0.018537685
11	0xbea4c336	-0.32180184
12	0x3cf35c3e	0.02970707
13	0xbd8c3d5a	-0.068476394
14	0x3e41d843	0.18930154
15	0xbe90c4fa	-0.2827528
16	0x3c9f5c81	0.019453289
17	0xbe96d274	-0.29457438
18	0x3da33cea	0.07970603
19	0x3e243dc2	0.16039184
20	0xbda8a2b6	-0.0823416
21	0xbea6d5ba	-0.32584935
22	0x3e93dfe7	0.2888176
23	0xbe59a03b	-0.2125253
24	0x3d68772b	0.056754272
25	0x3e16f3bc	0.14741415
26	0x3d99a149	0.07501466
27	0x3e58715f	0.21136998
28	0x3d84bdda	0.06481524
29	0xbe816c2f	-0.2527785
30	0x3d8bb042	0.06820728
31	0xbd8003e1	-0.0625074
32	0x3af3aeb6	0.0018591497
33	0x3c6364d6	0.013879022
34	0xbd6e0834	-0.05811329
35	0x3dea667d	0.11445329
36	0x3d0d9c42	0.034572847
37	0x3e1a631f	0.15076874
38	0x3e7e2c3c	0.24821562
39	0xbc95c614	-0.018282928
40	0x3e9ee394	0.31033003
41	0x3da8c232	0.08240165
42	0xbd072871	-0.032997552
43	0xbd693002	-0.05693055
44	0xbd57678c	-0.052588984
45	0xbbf4ff6e	-0.0074767387
46	0xbe1da520	-0.15395021
47	0xbe2ba5bc	-0.16762441
48	0x3bc07c03	0.0058741583
49	0xbeb875f4	-0.3602749
50	0xbc1125d0	-0.008859113
51	0xbe2d52f8	-0.16926181
52	0xbd6e4d0b	-0.058178943
53	0xbef0b930	-0.47016287
54	0xbe049b43	-0.12949853
55	0xbe80e085	-0.25171295
56	0xbd412e8d	-0.047163535
57	0x3e8c20cd	0.27368775
58	0xbb9b5230	-0.004740022
59	0x3e520aec	0.20511979
60	0xbb5fb7bd	-0.0034136616
61	0xbc8f7647	-0.017512454
62	0x3e80ec05	0.2518007
63	0xbe985449	-0.29751804
64	0xbe6169d3	-0.22013025
65	0xbccb8122	-0.024841849
66	0xbe8588f4	-0.2608105
67	0x3dd85809	0.105636664
68	0x3e67325f	0.22577809
69	0x3e228a89	0.1587316
70	0x3e23680a	0.15957657
71	0xbbc84425	-0.006111639
72	0xbc78ec3b	-0.0151930405
73	0x3e80838c	0.25100362
74	0xbc809ed0	-0.015700728
75	0x3ec988cf	0.3936219
76	0x3d799d21	0.060940865
77	0xbe134efc	-0.14385599
78	0xbc33bdca	-0.010970542
79	0x3c7455e6	0.014913058
80	0xbd2f1a42	-0.04274965
81	0x3e238342	0.1596804
82	0xbe064ff8	-0.13116443
83	0xbd7d824e	-0.061891846
84	0x3e4c6832	0.19961622
85	0xbf0801ed	-0.5312794
86	0xbe41212f	-0.18860315
87	0x3edf1a84	0.43574917
88	0xbd2102a1	-0.039309148
89	0x3d858c18	0.065208614
90	0xbe86c8d3	-0.26325092
91	0x3e12a536	0.14320835
92	0x3de86a0e	0.11348353
93	0xbd7ab647	-0.06120899
94	0x3e16045d	0.14650102
95	0xbe2ea0ca	-0.17053524
96	0xbe8364e0	-0.256629
97	0xbdb00c4f	-0.08596098
98	0xbcc6919f	-0.02423936
99	0xbc3d5b31	-0.011557386
100	0x3c0ff5ea	0.008786658
101	0xbe0f0555	-0.13966878
102	0xbe6e2faf	-0.23260377
103	0xbceb9d5c	-0.028761558
104	0xbec47e29	-0.38377503
105	0x3e051ae5	0.1299854
106	0xbd09ab6d	-0.03361075
107	0xbe239619	-0.15975226
108	0xbec3c2b8	-0.38234496
109	0xbd4a0c38	-0.04932806
110	0xbde2e411	-0.110786565
111	0x3dea34a7	0.11435824
112	0x3d46f777	0.048575845
113	0x3e209f28	0.15685713
114	0x3e4fcab6	0.20292172
115	0xbcaf3c60	-0.021391094
116	0x3e647b7b	0.22312729
117	0xbdc86383	-0.09784605
118	0x3e83b0c8	0.2572081
119	0xbe46e87b	-0.19424622
120	0xbe7163cc	-0.23573226
121	0xbe4716e9	-0.19442333
122	0xbe0f4942	-0.1399279
123	0xbe1792a6	-0.14802036
124	0xbe2c35e3	-0.16817431
125	0x3e4bd3e1	0.19905044
126	0xbe61fb11	-0.2206843
127	0x3d884d6c	0.06655392
128	0x3e1268c1	0.14297773
129	0xbe15e19e	-0.14636847
130	0xbdc1525d	-0.09439538
131	0x3e827b75	0.25484815
132	0xbe595fb1	-0.2122791
133	0x3e34c4be	0.17653176
134	0xbe92e7d9	-0.2869251
135	0xbec500dc	-0.38477218
136	0xbe037084	-0.1283589
137	0x3e124106	0.14282617
138	0xbe2c95ab	-0.16853969
139	0xbb954d84	-0.0045563597
140	0xbd1007e2	-0.035163768
141	0xbe0252c3	-0.12726884
142	0xbb37570e	-0.0027975473
143	0x3d0036ab	0.031302135
144	0xbcb55773	-0.022136426
145	0xbec158cd	-0.37763062
146	0x3d5388db	0.051644187
147	0x3e233d0f	0.15941261
148	0xbc612e31	-0.013743923
149	0x3da97bea	0.08275588
150	0xbdf57b7d	-0.11986444
151	0x3e87169a	0.2638443
152	0x3df5297e	0.11970805
153	0xbe511ebe	-0.20421883
154	0x3dad4926	0.084612176
155	0x3e4d2233	0.20032577
156	0x3e99f80e	0.30072063
157	0x3d1bbab1	0.03801984
158	0x3d47434c	0.048648164
159	0xbda779d5	-0.081775345
160	0xbe064b10	-0.13114572
161	0x3d984358	0.0743472
162	0x3d33aba0	0.043864846
163	0x3e4a6993	0.19766836
164	0xbd15ac70	-0.036541402
165	0xbe7a4c18	-0.2444309
166	0x3ec40c5a	0.38290673
167	0xbe378a26	-0.17923793
168	0xbe2ac706	-0.16677484
169	0x3e0a9303	0.13532643
170	0xbe074e7f	-0.13213538
171	0xbe101e80	-0.14074135
172	0xbec45dba	-0.38352758
173	0xbd853e21	-0.06505991
174	0x3ccc673f	0.024951575
175	0x3dd8a3e2	0.10578133
176	0x3e0bb1b8	0.13642013
177	0xbc0eb395	-0.008709808
178	0xbdd1c041	-0.10241748
179	0x3ec7dc65	0.39035335
180	0x3e671f59	0.22570552
181	0x3e1d08d8	0.15335405
182	0x3d7d260c	0.061803862
183	0x3ea68db6	0.32529992
184	0x3d9c4b7a	0.076315835
185	0xbe01ecd8	-0.12688005
186	0xbdcbf558	-0.09958905
187	0xbeb1f640	-0.34758186
188	0xbd3045cd	-0.043035317
189	0xbc9eef5d	-0.019401247
190	0xbe5a8201	-0.21338655
191	0x3d226920	0.039651036
192	0xbe01fbac	-0.12693661
193	0x3dd55c47	0.10417991
194	0x3e43dbdd	0.1912684
195	0x3e1360ba	0.14392367
196	0x3eb185ef	0.34672496
197	0x3d2b2bb4	0.041789725
198	0xbe0e4e92	-0.1389716
199	0xbe33887c	-0.17532533
200	0xbe91fb83	-0.285122
201	0xbde93507	-0.11387067
202	0xbb6e4bc4	-0.0036361078
203	0x3d3075a6	0.04308095
204	0x3ca6bed3	0.020354664
205	0xbcb96032	-0.022628877
206	0x3d135f02	0.03597928
207	0x3e786853	0.24258547
208	0x3e294c18	0.16532934
209	0xbf00156e	-0.500327
210	0x3decc1da	0.11560412
211	0xbca4c023	-0.02011115
212	0x3e1aad98	0.15105283
213	0xbc264ba0	-0.010149866
214	0xbd8ae6ca	-0.06782301
215	0x3efabec7	0.48973677
216	0x3e83e2a9	0.25758865
217	0x3d78e259	0.060762737
218	0x3dd87656	0.10569446
219	0xbdd2f059	-0.10299749
220	0xbc11d387	-0.00890053
221	0x3e08749e	0.13325736
222	0xbe905dc3	-0.28196535
223	0x3caee519	0.021349477
224	0x3e790fa9	0.2432238
225	0xbd8a0361	-0.06738926
226	0x3d64a143	0.055817854
227	0xbe217566	-0.1576744
228	0xbe1cbb43	-0.1530581
229	0x3d0bfa9e	0.034174554
230	0x3dfef096	0.12448232
231	0xbec1d9ce	-0.37861484
232	0xbd95b9bc	-0.07310817
233	0xbd20f528	-0.0392963
234	0xbd2abf4d	-0.041686345
235	0x3e1b5001	0.15167238
236	0x3e3f1403	0.18659978
237	0x3ebd4bd2	0.3697191
238	0x3e8fb4ae	0.28067535
239	0xbd9070d7	-0.070527725
240	0xbe3421ac	-0.1759097
241	0x3c25cbaf	0.010119363
242	0xbe893dc9	-0.2680495
243	0xbe6eb065	-0.23309477
244	0xbc76ded8	-0.0150677785
245	0x3e707fd4	0.23486263
246	0xbe679e56	-0.22618994
247	0xbe34e97c	-0.17667192
248	0xbe838a29	-0.25691345
249	0x3e94871f	0.2900934
250	0x3d9bc2e2	0.0760553
251	0x3ca496a6	0.020091366
252	0x3d095629	0.033529434
253	0xbd9ba979	-0.07600684
254	0xbeaa557c	-0.33268344
255	0xbcedb2b1	-0.02901587

conv2.conv1.0.bias f4 [16]
0	0xbc8c1c37	-0.017103298
1	0xbdc5963d	-0.09647796
2	0x3ce27e8a	0.02764823
3	0x3d10178c	0.035178706
4	0xbdbeefc1	-0.09323073
5	0xbdd8770c	-0.105695814
6	0x3c4a7a44	0.012358252
7	0x3deba08e	0.11505233
8	0xbdd7d4fc	-0.105386704
9	0xbd6c7677	-0.057730164
10	0xbd266d56	-0.040631615
11	0xbdd52440	-0.10407305
12	0xbd949308	-0.072546065
13	0x3dbd678a	0.09248264
14	0x3db88d1d	0.0901129
15	0xbdb18549	-0.08668

conv2.conv1.1.weight f4 [16]
0	0x3f89bb0d	1.0760208
1	0x3f6df309	0.9294897
2	0x3f53410f	0.82521147
3	0x3f82e0f2	1.0224898
4	0x3f90a790	1.1301136
5	0x3f9437a1	1.1579477
6	0x3f6fc5a6	0.9366096
7	0x3f7c85bc	0.9864156
8	0x3f85f27b	1.0464624
9	0x3f6c421b	0.9228837
10	0x3f85c5c9	1.0450984
11	0x3f7efa41	0.9960061
12	0x3f885eb1	1.0653898
13	0x3f762ddb	0.9616372
14	0x3f7d40ae	0.9892682
15	0x3f89c445	1.0763022

conv2.conv1.1.bias f4 [16]
0	0x3dd26d91	0.102748044
1	0xbd92108c	-0.07132062
2	0xbda2fef8	-0.07958788
3	0x3d7dd608	0.061971694
4	0xbd1d670a	-0.038428344
5	0xbe076368	-0.13221514
6	0x3d89a4c4	0.0672088
7	0x3c644d25	0.013934408
8	0xbd791090	-0.06080681
9	0xbb3b9a5e	-0.0028625946
10	0xba4d545e	-0.0007832701
11	0x3dabe1f9	0.0839271
12	0x3d94fd3a	0.07274862
13	0xbdd6b314	-0.10483375
14	0x3d56b72f	0.05242079
15	0xbd95d7b2	-0.07316531

conv2.conv1.1.running_mean f4 [16]
0	0xbf9ae8d1	-1.21023
1	0xbfd860f6	-1.690459
2	0x3f49aad9	0.7877632
3	0x3dc50018	0.096191585
4	0xbfa3bd94	-1.279223
5	0xc0746b7f	-3.819061
6	0xbf07c26f	-0.5303106
7	0x3fa6730a	1.3003857
8	0xbfecb991	-1.849413
9	0x3f31955d	0.69368535
10	0xc0050355	-2.0783284
11	0xbf512da6	-0.8171028
12	0xbeacf9ff	-0.33784482
13	0x3fbeaef7	1.4897145
14	0xbf839c26	-1.0282028
15	0xc0150401	-2.3283694

conv2.conv1.1.running_var f4 [16]
0	0x40a3070d	5.0946107
1	0x40084f28	2.1298313
2	0x3fbae34a	1.4600613
3	0x40455c5c	3.0837622
4	0x40511f14	3.2675219
5	0x4081f047	4.0605807
6	0x402c1c07	2.6892107
7	0x403363b4	2.8029604
8	0x4097cee0	4.7440033
9	0x3fe91dd0	1.8212223
10	0x40458a09	3.08655
11	0x4091eb5b	4.55998
12	0x402f3f5a	2.7382417
13	0x40488d48	3.1336231
14	0x403bb953	2.9331863
15	0x4037cabb	2.8717487

conv2.conv2.0.weight f4 [16, 16, 3, 3]
0	0xbdc0abe6	-0.09407787
1	0xbd1ce868	-0.038307577
2	0x3dae1c72	0.08501519
3	0xbde3bdd7	-0.111201935
4	0xbe56a10f	-0.20959876
5	0x3d97989a	0.07402153
6	0xbe8550bc	-0.26038158
7	0x3c5ecf80	0.013599277
8	0xbdc4c5ba	-0.09608026
9	0x3c40bb46	0.0117633995
10	0x3d519efd	0.051177014
11	0x3d2aab56	0.041667305
12	0x3e0c9598	0.1372894
13	0x3e0c4608	0.1369859
14	0x3d777195	0.060411055
15	0xbd5a793b	-0.05333827
16	0xbe2b4d08	-0.16728604
17	0xbdedb380	-0.116065025
18	0xbddf066b	-0.10889896
19	0xbe3eb8db	-0.18625204
20	0x3d58343d	0.052784193
21	0xbd854ba5	-0.06508569
22	0x3e03532d	0.12824698
23	0x3ce8d8f4	0.028423764
24	0xbe627599	-0.22115172
25	0xbc69ef71	-0.014278279
26	0xbda24265	-0.0792282
27	0x3dbcfd93	0.09228053
28	0xbe561094	-0.20904762
29	0xbe78f411	-0.24311854
30	0xbc077d2c	-0.008269589
31	0x3e544c21	0.20732166
32	0x3c55d96c	0.013052326
33	0xbd042d52	-0.032269783
34	0xbdac2600	-0.084056854
35	0xbe2c1c61	-0.168077
36	0xbd5150d5	-0.051102478
37	0xbd950a70	-0.072773814
38	0x3db571f9	0.08859629
39	0x3ccf09bb	0.025273195
40	0x3a9cf317	0.0011974302
41	0xbdc6616c	-0.096865505
42	0xbde20923	-0.11036899
43	0xbd7be062	-0.061493285
44	0xbe6ddf73	-0.2322977
45	0xbdf4c0c6	-0.11950831
46	0xbe72be9c	-0.23705524
47	0xbcb86b10	-0.022511989
48	0x3cebaae4	0.02876801
49	0x3e6867e8	0.22695887
50	0x3e0f23cd	0.139785
51	0xbe03d1bb	-0.12872975
52	0x3e14df6e	0.14538357
53	0x3d33cc29	0.043895874
54	0xbddf680c	-0.10908517
55	0x3db738bd	0.08946369
56	0xbd809389	-0.0627814
57	0xbd06decd	-0.032927323
58	0xbc0ed3a9	-0.008717456
59	0xbd7194a7	-0.058979657
60	0x3de34781	0.11097623
61	0xbdd3256e	-0.103098735
62	0xbde8e724	-0.113722116
63	0xbea7a00d	-0.32739297
64	0x3e2963b8	0.16541946
65	0x3da40734	0.080091864
66	0x3d969d93	0.07354274
67	0xbe151e48	-0.14562333
68	0xbe26f101	-0.16302873
69	0x3dbba20e	0.09161769
70	0xbdfdb7ea	-0.123885944
71	0xbd17b396	-0.0370365
72	0xbc864db6	-0.016394477
73	0x3d19a34b	0.037509244
74	0x3dd3ddec	0.103450626
75	0xbe8953a1	-0.26821616
76	0xbe36fe91	-0.17870547
77	0x3dd66679	0.10468764
78	0x3c928e9c	0.017890267
79	0xbd7d70ba	-0.061875083
80	0x3dfd9815	0.12382523
81	0x3e4ccb84	0.1999951
82	0x3d604044	0.05474879
83	0x3db9cbc5	0.09072069
84	0xbdd6badd	-0.1048486
85	0xbe7b3573	-0.24532108
86	0xbeb118c0	-0.34589195
87	0x3d584c14	0.05280693
88	0xbb8e4734	-0.004341984
89	0xbc91a082	-0.017776731
90	0x3d093541	0.033498053
91	0xbcfd8386	-0.030946504
92	0xbd6b38c4	-0.057427183
93	0x3ca94d0d	0.020666623
94	0xbd3ea9b5	-0.046548564
95	0x3d9608e7	0.07325917
96	0xbe429329	-0.1900145
97	0xbcc3d7a2	-0.023906533
98	0xbc9d290b	-0.01918461
99	0x3d80b654	0.06284776
100	0x3d05400d	0.032531787
101	0xbd9cc06c	-0.07653889
102	0x3cf64351	0.030061396
103	0xbdf555f5	-0.11979286
104	0xbe5119e5	-0.20420034
105	0x3da8084b	0.08204707
106	0x3cf31428	0.029672697
107	0xbb301e35	-0.0026873474
108	0x3d034d21	0.032055978
109	0x3e04966d	0.12948008
110	0xbd294288	-0.041323215
111	0xbe221cf2	-0.15831354
112	0xbe2c6f5c	-0.16839355
113	0xbda71e3a	-0.08160062
114	0x3e3e176b	0.18563621
115	0x3d1af424	0.037830487
116	0x3dacbcbd	0.084344365
117	0xbe3cb617	-0.18428837
118	0x3d35acdb	0.0443543
119	0xbd93dde7	-0.07220059
120	0x3d1f4a3e	0.038889162
121	0x3e07d389	0.13264288
122	0xbe119248	-0.14215958
123	0x3e93d721	0.28875068
124	0xbd5545a9	-0.052068386
125	0xbda176f7	-0.07884019
126	0x3ccf8feb	0.02533718
127	0x3dffd950	0.12492621
128	0xbe31d7a7	-0.17367421
129	0x3d07ae20	0.033125043
130	0x3c8fa6d1	0.017535599
131	0xbe331789	-0.17489447
132	0x3dfaac8c	0.12239942
133	0xbd23b8a6	-0.039971016
134	0xbd86709a	-0.06564446
135	0xbd9abc06	-0.07555394
136	0xbdfc5d64	-0.123225
137	0xbda56f4e	-0.0807787
138	0xbd94f6e8	-0.07273656
139	0xbb5f8c16	-0.0034110597
140	0x3d14876e	0.03626197
141	0x3dabdce6	0.083917424
142	0xbd8ba4fe	-0.06818579
143	0x3d88fa5a	0.06688376
144	0x3bd7c9cc	0.0065853354
145	0xbd3d0d42	-0.04615522
146	0xbe13a99a	-0.14420167
147	0x3e55b39e	0.208693
148	0xbd575da4	-0.052579537
149	0xbded7b39	-0.115957685
150	0x3e1e9f16	0.15490374
151	0x3d0a384c	0.033745095
152	0x3c914292	0.017731939
153	0xbc2f0ac3	-0.010683718
154	0x3d917433	0.07102241
155	0x3e201fc8	0.15637124
156	0x3d85d0f5	0.06533996
157	0x3cab2d46	0.020895611
158	0xbcc19940	-0.023632646
159	0xbe45c0f9	-0.19311894
160	0xbd0b8dd0	-0.03407079
161	0xbdc13ea1	-0.09435774
162	0xbcdc78f7	-0.02691315
163	0x3da7a934	0.0818657
164	0x3d79f742	0.06102682
165	0x3daf729c	0.08566782
166	0x3e82b32a	0.25527316
167	0x3e31438b	0.17310922
168	0xbea822a1	-0.3283892
169	0x3cea9968	0.028637603
170	0xbbeee733	-0.0072907447
171	0x3b63d96f	0.0034767052
172	0x3de511c0	0.11185026
173	0xbcc76dc2	-0.024344329
174	0x3df0c0ed	0.11755548
175	0x3e70c300	0.23511887
176	0xbd16c0d8	-0.036805004
177	0x3d0d194b	0.03444795
178	0xbe00e088	-0.12585652
179	0x3e0b524f	0.13605617
180	0xbd782b91	-0.060588423
181	0xbe7b2f28	-0.24529707
182	0xbc751630	-0.014958903
183	0xbd3dac07	-0.046306636
184	0xbe08eca5	-0.13371523
185	0x3da41dcb	0.08013495
186	0xbe4703e8	-0.19435084
187	0x3cb333bb	0.021875253
188	0x3e240b3f	0.16019915
189	0xbbae3d74	-0.0053173844
190	0x3e355f90	0.17712235
191	0xbc63aaa2	-0.0138956625
192	0xbd2028c8	-0.039101392
193	0x3df302cd	0.118657686
194	0xbcd18bbb	-0.025579324
195	0x3d3bd320	0.04585564
196	0xbe8b5488	-0.2721293
197	0x3e0e8d0f	0.13920997
198	0xbe6f24b1	-0.2335384
199	0x3e8b41e0	0.27198696
200	0x3e1a4980	0.150671
201	0xbe5daf8d	-0.21648999
202	0xbca6be03	-0.020354277
203	0xbd4a810a	-0.049439467
204	0xbbc247ff	-0.0059289928
205	0xbc8437d1	-0.016139897
206	0xbdca94f9	-0.098916955
207	0x3d9bb938	0.07603687
208	0xbe6e7555	-0.23286946
209	0xbe195fe7	-0.1497799
210	0xbedcd25f	-0.4312925
211	0xbd904a06	-0.07045369
212	0x3ced0b4c	0.02893605
213	0x3db65737	0.08903354
214	0x3e2db696	0.16964182
215	0x3c034b98	0.008013628
216	0xbe063585	-0.13106354
217	0xbe216f16	-0.15765032
218	0x3bd8ed67	0.0066200974
219	0x3dde6587	0.108592086
220	0xbe0828e1	-0.13296844
221	0x3df2849c	0.118416995
222	0xbd991524	-0.074747354
223	0xbbd83ace	-0.006598807
224	0xbe2cbfac	-0.16869992
225	0xba14427d	-0.00056556595
226	0xbc609754	-0.013707954
227	0x3c327c0b	0.010893832
228	0x3ec904c7	0.39261457
229	0x3e526f13	0.20550184
230	0x3dfab4fa	0.1224155
231	0x3e094133	0.13403778
232	0x3e495b5d	0.19663759
233	0xbe579f2b	-0.21056812
234	0x3b9df719	0.004820716
235	0x3c813a6c	0.015774928
236	0xbc060f5a	-0.008182371
237	0x3d72ff61	0.05932558
238	0x3c582d70	0.013194427
239	0x3e224634	0.15847093
240	0xbe19ecb6	-0.15031704
241	0xbd830338	-0.06397098
242	0x3df5242f	0.11969792
243	0x3d13a649	0.036047254
244	0x3d9f574f	0.07780325
245	0x3dbad99d	0.09123538
246	0xbe1a26cb	-0.15053861
247	0xbe4ed9d6	-0.20200285
248	0x3c39303e	0.011303006
249	0xbe0d11b1	-0.1377628
250	0x3d73aaec	0.059489176
251	0x3db60cd5	0.08889166
252	0xbc76203f	-0.0150223365
253	0xbe0fddd9	-0.14049472
254	0x3e36c96e	0.17850277
255	0xbd275454	-0.040851906

conv2.conv2.0.bias f4 [16]
0	0xbcb5953f	-0.022165893
1	0x3d3b1af9	0.04568002
2	0xbd499fba	-0.049224593
3	0xbcb45e20	-0.022017539
4	0x3d9c6359	0.076361366
5	0x3d35c07e	0.044373028
6	0xbd845b77	-0.06462758
7	0xbcbb9205	-0.022896776
8	0x3c060ee4	0.008182261
9	0x3cf69032	0.030098055
10	0xbd1cfe65	-0.038328547
11	0x3d6ef384	0.058337703
12	0x3aaad7bb	0.0013034263
13	0xbd9385d3	-0.07203259
14	0x3cb6e1b2	0.022324417
15	0xbda5a23e	-0.08087586

conv2.conv2.1.weight f4 [16]
0	0x3f8785d3	1.0587715
1	0x3f79e617	0.97616714
2	0x3f86bcaf	1.0526332
3	0x3f752a1d	0.95767385
4	0x3f76225e	0.9614619
5	0x3f880f17	1.0629605
6	0x3f725e94	0.94675565
7	0x3f5673b3	0.83770293
8	0x3f692441	0.91070944
9	0x3f822a70	1.0169201
10	0x3f753348	0.95781374
11	0x3f67923b	0.90457505
12	0x3f913c89	1.1346599
13	0x3f885d01	1.0653383
14	0x3f8c6cf0	1.0970745
15	0x3f84d112	1.0376303

conv2.conv2.1.bias f4 [16]
0	0x3dda670d	0.106641866
1	0x3c4df0df	0.012569635
2	0x3d1b1264	0.037859336
3	0xbd5910fa	-0.052994706
4	0xbc1db9b3	-0.009626794
5	0x3df6f6d8	0.120588005
6	0xbc9e6e61	-0.019339742
7	0xbe1baef5	-0.1520346
8	0x3d947a2e	0.072498664
9	0x3cb3c559	0.021944689
10	0xbc7aa646	-0.015298432
11	0xbdb457d0	-0.088058114
12	0x3dd54edc	0.10415432
13	0xbdf34a70	-0.11879432
14	0x3e0ae7b7	0.13564955
15	0x3c8d4850	0.017246395

conv2.conv2.1.running_mean f4 [16]
0	0xbfb1341a	-1.3844025
1	0x3e97480e	0.2954716
2	0x3e27999c	0.16367191
3	0xbe4722a0	-0.19446802
4	0x3f8098a8	1.0046587
5	0xbf8df28d	-1.1089646
6	0x3e415dcc	0.18883437
7	0xc0125074	-2.2861605
8	0xbe2e8c5b	-0.17045729
9	0x3e25029f	0.16114281
10	0x3f2af7b9	0.66784245
11	0x3eafe66e	0.3435549
12	0xbebf71bc	-0.3739146
13	0xbee58e93	-0.44835338
14	0xbf7eb7d1	-0.9949923
15	0xbf3b6e06	-0.7321476

conv2.conv2.1.running_var f4 [16]
0	0x3f808140	1.0039444
1	0x3fce5c0a	1.6121838
2	0x3faefd2c	1.3671012
3	0x4001b57e	2.0267024
4	0x403b342d	2.9250596
5	0x3fde8c49	1.7386562
6	0x3fda3d9b	1.705005
7	0x3fcf4dfe	1.6195676
8	0x40416cc1	3.0222628
9	0x3f9928c4	1.1965566
10	0x40677f6b	3.617152
11	0x3fdd732b	1.7300771
12	0x4011dba9	2.279032
13	0x3f807aac	1.0037436
14	0x40285f90	2.6308327
15	0x406ea91a	3.7290711

conv2.conv3.0.weight f4 [16, 16, 3, 3]
0	0xbe8f641a	-0.2800606
1	0x3d08d872	0.033409543
2	0xbe7146e4	-0.23562199
3	0x3e0e5e66	0.13903198
4	0x3dfee520	0.12446046
5	0x3d575081	0.05256701
6	0x3df483cd	0.119392015
7	0xbe3e06f7	-0.18557344
8	0xbd93784f	-0.072006814
9	0x3d7aa083	0.061188232
10	0xbd14966d	-0.03627627
11	0xbd3dc33a	-0.04632876
12	0xbd446bcb	-0.047954362
13	0x3b813a26	0.0039436994
14	0xbd1b8308	-0.037966758
15	0x3e0e44f4	0.13893491
16	0x3c86b7d1	0.016445072
17	0xbde08989	-0.10963733
18	0xbdbae0e1	-0.091249235
19	0xbe44e585	-0.1922818
20	0xbd1b1a35	-0.03786679
21	0xbb07a97a	-0.002070038
22	0xbd3a3d8a	-0.045468844
23	0xbe8048b2	-0.25055462
24	0x3ccf1ed0	0.025283247
25	0xbe2750a3	-0.16339354
26	0x3dc849c6	0.09779696
27	0xbd22f782	-0.039786823
28	0xbc3fee0b	-0.011714469
29	0x3dcfc024	0.1014407
30	0xbe2418b2	-0.16025046
31	0x3b819080	0.0039539933
32	0x3c45d475	0.0120745795
33	0x3dd43bae	0.103629455
34	0xbdbdda67	-0.092701726
35	0x3e17db2b	0.148297
36	0xbc542143	-0.012947383
37	0xbd8311a4	-0.06399849
38	0xbe380ed1	-0.17974402
39	0xbc7727c6	-0.015085166
40	0x3e214410	0.1574862
41	0xbdb71233	-0.08939018
42	0xbe169590	-0.14705491
43	0x3d8c34bd	0.068459965
44	0xbdb23085	-0.087006606
45	0x3dfc895e	0.12330888
46	0x3d78fe53	0.060789417
47	0xbd37b370	-0.04484886
48	0x3de0ca71	0.10976113
49	0x3e4f3294	0.20234138
50	0x3e1a1d30	0.15050197
51	0x3ea613e5	0.32437053
52	0x3e4dccad	0.20097609
53	0xbeb82bc8	-0.35970902
54	0x3e2357f5	0.15951522
55	0xbdcd81b7	-0.10034507
56	0x3e109c0a	0.14122024
57	0x3e5930ed	0.2121007
58	0x3ca13a63	0.019681161
59	0x3dbd3d3b	0.092401944
60	0xbcca5967	-0.024700833
61	0x3d6e7ca6	0.058224343
62	0xbde06733	-0.10957184
63	0x3c427425	0.011868511
64	0x3cb7034b	0.022340437
65	0x3da70b02	0.081563964
66	0xbc86c0c6	-0.016449343
67	0xbd501fe0	-0.05081165
68	0xbe66d438	-0.22541893
69	0x3e15969c	0.14608234
70	0xbc1e6acf	-0.00966902
71	0x3d7a487a	0.061104275
72	0xbe853555	-0.26017252
73	0xbd9e6161	-0.07733417
74	0x3c37c8bc	0.011217292
75	0x3dbc924a	0.0920759
76	0xbd8845a2	-0.066539064
77	0xbe182770	-0.14858794
78	0x3e7554c9	0.23958124
79	0xbdfbeb24	-0.12300709
80	0xbe459c23	-0.19297843
81	0x3d048e58	0.032362312
82	0xbda29419	-0.07938404
83	0xbe4a2f9f	-0.19744729
84	0xbe265799	-0.16244353
85	0x3d7dacf9	0.061932538
86	0xbd36375b	-0.044486385
87	0xbdc78bb6	-0.097434446
88	0x3b170219	0.0023042022
89	0x3d095b38	0.03353426
90	0x3d7c9239	0.061662886
91	0xbdab4558	-0.08362836
92	0xbda35f03	-0.079771064
93	0xbb1a6a60	-0.002356194
94	0x3d430e88	0.04762128
95	0x3be15b01	0.0068773036
96	0x3da2fab3	0.07957973
97	0xbc91b818	-0.017787978
98	0x3cba0c51	0.022710951
99	0xbe3de188	-0.18543065
100	0x3ca9f744	0.020747788
101	0xbe237c57	-0.159654
102	0x3d1e6dcc	0.03867893
103	0x3dd9f44c	0.10642299
104	0xbd890acb	-0.06691512
105	0xbd51e811	-0.051246706
106	0xbc7b017e	-0.01532018
107	0xbd839eec	-0.06426796
108	0xbd454f33	-0.048171233
109	0x3d97eb99	0.074179836
110	0x3daed8a6	0.08537416
111	0xbe0aef61	-0.13567878
112	0x3db3e6a7	0.08784228
113	0x3dedae4a	0.116055086
114	0x3e347c62	0.17625573
115	0xbe327eae	-0.17431137
116	0x3dd51ff9	0.10406489
117	0xbdb1b8f8	-0.08677858
118	0x3dfcbfb1	0.1234125
119	0xbe095fcb	-0.13415448
120	0xbdbd7ef8	-0.09252733
121	0x3ba198f9	0.004931566
122	0xbd2e182f	-0.042503532
123	0x3ddb08e5	0.10695056
124	0xbe24321c	-0.1603474
125	0x3b9b5002	0.0047397623
126	0x3e6096e3	0.21932559
127	0x3e07ab48	0.13248932
128	0xbdbb23b3	-0.091376685
129	0x3e830639	0.25590685
130	0x3e621dbd	0.22081657
131	0xbd5cb651	-0.053884808
132	0x3df07920	0.11741853
133	0x3d1099a5	0.035302777
134	0xbdb22064	-0.08697584
135	0x3e449ab0	0.19199634
136	0xbe3c4dfb	-0.18389122
137	0xbdba27e5	-0.090896405
138	0x3db775d6	0.08958022
139	0xbcd81940	-0.026379228
140	0x3ddabd45	0.106806315
141	0x3cea65bd	0.028612966
142	0xbce862f4	-0.028367497
143	0x3dd74e64	0.10512999
144	0x3cbf4400	0.023347855
145	0x3d82f938	0.06395191
146	0xbda9e940	-0.08296442
147	0x3e51422e	0.20435402
148	0xbdf7327a	-0.120701745
149	0xbdf93c09	-0.12169654
150	0x3e5cf004	0.21575934
151	0xbd1f8913	-0.038949084
152	0x3cc1a94d	0.0236403
153	0xbdf02085	-0.117249526
154	0x3e49bd6d	0.19701166
155	0x3e08bc0a	0.13352981
156	0x3e0c8f58	0.13726556
157	0xbe078442	-0.13234046
158	0xbcb39db1	-0.021925779
159	0xbe154e17	-0.1458057
160	0xbd3a106f	-0.04542583
161	0x3e1cdafd	0.15317912
162	0xbd6f932f	-0.058489975
163	0x3d0ea6f0	0.034827173
164	0x3d70ce1d	0.058790315
165	0xbe1430ed	-0.14471789
166	0xbd9467a3	-0.0724633
167	0xbd4dfaa6	-0.050287865
168	0xbd06a83d	-0.03287529
169	0x3cb89c8a	0.022535581
170	0xbe0bf5cb	-0.13667981
171	0xbc82fa2f	-0.015988437
172	0x3c123b8a	0.008925328
173	0xbe447543	-0.19185357
174	0x3e5d5ee7	0.21618234
175	0x3e2577ab	0.16158931
176	0x3d44be35	0.048032958
177	0xbe3e3ee4	-0.18578678
178	0x3e63bfba	0.22241107
179	0x3d27a55c	0.040929183
180	0x3ded94e9	0.11600668
181	0x3d539256	0.05165323
182	0x3e1070fa	0.14105597
183	0x3da22ead	0.07919059
184	0x3e1b8a87	0.15189563
185	0xbd8d9c7c	-0.06914613
186	0x3e3d08e2	0.1846042
187	0x3e13ced1	0.14434363
188	0x3dc3876e	0.095473155
189	0xbd56dcc5	-0.052456636
190	0xbc149ed6	-0.009071073
191	0xbd28a618	-0.041174024
192	0x3e136437	0.14393698
193	0xbc5bf980	-0.013426185
194	0xbcb8ee93	-0.022574699
195	0xbc47914f	-0.01218064
196	0xb9a8fd89	-0.00032232355
197	0x3d139375	0.036029298
198	0x3e06b073	0.13153248
199	0xbd17509b	-0.036942106
200	0x3dc8cc48	0.098045886
201	0x3e99094c	0.29889905
202	0xbda2d42c	-0.07950625
203	0xba506be5	-0.0007950648
204	0x3d6374e1	0.055531386
205	0xbc80df5f	-0.015731512
206	0x3dc57c5d	0.09642861
207	0xbd958803	-0.07301333
208	0xbe0a9214	-0.13532287
209	0x3bad16a9	0.0052822423
210	0xbe014506	-0.12623987
211	0x3c042c3f	0.00806719
212	0x3d3a022d	0.04541223
213	0x3df27a17	0.11839693
214	0x3cc2e68a	0.02379157
215	0x3d945fbc	0.072448224
216	0x3df6e1fb	0.12054821
217	0x3e1a18b9	0.15048493
218	0x3e35dd04	0.17760092
219	0x3ca157ab	0.019695124
220	0x3dd30735	0.10304109
221	0xbdf68284	-0.12036613
222	0x3e001aea	0.12510267
223	0xbdf3f164	-0.11911276
224	0x3dbd6669	0.09248049
225	0xbdecde05	-0.11565784
226	0xbd0cfcb4	-0.034420684
227	0x3cdec304	0.0271926
228	0xbe073272	-0.13202837
229	0xbdaa4da1	-0.08315588
230	0x3dc2e950	0.09517157
231	0x3d845858	0.06462163
232	0xbe10f9a1	-0.14157726
233	0x3e220fcf	0.15826343
234	0xbc83976b	-0.016063413
235	0x3dc1478c	0.094374746
236	0x3e8183ca	0.2529586
237	0x3e6247ff	0.22097777
238	0x3cfd3d1b	0.030912926
239	0x3e29b600	0.16573334
240	0xbd036061	-0.032074336
241	0xbe2a5742	-0.16634849
242	0xbda9283c	-0.08259627
243	0xbc4fdcbf	-0.012686907
244	0x3e09b158	0.13446558
245	0xbde48d29	-0.11159737
246	0x3e153152	0.14569595
247	0xbdb282c9	-0.087163515
248	0x3e1d63ef	0.15370153
249	0xbdec2225	-0.1152995
250	0x3da5fa61	0.081043966
251	0xbd665678	-0.056234807
252	0xbd143d22	-0.036191113
253	0xbe135056	-0.14386114
254	0xbd9d06b7	-0.076672964
255	0x3d960644	0.07325414

conv2.conv3.0.bias f4 [16]
0	0xbc484ccc	-0.012225341
1	0xbd746707	-0.059668567
2	0x3b18a74c	0.0023293076
3	0x3d43640f	0.047702845
4	0x3b34f941	0.0027614387
5	0x3d568ad7	0.0523785
6	0xbd00ec86	-0.031475566
7	0x3d85cff3	0.06533804
8	0x3ca29bb2	0.019849632
9	0xbce55e56	-0.027999084
10	0x3d24875a	0.040168144
11	0x3d27d0e8	0.040970713
12	0xbd12501b	-0.035720926
13	0xbc784a09	-0.01515437
14	0x3d301dc6	0.042997144
15	0xbd965de0	-0.07342124

conv2.conv3.1.weight f4 [16]
0	0x3f849376	1.0357502
1	0x3f53f892	0.82801163
2	0x3f816652	1.0109351
3	0x3f991789	1.1960307
4	0x3f951880	1.1648102
5	0x3f753d48	0.9579663
6	0x3f848c26	1.035527
7	0x3f7b29b3	0.981105
8	0x3f72267c	0.9458997
9	0x3f7fc651	0.9991198
10	0x3f931238	1.1489935
11	0x3f4fc56c	0.81160617
12	0x3f870071	1.054701
13	0x3f7dbdb7	0.99117607
14	0x3f85e1fd	1.0459591
15	0x3f53d5f7	0.8274836

conv2.conv3.1.bias f4 [16]
0	0x3cc1b67d	0.023646588
1	0x3cdd6e40	0.02703011
2	0x3b3f4e9f	0.002919115
3	0xbcb2fbce	-0.021848585
4	0xbce9530c	-0.028481983
5	0x3da2d876	0.07951443
6	0xbc72acc2	-0.0148116965
7	0x3db14717	0.086561374
8	0xbd2660e8	-0.04061976
9	0xbdbb07c4	-0.091323406
10	0x3e3ec5fa	0.1863021
11	0x3d27e074	0.04098554
12	0x3d866f2e	0.065641746
13	0x3d3d7ac8	0.04625967
14	0x3d64b509	0.05583671
15	0xbd7b61b6	-0.06137248

conv2.conv3.1.running_mean f4 [16]
0	0x3cc61881	0.024181606
1	0x3f311a7e	0.6918105
2	0x3eaf871f	0.34282777
3	0xbf8b6ed0	-1.0893192
4	0xbf73c2c4	-0.95219064
5	0x3f5cccae	0.86249816
6	0x3e7a215f	0.24426793
7	0xbf9fb748	-1.2477808
8	0xbf5bf314	-0.8591778
9	0xbf62ec5f	-0.88641924
10	0xbf304078	-0.6884837
11	0x3fad7135	1.3550173
12	0xbe641db5	-0.22276957
13	0xbf8a17b8	-1.0788488
14	0xbf8a8a52	-1.0823462
15	0x3f3b7e5c	0.73239684

conv2.conv3.1.running_var f4 [16]
0	0x3ffc1a3b	1.9695505
1	0x402ba9da	2.682242
2	0x40012120	2.0176468
3	0x4048c8e6	3.1372619
4	0x406b12a7	3.6730134
5	0x401a369a	2.4095826
6	0x4014f3b7	2.3273752
7	0x3ffd31f7	1.9780873
8	0x404cdc97	3.2009637
9	0x401bf8ca	2.4370599
10	0x405372c3	3.3038795
11	0x40848b82	4.14203
12	0x3fa18957	1.2620038
13	0x402410f4	2.5635347
14	0x402ed919	2.7320006
15	0x40403621	3.0033038
