checkpoints/ifind1_sononet_8_6classes/010_net_6classes_emb_010.pth (torch_old, 671819 bytes, 90 tensors)

conv1.conv1.0.weight f4 [8, 1, 3, 3]
-0.017230352 -0.24790837 -0.23706096 0.45783 0.94473565 -1.046683 0.14410901 -0.10843506
-0.20555978 -1.0545017 0.292491 -0.81088 0.30177638 -0.12349334 -0.34332043 1.1453433
-0.011541146 0.7364082 0.17489018 -0.2630386 -0.086656734 -0.97650665 0.48693004 -0.027708843
-0.3091987 -0.33394027 -0.86807173 -1.0235661 0.20396543 -0.39968893 -0.031959586 0.13795267
0.101206064 -0.29507735 0.93310654 -0.19001222 0.07091404 0.27542552 -0.18423654 0.4272778
-0.41298896 -0.25232974 -0.33358738 -0.14911096 0.015298323 0.27106205 0.3266796 0.6221825
0.9555533 -0.3651035 0.18532662 -0.23016569 -0.19399323 0.107416734 0.21434337 0.07524037
-0.008890048 -0.8644788 0.24356234 0.2806429 -0.5421847 -0.053556796 0.44996887 -0.77161527
0.36730078 0.7617501 -0.2207326 0.52902734 -0.082087204 0.019755254 -0.10471307 -0.17730315
00000000: ab26 8dbc b1db 7dbe 1cc0 72be b268 ea3e
00000010: 32da 713f b5f9 85bf 5091 133e 3313 debd
00000020: 437e 52be e9f9 86bf 61c1 953e d595 4fbf
00000030: 6f82 9a3e 14ea fcbd b2c7 afbe 9c9a 923f
00000040: 1317 3dbc 3f85 3c3f 6916 333e ffac 86be
00000050: 1679 b1bd 57fc 79bf e54e f93e a8fd e2bc
00000060: 4b4f 9ebe 38fa aabe f339 5ebf 3704 83bf
00000070: 50dc 503e 07a4 ccbe 0ee8 02bd 7743 0d3e
00000080: 2045 cf3d 6114 97be 12e0 6e3f 9092 42be
00000090: 613b 913d 9304 8d3e 81a8 3cbe 28c4 da3e
000000a0: 4a73 d3be 5d31 81be f7cb aabe 8bb0 18be
000000b0: d1a5 7a3c a5c8 8a3e 8c42 a73e 5a47 1f3f
000000c0: 249f 743f d9ee babe 43c6 3d3e 8eb0 6bbe
000000d0: 29a6 46be 4efd db3d d47c 5b3e a017 9a3d
000000e0: 90a7 11bc 7c4e 5dbf 6868 793e 6db0 8f3e
000000f0: 9ecc 0abf 5f5e 5bbd 5262 e63e 9488 45bf
00000100: d90e bc3e 0e02 433f ba07 62be 566e 073f
00000110: 561d a8bd c5d5 a13c ce73 d6bd f58e 35be

conv1.conv1.0.bias f4 [8]
-0.017491512 -0.24620901 -0.19838315 0.09243454 -0.26666343 0.307574 0.02330913 0.14265686
00000000: 5c4a 8fbc 371e 7cbe f424 4bbe 524e bd3d
00000010: 1c88 88be 577a 9d3e caf2 be3c a414 123e

conv1.conv1.1.weight f4 [8]
1.0747285 1.0482228 0.8498904 1.0331817 0.9829369 1.0018278 1.0184886 1.0849051
00000000: b490 893f 2a2c 863f 6b92 593f 4c3f 843f
00000010: c1a1 7b3f e53b 803f d65d 823f 2cde 8a3f

conv1.conv1.1.bias f4 [8]
0.0493242 0.113716885 -0.11292731 -0.06722814 -0.10942273 0.039172992 0.0059847976 0.2758741
00000000: 2c08 4a3d 66e4 e83d 6f46 e7bd e8ae 89bd
00000010: 0619 e0bd dc73 203d 1f1c c43b 5f3f 8d3e

conv1.conv1.1.running_mean f4 [8]
-0.02048095 -0.2467263 -0.20282634 0.08901134 -0.26751184 0.3115698 0.023415098 0.14254777
00000000: aac7 a7bc d2a5 7cbe b5b1 4fbe 944b b63d
00000010: 50f7 88be 1486 9f3e 05d1 bf3c 0bf8 113e

conv1.conv1.1.running_var f4 [8]
0.19176996 0.6569884 4.5867405 0.45072472 0.3136923 2.760084 0.13155077 0.18788613
00000000: 585f 443e 6430 283f 94c6 9240 64c5 e63e
00000010: 479c a03e 37a5 3040 3fb5 063e 3965 403e

conv1.conv2.0.weight f4 [8, 8, 3, 3]
-0.03199196 0.18616958 -0.09476408 -0.0145386765 0.42883447 0.06823961 -0.25886115 -0.01366842
-0.10033423 0.35484603 -0.011721323 -0.21340533 0.14902006 0.25226465 0.17830357 -0.02499615
-0.01086698 -0.09829769 0.038853083 -0.014295181 -0.05299981 0.08116568 -0.010549182 0.08942488
-0.014384328 0.23022692 0.021646028 -0.12718317 0.07539585 -0.11283133 -0.18159607 0.08627988
0.11193829 0.1077703 0.09591826 -0.25007293 0.118689284 -0.18481386 0.2397306 0.20027904
-0.4061768 0.0372971 0.088093914 -0.13430832 -0.3048483 0.040294174 0.12381471 -0.20022826
0.16022545 0.11117316 0.23817654 0.37508422 0.37784895 -0.17954685 -0.39636537 -0.012476168
-0.27314684 -0.038575597 0.035618518 0.11109908 -0.09607631 0.0032787453 -0.12380645 -0.030107811
-0.061445735 -0.19722967 0.18062764 -0.030543633 -0.32701907 0.19187188 -0.02097977 -0.22538088
-0.10123028 0.075908795 -0.037871566 -0.05040299 0.20112962 0.103057794 0.3797163 -0.37612373
-0.33127412 -0.13707253 -0.058726862 0.24020986 -0.04725827 -0.26206967 0.07519012 -0.1852171
-0.026172096 -0.23016348 0.027720496 -0.16403593 -0.00015763853 -0.24797612 0.19882007 0.08944282
-0.020923272 0.22878931 -0.10000773 -0.18256512 0.12906072 -0.109424464 0.08365429 -0.23344907
0.016398465 0.20608522 0.03262672 0.040074956 0.140568 0.15528794 0.012599779 -0.020014625
-0.15762125 0.061171595 -0.021728631 -0.023460397 0.26847288 0.030526144 -0.19784006 0.20050758
0.2127879 0.11122157 -0.26349118 0.005846472 -0.1610875 0.184791 0.17295079 0.04002819
-0.14821218 -0.004369444 -0.13652985 0.038042825 -0.23110878 -0.29240823 0.4926822 -0.259248
-0.11452306 -0.030712672 0.1217731 -0.08320793 -0.014375535 0.13334401 0.019772438 0.14374141
0.21497388 -0.19274735 0.14869343 -0.034237705 -0.15781777 -0.16371909 -0.007668544 -0.10481826
-0.21752347 0.28684032 0.115939826 -0.060501523 0.05346436 0.1769382 0.07070812 0.1702898
0.15405957 -0.351123 -0.08713668 -0.18085949 -0.08390805 0.1248908 0.17305543 -0.02499464
0.09662606 -0.11601986 -0.08485483 -0.1796537 -0.105293304 -0.17855455 -0.20302701 -0.20571506
-0.027747873 0.07686242 -0.14279814 -0.07073408 0.2049679 0.050840866 0.044083443 0.1361176
0.26345733 -0.2687856 0.20011635 -0.15985966 0.12932123 -0.46100435 -0.13133766 0.17182659
0.0023800142 0.13206045 -0.10946803 -0.103334896 0.052345783 0.3693609 0.11431019 -0.124188505
0.04370043 -0.029031532 0.096688 0.093107834 0.047645673 0.106073335 -0.18369474 -0.5127306
-0.1531997 -0.024649682 -0.27228597 0.29422802 0.33481723 -0.07881971 0.3180293 0.37723646
0.2715298 -0.07510043 -0.15262945 0.075244166 -0.26290768 -0.04616392 -0.2748385 -0.13569392
-0.17328745 0.30403304 0.10449661 -0.26166788 0.13252121 0.0701639 -0.24708726 0.03235346
-0.12995782 0.5043343 0.03286524 0.029272871 -0.0038403491 0.265134 -0.012496287 -0.5244079
-0.07719692 -0.11392221 0.27417025 -0.27746415 -0.01228759 0.12900886 0.11458406 -0.051973846
0.07491814 -0.22249553 0.03857577 0.016945882 -0.12667678 -0.19137488 0.15617107 0.228615
00000000: 000a 03bd 3da3 3e3e ac13 c2bd a133 6ebc
00000010: 3190 db3e 35c1 8b3d 7389 84be 82f1 5fbc
00000020: 087c cdbd 61ae b53e cb0a 40bc ed86 5abe
00000030: b798 183e d528 813e 3695 363e bac4 ccbc
00000040: 6b0b 32bc 4d50 c9bd 6924 1f3d 5636 6abc
00000050: 5416 59bd 313a a63d 7ad6 2cbc 6424 b73d
00000060: 3fac 6bbc 9bc0 6b3e 0353 b13c 4e3c 02be
00000070: 2469 9a3d 1d14 e7bd 52f4 39be 81b3 b03d
00000080: e73f e53d adb6 dc3d cb70 c43d 8f09 80be
00000090: 5e13 f33d d83f 3dbe f07b 753e f315 4d3e
000000a0: 68f6 cfbe d8c4 183d 956a b43d 1f88 09be
000000b0: 1415 9cbe 810b 253d 9192 fd3d a308 4dbe
000000c0: 2412 243e c1ae e33d 8de4 733e 0a0b c03e
000000d0: 6b75 c13e 21db 37be 67f0 cabe d768 4cbc
000000e0: e7d9 8bbe 7201 1ebd b9e4 113d ea87 e33d
000000f0: a8c3 c4bd 38e0 563b 3c8e fdbd a8a4 f6bc
00000100: 86ae 7bbd 93f6 49be 74f6 383e a436 fabc
00000110: 0b6f a7be 107a 443e c4dd abbc 3fca 66be
00000120: d251 cfbd 1276 9b3d 371f 1bbd 5e73 4ebd
00000130: ecf4 4d3e f70f d33d 2d6a c23e 4a93 c0be
00000140: c39c a9be be5c 0cbe 948b 70bd 93f9 753e
00000150: e391 41bd ff2d 86be 47fd 993d 8da9 3dbe
00000160: dd66 d6bc faaf 6bbe 1816 e33c 09f9 27be
00000170: c54b 25b9 74ed 7dbe 7d97 4b3e cc2d b73d
00000180: 4867 abbc bf47 6a3e dad0 ccbd 5af2 3abe
00000190: 7e28 043e ef19 e0bd f152 ab3d 460d 6fbe
000001a0: 1356 863c 0108 533e 98a3 053d a325 243d
000001b0: 0ff1 0f3e cd03 1f3e 4e6f 4e3c b6f5 a3bc
000001c0: 7767 21be 118f 7a3d 3e00 b2bc 0530 c0bc
000001d0: 4775 893e f711 fa3c 9696 4abe dc51 4d3e
000001e0: 12e5 593e 22c8 e33d 51e8 86be c393 bf3b
000001f0: 1ff4 24be da39 3d3e 031a 313e 99f4 233d
00000200: efc4 17be 8e2d 8fbb 7bce 0bbe cbd2 1b3d
00000210: c8a7 6cbe 88b6 95be d740 fc3e 27bc 84be
00000220: 118b eabd 2499 fbbc 2d64 f93d eb68 aabd
00000230: 5d87 6bbc 558b 083e cff9 a13c f330 133e
00000240: 1d22 5c3e 905f 45be 1743 183e d63c 0cbd
00000250: fb9a 21be faa5 27be 6948 fbbb f5aa d6bd
00000260: 79be 5ebe bcdc 923e dc71 ed3d 72d0 77bd
00000270: 72fd 5a3d 4a2f 353e 6bcf 903d 7360 2e3e
00000280: cbc1 1d3e 65c6 b3be b774 b2bd 3b33 39be
00000290: fcd7 abbd bfc6 ff3d 7135 313e 8fc1 ccbc
000002a0: e2e3 c53d d29b edbd 5ec8 adbd 24f7 37be
000002b0: 04a4 d7bd 01d7 36be 50e6 4fbe f8a6 52be
000002c0: 824f e3bc 0b6a 9d3d ad39 12be 08dd 90bd
000002d0: 1be3 513e 833e 503d d790 343d 6a62 0b3e
000002e0: e1e3 863e 449e 89be 4deb 4c3e 40b2 23be
000002f0: c96c 043e c308 ecbe 617d 06be 4ff3 2f3e
00000300: 03fa 1b3b db3a 073e c630 e0bd 3fa1 d3bd
00000310: 8868 563d df1c bd3e 761b ea3d 8b56 febd
00000320: 39ff 323d 89d3 edbc 5c04 c63d 52af be3d
00000330: 1c28 433d fa3c d93d 791a 3cbe 5042 03bf
00000340: 62e0 1cbe 21ee c9bc 1169 8bbe 0ea5 963e
00000350: 2a6d ab3e 3a6c a1bd bdd4 a23e 2325 c13e
00000360: f405 8b3e 41ce 99bd e54a 1cbe 9d19 9a3d
00000370: d69b 86be 6116 3dbd a2b7 8cbe 59f3 0abe
00000380: 4472 31be 38aa 9b3e 5202 d63d 55f9 85be
00000390: a4b3 073e 17b2 8f3d 7104 7dbe 1085 043d
000003a0: aa13 05be 0d1c 013f b49d 063d a9cd ef3c
000003b0: 5eae 7bbb a5bf 873e 3abd 4cbc 993f 06bf
000003c0: 6b19 9ebd 0c50 e9bd 0b60 8c3e c80f 8ebe
000003d0: e351 49bc e61a 043e 0cab ea3d 87e2 54bd
000003e0: af6e 993d ded5 63be a001 1e3d 17d2 8a3c
000003f0: 8fb7 01be c7f7 43be 4feb 1f3e 0d1a 6a3e

conv1.conv2.0.bias f4 [8]
-0.10358738 0.04872981 -0.000725864 0.026596602 0.020985246 -0.1090616 -0.004734455 -0.08158852
00000000: 9f25 d4bd e998 473d e947 3eba 1ee1 d93c
00000010: 40e9 ab3c b05b dfbd 7d23 9bbb e217 a7bd

conv1.conv2.1.weight f4 [8]
1.0411227 1.1477879 0.93206066 1.032837 0.9130117 1.0405385 1.0429366 0.94554055
00000000: 8243 853f b7ea 923f 879b 6e3f 0134 843f
00000010: 23bb 693f 5e30 853f f27e 853f f20e 723f

conv1.conv2.1.bias f4 [8]
0.07140475 0.10217581 -0.07556943 -0.010895072 -0.16161385 0.07889092 0.01533832 -0.019774064
00000000: a73c 923d 8d41 d13d 25c4 9abd 3e81 32bc
00000010: 1a7e 25be 9091 a13d 944d 7b3c 38fd a1bc

conv1.conv2.1.running_mean f4 [8]
-0.015572901 -0.113259576 -0.04126208 -0.42833784 0.20257846 -0.80138505 -0.8107062 0.5804851
00000000: 7b25 7fbc a3f4 e7bd 6d02 29bd 194f dbbe
00000010: ba70 4f3e 9227 4dbf 718a 4fbf ac9a 143f

conv1.conv2.1.running_var f4 [8]
1.3051095 0.44860607 1.151447 0.59611815 0.8548773 1.812764 2.111646 2.2071896
00000000: d40d a73f b2af e53e 9e62 933f 339b 183f
00000010: 3dd9 5a3f a708 e83f 3525 0740 9842 0d40

conv1.conv3.0.weight f4 [8, 8, 3, 3]
0.20305917 0.13055024 0.14690234 -0.35104233 -0.25376555 0.10090249 0.14848669 0.06803279
-0.024127934 -0.05566645 0.038582284 0.09788469 0.035627946 0.11128636 -0.169683 0.052995663
-0.022812052 -0.12884675 0.14764619 0.12801577 -0.13364287 0.09098649 -0.35357368 -0.21021147
-0.11986166 -0.2233577 0.116354205 -0.13599484 -0.2591621 0.14319257 -0.07031884 -0.07891532
0.006631729 0.08424443 -0.3845174 0.26273298 -0.07072733 -0.048276965 -0.3708158 -0.22550647
-0.36366865 -0.10583501 0.15415516 0.15566932 0.09717204 -0.15616903 0.060598288 -0.29011783
-0.32269597 -0.30106014 -0.16850823 0.24894826 -0.36916342 0.07854081 0.30119565 0.04757502
-0.22151546 -0.39063758 -0.008715291 0.029191887 -0.23932305 -0.058242835 0.20530453 0.046013102
-0.15565358 0.06470202 0.071284175 -0.15982531 -0.2989192 -0.09463979 0.045568436 -0.02759423
0.14638306 -0.08600908 -0.012379876 -0.04474342 -0.10314027 -0.108085886 0.12609974 0.06619443
-0.10561271 -0.20894524 -0.00945848 0.32865304 0.07243189 -0.13078761 0.029642351 0.26576304
-0.35615665 0.020393332 -0.003916471 -0.060544692 -0.3424646 -0.3356357 -0.15390232 -0.05446402
0.052195333 -0.25580814 -0.18148865 0.31813183 -0.055260263 -0.14687446 0.2708153 -0.31839854
-0.03538198 -0.06885714 -0.24471752 0.079280876 -0.17022415 -0.12958723 0.14287396 -0.27337626
0.13571675 -0.0078083505 0.0076120747 -0.2601185 -0.05080791 -0.06958803 0.073994875 -0.019257776
0.09167168 0.21616004 0.17239286 0.06730487 -0.15936667 -0.0486457 0.024513392 0.36414045
0.17419967 -0.08269009 0.16761056 -0.12388674 0.16639356 -0.010476676 0.0056189094 -0.09905467
0.31834108 -0.20771003 -0.36230728 -0.016715383 0.04887378 0.24879554 0.24385366 -0.22144085
-0.056465387 0.13789776 -0.34865937 0.3337018 0.15988003 -0.2062416 0.13064419 0.11106994
-0.003132438 -0.11085367 -0.237215 -0.0011465783 0.19421682 0.07090989 -0.023758667 0.1995926
-0.018943034 -0.10876208 0.27273464 -0.016128276 0.16564329 0.062242158 0.035410043 0.30990657
-0.08617085 0.030218353 0.33506733 0.092275076 0.34132206 0.021099972 0.13286243 0.16293873
0.14626339 0.15801063 -0.017112704 0.0076533477 -0.04472096 -0.31165275 -0.040608067 0.18991022
-0.28194207 -0.3116751 -0.032247975 0.20715189 0.03044856 -0.20348112 -0.20683245 -0.07414811
-0.16233543 0.14334251 -0.18723331 -0.090994366 -0.010463382 -0.16707428 -0.101292446 -0.1249191
-0.06113622 0.18449108 0.1765458 0.09582381 0.067258276 -0.11479293 -0.17351222 -0.09152071
-0.24239795 -0.008172932 0.100984626 -0.20881929 -0.107140765 0.11868934 -0.22022285 0.2719057
-0.24146126 -0.045499414 -0.09224396 0.08029403 -0.29876783 -0.028325964 -0.26040167 -0.19208543
0.35939163 0.09660163 -0.57238 0.17488322 0.30599755 -0.04029187 -0.12814803 -0.37158066
0.28650954 0.122733265 -0.24019986 -0.06251199 -0.11318504 -0.14949827 -0.015820231 0.33241993
0.19360538 -0.22376177 -0.30519676 -0.32816058 0.37157694 0.0042715427 -0.023563497 0.2253632
-0.00803078 0.18472134 0.15185863 -0.25092483 -0.29943213 0.033913605 0.07343249 0.13442591
00000000: beee 4f3e f6ae 053e 916d 163e d2bb b3be
00000010: 8fed 81be f7a5 ce3d e50c 183e c754 8b3d
00000020: f2a7 c5bc 8102 64bd 7508 1e3d c577 c83d
00000030: 9cee 113d 1aea e33d 61c1 2dbe fb11 593d
00000040: 57e0 babc 67f0 03be 9030 173e 9116 033e
00000050: add9 08be 2057 ba3d 9c07 b5be ad41 57be
00000060: 087a f5bd e2b7 64be 1d4b ee3d 3b42 0bbe
00000070: e5b0 84be 13a1 123e 5303 90bd 5b9e a1bd
00000080: fa4e d93b 5888 ac3d 77df c4be f084 863e
00000090: 7ed9 90bd 11be 45bd 92db bdbe 2beb 66be
000000a0: c732 babe 07c0 d8bd dada 1d3e c767 1f3e
000000b0: 2202 c73d c6ea 1fbe e935 783d 538a 94be
000000c0: 6838 a5be 8e24 9abe 6c8d 2cbe 4bec 7e3e
000000d0: fd02 bdbe 01da a03d 5136 9a3e 06de 423d
000000e0: f3d4 62be a601 c8be 94ca 0ebc d323 ef3c
000000f0: 1a11 75be 0a90 6ebd 5a3b 523e 3c78 3c3d
00000100: a763 1fbe 7e82 843d 70fd 913d 3fa9 23be
00000110: f00b 99be 82d2 c1bd f8a5 3a3d 4b0d e2bc
00000120: 71e5 153e 8725 b0bd f7d4 4abc e044 37bd
00000130: 353b d3bd 225c ddbd 4a20 013e f290 873d
00000140: 7a4b d8bd bef5 55be bef7 1abc 3645 a83e
00000150: 2c57 943d 30ed 05be 84d4 f23c 1812 883e
00000160: 2a5a b6be eb0f a73c bd55 80bb b6fd 77bd
00000170: 8557 afbe 71d8 abbe 9298 1dbe aa15 5fbd
00000180: c6ca 553d 49f9 82be 29d8 39be 2de2 a23e
00000190: 9658 62bd 4266 16be 4ea8 8a3e 2205 a3be
000001a0: b2ec 10bd f904 8dbd 3b97 7abe 035e a23d
000001b0: 3d4f 2ebe 84b2 04be 8d4d 123e f9f7 8bbe
000001c0: 55f9 0a3e 31dd ffbb b66e f93b 412e 85be
000001d0: f41b 50bd 2b84 8ebd a08a 973d 7cc2 9dbc
000001e0: 5dbe bb3d 0f59 5d3e c187 303e 23d7 893d
000001f0: 0431 23be b740 47bd 4fd0 c83c 9e70 ba3e
00000200: 6661 323e 6c59 a9bd 1aa2 2b3e 55b8 fdbd
00000210: 1363 2a3e 5da6 2bbc d41e b83b 2ddd cabd
00000220: 9afd a23e f0b1 54be 5780 b9be b3ee 88bc
00000230: df2f 483d 42c4 7e3e c6b4 793e 64c1 62be
00000240: 4048 67bd 1235 0d3e 7b83 b2be f6da aa3e
00000250: 97b7 233e ff30 53be 97c7 053e a378 e33d
00000260: 9749 4dbb 4007 e3bd 7de8 72be c948 96ba
00000270: c6e0 463e 3439 913d 89a1 c2bc 0162 4c3e
00000280: 6c2e 9bbc a7be debd e0a3 8b3e 721f 84bc
00000290: 659e 293e a2f1 7e3d 1f0a 113d 13ac 9e3e
000002a0: 587a b0bd 7b8c f73c f28d ab3e b7fa bc3d
000002b0: c4c1 ae3e d9d9 ac3c 170d 083e 69d9 263e
000002c0: 12c6 153e 8acd 213e f12f 8cbc efc8 fa3b
000002d0: 532d 37bd f390 9fbe a554 26bd d377 423e
000002e0: b65a 90be e193 9fbe 7416 04bd a01f 543e
000002f0: 426f f93c 5b5d 50be e3cb 53be f7da 97bd
00000300: 423b 26be 61c8 123e 17ba 3fbe 415b babd
00000310: 9b6e 2bbc 8515 2bbe 6a72 cfbd 96d5 ffbd
00000320: f969 7abd 3beb 3c3e 6cc8 343e 463f c43d
00000330: b5be 893d 8e18 ebbd 30ad 31be 366f bbbd
00000340: 2b37 78be c3e7 05bc 07d1 ce3d b9d4 55be
00000350: 9e6c dbbd 6613 f33d 1982 61be 3937 8b3e
00000360: 9f41 77be 985d 3abd 67ea bcbd 3271 a43d
00000370: 19f8 98be da0b e8bc 5e53 85be 0bb2 44be
00000380: 2e02 b83e 13d7 c53d 7f87 12bf 9614 333e
00000390: b6ab 9c3e 1609 25bd 3d39 03be d23f bebe
000003a0: 61b1 923e 945b fb3d f4f6 75be 4906 80bd
000003b0: 8fcd e7bd 1316 19be 6e99 81bc f232 aa3e
000003c0: 7d40 463e ce21 65be c042 9cbe aa04 a8be
000003d0: 553f be3e 4cf8 8b3b 3c08 c1bc 9cc5 663e
000003e0: 8893 03bc 9727 3d3e d480 1b3e 3879 80be
000003f0: 2b4f 99be fee8 0a3d c663 963d f2a6 093e

conv1.conv3.0.bias f4 [8]
-0.02631146 -0.014362312 -0.075398184 0.007087849 -0.0726608 -0.0943683 0.10597378 -0.0024444673
00000000: 228b d7bc e74f 6bbc 5d6a 9abd 3041 e83b
00000010: 2fcf 94bd 2b44 c1bd c808 d93d 5b33 20bb

conv1.conv3.1.weight f4 [8]
1.0253235 1.0829717 1.0289758 0.96338993 0.8990651 1.0522786 1.0402544 0.97125745
00000000: cd3d 833f d19e 8a3f 7bb5 833f b9a0 763f
00000010: 2129 663f 11b1 863f 0e27 853f 54a4 783f

conv1.conv3.1.bias f4 [8]
0.02497279 0.13047363 0.17712332 0.09912554 0.048754737 0.11106566 0.080052204 0.09540449
00000000: bd93 cc3c e19a 053e d15f 353e 5502 cb3d
00000010: 0cb3 473d 6576 e33d 69f2 a33d 6e63 c33d

conv1.conv3.1.running_mean f4 [8]
-1.3160524 -0.26150006 0.029337913 -0.34259087 -1.1411327 -0.6651079 -0.1484127 -0.4302
00000000: 6874 a8bf 56e3 85be 1056 f03c 1268 afbe
00000010: a310 92bf 8344 2abf 80f9 17be 2d43 dcbe

conv1.conv3.1.running_var f4 [8]
1.0780578 1.6781727 1.964581 0.7461465 1.6976056 2.6286454 1.4518057 1.6274027
00000000: ccfd 893f 5dce d63f 6477 fb3f 7503 3f3f
00000010: 244b d93f ba3b 2840 c5d4 b93f bb4e d03f

conv2.conv1.0.weight f4 [16, 8, 3, 3]
-0.03667639 0.03129525 -0.15769427 -0.26195383 0.02991744 0.3588091 0.25148398 -0.08704964
0.08417091 0.022484096 -0.03952238 0.013252105 -0.1884551 -0.080564275 -0.08405804 0.07054524
0.13024677 -0.18537681 -0.0947849 -0.39266253 0.12252244 -0.02403067 0.2995293 0.120972894
0.17048173 0.2354125 -0.009273678 0.14349943 0.11721987 0.048370935 0.31810004 -0.111332156
-0.30275226 -0.092925176 -0.02854824 -0.023047045 0.023936527 -0.09094523 -0.012262914 0.2851483
-0.09153782 -0.033205505 -0.16036558 -0.04810233 -0.09714051 -0.028836418 -0.18027641 0.104524404
-0.2045791 -0.13701613 -0.15303658 -0.21218027 -0.13773577 -0.20303437 -0.25597307 -0.14427039
-0.087778494 0.019784212 -0.042228833 -0.03290177 0.008799359 -0.14302179 -0.02813669 0.15775909
-0.09690493 0.100231364 -0.0027068781 0.2501736 0.006590047 0.0021593806 0.13134788 0.33080328
-0.09777361 0.08921633 -0.34158093 -0.069707416 -0.18794505 -0.2596275 0.22478145 -0.12715009
0.24428429 0.32051462 0.26316538 0.08785683 0.23090833 0.24372683 -0.0981482 0.0019939695
0.22388048 0.18538202 -0.17425582 -0.1512905 -0.27385676 0.14477803 -0.14924851 -0.29206458
-0.19398421 0.22220156 0.0371699 -0.032984503 -0.19488655 0.029905275 0.3243659 -0.28796664
0.11759271 0.117837876 -0.26301226 0.19204019 0.042406235 -0.0011250753 -0.23138621 0.089888394
-0.013603151 -0.11611948 -0.079499535 0.15308689 -0.11112916 -0.16113862 -0.0072542923 0.010706034
-0.10502022 -0.049496334 -0.35182554 0.20406426 -0.09060173 0.22438747 0.073962465 0.22319365
-0.15692928 0.29901183 0.113879666 0.08933956 0.08387912 0.19664346 -0.107527845 -0.008704701
0.0015503713 0.09260578 0.20241983 -0.4364349 -0.10389562 0.13994756 -0.03449835 0.0110407
-0.15122616 -0.14934875 0.08627491 -0.127209 0.08745749 0.5313205 0.08206376 -0.18014075
0.1454142 -0.025313102 -0.15907927 -0.22132957 0.15861325 -0.038743023 0.22181232 -0.18949972
0.039901108 0.17569466 -0.18916681 -0.2905828 -0.24277687 -0.119627565 0.14634013 0.2309706
0.20234351 0.18695796 -0.17837137 -0.17997156 0.4989164 0.2128872 0.033404864 0.30866793
-0.025712982 0.14567755 -0.017964533 0.009126285 0.19262892 0.15295783 0.03888596 -0.04451279
-0.014217691 -0.12132613 -0.117189 0.01735243 0.08098853 -0.18978786 -0.27882963 0.13241802
-0.118885666 0.119535044 -0.22454605 -0.021640727 0.14252818 0.014796363 -0.19207315 -0.27162066
-0.33398223 -0.14281778 -0.06015026 0.034788515 0.23469834 0.012630875 -0.059671205 -0.16409501
-0.11164112 0.11893235 -0.13083775 0.31090632 0.013874717 -0.08711564 -0.2929116 0.03854589
0.0902425 -0.16432905 0.061301712 -0.29154608 -0.06541794 0.023649735 0.32774007 -0.014965949
-0.1395387 -0.22864121 -0.15509106 -0.25722057 -0.08269841 0.24989945 0.106355 0.055144425
-0.14182955 -0.07927518 0.015757024 0.008379125 -0.03998593 -0.17437632 -0.06729426 0.07346755
-0.105797485 0.09121251 0.13830549 0.09154885 -0.05829109 -0.020075725 -0.31797376 0.090982474
-0.042962316 -0.2812318 -0.04831294 0.21086721 0.0065530553 -0.022392897 -0.08909466 0.23101825
00000000: fb39 16bd 732f 003d 9b7a 21be d01e 86be
00000010: 6b15 f53c d4b5 b73e 82c2 803e 1547 b2bd
00000020: cc61 ac3d 9130 b83c 38e2 21bd 5b1f 593c
00000030: 60fa 40be e2fe a4bd 9f26 acbd 067a 903d
00000040: 695f 053e 6bd3 3dbe 961e c2bd 100b c9be
00000050: 0ced fa3d f8db c4bc e85b 993e a3c0 f73d
00000060: c392 2e3e f90f 713e a0f0 17bc 84f1 123e
00000070: f910 f03d 9a20 463d 02de a23e 1d02 e4bd
00000080: 5802 9bbe 8e4f bebd 00de e9bc 28cd bcbc
00000090: 8916 c43c 7e41 babd 64ea 48bc f5fe 913e
000000a0: 2e78 bbbd 7f02 08bd e036 24be f306 45bd
000000b0: 9bf1 c6bd 5a3a ecbc 619a 38be e410 d63d
000000c0: 2f7d 51be f54d 0cbe 9fb5 1cbe c945 59be
000000d0: 9b0a 0dbe 3ee8 4fbe e70e 83be 9ebb 13be
000000e0: 36c5 b3bd 8012 a23c 24f8 2cbd 02c4 06bd
000000f0: 302b 103c 4e74 12be ea7e e6bc 998b 213e
00000100: 1876 c6bd 1a46 cd3d e165 31bb c116 803e
00000110: 52f1 d73b 6584 0d3b 0f80 063e 0c5f a93e
00000120: 883d c8bd 0db7 b63d b2e3 aebe c3c2 8ebd
00000130: ab74 40be e5ed 84be 1c2d 663e a233 02be
00000140: a925 7a3e 7e1a a43e 9dbd 863e 48ee b33d
00000150: 3c73 6c3e 8793 793e ec01 c9bd 42ad 023b
00000160: ed40 653e c9d4 3d3e 1e70 32be e6eb 1abe
00000170: f436 8cbe b140 143e 9ad4 18be 7d89 95be
00000180: cca3 46be ce88 633e 773f 183d c21a 07bd
00000190: 5790 47be e8fb f43c 4a13 a63e 5d70 93be
000001a0: 72d4 f03d fc54 f13d 8ba9 86be 2fa6 443e
000001b0: 29b2 2d3d 4377 93ba 82f0 6cbe 6817 b83d
000001c0: c0df 5ebc 0dd0 edbd a7d0 a2bd cfc2 1c3e
000001d0: af97 e3bd 8601 25be 6ab5 edbb 5c68 2f3c
000001e0: d714 d7bd abbc 4abd 7a22 b4be 39f6 503e
000001f0: 668d b9bd d4c5 653e a279 973d e08c 643e
00000200: 12b2 20be 1418 993e be39 e93d a9f7 b63d
00000210: d1c8 ab3d e75c 493e 8f37 dcbd 2a9e 0ebc
00000220: d435 cb3a 19a8 bd3d 2547 4f3e 6574 dfbe
00000230: 3ac7 d4bd 6a4e 0f3e 244e 0dbd 0de4 343c
00000240: 08db 1abe e1ee 18be e6b0 b03d 1343 02be
00000250: ea1c b33d 9f04 083f 0b11 a83d d176 38be
00000260: 76e7 143e 6c5d cfbc ade5 22be 38a4 62be
00000270: 836b 223e 01b1 1ebd c522 633e 370c 42be
00000280: 586f 233d 4de9 333e f2b4 41be 45c7 94be
00000290: 809a 78be 4cff f4bd 30da 153e 8f83 6c3e
000002a0: 2333 4f3e e871 3f3e fca6 36be 774a 38be
000002b0: f871 ff3e 1aff 593e 8ad3 083d b909 9e3e
000002c0: 08a4 d2bc 7f2c 153e 5b2a 93bc 6a86 153c
000002d0: 8440 453e faa0 1c3e e246 1f3d 0b53 36bd
000002e0: 51f1 68bc d679 f8bd c900 f0bd af26 8e3c
000002f0: 50dd a53d c057 42be c2c2 8ebe 9798 073e
00000300: 547a f3bd cace f43d 66ef 65be e547 b1bc
00000310: e8f2 113e 726c 723c d3ae 44be dd11 8bbe
00000320: b8ff aabe d33e 12be 1e60 76bd 677e 0e3d
00000330: c354 703e bbf1 4e3c cb69 74bd 8608 28be
00000340: 19a4 e4bd ce92 f33d 55fa 05be 1d2f 9f3e
00000350: c852 633c af69 b2bd 82f8 95be 4ce2 1d3d
00000360: 0fd1 b83d e045 28be 8117 7b3d 8745 95be
00000370: d7f9 85bd 17bd c13c 8ccd a73e bd33 75bc
00000380: 3ce3 0ebe ec20 6abe 31d0 1ebe 6ab2 83be
00000390: c95d a9bd a4e5 7f3e a6d0 d93d 1fdf 613d
000003a0: c43b 11be 075b a2bd e014 813c 9948 093c
000003b0: 49c8 23bd b58f 32be 93d1 89bd 2876 963d
000003c0: 5aac d8bd a0cd ba3d f49f 0d3e f77d bb3d
000003d0: a3c2 6ebd d975 a4bc 75cd a2be 0555 ba3d
000003e0: 41f9 2fbd 9dfd 8fbe cae3 45bd 93ed 573e
000003f0: 03bb d63b 4f71 b7bc 4377 b6bd 0c90 6c3e

conv2.conv1.0.bias f4 [16]
-0.07814392 -0.03380478 0.102601014 0.038299758 0.11333005 -0.00071112404 -0.06252786 0.021647856
-0.0069610416 -0.024692303 0.00030853518 -0.07054669 0.035924163 -0.01732502 -0.08512876 -0.100978486
00000000: eb09 a0bd e276 0abd 7b20 d23d 35e0 1c3d
00000010: 9619 e83d ba6a 3aba 9b0e 80bd d856 b13c
00000020: 7319 e4bb 8347 cabc e4c2 a139 c87a 90bd
00000030: 3725 133d 33ed 8dbc fd57 aebd cfcd cebd

conv2.conv1.1.weight f4 [16]
1.0239028 1.0671211 0.9769722 0.9321089 1.0565095 0.8501333 1.0118774 1.0725697
0.865111 0.9208596 0.98755854 1.1160785 0.9009317 1.0425512 0.97983444 1.10262
00000000: 3f0f 833f 6d97 883f da1a 7a3f b09e 6e3f
00000010: b43b 873f 56a2 593f 3385 813f f749 893f
00000020: ea77 5d3f 74bd 6b3f a3d0 7c3f a9db 8e3f
00000030: 76a3 663f 5172 853f 6ed6 7a3f a722 8d3f

conv2.conv1.1.bias f4 [16]
0.019388929 0.13696541 -0.0019808263 -0.010399727 0.023265311 -0.04688166 0.03395302 0.09475862
0.0010097316 -0.105711624 -0.07131076 0.003986244 -0.08014983 0.046435475 -0.04793584 0.04081507
00000000: 88d5 9e3c a940 0c3e c0d0 01bb 9e63 2abc
00000010: e596 be3c fc06 40bd 5212 0b3d cf10 c23d
00000020: f858 843a 567f d8bd 600b 92bd 0a9f 823b
00000030: 9825 a4bd 2033 3e3d 5f58 44bd b42d 273d

conv2.conv1.1.running_mean f4 [16]
-0.5292041 0.13318695 -0.030095035 -0.11223485 1.3114572 0.26247504 -1.0882814 -0.7909285
-0.25606865 0.18833108 0.20358422 -1.4393287 -1.6980603 0.2032247 -0.59427506 -2.2747107
00000000: eb79 07bf 2962 083e dd89 f6bc 63db e5bd
00000010: d4dd a73f 2163 863e ce4c 8bbf 4a7a 4abf
00000020: 6e1b 83be ddd9 403e 6278 503e ec3b b8bf
00000030: 0a5a d9bf 231a 503e 6922 18bf dc94 11c0

conv2.conv1.1.running_var f4 [16]
2.0167868 1.2057053 1.8727564 1.7409792 0.7709993 1.0077299 2.0679529 1.0029782
1.0986233 1.5160179 1.0129633 1.3197374 0.8245091 1.836845 1.9735768 1.0755234
00000000: 0913 0140 8d54 9a3f 7bb6 ef3f 68d8 de3f
00000010: 3660 453f 4bfd 803f 5759 0440 9761 803f
00000020: b09f 8c3f e00c c23f c8a8 813f 28ed a83f
00000030: 0713 533f bd1d eb3f 2a9e fc3f c0aa 893f

conv2.conv2.0.weight f4 [16, 16, 3, 3]
-0.14465535 0.10974102 0.12166566 -0.048602637 -0.29621923 -0.023959888 -0.20019968 0.07486229
-0.12571192 0.03351196 0.12117308 0.03152829 -0.30426514 0.15362749 -0.22651598 -0.06406546
-0.031334747 -0.04013204 0.0480483 0.09577322 -0.33339033 0.038853087 0.022284862 -0.1621296
0.02268283 -0.054579724 -0.053583648 0.017793417 -0.07936371 0.12837003 -0.0495609 0.19480588
0.088503994 -0.023921946 -0.04340681 -0.086623184 0.19673248 -0.10699931 0.07412957 -0.28713512
0.030063668 -0.036284342 0.2427202 -0.22351557 -0.21223666 0.11934459 -0.20315883 0.2030448
-0.14621536 0.12133096 -0.043500163 -0.033133104 -0.048123043 0.19449753 -0.06949017 0.1413842
0.15697986 -0.016889766 0.3860591 0.09082493 0.14774287 -0.00030697766 -0.00615892 0.13301302
-0.008441189 -0.15185955 0.07010312 -0.29645675 -0.169296 -0.045556072 -0.005930705 -0.054176096
0.10587153 -0.036273398 -0.14191672 -0.22032043 0.0011374063 -0.07638819 -0.06968612 0.18078429
0.075919285 -0.09675924 -0.0113161765 0.16214505 0.10506517 -0.058051825 -0.23125543 -0.18103543
-0.105792046 -0.04802928 0.087061495 0.1298162 -0.03965057 -0.1693598 0.16486907 -0.24113123
-0.049822066 0.10943572 -0.105931275 0.07899478 0.090472594 0.08792169 -0.017101057 -0.043265793
0.070122205 0.19822654 0.0608617 0.2460209 -0.07203804 0.077450894 -0.045579333 -0.08034142
-0.1851938 0.020505428 -0.021432206 0.011131266 -0.047873866 0.07812707 0.21153155 -0.13300423
-0.101735264 -0.21121497 -0.03643423 0.06954315 0.052869268 -0.14972375 -0.14976528 -0.033439625
0.1778796 -0.1127472 0.03986211 -0.11663974 0.060398787 0.027911374 -0.18542959 -0.05366856
0.08921219 -0.053708803 0.07724678 -0.035960626 -0.019587997 -0.29872742 0.07728265 -0.087582946
-0.09317726 0.029816158 0.14449188 -0.0018717264 0.07161059 0.061499186 -0.057789475 0.08153359
-0.081031986 0.1571971 0.23971441 0.014844956 -0.1352819 0.00882449 0.035481237 0.065490216
-0.20214725 -0.009863765 0.06808282 0.02443198 -0.120024934 0.22176231 -0.12842473 0.03599657
-0.15369563 0.11647299 0.18180409 0.16737325 0.07355099 -0.051804822 0.15443815 -0.046663407
0.1451853 0.1717243 0.12625463 0.058662627 -0.2027882 0.020814247 0.02446464 -0.0790934
0.052250624 0.016283331 -0.1410844 -0.044972155 -0.058784753 0.08081575 0.0063858484 -0.0995419
-0.026489452 0.105479985 -0.24765615 0.060908895 -0.048448052 0.026629765 -0.031029979 -0.116872445
0.09264181 0.09547595 -0.14240569 -0.07723657 0.053996276 0.0523242 0.052718047 -0.20828664
-0.026964234 -0.08202312 -0.066022955 -0.11851655 -0.12580872 -0.17687064 0.05379017 0.036633816
0.26483777 -0.032189086 -0.11326422 -0.022087945 0.15751888 0.027249964 -0.048954874 0.10364558
0.23306844 -0.046709627 -0.07615098 -0.2018021 -0.12990636 -0.05490209 -0.17069298 -0.17695801
-0.09016943 0.046653006 0.05622087 0.16903517 -0.047793962 0.21915677 0.12581973 0.07950087
0.100217 0.28051227 -0.15462871 -0.056134075 0.3886995 0.11282412 -0.050354544 -0.18938933
0.039526 -0.13260035 0.08507426 -0.14199474 0.109366365 -0.46886843 0.29349393 0.11691327
00000000: 8820 14be e6bf e03d d82b f93d 8f13 47bd
00000010: 0caa 97be 8747 c4bc 2501 4dbe 6651 993d
00000020: a0ba 00be d643 093d 9729 f83d cf23 013d
00000030: a4c8 9bbe 8650 1d3e cef3 67be c034 83bd
00000040: dd58 00bd 7e61 24bd 4bce 443d c024 c43d
00000050: 23b2 aabe 6a24 1f3d be8e b63c 4d05 26be
00000060: 58d1 b93c fd8e 5fbd 877a 5bbd 80c3 913c
00000070: 7189 a2bd 6f73 033e 5f00 4bbd 317b 473e
00000080: 9541 b53d f5f7 c3bc 57cb 31bd 7f67 b1bd
00000090: 3d74 493e 7422 dbbd 3ed1 973d 6003 93be
000000a0: 1548 f63c e49e 14bd a58b 783e 44e1 64be
000000b0: 9154 59be f06a f43d de08 50be faea 4f3e
000000c0: 7bb9 15be 5e7c f83d 3a2d 32bd 94b6 07bd
000000d0: ab1c 45bd 5c2a 473e dd50 8ebd 05c7 103e
000000e0: 54bf 203e 685c 8abc 8aa9 c53e 6c02 ba3d
000000f0: e849 173e d8f1 a0b9 c4d0 c9bb 9134 083e
00000100: ea4c 0abc 1281 1bbe 3992 8f3d 2ec9 97be
00000110: ee5b 2dbe 0199 3abd 5c56 c2bb c1e7 5dbd
00000120: 2cd3 d83d 6a93 14bd 9e52 11be ae9b 61be
00000130: 0615 953a 6971 9cbd 99b7 8ebd 841f 393e
00000140: 927b 9b3d b529 c6bd 7c67 39bc 5a09 263e
00000150: 682c d73d c0c7 6dbd 39ce 6cbe 5a61 39be
00000160: 80a9 d8bd 5aba 44bd 4c4d b23d 8aee 043e
00000170: a368 22bd a86c 2dbe 70d3 283e 1beb 76be
00000180: 3912 4cbd d61f e03d 7ff2 d8bd 04c8 a13d
00000190: b249 b93d 4910 b43d 8417 8cbc 7937 31bd
000001a0: 3b9c 8f3d e6fb 4a3e 1e4a 793d e7ec 7b3e
000001b0: ae88 93bd 939e 9e3d 65b1 3abd 0b8a a4bd
000001c0: 72a3 3dbe 00fb a73c 9892 afbc ea5f 363c
000001d0: 6317 44bd 1601 a03d ba9b 583e 4332 08be
000001e0: 945a d0bd bd48 58be 0f3c 15bd a46c 8e3d
000001f0: 728d 583d 2f51 19be 125c 19be fdf7 08bd
00000200: 1226 363e 01e8 e6bd 7446 233d d1e0 eebd
00000210: b864 773d 65a6 e43c 41e1 3dbe 90d3 5bbd
00000220: e1b4 b63d c3fd 5bbd 8f33 9e3d 734b 13bd
00000230: 0277 a0bc cdf2 98be 5e46 9e3d b05e b3bd
00000240: b8d3 bebd 0441 f43c aef5 133e b754 f5ba
00000250: 93a8 923d 92e6 7b3d a8b4 6cbd 15fb a63d
00000260: 19f4 a5bd 47f8 203e b277 753e 4238 733c
00000270: 5787 0abe 9894 103c c654 113d bc1f 863d
00000280: b0ff 4ebe a19b 21bc 016f 8b3d 9325 c83c
00000290: a2cf f5bd a915 633e c681 03be 2471 133d
000002a0: 6362 1dbe 6489 ee3d da2a 3a3e e563 2b3e
000002b0: e7a1 963d 4b31 54bd 0925 1e3e 2122 3fbd
000002c0: 75ab 143e 7fd8 2f3e e548 013e 3948 703d
000002d0: b6a7 4fbe a482 aa3c 126a c83c b8fb a1bd
000002e0: c004 563d 9f64 853c 6e78 10be b934 38bd
000002f0: 48c8 70bd ba82 a53d 6140 d13b a0dc cbbd
00000300: 6800 d9bc e405 d83d 9399 7dbe 9b7b 793d
00000310: 7771 46bd aa26 da3c 9532 febc d25a efbd
00000320: fdba bd3d e588 c33d ccd2 11be 352e 9ebd
00000330: 332b 5d3d e651 563d e1ee 573d 1849 55be
00000340: 19e4 dcbc bdfb a7bd 0b37 87bd ceb8 f2bd
00000350: 00d4 00be 941d 35be 1553 5c3d 570d 163d
00000360: d198 873e b4d8 03bd 12f7 e7bd c7f1 b4bc
00000370: a14c 213e 513b df3c e884 48bd 2244 d43d
00000380: 7ea9 6e3e 9852 3fbd 0cf5 9bbd 36a5 4ebe
00000390: 2c06 05be 04e1 60bd 24ca 2ebe 7b34 35be
000003a0: c0aa b8bd 3917 3f3d db47 663d 8e17 2d3e
000003b0: 9ac3 43bd a26a 603e e3d6 003e 5ad1 a23d
000003c0: 923e cd3d 4e9f 8f3e fd56 1ebe d8ec 65bd
000003d0: 9f03 c73e 5510 e73d 9140 4ebd 47ef 41be
000003e0: 04e6 213d 63c8 07be 6a3b ae3d 1267 11be
000003f0: 79fb df3d 860f f0be d644 963e 3970 ef3d

conv2.conv2.0.bias f4 [16]
-0.019442067 -0.061749823 -0.070287704 -0.060070783 0.0328927 -0.008772826 -0.02156512 0.027575029
0.050656483 0.04645698 0.027517805 0.07879351 0.0035424288 0.0019482917 0.032916322 0.08306042
00000000: f844 9fbc 62ed 7cbd 00f3 8fbd c80c 76bd
00000010: 7fba 063d e6bb 0fbc 56a9 b0bc 07e5 e13c
00000020: 2c7d 4f3d ad49 3e3d 056d e13c 7e5e a13d
00000030: 1828 683b d25d ff3a 44d3 063d 951b aa3d

conv2.conv2.1.weight f4 [16]
1.032631 1.0288055 0.9171005 0.9891072 1.0008312 0.9040364 1.0308061 0.97800356
1.0637916 1.0156199 0.9067272 0.9390513 1.0894387 1.0467963 1.0237956 0.972408
00000000: 412d 843f e6af 833f 19c7 6a3f 2136 7d3f
00000010: 3d1b 803f ee6e 673f 74f1 833f 715e 7a3f
00000020: 532a 883f d5ff 813f 461f 683f aa65 703f
00000030: ba72 8b3f 6cfd 853f bc0b 833f bbef 783f

conv2.conv2.1.bias f4 [16]
0.025941763 0.044744387 0.016232809 0.026969662 -0.023773028 0.077664845 0.0892304 -0.009708513
0.039882757 0.073894426 0.048509248 -0.081776455 0.08017572 0.037345022 0.022000173 0.0653705
00000000: d283 d43c e445 373d abfa 843c 7bef dc3c
00000010: a7bf c2bc bf0e 9f3d 6ebe b63d 7410 1fbc
00000020: 1a5c 233d f655 973d a2b1 463d 6a7a a7bd
00000030: 2b33 a43d 18f7 183d b539 b43c f8e0 853d

conv2.conv2.1.running_mean f4 [16]
-0.76565444 0.16924955 -0.32204884 -0.45845076 -0.9640336 0.3583736 0.46707797 1.340072
-0.82069093 -1.0795561 -0.79785293 0.99797124 -0.09643994 1.0298129 -1.019854 -0.60308963
00000000: ee01 44bf c14f 2d3e 96e3 a4be 0fba eabe
00000010: e8ca 76bf bf7c b73e d824 ef3e 7b87 ab3f
00000020: cd18 52bf e52e 8abf 1740 4cbf 0b7b 7f3f
00000030: 4e82 c5bd e9d0 833f 938a 82bf 1564 1abf

conv2.conv2.1.running_var f4 [16]
1.1808691 1.0081283 0.5321498 0.8004583 1.4123756 3.327426 0.9405474 3.0423799
1.5691426 1.6712619 1.2732356 1.4690905 1.2471141 1.3252965 1.3651961 2.0333626
00000000: b826 973f 590a 813f f83a 083f d6ea 4c3f
00000010: b9c8 b43f 8cf4 5440 b7c7 703f 5ab6 4240
00000020: aad9 c83f e9eb d53f 62f9 a23f 280b bc3f
00000030: 6fa1 9f3f 51a3 a93f bfbe ae3f 9d22 0240

conv2.conv3.0.weight f4 [16, 16, 3, 3]
0.14404103 -0.07656103 0.09829001 0.10495238 -0.08859841 0.12881339 -0.03675412 -0.025831616
-0.0012208328 0.102203205 0.0024739823 0.10749945 -0.002409804 0.12189668 0.051593848 0.12640592
0.20839584 0.09407258 -0.052757636 -0.075491056 0.1264792 -0.07257182 0.12916031 0.18888287
-0.05914292 0.020041069 0.14505982 -0.038536705 -0.15193039 -0.06391636 -0.09699951 0.11300192
0.097035 0.08364907 0.041664995 -0.08757078 -0.07258293 0.040205974 -0.11597265 -0.14588632
-0.08175657 0.031551093 -0.08169945 -0.043959856 -0.032094475 -0.10109855 -0.023535497 -0.056923743
-0.087333985 0.09725858 0.15815273 -0.074693136 0.09647805 0.25203952 -0.029743206 0.015446351
0.08508066 0.114286065 -0.038631853 0.14773367 0.07328149 0.004743449 0.12460744 -0.17224972
-0.15366538 -0.008219611 0.030223891 0.062274504 0.06985125 0.024613421 -0.049113713 0.03352188
-0.07752923 -0.040288452 -0.008376826 0.004280225 -0.0440038 0.046061896 -0.1611406 -0.034317724
-0.110844366 -0.04376873 0.0042269463 0.18949038 0.06351865 0.09690984 0.1065196 0.074721865
0.030606067 0.21113606 0.012793075 -0.12835734 0.23214157 -0.17751579 -0.17697093 -0.2622871
-0.09511315 -0.07350538 -0.09561504 0.119800106 -0.15406296 0.115858234 0.013826649 -0.041052103
-0.12816454 0.027932327 -0.019172877 0.02638343 0.10386962 0.1034225 0.033412684 0.037377123
-0.021481661 0.11911696 0.23248047 -0.028455803 0.082546234 0.1514086 -0.04928217 -0.25783557
-0.3194138 0.046471525 -0.101401895 -0.11429767 -0.22289057 -0.04200676 0.03981318 0.10393417
-0.016526455 0.048988532 0.0398715 -0.08163436 -0.038401075 0.071702875 -0.04587964 0.06750102
-0.07635688 -0.2316001 0.019186907 0.14703695 0.07950046 -0.19139852 0.05752189 0.021175288
-0.092509314 -0.08846697 -0.06297017 0.061036322 0.21649094 0.030794453 -0.049429175 -0.01871232
0.06885288 -0.030224605 0.07387576 0.091209464 -0.018644908 0.013638713 0.09492461 0.07089777
-0.09343767 -0.010323906 0.015585841 -0.19245599 -0.09169897 -0.049658738 -0.07447769 -0.078270204
-0.0374919 -0.05225428 0.08377656 0.061200123 0.06446057 -0.024994843 0.11069747 0.022996087
-0.021376977 0.0100135775 -0.26377645 0.10637358 0.26598984 -0.117150754 -0.11062773 0.17585073
-0.06446301 0.21531686 0.03649161 -0.0011675281 -0.03924571 -0.02173604 -0.020295097 -0.011002683
-0.012419094 -0.10419903 0.0106171295 0.24105467 0.09946242 0.11236791 0.3150215 0.23087506
0.114568815 0.06038913 -0.04566985 0.043225814 0.09710333 0.04608936 -0.089696504 0.028202021
0.15471138 0.12768275 0.20608933 0.065263286 0.3634189 0.015269356 0.019456834 0.105001174
0.06978511 -0.09281433 -0.12156676 0.19750854 0.09796375 0.12590429 -0.3283985 -0.17518465
0.10978595 0.1362408 -0.013779852 -0.077715896 0.21115935 0.19945651 -0.039645575 -0.014710684
-0.019667668 -0.04881309 0.0004903071 -0.097280115 0.069222145 -0.107859634 0.021234285 0.055483505
0.108690605 0.06625726 0.078365676 0.0007597513 -0.09363209 -0.004887453 -0.116955735 0.106850035
0.050617784 -0.0950019 0.077620715 -0.013237594 -0.12379125 0.08038622 -0.011841778 -0.21209936
00000000: 7e7f 133e 07cc 9cbd 464c c93d 46f1 d63d
00000010: 1573 b5bd a8e7 033e 7d8b 16bd d39c d3bc
00000020: 5a04 a0ba ea4f d13d 8922 223b ac28 dc3d
00000030: cded 1dbb f7a4 f93d 1254 533d 8e70 013e
00000040: b865 553e 20a9 c03d 6418 58bd 0e9b 9abd
00000050: c383 013e 89a0 94bd 9a42 043e 836a 413e
00000060: d93f 72bd 2b2d a43c 908a 143e aad8 1dbd
00000070: a493 1bbe 95e6 82bd aea7 c6bd 8d6d e73d
00000080: 49ba c63d 3450 ab3d eaa8 2a3d 4f58 b3bd
00000090: 5ca6 94bd 05af 243d 1283 edbd 3963 15be
000000a0: fd6f a7bd b83b 013d 0b52 a7bd 400f 34bd
000000b0: 7f75 03bd c20c cfbd 84cd c0bc df28 69bd
000000c0: 29dc b2bd 822f c73d caf2 213e b7f8 98bd
000000d0: 4996 c53d 530b 813e 06a8 f3bc b112 7d3c
000000e0: c53e ae3d d00e ea3d 6f3c 1ebd 7f47 173e
000000f0: 9b14 963d ef6e 9b3b 2f32 ff3d 3b62 30be
00000100: 755a 1dbe 8cab 06bc 1898 f73c 8d13 7f3d
00000110: 2c0e 8f3d 16a2 c93c 762b 49bd 3d4e 093d
00000120: a5c7 9ebd 8105 25bd f43e 09bc 2141 8c3b
00000130: 543d 34bd 66ab 3c3d 0b02 25be be90 0cbd
00000140: 5f02 e3bd d746 33bd 3282 8a3b c409 423e
00000150: 1116 823d ab78 c63d f326 da3d c707 993d
00000160: 93b9 fa3c 0d34 583e 0c9a 513c 1b70 03be
00000170: 85b6 6d3e b3c6 35be de37 35be 7f4a 86be
00000180: afca c2bd fd89 96bd d1d1 c3bd c259 f53d
00000190: aec2 1dbe 1547 ed3d 2b89 623c 4026 28bd
000001a0: 913d 03be 56d2 e43c 7010 9dbc 1022 d83c
000001b0: 98b9 d43d 2dcf d33d bddb 083d c118 193d
000001c0: 4ffa afbc 98f3 f33d 5c0f 6e3e 251c e9bc
000001d0: 000e a93d db0a 1b3e 1adc 49bd 0603 84be
000001e0: 358a a3be ed58 3e3d ccab cfbd e614 eabd
000001f0: 6d3d 64be 480f 2cbd 2513 233d 70db d43d
00000200: 7d62 87bc 33a8 483d 4c50 233d ea2f a7bd
00000210: 724a 1dbd f5d8 923d 4aec 3bbd fa3d 8a3d
00000220: ff60 9cbd 9428 6dbe dc2d 9d3c db90 163e
00000230: 23d1 a23d f9fd 43be 139c 6b3d cc77 ad3c
00000240: 8675 bdbd 2c2e b5bd 81f6 80bd 3901 7a3d
00000250: cdaf 5d3e a644 fc3c 3f76 4abd 944a 99bc
00000260: bd02 8d3d 9799 f7bc 2d4c 973d 07cc ba3d
00000270: 35bd 98bc e974 5f3c d567 c23d da32 913d
00000280: 405c bfbd 9a25 29bc c15b 7f3c 2f13 45be
00000290: abcc bbbd f666 4bbd c287 98bd 214c a0bd
000002a0: 1b91 19bd 9508 56bd 0c93 ab3d fbac 7a3d
000002b0: e703 843d fcc1 ccbc 5bb5 e23d 4a62 bc3c
000002c0: c51e afbc fd0f 243c b50d 87be 64da d93d
000002d0: d22f 883e bcec efbd cb90 e2bd 3712 343e
000002e0: 2f05 84bd 067c 5c3e 3a78 153d be07 99ba
000002f0: 1cc0 20bd c80f b2bc e741 a6bc 9944 34bc
00000300: 7579 4bbc 4d66 d5bd 78f3 2d3c 09d7 763e
00000310: f4b2 cb3d 2621 e63d 804a a13e 836a 6c3e
00000320: 0ea3 ea3d 985a 773d 4f10 3bbd 8d0d 313d
00000330: 1cde c63d 32c8 3c3d cdb2 b7bd ed07 e73c
00000340: a96c 1e3e 44bf 023e 1509 533e c2a8 853d
00000350: 0b12 ba3e 522c 7a3c f063 9f3c db0a d73d
00000360: 7feb 8e3d 7015 bebd fef7 f8bd ae3f 4a3e
00000370: 38a1 c83d 0eed 003e d923 a8be 9b63 33be
00000380: 75d7 e03d b582 0b3e e3c4 61bc 8329 9fbd
00000390: 283a 583e 543e 4c3e 6663 22bd 1505 71bc
000003a0: 171e a1bc 3cf0 47bd f487 003a cc3a c7bd
000003b0: 57c4 8d3d 83e5 dcbd 86f3 ad3c ac42 633d
000003c0: 2e99 de3d e3b1 873d 2f7e a03d 0c2a 473a
000003d0: 2ec2 bfbd ed26 a0bb 7d86 efbd 31d4 da3d
000003e0: 9854 4f3d 5b90 c2bd 9cf7 9e3d 7ee2 58bc
000003f0: 4486 fdbd 88a1 a43d 0404 42bc 9330 59be

conv2.conv3.0.bias f4 [16]
-0.008545949 0.07738188 -0.06575668 -0.043652978 -0.053698696 0.06842814 0.053859808 -0.07571709
0.013287624 -0.06487708 -0.021139389 0.014716813 0.01705609 -0.0598088 -0.05312768 -0.045930915
00000000: 4f04 0cbc 647a 9e3d 70ab 86bd 77cd 32bd
00000010: 2af3 5bbd 0d24 8c3d 1a9c 5c3d 9011 9bbd
00000020: 56b4 593c 46de 84bd 832c adbc ca1e 713c
00000030: 37b9 8b3c 13fa 74bd 699c 59bd 0e22 3cbd

conv2.conv3.1.weight f4 [16]
1.1330644 0.91960466 1.0698881 0.9439496 1.0029866 1.067305 1.0569397 0.9952688
0.955845 0.88539183 1.0187987 1.0435877 1.053588 0.99155366 0.9486866 0.9363562
00000000: 4108 913f 366b 6b3f 18f2 883f aea6 713f
00000010: dd61 803f 739d 883f cd49 873f f0c9 7e3f
00000020: 42b2 743f 0aa9 623f ff67 823f 4894 853f
00000030: f9db 863f 76d6 7d3f 20dd 723f 0ab5 6f3f

conv2.conv3.1.bias f4 [16]
0.04404411 -0.050421104 0.014138929 0.03774397 -0.017334847 -0.024124004 0.038763907 -0.015362354
0.07170379 -0.020348324 0.022286955 0.013157833 -0.06340013 -0.026086673 0.016641522 0.045266863
00000000: 9967 343d 5c86 4ebd f7a6 673c 6c99 1a3d
00000010: cf01 8ebc b49f c5bc e7c6 1e3d 62b2 7bbc
00000020: 70d9 923d 87b1 a6bc 2293 b63c f493 573c
00000030: edd7 81bd b8b3 d5bc cd53 883c bf69 393d

conv2.conv3.1.running_mean f4 [16]
0.34207866 1.1737989 -0.64212906 -0.40945655 -0.76277494 -0.36810732 -1.5697783 -1.3796502
0.37566876 -0.71166843 -0.41090745 0.06440601 0.26757014 0.5536243 0.15438956 0.67492664
00000000: ef24 af3e 0b3f 963f 9262 24bf 4aa4 d1be
00000010: 3845 43bf 9078 bcbe 7fee c8bf 6198 b0bf
00000020: a857 c03e e72f 36bf 7662 d2be 4ce7 833d
00000030: f4fe 883e 52ba 0d3f 4c18 1e3e fec7 2c3f

conv2.conv3.1.running_var f4 [16]
1.1978962 1.4372928 1.4517115 1.3704293 1.5159624 1.868609 0.9297207 2.1947577
2.6709275 0.951093 1.1471627 2.1660862 1.9813097 1.7720265 1.2153244 1.1400309
00000000: aa54 993f 36f9 b73f afd1 b93f 3a6a af3f
00000010: 0e0b c23f 942e ef3f 2d02 6e3f e976 0c40
00000020: 7af0 2a40 d57a 733f 3ad6 923f 28a1 0a40
00000030: 8e9b fd3f c4d1 e23f c08f 9b3f 88ec 913f

conv3.conv1.0.weight f4 [32, 16, 3, 3]
-0.18070734 -0.019348081 0.2554682 -0.067211196 0.1671707 -0.12395847 -0.027452582 0.04396078
-0.17555483 0.12329158 0.12209277 0.21322092 -0.056466304 -0.29963621 0.117235176 -0.17397325
-0.028946145 0.17801112 0.055569213 0.07895811 -0.1344699 -0.03151632 0.052099954 -0.14798976
0.013522192 0.086342886 -0.22958204 -0.07549047 0.012104436 -0.04868905 -0.0771953 0.032888506
-0.17076178 -0.061909474 0.008588085 -0.034265053 0.1387608 -0.12320665 0.05014602 -0.07566244
0.23444068 -0.0088790925 -0.024427313 -0.10260411 0.003943884 0.045446344 0.12329503 0.10967399
0.015242004 -0.014782914 -0.15005296 -0.010524468 -0.016178709 0.1354723 -0.054596346 -0.15572593
-0.11936142 -0.024982145 -0.02617588 0.04844552 0.15647398 -0.13154775 -0.039246656 -0.04669
-0.12319872 -0.005890952 -0.026832132 0.006478999 -0.07862984 -0.109622926 0.17032376 -0.0061016264
0.2053005 -0.14299741 -0.14580092 0.18870695 0.17879818 -0.18250404 -0.042484023 0.078453556
-0.13586743 0.22844197 -0.036691356 0.1582452 0.21723281 0.27232343 -0.096927255 -0.076109946
0.043339744 -0.11005741 -0.11914054 -0.075789146 -0.02673985 -0.13154246 -0.09491703 0.14442304
0.16467181 -0.13484667 -0.021842297 0.10239563 0.054187022 -0.14100069 -0.059228797 0.17111787
-0.18092656 -0.26964894 -0.047011483 -0.09404847 0.11554056 -0.011378283 0.05930108 0.25481176
-0.042697806 0.17491007 -0.03138675 0.24948843 -0.15369253 -0.22800349 -0.093919724 -0.07520917
-0.032813806 -0.042952165 0.16829905 -0.16921705 0.06317193 -0.21455553 0.022356095 0.018541433
-0.20716055 -0.03744108 0.17396942 0.26838866 -0.08779728 -0.034827795 0.10961197 0.13629489
0.31067476 0.004215763 0.2597921 -0.032588173 -0.053224456 0.06376735 0.15765072 -0.0682763
-0.011722338 -0.07449151 0.014556711 -0.22924833 -0.08531557 0.15073875 0.046283856 0.1445148
0.15984882 0.0065754056 0.25845832 -0.07928835 -0.13212094 0.04404035 -0.018243052 -0.01405957
-0.06846096 -0.037174735 0.09229469 0.07034979 -0.066920385 -0.03692501 0.19250825 -0.08219257
0.3235893 -0.01782814 0.0805216 -0.08094583 0.17221019 0.18582611 0.08276274 0.13339663
0.23386924 0.14997101 0.28752524 -0.018846812 0.12813209 -0.025870519 0.18407887 -0.07933456
-0.20888516 -0.22954303 -0.1851725 -0.12763108 0.12721442 0.007321432 0.09460044 -0.10125887
0.029241402 -0.0010463479 0.13114779 0.35040957 0.047232803 -0.007459773 -0.12586963 -0.080089875
-0.011534489 -0.041411467 0.049688134 0.11448584 -0.16937467 -0.0017507223 -0.05746269 -0.12892623
-0.15478872 0.07708555 -0.015314525 0.04336921 -0.11622247 0.14366175 0.028980976 0.016870145
0.11528138 0.045893498 0.07524964 -0.053077035 -0.19283165 -0.06729033 -0.1075802 0.14788476
-0.13105087 -0.08520536 0.07745362 0.09857271 -0.23514381 -0.15020873 0.054776464 0.18921767
-0.038812023 0.037111517 0.01705191 -0.17630224 -0.17639816 -0.025198998 0.16146027 0.10197894
-0.07887464 -0.11087258 0.2398493 -0.09204966 -0.0846948 -0.07245871 0.073366016 0.021921575
-0.15611887 0.10836429 -0.069890656 0.10269287 0.08341336 -0.011934471 0.052768454 -0.0010018145
00000000: 580b 39be de7f 9ebc bacc 823e 06a6 89bd
00000010: cc2e 2b3e f0dd fdbd 3de4 e0bc 3810 343d
00000020: a5c4 33be 4c80 fc3d c60b fa3d 9656 5a3e
00000030: 3649 67bd eb69 99be ff18 f03d 0b26 32be
00000040: 7720 edbc 8c48 363e 8b9c 633d cab4 a13d
00000050: 7ab2 09be 4217 01bd c366 553d a18a 17be
00000060: 2f8c 5d3c 8ad4 b03d 8e17 6bbe bf9a 9abd
00000070: af51 463c 2b6e 47bd 9218 9ebd 19b6 063d
00000080: 2ddc 2ebe ca94 7dbd 0ab5 0c3c 8359 0cbd
00000090: 5017 0e3e c553 fcbd ea65 4d3d e9f4 9abd
000000a0: 3811 703e 9d79 11bc ca1b c8bc 1b22 d2bd
000000b0: b23b 813b f225 3a3d 1b82 fc3d c29c e03d
000000c0: 99b9 793c 0934 72bc 7ca7 19be d16e 2cbc
000000d0: 3689 84bc 40b9 0a3e 6ba0 5fbd 9e76 1fbe
000000e0: c373 f4bd 5ba7 ccbc cd6e d6bc cf6e 463d
000000f0: b73a 203e 74b4 06be 1ac1 20bd 033e 3fbd
00000100: 9c4f fcbd e308 c1bb 0fcf dbbc c84d d43b
00000110: ae08 a1bd fc81 e0bd 5a69 2e3e 27f0 c7bb
00000120: 4b3a 523e ea6d 12be d64c 15be 653c 413e
00000130: df16 373e 57e2 3abe ba03 2ebd 42ac a03d
00000140: d520 0bbe b1ec 693e ad49 16bd 080b 223e
00000150: 4772 5e3e fa6d 8b3e cc81 c6bd 88df 9bbd
00000160: 0485 313d c865 e1bd f5ff f3bd 5737 9bbd
00000170: 880d dbbc 11b3 06be dc63 c2bd a2e3 133e
00000180: ba9f 283e 3f15 0abe 9eee b2bc cdb4 d13d
00000190: 36f3 5d3d 7c62 10be e599 72bd 8639 2f3e
000001a0: d044 39be 6d0f 8abe 1d8f 40bd 7c9c c0bd
000001b0: 87a0 ec3d fa6b 3abc b0e5 723d b076 823e
000001c0: e5e3 2ebd a01b 333e 658f 00bd e579 7f3e
000001d0: 9361 1dbe bf79 69be fc58 c0bd 4407 9abd
000001e0: c567 06bd 9cee 2fbd 9656 2c3e 3c47 2dbe
000001f0: 4960 813d 72b4 5bbe 2124 b73c 34e4 973c
00000200: e521 54be d15b 19bd 0a25 323e 3d6a 893e
00000210: 0fcf b3bd 97a7 0ebd 3e7c e03d e390 0b3e
00000220: c310 9f3e 6224 8a3b 7803 853e 2d7b 05bd
00000230: e301 5abd 7598 823d 316f 213e 72d4 8bbd
00000240: 0d0f 40bc 018f 98bd 457f 6e3c 13c0 6abe
00000250: eeb9 aebd 425b 1a3e 2494 3d3d b0fb 133e
00000260: 69af 233e 8076 d73b a654 843e ee61 a2bd
00000270: b64a 07be a763 343d 7472 95bc 1c5a 66bc
00000280: 4335 8cbd 8944 18bd 0005 bd3d 8d13 903d
00000290: 8e0d 89bd ae3e 17bd e220 453e 9454 a8bd
000002a0: 7fad a53e 520c 92bc 82e8 a43d edc6 a5bd
000002b0: de57 303e 3349 3e3e 837f a93d 2099 083e
000002c0: 6b7b 6f3e 0092 193e 8236 933e a164 9abc
000002d0: 0f35 033e 69ee d3bc 2c7f 3c3e 287a a2bd
000002e0: fee5 55be 540d 6bbe dc9d 3dbe b9b1 02be
000002f0: 7f44 023e 9fe8 ef3b e0bd c13d cf60 cfbd
00000300: aa8b ef3c 9c25 89ba 9b4b 063e e268 b33e
00000310: 2f77 413d 1d71 f4bb f8e3 00be 2906 a4bd
00000320: 27fb 3cbc 129f 29bd c985 4b3d 8d77 ea3d
00000330: 8e70 2dbe 7e78 e5ba ff5d 6bbd 3d05 04be
00000340: ef80 1ebe 07df 9d3d c6e9 7abc eaa3 313d
00000350: 0c06 eebd 111c 133e 8369 ed3c 4233 8a3c
00000360: a518 ec3d d2fa 3b3d 7c1c 9a3d 4e67 59bd
00000370: a975 45be 83cf 89bd 0253 dcbd 1a6f 173e
00000380: 3332 06be 2680 aebd 01a0 9e3d 7de0 c93d
00000390: 8ac9 70be 51d0 19be 495d 603d 47c2 413e
000003a0: 5bf9 1ebd 3f02 183d 72b0 8b3c 9388 34be
000003b0: b8a1 34be 216e cebc d755 253e 56da d03d
000003c0: 0789 a1bd 2a11 e3bd 0e9b 753e 8884 bcbd
000003d0: 7874 adbd 3b65 94bd ec40 963d e094 b33c
000003e0: a0dd 1fbe 19ee dd3d d522 8fbd a450 d23d
000003f0: a0d4 aa3d cd88 43bc bc23 583d 514f 83ba

conv3.conv1.0.bias f4 [32]
-0.036424667 0.056962464 -0.06951145 0.0055888174 0.075665444 -0.005267109 -0.0813037 -0.022207912
-0.0060541355 -0.02045066 0.058933455 -0.07950488 -0.06685524 -0.056443997 -0.009398308 -0.079112604
-0.04778372 -0.038792115 0.06554007 -0.082557544 0.025265208 -0.011988481 0.043490034 0.010699947
-0.019054193 -0.026687754 0.062017497 -0.048669107 -0.023544159 -0.06513364 0.05863952 0.020304073
00000000: 0832 15bd 7951 693d 055c 8ebd 6622 b73b
00000010: 7cf6 9a3d b697 acbb 8e82 a6bd 5eed b5bc
00000020: c561 c6bb 2488 a7bc 3564 713d 74d3 a2bd
00000030: 66eb 88bd d231 67bd 5cfb 19bc ca05 a2bd
00000040: ddb8 43bd 7be4 1ebd df39 863d ee13 a9bd
00000050: fbf8 ce3c 556b 44bc 9b22 323d d54e 2f3c
00000060: 8a17 9cbc 47a0 dabc 0f06 7e3d 4259 47bd
00000070: aedf c0bc c964 85bd fe2f 703d ba54 a63c

conv3.conv1.1.weight f4 [32]
0.9219453 1.0439142 1.0378102 1.1218663 0.95708203 1.0078826 0.9912221 1.0206467
0.94001365 1.0150979 0.93321353 1.063565 1.0033455 0.97436064 0.9214112 0.9560134
1.0192224 1.0198594 1.0314192 1.0322429 0.98436034 1.0083169 1.0681473 1.0860339
0.9988577 0.95868665 0.9626676 1.0139197 1.0021219 1.0093495 1.0243995 0.9746063
00000000: 9b04 6c3f fb9e 853f f7d6 843f 5199 8f3f
00000010: 5403 753f 4c02 813f bbc0 7d3f 8da4 823f
00000020: bca4 703f baee 813f 15e7 6e3f e622 883f
00000030: a06d 803f b36f 793f 9be1 6b3f 4bbd 743f
00000040: e175 823f c18a 823f 8b05 843f 8920 843f
00000050: 0aff 7b3f 8710 813f 0db9 883f 2903 8b3f
00000060: 23b5 7f3f 7d6c 753f 6271 763f 1fc8 813f
00000070: 8845 803f 5d32 813f 861f 833f cc7f 793f

conv3.conv1.1.bias f4 [32]
-0.05565642 0.037160914 0.009350254 -0.0059862565 0.008040828 0.03635686 -0.062128194 0.021645674
-0.018656319 0.04028489 -0.013610357 0.013237384 0.05750314 -0.016668411 -0.047568467 -0.013937266
0.00043681875 -0.010818797 -0.010132837 -0.04773983 -0.01035242 -0.021443136 -0.04131938 0.029977508
-0.017998232 -0.010875301 0.03911524 0.02731154 0.028676039 -0.020306122 -0.029302023 -0.041080855
00000000: fcf7 63bd 0b36 183d cf31 193c 5c28 c4bb
00000010: adbd 033c eeea 143d 227a 7ebd 4552 b13c
00000020: 23d5 98bc c501 253d fafd 5ebc 9de1 583c
00000030: 6a88 6b3d 318c 88bc 27d7 42bd 2159 64bc
00000040: d204 e539 5341 31bc 3304 26bc d78a 43bd
00000050: 329d 29bc 84a9 afbc 833e 29bd 6493 f53c
00000060: 0771 93bc 522e 32bc 4d37 203d 73bc df3c
00000070: 03ea ea3c 0659 a6bc cc0a f0bc 6644 28bd
