checkpoints/ifind1_sononet_8_6classes/011_net_6classes_new_noaug_emb001.pth (torch_old, 671819 bytes, 90 tensors)

conv1.conv1.0.weight f4 [8, 1, 3, 3]
00000000: 8d30 59be 9ca0 4e3f 3472 d93e 221e 4f3e
00000010: 654c ebbe b068 0e3f fb40 07be 0778 b23e
00000020: 3df9 28bf 33ad 053f 1532 153f b9aa fabe
00000030: dc55 1b3f 9f52 423f df69 49bf a18b 29be
00000040: 1410 513f d352 963e a7e8 443f fd22 49bf
00000050: a3b0 48be 5202 073d ac34 c43d e10c 353c
00000060: 4b7e 51bf a09f 09be 4b85 a03f 532f 193f
00000070: 41c1 223f dcb0 843f bdba 2abf db0f f8be
00000080: 7a15 5abc c5c6 20bf 1006 43bf 437a 46bc
00000090: 23ef 8d3d f501 9d3c e011 94bf 2402 dfbe
000000a0: 9b2e 9ebd fa86 cf3e e29b c53e 0298 323d
000000b0: 2440 3a3f 649e 32be e7a0 813e 82aa 083f
000000c0: b9b4 d7be 547b f5be dcd6 ac3d fe8b 8abe
000000d0: 3518 653e 5ac4 5a3f df07 22bf 59e6 053f
000000e0: b67d cc3d dd3f 583d 8c66 36be 0ca3 c9bc
000000f0: 5bbb 303f e80c c9be 8201 12bd 243a 4cbe
00000100: 3e91 9abe 6992 3b3f 92bd ab3c 12f2 31bf
00000110: 7727 08bf 56ef d33c 74a9 11bf e9cd 693f
-0.21209927 0.8071382 0.42469943 0.20226339 -0.45956722 0.5562849 -0.13208382 0.348572
-0.6600531 0.52217406 0.58279544 -0.48958376 0.60677886 0.7590732 -0.7867717 -0.1655717
0.8166516 0.29360065 0.769175 -0.7856901 -0.19598632 0.032961197 0.09580359 0.011050434
-0.8183333 -0.13439798 1.2540678 0.59837836 0.6357613 1.0366473 -0.6669119 -0.48449597
-0.0133107845 -0.628033 -0.76181126 -0.01211411 0.06930377 0.019165972 -1.1567955 -0.4355632
-0.07723733 0.40532666 0.38595492 0.043601997 0.7275412 -0.17443234 0.2531807 0.53385174
-0.42130068 -0.47945654 0.08439419 -0.2705993 0.22372515 0.8545586 -0.6329326 0.5230461
0.09984915 0.05279528 -0.17812556 -0.02461388 0.6903588 -0.3926766 -0.03564597 -0.19944054
-0.30188936 0.7327028 0.020964418 -0.69509995 -0.5318522 0.02587096 -0.5689919 0.9132982

conv1.conv1.0.bias f4 [8]
00000000: d634 a43e 0fd2 8cbe 9b42 a9be 5b7f 85be
00000010: 1c90 65be 8930 0a3e 3e69 f43d 0cc7 8d3e
0.3207156 -0.27504012 -0.33058628 -0.26073727 -0.22418255 0.13495077 0.11934136 0.27690923

conv1.conv1.1.weight f4 [8]
00000000: 3047 6c3f df72 753f 1db9 803f 8bf7 ab3f
00000010: 1c67 763f f20b 813f 5dc9 4c3f 89db 653f
0.92296124 0.95878404 1.0056492 1.3434919 0.9625108 1.008177 0.79994756 0.8978811

conv1.conv1.1.bias f4 [8]
00000000: 66fb a93e 7e5c 4dbe 216f 013f b973 bf3e
00000010: a0be 703e 68a2 da3e 4140 743b 51e6 8cbb
0.33199614 -0.20054814 0.50560194 0.37392977 0.23510218 0.4270203 0.0037269744 -0.004299917

conv1.conv1.1.running_mean f4 [8]
00000000: 93a5 a43e 23fd 8cbe 14ff a7be 9d84 84be
00000010: 08b5 65be 31f5 0c3e 6928 f53d 4114 8f3e
0.32157573 -0.27536878 -0.32811797 -0.25882426 -0.22432339 0.13765408 0.11970598 0.2794514

conv1.conv1.1.running_var f4 [8]
00000000: fcbe 5f3f 1701 8e40 5714 253e dc48 693f
00000010: 3d53 913e 0cd5 ee3e 5012 153d 1279 ed3e
0.87400794 4.437633 0.1612104 0.911268 0.28383818 0.46646917 0.036394417 0.46381432

conv1.conv2.0.weight f4 [8, 8, 3, 3]
00000000: 6be5 553c cd39 bc3e a325 ef3c 8161 3dbd
00000010: 8fbf 233e ab2d 88bd c28e a03c 6312 5c3e
00000020: 1fe6 01be c762 8bbe a8b9 613e 137a 813e
00000030: 2025 1ebe faec 033e 03fb 0b3e de68 7cbe
00000040: f74a 81be 239a 02be 7803 ad3d aa6e b5be
00000050: 5e3f 38be fcc0 f2be 6ea6 3fbe da22 14bc
00000060: 2bcf 2dbe 3350 cd3e 25c2 a23e 41e1 963d
00000070: 3130 3fbe 49e7 2e3e bdc8 b7ba 9776 b7bd
00000080: 2f5a 1bbd c80d 5d3e 27ae b43e 6876 92bd
00000090: 4c81 533e 2949 4abc 4ff9 3f3d b91c f8bd
000000a0: 5460 06bd 8e50 1dbc 9ad1 88be 0810 c63d
000000b0: 2be3 333e 6ec6 983e 10eb 953d 61de 4cbe
000000c0: 4ca8 abbe 058e 01be 81d2 91bd ba7d 083f
000000d0: 1721 8a3d 0a51 8c3e 5e3f 38be 2978 603d
000000e0: 2f3f 703e 02f0 2b3e 8332 9e3d f288 03be
000000f0: ef5e 683d 7b81 853c af16 94be 2924 8ebe
00000100: 17be a7be bbc4 bd3d 116f d0bd a7d2 d0bd
00000110: 71de 1cbe 741a a8bd 82d7 84be 49d0 0fbe
00000120: e61c 883e dc96 a8bd af7a 373e e722 be3d
00000130: 2178 fd3d c186 b63e c6c9 843e 8368 d53e
00000140: e005 f63d 26ef 9b3d 3821 933e 3709 a63e
00000150: 7321 28be 253a b9bc baf8 d5bc 7c7b 02be
00000160: 0b11 acbe 206a 23be fc82 14bc e228 4039
00000170: 771d f03e 73e3 3a3d 5777 193e f7ec de3e
00000180: 41cc 123e 90b7 303d 7622 d4bd dc3c cdbe
00000190: 472b 96be c8d1 84bc ed8c 9a3d 6b8b e6bc
000001a0: a2b8 903e d8b6 133e ee5b 173c 5f65 913e
000001b0: 7b3a 11be cc34 2ebe 74be 2a3e 7929 ac3b
000001c0: b21f 3abe 3b06 1bbe 76cb 66bb 9992 1cbd
000001d0: 8701 b0be bf33 d2bd 7481 093f a2a8 133f
000001e0: cc2e 6cbe 998f e23d ad08 273e 67e4 61bc
000001f0: eddd 1b3e 1753 4bbd a655 ecbd 3c24 7c3e
00000200: fb81 fd3d 1b15 29be 15bf 423d eae9 703d
00000210: 767f b3bd 8c51 29bd a641 30bc 13c0 42be
00000220: f764 19be 2f03 0cbc d801 80bd 6e6d 6d3e
00000230: 7345 c0bd 04a7 163d 62bb 7bbd eb62 0c3e
00000240: b53a 87be 4ab6 0bbd 1e58 e9bb 2b8e b33b
00000250: 47fc 363e 7210 5abe 1847 f83d 39f1 abbd
00000260: c238 6abd 0600 a3be cd8c c7bd 9af4 823d
00000270: b6bc 1a3d 580d 2e3e bb00 1c3e 201f 1abe
00000280: e8e2 263d fa54 9e3e 1246 4e3d 2ace 973e
00000290: 6958 ac3d 6974 81bd 0fec 193e e443 c4be
000002a0: d7de 71be ddb1 223d a351 523e 1cb1 0fbe
000002b0: 3616 8fbe 7dcf 38bd 8bdc 4fbd 0b92 fabc
000002c0: d7f4 93bc ede5 b6be 7d20 94bc 82a2 d1bc
000002d0: 3afa 093e ade1 8f3e 3df8 f23d fd67 1b3e
000002e0: 7933 44bd eea6 eb3d e977 a93d fcf1 92bd
000002f0: f2e8 843e e20d dcbb 96fd 12be 26dc b93b
00000300: a5d7 a73d 5ebe 103d 5aa2 483e f1a0 223f
00000310: 2302 453e c81d 633e 3342 243d 2348 3bbe
00000320: 792f 6e3d 1986 263d 3d32 47bd f9fa 863d
00000330: eb34 7c3e b69b bdbd 45c9 123d 0412 f6bd
00000340: d192 abbb 3454 61bc a9a2 043e c6e3 cc3d
00000350: 2ccb 33bb a071 0bbe 5a00 7fbd ff49 033e
00000360: 885a 59bd e146 a53d 399b fe3c 14de 863d
00000370: 1ff6 193c 2059 2d3d f6c5 8bbd 7786 503e
00000380: 12d7 e3bb 5887 1abd e9ba 56bd 6c25 cabb
00000390: 14ee 38bd de3a a6bc 0a4d 433d e3b1 95bc
000003a0: 4cde 0cbe 056a 1e3e 4750 4a3e a1ea f8bd
000003b0: df26 36be fdd3 5a3e 7aa2 073c b562 683e
000003c0: e6cf 32bd de7a a8bd ee39 18bc 3254 333d
000003d0: 475f 1dbd cb01 0d3e 97ad f7bd 4cd1 ab3d
000003e0: 17c6 133e fbe9 2ebc 6319 2bbe 0580 0ebe
000003f0: 1b18 be3e 2cd7 ac3e 47b8 8b3d c087 833d
0.013055186 0.36762848 0.029192751 -0.046235565 0.15991043 -0.066493355 0.019599322 0.21491389
-0.1268544 -0.272238 0.22043478 0.25288448 -0.1544385 0.12883368 0.13669972 -0.24649379
-0.25252506 -0.12754111 0.08447927 -0.35435992 -0.17992923 -0.4741286 -0.18715832 -0.009041512
-0.1697356 0.4010025 0.31788746 0.073671825 -0.18670727 0.17080416 -0.0014021617 -0.08958166
-0.037927803 0.21587288 0.35289118 -0.071514904 0.20654792 -0.012346544 0.04686862 -0.121148534
-0.03280671 -0.009601725 -0.26722413 0.096710265 0.17567126 0.2983889 0.07320225 -0.20006706
-0.33526838 -0.12651832 -0.071202286 0.53316844 0.06744593 0.27405578 -0.17992923 0.054802094
0.23461603 0.16790774 0.07724478 -0.12845209 0.05673116 0.016297093 -0.28923556 -0.27761963
-0.32762215 0.09266039 -0.10177434 -0.10196429 -0.1531923 -0.082081705 -0.2594567 -0.14044298
0.26584548 -0.08231899 0.17917894 0.09284001 0.123764284 0.35649684 0.2593519 0.416813
0.12012839 0.07613973 0.2873628 0.32428905 -0.1641901 -0.022610733 -0.026119579 -0.12742418
-0.33606753 -0.15958452 -0.009064432 0.00018325777 0.4689748 0.04562707 0.14986931 0.43540165
0.14335729 0.04314381 -0.103581354 -0.40085495 -0.29329893 -0.016213313 0.07546411 -0.028142652
0.28265864 0.14425218 0.009238226 0.28397653 -0.14182465 -0.17012328 0.16674215 0.0052539674
-0.18176153 -0.15139095 -0.0035216487 -0.038225744 -0.34376165 -0.10263776 0.53713155 0.5767919
-0.23064727 0.11062545 0.16311903 -0.0137873655 0.15221377 -0.049639788 -0.11539774 0.24623197
0.123783074 -0.16511957 0.04754551 0.058816828 -0.087645456 -0.041337535 -0.010757839 -0.19018583
-0.14979921 -0.008545681 -0.06250352 0.23186275 -0.093882464 0.036780372 -0.061458 0.13709609
-0.26411977 -0.03410939 -0.0071211 0.005479594 0.17869674 -0.21295336 0.12122935 -0.08395619
-0.057183035 -0.31835955 -0.097436525 0.0639431 0.037777625 0.16997278 0.15234654 -0.15050936
0.04074374 0.30924207 0.050359793 0.29649478 0.084153004 -0.063210316 0.15031455 -0.38333046
-0.23620163 0.039720405 0.20538954 -0.14032406 -0.27946633 -0.04511975 -0.050747436 -0.030587217
-0.018061085 -0.35722294 -0.018081898 -0.025590185 0.1347436 0.28101864 0.11863754 0.15176387
-0.04790065 0.11506449 0.08274824 -0.07175061 0.25958973 -0.006715522 -0.14354548 0.0056719957
0.08195428 0.0353378 0.19593182 0.6352683 0.19239096 0.2217933 0.040102195 -0.18289237
0.058150742 0.04065523 -0.048631895 0.06590838 0.24629562 -0.09258215 0.035836477 -0.12015155
-0.0052360077 -0.013752986 0.12952675 0.10004382 -0.0027434332 -0.13617563 -0.062256195 0.12821196
-0.053064853 0.0807016 0.031079875 0.06585327 0.009397059 0.042321324 -0.068248674 0.20363794
-0.0069531286 -0.03772673 -0.052424345 -0.006169012 -0.045148924 -0.020291742 0.047680892 -0.0182733
-0.13756675 0.1547013 0.19757186 -0.12154127 -0.17788266 0.2136993 0.0082784835 0.22693904
-0.0436553 -0.0822656 -0.009291155 0.043781467 -0.03842094 0.13770215 -0.120936565 0.083895296
0.14431034 -0.0106759025 -0.16708903 -0.13916023 0.37127766 0.33757913 0.068222575 0.06422377

conv1.conv2.0.bias f4 [8]
00000000: 27ff 9ebc d85d 89bd ea0a 9cbc b1b6 c33d
00000010: d41d b3bd 1d0b db3c d422 edbd 31fe 7c3d
-0.019408775 -0.067073524 -0.019048173 0.0955633 -0.08745924 0.026738698 -0.115789086 0.061765853

conv1.conv2.1.weight f4 [8]
00000000: 95f7 7c3f 19cd 513f 47b3 5c3f 60eb 403f
00000010: 8d64 833f 3a5b 8b3f 1c19 7a3f 3e31 b33f
0.9881528 0.8195358 0.86211056 0.75359154 1.0265061 1.0887215 0.97694564 1.3999403

conv1.conv2.1.bias f4 [8]
00000000: 9850 833d c37e ffbd 6623 7e3b 1dea 5fbd
00000010: 24d0 9a3e ab7c b7bd 2603 96bd bbfc 183f
0.064118564 -0.1247535 0.0038778423 -0.054666627 0.30236924 -0.089593254 -0.07324819 0.59760636

conv1.conv2.1.running_mean f4 [8]
00000000: 32de 7e3c 1932 ec3f 634d 033f d696 ad3f
00000010: 0b05 763e bbb9 03c0 aa0f 01bf a7e3 f7be
0.015555905 1.8452789 0.5128996 1.3561656 0.24025361 -2.058211 -0.50414526 -0.48415872

conv1.conv2.1.running_var f4 [8]
00000000: 7817 d73f af9a 1141 a9b0 2e40 b369 2340
00000010: fa8d 5d40 1abe e640 68e0 6b40 fc34 1640
1.6804037 9.100265 2.7295325 2.5533264 3.4617906 7.2107058 3.6855717 2.346984

conv1.conv3.0.weight f4 [8, 8, 3, 3]
00000000: 57d3 b6bd 032c 16be b8ec 963c b84f 553e
00000010: 8b4f 073b 9556 a43d 693d 6bbe e512 163d
00000020: a697 903d 4ec2 93be a134 6b3e e247 013f
00000030: cbc6 36be 5366 aebd 49cb e03c 33a0 a53d
00000040: c2bb 153e 9a19 14be 223b 90be 627c 1b3d
00000050: 7edc 833d 60c9 48be f054 1c3c ffc9 8e3e
00000060: 2cf8 8fbe 2a41 163e b2cb 3dbe 9616 07bf
00000070: 6e20 043d 319f 153e d11a 77bd d80a f3bd
00000080: 2151 603e b1f2 9d3d 2156 4bbc d5ad 593d
00000090: 0ff2 e2bd 0fb8 7d3e 6829 033f d7a1 6c3e
000000a0: 97b6 af3e 7e90 823e ddcc 55bd 5376 4ebd
000000b0: 9576 663e f364 31be 4f56 373c 38f4 adbe
000000c0: fa75 a83d 14c2 b53d a5e7 4b3e 9e60 ec3d
000000d0: 2893 7abe 637f c03c c12c 10be dabe 5b3d
000000e0: 577c 4c3e 8818 33be 7cf1 61bd f224 943e
000000f0: 4b83 b3bd 9aef 1dbe 1751 43be c0b9 b03c
00000100: 750b d3bd e320 00be 1a20 c13d 1156 973c
00000110: 8270 9cbe e26d 353e e2b0 f5bd 7db4 9db9
00000120: 8170 29be 1d08 55be 37f9 823d 570b 163e
00000130: 2bbd 193e 1696 8f3e dfed a6bb 5c64 783e
00000140: 5d82 a4bc bc84 a43e a561 48bd acf1 3b3c
00000150: 1b32 6bbd 9f73 6f3c d3a7 283e a083 403e
00000160: a258 a03d 1a4e 7e3e 9e85 493e 3e75 e9bc
00000170: be92 593e 677f a1be afa5 9abd ff19 eb3c
00000180: 39c1 c43d 3f2b 40be 233f 933b 00f7 053e
00000190: 397c f03d d5bb dbbc c7ec 98bd 7a25 8e3e
000001a0: 2356 93be 81d1 1e3e b7db 0dbe 21b0 b4bd
000001b0: f28d 923e a680 da3e 22c7 b23d d613 07bd
000001c0: c6cf 33be 6ef6 ff3d 1e98 7fbd da26 8c3d
000001d0: 7245 883e 8d5e 61be 22f1 d43b 7256 673d
000001e0: 7439 14bd 2fca cf3d 7009 643e 85c2 c4bc
000001f0: 314e 58be d01f e8bd bf6f 9c3d 8ef3 78bd
00000200: c80b 24be 8a1e dabd a697 45bd 21ef f7bb
00000210: c4de 14be c108 18be 7867 463d 8883 8c3c
00000220: d10b 8dbd ce4c 94be 1809 6dbe 0884 8abe
00000230: 2f08 433e 2543 febd 024d 8d3c b349 d2bd
00000240: 9273 87bd cda3 82be f17e 0b3e 7130 d1bb
00000250: f4c8 02be c2b4 97bd 1f14 913d b0cf 833e
00000260: 8f48 70bd e469 2cbe 42a7 6d3d a8a9 c7bd
00000270: e814 bdbd 770c 883e a7ed 8d3e 3f7c a2be
00000280: cf36 943e d81d 1fbc ffbb 003e b680 80be
00000290: 12e8 9e3c fb03 3abe 1f14 2ebe e7c1 763e
000002a0: a474 6ebe 2228 dc3d c4e3 1fbe 3574 5f3d
000002b0: 74ea 0a3e 7363 1dbe a6d0 23be e205 efbc
000002c0: fd86 9cbb 5539 4fbd 8344 ad3c 47d5 cbbd
000002d0: eb57 ee3d 5a06 133d c803 47be 1d38 9abd
000002e0: cebc 10be 2899 e5be 2e5d c83d a0ac 2a3e
000002f0: 8d74 b5bd 5fbb 703e dd83 9dbe e71d e43d
00000300: 74df a1bc f35e f5bd 120f fa3e 3b61 c93c
00000310: 9143 4d3c c2f2 813d 1759 20be c1ca 353c
00000320: 955e bb3d e46e edbe 981a f2bd e127 223c
00000330: 681c c3bd c44d 0fbe b23e fbbe 70b1 8cbe
00000340: d44e 30bf 5413 e63c 7f05 fdbd 1a09 823e
00000350: 4b88 9f3e cda4 233e f97a 373d 2d78 063f
00000360: 3d20 0dbe c9cb 99bd 4533 013e 7d47 963e
00000370: f3f6 1dbe c5aa 0fbe 7f05 8d3e e3f2 d6bd
00000380: d929 9d3e c17e b53d b7ed c2bd fb65 37bd
00000390: 075f a1be 6c25 8e3e d88f 71be 7ab0 8c3e
000003a0: 8ea9 713d 5ad2 2bbe 1a5a 953e 1280 52bd
000003b0: 226e 56bd e3ea a23e ca9f 323e 1c2a 7f3e
000003c0: 612a 483e a599 4c3e c81c 0c3e 680e 603d
000003d0: 1512 a63d 709c 55be f198 5e3e e84e d0bd
000003e0: 4dc4 d73d a21f e83e f088 5d3e 84d1 b83c
000003f0: dadc 673d 2240 e73d 6353 2bbd a40e d43c
-0.089270286 -0.14665227 0.018423423 0.20831192 0.0020646777 0.08024327 -0.22972645 0.036639113
0.07060175 -0.2885918 0.22969295 0.5050031 -0.17849271 -0.085156105 0.027440684 0.08087196
0.14622405 -0.14462891 -0.28170115 0.037960418 0.0643854 -0.19608068 0.009541735 0.27888486
-0.28119028 0.14673296 -0.18534735 -0.5276884 0.03225749 0.14611508 -0.06032831 -0.11867303
0.21905948 0.07712305 -0.012410671 0.053144295 -0.11081325 0.24777244 0.51235056 0.23108612
0.34318992 0.25500864 -0.052197326 -0.05040581 0.22506173 -0.17323665 0.011190011 -0.33975387
0.08225627 0.08874908 0.19912584 0.11541866 -0.24470198 0.023498243 -0.14079572 0.053648807
0.19969307 -0.17489827 -0.055161938 0.28934437 -0.087652765 -0.15423432 -0.19073902 0.021572948
-0.1030492 -0.12512545 0.09429951 0.018473657 -0.30554587 0.17717698 -0.11996628 -0.00030079848
-0.16546823 -0.20803876 0.0639519 0.14652763 0.15013568 0.28044194 -0.0050942744 0.24257034
-0.020081693 0.32132518 -0.048921246 0.011471193 -0.05742083 0.014614969 0.1647027 0.18800211
0.07829405 0.24834481 0.19679877 -0.028498288 0.21247384 -0.31542513 -0.07551133 0.02869892
0.09607167 -0.18766497 0.0044936105 0.13082504 0.117424436 -0.026822964 -0.07467037 0.27762967
-0.28776655 0.15509607 -0.13853346 -0.088226564 0.2862392 0.42676276 0.08729388 -0.0329779
-0.17559728 0.124981746 -0.06240093 0.06843348 0.26615483 -0.22008725 0.006498472 0.056478925
-0.036187604 0.10145985 0.22269225 -0.024018535 -0.21123578 -0.11334193 0.076385014 -0.060779147
-0.16020119 -0.10650356 -0.048240326 -0.007566348 -0.14538103 -0.1484709 0.04843852 0.017152563
-0.068870194 -0.28964847 -0.23148 -0.27053857 0.1904609 -0.124151506 0.017248634 -0.10267963
-0.0661384 -0.25515595 0.13622643 -0.0063839485 -0.1277197 -0.07407524 0.07083916 0.2574439
-0.058662947 -0.16837269 0.058020838 -0.09749156 -0.09232503 0.2657201 0.27720377 -0.31735417
0.28948066 -0.009711705 0.12571715 -0.250982 0.01939777 -0.18165581 -0.16999863 0.24097405
-0.23286682 0.10749842 -0.1561423 0.054554183 0.13566 -0.15369968 -0.15997562 -0.02917761
-0.004776834 -0.050591785 0.021150833 -0.09952789 0.11637863 0.03589473 -0.19435036 -0.07530234
-0.14134523 -0.4484341 0.097833976 0.16667414 -0.08860121 0.23508976 -0.30764666 0.11138516
-0.019759871 -0.11981001 0.48839623 0.024582496 0.012528316 0.063451305 -0.15658985 0.011095704
0.091488995 -0.46373665 -0.118214786 0.009897203 -0.095269024 -0.13994509 -0.4907127 -0.27479124
-0.6887028 0.028085388 -0.12354564 0.2539757 0.3115867 0.15980835 0.04479501 0.52527124
-0.13781829 -0.07509572 0.12617214 0.29351416 -0.15426235 -0.14029987 0.27543256 -0.10495546
0.3069599 0.08862067 -0.09517997 -0.04477499 -0.31517813 0.27762926 -0.23590028 0.2747839
0.05899959 -0.16779462 0.29170305 -0.05139167 -0.052351125 0.3181983 0.17443767 0.24918407
0.19547416 0.19980486 0.13682854 0.05470124 0.081089176 -0.20860457 0.2173803 -0.101713
0.10535488 0.45336634 0.21634269 0.022560842 0.056607105 0.11291529 -0.04182757 0.025885887

conv1.conv3.0.bias f4 [8]
00000000: d86e 7dbd 02ed 8bbb 3237 b43c 6b2f 00bd
00000010: ea76 a43d a872 523c c4f7 debd 1422 51bc
-0.061873287 -0.004270197 0.021998975 -0.03129522 0.080304936 0.012844719 -0.10887101 -0.0127644725

conv1.conv3.1.weight f4 [8]
00000000: 1ce3 873f a3f5 3b3f 3382 943f b072 583f
00000010: aedf ab3f a9f5 913f 70c1 563f 7950 853f
1.0616183 0.73421687 1.1602234 0.8455 1.3427637 1.1403095 0.8388891 1.0415183

conv1.conv3.1.bias f4 [8]
00000000: 9099 843c 492e c7bd b77f 613e 339c 683d
00000010: c241 30bd 1857 aa3e 5a6b 8abd db4b b83d
0.016186506 -0.09725625 0.22021376 0.05678959 -0.04303146 0.33269572 -0.06758757 0.08998843

conv1.conv3.1.running_mean f4 [8]
00000000: fa4f 1b3e 0b00 cabd 6ff9 0cbf d417 643f
00000010: c1e4 96be 6eca a4bf bb5b 8fbf 434d be3c
0.15167227 -0.098632894 -0.55068105 0.8909886 -0.294714 -1.2874277 -1.1199869 0.0232302

conv1.conv3.1.running_var f4 [8]
00000000: 20c9 eb3f d4c8 3840 f3e7 dd3f 1a7f 9840
00000010: ba1c 7a40 36bc 3040 ddb0 ed3f 0661 2740
1.8420753 2.8872576 1.733641 4.7655153 3.9080033 2.7614875 1.8569599 2.6152968

conv2.conv1.0.weight f4 [16, 8, 3, 3]
00000000: 0de6 cdba 53ae 5cbe c97a a9bc 2b7a 54be
00000010: 939f 85be 0cc1 26be 44b3 9c3d 42b2 233d
00000020: 6286 e63d 7d57 c7bd 5715 a43c 9341 a4be
00000030: 4920 003d 224f 8abd 9334 423e a755 90be
00000040: 50c3 a43c a7bc 96be 1ce8 a03d 1a73 233e
00000050: b73c a5bd 7404 a6be 5ac9 953e 495e 56be
00000060: f632 763d 562e 1b3e efaf 9c3d fa01 5b3e
00000070: c924 893d fd69 80be 91e6 8c3d 5817 7dbd
00000080: fc2d 6d3b 1a57 723c 867b 67bd 3c61 ef3d
00000090: 2cc1 143d 5e7f 1b3e d3a5 7f3e 14cc 85bc
000000a0: 473f 9f3e cc96 ab3d 45a7 03bd f7a1 67bd
000000b0: 828a 57bd a8a5 19bc dc3e 1dbe a9bf 2abe
000000c0: abed c93b e5d5 b7be a84b 07bc 2dc4 2dbe
000000d0: 8616 73bd e078 f0be 4773 07be a0e7 80be
000000e0: 268a 46bd 0d13 8c3e 6baf d1bb 990d 503e
000000f0: c68b 8fba 6bfd 97bc 064d 803e 5e7a 98be
00000100: 3a94 61be ef7b c9bc 5b17 87be 81da d33d
00000110: 66cc 663e 79af 1e3e 758d 223e b065 d0bb
00000120: 0abf 83bc 989f 7f3e 26b6 8abc 365d c83e
00000130: 4b1e 6e3d 6bb1 16be 9f6e 4ebc 6f9b 5a3c
00000140: e66c 37bd 382e 233e 743f 07be dc00 80bd
00000150: ff2f 4b3e c240 08bf 92f0 42be 21f2 de3e
00000160: 80e4 25bd c586 833d 0f10 89be 1dcb 0f3e
00000170: ebe2 e23d 3073 84bd a9e4 143e 0c30 2bbe
00000180: 80a9 83be 3038 b4bd 156f cdbc 58b6 49bc
00000190: 3db4 063c e9d9 0fbe 30a2 6ebe c595 efbc
000001a0: 24d1 c4be 39a3 043e c34f 0bbd 9439 24be
000001b0: a7ff c2be 42c7 47bd 96f3 e1bd 0d08 ea3d
000001c0: a5fc 463d 924c 203e 9b78 503e 08ca a6bc
000001d0: d8b2 653e b574 cabd 962d 833e 999e 45be
000001e0: 8f8e 71be 8d67 46be a30e 11be 8bfd 17be
000001f0: ca39 2cbe 6ecb 4b3e cb42 63be 0139 883d
00000200: 1993 133e aa9f 16be 1e71 c3bd f5d6 813e
00000210: fd02 5cbe 12ff 323e e60f 93be 5284 c4be
00000220: 3364 02be c547 113e 81ea 2cbe 876f b2bb
00000230: cd31 13bd b8e1 02be a03e 54bb fb01 fb3c
00000240: def7 b7bc 810f c1be 85bd 4d3d cea9 223e
00000250: c5da 5bbc 2eb8 a63d f8e4 f0bd 962e 883e
00000260: aa49 ff3d 6a3e 50be 8655 af3d 56d6 4e3e
00000270: baa3 993e a809 1f3d 6be0 4c3d d67b aabd
00000280: 74f2 06be ae79 993d 31ac 3c3d 3e68 4a3e
00000290: 488b 27bd d5b1 77be 71e6 c23e f62e 3cbe
000002a0: 29af 27be 3da4 0b3e f468 09be 7b2c 11be
000002b0: 8c2d c4be 0ef8 82bd 4c07 b53c 62fb d43d
000002c0: 0fc1 0a3e 8814 19bc baef d6bd ecb3 c63e
000002d0: 043c 663e b0de 1b3e 40b7 6f3d ce30 a63e
000002e0: 4a83 993d d009 05be d9be cebd 21b9 b2be
000002f0: 1893 36bd f677 a9bc bb6e 5abe 0ee7 2e3d
00000300: 0816 01be 94df da3d 300e 483e 347d 153e
00000310: ddbb b33e a80d 453d e5d0 14be 85f8 36be
00000320: 19d2 92be 5071 efbd f17f 84bb ade7 223d
00000330: 0052 a13c 4cb5 bebc 38b3 173d 23f5 733e
00000340: a7aa 273e fbf1 ffbe a292 e03d 29a4 d9bc
00000350: 5ecf 153e 27fb 38bc 309d 91bd a7d8 f83e
00000360: 9f8c 833e af28 853d 9b18 e23d 951b cfbd
00000370: e44e 45bb f801 133e 12e4 8ebe 577b d33c
00000380: ad17 803e 7831 8abd d072 683d 84b6 1dbe
00000390: 98da 1cbe ab31 123d 3ac9 033e d04e c0be
000003a0: 95b5 8fbd 2c7b 11bd 2729 1fbd 6292 1b3e
000003b0: 1fec 3d3e b851 bd3e 596f 913e 2560 8ebd
000003c0: 8df3 36be f748 233c 777b 8abe a944 6ebe
000003d0: 8386 64bc a429 733e d108 64be 8879 32be
000003e0: 30df 81be 8fcb 953e 21b6 9d3d f831 ab3c
000003f0: 44b6 013d 74bc 9fbd 52a0 abbe 1012 04bd
-0.0015708819 -0.21550874 -0.020688431 -0.20749728 -0.26098308 -0.16284579 0.0765138 0.03996492
0.112561 -0.09733484 0.020029707 -0.3208128 0.03128079 -0.06753375 0.18965368 -0.28190348
0.020112664 -0.29440805 0.07856771 0.15961877 -0.08068221 -0.32425272 0.29255182 -0.20934404
0.060107194 0.15154395 0.07650744 0.21387473 0.06696469 -0.25080863 0.068799146 -0.06178984
0.003619074 0.014791274 -0.056514286 0.11688468 0.036317036 0.15185305 0.249656 -0.016332664
0.31102964 0.083783716 -0.032141943 -0.056550946 -0.052622326 -0.009377874 -0.1535601 -0.16674675
0.0061623654 -0.35905376 -0.008257784 -0.16969366 -0.059347652 -0.4696722 -0.13227569 -0.25176716
-0.048471592 0.27358285 -0.0063990853 0.20317687 -0.001095169 -0.018553456 0.25058764 -0.2978086
-0.220292 -0.024595229 -0.26385006 0.10344411 0.2253891 0.15496625 0.15874274 -0.0063597783
-0.016082305 0.24963224 -0.016932558 0.39133614 0.05813436 -0.14716117 -0.012599616 0.013342722
-0.044781588 0.159356 -0.13207799 -0.06250164 0.19842528 -0.5322381 -0.19037083 0.43544105
-0.040501118 0.064221896 -0.26770064 0.14042325 0.110784374 -0.06467283 0.14540352 -0.16717547
-0.25715256 -0.087997794 -0.025077382 -0.012311541 0.008221683 -0.1404797 -0.23304057 -0.02924622
-0.38440812 0.1295289 -0.034011614 -0.1603759 -0.38085672 -0.04877401 -0.110327885 0.11427317
0.048580784 0.1565421 0.20358507 -0.020360008 0.22431505 -0.09885541 0.25620717 -0.19298781
-0.23589538 -0.19375439 -0.1416574 -0.14842813 -0.1681892 0.19901821 -0.22193448 0.06651498
0.14411582 -0.14709345 -0.0954306 0.25359312 -0.21485515 0.17480114 -0.28723067 -0.38382202
-0.12733535 0.14187534 -0.16886331 -0.005445424 -0.035936166 -0.12781417 -0.003238596 0.030640593
-0.02245706 -0.3770714 0.050229568 0.15885088 -0.013418858 0.08140598 -0.11762422 0.26598042
0.12465222 -0.20336309 0.08561234 0.2019895 0.30007726 0.03882757 0.05001871 -0.08324401
-0.13178426 0.07493912 0.046062652 0.19766328 -0.040904313 -0.24188931 0.38066438 -0.18377289
-0.16375412 0.1363687 -0.13418943 -0.14177124 -0.38316 -0.06394969 0.022098206 0.1039951
0.13550209 -0.009343274 -0.10494943 0.38809144 0.22483832 0.15221667 0.05852437 0.3245911
0.074957445 -0.12992024 -0.10094995 -0.34906867 -0.044573873 -0.020687085 -0.21331303 0.04270082
-0.1260606 0.106871754 0.19536662 0.14598542 0.35104266 0.048108727 -0.14532812 -0.1786824
-0.28675917 -0.116915345 -0.004043572 0.039771724 0.019692421 -0.023279808 0.03703615 0.23823981
0.16373692 -0.49989304 0.10965468 -0.026567535 0.14629886 -0.011290348 -0.07110059 0.48602793
0.25693223 0.065019004 0.11039849 -0.10112683 -0.0030106837 0.1435622 -0.2790838 0.025815649
0.25018063 -0.06747717 0.05675012 -0.15401655 -0.15317762 0.0356919 0.1286973 -0.3756013
-0.07017056 -0.035517856 -0.038857605 0.1519256 0.18547104 0.3697641 0.28405264 -0.06951932
-0.17866345 0.009966127 -0.2704732 -0.2326838 -0.013948086 0.23746353 -0.22268988 -0.17429173
-0.2536559 0.29256865 0.07700754 0.02089785 0.031667963 -0.077996165 -0.33520752 -0.03224379

conv2.conv1.0.bias f4 [16]
00000000: 051c 8cbc 0d96 c5bd 587e e23c 5c17 103d
00000010: 97ef bebd d376 d8bd bc79 4a3c 4ca0 eb3d
00000020: bfd4 d7bd 6376 6cbd 256d 26bd 0124 d5bd
00000030: d892 94bd 4c67 bd3d e78c b83d 1985 b1bd
-0.017103205 -0.096477605 0.027648136 0.035178527 -0.09323042 -0.10569539 0.012358125 0.115051836
-0.10538625 -0.05773009 -0.040631432 -0.10407258 -0.07254571 0.09248218 0.0901125 -0.086679645

conv2.conv1.1.weight f4 [16]
00000000: ed40 8a3f 4698 6d3f 6deb 533f 406b 833f
00000010: 9a45 903f 6e8a 943f f579 703f ffc1 7b3f
00000020: d369 863f 7bf4 6a3f a57f 863f a31f 7f3f
00000030: cdc0 873f 4433 773f ab5e 7c3f 1fdf 883f
1.0801064 0.92810476 0.82781106 1.0267105 1.1271241 1.1604745 0.9393609 0.9834289
1.0501045 0.917793 1.0507704 0.9965765 1.0605713 0.965626 0.9858195 1.0693091

conv2.conv1.1.bias f4 [16]
00000000: dcdc d43d 07ff 94bd 2402 9cbd 83d5 783d
00000010: ecc7 19bd 8392 07be eeb2 8d3d c8f2 453c
00000020: 7fd4 6abd fa7c 0cbc c228 2c3b 880d b43d
00000030: 37f5 943d 2e6f d2bd 1709 583d 9ba3 9abd
0.10393688 -0.07275205 -0.07617596 0.060750496 -0.037544176 -0.13239484 0.06918894 0.012081809
-0.05733156 -0.008574719 0.002626941 0.087916434 0.072733335 -0.10275112 0.052743044 -0.075507365

conv2.conv1.1.running_mean f4 [16]
00000000: 09b4 99bf 8fce d9bf c32d 493f cdd1 0e3e
00000010: 69cf a5bf 0b2b 73c0 5959 19bf ce2a a63f
00000020: 4108 e7bf 7fb3 2f3f 81b6 01c0 88d2 50bf
00000030: 2659 adbe 60d2 bc3f ef6b 89bf 51cd 19c0
-1.2008067 -1.7016162 0.7858545 0.1394722 -1.2953922 -3.7995021 -0.5990196 1.2981813
-1.8049394 0.68633264 -2.0267642 -0.81571245 -0.33857077 1.4751701 -1.0736064 -2.4031565

conv2.conv1.1.running_var f4 [16]
00000000: f298 a840 85e6 1340 c906 b93f 0dbb 3240
00000010: 90b1 5740 795c 8540 08b9 3140 be6e 3840
00000020: f3b7 9a40 2f34 f03f f49d 4640 3ef1 8b40
00000030: 0771 3440 4afb 4940 2bd0 3240 7c1a 4140
5.26867 2.3109448 1.4455196 2.7926667 3.3702126 4.167538 2.7769184 2.8817592
4.8349547 1.8765925 3.1033907 4.3731985 2.8193986 3.1559625 2.7939556 3.0172415

conv2.conv2.0.weight f4 [16, 16, 3, 3]
00000000: 1839 c1bd 3485 1abd 0970 b03d 83e1 e5bd
00000010: 9444 58be 3b1f 923d 4437 85be d5d7 4b3c
00000020: 340f c9bd 9341 4e3c ae72 4f3d 5b89 293d
00000030: 7bd3 0b3e 9a9e 083e a582 693d ebd3 60bd
00000040: 7a60 2cbe 91be f0bd 45b0 dfbd a74e 3ebe
00000050: 626c 5f3d f410 88bd 67f8 023e bcf1 ed3c
00000060: 3cce 62be 6868 86bc 6772 aabd 0964 c13d
00000070: 338b 57be 987e 7bbe a5de 38bc 2099 523e
00000080: 88e1 283c 62f8 08bd 047f acbd e24f 2ebe
00000090: 118b 40bd c46d 92bd 7ac3 b83d f9df bc3c
000000a0: 0ee2 f9ba 210f c7bd 4c69 e6bd 1997 7dbd
000000b0: f1bf 6cbe 2078 f6bd 7046 73be 9f12 b2bc
000000c0: 8bcb da3c 927e 673e ec8d 0f3e e688 06be
000000d0: 8f7a 123e 7ab0 303d 92d3 e3bd ae97 b53d
000000e0: feec 83bd 34ed 0ebd cc21 12bc 4834 75bd
000000f0: 965b e03d 85be d6bd c07f e6bd dfb9 a7be
00000100: 4ab8 2a3e 4c67 a73d ba28 953d ad42 13be
00000110: 4948 24be e727 bd3d 3454 fabd 4dec 0ebd
00000120: 75e7 7bbc 3160 1b3d 0ebe d43d 7187 88be
00000130: 45c0 36be 222f d33d 89fd 8a3c eacb 81bd
00000140: 15a5 fa3d 5320 4e3e bedd 643d c07f bb3d
00000150: 7498 d9bd c0b9 7abe 6fb4 b0be 455e 633d
00000160: 74f6 70bb 5057 a7bc 359e 073d acd2 f9bc
00000170: 4b0b 67bd 5eee 9f3c 9961 3bbd 8766 983d
00000180: ea89 45be fc0f c8bc 7316 a8bc a735 7a3d
00000190: de2a 003d 544b a0bd a4d1 e73c 7753 fbbd
000001a0: ce61 54be 3b23 a63d 6064 de3c b4d4 49bb
000001b0: 80bc f13c e372 053e c5f6 28bd c8c0 22be
000001c0: fccb 2ebe 6925 afbd bcea 423e 396d 293d
000001d0: a3ba ac3d 86f1 3ebe a627 2d3d 5c21 92bd
000001e0: 0cb8 183d 6977 073e 5d24 12be 8103 913e
000001f0: 6c66 57bd 25e6 9bbd bd09 e83c f021 043e
00000200: f4e9 2bbe 7f7f 063d b595 a33c f030 30be
00000210: ec58 003e da23 10bd 500f 7dbd 8113 98bd
00000220: 451a fbbd 7af0 a6bd 6041 96bd 0df9 e3bb
00000230: 767e 083d 5384 ad3d 1ce5 8abd 08c8 8b3d
00000240: 7b7f f53b d995 38bd 2f53 12be 25f3 553e
00000250: 9316 5dbd 4d06 efbd 5b40 1d3e e473 023d
00000260: 89bc 863c 4402 4abc b8e4 8d3d a15f 1e3e
00000270: 16a5 813d c065 a23c fc80 cbbc 3480 46be
00000280: c534 0fbd 48a6 c2bd 3574 dfbc 569b ab3d
00000290: 4fef 813d 4343 b03d 8014 843e 1638 333e
000002a0: c269 a8be cd65 dc3c 6f41 08bc 91f5 ab3a
000002b0: 4c3e e03d b3b1 cfbc 3efb ef3d ba53 6f3e
000002c0: 066f 1dbd a6e2 113d 8f36 00be b34c 0b3e
000002d0: 24e5 69bd e0b6 77be 8715 4cbc e15c 37bd
000002e0: 227f 08be 5099 a03d 037c 46be 0791 b83c
000002f0: ce32 233e 823e a5bb 6b26 373e c523 4abc
00000300: 3f49 2cbd e8e0 ee3d ed09 d4bc 1adc 3e3d
00000310: 2d47 8bbe d825 0f3e 09cc 6ebe 4497 8b3e
00000320: ac09 193e 65b5 5bbe f7b3 9cbc 2138 4abd
00000330: 1153 a2bb e036 71bc a6d3 c9bd 7e1d 9c3d
00000340: 8625 6ebe 97e9 17be 504a ddbe 6efd 91bd
00000350: 2707 ec3c 2c1f b53d 9ca4 2d3e 05d9 153c
00000360: 7f20 06be c321 21be 1a90 c53b 47fe d93d
00000370: 853e 0abe 1e1b f13d cc29 9dbd c744 1ebc
00000380: 0761 2ebe e258 01bb 7651 6dbc 2ba8 3f3c
00000390: 77df c73e e785 4f3e 142a f23d 32d9 073e
000003a0: 9b4b 473e 459c 58be 25d8 9a3b 28cc 7c3c
000003b0: 6dc4 10bc 6abf 6e3d 5e59 533c 8a50 243e
000003c0: 7a6f 1abe ad35 89bd bc33 ed3d f3a8 0b3d
000003d0: 5723 9e3d bfd5 ba3d 0090 1abe 7080 50be
000003e0: e583 1a3c 509e 0cbe c728 753d fdf2 b33d
000003f0: 222b 73bc 537e 0fbe 3c6f 363e 7c97 26bd
-0.09434718 -0.03772469 0.08615119 -0.112246536 -0.2111991 0.07134863 -0.26018727 0.012441595
-0.09817353 0.012588876 0.050646476 0.041390758 0.13654892 0.13341752 0.057009358 -0.0548896
-0.16833678 -0.11755098 -0.109222926 -0.18584691 0.05454672 -0.066438586 0.1279007 0.029045932
-0.22148985 -0.016407207 -0.08322602 0.09442908 -0.21049194 -0.2456001 -0.011283551 0.20566225
0.010307677 -0.03344 -0.08422664 -0.1702266 -0.047007624 -0.071498424 0.09021659 0.023056017
-0.0019064562 -0.097196825 -0.112505525 -0.061911676 -0.23120095 -0.12034631 -0.23757339 -0.021737395
0.026708385 0.22606876 0.14018983 -0.1313816 0.14304565 0.04313705 -0.11124338 0.08866821
-0.06441687 -0.034894183 -0.008919191 -0.059864312 0.10954969 -0.104855575 -0.11254835 -0.32758996
0.16671863 0.08173999 0.072831586 -0.14380904 -0.160432 0.092361264 -0.12223092 -0.034893323
-0.015375008 0.037933532 0.103878126 -0.26665834 -0.17846783 0.10311724 0.016966598 -0.06337722
0.12238518 0.20129518 0.055875532 0.09155226 -0.10624781 -0.2448492 -0.3451266 0.055509824
-0.0036767991 -0.020427376 0.033109862 -0.030495964 -0.056407254 0.019522842 -0.045747373 0.074414305
-0.19290891 -0.024421684 -0.020518517 0.061086323 0.03129088 -0.07826868 0.028298207 -0.12271779
-0.20740435 0.081121884 0.027147472 -0.0030796947 0.02950883 0.13032107 -0.041250963 -0.15893853
-0.17070001 -0.08552057 0.19034857 0.04136393 0.08434036 -0.18646821 0.04227414 -0.07135269
0.037284896 0.13229145 -0.14271684 0.28322986 -0.05258791 -0.07612256 0.028324956 0.12903571
-0.16788465 0.032836434 0.019968847 -0.17206168 0.12533921 -0.03519044 -0.06178218 -0.07425595
-0.1226087 -0.08151336 -0.07336688 -0.0069571794 0.033323728 0.084725045 -0.067819804 0.06825262
0.0074920035 -0.04506478 -0.14289545 0.20893534 -0.053976607 -0.11671124 0.15356581 0.031848803
0.016447322 -0.012329642 0.0692839 0.15466167 0.06330316 0.019823909 -0.024841778 -0.19384843
-0.034962434 -0.09504372 -0.027277092 0.08379237 0.063444726 0.08606579 0.2579689 0.17501864
-0.32893187 0.026904011 -0.008316382 0.0013119449 0.10949382 -0.025353288 0.117178425 0.23371783
-0.03843596 0.03561654 -0.12520812 0.13603477 -0.05710329 -0.24190855 -0.012456304 -0.04476631
-0.13329747 0.07841742 -0.19383244 0.022530092 0.15937349 -0.005042852 0.17885749 -0.01233763
-0.04206204 0.11663991 -0.02588364 0.046596624 -0.2720274 0.1397928 -0.2332002 0.27263844
0.14945096 -0.21455915 -0.019128783 -0.049369935 -0.00495375 -0.014722556 -0.09854822 0.07622813
-0.23256502 -0.14835201 -0.43220758 -0.07128416 0.028812004 0.08843836 0.16957325 0.00914598
-0.13098334 -0.15735535 0.006029141 0.10644203 -0.13500412 0.1177275 -0.07673988 -0.0096599525
-0.170292 -0.0019736816 -0.014484754 0.011697809 0.39037678 0.20265923 0.11824432 0.13266447
0.19462435 -0.21153362 0.0047254735 0.015429534 -0.008835894 0.058288015 0.012899725 0.16046348
-0.15081587 -0.06699691 0.11582133 0.03409667 0.07721584 0.091228 -0.15093994 -0.20361495
0.00943086 -0.13732266 0.05985334 0.08786581 -0.014841827 -0.14013033 0.1781587 -0.04067181

conv2.conv2.0.bias f4 [16]
00000000: 1495 b5bc c61a 3b3d 599f 49bd 2a5e b4bc
00000010: 2b63 9c3d 42c0 353d 2f5b 84bd a191 bbbc
00000020: f50e 063c 3990 f63c 12fe 1cbd 2ef3 6e3d
00000030: 5ad8 aa3a da85 93bd 83e1 b63c 0ea2 a5bd
-0.022165813 0.04567983 -0.04922423 -0.022017557 0.07636102 0.044372804 -0.064627044 -0.02289659
0.008182277 0.030098068 -0.038328238 0.058337383 0.0013034448 -0.072032645 0.02232433 -0.0808755

conv2.conv2.1.weight f4 [16]
00000000: 21bb 873f 8866 783f 8089 863f 987f 763f
00000010: 7522 753f 404e 883f 301c 733f 7eab 563f
00000020: 8b2a 693f 9c44 823f fd36 733f 5d93 663f
00000030: 683b 923f 4584 883f 6e8f 8c3f 988d 843f
1.0603982 0.9703145 1.0510712 0.9628844 0.957557 1.064888 0.94964886 0.83855426
0.9108054 1.0177188 0.9500578 0.9006861 1.1424379 1.0665365 1.0981271 1.0355711

conv2.conv2.1.bias f4 [16]
00000000: dde0 e13d e2d1 583c b94a 1f3d daa6 4bbd
00000010: 82af 64bc b263 fd3d 594c 5fbc 0a7b 1dbe
00000020: 74af 8d3d 57e5 ba3c 3636 d6bc 43fe bbbd
00000030: 48c7 df3d 2949 e4bd c7b0 0d3e 3bb4 9a3c
0.110292174 0.013233634 0.03888962 -0.04971967 -0.01395786 0.12372531 -0.013629043 -0.15378967
0.06918231 0.022814436 -0.026148897 -0.09179356 0.10926682 -0.11146767 0.13836966 0.018884769

conv2.conv2.1.running_mean f4 [16]
00000000: c013 b1bf 037c 8c3e 8885 1b3e 8fe4 4abe
00000010: 4fe0 7f3f 7e0f 89bf c974 3f3e 0764 11c0
00000020: 0192 42be 5994 0f3e 506c 263f ee70 a83e
00000030: 9917 afbe 2a82 f1be b41f 7dbf 9d0f 42bf
-1.3834152 0.27438363 0.15187657 -0.1981375 0.9995164 -1.0707853 0.18696894 -2.2717302
-0.19001009 0.14021434 0.6500902 0.3289866 -0.3419769 -0.4716962 -0.988765 -0.75805074

conv2.conv2.1.running_var f4 [16]
00000000: 56b3 843f e771 d03f 057a ae3f edea 0340
00000010: f929 3940 a92c dc3f 377a d43f 7a42 c43f
00000020: 23d1 4240 4fdc 993f 6eda 6e40 44c2 db3f
00000030: 2ab3 1440 f3ca 823f 6b41 2a40 f5ae 7140
1.0367229 1.628476 1.3630987 2.0612137 2.8931868 1.7201129 1.6599797 1.5332787
3.0440147 1.2020358 3.732082 1.716866 2.3234353 1.0218185 2.6602428 3.7763035

conv2.conv3.0.weight f4 [16, 16, 3, 3]
00000000: c528 8fbe 99ca 103d 466c 72be f56a 143e
00000010: bb21 063e 603b 6a3d 1707 f23d 5853 3fbe
00000020: 1973 93bd bbbd 783d 7763 16bd a58f 3ebd
00000030: ac8e 3cbd 5d90 8e3b 6974 26bd f82a 0e3e
00000040: d508 7e3c 24e2 e2bd 4db2 bfbd afc0 47be
00000050: 06c3 2bbd 086c dbba 632a 40bd 2fe8 81be
00000060: 7f0c c13c a1ff 2abe 5cff be3d be40 2abd
00000070: 1276 41bc 52ab d03d c6d6 24be 7d5b 943b
00000080: a5e9 283c 0d3d d23d 4d53 bfbd 9269 163e
00000090: 1b59 71bc 1259 86bd 186f 39be 419b 71bc
000000a0: 35fb 213e 54c0 b6bd 90e7 16be bb11 8a3d
000000b0: e9a3 b4bd 1967 f13d 9de8 6a3d 88e2 3fbd
000000c0: d5bc d93d d0c4 4c3e b721 193e b357 a43e
000000d0: 1f59 4d3e c9a1 b7be f47e 213e b75e d2bd
000000e0: 8b17 0d3e 370c 583e acd0 933c 9960 b73d
000000f0: 7b3a ccbc 15e6 6a3d 2b42 e2bd 2217 4f3c
00000100: 823a ad3c 5044 a03d f043 8abc 70f1 56bd
00000110: d6e2 69be 2916 143e 8b71 3ebc c7b2 6f3d
00000120: d5e2 84be 7114 9ebd a962 393c 7691 be3d
00000130: e704 89bd eb84 19be a406 773e bef5 fdbd
00000140: ded9 47be 5073 073d 7dc5 a1bd 7828 4bbe
00000150: 7081 22be 56c3 813d 9fcf 33bd cd8c cabd
00000160: 93ab 8f3a 958c 093d 3fc7 763d 9428 afbd
00000170: 2231 a7bd aa79 61bb 447d 3e3d f0b8 b83b
00000180: afcc a43d f47e 90bc e472 af3c ce5a 3fbe
00000190: 951c 9d3c 1f52 25be 6e98 1a3d 9567 d63d
000001a0: 0b5b 8ebd 15a2 51bd c564 8ebc 1979 88bd
000001b0: 0b21 36bd f213 9b3d 060c af3d 3307 0dbe
000001c0: 300c b43d 28ac ec3d 4f0e 313e 57cf 35be
000001d0: a5dd ce3d f03c afbd 914d 003e c2a5 07be
000001e0: 80cc c1bd e12a 0e3b 17c2 38bd 216a dd3d
000001f0: 5358 23be ed25 c63b f819 5e3e f400 073e
00000200: 4695 bdbd e2cc 813e 6e0f 623e adcf 59bd
00000210: a791 ec3d 7e84 163d 671a afbd bf7a 443e
00000220: 7759 3cbe daa4 bbbd 3203 bb3d ba83 d0bc
00000230: 0fa5 d93d 99a5 fa3c 9665 efbc 84fe d03d
00000240: 4e5f cf3c 636a 863d 7302 a9bd e905 523e
00000250: fcc9 f6bd cb2b f8bd ac76 5a3e 7762 27bd
00000260: 4c37 b83c 0406 f3bd 37a3 483e fc24 093e
00000270: 260f 093e 1bd9 08be 7581 c1bc e541 14be
00000280: 3fc5 34bd 93a5 1e3e 6fa1 73bd e4a3 073d
00000290: bf17 763d 977d 11be db19 90bd 6c5c 4bbd
000002a0: 5cd6 06bd 88d4 c93c a2be 09be 7610 8abc
000002b0: 57e5 053c 5382 44be a42c 5e3e 8d4d 263e
000002c0: 1e45 4d3d 3d56 3fbe d3a0 643e 114a 2a3d
000002d0: 1b77 ee3d 98e9 593d 652e 123e 8375 a43d
000002e0: 887c 1d3e b23e 8bbd 1cc5 3b3e 049b 123e
000002f0: c275 c13d a3f8 55bd b693 04bc 242c 27bd
00000300: 8162 133e d5a9 4bbc 77d7 bdbc cd45 36bc
00000310: 142d b239 993b 103d 0cfe 053e a50b 1bbd
00000320: 5f3d c93d 9b12 9a3e fd50 9dbd 2e9e 203b
00000330: 51ab 623d e40d 87bc cc2a c53d a127 98bd
00000340: ed38 0cbe 89f8 533b 0aef 03be a22c e53b
00000350: 9430 343d caa9 f03d d72e be3c b2f6 923d
00000360: 87bf f83d e2cb 193e 130a 363e ca3e 923c
00000370: 8d5f d03d e852 f5bd 359e 023e 13c0 ecbd
00000380: 8ac7 c13d cc70 eabd 9ba4 01bd 86db e93c
00000390: 60c7 04be 6f54 a7bd c1a9 c73d 5cea 7f3d
000003a0: 97ac 11be 2330 213e d4ad 62bc f681 c43d
000003b0: 3803 823e 44d2 623e 2727 f43c 27c3 273e
000003c0: 3a1d 03bd d033 2abe fb59 abbd 94e5 43bc
000003d0: 0325 0a3e abcc e2bd 3829 153e dd87 b2bd
000003e0: a3c2 1d3e 4b2f ebbd ea95 a73d cb45 69bd
000003f0: e78b 11bd 1405 13be 5ed8 9cbd 9d02 983d
-0.27960792 0.035349462 -0.23674116 0.14493926 0.13098805 0.05718553 0.118177585 -0.18684137
-0.071996875 0.060727816 -0.03671595 -0.04652371 -0.0460345 0.0043507055 -0.04063836 0.13883579
0.015505035 -0.11078289 -0.0936018 -0.19507097 -0.041934036 -0.001674057 -0.046915423 -0.25372455
0.023565529 -0.16699077 0.0932605 -0.04156565 -0.011807935 0.10188927 -0.16097555 0.004527508
0.010309611 0.10265551 -0.0934206 0.1468871 -0.014730717 -0.065599576 -0.18108785 -0.014746488
0.15818484 -0.089234024 -0.14736772 0.06741663 -0.08820326 0.117872424 0.057350744 -0.046846896
0.1063172 0.19996953 0.14954267 0.3209816 0.20053528 -0.3586562 0.15771085 -0.10271972
0.13778512 0.2109841 0.018043838 0.089539714 -0.02493023 0.05734833 -0.11047777 0.012639793
0.021146063 0.078255296 -0.016878098 -0.052476346 -0.22840437 0.14461578 -0.01162375 0.058520105
-0.2595431 -0.07718743 0.011315026 0.09305088 -0.06690388 -0.1499211 0.24123627 -0.12400387
-0.19516703 0.033068955 -0.07898996 -0.19839656 -0.15869689 0.063360855 -0.043899175 -0.09890137
0.0010961167 0.033581335 0.06024861 -0.085526615 -0.08163668 -0.0034404793 0.04650618 0.0056372806
0.08046853 -0.017638661 0.021417089 -0.18686983 0.019178668 -0.16144608 0.037743025 0.104689755
-0.06950959 -0.051179964 -0.017382035 -0.066637225 -0.044465106 0.07572164 0.08547215 -0.13772278
0.08791387 0.11556274 0.17290615 -0.17754875 0.10100869 -0.08556545 0.12529589 -0.13246825
-0.094628334 0.0021693038 -0.045106973 0.10811258 -0.15951662 0.0060470016 0.21689594 0.13183957
-0.09256987 0.25351626 0.22076198 -0.05317657 0.115512185 0.03674745 -0.08549958 0.19187449
-0.18393503 -0.09162302 0.09131469 -0.025453437 0.106271856 0.030596541 -0.029223245 0.10204795
0.025314 0.065632604 -0.0825242 0.20510067 -0.12050244 -0.12117728 0.21334332 -0.040865388
0.022487305 -0.11866382 0.19593512 0.13393015 0.13384685 -0.13364069 -0.0236213 -0.14478262
-0.04413342 0.15492849 -0.059480127 0.033115283 0.06008124 -0.14208065 -0.070361815 -0.049648687
-0.032919273 0.024637476 -0.13451627 -0.016853552 0.008172355 -0.1919034 0.21696717 0.16240521
0.050114743 -0.18685241 0.22326975 0.04157454 0.11643811 0.053201288 0.1427551 0.08030226
0.15379536 -0.067990676 0.1833691 0.14316946 0.09446289 -0.05223907 -0.008091858 -0.04081358
0.14393045 -0.012430628 -0.02317403 -0.01112504 0.00033984391 0.035213087 0.13085192 -0.037852902
0.09826159 0.3009232 -0.07681463 0.0024508345 0.05533916 -0.016486116 0.096273035 -0.074294336
-0.1369359 0.0032344183 -0.12884155 0.006993846 0.04399164 0.11751135 0.023215694 0.0717596
0.12145906 0.15019181 0.1777728 0.017852206 0.10174475 -0.11978704 0.12755664 -0.11560073
0.09461887 -0.114472955 -0.03165112 0.02854706 -0.1296668 -0.08170401 0.09749175 0.062479362
-0.14225994 0.15741019 -0.013835389 0.095951006 0.2539308 0.22150522 0.029803826 0.16383038
-0.032010294 -0.16621327 -0.08366772 -0.011956591 0.13490681 -0.110741936 0.14566505 -0.0871732
0.1540628 -0.1148363 0.08182891 -0.056951325 -0.035533812 -0.14357406 -0.07658456 0.074223734

conv2.conv3.0.bias f4 [16]
00000000: 9b4c 48bc ab66 74bd 55aa 183b f663 433d
00000010: 27fd 343b 938a 563d 58ec 00bd aecf 853d
00000020: 789b a23c da5d e5bc 1b87 243d cbd0 273d
00000030: 1050 12bd 9e49 78bc 7e1d 303d af5d 96bd
-0.012225295 -0.059668224 0.0023294885 0.047702752 0.002761671 0.05237825 -0.031475395 0.065337524
0.019849524 -0.027998853 0.04016791 0.040970605 -0.035720885 -0.01515427 0.042996876 -0.073420875

conv2.conv3.1.weight f4 [16]
00000000: 3b44 843f e66c 533f fb33 813f af12 993f
00000010: fc26 953f 1cad 743f 547a 843f 834d 7a3f
00000020: eab3 723f 2124 803f 84cf 933f 341a 4f3f
00000030: a530 873f d532 7e3f 6d21 863f 78ae 523f
1.0333322 0.8258804 1.0093988 1.1958827 1.1652522 0.95576644 1.0349832 0.97774523
0.9480578 1.0011026 1.1547704 0.8089936 1.056172 0.99296314 1.0478951 0.8229747

conv2.conv3.1.bias f4 [16]
00000000: e03b e43c 7381 dc3c f854 b43b 2d5e a4bc
00000010: 5e72 ebbc 7ac0 a43d aad1 4fbc c2e3 c03d
00000020: 5b19 1bbd 92f3 c3bd 68c1 433e ce0b 223d
00000030: ca33 923d 3b3b 423d 7ff1 633d ba78 86bd
0.027860582 0.026917195 0.005503293 -0.020064438 -0.028741058 0.080445245 -0.012684265 0.09418441
-0.037865978 -0.09567942 0.19116747 0.03956204 0.07138784 0.047419768 0.05565023 -0.065659955

conv2.conv3.1.running_mean f4 [16]
00000000: be2f 2fbc 76d0 373f 2353 b53e f3ef 84bf
00000010: eb2c 80bf d69e 503f 1ec3 6b3e a6f8 a0bf
00000020: 0b4c 5dbf b0fa 62bf f321 2ebf 208f ab3f
00000030: 84fb 31be 4fd2 89bf a5a4 91bf d471 343f
-0.010692535 0.7180246 0.3541499 -1.0385727 -1.0013708 0.81492364 0.2302365 -1.2575881
-0.8644416 -0.8866377 -0.6802055 1.3403053 -0.17381102 -1.0767306 -1.137837 0.7048619

conv2.conv3.1.running_var f4 [16]
00000000: 5ad6 0340 a266 3240 b3b6 0240 62ac 4a40
00000010: 45fb 6140 eec0 1940 fb93 1740 ac98 f93f
00000020: 25d8 4a40 1d62 1e40 36de 5140 6ab5 8540
00000030: 4a54 9b3f 92b2 2640 7020 3440 bd41 3740
2.059958 2.7875142 2.042401 3.1667714 3.5309613 2.4024005 2.368407 1.9499717
3.1694424 2.4747384 3.2791877 4.1783953 1.2135098 2.604649 2.8144798 2.8633873

conv3.conv1.0.weight f4 [32, 16, 3, 3]
00000000: 8ef7 5cbe 5e1b 533c 8232 473e 5fcf eb3d
00000010: 5df8 d4bd 8f26 00be 1d49 76b8 2f77 e33c
00000020: 45be 063e b789 733d 4c56 07bd 7a07 43be
00000030: b163 853d 4da6 6dbd 58e0 8ebd cc20 ae3c
00000040: 5780 283c 29b2 13be cff8 3dbd 327b 9ebe
00000050: 81b6 d5bd f254 8bbc 3f68 29bd ca81 843d
00000060: 3bee 24be 520a 74be f445 613d 9df5 50be
00000070: e78b 9b3e ce88 40be e0e4 8f3d 4d30 243e
00000080: 0dc7 44bd 4e6b 0bbe 5e23 873e d629 bfbd
00000090: 5e98 2bbe 5b49 acbd ed7a ba3d 91cf 17bd
000000a0: 9197 5abd 5288 02bd 4502 1fbe 3632 61bd
000000b0: beb7 c53b a4ff b0bd 635f 8a3b e94a 8fbd
000000c0: c8c5 7d3d 9442 963c aad4 5fbe 8822 67bc
000000d0: 8182 e9bd 0b33 293e feae fabd 4aa8 963e
000000e0: e9ac 823d 3538 edbc 9755 86be 6195 a7bd
000000f0: 316d 133e d9ed 2c3e 08b2 44bd 7417 b63d
00000100: 707a c9bd 9d94 3ebe 3478 0f3e 7828 ca3c
00000110: f740 61bd d46e d3bd fe18 b63d 4295 efbd
00000120: 8663 e43d 0857 1f3e d916 53bd e8b9 90bc
00000130: 446b d33d 4801 27be c17c d1bd 2680 463e
00000140: 31d2 89b9 3143 d0bc 5560 fe3d c12f a33d
00000150: d1a3 cb3d 09e0 0c3e bdef c0bd eece 3abd
00000160: 73a6 01be adef 8dbd 672a 0e3d 48b2 2b3d
00000170: d5cf 113e 4409 95bd e867 7fbc c2ea aebd
00000180: 08f0 d3bb e191 93bd 8264 4abd 06fd 87bd
00000190: ff24 64bd a40b 53bd 5dbe 2ebd c407 1fbd
000001a0: 1f67 32be fd44 00be fe46 673d d735 ff3d
000001b0: 4b7f 193e 9bc3 68bd dde4 54bd 5779 e33d
000001c0: 4254 82bd 02dd 563e bda0 b93d 157d 51bd
000001d0: eb88 aa3d b89c e1bc 1a23 2f3d 984a 28bd
000001e0: f5e8 17be 1ea8 97bb 8a96 e3bb dc77 13bd
000001f0: f2c6 83bd bd2d 88bd 31eb 2a3d ed50 a93e
00000200: 7d32 0fbe bed6 dabd ee56 32be 6d02 953c
00000210: 1494 46bc 3c48 a0bd 9921 e73c d3bd f23c
00000220: 20ac ed3c 1707 52bd d277 a4bc a234 fe3d
00000230: 21d1 8e3b 59f0 03be ec0d 4bbd f318 3cbe
00000240: 9e64 21bc c28d 183e 6263 ad3d 1590 ac3d
00000250: 7290 4a3d a0e0 683e d2ec ed3c 3b75 043e
00000260: fdc6 5a3e 4a4d 62bd 9b55 6f3e df3b 913d
00000270: b877 5bbe 69fc 6bbe 0fc0 353e e767 c73d
00000280: 82b1 293d 781c 2dbe a8ba c33b 0ce2 c3bd
00000290: 7144 623e 25d0 523d a2c7 5f3c b910 9cbd
000002a0: 29c9 18be 1c41 50be 588a 503c d04b ff3d
000002b0: 313b 7cbd 97b0 d03c e7e1 7abe 8a0e 323c
000002c0: c97f 4f3d 7fe6 2c3d 1d98 b13d 9fea 6f3d
000002d0: 71d9 1a3e 0e42 9cbe c96e 8f39 8be8 e0bd
000002e0: 2636 5e3e 44e0 923e f904 643e 8cad 4a3e
000002f0: 26ca 303d 82aa d6bc d610 37bd c075 13be
00000300: ea7c 0f3e e4d6 573d 64e4 98bc 25b5 88bd
00000310: 7d9a 7b3c e4a8 523e a93a 0dbd 5cf2 01be
00000320: 8cd7 aa3c 89be 49be 6dfa 0bbe d98a 95bd
00000330: aafa fdbc 15ca c7bd 7251 f8bc d3a1 71be
00000340: 5223 05be 0196 efbd 2065 49be 217e a3bd
00000350: 19a3 15be 816b c23d de16 1a3e bc8f 2abe
00000360: b46a 26be 3696 a0be 9414 d03d d67d 8e3d
00000370: ff92 a6bd 953a 74bd b95b 20bd ed4d 01bc
00000380: 73bc 1f3e 2eb3 dfbd 2ad9 c43c f879 d3bc
00000390: 735e f5bd c9ba dabd 389f d23d 8555 593e
000003a0: 2057 883d 09c6 b43c ebed 8abe 130b 05be
000003b0: 13ce 963d adb5 643e 1f2a 38bd 5ced 363e
000003c0: 80b6 86bd a32a fabd 246d 013e 5731 2fbe
000003d0: 8df1 82be d0b9 99bc 4ab2 d6bd 2f7f adbc
000003e0: 1ff8 033c 957f a1bd 4ee1 61bb c24e 123e
000003f0: f6dd 3b3d 028b 8fbd 435a d53c 8dff 003e
-0.2157881 0.012884943 0.19452861 0.11514162 -0.10398934 -0.12514709 -5.8719063e-05 0.027766792
0.1315852 0.059457507 -0.033041283 -0.19045821 0.06513155 -0.058019925 -0.06976384 0.021255873
0.010284505 -0.14423431 -0.04637986 -0.30953366 -0.104352005 -0.017008279 -0.041359182 0.06470068
-0.16106503 -0.23832062 0.054998353 -0.20406194 0.30380175 -0.18802187 0.07026076 0.1603405
-0.048041392 -0.13615152 0.2639417 -0.093341514 -0.16757342 -0.08412429 0.091054775 -0.037063185
-0.0533672 -0.031868286 -0.1552821 -0.054979526 0.0060338667 -0.086425096 0.0042227968 -0.0699671
0.061956197 0.018342294 -0.21858469 -0.014107354 -0.11401845 0.16523378 -0.12240408 0.2942527
0.06380636 -0.028957466 -0.26237175 -0.08182789 0.14397122 0.16887607 -0.048021346 0.08891192
-0.09837806 -0.18611379 0.14010698 0.0246775 -0.054993596 -0.10323873 0.08891486 -0.116983905
0.11151795 0.15560544 -0.05153546 -0.017666772 0.10323194 -0.16309083 -0.10228873 0.19384822
-0.0002628728 -0.025422664 0.124207176 0.07968093 0.09943355 0.13757338 -0.094207264 -0.0456075
-0.12661152 -0.0693048 0.034708407 0.04191807 0.14239438 -0.07277158 -0.015588738 -0.0854087
-0.006467823 -0.072055586 -0.049412258 -0.06640057 -0.055699345 -0.051524773 -0.042662013 -0.038825765
-0.1742215 -0.12526317 0.056464188 0.12461441 0.14989965 -0.05682717 -0.051976074 0.11107128
-0.06363727 0.20982745 0.090638615 -0.05114468 0.08326896 -0.02754055 0.042758085 -0.041086763
-0.1483496 -0.0046281954 -0.006945436 -0.03600298 -0.0643443 -0.06649349 0.041728202 0.33069554
-0.13984104 -0.1068549 -0.17415974 0.018189633 -0.0121202655 -0.078262776 0.028214263 0.02963153
0.02901274 -0.051276293 -0.020076666 0.12412383 0.004358426 -0.12884654 -0.049573824 -0.18368892
-0.009850649 0.14897826 0.084662214 0.08425919 0.04945416 0.22741938 0.029043589 0.12935345
0.2136497 -0.05524949 0.233725 0.07091498 -0.21432388 -0.23045506 0.17749046 0.09736615
0.04142905 -0.16905391 0.005973179 -0.095645994 0.22096421 0.051468033 0.013658436 -0.07620377
-0.14920487 -0.20337337 0.012728296 0.12465632 -0.061579887 0.02547483 -0.24500237 0.010867724
0.050658975 0.042212006 0.086715914 0.05857336 0.1512201 -0.30519146 0.00027357627 -0.10981854
0.21700343 0.28686726 0.22267522 0.19792765 0.043161534 -0.026204351 -0.04469379 -0.14400387
0.14012495 0.05269517 -0.018663593 -0.066751756 0.015356657 0.20572239 -0.03447977 -0.12690109
0.020854734 -0.1970159 -0.13669749 -0.07301874 -0.031003315 -0.09755341 -0.030312274 -0.23596887
-0.13001755 -0.11698533 -0.19667482 -0.079830416 -0.14612998 0.09493161 0.15047786 -0.16656393
-0.16251642 -0.31364602 0.10160175 0.06957595 -0.08133506 -0.05962618 -0.039149974 -0.007892114
0.15599231 -0.10922848 0.024029333 -0.025814995 -0.119809054 -0.10680158 0.10284275 0.2122403
0.06657243 0.022067087 -0.27134642 -0.12992506 0.07363524 0.22334929 -0.044962045 0.17863983
-0.06577778 -0.122151636 0.1263929 -0.17108665 -0.25574914 -0.01876536 -0.10483225 -0.02117881
0.008054762 -0.078856625 -0.0034466567 0.14287856 0.045865975 -0.070089355 0.026044017 0.12597485

conv3.conv1.0.bias f4 [32]
00000000: cd4a 9dbd 9f4b b83c 6aa6 9f3d 792b a73b
00000010: 3842 a63d 164d 96bd d44b 31bd 544e cfbc
00000020: 59db 913d b94a 9cbd b61a 78bc cbcd 98bd
00000030: f645 833c d52e 94bd 0621 8cbd 3e62 54bd
00000040: 4b10 03bd 1caf 583d 70c2 5c3c 54cf 99bd
00000050: 4d56 a13d 5ca1 ddba 1955 c73c 3936 30bd
00000060: 75e4 20bd f491 7fbd fb28 86bd db5c 2ebd
00000070: ce55 3c3d e1dd 01bd 53ca 90bd 9e00 c83c
-0.07680283 0.022496996 0.07795413 0.005101618 0.08118099 -0.07338922 -0.043285206 -0.025305904
0.07121915 -0.0763144 -0.015143087 -0.07461127 0.01602457 -0.07235495 -0.06842236 -0.051851504
-0.03199796 0.052901372 0.013474092 -0.07510248 0.07877789 -0.0016909051 0.02433257 -0.04302046
-0.039280374 -0.06239505 -0.06550785 -0.042569023 0.045980267 -0.03170574 -0.0706984 0.024414357

conv3.conv1.1.weight f4 [32]
00000000: 7acd 803f 2249 893f fc41 863f 6bc1 743f
00000010: a9bd 863f 9f53 803f 4ba7 673f 16c5 803f
00000020: 6b21 873f 674d 8c3f 5207 793f 4047 833f
00000030: c997 833f 2806 793f dd7e 7d3f 65a1 813f
00000040: a728 8f3f bfb9 733f 50ed 773f b368 853f
00000050: b3db 7a3f e88e 733f b8f7 813f 493d 853f
00000060: 8fb6 743f e272 5a3f 2eaa 833f 9d49 773f
00000070: 093f 833f 419a 7c3f d6c2 773f 22e7 7f3f
1.0062706 1.0725443 1.0488887 0.9560763 1.052663 1.0025519 0.90489644 1.0060146
1.0557073 1.0961121 0.97276795 1.0256119 1.0280696 0.9727502 0.99021703 1.0127379
1.1184281 0.952053 0.96846485 1.0422577 0.97991484 0.9513993 1.0153723 1.0409328
0.9559106 0.8533155 1.028631 0.965967 1.0253612 0.9867287 0.9678167 0.99962056

conv3.conv1.1.bias f4 [32]
00000000: 7bca 8a3c 1e3f a8bb 5b5b 6a3d 2c5e 5cbc
00000010: 5570 1b3d fcfc 36bd af82 32bd 900f eebc
00000020: 34e0 c6bc 8327 f6bd 9058 ac3c d38f 61bc
00000030: 7630 77bc d8cc 773d 5b1d 9cbd d844 2dbd
00000040: aa4b a13c f5fa 3cbd e712 7ebb 1741 21bc
00000050: d166 35bd 13ce 50bc 5c00 18bd d843 e63c
00000060: 3f40 24bd 8e46 a33b 57f4 9bbc e7ca fabb
00000070: 2f9e 0f3d 0ff3 eebc f218 2cbc 6973 1fbd
0.016942253 -0.0051344773 0.05721603 -0.013450187 0.037948925 -0.04467486 -0.04358166 -0.029060155
-0.02427683 -0.12019255 0.021038324 -0.0137672005 -0.015087238 0.06049809 -0.076227866 -0.042301983
0.0196894 -0.04613777 -0.003876859 -0.009842179 -0.044287506 -0.012744444 -0.037109718 0.028108522
-0.040100332 0.004982776 -0.019037409 -0.0076535824 0.035062965 -0.029168634 -0.010503994 -0.038928423
