checkpoints/ifind1_sononet_8_6classes/011_net_6classes_new_noaug_class.pth (torch_old, 671819 bytes, 90 tensors)

conv1.conv1.0.weight f4 [8, 1, 3, 3]
0	0xbe4b806b	-0.19873206
1	0x3f50ed7e	0.81612384
2	0x3edab79d	0.4271821
3	0x3e6f2f0e	0.23357794
4	0xbedbf5a7	-0.42960855
5	0x3f139186	0.57643926
6	0xbde3e0cc	-0.11126861
7	0x3ec178ba	0.3778742
8	0xbf211824	-0.6292746
9	0x3f0727fb	0.5279538
10	0x3f16d98f	0.5892572
11	0xbef4a2e9	-0.4778054
12	0x3f1c68c4	0.6109736
13	0x3f438d8d	0.76387864
14	0xbf46be70	-0.77634335
15	0xbe266dd0	-0.16252828
16	0x3f513e61	0.8173581
17	0x3e976e6f	0.29576442
18	0x3f4b5c9e	0.794382
19	0xbf413b66	-0.7548126
20	0xbe381c93	-0.1797965
21	0x3d234966	0.03986492
22	0x3dd8ec0c	0.10591897
23	0x3c12aaff	0.008951901
24	0xbf4035c4	-0.7508204
25	0xbda5a797	-0.08088606
26	0x3fa616a1	1.2975656
27	0x3f178c05	0.5919803
28	0x3f23d5d6	0.6399816
29	0x3f84eef6	1.0385425
30	0xbf2ada09	-0.66738945
31	0xbef91ae9	-0.48653343
32	0xbcbfe14e	-0.023422863
33	0xbf1da76c	-0.6158359
34	0xbf3e52dc	-0.74345183
35	0xbb8e0ad1	-0.0043347855
36	0x3dd59a5f	0.104298346
37	0x3d164087	0.03668263
38	0xbf93ba2d	-1.1541191
39	0xbee3c9b4	-0.44489825
40	0xbdba912f	-0.09109723
41	0x3ec4bac5	0.38423744
42	0x3ec668fa	0.38751966
43	0x3d2ce39b	0.04220925
44	0x3f374173	0.7158424
45	0xbe328242	-0.17432502
46	0x3e7f97d4	0.24960262
47	0x3f0632da	0.52421343
48	0xbede2c19	-0.4339302
49	0xbefbbfad	-0.49169675
50	0x3d8cdc33	0.06877937
51	0xbe939354	-0.2882334
52	0x3e4f49b3	0.20242958
53	0x3f55b316	0.8347639
54	0xbf1acb2f	-0.60466284
55	0x3f084368	0.53227854
56	0x3dec56b8	0.11539978
57	0x3db5a01e	0.088684306
58	0xbe17807f	-0.14795111
59	0x3c7bf117	0.0153773045
60	0x3f3543d8	0.70806646
61	0xbeb9bfbf	-0.36279103
62	0xbaa9ea55	-0.0012963513
63	0xbe6f1253	-0.23346834
64	0xbea44885	-0.32086578
65	0x3f3850c6	0.7199825
66	0x3c551a10	0.013006702
67	0xbf343ca3	-0.70405024
68	0xbf0c0cb1	-0.54706866
69	0x3ccc26c8	0.024920836
70	0xbf13b8bc	-0.5770376
71	0x3f6300a5	0.8867286

conv1.conv1.0.bias f4 [8]
0	0x3ea434df	0.32071587
1	0xbe8cd1d2	-0.2750383
2	0xbea941bd	-0.33057967
3	0xbe857eb7	-0.26073238
4	0xbe658f12	-0.22417858
5	0x3e0a314b	0.13495366
6	0x3df4690b	0.11934098
7	0x3e8dc732	0.27691036

conv1.conv1.1.weight f4 [8]
0	0x3f6df47f	0.92951196
1	0x3f727a1b	0.9471757
2	0x3f7fddf1	0.9994803
3	0x3fa675c8	1.3004694
4	0x3f80a6b1	1.005087
5	0x3f828442	1.0196612
6	0x3f49a083	0.78760546
7	0x3f6454a6	0.89191663

conv1.conv1.1.bias f4 [8]
0	0x3eb1f00d	0.34753457
1	0xbe4ae390	-0.1981337
2	0x3f0189c3	0.5060083
3	0x3ec6824f	0.38771293
4	0x3e76f697	0.24117504
5	0x3ee35c49	0.44406345
6	0xbcb73357	-0.022363348
7	0xbd2d83b7	-0.04236194

conv1.conv1.1.running_mean f4 [8]
0	0x3ea4c48c	0.32181203
1	0xbe8cf1ee	-0.27528328
2	0xbea7d0e3	-0.32776555
3	0xbe848857	-0.2588527
4	0xbe65a385	-0.22425659
5	0x3e0ccda2	0.13750318
6	0x3df5d801	0.1200409
7	0x3e8ef8c6	0.27924174

conv1.conv1.1.running_var f4 [8]
0	0x3f97b6db	1.1852678
1	0x409425a6	4.6295958
2	0x3ea94feb	0.33068785
3	0x3f66def0	0.90183926
4	0x3e895c84	0.26828396
5	0x3eb7abe8	0.35873342
6	0x3e04d786	0.1297284
7	0x3f208c99	0.62714535

conv1.conv2.0.weight f4 [8, 8, 3, 3]
0	0x3c9ded62	0.019278232
1	0x3ebc8d08	0.36826348
2	0x3cdba4d8	0.026812002
3	0xbd2dd142	-0.042435892
4	0x3e27286b	0.16324012
5	0xbd824a9f	-0.06361889
6	0x3c050baf	0.008120461
7	0x3e55ce9c	0.20879596
8	0xbe03c573	-0.1286829
9	0xbe888594	-0.26664412
10	0x3e68ef58	0.22747552
11	0x3e81f89c	0.25384986
12	0xbe1d011b	-0.15332453
13	0x3e04da71	0.12973954
14	0x3e09bc4c	0.13450736
15	0xbe7bc2b4	-0.24585992
16	0xbe800318	-0.2500236
17	0xbe026473	-0.12733631
18	0x3d40c0e4	0.047058955
19	0xbeb5d988	-0.35517526
20	0xbe26ad43	-0.16277032
21	0xbefe1c48	-0.49630952
22	0xbe4ed44f	-0.20198177
23	0xbc9fa280	-0.019486666
24	0xbe26a0c1	-0.1627226
25	0x3ec76a67	0.38948366
26	0x3e9b5983	0.3034173
27	0x3dcaee70	0.099087596
28	0xbe21f032	-0.15814283
29	0x3e3d8865	0.18509062
30	0x3c113432	0.008862542
31	0xbdad2a04	-0.084552795
32	0xbd22c81c	-0.03974162
33	0x3e55adb8	0.2086705
34	0x3eb27cfd	0.34860983
35	0xbd6877b9	-0.0567548
36	0x3e3b5600	0.18294525
37	0xbce969bd	-0.028492803
38	0x3ccda5e4	0.025103517
39	0xbe1c060b	-0.1523668
40	0xbd8083ec	-0.06275162
41	0xbd1f40f9	-0.038880322
42	0xbe82e7ec	-0.25567567
43	0x3ddcc72e	0.10780178
44	0x3e4025b2	0.1876438
45	0x3e98e264	0.29860222
46	0x3da184a3	0.078866266
47	0xbe3ea046	-0.18615827
48	0xbead3f6f	-0.33837458
49	0xbe029145	-0.12750728
50	0xbd842e4c	-0.06454143
51	0x3f0cbbcc	0.54974055
52	0x3da7ad44	0.08187345
53	0x3e97ba6b	0.29634413
54	0xbe390624	-0.18068749
55	0x3d2ab511	0.041676585
56	0x3e5ad49c	0.21370167
57	0x3e2a8828	0.16653502
58	0x3d7b29b9	0.061319087
59	0xbe06be32	-0.13158491
60	0x3d29a2df	0.04141509
61	0x3c83ee97	0.01610498
62	0xbe8e37f7	-0.27777073
63	0xbe8c094e	-0.2735085
64	0xbea4fe38	-0.32225204
65	0x3dc982d3	0.09839406
66	0xbdc3f146	-0.09567504
67	0xbdc2465c	-0.09486076
68	0xbe130382	-0.14356807
69	0xbd9dd14f	-0.07705938
70	0xbe7f96b9	-0.2495984
71	0xbe020f12	-0.12701061
72	0x3e8ad094	0.27112257
73	0xbd9f0e0a	-0.077663496
74	0x3e3a483a	0.18191615
75	0x3db80c3f	0.08986711
76	0x3df8f6cb	0.12156447
77	0x3eb58a68	0.35457158
78	0x3e847f6e	0.2587847
79	0x3ed56084	0.41675198
80	0x3df6eac7	0.12056499
81	0x3da01012	0.07815565
82	0x3e93e8d4	0.2888857
83	0x3ea6c618	0.3257301
84	0xbe265d01	-0.16246416
85	0xbcae4022	-0.021270815
86	0xbccb18f1	-0.024792166
87	0xbe015974	-0.1263178
88	0xbeaadbf2	-0.3337093
89	0xbe1f91a1	-0.15582897
90	0xbbffedbf	-0.007810324
91	0x3b9c668c	0.0047729667
92	0x3ef1a612	0.47197014
93	0x3d70cf11	0.058791224
94	0x3e22ced6	0.15899214
95	0x3ee150cc	0.44006956
96	0x3e2346d5	0.15944989
97	0x3d60d7b2	0.054893203
98	0xbdc31d31	-0.09527052
99	0xbec98b95	-0.39364305
100	0xbe9041ba	-0.28175145
101	0xbbcd7e58	-0.006271165
102	0x3d8fdf57	0.070250206
103	0xbcf6867c	-0.030093424
104	0x3e8e6aef	0.2781596
105	0x3e0f57e0	0.13998365
106	0x3a0b7052	0.0005319166
107	0x3e8a12ef	0.2696757
108	0xbe1065f3	-0.1410139
109	0xbe2aa6b8	-0.1666516
110	0x3e310168	0.17285693
111	0x3c83041e	0.015993174
112	0xbe2fbfec	-0.17163056
113	0xbe1223fe	-0.14271542
114	0x3b937f4b	0.0045012585
115	0xbd03454d	-0.032048512
116	0xbead6638	-0.3386705
117	0xbdc55ba5	-0.096366204
118	0x3f0b97dd	0.545286
119	0x3f154e74	0.58322835
120	0xbe6771df	-0.22602032
121	0x3df0e848	0.11763054
122	0x3e2c5788	0.16830266
123	0xbc0cc7c8	-0.008592553
124	0x3e21fb6e	0.15818569
125	0xbd390310	-0.045168936
126	0xbded3040	-0.115814686
127	0x3e78a2c4	0.2428084
128	0x3dfc0721	0.12306047
129	0xbe2debbc	-0.16984457
130	0x3d3b1839	0.045677397
131	0x3d7d6ff1	0.061874334
132	0xbdbd4c70	-0.09243095
133	0xbd25e256	-0.040499054
134	0xbba81b2c	-0.0051301923
135	0xbe41ceeb	-0.18926589
136	0xbe18b620	-0.14913225
137	0xbc2cb6c7	-0.010541624
138	0xbd7f5b0a	-0.06234268
139	0x3e6cb6ae	0.23116562
140	0xbdc5b7df	-0.09654211
141	0x3d0d7f13	0.034545016
142	0xbd825d41	-0.06365443
143	0x3e086542	0.13319877
144	0xbe82373f	-0.25432774
145	0xbd031a14	-0.032007292
146	0xbc07c506	-0.00828672
147	0x3c6cdf60	0.014457554
148	0x3e3d291a	0.1847271
149	0xbe58e8bf	-0.21182536
150	0x3e03249b	0.12806933
151	0xbd9b9907	-0.07597547
152	0xbd48c28a	-0.049013652
153	0xbe9e2d7e	-0.30894083
154	0xbdb7eafb	-0.08980366
155	0x3d860780	0.06544399
156	0x3d311a79	0.043238137
157	0x3e319d19	0.17345084
158	0x3e1c8c02	0.15287784
159	0xbe15d945	-0.14633663
160	0x3d30efdc	0.043197498
161	0x3e9d9707	0.30779287
162	0x3d7cf506	0.06175711
163	0x3ea169b5	0.3152596
164	0x3db7b32e	0.08969723
165	0xbd919c92	-0.071099415
166	0x3e1113f1	0.14167763
167	0xbec52f52	-0.38512665
168	0xbe7a4a0b	-0.24442308
169	0x3ca23712	0.01980165
170	0x3e311d8e	0.1729643
171	0xbdfc3e25	-0.12316541
172	0xbe8a7f92	-0.27050453
173	0xbd220288	-0.039553195
174	0xbd45ab35	-0.04825898
175	0xbcbebb56	-0.023282688
176	0xbc3e4843	-0.011613908
177	0xbeae4385	-0.34035888
178	0x3a90cabd	0.0011046749
179	0xbb8a96ec	-0.004229417
180	0x3e0e25f5	0.13881667
181	0x3e97d9c9	0.29658344
182	0x3e02d52c	0.12776631
183	0x3e182c1e	0.1486058
184	0xbd3a01e2	-0.04541195
185	0x3df40556	0.1191508
186	0x3da53f0d	0.080686666
187	0xbd9d827a	-0.07690902
188	0x3e82cc80	0.25546646
189	0x3bcc255e	0.0062300405
190	0xbe0e8c56	-0.13920721
191	0x3bcac2b8	0.006187763
192	0x3da3ae5f	0.07992243
193	0x3cd78814	0.026310004
194	0x3e3b040b	0.18263261
195	0x3f23da3c	0.64004874
196	0x3e45df89	0.19323553
197	0x3e5bae65	0.21453245
198	0x3d1ccf0c	0.038283393
199	0xbe4570df	-0.19281338
200	0x3d75934b	0.059954923
201	0x3d38bb77	0.045100655
202	0xbd39b201	-0.045335773
203	0x3d7c2653	0.061559986
204	0x3e7dcb97	0.24784695
205	0xbdb2d23f	-0.087315075
206	0x3d1d371e	0.038382642
207	0xbde4e977	-0.111773424
208	0x3b4b8ef7	0.0031060555
209	0xbbf1a5c4	-0.007374497
210	0x3e0ab0b5	0.13543971
211	0x3dd6d94f	0.10490667
212	0x3a15b0dc	0.0005710253
213	0xbe053516	-0.13008532
214	0xbd66604d	-0.056244183
215	0x3e08386b	0.13302772
216	0xbd3d8916	-0.046273313
217	0x3da328da	0.07966776
218	0x3cd342e8	0.02578874
219	0x3d9071af	0.070529334
220	0x3c44b5fa	0.012006277
221	0x3d28ef0c	0.041243598
222	0xbd8ceea7	-0.06881457
223	0x3e51aa8f	0.20475219
224	0xbb83b166	-0.0040189503
225	0xbd0c3dec	-0.03423874
226	0xbd4d67f8	-0.05014798
227	0xbbd303b4	-0.0064396504
228	0xbd373429	-0.04472748
229	0xbcb1057d	-0.021609062
230	0x3d394aa9	0.045237217
231	0xbc89c27e	-0.016816374
232	0xbe0be69a	-0.13662186
233	0x3e1ce4fc	0.15321726
234	0x3e53ddf5	0.20690139
235	0xbdd0d5a0	-0.10196996
236	0xbe2cb271	-0.16864945
237	0x3e5368a2	0.20645383
238	0x3b68ce73	0.0035523444
239	0x3e671d30	0.22569728
240	0xbd4a4d37	-0.049390044
241	0xbdbd3fda	-0.09240694
242	0xbcea473a	-0.028598417
243	0x3d4c3f8a	0.049865283
244	0xbd29a12b	-0.041413467
245	0x3e063ab3	0.1310833
246	0xbdf0ed95	-0.11764065
247	0x3db5cfdc	0.08877537
248	0x3e173094	0.14764625
249	0xbc001d08	-0.007819422
250	0xbe2657e5	-0.16244467
251	0xbe094014	-0.1340335
252	0x3ebc6346	0.3679449
253	0x3eb0876b	0.34478316
254	0x3da2a020	0.07940698
255	0x3d843f04	0.06457332

conv1.conv2.0.bias f4 [8]
0	0xbc9efd05	-0.019407758
1	0xbd895d7d	-0.067072846
2	0xbc9c120e	-0.019051578
3	0x3dc3b53c	0.09556052
4	0xbdb31c50	-0.087456346
5	0x3cdb08db	0.026737621
6	0xbded2386	-0.11579041
7	0x3d7cfede	0.061766498

conv1.conv2.1.weight f4 [8]
0	0x3f7a3620	0.9773884
1	0x3f5c64f4	0.8609154
2	0x3f57fff2	0.84374917
3	0x3f41d774	0.7571938
4	0x3f826a71	1.0188733
5	0x3f8a5b27	1.0809067
6	0x3f790ed1	0.97288233
7	0x3fb5e1d8	1.4209547

conv1.conv2.1.bias f4 [8]
0	0x3d1e6f1b	0.038680177
1	0xbdacc332	-0.08435668
2	0xbc21d97a	-0.009878511
3	0xbd4f8759	-0.050666187
4	0x3e9ae19d	0.30250254
5	0xbda772c6	-0.08176188
6	0xbdce3c6c	-0.10070118
7	0x3f0ba2fb	0.54545563

conv1.conv2.1.running_mean f4 [8]
0	0x3c2ff0a3	0.010738525
1	0x40002e0c	2.0028105
2	0x3f269568	0.65071726
3	0x3fb3d092	1.4048026
4	0x3eb8d7f2	0.36102253
5	0xbff46fb7	-1.9096593
6	0xbeb0fd84	-0.34568417
7	0xbed22a6a	-0.41047984

conv1.conv2.1.running_var f4 [8]
0	0x3fa2885b	1.2697862
1	0x4123bb2d	10.233197
2	0x40364e66	2.848535
3	0x402fa2a4	2.7443018
4	0x40592695	3.3929799
5	0x40ec0550	7.3756485
6	0x405d1861	3.454613
7	0x3fe9ce86	1.8266151

conv1.conv3.0.weight f4 [8, 8, 3, 3]
0	0xbd8ec0ab	-0.06970342
1	0xbe1565a8	-0.1458956
2	0x3bc0b132	0.0058804983
3	0x3e4d1ce0	0.20030546
4	0xbbd5e994	-0.006528089
5	0x3d950c5f	0.0727775
6	0xbe73874b	-0.23782079
7	0x3d76ab6f	0.060222086
8	0x3db96b2c	0.090536445
9	0xbe8e6920	-0.2781458
10	0x3e73f60d	0.2382433
11	0x3f0286d1	0.50986964
12	0xbe2245fb	-0.15847008
13	0xbd928b13	-0.071554326
14	0x3cfbab4a	0.030721325
15	0x3dc85842	0.09782459
16	0x3e205caf	0.15660356
17	0xbe0ed77c	-0.13949388
18	0xbe8ee1d1	-0.2790666
19	0x3d3f7ddf	0.0467509
20	0x3d8c8fb6	0.06863348
21	0xbe5b0349	-0.21387972
22	0x3c045adb	0.008078302
23	0x3e902c4e	0.28158802
24	0xbe8c3c8e	-0.2738995
25	0x3e2b9816	0.16757235
26	0xbe2ffed8	-0.17187059
27	0xbf034ff0	-0.5129385
28	0x3d2b9ecc	0.041899487
29	0x3e216589	0.15761389
30	0xbd643013	-0.05570991
31	0xbddd7bdd	-0.10814641
32	0x3e6f7d7b	0.23387711
33	0x3dc76c7c	0.097374886
34	0x3c0a8a6e	0.008455856
35	0x3d8ecf70	0.06973159
36	0xbdc6fffb	-0.09716793
37	0x3e7d9f68	0.2476784
38	0x3f03ffe4	0.51562333
39	0x3e5f4187	0.2180234
40	0x3eacabe1	0.33724883
41	0x3e79caed	0.24393816
42	0xbd40624d	-0.046968747
43	0xbd2ac447	-0.04169109
44	0x3e6cb395	0.2311538
45	0xbe333cf3	-0.17503719
46	0x3c27057e	0.0101941805
47	0xbeae5108	-0.34046197
48	0x3da36fce	0.079803094
49	0x3db7b0ab	0.089692436
50	0x3e4cea89	0.20011343
51	0x3dd39eb4	0.103330046
52	0xbe831114	-0.25598967
53	0x3c5f8f4d	0.013645005
54	0xbe287160	-0.16449499
55	0x3cfc2f11	0.030784162
56	0x3e3ac580	0.18239403
57	0xbe424d51	-0.18974806
58	0xbd9cc13d	-0.07654045
59	0x3e87080f	0.26373336
60	0xbdbd79a6	-0.09251718
61	0xbe261f5a	-0.16222897
62	0xbe4b5a2d	-0.19858618
63	0x3c445110	0.011982217
64	0xbd89a663	-0.06721189
65	0xbdabcdad	-0.08388839
66	0x3dc59ddc	0.0964925
67	0x3d775eee	0.060393266
68	0xbe8d5324	-0.27602494
69	0x3e37e241	0.17957403
70	0xbe175c05	-0.14781196
71	0xbcdb6eec	-0.02678629
72	0xbe21e6b5	-0.15810664
73	0xbe4e79da	-0.2016367
74	0x3d8c9718	0.06864756
75	0x3e1c4383	0.15260129
76	0x3e223398	0.15839994
77	0x3e917309	0.28408077
78	0x3c4ee12b	0.012626926
79	0x3e844af6	0.2583844
80	0xbcaf57b5	-0.021404127
81	0x3ea63a1d	0.32466212
82	0xbd3d741b	-0.046253305
83	0x3c4dc82b	0.012559931
84	0xbd740ad6	-0.059580646
85	0x3c325329	0.010884085
86	0x3e225787	0.15853702
87	0x3e4025aa	0.18764368
88	0x3d9c6e89	0.076382704
89	0x3e7a7558	0.24458826
90	0x3e4546ca	0.19265285
91	0xbd00c614	-0.031438902
92	0x3e560b55	0.2090276
93	0xbea046ad	-0.3130392
94	0xbd93163e	-0.07181977
95	0x3cf66814	0.030078925
96	0x3dc1c128	0.0946067
97	0xbe3f38ee	-0.1867406
98	0x3ba1b3df	0.0049347724
99	0x3e055202	0.13019565
100	0x3de89966	0.113573834
101	0xbd0261f5	-0.0318317
102	0xbd9327e8	-0.07185346
103	0x3e8ed9d5	0.27900568
104	0xbe924e84	-0.28575528
105	0x3e1df4d9	0.15425433
106	0xbe101b87	-0.14073001
107	0xbdb81586	-0.0898848
108	0x3e917c5d	0.28415194
109	0x3edb64a5	0.42850223
110	0x3db823a3	0.08991172
111	0xbd0db513	-0.034596514
112	0xbe3d25aa	-0.18471399
113	0x3de684e3	0.11255815
114	0xbd756bc9	-0.059917245
115	0x3d860f41	0.06545878
116	0x3e836b12	0.25667626
117	0xbe5d3972	-0.21603945
118	0x3c24303a	0.010021264
119	0x3d71d630	0.059042156
120	0xbd044165	-0.032288928
121	0x3dd7c1e9	0.10535032
122	0x3e67a14e	0.22620127
123	0xbcb9e8d6	-0.022694033
124	0xbe567fa6	-0.20947132
125	0xbde28f25	-0.11062459
126	0x3d9ede08	0.07757193
127	0xbd67b46b	-0.056568544
128	0xbe1cfa92	-0.1532996
129	0xbde00b06	-0.109396026
130	0xbd51c7b1	-0.05121583
131	0xbbf1432f	-0.0073627452
132	0xbe0ce513	-0.1375926
133	0xbe12ec6c	-0.14348
134	0x3d4fd088	0.05073598
135	0x3c8b150b	0.016977808
136	0xbd8c8e5e	-0.06863092
137	0xbe948db0	-0.2901435
138	0xbe73460f	-0.23757194
139	0xbe873b92	-0.26412636
140	0x3e5462f4	0.20740873
141	0xbe03982f	-0.12851022
142	0x3c901f07	0.01759292
143	0xbdc18038	-0.09448284
144	0xbd861bb9	-0.065482564
145	0xbe820e83	-0.25401697
146	0x3e168863	0.14700465
147	0xbc8045f6	-0.01565836
148	0xbe02a811	-0.12759425
149	0xbda00964	-0.07814291
150	0x3d5bab27	0.05363002
151	0x3e81cdbf	0.25352284
152	0xbd80d8dc	-0.06291363
153	0xbe25df13	-0.16198377
154	0x3d7dfb8b	0.06200747
155	0xbdc5ad6f	-0.096522205
156	0xbdc057e5	-0.093917646
157	0x3e86045c	0.261752
158	0x3e8af56e	0.27140373
159	0xbea86b64	-0.32894433
160	0x3e8e2bb4	0.27767718
161	0xbcb86fce	-0.02251425
162	0x3dd39550	0.103312135
163	0xbe88513d	-0.2662448
164	0x3b71b910	0.0036883987
165	0xbe4a254c	-0.1974079
166	0xbe39b66a	-0.18135992
167	0x3e683a5e	0.22678515
168	0xbe7c64f8	-0.24647892
169	0x3dc5027d	0.09619615
170	0xbe2b6f0b	-0.16741578
171	0x3d3530ed	0.044236112
172	0x3dffa2f5	0.124822535
173	0xbe2cdeed	-0.16881914
174	0xbe29c619	-0.16579475
175	0xbd04c169	-0.032411013
176	0xbc5aa633	-0.013345289
177	0xbd6d2a24	-0.057901517
178	0x3c4a10f1	0.012333141
179	0xbdde267b	-0.10847183
180	0x3dec1949	0.1152826
181	0x3d1b6da4	0.03794636
182	0xbe430aa7	-0.19047032
183	0xbdb902ae	-0.09033714
184	0xbe1b35e2	-0.15157273
185	0xbee7607e	-0.45190805
186	0x3da426a7	0.08015185
187	0x3e1c1930	0.15243983
188	0xbdc23f83	-0.0948477
189	0x3e77731d	0.24165006
190	0xbe9a9613	-0.30192623
191	0x3de55022	0.11196925
192	0xbc9c3e65	-0.01907272
193	0xbdefd8c8	-0.117112696
194	0x3ef807df	0.48443505
195	0x3c91e965	0.017811486
196	0x3c301dc7	0.010749287
197	0x3d74bdfe	0.059751503
198	0xbe38cffd	-0.18048091
199	0xbb685289	-0.0035449585
200	0x3dacfc5e	0.08446573
201	0xbef230dd	-0.47302905
202	0xbdffce05	-0.12490467
203	0x3c47a4c0	0.012185276
204	0xbdc13602	-0.09434129
205	0xbe0c9f47	-0.13732634
206	0xbef89a65	-0.48555294
207	0xbe871d0c	-0.26389349
208	0xbf2a8c2b	-0.6662013
209	0x3ce3536f	0.027749745
210	0xbe040762	-0.12893441
211	0x3e827ab6	0.25484246
212	0x3e970458	0.29495502
213	0x3e0598a4	0.13046509
214	0x3d06e4d9	0.03293309
215	0x3f06c152	0.52638733
216	0xbe082bfd	-0.1329803
217	0xbd82f6a8	-0.06394702
218	0x3e068f78	0.13140666
219	0x3e992381	0.299099
220	0xbe17b0f0	-0.1481359
221	0xbe0e5095	-0.13897927
222	0x3e8ec75d	0.27886477
223	0xbde2bf3e	-0.11071633
224	0x3e985c6b	0.2975801
225	0x3daa8bf0	0.08327472
226	0xbdcb92fe	-0.09940146
227	0xbd45586c	-0.04818003
228	0xbea39a21	-0.3195353
229	0x3e8d7198	0.27625728
230	0xbe7134fa	-0.23555365
231	0x3e8ab76e	0.2709307
232	0x3d631a8b	0.055445235
233	0xbe2dbd1c	-0.16966671
234	0x3e918865	0.28424373
235	0xbd83e3dd	-0.06439946
236	0xbd8c1d33	-0.06841507
237	0x3e9ffc08	0.31246972
238	0x3e2c7881	0.16842844
239	0x3e785cda	0.2425417
240	0x3e42dcc3	0.19029526
241	0x3e4af801	0.19821168
242	0x3e0bd1a2	0.13654187
243	0x3d49e4d2	0.049290486
244	0x3d947472	0.07248773
245	0xbe626279	-0.22107877
246	0x3e5d0dc7	0.21587287
247	0xbdd39c5c	-0.103325576
248	0x3dd37a5e	0.10326074
249	0x3ee6f82f	0.45111224
250	0x3e5e2320	0.21693087
251	0x3cd127f4	0.025531746
252	0x3d3aa76c	0.045569822
253	0x3dc2704e	0.09494077
254	0xbd83996e	-0.06425749
255	0x3d04fe08	0.032468826

conv1.conv3.0.bias f4 [8]
0	0xbd7d70a1	-0.06187499
1	0xbb8bf2ea	-0.004270901
2	0x3cb42f94	0.021995343
3	0xbd002e65	-0.031294245
4	0x3da4782c	0.080307335
5	0x3c52860f	0.012849345
6	0xbddef6a0	-0.10886884
7	0xbc511a7b	-0.012762661

conv1.conv3.1.weight f4 [8]
0	0x3f87178e	1.0554063
1	0x3f4608c0	0.773571
2	0x3f9336ed	1.1501137
3	0x3f60b83b	0.87781113
4	0x3fac4493	1.3458427
5	0x3f8b8133	1.0898803
6	0x3f558e2e	0.83420074
7	0x3f85e1f4	1.045958

conv1.conv3.1.bias f4 [8]
0	0x3bc36f6a	0.0059642093
1	0xbdb34600	-0.08753586
2	0x3e73b31e	0.23798797
3	0x3d922de3	0.071376584
4	0xbd79533f	-0.060870405
5	0x3ea10de9	0.31455925
6	0xbcffae99	-0.031211184
7	0x3dc323f2	0.095283404

conv1.conv3.1.running_mean f4 [8]
0	0x3e84f4dd	0.25968066
1	0xbcbde9a3	-0.023182696
2	0xbf262f64	-0.6491606
3	0x3f5442d8	0.82914495
4	0xbe441d14	-0.19151717
5	0xbfae31f7	-1.3608998
6	0xbf94e772	-1.1633132
7	0xbdfb348a	-0.122658804

conv1.conv3.1.running_var f4 [8]
0	0x40072c9f	2.1120985
1	0x40391eb5	2.8924992
2	0x3fe9e7f8	1.8273916
3	0x4092e039	4.589871
4	0x4070bcdf	3.7615278
5	0x402767c4	2.6157084
6	0x3fdf2a96	1.7434871
7	0x400f3a56	2.2379355

conv2.conv1.0.weight f4 [16, 8, 3, 3]
0	0xbb0e9e0c	-0.0021761684
1	0xbe5cecd8	-0.21574724
2	0xbc91140e	-0.017709758
3	0xbe4779ee	-0.19480106
4	0xbe8268ff	-0.2547073
5	0xbe29f18c	-0.16596049
6	0x3db402df	0.0878961
7	0x3d312303	0.04324628
8	0x3de82517	0.11335199
9	0xbdd91456	-0.10599582
10	0x3c6f3b79	0.014601582
11	0xbea6087d	-0.3242835
12	0x3cdf044e	0.027223732
13	0xbd8c3d65	-0.068476476
14	0x3e401f86	0.18762025
15	0xbe9093a5	-0.28237644
16	0x3caa4d96	0.020788949
17	0xbe978ad9	-0.2959812
18	0x3db18c9d	0.08669398
19	0x3e228d0e	0.1587412
20	0xbda2a7d3	-0.07942166
21	0xbea641e9	-0.3247216
22	0x3e936426	0.28787345
23	0xbe54a4a6	-0.20765933
24	0x3d824b85	0.063620605
25	0x3e1a0341	0.15040304
26	0x3db16509	0.08661849
27	0x3e54952a	0.20760027
28	0x3d7e4ec6	0.062086843
29	0xbe85429e	-0.26027387
30	0x3d88a500	0.06672096
31	0xbd845f67	-0.06463509
32	0xbba63b36	-0.0050729765
33	0x3c2fb017	0.010723135
34	0xbd7cba33	-0.06170101
35	0x3ddd6192	0.10809626
36	0x3d39773a	0.04527972
37	0x3e297cfa	0.16551581
38	0x3e878b11	0.26473287
39	0xbc3244eb	-0.010880689
40	0x3ea3b159	0.31971243
41	0x3dd23947	0.10264831
42	0xbcc1d5d4	-0.023661532
43	0xbd283481	-0.041065697
44	0xbd0c300b	-0.034225505
45	0xbc091ed2	-0.008369165
46	0xbe200cf8	-0.15629947
47	0xbe294add	-0.16532464
48	0x3c26fbfd	0.010191915
49	0xbeb519ef	-0.35371348
50	0xbb9ac017	-0.004722606
51	0xbe2246e5	-0.15847357
52	0xbd3dbd37	-0.046323027
53	0xbeec70cd	-0.4617981
54	0xbe0a7b81	-0.13523676
55	0xbe829cde	-0.25510305
56	0xbd54ad67	-0.05192318
57	0x3e8855eb	0.2662805
58	0xbba14ea7	-0.004922706
59	0x3e4b0774	0.19827062
60	0xbbacd11a	-0.0052739503
61	0xbca569d2	-0.02019206
62	0x3e7c4b93	0.24638204
63	0xbe94bb93	-0.29049358
64	0xbe5db4d6	-0.21651015
65	0xbcda2e46	-0.026633393
66	0xbe81ec59	-0.2537563
67	0x3ddcdd99	0.10784454
68	0x3e64ce49	0.22344317
69	0x3e27b561	0.16377784
70	0x3e24f345	0.16108425
71	0xbbef0f5a	-0.007295531
72	0xbc5591e0	-0.013035268
73	0x3e823cd4	0.25437033
74	0xbc7febe4	-0.015620206
75	0x3ecc0b27	0.3985226
76	0x3d880bf6	0.06642906
77	0xbe08476d	-0.13308497
78	0xbc42c63a	-0.011888081
79	0x3c6b4e23	0.014361891
80	0xbd19a040	-0.037506342
81	0x3e249fee	0.16076633
82	0xbe040162	-0.12891153
83	0xbd78b4fc	-0.060719475
84	0x3e4f8f18	0.2026943
85	0xbf06dac8	-0.52677584
86	0xbe3aff27	-0.18261395
87	0x3ee000e4	0.4375068
88	0xbd1c2e19	-0.0381299
89	0x3d89d6b9	0.06730408
90	0xbe8abb20	-0.2709589
91	0x3e0584b7	0.13038908
92	0x3dcfbdcc	0.10143623
93	0xbd7081d0	-0.05871755
94	0x3e1a93f8	0.15095508
95	0xbe3907d7	-0.18069397
96	0xbe84c76b	-0.25933394
97	0xbdb282b3	-0.08716335
98	0xbce7e107	-0.028305544
99	0xbc03ad4d	-0.008036924
100	0x3c651123	0.0139811365
101	0xbe092de3	-0.1339641
102	0xbe6c2d1d	-0.23064084
103	0xbce27814	-0.027645148
104	0xbec33004	-0.3812257
105	0x3e06b692	0.13155583
106	0xbcfdd5a3	-0.030985659
107	0xbe203da2	-0.15648511
108	0xbec91bd1	-0.39279035
109	0xbd78874a	-0.060675897
110	0xbdf27f1e	-0.11840652
111	0x3dd66780	0.1046896
112	0x3d1de9a9	0.038552914
113	0x3e177f43	0.1479464
114	0x3e498749	0.19680513
115	0xbccba46a	-0.024858672
116	0x3e5dea17	0.2167133
117	0xbdc9bdfc	-0.0985069
118	0x3e837945	0.2567846
119	0xbe503820	-0.2033391
120	0xbe6dc86a	-0.23220983
121	0xbe42bc3b	-0.19017117
122	0xbe0a23ab	-0.13490169
123	0xbe1a6dfe	-0.15081021
124	0xbe3199d3	-0.17343836
125	0x3e47de16	0.19518313
126	0xbe5d3d35	-0.2160538
127	0x3d8e3635	0.06943933
128	0x3e101ac2	0.14072707
129	0xbe0f43fa	-0.13990775
130	0xbdbe8c35	-0.09304086
131	0x3e860263	0.26173696
132	0xbe515c31	-0.20445324
133	0x3e39f130	0.18158412
134	0xbe93b076	-0.28845567
135	0xbec4df26	-0.384515
136	0xbe018a14	-0.12650329
137	0x3e1aeaf5	0.15128691
138	0xbe2b5b06	-0.16733941
139	0xbb62cbd1	-0.0034606347
140	0xbcff9b82	-0.031202082
141	0xbdfe0af2	-0.124044314
142	0xb943ddb9	-0.00018679247
143	0x3d06d2ba	0.03291581
144	0xbd2139a6	-0.03936162
145	0xbec814fd	-0.39078513
146	0x3d4b1eb7	0.04958984
147	0x3e109e31	0.14122845
148	0xbcd5ceff	-0.02609968
149	0x3d9ebabc	0.077504605
150	0xbe0a2fd7	-0.13494812
151	0x3e826d36	0.25473946
152	0x3ddb6677	0.10712903
153	0xbe56e73f	-0.20986651
154	0x3da1a7b5	0.07893316
155	0x3e466916	0.19376025
156	0x3e960bf0	0.29305983
157	0x3ccf2e1c	0.025290541
158	0x3d206408	0.039157897
159	0xbda55496	-0.08072774
160	0xbe077493	-0.13228063
161	0x3d92cc58	0.07167882
162	0x3d0b7863	0.034050357
163	0x3e448bf9	0.1919402
164	0xbd11c855	-0.035591442
165	0xbe818816	-0.25299138
166	0x3ec1e8c8	0.3787291
167	0xbe33b798	-0.17550504
168	0xbe37b6ef	-0.17940877
169	0x3e010671	0.12600113
170	0xbe050217	-0.12989078
171	0xbe1620a7	-0.14660893
172	0xbec8b2ef	-0.39199015
173	0xbd99e76a	-0.07514842
174	0x3cc146d1	0.023593338
175	0x3dd441af	0.10364091
176	0x3e08e25d	0.133676
177	0xbc8fe7e8	-0.017566636
178	0xbdd7e366	-0.1054142
179	0x3ec652b4	0.38734972
180	0x3e6b6bda	0.22990361
181	0x3e22490c	0.15848178
182	0x3d8df1e5	0.06930903
183	0x3ea6b06f	0.32556483
184	0x3d9fe586	0.0780745
185	0xbdfa56fb	-0.122236215
186	0xbdbff150	-0.093721986
187	0xbeb06d19	-0.34458235
188	0xbd18d39f	-0.037311193
189	0xbc9ffc2b	-0.019529423
190	0xbe5d6be8	-0.21623194
191	0x3d12bf73	0.03582711
192	0xbe0171d5	-0.1264108
193	0x3dbf01e2	0.09326531
194	0x3e3a88fe	0.18216321
195	0x3e120be8	0.14262354
196	0x3eb04f1d	0.3443536
197	0x3cf65308	0.03006889
198	0xbe0640b0	-0.13110614
199	0xbe2e9c37	-0.17051779
200	0xbe90f147	-0.2830908
201	0xbdf01df8	-0.11724466
202	0xbbe3fc2b	-0.006957551
203	0x3d27469e	0.04083883
204	0x3c8facd8	0.017538473
205	0xbce3164a	-0.02772059
206	0x3cbd121c	0.023079924
207	0x3e78757c	0.24263567
208	0x3e268447	0.16261397
209	0xbf011006	-0.50415075
210	0x3dff9c5d	0.12480996
211	0xbc022a43	-0.007944646
212	0x3e28c99c	0.16483158
213	0xbca01109	-0.019539373
214	0xbd94c169	-0.072634526
215	0x3efa15ad	0.48844662
216	0x3e83a582	0.2571221
217	0x3d6542bb	0.055971842
218	0x3dd09dfa	0.10186382
219	0xbdd2a9ec	-0.10286316
220	0xbc6f1697	-0.014592788
221	0x3de9e88f	0.1142131
222	0xbe90d47d	-0.28287116
223	0x3c831574	0.01600144
224	0x3e6837d2	0.22677544
225	0xbd8b5320	-0.06802964
226	0x3d5bc117	0.05365094
227	0xbe284e43	-0.16436104
228	0xbe1b1d0a	-0.15147796
229	0x3d06838c	0.032840297
230	0x3df01fc2	0.11724807
231	0xbec3b2df	-0.38222405
232	0xbd9b220c	-0.07574853
233	0xbd3f4885	-0.04670002
234	0xbd410a70	-0.047129095
235	0x3e21a3c2	0.15785125
236	0x3e485f0a	0.19567505
237	0x3ebef55a	0.37296563
238	0x3e903269	0.2816346
239	0xbd824553	-0.06360879
240	0xbe321280	-0.1738987
241	0x3bef2d3c	0.0072990935
242	0xbe871344	-0.26381886
243	0xbe6ddf75	-0.23229773
244	0xbc7c4c6a	-0.015399078
245	0x3e6ca563	0.23109965
246	0xbe6cfca6	-0.23143253
247	0xbe36b6ee	-0.1784322
248	0xbe863359	-0.2621105
249	0x3e90b737	0.28264782
250	0x3d976de5	0.073940076
251	0x3c7fac8b	0.015605102
252	0x3d1275ef	0.035757
253	0xbd9a7773	-0.075423144
254	0xbea90ff9	-0.3302
255	0xbcd847aa	-0.02640136

conv2.conv1.0.bias f4 [16]
0	0xbc8c1c01	-0.017103197
1	0xbdc59620	-0.09647775
2	0x3ce27e11	0.027648004
3	0x3d101740	0.035178423
4	0xbdbeef64	-0.09323004
5	0xbdd876ea	-0.10569556
6	0x3c4a7aaa	0.012358347
7	0x3deba01f	0.1150515
8	0xbdd7d4e2	-0.10538651
9	0xbd6c761b	-0.05772982
10	0xbd266d25	-0.040631432
11	0xbdd52417	-0.10407274
12	0xbd9492d7	-0.0725457
13	0x3dbd676f	0.09248244
14	0x3db88d27	0.09011298
15	0xbdb18519	-0.086679645

conv2.conv1.1.weight f4 [16]
0	0x3f889e0f	1.0673236
1	0x3f6f6d78	0.9352641
2	0x3f558817	0.8341078
3	0x3f83569c	1.0260806
4	0x3f8d7ef6	1.105437
5	0x3f999c9f	1.2000922
6	0x3f6dd4ea	0.92903006
7	0x3f7d8d29	0.9904352
8	0x3f84fe27	1.0390061
9	0x3f6ca4bc	0.92438865
10	0x3f854e94	1.0414605
11	0x3f7daef4	0.9909508
12	0x3f8a2fdb	1.0795854
13	0x3f7330af	0.9499616
14	0x3f76adec	0.96359134
15	0x3f89d3e5	1.076779

conv2.conv1.1.bias f4 [16]
0	0x3dc9bc2b	0.09850343
1	0xbd742c06	-0.059612297
2	0xbdaca3c1	-0.08429671
3	0x3d85c9bd	0.06532619
4	0xbd02b0f1	-0.031907026
5	0xbde47804	-0.11155704
6	0x3d70c2ca	0.058779515
7	0x3c0b6710	0.008508459
8	0xbd8f14e2	-0.06986405
9	0xbb157f33	-0.0022811412
10	0xbc80269e	-0.015643414
11	0x3d89ce34	0.06728783
12	0x3db6f5d1	0.089336045
13	0xbdf69cbc	-0.120416135
14	0x3d3895eb	0.045064848
15	0xbd7a762d	-0.061147857

conv2.conv1.1.running_mean f4 [16]
0	0xbf7fa0fd	-0.99855024
1	0xbfd650ba	-1.6743386
2	0x3f1ec2ed	0.62016183
3	0xbda92aee	-0.08260141
4	0xbf926ae8	-1.1438875
5	0xc075e69d	-3.8422005
6	0xbf2411f6	-0.64089906
7	0x3fa60e1d	1.2973057
8	0xbfd777e0	-1.6833458
9	0x3f14a12a	0.58058417
10	0xc00e15d2	-2.2200818
11	0xbf61e61e	-0.88241756
12	0xbf14867d	-0.5801771
13	0x3fb220df	1.3916281
14	0xbf5c260c	-0.85995555
15	0xc020fb0a	-2.5153222

conv2.conv1.1.running_var f4 [16]
0	0x40a2dd45	5.0895104
1	0x3fdb8a70	1.7151623
2	0x3fb694d9	1.4264175
3	0x404fcf60	3.2470322
4	0x4048857b	3.133147
5	0x4074be87	3.8241289
6	0x40234633	2.5511596
7	0x402b0638	2.6722546
8	0x408dbefb	4.429563
9	0x3ff9af73	1.9506668
10	0x40491bff	3.1423337
11	0x40a96d39	5.294583
12	0x40265d6f	2.5994527
13	0x404f234f	3.23653
14	0x403fab0b	2.9948146
15	0x4050bd01	3.261536

conv2.conv2.0.weight f4 [16, 16, 3, 3]
0	0xbdbe28dd	-0.09285138
1	0xbd1c1011	-0.03810126
2	0x3dabd81a	0.083908275
3	0xbddf22a2	-0.108952776
4	0xbe563cc8	-0.20921624
5	0x3d94dea4	0.07269028
6	0xbe848e76	-0.2588994
7	0x3c2b5856	0.010458073
8	0xbdcdd0f7	-0.100496225
9	0x3bcdc10f	0.006279118
10	0x3d485b02	0.048914917
11	0x3d0ec065	0.03485145
12	0x3e0cec53	0.13762026
13	0x3e13de23	0.14440207
14	0x3d826991	0.063677914
15	0xbd470a3a	-0.048593737
16	0xbe2bd404	-0.16780096
17	0xbded2eee	-0.11581217
18	0xbde4893f	-0.1115899
19	0xbe40cf51	-0.18829085
20	0x3d527cab	0.051388424
21	0xbd650536	-0.055913173
22	0x3e099b0a	0.13438049
23	0x3cddbaab	0.02706655
24	0xbe5d4b01	-0.21610643
25	0xbbb702f3	-0.0055850684
26	0xbd948d8a	-0.07253559
27	0x3da7b39a	0.08188553
28	0xbe58f74e	-0.21188089
29	0xbe71625a	-0.23572674
30	0xbbdd7a59	-0.0067589697
31	0x3e501d76	0.20323738
32	0x3c85b54a	0.016321797
33	0xbd0874b8	-0.033314437
34	0xbdb76ad7	-0.08955925
35	0xbe2cbbb5	-0.1686848
36	0xbd628dd9	-0.055311058
37	0xbd849045	-0.0647283
38	0x3dd009a1	0.101580866
39	0x3cbdcaa3	0.023167914
40	0x3c090b7c	0.0083645545
41	0xbdb8e981	-0.09028912
42	0xbdd92b39	-0.10603947
43	0xbd763640	-0.06011033
44	0xbe6ce25f	-0.23133229
45	0xbdeb3b88	-0.11485964
46	0xbe6b4513	-0.22975568
47	0xbc804d16	-0.015661757
48	0x3d0bb014	0.034103468
49	0x3e6af027	0.22943173
50	0x3e0d3352	0.13789108
51	0xbdee256e	-0.11628233
52	0x3e22b5f8	0.15889728
53	0x3d6bbd97	0.057553854
54	0xbdd42602	-0.10358812
55	0x3db6924e	0.08914624
56	0xbd73ff2e	-0.05956953
57	0xbca72799	-0.020404624
58	0xbb7f8072	-0.0038986471
59	0xbd4d94d4	-0.05019076
60	0x3e008637	0.12551199
61	0xbdac3259	-0.084080406
62	0xbdd01218	-0.10159701
63	0xbea47877	-0.32123157
64	0x3e2ff04b	0.17181508
65	0x3dabf5fc	0.08396527
66	0x3d9d8d14	0.07692924
67	0xbe1b17d8	-0.15145814
68	0xbe304f5a	-0.1721777
69	0x3dc94e77	0.09829419
70	0xbdfb5754	-0.12272516
71	0xbd13c7a6	-0.03607907
72	0xbc9ad9ef	-0.018902747
73	0x3d1c95f8	0.03822896
74	0x3dce19fa	0.100635484
75	0xbe8ccb50	-0.27498865
76	0xbe38a56e	-0.18031856
77	0x3dd6b228	0.10483199
78	0x3c9aaa52	0.018880043
79	0xbd811c21	-0.06304193
80	0x3dffb465	0.124855794
81	0x3e51f991	0.20505358
82	0x3d7683e6	0.060184382
83	0x3dc49463	0.09598615
84	0xbdc68d30	-0.09694898
85	0xbe77680d	-0.24160786
86	0xbeb04e44	-0.34434712
87	0x3d4bf36e	0.0497927
88	0xbbbef467	-0.005827475
89	0xbc89bf76	-0.016814929
90	0x3d174ad5	0.0369366
91	0xbd04dbac	-0.032436058
92	0xbd7983f6	-0.060916863
93	0x3d13eab4	0.036112502
94	0xbd18ef35	-0.0373375
95	0x3da1d224	0.07901409
96	0xbe378583	-0.17922024
97	0xbc79ad0f	-0.015239014
98	0xbc2381b2	-0.009979652
99	0x3d8234dc	0.063577384
100	0x3cf94ae1	0.030431213
101	0xbdad5a3e	-0.08464478
102	0x3cfd6137	0.030930145
103	0xbde6813b	-0.112551175
104	0xbe4f7cb7	-0.20262419
105	0x3d99216f	0.0747708
106	0x3d022132	0.03176994
107	0xbbddd318	-0.006769549
108	0x3d11bdeb	0.03558151
109	0x3e015041	0.1262827
110	0xbd35d169	-0.044389162
111	0xbe251ac9	-0.16123499
112	0xbe2cb77f	-0.16866873
113	0xbd93a914	-0.072099835
114	0x3e2c7106	0.1683999
115	0x3cda0471	0.026613446
116	0x3dac7e29	0.08422501
117	0xbe2e2960	-0.17007971
118	0x3d400456	0.046879135
119	0xbda5a098	-0.080872715
120	0x3d43c7cf	0.047797974
121	0x3e0b82dc	0.13624138
122	0xbe0a46c2	-0.13503554
123	0x3e95791e	0.29193968
124	0xbd654172	-0.055970617
125	0xbda9d6b6	-0.08292906
126	0x3cb27d15	0.02178816
127	0x3ded64fc	0.11591527
128	0xbe35cd58	-0.17754114
129	0x3d262db4	0.04057093
130	0x3caecfa2	0.021339241
131	0xbe2d20dd	-0.16907068
132	0x3e01917d	0.12653156
133	0xbd0c5dd4	-0.03426917
134	0xbd7adb01	-0.061244015
135	0xbdb5bd5f	-0.0887401
136	0xbe0366ef	-0.12832235
137	0xbdacc6cd	-0.08436356
138	0xbd9d39ab	-0.07677015
139	0xbb4601b1	-0.003021341
140	0x3d23bfb4	0.039977744
141	0x3d98afaa	0.0745538
142	0xbda63450	-0.081154466
143	0x3d524c3d	0.051342238
144	0x3c14a50a	0.0090725515
145	0xbd2848c9	-0.04108504
146	0xbe0d71b7	-0.1381291
147	0x3e54b1ba	0.20770922
148	0xbd550fc5	-0.052016992
149	0xbdebc3ba	-0.11511941
150	0x3e2a1036	0.16607746
151	0x3d33e4e9	0.043919478
152	0x3cbac019	0.022796677
153	0xbbc3a959	-0.0059711155
154	0x3da3cdf1	0.079982646
155	0x3e26de54	0.16295749
156	0x3d951de6	0.07281093
157	0x3cee706f	0.029106347
158	0xbc80343e	-0.015649911
159	0xbe3fba25	-0.18723352
160	0xbcd8b98a	-0.02645566
161	0xbdb3e139	-0.08783192
162	0xbca59489	-0.020212429
163	0x3dabe468	0.083931744
164	0x3d757546	0.059926294
165	0x3da3c8b5	0.07997266
166	0x3e7da17e	0.24768636
167	0x3e294027	0.16528378
168	0xbeabb295	-0.33534685
169	0x3cd97aa7	0.026547743
170	0xbc0aa92c	-0.008463185
171	0x3b92e3fb	0.004482744
172	0x3de8d60f	0.113689534
173	0xbcc91c85	-0.024549732
174	0x3e0083ba	0.1255025
175	0x3e7d48ae	0.24734756
176	0xbce0f366	-0.027459811
177	0x3d24765f	0.04015195
178	0xbdfb1d92	-0.122614995
179	0x3e10e279	0.14148892
180	0xbd9ecb6b	-0.07753643
181	0xbe82c7e9	-0.25543144
182	0xbcc454b9	-0.02396618
183	0xbd56956d	-0.052388597
184	0xbe069b00	-0.13145065
185	0x3da89ed6	0.082334206
186	0xbe40b2c6	-0.18818197
187	0x3cbe0d40	0.023199677
188	0x3e2a38a5	0.1662317
189	0x3b5cb558	0.0033677425
190	0x3e3e06c4	0.18557268
191	0xbc333052	-0.010936813
192	0xbd1d2c6e	-0.03837245
193	0x3df72bb9	0.12068886
194	0xbc93beb6	-0.018035274
195	0x3cec597c	0.028851263
196	0xbe94565e	-0.28972143
197	0x3e082ebb	0.13299076
198	0xbe6d3296	-0.23163828
199	0x3e8ceaaa	0.27522784
200	0x3e1fcf46	0.15606412
201	0xbe5af36a	-0.21381918
202	0xbcce741f	-0.025201855
203	0xbd4d40c8	-0.05011061
204	0xbc88ef2f	-0.016715614
205	0xbce5b9d9	-0.02804272
206	0xbdd5febd	-0.10448978
207	0x3d9c5af2	0.07634534
208	0xbe719a79	-0.23594083
209	0xbe1d9a14	-0.15390807
210	0xbed50ce4	-0.41611397
211	0xbd77cc0b	-0.060497325
212	0x3d06e00e	0.03292852
213	0x3dc497a7	0.09599238
214	0x3e38b1d0	0.1803658
215	0x3c85d2e1	0.016335906
216	0xbe006ceb	-0.12541549
217	0xbe1d34b8	-0.15352142
218	0x3c3e9f5d	0.011634675
219	0x3df0ef2a	0.11764367
220	0xbe011941	-0.1260729
221	0x3dfcf2e7	0.123510174
222	0xbd824e09	-0.0636254
223	0x3b9157c6	0.0044355122
224	0xbe247afe	-0.16062543
225	0xbbf5e93a	-0.0075046094
226	0xbc82bd81	-0.015959503
227	0x3c18bf68	0.009322979
228	0x3ec2cbca	0.38046104
229	0x3e48a5d3	0.19594507
230	0x3df31487	0.1186915
231	0x3e0cc6a3	0.13747649
232	0x3e503533	0.20332794
233	0xbe4ff7a8	-0.20309317
234	0x3c950e16	0.018195193
235	0x3d0a545f	0.03377187
236	0x3a9eeb5c	0.0012124586
237	0x3d476808	0.048683196
238	0x3c339f45	0.010963266
239	0x3e253ed7	0.16137253
240	0xbe247dfd	-0.16063686
241	0xbd8bfdff	-0.06835555
242	0x3df8948b	0.12137707
243	0x3d241969	0.040063296
244	0x3da92b25	0.08260182
245	0x3dbf55fd	0.09342573
246	0xbe14a9f0	-0.14517951
247	0xbe4870a7	-0.19574223
248	0x3c9b7a1c	0.018979125
249	0xbe0778b0	-0.13229632
250	0x3d862f21	0.06551958
251	0x3dc8db31	0.098074324
252	0xbcaf2857	-0.02138154
253	0xbe167c35	-0.14695819
254	0x3e313bcf	0.17307971
255	0xbd24daef	-0.040247854

conv2.conv2.0.bias f4 [16]
0	0xbcb59577	-0.022165997
1	0x3d3b1a54	0.045679405
2	0xbd499f7f	-0.049224373
3	0xbcb45dea	-0.022017438
4	0x3d9c633a	0.076361135
5	0x3d35c07a	0.044373013
6	0xbd845b2d	-0.06462703
7	0xbcbb91b6	-0.022896629
8	0x3c060e99	0.008182191
9	0x3cf6916f	0.030098645
10	0xbd1cfe5b	-0.03832851
11	0x3d6ef2f0	0.058337152
12	0x3aaad149	0.0013032343
13	0xbd938595	-0.07203213
14	0x3cb6e1a3	0.022324389
15	0xbda5a214	-0.080875546

conv2.conv2.1.weight f4 [16]
0	0x3f8795c8	1.0592585
1	0x3f7efaf8	0.996017
2	0x3f852bdc	1.040401
3	0x3f73b6e6	0.95200956
4	0x3f7ab17f	0.9792709
5	0x3f86ecc1	1.0541002
6	0x3f746e2f	0.95480627
7	0x3f580f91	0.8439875
8	0x3f6921bd	0.91067106
9	0x3f827b0a	1.0193799
10	0x3f7377c4	0.9510462
11	0x3f678377	0.90434974
12	0x3f90d792	1.1315787
13	0x3f8779e3	1.0584072
14	0x3f8b08d5	1.086207
15	0x3f853f98	1.0410032

conv2.conv2.1.bias f4 [16]
0	0x3db7368e	0.08945952
1	0x3c20c6e2	0.009813042
2	0x3d1e0b62	0.038585074
3	0xbd46d88f	-0.04854637
4	0xbc62d2b9	-0.0138441855
5	0x3df0230a	0.11725433
6	0xbd14db54	-0.03634198
7	0xbe1ee83d	-0.1551828
8	0x3d6ce293	0.057833266
9	0x3c9712fe	0.018441673
10	0xbb9de031	-0.0048179855
11	0xbd9b7992	-0.07591547
12	0x3db5073f	0.08839273
13	0xbddc6678	-0.10761732
14	0x3dff809e	0.12475704
15	0x3ce9b0a0	0.028526604

conv2.conv2.1.running_mean f4 [16]
0	0xbfa4731c	-1.2847629
1	0x3ed4e8a5	0.41583744
2	0x3e46fd56	0.19432577
3	0xbe1f0248	-0.15528214
4	0x3f80d6ef	1.0065593
5	0xbf934467	-1.150525
6	0x3e3f52ee	0.18683979
7	0xc015f5a5	-2.343118
8	0xbe2e3218	-0.17011297
9	0x3e9e6fba	0.30944616
10	0x3f26506b	0.6496646
11	0x3e8c6e59	0.2742794
12	0xbeaaf568	-0.33390355
13	0xbe671860	-0.22567892
14	0xbf894de2	-1.0726893
15	0xbf3deca0	-0.74189186

conv2.conv2.1.running_var f4 [16]
0	0x3f6e739f	0.93145174
1	0x3fbfd818	1.4987822
2	0x3fac06e2	1.34396
3	0x3fe8eb3b	1.8196787
4	0x402c792f	2.6948965
5	0x3fd90c5c	1.6956897
6	0x3fd53938	1.6658087
7	0x3fdb507c	1.7133937
8	0x40403d96	3.003759
9	0x3f86eca7	1.054097
10	0x406b5ab2	3.6774106
11	0x3fbb599f	1.4636725
12	0x40095742	2.1459508
13	0x3f73e6cd	0.9527405
14	0x4007d57d	2.1224053
15	0x405ed1ac	3.4815474

conv2.conv3.0.weight f4 [16, 16, 3, 3]
0	0xbe8e1cc0	-0.2775631
1	0x3d1cf7f6	0.03832241
2	0xbe68dafc	-0.22739786
3	0x3e0759c6	0.1321784
4	0x3dfe1d2c	0.12407908
5	0x3d510f22	0.051039822
6	0x3e0465fe	0.12929532
7	0xbe370e9b	-0.17876665
8	0xbd95acae	-0.07308327
9	0x3d842953	0.064531945
10	0xbd00f474	-0.03148313
11	0xbd366834	-0.04453297
12	0xbd49d845	-0.049278516
13	0x3c1bf3f6	0.009518614
14	0xbcbfc917	-0.023411317
15	0x3e11aadd	0.14225335
16	0x3c56678c	0.013086211
17	0xbde9b943	-0.11412289
18	0xbdb4beb0	-0.08825433
19	0xbe42038d	-0.18946667
20	0xbd0023cc	-0.03128414
21	0xb9e0d19f	-0.0004288079
22	0xbd33c476	-0.04388853
23	0xbe7bfee4	-0.24608952
24	0x3d00804f	0.031372365
25	0xbe220375	-0.15821631
26	0x3ddb489a	0.10707207
27	0xbd20e0fd	-0.039277066
28	0xbc3c7e98	-0.011504792
29	0x3dcb58cf	0.09929048
30	0xbe226549	-0.1585895
31	0x3b41337f	0.0029480157
32	0x3c663d81	0.01405275
33	0x3de0c16c	0.10974392
34	0xbdbfa4ca	-0.09357603
35	0x3e17df01	0.14831163
36	0xbc3553a8	-0.0110673085
37	0xbd77a4e7	-0.060459998
38	0xbe36599d	-0.17807622
39	0xbc4eed76	-0.012629857
40	0x3e2401de	0.16016337
41	0xbdb31a92	-0.08745302
42	0xbe0e06ac	-0.13869733
43	0x3d8c708c	0.06857404
44	0xbdbeed4b	-0.09322604
45	0x3e040727	0.12893353
46	0x3d80f8d9	0.06297464
47	0xbd429a2c	-0.04751031
48	0x3de0f67a	0.10984512
49	0x3e4df98c	0.20114726
50	0x3e165a64	0.14682919
51	0x3ea8088d	0.32819024
52	0x3e4c5c64	0.19957119
53	0xbebac9d3	-0.36482105
54	0x3e21b6f2	0.15792444
55	0xbdc6e127	-0.09710913
56	0x3e18aecd	0.14910431
57	0x3e5907f0	0.21194434
58	0x3cbf6d29	0.023367481
59	0x3dcbbd37	0.09948199
60	0xbcb9f0d2	-0.02269784
61	0x3d665388	0.056232005
62	0xbde0bd59	-0.10973615
63	0x3b985a4d	0.0046494366
64	0x3cb4e18d	0.022080207
65	0x3db3ba20	0.08775735
66	0xbc87ecbc	-0.016592376
67	0xbd5104fd	-0.051030148
68	0xbe6343a8	-0.22193778
69	0x3e177d73	0.14793949
70	0xbc08e1f4	-0.008354653
71	0x3d816df7	0.06319802
72	0xbe870358	-0.2636974
73	0xbda92943	-0.08259823
74	0x3bb1929b	0.005419088
75	0x3daf10b1	0.085481055
76	0xbd896e30	-0.0671047
77	0xbe180652	-0.14846161
78	0x3e6f8e80	0.23394203
79	0xbdf90f9f	-0.121611826
80	0xbe3f0533	-0.18654327
81	0x3cebeade	0.028798517
82	0xbda7e84c	-0.08198604
83	0xbe4d2353	-0.20033006
84	0xbe2ab4fd	-0.16670604
85	0x3d5aaaa3	0.053385388
86	0xbd42e0a5	-0.04757752
87	0xbdc7aec5	-0.097501315
88	0xbaa365d3	-0.0012466259
89	0x3d06624b	0.032808583
90	0x3d7f7a0d	0.062372256
91	0xbda896c9	-0.08231885
92	0xbda558f5	-0.08073608
93	0xb9fe72a1	-0.0004853206
94	0x3d50e0bb	0.05099557
95	0x3c268adb	0.010164942
96	0x3da38f7e	0.07986353
97	0xbc6d111e	-0.014469413
98	0x3ce05e73	0.027388787
99	0xbe3d9f14	-0.18517715
100	0x3cc179d7	0.023617668
101	0xbe21bc6b	-0.15794532
102	0x3d3955fc	0.045248017
103	0x3de40ec6	0.1113563
104	0xbd80f434	-0.06296578
105	0xbd506364	-0.050876036
106	0xbc3e8ac1	-0.011629761
107	0xbd6f9384	-0.05849029
108	0xbd5abe5c	-0.053404197
109	0x3d8bb452	0.06821503
110	0x3da969ab	0.08272108
111	0xbe0ac126	-0.13550243
112	0x3da13030	0.07870519
113	0x3ddda335	0.10822145
114	0x3e33e5d9	0.17568149
115	0xbe35d1a3	-0.17755751
116	0x3dc964da	0.09833689
117	0xbdbbbae3	-0.09166505
118	0x3ded390a	0.11583145
119	0xbe11c39f	-0.1423478
120	0xbdb44ed9	-0.088041015
121	0x3c118aa4	0.008883152
122	0xbd1b6a39	-0.0379431
123	0x3dd94248	0.10608345
124	0xbe28c866	-0.16482696
125	0x3b4ca041	0.0031223448
126	0x3e5fee39	0.21868218
127	0x3e04e6dc	0.12978691
128	0xbdbf345f	-0.09336161
129	0x3e83e40a	0.25759917
130	0x3e5c09d2	0.21488121
131	0xbd7f7dca	-0.06237582
132	0x3df08e87	0.11745935
133	0x3cdc15cf	0.026865868
134	0xbdc43f0e	-0.09582339
135	0x3e41f675	0.18941672
136	0xbe3ebca4	-0.18626648
137	0xbdbced9a	-0.092250064
138	0x3da9fc80	0.08300114
139	0xbcfa9831	-0.030590149
140	0x3ddb8c66	0.10720138
141	0x3ce72100	0.028213978
142	0xbcc62fa8	-0.024192646
143	0x3de59700	0.112104416
144	0x3c4ec43f	0.012620031
145	0x3d3c48bc	0.045967802
146	0xbdb15d0b	-0.08660325
147	0x3e4ddfeb	0.20104949
148	0xbe011c06	-0.12608346
149	0xbe005ac0	-0.12534618
150	0x3e5ace45	0.21367748
151	0xbd0985cd	-0.033574868
152	0x3cebb76f	0.028773991
153	0xbdf7ea5a	-0.12105246
154	0x3e446cb7	0.19182096
155	0x3e02580e	0.12728903
156	0x3e13c34d	0.1442997
157	0xbe06605b	-0.13122694
158	0xbcb954af	-0.022623388
159	0xbe11d88f	-0.14242767
160	0xbd19566f	-0.037435945
161	0x3e25a2c1	0.16175367
162	0xbd74070b	-0.05957703
163	0x3d1a5a74	0.03768392
164	0x3d5e1f05	0.0542288
165	0xbe1c62ae	-0.15272018
166	0xbd98cfee	-0.074615344
167	0xbd48c877	-0.049019303
168	0xbd0f8980	-0.03504324
169	0x3cba8c60	0.022772014
170	0xbe0acd83	-0.13554959
171	0xbc5917d8	-0.013250314
172	0x3c7677fa	0.015043253
173	0xbe3c4bfd	-0.18388362
174	0x3e5c1407	0.21492015
175	0x3e23f5ba	0.16011706
176	0x3d4e98ed	0.05043881
177	0xbe3d0c9f	-0.18461846
178	0x3e64dc3f	0.22349642
179	0x3d38f136	0.04515191
180	0x3df352b9	0.118810125
181	0x3d5b1877	0.05349013
182	0x3e17b058	0.14813364
183	0x3da1d196	0.079013035
184	0x3e1a1d41	0.15050222
185	0xbd815bba	-0.063163236
186	0x3e3ef807	0.18649302
187	0x3e1afdce	0.15135881
188	0x3de1d6f0	0.11027324
189	0xbd53e466	-0.05173149
190	0xbc296a1f	-0.010340243
191	0xbd279d6e	-0.04092162
192	0x3e178189	0.14795507
193	0xbc1417aa	-0.009038845
194	0xbc91a684	-0.017779596
195	0xbc081212	-0.00830509
196	0x3b408f0a	0.0029382133
197	0x3d267021	0.04063428
198	0x3e0d81a0	0.1381898
199	0xbce56690	-0.028003007
200	0x3dd53313	0.10410132
201	0x3e983cb3	0.2973381
202	0xbda724c5	-0.0816131
203	0xbb1c821b	-0.002388126
204	0x3d67fc34	0.056637004
205	0xbc3ad841	-0.011404098
206	0x3dd46a36	0.10371821
207	0xbda18c06	-0.078880355
208	0xbe0e35cb	-0.13887708
209	0x3af673e7	0.0018802852
210	0xbe048689	-0.12941946
211	0x3b80c9ff	0.00393033
212	0x3d3aa2eb	0.045565527
213	0x3de0a0fb	0.109682046
214	0x3c703e7f	0.014663338
215	0x3d820004	0.06347659
216	0x3df86acf	0.12129747
217	0x3e1cfeca	0.1533157
218	0x3e372895	0.17886575
219	0x3cc0a41c	0.023515753
220	0x3dd3ed92	0.10348047
221	0xbdff76b0	-0.1247381
222	0x3dfab14a	0.122408465
223	0xbdfb6d85	-0.122767486
224	0x3dbaa2c8	0.09113079
225	0xbdeac15e	-0.11462663
226	0xbd1dcc1b	-0.03852473
227	0x3ca18bec	0.01972004
228	0xbe0e071c	-0.138699
229	0xbdad6f67	-0.08468514
230	0x3dc05049	0.09390313
231	0x3d82710c	0.06369218
232	0xbe1168b3	-0.14200096
233	0x3e1bd516	0.15218005
234	0xbccabdb6	-0.024748664
235	0x3db0328a	0.086033896
236	0x3e768e7d	0.24077792
237	0x3e59428d	0.21216793
238	0x3cc0fc52	0.023557816
239	0x3e20c602	0.15700534
240	0xbd0d1de9	-0.034452353
241	0xbe29f927	-0.1659895
242	0xbda5fc90	-0.08104813
243	0xbc5746e5	-0.013139461
244	0x3e0c2822	0.13687184
245	0xbde5aa3d	-0.11214111
246	0x3e0fa2e6	0.14026985
247	0xbdb5d230	-0.08877981
248	0x3e1badf9	0.15203084
249	0xbdf405a0	-0.119151354
250	0x3d9e4769	0.07728464
251	0xbd5acc8f	-0.05341774
252	0xbd0b1bed	-0.03396218
253	0xbe0d84d4	-0.13820201
254	0xbd9800f2	-0.07422055
255	0x3d98a84a	0.074539736

conv2.conv3.0.bias f4 [16]
0	0xbc484c32	-0.012225198
1	0xbd7466b6	-0.059668265
2	0x3b18a416	0.0023291162
3	0x3d4363d6	0.047702633
4	0x3b34fcc2	0.0027616476
5	0x3d568a77	0.052378144
6	0xbd00ec3a	-0.031475283
7	0x3d85cff2	0.06533803
8	0x3ca29c1d	0.019849831
9	0xbce55dec	-0.027998887
10	0x3d24875c	0.04016815
11	0x3d27d085	0.040970344
12	0xbd124fc9	-0.03572062
13	0xbc784a12	-0.0151543785
14	0x3d301d91	0.042996947
15	0xbd965dbb	-0.073420964

conv2.conv3.1.weight f4 [16]
0	0x3f825a2f	1.0183772
1	0x3f59a4f1	0.85017306
2	0x3f81a6b4	1.0128999
3	0x3f993e39	1.1972114
4	0x3f962827	1.1731004
5	0x3f73c478	0.9522166
6	0x3f83b7d9	1.0290481
7	0x3f7f4f6a	0.9973055
8	0x3f713f30	0.9423704
9	0x3f806c01	1.003296
10	0x3f921ce5	1.1415068
11	0x3f52b34f	0.82304853
12	0x3f856d4e	1.0423982
13	0x3f7be132	0.98390496
14	0x3f861e71	1.047804
15	0x3f526f4d	0.8220108

conv2.conv3.1.bias f4 [16]
0	0x3bc17d89	0.0059048575
1	0x3cb79ff4	0.022415139
2	0x3b7ef3e1	0.0038902687
3	0xbd044f50	-0.0323022
4	0xbcac98aa	-0.02106889
5	0x3d648f27	0.055800583
6	0xbc9bcddd	-0.019019062
7	0x3dce678d	0.100783445
8	0xbd242a81	-0.040079597
9	0xbda14b73	-0.07875719
10	0x3e2dbe34	0.16967088
11	0x3d3db38c	0.046313807
12	0x3d87ee29	0.06637222
13	0x3d0744f5	0.033024747
14	0x3d796a3f	0.06089234
15	0xbd8e7254	-0.069554

conv2.conv3.1.running_mean f4 [16]
0	0x3c8561dc	0.016282015
1	0x3f370ed1	0.71506983
2	0x3e5b996e	0.21445248
3	0xbf9088be	-1.129173
4	0xbf71142e	-0.94171417
5	0x3f544277	0.8291392
6	0x3e6d1147	0.23151122
7	0xbfb24dc6	-1.3929985
8	0xbf576e07	-0.84152263
9	0xbf674a14	-0.9034741
10	0xbf246a3e	-0.6422461
11	0x3fabd71f	1.3425025
12	0xbe88944e	-0.26675647
13	0xbf851c7f	-1.0399321
14	0xbf7f7d24	-0.99800324
15	0x3f487631	0.78305346

conv2.conv3.1.running_var f4 [16]
0	0x3ff05056	1.8774517
1	0x401fb5b3	2.495465
2	0x3fdb788c	1.7146163
3	0x404d22ec	3.2052565
4	0x407940d6	3.8945823
5	0x4022e067	2.5449464
6	0x4025d78f	2.5912817
7	0x3fa348ad	1.2756554
8	0x40664184	3.5977488
9	0x400ff618	2.2493954
10	0x4062a961	3.541588
11	0x40832510	4.098274
12	0x3f923304	1.1421819
13	0x40229b25	2.5407193
14	0x40334c4e	2.8015323
15	0x404d8d57	3.2117517
