checkpoints/ifind1_sononet_8_6classes/011_net_6classes_class.pth (torch_old, 671819 bytes, 90 tensors)

conv1.conv1.0.weight f4 [8, 1, 3, 3]
000000 8f 99 69 be 28 86 57 3f be 15 e9 3e 73 f5 27 3e
       -0.22812484 0.8418908 0.455244 0.16402225
000010 15 63 ee be e0 73 05 3f 43 2c 4c be d6 cf 99 3e
       -0.4655997 0.52129936 -0.1993876 0.3004138
000020 e4 07 3c bf 19 85 05 3f 9e a2 10 3f 24 9e 0c bf
       -0.7344954 0.52156216 0.56498134 -0.54928803
000030 ba a3 1b 3f 02 f8 3f 3f 85 41 54 bf 63 37 44 be
       0.607967 0.74987805 -0.82912475 -0.19161753
000040 52 6e 46 3f 8b 6b 67 3e a7 0d 3a 3f 88 b4 6a bf
       0.77512085 0.22599618 0.7267708 -0.9168172
000050 e2 ab cc be e9 3e 8e bd f6 b3 b1 3c cd a1 6b bd
       -0.39974886 -0.06945593 0.021692257 -0.057527352
000060 cd b2 4f bf c8 3f 47 bc 88 ca b1 3f 6e 3d 20 3f
       -0.81132203 -0.012161203 1.3889933 0.62593734
000070 9e 96 49 3f e3 c9 94 3f b0 0c 36 bf 03 49 08 bf
       0.7874545 1.1624111 -0.7111311 -0.5323641
000080 46 5d fd bb ff 2f 25 bf 01 60 5f bf 7f 83 50 bd
       -0.0077320663 -0.6452636 -0.87255865 -0.050906654
000090 92 c3 02 3e 83 ec b5 bb 28 c3 a4 bf 49 9a e4 be
       0.12769917 -0.005551876 -1.2872057 -0.4464896
0000a0 72 59 a4 bd f9 2d ca 3e f3 0f d1 3e b7 c2 8e 3d
       -0.08024873 0.394882 0.4083248 0.06970733
0000b0 7d 89 45 3f 52 69 30 be 4c 94 b7 3e 58 9b 22 3f
       0.77162915 -0.17227677 0.3585533 0.63518286
0000c0 0b 36 09 bf 98 f9 fa be 0c 38 99 3d 5e d5 b3 be
       -0.5359809 -0.4901855 0.07481393 -0.35123724
0000d0 fe 47 90 3e 4b 06 79 3f 7e 7e 19 bf 5f 5e 18 3f
       0.28179926 0.9727523 -0.59958637 0.59519
0000e0 14 45 07 3e ff 28 9a 3d f8 cc 06 be 83 b7 17 bc
       0.13209945 0.07527351 -0.13164127 -0.009260061
0000f0 c6 9e 31 3f 91 98 bf be a6 fb 14 bb 20 f4 61 be
       0.69382894 -0.37421086 -0.0022733002 -0.22065783
000100 7e 28 b3 be 05 4d 2f 3f c3 7e 7b bc 46 62 49 bf
       -0.3499183 0.684769 -0.015350047 -0.7866558
000110 c3 16 17 bf 34 a9 14 bc 9c 67 2d bf 81 7f 4f 3f
       -0.59019107 -0.009073544 -0.6773622 0.8105393

conv1.conv1.0.bias f4 [8]
000000 26 29 a4 3e c1 c9 8c be 20 3a a9 be 90 77 85 be
       0.32062644 -0.27497676 -0.33052158 -0.2606778
000010 c9 82 65 be f5 27 0a 3e 59 64 f4 3d 60 bf 8d 3e
       -0.22413172 0.13491805 0.11933202 0.2768507

conv1.conv1.1.weight f4 [8]
000000 37 a1 6e 3f c2 c0 6e 3f ca 45 6d 3f 0d 43 ad 3f
       0.93214744 0.93262875 0.92684615 1.3536087
000010 50 f5 67 3f 59 09 91 3f d5 aa 36 3f 1b 97 75 3f
       0.9060869 1.1330978 0.7135442 0.95933694

conv1.conv1.1.bias f4 [8]
000000 16 64 91 3e 12 f2 a7 be c1 31 1a 3f 64 fb 10 3f
       0.28396672 -0.32801872 0.6023217 0.5663359
000010 7d 46 d6 3e f9 bb e9 3e 20 4d da bd 89 04 9a bd
       0.41850653 0.45651224 -0.10659242 -0.07520396

conv1.conv1.1.running_mean f4 [8]
000000 09 2f a4 3e 26 e4 8c be 75 9d a8 be a5 17 85 be
       0.32067135 -0.27517813 -0.3293263 -0.25994602
000010 53 94 65 be 39 6e 0b 3e 02 63 f5 3d cd 48 8e 3e
       -0.22419862 0.13616265 0.11981775 0.27789918

conv1.conv1.1.running_var f4 [8]
000000 42 a5 0d 3f fe eb 5e 40 1a 03 19 3e 8b ba 65 3f
       0.5533029 3.4831538 0.1494259 0.89737767
000010 cb 0b 88 3e 72 8e 37 3f 08 03 11 3e c2 31 b2 3f
       0.26571497 0.7170173 0.14161313 1.3921435

conv1.conv2.0.weight f4 [8, 8, 3, 3]
000000 8f 19 a2 3c 9c 1d c6 3e 2c bb b2 3c 52 f6 0b bd
       0.019787578 0.38694465 0.021817766 -0.034170456
000010 28 ce 2b 3e ba 02 b8 bd 29 76 52 ba bd d0 32 3e
       0.16777861 -0.08984895 -0.00080284715 0.1746244
000020 89 b8 46 be 0e 6f a1 be 62 bf 64 3e ad 59 83 3e
       -0.19406332 -0.3153004 0.22338632 0.25654355
000030 56 03 51 be b0 35 eb 3d 42 97 f9 3d 94 d1 93 be
       -0.20411429 0.114848495 0.12187053 -0.28870833
000040 de 1d 8d be fa 78 18 be 41 3f dc 3d de a0 c8 be
       -0.2756185 -0.14889899 0.10754252 -0.39185232
000050 60 b1 33 be 2c 4c 0b bf 75 70 8c be 30 21 00 bd
       -0.17548132 -0.54413104 -0.27429548 -0.03128165
000060 ce a6 4c be f3 e7 df 3e 7f c7 b9 3e 48 67 c8 3d
       -0.19985506 0.4373165 0.36285016 0.09785324
000070 3f d7 2c be 8e 00 2c 3e 83 a5 e2 3c fd fe 90 bd
       -0.16878985 0.16797087 0.027666813 -0.07079885
000080 87 a4 fc bc 52 f4 84 3e 76 9b c7 3e 08 d2 41 bd
       -0.030840172 0.25967652 0.38985795 -0.047319442
000090 ec 0e 2f 3e c5 e6 9b bd f7 cb 40 bd 04 39 4c be
       0.17095536 -0.07612375 -0.047069516 -0.19943625
0000a0 64 e4 f2 bd 77 f2 dc bd 78 d6 a3 be 77 f6 9e 3d
       -0.11859968 -0.10788434 -0.31999564 0.07761853
0000b0 59 ba 28 3e f0 af c7 3e 53 bb 81 3d 1f d9 85 be
       0.16477336 0.39001417 0.063345574 -0.26142213
0000c0 8e 28 b3 be ac 5c 54 be 27 ba 28 be 98 e8 0b 3f
       -0.34991878 -0.20738477 -0.16477261 0.54651785
0000d0 fb 8a a2 3d 2c c7 94 3e d3 98 48 be c7 9f 32 3d
       0.07936665 0.29058206 -0.19589548 0.043609407
0000e0 25 62 52 3e c8 d2 1d 3e 9b 2b 8d 3d 32 1f 3e be
       0.20545252 0.15412438 0.06893083 -0.18566588
0000f0 f9 fc 30 3d 36 08 86 bb 89 0d ae be 38 ac 94 be
       0.043210004 -0.0040903343 -0.33994702 -0.29037642
000100 4c 9e b4 be da ca 6d 3d f4 10 ce bd d5 8c e4 bd
       -0.3527702 0.058054782 -0.10061827 -0.11159674
000110 4f 91 32 be d5 62 78 bd 3f 06 77 be 35 ea 0b be
       -0.17438243 -0.06064113 -0.24123476 -0.13663562
000120 b3 db 9d 3e 83 56 17 bd de 2c 67 3e 45 b5 db 3d
       0.3083168 -0.03694774 0.22575709 0.10727934
000130 2c 0b 1a 3e 6a 00 c3 3e cc 53 85 3e 67 ce dd 3e
       0.15043324 0.38086253 0.26040494 0.43321535
000140 32 ce 0d 3e 2d 74 a8 3d e7 59 9a 3e cf a0 b4 3e
       0.13848189 0.08225284 0.30146715 0.35278937
000150 e3 7c 2c be e9 e3 d4 bc dc c9 79 bc 2c ec 0c be
       -0.16844516 -0.025987582 -0.015245881 -0.13761967
000160 7d 88 b1 be aa e2 25 be 29 7b 9f bd 71 06 3d bd
       -0.34674445 -0.16199747 -0.07787163 -0.04614872
000170 20 ad d2 3e 7d cd e9 bb 6e aa c6 3d 0f 99 c6 3e
       0.4114771 -0.007135092 0.09700476 0.3878865
000180 8a a6 e1 3d ac 99 00 bc 91 d8 25 be b6 d1 bb be
       0.11018093 -0.007849138 -0.16195895 -0.36683434
000190 1a b0 81 be c8 f8 d3 3c 8a 73 a1 3d 12 e8 17 bb
       -0.25329667 0.025875464 0.078833655 -0.0023179096
0001a0 20 67 9d 3e 95 e7 12 3e 6f 56 e4 3c 2f 2d 9a 3e
       0.3074274 0.14346154 0.027873246 0.30112597
0001b0 e4 02 28 be 9e 3e 42 be 35 60 1b 3e 59 8b c4 3c
       -0.16407353 -0.18969199 0.15173419 0.023992227
0001c0 25 19 2a be 4c 0d 04 be b7 0a c0 3c e9 66 31 bc
       -0.16611154 -0.12895697 0.02344261 -0.010827758
0001d0 ea 41 9f be 70 3b 65 bd 99 51 17 3f c5 1f 1b 3f
       -0.31104976 -0.055964887 0.59108883 0.6059535
0001e0 c8 24 5d be 9d 9a 09 3e dd a4 26 3e 2d 3b cf bc
       -0.21596062 0.13437887 0.16273828 -0.025296772
0001f0 c6 92 12 3e a2 aa a5 bd 0a a5 ce bd 99 53 81 3e
       0.14313802 -0.08089186 -0.100900725 0.25259092
000200 54 26 05 3e d3 92 21 be e0 ef 55 3d a5 33 7f 3d
       0.13002902 -0.15778665 0.052230716 0.06230511
000210 a9 67 d6 bd 62 02 40 bd 6e d3 13 bc ff 7a 3c be
       -0.1046899 -0.046877272 -0.009022577 -0.18406294
000220 7b 44 17 be 6e 62 d0 bb 1d e8 72 bd 12 4c 6f 3e
       -0.14772217 -0.00635939 -0.05930339 0.23368862
000230 68 03 b6 bd 2e c3 24 3d 9e 63 78 bd 93 b8 0d 3e
       -0.088873684 0.0402252 -0.060641877 0.1383994
000240 fd 49 8e be 8a 2c 80 bd 1d ec 6a bd a0 bf 5c 3d
       -0.27790824 -0.06258495 -0.05735408 0.053893685
000250 b5 02 6b 3e 9a 7a 43 be 62 70 33 3e fc 84 9d bc
       0.22950251 -0.19089738 0.1752334 -0.019228451
000260 22 51 10 bc d7 c9 93 be cf 02 27 bd f4 2a 05 3e
       -0.008808406 -0.2886493 -0.040774163 0.13004667
000270 cb e0 5e 3d 8d 15 66 3e 8b b0 6a 3e 50 ba 0e be
       0.054413598 0.22469158 0.22918908 -0.1393826
000280 f8 3b af 3d b5 e1 be 3e 5c 32 25 3e 5a 07 bc 3e
       0.0855636 0.37281576 0.16132492 0.3672436
000290 29 2e cb 3d 02 fd b7 bd 65 12 f6 3d 8f 51 b7 be
       0.09920914 -0.08983804 0.12015227 -0.35804412
0002a0 ec dc 79 be 71 10 67 3c c7 de 45 3e d8 79 db bd
       -0.24400681 0.014103041 0.19323264 -0.10716599
0002b0 ef a2 91 be 96 19 a9 bd 7d 83 97 bd 0d 5e 30 bd
       -0.2844462 -0.08256833 -0.07398126 -0.043058444
0002c0 d4 d2 d0 bc c6 e6 b4 be ea b5 72 bc ed 65 3b bd
       -0.025491156 -0.35332316 -0.0148138795 -0.0457515
0002d0 37 2a 19 3e 5d 99 9b 3e fa 80 0e 3e 3c ed 80 3d
       0.1495751 0.30390444 0.13916388 0.06295249
0002e0 58 ad 04 be 7f 01 a5 3d f2 44 43 3b 6b 63 15 be
       -0.1295675 0.08056926 0.0029795733 -0.14588706
0002f0 e2 fa 55 3e d9 05 a2 3c 54 34 29 be 82 df 8f bd
       0.20896485 0.019778179 -0.16523868 -0.070250526
000300 46 60 99 3d b2 55 d7 3b 65 7d 07 3e d4 c5 30 3f
       0.07489066 0.006571495 0.13231428 0.6905186
000310 e5 bd 80 3e a2 d9 83 3e 60 95 16 3d 82 92 44 be
       0.25144878 0.25751978 0.03676355 -0.19196513
000320 71 ff 9b 3d ed 66 84 3d f4 c8 eb bc 36 4e 83 3d
       0.07617081 0.06464944 -0.028782345 0.06411402
000330 2e 28 8b 3e c1 43 67 bd 65 e2 6c 3d f2 40 f9 bd
       0.27179092 -0.0564611 0.057833094 -0.121705905
000340 4a f7 45 bc 30 81 93 bc 97 7c e6 3d bc 0c a3 3d
       -0.012082884 -0.018005937 0.112542324 0.07961413
000350 45 56 ab bc 60 3c 14 be 4c 8d a0 bd 4b b7 eb 3d
       -0.02091516 -0.14476156 -0.0783945 0.1150957
000360 7a b8 6b bd 9e 64 a4 3d 4e 71 ef 3c 1e 6c a1 3d
       -0.057548977 0.08027004 0.029228833 0.0788195
000370 91 63 04 3d a8 0d 2b 3d 2d af 84 bd 95 09 5d 3e
       0.032321516 0.04176107 -0.06478725 0.21585687
000380 34 34 54 bc 21 99 37 bd bc 2a c7 bc 57 9d 14 3d
       -0.012951899 -0.04482377 -0.02431237 0.036282863
000390 28 70 7e bd 53 56 f8 b9 7a 82 b8 3d 19 74 21 bd
       -0.06211868 -0.00047366563 0.090092614 -0.03941736
0003a0 d3 4c 01 be a1 df 3f 3e c9 39 70 3e 1d 51 dc bd
       -0.12626962 0.18737651 0.23459543 -0.10757659
0003b0 00 62 68 be 98 f0 3c 3e 53 81 db bc fa 35 5e 3e
       -0.22693634 0.18451154 -0.026795065 0.21700278
0003c0 06 53 4a bd f6 85 df bd 34 3c d6 bc 96 0c e0 3d
       -0.049395584 -0.10914223 -0.026151754 0.109399006
0003d0 4e 97 f9 bb 89 76 1c 3e db 37 95 bd b2 f5 f6 3d
       -0.007616914 0.15279593 -0.07286044 0.120585814
0003e0 8e 7e 2c 3e ee 5e 60 3c f1 60 1a be 8a 42 2a be
       0.16845152 0.013694508 -0.15076043 -0.16626945
0003f0 2d a9 c6 3e 2b 4a b2 3e f3 ab 8c 3d 9a ef d9 3c
       0.38800946 0.3482221 0.06868734 0.026603509

conv1.conv2.0.bias f4 [8]
000000 ac e1 9e bc ac 55 89 bd 6a 21 9c bc f2 a6 c3 3d
       -0.019394718 -0.06705794 -0.019058902 0.09553327
000010 62 17 b3 bd 26 16 db 3c a4 16 ed bd d0 ee 7c 3d
       -0.08744694 0.02674396 -0.11576584 0.061751187

conv1.conv2.1.weight f4 [8]
000000 bf 25 8c 3f 99 42 4c 3f 22 b0 5a 3f a7 13 39 3f
       1.0949019 0.7978912 0.8542501 0.7229561
000010 ff 1a 86 3f d7 05 88 3f 09 87 80 3f d1 e1 bd 3f
       1.0476989 1.0626782 1.004121 1.4834539

conv1.conv2.1.bias f4 [8]
000000 22 b4 9d 3d 7f ff 71 be f9 01 35 3d c2 54 c1 bd
       0.07700373 -0.2363262 0.044191334 -0.094399944
000010 89 fb 96 3e 90 3b b5 bb 72 d1 12 be b1 e7 20 3f
       0.2948878 -0.005530782 -0.1433771 0.62853533

conv1.conv2.1.running_mean f4 [8]
000000 3b 1b fb be 95 cb ff 3f 4a 13 2a 3f 86 f4 c8 3f
       -0.49044213 1.9984003 0.6643568 1.5699623
000010 83 c3 22 3f f1 bc bf bf fe 2d 0e 3e 33 e5 47 bf
       0.6357958 -1.4979535 0.13884732 -0.78084105

conv1.conv2.1.running_var f4 [8]
000000 75 a4 34 40 2d 75 ef 40 5f 2c 89 40 20 54 21 40
       2.8225377 7.4830537 4.2866664 2.5207596
000010 02 bc aa 40 69 44 dc 40 e5 5f 6f 40 3d ca 28 40
       5.33545 6.883351 3.740228 2.6373436

conv1.conv3.0.weight f4 [8, 8, 3, 3]
000000 c1 8f 7d be 94 26 63 be f4 62 38 3d fb ea 81 3e
       -0.24761869 -0.22182685 0.045016244 0.25374588
000010 53 08 b3 3d 4a a7 46 3e 0d 73 63 be 96 ac 67 bc
       0.08741822 0.19399753 -0.22211857 -0.014140269
000020 8c 97 01 3d d8 7f b4 be e6 f7 4f 3e f7 aa f8 3e
       0.031638667 -0.35253787 0.2030941 0.48567936
000030 9e 99 5f be 42 14 d1 bd 31 7d a3 3c b3 22 61 3d
       -0.21835944 -0.10208942 0.019957157 0.054964732
000040 fa d0 1c 3e 70 52 14 be b8 e2 b8 be e1 91 44 3b
       0.15314093 -0.14484572 -0.36110473 0.0029994177
000050 0e 7d 77 3d 6e 38 43 be d3 83 d8 3c a1 6a 95 3e
       0.060421996 -0.19064495 0.026430046 0.29182914
000060 f8 9a a0 be df 73 06 3e 20 54 40 be 9b ee 12 bf
       -0.31368232 0.13130139 -0.18782091 -0.57395333
000070 34 ff fa 3c ca 6d 3d 3e d9 ea 83 bd 05 23 78 bd
       0.030639268 0.18498912 -0.06441278 -0.060580272
000080 38 d1 90 3e 45 5e 5b 3d 3b 15 5a 3c f7 2e c7 3d
       0.2828462 0.0535567 0.013310726 0.09725755
000090 0c cb 24 be d6 c8 77 3e f6 31 0e 3f 44 e5 94 3e
       -0.16093081 0.24197707 0.55544984 0.29081166
0000a0 1d 08 da 3e 86 2a a7 3e 87 86 8f bd ae 94 5a bd
       0.42584315 0.3264963 -0.07008081 -0.05336445
0000b0 33 a3 5e 3e b6 d1 45 be ac fc 33 bc e7 b0 b8 be
       0.21741943 -0.1931828 -0.010985535 -0.36072466
0000c0 dd e3 80 3d 83 3e 96 3d e0 b6 41 3e 3f 3d 0b 3e
       0.062934615 0.07336142 0.18917418 0.13597582
0000d0 4b 2b 66 be 2b 52 40 3d cb 2a 3a be e6 f5 10 3d
       -0.22477452 0.04695336 -0.18180387 0.035390757
0000e0 46 c0 43 3e 43 20 53 be 45 2d be bd 93 42 75 3e
       0.19116315 -0.20617776 -0.09285978 0.23951177
0000f0 a0 69 22 be 66 cb 6e be 24 16 8c be 2f 21 c2 3b
       -0.15860605 -0.23319778 -0.27360642 0.005924366
000100 83 0a 6f bd c6 ee ef bd b3 39 45 3d bc e4 97 bc
       -0.058359634 -0.11715464 0.04815073 -0.018541686
000110 c2 dd b0 be 42 80 43 3e b5 6e a1 bc 98 9e b3 3d
       -0.34544188 0.19091895 -0.01970611 0.08770484
000120 9c 88 1a be 0e b3 33 be cb 4c af 3d 39 24 f2 3d
       -0.15091175 -0.17548773 0.08559569 0.11823315
000130 a9 d7 00 3e 53 09 8e 3e 68 8d 1a 3c fc a1 8f 3e
       0.12582268 0.2774149 0.009433128 0.28053272
000140 63 8f f5 3c c2 0b bb 3e 2b e9 0f 3c 5a 7c 94 3d
       0.029975599 0.36532408 0.008783619 0.07250281
000150 ad 3e 0c bd 2c 47 4e 3d df d5 49 3e a4 6c 4e 3e
       -0.03423946 0.050360844 0.19710492 0.2015863
000160 dd d3 bd 3d 26 e7 82 3e b7 71 35 3e 33 f8 30 bd
       0.09268925 0.25566977 0.1771916 -0.04320545
000170 42 ea 51 3e 44 7e 9e be fa b6 8f bd d7 53 07 3d
       0.20499519 -0.30955708 -0.07017322 0.03303894
000180 a9 6f d5 3d 9c df 3b be a0 b9 81 bb a3 9f 14 3e
       0.10421688 -0.18347019 -0.003958896 0.14514022
000190 5a bf 0f 3e b3 e1 2e bc 60 d8 4a bd b8 5b 99 3e
       0.14037839 -0.010673928 -0.049522758 0.29952788
0001a0 60 c6 8c be a4 ca 36 3e e5 e5 f1 bd 39 b7 9f bd
       -0.27495098 0.17850739 -0.11811427 -0.07798619
0001b0 06 08 8b 3e 37 c8 de 3e 47 7a af 3d 59 65 95 bb
       0.2715456 0.43512127 0.085682444 -0.0045592007
0001c0 01 0d 28 be 1c 35 fa 3d 0f 80 a9 bc 9a 28 ab 3d
       -0.1641121 0.12217161 -0.020690946 0.083573535
0001d0 da ae 78 3e 4d be 6d be 30 8c aa bb 1f 66 36 3d
       0.2428545 -0.23217125 -0.0052047 0.044530984
0001e0 ad 47 42 bd ae 14 bd 3d 36 3b 5c 3e 8f 3d 1b bd
       -0.047431637 0.0923246 0.21506962 -0.037900504
0001f0 da 5b 63 be 2c 48 fa bd d7 2b 70 3d 13 91 71 bd
       -0.22203007 -0.12220797 0.05863556 -0.058976244
000200 e5 df 1b be 8b 92 19 be 82 32 a8 bd 30 86 dc bc
       -0.15222128 -0.14997308 -0.082127586 -0.026919454
000210 66 a2 14 be e2 4f 14 be c9 89 4b 3d 7a 92 34 3d
       -0.14515075 -0.14483598 0.04969195 0.044085003
000220 e1 de ab bd 0b 75 a4 be 8d c6 6c be d4 8c 8c be
       -0.0839212 -0.32120547 -0.23122616 -0.27451193
000230 13 14 4a 3e 2b eb 02 be 3e 62 1e 3b 76 f3 02 be
       0.1973422 -0.12785022 0.0024167444 -0.12788185
000240 78 69 17 bd fe db 43 be 72 35 6e 3e e3 db a4 bc
       -0.036965817 -0.19126889 0.23262575 -0.020124381
000250 2d f0 13 be 1f b8 b2 bd 70 47 75 3d 16 42 5e 3e
       -0.14447089 -0.087265246 0.05988258 0.21704897
000260 4d 1d 69 bd b0 0c 48 be 09 09 10 3d 47 56 ed bd
       -0.05691271 -0.1953609 0.035164867 -0.11588722
000270 d8 19 04 be 8f 6b 75 3e 65 a3 7e 3e b5 7e b0 be
       -0.12900484 0.23966812 0.24867018 -0.3447167
000280 39 dd 8e 3e 16 15 d4 bc 3b c6 b1 3d d9 e7 8a be
       0.27903154 -0.02588896 0.086803876 -0.2713001
000290 d8 de 89 3c 7d 89 6b be 78 2d 5a be 75 e1 64 3e
       0.016829893 -0.23001666 -0.21306407 0.2235163
0002a0 dc ba 8c be ea ec 84 3d d9 04 2e be 8c 9a 75 3c
       -0.27486312 0.064905 -0.16994037 0.01499046
0002b0 ae 10 f5 3d 17 a1 1e be 91 81 54 be bc 3c 5c bd
       0.11966072 -0.15491138 -0.2075255 -0.05376886
0002c0 56 d1 21 bc a0 08 e1 bd 81 d0 84 bc 64 86 ee bd
       -0.00987657 -0.10987973 -0.016212704 -0.11646727
0002d0 10 4c 13 3e 81 93 09 3e ee df 72 bd 49 d2 f3 bd
       0.14384484 0.13435175 -0.059295587 -0.11905343
0002e0 00 48 08 be 1d a5 c0 be e0 c6 eb 3c 30 df 0b 3e
       -0.13308716 -0.3762597 0.028781354 0.13659358
0002f0 24 0f 8d bd 15 80 5a 3e 06 4e a5 be 72 3b aa 3d
       -0.068876535 0.21337922 -0.3228609 0.083121195
000300 11 52 79 bc 22 a4 c7 bd b9 91 fc 3e 02 f7 ab 3c
       -0.01521732 -0.09748103 0.49329928 0.020991806
000310 73 a0 c0 3c 65 05 92 3d 33 b3 49 be 39 a2 cf bc
       0.023514008 0.07129935 -0.19697265 -0.025345908
000320 e6 86 1e 3d cd ce 00 bf 58 7f 2f be 81 a6 4d bd
       0.038702868 -0.5031555 -0.17138422 -0.05020762
000330 f5 c1 02 be 63 6e 2f be 90 8b 05 bf 5c 00 92 be
       -0.12769301 -0.17131953 -0.5216608 -0.285159
000340 37 81 42 bf a4 ad d8 bd b3 32 92 3c 60 02 d6 3e
       -0.75978416 -0.10579994 0.01784644 0.41798687
000350 d9 e8 bb 3e 7f b1 9e 3d 08 02 5a 3d 90 6c 0f 3f
       0.36701086 0.077486984 0.053224593 0.5602503
000360 b3 83 09 be 8c 47 a9 bd cc d3 d0 3d a9 92 ad 3e
       -0.13429146 -0.082655996 0.10196647 0.33900955
000370 0c b8 eb bd 12 6e 05 be b8 76 88 3e 14 f1 07 be
       -0.115097135 -0.1303027 0.26653075 -0.13275558
000380 6b 92 76 3e 89 4c df 3d b5 a5 bd bd b7 97 7a bd
       0.24079292 0.1090327 -0.09260122 -0.061179843
000390 14 dc 8a be 50 30 9d 3e 6d ff 63 be b7 82 9e 3e
       -0.2712103 0.30700922 -0.22265406 0.30959103
0003a0 21 e1 ac 3d df 13 1c be 97 8f 9e 3e 44 54 2a bd
       0.084413774 -0.15241955 0.30968925 -0.04158427
0003b0 1a a1 64 bd 50 1e b1 3e 61 54 4d 3e 7e 39 83 3e
       -0.0558177 0.3459344 0.20051719 0.256298
0003c0 f6 f0 4c 3e ac 2a 5f 3e 92 65 23 3e 5c 32 aa 3d
       0.20013794 0.21793622 0.15956715 0.083103865
0003d0 11 4e b5 3d 40 39 65 be c5 4b 79 3e ec 25 a7 bd
       0.088527806 -0.2238512 0.2434531 -0.0816153
0003e0 a6 3c e0 3d d9 d4 f2 3e f6 07 72 3e 3a 94 15 3d
       0.10949068 0.47428015 0.2363585 0.036518313
0003f0 24 6b da 3d af d8 e4 3d 0b 3f 9b bd 48 ad 92 3d
       0.10664967 0.111741416 -0.07580384 0.07161957

conv1.conv3.0.bias f4 [8]
000000 0b 6c 7d bd 0e da 8b bb 5f 38 b4 3c 30 24 00 bd
       -0.061870616 -0.0042679375 0.021999536 -0.03128451
000010 67 6d a4 3d 75 0f 52 3c 43 ea de bd a4 08 51 bc
       0.08028679 0.012821068 -0.108845256 -0.012758408

conv1.conv3.1.weight f4 [8]
000000 c6 33 8c 3f a9 f9 2c 3f a8 f5 a1 3f fd 50 54 3f
       1.09533 0.6756845 1.2653093 0.8293608
000010 fe 4a b1 3f 66 72 98 3f 86 36 47 3f 1e 7f 80 3f
       1.3851011 1.1909912 0.7781757 1.0038793

conv1.conv3.1.bias f4 [8]
000000 5a 03 93 3d b6 46 5d bd 8f c3 9f 3e 61 10 8c 3d
       0.07178374 -0.054022513 0.31203887 0.068390615
000010 14 c2 b0 bd f6 3e d4 3e fa 3a 07 be 21 5f 9c 3e
       -0.086307675 0.41454285 -0.13206092 0.30541328

conv1.conv3.1.running_mean f4 [8]
000000 89 d5 3c 3d d5 08 02 be 74 7c 11 bf ce 95 68 3f
       0.04610208 -0.12698682 -0.56830525 0.90853584
000010 89 0f 1b bf b0 00 83 bf af 51 88 bf 46 e6 6a be
       -0.6057058 -1.0234585 -1.0649928 -0.22939405

conv1.conv3.1.running_var f4 [8]
000000 8e aa 10 40 fa 68 83 40 03 ec 3e 40 3d a0 ba 40
       2.2604098 4.1065645 2.983155 5.8320603
000010 c3 95 a9 40 d1 62 61 40 c6 22 04 40 fe 8c 67 40
       5.2995315 3.5216563 2.0646224 3.6179805

conv2.conv1.0.weight f4 [16, 8, 3, 3]
000000 6f 43 50 bd 99 67 6c be f1 19 b7 3c a4 5a 83 be
       -0.05084556 -0.23086394 0.022351237 -0.2565509
000010 32 6d 95 be 7d f0 f5 bd 28 b6 8a 3d fa 92 30 3b
       -0.29184872 -0.1200876 0.06773025 0.0026943074
000020 b1 bd fd 3d eb d4 f2 bd 6c 57 5b 3b 48 fe a2 be
       0.123896964 -0.11857017 0.0033468856 -0.31834626
000030 ee 1c 17 3d d3 ae 9d bd 2b 5f 4d 3e ef 10 63 be
       0.036892824 -0.07699361 0.20055835 -0.22174428
000040 5a a1 39 3d 55 05 94 be 97 38 6a 3d fb d8 1b 3e
       0.045319892 -0.28910318 0.057182875 0.1521949
000050 e9 f1 da bd c3 a7 b6 be 49 f4 94 3e 78 4b 6d be
       -0.10690672 -0.35674867 0.29092625 -0.2317332
000060 2a b9 4e 39 4f 1d fa 3d ba a9 ac 3d 5b 5f 5e 3e
       0.0001971467 0.122126214 0.0843081 0.21716063
000070 1c 5d 4f 3d 5d cc 7b be 28 6f 05 3e c3 03 15 bd
       0.050625905 -0.24589677 0.13030684 -0.03638054
000080 ae 02 aa 3c ae 09 d2 3d 51 b9 93 3b ad be 31 3e
       0.02075323 0.102557525 0.0045081754 0.17357893
000090 88 35 34 3c 9d 27 39 3e 5e cb 96 3e db 36 6a bd
       0.010999091 0.18081518 0.29452032 -0.05718122
0000a0 88 da a8 3e db 34 a2 3d 4e 37 bf bd c5 ab 87 bd
       0.32979226 0.07920238 -0.093367204 -0.06624559
0000b0 f4 ae a0 bd 63 ef 41 bd 44 e8 38 be cf 1a 5d be
       -0.0784587 -0.047347438 -0.18057352 -0.21592258
0000c0 74 6b c1 bd 96 d8 da be 0f 2b 3e bd c7 ad 59 be
       -0.09444323 -0.42743367 -0.046427783 -0.21257697
0000d0 1b 56 d7 bd 21 72 01 bf c3 33 0a be ab 23 67 be
       -0.1051447 -0.5056477 -0.13496308 -0.225722
0000e0 6b 98 d1 bc 25 07 8b 3e 1b e9 bf 3a fa f1 69 3e
       -0.025585374 0.27153888 0.0014641614 0.22846213
0000f0 76 bd 30 3c a7 3a c7 bc d6 86 81 3e c9 fc a5 be
       0.0107873585 -0.02431996 0.25298184 -0.32419422
000100 ac 61 89 be 23 fa e9 bc e4 2d 6f be 86 cf d3 3d
       -0.2683233 -0.028561657 -0.2335735 0.10342316
000110 f9 13 57 3e cf 75 3c 3e 71 9e 4f 3e 3f 3c 82 3d
       0.21003713 0.18404315 0.20275284 0.06359147
000120 ce 6a a3 3a a3 5e 8f 3e 8e f0 d9 3c 9a d8 c2 3e
       0.0012467743 0.2800189 0.026603963 0.3805588
000130 3b a4 57 3d 11 74 0a be c7 85 28 bd 8f 5d 88 3c
       0.052646857 -0.13520838 -0.041143205 0.016646175
000140 e1 e9 cf bc a4 af 31 3e 6e 31 f1 bd 29 80 16 bd
       -0.025380077 0.17352158 -0.11777006 -0.036743317
000150 23 2e 44 3e 8f c1 08 bf b9 f6 3b be 6e 2f d4 3e
       0.19158225 -0.53420347 -0.18355836 0.41442436
000160 9f 9e 56 bd 78 3f 89 3d 0b 57 89 be 24 c9 3b 3e
       -0.052397367 0.06701559 -0.2682422 0.18338448
000170 2f 50 2d 3e bb 6a 91 3b b1 78 43 3e 2f f4 1b be
       0.16925119 0.004437772 0.19089009 -0.15229867
000180 9f 15 6b be 4a 74 97 bd 1f 8d ce bc 29 65 2e bc
       -0.22957467 -0.07395227 -0.025213776 -0.010644236
000190 55 ee 6d 3c a3 cb 09 be fc ad 7e be 2e 44 35 bd
       0.014522155 -0.13456587 -0.24871057 -0.044254474
0001a0 3c 68 c6 be 4d 61 e8 3d de a3 41 bd a6 bf 2c be
       -0.387514 0.11346684 -0.047275417 -0.16869983
0001b0 00 7a de be 7b 09 c5 bd d3 34 f2 bd 4f 79 d4 3d
       -0.43452454 -0.09620949 -0.11826482 0.103747
0001c0 d9 f1 79 3d ff 3c 2d 3e 0c 5f 51 3e 6a 94 00 bd
       0.06102166 0.169178 0.20446414 -0.03139154
0001d0 e9 7f 48 3e cf 96 a7 bc 53 2c a3 3e e1 3e 0e be
       0.19580044 -0.020457653 0.31869754 -0.13891174
0001e0 7b 36 5e be 65 4e 40 be 5f 6c 18 be f6 6b 2e be
       -0.2170047 -0.18779905 -0.1488509 -0.17033371
0001f0 4d 0b 36 be 4a 9e 40 3e 58 3e 56 be 41 7a ae 3d
       -0.17777748 0.18810382 -0.2092222 0.08519412
000200 19 81 3a 3e 2d 17 17 be db cf 9c bd 53 af 91 3e
       0.1821331 -0.14754935 -0.07656833 0.28454074
000210 e7 22 3f be 96 20 5e 3e 87 1b 88 be 56 64 c5 be
       -0.18665658 0.21692118 -0.26583502 -0.38553113
000220 1b 07 0c be fa 5e 06 3e 16 fa 31 be 26 b0 a8 ba
       -0.13674586 0.13122168 -0.17380556 -0.0012869879
000230 b6 ac df bc c7 e6 00 be 92 d6 19 3b 67 2f e8 3c
       -0.027304035 -0.12588035 0.002347384 0.028342916
000240 cd 76 92 bd 6d 2f d1 be 7e b0 8a 3d 80 04 5e 3e
       -0.07151566 -0.40856495 0.067719445 0.21681404
000250 00 4a aa 3d 30 fa 41 3e d0 a9 0a be 75 73 99 3e
       0.08314896 0.18943095 -0.13541341 0.299709
000260 f4 e0 16 3e 05 f0 70 be 79 23 26 3d ab 58 22 3e
       0.1473425 -0.2352906 0.040561173 0.15854137
000270 72 de 9d 3e 01 5e 19 3d 2c a0 34 3d 74 70 fd bd
       0.30833775 0.037443165 0.044098064 -0.12374964
000280 a5 7d 17 be d3 40 95 3d 4b 75 ac 3d 26 51 8b 3e
       -0.14794023 0.07287755 0.08420809 0.2721035
000290 80 95 d3 3b b3 c1 4d be 7e ea d6 3e ca e1 13 be
       0.006457031 -0.20093422 0.41975778 -0.144416
0002a0 44 0e 57 be c6 82 0b 3e 20 11 d9 bd 3e 6a 1d be
       -0.21001536 0.13624105 -0.105989695 -0.1537256
0002b0 9c 44 d2 be 81 c2 b3 bd 04 c4 f5 bb 94 cf bd 3d
       -0.4106797 -0.08777333 -0.0075001735 0.09268108
0002c0 0e 88 02 3e 5f b4 6c bd f3 12 16 be 51 3e bb 3e
       0.12747213 -0.057789203 -0.14655666 0.3657098
0002d0 b0 da 7c 3e 51 1e 52 3e b0 23 e4 3d f1 3f ab 3e
       0.24692798 0.20519377 0.11139619 0.3344722
0002e0 a9 4e d3 3d ce 85 ba bd 6e a9 c4 bd 7d e2 aa be
       0.103177376 -0.091075525 -0.09602629 -0.33375922
0002f0 d4 f3 04 bd 7a 51 3d bd 54 5c 80 be bb 68 ce bb
       -0.032459095 -0.04622028 -0.2507044 -0.006299106
000300 25 9e 39 bd f4 40 3c 3e 50 62 88 3e 0b 62 be 3d
       -0.045316834 0.18384153 0.26637506 0.09296044
000310 7b e5 a2 3e 3d d2 3f 3d fd d2 ee bd 2b 49 2f be
       0.31815705 0.04683136 -0.116613366 -0.17117755
000320 7f db 84 be 16 fe 9c bd ff 23 0c 3d 6c a0 ba 3d
       -0.25948712 -0.076656505 0.034214016 0.09112629
000330 02 76 6b 3a 42 55 9e bc cd ef 8b 3d af 57 64 3e
       0.0008982123 -0.019327763 0.06832848 0.22299074
000340 d8 49 0f 3e 3a 8b 01 bf 51 a7 a2 3d 1a ad 07 bb
       0.13993013 -0.5060307 0.07942069 -0.0020702542
000350 56 bd 2b 3e cf a6 18 3c 4b e4 24 bd f4 fa 02 3f
       0.16771445 0.009317114 -0.04025678 0.51164174
000360 a2 81 53 3e 1e c8 af 3d d4 98 2d 3e 2e b5 27 be
       0.2065492 0.08583091 0.1695283 -0.16377708
000370 97 14 4a 3a 61 f5 3b 3e 79 df 9a be 55 db 4b 3d
       0.00077087566 0.18355323 -0.3024862 0.04976972
000380 10 47 97 3e e2 3d b7 bd 67 bf 82 3d a1 8e ec bd
       0.29546404 -0.0894735 0.06384163 -0.11550642
000390 48 1f 31 be d4 48 f8 3c f5 67 0e 3e 98 80 d3 be
       -0.17297089 0.030308165 0.13906844 -0.41309047
0003a0 67 05 a8 bd e3 b8 d8 bc ec b9 b4 bd 2c 21 08 3e
       -0.082041554 -0.026455348 -0.08824524 0.13293904
0003b0 00 ee 2d 3e c2 ef 9e 3e 2c 01 78 3e 70 08 d1 bd
       0.16985321 0.31042296 0.24219197 -0.102066875
0003c0 d7 ba 73 be 70 42 55 bd ac 41 98 be 05 b4 88 be
       -0.23801742 -0.052065313 -0.29737604 -0.26699844
0003d0 ec 9e fe bc 9e e9 7a 3e 03 4d 8d be 67 8b 4b be
       -0.03108164 0.2450318 -0.27597818 -0.19877397
0003e0 4c ae 84 be 08 65 7d 3e a4 90 94 3d c4 17 2d 3d
       -0.25914228 0.24745572 0.072541505 0.042258993
0003f0 aa 62 0a 3d fb 5f 94 bd 8c ff aa be 24 84 d5 bb
       0.0337855 -0.07244869 -0.33398092 -0.0065159965

conv2.conv1.0.bias f4 [16]
000000 36 14 8c bc e9 8a c5 bd 88 71 e2 3c 4d 0f 10 3d
       -0.017099481 -0.09645636 0.027642027 0.035170842
000010 d3 e4 be bd 78 6b d8 bd 9e 6f 4a 3c e0 93 eb 3d
       -0.093209885 -0.10567373 0.012355713 0.11502814
000020 a2 c8 d7 bd f6 68 6c bd 90 63 26 bd ef 17 d5 bd
       -0.105363145 -0.057717286 -0.040622294 -0.104049556
000030 90 8a 94 bd 0f 5d bd 3d dc 82 b8 3d 09 7b b1 bd
       -0.07252991 0.09246265 0.090093344 -0.08666045

conv2.conv1.1.weight f4 [16]
000000 6d cd 91 3f 93 52 7d 3f c9 61 44 3f 0a 8d 82 3f
       1.1390816 0.98954123 0.7671171 1.0199292
000010 5e b8 9c 3f 40 dd 9d 3f e4 66 66 3f 84 cf 82 3f
       1.2243764 1.2333145 0.9000075 1.0219579
000020 74 bc 8c 3f 08 62 5a 3f 54 6c 86 3f f0 be 7f 3f
       1.0995011 0.85305834 1.0501809 0.9990072
000030 ef f0 8b 3f dd 51 63 3f 79 c0 61 3f 24 03 8b 3f
       1.0932902 0.8879679 0.88184315 1.0860333

conv2.conv1.1.bias f4 [16]
000000 c1 2c 28 3e 36 c2 34 bd 09 4d 2a be 50 4c 90 3d
       0.16423322 -0.044130526 -0.16630949 0.070458055
000010 97 08 76 3c 06 36 0c be f7 fa af 3d 78 0a 64 3d
       0.015016696 -0.13692483 0.085927896 0.055674046
000020 94 6a b4 bd ad c2 97 bb 4e 0f 64 bc ee 95 d7 3d
       -0.08809391 -0.0046313615 -0.013919665 0.10526644
000030 4f 3b 2b 3e 0c 1d 32 be e6 4d 03 3d c1 59 db bd
       0.16721843 -0.17393893 0.03205671 -0.107104786

conv2.conv1.1.running_mean f4 [16]
000000 3b 99 e8 bf c4 19 ac bf 52 7f c2 3f 03 d1 42 be
       -1.8171762 -1.3445363 1.5195105 -0.19025044
000010 1d 74 de bf 55 81 89 c0 1c 38 d5 be 8f c0 2c 3d
       -1.7379185 -4.2970376 -0.4164437 0.042175826
000020 02 9a d4 bf ef ba e9 3e 0e d7 28 c0 55 b3 88 bf
       -1.66095 0.45650432 -2.638126 -1.0679728
000030 4d f5 1b bf b9 6c 13 40 10 05 da bf f6 16 2a c0
       -0.60921174 2.303511 -1.7032795 -2.6576514

conv2.conv1.1.running_var f4 [16]
000000 d0 d1 c9 40 90 14 f2 3f f9 bd e7 3f 04 8c 4e 40
       6.306862 1.8912525 1.810485 3.2272959
000010 c9 63 a4 40 02 d3 c5 40 9b 59 5c 40 96 ef 25 40
       5.137181 6.182008 3.442969 2.5927482
000020 af 0e 67 40 31 f1 58 40 7b 1d 7a 40 2d c4 9f 40
       3.6102712 3.3897212 3.9080493 4.9926972
000030 9f f8 5e 40 b9 55 6a 40 38 6f 7a 40 b7 61 5a 40
       3.4839246 3.661482 3.9130383 3.412214

conv2.conv2.0.weight f4 [16, 16, 3, 3]
000000 2b 24 8e bd 7d f4 62 bc fe 9c 0d 3e 2a 4c d5 bd
       -0.06940492 -0.013852236 0.13829419 -0.10414918
000010 3b ba 44 be d9 84 e9 3d 42 24 96 be 83 f9 4e bc
       -0.19211666 0.11402292 -0.29324538 -0.01263273
000020 53 ab ce bd 89 9f 13 bc 88 5c e5 3c ae 24 c4 3c
       -0.10091271 -0.009010204 0.027998224 0.023943271
000030 5e de ff 3d 40 ba 10 3e 99 18 3c 3d 0c 34 9c bd
       0.12493585 0.14133549 0.045921896 -0.07627115
000040 df e1 5c be 2f 7f 15 be 4c 96 d3 bd c6 d0 46 be
       -0.21570538 -0.14599298 -0.10331401 -0.19415578
000050 1b 12 07 3d 8f 5c b0 bd e7 35 9b 3d 91 a7 bf bc
       0.03297625 -0.08611404 0.075786404 -0.023395332
000060 53 af 6a be e0 66 e6 bc 8a 04 ba bd 33 69 89 3d
       -0.22918443 -0.028125226 -0.09082897 0.06709518
000070 0f a4 80 be c3 a8 87 be 7b d3 1a 3d c5 2c 4f 3e
       -0.25125167 -0.26495942 0.03779934 0.20231922
000080 ff 32 0d 3c 42 39 79 bd 5b 6e 12 be 28 14 42 be
       0.008618115 -0.06084562 -0.1429991 -0.18953001
000090 39 9a bf bd 2d a4 a5 bd 4a 19 c2 3d 65 f0 a0 3d
       -0.093555875 -0.08087955 0.0947748 0.078583516
0000a0 c1 94 64 3d 29 82 93 bd 1e 58 e0 bd 7d 35 aa bd
       0.055805925 -0.072025605 -0.10954307 -0.08310983
0000b0 43 c3 74 be 0a d6 94 bd ee a3 60 be 11 b5 c4 bc
       -0.23902611 -0.07267387 -0.21937534 -0.02401212
0000c0 49 7f 71 3d 5b 6c 70 3e d1 5e ef 3d b7 58 40 bd
       0.05895928 0.23478834 0.11688007 -0.046959605
0000d0 66 45 55 3e 1b 7a a9 3d 89 8e ca bd 9e e1 c5 3d
       0.20827255 0.08275243 -0.09890468 0.09662174
0000e0 b0 36 89 bd fd 42 81 bd e2 31 0d bd 58 6e 15 bd
       -0.06699884 -0.06311605 -0.0344714 -0.036482185
0000f0 36 dc e2 3d e7 58 ce bd b2 8d d3 bd 30 d0 aa be
       0.11077158 -0.100755505 -0.103297606 -0.3336196
000100 be 8e 3f 3e 01 97 a8 3d 24 da 15 3d 8f 63 50 be
       0.18706796 0.08231927 0.03658499 -0.20350479
000110 78 2f 54 be 6b 92 31 3d f8 78 4b be 6b 36 b9 bd
       -0.20721233 0.043352526 -0.19870365 -0.090435825
000120 bc c4 93 bb 8e 33 98 3d f8 6b 0a 3e cd 8e 88 be
       -0.0045095365 0.07431708 0.1351775 -0.26671448
000130 3f 5c 23 be 16 fb 0c 3e 1f c8 c0 3c ef eb 43 bd
       -0.15953158 0.13767657 0.023532925 -0.047832426
000140 03 0e 20 3e e1 9a 5c 3e 41 70 9e 3d 7a 57 e3 3d
       0.15630345 0.21543457 0.077362545 0.11100669
000150 4c db 97 bd 6a 3b 69 be d0 3c a3 be c8 27 04 3d
       -0.074148744 -0.22776571 -0.31882334 0.0322645
000160 b1 d1 19 bc d7 a0 8f bc 0b 09 35 3d 6a 11 54 bd
       -0.009388373 -0.01753275 0.044198077 -0.05177442
000170 40 03 a3 bd 6f 42 53 3d b7 e7 70 bd bd b1 85 3d
       -0.07959604 0.051577028 -0.05881473 0.065280415
000180 7d d4 2e be 3c e3 15 bd 00 ac 5a bc d9 26 46 3d
       -0.17073245 -0.03659366 -0.013346672 0.04837689
000190 76 3d 11 3d 10 5e 90 bd fa 08 93 bc 42 e5 06 be
       0.035459004 -0.07049191 -0.017948616 -0.13173392
0001a0 e9 7f 37 be c8 83 4b 3d d3 1e f2 3c 99 51 27 3c
       -0.17919888 0.049686223 0.029555714 0.0102123255
0001b0 02 17 93 3d 3e 78 09 3e 1b a5 78 bd d4 a6 57 be
       0.07182123 0.13424775 -0.06070433 -0.21059734
0001c0 80 6b 73 be a6 21 04 be cb ac 3e 3e c7 da 42 3d
       -0.23771477 -0.12903461 0.18620603 0.047571924
0001d0 44 91 f8 3d d1 b4 22 be a9 85 93 39 fa 1e fa bd
       0.12137082 -0.15889288 0.0002813761 -0.122129396
0001e0 cd df a5 3c 08 16 dc 3d ff 3a 20 be b9 b6 98 3e
       0.020248318 0.107463896 -0.15647505 0.29826906
0001f0 6e 56 7c bd 49 5e 00 be 26 94 51 3c a6 83 bd 3d
       -0.061605863 -0.12535967 0.012791669 0.092536256
000200 54 59 48 be b7 c5 e8 bb 30 76 e2 bc 55 3d 53 be
       -0.19565326 -0.0071036476 -0.027644247 -0.20628865
000210 60 c7 f0 3d 18 13 7e bd 6f ef b5 bd 3b 12 29 be
       0.11756778 -0.062029928 -0.08883559 -0.1651086
000220 04 f3 31 be cc 7b f2 bd 7e d8 e8 bd 83 f8 ac bc
       -0.1737786 -0.11840019 -0.113694176 -0.021114593
000230 e9 16 8a 3c 1b f2 b1 3d 8d a2 87 bd bc 93 49 3d
       0.016856628 0.08688756 -0.06622801 0.049213156
000240 28 64 91 3b 37 aa 0a bd 01 e2 f0 bd f0 6f 44 3e
       0.0044369884 -0.033853736 -0.11761857 0.19183326
000250 f2 84 4d bd 55 c8 a8 bd e1 95 0a 3e a0 42 28 3d
       -0.050175615 -0.08241335 0.13533737 0.041079164
000260 21 9f 7d 3d af 33 83 bb 0a 5c b2 3d 0f da 26 3e
       0.061919335 -0.004003964 0.08708961 0.1629412
000270 12 5b a1 3d 27 16 01 3d bd 77 8b bc e3 83 3c be
       0.078786984 0.031515267 -0.01702487 -0.18409686
000280 12 64 1b bd 71 74 b7 bd 92 e8 f8 3c f5 a4 f6 3d
       -0.03793723 -0.08957756 0.030384336 0.12043182
000290 0c 1a 83 3d b6 6a f7 3d c9 cd 90 3e e0 b4 34 3e
       0.064014524 0.120809 0.28282002 0.17647123
0002a0 32 f6 b1 be 0f 57 3d 3b 52 60 cf bc 42 d5 07 bd
       -0.34758145 0.0028891002 -0.025314484 -0.033162363
0002b0 43 4b 7f 3d 3b 0c 8f bd 38 e6 a0 3d a8 8f 46 3e
       0.062327635 -0.06984755 0.07856411 0.19390738
0002c0 e1 36 98 bd c8 ea 51 3c 16 47 23 be 94 46 e4 3d
       -0.07432342 0.012812324 -0.15945086 0.11146274
0002d0 5e f6 e3 bd 8f 2f 98 be 4d d6 81 bd 8a 20 a7 bd
       -0.11130975 -0.29723784 -0.06339703 -0.08160503
0002e0 c8 8d 1b be 92 ef 87 3d be 4f 3d be b9 11 45 3d
       -0.15190804 0.06637491 -0.1848745 0.048112605
0002f0 e3 62 2f 3e 4d 3f 98 3c 48 1f 36 3e 6d a4 82 bd
       0.17127566 0.018584872 0.1778537 -0.06379018
000300 7f b0 20 3a c0 d5 1b 3e 63 69 09 bc b5 e6 9f 3d
       0.00061298156 0.15218258 -0.008386943 0.07807676
000310 ec a7 7e be 92 7d 43 3e 1e ff 85 be bc fa 8f 3e
       -0.24868745 0.1909087 -0.261712 0.28120983
000320 6d e6 23 3e 58 61 6a be 5c 21 70 3b 83 9f 43 bd
       0.16005869 -0.22888696 0.0036640977 -0.047759544
000330 7c 61 4e bc b9 0e a2 bc dd ce f6 bd 3f 66 49 3d
       -0.012596484 -0.019782411 -0.12051175 0.049169775
000340 b2 f1 81 be 7b 98 49 be 1f d1 cd be dc 97 68 bd
       -0.2537971 -0.19687073 -0.4019861 -0.05678545
000350 a4 b3 2b 3c ac c0 01 3e b2 bc 5a 3e 58 f9 a7 3b
       0.010479841 0.12671155 0.21361044 0.0051261596
000360 d4 b4 11 be 4d 80 20 be b4 1f 96 3c 0d 2b b4 3d
       -0.14229137 -0.15673943 0.018325664 0.08797274
000370 53 00 13 be 28 d0 ea 3d 11 17 c4 bd c5 fc a2 bc
       -0.14355592 0.11465484 -0.09574712 -0.01989592
000380 27 0b 35 be 1e aa 2a bc c5 9c 3b 3c b2 51 88 3d
       -0.17680036 -0.010416536 0.011450951 0.06656207
000390 3a 39 c3 3e ac 8a 49 3e 74 da 01 3e 5a 2e 06 3e
       0.38129598 0.19681805 0.1268099 0.13103619
0003a0 27 63 70 3e 45 1c 0e be 38 42 09 3d 3d 5f e8 3c
       0.23475324 -0.13877971 0.033510417 0.028365726
0003b0 52 bb 35 bd a7 82 95 3d 2f 59 81 3d 45 34 47 3e
       -0.044368096 0.073003106 0.063158385 0.19453533
0003c0 a7 de 18 be 15 a8 66 bd 8b 57 19 3e 59 4b 0f 3d
       -0.14928685 -0.05631264 0.14974801 0.034983966
0003d0 65 3b d0 3d 79 22 17 3e b6 97 33 be e1 90 43 be
       0.101675786 0.14759244 -0.17538342 -0.19098236
0003e0 b5 db 46 3d 4b a3 25 be 03 f7 6b 3d 6c a4 da 3d
       0.048549373 -0.16175573 0.057608616 0.10675892
0003f0 73 7a 21 bd d0 f8 1f be 60 46 3c 3e 5e ae 31 bd
       -0.039423417 -0.15622258 0.18386221 -0.04337918

conv2.conv2.0.bias f4 [16]
000000 5d 8c b5 bc f4 0f 3b 3d 82 93 49 bd f8 54 b4 bc
       -0.022161657 0.04566951 -0.04921294 -0.022013173
000010 68 5a 9c 3d 5d b6 35 3d bf 53 84 bd 5d 87 bb bc
       0.07634431 0.04436337 -0.06461286 -0.022891695
000020 34 06 06 3c aa 83 f6 3c 5d f6 1c bd 62 e6 6e 3d
       0.00818019 0.03009208 -0.038320888 0.05832518
000030 b6 c9 aa 3a 6f 7d 93 bd 5b d7 b6 3c ff 98 a5 bd
       0.0013030085 -0.07201659 0.022319486 -0.08085822

conv2.conv2.1.weight f4 [16]
000000 d5 fc 87 3f 49 85 83 3f 2c 24 80 3f 49 93 71 3f
       1.0624033 1.027505 1.0011039 0.94365364
000010 4d df 7f 3f 18 e0 8f 3f 0d 74 6a 3f 3a 82 65 3f
       0.99950105 1.1240263 0.9158333 0.89651835
000020 be 07 6a 3f 39 16 79 3f f4 e8 65 3f de db 57 3f
       0.91418064 0.97299534 0.89808583 0.84319866
000030 68 b9 95 3f 1d e4 8b 3f 8f d7 93 3f 39 fb 86 3f
       1.1697206 1.092899 1.1550158 1.0545417

conv2.conv2.1.bias f4 [16]
000000 00 5d 85 3d 05 d3 01 3d 7b b1 53 3d 24 c8 54 bd
       0.06511879 0.031695385 0.05168293 -0.05194868
000010 b9 84 82 bd bd 3b 44 3e 88 7c 0b bd f1 df ad bd
       -0.06372971 0.19163413 -0.03405431 -0.08489979
000020 5b d8 ae 3d e6 7f 32 3d 70 93 a2 bd 19 2b c4 bd
       0.0853736 0.043579005 -0.07938278 -0.09578533
000030 75 f4 1c 3e b6 91 5a be cf 08 6a 3e 46 93 1c bd
       0.15327628 -0.21344647 0.22854923 -0.03822639

conv2.conv2.1.running_mean f4 [16]
000000 9d cd d6 bf 11 a3 aa 3e df 17 09 be 3e 4b 21 bf
       -1.6781498 0.33327535 -0.13388012 -0.63005435
000010 d7 36 4b 3f af 9f 98 bf 5d c3 16 3e 2d 50 4c c0
       0.79380554 -1.1923732 0.14722963 -3.1923935
000020 0b a6 0b 3c d9 16 66 bd 08 37 5b 3f 99 58 33 3f
       0.008523474 -0.056174133 0.85630846 0.70057064
000030 8f d3 22 bf bb fe 0c bf c2 d8 94 bf 9f 7b 01 bf
       -0.6360406 -0.5507619 -1.1628649 -0.50579256

conv2.conv2.1.running_var f4 [16]
000000 41 47 d0 3f 7a ab df 3f bd b1 bb 3f 33 7d e8 3f
       1.6271745 1.7474205 1.4663616 1.8163208
000010 22 a1 3e 40 4f 94 1a 40 6f 33 0c 40 07 13 0a 40
       2.9785848 2.415302 2.1906393 2.1574113
000020 fb 70 91 40 4c 6b ce 3f 94 75 5e 40 39 98 fa 3f
       4.5450416 1.6126494 3.4759264 1.9577705
000030 e6 db 52 40 ef 13 c0 3f 33 4e 42 40 43 0f 80 40
       3.2946715 1.5006083 3.036023 4.001863

conv2.conv3.0.weight f4 [16, 16, 3, 3]
000000 dc db 87 be bd 9b 38 3d e6 90 5c be a0 37 23 3e
       -0.26534927 0.0450704 -0.2153965 0.15939188
000010 ab ec 28 3e 16 82 ab 3d b6 f7 35 3e 86 71 1a be
       0.16496532 0.08374421 0.17770275 -0.15082368
000020 db 0a 46 bd c7 1b 5c 3d 49 37 d5 bc 9c 3c 29 bd
       -0.048350196 0.053737428 -0.026027339 -0.041317567
000030 9b 02 6b bd a1 10 53 3c cd 05 08 bd 6c 72 06 3e
       -0.05737553 0.012882383 -0.033208657 0.13129586
000040 d7 e3 07 3b 12 0e fe bd d2 84 bd bd f0 a8 40 be
       0.0020735168 -0.124050274 -0.09253849 -0.18814445
000050 aa 68 e5 bc 66 f1 74 bc 25 23 20 bd d6 8d 6c be
       -0.02800401 -0.014950132 -0.039096016 -0.23100981
000060 0b e6 00 3d 27 74 1b be 5d 11 f0 3d 57 8a 56 bd
       0.031469386 -0.15181027 0.11722062 -0.052378025
000070 21 eb b1 bc 8d d9 ce 3d d6 eb 31 be 61 fb ac 3b
       -0.021718564 0.10100088 -0.1737512 0.00527899
000080 be c6 e7 3c 3f f0 dd 3d 0d 67 c0 bd 8a 8e 18 3e
       0.02829301 0.10836839 -0.093946554 0.14898124
000090 2b e0 50 bc 8f 2b 66 bd 74 94 25 be 9f ed d0 bc
       -0.012748758 -0.056193884 -0.16169912 -0.025503932
0000a0 1d 2b 19 3e 64 e6 ab bd 0f 81 fd bd e7 ee 96 3d
       0.14957853 -0.08393553 -0.123781316 0.07369786
0000b0 23 76 be bd 46 9f fa 3d 6d 15 a7 3d 3c 0c 88 bc
       -0.092998765 0.1223741 0.081583835 -0.016607396
0000c0 7f dc 0f 3e cc f7 79 3e f5 7b 4f 3e 62 6e b8 3e
       0.14048956 0.24410933 0.2026213 0.36021715
0000d0 b1 e7 84 3e 59 3c a3 be ca e9 18 3e d8 c4 cb bd
       0.25958017 -0.3188198 0.14932933 -0.09949654
0000e0 92 95 12 3e 4b ad 45 3e b7 b0 37 b9 58 85 9e 3d
       0.14314869 0.19304387 -0.00017518071 0.07740277
0000f0 9f 6c 08 bd 3b eb 48 3d 10 c2 cc bd 88 1a 8d 3b
       -0.033306714 0.04905246 -0.09997952 0.0043061413
000100 17 6e a5 3c 30 46 bc 3d 25 5d 23 bc 6d 91 12 bd
       0.020194096 0.09193075 -0.009970938 -0.03578322
000110 6b 06 48 be 14 dd 35 3e 13 c9 7a 3c 9d c8 b5 3d
       -0.19533698 0.17760116 0.015306729 0.088761546
000120 cb 47 8b be fb 5b b9 bd 94 0e 33 3c ac 27 aa 3d
       -0.2720321 -0.09050747 0.010928769 0.08308348
000130 cf 61 84 bd d8 3d 0f be f4 5f 66 3e 9a 64 f6 bd
       -0.06463968 -0.13988435 0.2249754 -0.12030907
000140 b1 a2 30 be 33 bb e6 3c e3 50 a6 bd e3 6f 34 be
       -0.17249562 0.028165435 -0.08120897 -0.17620806
000150 22 75 45 be 02 aa ad 3c e7 16 9c bd ab 85 fe bd
       -0.19282964 0.02119923 -0.07621556 -0.12427839
000160 cd c0 f1 bc a4 b4 8e 3c ba ee 8d 3d 51 ed 9f bd
       -0.02951088 0.01742012 0.06930299 -0.078089364
000170 76 22 8e bd 19 c9 aa bb b8 90 42 3d 57 a4 06 3c
       -0.06940167 -0.005211961 0.047501296 0.008217893
000180 9f c7 80 3d 2a 5f 11 bd a1 2b 9f 3b f7 45 37 be
       0.06288075 -0.035491146 0.004857496 -0.17897783
000190 27 ba 07 3d da 00 0f be 11 2f 6d 3d 74 71 03 3e
       0.033136513 -0.13965169 0.057906214 0.12836248
0001a0 fe 81 2d bd 3d 18 39 bd ad dc 5f bb 7c d1 58 bd
       -0.0423603 -0.04518913 -0.0034158633 -0.052934155
0001b0 a4 e4 22 bd 94 43 ca 3d bf 06 f2 3d 35 76 16 be
       -0.03976883 0.09876171 0.11817693 -0.1469353
0001c0 0e f6 93 3d a7 2f ab 3d 54 38 16 3e 52 8f 43 be
       0.072246656 0.08358698 0.14669925 -0.19097641
0001d0 6c 38 a7 3d e1 30 cf bd 96 86 df 3d d2 0f 10 be
       0.081650585 -0.10116745 0.10914342 -0.14068535
0001e0 ab 7b a3 bd 66 70 cc 3c 39 9c ac bc 10 95 cc 3d
       -0.07982572 0.02495594 -0.021070587 0.09989369
0001f0 39 8a 37 be 13 90 0d ba 78 93 6b 3e 13 1c 26 3e
       -0.17923822 -0.0005400192 0.23005474 0.16221647
000200 c2 c3 73 bd 14 25 a1 3e a1 f6 82 3e d2 54 45 bd
       -0.05951286 0.314736 0.25578788 -0.048176594
000210 02 9d 1d 3e 37 b8 37 3d d7 32 c5 bd 19 12 45 3e
       0.15391925 0.044853415 -0.096288376 0.19245185
000220 c4 04 35 be 0d 78 a0 bd 20 38 92 3d 6b b1 e6 bc
       -0.17677599 -0.07835398 0.07139611 -0.028160771
000230 c8 35 ed 3d b9 4f 8f 3c 07 52 de bc 79 ee f0 3d
       0.115825236 0.01749407 -0.027138723 0.11764235
000240 d3 27 a7 3a 8b b0 40 3d f9 4a d6 bd 32 5e 45 3e
       0.0012752957 0.047043364 -0.10463519 0.19274214
000250 61 8d 0c be 4c 77 0a be 5f 21 7a 3e 02 c5 05 bd
       -0.13725807 -0.1352207 0.24426793 -0.032658584
000260 88 d1 b0 3b ea 4e 14 be 06 f7 2d 3e 17 3b f0 3d
       0.005396072 -0.14483228 0.16988763 0.117300205
000270 17 eb 06 3e 3c 0e 2e be 04 b6 73 bd 20 b4 11 be
       0.13175617 -0.16997617 -0.059499756 -0.14228868
000280 6d c8 0f bd 89 ac 30 3e fa 00 9f bd 5e 7b b7 ba
       -0.03510325 0.17253317 -0.07763858 -0.0013998558
000290 60 04 8c bb eb b9 2c be a7 99 af bd ad cb 8e bd
       -0.0042729825 -0.16867797 -0.08574229 -0.06972442
0002a0 46 74 60 bd 2f 69 ad bc 3a 1c 48 be 66 76 9e bc
       -0.054798387 -0.02116832 -0.19542018 -0.019343566
0002b0 79 13 7f 3c 8f 92 41 be 55 ff 54 3e 47 8e 31 3e
       0.0155686075 -0.18903564 0.20800526 0.17339431
0002c0 34 bc 7b 3d 36 98 15 be 80 3d 7f 3e 17 c8 6a 3d
       0.06145878 -0.14608845 0.24925804 0.057319727
0002d0 82 a3 ce 3d e7 5b 51 3d 2b be 14 3e 00 1e 8e 3d
       0.100897804 0.051113036 0.14525668 0.06939316
0002e0 80 80 1b 3e 5b de 99 bd d9 de 67 3e 2e e0 3a 3e
       0.15185738 -0.07513114 0.22643603 0.1824958
0002f0 ba 69 ff 3d ab 62 8d bd ea 13 f5 ba f5 16 e8 bc
       0.124713376 -0.06903585 -0.0018697951 -0.02833126
000300 b1 34 00 3e 83 7e 46 bc 90 95 d1 ba 06 ee e2 bc
       0.125201 -0.012115124 -0.0015990008 -0.027701389
000310 10 5e 83 bb 4e ba 53 3d 50 c3 0b 3e 81 28 27 bd
       -0.004009016 0.051691346 0.13648725 -0.040810112
000320 f0 cc a1 3d a9 36 8a 3e 75 60 da bd 3a e5 16 bd
       0.07900417 0.26994827 -0.10662929 -0.0368397
000330 c4 d9 1f 3d 86 74 25 bd 76 e8 59 3d a0 0d e8 bd
       0.039026037 -0.04039433 0.053200208 -0.11330724
000340 fb b6 2b be 31 c9 11 bd 4e f1 19 be 06 b3 3e bc
       -0.1676902 -0.03559226 -0.15033457 -0.011639362
000350 c1 a9 77 3c a4 51 d9 3d 46 9d b1 3b bf 82 13 3d
       0.015116156 0.10611275 0.00542036 0.03601336
000360 12 e7 0e 3e a9 90 22 3e 11 4a 3a 3e 6a 7a 47 3d
       0.13955334 0.15875496 0.18192317 0.048700728
000370 35 ee 10 3e 63 9d a9 bd 4e 80 0a 3e 82 5f b5 bd
       0.14153369 -0.08281972 0.13525507 -0.08856107
000380 84 c0 14 3e b6 16 84 bd 15 12 4c bb d3 dd 28 3d
       0.14526564 -0.06449644 -0.0031138707 0.041227173
000390 2c bf 0b be 46 e5 bb bd 19 ea 9f 3d 9f a4 c4 3d
       -0.13647145 -0.0917459 0.078083225 0.096017115
0003a0 3b 4c e7 bd c3 55 24 3e de 9e 9b ba fb 11 d4 3d
       -0.11293837 0.1604834 -0.0011872908 0.10354992
0003b0 b2 07 86 3e ca 1f 74 3e d0 9d d9 3c 55 d5 17 3e
       0.26177746 0.23840252 0.026564509 0.14827473
0003c0 7a 98 a5 bc 81 0a 31 be 01 41 de bd cc 94 ee bc
       -0.020214308 -0.17289163 -0.10852242 -0.029123686
0003d0 fe f5 da 3d 2e 53 16 be 73 73 11 3e 82 df a3 bd
       0.106914505 -0.14680168 0.14204197 -0.08001615
0003e0 1f 3a 0e 3e 46 08 dd bd 81 98 be 3d df f5 2a bd
       0.13889359 -0.10792594 0.093064316 -0.041738387
0003f0 fa c3 2d bd f0 f3 2e be 36 db bb bd a2 8a ac 3d
       -0.042423226 -0.17085242 -0.091726705 0.084248796

conv2.conv3.0.bias f4 [16]
000000 36 44 48 bc f1 59 74 bd b5 92 18 3b 4f 59 43 3d
       -0.012223294 -0.059656087 0.0023280804 0.047692593
000010 e3 f1 34 3b b8 7f 56 3d 77 e5 00 bd 26 c8 85 3d
       0.0027609996 0.052367896 -0.031468835 0.06532316
000020 71 91 a2 3c a5 50 e5 bc 11 7e 24 3d a2 c7 27 3d
       0.019844742 -0.027992556 0.04015929 0.04096187
000030 76 48 12 bd 09 3d 78 bc 34 13 30 3d 62 55 96 bd
       -0.035713635 -0.015151271 0.042987064 -0.07340504

conv2.conv3.1.weight f4 [16]
000000 87 d4 8a 3f 0a 32 43 3f c9 0e 82 3f 16 7d 9f 3f
       1.0846108 0.7624823 1.0160762 1.2460048
000010 a6 f7 94 3f 0a c2 82 3f f1 a0 82 3f 7e 4d 73 3f
       1.1638076 1.0215466 1.0205365 0.9504012
000020 c8 da 6e 3f 30 1d 7f 3f 99 dc a3 3f 28 c3 4e 3f
       0.93302584 0.9965391 1.2801696 0.80766535
000030 4f 3a 81 3f c7 29 7a 3f da e1 84 3f 16 96 47 3f
       1.0095919 0.9772 1.0381424 0.7796339

conv2.conv3.1.bias f4 [16]
000000 91 45 58 3c 6a a3 2b bc d9 4e a1 3d f9 74 e6 3b
       0.01320018 -0.010475973 0.07876367 0.007032987
000010 7a 42 02 bd a9 1c aa 3d 57 09 6e bd f4 5d 23 3e
       -0.03180168 0.08306248 -0.058114376 0.15953809
000020 84 a7 84 bd 35 6e 46 bd 49 d4 6c 3e 8d 76 48 3d
       -0.064772636 -0.048444945 0.23127855 0.048941184
000030 18 b6 a6 3d c5 1e 0a 3d 6c 9f 38 3d 06 77 d1 bd
       0.081402004 0.03372075 0.04507391 -0.1022778

conv2.conv3.1.running_mean f4 [16]
000000 49 98 04 3f a8 f4 0f 3f b9 17 be bd fe bb ef bf
       0.5179487 0.5623269 -0.092818685 -1.8729246
000010 85 3b 95 bf de e1 ac 3f 9c c4 30 3e c6 bb c6 bf
       -1.1658789 1.3506429 0.172625 -1.5526054
000020 46 b6 7b bf 01 79 8a bf 97 33 5a bf b6 f3 cd 3f
       -0.98325 -1.0818177 -0.8523497 1.609
000030 18 61 61 bf d4 25 89 bf ad 41 87 bf d1 21 76 3f
       -0.8803878 -1.0714669 -1.0566918 0.9614535

conv2.conv3.1.running_var f4 [16]
000000 cf b1 27 40 7a 51 28 40 c6 38 1a 40 94 60 a8 40
       2.6202276 2.629973 2.4097152 5.2617893
000010 e4 1a a2 40 4c b1 7f 40 bf 90 83 40 4b 28 5a 40
       5.0657825 3.9951963 4.111419 3.4087093
000020 22 bb 79 40 fe 82 5d 40 6c 5c 84 40 66 29 8c 40
       3.9020467 3.4611201 4.136282 4.3800535
000030 d7 6e 25 40 08 b7 27 40 bd 39 70 40 e4 29 85 40
       2.5848901 2.6205463 3.753524 4.1613636
