checkpoints/ifind1_sononet_8_6classes/012_net_6classes_emb_010.pth (torch_old, 671819 bytes, 90 tensors)

conv1.conv1.0.weight f4 [8, 1, 3, 3]
0	0xbc9c1b04	-0.01905585
1	0xbe7eb063	-0.24871974
2	0xbe723bd4	-0.23655635
3	0x3ee8f5be	0.45499986
4	0x3f710d5b	0.94161004
5	0xbf8683c9	-1.0508968
6	0x3e1489f1	0.14505745
7	0xbddb589e	-0.10710262
8	0xbe531ed8	-0.20617235
9	0xbf872faa	-1.0561421
10	0x3e956b41	0.2918339
11	0xbf4fa5f9	-0.8111263
12	0x3e99ad96	0.30015248
13	0xbe005395	-0.12531884
14	0xbeb0578c	-0.34441793
15	0x3f927439	1.1441718
16	0xbc4960e2	-0.012291165
17	0x3f3c6f6f	0.73607534
18	0x3e3308b3	0.17483787
19	0xbe869b74	-0.26290476
20	0xbdb1635b	-0.08661529
21	0xbf79ea70	-0.9762335
22	0x3ef969ad	0.48713437
23	0xbce19ced	-0.027540648
24	0xbe9e5293	-0.30922374
25	0xbeab0e37	-0.33409283
26	0xbf5e45d1	-0.8682528
27	0xbf8337d2	-1.025141
28	0x3e4fdc62	0.20298913
29	0xbecd51f8	-0.401016
30	0xbd0b81c2	-0.034059294
31	0x3e0b54f5	0.13606627
32	0x3dc8b9cc	0.09801063
33	0xbe9926f7	-0.2991254
34	0x3f6de8bc	0.9293325
35	0xbe47b43f	-0.19502352
36	0x3d953732	0.07285918
37	0x3e8d9567	0.27653047
38	0xbe3b6328	-0.18299544
39	0x3edb518e	0.4283566
40	0xbed30442	-0.41214186
41	0xbe808126	-0.25098532
42	0xbeaac672	-0.33354527
43	0xbe1905d4	-0.1494363
44	0x3c762dcd	0.015025568
45	0x3e8b16f6	0.27165955
46	0x3ea73efd	0.32665244
47	0x3f1f3496	0.62189615
48	0x3f74d890	0.9564295
49	0xbebaaad5	-0.3645846
50	0x3e3debce	0.18546984
51	0xbe69b85d	-0.22824235
52	0xbe451404	-0.19245917
53	0x3dddc144	0.10827878
54	0x3e5dbc3e	0.2165384
55	0x3d9ea14b	0.07745608
56	0xbbb0398b	-0.0053779534
57	0xbf5cbf50	-0.8622942
58	0x3e7b7a68	0.24558413
59	0x3e915dd0	0.28391886
60	0xbf0b4c17	-0.5441298
61	0xbd674adc	-0.056467876
62	0x3ee51e37	0.44749615
63	0xbf456ef0	-0.771224
64	0x3ebc3209	0.36756924
65	0x3f42efa5	0.7614692
66	0xbe5eac72	-0.2174547
67	0x3f089d0a	0.5336462
68	0xbda15066	-0.07876663
69	0x3cad6167	0.02116461
70	0xbdd17ef4	-0.102292925
71	0xbe31de25	-0.17369898

conv1.conv1.0.bias f4 [8]
0	0xbc8f4966	-0.017491054
1	0xbe7c1e58	-0.2462095
2	0xbe4b24f4	-0.19838315
3	0x3dbd4e48	0.092434466
4	0xbe88881c	-0.26666343
5	0x3e9d7a57	0.307574
6	0x3cbef589	0.02331044
7	0x3e121444	0.14265543

conv1.conv1.1.weight f4 [8]
0	0x3f898efc	1.074676
1	0x3f865a61	1.0496331
2	0x3f59291b	0.84828347
3	0x3f8485cf	1.0353335
4	0x3f7b7630	0.98227215
5	0x3f803f34	1.0019288
6	0x3f821bce	1.0164735
7	0x3f8ad163	1.084515

conv1.conv1.1.bias f4 [8]
0	0x3d4b3c21	0.04961789
1	0x3de5cc70	0.11220634
2	0xbde9ce3e	-0.11416291
3	0xbd84b759	-0.06480283
4	0xbde0862c	-0.10963091
5	0x3d298e2f	0.041395362
6	0x3bf57131	0.0074903
7	0x3e8ee885	0.27911773

conv1.conv1.1.running_mean f4 [8]
0	0xbca88393	-0.020570552
1	0xbe7ceb67	-0.24699174
2	0xbe4f664d	-0.20253868
3	0x3db6791c	0.089098185
4	0xbe88f2e8	-0.26747823
5	0x3e9f7bb1	0.31149057
6	0x3cc1847b	0.023622742
7	0x3e122de2	0.14275315

conv1.conv1.1.running_var f4 [8]
0	0x3e3dd3f5	0.18537886
1	0x3f27c766	0.6553863
2	0x4092d7d6	4.588847
3	0x3ef4834a	0.47756416
4	0x3e9ab5fe	0.30216974
5	0x4031a4a1	2.7756732
6	0x3e0a1cf8	0.13487613
7	0x3e4610bc	0.19342321

conv1.conv2.0.weight f4 [8, 8, 3, 3]
0	0xbd001b55	-0.031276066
1	0x3e3e122a	0.18561617
2	0xbdc3ca1f	-0.09560036
3	0xbc6a372f	-0.014295383
4	0x3edb894f	0.42878196
5	0x3d85d757	0.065352134
6	0xbe84488c	-0.258366
7	0xbc52cec6	-0.012866681
8	0xbdcf5a24	-0.10124615
9	0x3eb6ad7b	0.3567923
10	0xbc2c8e3f	-0.010531961
11	0xbe595428	-0.2122351
12	0x3e1a7849	0.15084948
13	0x3e818be7	0.2530205
14	0x3e371222	0.17878011
15	0xbcc894f5	-0.02448509
16	0xbc382cfa	-0.011241192
17	0xbdcb0aae	-0.09914146
18	0x3d21446f	0.039371904
19	0xbc62595b	-0.013815249
20	0xbd57d700	-0.052695274
21	0x3da73cb1	0.08165873
22	0xbc23ec39	-0.01000505
23	0x3db80798	0.089858234
24	0xbc6824c6	-0.014168924
25	0x3e6bffcd	0.23046799
26	0x3cb30a4a	0.021855492
27	0xbe004bb5	-0.1252888
28	0x3d9e9b2a	0.07744439
29	0xbde34362	-0.110968366
30	0xbe390960	-0.18069983
31	0x3db1c13f	0.08679437
32	0x3de5e039	0.11224408
33	0x3ddd7e5d	0.108151175
34	0x3dc5e3d8	0.09662598
35	0xbe7fb611	-0.24971797
36	0x3df52482	0.11969854
37	0xbe3c7ee9	-0.18407787
38	0x3e75f37e	0.24018666
39	0x3e4dd674	0.20101339
40	0xbecfca6d	-0.40584126
41	0x3d1953ff	0.03743362
42	0x3db47293	0.08810916
43	0xbe09ec07	-0.13468944
44	0xbe9c987e	-0.30585092
45	0x3d202beb	0.039104383
46	0x3dfbc7e9	0.12293989
47	0xbe4dec34	-0.20109636
48	0x3e22defb	0.15905373
49	0x3de1403f	0.10998582
50	0x3e72b916	0.23703417
51	0x3ebfd30e	0.3746571
52	0x3ec14692	0.37749153
53	0xbe37d648	-0.17952836
54	0xbecaf4cb	-0.39639887
55	0xbc44994d	-0.01199944
56	0xbe8b98c7	-0.27264997
57	0xbd22928e	-0.039690547
58	0x3d16061f	0.03662693
59	0x3de54916	0.11195581
60	0xbdc8dac5	-0.09807352
61	0x3b19c216	0.0023461631
62	0xbdfd7ed0	-0.12377703
63	0xbd00c554	-0.031438187
64	0xbd814e75	-0.063137926
65	0xbe4a8ee6	-0.19781074
66	0x3e363ec3	0.17797379
67	0xbd064aa3	-0.032786023
68	0xbea81e98	-0.3283584
69	0x3e433624	0.19063622
70	0xbcb15b91	-0.021650108
71	0xbe655fe4	-0.2239986
72	0xbdd2a026	-0.10284452
73	0x3d97bb96	0.07408826
74	0xbd1e531a	-0.03865347
75	0xbd524fcc	-0.05134563
76	0x3e4f5525	0.20247324
77	0x3dd2ebb7	0.10298865
78	0x3ec24997	0.3794677
79	0xbec01a0f	-0.3751988
80	0xbea929c3	-0.33039674
81	0xbe0c2f69	-0.1368996
82	0xbd73beb9	-0.05950806
83	0x3e74be61	0.23900749
84	0xbd3faf48	-0.04679802
85	0xbe85fcff	-0.26169583
86	0x3d9adda5	0.075618066
87	0xbe40213a	-0.18762675
88	0xbcdf3c1d	-0.027250344
89	0xbe6ba881	-0.23013498
90	0x3ce5a3c9	0.0280322
91	0xbe278b41	-0.16361715
92	0x38d3a6f3	0.00010092361
93	0xbe7d480a	-0.24734512
94	0x3e4c0e76	0.19927391
95	0x3db764fa	0.089548066
96	0xbca76317	-0.020432992
97	0x3e6b1664	0.2295776
98	0xbdcab742	-0.09898235
99	0xbe3e1b0e	-0.18565008
100	0x3e029d06	0.12755212
101	0xbde0f61c	-0.10984442
102	0x3da94897	0.082657985
103	0xbe6fc8ac	-0.23416394
104	0x3c7ed2ba	0.015553171
105	0x3e53fcce	0.20701906
106	0x3d0d0903	0.034432422
107	0x3d243b96	0.040095888
108	0x3e123b69	0.14280476
109	0x3e1ff305	0.15620048
110	0x3c59884f	0.013277127
111	0xbc9d2a51	-0.019185217
112	0xbe20ae9a	-0.15691605
113	0x3d7d8306	0.06189253
114	0xbcaeb784	-0.021327741
115	0xbcb9da21	-0.02268702
116	0x3e89dcf1	0.26926377
117	0x3cff6b33	0.031179046
118	0xbe4a6d07	-0.19768153
119	0x3e4cf4d8	0.20015275
120	0x3e5a4640	0.21315861
121	0x3de407a7	0.11134272
122	0xbe86fd7d	-0.2636527
123	0x3bef7306	0.007307413
124	0xbe23d7d5	-0.16000302
125	0x3e3e0711	0.18557383
126	0x3e2e40ef	0.17016958
127	0x3d2379e1	0.039911155
128	0xbe171ad9	-0.14756335
129	0xbbbc2e29	-0.0057428074
130	0xbe0bb13e	-0.13641831
131	0x3d1ba615	0.038000185
132	0xbe6d6896	-0.23184428
133	0xbe96be22	-0.29441935
134	0x3efadbc4	0.48995793
135	0xbe85df9e	-0.2614717
136	0xbded6102	-0.115907684
137	0xbd069a0e	-0.03286176
138	0x3df7497d	0.12074564
139	0xbdaa1b30	-0.08305967
140	0xbc80d099	-0.015724467
141	0x3e06dc67	0.13170014
142	0x3c9b98c2	0.018993739
143	0x3e125a7c	0.1429233
144	0x3e5d5bdb	0.21617071
145	0xbe44e975	-0.19229682
146	0x3e18c89a	0.14920273
147	0xbd075778	-0.0330424
148	0xbe219116	-0.15778002
149	0xbe27586c	-0.16342324
150	0xbbe90777	-0.0071114856
151	0xbdd64d2d	-0.10463939
152	0xbe5e8277	-0.21729456
153	0x3e945798	0.2897308
154	0x3df162ed	0.11786447
155	0xbd7007f7	-0.058601346
156	0x3d574bb3	0.052562427
157	0x3e33e776	0.17568764
158	0x3d90647d	0.070504166
159	0x3e2be97f	0.1678829
160	0x3e1bc053	0.15210085
161	0xbeb4acc5	-0.35288063
162	0xbdb1f2c9	-0.08688886
163	0xbe38b7d0	-0.18038869
164	0xbdab262b	-0.08356889
165	0x3dffc41e	0.12488578
166	0x3e3140fa	0.17309943
167	0xbcccb27b	-0.02498745
168	0x3dc5d23d	0.096592404
169	0xbdee372d	-0.11631618
170	0xbdae869b	-0.08521768
171	0xbe360f91	-0.17779376
172	0xbdd46bbb	-0.103721105
173	0xbe354276	-0.17701134
174	0xbe505537	-0.20345007
175	0xbe52628d	-0.20545407
176	0xbcdde575	-0.027086953
177	0x3d9c7b5b	0.07640716
178	0xbe11e74b	-0.14248388
179	0xbd8e3cf0	-0.06945217
180	0x3e52e824	0.20596367
181	0x3d52fced	0.05151074
182	0x3d368979	0.044564698
183	0x3e0c2d37	0.13689123
184	0x3e8701c2	0.2636853
185	0xbe89bb0b	-0.26900515
186	0x3e4d44eb	0.20045821
187	0xbe23d963	-0.16000895
188	0x3e03c7c0	0.12869167
189	0xbeec0a4f	-0.46101615
190	0xbe064c4d	-0.13115044
191	0x3e30524e	0.17218897
192	0x3b25c6d6	0.0025295517
193	0x3e077521	0.13228275
194	0xbddff884	-0.109360725
195	0xbdd31c09	-0.10308082
196	0x3d57bc45	0.052669782
197	0x3ebd4c4a	0.36972266
198	0x3de41f8e	0.11138831
199	0xbdffe3dd	-0.12494633
200	0x3d3501c4	0.044191137
201	0xbcf1f449	-0.02953543
202	0x3dc5cc65	0.09658126
203	0x3dc08e8a	0.09402187
204	0x3d4987f5	0.049201924
205	0x3ddc69d8	0.107623756
206	0xbe3b6e79	-0.1830386
207	0xbf0349c0	-0.5128441
208	0xbe1cd322	-0.15314916
209	0xbcba8362	-0.022767726
210	0xbe8c704c	-0.27429426
211	0x3e95dd7c	0.29270542
212	0x3eab4c59	0.33456686
213	0xbda2d81d	-0.079513766
214	0x3ea27358	0.31728625
215	0x3ec11e17	0.3771827
216	0x3e8bec9b	0.27328953
217	0xbd9421ef	-0.07233035
218	0xbe1a620c	-0.15076464
219	0x3d98e67e	0.07465838
220	0xbe86e467	-0.26346132
221	0xbd3d3db7	-0.046201434
222	0xbe8d2c7c	-0.27573
223	0xbe0cc80e	-0.1374819
224	0xbe32350f	-0.17403053
225	0x3e9a916d	0.30189076
226	0x3dd15b0c	0.10222444
227	0xbe8733f8	-0.26406837
228	0x3e0868f3	0.13321285
229	0x3d8fcf31	0.070219405
230	0xbe7cea1e	-0.24698684
231	0x3d02a78d	0.03189807
232	0xbe05dcea	-0.13072553
233	0x3f00cfbd	0.50316983
234	0x3d02ee8a	0.03196577
235	0x3ce99251	0.028512152
236	0xbb914f3c	-0.0044344943
237	0x3e87592e	0.26435226
238	0xbc5898e4	-0.013220046
239	0xbf066ef8	-0.52513075
240	0xbd9ee062	-0.077576414
241	0xbdeac68d	-0.11463652
242	0x3e8bdde3	0.27317724
243	0xbe8f018b	-0.27930865
244	0xbc6920b8	-0.014228992
245	0x3e024368	0.12721026
246	0x3de9bf4c	0.1141344
247	0xbd5854d5	-0.052815277
248	0x3d98a439	0.07453198
249	0xbe654386	-0.2238904
250	0x3d1999fd	0.03750037
251	0x3c83d4c8	0.016092673
252	0xbe014530	-0.12624049
253	0xbe430a44	-0.19046885
254	0x3e20dbc6	0.15708837
255	0x3e6b76ad	0.2299449

conv1.conv2.0.bias f4 [8]
0	0xbdd42585	-0.10358719
1	0x3d4798ca	0.048729695
2	0xba3e4105	-0.00072576135
3	0x3cd9e1f9	0.02659701
4	0x3cabe888	0.020984903
5	0xbddf5bb0	-0.1090616
6	0xbb9b21fb	-0.0047342754
7	0xbda717c8	-0.08158833

conv1.conv2.1.weight f4 [8]
0	0x3f85ad5d	1.0443531
1	0x3f92dc73	1.1473526
2	0x3f6e4ed0	0.9308901
3	0x3f841612	1.0319235
4	0x3f6928c0	0.91077805
5	0x3f85293f	1.0403212
6	0x3f85ae17	1.0443753
7	0x3f720c37	0.9454989

conv1.conv2.1.bias f4 [8]
0	0x3d94b1cc	0.072604746
1	0x3dcd2307	0.100164466
2	0xbd9ad339	-0.07559819
3	0xbc11cc77	-0.008898846
4	0xbe24e984	-0.16104704
5	0x3da8b65a	0.08237906
6	0x3c9062cd	0.017625237
7	0xbc914a1d	-0.017735535

conv1.conv2.1.running_mean f4 [8]
0	0xbca0a286	-0.019608747
1	0xbe0b6f86	-0.13616762
2	0xbd1f0e24	-0.038831845
3	0xbed9dff5	-0.42553678
4	0x3e6f9f9a	0.23400727
5	0xbf4ba095	-0.79541904
6	0xbf50fce5	-0.81635886
7	0x3f12237a	0.5708538

conv1.conv2.1.running_var f4 [8]
0	0x3fa753e6	1.3072479
1	0x3ee621e9	0.44947746
2	0x3f94cba5	1.1624647
3	0x3f17aaf1	0.5924521
4	0x3f5cd17f	0.86257166
5	0x3ff1c26b	1.8887457
6	0x4005c4cc	2.0901365
7	0x4010076a	2.2504525

conv1.conv3.0.weight f4 [8, 8, 3, 3]
0	0x3e51ba30	0.20481181
1	0x3e082eb2	0.13299063
2	0x3e185ac7	0.14878379
3	0xbeb3343d	-0.35000792
4	0xbe811e9d	-0.2521867
5	0x3dd08470	0.101815104
6	0x3e18a4dd	0.1490664
7	0x3d8d0090	0.06884873
8	0xbcc20a73	-0.023686623
9	0xbd62b027	-0.055343773
10	0x3d19418f	0.037416037
11	0x3dc8d6b0	0.098065734
12	0x3d0dca3f	0.034616705
13	0x3de1d664	0.1102722
14	0xbe2d6a6e	-0.16935131
15	0x3d505351	0.050860707
16	0xbcc1da13	-0.023663556
17	0xbe048fd3	-0.1294549
18	0x3e1a0913	0.15042524
19	0x3e0586ad	0.13039656
20	0xbe07741e	-0.13227889
21	0x3dbe2744	0.09284833
22	0xbeb3fd2b	-0.3515409
23	0xbe551bd6	-0.208114
24	0xbdf4d344	-0.11954358
25	0xbe649769	-0.22323383
26	0x3def6ceb	0.11690696
27	0xbe09adf2	-0.13445261
28	0xbe83f4bf	-0.25772664
29	0x3e14e77e	0.14541432
30	0xbd8f4b3c	-0.06996772
31	0xbda09f3c	-0.078428715
32	0x3c04b0bd	0.008098778
33	0x3dada3df	0.084785216
34	0xbec4fb86	-0.38473147
35	0x3e8755c7	0.2643263
36	0xbd8f835b	-0.07007476
37	0xbd42d817	-0.04756936
38	0xbebda22d	-0.37037793
39	0xbe66f365	-0.22553785
40	0xbeba77ef	-0.36419627
41	0xbddbb4a4	-0.10727814
42	0x3e1e5cd5	0.154651
43	0x3e1fa3b3	0.1558979
44	0x3dc46df5	0.09591285
45	0xbe222b27	-0.15836774
46	0x3d708406	0.058719657
47	0xbe955bcd	-0.291716
48	0xbea5564b	-0.322924
49	0xbe99fdda	-0.30076486
50	0xbe2c0715	-0.16799577
51	0x3e7e0ee5	0.2481037
52	0xbebd62e9	-0.36989525
53	0x3d9f12a3	0.077672265
54	0x3e9b694b	0.3035377
55	0x3d4d7c94	0.050167635
56	0xbe60951d	-0.21931882
57	0xbec6e3df	-0.38845727
58	0xbbb037a6	-0.0053777276
59	0x3d07b011	0.033126894
60	0xbe747c54	-0.23875552
61	0xbd6765a8	-0.05649343
62	0x3e553815	0.20822175
63	0x3d34b3b3	0.044116687
64	0xbe21a23d	-0.15784545
65	0x3d8009b8	0.06251854
66	0x3d9492c8	0.07254559
67	0xbe226313	-0.15858106
68	0xbe989f91	-0.2980924
69	0xbdbe4876	-0.092911646
70	0x3d3e587d	0.046471108
71	0xbcdc4f97	-0.02689342
72	0x3e1600f6	0.14648804
73	0xbdafb7fe	-0.085800156
74	0xbc449254	-0.011997778
75	0xbd3957e6	-0.045249842
76	0xbdd243e1	-0.10266853
77	0xbddaaf61	-0.10677982
78	0x3e01ea67	0.12687074
79	0x3d88b2fa	0.06674762
80	0xbdd5f037	-0.10446208
81	0xbe55f6ed	-0.20894976
82	0xbc09adc4	-0.008403245
83	0x3ea83079	0.32849482
84	0x3d963430	0.07334173
85	0xbe0686d3	-0.13137369
86	0x3ce9b91d	0.028530652
87	0x3e87ffb8	0.26562285
88	0xbeb63ae1	-0.35591796
89	0x3ca0acb9	0.01961361
90	0xbb5df8d5	-0.003387024
91	0xbd756e24	-0.05991949
92	0xbeaeeda4	-0.3416568
93	0xbeabc466	-0.33548278
94	0xbe1d2f11	-0.15349986
95	0xbd600521	-0.05469239
96	0x3d546c8a	0.051861323
97	0xbe82f237	-0.2557542
98	0xbe3a1db6	-0.18175396
99	0x3ea31a3b	0.3185595
100	0xbd5fb070	-0.054611623
101	0xbe16557e	-0.1468105
102	0x3e8adc59	0.27121237
103	0xbea2ad4d	-0.31772843
104	0xbd14a732	-0.036292262
105	0xbd8e5a2a	-0.06950791
106	0xbe7c78fa	-0.24655524
107	0x3d9b8fed	0.07595811
108	0xbe2f2e1c	-0.17107433
109	0xbe05b317	-0.13056599
110	0x3e10f4cc	0.14155883
111	0xbe8c0f2c	-0.27355325
112	0x3e0b2668	0.1358887
113	0xbbf848b2	-0.0075770253
114	0x3c14c221	0.009079487
115	0xbe84b9d5	-0.2592303
116	0xbd4fa0b3	-0.050690364
117	0xbd90e372	-0.07074632
118	0x3d9770cf	0.073945634
119	0xbc96695d	-0.018360788
120	0x3dbc65cb	0.09199103
121	0x3e5e7a7a	0.21726409
122	0x3e31665d	0.17324205
123	0x3d879f0a	0.06622131
124	0xbe23c2c2	-0.15992263
125	0xbd4a64a0	-0.04941237
126	0x3cd1f02d	0.02562722
127	0x3eba8498	0.36429286
128	0x3e315f26	0.17321452
129	0xbda86be6	-0.08223705
130	0x3e2b5d6f	0.16734861
131	0xbdff0553	-0.124521874
132	0x3e29c07b	0.16577332
133	0xbc4581b7	-0.012054852
134	0x3ba4b70a	0.005026703
135	0xbdcd3d2e	-0.10021435
136	0x3ea25072	0.31702
137	0xbe569dad	-0.20958586
138	0xbeb96288	-0.36207986
139	0xbc88d4b4	-0.016702987
140	0x3d4851e4	0.048906222
141	0x3e7fb67d	0.24971958
142	0x3e7ae506	0.24501428
143	0xbe61a952	-0.22037247
144	0xbd64b64f	-0.055837926
145	0x3e0d1f4c	0.1378147
146	0xbeb306e3	-0.34966192
147	0x3eabe63c	0.33574092
148	0x3e23857b	0.15968888
149	0xbe542088	-0.20715535
150	0x3e06cd8b	0.13164346
151	0x3de2bf7a	0.110716775
152	0xbb9abe9c	-0.0047224294
153	0xbde46a04	-0.111530334
154	0xbe72d3fe	-0.23713681
155	0xb9917ead	-0.00027750936
156	0x3e44e5d8	0.19228303
157	0x3d8df7be	0.06932019
158	0xbcc7bb11	-0.024381192
159	0x3e4d0d51	0.20024611
160	0xbc9e607d	-0.019333119
161	0xbde15843	-0.11003163
162	0x3e8bf6d0	0.2733674
163	0xbc85db40	-0.016339898
164	0x3e27df33	0.16393737
165	0x3d804132	0.06262435
166	0x3d0d4bda	0.034496166
167	0x3e9e2a2e	0.30891556
168	0xbdb21663	-0.08695676
169	0x3cef7989	0.029232757
170	0x3eab25ae	0.33427185
171	0x3dbe5d2d	0.092951156
172	0x3eaeb53b	0.34122643
173	0x3ca288d7	0.019840641
174	0x3e080730	0.13283992
175	0x3e2695b1	0.1626804
176	0x3e155b58	0.14585626
177	0x3e20a204	0.15686804
178	0xbc8f0513	-0.017458474
179	0x3bdda2fb	0.0067638136
180	0xbd3a7710	-0.045523703
181	0xbea05fb5	-0.3132302
182	0xbd2ebcab	-0.042660397
183	0x3e42eb15	0.19034989
184	0xbe90521b	-0.28187642
185	0xbe9fa5d6	-0.3118121
186	0xbd06e77c	-0.032935604
187	0x3e5295f3	0.20565014
188	0x3ce90a1c	0.028447203
189	0xbe509bf2	-0.20371988
190	0xbe54642a	-0.20741335
191	0xbd988f22	-0.074491754
192	0xbe26f8df	-0.16305874
193	0x3e11e4af	0.14247392
194	0xbe40ab2a	-0.18815294
195	0xbdb938b9	-0.09044022
196	0xbc249491	-0.010045187
197	0xbe2ae96a	-0.16690603
198	0xbdcfcea4	-0.101468354
199	0xbdff0b34	-0.12453309
200	0xbd789698	-0.060690492
201	0x3e3c3c2e	0.18382332
202	0x3e34a0dd	0.1763949
203	0x3dc3c282	0.09558584
204	0x3d88d43f	0.06681108
205	0xbdeafee2	-0.11474396
206	0xbe317642	-0.17330268
207	0xbdba296c	-0.09089932
208	0xbe770fdd	-0.24127145
209	0xbbd649e9	-0.0065395725
210	0x3dcfe4c0	0.101510525
211	0xbe5505bf	-0.20802973
212	0xbdda4462	-0.10657574
213	0x3df3f6ee	0.119123325
214	0xbe60fd23	-0.21971564
215	0x3e8b969e	0.2726335
216	0xbe7ad682	-0.2449589
217	0xbd43519e	-0.047685258
218	0xbdc28fd9	-0.09500093
219	0x3d9de9cb	0.07710608
220	0xbe9a3654	-0.30119574
221	0xbcfb4d53	-0.03067652
222	0xbe8545dc	-0.2602986
223	0xbe43dfa6	-0.19128284
224	0x3eb8db72	0.36104923
225	0x3dc23483	0.09482672
226	0xbf12d878	-0.57361555
227	0x3e2fbcc3	0.1716185
228	0x3e9bdabe	0.30440325
229	0xbd2eaafd	-0.042643536
230	0xbe06b21a	-0.13153878
231	0xbec0ae12	-0.37632805
232	0x3e9067c3	0.28204164
233	0x3df2d6c3	0.11857369
234	0xbe76af90	-0.2409041
235	0xbd833ad0	-0.06407702
236	0xbded83bd	-0.11597393
237	0xbe1a656f	-0.15077756
238	0xbc9d2d59	-0.019186663
239	0x3ea842e1	0.32863525
240	0x3e44e17a	0.19226637
241	0xbe67a8ac	-0.22622937
242	0xbe9ccbbc	-0.30624187
243	0xbea7cd01	-0.32773593
244	0x3ebce848	0.36895967
245	0x3b493fd2	0.0030708206
246	0xbcb1600c	-0.021652244
247	0x3e66fe37	0.22557913
248	0xbbecae4e	-0.007222927
249	0x3e3d4d58	0.18486536
250	0x3e1da7bb	0.15396015
251	0xbe7e0768	-0.24807513
252	0xbe9abe5a	-0.30223352
253	0x3d00884f	0.031379994
254	0x3d8ee239	0.06976742
255	0x3e05f022	0.13079885

conv1.conv3.0.bias f4 [8]
0	0xbcd78b4a	-0.026311535
1	0xbc6b4f5e	-0.014362184
2	0xbd9a6a3c	-0.07539794
3	0x3be83e17	0.00708748
4	0xbd94cf16	-0.07266061
5	0xbdc14473	-0.09436884
6	0x3dd908aa	0.10597356
7	0xbb203311	-0.00244445

conv1.conv3.1.weight f4 [8]
0	0x3f833357	1.0250043
1	0x3f8a9265	1.0825926
2	0x3f846210	1.0342426
3	0x3f75cab7	0.96012443
4	0x3f667831	0.9002715
5	0x3f86a049	1.0517665
6	0x3f8508d8	1.0393324
7	0x3f781947	0.9691357

conv1.conv3.1.bias f4 [8]
0	0x3cc6b496	0.024256032
1	0x3e04b4d9	0.12959613
2	0x3e3a6e75	0.18206199
3	0x3dcb9415	0.09940354
4	0x3d4e4ec9	0.050368104
5	0x3de3c514	0.11121574
6	0x3da08990	0.07838738
7	0x3dc8e170	0.09808624

conv1.conv3.1.running_mean f4 [8]
0	0xbfa79fee	-1.3095682
1	0xbe85c477	-0.26126453
2	0x3ce09fe3	0.02741999
3	0xbeb70719	-0.35747603
4	0xbf91eccb	-1.1400388
5	0xbf2c4153	-0.67287177
6	0xbe14f439	-0.14546289
7	0xbeddf277	-0.43349048

conv1.conv3.1.running_var f4 [8]
0	0x3f85670c	1.0422072
1	0x3fd38fc7	1.6528252
2	0x4000f83b	2.0151508
3	0x3f422d7b	0.7585065
4	0x3fd2e337	1.647559
5	0x402731d8	2.6124172
6	0x3fbe2304	1.4854436
7	0x3fcfaaaf	1.6223963

conv2.conv1.0.weight f4 [16, 8, 3, 3]
0	0xbd0f9ad7	-0.035059776
1	0x3d049f9e	0.032378785
2	0xbe20cc30	-0.15702891
3	0xbe85f4c4	-0.26163304
4	0x3cfc8ae9	0.030827956
5	0x3eb7d3c0	0.3590374
6	0x3e80da07	0.25166342
7	0xbdb205a8	-0.08692485
8	0x3dac5faf	0.08416688
9	0x3cb8b478	0.022546992
10	0xbd21815f	-0.03943002
11	0x3c5cc81a	0.013475442
12	0xbe4147e4	-0.1887508
13	0xbda413fa	-0.08011623
14	0xbdaabda0	-0.08336949
15	0x3d8f874a	0.07008226
16	0x3e04cf02	0.12969592
17	0xbe3deba3	-0.1854692
18	0xbdc6e820	-0.09712243
19	0xbec98ba5	-0.39364353
20	0x3dfa01e9	0.122073956
21	0xbccdb349	-0.025109904
22	0x3e98ce8f	0.29845092
23	0x3df6aed1	0.12045062
24	0x3e2e0267	0.16993104
25	0x3e711443	0.23542885
26	0xbbedd2a2	-0.0072577754
27	0x3e133244	0.14374644
28	0x3df0e773	0.117628954
29	0x3d48083c	0.048835978
30	0x3ea315cb	0.31852564
31	0xbde2424f	-0.110478036
32	0xbe9ac758	-0.30230212
33	0xbdbdff3a	-0.09277196
34	0xbce7aef6	-0.02828167
35	0xbcbe6168	-0.023239806
36	0x3ccfd84b	0.025371691
37	0xbdb73e78	-0.08947462
38	0xbc3292b7	-0.010899237
39	0x3e92a0fb	0.28638443
40	0xbdb9ceae	-0.09072624
41	0xbd026af2	-0.031840272
42	0xbe235c47	-0.1595317
43	0xbd41795a	-0.04723487
44	0xbdc58a8e	-0.09645568
45	0xbce8a2f7	-0.02839802
46	0xbe372b43	-0.17887597
47	0x3dd9de75	0.106381334
48	0xbe51c9ea	-0.2048718
49	0xbe0c8e1c	-0.13726085
50	0xbe1c68fa	-0.1527442
51	0xbe595019	-0.21221961
52	0xbe0d5fe1	-0.13806106
53	0xbe5001a5	-0.20313127
54	0xbe8426dc	-0.25810897
55	0xbe1578c6	-0.14596853
56	0xbdb4aaab	-0.08821615
57	0x3c947ad0	0.018124968
58	0xbd342dc1	-0.043988947
59	0xbd0d9b62	-0.034572013
60	0x3c0693ff	0.008213996
61	0xbe128719	-0.14309348
62	0xbced7908	-0.028988376
63	0x3e213700	0.15743637
64	0xbdc6a0ea	-0.09698661
65	0x3dcd3256	0.100193664
66	0xbb353aee	-0.0027653533
67	0x3e7fb01b	0.24969523
68	0x3bb3b87c	0.0054846387
69	0x3a5134f3	0.00079806073
70	0x3e059913	0.13046674
71	0x3ea8d243	0.32972917
72	0xbdc8e26d	-0.09808812
73	0x3db4eb13	0.08833899
74	0xbeaef9b8	-0.34174895
75	0xbd90b660	-0.07066035
76	0xbe411363	-0.18855052
77	0xbe84f523	-0.25968274
78	0x3e649937	0.22324072
79	0xbe0238c1	-0.12716962
80	0x3e7b1a83	0.24521832
81	0x3ea3bdc0	0.31980705
82	0x3e869ff8	0.2629392
83	0x3db551a6	0.08853464
84	0x3e6bc820	0.2302556
85	0x3e79442d	0.24342413
86	0xbdc7f14b	-0.0976282
87	0x3a861a7f	0.0010231285
88	0x3e659090	0.22418427
89	0x3e3f295e	0.18668124
90	0xbe33b752	-0.175504
91	0xbe1bbc26	-0.15208492
92	0xbe8d3bac	-0.2758459
93	0x3e135d46	0.1439105
94	0xbe1a1527	-0.15047131
95	0xbe9685b9	-0.29398897
96	0xbe478da6	-0.19487628
97	0x3e635f5d	0.22204347
98	0x3d15407a	0.036438443
99	0xbd0d6708	-0.034522086
100	0xbe48f887	-0.19626056
101	0x3cef1c4d	0.0291883
102	0x3ea5af8c	0.32360494
103	0xbe93c665	-0.288623
104	0x3dee68b7	0.116410665
105	0x3df09034	0.117462546
106	0xbe87740b	-0.2645572
107	0x3e433a25	0.19065149
108	0x3d2713eb	0.04079048
109	0xbab73169	-0.0013976517
110	0xbe6ca865	-0.23111112
111	0x3db70d36	0.08938067
112	0xbc5a9a69	-0.013342478
113	0xbdeb3efb	-0.11486622
114	0xbda284c9	-0.07935483
115	0x3e1d3b37	0.1535462
116	0xbde08025	-0.10961942
117	0xbe25f6a4	-0.16207367
118	0xbc057d5c	-0.008147564
119	0x3c2630fd	0.010143516
120	0xbdd7c809	-0.105362006
121	0xbd4da01f	-0.05020153
122	0xbeb48b5b	-0.3526257
123	0x3e50d785	0.20394714
124	0xbdba0769	-0.090834446
125	0x3e651c73	0.22374134
126	0x3d9384ab	0.07203039
127	0x3e61662c	0.22011632
128	0xbe243767	-0.1603676
129	0x3e97f842	0.29681593
130	0x3de4ee15	0.11178223
131	0x3db3e5ff	0.08784103
132	0x3da9a580	0.0828352
133	0x3e47eb77	0.19523416
134	0xbdde6890	-0.108597875
135	0xbbfcdfcf	-0.0077171098
136	0x3b0c8067	0.0021438838
137	0x3dbd1ff4	0.0923461
138	0x3e4fa14c	0.20276374
139	0xbedf7b17	-0.43648598
140	0xbdd644cc	-0.10462341
141	0x3e0e990f	0.13925575
142	0xbd10037c	-0.035159573
143	0x3c309085	0.010776644
144	0xbe1aa823	-0.15103202
145	0xbe1882ab	-0.14893596
146	0x3dafe199	0.08587951
147	0xbe020f79	-0.12701215
148	0x3db225dc	0.08698627
149	0x3f07c1c0	0.53030014
150	0x3da89492	0.082314625
151	0xbe38df3f	-0.18053912
152	0x3e15745e	0.14595172
153	0xbccd25e9	-0.025042491
154	0xbe22e346	-0.1590701
155	0xbe627f27	-0.22118817
156	0x3e219628	0.15779936
157	0xbd2048e6	-0.03913202
158	0x3e632d95	0.22185357
159	0xbe4368eb	-0.19082992
160	0x3d209a42	0.03920961
161	0x3e33f30b	0.17573182
162	0xbe42bc8e	-0.1901724
163	0xbe94a696	-0.29033345
164	0xbe77af3a	-0.24187937
165	0xbdf68b9f	-0.12038349
166	0x3e16256d	0.14662714
167	0x3e6cebfb	0.23136894
168	0x3e4f6115	0.20251878
169	0x3e40848b	0.18800561
170	0xbe36332c	-0.17792958
171	0xbe3899c7	-0.18027411
172	0x3eff4640	0.49858284
173	0x3e597df9	0.21239461
174	0x3d060c62	0.032726653
175	0x3e9e091d	0.30866328
176	0xbccfcdb8	-0.025366649
177	0x3e159480	0.1460743
178	0xbc94d866	-0.018169593
179	0x3c029f3d	0.007972536
180	0x3e462760	0.19350958
181	0x3e1d9b4a	0.1539127
182	0x3d208475	0.03918882
183	0xbd352cb8	-0.0442321
184	0xbc691bfd	-0.014227864
185	0xbdf855f2	-0.12125768
186	0xbdef7969	-0.11693079
187	0x3c916cf7	0.017752154
188	0x3da6e592	0.08149256
189	0xbe4298c3	-0.19003586
190	0xbe8e9d77	-0.2785451
191	0x3e08609a	0.133181
192	0xbdf42593	-0.11921229
193	0x3df45906	0.119310424
194	0xbe65f546	-0.22456846
195	0xbcb2c460	-0.021822155
196	0x3e11c683	0.14235882
197	0x3c77fcdd	0.015135971
198	0xbe450093	-0.192385
199	0xbe8b46aa	-0.2720235
200	0xbeab6d38	-0.33481765
201	0xbe12dc77	-0.14341913
202	0xbd791e48	-0.060819894
203	0x3d0d4b2a	0.03449551
204	0x3e701d32	0.23448637
205	0x3c479013	0.012180346
206	0xbd74e23d	-0.05978607
207	0xbe2772cd	-0.16352387
208	0xbde465b6	-0.11152212
209	0x3df27b2a	0.11839898
210	0xbe04c0df	-0.129642
211	0x3e9f73e7	0.31143114
212	0x3c61e77c	0.0137881
213	0xbdb01494	-0.08597675
214	0xbe95a738	-0.2922914
215	0x3d1c8c0a	0.03821949
216	0x3db9e043	0.09075978
217	0xbe280ece	-0.16411898
218	0x3d7b9907	0.061425235
219	0xbe958e35	-0.29210058
220	0xbd86b787	-0.06577974
221	0x3cc03c20	0.02346617
222	0x3ea72daf	0.3265204
223	0xbc736f2e	-0.01485805
224	0xbe0fe4b7	-0.14052092
225	0xbe69bacd	-0.22825165
226	0xbe1e072a	-0.1543242
227	0xbe836458	-0.25662494
228	0xbda890ef	-0.08230769
229	0x3e805031	0.2506118
230	0x3dda7037	0.106659345
231	0x3d628b2d	0.05530851
232	0xbe1090ec	-0.14117783
233	0xbda24f80	-0.0792532
234	0x3c751dd7	0.014960728
235	0x3c09348e	0.008374346
236	0xbd2471b1	-0.040147487
237	0xbe30c1f7	-0.17261492
238	0xbd87b429	-0.0662616
239	0x3d96c95c	0.07362625
240	0xbdd44607	-0.10364919
241	0x3dbdc593	0.092662
242	0x3e0f23a0	0.13978434
243	0x3dbe77ae	0.09300171
244	0xbd6ca94c	-0.05777864
245	0xbc9d7817	-0.019222302
246	0xbea22938	-0.31672072
247	0x3dbe0da9	0.09279949
248	0xbd2ca79f	-0.042152043
249	0xbe8fc5fe	-0.28080744
250	0xbd47b563	-0.04875697
251	0x3e56c5d0	0.20973897
252	0x3bf24ae0	0.0073941797
253	0xbcb15ca4	-0.02165062
254	0xbdb6d8ed	-0.08928094
255	0x3e6de2fc	0.23231119

conv2.conv1.0.bias f4 [16]
0	0xbda009eb	-0.07814392
1	0xbd0a76e2	-0.03380478
2	0x3dd2207b	0.102601014
3	0x3d1ce035	0.038299758
4	0x3de81996	0.11333005
5	0xba3a6a4b	-0.0007111176
6	0xbd800e9a	-0.06252785
7	0x3cb156d8	0.021647856
8	0xbbe41929	-0.006961007
9	0xbcca4783	-0.024692303
10	0x39a1c06a	0.00030851673
11	0xbd907ac8	-0.07054669
12	0x3d132536	0.03592416
13	0xbc8ded39	-0.01732503
14	0xbdae57fd	-0.08512876
15	0xbdcecdcf	-0.100978486

conv2.conv1.1.weight f4 [16]
0	0x3f82f152	1.0229895
1	0x3f88a4d3	1.06753
2	0x3f7a15c6	0.97689474
3	0x3f6ef3ce	0.93340766
4	0x3f874df6	1.0570667
5	0x3f5997eb	0.84997433
6	0x3f815e75	1.0106951
7	0x3f891915	1.071078
8	0x3f5d6d84	0.8649523
9	0x3f6c31d9	0.9226356
10	0x3f7d2244	0.9888041
11	0x3f8ee8e8	1.1164827
12	0x3f66123a	0.8987156
13	0x3f856c36	1.0423648
14	0x3f7b3ecb	0.9814269
15	0x3f8d116e	1.1020944

conv2.conv1.1.bias f4 [16]
0	0x3c8e2e6d	0.017356122
1	0x3e0e3978	0.1388911
2	0x3988ebb6	0.0002611556
3	0xbc446f0f	-0.011989369
4	0x3cb348c8	0.02188529
5	0xbd3b4bcf	-0.045726594
6	0x3d059b2a	0.03261868
7	0x3dc0560e	0.09391414
8	0x39ee34d2	0.00045434252
9	0xbdd36c9c	-0.1032345
10	0xbd8d6d14	-0.069055706
11	0x3b9c78b0	0.0047751293
12	0xbdaa45f7	-0.08314126
13	0x3d3ba051	0.045807187
14	0xbd462672	-0.048376508
15	0x3d260e62	0.04054106

conv2.conv1.1.running_mean f4 [16]
0	0xbf06bca9	-0.5263162
1	0x3dd9bf91	0.106322415
2	0xbd171074	-0.036880925
3	0xbdd6373b	-0.10459753
4	0x3fa9d9cb	1.326959
5	0x3e81335a	0.2523449
6	0xbf8aa1f4	-1.0830674
7	0xbf48aeac	-0.7839153
8	0xbe86cbce	-0.26327366
9	0x3e3e1c3e	0.18565461
10	0x3e46012c	0.19336385
11	0xbfb76f02	-1.4330752
12	0xbfd7a576	-1.684737
13	0x3e5d9d19	0.21641959
14	0xbf177b70	-0.59172726
15	0xc0121f82	-2.283173

conv2.conv1.1.running_var f4 [16]
0	0x4000b904	2.0112925
1	0x3f9e188c	1.2351241
2	0x3ff0f750	1.8825474
3	0x3fdc3708	1.7204294
4	0x3f46ac1f	0.77606386
5	0x3f7caecc	0.9870422
6	0x4003f0bb	2.061568
7	0x3f7dff45	0.99217635
8	0x3f8cf41a	1.1011994
9	0x3fc4b278	1.5366964
10	0x3f7e66fc	0.9937589
11	0x3fa65b67	1.2996644
12	0x3f564c8e	0.83710563
13	0x3fe47bb0	1.7850246
14	0x3ffd3c5c	1.9784045
15	0x3f88772c	1.0661368

conv2.conv2.0.weight f4 [16, 16, 3, 3]
0	0xbe14befe	-0.14525983
1	0x3ddef152	0.10885872
2	0x3df6b21b	0.1204569
3	0xbd49c4b7	-0.049259868
4	0xbe98359d	-0.29728404
5	0xbcc9b5a4	-0.024622746
6	0xbe4e269c	-0.20131916
7	0x3d98121d	0.0742533
8	0xbe011b26	-0.12608013
9	0x3d0aedf3	0.033918332
10	0x3df9bf6c	0.12194714
11	0x3d04d301	0.03242779
12	0xbe9bac30	-0.30404806
13	0x3e1d149e	0.15339896
14	0xbe672755	-0.22573598
15	0xbd82f459	-0.06394262
16	0xbd048f60	-0.032363296
17	0xbd239164	-0.039933577
18	0x3d427dc2	0.047483213
19	0x3dc2df4e	0.09515248
20	0xbeaac70e	-0.33354992
21	0x3d1d04db	0.03833471
22	0x3cb71ad5	0.022351662
23	0xbe25757d	-0.161581
24	0x3cb1e841	0.021717193
25	0xbd5b4430	-0.053531826
26	0xbd5a2143	-0.053254377
27	0x3c8f55f0	0.017497033
28	0xbda31330	-0.07962644
29	0x3e02b8c7	0.127658
30	0xbd4e62a3	-0.050387036
31	0x3e464f1f	0.1936612
32	0x3db3fa94	0.08788028
33	0xbcca2d50	-0.02467981
34	0xbd33dcfe	-0.043911926
35	0xbdb2c521	-0.087290056
36	0x3e4a4ee1	0.19756652
37	0xbdd95a72	-0.10612954
38	0x3d9804b3	0.07422771
39	0xbe923b53	-0.28560886
40	0x3cfd700e	0.03093722
41	0xbd11f419	-0.03563318
42	0x3e78cfb9	0.2429799
43	0xbe651bf0	-0.22373939
44	0xbe58d652	-0.21175507
45	0x3df2a530	0.11847913
46	0xbe510fdd	-0.20416208
47	0x3e4f96f0	0.20272422
48	0xbe165e1b	-0.14684336
49	0x3df6ab86	0.12044434
50	0xbd34ad59	-0.04411063
51	0xbd0bdcc2	-0.034146078
52	0xbd4a4dac	-0.04939048
53	0x3e45cd03	0.19316487
54	0xbd8e6564	-0.069529325
55	0x3e117ea0	0.1420846
56	0x3e214fb6	0.15753064
57	0xbc85f099	-0.016350077
58	0x3ec5ca98	0.3863113
59	0x3dbb3c36	0.09142344
60	0x3e1709e4	0.14749867
61	0xb8500b66	-4.960168e-05
62	0xbbb4b0fb	-0.005514262
63	0x3e085ea7	0.13317357
64	0xbc0e33f2	-0.008679377
65	0xbe1bdac5	-0.15220173
66	0x3d8d567b	0.069012605
67	0xbe98266e	-0.2971682
68	0xbe2bce8a	-0.16778007
69	0xbd418a84	-0.04725124
70	0xbbd6a7d1	-0.006550767
71	0xbd5cc7aa	-0.053901352
72	0x3dd7413a	0.10510488
73	0xbd18805e	-0.037231795
74	0xbe11828e	-0.14209959
75	0xbe630c27	-0.22172605
76	0x39962e20	0.00028644595
77	0xbd9d138e	-0.076697454
78	0xbd8ea3e0	-0.069648504
79	0x3e390691	0.18068911
80	0x3d99e068	0.07513505
81	0xbdc91df7	-0.098201685
82	0xbc52a86f	-0.0128575405
83	0x3e24bf7e	0.16088673
84	0x3dd4ead4	0.103963524
85	0xbd719113	-0.058976244
86	0xbe6e0929	-0.23245682
87	0xbe38ac49	-0.18034472
88	0xbdd7f0f5	-0.10544006
89	0xbd43b5ad	-0.04778068
90	0x3db2c231	0.08728445
91	0x3e048704	0.1294213
92	0xbd23e6fa	-0.0400152
93	0xbe2cf63e	-0.16890809
94	0x3e29d28e	0.16584226
95	0xbe769dd4	-0.24083644
96	0xbd4a3df7	-0.0493755
97	0x3de0f372	0.109839335
98	0xbdd9fee4	-0.1064432
99	0x3da2d0d5	0.07949988
100	0x3dbbd203	0.09170916
101	0x3db67649	0.0890928
102	0xbc8adf3c	-0.01695215
103	0xbd2f40c4	-0.042786375
104	0x3d93213c	0.07184073
105	0x3e4ae17a	0.19812575
106	0x3d7d3812	0.06182105
107	0x3e7cb8c3	0.24679856
108	0xbd938342	-0.0720277
109	0x3d9e7375	0.077368654
110	0xbd35b394	-0.044360712
111	0xbda3b0a3	-0.07992675
112	0xbe3dd474	-0.18538076
113	0x3ca4f6a8	0.020137146
114	0xbcac5e99	-0.021041201
115	0x3c390cc5	0.011294548
116	0xbd459124	-0.04823412
117	0x3d9f5ec5	0.07781748
118	0x3e5953f1	0.21223427
119	0xbe075dc9	-0.1321937
120	0xbdd12dca	-0.10213812
121	0xbe56c340	-0.2097292
122	0xbd0ff763	-0.035148036
123	0x3d902bb8	0.07039589
124	0x3d5ef4ad	0.05443256
125	0xbe193566	-0.14961776
126	0xbe19f5fd	-0.15035243
127	0xbd0b42b2	-0.033999152
128	0x3e35a66f	0.1773927
129	0xbde8404a	-0.11340387
130	0x3d1de67c	0.038549885
131	0xbdeff0f7	-0.11715882
132	0x3d7750fa	0.06037996
133	0x3ce443f1	0.027864428
134	0xbe3da5ea	-0.18520322
135	0xbd60ef81	-0.05491591
136	0x3db7088b	0.08937176
137	0xbd5b84c6	-0.05359342
138	0x3d9caf23	0.07650592
139	0xbd14daa2	-0.036341317
140	0xbc9de3f7	-0.019273741
141	0xbe9855ee	-0.2975306
142	0x3da135c3	0.07871582
143	0xbdb41d29	-0.08794624
144	0xbdb975e5	-0.0905569
145	0x3d017d8b	0.031613868
146	0x3e14cc64	0.14531094
147	0xba892dea	-0.0010465954
148	0x3d944e83	0.072415374
149	0x3d8023bd	0.062568165
150	0xbd6dc38e	-0.058047824
151	0x3da6bcba	0.081414655
152	0xbda94696	-0.08265416
153	0x3e21a2f7	0.15784822
154	0x3e7524ab	0.23939769
155	0x3c7d2735	0.015451242
156	0xbe0bae1d	-0.13640638
157	0x3c075e85	0.008262281
158	0x3d15aa07	0.036539104
159	0x3d830c30	0.06398809
160	0xbe502782	-0.20327571
161	0xbc2c807a	-0.010528678
162	0x3d8a7ba0	0.06761861
163	0x3cc7480c	0.024326347
164	0xbdf80699	-0.121106334
165	0x3e62f1ad	0.22162504
166	0xbe027757	-0.12740837
167	0x3d124e2e	0.03571909
168	0xbe1d3b75	-0.15354712
169	0x3def1430	0.11673772
170	0x3e393689	0.1808721
171	0x3e2b1ecd	0.16710968
172	0x3d98a772	0.07453813
173	0xbd4bbdc9	-0.04974154
174	0x3e1e7c43	0.1547709
175	0xbd37593f	-0.044762846
176	0x3e16eb7b	0.14738266
177	0x3e3063d5	0.17225583
178	0x3e02773a	0.12740794
179	0x3d729974	0.059228376
180	0xbe4fa3f0	-0.20277381
181	0x3ca74355	0.020417849
182	0x3cc4f031	0.024040313
183	0xbda0a1bc	-0.078433484
184	0x3d54c904	0.051949516
185	0x3c7ea778	0.015542857
186	0xbe102467	-0.14076386
187	0xbd37bbb4	-0.044856742
188	0xbd6c8dd3	-0.05775244
189	0x3da94df2	0.0826682
190	0x3c098275	0.00839292
191	0xbdc7da07	-0.09758382
192	0xbcc741b6	-0.024323326
193	0x3dd9708c	0.1061717
194	0xbe7d14e5	-0.24715002
195	0x3d80a700	0.06281853
196	0xbd43178d	-0.04762988
197	0x3cd525ee	0.026019063
198	0xbcf48953	-0.029850638
199	0xbdec6f2e	-0.11544643
200	0x3dbf818c	0.09350881
201	0x3dc63084	0.09677222
202	0xbe108f27	-0.14117108
203	0xbd9b5aae	-0.07585655
204	0x3d600fe6	0.054702662
205	0x3d55ede3	0.05222882
206	0x3d578f17	0.052626695
207	0xbe545594	-0.2073577
208	0xbcd0df40	-0.025497079
209	0xbda7537d	-0.08170221
210	0xbd84f4af	-0.06491982
211	0xbdf05acc	-0.11736068
212	0xbe00e86a	-0.12588659
213	0xbe35a181	-0.1773739
214	0x3d611540	0.054951906
215	0x3d1bcb6a	0.038035788
216	0x3e87be4e	0.26512378
217	0xbd03dc74	-0.032192662
218	0xbde7bab4	-0.11314908
219	0xbcb66cc9	-0.02226867
220	0x3e2141b2	0.15747717
221	0x3cdd9616	0.027049106
222	0xbd496a42	-0.0491736
223	0x3dd1fd65	0.10253409
224	0x3e6c8b0c	0.23099917
225	0xbd42b4ec	-0.04753582
226	0xbd9de16b	-0.07709011
227	0xbe4fae05	-0.20281227
228	0xbe04c541	-0.12965871
229	0xbd635c64	-0.055508032
230	0xbe2fc519	-0.1716503
231	0xbe365fcd	-0.17809983
232	0xbdbbae68	-0.09164125
233	0x3d3b83a5	0.045779843
234	0x3d5a2082	0.053253658
235	0x3e2d1236	0.16901478
236	0xbd442162	-0.0478834
237	0x3e5de704	0.21670157
238	0x3e00f2f7	0.12592684
239	0x3da2f3c2	0.07956649
240	0x3dcbfbe2	0.09960152
241	0x3e8ff183	0.28113946
242	0xbe1e2b86	-0.1544629
243	0xbd606cba	-0.05479119
244	0x3ec7086b	0.3887361
245	0x3de78d01	0.11306191
246	0xbd51acda	-0.051190235
247	0xbe43ca2a	-0.19120088
248	0x3d1f555c	0.038899764
249	0xbe082325	-0.13294657
250	0x3daf0a37	0.0854687
251	0xbe10cbce	-0.14140245
252	0x3dde3204	0.108493835
253	0xbef0540e	-0.4693913
254	0x3e96317c	0.2933463
255	0x3dee7cb1	0.11644877

conv2.conv2.0.bias f4 [16]
0	0xbc9f44f8	-0.019442067
1	0xbd7ced62	-0.061749823
2	0xbd8ff300	-0.070287704
3	0xbd760cc8	-0.060070783
4	0x3d06ba7f	0.0328927
5	0xbc0fbbe2	-0.008772822
6	0xbcb0a956	-0.02156512
7	0x3ce1e507	0.027575029
8	0x3d4f7d2c	0.050656483
9	0x3d3e49ad	0.04645698
10	0x3ce16d04	0.027517803
11	0x3da15e7e	0.07879351
12	0x3b682812	0.0035424274
13	0x3aff5dac	0.0019482872
14	0x3d06d344	0.032916322
15	0x3daa1b95	0.08306042

conv2.conv2.1.weight f4 [16]
0	0x3f840849	1.0315028
1	0x3f83b991	1.0291005
2	0x3f6aeb82	0.91765606
3	0x3f7d67db	0.98986596
4	0x3f8001a8	1.0000505
5	0x3f676bda	0.90398943
6	0x3f83a32e	1.0284173
7	0x3f7a7ed0	0.9784975
8	0x3f88461e	1.0646398
9	0x3f823490	1.0172291
10	0x3f686544	0.9077952
11	0x3f7043de	0.9385356
12	0x3f8b982d	1.0905815
13	0x3f85e3bc	1.0460124
14	0x3f833032	1.0249083
15	0x3f787bb8	0.9706378

conv2.conv2.1.bias f4 [16]
0	0x3ccd6767	0.02507372
1	0x3d385488	0.04500249
2	0x3c8fda7c	0.017560236
3	0x3ce23c16	0.027616542
4	0xbcc8d651	-0.024516257
5	0x3d9e0008	0.0771485
6	0x3db33a59	0.08751363
7	0xbc456875	-0.01204883
8	0x3d159e82	0.036528118
9	0x3d974379	0.07385916
10	0x3d4b6bec	0.04966347
11	0xbda4819e	-0.08032535
12	0x3da4c429	0.08045227
13	0x3d12df5e	0.03585755
14	0x3cb28e8f	0.021796493
15	0x3d842cdc	0.06453869

conv2.conv2.1.running_mean f4 [16]
0	0xbf46778c	-0.77526164
1	0x3e3a8e0e	0.18218252
2	0xbea99be5	-0.3312675
3	0xbef28063	-0.47363576
4	0xbf776218	-0.96634054
5	0x3eb6ec97	0.3572738
6	0x3eeeb17e	0.4661979
7	0x3faca7a6	1.3488662
8	0xbf50c4ae	-0.8155011
9	0xbf8974ac	-1.073873
10	0xbf4fcf75	-0.8117593
11	0x3f7bf982	0.98427594
12	0xbde0a740	-0.109694004
13	0x3f82f810	1.0231953
14	0xbf8193f9	-1.0123283
15	0xbf1a172b	-0.601916

conv2.conv2.1.running_var f4 [16]
0	0x3f967d2e	1.1756952
1	0x3f83bec1	1.0292588
2	0x3f07bdeb	0.53024167
3	0x3f4fda7a	0.81192744
4	0x3fb593d8	1.4185743
5	0x40515d1f	3.2713087
6	0x3f6f11b4	0.9338639
7	0x40401848	3.001482
8	0x3fc87281	1.5659944
9	0x3fd081b3	1.6289581
10	0x3fa1f805	1.2653815
11	0x3fc0541e	1.502567
12	0x3f9b296f	1.212202
13	0x3fa8ccb4	1.318747
14	0x3fabba06	1.3416145
15	0x4006f17e	2.1084895

conv2.conv3.0.weight f4 [16, 16, 3, 3]
0	0x3e13c606	0.14431009
1	0xbd9d08ec	-0.07667717
2	0x3dc7080e	0.09718333
3	0x3dd5b037	0.10434001
4	0xbdb68a15	-0.08913056
5	0x3e0338a3	0.12814574
6	0xbd120d86	-0.03565743
7	0xbcd2fdc5	-0.025755772
8	0xbb03aa7c	-0.002009063
9	0x3dd46f19	0.10372753
10	0x3b872720	0.004124537
11	0x3ddd25a7	0.10798197
12	0xbb07b0c2	-0.002070472
13	0x3dfbc964	0.122942716
14	0x3d5c2a5d	0.05375134
15	0x3e02246c	0.12709206
16	0x3e55266e	0.20815441
17	0x3dc10e80	0.09426594
18	0xbd570f34	-0.052504733
19	0xbd9ccefc	-0.07656667
20	0x3e01fb7e	0.12693593
21	0xbd92a283	-0.07159903
22	0x3e05a740	0.13052082
23	0x3e438365	0.19093092
24	0xbd7621fa	-0.060090996
25	0x3c9fed46	0.01952232
26	0x3e12e508	0.14345181
27	0xbd1dd56d	-0.038533617
28	0xbe1bab63	-0.15202098
29	0xbd84875b	-0.064711295
30	0xbdc40ae1	-0.095723875
31	0x3de7cb3c	0.11318061
32	0x3dbef3b2	0.09323825
33	0x3dae6f23	0.085172914
34	0x3d2c898a	0.042123355
35	0xbdb40208	-0.0878945
36	0xbd91e37b	-0.071234666
37	0x3d2502ed	0.040285993
38	0xbdec12e4	-0.115270406
39	0xbe1480f6	-0.1450232
40	0xbda5bc7a	-0.0809259
41	0x3d032a71	0.032022897
42	0xbda30bc1	-0.07961226
43	0xbd2ca9fb	-0.042154294
44	0xbcffd0aa	-0.031227428
45	0xbdcb1d13	-0.09917655
46	0xbcb21e4d	-0.021742964
47	0xbd63ec74	-0.05564542
48	0xbdaf21d6	-0.085513756
49	0x3dcaade5	0.09896449
50	0x3e23ab36	0.1598328
51	0xbd9772da	-0.07394953
52	0x3dc651b9	0.09683556
53	0x3e811040	0.2520771
54	0xbce2ac59	-0.027670072
55	0x3c8974f8	0.016779408
56	0x3dabd504	0.08390239
57	0x3dea6a53	0.11446061
58	0xbd1e19e2	-0.038598903
59	0x3e16aecb	0.14715116
60	0x3d938796	0.07203595
61	0x3b8ebc02	0.0043559084
62	0x3dfce89f	0.123490565
63	0xbe2eaa78	-0.17057216
64	0xbe1acbc2	-0.1511679
65	0xbbe9df62	-0.007137225
66	0x3d03edfa	0.032209374
67	0x3d82d7b6	0.063888
68	0x3d9195e3	0.07108667
69	0x3ccff7a6	0.025386643
70	0xbd4719c2	-0.04860855
71	0x3d0ab63c	0.0338652
72	0xbda1f998	-0.07908934
73	0xbd2ba1e8	-0.041902453
74	0xbc301c38	-0.010748915
75	0x3b1c09a8	0.0023809467
76	0xbd37b270	-0.044847906
77	0x3d33d33b	0.043902617
78	0xbe2643a8	-0.16236746
79	0xbd1315fc	-0.035909638
80	0xbde6f452	-0.11277069
81	0xbd303e2b	-0.043028038
82	0x3b7d64e5	0.0038664874
83	0x3e41bcb7	0.18919645
84	0x3d838a63	0.064228795
85	0x3dc8e304	0.09808925
86	0x3ddb8425	0.10718564
87	0x3d9b55fa	0.07584758
88	0x3d063b35	0.032771308
89	0x3e57f3ee	0.21089146
90	0x3c50e6c5	0.012750332
91	0xbe04537e	-0.12922475
92	0x3e6c5db6	0.23082623
93	0xbe3676ab	-0.17818706
94	0xbe365eb0	-0.17809558
95	0xbe86bcf8	-0.26316047
96	0xbdc069a9	-0.09395153
97	0xbd95f03d	-0.073212124
98	0xbdc42048	-0.0957647
99	0x3df9b0d9	0.12191934
100	0xbe1b87a8	-0.15188468
101	0x3df1a9f0	0.11799991
102	0x3c637b37	0.013884357
103	0xbd208dbe	-0.039197676
104	0xbe01c4ee	-0.12672779
105	0x3ce59a13	0.02802757
106	0xbc97a8db	-0.018513134
107	0x3cd543af	0.02603325
108	0x3ddb4a6c	0.10707554
109	0x3dd84bc3	0.105613254
110	0x3d0d7e30	0.03454417
111	0x3d158c3a	0.036510684
112	0xbcab4bc7	-0.020910157
113	0x3df532b2	0.1197256
114	0x3e6e65f6	0.23281083
115	0xbceac091	-0.028656276
116	0x3da80d60	0.08205676
117	0x3e1c0cb9	0.15239228
118	0xbd456aa2	-0.048197396
119	0xbe837b29	-0.256799
120	0xbea31411	-0.31851247
121	0x3d3e78bd	0.046501864
122	0xbdd055de	-0.10172628
123	0xbde6bf9d	-0.11267016
124	0xbe63925b	-0.22223799
125	0xbd2aea0d	-0.041727114
126	0x3d227463	0.039661776
127	0x3dd66f93	0.104705
128	0xbc7f1fcb	-0.015571545
129	0x3d4739d1	0.048639122
130	0x3d20d285	0.039263267
131	0xbda6ce0c	-0.08144769
132	0xbd213224	-0.03935446
133	0x3d90b5a3	0.070658945
134	0xbd3fa0b9	-0.046784136
135	0x3d8dd265	0.06924895
136	0xbd9d72d9	-0.07687921
137	0xbe6e42e8	-0.2326771
138	0x3cae6bbe	0.02129161
139	0x3e179118	0.14801443
140	0x3da06075	0.07830898
141	0xbe427000	-0.18988037
142	0x3d70571a	0.058676817
143	0x3ca9f981	0.020748856
144	0xbdbd019b	-0.09228822
145	0xbdb5dc76	-0.0887994
146	0xbd7ffc88	-0.062496692
147	0x3d7a55f3	0.061117124
148	0x3e5db475	0.2165087
149	0x3d008778	0.031379193
150	0xbd4794a2	-0.04872573
151	0xbc958d91	-0.01825598
152	0x3d8f1615	0.06986634
153	0xbcf9bf4d	-0.030486727
154	0x3d96b466	0.07358627
155	0x3dbb3c4b	0.09142359
156	0xbc9a8b1d	-0.018865163
157	0x3c5f1f5b	0.013618316
158	0x3dc3f337	0.09567874
159	0x3d91489c	0.07093927
160	0xbdbfa63e	-0.0935788
161	0xbc281e47	-0.010261125
162	0x3c68da9a	0.014212275
163	0xbe455cdf	-0.19273709
164	0xbdba9d40	-0.09112024
165	0xbd4998a3	-0.04921783
166	0xbd99306d	-0.074799396
167	0xbda077b9	-0.07835335
168	0xbd14838a	-0.036258258
169	0xbd5533de	-0.052051418
170	0x3dac72f5	0.08420364
171	0x3d75e0cd	0.06002884
172	0x3d816af4	0.06319228
173	0xbcd747f2	-0.026279423
174	0x3ddff4ea	0.109353855
175	0x3cb3cd2b	0.021948418
176	0xbcbba2ea	-0.022904832
177	0x3c254ccd	0.0100891115
178	0xbe86976e	-0.26287407
179	0x3ddbde9e	0.1073582
180	0x3e88706c	0.2664827
181	0xbdef1b85	-0.11675171
182	0xbde1a990	-0.110186696
183	0x3e33a64e	0.17543909
184	0xbd854a58	-0.065083206
185	0x3e5bcdd5	0.21465237
186	0x3d13633d	0.035983313
187	0xbac208f7	-0.0014803697
188	0xbd20bdda	-0.039243557
189	0xbcb294f1	-0.021799536
190	0xbca74ff1	-0.020423861
191	0xbc2a4c6d	-0.010394198
192	0xbc46617a	-0.012108201
193	0xbdd4249d	-0.10358546
194	0x3c39731c	0.011318948
195	0x3e765c78	0.24058712
196	0x3dca442a	0.098762825
197	0x3de3c9e4	0.11122492
198	0x3ea1ab17	0.31575844
199	0x3e6caab8	0.23111999
200	0x3dec7bb3	0.11547031
201	0x3d79a9af	0.06095284
202	0xbd38bf08	-0.045104057
203	0x3d344932	0.044015117
204	0x3dc4dcdb	0.09612437
205	0x3d3842da	0.04498563
206	0xbdb9341f	-0.090431444
207	0x3cf55110	0.02994588
208	0x3e2014ed	0.15632983
209	0x3e04e9bf	0.12979792
210	0x3e527890	0.20553803
211	0x3d856ba5	0.06514672
212	0x3eba3aa8	0.36372876
213	0x3c7779e8	0.015104748
214	0x3c995671	0.018717976
215	0x3dd3b074	0.1033639
216	0x3d8f2cf9	0.06991
217	0xbdbc94bf	-0.092080586
218	0xbdf6a5db	-0.12043353
219	0x3e4aa33d	0.19788833
220	0x3dcb0757	0.09913509
221	0x3e01fbe9	0.12693752
222	0xbea75381	-0.32680896
223	0xbe318a77	-0.17337976
224	0x3de4fdf2	0.11181249
225	0x3e0c4906	0.13699731
226	0xbc6c9643	-0.014440122
227	0xbda117ab	-0.078658424
228	0x3e590f8a	0.21197334
229	0x3e4b86f4	0.198757
230	0xbd2bcfef	-0.041946348
231	0xbc5a3ef0	-0.0133206695
232	0xbc9983b7	-0.018739564
233	0xbd4aae1f	-0.04948246
234	0xb934c7d9	-0.00017240587
235	0xbdc7db40	-0.097586155
236	0x3d8df569	0.06931574
237	0xbddd9080	-0.10818577
238	0x3cac4e88	0.02103354
239	0x3d633546	0.055470727
240	0x3ddc5166	0.10757713
241	0x3d865c84	0.06560615
242	0x3d9fa54b	0.07795199
243	0x3b10fd7c	0.0022123745
244	0xbdbd8319	-0.092535205
245	0xbb8a2497	-0.0042157876
246	0xbdefedd9	-0.11715288
247	0x3dd9c14b	0.10632571
248	0x3d4a2acf	0.04935723
249	0xbdc29bb6	-0.09502356
250	0x3d9e18f5	0.07719604
251	0xbc6786ed	-0.01413129
252	0xbdfd6881	-0.12373448
253	0x3da450fa	0.080232576
254	0xbc4a44a7	-0.01234547
255	0xbe59664c	-0.2123043

conv2.conv3.0.bias f4 [16]
0	0xbc0c0446	-0.008545941
1	0x3d9e7a64	0.07738188
2	0xbd86ab70	-0.06575668
3	0xbd32cd77	-0.043652978
4	0xbd5bf32a	-0.053698696
5	0x3d8c240d	0.06842814
6	0x3d5c9c1a	0.053859808
7	0xbd9b1190	-0.07571709
8	0x3c59b456	0.013287624
9	0xbd84de46	-0.06487708
10	0xbcad2c83	-0.021139389
11	0x3c711ec4	0.014716808
12	0x3c8bb93a	0.017056096
13	0xbd74fa13	-0.0598088
14	0xbd599c69	-0.05312768
15	0xbd3c220d	-0.04593091

conv2.conv3.1.weight f4 [16]
0	0x3f91246d	1.1339241
1	0x3f6b0a56	0.91812646
2	0x3f8929ad	1.0715843
3	0x3f71abfb	0.94403046
4	0x3f803f99	1.0019408
5	0x3f886a29	1.0657398
6	0x3f872c1b	1.0560335
7	0x3f7ef34b	0.99589986
8	0x3f75197d	0.9574202
9	0x3f6296df	0.8851146
10	0x3f82db29	1.0223132
11	0x3f85577f	1.0417327
12	0x3f86b2bf	1.0523299
13	0x3f7d77bc	0.99010825
14	0x3f73434c	0.9502456
15	0x3f6faa15	0.936189

conv2.conv3.1.bias f4 [16]
0	0x3d2bb623	0.041921746
1	0xbd5916ea	-0.05300037
2	0x3c691d8f	0.014228239
3	0x3d1b745f	0.037952777
4	0xbca389ae	-0.019963112
5	0xbccb7868	-0.024837688
6	0x3d223a5c	0.039606437
7	0xbc80e3b1	-0.015733572
8	0x3d92b708	0.07163817
9	0xbcab7ac3	-0.02093256
10	0x3cbc8fcc	0.023017786
11	0x3c3c69b2	0.011499809
12	0xbd83e489	-0.06440074
13	0xbcdab77f	-0.026698826
14	0x3c8236f0	0.015895337
15	0x3d32bde5	0.04363813

conv2.conv3.1.running_mean f4 [16]
0	0x3eb6a0d9	0.35669592
1	0x3f966ea9	1.1752521
2	0xbf279a75	-0.6547006
3	0xbecbd84f	-0.39813468
4	0xbf4507ed	-0.7696522
5	0xbec0cdf9	-0.37657145
6	0xbfc737b2	-1.5563872
7	0xbfafa691	-1.3722707
8	0x3ec0b809	0.37640408
9	0xbf314a05	-0.6925357
10	0xbed19240	-0.40931892
11	0x3d7e588f	0.062096175
12	0x3e8ae134	0.2712494
13	0x3f0e998b	0.5570304
14	0x3e1aeae9	0.15128674
15	0x3f296a3d	0.6617773

conv2.conv3.1.running_var f4 [16]
0	0x3f9c4166	1.2207458
1	0x3fb6e603	1.4288944
2	0x3fb9e6a0	1.4523506
3	0x3fb0787b	1.3786768
4	0x3fbe9dd6	1.4891918
5	0x3fef635e	1.87022
6	0x3f6e6944	0.9312937
7	0x400e05b7	2.2190988
8	0x4028a813	2.6352584
9	0x3f76a84b	0.96350545
10	0x3f8df368	1.1089907
11	0x400a9e42	2.1659093
12	0x400014b2	2.0012631
13	0x3fe1f821	1.7653848
14	0x3f9e5c86	1.2371986
15	0x3f90c1d3	1.130915
