checkpoints/ifind1_sononet_8_6classes/012_net_6classes_class.pth (torch_old, 671819 bytes, 90 tensors)

conv1.conv1.0.weight f4 [8, 1, 3, 3]
-0.024028547 -0.2510084 -0.23660852 0.4614686 0.95524794 -1.0340016 0.14986974 -0.10201281
-0.20487343 -1.0496686 0.2906957 -0.81719613 0.30529484 -0.124013774 -0.34618083 1.1444496
-0.013622059 0.7343503 0.17365742 -0.26437935 -0.08792419 -0.977071 0.48615813 -0.028401285
-0.30858648 -0.33397853 -0.8677564 -1.0231777 0.20526955 -0.39578396 -0.034585238 0.1380818
0.1058771 -0.29617164 0.93557745 -0.17999329 0.06707704 0.2723891 -0.18853982 0.42621678
-0.41475222 -0.25537327 -0.33195955 -0.14715546 0.016600776 0.2688752 0.32572418 0.62346965
0.9549282 -0.3644225 0.19029896 -0.22936022 -0.1888772 0.11771216 0.20530437 0.06572118
-0.015623798 -0.8670728 0.23366264 0.27219364 -0.5487516 -0.05988333 0.4498897 -0.7804146
0.36218476 0.7595611 -0.22645119 0.5249056 -0.07717617 0.01928249 -0.096946634 -0.16642985
00000000: 84d7 c4bc 2c84 80be 8149 72be 9d45 ec3e
00000010: 218b 743f 2a5a 84bf 7477 193e 18ec d0bd
00000020: 57ca 51be 8a5b 86bf 11d6 943e c433 51bf
00000030: 9b4f 9c3e effa fdbd 9d3e b1be 537d 923f
00000040: 0e2f 5fbc 62fe 3b3f 40d3 313e bb5c 87be
00000050: 9911 b4bd 5321 7abf b8e9 f83e d0a9 e8bc
00000060: 0cff 9dbe 3cff aabe 4925 5ebf 7df7 82bf
00000070: 2e32 523e 32a4 cabe 40a9 0dbd 5165 0d3e
00000080: 18d6 d83d cfa3 97be 0182 6f3f 2950 38be
00000090: b05f 893d 9676 8b3e 9510 41be 1639 da3e
000000a0: 675a d4be 49c0 82be 9af6 a9be ecaf 16be
000000b0: 5afe 873c 03aa 893e 52c5 a63e b59b 1f3f
000000c0: 2d76 743f 9695 babe bbdd 423e 68dd 6abe
000000d0: 0669 41be 1313 f13d 4f3b 523e d398 863d
000000e0: f5fa 7fbc 7cf8 5dbf 4245 6f3e f75c 8b3e
000000f0: fc7a 0cbf 3948 75bd f157 e63e 40c9 47bf
00000100: 4870 b93e 9972 423f d2e2 67be 3760 063f
00000110: 8a0e 9ebd 50f6 9d3c f58b c6bd 966c 2abe

conv1.conv1.0.bias f4 [8]
-0.017491113 -0.24621074 -0.1983831 0.09243416 -0.26666352 0.30757412 0.023308482 0.14265327
00000000: 8649 8fbc ab1e 7cbe f024 4bbe 1f4e bd3d
00000010: 1f88 88be 5b7a 9d3e 6ef1 be3c b313 123e

conv1.conv1.1.weight f4 [8]
1.0760337 1.0403597 0.8481889 1.0319487 0.9864872 1.0015752 1.0212997 1.0929205
00000000: 79bb 893f 822a 853f e822 593f e516 843f
00000010: 6d8a 7c3f 9e33 803f f3b9 823f d2e4 8b3f

conv1.conv1.1.bias f4 [8]
0.037690707 0.10375156 -0.10328577 -0.06280939 -0.10678498 0.034840647 0.011824871 0.26733017
00000000: 9261 1a3d b37b d43d 7d87 d3bd 36a2 80bd
00000010: 15b2 dabd 11b5 0e3d 1bbd 413c 80df 883e

conv1.conv1.1.running_mean f4 [8]
-0.020543521 -0.247019 -0.20254558 0.08918278 -0.2675146 0.3115241 0.02355252 0.14273426
00000000: e34a a8bc 8cf2 7cbe 1c68 4fbe 76a5 b63d
00000010: acf7 88be 1680 9f3e 37f1 c03c ee28 123e

conv1.conv1.1.running_var f4 [8]
0.17265058 0.65281755 4.609564 0.4354128 0.3223489 2.817501 0.1580417 0.17748529
00000000: 50cb 303e 0d1f 273f 8c81 9340 6dee de3e
00000010: ea0a a53e f051 3440 afd5 213e b4be 353e

conv1.conv2.0.weight f4 [8, 8, 3, 3]
-0.032798205 0.1854567 -0.09682685 -0.014506046 0.42525613 0.0656324 -0.25967795 -0.018131703
-0.107930996 0.362409 -0.0007615702 -0.19946225 0.15118523 0.25736016 0.189748 -0.019563293
-0.0019350143 -0.08561919 0.040689837 -0.0131514715 -0.052415736 0.082047306 -0.010186357 0.089756966
-0.013269731 0.23117448 0.022564776 -0.12444767 0.07893357 -0.108483106 -0.17875202 0.09026064
0.11738015 0.11081958 0.09905827 -0.24532741 0.11831712 -0.18500583 0.23958407 0.1996937
-0.40692326 0.03614149 0.089074 -0.13279122 -0.30241123 0.039413244 0.12286195 -0.20112027
0.16302437 0.11326659 0.24061482 0.37796095 0.3808759 -0.17554937 -0.39191508 -0.0097105885
-0.27121678 -0.031127086 0.039676778 0.11501784 -0.08461211 0.013070142 -0.11701877 -0.02899217
-0.061452705 -0.20080794 0.18252845 -0.028667076 -0.32538915 0.19450346 -0.016192392 -0.22155647
-0.0961347 0.08538225 -0.044730093 -0.046953768 0.20735866 0.10458431 0.3785015 -0.37070236
-0.32789657 -0.13226958 -0.05481007 0.2433384 -0.04404337 -0.25448015 0.085446864 -0.18297426
-0.020358074 -0.22896501 0.026489127 -0.16342635 0.000595336 -0.24809746 0.19952393 0.09108473
-0.021904534 0.22722107 -0.100347064 -0.17819543 0.13084456 -0.11092695 0.08560609 -0.227096
0.01983874 0.20914988 0.032234002 0.040985294 0.14065428 0.15524584 0.012779644 -0.019021962
-0.15649615 0.062797874 -0.026360765 -0.024534162 0.26760134 0.033884488 -0.19451983 0.20424236
0.21526591 0.11195871 -0.26343393 0.008045483 -0.15896414 0.18754238 0.17815554 0.04308781
-0.15271725 0.0008208964 -0.13752142 0.034379646 -0.2352398 -0.30511227 0.48632985 -0.25829372
-0.113621615 -0.032474402 0.11960529 -0.09209062 -0.022290848 0.13993551 0.025545573 0.1357339
0.22109868 -0.19112849 0.14809231 -0.02936186 -0.15761434 -0.16690016 -0.0067952774 -0.107542306
-0.21981584 0.2836602 0.11386947 -0.066705175 0.0555638 0.18080029 0.07213116 0.17599896
0.1592103 -0.3437191 -0.08730764 -0.1815143 -0.08355528 0.12515832 0.17307304 -0.024644028
0.09608473 -0.11653766 -0.08522314 -0.18087384 -0.106712796 -0.1780577 -0.20130652 -0.20552479
-0.023434885 0.07729552 -0.14275317 -0.067513056 0.20427443 0.051371507 0.04453448 0.13673297
0.26443824 -0.26803175 0.20061244 -0.15998223 0.12889212 -0.4537084 -0.12414324 0.17923297
0.005151876 0.13624524 -0.10456228 -0.10105586 0.054483503 0.3709672 0.121114545 -0.118642844
0.04779619 -0.029202757 0.100825526 0.09771631 0.042875014 0.106926754 -0.1791484 -0.50343347
-0.1461983 -0.015156326 -0.26320925 0.30492124 0.34557724 -0.07704126 0.32024926 0.38077134
0.26452562 -0.08316821 -0.15162018 0.07319918 -0.26184145 -0.04417292 -0.2758738 -0.13100475
-0.16829251 0.29765895 0.10069378 -0.26746246 0.12338937 0.06775664 -0.2480061 0.02825971
-0.13027312 0.5113419 0.032474637 0.028603071 -0.004739666 0.26402986 -0.013294127 -0.5253554
-0.07954977 -0.11614215 0.27159536 -0.28206906 -0.01610155 0.12649098 0.111078724 -0.054550644
0.07130479 -0.22378689 0.03968099 0.016301686 -0.12853137 -0.19415969 0.15195845 0.2219517
00000000: 6957 06bd 5ce8 3d3e 284d c6bd c4aa 6dbc
00000010: 2cbb d93e 486a 863d 82f4 84be f088 94bc
00000020: ed0a ddbd ac8d b93e 1ca4 47ba d53f 4cbe
00000030: 4dd0 1a3e b6c4 833e 4d4d 423e 3343 a0bc
00000040: 4ea0 fdba 1d59 afbd 63aa 263d 4579 57bc
00000050: e2b1 56bd 6b08 a83d aee4 26bc 80d2 b73d
00000060: 4969 59bc 01b9 6c3e c4d9 b83c 6cde febd
00000070: eca7 a13d 642c debd c50a 37be 92da b83d
00000080: 0165 f03d 60f5 e23d 10df ca3d 1c37 7bbe
00000090: 3f50 f23d 2b72 3dbe 8755 753e 817c 4c3e
000000a0: 3f58 d0be 1909 143d 6e6c b63d 6cfa 07be
000000b0: a5d5 9abe c86f 213d 0c9f fb3d 79f2 4dbe
000000c0: dcef 263e 50f8 e73d bb63 763e 1984 c13e
000000d0: 2a02 c33e 37c3 33be 18a9 c8be 2919 1fbc
000000e0: eddc 8abe 3bfe febc 1e84 223d 798e eb3d
000000f0: 1d49 adbd 2624 563c 89a7 efbd fd80 edbc
00000100: d5b5 7bbd 99a0 4dbe bde8 3a3e 37d7 eabc
00000110: 6899 a6be ea2b 473e e8a5 84bc b3df 62be
00000120: 45e2 c4bd e4dc ae3d e736 37bd 9852 40bd
00000130: d455 543e 4c30 d63d f3ca c13e b3cc bdbe
00000140: 0fe2 a7be ad71 07be 8680 60bd b42d 793e
00000150: d266 34bd 394b 82be c4fe ae3d 9b5d 3bbe
00000160: fac5 a6bc ce75 6abe baff d83c 3d59 27be
00000170: 5310 1c3a 430d 7ebe 0050 4c3e a28a ba3d
00000180: 2371 b3bc a4ac 683e c382 cdbd dd78 36be
00000190: 1efc 053e ab2d e3bd 3f52 af3d db8b 68be
000001a0: da84 a23c 632b 563e cd07 043d 32e0 273d
000001b0: ad07 103e c4f8 1e3e b661 513c f2d3 9bbc
000001c0: 8740 20be 2c9c 803d 88f2 d7bc defb c8bc
000001d0: 0b03 893e 76ca 0a3d 3530 47be e924 513e
000001e0: ab6e 5c3e 9c4a e53d d0e0 86be 34d1 033c
000001f0: 7fc7 22be 1c0b 403e 686e 363e d87c 303d
00000200: e961 1cbe 6d31 573a 6ad2 0cbe acd1 0c3d
00000210: b4e2 70be ad37 9cbe 3a00 f93e 133f 84be
00000220: 73b2 e8bd e103 05bd 9ef3 f43d 029a bcbd
00000230: 4c9b b6bc 414b 0f3e f344 d13c d4fd 0a3e
00000240: b167 623e 30b7 43be 83a5 173e 4988 f0bc
00000250: a765 21be e0e7 2abe ebaa debb 243f dcbd
00000260: 6717 61be e93b 913e 6634 e93d b99c 88bd
00000270: de96 633d b623 393e 80b9 933d 1239 343e
00000280: 0608 233e f3fb afbe 59ce b2bd e2de 39be
00000290: 081f abbd 8129 003e 0f3a 313e 46e2 c9bc
000002a0: 12c8 c43d 4cab eebd 7889 aebd fe36 39be
000002b0: 3d8c dabd c254 36be 4c23 4ebe 1775 52be
000002c0: 84fa bfbc 1d4d 9e3d e32d 12be 4944 8abd
000002d0: 512d 513e ee6a 523d c969 363d ba03 0c3e
000002e0: 7364 873e 753b 89be 596d 4d3e 62d2 23be
000002f0: 4cfc 033e 784c e8be d03e febd d988 373e
00000300: 11d1 a83b df83 0b3e c024 d6bd 60f6 cebd
00000310: 182a 5f3d 6aef bd3e e70a f83d 05fb f2bd
00000320: f0c5 433d 9f3a efbc 9d7d ce3d 7d1f c83d
00000330: b69d 2f3d 6afc da3d ae72 37be 04e1 00bf
00000340: 02b5 15be 3d52 78bc 5dc3 86be a31e 9c3e
00000350: 80ef b03e cfc7 9dbd b6f7 a33e 76f4 c23e
00000360: e76f 873e 1854 aabd 5242 1bbe 74e9 953d
00000370: 1510 86be aaee 34bd 553f 8dbe 1c26 06be
00000380: df54 2cbe c166 983e 8a38 ce3d d7f0 88be
00000390: 91b3 fc3d fec3 8a3d 50f5 7dbe e880 e73c
000003a0: 5166 05be 4ee7 023f 2004 053d fd50 ea3c
000003b0: 334f 9bbb ec2e 873e 9ccf 59bc b17d 06bf
000003c0: fdea a2bd efdb edbd 8c0e 8b3e 5b6b 90be
000003d0: 66e7 83bc da86 013e 3e7d e33d 7f70 5fbd
000003e0: 3f08 923d 6428 65be 8988 223d 1d8b 853c
000003f0: ba9d 03be ccd1 46be ff9a 1b3e 4e47 633e

conv1.conv2.0.bias f4 [8]
-0.103587545 0.048729613 -0.0007251369 0.026597964 0.020985201 -0.10906181 -0.004734068 -0.08158838
00000000: b525 d4bd b498 473d 1d17 3eba f9e3 d93c
00000010: 28e9 ab3c cc5b dfbd 3e20 9bbb cf17 a7bd

conv1.conv2.1.weight f4 [8]
1.0380608 1.1500888 0.9233539 1.0293174 0.9325246 1.0405283 1.0373957 0.94355625
00000000: 2ddf 843f 1c36 933f ec60 6c3f acc0 833f
00000010: efb9 6e3f 0830 853f 62c9 843f e78c 713f

conv1.conv2.1.bias f4 [8]
0.058631994 0.108304314 -0.08903715 -0.016768092 -0.16347384 0.077434525 0.012298744 -0.0355824
00000000: 1a28 703d a7ce dd3d 1c59 b6bd 3d5d 89bc
00000010: b065 27be fe95 9e3d ac80 493c dabe 11bd

conv1.conv2.1.running_mean f4 [8]
0.027405042 -0.089358084 0.027628928 -0.45850506 0.2230654 -0.80416816 -0.79807377 0.6287065
00000000: 8a80 e03c 5f01 b7bd 1056 e23c 2dc1 eabe
00000010: 426b 643e f7dd 4dbf 904e 4cbf e9f2 203f

conv1.conv2.1.running_var f4 [8]
1.400928 0.41457886 1.1563035 0.6010463 0.871363 1.9201592 1.9800398 1.9968474
00000000: 9c51 b33f ae43 d43e c101 943f 2cde 193f
00000010: a511 5f3f c7c7 f53f f271 fd3f b298 ff3f

conv1.conv3.0.weight f4 [8, 8, 3, 3]
0.19948551 0.1274737 0.14721294 -0.3488651 -0.25589013 0.10154811 0.1574152 0.07382274
-0.020813657 -0.054451212 0.04504015 0.10375324 0.025048044 0.10425772 -0.17209218 0.04794854
-0.027573325 -0.13366896 0.14338878 0.1289187 -0.13130328 0.091166854 -0.35159215 -0.20945297
-0.11759073 -0.2219996 0.11698628 -0.13657002 -0.25354588 0.15007983 -0.06636817 -0.07274079
0.007854589 0.0903219 -0.376125 0.26484045 -0.07603237 -0.053579737 -0.37107313 -0.22142978
-0.36224264 -0.10445701 0.16118771 0.15953745 0.10148365 -0.15672772 0.06073961 -0.2886874
-0.32382673 -0.3031167 -0.17321405 0.2435364 -0.37447727 0.07200885 0.29973394 0.04234205
-0.2305451 -0.39344043 -0.01696043 0.014378898 -0.24648032 -0.06917744 0.19057551 0.051936857
-0.14979288 0.07058673 0.07235007 -0.15826662 -0.29638323 -0.0936894 0.04950759 -0.02261696
0.14582291 -0.086267434 -0.011867744 -0.048331134 -0.10766638 -0.1109294 0.11948921 0.061833862
-0.107540384 -0.20572518 -0.008513303 0.33411774 0.07031284 -0.13002013 0.02981517 0.2707529
-0.35298774 0.031969406 -0.006223517 -0.06322014 -0.34459764 -0.34016317 -0.15533875 -0.054512408
0.05328037 -0.2554415 -0.18363743 0.3188 -0.053174496 -0.14537929 0.2723798 -0.3182356
-0.03366447 -0.07209418 -0.24993907 0.07442339 -0.16759615 -0.12855318 0.14410628 -0.2707412
0.1367506 -0.0059101083 0.003602604 -0.25901213 -0.044347156 -0.073750995 0.06872354 -0.0279692
0.088444985 0.21028832 0.16772228 0.068391494 -0.15799186 -0.046671845 0.017705292 0.36129382
0.17566216 -0.086340316 0.16615751 -0.12457933 0.1647656 -0.0103211785 0.0020750859 -0.08927764
0.32685494 -0.1990373 -0.35876286 -0.014089134 0.050461315 0.24884127 0.2438192 -0.22151877
-0.058790687 0.13895988 -0.34772554 0.32893085 0.16181827 -0.19960001 0.12481596 0.11148501
0.004044555 -0.11397758 -0.23938234 -0.0036031613 0.19843028 0.07924043 -0.02058456 0.20021255
-0.017690178 -0.11286367 0.26604658 -0.023085736 0.1639372 0.062771805 0.033961274 0.3081987
-0.084853455 0.028926909 0.3293168 0.09326678 0.33971435 0.023381995 0.13219969 0.1643791
0.15252522 0.15989336 -0.01541565 0.015659217 -0.04897615 -0.31298238 -0.04174375 0.18890797
-0.28292328 -0.31115156 -0.03559557 0.20818624 0.03603599 -0.20202833 -0.20598158 -0.07297544
-0.16056636 0.14323997 -0.18605943 -0.09344342 -0.014584145 -0.167921 -0.10185868 -0.1268895
-0.063596345 0.18478529 0.17401172 0.0915977 0.06642016 -0.11926326 -0.18120947 -0.091899775
-0.24818575 -0.016228868 0.097800784 -0.21512386 -0.11326671 0.1146908 -0.22659655 0.262508
-0.23926336 -0.048975833 -0.09205111 0.08146955 -0.2984548 -0.029916149 -0.26591808 -0.19696641
0.35290182 0.096894346 -0.57096344 0.17982617 0.3079954 -0.039375346 -0.13305068 -0.3627342
0.28679073 0.11268107 -0.2447515 -0.061124038 -0.10624818 -0.15694405 -0.01897053 0.32998672
0.18919048 -0.23098631 -0.3155854 -0.33138683 0.37171346 -0.0022863494 -0.038726196 0.21801014
-0.014596401 0.17295228 0.139732 -0.25588968 -0.30155206 0.0294485 0.07060507 0.12777646
00000000: ee45 4c3e 7788 023e fdbe 163e 729e b2be
00000010: 0804 83be 75f8 cf3d 7331 213e 6030 973d
00000020: 6781 aabc 3c08 5fbd 057c 383d 947c d43d
00000030: 8e31 cd3c 1285 d53d ef38 30be b065 443d
00000040: 74e1 e1bc 84e0 08be 82d4 123e 4403 043e
00000050: 5e74 06be b0b5 ba3d e303 b4be d77a 56be
00000060: 69d3 f0bd dd53 63be 8196 ef3d 03d9 0bbe
00000070: c4d0 81be 87ae 193e 09ec 87bd 20f9 94bd
00000080: 89b0 003c b0fa b83d 7593 c0be 2b99 873e
00000090: dcb6 9bbd 6d76 5bbd 4cfd bdbe 7dbe 62be
000000a0: de77 b9be 8fed d5bd 640e 253e c95d 233e
000000b0: a9d6 cf3d 3b7d 20be 19ca 783d d6ce 93be
000000c0: 9ecc a5be 1d32 9bbe 065f 31be 9b61 793e
000000d0: 7cbb bfbe 6079 933d ba76 993e db6e 2d3d
000000e0: 0414 6cbe 0671 c9be 9af0 8abc 7895 6b3c
000000f0: 5665 7cbe e7ac 8dbd 3a26 433e bebb 543d
00000100: 4e63 19be c78f 903d 462c 943d a510 22be
00000110: 8bbf 97be 3ae0 bfbd 78c8 4a3d 3447 b9bc
00000120: 9a52 153e fbac b0bd ed70 42bc def6 45bd
00000130: 3180 dcbd f42e e3bd c2b6 f43d 8145 7d3d
00000140: 223e dcbd 9fa9 52be 617b 0bbc 7b11 ab3e
00000150: 2e00 903d ff23 05be f23e f43c 20a0 8a3e
00000160: cfba b4be 5af2 023d a5ee cbbb 9079 81bd
00000170: 1a6f b0be de29 aebe 1f11 1fbe 6748 5fbd
00000180: 843c 5a3d 3ac9 82be 730b 3cbe c139 a33e
00000190: 80cd 59bd 4fde 14be 5d75 8b3e c7ef a2be
000001a0: c1e3 09bd 1da6 93bd 07f0 7fbe 4a6b 983d
000001b0: 539e 2bbe 72a3 03be 9990 133e 979e 8abe
000001c0: 5908 0c3e 95a9 c1bb aa19 6c3b 3d9d 84be
000001d0: 5da5 35bd c30a 97bd edbe 8c3d aa1f e5bc
000001e0: a522 b53d d255 573e 64bf 2b3e d710 8c3d
000001f0: 9ec8 21be fa2a 3fbd b00a 913c 81fb b83e
00000200: c8e0 333e 31d3 b0bd 3225 2a3e 7323 ffbd
00000210: 50b8 283e 291a 29bc 2afe 073b 32d7 b6bd
00000220: 8859 a73e 6fd0 4bbe c4af b7be 1cd6 66bc
00000230: 86b0 4e3d 3fd0 7e3e beab 793e d1d5 62be
00000240: 81ce 70bd 804b 0e3e 1509 b2be a069 a83e
00000250: b0b3 253e f263 4cbe 839f ff3d 4152 e43d
00000260: 3088 843b 146d e9bd a520 75be 0423 6cbb
00000270: 4f31 4b3e ce48 a23d f4a0 a8bc 8504 4d3e
00000280: feea 90bc 1125 e7bd 4237 883e 4c1e bdbc
00000290: 27df 273e 818e 803d fa1a 0b3d 38cc 9d3e
000002a0: a6c7 adbd 20f8 ec3c 369c a83e a702 bf3d
000002b0: 0aef ad3e 998b bf3c 5b5f 073e ff52 283e
000002c0: 922f 1c3e 16bb 233e ec91 7cbc c247 803c
000002d0: 379b 48bd 3a3f a0be 7ffb 2abd 1771 413e
000002e0: 52db 90be 424f 9fbe a9cc 11bd c62e 553e
000002f0: 799a 133d 84e0 4ebe d6ec 52be 2674 95bd
00000300: 826b 24be 80ad 123e 5d86 3ebe 445f bfbd
00000310: 56f2 6ebc 7cf3 2bbe 499b d0bd 52ef 01be
00000320: cd3e 82bd 5b38 3d3e 2130 323e 9397 bb3d
00000330: 4b07 883d 4c40 f4bd fa8e 39be f335 bcbd
00000340: 6824 7ebe 67f2 84bc c74b c83d 6e49 5cbe
00000350: 60f8 e7bd 03e3 ea3d ed08 68be 7367 863e
00000360: 7401 75be e29a 48bd 4b85 bcbd 82d9 a63d
00000370: 11cf 98be b612 f5bc 6a26 88be 90b1 49be
00000380: 8caf b43e 8b70 c63d a92a 12bf 5a24 383e
00000390: 93b1 9d3e 0b48 21bd 703e 08be 4cb8 b9be
000003a0: 3cd6 923e 55c5 e63d 23a0 7abe 335d 7abd
000003b0: a598 d9bd f1b5 20be 1668 9bbc 05f4 a83e
000003c0: 26bb 413e ad87 6cbe 6994 a1be 89ab a9be
000003d0: 3a51 be3e 94d6 15bb 5c9f 1ebd 0d3e 5f3e
000003e0: be25 6fbc 671a 313e e815 0f3e f903 83be
000003f0: 0865 9abe fb3d f13c 6499 903d d5d7 023e

conv1.conv3.0.bias f4 [8]
-0.026310265 -0.01436266 -0.07539793 0.0070870114 -0.07266078 -0.09436803 0.10597468 -0.0024446903
00000000: a088 d7bc 5d51 6bbc 3b6a 9abd 293a e83b
00000010: 2dcf 94bd 0744 c1bd 4109 d93d 1937 20bb

conv1.conv3.1.weight f4 [8]
1.027068 1.0815488 1.021524 0.9610085 0.89728355 1.0472351 1.0433877 0.9869517
00000000: f776 833f 3170 8a3f 4cc1 823f a704 763f
00000010: 60b4 653f cd0b 863f ba8d 853f dea8 7c3f

conv1.conv3.1.bias f4 [8]
0.024922578 0.12685329 0.17482515 0.09628138 0.04463301 0.105553456 0.08467087 0.08572403
00000000: 6f2a cc3c d4e5 013e 5d05 333e 2c2f c53d
00000010: 1ad1 363d 692c d83d ec67 ad3d 1590 af3d

conv1.conv3.1.running_mean f4 [8]
-1.3271136 -0.26450732 0.0012033789 -0.35644922 -1.1559714 -0.6611565 -0.1400386 -0.36269
00000000: dcde a9bf 816d 87be b2ba 9d3a 8380 b6be
00000010: dff6 93bf 8d41 29bf 4766 0fbe 81b2 b9be

conv1.conv3.1.running_var f4 [8]
1.0283632 1.615009 1.9833521 0.8508333 1.6986295 2.5799024 1.4291571 1.6718284
00000000: 68a1 833f 9db8 ce3f 7bde fd3f 36d0 593f
00000010: b16c d93f 1f1d 2540 9fee b63f 79fe d53f

conv2.conv1.0.weight f4 [16, 8, 3, 3]
-0.038163453 0.03062937 -0.15870298 -0.2619757 0.028416157 0.36016324 0.2506067 -0.0872684
0.08407468 0.020047497 -0.037351258 0.015428816 -0.19038047 -0.08155266 -0.08594971 0.07080772
0.13187696 -0.18404034 -0.091436096 -0.39382696 0.119095385 -0.024061475 0.2993056 0.12020752
0.17023495 0.2341871 -0.012086813 0.1462311 0.1184944 0.04738362 0.31786612 -0.11063745
-0.30133113 -0.093813196 -0.027094867 -0.02025567 0.023043582 -0.09107589 -0.012379308 0.28314796
-0.09244901 -0.03562896 -0.1609407 -0.048902947 -0.097395994 -0.027799955 -0.18116312 0.10431219
-0.20018506 -0.13395351 -0.15068398 -0.2108159 -0.13576972 -0.20202231 -0.25062847 -0.13941924
-0.085074194 0.023574298 -0.040244278 -0.0331364 0.009640888 -0.14510807 -0.033448003 0.15654269
-0.10007828 0.09671973 -0.0035897242 0.24959017 0.007898019 0.0079595335 0.1392697 0.34018403
-0.09925968 0.09024754 -0.3428399 -0.07140005 -0.18908562 -0.25894418 0.22662064 -0.13018078
0.24156 0.3198347 0.26197806 0.086314775 0.23146626 0.24315998 -0.09736193 0.0048092618
0.22553329 0.18419418 -0.16660523 -0.1477738 -0.27250072 0.14729828 -0.14867072 -0.2886776
-0.19669096 0.2156606 0.032930005 -0.025451003 -0.18953048 0.03223582 0.3291843 -0.28460997
0.11439483 0.119382694 -0.2608938 0.19668151 0.04470959 -0.0017758391 -0.23141193 0.09053967
-0.014954718 -0.117792316 -0.079660706 0.15247376 -0.114724696 -0.1592305 -0.0059038135 0.010011051
-0.10156876 -0.04651272 -0.34899083 0.20814137 -0.08615146 0.228249 0.0705828 0.22579904
-0.15064393 0.30141532 0.1216208 0.097853675 0.08726918 0.20167874 -0.102248766 -0.008179638
0.0007475295 0.093522824 0.20148936 -0.4378186 -0.10305388 0.14220564 -0.03316529 0.0150038395
-0.15094405 -0.15006414 0.083939455 -0.12999551 0.08568255 0.530833 0.080771685 -0.18201093
0.14485851 -0.026720282 -0.15873487 -0.22423238 0.1597703 -0.038321532 0.22111157 -0.1854668
0.041217946 0.17587422 -0.1864304 -0.29023543 -0.24247168 -0.11431394 0.14983709 0.23162895
0.20352198 0.18725589 -0.17808259 -0.17800692 0.4985613 0.21509549 0.032600142 0.30728018
-0.028516166 0.1436186 -0.017651081 0.009089354 0.19297442 0.15273014 0.037519068 -0.045168266
-0.014006454 -0.122123145 -0.116636075 0.01674282 0.07949055 -0.18908657 -0.2781677 0.13319966
-0.11740724 0.12077714 -0.22186774 -0.020434601 0.14269798 0.015154445 -0.19376057 -0.27225387
-0.33357897 -0.14132293 -0.05895714 0.03618712 0.23595108 0.013630554 -0.058746193 -0.16340165
-0.11050646 0.122122794 -0.13177134 0.31299657 0.016786981 -0.091503255 -0.29342347 0.039667673
0.08443101 -0.1674577 0.057811867 -0.29416555 -0.06770022 0.020930696 0.32375225 -0.020430094
-0.14286125 -0.22941855 -0.1564636 -0.2602496 -0.08359977 0.24945284 0.10475252 0.054570213
-0.14178707 -0.07966409 0.02054884 0.009244761 -0.03871992 -0.17046511 -0.06372174 0.07706436
-0.10420982 0.09388565 0.13940427 0.09383135 -0.054814238 -0.016770877 -0.32005447 0.09250784
-0.042760186 -0.282311 -0.04761088 0.21384497 0.006292946 -0.022683123 -0.08989806 0.22803447
00000000: 4851 1cbd 72ea fa3c 0983 22be ae21 86be
00000010: 00c9 e83c 5167 b83e 854f 803e c6b9 b2bd
00000020: 592f ac3d a63a a43c a2fd 18bd 25c9 7c3c
00000030: 19f3 42be 1505 a7bd 6706 b0bd a303 913d
00000040: c10a 073e 1275 3cbe d942 bbbd b0a3 c9be
00000050: 48e8 f33d 921c c5bc 953e 993e 5c2f f63d
00000060: 1252 2e3e bece 6f3e c507 46bc 9bbd 153e
00000070: 31ad f23d 5415 423d 59bf a23e e395 e2bd
00000080: 1348 9abe 2221 c0bd 0ef6 ddbc 38ef a5bc
00000090: e5c5 bc3c ff85 babd 95d2 4abc c5f8 903e
000000a0: e855 bdbd acef 11bd a4cd 24be 754e 48bd
000000b0: 8d77 c7bd bbbc e3bc d382 39be a1a1 d53d
000000c0: 50fd 4cbe 1c2b 09be e74c 1abe 20e0 57be
000000d0: 3807 0bbe f0de 4ebe 6052 80be ebc3 0ebe
000000e0: 613b aebd e31e c13c 2fd7 24bd 09ba 07bd
000000f0: d1f4 1d3c 3697 14be c600 09bd ba4c 203e
00000100: d7f5 ccbd fe14 c63d 9441 6bbb 9194 7f3e
00000110: b166 013c b468 023c b79c 0e3e 9a2c ae3e
00000120: a948 cbbd b4d3 b83d b688 afbe 303a 92bd
00000130: a99f 41be 5594 84be 3e0f 683e 1c4e 05be
00000140: 815b 773e 60c1 a33e fd21 863e cdc5 b03d
00000150: 7e05 6d3e eefe 783e b165 c7bd 0397 9d3b
00000160: 33f2 663e 669d 3c3e 909a 2abe 0452 17be
00000170: 3785 8bbe 5cd5 163e 233d 18be 8dcd 93be
00000180: 5b69 49be 22d6 5c3e 9de1 063d 9f7e d0bc
00000190: 4714 42be b509 043d d88a a83e 66b8 91be
000001a0: d647 ea3d ea7e f43d df93 85be e166 493e
000001b0: 6721 373d 46c3 e8ba 40f7 6cbe dd6c b93d
000001c0: a204 75bc 193d f1bd 2725 a3bd 1522 1c3e
000001d0: c8f4 eabd 520d 23be c774 c1bb 6405 243c
000001e0: 4803 d0bd 1f84 3ebd edae b2be 0323 553e
000001f0: 2d70 b0bd 1bba 693e b78d 903d dd37 673e
00000200: 6742 1abe 1c53 9a3e 5314 f93d 8267 c83d
00000210: 2fba b23d df84 4e3e cd67 d1bd e303 06bc
00000220: dbf5 433a e588 bf3d 3a53 4e3e c229 e0be
00000230: ea0d d3bd 5b9e 113e 54d8 07bd aad2 753c
00000240: 1491 1abe 6aaa 19be 73e8 ab3d 8b1d 05be
00000250: 557a af3d ace4 073f a06b a53d 1361 3abe
00000260: ca55 143e 7ee4 dabc 658b 22be 2c9d 65be
00000270: d39a 233e 0af7 1cbd 126b 623e 02eb 3dbe
00000280: 26d4 283d 5f18 343e 9ce7 3ebe bd99 94be
00000290: 7f4a 78be 6d1d eabd e56e 193e 2430 6d3e
000002a0: 1168 503e 02c0 3f3e 485b 36be 7247 36be
000002b0: 6d43 ff3e fe41 5c3e ba87 053d d453 9d3e
000002c0: bc9a e9bc c110 133e 0099 90bc 84eb 143c
000002d0: 169b 453e 4a65 1c3e 98ad 193d 5c02 39bd
000002e0: 537b 65bc b31b fabd e5de eebd 3d28 893c
000002f0: f1cb a23d e99f 41be ff6b 8ebe 7e65 083e
00000300: 3573 f0bd 015a f73d 4c31 63be 7766 a7bc
00000310: 6b1f 123e 594a 783c 2c69 46be dc64 8bbe
00000320: ddca aabe f5b6 10be 0b7d 71bd f238 143d
00000330: 299d 713e b052 5f3c d99f 70bd c352 27be
00000340: 3651 e2bd 841b fa3d 11ef 06be 1641 a03e
00000350: da84 893c 0f66 bbbd 9a3b 96be 927a 223d
00000360: 2aea ac3d 087a 2bbe 23cc 6c3d de9c 96be
00000370: 6aa6 8abd da76 ab3c dbc2 a53e 035d a7bc
00000380: 384a 12be b2ec 6abe fe37 20be 703f 85be
00000390: 5b36 abbd 9170 7f3e 7d88 d63d 0485 5f3d
000003a0: a130 11be ed26 a3bd 0a56 a83c 5777 173c
000003b0: c798 1ebd 688e 2ebe 8b80 82bd ebd3 9d3d
000003c0: f56b d5bd 1f47 c03d febf 0e3e a72a c03d
000003d0: e584 60bd 1463 89bc 2ede a3be c074 bd3d
000003e0: 4e25 2fbd 118b 90be a003 43bd 2dfa 5a3e
000003f0: 0f35 ce3b f5d1 b9bc 791c b8bd de81 693e

conv2.conv1.0.bias f4 [16]
-0.07814392 -0.03380478 0.102601014 0.038299765 0.11333005 -0.0007110831 -0.06252786 0.021647872
-0.006961065 -0.02469231 0.00030852787 -0.07054669 0.035924178 -0.017325023 -0.085128754 -0.100978486
00000000: eb09 a0bd e276 0abd 7b20 d23d 37e0 1c3d
00000010: 9619 e83d fb67 3aba 9b0e 80bd e156 b13c
00000020: a519 e4bb 8747 cabc e9c1 a139 c87a 90bd
00000030: 3b25 133d 35ed 8dbc fc57 aebd cfcd cebd

conv2.conv1.1.weight f4 [16]
1.0296643 1.0662142 0.97807866 0.9240983 1.0539811 0.8501948 1.0090605 1.077999
0.87133825 0.9240298 0.9738841 1.1075879 0.9041748 1.0447794 0.9801512 1.110869
00000000: 0acc 833f b579 883f 5d63 7a3f b591 6c3f
00000010: dae8 863f 5ea6 593f e528 813f dffb 893f
00000020: 0610 5f3f 388d 6c3f 7850 793f 71c5 8d3f
00000030: 0078 673f 55bb 853f 30eb 7a3f f530 8e3f

conv2.conv1.1.bias f4 [16]
0.019859174 0.14003895 -0.00481415 -0.01680258 0.024352372 -0.048992515 0.03192653 0.08904173
0.0032426105 -0.10648675 -0.076814584 -7.6259734e-05 -0.0787617 0.048456922 -0.046679873 0.040066198
00000000: b5af a23c 5f66 0f3e 04c0 9dbb 90a5 89bc
00000010: a07e c73c 60ac 48bd 65c5 023d 835b b63d
00000020: fa81 543b ba15 dabd f750 9dbd a2ed 9fb8
00000030: d04d a1bd c47a 463d 6533 3fbd 741c 243d

conv2.conv1.1.running_mean f4 [16]
-0.4990961 0.18589287 -0.028875167 -0.0959826 1.326372 0.26403424 -1.1052189 -0.82994705
-0.2816232 0.18186258 0.1331041 -1.3448652 -1.6098808 0.18096565 -0.60061055 -2.2079897
00000000: 8689 ffbe b35a 3e3e 9d8b ecbc 8692 c4bd
00000010: 8fc6 a93f 7f2f 873e d077 8dbf 6977 54bf
00000020: eb30 90be 2f3a 3a3e 714c 083e 8b24 acbf
00000030: 9310 cebf 0f4f 393e 9dc1 19bf b44f 0dc0

conv2.conv1.1.running_var f4 [16]
2.0506792 1.2232518 1.8544902 1.8681161 0.71349555 0.95650774 2.1400955 1.0233212
1.096131 1.4730728 1.0597268 1.1665802 0.8934306 1.8325785 1.8702577 1.0426005
00000000: 543e 0340 8493 9c3f ef5f ed3f 6e1e ef3f
00000010: a5a7 363f b1dd 743f 53f7 0840 30fc 823f
00000020: 054e 8c3f a68d bc3f 21a5 873f 8052 953f
00000030: deb7 643f ef91 ea3f 9b64 ef3f ef73 853f

conv2.conv2.0.weight f4 [16, 16, 3, 3]
-0.14143062 0.112615086 0.12559912 -0.045349363 -0.29464716 -0.025769677 -0.19976963 0.07307957
-0.12625556 0.035754923 0.11937293 0.028729476 -0.30241323 0.15157294 -0.22600435 -0.06531275
-0.030843271 -0.039459854 0.051158413 0.09614543 -0.3306163 0.03659156 0.023457607 -0.16340268
0.02213171 -0.055179376 -0.055976257 0.024119515 -0.07296083 0.13344198 -0.042111684 0.20233162
0.095776424 -0.02292084 -0.045791175 -0.08673199 0.20237826 -0.10377039 0.07582298 -0.28533864
0.024549237 -0.040898073 0.23740524 -0.23020409 -0.21655649 0.121274084 -0.20073433 0.20385037
-0.14776878 0.1232372 -0.04556372 -0.033132188 -0.046576843 0.19371279 -0.07125087 0.13761345
0.15566318 -0.016658636 0.38515782 0.09046103 0.1485963 -0.0027390008 -0.007113264 0.13611388
-0.011501655 -0.15417357 0.06944385 -0.29750615 -0.17654882 -0.048567034 -0.0042026644 -0.060191486
0.10551239 -0.034208078 -0.1439777 -0.21979158 0.0034568938 -0.07624551 -0.070271164 0.18010938
0.07664713 -0.0972709 -0.0114918 0.16263202 0.103584975 -0.056980487 -0.22923858 -0.18349111
-0.10590631 -0.049432915 0.08898972 0.12349123 -0.03298715 -0.17267294 0.15432188 -0.2347937
-0.054138552 0.1039539 -0.10501772 0.07711995 0.08398629 0.0868465 -0.023240617 -0.04298297
0.065490566 0.19686753 0.06375229 0.24293822 -0.07263232 0.07346221 -0.048797652 -0.08241163
-0.18657722 0.021979682 -0.022031827 0.009443539 -0.05080101 0.07746105 0.21175237 -0.13273439
-0.1036404 -0.21157818 -0.040382016 0.06716998 0.05206796 -0.14999859 -0.14487104 -0.029406708
0.18083678 -0.11033703 0.04462073 -0.11686044 0.0593013 0.026091017 -0.18827 -0.04681101
0.09906676 -0.050003774 0.08362407 -0.03077915 -0.015507045 -0.29880795 0.0738417 -0.08600394
-0.092814706 0.02913936 0.14789031 -0.004205286 0.073006585 0.06489272 -0.059483245 0.08178219
-0.07538434 0.15423565 0.23976958 0.011437911 -0.13190362 0.010559259 0.03060158 0.07261749
-0.19870967 -0.01023679 0.072779775 0.029069211 -0.116087295 0.2238646 -0.12626757 0.03858036
-0.15458554 0.115863204 0.18212369 0.17117839 0.0752583 -0.05022711 0.15378061 -0.05005256
0.14261593 0.17118548 0.12523632 0.060754724 -0.19789776 0.024895573 0.027629422 -0.0721079
0.059744388 0.021374924 -0.13522087 -0.04237017 -0.060364503 0.075725816 0.0034636862 -0.10408039
-0.026755136 0.10658136 -0.24765962 0.05469658 -0.051764477 0.025600595 -0.030835945 -0.115243316
0.09606351 0.09676405 -0.13945486 -0.075288795 0.060959388 0.059968933 0.05928182 -0.20947714
-0.026959531 -0.08175757 -0.06771195 -0.11513623 -0.12699944 -0.17080462 0.057373155 0.035509966
0.26487452 -0.031375837 -0.10988216 -0.025510361 0.15606096 0.028177392 -0.048116613 0.10863093
0.23890877 -0.046682656 -0.075063564 -0.199507 -0.1299303 -0.054219555 -0.16822532 -0.17885461
-0.09434846 0.0403292 0.051612005 0.16345665 -0.046810936 0.216914 0.121472634 0.080708236
0.10363632 0.28258768 -0.15331261 -0.06017716 0.3897198 0.111583956 -0.04812519 -0.18521969
0.0378434 -0.12794033 0.087056786 -0.14214331 0.11385334 -0.4635367 0.29787797 0.11022663
00000000: 30d3 10be bda2 e63d 0e9d 003e 41c0 39bd
00000010: fedb 96be ee1a d3bc 6990 4cbe beaa 953d
00000020: 2349 01be c173 123d cb79 f43d 145a eb3c
00000030: e8d5 9abe f035 1b3e af6d 67be b1c2 85bd
00000040: 07ab fcbc a8a0 21bd 7c8b 513d e5e7 c43d
00000050: 8a46 a9be 08e1 153d 2b2a c03c 0853 27be
00000060: 8f4d b53c c503 62bd 5c47 65bd 4a96 c53c
00000070: 7d6c 95bd 04a5 083e 4d7d 2cbd 0530 4f3e
00000080: 6e26 c43d 7cc4 bbbc 878f 3bbd 8ba0 b1bd
00000090: 3f3c 4f3e 9285 d4bd 1449 9b3d e817 92be
000000a0: 7b1b c93c bd84 27bd 5c1a 733e 9fba 6bbe
000000b0: fcc0 5dbe 8c5e f83d 4d8d 4dbe 27be 503e
000000c0: b350 17be c963 fc3d 06a1 3abd 9eb5 07bd
000000d0: 5cc7 3ebd a55c 463e faeb 91bd 8aea 0c3e
000000e0: 2b66 1f3e b177 88bc 6833 c53e a243 b93d
000000f0: a129 183e cf80 33bb 6216 e9bb 7061 0b3e
00000100: 7071 3cbc addf 1dbe 9438 8e3d ba52 98be
00000110: 37c9 34be 3aee 46bd 81b6 89bb 598b 76bd
00000120: e116 d83d c51d 0cbd e46e 13be 0b11 61be
00000130: 0e8d 623b 9b26 9cbd 54ea 8fbd 986e 383e
00000140: 2cf9 9c3d f735 c7bd 1a48 3cbc 0289 263e
00000150: 5c24 d43d 5f64 69bd 85bd 6abe 18e5 3bbe
00000160: 68e5 d8bd 2b7a 4abd 3e40 b63d f8e8 fc3d
00000170: 891d 07bd 2dd1 30be 8e06 1e3e c26d 70be
00000180: 63c0 5dbd c8e5 d43d 8813 d7bd 10f1 9d3d
00000190: 0101 ac3d 94dc b13d 1b63 bebc e90e 30bd
000001a0: eb1f 863d a497 493e 9090 823d ccc4 783e
000001b0: 41c0 94bd 5b73 963d 0ce0 47bd 6ec7 a8bd
000001c0: 190e 3fbe bc0e b43c 177c b4bc 13b9 1a3c
000001d0: b814 50bd e6a3 9e3d 9dd5 583e 86eb 07be
000001e0: 6b41 d4bd f3a7 58be 9d67 25bd 6a90 893d
000001f0: 3745 553d 3b99 19be 1359 14be 56e6 f0bc
00000200: 472d 393e 61f8 e1bd 3ac4 363d 8754 efbd
00000210: ece5 723d d4bc d53c dac9 40be e7bc 3fbd
00000220: 83e3 ca3d c2d0 4cbd 1943 ab3d 8e24 fcbc
00000230: 4311 7ebc 5bfd 98be 513a 973d d522 b0bd
00000240: a315 bebd abb5 ee3c 8f70 173e 7fcc 89bb
00000250: 7a84 953d 79e6 843d b4a4 73bd 6c7d a73d
00000260: 1b63 9abd f3ef 1d3e 2886 753e 1366 3b3c
00000270: be11 07be be00 2d3c 2ab0 fa3c 7bb8 943d
00000280: 8c7a 4bbe 36b8 27bc 900d 953d 8e22 ee3c
00000290: 2dbf edbd c33c 653e 494c 01be 7106 1e3d
000002a0: ac4b 1ebe b049 ed3d a27e 3a3e 6349 2f3e
000002b0: 0621 9a3d f1ba 4dbd aa78 1d3e ea03 4dbd
000002c0: e909 123e 3f4b 2f3e f33d 003e f2d9 783d
000002d0: b6a5 4abe cdf1 cb3c 1957 e23c 4fad 93bd
000002e0: 88b6 743d 771a af3c 5777 0abe 588c 2dbd
000002f0: c540 77bd 2316 9b3d 03ff 623b 1928 d5bd
00000300: 962d dbbc 5447 da3d 7c9a 7dbe 8509 603d
00000310: fd06 54bd 57b8 d13c aa9b fcbc b004 ecbd
00000320: f2bc c43d 3b2c c63d 41cd 0ebe 0331 9abd
00000330: 8db0 793d fca1 753d 7ed1 723d 2d81 56be
00000340: 3cda dcbc 8370 a7bd 90ac 8abd 8bcc ebbd
00000350: 240c 02be 68e7 2ebe 1d00 6b3d e672 113d
00000360: a29d 873e f383 00bd e609 e1bd 1bfb d0bc
00000370: 72ce 1f3e 46d4 e63c ed15 45bd e579 de3d
00000380: 80a4 743e 5036 3fbd edba 99bd 904b 4cbe
00000390: 730c 05be 5315 5ebd 4243 2cbe aa25 37be
000003a0: c439 c1bd 3b30 253d 1c67 533d 2e61 273e
000003b0: d3bc 3fbd b41e 5e3e a5c6 f83d 5c4a a53d
000003c0: 473f d43d 55af 903e fbfd 1cbe 537c 76bd
000003d0: 5b89 c73e 2186 e43d eb1e 45bd 3baa 3dbe
000003e0: ae01 1b3d ca02 03be d44a b23d 048e 11be
000003f0: f12b e93d af54 edbe 7683 983e 80be e13d

conv2.conv2.0.bias f4 [16]
-0.019442072 -0.061749835 -0.070287704 -0.060070783 0.0328927 -0.008772815 -0.021565113 0.02757503
0.05065649 0.04645698 0.027517816 0.07879351 0.0035424319 0.0019483009 0.032916322 0.083060436
00000000: fb44 9fbc 65ed 7cbd 00f3 8fbd c80c 76bd
00000010: 7fba 063d dabb 0fbc 52a9 b0bc 08e5 e13c
00000020: 2e7d 4f3d ad49 3e3d 0b6d e13c 7e5e a13d
00000030: 2528 683b 215e ff3a 44d3 063d 971b aa3d

conv2.conv2.1.weight f4 [16]
1.0306046 1.0287083 0.9133141 0.9918356 0.997591 0.911015 1.0240428 0.98823977
1.0634097 1.0142446 0.9068242 0.9358268 1.0961003 1.0437614 1.0224395 0.9718183
00000000: daea 833f b7ac 833f f4ce 693f f0e8 7d3f
00000010: 2062 7f3f 4738 693f d613 833f 48fd 7c3f
00000020: cf1d 883f c4d2 813f a125 683f 5892 6f3f
00000030: 044d 8c3f f999 853f 4cdf 823f 16c9 783f

conv2.conv2.1.bias f4 [16]
0.02288881 0.039559033 0.009252748 0.022857666 -0.022971526 0.08175279 0.08403173 -0.0044028386
0.048574187 0.07312055 0.04169821 -0.081452794 0.083215274 0.03702173 0.014649592 0.058958665
00000000: 5081 bb3c a708 223d d798 173c 0040 bb3c
00000010: c82e bcbc 026e a73d d418 ac3d b045 90bb
00000020: baf5 463d 3ac0 953d becb 2a3d b9d0 a6bd
00000030: c56c aa3d 19a4 173d d804 703c a47e 713d

conv2.conv2.1.running_mean f4 [16]
-0.78463924 0.22456789 -0.34442577 -0.3923558 -0.9888935 0.38080177 0.4866094 1.3463523
-0.93140745 -1.0637544 -0.80359596 0.9957522 -0.07602225 1.018798 -1.069869 -0.564047
00000000: 1ede 48bf 20f5 653e 9358 b0be dce2 c8be
00000010: 2028 7dbf 73f8 c23e de24 f93e 4655 ac3f
00000020: b870 6ebf 1b29 88bf 77b8 4dbf 9ee9 7e3f
00000030: 8eb1 9bbd f967 823f 78f1 88bf 6265 10bf

conv2.conv2.1.running_var f4 [16]
1.1138802 1.0250489 0.53369915 0.83348125 1.4390488 3.2709832 0.8670169 3.055747
1.6002499 1.7107054 1.3187469 1.4794252 1.2961084 1.2554703 1.3434552 1.9153534
00000000: a093 8e3f cd34 833f 82a0 083f 075f 553f
00000010: c032 b83f ca57 5140 d2f4 5d3f 5c91 4340
00000020: fdd4 cc3f 65f8 da3f b3cc a83f ce5d bd3f
00000030: e1e6 a53f 40b3 a03f 57f6 ab3f 4d2a f53f

conv2.conv3.0.weight f4 [16, 16, 3, 3]
0.13976596 -0.07723579 0.10164177 0.10715771 -0.08425468 0.12846288 -0.038522128 -0.025754986
-0.0042638583 0.09952002 0.000809406 0.11453386 -0.0024586779 0.120741196 0.05196336 0.121507
0.20832534 0.09018226 -0.05282831 -0.07504079 0.12540057 -0.06956955 0.13090837 0.1898817
-0.061056633 0.022090688 0.15069212 -0.031360228 -0.15011843 -0.06287472 -0.09634697 0.11724274
0.10559597 0.08180801 0.044047367 -0.08550326 -0.07294873 0.039324604 -0.11811494 -0.14265232
-0.07911413 0.032758962 -0.083692834 -0.04704101 -0.034024596 -0.09841592 -0.021290137 -0.055004515
-0.089556694 0.095727384 0.15899171 -0.073785506 0.09888637 0.25676718 -0.033292655 0.019254578
0.089960575 0.11471276 -0.0387098 0.1514529 0.07846059 0.0043790066 0.12798361 -0.17456628
-0.15782526 -0.010331693 0.031007096 0.062075976 0.07059473 0.02684633 -0.04550476 0.038018774
-0.073856495 -0.039638158 -0.0055519394 0.007818597 -0.04534676 0.04545092 -0.15934935 -0.032412227
-0.11235685 -0.045612153 0.003057486 0.18749817 0.0632097 0.09291258 0.104880884 0.06901565
0.023701727 0.2102135 0.015586743 -0.12663037 0.2329996 -0.17390904 -0.1751642 -0.2612243
-0.094261505 -0.07294882 -0.09566891 0.11719537 -0.15844738 0.11427191 0.017098455 -0.0400652
-0.12513655 0.032454174 -0.01390053 0.033077992 0.089526 0.09685028 0.034835868 0.036605235
-0.018648572 0.122816645 0.23245578 -0.030003002 0.07759658 0.14989601 -0.04849559 -0.25812194
-0.31880206 0.049206853 -0.100986436 -0.116235524 -0.22141725 -0.04479718 0.04102432 0.10178079
-0.01680983 0.04961949 0.039875288 -0.083688304 -0.040255923 0.070609 -0.048108526 0.066508554
-0.07539943 -0.23322703 0.015388003 0.14519374 0.07856619 -0.19227262 0.05935515 0.027691053
-0.09036333 -0.08692828 -0.06247673 0.06346385 0.2170046 0.02886474 -0.049556956 -0.017448537
0.06735302 -0.026260069 0.07723165 0.0937744 -0.016254596 0.0153378965 0.0943066 0.074385665
-0.09016453 -0.007934296 0.016557325 -0.19102632 -0.09215911 -0.049889058 -0.07393879 -0.07715669
-0.038316045 -0.051628157 0.08478752 0.060610536 0.067771524 -0.021965843 0.11151241 0.023871344
-0.020150267 0.008694737 -0.2644514 0.10424777 0.26414937 -0.119607806 -0.11177421 0.17658213
-0.063329846 0.21774395 0.038191114 -0.00031327875 -0.039422765 -0.01965189 -0.017771592 -0.009953504
-0.010847761 -0.103590585 0.010478725 0.24360134 0.10197085 0.11473494 0.31339103 0.23031001
0.11384738 0.05734835 -0.048562393 0.042420115 0.09815621 0.048571907 -0.08871431 0.026271513
0.15383679 0.12735441 0.208072 0.06743408 0.36384124 0.018694373 0.022819022 0.109162144
0.07329338 -0.09167478 -0.120178044 0.19719602 0.094377644 0.12396304 -0.33091044 -0.17834245
0.10466357 0.13334493 -0.013465145 -0.0741534 0.20711294 0.19882388 -0.036019355 -0.018281031
-0.022374425 -0.050227746 -0.0015110073 -0.09883774 0.06869238 -0.108337834 0.023139063 0.057318162
0.11206392 0.06978482 0.08021409 -0.00072025764 -0.09534756 -0.006743465 -0.11478493 0.1093408
0.05296582 -0.09225954 0.079754286 -0.011755881 -0.12344858 0.079587944 -0.012806445 -0.21340336
00000000: cf1e 0f3e cc2d 9ebd 8f29 d03d 8075 db3d
00000010: b88d acbd c68b 033e 61c9 1dbd 1ffc d2bc
00000020: d6b7 8bbb 27d1 cb3d 512e 543a ba90 ea3d
00000030: c521 21bb 2947 f73d 88d7 543d a9d8 f83d
00000040: 3d53 553e 7ab1 b83d 7f62 58bd fcae 99bd
00000050: 0269 003e 7b7a 8ebd d80c 063e 5970 423e
00000060: 8516 7abd 88f7 b43c 094f 1a3e 9573 00bd
00000070: a5b8 19be 76c4 80bd 8f51 c5bd f61c f03d
00000080: b342 d83d f58a a73d 036b 343d 551c afbd
00000090: 2566 95bd d612 213d 3fe6 f1bd 7313 12be
000000a0: 9706 a2bd 432e 063d 2667 abbd 13ae 40bd
000000b0: 605d 0bbd 498e c9bd a768 aebc 6a4c 61bd
000000c0: 8069 b7bd b80c c43d b9ce 223e db1c 97bd
000000d0: f084 ca3d fd76 833e e15d 08bd c7bb 9d3c
000000e0: 403d b83d 86ee ea3d 2b8e 1ebd 7816 1b3e
000000f0: f2af a03d c57d 8f3b 230e 033e 81c1 32be
00000100: f29c 21be 4346 29bc 9802 fe3c 6143 7e3d
00000110: f893 903d d6ec db3c 3363 3abd 93b9 1b3d
00000120: 1342 97bd 9f5b 22bd 0bed b5bb 9319 003c
00000130: 86bd 39bd be2a 3a3d 7a2c 23be afc2 04bd
00000140: 591b e6bd cfd3 3abd 1a60 483b 85ff 3f3e
00000150: 1674 813d f348 be3d cacb d63d 1458 8d3d
00000160: 202a c23c 3542 573e 8a5f 7f3c 64ab 01be
00000170: 7297 6e3e 3615 32be 3e5e 33be 31bf 85be
00000180: 2d0c c1bd 3166 95bd 10ee c3bd 2004 f03d
00000190: 0840 22be 6407 ea3d 0f12 8c3c 681b 24bd
000001a0: cc23 00be abee 043d 0cbf 63bc ca7c 073d
000001b0: 6859 b73d 7159 c63d 0eb0 0e3d 5fef 153d
000001c0: e4c4 98bc 4b87 fb3d e308 6e3e dbc8 f5bc
000001d0: f5ea 9e3d 577e 193e 50a3 46bd 8f28 84be
000001e0: 063a a3be 208d 493d fad1 cebd e40c eebd
000001f0: 34bb 62be 3f7d 37bd 1e09 283d 7272 d03d
00000200: c5b4 89bc ce3d 4b3d 4554 233d c664 abbd
00000210: 65e3 24bd 749b 903d 720d 45bd a335 883d
00000220: 046b 9abd 11d3 6ebe f61d 7c3c abad 143e
00000230: 50e7 a03d 1de3 44be 631e 733d 59d8 e23c
00000240: 6910 b9bd 7407 b2bd 9ae7 7fbd 56f9 813d
00000250: 7436 5e3e bf75 ec3c 3cfc 4abd 3cf0 8ebc
00000260: 61f0 893d 5b1f d7bc a12b 9e3d cb0c c03d
00000270: 5c28 85bc cd4b 7b3c d223 c13d 8357 983d
00000280: 2ea8 b8bd d9fe 01bc 3aa3 873c 679c 43be
00000290: eabd bcbd 7858 4cbd 386d 97bd 5404 9ebd
000002a0: 49f1 1cbd 0c78 53bd 14a5 ad3d c142 783d
000002b0: cccb 8a3d b6f1 b3bc 9e60 e43d d68d c33c
000002c0: 2c12 a5bc 5f74 0e3c 2d66 87be db7f d53d
000002d0: 963e 873e f0f4 f4bd e1e9 e4bd f2d1 343e
000002e0: 14b3 81bd 45f8 5e3e 496e 1c3d 903f a4b9
000002f0: c479 21bd 00fd a0bc bb95 91bc 0614 23bc
00000300: cfba 31bc 4d27 d4bd f5ae 2b3c a172 793e
00000310: 18d6 d03d 27fa ea3d ca74 a03e 63d6 6b3e
00000320: d128 e93d 1ae6 6a3d 5ce9 46bd b7c0 2d3d
00000330: 1f06 c93d 56f3 463d d9af b5bd 5b37 d73c
00000340: 6487 1d3e 3269 023e d410 553e e11a 8a3d
00000350: 6649 ba3e f124 993c f5ee ba3c 6790 df3d
00000360: d71a 963d fdbf bbbd e81f f6bd c1ed 493e
00000370: 1149 c13d 56e0 fd3d 186d a9be 679f 36be
00000380: db59 d63d 938b 083e e99c 5cbc bddd 97bd
00000390: 6a15 543e 7d98 4b3e 0889 13bd 1ac2 95bc
000003a0: 924a b7bc 9cbb 4dbd fe0c c6ba 716b cabd
000003b0: 97ae 8c3d 3ae0 ddbd 228e bd3c 73c6 6a3d
000003c0: c581 e53d 58eb 8e3d 4947 a43d accf 3cba
000003d0: 9545 c3bd 49f8 dcbb 5d14 ebbd 12ee df3d
000003e0: b0f2 583d 92f2 bcbd 3756 a33d bd9b 40bc
000003f0: 9cd2 fcbd 01ff a23d 20d2 51bc 6986 5abe

conv2.conv3.0.bias f4 [16]
-0.008545927 0.07738188 -0.06575668 -0.043652978 -0.053698692 0.06842813 0.053859804 -0.0757171
0.013287627 -0.06487704 -0.021139389 0.014716809 0.017056076 -0.059808847 -0.05312768 -0.04593091
00000000: 3704 0cbc 647a 9e3d 70ab 86bd 77cd 32bd
00000010: 29f3 5bbd 0c24 8c3d 199c 5c3d 9111 9bbd
00000020: 59b4 593c 41de 84bd 832c adbc c51e 713c
00000030: 2fb9 8b3c 1ffa 74bd 699c 59bd 0d22 3cbd

conv2.conv3.1.weight f4 [16]
1.1301298 0.9255061 1.0623873 0.94576293 1.011786 1.0666187 1.059497 0.99597967
0.95072556 0.8936871 1.0195647 1.0429988 1.0541848 0.9824289 0.94763255 0.93598175
00000000: 18a8 903f f8ed 6c3f 4ffc 873f 851d 723f
00000010: 3482 813f f686 883f 999d 873f 86f8 7e3f
00000020: c062 733f aec8 643f 1981 823f fc80 853f
00000030: 87ef 863f 7680 7b3f 0c98 723f 809c 6f3f

conv2.conv3.1.bias f4 [16]
0.045728847 -0.049278777 0.0045289746 0.02417716 -0.018250618 -0.0245571 0.04029312 -0.013888525
0.06887339 -0.01700593 0.024633784 0.012540006 -0.060929205 -0.027507685 0.022501754 0.044766575
00000000: 2c4e 3b3d 8bd8 49bd cb67 943b 2e0f c63c
00000010: 5282 95bc f92b c9bc 660a 253d b28c 63bc
00000020: 7e0d 8d3d 0550 8bbc cacc c93c 9974 4d3c
00000030: e790 79bd cc57 e1bc 9955 b83c 285d 373d

conv2.conv3.1.running_mean f4 [16]
0.34198812 1.1793694 -0.6600981 -0.39603862 -0.7707032 -0.34773132 -1.5858723 -1.3809106
0.39900753 -0.7313504 -0.37043685 0.08639068 0.2882514 0.53154594 0.09220048 0.6880921
00000000: 1119 af3e 94f5 963f 30fc 28bf 93c5 cabe
00000010: ce4c 45bf d709 b2be ddfd cabf aec1 b0bf
00000020: b74a cc3e c839 3bbf e6a9 bdbe 99ed b03d
00000030: b095 933e 6513 083f 9bd3 bc3d ce26 303f

conv2.conv3.1.running_var f4 [16]
1.2129382 1.6547198 1.5584446 1.5195271 1.4803518 1.8286053 1.0545917 2.1458435
2.6101258 0.96503466 1.1477282 1.8658881 1.9541545 1.7495804 1.26468 1.1782746
00000000: 8f41 9b3f dccd d33f 1d7b c73f dd7f c23f
00000010: 2b7c bd3f bd0f ea3f dcfc 863f 8055 0940
00000020: 4d0c 2740 830c 773f c2e8 923f 6cd5 ee3f
00000030: bc21 fa3f 40f2 df3f 09e1 a13f b4d1 963f

conv3.conv1.0.weight f4 [32, 16, 3, 3]
-0.18798867 -0.025012659 0.24932638 -0.070916004 0.16478786 -0.12621583 -0.028037503 0.044877917
-0.1751201 0.12274942 0.12225148 0.21224798 -0.05662088 -0.2986123 0.11739962 -0.17478618
-0.027857596 0.18137056 0.05800341 0.08007315 -0.13497356 -0.029355997 0.0539003 -0.14817367
0.015658382 0.08991007 -0.22734897 -0.07552142 0.011752854 -0.045110237 -0.07714847 0.03195498
-0.16993752 -0.062565215 0.011878824 -0.02976345 0.14161974 -0.12160901 0.051649213 -0.07535951
0.23481075 -0.0056742993 -0.022482732 -0.09991739 0.0068470044 0.048373718 0.12585777 0.11120114
0.014114567 -0.016563391 -0.15115057 -0.008658434 -0.015013714 0.13553698 -0.053387478 -0.15444815
-0.11831806 -0.023970766 -0.024424061 0.049842276 0.15762532 -0.13176022 -0.039814115 -0.046808913
-0.12396731 -0.0048781014 -0.025486639 0.0074956813 -0.07816526 -0.10813314 0.17021154 -0.006450916
0.20543614 -0.14341453 -0.14620066 0.187082 0.1780325 -0.18143171 -0.043676015 0.079831
-0.13248482 0.22681038 -0.038438134 0.15987198 0.2192618 0.27581146 -0.09444405 -0.07672666
0.042824615 -0.110954516 -0.12063221 -0.07726717 -0.02821484 -0.13240075 -0.09524974 0.1420204
0.16589981 -0.1341398 -0.021742728 0.102343 0.05545213 -0.14037578 -0.058010586 0.17342687
-0.18092287 -0.2687637 -0.046194058 -0.09317381 0.11525619 -0.01151728 0.058644135 0.2538679
-0.044448726 0.1729165 -0.03319578 0.24529725 -0.15687731 -0.2269671 -0.09297142 -0.07680219
-0.035141718 -0.044930767 0.16484565 -0.16976145 0.06285518 -0.21610855 0.02135979 0.014580442
-0.21028058 -0.03592337 0.1742303 0.26939178 -0.086230956 -0.034307495 0.111169174 0.13533148
0.3108493 0.0016417416 0.25844336 -0.032177415 -0.05430994 0.06011961 0.1565382 -0.067493476
-0.00475424 -0.07437652 0.013582314 -0.22671615 -0.08493021 0.15299882 0.044955086 0.14428744
0.16400412 0.007896683 0.25880647 -0.07926028 -0.12660544 0.045257445 -0.02168217 -0.012592107
-0.06961056 -0.03947177 0.09311291 0.0715465 -0.06652515 -0.040475007 0.19200343 -0.088292025
0.32093722 -0.018520882 0.07192296 -0.08156213 0.17420287 0.18815124 0.083617225 0.13321923
0.2326717 0.15233521 0.28467202 -0.020641472 0.13005596 -0.02327892 0.18355736 -0.081760705
-0.21150705 -0.23322222 -0.19102561 -0.13164628 0.1224951 0.010581548 0.09790983 -0.10042205
0.025366925 -0.0061685382 0.12549463 0.34189728 0.039703347 -0.012551403 -0.12596023 -0.07836251
-0.009936105 -0.043045472 0.049962945 0.1159949 -0.16941254 -0.001369646 -0.057295322 -0.1288761
-0.15314716 0.078165345 -0.015890758 0.041912664 -0.116173215 0.1435459 0.027138742 0.016813742
0.11422538 0.04533095 0.07381739 -0.05482712 -0.1939015 -0.069323696 -0.109975696 0.14424607
-0.1359846 -0.08789762 0.07714421 0.09885745 -0.23793513 -0.15219803 0.052794762 0.18786791
-0.039372165 0.036823478 0.019320259 -0.1738001 -0.17665485 -0.023059191 0.16363761 0.09917908
-0.07915778 -0.11115393 0.23803784 -0.09286863 -0.0869788 -0.071565144 0.076205954 0.02250439
-0.15621008 0.1081202 -0.069918334 0.1010428 0.08337085 -0.011330119 0.05726563 -0.0001366216
00000000: 1a80 40be 59e7 ccbc 6a4f 7f3e 693c 91bd
00000010: 26be 283e b93e 01be e8ae e5bc e8d1 373d
00000020: af52 33be 0c64 fb3d fc5e fa3d 8957 593e
00000030: 4ceb 67bd b6e3 98be 366f f03d 26fb 32be
00000040: 9d35 e4bc 34b9 393e fc94 6d3d 64fd a33d
00000050: 8236 0abe fd7b f0bc 90c6 5c3d d7ba 17be
00000060: 0246 803c c522 b83d 2bce 68be f9aa 9abd
00000070: 0b8f 403c 83c5 38bd 0400 9ebd 3ae3 023d
00000080: 1a04 2ebe 3122 80bd 669f 423c 7bd2 f3bc
00000090: c404 113e 250e f9bd 208e 533d 1656 9abd
000000a0: 3b72 703e 79ef b9bb b52d b8bc 7da1 ccbd
000000b0: d65c e03b 8523 463d dce0 003e 6cbd e33d
000000c0: c940 673c f3af 87bc 37c7 1abe 1bdc 0dbc
000000d0: 15fc 75bc 35ca 0a3e d4ac 5abd a827 1ebe
000000e0: bd50 f2bd 575e c4bc f814 c8bc 6a27 4c3d
000000f0: 8868 213e 27ec 06be 2014 23bd b4ba 3fbd
00000100: 93e2 fdbd 7bd8 9fbb 5bc9 d0bc 559e f53b
00000110: 1c15 a0bd e874 ddbd ef4b 2e3e 3562 d3bb
00000120: da5d 523e 42db 12be a0b5 15be 6c92 3f3e
00000130: 274e 363e 3cc9 39be 9fe5 32bd 6f7e a33d
00000140: 1aaa 07be fb40 683e 4e71 1dbd 7bb5 233e
00000150: 2a86 603e 2937 8d3e e26b c1bd de22 9dbd
00000160: dd68 2f3d 1f3c e3bd 050e f7bd 403e 9ebd
00000170: cf22 e7bc 1094 07be 4c12 c3bd cc6d 113e
00000180: a4e1 293e f25b 09be ce1d b2bc 3599 d13d
00000190: c621 633d abbe 0fbe 829c 6dbd d096 313e
000001a0: d843 39be 659b 89be fb35 3dbd e9d1 bebd
000001b0: 700b ec3d f9b2 3cbc d534 703d f9fa 813e
000001c0: de0f 36bd 0611 313e 4cf8 07bd 342f 7b3e
000001d0: 72a4 20be 106a 68be cd67 bebd 774a 9dbd
000001e0: c3f0 0fbd 5309 38bd 4ccd 283e f2d5 2dbe
000001f0: 37ba 803d 8f4b 5dbe bafa ae3c cee2 6e3c
00000200: cb53 57be 6224 13bd 6e69 323e b8ed 893e
00000210: db99 b0bd 0486 0cbd aaac e33d 5694 0a3e
00000220: a427 9f3e b52f d73a b052 843e 77cc 03bd
00000230: 1a74 5ebd fb3f 763d 8d4b 203e 053a 8abd
00000240: 75c9 9bbb b852 98bd 5b88 5e3c 4728 68be
00000250: e4ef adbd b9ab 1c3e d322 383d 16c0 133e
00000260: b2f0 273e 1761 013c 4882 843e 3753 a2bd
00000270: dba4 01be df5f 393d ce9e b1bc 204f 4ebc
00000280: fb8f 8ebd 27ad 21bd fbb1 be3d f986 923d
00000290: 563e 88bd 1fc9 25bd 8c9c 443e 73d2 b4bd
000002a0: e251 a43e 1bb9 97bc 584c 933d 0c0a a7bd
000002b0: 3d62 323e b8aa 403e 823f ab3d 9f6a 083e
000002c0: 7d41 6e3e c3fd 1b3e 88c0 913e 4e18 a9bc
000002d0: 642d 053e 6fb3 bebc 76f6 3b3e 2872 a7bd
000002e0: 4e95 58be ced1 6ebe 389c 43be 48ce 06be
000002f0: b6de fa3d 3b5e 2d3c f384 c83d 13aa cdbd
00000300: 4cce cf3c 7321 cabb aa81 003e 290d af3e
00000310: fa9f 223d 66a4 4dbc b8fb 00be 867c a0bd
00000320: 0ccb 22bc 7350 30bd f2a5 4c3d bc8e ed3d
00000330: 7b7a 2dbe b285 b3ba 80ae 6abd 19f8 03be
00000340: 9cd2 1cbe 2715 a03d 562d 82bc 9dac 2b3d
00000350: 39ec edbd b2fd 123e 1152 de3c f9bc 893c
00000360: ffee e93d f2ac 393d 922d 973d 6792 60bd
00000370: 1d8e 46be 95f9 8dbd f03a e1bd 3eb5 133e
00000380: 8c3f 0bbe ab03 b4bd c9fd 9d3d c675 ca3d
00000390: 44a5 73be cdd9 1bbe 523f 583d 7260 403e
000003a0: b544 21bd 37d4 163d 8545 9e3c a7f8 31be
000003b0: 02e5 34be a1e6 bcbc 9e90 273e 671e cb3d
000003c0: 791d a2bd aca4 e3bd 31c0 733e e931 bebd
000003d0: f121 b2bd bf90 92bd de11 9c3d 205b b83c
000003e0: 89f5 1fbe 206e dd3d 5831 8fbd 87ef ce3d
000003f0: 56be aa3d f7a1 39bc 5e8f 6a3d 1542 0fb9

conv3.conv1.0.bias f4 [32]
-0.036424667 0.056962464 -0.06951145 0.0055888174 0.075665444 -0.005267109 -0.0813037 -0.022207912
-0.0060541355 -0.02045066 0.058933455 -0.07950488 -0.06685524 -0.056443997 -0.009398308 -0.079112604
-0.04778372 -0.038792115 0.06554007 -0.082557544 0.025265208 -0.011988481 0.043490034 0.010699949
-0.019054193 -0.026687754 0.062017497 -0.048669107 -0.023544159 -0.06513364 0.05863952 0.020304073
00000000: 0832 15bd 7951 693d 055c 8ebd 6622 b73b
00000010: 7cf6 9a3d b697 acbb 8e82 a6bd 5eed b5bc
00000020: c561 c6bb 2488 a7bc 3564 713d 74d3 a2bd
00000030: 66eb 88bd d231 67bd 5cfb 19bc ca05 a2bd
00000040: ddb8 43bd 7be4 1ebd df39 863d ee13 a9bd
00000050: fbf8 ce3c 556b 44bc 9b22 323d d74e 2f3c
00000060: 8a17 9cbc 47a0 dabc 0f06 7e3d 4259 47bd
00000070: aedf c0bc c964 85bd fe2f 703d ba54 a63c

conv3.conv1.1.weight f4 [32]
0.9271762 1.0404271 1.0388888 1.1205502 0.9583103 1.0075798 0.9852304 1.0146993
0.9419623 1.016447 0.929018 1.0573428 1.0030622 0.97232974 0.9190718 0.9531741
1.0227417 1.0198275 1.0357366 1.0353837 0.9940281 1.0089483 1.0697713 1.09518
1.0019412 0.9534646 0.96216935 1.012828 0.9987462 1.0096195 1.0241051 0.9730103
00000000: 6b5b 6d3f b72c 853f 4ffa 843f 306e 8f3f
00000010: d353 753f 60f8 803f 0f38 7c3f abe1 813f
00000020: 7124 713f ef1a 823f 20d4 6d3f 0257 873f
00000030: 5864 803f 9aea 783f 4a48 6b3f 3803 743f
00000040: 33e9 823f b589 823f 0493 843f 7487 843f
00000050: a078 7e3f 3825 813f 44ee 883f dc2e 8c3f
00000060: 9c3f 803f 4216 743f bb50 763f 59a4 813f
00000070: d5ad 7f3f 363b 813f e015 833f 3417 793f

conv3.conv1.1.bias f4 [32]
-0.054870915 0.040072422 0.014709846 -0.008332193 0.011762937 0.03098517 -0.06408715 0.017059095
-0.012002502 0.03829652 -0.01366779 0.010205992 0.05372639 -0.02111326 -0.048247844 -0.018382812
0.0024348523 -0.012353863 -0.003954327 -0.046768423 -0.006068594 -0.023885427 -0.03866531 0.030238537
-0.01338172 -0.011417102 0.039126858 0.026966976 0.030376904 -0.020023271 -0.02614386 -0.043287028
00000000: 53c0 60bd fb22 243d 9101 713c c083 08bc
00000010: 55b9 403c 9cd4 fd3c 2040 83bd 84bf 8b3c
00000020: 24a6 44bc d0dc 1c3d deee 5fbc 0837 273c
00000030: 3410 5c3d b7f5 acbc 889f 45bd 8d97 96bc
00000040: 0b92 1f3b db67 4abc 4d93 81bb 3f90 3fbd
00000050: 0edb c6bb 5fab c3bc 845f 1ebd cfb6 f73c
00000060: 003f 5bbc cc0e 3bbc 7c43 203d d9e9 dc3c
00000070: fcd8 f83c d807 a4bc a62b d6bc bd4d 31bd
