checkpoints/ifind1_sononet_8_6classes/013_net_6classes_new_emb002.pth (torch_old, 671819 bytes, 90 tensors)

conv1.conv1.0.weight f4 [8, 1, 3, 3]
0	0xbe555d9f	-0.20836495
1	0x3f510d7f	0.8166122
2	0x3eddd8f0	0.43329573
3	0x3e512b5a	0.20426694
4	0xbee7c65c	-0.45268524
5	0x3f0e888a	0.5567709
6	0xbe1195bb	-0.14217274
7	0x3eb6e64c	0.35722578
8	0xbf246ab8	-0.6422534
9	0x3f08dce5	0.5346206
10	0x3f1a499e	0.6026858
11	0xbeefaaa7	-0.46809885
12	0x3f1c77d1	0.61120325
13	0x3f44d3f2	0.768859
14	0xbf454a61	-0.7706662
15	0xbe274589	-0.1633512
16	0x3f500cc2	0.81269467
17	0x3e92b32f	0.2865233
18	0x3f4b078f	0.7930841
19	0xbf433453	-0.76251715
20	0xbe45c095	-0.19311745
21	0xbd14ba65	-0.036310572
22	0x3d504f5f	0.050856944
23	0x3c2a2578	0.01038491
24	0xbf4336e1	-0.76255614
25	0xbda46c1c	-0.08028433
26	0x3fa8f9b7	1.3201207
27	0x3f1e1e54	0.6176503
28	0x3f2d9b1f	0.6781482
29	0x3f87e1c8	1.0615778
30	0xbf29f6f2	-0.66392434
31	0xbefdb87d	-0.49554816
32	0xbd267590	-0.04063946
33	0xbf1af708	-0.6053319
34	0xbf4124f9	-0.7544704
35	0xbc482ea1	-0.012218148
36	0x3df95bdc	0.12175724
37	0x3d1fdad6	0.039027058
38	0xbf94f352	-1.1636755
39	0xbee5d08b	-0.44885668
40	0xbddab72d	-0.10679469
41	0x3ec19f71	0.37816957
42	0x3ec5344d	0.38516465
43	0x3d631e9e	0.05544912
44	0x3f3bf8f0	0.73426723
45	0xbe43bed9	-0.19115771
46	0x3e896a7a	0.26839048
47	0x3f11b1f6	0.5691217
48	0xbeec9979	-0.4621084
49	0xbefaa6a4	-0.48955262
50	0x3d95d4bc	0.073159665
51	0xbe9f54c4	-0.3111936
52	0x3e6015b3	0.21883278
53	0x3f5e32df	0.86796373
54	0xbf1492ed	-0.5803669
55	0x3f0fb2c9	0.5613218
56	0x3e07aa09	0.13248457
57	0x3dd8a3f6	0.10578148
58	0xbdf90718	-0.12159556
59	0x3d077ad8	0.033076137
60	0x3f366a6c	0.71256137
61	0xbeb438ee	-0.35199684
62	0x3cb1b251	0.021691473
63	0xbe604ad0	-0.21903539
64	0xbea3b1b2	-0.31971508
65	0x3f39cee4	0.72581315
66	0x3cebdfe0	0.028793275
67	0xbf32ec72	-0.69892037
68	0xbf078ba3	-0.52947444
69	0x3d227baa	0.039668716
70	0xbf0fd595	-0.56185275
71	0x3f69b96d	0.9129856

conv1.conv1.0.bias f4 [8]
0	0x3ea43551	0.32071927
1	0xbe8cd18f	-0.2750363
2	0xbea94188	-0.3305781
3	0xbe857e59	-0.26072958
4	0xbe658d37	-0.2241715
5	0x3e0a3180	0.13495445
6	0x3df465c9	0.119334765
7	0x3e8dc70f	0.27690932

conv1.conv1.1.weight f4 [8]
0	0x3f642707	0.8912205
1	0x3f699bfb	0.9125363
2	0x3f7d13f5	0.98858577
3	0x3fac0999	1.3440429
4	0x3f821009	1.0161144
5	0x3f85d6d1	1.0456182
6	0x3f410b79	0.7540813
7	0x3f5ec385	0.8701709

conv1.conv1.1.bias f4 [8]
0	0x3ec05252	0.37562805
1	0xbe3c026b	-0.18360297
2	0x3f04c7bc	0.5186727
3	0x3ec6669a	0.38750154
4	0x3e70c500	0.2351265
5	0x3f06ad26	0.52607954
6	0xbcb3c583	-0.021944767
7	0xbd0af3d9	-0.033923957

conv1.conv1.1.running_mean f4 [8]
0	0x3ea46cf3	0.32114372
1	0xbe8cb9d1	-0.27485517
2	0xbea85491	-0.3287702
3	0xbe851484	-0.25992215
4	0xbe656de7	-0.22405206
5	0x3e0b6125	0.13611276
6	0x3df5ea31	0.12007559
7	0x3e8e9c79	0.27853754

conv1.conv1.1.running_var f4 [8]
0	0x3f6b0a63	0.91812724
1	0x40993a95	4.788401
2	0x3e2f216b	0.17102592
3	0x3f34e3b0	0.70659924
4	0x3e5e0e5a	0.21685162
5	0x3eb927e7	0.36163256
6	0x3e8d60b8	0.27612853
7	0x3ee51440	0.44742012

conv1.conv2.0.weight f4 [8, 8, 3, 3]
0	0x3c7a2acf	0.015268995
1	0x3ebeadef	0.37242076
2	0x3cc60a02	0.024174694
3	0xbd85f207	-0.06540304
4	0x3e174e0d	0.14775868
5	0xbd988632	-0.07447471
6	0xb9543019	-0.00020235813
7	0x3e436025	0.19079645
8	0xbe18c9b1	-0.14920689
9	0xbe8b8e3a	-0.27256948
10	0x3e658367	0.22413407
11	0x3e7a6d72	0.24455813
12	0xbe1ae33c	-0.15125746
13	0x3e071b96	0.13194117
14	0x3df7a751	0.1209246
15	0xbe692f4f	-0.22771953
16	0xbe64dfff	-0.22351073
17	0xbde748a4	-0.11293152
18	0x3d4c913f	0.049943205
19	0xbecdf390	-0.40224886
20	0xbe40eaed	-0.18839617
21	0xbedf7c31	-0.43649438
22	0xbe772afb	-0.2413749
23	0xbdb9d7a6	-0.09074335
24	0xbdc1812f	-0.09448468
25	0x3ed96ed4	0.42467368
26	0x3e8ec302	0.27883154
27	0x3ddfed2f	0.10933911
28	0xbdeced6c	-0.11568722
29	0x3e6375de	0.22212932
30	0xbd44c32c	-0.048037693
31	0xbe07ebea	-0.13273588
32	0xbd8170d8	-0.06320351
33	0x3e587b92	0.21140888
34	0x3ea01a35	0.31269994
35	0xbdacbb4d	-0.08434162
36	0x3e48c3f1	0.19605996
37	0xbcd82f2f	-0.026389686
38	0x3c9af60b	0.01891615
39	0xbdeff909	-0.117174216
40	0xbd2790a5	-0.04090943
41	0xbd3b8f65	-0.04579105
42	0xbe6b855c	-0.23000091
43	0x3e0f0164	0.13965374
44	0x3e428edf	0.18999813
45	0x3eaef9ab	0.34174857
46	0x3db5af2e	0.088713035
47	0xbe3e1d6d	-0.18565913
48	0xbeb6a3e7	-0.35671923
49	0xbe3d3857	-0.18478523
50	0xbe07863d	-0.13234802
51	0x3f143c93	0.5790493
52	0x3d903d18	0.07042903
53	0x3e8ace91	0.27110723
54	0xbe38d57b	-0.18050186
55	0x3d444c2a	0.0479242
56	0x3e5b8add	0.21439691
57	0x3e176c62	0.14787439
58	0x3d93cdd5	0.07216994
59	0xbe00e904	-0.12588888
60	0x3d0dd191	0.034623686
61	0x3ca9a130	0.020706743
62	0xbe8c594f	-0.27411887
63	0xbe90e11b	-0.28296742
64	0xbeaca030	-0.33715963
65	0x3da02901	0.07820321
66	0xbde1d109	-0.110261984
67	0xbdeb5361	-0.11490513
68	0xbe309c8a	-0.17247215
69	0xbd96f2ac	-0.07370505
70	0xbe819927	-0.25312158
71	0xbe096d77	-0.13420664
72	0x3e8b8578	0.27250266
73	0xbd941dba	-0.072322324
74	0x3e450615	0.19240601
75	0x3dab0610	0.08350766
76	0x3df2b01b	0.11849996
77	0x3eb55c94	0.35422194
78	0x3e83898e	0.25690883
79	0x3ed5c667	0.4175293
80	0x3df7d05e	0.1210029
81	0x3d8f29f7	0.06990426
82	0x3e90babf	0.28267476
83	0x3ea58c93	0.32333812
84	0xbe2c2ac2	-0.16813186
85	0xbcdba062	-0.026809875
86	0xbcd28df6	-0.025702458
87	0xbe011dac	-0.12608975
88	0xbeab41d0	-0.33448648
89	0xbe1dd482	-0.15413097
90	0xbc2f4de4	-0.010699723
91	0x3bfda81f	0.007740989
92	0x3eec9071	0.4620395
93	0x3d73a0e1	0.059479598
94	0x3e2905ea	0.16506162
95	0x3ee239e8	0.44184804
96	0x3e2dcd04	0.16972739
97	0x3d82227d	0.06354234
98	0xbdb2606f	-0.087097995
99	0xbec05035	-0.37561193
100	0xbe87fb16	-0.2655875
101	0x3c8df807	0.017330183
102	0x3d8fa392	0.070136204
103	0xbcb7515a	-0.022377659
104	0x3e95fa1e	0.29292387
105	0x3e14a555	0.14516194
106	0x3c65cbeb	0.014025669
107	0x3e9147b3	0.28375015
108	0xbe0b8592	-0.13625172
109	0xbe274a11	-0.16336848
110	0x3e2aa536	0.16664585
111	0x3d18137e	0.037127964
112	0xbe1e5c34	-0.1546486
113	0xbe03b0f7	-0.12860475
114	0x3ca4a06e	0.02009603
115	0xbc79186a	-0.015203575
116	0xbea1795d	-0.31537905
117	0xbd9ca5dc	-0.07648823
118	0x3f10f323	0.56621
119	0x3f19ba32	0.60049736
120	0xbe63a00c	-0.22229022
121	0x3dfefdbe	0.12450741
122	0x3e325a23	0.17417197
123	0xbba6a565	-0.0050856345
124	0x3e270032	0.16308668
125	0xbd39828c	-0.045290515
126	0xbdee24ea	-0.116281345
127	0x3e797fd4	0.24365169
128	0x3dfee101	0.1244526
129	0xbe2d17c9	-0.16903605
130	0x3d3e55d8	0.046468586
131	0x3d82f12c	0.06393656
132	0xbdc09396	-0.0940315
133	0xbd207ef3	-0.03918357
134	0xbb1b6a54	-0.00237145
135	0xbe4513d8	-0.19245851
136	0xbe1c188b	-0.15243737
137	0xbc404fd3	-0.011737782
138	0xbd86c93f	-0.065813534
139	0x3e686047	0.22692977
140	0xbdc6a58d	-0.09699545
141	0x3d009d3c	0.03139995
142	0xbd8a86a6	-0.067639634
143	0x3e074d7f	0.13213156
144	0xbe77dcd5	-0.24205334
145	0xbcaf9a11	-0.02143577
146	0xbaf2b3fe	-0.0018516777
147	0x3cba48a9	0.022739725
148	0x3e4a5c53	0.19761781
149	0xbe4cf6c1	-0.20016004
150	0x3e0805dc	0.13283485
151	0xbd6a9b97	-0.05727729
152	0xbcd72e6a	-0.02626725
153	0xbe98fc07	-0.29879782
154	0xbd9f9f20	-0.077940226
155	0x3da0f34b	0.078589045
156	0x3d454d48	0.048169404
157	0x3e36dcfa	0.17857733
158	0x3e291e88	0.16515553
159	0xbe0e4b56	-0.13895926
160	0x3d4bdcfd	0.049771298
161	0x3ea32231	0.31862023
162	0x3db24046	0.087036654
163	0x3ebbdcc4	0.36691868
164	0x3df49be2	0.11943795
165	0xbd8422d5	-0.06451956
166	0x3e1f8678	0.1557864
167	0xbeba2354	-0.36355078
168	0xbe582bd3	-0.21110468
169	0x3cd79653	0.026316797
170	0x3e39a69a	0.1812996
171	0xbda552b2	-0.080724135
172	0xbe708649	-0.23488726
173	0xbc74efd4	-0.014949758
174	0xbd53e6ca	-0.05173377
175	0xbc08e7a6	-0.008356011
176	0x3c30305a	0.010753715
177	0xbeb3122e	-0.34974808
178	0x3b9830b1	0.0046444763
179	0x3c0c4e7a	0.008563632
180	0x3e11fc7d	0.14256473
181	0x3ea15955	0.31513467
182	0x3e1e0120	0.15430117
183	0x3e1830cf	0.14862369
184	0xbd1dd43f	-0.03853249
185	0x3e0f4b6a	0.13993612
186	0x3d617d4c	0.055051133
187	0xbdcc6780	-0.099806786
188	0x3e7cc063	0.24682765
189	0x3c0e1b75	0.008673538
190	0xbdf9830d	-0.12183199
191	0x3c92c6e1	0.017917098
192	0x3d8ccf32	0.06875457
193	0x3d086845	0.033302564
194	0x3e403bb9	0.18772782
195	0x3f239812	0.63903916
196	0x3e5fac35	0.21843036
197	0x3e791b05	0.24326713
198	0x3d3f07da	0.046638347
199	0xbe4ceb9f	-0.20011757
200	0x3d7a4e92	0.061110087
201	0x3d6bbabf	0.05755114
202	0xbd20a0ce	-0.039215855
203	0x3d88c0ef	0.06677424
204	0x3e7b5a3a	0.24546137
205	0xbd96eb5e	-0.073691115
206	0x3d57070c	0.052496955
207	0xbdbd9613	-0.0925714
208	0x3c7e4042	0.01551825
209	0xbb58e4ea	-0.0033095428
210	0x3e14f441	0.145463
211	0x3ddce093	0.10785022
212	0xba7e5e1b	-0.0009703354
213	0xbdfc80b6	-0.12329237
214	0xbd630baa	-0.055431046
215	0x3e077461	0.13227989
216	0xbd2485f8	-0.040166825
217	0x3db4527c	0.08804795
218	0x3d044726	0.032294415
219	0x3d8aaeb3	0.067716025
220	0x3c76d82c	0.015066188
221	0x3d2bc7cf	0.0419386
222	0xbda4d602	-0.08048631
223	0x3e4efcd1	0.2021363
224	0xbbb6a0d2	-0.0055733705
225	0xbd25b044	-0.040451303
226	0xbd552089	-0.05203298
227	0xbb34f901	-0.0027614238
228	0xbd4d967e	-0.05019235
229	0xbcd648f9	-0.026157843
230	0x3d421720	0.047385335
231	0xbcafb559	-0.021448778
232	0xbe115fea	-0.14196745
233	0x3e1c341b	0.15254252
234	0x3e47e51f	0.19520997
235	0xbdb17ed3	-0.08666768
236	0xbe2b97f9	-0.16757192
237	0x3e51c96f	0.20486997
238	0x3bf755ee	0.0075480854
239	0x3e69706f	0.22796796
240	0xbca9f450	-0.02074638
241	0xbdb3900d	-0.0876771
242	0xbcd561d4	-0.026047625
243	0x3dc94189	0.09826953
244	0x39f44b95	0.0004659562
245	0x3e26c21c	0.16284984
246	0xbdd126f0	-0.10212505
247	0x3dfb554b	0.12272128
248	0x3e3486c5	0.17629535
249	0xbc59da28	-0.013296641
250	0xbe24e5e2	-0.16103318
251	0xbe0dad35	-0.13835604
252	0x3eb7e29d	0.3591508
253	0x3eb03d9e	0.3442201
254	0x3da6ce37	0.08144801
255	0x3d79abf4	0.060955003

conv1.conv2.0.bias f4 [8]
0	0xbc9ef145	-0.019402156
1	0xbd895b34	-0.06706849
2	0xbc9c1820	-0.019054472
3	0x3dc3b50f	0.095560186
4	0xbdb31c18	-0.08745593
5	0x3cdb05eb	0.02673622
6	0xbded2397	-0.11579054
7	0x3d7cfc9d	0.06176435

conv1.conv2.1.weight f4 [8]
0	0x3f81dcd0	1.0145512
1	0x3f56d968	0.83925486
2	0x3f53f94e	0.82802284
3	0x3f4301a8	0.761744
4	0x3f8145bc	1.0099406
5	0x3f8b1922	1.0867045
6	0x3f7a3605	0.9773868
7	0x3fb7b536	1.4352176

conv1.conv2.1.bias f4 [8]
0	0x3dd2911e	0.10281585
1	0xbdb949e2	-0.09047295
2	0xbb29d8bc	-0.0025916537
3	0xbd470c80	-0.048595905
4	0x3e7b3383	0.24531369
5	0xbd580029	-0.052734528
6	0xbd7ad665	-0.06123962
7	0x3f13853d	0.5762518

conv1.conv2.1.running_mean f4 [8]
0	0xbe408462	-0.188005
1	0x40102485	2.252229
2	0x3f92988e	1.1452806
3	0x3fd338ab	1.6501669
4	0x3eddd964	0.43329918
5	0xc004a4d6	-2.0725608
6	0xbe8cfd24	-0.2753688
7	0xbf1fa091	-0.6235438

conv1.conv2.1.running_var f4 [8]
0	0x3f9825da	1.1886551
1	0x41250a96	10.315084
2	0x40887af7	4.2650104
3	0x40445a4c	3.0680113
4	0x40722018	3.7832088
5	0x40fbda7f	7.870422
6	0x40463de9	3.0975287
7	0x40010a9f	2.0162733

conv1.conv3.0.weight f4 [8, 8, 3, 3]
0	0xbddef0df	-0.10885786
1	0xbe2d20ac	-0.16906995
2	0x3cd8b738	0.026454553
3	0x3e878cd5	0.26474634
4	0x3d4e1b99	0.050319288
5	0x3dd0225b	0.10162803
6	0xbe25ed11	-0.16203715
7	0x3d9e236a	0.077215984
8	0x3d465dd8	0.04842934
9	0xbe96f183	-0.29481134
10	0x3e6e5d45	0.23277767
11	0x3efd5026	0.4947521
12	0xbe31f140	-0.17377186
13	0xbd9db03b	-0.07699629
14	0x3cae2cea	0.021261651
15	0x3da0e819	0.07856769
16	0x3e16637b	0.14686386
17	0xbe1a64f0	-0.15077567
18	0xbe8e2bc7	-0.27767774
19	0x3d1e8126	0.038697384
20	0x3d81b33b	0.063330136
21	0xbe514672	-0.20437029
22	0x3bd9d9c0	0.0066482723
23	0x3e8d699c	0.27619636
24	0xbe8f6f2f	-0.28014514
25	0x3e2087fd	0.15676875
26	0xbe3ce0ac	-0.1844508
27	0xbf061cf0	-0.52387905
28	0x3cb2f572	0.021845553
29	0x3e136e37	0.14397512
30	0xbd86b548	-0.065775454
31	0xbdf87509	-0.12131698
32	0x3e69ffd9	0.22851504
33	0x3d99f53f	0.0751748
34	0xbc01dc0c	-0.007925998
35	0x3d655637	0.055990424
36	0xbd96b48c	-0.07358655
37	0x3e8dfcd2	0.2773195
38	0x3f07e49c	0.53083205
39	0x3e78bfdb	0.24291937
40	0x3ead0e1e	0.33799833
41	0x3e84e7f5	0.2595822
42	0xbd8f3d8b	-0.0699416
43	0xbd97e7e2	-0.07417275
44	0x3e53e0d8	0.2069124
45	0xbe3b4872	-0.18289354
46	0x3a450a29	0.00075164676
47	0xbeb1d345	-0.34731498
48	0x3d93e37d	0.07221124
49	0x3d9e7545	0.07737211
50	0x3e400bc2	0.18754485
51	0x3dc0fd17	0.09423273
52	0xbe87f51a	-0.26554185
53	0x3b24f732	0.0025171754
54	0xbe51a210	-0.20471978
55	0x3c1657e8	0.009176232
56	0x3e2fa068	0.17151034
57	0xbe47dba4	-0.1951738
58	0xbd97aeb3	-0.07406368
59	0x3e884e8f	0.26622435
60	0xbdd269ca	-0.10274084
61	0xbe3946c3	-0.180934
62	0xbe5cb843	-0.21554665
63	0x3c999ae3	0.018750614
64	0xbd00d1e0	-0.031450152
65	0xbdd44bf2	-0.10366048
66	0x3d8af60d	0.06785212
67	0x3db2b1c3	0.087253116
68	0xbe925fe7	-0.28588793
69	0x3df31309	0.11868865
70	0xbe0dff5a	-0.1386694
71	0x3b9d3069	0.0047970307
72	0xbe199f4b	-0.15002172
73	0xbe3fc35d	-0.18726869
74	0x3daf0ef6	0.085477754
75	0x3e17055b	0.14748137
76	0x3e119a68	0.14219058
77	0x3e8cb507	0.27481863
78	0xbbcb134e	-0.0061973697
79	0x3e78001e	0.24218795
80	0xbc559c47	-0.013037748
81	0x3eb2a6d5	0.34892908
82	0xbc8cafdf	-0.017173706
83	0x3d2fd698	0.042929262
84	0xbd4ece0e	-0.050489478
85	0x3cc566ec	0.024096929
86	0x3e2f4580	0.17116356
87	0x3e46709f	0.19378899
88	0x3da90a46	0.08253913
89	0x3e7d6b36	0.24747929
90	0x3e3bae9c	0.18328327
91	0xbd113f70	-0.03546089
92	0x3e555162	0.20831826
93	0xbe9e6600	-0.30937195
94	0xbd85ebfa	-0.065391496
95	0x3d1c298e	0.038125567
96	0x3dd92b90	0.10604012
97	0xbe339645	-0.17537792
98	0x3c6af90c	0.014341604
99	0x3e0b46c3	0.13601212
100	0x3e00b46e	0.12568828
101	0xbc87c27a	-0.016572226
102	0xbd7bd458	-0.061481804
103	0x3e96b0a5	0.29431644
104	0xbe8b163a	-0.27165395
105	0x3e269348	0.16267121
106	0xbe033fc8	-0.128173
107	0xbd9d078c	-0.07667455
108	0x3e8da339	0.27663592
109	0x3edc38d7	0.43012115
110	0x3dc13e26	0.09435682
111	0xbd3e433e	-0.046450846
112	0xbe44b7ce	-0.19210741
113	0x3ddeb30e	0.10873996
114	0xbd678a14	-0.056528166
115	0x3d8ee9e9	0.069782086
116	0x3e84ee5b	0.259631
117	0xbe5c5a26	-0.21518764
118	0x3c3627e9	0.011117914
119	0x3d73696c	0.05942671
120	0xbd07102f	-0.03297442
121	0x3dd81b4a	0.1055208
122	0x3e67e8be	0.22647378
123	0xbcb65ef1	-0.022262068
124	0xbe562bb6	-0.20915112
125	0xbde32dd5	-0.11092726
126	0x3da1aa14	0.07893768
127	0xbd5cd6c7	-0.053915765
128	0xbe1b16d3	-0.15145425
129	0xbdf607a3	-0.12013175
130	0xbd760395	-0.06006201
131	0xbc6a47e7	-0.014299369
132	0xbe1774ad	-0.14790602
133	0xbe19dfb8	-0.15026748
134	0x3d422ed2	0.047407933
135	0x3b4494cb	0.0029995914
136	0xbda5042d	-0.08057437
137	0xbe9810a5	-0.297002
138	0xbe7a091c	-0.24417537
139	0xbe8231c4	-0.25428593
140	0x3e5a5282	0.21320537
141	0xbe02ae09	-0.12761702
142	0x3c9998e5	0.018749664
143	0xbdcbdc59	-0.09954137
144	0xbd009e69	-0.03140107
145	0xbe5704ff	-0.20998
146	0x3e38562f	0.18001626
147	0xbc1ad4b6	-0.009450128
148	0xbe1d59d3	-0.15366296
149	0xbdf125b1	-0.11774767
150	0x3cf098f6	0.029369812
151	0x3e5efa24	0.21775109
152	0xbd9b86ea	-0.07594092
153	0xbe21a7da	-0.15786687
154	0x3d7ec646	0.062200807
155	0xbdc54624	-0.09632519
156	0xbdcb1dc4	-0.09917787
157	0x3e80d21c	0.251603
158	0x3e8c95e4	0.27458107
159	0xbeaa9a47	-0.3332083
160	0x3e88e748	0.26738954
161	0xbcd225d8	-0.02565281
162	0x3dccbfd3	0.09997525
163	0xbe87a1ae	-0.2649054
164	0x3b954e2e	0.004556439
165	0xbe519c26	-0.20469722
166	0xbe41462d	-0.18874426
167	0x3e64791d	0.22311826
168	0xbe73ce22	-0.23809102
169	0x3dc656a3	0.096844934
170	0xbe24e3e2	-0.16102555
171	0x3d090216	0.033449255
172	0x3dee8942	0.116472736
173	0xbe36c987	-0.17850314
174	0xbe2c6bcb	-0.16837995
175	0xbd1633bd	-0.036670435
176	0xbc8d13eb	-0.017221412
177	0xbd80771b	-0.062727176
178	0x3b8197f2	0.003954881
179	0xbde0c019	-0.1097414
180	0x3deabcb2	0.11461772
181	0x3d864e97	0.065579586
182	0xbe09fdca	-0.13475719
183	0xbe086a27	-0.13321744
184	0xbe3ce9e5	-0.18448599
185	0xbedfcf72	-0.43712956
186	0x3d2ee467	0.04269829
187	0x3e107368	0.14106524
188	0xbda2ec41	-0.07955218
189	0x3e6cfdab	0.23143642
190	0xbea14ba9	-0.31503037
191	0x3dbfc8b0	0.0936445
192	0xbce0ffc9	-0.027465718
193	0xbdf634dd	-0.120218016
194	0x3ef06ebd	0.46959487
195	0x3b2e536d	0.0026600019
196	0x3beb76d8	0.007185798
197	0x3d4a999d	0.049462903
198	0xbe3a637e	-0.18202016
199	0xbb22279f	-0.0024742854
200	0x3db8be83	0.09020712
201	0xbeef5e43	-0.46751603
202	0xbdf77e67	-0.12084656
203	0x3cfecae1	0.0311026
204	0xbdd3da8f	-0.10344421
205	0xbe07042d	-0.13185187
206	0xbef3969d	-0.47575846
207	0xbe4f831c	-0.20264858
208	0xbf333e17	-0.70016617
209	0xbcbe4350	-0.023225456
210	0xbd12303e	-0.03569054
211	0x3ebaed1e	0.3650903
212	0x3e91bea7	0.2846577
213	0x3dc882f9	0.09790606
214	0x3db75946	0.089525744
215	0x3f19390c	0.5985267
216	0xbe085b1b	-0.13316004
217	0xbd6f7792	-0.05846364
218	0x3e05ef2a	0.13079515
219	0x3e9f157a	0.31071073
220	0xbe09329d	-0.13398214
221	0xbe1423ed	-0.1446683
222	0x3e9059c8	0.28193498
223	0xbdf341e9	-0.11877806
224	0x3e8c3ab6	0.27388543
225	0x3dc318e9	0.095262356
226	0xbdbbda54	-0.09172502
227	0xbd2e9aa2	-0.042627938
228	0xbe9ef961	-0.31049636
229	0x3e8fddab	0.28098807
230	0xbe6d740f	-0.23188804
231	0x3e8dec20	0.27719212
232	0x3d5f7e7d	0.054563988
233	0xbe336de2	-0.17522386
234	0x3e932eab	0.28746542
235	0xbd8049e6	-0.06264095
236	0xbd9c77ce	-0.076400384
237	0x3ea31a59	0.3185604
238	0x3e35f7b4	0.17770272
239	0x3e795904	0.24350363
240	0x3e3f1314	0.18659621
241	0x3e4d9970	0.20078063
242	0x3e0e5a2e	0.13901588
243	0x3d5688d4	0.052376583
244	0x3d9649d8	0.07338303
245	0xbe686d25	-0.22697885
246	0x3e66bdbe	0.22533318
247	0xbdc31bd3	-0.095267914
248	0x3dd8762f	0.10569417
249	0x3eeaab85	0.45833984
250	0x3e64c5af	0.22341035
251	0x3ce0ef5f	0.027457891
252	0x3d9e11ad	0.07718215
253	0x3de6c5d7	0.11268204
254	0xbd6884b4	-0.05676718
255	0x3d5bce30	0.053663433

conv1.conv3.0.bias f4 [8]
0	0xbd7d7218	-0.061876386
1	0xbb8bff5c	-0.0042723846
2	0x3cb42e89	0.021994846
3	0xbd002c9e	-0.03129255
4	0x3da478db	0.08030864
5	0x3c5281cc	0.012848329
6	0xbddef5c2	-0.10886718
7	0xbc513edb	-0.012771334

conv1.conv3.1.weight f4 [8]
0	0x3f877cd9	1.0584975
1	0x3f448e20	0.76779366
2	0x3f922d4a	1.1420071
3	0x3f5c5ab1	0.86075884
4	0x3faf987c	1.371841
5	0x3f92d8e4	1.147244
6	0x3f4b055e	0.79305065
7	0x3f83c91e	1.0295751

conv1.conv3.1.bias f4 [8]
0	0x3cffb4ea	0.031214196
1	0xbdc2baf7	-0.09508317
2	0x3e8a56e2	0.2701941
3	0x3d9dce64	0.077053815
4	0xbdaef6c9	-0.08543164
5	0x3e91d96b	0.2848619
6	0xbe000df0	-0.12505317
7	0x3df85507	0.12125593

conv1.conv3.1.running_mean f4 [8]
0	0x3da3e8ea	0.08003409
1	0xbd59279e	-0.053016298
2	0xbf00519c	-0.50124526
3	0x3f4994e0	0.7874279
4	0xbe2e7e2a	-0.17040315
5	0xbfac346c	-1.3453498
6	0xbf9bb62f	-1.2164973
7	0xbe564d76	-0.20927987

conv1.conv3.1.running_var f4 [8]
0	0x3ffeb86f	1.9900035
1	0x4040b87a	3.0112596
2	0x40177cf5	2.3670018
3	0x409aaf54	4.8339024
4	0x4078deba	3.8885942
5	0x402ab6a4	2.6673975
6	0x3fd8e698	1.6945372
7	0x4008f237	2.1397836

conv2.conv1.0.weight f4 [16, 8, 3, 3]
0	0xbb3c2118	-0.002870625
1	0xbe694384	-0.22779661
2	0xbc6efb07	-0.014586217
3	0xbe463900	-0.19357681
4	0xbe81e03e	-0.25366396
5	0xbe14caca	-0.14530483
6	0x3d921d50	0.07134497
7	0x3ce2e3d4	0.027696528
8	0x3dfac95c	0.122454375
9	0xbdc49440	-0.09598589
10	0x3c43f5b7	0.011960438
11	0xbea732a3	-0.3265582
12	0x3d008ccb	0.03138427
13	0xbd8bc763	-0.068251394
14	0x3e436152	0.19080094
15	0xbe91bdc8	-0.28465104
16	0x3c6a1e29	0.014289417
17	0xbe9781de	-0.29591268
18	0x3da388fd	0.07985113
19	0x3e1df905	0.15427025
20	0xbdb2efa4	-0.08737114
21	0xbea2f42a	-0.31826907
22	0x3e9673d3	0.29385242
23	0xbe5af886	-0.21383867
24	0x3d8ea40b	0.069648825
25	0x3e287ddb	0.1645426
26	0x3db177aa	0.08665402
27	0x3e5a21fe	0.2130203
28	0x3d73d23a	0.05952666
29	0xbe8390e0	-0.25696468
30	0x3d808ca8	0.06276828
31	0xbd987206	-0.07443623
32	0xbc06999f	-0.008215337
33	0x3b5c8fb9	0.0033655001
34	0xbd9d6830	-0.07685888
35	0x3dd0ff42	0.102049366
36	0x3d08fc6e	0.03344386
37	0x3e2aab41	0.1666689
38	0x3e85faff	0.26168057
39	0xbc95c8e5	-0.01828427
40	0x3e9efa7d	0.31050482
41	0x3db19b57	0.08672207
42	0xbcec1c3a	-0.028822053
43	0xbd35ed6f	-0.044415887
44	0xbd4f2a43	-0.050577413
45	0x3bb1f9a3	0.0054313703
46	0xbe2505b5	-0.16115458
47	0xbe43d94d	-0.19125862
48	0x3cbb0f5e	0.022834476
49	0xbeb160e6	-0.3464424
50	0xbc496af7	-0.012293569
51	0xbe1d64ff	-0.15370558
52	0xbd3d84aa	-0.046269096
53	0xbee91885	-0.4552652
54	0xbdfd7b22	-0.12377001
55	0xbe85cf1b	-0.2613457
56	0xbd4b0346	-0.04956367
57	0x3e8fad59	0.2806194
58	0xbb157539	-0.0022805466
59	0x3e4fc787	0.20290957
60	0x3bf98af4	0.0076154415
61	0xbccd78c0	-0.025081992
62	0x3e869d29	0.2629178
63	0xbe9e0e40	-0.30870247
64	0xbe71a187	-0.23596774
65	0xbd1d8819	-0.03845987
66	0xbe90626f	-0.282001
67	0x3da41d63	0.080134176
68	0x3e505e55	0.20348485
69	0x3e0a8102	0.13525775
70	0x3e030230	0.12793803
71	0xbcd547dc	-0.026035242
72	0x3b98ad0b	0.0046593
73	0x3e8b71b3	0.27235183
74	0x3b67fb22	0.003539749
75	0x3ecae6d7	0.39629242
76	0x3d9e5b05	0.07732204
77	0xbdef502b	-0.11685213
78	0xbc83876d	-0.016055787
79	0x3c2ec26f	0.010666474
80	0xbcffe169	-0.031235414
81	0x3e292a7d	0.16520114
82	0xbdf27e7f	-0.118405335
83	0xbd4bf777	-0.049796548
84	0x3e474742	0.19460776
85	0xbf07aacc	-0.5299499
86	0xbe34fbc9	-0.17674173
87	0x3eddac8b	0.43295702
88	0xbd271510	-0.04079157
89	0x3d8eddc1	0.0697589
90	0xbe84ff7b	-0.25976166
91	0x3e18b1c2	0.14911559
92	0x3deed585	0.11661819
93	0xbd5138ac	-0.051079437
94	0x3e1a6290	0.15076661
95	0xbe48f575	-0.19624884
96	0xbe853906	-0.26020068
97	0xbda681c0	-0.081302166
98	0xbd06382d	-0.032768417
99	0xbc506703	-0.012719872
100	0x3c5d86b0	0.0135208815
101	0xbe05bf5c	-0.13061279
102	0xbe714021	-0.2355962
103	0xbcfa7413	-0.030572927
104	0xbec13ceb	-0.3774179
105	0x3e08a4c9	0.1334411
106	0xbcf117ce	-0.029430296
107	0xbe1eba52	-0.15500763
108	0xbec2a35d	-0.3801526
109	0xbd44bc8e	-0.048031382
110	0xbdd57bbc	-0.10423991
111	0x3de2aec4	0.1106849
112	0x3d54c78d	0.05194812
113	0x3e207bc6	0.15672216
114	0x3e46e0ba	0.19421664
115	0xbc9e9487	-0.019357933
116	0x3e60d052	0.21954468
117	0xbdc62d24	-0.09676579
118	0x3e81bcec	0.25339448
119	0xbe5bc930	-0.21463466
120	0xbe73d568	-0.23811877
121	0xbe4f428d	-0.20240231
122	0xbe13a458	-0.14418161
123	0xbe2463f7	-0.16053759
124	0xbe3e56e4	-0.18587834
125	0x3e37b4f3	0.1794012
126	0xbe5189ce	-0.20462725
127	0x3d945c76	0.07244198
128	0x3e10ca0b	0.14139573
129	0xbe13f240	-0.1444788
130	0xbdb77507	-0.08957868
131	0x3e88aa57	0.2669246
132	0xbe549e77	-0.20763575
133	0x3e35cc48	0.17753708
134	0xbe932405	-0.28738418
135	0xbec94366	-0.39309233
136	0xbdfe0f6f	-0.124052875
137	0x3e2369e5	0.15958364
138	0xbe26ba21	-0.1628194
139	0x3ba118c3	0.004916282
140	0xbcbcb003	-0.023033148
141	0xbddab9ba	-0.10679956
142	0x3c0c3ab7	0.008558921
143	0x3d0a0953	0.0337003
144	0xbd0f19e7	-0.03493681
145	0xbec67d20	-0.38767338
146	0x3d476e7e	0.048689358
147	0x3e27414a	0.163335
148	0xbb34127a	-0.0027476833
149	0x3dd96b48	0.106161654
150	0xbe082cde	-0.13298365
151	0x3e789f43	0.24279504
152	0x3dc00e43	0.0937772
153	0xbe42c9a2	-0.1902223
154	0x3dbfa133	0.09356918
155	0x3e56a574	0.20961553
156	0x3e9efbbc	0.31051433
157	0x3d163cc0	0.03667903
158	0x3d716e8f	0.058943328
159	0xbd813fe9	-0.06311018
160	0xbe054251	-0.13013579
161	0x3d89fbae	0.06737457
162	0x3cf5f53e	0.030024167
163	0x3e4045b8	0.18776596
164	0xbd421284	-0.04738094
165	0xbe7986a5	-0.24367769
166	0x3ec03a68	0.3754456
167	0xbe3cc07b	-0.184328
168	0xbe494f43	-0.19659142
169	0x3e00d155	0.12579854
170	0xbde37b21	-0.11107469
171	0xbe17d25e	-0.14826342
172	0xbecb4369	-0.39699867
173	0xbd9ec4f6	-0.07752411
174	0x3d239e4c	0.039945886
175	0x3ddeaea4	0.10873154
176	0x3e05d7c1	0.13070585
177	0xbae70a1a	-0.0017626912
178	0xbdcf8269	-0.10132296
179	0x3ec3330c	0.38124883
180	0x3e5d4c48	0.2161113
181	0x3e183067	0.14862214
182	0x3d5e0f8d	0.05421405
183	0x3ea2485f	0.3169584
184	0x3d941843	0.0723119
185	0xbe064f6f	-0.13116239
186	0xbdcb8d59	-0.09939069
187	0xbeb25316	-0.34829015
188	0xbd1edf48	-0.038787156
189	0x3d204c6a	0.039135374
190	0xbe306be0	-0.17228651
191	0x3da161a7	0.07879954
192	0xbdb2e084	-0.08734229
193	0x3e07c7bf	0.13259791
194	0x3e6f55d4	0.23372585
195	0x3e1ed5cc	0.15511245
196	0x3eb75e9c	0.3581437
197	0x3d326ca0	0.043560624
198	0xbde2ebb8	-0.11080116
199	0xbe2f373d	-0.17110915
200	0xbe8e84d7	-0.27835724
201	0xbdf8d3d9	-0.12149782
202	0x3ab95339	0.0014139182
203	0x3d23c3cc	0.03998165
204	0x3c26c82f	0.010179563
205	0xbd1384c4	-0.036015287
206	0x3bf96e6f	0.0076120417
207	0x3e6bd420	0.23030138
208	0x3e1255b7	0.1429051
209	0xbf039e56	-0.51413476
210	0x3e162eaa	0.14666238
211	0x3c00fc36	0.007872632
212	0x3e319cdf	0.17344998
213	0x3b1f7343	0.0024330176
214	0xbd84e02a	-0.064880684
215	0x3efc90e9	0.49329308
216	0x3e7c667f	0.24648474
217	0x3d6d9b23	0.058009278
218	0x3dcc551f	0.09977173
219	0xbe0214f1	-0.12703301
220	0xbc9c5644	-0.019084103
221	0x3df1d68c	0.118085
222	0xbe951263	-0.2911559
223	0x3c4cead5	0.01250716
224	0x3e6361d6	0.2220529
225	0xbd9c04f6	-0.07618134
226	0x3d3c404a	0.04595975
227	0xbe314295	-0.17310555
228	0xbe2e9b28	-0.17051375
229	0x3c88d47b	0.016702881
230	0x3de0fabe	0.10985325
231	0xbec87e90	-0.3915906
232	0xbdaecd71	-0.085352786
233	0xbd64d06c	-0.05586283
234	0xbd6f5fc0	-0.058440924
235	0x3e18cec0	0.14922619
236	0x3e3e0923	0.18558173
237	0x3ebf439a	0.37356263
238	0x3e8d03dd	0.2754201
239	0xbd7e7d09	-0.06213096
240	0xbe1a2d76	-0.15056404
241	0x3d1362f4	0.03598304
242	0xbe784b90	-0.24247575
243	0xbe7c7be6	-0.24656639
244	0xbce24507	-0.027620805
245	0x3e68902f	0.22711252
246	0xbe7526b7	-0.2394055
247	0xbe3bd6c2	-0.18343642
248	0xbe8790f6	-0.26477784
249	0x3e8f37d5	0.27972284
250	0x3d941874	0.072312266
251	0x3c90700b	0.017631551
252	0x3d24748e	0.040150218
253	0xbd9c70d1	-0.076387055
254	0xbeaab9f4	-0.33344996
255	0xbc912911	-0.017719777

conv2.conv1.0.bias f4 [16]
0	0xbc8c1be1	-0.017103137
1	0xbdc595a5	-0.09647683
2	0x3ce27cc9	0.027647393
3	0x3d1016ea	0.035178103
4	0xbdbeeebf	-0.09322881
5	0xbdd87626	-0.1056941
6	0x3c4a7b6c	0.012358528
7	0x3deb9f77	0.11505025
8	0xbdd7d460	-0.10538554
9	0xbd6c7583	-0.057729255
10	0xbd266c96	-0.0406309
11	0xbdd5238a	-0.10407169
12	0xbd949295	-0.07254521
13	0x3dbd66a9	0.092480965
14	0x3db88c56	0.09011142
15	0xbdb184bc	-0.08667895

conv2.conv1.1.weight f4 [16]
0	0x3f89f5e2	1.0778162
1	0x3f6f227b	0.9341199
2	0x3f50a842	0.8150674
3	0x3f7f5281	0.99735266
4	0x3f910196	1.1328609
5	0x3f991a4a	1.1961148
6	0x3f6b8735	0.92003185
7	0x3f8292bd	1.0201031
8	0x3f890b31	1.070654
9	0x3f667028	0.90014887
10	0x3f8550f0	1.0415325
11	0x3f7d6d7b	0.9899518
12	0x3f87ce87	1.0609902
13	0x3f7b7b00	0.9823456
14	0x3f7de8e6	0.991835
15	0x3f854464	1.0411496

conv2.conv1.1.bias f4 [16]
0	0x3de71384	0.11283019
1	0xbda8b7fa	-0.08238216
2	0xbdb27ec7	-0.08715587
3	0x3d093d88	0.033505946
4	0xbce01018	-0.027351424
5	0xbdf8d3c0	-0.12149763
6	0x3d52a2cb	0.051424783
7	0x3b04edcf	0.0020283347
8	0xbd009e7b	-0.03140114
9	0xbd197df9	-0.037473653
10	0x3aa66bda	0.0012696937
11	0x3d38d72f	0.04512709
12	0x3d54d613	0.05196197
13	0xbe158dff	-0.14604948
14	0x3d057029	0.032577667
15	0xbe06dd43	-0.13170342

conv2.conv1.1.running_mean f4 [16]
0	0xbf8f8a89	-1.1214153
1	0xbfc1667f	-1.5109404
2	0x3f7c1dcb	0.9848296
3	0x3d1a21b3	0.037629794
4	0xbf8d6e42	-1.1049273
5	0xc07a8be2	-3.9147878
6	0xbf251af7	-0.6449427
7	0x3f999cd4	1.2000985
8	0xbfe40e5b	-1.7816881
9	0x3eac8e5a	0.33702356
10	0xc01e3b7b	-2.4723804
11	0xbf55f0bf	-0.83570474
12	0xbf059c6c	-0.52191806
13	0x3fd6f135	1.679236
14	0xbf999eb8	-1.2001562
15	0xc02060d3	-2.5059097

conv2.conv1.1.running_var f4 [16]
0	0x40964551	4.6959615
1	0x3fc90e04	1.5707402
2	0x3fb57d0b	1.4178785
3	0x40674add	3.6139443
4	0x4045d1ab	3.090922
5	0x407367f8	3.8032207
6	0x40310282	2.765778
7	0x401c6503	2.4436653
8	0x40b04501	5.5084233
9	0x400a7a85	2.163728
10	0x4031d3bc	2.7785482
11	0x4094a998	4.6457024
12	0x40283776	2.628385
13	0x402cdab1	2.7008479
14	0x403da4e7	2.9631898
15	0x40321bc5	2.782945

conv2.conv2.0.weight f4 [16, 16, 3, 3]
0	0xbdb17f47	-0.08666854
1	0xbce8fb0c	-0.028440021
2	0x3dd0dd20	0.10198426
3	0xbdce7fe1	-0.10082985
4	0xbe4a3978	-0.19748485
5	0x3dae1765	0.08500556
6	0xbe870f84	-0.26379025
7	0x3c925e60	0.017867267
8	0xbdbc6b6e	-0.09200178
9	0x3c1967f5	0.009363164
10	0x3d54d360	0.051959395
11	0x3d199b53	0.037501644
12	0x3e0a2b31	0.13493039
13	0x3e19fc73	0.15037708
14	0x3d8786b5	0.0661749
15	0xbd58878c	-0.052863643
16	0xbe2d78c5	-0.16940601
17	0xbdef4d38	-0.1168465
18	0xbde5c620	-0.1121943
19	0xbe431578	-0.19051158
20	0x3d70ff21	0.05883706
21	0xbd609b78	-0.054835767
22	0x3dfc7271	0.123265155
23	0x3c15598a	0.009115586
24	0xbe5aee50	-0.21379972
25	0xbbcf3b89	-0.006324236
26	0xbdab5ece	-0.08367692
27	0x3db8d851	0.09025634
28	0xbe51c45e	-0.20485064
29	0xbe7eb1dc	-0.24872535
30	0x3b00be25	0.0019644585
31	0x3e5ba993	0.21451406
32	0x3cc0d0af	0.023537008
33	0xbd155719	-0.036460016
34	0xbdbf3406	-0.093360946
35	0xbe28f397	-0.16499172
36	0xbd6ada35	-0.057337005
37	0xbd9f48d9	-0.077775665
38	0x3da2e4af	0.07953774
39	0xbbc671a0	-0.0060560256
40	0xbbae4640	-0.005318433
41	0xbdbd5a3f	-0.09245729
42	0xbdd9f954	-0.10643259
43	0xbd918d14	-0.07106987
44	0xbe78f442	-0.24311927
45	0xbdc59e51	-0.09649337
46	0xbe6328e1	-0.22183563
47	0xbca44e5e	-0.0200569
48	0x3d3f8f64	0.046767607
49	0x3e6b2ad1	0.22965552
50	0x3e0604f0	0.13087821
51	0xbdb592db	-0.08865901
52	0x3e319b36	0.17344365
53	0x3d79d60b	0.060995143
54	0xbdff9e22	-0.12481333
55	0x3db5bcdb	0.08873912
56	0xbd7b5ce4	-0.061367884
57	0xbd2419b6	-0.040063582
58	0xbc823477	-0.015894158
59	0xbd8a9833	-0.06767311
60	0x3dd624b3	0.104562186
61	0xbdcedb7d	-0.10100458
62	0xbde95f6c	-0.113951534
63	0xbea52452	-0.32254273
64	0x3e4cd3f4	0.20002729
65	0x3dd5f5d4	0.104472786
66	0x3d7cd384	0.061725155
67	0xbe1ae973	-0.15128116
68	0xbe2ac162	-0.16675332
69	0x3d984ed3	0.074369095
70	0xbe09815f	-0.13428257
71	0xbd4b1926	-0.04958453
72	0xbca6da8e	-0.020367887
73	0x3d357e38	0.044309825
74	0x3ddc4f50	0.10757315
75	0xbe8d7a2a	-0.27632266
76	0xbe37cb7e	-0.1794872
77	0x3de15668	0.11002809
78	0x3c731c45	0.014838283
79	0xbd71cd07	-0.05903342
80	0x3e07e68b	0.13271539
81	0x3e43d263	0.19123225
82	0x3d6ca45f	0.057773944
83	0x3dd78bbd	0.105247
84	0xbdb7ee99	-0.08981056
85	0xbe715d38	-0.23570716
86	0xbeacd48b	-0.33755907
87	0x3d6870f3	0.05674834
88	0x3bc57106	0.0060254363
89	0xbcb39df1	-0.021925898
90	0x3d34485f	0.04401433
91	0xbd041aa1	-0.032251958
92	0xbd79c44b	-0.060978215
93	0x3cfdacc7	0.030966176
94	0xbd40647e	-0.046970837
95	0x3d984bbd	0.07436321
96	0xbe2e9e11	-0.17052485
97	0xbc861fc4	-0.016372569
98	0xbab8fd69	-0.0014113608
99	0x3d9460df	0.07245039
100	0x3d38df7b	0.045135003
101	0xbd8538fb	-0.06505009
102	0x3c9e1aa6	0.019299816
103	0xbddd9241	-0.10818911
104	0xbe3b1528	-0.18269789
105	0x3d88ad8c	0.066737264
106	0x3d2423d6	0.04007324
107	0x3b033755	0.0020021994
108	0x3d434a65	0.04767837
109	0x3e1740b7	0.1477078
110	0xbc991b61	-0.018689813
111	0xbe2384e1	-0.15968658
112	0xbe2d54c6	-0.1692687
113	0xbda3a92d	-0.07991252
114	0x3e42cd35	0.19023593
115	0x3cfd32c5	0.030907998
116	0x3da0e5f8	0.07856363
117	0xbe330860	-0.17483664
118	0x3d2f2499	0.04275951
119	0xbdb1ab2c	-0.086752266
120	0x3d3a7258	0.045519203
121	0x3e1569f9	0.14591207
122	0xbdfe7fcd	-0.1242672
123	0x3e985e06	0.29759234
124	0xbd688570	-0.05676788
125	0xbd999f50	-0.075010896
126	0xbba45253	-0.0050146966
127	0x3dbc6e49	0.09200723
128	0xbe47def6	-0.19518647
129	0x3bcba2e4	0.0062144864
130	0xbc28f282	-0.010311725
131	0xbe458ebe	-0.19292733
132	0x3dbc7f05	0.092039146
133	0xbd8426b8	-0.064526975
134	0xbdb3fde1	-0.08788658
135	0xbdd28c01	-0.1028061
136	0xbe0d4fe9	-0.13800015
137	0xbdbe66db	-0.09296962
138	0xbdbcb764	-0.092146665
139	0xbc1e6dae	-0.009669704
140	0x3cf80ef9	0.030280577
141	0x3d9d6514	0.07685295
142	0xbd9cf369	-0.07663614
143	0x3d332a85	0.04374172
144	0xbb6c5b31	-0.0036065097
145	0xbd43d014	-0.04780586
146	0xbe1377fc	-0.14401239
147	0x3e46174e	0.19344828
148	0xbd6e7280	-0.058214664
149	0xbdee3776	-0.11631672
150	0x3e1b879c	0.1518845
151	0x3d090e57	0.03346094
152	0x3c980b2c	0.018560015
153	0xbc9473ed	-0.018121684
154	0x3d98bbcb	0.07457694
155	0x3e2285ef	0.15871404
156	0x3d88926f	0.06668555
157	0x3cbc6e13	0.023001706
158	0xbcca2b66	-0.024678897
159	0xbe4504ce	-0.19240114
160	0xbd0ecb5b	-0.034861904
161	0xbdc68ecc	-0.09695205
162	0xbcad4e94	-0.021155633
163	0x3db8e43c	0.09027907
164	0x3d85575e	0.065108046
165	0x3dc21c84	0.09478095
166	0x3e85f48d	0.2616314
167	0x3e32d35a	0.17463437
168	0xbeab5de3	-0.33470067
169	0x3cfe17ce	0.03101721
170	0xbba59a06	-0.0050537614
171	0xbbb2675d	-0.005444451
172	0x3dcecec5	0.10098032
173	0xbd06ce81	-0.03291178
174	0x3de18114	0.11010948
175	0x3e709a74	0.23496419
176	0xbd21c65a	-0.039495803
177	0x3cd446a9	0.0259126
178	0xbe058391	-0.1303847
179	0x3e0af34d	0.13569374
180	0xbd9172a9	-0.07101948
181	0xbe805819	-0.25067213
182	0xbcabc73b	-0.020969024
183	0xbd437143	-0.047715437
184	0xbe074e69	-0.13213505
185	0x3da981ad	0.08276687
186	0xbe2fb6d1	-0.17159583
187	0x3d2d6455	0.042332012
188	0x3e344d83	0.17607693
189	0xbb6171c1	-0.0034400078
190	0x3e388e32	0.18022993
191	0xbd0d5473	-0.034504365
192	0xbd23255c	-0.03983055
193	0x3e0186a1	0.12649013
194	0xbd1b0b97	-0.03785285
195	0x3cc543bd	0.024080152
196	0xbe93b70c	-0.2885059
197	0x3e055e90	0.13024354
198	0xbe67f0df	-0.22650479
199	0x3e8bd19c	0.27308357
200	0x3e20d4ca	0.15706173
201	0xbe5519c1	-0.20810606
202	0xbcb8c9c8	-0.022557154
203	0xbd33436f	-0.04376548
204	0xbcb331ae	-0.021874275
205	0xbd1ae004	-0.037811294
206	0xbdde6ada	-0.10860224
207	0x3d9fc015	0.078003086
208	0xbe7453e6	-0.2386013
209	0xbe23581b	-0.15951578
210	0xbed88b58	-0.4229381
211	0xbd7f1394	-0.06227453
212	0x3cda2558	0.026629135
213	0x3db39359	0.08768339
214	0x3e33f7d1	0.17575003
215	0x3c672cc2	0.014109792
216	0xbe0e172c	-0.13876027
217	0xbe258a34	-0.16166002
218	0x3bd6a404	0.006550314
219	0x3dd27e13	0.10277953
220	0xbe0d059d	-0.13771673
221	0x3de2f3e2	0.11081673
222	0xbd98f28f	-0.074681394
223	0xbbc720ce	-0.0060769087
224	0xbe2fb0d5	-0.171573
225	0x3ba89c55	0.0051455894
226	0x3bb537cb	0.0055303327
227	0x3d01a5e0	0.03165233
228	0x3ec70759	0.38872793
229	0x3e557ba2	0.20847943
230	0x3e04f275	0.12983115
231	0x3e105675	0.1409548
232	0x3e59ecfb	0.21281807
233	0xbe42d992	-0.19028309
234	0x3c7f5974	0.015585292
235	0x3cc4d0af	0.02402529
236	0xbc460550	-0.012086228
237	0x3d7f8d3f	0.062390562
238	0x3c51d62b	0.012807409
239	0x3e1ca3ed	0.15296908
240	0xbe270948	-0.16312134
241	0xbda14c89	-0.07875926
242	0x3dfa7022	0.12228419
243	0x3cdc52ee	0.026895013
244	0x3da6971d	0.08134291
245	0x3dc3f4b6	0.09568159
246	0xbe1e5b85	-0.154646
247	0xbe4e3d07	-0.20140468
248	0x3cb8b805	0.022548685
249	0xbe1c685c	-0.15274185
250	0x3d5d4384	0.054019466
251	0x3dc21dd3	0.09478345
252	0xbc4b7747	-0.012418575
253	0xbe13b4dd	-0.14424463
254	0x3e3285a8	0.17433798
255	0xbd151a5a	-0.036402084

conv2.conv2.0.bias f4 [16]
0	0xbcb594de	-0.022165712
1	0x3d3b19d9	0.045678947
2	0xbd499e86	-0.049223445
3	0xbcb45d6c	-0.022017203
4	0x3d9c6321	0.07636095
5	0x3d35bfd4	0.044372395
6	0xbd845ab3	-0.06462612
7	0xbcbb91ae	-0.022896614
8	0x3c06124a	0.008183071
9	0x3cf690aa	0.030098278
10	0xbd1cfdfa	-0.03832815
11	0x3d6ef2c7	0.058337
12	0x3aaac93c	0.0013029943
13	0xbd9384fb	-0.072030984
14	0x3cb6e117	0.022324128
15	0xbda5a17a	-0.0808744

conv2.conv2.1.weight f4 [16]
0	0x3f88af36	1.067847
1	0x3f80f447	1.0074548
2	0x3f7e3c33	0.99310607
3	0x3f6ec0f3	0.9326317
4	0x3f823632	1.0172789
5	0x3f8cfa1a	1.1013825
6	0x3f6c5162	0.9231168
7	0x3f5b808b	0.85743016
8	0x3f66fa1f	0.90225405
9	0x3f81c1f5	1.0137316
10	0x3f6f04aa	0.9336649
11	0x3f5d69a8	0.86489344
12	0x3f93faab	1.1560873
13	0x3f899535	1.0748659
14	0x3f8c80e6	1.0976837
15	0x3f847934	1.0349488

conv2.conv2.1.bias f4 [16]
0	0x3d82e35c	0.063910216
1	0xbb7c9115	-0.0038538624
2	0x3c8c720d	0.017144227
3	0xbd963e05	-0.07336048
4	0x3c800b11	0.015630277
5	0x3e0df4c5	0.13862903
6	0xbd6d4f2d	-0.057936836
7	0xbe20bee6	-0.15697822
8	0x3d2913f7	0.041278806
9	0x3cf01c87	0.029310478
10	0xbd5c2df2	-0.053754754
11	0xbd9ff726	-0.07810812
12	0x3de48024	0.111572534
13	0xbdfdb7ba	-0.12388559
14	0x3e022bd1	0.12712027
15	0x3c2e5d76	0.0106424

conv2.conv2.1.running_mean f4 [16]
0	0xbfab5822	-1.3386271
1	0x3e5cdb27	0.21567975
2	0x3e790ef3	0.24322109
3	0xbde3a995	-0.111163296
4	0x3f83e022	1.0302775
5	0xbf909337	-1.1294926
6	0x3e8e1370	0.27749205
7	0xc01494dd	-2.321586
8	0xbded467b	-0.11585709
9	0x3d1a3955	0.037652332
10	0x3f68c23b	0.9092137
11	0x3eeda314	0.4641348
12	0xbed26c94	-0.41098464
13	0xbeab1c07	-0.3341982
14	0xbf726037	-0.9467806
15	0xbf5ef2c0	-0.8708916

conv2.conv2.1.running_var f4 [16]
0	0x3f826a05	1.0188605
1	0x3fb09f13	1.3798546
2	0x3fb5a666	1.4191406
3	0x3fea4c3f	1.8304518
4	0x400739e7	2.112909
5	0x3fc57ce6	1.5428741
6	0x3fd39be8	1.6531954
7	0x3feb46d6	1.8380992
8	0x4026967b	2.6029346
9	0x3f9c0351	1.2188512
10	0x404f33b4	3.2375307
11	0x3fb8fd91	1.4452382
12	0x4008ffa2	2.1406026
13	0x3f98a61a	1.192569
14	0x404d6bd6	3.2097068
15	0x40468d91	3.1023905

conv2.conv3.0.weight f4 [16, 16, 3, 3]
0	0xbe8c8ad5	-0.2744967
1	0x3d161bba	0.036647536
2	0xbe62ec74	-0.22160512
3	0x3e1687b7	0.14700209
4	0x3e12cdb4	0.14336282
5	0x3d8176f7	0.06321519
6	0x3e092169	0.13391651
7	0xbe34afc7	-0.17645179
8	0xbd8d0c2a	-0.06887086
9	0x3d3f641a	0.046726324
10	0xbd31f729	-0.0434486
11	0xbd61b40b	-0.055103343
12	0xbd681c47	-0.056667592
13	0x3abb5b03	0.0014294091
14	0xbcf2997f	-0.029614208
15	0x3e0fb828	0.14035094
16	0x3cb84b1d	0.022496754
17	0xbdd840a0	-0.10559201
18	0xbdb291ee	-0.0871924
19	0xbe3c5bb5	-0.18394358
20	0xbcdf2c4c	-0.027242802
21	0xbbd21630	-0.0064113364
22	0xbd25fa4a	-0.040521897
23	0xbe73b4ce	-0.2379944
24	0x3c9a8674	0.01886294
25	0xbe20fdb8	-0.15721786
26	0x3dd6042c	0.104500145
27	0xbd1316f2	-0.035910554
28	0xbbf320bb	-0.0074196733
29	0x3ddc17f7	0.107467584
30	0xbe244016	-0.16040072
31	0x3ba9c662	0.00518112
32	0x3cc965cd	0.024584675
33	0x3dd07778	0.10179037
34	0xbdbc38fb	-0.09190556
35	0x3e134181	0.14380457
36	0xbc65e6dd	-0.014032093
37	0xbd73485d	-0.059395183
38	0xbe314141	-0.17310049
39	0xbcc17148	-0.023613587
40	0x3e1c9d3b	0.15294354
41	0xbdb9d8a5	-0.09074525
42	0xbe149f78	-0.14513958
43	0x3d8737fd	0.06602476
44	0xbdc5a0f6	-0.096498415
45	0x3e0ba53b	0.13637249
46	0x3d9eac8a	0.07747753
47	0xbcd0f15a	-0.02550571
48	0x3df94b92	0.12172617
49	0x3e570005	0.20996101
50	0x3e2a5803	0.16635136
51	0x3eb083f4	0.34475672
52	0x3e565779	0.20931806
53	0xbeb847f1	-0.35992387
54	0x3e1eff8a	0.15527168
55	0xbdbda3eb	-0.092597805
56	0x3e19bbb2	0.15013006
57	0x3e4c61bb	0.19959156
58	0x3c7bf5fa	0.01537847
59	0x3dc3dc26	0.09563474
60	0xbd01d71b	-0.03169928
61	0x3d452113	0.048127245
62	0xbdf26b29	-0.118368454
63	0x3b40e038	0.002943052
64	0x3c84885a	0.016178299
65	0x3db00b54	0.08595911
66	0xbc9819fd	-0.01856708
67	0xbd4efe9d	-0.050535787
68	0xbe63c6d1	-0.22243811
69	0x3e117bcf	0.14207385
70	0xbc67385b	-0.014112557
71	0x3d75e58c	0.060033366
72	0xbe86e133	-0.26343688
73	0xbdad5001	-0.08462525
74	0x3b3919d1	0.0028244148
75	0x3db3c398	0.08777541
76	0xbd889e0b	-0.06670769
77	0xbe169852	-0.14706543
78	0x3e6809d5	0.2266
79	0xbdfa5266	-0.122227475
80	0xbe3d7d8a	-0.1850492
81	0x3c84a8ba	0.016193736
82	0xbdbae4e7	-0.09125691
83	0xbe5522c4	-0.20814043
84	0xbe2cf4b7	-0.16890226
85	0x3d5d5c46	0.054043077
86	0xbd6034c0	-0.054737806
87	0xbdc7f3c5	-0.09763292
88	0xbb17fb59	-0.0023190586
89	0x3cb08f7f	0.0215528
90	0x3d7b9f12	0.061431
91	0xbdb0f6f9	-0.08640856
92	0xbdbe8fb8	-0.09304756
93	0xbb747265	-0.003729963
94	0x3d179017	0.03700265
95	0xbbdf00cc	-0.006805515
96	0x3d8a9cde	0.06768201
97	0xbcd773e2	-0.026300374
98	0x3c8a6fcd	0.016899014
99	0xbe3bab8e	-0.18327162
100	0x3ceab204	0.028649338
101	0xbe1ba9e3	-0.15201525
102	0x3d22236c	0.039584562
103	0x3de9d4ab	0.11417516
104	0xbd6b6af0	-0.05747503
105	0xbd6e4e0b	-0.058179896
106	0xbc3c6684	-0.011499051
107	0xbd7d3edb	-0.06182752
108	0xbd8ef71f	-0.06980728
109	0x3d5005ab	0.050786655
110	0x3d890efb	0.066923104
111	0xbe0eafb4	-0.13934213
112	0x3d946640	0.07246065
113	0x3dd9e473	0.10639276
114	0x3e4080f5	0.18799193
115	0xbe2c5f29	-0.16833176
116	0x3de218d2	0.1103989
117	0xbdb180e3	-0.08667161
118	0x3dee789a	0.11644097
119	0xbe0f9f40	-0.14025593
120	0xbdba980d	-0.09111033
121	0x3c0ee017	0.008720419
122	0xbd065dc9	-0.032804284
123	0x3dbf746d	0.09348378
124	0xbe28bf20	-0.16479158
125	0x3a6f49f5	0.0009128147
126	0x3e5981e9	0.21240963
127	0x3e07dbda	0.1326746
128	0xbda79c58	-0.08184117
129	0x3e84c327	0.2593014
130	0x3e5e1f7c	0.21691698
131	0xbd77716c	-0.060410902
132	0x3dfd8af6	0.1238002
133	0x3ce410d9	0.027840065
134	0xbdcadbdb	-0.09905215
135	0x3e425c99	0.18980636
136	0xbe3f73d7	-0.18696533
137	0xbdbe6f31	-0.09298552
138	0x3da4e5e2	0.08051659
139	0xbd051a3f	-0.032495733
140	0x3ddca527	0.10773688
141	0x3c969424	0.018381186
142	0xbce65af2	-0.028119538
143	0x3de36702	0.111036316
144	0x3c5ad624	0.013356719
145	0x3d4637ac	0.048392937
146	0xbdc08062	-0.09399487
147	0x3e53fe9a	0.20702592
148	0xbdf37419	-0.11887378
149	0xbe08996d	-0.13339777
150	0x3e60cd8a	0.21953407
151	0xbce8739b	-0.028375437
152	0x3d0c443b	0.034244757
153	0xbdf35d22	-0.11882998
154	0x3e3f17d9	0.18661441
155	0x3dfe142a	0.1240619
156	0x3e248feb	0.16070525
157	0xbe0be5df	-0.13661908
158	0xbd05335f	-0.032519694
159	0xbe0812fd	-0.13288493
160	0xbcebf5fe	-0.028803822
161	0x3e2a487b	0.16629212
162	0xbd8fb5e3	-0.07017114
163	0x3cdcd7da	0.026958395
164	0x3d371d8b	0.04470591
165	0xbe124895	-0.142855
166	0xbd997c7f	-0.07494449
167	0xbd855b55	-0.06511561
168	0xbcd25e48	-0.025679722
169	0x3c7f8b66	0.0155972
170	0xbe1ee9a1	-0.1551881
171	0xbb2902cb	-0.0025789018
172	0x3cb8b5db	0.022547653
173	0xbe3eaa6a	-0.18619695
174	0x3e5db876	0.21652398
175	0x3e318f44	0.17339808
176	0x3d3301d3	0.04370291
177	0xbe3bb1e8	-0.18329585
178	0x3e73cc4c	0.23808402
179	0x3d53dfbb	0.051727038
180	0x3e032392	0.12806538
181	0x3d68c8f7	0.05683228
182	0x3e12283b	0.14273159
183	0x3d9b7dfa	0.075923875
184	0x3e288658	0.16457498
185	0xbd805eb0	-0.0626806
186	0x3e39f60f	0.1816027
187	0x3e2cd9bc	0.16879934
188	0x3df972f8	0.12180132
189	0xbd89054d	-0.06690464
190	0xbc88bf37	-0.01669274
191	0xbd310506	-0.04321768
192	0x3e07c722	0.13259557
193	0xbc7a4c06	-0.015276914
194	0xbc8e65ca	-0.017382521
195	0xbcdedde9	-0.027205424
196	0xbbf0a034	-0.0073433165
197	0x3d22b9ff	0.03972816
198	0x3e14b238	0.1452111
199	0xbcf6e387	-0.03013779
200	0x3dbe3b51	0.092886575
201	0x3e98a277	0.2981145
202	0xbdab9f43	-0.08379986
203	0xbc729728	-0.014806546
204	0x3d680e36	0.056654178
205	0xbba03318	-0.0048889033
206	0x3dccbc1e	0.09996818
207	0xbdbbdb6e	-0.09172712
208	0xbe1ceaaa	-0.15323892
209	0xbc492d46	-0.01227886
210	0xbe097d15	-0.13426621
211	0xbc0dbae5	-0.008650516
212	0x3d002178	0.03128192
213	0x3de42064	0.111389905
214	0x3b264560	0.002537094
215	0x3d3513bc	0.044208273
216	0x3dfa4bc0	0.122214794
217	0x3e1dba65	0.15403135
218	0x3e3826bb	0.17983525
219	0x3cfcb74a	0.030849118
220	0x3ddcb425	0.10776547
221	0xbdfe4ec5	-0.12417368
222	0x3e07f59e	0.1327729
223	0xbde880f3	-0.1135272
224	0x3dbb7bcf	0.09154474
225	0xbdbce587	-0.09223466
226	0xbca60f66	-0.020271014
227	0x3ce94249	0.02847399
228	0xbdf85dd5	-0.12127272
229	0xbda5c366	-0.0809391
230	0x3dc885c7	0.09791141
231	0x3ddcb7fe	0.10777281
232	0xbdf9548d	-0.1217433
233	0x3e2112f6	0.1572989
234	0xbce89fba	-0.028396476
235	0x3da47837	0.08030742
236	0x3e65827b	0.22413056
237	0x3e562dca	0.20915905
238	0x3c42eff2	0.011898028
239	0x3e0a8af1	0.13529564
240	0xbd09067f	-0.03345346
241	0xbe352df4	-0.17693311
242	0xbdd16377	-0.102240495
243	0xbc7ceb6f	-0.015436991
244	0x3e0bf2dd	0.13666864
245	0xbdefbe93	-0.11706271
246	0x3e0d5f14	0.138058
247	0xbdb66767	-0.08906441
248	0x3e11705e	0.14203021
249	0xbddecca6	-0.10878877
250	0x3da1cc90	0.07900345
251	0xbd6d20e9	-0.057892714
252	0xbcdedf88	-0.027206197
253	0xbe0ece7f	-0.1394596
254	0xbd94112b	-0.07229837
255	0x3db72956	0.08943431

conv2.conv3.0.bias f4 [16]
0	0xbc484c0a	-0.01222516
1	0xbd746642	-0.059667833
2	0x3b18a234	0.002329004
3	0x3d4362cc	0.047701642
4	0x3b34e161	0.0027600157
5	0x3d5689b7	0.05237743
6	0xbd00ec31	-0.03147525
7	0x3d85cfcf	0.06533777
8	0x3ca29b4c	0.019849442
9	0xbce55c63	-0.027998155
10	0x3d2486ec	0.040167734
11	0x3d27cfe8	0.04096976
12	0xbd124ef9	-0.035719845
13	0xbc7848c6	-0.015154069
14	0x3d301d17	0.042996492
15	0xbd965d5c	-0.07342026

conv2.conv3.1.weight f4 [16]
0	0x3f870a0e	1.0549943
1	0x3f5693f0	0.83819485
2	0x3f859af2	1.043791
3	0x3f9a431a	1.2051728
4	0x3f94b8f5	1.1618944
5	0x3f7331fc	0.94998145
6	0x3f8573f7	1.0426015
7	0x3f700af6	0.93766725
8	0x3f77cb39	0.9679447
9	0x3f7c0cbe	0.98456943
10	0x3f942436	1.1573551
11	0x3f51574e	0.8177384
12	0x3f84c28b	1.037187
13	0x3f7d4875	0.98938686
14	0x3f84f371	1.0386792
15	0x3f4ef497	0.80841964

conv2.conv3.1.bias f4 [16]
0	0x3bad617e	0.005291163
1	0x3cd4a685	0.025958309
2	0x3cbedcbf	0.02329862
3	0xbcdd1b64	-0.0269906
4	0xbcbb6266	-0.022874068
5	0x3d444909	0.047921214
6	0xbc99e8ac	-0.018787704
7	0x3de15088	0.11001688
8	0xbd01c7d5	-0.031684715
9	0xbd964fc3	-0.07339432
10	0x3e42bba5	0.19016893
11	0x3d82e7ea	0.0639189
12	0x3d81e588	0.06342608
13	0x3cff4e98	0.031165406
14	0x3d83bfa5	0.06433038
15	0xbd8c7646	-0.06858496

conv2.conv3.1.running_mean f4 [16]
0	0x3d3eb132	0.046555705
1	0x3f412a6f	0.75455374
2	0x3ddc9887	0.1077128
3	0xbf81a104	-1.0127263
4	0xbf62912e	-0.88502777
5	0x3f63c1a4	0.8896735
6	0x3eeeee7c	0.46666324
7	0xbfa9a4a5	-1.325337
8	0xbf3aab5e	-0.72917736
9	0xbf4ed8e0	-0.80799675
10	0xbf1d1d7e	-0.61373127
11	0x3fb3c56b	1.4044622
12	0xbf0310dc	-0.511976
13	0xbf833ea7	-1.0253495
14	0xbf61f613	-0.88266104
15	0x3f3fae8b	0.74875706

conv2.conv3.1.running_var f4 [16]
0	0x400e5f00	2.2245483
1	0x401b5d69	2.4275763
2	0x3ff9a223	1.9502605
3	0x405282ee	3.2892413
4	0x40644a38	3.56703
5	0x40219c82	2.5251775
6	0x402368e0	2.553276
7	0x3fc5f839	1.5466377
8	0x403f12ec	2.98553
9	0x400c8941	2.1958773
10	0x4079cacf	3.9030035
11	0x40833857	4.1006274
12	0x3f9b76ab	1.214559
13	0x401022f1	2.2521327
14	0x4024c1b6	2.5743232
15	0x403d1ab3	2.9547546
