checkpoints/ifind1_sononet_8_6classes/015_net_6classes_class.pth (torch_old, 671819 bytes, 90 tensors)

conv1.conv1.0.weight f4 [8, 1, 3, 3]
-0.22557151 0.8471955 0.46287322 0.16475356 -0.4619562 0.5283582 -0.19003074 0.3124267
-0.719709 0.5211037 0.56449187 -0.5495683 0.6078773 0.7500777 -0.8279092 -0.191061
0.7761407 0.22838499 0.7540484 -0.8927527 -0.3775038 -0.05002612 0.03913122 -0.037065018
-0.7988347 0.0041567166 1.4071 0.6129301 0.77574223 1.1535683 -0.71939737 -0.5408706
-0.013975251 -0.65683514 -0.8855977 -0.06200371 0.12990475 -0.013869217 -1.3004946 -0.44673914
-0.089465514 0.38223392 0.4059067 0.06031634 0.75783026 -0.21410184 0.32784173 0.60902774
-0.5710625 -0.51539576 0.054800767 -0.38602895 0.25814342 0.95664096 -0.59911555 0.5960277
0.12820183 0.07391256 -0.1324787 -0.01296249 0.6956173 -0.37187466 0.0016980647 -0.21990888
-0.35326526 0.6797421 -0.014259728 -0.78811383 -0.5930276 -0.007813251 -0.6770706 0.8102815
00000000: 38fc 66be cee1 583f b8fd ec3e 28b5 283e
00000010: 8685 ecbe 7c42 073f 6b97 42be 64f6 9f3e
00000020: d93e 38bf 0d67 053f 8a82 103f 82b0 0cbf
00000030: d99d 1b3f 1805 403f dbf1 53bf 7fa5 43be
00000040: 28b1 463f c1dd 693e 5109 413f 718b 64bf
00000050: 2e48 c1be 30e8 4cbd 0f48 203d 7dd1 17bd
00000060: 6e80 4cbf 1135 883b da1b b43f fde8 1c3f
00000070: 0b97 463f 20a8 933f 6d2a 38bf 7f76 0abf
00000080: 73f8 64bc 5926 28bf 88b6 62bf 9af7 7dbd
00000090: c005 053e b63b 63bc 9b76 a6bf feba e4be
000000a0: b239 b7bd 2ab4 c33e 01d3 cf3e 440e 773d
000000b0: 2a01 423f 833d 5bbe dfda a73e 3ee9 1b3f
000000c0: 2731 12bf faf0 03bf c576 603d 96a5 c5be
000000d0: 602b 843e 6ce6 743f a35f 19bf 4595 183f
000000e0: 5747 033e 785f 973d 7fa8 07be a060 54bc
000000f0: fa13 323f 5b66 bebe 9991 de3a cb2f 61be
00000100: 2fdf b4be 9403 2e3f a2a1 69bc d4c1 49bf
00000110: a8d0 17bf 2603 00bc 8054 2dbf 9c6e 4f3f

conv1.conv1.0.bias f4 [8]
0.32061803 -0.27497143 -0.3305158 -0.2606724 -0.22412723 0.13491592 0.119329475 0.27684504
00000000: 0c28 a43e 0ec9 8cbe 5e39 a9be da76 85be
00000010: 9c81 65be 6627 0a3e 0363 f43d a2be 8d3e

conv1.conv1.1.weight f4 [8]
0.9225839 0.92144215 0.93113977 1.3415588 0.8977845 1.16118 0.7183879 0.9583275
00000000: 752e 6c3f a2e3 6b3f 2d5f 6e3f 33b8 ab3f
00000010: 34d5 653f 8ca1 943f 45e8 373f f354 753f

conv1.conv1.1.bias f4 [8]
0.27522376 -0.3468791 0.6067098 0.55414456 0.42242286 0.46738386 -0.096009284 -0.07574906
00000000: 21ea 8c3e 239a b1be 5551 1b3f 6bdc 0d3f
00000010: cf47 d83e f04c ef3e 84a0 c4bd 5322 9bbd

conv1.conv1.1.running_mean f4 [8]
0.3207322 -0.27505568 -0.32915127 -0.26007682 -0.22426808 0.13575403 0.11982618 0.27785704
00000000: 0337 a43e 19d4 8cbe 8486 a8be ca28 85be
00000010: 88a6 65be 1b03 0b3e 6e67 f53d 4743 8e3e

conv1.conv1.1.running_var f4 [8]
0.6283045 3.4899027 0.13037059 0.97978795 0.2786167 0.37581435 0.13991004 1.4057465
00000000: 90d8 203f 915a 5f40 de7f 053e 62d3 7a3f
00000010: d9a6 8e3e bd6a c03e 9444 0f3e 80ef b33f

conv1.conv2.0.weight f4 [8, 8, 3, 3]
0.02721813 0.3956403 0.029600618 -0.033194065 0.1697047 -0.08826685 0.0005791451 0.17504255
-0.19336171 -0.31310746 0.22556293 0.25867394 -0.20073757 0.11737965 0.1233023 -0.2840778
-0.27245155 -0.14735651 0.105793476 -0.3945363 -0.1759319 -0.54437083 -0.2752237 -0.030071758
-0.20341542 0.438202 0.36356345 0.10862625 -0.15541324 0.18197466 0.027256073 -0.069425605
-0.030663393 0.2573463 0.3888549 -0.05061639 0.16574007 -0.08216418 -0.05207692 -0.20229493
-0.12164279 -0.1104514 -0.32470685 0.07521783 0.16216862 0.39941722 0.070908405 -0.25369018
-0.34689447 -0.20376958 -0.15896887 0.54445505 0.07903012 0.29259512 -0.19100988 0.04891982
0.20895536 0.15882802 0.07414432 -0.18337116 0.047323372 -0.0023171392 -0.33893165 -0.28729007
-0.35043037 0.06055088 -0.096740894 -0.108239405 -0.17109048 -0.055962276 -0.2373653 -0.13352387
0.31027138 -0.03442093 0.22881243 0.10702298 0.15041666 0.38112774 0.25839627 0.4312472
0.13672265 0.08029081 0.29985783 0.3515832 -0.17025062 -0.027840508 -0.016884495 -0.13860595
-0.34790114 -0.16322793 -0.081856266 -0.05062012 0.40799224 -0.0066440525 0.098578215 0.3902829
0.11250883 -0.005052235 -0.15863924 -0.3636551 -0.2504982 0.028622877 0.079265565 -0.0013446189
0.309109 0.14047794 0.025064316 0.29868555 -0.16823627 -0.19412503 0.14681633 0.022538217
-0.16707456 -0.12903337 0.023895226 -0.010549976 -0.3105106 -0.052968424 0.593034 0.60791916
-0.21357489 0.13637678 0.16508186 -0.023994341 0.14373969 -0.08029755 -0.100765966 0.25256363
0.12959054 -0.15807058 0.051910594 0.06188436 -0.10494811 -0.047037352 -0.009053155 -0.18440698
-0.14832461 -0.006845343 -0.05960794 0.23310368 -0.08936066 0.03982727 -0.06127122 0.13774772
-0.27416903 -0.059624076 -0.055678174 0.055611987 0.23089182 -0.19101334 0.17568488 -0.019297889
-0.010161498 -0.2888195 -0.040462464 0.13125023 0.052451815 0.22343315 0.2295493 -0.14243455
0.08343287 0.3724894 0.15863802 0.3672132 0.10101873 -0.090652615 0.122561455 -0.35028946
-0.23751011 0.022894945 0.20432848 -0.10293173 -0.28118524 -0.08118385 -0.07546179 -0.043182306
-0.025019959 -0.35060078 -0.012809358 -0.046348155 0.14843823 0.30464485 0.14286333 0.06207154
-0.12828597 0.087175734 0.006440607 -0.14143616 0.21609065 0.019672006 -0.1663149 -0.07420432
0.07488099 0.008485564 0.13376565 0.69174635 0.25688356 0.26416594 0.036707014 -0.19345881
0.07434535 0.064121045 -0.02916559 0.06251801 0.26969254 -0.058005758 0.056121502 -0.12287561
-0.013708607 -0.019909898 0.11093513 0.07811288 -0.022412803 -0.14690457 -0.08015745 0.113494836
-0.057599045 0.07986996 0.028992137 0.07475482 0.028881546 0.038612723 -0.06803281 0.2124563
-0.017020272 -0.04684975 -0.026569258 0.034183335 -0.06474283 -0.003216881 0.08822551 -0.04179207
-0.12822357 0.18666758 0.23147652 -0.10778805 -0.22695969 0.18645947 -0.02492868 0.21979465
-0.042552043 -0.10181614 -0.01634251 0.11099407 -0.008742265 0.14986075 -0.081034474 0.11372676
0.16265243 0.009290163 -0.15458433 -0.171245 0.38757694 0.3481703 0.06926554 0.029731764
00000000: 8ef8 de3c 5e91 ca3e ff7c f23c 80f6 07bd
00000010: 12c7 2d3e 40c5 b4bd c5d1 173a 5b3e 333e
00000020: 9d00 46be 9f4f a0be f8f9 663e e970 843e
00000030: 268e 4dbe be64 f03d eb85 fc3d a572 91be
00000040: c57e 8bbe a0e4 16be 40aa d83d a900 cabe
00000050: 7e27 34be e35b 0bbf 1fea 8cbe 0c59 f6bc
00000060: 224c 50be 035c e03e fd24 ba3e 7077 de3d
00000070: a624 1fbe 9157 3a3e 2148 df3c 032f 8ebd
00000080: cc31 fbbc e5c2 833e fd17 c73e 2253 4fbd
00000090: c4b7 293e b245 a8bd 9c4e 55bd 6726 4fbe
000000a0: db1f f9bd 5834 e2bd fa3f a6be ce0b 9a3d
000000b0: 880f 263e 6a80 cc3e 6d38 913d aee3 81be
000000c0: 279c b1be f9a8 50be bcc8 22be 6861 0b3f
000000d0: 8bda a13d 07cf 953e 1898 43be 2660 483d
000000e0: 65f8 553e d0a3 223e fad8 973d a6c5 3bbe
000000f0: 27d6 413d 25db 17bb 7388 adbe af17 93be
00000100: 9c6b b3be 3304 783d 1720 c6bd 9fac ddbd
00000110: 5832 2fbe b338 65bd e40f 73be 7bba 08be
00000120: e4db 9e3e f6fc 0cbd ce4d 6a3e dd2e db3d
00000130: d306 1a3e 2d23 c33e 844c 843e 6fcc dc3e
00000140: 0601 0c3e 826f a43d f786 993e b702 b43e
00000150: 2e56 2ebe c711 e4bc 5a51 8abc b8ee 0dbe
00000160: 1920 b2be 3925 27be 42a4 a7bd 0b57 4fbd
00000170: 5ce4 d03e 5ab6 d9bb 60e3 c93d 29d3 c73e
00000180: 086b e63d 388d a5bb 5372 22be 0031 babe
00000190: 4d41 80be 867a ea3c fc55 a23d ec3d b0ba
000001a0: 8943 9e3e 73d9 0f3e ae53 cd3c 50ed 983e
000001b0: 2146 2cbe b6c8 46be 0557 163e 11a2 b83c
000001c0: 9815 2bbe 5321 04be ecbf c33c ced9 2cbc
000001d0: 3ffb 9ebe 6bf5 58bd 14d1 173f 97a0 1b3f
000001e0: 60b3 5abe 5ba6 0b3e 380b 293e c88f c4bc
000001f0: 7f30 133e 0b73 a4bd 635e cebd 0550 813e
00000200: 62b3 043e 41dd 21be 34a0 543d 747a 7d3d
00000210: 09ef d6bd 3daa 40bd af53 14bc 2fd5 3cbe
00000220: 68e2 17be e64e e0bb 7527 74bd bbb2 6e3e
00000230: b902 b7bd eb21 233d 88f7 7abd bd0d 0d3e
00000240: e25f 8cbe 6038 74bd cc0e 64bd 65c9 633d
00000250: e86e 6c3e 0099 43be bde6 333e 9b16 9ebc
00000260: 697c 26bc 26e0 93be f8bb 25bd 7666 063e
00000270: b7d7 563d a9cb 643e f90e 6b3e 5dda 11be
00000280: dade aa3d eeb6 be3e 0172 223e 5e03 bc3e
00000290: e8e2 ce3d 14a8 b9bd 8001 fb3d 2459 b3be
000002a0: da35 73be 2e8e bb3c 7c3b 513e dfcd d2bd
000002b0: 83f7 8fbe b843 a6bd b68b 9abd eedf 30bd
000002c0: a8f6 ccbc f281 b3be 57de 51bc 90d7 3dbd
000002d0: 3100 183e 69fa 9b3e c44a 123e ba3e 7e3d
000002e0: 665d 03be 3189 b23d ba0b d33b a4d4 10be
000002f0: de46 5d3e 3027 a13c 744e 2abe 6ff8 97bd
00000300: 345b 993d 0907 0b3c ddf9 083e 4a16 313f
00000310: 3e86 833e c240 873e 185a 163d 111a 46be
00000320: 6042 983d e551 833d adec eebc 7109 803d
00000330: 2415 8a3e 7297 6dbd a9df 653d 35a6 fbbd
00000340: 119a 60bc 151a a3bc f531 e33d a5f9 9f3d
00000350: 0e9b b7bc 276e 16be 9729 a4bd fb6f e83d
00000360: faec 6bbd dd92 a33d eb80 ed3c 0e19 993d
00000370: fe98 ec3c 6028 1e3d c954 8bbd 258e 593e
00000380: 196e 8bbc 86e5 3fbd c6a7 d9bc d303 0c3d
00000390: e497 84bd 4fd2 52bb 94af b43d 292e 2bbd
000003a0: 0a4d 03be c925 3f3e 2e08 6d3e fbbf dcbd
000003b0: 1f68 68be 3bef 3e3e 3b37 ccbc d911 613e
000003c0: 0d4b 2ebd fb84 d0bd bae0 85bc dc50 e33d
000003d0: b83b 0fbc 1975 193e 67f5 a5bd 93e9 e83d
000003e0: 5c8e 263e c535 183c 5b4b 1ebe d95a 2fbe
000003f0: 7c70 c63e 6143 b23e 17db 8d3d 0790 f33c

conv1.conv2.0.bias f4 [8]
-0.019393932 -0.06705659 -0.019058987 0.09553179 -0.08744609 0.026743338 -0.11576291 0.061749928
00000000: 06e0 9ebc f754 89bd 9821 9cbc 2ca6 c33d
00000010: f016 b3bd d814 db3c 1b15 edbd 7eed 7c3d

conv1.conv2.1.weight f4 [8]
1.0827726 0.80413234 0.8671241 0.7259066 1.0454481 1.0751497 0.9912421 1.4869738
00000000: 4b98 8a3f 9edb 4d3f d8fb 5d3f 04d5 393f
00000010: 3ed1 853f 819e 893f 0bc2 7d3f 2855 be3f

conv1.conv2.1.bias f4 [8]
0.06816583 -0.22615969 0.052954767 -0.08029035 0.29348835 0.01656616 -0.14831772 0.6227091
00000000: 879a 8b3d 6896 67be 19e7 583d 446f a4bd
00000010: 1b44 963e c1b5 873c 9ae0 17be dd69 1f3f

conv1.conv2.1.running_mean f4 [8]
-0.38379765 1.9536599 0.67165667 1.52705 0.7419617 -1.4616891 0.12932107 -0.672505
00000000: 2081 c4be 8711 fa3f b1f1 2b3f 6076 c33f
00000010: 34f1 3d3f a118 bbbf be6c 043e 4a29 2cbf

conv1.conv2.1.running_var f4 [8]
2.7359657 8.406917 4.3957515 2.463753 6.036217 6.681903 4.20761 2.6025198
00000000: 101a 2f40 bb82 0641 ffa9 8c40 21ae 1d40
00000010: b128 c140 26d2 d540 bea4 8640 af8f 2640

conv1.conv3.0.weight f4 [8, 8, 3, 3]
-0.23478763 -0.20690972 0.060999118 0.26665694 0.09676952 0.1999912 -0.2140481 -0.008351286
0.03443048 -0.35105076 0.20507678 0.4885194 -0.2207889 -0.10401261 0.018954046 0.04707354
0.14720955 -0.14795583 -0.36665484 -0.004485407 0.051705614 -0.19864877 0.018390087 0.28569052
-0.3196148 0.12670106 -0.18986692 -0.5718874 0.03148167 0.18534967 -0.06794342 -0.06342807
0.28171897 0.04825075 0.008668695 0.09560117 -0.16218646 0.23737776 0.55065686 0.289391
0.42430115 0.3305755 -0.07357457 -0.054675348 0.22236724 -0.1994789 -0.017142871 -0.36607933
0.055739686 0.066149585 0.18255958 0.12953925 -0.23207898 0.03907539 -0.18132433 0.03624776
0.19002034 -0.2057786 -0.0956309 0.2346531 -0.15590844 -0.23170818 -0.27418163 0.0074940496
-0.061149918 -0.12159559 0.05039106 -0.020872183 -0.3551966 0.18610391 -0.01700868 0.08737069
-0.14278565 -0.16630518 0.09478758 0.118012436 0.1267747 0.2772583 0.0030950976 0.27404726
0.02425249 0.36902454 0.011636959 0.075314865 -0.03432646 0.050973248 0.19832064 0.2001586
0.09279248 0.25679696 0.17377712 -0.045190856 0.20413142 -0.30948484 -0.069806054 0.03440437
0.10838997 -0.17934142 0.0010205423 0.14859235 0.14431989 -0.007599056 -0.04598189 0.3030509
-0.27182424 0.18230306 -0.11446056 -0.07419103 0.26813152 0.43239185 0.08195772 -0.008632385
-0.16566242 0.12277317 -0.017808141 0.08777345 0.249211 -0.23324074 -0.0064163734 0.043166783
-0.047624856 0.091950364 0.21445611 -0.03824355 -0.22296287 -0.123444356 0.061227515 -0.05768589
-0.15243295 -0.15095152 -0.08358059 -0.029028714 -0.1472862 -0.14698629 0.047572087 0.044420857
-0.08653726 -0.32565644 -0.22956932 -0.27300167 0.20100941 -0.12304109 0.006298702 -0.12719181
-0.03852028 -0.19102068 0.23386519 -0.022310143 -0.14594208 -0.08467415 0.0611946 0.2201899
-0.051722385 -0.19291593 0.03905388 -0.11070548 -0.12741737 0.24189919 0.2510601 -0.34430793
0.2815499 -0.021501565 0.08460874 -0.2736807 0.016115675 -0.23615026 -0.21955688 0.2193441
-0.280415 0.057058245 -0.17611836 0.013214121 0.11970932 -0.15361604 -0.21091402 -0.054677896
-0.009231681 -0.1137802 -0.019075852 -0.117807046 0.1482014 0.14187422 -0.051433947 -0.12241591
-0.13420618 -0.37448806 0.019684244 0.13095436 -0.069701396 0.21571478 -0.3195872 0.086806364
-0.012450355 -0.09361143 0.49769396 0.027999789 0.031468023 0.078591496 -0.17664458 -0.008459506
0.051567573 -0.49184126 -0.16298182 -0.04382095 -0.12078831 -0.1646996 -0.5155138 -0.28296715
-0.7540753 -0.098519765 0.016879788 0.42349976 0.3683629 0.08739043 0.06941293 0.57663256
-0.12836836 -0.077444665 0.106433496 0.34678152 -0.10862598 -0.12472319 0.27102152 -0.13021158
0.24302943 0.112128496 -0.089982934 -0.059246477 -0.26901385 0.3085074 -0.22202697 0.31045854
0.084485 -0.15363802 0.31057367 -0.04050921 -0.05515059 0.3436167 0.19955942 0.25605622
0.19905764 0.2185092 0.16145538 0.08460642 0.08954086 -0.22330451 0.24246527 -0.081957094
0.1088337 0.47378194 0.23649058 0.03684207 0.10315581 0.10755742 -0.08114903 0.06730265
00000000: 2b6c 70be 24e0 53be 36da 793d 4287 883e
00000010: 192f c63d 7eca 4c3e 6d2f 5bbe d5d3 08bc
00000020: fa06 0d3d edbc b3be a6ff 513e 371f fa3e
00000030: 7c16 62be 9004 d5bd 8445 9b3c 2fd0 403d
00000040: 1abe 163e bc81 17be 2fba bbbe 52fa 92bb
00000050: 44c9 533d 956a 4bbe cfa6 963c 0746 923e
00000060: 8da4 a3be ecbd 013e 796c 42be 3667 12bf
00000070: ecf2 003d 4ecc 3d3e eb25 8bbd 93e6 81bd
00000080: 783d 903e 94a2 453d 2407 0e3c 8cca c33d
00000090: 3514 26be 2813 733e d9f7 0c3f 0f2b 943e
000000a0: 003e d93e 3141 a93e 44ae 96bd 42f3 5fbd
000000b0: 3db4 633e 3244 4cbe 356f 8cbc c06e bbbe
000000c0: 4c4f 643d 6f79 873d e6f0 3a3e f0a5 043e
000000d0: 1da6 6dbe 840d 203d 16ad 39be 8878 143d
000000e0: b194 423e a0b7 52be 22da c3bd e748 703e
000000f0: 76a6 1fbe e944 6dbe 8961 8cbe a590 f53b
00000100: 5678 7abd 1c07 f9bd db66 4e3d 24fc aabc
00000110: 54dc b5be 0692 3e3e ca55 8bbc 68ef b23d
00000120: 6736 12be e84b 2abe fe1f c23d 81b0 f13d
00000130: 3ad1 013e cdf4 8d3e 1fd7 4a3b ec4f 8c3e
00000140: 28ad c63c c9f0 bc3e f2a8 3e3c ae3e 9a3d
00000150: e799 0cbd 53c9 503d 9114 4b3e 60f6 4c3e
00000160: fc09 be3d e47a 833e a1f2 313e 0c1a 39bd
00000170: d407 513e cc74 9ebe 7af6 8ebd 99eb 0c3d
00000180: 90fb dd3d 47a5 37be b8c3 853a 9828 183e
00000190: 98c8 133e 8101 f9bb 8257 3cbd 7d29 9b3e
000001a0: 8c2c 8bbe a7ad 3a3e 4c6a eabd 77f1 97bd
000001b0: 8948 893e 7762 dd3e 73d9 a73d d96e 0dbc
000001c0: 69a3 29be 8070 fb3d 61e2 91bc 91c2 b33d
000001d0: 2b31 7f3e a9d6 6ebe 7140 d2bb a7cf 303d
000001e0: 4812 43bd 7950 bc3d 629a 5b3e 45a5 1cbd
000001f0: 6150 64be 65d0 fcbd b4c9 7a3d 0a48 6cbd
00000200: 6217 1cbe 0993 1abe 4d2c abbd a0cd edbc
00000210: 32d2 16be 9383 16be f3da 423d a5f2 353d
00000220: 723a b1bd 71bc a6be 3814 6bbe e0c6 8bbe
00000230: 69d5 4d3e f8fc fbbd 5865 ce3b 923e 02be
00000240: 71c7 1dbd ed9a 43be 5b7a 6f3e c3c3 b6bc
00000250: d771 15be a469 adbd 30a7 7a3d 7679 613e
00000260: dada 53bd c18b 45be f6f6 1f3d 8eb9 e2bd
00000270: b379 02be 6cb4 773e f38a 803e 2149 b0be
00000280: 4f27 903e 0d24 b0bc 5947 ad3d e01f 8cbe
00000290: 0505 843c 60d1 71be 85d3 60be bd9b 603e
000002a0: 8e92 8fbe e8b5 693d 5f58 34be 0a80 583c
000002b0: 292a f53d 864d 1dbe d8f9 57be eef5 5fbd
000002c0: 7a40 17bc 9805 e9bd f644 9cbc d244 f1bd
000002d0: 1cc2 173e 7a47 113e 67ac 52bd 31b5 fabd
000002e0: 586d 09be e6bc bfbe da40 a13c e618 063e
000002f0: 9bbf 8ebd 56e4 5c3e efa0 a3be 89c7 b13d
00000300: 93fc 4bbc 59b7 bfbd bed1 fe3e d05f e53c
00000310: 9de4 003d 94f4 a03d 51e2 34be bd99 0abc
00000320: 8538 533d 9ed2 fbbe b5e4 26be 997d 33bd
00000330: dd5f f7bd 03a7 28be b6f8 03bf 12e1 90be
00000340: 140b 41bf bbc4 c9bd 7b47 8a3c f6d4 d83e
00000350: 109a bc3e c1f9 b23d 5e28 8e3d 319e 133f
00000360: ff72 03be 4f9b 9ebd cef9 d93d 598d b13e
00000370: 4c77 debd df6e ffbd 55c3 8a3e 2f56 05be
00000380: b5dc 783e a0a3 e53d f948 b8bd 6fac 72bd
00000390: 2fbc 89be aff4 9d3e 0a5b 63be 6cf4 9e3e
000003a0: 7906 ad3d 4953 1dbe 8303 9f3e fcec 25bd
000003b0: 96e5 61bd 87ee af3e 4e59 4c3e cd19 833e
000003c0: c4d5 4b3e e0c0 5f3e 8f54 253e 2146 ad3d
000003d0: 3361 b73d f0a9 64be d148 783e 1fd9 a7bd
000003e0: 34e4 de3d 8c93 f23e 962a 723e b6e7 163d
000003f0: 5a43 d33d 1147 dc3d 7631 a6bd f9d5 893d

conv1.conv3.0.bias f4 [8]
-0.061869495 -0.004268044 0.021999279 -0.031283822 0.08028535 0.012821249 -0.108843334 -0.01275869
00000000: de6a 7dbd f3da 8bbb d537 b43c 7723 00bd
00000010: a56c a43d 3710 523c 41e9 debd d309 51bc

conv1.conv3.1.weight f4 [8]
1.0953102 0.68730885 1.2723756 0.8244882 1.3832424 1.1736362 0.8014938 0.99683785
00000000: 2033 8c3f 79f3 2f3f 34dd a23f a911 533f
00000010: 160e b13f b639 963f b32e 4d3f c430 7f3f

conv1.conv3.1.bias f4 [8]
0.082620695 -0.046631582 0.31895986 0.07470414 -0.07343073 0.41607583 -0.12675664 0.30048692
00000000: 0a35 a93d c200 3fbd b54e a33e 7cfe 983d
00000010: da62 96bd e407 d53e 7ecc 01be 6cd9 993e

conv1.conv3.1.running_mean f4 [8]
0.043826185 -0.09744255 -0.45820573 0.9104686 -0.54131 -1.0492556 -1.1077611 -0.13392654
00000000: 1683 333d f68f c7bd f199 eabe 7814 693f
00000010: 4b93 0abf 024e 86bf 1ecb 8dbf 0a24 09be

conv1.conv3.1.running_var f4 [8]
2.5028472 4.066281 3.0817988 6.1239686 5.9203296 3.477724 2.3871179 3.5291321
00000000: a62e 2040 f91e 8240 313c 4540 8df7 c340
00000010: 5773 bd40 0893 5e40 8ac6 1840 4ddd 6140

conv2.conv1.0.weight f4 [16, 8, 3, 3]
-0.051955983 -0.23332198 0.023889912 -0.26253158 -0.29491162 -0.11836086 0.07011075 0.006271123
0.1304065 -0.119191185 0.0029422415 -0.31953973 0.037192386 -0.07761753 0.20129313 -0.21484382
0.05035367 -0.2845284 0.059527095 0.15280959 -0.10854061 -0.3583335 0.28959495 -0.23701143
-0.0029240279 0.11934723 0.0785329 0.21285278 0.0466177 -0.24690175 0.12829368 -0.038678907
0.021334847 0.10517012 0.0073913154 0.17870514 0.012957164 0.18190187 0.2906952 -0.060830746
0.32371658 0.07022339 -0.104502864 -0.07648512 -0.09099759 -0.04882566 -0.18242249 -0.22010542
-0.0952774 -0.4303721 -0.050266284 -0.20039344 -0.09799113 -0.50032365 -0.1379854 -0.2315311
-0.03207189 0.26720238 -0.0026014252 0.2248269 0.0051760203 -0.02961788 0.24923918 -0.32998088
-0.27248114 -0.026225464 -0.23546304 0.10181451 0.21221235 0.18050233 0.20311683 0.067522176
-0.0065536415 0.27594778 0.026622573 0.37921637 0.05138481 -0.13496591 -0.045471773 0.0115265045
-0.03093984 0.17009374 -0.12218457 -0.039611388 0.19112791 -0.5358375 -0.18465945 0.41328067
-0.055066966 0.06450559 -0.26561907 0.18787442 0.17361598 0.0063169557 0.19098985 -0.15217713
-0.227392 -0.072684966 -0.023154592 -0.012911872 0.011255844 -0.13733718 -0.24940091 -0.046274688
-0.3899975 0.11023883 -0.05098809 -0.17324792 -0.4311348 -0.091068625 -0.11315786 0.10457721
0.064368576 0.17301753 0.20340016 -0.03197196 0.19592942 -0.028853066 0.3091291 -0.14573584
-0.2194101 -0.18887353 -0.14970085 -0.17261201 -0.18047246 0.18717106 -0.20951292 0.083864085
0.18321839 -0.14660797 -0.07705847 0.283931 -0.1862813 0.21865742 -0.2661949 -0.38478297
-0.13671274 0.13048281 -0.17537203 -0.00381666 -0.030284433 -0.13103361 -0.0028506704 0.023347262
-0.07719132 -0.41036725 0.067280784 0.21283096 0.076910086 0.18533699 -0.14124496 0.2900655
0.1411899 -0.24113207 0.03536971 0.15522608 0.30601698 0.034408372 0.041042168 -0.120496795
-0.14805366 0.06974356 0.08622139 0.27388322 0.007710561 -0.20064618 0.4190878 -0.14366616
-0.21277496 0.13343023 -0.10729741 -0.15576512 -0.41256058 -0.09030191 -0.0046967366 0.09228789
0.12429541 -0.056618158 -0.1483297 0.3625346 0.24892107 0.20717 0.11423475 0.33294755
0.10374658 -0.08973569 -0.09935179 -0.3364671 -0.03615967 -0.056831576 -0.26009947 -0.0153442845
-0.053994056 0.176191 0.2600249 0.09276549 0.31519803 0.04148341 -0.12640771 -0.17695972
-0.26607317 -0.08267625 0.029689414 0.087168925 -0.0016517984 -0.022182403 0.06508604 0.2261686
0.14247644 -0.50318015 0.08713519 0.0013693558 0.16679037 0.0057722433 -0.043124728 0.51151603
0.20369561 0.0839852 0.17853929 -0.15892312 0.008257572 0.2001895 -0.2989754 0.055210575
0.30693874 -0.09245975 0.061065197 -0.11527449 -0.17354238 0.03061461 0.14164165 -0.41218063
-0.08065862 -0.023608277 -0.08425863 0.13720745 0.17202868 0.31349427 0.24368916 -0.10122915
-0.24064611 -0.051171098 -0.29636952 -0.26735473 -0.032045644 0.24615371 -0.27381897 -0.19656533
-0.25443834 0.24829322 0.073757306 0.04660113 0.033574816 -0.073240355 -0.33650887 -0.00715723
00000000: cccf 54bd f5eb 6ebe c7b4 c33c 8a6a 86be
00000010: a8fe 96be 2e67 f2bd 3a96 8f3d fe7d cd3b
00000020: 4889 053e 821a f4bd 9fd2 403b b69a a3be
00000030: 0b57 183d f1f5 9ebd c91f 4e3e 0500 5cbe
00000040: a63f 4e3d b5ad 91be afd2 733d 1e7a 1c3e
00000050: 8a4a debd 7d77 b7be ca45 943e 20b3 72be
00000060: 0ca1 3fbb 526c f43d dbd5 a03d 14f6 593e
00000070: 34f2 3e3d d0d3 7cbe 6b5f 033e c66d 1ebd
00000080: 6bc6 ae3c 6f63 d73d d932 f23b 7bfe 363e
00000090: 494a 543c 7c44 3a3e 00d6 943e a929 79bd
000000a0: 2ebe a53e 48d1 8f3d 9905 d6bd 3ba4 9cbd
000000b0: f25c babd 6afd 47bd f6cc 3abe 5163 61be
000000c0: cc20 c3bd bb59 dcbe 05e4 4dbd f033 4dbe
000000d0: 93af c8bd 3615 00bf 0b4c 0dbe 7d16 6dbe
000000e0: d05d 03bd c0ce 883e ac7c 2abb 0639 663e
000000f0: 9b9b a93b 32a1 f2bc 8e38 7f3e 41f3 a8be
00000100: a682 8bbe c9d6 d6bc 391d 71be 2084 d03d
00000110: 324e 593e 9ad5 383e dcfd 4f3e 1149 8a3d
00000120: eebf d6bb 0749 8d3e 9517 da3c a628 c23e
00000130: e178 523d 8134 0abe 9c40 3abd aad9 3c3c
00000140: 8c75 fdbc 0e2d 2e3e e73b fabd 8d3f 22bd
00000150: 09b7 433e a52c 09bf 5e17 3dbe 8699 d33e
00000160: e68d 61bd 821b 843d 39ff 87be 2762 403e
00000170: 63c8 313e 77fe ce3b d892 433e 52d4 1bbe
00000180: 73d9 68be dbdb 94bd b3ae bdbc 518c 53bc
00000190: 6e6a 383c 1ea2 0cbe f462 7fbe 878a 3dbd
000001a0: c1ad c7be e5c4 e13d e3d8 50bd e767 31be
000001b0: b3bd dcbe 3082 babd 4fbf e7bd 942c d63d
000001c0: acd3 833d 822b 313e 2248 503e 08f5 02bd
000001d0: b9a1 483e 445d ecbc 2b46 9e3e c73b 15be
000001e0: 0bad 60be 1068 41be 2e4b 19be 34c1 30be
000001f0: c6cd 38be c5a9 3f3e 8e8a 56be efc0 ab3d
00000200: 9a9d 3b3e 6620 16be d5d0 9dbd 675f 913e
00000210: 86c0 3ebe bbe7 5f3e b34a 88be 4602 c5be
00000220: 6dfe 0bbe 499d 053e ba94 33be ee20 7abb
00000230: 0f17 f8bc ad2d 06be 50d2 3abb c242 bf3c
00000240: 7c16 9ebd a81b d2be 82ca 893d 5cf0 593e
00000250: 0983 9d3d fbc8 3d3e 85a2 10be 7783 943e
00000260: 1694 103e 53eb 76be d4df 103d 96f3 1e3e
00000270: 42ae 9c3e cbef 0c3d d51b 283d 06c7 f6bd
00000280: 619b 17be b6d5 8e3d d794 b03d 6c3a 8c3e
00000290: e0a8 fc3b 3176 4dbe ad92 d63e 391d 13be
000002a0: aee1 59be efa1 083e bfbe dbbd e480 1fbe
000002b0: 243b d3be 35f0 b8bd 15e7 99bb 6f01 bd3d
000002c0: 988e fe3d 71e8 67bd bee3 17be 239e b93e
000002d0: 2ae5 7e3e 5f24 543e e9f3 e93d 1a78 aa3e
000002e0: 1679 d43d 58c7 b7bd f478 cbbd 6a45 acbe
000002f0: 2a1c 14bd 3ac8 68bd c22b 85be 9866 7bbc
00000300: df28 5dbd 6a6b 343e fc21 853e d5fb bd3d
00000310: a361 a13e 82ea 293d 0671 01be ee34 35be
00000320: be3a 88be 2a52 a9bd 3737 f33c 9f85 b23d
00000330: 2881 d8ba dfb7 b5bc d44b 853d be98 673e
00000340: 58e5 113e 6ad0 00bf ef73 b23d f57b b33a
00000350: 18cb 2a3e 1625 bd3b 8ea3 30bd b7f2 023f
00000360: 9595 503e 6f00 ac3d 01d3 363e bebc 22be
00000370: c44a 073c 7afe 4c3e 4e13 99be 7c24 623d
00000380: 1327 9d3e 8a5b bdbd 801f 7a3d 0815 ecbd
00000390: 18b5 31be 7ecb fa3c 820a 113e 5709 d3be
000003a0: 5930 a5bd 2566 c1bc ca8f acbd 1c80 0c3e
000003b0: 4928 303e 5282 a03e a789 793e 3b51 cfbd
000003c0: ef6b 76be c998 51bd bfbd 97be b8e2 88be
000003d0: 4b42 03bd b80f 7c3e 0032 8cbe 6c48 49be
000003e0: be45 82be 9440 7e3e 120e 973d d4e0 3e3d
000003f0: bf85 093d 0aff 95bd e44a acbe 3287 eabb

conv2.conv1.0.bias f4 [16]
-0.017099107 -0.09645492 0.02764147 0.035170123 -0.09320844 -0.10567229 0.0123555595 0.115025446
-0.105361715 -0.05771591 -0.04062158 -0.10404812 -0.07252843 0.09246123 0.09009191 -0.08665902
00000000: 6d13 8cbc 288a c5bd 5d70 e23c 8c0e 103d
00000010: 11e4 bebd b76a d8bd f96e 4a3c 7692 eb3d
00000020: e2c7 d7bd 8567 6cbd d062 26bd 2e17 d5bd
00000030: c989 94bd 505c bd3d 1b82 b83d 497a b1bd

conv2.conv1.1.weight f4 [16]
1.1396236 0.98842156 0.77300304 1.0339084 1.2202572 1.2246636 0.8973766 1.0114053
1.1051315 0.8555557 1.0501294 1.0019975 1.0962842 0.87657696 0.887883 1.0849339
00000000: 30df 913f 3209 7d3f 87e3 453f 1c57 843f
00000010: 6331 9c3f c7c1 9c3f 79ba 653f bb75 813f
00000020: f374 8d3f b305 5b3f a46a 863f 7441 803f
00000030: 0a53 8c3f 5967 603f 4d4c 633f 1ddf 8a3f

conv2.conv1.1.bias f4 [16]
0.1608722 -0.043150116 -0.1631445 0.07660904 0.030522292 -0.15163527 0.08124066 0.06046779
-0.08099138 -0.005572788 -0.007378701 0.114384614 0.1721079 -0.17548285 0.034628402 -0.10586046
00000000: afbb 243e 2dbe 30bd 5a0f 27be 33e5 9c3d
00000010: e309 fa3c 4746 1bbe 8161 a63d 13ad 773d
00000020: cfde a5bd ef9b b6bb 08c9 f1bb 7b42 ea3d
00000030: 0e3d 303e c7b1 33be 83d6 0d3d 5ecd d8bd

conv2.conv1.1.running_mean f4 [16]
-1.9020665 -1.4009516 1.401215 -0.10471095 -1.774356 -4.4063363 -0.32161918 0.22436778
-1.6737599 0.43153054 -2.6630094 -1.0576655 -0.5234985 2.3270364 -1.634587 -2.612407
00000000: ea76 f3bf 6252 b3bf 035b b33f b272 d6bd
00000010: 191e e3bf b500 8dc0 45ab a4be abc0 653e
00000020: c43d d6bf 92f1 dc3e bf6e 2ac0 9561 87bf
00000030: ff03 06bf 2aee 1440 263a d1bf ad31 27c0

conv2.conv1.1.running_var f4 [16]
5.572453 1.9946889 1.689354 3.2526352 4.526266 6.4954205 3.1847627 2.824075
3.6770742 3.303524 3.947956 4.871758 3.5633526 3.6397715 4.164984 3.3455904
00000000: 8951 b240 f751 ff3f c03c d83f 2d2b 5040
00000010: 2cd7 9040 7cda cf40 27d3 4b40 a5bd 3440
00000020: 2f55 6b40 f06c 5340 50ab 7c40 71e5 9b40
00000030: f80d 6440 04f2 6840 8d47 8540 271e 5640

conv2.conv2.0.weight f4 [16, 16, 3, 3]
-0.0668877 -0.0091600185 0.14360924 -0.09926559 -0.18704502 0.11859056 -0.28824297 -0.0071088304
-0.096000455 -0.007305779 0.02830893 0.025423585 0.12676094 0.14467944 0.04826282 -0.072803706
-0.21451554 -0.14351933 -0.10319392 -0.19484016 0.032687783 -0.09112739 0.070173725 -0.028235108
-0.23107716 -0.03021156 -0.09267859 0.06305354 -0.25740793 -0.26995322 0.033712294 0.19904462
0.0044350876 -0.061959583 -0.14556578 -0.19164464 -0.094875835 -0.08483383 0.08735677 0.076297686
0.05193393 -0.07784471 -0.113804914 -0.09015092 -0.24486703 -0.07141387 -0.21800005 -0.023741204
0.05844734 0.23311444 0.11609832 -0.046995964 0.20964389 0.08493249 -0.10278946 0.08943756
-0.07416006 -0.07259466 -0.04541248 -0.04311323 0.10301229 -0.10528828 -0.10696667 -0.3397279
0.17724739 0.0746358 0.037209377 -0.20583029 -0.20743622 0.041872162 -0.2000359 -0.091522954
0.0013204119 0.08153308 0.14215441 -0.26179802 -0.15383583 0.14358956 0.02850346 -0.041985527
0.16249402 0.2160615 0.079528645 0.113694094 -0.06992295 -0.22403967 -0.31562603 0.034211118
-0.007195671 -0.016095491 0.04729842 -0.050764356 -0.07809017 0.051996205 -0.058843836 0.06735526
-0.16662253 -0.032434158 -0.009066679 0.04993705 0.038459245 -0.06856369 -0.013069305 -0.12773079
-0.17407264 0.050586984 0.031880066 0.01211444 0.077125676 0.13539183 -0.06264632 -0.20946649
-0.23739466 -0.12823153 0.18078502 0.041218676 0.11699851 -0.15912582 -0.0026798262 -0.12332495
0.019798405 0.10854693 -0.15497363 0.30042803 -0.060478587 -0.12530735 0.01106837 0.090095185
-0.1967365 -0.007969032 -0.027974753 -0.2067096 0.11933042 -0.06064587 -0.08924378 -0.16323896
-0.17191967 -0.117136225 -0.113510944 -0.021887282 0.014048558 0.08656372 -0.06675251 0.050678767
0.011653818 -0.025198884 -0.10900065 0.19534057 -0.045942742 -0.076524384 0.13879505 0.046574708
0.06804562 -0.0014976303 0.08765019 0.1631291 0.07936736 0.03134266 -0.015731126 -0.18349072
-0.03600907 -0.08746333 0.031709895 0.12025411 0.063273735 0.12356171 0.28310776 0.17743728
-0.34726152 0.003325656 -0.023793872 -0.036393635 0.0577604 -0.075670764 0.0735655 0.18929254
-0.07930342 0.006315356 -0.164782 0.10802904 -0.118238546 -0.30401695 -0.069664136 -0.08221153
-0.15353212 0.06366214 -0.1831734 0.046848092 0.16700777 0.02068654 0.17933556 -0.0627086
0.001969597 0.1516012 -0.010105756 0.077852346 -0.24964517 0.1867069 -0.26730105 0.27673966
0.15529346 -0.22848716 0.0038883286 -0.04935853 -0.011020813 -0.021768643 -0.12153393 0.048628304
-0.25550538 -0.19992475 -0.40279487 -0.061712585 0.005654276 0.12597197 0.20308113 -0.00568582
-0.13797912 -0.1516262 0.022874812 0.090442255 -0.14130801 0.11708283 -0.09417719 -0.018357849
-0.17506672 -0.0051537887 0.015755298 0.070364796 0.38394657 0.20005313 0.1311147 0.13260214
0.23656778 -0.13593258 0.03561916 0.028290275 -0.043949403 0.07766604 0.060557373 0.19205832
-0.14682026 -0.056713916 0.14917299 0.03560595 0.10318153 0.14974849 -0.1736503 -0.18822165
0.051354114 -0.15981989 0.06056738 0.109277695 -0.041543942 -0.1579496 0.18440865 -0.0416547
00000000: 6bfc 88bd e713 16bc 4d0e 133e c24b cbbd
00000010: bb88 3fbe 9cdf f23d 9594 93be 31f1 e8bb
00000020: e39b c4bd 5165 efbb 21e8 e73c 1f45 d03c
00000030: 9fcd 013e d926 143e 3caf 453d 1c1a 95bd
00000040: f6a9 5bbe bbf6 12be 5557 d3bd 2e84 47be
00000050: a0e3 053d ffa0 babd 3eb7 8f3d 504d e7bc
00000060: 7e9f 6cbe 3c7e f7bc 46ce bdbd 3722 813d
00000070: f9ca 83be 4f37 8abe e715 0a3d 5ad2 4b3e
00000080: 3654 913b 55c9 7dbd 320f 15be 7e3e 44be
00000090: 434e c2bd 5cbd adbd 1be8 b23d f641 9c3d
000000a0: acb8 543d 0c6d 9fbd 8d12 e9bd 0ca1 b8bd
000000b0: 6cbe 7abe 6f41 92bd 683b 5fbe ea7c c2bc
000000c0: 7a66 6f3d 8db5 6e3e f5c4 ed3d d77e 40bd
000000d0: e3ac 563e 16f1 ad3d 4883 d2bd 0a2b b73d
000000e0: 3be1 97bd 82ac 94bd 7002 3abd 8097 30bd
000000f0: 1cf8 d23d 62a1 d7bd 5711 dbbd d1f0 adbe
00000100: 5780 353e a8da 983d dc68 183d 2dc5 52be
00000110: 296a 54be 2582 2b3d 36d6 4cbe 6370 bbbd
00000120: ac11 ad3a d1fa a63d ed90 113e 640a 86be
00000130: 2487 1dbe 2409 133e 1780 e93c 04f9 2bbd
00000140: d564 263e 3a3f 5d3e eadf a23d 73d8 e83d
00000150: c333 8fbd a86a 65be bc99 a1be f520 0c3d
00000160: aac9 ebbb b1da 83bc fdbb 413d 49ee 4fbd
00000170: bded 9fbd f9f9 543d 3c06 71bd 8ef1 893d
00000180: 199f 2abe aed9 04bd 688c 14bc cb8a 4c3d
00000190: 7187 1d3d 1f6b 8cbd a320 56bc dccb 02be
000001a0: 1940 32be 4c34 4f3d ac94 023d a57b 463c
000001b0: 11f4 9d3d 28a4 0a3e b74c 80bd 627e 56be
000001c0: 9617 73be 204f 03be b51f 393e ead4 283d
000001d0: ea9c ef3d e1f1 22be 06a0 2fbb cb91 fcbd
000001e0: 4430 a23c da4d de3d 68b1 1ebe b4d1 993e
000001f0: 65b8 77bd 9250 00be 1c58 353c d383 b83d
00000200: 4b75 49be 8b90 02bc 4f2b e5bc aeab 53be
00000210: 8263 f43d ce67 78bd 71c5 b6bd 1d28 27be
00000220: b60b 30be 1ee5 efbd 6d78 e8bd f54c b3bc
00000230: ec2b 663c 5248 b13d 8ab5 88bd 8a94 4f3d
00000240: a8ef 3e3c e46d cebc bc3b dfbd 5c07 483e
00000250: 752e 3cbd d1b8 9cbd 4a20 0e3e 1fc5 3e3d
00000260: 815b 8b3d 224c c4ba f181 b33d 510b 273e
00000270: 5b8b a23d 2961 003d 90de 80bc fee4 3bbe
00000280: 3f7e 13bd f91f b3bd 3ce2 013d c947 f63d
00000290: a995 813d ec0d fd3d 80f3 903e 1eb2 353e
000002a0: 43cc b1be 40f3 593b 5eeb c2bc 7e11 15bd
000002b0: 2b96 6c3d 46f9 9abd 82a9 963d e7d5 413e
000002c0: d569 a2bd 0cf1 ce3b 9dbc 28be 543e dd3d
000002d0: 0d27 f2bd 1ca8 9bbe 12ac 8ebd 855e a8bd
000002e0: 8637 1dbe 4c61 823d cf91 3bbe c9e3 3f3d
000002f0: 1604 2b3e d276 a93c bea3 373e 5e6d 80bd
00000300: 5b14 013b 583d 1b3e 9d92 25bc 0d71 9f3d
00000310: fca2 7fbe 1830 3f3e afdb 88be d2b0 8d3e
00000320: 4005 1f3e 8af8 69be 54d3 7e3b 2c2c 4abd
00000330: a490 34bc 2754 b2bc c8e6 f8bd 792e 473d
00000340: 9ad1 82be 13b9 4cbe 213b cebe 56c6 7cbd
00000350: 8147 b93b ccfe 003e 80f4 4f3e 1d50 babb
00000360: 664a 0dbe e643 1bbe f563 bb3c ca39 b93d
00000370: 0cb3 10be 1fc9 ef3d f8df c0bd 3363 96bc
00000380: b144 33be 1de1 a8bb 4111 813c 6b1b 903d
00000390: a594 c43e bada 4c3e ef42 063e dbc8 073e
000003a0: d33e 723e e931 0bbe 65e5 113d 02c1 e73c
000003b0: 4a04 34bd 5f0f 9f3d 020b 783d f0aa 443e
000003c0: 0d58 16be da4c 68bd cec0 183e 8bd7 113d
000003d0: d750 d33d ab57 193e 62d1 31be 2dbd 40be
000003e0: b158 523d d3a7 23be 8015 783d fccc df3d
000003f0: fb29 2abd 8abd 21be 9fd5 3c3e 1e9e 2abd

conv2.conv2.0.bias f4 [16]
-0.022161288 0.045668773 -0.04921217 -0.022012755 0.07634288 0.044362575 -0.06461142 -0.022891205
0.008180002 0.03009151 -0.03832016 0.05832397 0.0013029476 -0.07201516 0.022319067 -0.08085676
00000000: 978b b5bc 2e0f 3b3d b392 49bd 1854 b4bc
00000010: a859 9c3d 88b5 353d fe52 84bd 5686 bbbc
00000020: 6a05 063c 7882 f63c 9af5 1cbd 1de5 6e3d
00000030: abc7 aa3a af7c 93bd 7ad6 b63c 3b98 a5bd

conv2.conv2.1.weight f4 [16]
1.0576376 1.0231014 1.0053259 0.941439 0.99685264 1.1346579 0.9252592 0.8880571
0.9179484 0.9696141 0.89356196 0.8504934 1.1765683 1.0888898 1.1556467 1.0448434
00000000: ab60 873f fdf4 823f 85ae 803f 2502 713f
00000010: bc31 7f3f 783c 913f c9dd 6c3f b657 633f
00000020: abfe 6a3f a138 783f 7ac0 643f efb9 593f
00000030: ca99 963f be60 8b3f 3bec 933f 6ebd 853f

conv2.conv2.1.bias f4 [16]
0.06070344 0.032910693 0.05475011 -0.053358413 -0.060284432 0.19746496 -0.021284284 -0.087524444
0.093573384 0.04844793 -0.07898411 -0.08902451 0.1518434 -0.21694323 0.22850958 -0.031450484
00000000: 2ca4 783d 5dcd 063d a741 603d 5a8e 5abd
00000010: cfec 76bd 4134 4a3e 615c aebc 0440 b3bd
00000020: 67a3 bf3d 5671 463d 6cc2 a1bd 7b52 b6bd
00000030: d67c 1b3e 5e26 5ebe 6afe 693e 39d2 00bd

conv2.conv2.1.running_mean f4 [16]
-1.6808052 0.33552262 -0.11101956 -0.6945866 0.7197501 -1.1273928 0.102043636 -3.1277099
0.039093107 -0.08561346 0.804766 0.63656014 -0.6557286 -0.5379352 -1.1279347 -0.5636824
00000000: a024 d7bf 9fc9 ab3e 395e e3bd 6dd0 31bf
00000010: 8b41 383f 684e 90bf 41fc d03d 662c 48c0
00000020: 1820 203d 1c56 afbd 2505 4e3f 9bf5 223f
00000030: d4dd 27bf 1fb6 09bf 2a60 90bf 7d4d 10bf

conv2.conv2.1.running_var f4 [16]
1.7628436 1.8441216 1.5706178 1.7938462 2.7660465 2.4482675 2.207468 2.0773864
4.312127 1.7103721 4.154504 2.039901 3.2813108 1.4737076 2.896274 3.834116
00000000: dca4 e13f 2d0c ec3f 010a c93f c19c e53f
00000010: e806 3140 6ab0 1c40 2847 0d40 e6f3 0440
00000020: f2fc 8940 79ed da3f b2f1 8440 bd8d 0240
00000030: ff00 5240 73a2 bc3f 8e5c 3940 2862 7540

conv2.conv3.0.weight f4 [16, 16, 3, 3]
-0.26598555 0.043570943 -0.21731456 0.16081661 0.16673255 0.08460566 0.17731841 -0.15188703
-0.048574265 0.050319243 -0.028938852 -0.04188609 -0.059667572 0.012965886 -0.030967478 0.12911218
0.0033803075 -0.12080795 -0.09430555 -0.19090007 -0.031793095 -0.016294787 -0.040584102 -0.23317716
0.031943087 -0.14987414 0.12033933 -0.05379546 -0.02318286 0.09973228 -0.17384543 0.0056362334
0.027590832 0.10865499 -0.09495198 0.14684036 -0.0136579275 -0.05653808 -0.16265753 -0.025883578
0.14864527 -0.08508314 -0.12363385 0.071611665 -0.09483621 0.11638964 0.07739277 -0.018895425
0.137189 0.2425535 0.20114331 0.3587627 0.25792164 -0.31945127 0.14710101 -0.101906165
0.14083935 0.19123589 -0.0019228425 0.0760284 -0.034755137 0.0481414 -0.09954245 0.0022617178
0.017691677 0.08966663 -0.010718617 -0.036131386 -0.196274 0.17552817 0.013761666 0.08699314
-0.27328423 -0.092207335 0.009667947 0.080985 -0.06748618 -0.14328288 0.22316745 -0.121162415
-0.17306696 0.027754767 -0.08172313 -0.17543845 -0.19326074 0.022449095 -0.07495003 -0.12708402
-0.031278376 0.01577822 0.067938864 -0.080076575 -0.07076802 -0.0055607366 0.046212405 0.008508163
0.06202175 -0.034882367 0.008087104 -0.18019406 0.032412488 -0.14187665 0.05762853 0.1274431
-0.04465242 -0.044950813 -0.0044330815 -0.05442982 -0.042897634 0.09606607 0.11807152 -0.15072986
0.070037976 0.08391532 0.13981025 -0.1952726 0.07965499 -0.10075601 0.1114301 -0.1392834
-0.07905198 0.026812633 -0.02117192 0.09971742 -0.18061636 -0.0018301867 0.22976477 0.16216014
-0.05907549 0.31718302 0.25636524 -0.04812905 0.15630974 0.046059083 -0.09624863 0.19194765
-0.17798166 -0.079287864 0.06962476 -0.030327095 0.113109484 0.01675221 -0.027596422 0.11668066
-2.8193746e-05 0.046457242 -0.10547431 0.19072329 -0.13718429 -0.13416946 0.24404438 -0.03549776
0.003330169 -0.14539118 0.16925919 0.11648586 0.1272382 -0.17199999 -0.059048407 -0.14650969
-0.03932482 0.17002368 -0.07320997 -0.0008014432 -0.0064064 -0.1695213 -0.08512405 -0.06896825
-0.05317186 -0.017937776 -0.19206595 -0.013126828 0.020301238 -0.18679649 0.20902883 0.1756748
0.063248016 -0.14719963 0.24901392 0.05827052 0.10705716 0.058156613 0.1499343 0.06689534
0.15092072 -0.07443573 0.22216202 0.17966332 0.124113746 -0.071679056 -0.004591135 -0.031159606
0.12185097 -0.013854566 -0.0016055633 -0.03015835 -0.005090877 0.052470587 0.1405468 -0.03817882
0.0811961 0.26881376 -0.106594294 -0.035604678 0.035471994 -0.042655576 0.052970264 -0.11353789
-0.16925423 -0.037549004 -0.14801791 -0.010330708 0.015813211 0.11097583 0.009267391 0.037799243
0.14149359 0.15974998 0.18218295 0.051137466 0.14194942 -0.08452025 0.13520186 -0.08901811
0.14484052 -0.063186884 -0.002955671 0.041654587 -0.13833912 -0.09533773 0.07462229 0.09276584
-0.11700296 0.15851773 0.00013065003 0.10346248 0.2614897 0.23737074 0.025311437 0.14820606
-0.02162486 -0.17301668 -0.106609575 -0.022190133 0.11113047 -0.14487636 0.1445588 -0.08026919
0.13627 -0.109955095 0.091484286 -0.042624954 -0.048360225 -0.17657988 -0.0944997 0.07910503
00000000: 422f 88be 7277 323d b587 5ebe 1cad 243e
00000010: f0bb 2a3e bb45 ad3d f592 353e 4688 1bbe
00000020: cff5 46bd 8d1b 4e3d 2c11 edbc c090 2bbd
00000030: fc65 74bd de6e 543c 82af fdbc fc35 043e
00000040: 2688 5d3b 296a f7bd 4523 c1bd 4f7b 43be
00000050: 7a39 02bd a57c 85bc 843b 26bd fec5 6ebe
00000060: c1d6 023d 9b78 19be 7774 f63d a158 5cbd
00000070: fbe9 bdbc 7040 cc3d 8904 32be 27b0 b83b
00000080: 2b06 e23c 8286 de3d 2f76 c2bd 525d 163e
00000090: 80c5 5fbc 7994 67bd b28f 26be cc09 d4bc
000000a0: 7736 183e 1240 aebd be33 fdbd 23a9 923d
000000b0: 7d39 c2bd b15d ee3d 1a80 9e3d 94ca 9abc
000000c0: 467b 0c3e f25f 783e 83f8 4d3e bfaf b73e
000000d0: 4e0e 843e 1e8f a3be a6a1 163e 2eb4 d0bd
000000e0: 3138 103e 57d3 433e e307 fcba c7b4 9b3d
000000f0: 675b 0ebd eb2f 453d e9dc cbbd 5439 143b
00000100: 23ee 903c 23a3 b73d 239d 2fbc 81fe 13bd
00000110: 0dfc 48be a8bd 333e 9c78 613c 7629 b23d
00000120: e9eb 8bbe 33d7 bcbd 4f66 1e3c 77db a53d
00000130: 3236 8abd bfb8 12be 0286 643e 0024 f8bd
00000140: 7738 31be f75d e33c 755e a7bd 23a6 33be
00000150: 25e6 45be 2ae7 b73c 677f 99bd 5022 02be
00000160: c11d 00bd 5341 813c 8823 8b3d 30ff a3bd
00000170: d3ee 90bd d736 b6bb 3849 3d3d d265 0b3c
00000180: 850a 7e3d d0e0 0ebd c67f 043c cb84 38be
00000190: f5c2 043d 1d48 11be e50b 6c3d 7280 023e
000001a0: 75e5 36bd 581e 38bd 6243 91bb cef1 5ebd
000001b0: 6eb5 2fbd 4abe c43d 7bcf f13d ee58 1abe
000001c0: 1270 8f3d ccdb ab3d 6b2a 0f3e 8af5 47be
000001d0: 2822 a33d 2b59 cebd 7735 e43d 4fa0 0ebe
000001e0: 01e6 a1bd 2ba6 db3c bc70 adbc a638 cc3d
000001f0: 7ff3 38be e0e2 efba 7547 6b3e 4f0d 263e
00000200: 24f9 71bd d065 a23e 4e42 833e f722 45bd
00000210: a90f 203e 73a8 3c3d 001e c5bd ed8d 443e
00000220: d340 36be ad61 a2bd 6d97 8e3d 8770 f8bc
00000230: f2a5 e73d ee3b 893c e411 e2bc 45f6 ee3d
00000240: 9c81 ecb7 f349 3e3d ea02 d8bd f74c 433e
00000250: 0a7a 0cbe b863 09be c5e6 793e 1966 11bd
00000260: f73e 5a3b 6de1 14be 4852 2d3e 2390 ee3d
00000270: bb4a 023e c420 30be bedc 71bd a306 16be
00000280: 1013 21bd b01a 2e3e 1cef 95bd f117 52ba
00000290: c7ec d1bb fe96 2dbe 8555 aebd 3a3f 8dbd
000002a0: bcca 59bd 3ef2 92bc f0ac 44be e811 57bc
000002b0: c84e a63c 9447 3fbe a70b 563e 18e4 333e
000002c0: 2d88 813d 80bb 16be 81fd 7e3e 12ad 6e3d
000002d0: c940 db3d a135 6e3d 6188 193e 6d00 893d
000002e0: f68a 1a3e c371 98bd 717e 633e a9f9 373e
000002f0: 592f fe3d 78cc 92bd 3b71 96bb 6e42 ffbc
00000300: 008d f93d 43fe 62bc c471 d2ba a50e f7bc
00000310: 5fd1 a6bb 66eb 563d 80eb 0f3e 6561 1cbd
00000320: 244a a63d f5a1 893e 1c4e dabd 36d6 11bd
00000330: 154b 113d 9db7 2ebd 59f7 583d 8e86 e8bd
00000340: fb50 2dbe fccc 19bd 0292 17be 2142 29bc
00000350: b58a 813c 4c47 e33d 41d6 173c 61d3 1a3d
00000360: b2e3 103e 8095 233e 2b8e 3a3e 8575 513d
00000370: 305b 113e f418 adbd 5b72 0a3e 204f b6bd
00000380: 1351 143e 2068 81bd eeb3 41bb 009e 2a3d
00000390: c5a8 0dbe 6e40 c3bd 92d3 983d 04fc bd3d
000003a0: 3f9f efbd 7952 223e 1aff 0839 23e4 d33d
000003b0: fae1 853e 5111 733e ee59 cf3c 54c3 173e
000003c0: 9e26 b1bc 492b 31be 1f56 dabd 15c8 b5bc
000003d0: 5f98 e33d 785a 14be 3907 143e 2c64 a4bd
000003e0: 5d8a 0b3e 2330 e1bd 1d5c bb3d 8197 2ebd
000003f0: 5f15 46bd 5bd1 34be 0f89 c1bd d101 a23d

conv2.conv3.0.bias f4 [16]
-0.012222975 -0.059654824 0.0023280971 0.047691766 0.0027609228 0.052366942 -0.031468023 0.06532172
0.019844338 -0.027992059 0.040158566 0.04096113 -0.035712928 -0.015150906 0.04298636 -0.073403604
00000000: df42 48bc 9e58 74bd fd92 183b 7158 433d
00000010: 99f0 343b b87e 563d 9de4 00bd 65c7 853d
00000020: 9890 a23c 9a4f e5bc 4f7d 243d dcc6 273d
00000030: b847 12bd 813b 78bc 7712 303d a154 96bd

conv2.conv3.1.weight f4 [16]
1.0843496 0.75800496 1.0210114 1.2505833 1.1685385 1.0376463 1.0233064 0.9359625
0.9336619 0.9934247 1.2957095 0.7905552 1.0018518 0.9815863 1.0241219 0.76976013
00000000: f8cb 8a3f 9d0c 423f 80b0 823f 1d13 a03f
00000010: ab92 953f 98d1 843f b4fb 823f 3d9b 6f3f
00000020: 7704 6f3f 1551 7e3f cfd9 a53f d361 4a3f
00000030: ae3c 803f 3d49 7b3f 6d16 833f 000f 453f

conv2.conv3.1.bias f4 [16]
0.02033406 -0.01113327 0.07940381 0.0093331365 -0.029546412 0.09437882 -0.06162198 0.15948859
-0.060749955 -0.05008108 0.24567975 0.05330457 0.07852514 0.033065006 0.04074456 -0.100104496
00000000: 9d93 a63c 5268 36bc 779e a23d 03ea 183c
00000010: 510b f2bc af49 c13d 5467 7cbd fa50 233e
00000020: f2d4 78bd d221 4dbd 7993 7b3e e555 5a3d
00000030: cad1 a03d 2c6f 073d c5e3 263d 9603 cdbd

conv2.conv3.1.running_mean f4 [16]
0.4641393 0.54801285 0.011927649 -1.8611614 -1.1564887 1.3838629 0.17433599 -1.551907
-1.0276836 -1.0970626 -0.78804904 1.6436021 -0.9695829 -1.0436729 -1.1183919 0.9753733
00000000: aba3 ed3e 924a 0c3f 306c 433c 893a eebf
00000010: d207 94bf 6b22 b13f 2285 323e e3a4 c6bf
00000020: 238b 83bf 8c6c 8cbf 95bd 49bf 8e61 d23f
00000030: 9636 78bf 1397 85bf 7727 8fbf 11b2 793f

conv2.conv3.1.running_var f4 [16]
2.6513264 2.4325054 2.4920774 5.177918 5.1158724 3.84601 4.14631 3.642797
3.5269094 3.6045837 3.7135105 4.2460036 2.612349 2.4125018 3.733315 3.8565989
00000000: 55af 2940 2bae 1b40 327e 1f40 81b1 a540
00000010: 3ab5 a340 0725 7640 92ae 8440 9623 6940
00000020: e2b8 6140 80b1 6640 28aa 6d40 43df 8740
00000030: ba30 2740 6e66 1a40 a2ee 6e40 84d2 7640

conv3.conv1.0.weight f4 [32, 16, 3, 3]
-0.2480641 -0.016216794 0.17830518 0.09626942 -0.11348926 -0.123036586 -0.012605995 0.020775756
0.13336502 0.0826953 -0.011813685 -0.17422676 0.05037338 -0.058664925 -0.067578554 0.0069187395
-0.001767381 -0.16139415 -0.03474538 -0.32091662 -0.099794924 -0.04087924 -0.058168948 0.07350002
-0.19044316 -0.2785866 0.06243397 -0.16802421 0.3227113 -0.16640785 0.09215643 0.16312405
-0.037560206 -0.123443246 0.26426825 -0.1133206 -0.14038743 -0.084417686 0.06506548 -0.010833917
-0.060800098 -0.056388047 -0.15760577 -0.07485972 -0.02366237 -0.110429645 -0.015251245 -0.077769205
0.038320255 0.0014155603 -0.21606459 -0.031045632 -0.123482436 0.16767287 -0.14750268 0.27006033
0.049436077 -0.053693157 -0.2848716 -0.08295579 0.115024544 0.14916247 -0.063440844 0.13769579
-0.06621954 -0.16741322 0.1533951 0.035560977 -0.057869587 -0.10724569 0.06965343 -0.1310219
0.1466504 0.17348215 -0.031538382 -0.003632478 0.10595546 -0.16240391 -0.09606157 0.19090873
-0.0038957698 -0.010564828 0.14273125 0.094385795 0.0947958 0.12582397 -0.10591315 -0.051509015
-0.12608592 -0.0898947 -0.011162211 0.0214034 0.14151973 -0.09572521 -0.023625331 -0.06881579
-0.021869771 -0.06792465 -0.044239715 -0.061546285 -0.051873475 -0.05302708 -0.06356622 -0.058860976
-0.18380454 -0.14355965 0.0289036 0.10033498 0.13051951 -0.088668056 -0.075871035 0.091802016
-0.082209215 0.19049253 0.09454015 -0.04937476 0.09130407 -0.012471987 0.03949499 -0.039409894
-0.13327385 -0.0005843176 -0.0071199783 -0.023543045 -0.057961665 -0.06314532 0.10212984 0.34723085
-0.12638201 -0.093568996 -0.16427265 0.0054225344 -0.035542086 -0.10052848 0.02746773 0.065448776
0.06388072 -0.020797739 -0.022142192 0.13072896 0.008484587 -0.14846368 -0.06546733 -0.1969627
-0.0023359822 0.16559331 0.107549325 0.09491478 0.049644407 0.21534613 0.061620004 0.13731374
0.2035631 -0.040550794 0.23419757 0.08410855 -0.18529995 -0.22890037 0.2041621 0.13331924
0.05370484 -0.15748112 0.023002246 -0.071129434 0.22736526 0.055989277 0.05195867 -0.051817127
-0.18321206 -0.21982744 0.04406016 0.13155733 -0.0847989 0.033120796 -0.24511515 -2.2563832e-05
0.08619443 0.045851823 0.024712253 0.104880065 0.13919611 -0.30692607 -0.01422512 -0.08504565
0.24780644 0.287978 0.2798319 0.26889256 0.10974837 0.0049468037 -0.00021616522 -0.088767745
0.17055428 0.06632623 -0.009809297 -0.024054663 0.015156623 0.18843216 -0.024413321 -0.10308874
0.054781836 -0.20027936 -0.1455373 -0.076248206 -0.010554586 -0.11155912 -0.05074474 -0.24488477
-0.14565541 -0.14465965 -0.19676694 -0.05855631 -0.13561527 0.07877307 0.15861535 -0.13639796
-0.16596161 -0.32346025 0.085578434 0.081714116 -0.072877325 -0.057163578 -0.013332286 0.012309669
0.19818197 -0.082134664 0.034405775 -0.01723656 -0.07070791 -0.080248296 0.12730166 0.2602851
0.04386742 0.028484376 -0.27532792 -0.1299679 0.09827065 0.25172198 -0.03573859 0.1572264
-0.02444625 -0.105427496 0.1158175 -0.184575 -0.2667755 -0.009630079 -0.12788218 -0.025341976
0.033454545 -0.08055897 -0.015230177 0.13525796 0.09084975 -0.04897918 0.04122613 0.1536461
00000000: 8404 7ebe 15d9 84bc a295 363e e728 c53d
00000010: 0f6d e8bd 9bfa fbbd 6089 4ebc eb31 aa3c
00000020: d790 083e 275c a93d 308e 41bc 8068 32be
00000030: 5154 4e3d a24a 70bd a066 8abd 98b6 e23b
00000040: 77a7 e7ba 8244 25be 2c51 0ebd 2f4f a4be
00000050: 4861 ccbd fd70 27bd 9042 6ebd 2e87 963d
00000060: 8803 43be e7a2 8ebe c3ba 7f3d 8a0e 2cbe
00000070: 6a3a a53e d266 2abe 83bc bc3d fe09 273e
00000080: bbd8 19bd d0cf fcbd 2b4e 873e a114 e8bd
00000090: b9c1 0fbe 2ee3 acbd 0d41 853d be80 31bc
000000a0: 8609 79bd 27f7 66bd 6863 21be 0e50 99bd
000000b0: 96d7 c1bc f028 e2bd 5ce0 79bc 7645 9fbd
000000c0: b3f5 1c3d 528a b93a 0940 5dbe 6953 febc
000000d0: 5ce4 fcbd 70b2 2b3e f10a 17be 5945 8a3e
000000e0: 7c7d 4a3d 5bed 5bbd b1da 91be bae4 a9bd
000000f0: fd91 eb3d 0cbe 183e 46ed 81bd 2000 0d3e
00000100: 1c9e 87bd 5f6e 2bbe 9b13 1d3e 63a8 113d
00000110: a908 6dbd a1a3 dbbd 75a6 8e3d 9b2a 06be
00000120: 862b 163e 4ea5 313e 642e 01bd de0e 6ebb
00000130: 2dff d83d 364d 26be eebb c4bd 947d 433e
00000140: 2c50 7fbb 1a18 2dbc 2428 123e 574d c13d
00000150: 4d24 c23d 00d8 003e fee8 d8bd 1efb 52bd
00000160: ab1c 01be b61a b8bd b5e1 36bc 2f56 af3c
00000170: 8cea 103e 940b c4bd e989 c1bc 4bef 8cbd
00000180: 3c28 b3bc 141c 8bbd b434 35bd f517 7cbd
00000190: 4879 54bd ec32 59bd 022f 82bd 3518 71bd
000001a0: 4237 3cbe 4d01 13be 3ec7 ec3c 6d7c cd3d
000001b0: e8a6 053e 9997 b5bd 4662 9bbd b202 bc3d
000001c0: 4e5d a8bd 7910 433e 449e c13d 303d 4abd
000001d0: a1fd ba3d 4e57 4cbc 80c5 213d 456c 21bd
000001e0: f178 08be e42c 19ba b54e e9bb 58dd c0bc
000001f0: 3669 6dbd 5552 81bd 7329 d13d 3ec8 b13e
00000200: 496a 01be 1aa1 bfbd 1737 28be 84af b13b
00000210: 9494 11bd e0e1 cdbd 0104 e13c 020a 863d
00000220: e5d3 823d 0560 aabc 8b63 b5bc d0dd 053e
00000230: f002 0b3c dd06 18be bc13 86bd 97b0 49be
00000240: 4717 19bb 4b91 293e d242 dc3d ae62 c23d
00000250: ef57 4b3d b283 5c3e 4265 7c3d f99b 0c3e
00000260: d872 503e 9718 26bd 7dd1 6f3e 1a41 ac3d
00000270: 45bf 3dbe dc64 6abe df0f 513e d784 083e
00000280: 9bf9 5b3d bb42 21be 356f bc3c 4fac 91bd
00000290: 70d2 683e 0355 653d 9dd2 543d 323e 54bd
000002a0: f19b 3bbe 721a 61be 6d78 343d f7b6 063e
000002b0: 0cab adbd aca9 073d 77ff 7abe 7647 bdb7
000002c0: b586 b03d 1fcf 3b3d 5a71 ca3c 5ccb d63d
000002d0: 6d89 0e3e 6a25 9dbe 7a10 69bc 6a2c aebd
000002e0: f9c0 7d3e da71 933e 2046 8f3e 49ac 893e
000002f0: c1c3 e03d cc18 a23b 69aa 62b9 ddcb b5bd
00000300: c8a5 2e3e 0cd6 873d 2cb7 20bc 490e c5bc
00000310: 7c53 783c 5cf4 403e 72fe c7bc 3020 d3bd
00000320: eb62 603d 0816 4dbe bb07 15be 0528 9cbd
00000330: 24ed 2cbc 1c79 e4bd b7d9 4fbd 13c3 7abe
00000340: b126 15be a921 14be 467d 49be bed8 6fbd
00000350: bbde 0abe c653 a13d 106c 223e e8ab 0bbe
00000360: d7f1 29be 959c a5be bf43 af3d bb59 a73d
00000370: b540 95bd 5b24 6abd a96f 5abc 7eae 493c
00000380: 37f0 4a3e 3836 a8bd 12ed 0c3d b033 8dbc
00000390: 4fcf 90bd 3859 a4bd 5e5b 023e 1744 853e
000003a0: 53ae 333d 1158 e93c c8f7 8cbe 4e16 05be
000003b0: 1f42 c93d b4e1 803e a162 12bd f5ff 203e
000003c0: 8143 c8bc 5fea d7bd ba31 ed3d 3b01 3dbe
000003d0: cc96 88be 7bc7 1dbc 8cf3 02be fa99 cfbc
000003e0: a207 093d 1afc a4bd fe87 79bc 1081 0a3e
000003f0: 6f0f ba3d 659e 48bd bbdc 283d 6755 1d3e

conv3.conv1.0.bias f4 [32]
-0.076785244 0.022491697 0.07793601 0.0051003383 0.08116167 -0.07337172 -0.04327505 -0.025299845
0.07120224 -0.07629678 -0.0151395295 -0.074593745 0.016020948 -0.072337456 -0.06840662 -0.051839326
-0.031990454 0.05288906 0.013470854 -0.075085044 0.0787594 -0.0016905245 0.024326898 -0.043010067
-0.039271038 -0.06238028 -0.065492116 -0.04255899 0.0459694 -0.03169821 -0.07068154 0.024408389
00000000: 9541 9dbd 8240 b83c ea9c 9f3d bd20 a73b
00000010: 1738 a63d ea43 96bd 2e41 31bd 9f41 cfbc
00000020: 7bd2 913d 7c41 9cbd ca0b 78bc 9bc4 98bd
00000030: 5d3e 833c a925 94bd c518 8cbd 7955 54bd
00000040: 6c08 03bd 33a2 583d dbb4 5c3c 30c6 99bd
00000050: 9c4c a13d 9794 ddba 3449 c73c 532b 30bd
00000060: abda 20bd 7782 7fbd bb20 86bd 5652 2ebd
00000070: 694a 3c3d fbd5 01bd 7cc1 90bd 1af4 c73c

conv3.conv1.1.weight f4 [32]
1.0137383 1.0949558 1.050981 0.95511377 1.0342765 0.9354281 0.90489835 0.99305254
1.0746007 1.069955 0.9449571 1.030282 1.0351483 0.97892714 1.0200007 1.0149684
1.1843863 1.0351849 0.97634417 0.98455626 0.9940275 0.9289214 1.0696253 1.043382
0.93417335 0.8452428 1.0158696 0.94500464 0.98544216 0.99312323 0.9465519 1.0607982
00000000: 2dc2 813f 8327 8c3f 8c86 863f 5682 743f
00000010: 2c63 843f 3778 6f3f 6ba7 673f b138 7e3f
00000020: 848c 893f 49f4 883f b5e8 713f 48e0 833f
00000030: bd7f 843f f89a 7a3f 628f 823f 7cea 813f
00000040: f899 973f f080 843f b1f1 793f e10b 7c3f
00000050: 9678 7e3f cbcd 6d3f 7be9 883f 8b8d 853f
00000060: fc25 6f3f d561 583f 0408 823f d3eb 713f
00000070: f045 7c3f 533d 7e3f 3a51 723f 3cc8 873f

conv3.conv1.1.bias f4 [32]
0.042455103 -0.012318978 0.17530574 -0.017440354 0.027862282 -0.12389811 -0.07422926 -0.039121367
0.0028165642 -0.17777286 0.055241883 0.02378 -0.013833489 0.011321484 -0.06309431 -0.13654152
-0.06489368 -0.066952296 0.052574318 -0.08759932 -0.077792935 -0.06776182 -0.042696856 0.03284092
-0.09467309 0.0024857996 -0.04904538 -0.017923318 0.03543578 -0.024091972 -0.051552624 -0.1195382
00000000: 67e5 2d3d 8ad5 49bc 5983 333e 13df 8ebc
00000010: 713f e43c 4bbe fdbd 8305 98bd ba3d 20bd
00000020: 1b96 383b 170a 36be 5045 623d 46ce c23c
00000030: dca5 62bc bf7d 393c 9737 81bd 8ad1 0bbe
00000040: fae6 84bd 491e 89bd 2b58 573d 4667 b3bd
00000050: e751 9fbd b6c6 8abd e6e2 2ebd 3384 063d
00000060: f7e3 c1bd cce8 223b cfe3 48bd ecd3 92bc
00000070: 1c25 113d 875c c5bc d828 53bd 72d0 f4bd
