checkpoints/ifind1_sononet_8_6classes/019_net_6classes_class.pth (torch_old, 671819 bytes, 90 tensors)

conv1.conv1.0.weight f4 [8, 1, 3, 3]
000000 a4 1a ce bc 1b 41 80 be 6a 01 6e be 60 98 eb 3e
       -0.025159188 -0.25049672 -0.23242727 0.4601469
000010 0f 62 74 3f c0 a8 84 bf f2 35 1e 3e e6 66 c8 bd
       0.95462126 -1.0363998 0.15450266 -0.09785251
000020 aa 4a 52 be 99 7a 86 bf 88 b0 94 3e e1 11 51 bf
       -0.20536295 -1.0506164 0.29040933 -0.81667906
000030 a4 93 9c 3e bc 76 fd bd a5 cf af be db 6f 92 3f
       0.3058139 -0.123761624 -0.34338108 1.1440386
000040 db e5 60 bc 98 62 3c 3f 15 10 32 3e 10 38 87 be
       -0.013726677 0.7358794 0.17388947 -0.2640996
000050 73 1c b4 bd ab 05 7a bf 96 0c f9 3e 14 0c e6 bc
       -0.08794489 -0.976649 0.48642415 -0.028081931
000060 2a e7 9d be cb 1c ab be 46 3b 5e bf d7 cc 82 bf
       -0.30840427 -0.33420405 -0.86809194 -1.0218762
000070 4f 44 53 3e 87 ab ca be 80 42 0b bd a1 62 0e 3e
       0.20631526 -0.3958399 -0.033998966 0.13904811
000080 c2 2e d7 3d 7f 2d 98 be 84 cd 6f 3f df f1 36 be
       0.10506965 -0.2972221 0.93672967 -0.17865704
000090 67 22 8e 3d 12 32 8c 3e 94 be 40 be a4 97 db 3e
       0.069401555 0.2738195 -0.188227 0.4288913
0000a0 d1 3c d3 be 6a bc 81 be d6 dd a9 be 41 a6 15 be
       -0.41257337 -0.2533906 -0.3317706 -0.14614202
0000b0 50 56 8a 3c 9a c2 89 3e fc b2 a6 3e db 78 1f 3f
       0.01688686 0.26906282 0.3255843 0.62293786
0000c0 3c 9d 74 3f c7 81 ba be a0 97 42 3e b4 98 6a be
       0.9555242 -0.36427137 0.19003153 -0.22909814
0000d0 93 76 40 be 0b c8 f2 3d 5d 71 54 3e ef 44 89 3d
       -0.18795232 0.118545614 0.2074637 0.06702601
0000e0 06 45 67 bc 2c 2f 5d bf 89 2a 70 3e 16 7c 8c 3e
       -0.014115578 -0.86400104 0.23453726 0.2743842
0000f0 66 e9 0c bf 1c 2b 7d bd 82 f2 e6 3e b4 7b 48 bf
       -0.5504364 -0.06180869 0.45106894 -0.78313756
000100 fb 46 b8 3e 1e cc 41 3f 33 b3 6a be d3 ec 06 3f
       0.35991654 0.75702083 -0.22919922 0.52705115
000110 98 4d 9a bd 68 8c 81 3c 02 ec c1 bd 1b 31 28 be
       -0.07534331 0.015814021 -0.09468843 -0.16424982

conv1.conv1.0.bias f4 [8]
000000 c9 48 8f bc 5f 1e 7c be f0 24 4b be 36 4e bd 3d
       -0.017490761 -0.2462096 -0.1983831 0.09243433
000010 1e 88 88 be 5b 7a 9d 3e ca f0 be 3c 55 13 12 3e
       -0.2666635 0.30757412 0.023308177 0.14265187

conv1.conv1.1.weight f4 [8]
000000 ab c8 89 3f dd f8 84 3f c6 d4 58 3f b2 d0 83 3f
       1.0764364 1.0388447 0.84699667 1.0298064
000010 52 f3 7c 3f 5e 93 80 3f a6 8c 82 3f ef f0 8b 3f
       0.9880878 1.0044973 1.0199172 1.0932902

conv1.conv1.1.bias f4 [8]
000000 4b 60 22 3d b6 e8 dc 3d fc 91 cf bd 0c d5 6f bd
       0.039642613 0.107865736 -0.10135266 -0.058552787
000010 4c 27 d6 bd 06 ec 11 3d c2 a7 3f 3c 81 f1 8a 3e
       -0.10456714 0.03562548 0.011697711 0.27137378

conv1.conv1.1.running_mean f4 [8]
000000 9a f1 a7 bc 2f d9 7c be ca b9 4f be 78 1f b6 3d
       -0.020500947 -0.24692224 -0.20285717 0.08892721
000010 81 f6 88 be a6 9d 9f 3e b0 9d bf 3c 30 03 12 3e
       -0.26750568 0.31174964 0.023390621 0.14259028

conv1.conv1.1.running_var f4 [8]
000000 ed e0 2c 3e 58 29 28 3f 6c 42 93 40 42 21 de 3e
       0.16882677 0.65688086 4.601858 0.4338475
000010 dd e9 9e 3e a9 fd 34 40 83 43 21 3e e0 14 38 3e
       0.310378 2.8279822 0.1574841 0.17976713

conv1.conv2.0.weight f4 [8, 8, 3, 3]
000000 00 ac 00 bd e0 3e 3e 3e 64 0f c6 bd 29 1b 4a bc
       -0.031414032 0.18578672 -0.09670904 -0.012335577
000010 2f 93 d9 3e 72 f7 7e 3d 7d 8e 84 be fb bb 89 bc
       0.42495105 0.0622477 -0.2588996 -0.016813269
000020 c6 55 e0 bd 49 6c ba 3e 04 f6 bd ba 75 79 4c be
       -0.1095386 0.3641074 -0.0014492874 -0.19968207
000030 e6 62 1c 3e 2c 08 83 3e 87 f9 40 3e ee 46 93 bc
       0.15272102 0.25592172 0.18845187 -0.017978158
000040 80 85 a4 39 2f e9 a7 bd 31 e8 23 3d 60 c7 5f bc
       0.00031379983 -0.08198773 0.040016357 -0.013658375
000050 c8 ba 58 bd 75 14 a6 3d 60 d3 34 bc dd 85 b6 3d
       -0.052912503 0.081093706 -0.011036724 0.08912251
000060 22 88 6a bc ab a5 6b 3e f6 53 af 3c 12 0b 00 be
       -0.014314683 0.23012416 0.02140234 -0.12504223
000070 85 77 a1 3d 98 01 dd bd 6f e6 37 be 46 15 b5 3d
       0.07884125 -0.107913196 -0.17958997 0.08841948
000080 ae f5 eb 3d 30 08 e2 3d 54 9f cb 3d c4 4e 7a be
       0.11521469 0.11036718 0.09942499 -0.24444109
000090 64 b4 f1 3d 79 b2 3d be fc 84 75 3e 8e 20 4c 3e
       0.11801985 -0.18525113 0.23976511 0.19934294
0000a0 a0 9a d0 be 90 ec 11 3d f5 aa b4 3d c0 87 09 be
       -0.4074297 0.035625994 0.0882167 -0.13430691
0000b0 e7 df 9b be ed 46 26 3d a7 56 00 3e 8c 3f 4b be
       -0.3044426 0.040594984 0.12533055 -0.1984846
0000c0 13 f4 28 3e cd 63 eb 3d 21 c6 77 3e 26 64 c2 3e
       0.16499357 0.11493645 0.24196674 0.37967032
0000d0 18 ce c3 3e 2e 3a 32 be d3 d9 c8 be eb be 2d bc
       0.38243175 -0.17405006 -0.39228687 -0.0106046
0000e0 38 a4 8b be 80 3c 08 bd 4a f7 1d 3d 0a 2b ea 3d
       -0.27273726 -0.033260822 0.03856591 0.1143399
0000f0 7b 8c af bd b3 ae 4f 3c da 3f f1 bd be 40 be bc
       -0.085717164 0.012675929 -0.11779757 -0.02322423
000100 5e 4d 69 bd ae 16 49 be 6b ef 3a 3e 55 47 ea bc
       -0.05695855 -0.19637558 0.18255393 -0.028598467
000110 70 41 a6 be 45 8f 45 3e c5 76 8d bc 82 e0 62 be
       -0.324718 0.19292934 -0.017268548 -0.22155955
000120 13 c0 c8 bd 5d 46 b1 3d d7 09 49 bd ff 86 47 bd
       -0.0980226 0.08655999 -0.04908165 -0.048712727
000130 6f 66 56 3e de 0b d6 3d c8 35 c0 3e e7 bd bc be
       0.20937513 0.10451482 0.37541032 -0.36863634
000140 01 90 a6 be 37 4a 06 be 8b 27 60 bd 5f dc 79 3e
       -0.3253174 -0.13114248 -0.05472521 0.24400471
000150 71 34 35 bd d9 d7 80 be 15 f4 b9 3d 94 b8 42 be
       -0.044239465 -0.2516468 0.09079758 -0.19015723
000160 80 94 b1 bc 54 6d 69 be 34 17 dc 3c fb 8b 26 be
       -0.021677256 -0.22795612 0.026866533 -0.16264336
000170 f0 93 9f 3a 4d ec 7c be ef 1d 4d 3e 32 d5 bb 3d
       0.0012174826 -0.24699517 0.2003095 0.09171523
000180 68 3d a4 bc ff 05 6a 3e a3 e0 ca bd a2 3b 3a be
       -0.020048812 0.2285385 -0.09906127 -0.1818681
000190 e1 e7 03 3e 6b 96 e2 bd 66 23 ac 3d 95 eb 66 be
       0.12881424 -0.11063846 0.08405189 -0.22550805
0001a0 a9 60 9f 3c 7f 1d 58 3e a7 15 10 3d 25 d2 2c 3d
       0.01945527 0.21105002 0.0351769 0.042192597
0001b0 81 ae 12 3e 04 dc 1f 3e a8 57 5e 3c 1f 84 8d bc
       0.1432438 0.15611273 0.013570704 -0.017274914
0001c0 82 ef 1e be 59 4d 83 3d ac 03 d4 bc 75 0d b9 bc
       -0.15521052 0.06411237 -0.025880657 -0.022589425
0001d0 2a 09 8a 3e 62 12 06 3d de dd 47 be 06 5d 51 3e
       0.26960117 0.032732375 -0.1951823 0.20445642
0001e0 e9 67 5c 3e 87 41 e4 3d f1 07 87 be 64 79 ff 3b
       0.21524014 0.11145311 -0.26373246 0.0077964533
0001f0 89 6b 21 be 5d ad 42 3e b7 7f 35 3e 88 16 3e 3d
       -0.15763678 0.19011445 0.177245 0.046408206
000200 d8 ae 1c be 2a 37 99 3b 84 14 08 be 76 09 0c 3d
       -0.15301073 0.0046757655 -0.13289076 0.03418871
000210 1b 4e 6e be a6 13 9c be 1c 03 f8 3e c0 dc 85 be
       -0.23271982 -0.3048374 0.48439872 -0.2614498
000220 5f f7 e5 bd 21 27 f2 bc 89 e5 f2 3d 82 1f bf bd
       -0.11228823 -0.029559674 0.118601866 -0.093321815
000230 f4 38 a8 bc 80 88 12 3e 55 06 00 3d 86 f7 0e 3e
       -0.02053497 0.14309883 0.03125604 0.1396161
000240 00 00 65 3e 40 38 43 be f3 c8 16 3e e2 7e e0 bc
       0.22363281 -0.19064426 0.14725094 -0.027404252
000250 3a 5b 22 be 17 39 2c be 7b cf fe bb 79 12 e1 bd
       -0.15855113 -0.16818653 -0.0077761984 -0.109898515
000260 42 e7 61 be 27 97 92 3e 0d 3e ee 3d c5 12 84 bd
       -0.22060874 0.28630945 0.11632929 -0.064488925
000270 72 cb 58 3d f8 16 38 3e 14 2e 95 3d 67 7c 32 3e
       0.052928396 0.17977512 0.07284179 0.17430268
000280 d3 f0 23 3e 0b 91 ae be 19 b9 b4 bd 3e 72 3a be
       0.16009836 -0.34095034 -0.08824367 -0.18207642
000290 5e c9 ab bd 0b 73 fd 3d 3d 06 30 3e c0 48 d3 bc
       -0.08388017 0.12375458 0.1718988 -0.025791526
0002a0 b3 d7 c0 3d cd c5 f2 bd 03 57 b2 bd 71 86 36 be
       0.09416141 -0.11854134 -0.087080024 -0.17824723
0002b0 14 38 d4 bd 09 4f 34 be 34 77 4f be a2 a5 52 be
       -0.103622586 -0.17608275 -0.20260316 -0.20570996
0002c0 a7 48 b3 bc ab b5 9d 3d da f2 10 be 1b 38 85 bd
       -0.02188523 0.07700666 -0.1415514 -0.06504842
0002d0 3b 1d 51 3e 10 8a 54 3d fa b6 37 3d 13 07 0c 3e
       0.20421307 0.05188948 0.044852234 0.13674574
0002e0 70 3b 87 3e 4b ec 89 be c0 b5 4c 3e 07 52 25 be
       0.26412535 -0.2693809 0.19991207 -0.16144572
0002f0 06 d9 01 3e 02 9a e7 be 3a 30 fc bd bc 4a 38 3e
       0.12680444 -0.45234686 -0.12313886 0.17997259
000300 41 5c b9 3b 54 53 0c 3e d4 90 d3 bd 8c 1d cf bd
       0.0056567495 0.13703662 -0.10330358 -0.101130575
000310 85 d4 5e 3d 8c 1d be 3e 36 38 f2 3d ae f0 f5 bd
       0.054401893 0.37131917 0.11827128 -0.12008797
000320 f7 f0 40 3d 4d 74 ef bc 4e 0d ce 3d 0d ce c7 3d
       0.047104802 -0.029230261 0.100611314 0.09756098
000330 25 d3 34 3d d0 6f dc 3d aa c6 37 be e2 75 00 bf
       0.044146676 0.10763514 -0.17946878 -0.50179875
000340 e3 0a 17 be 17 5a 7e bc 1f a7 86 be 77 f7 9c 3e
       -0.14750247 -0.015524409 -0.26299378 0.3065755
000350 bd da b1 3e f5 01 9b bd 25 3e a5 3e f9 ef c2 3e
       0.34737197 -0.07568733 0.32273975 0.3807371
000360 89 e7 87 3e 92 d8 a7 bd 63 0d 1a be c7 3e 93 3d
       0.26543835 -0.081956044 -0.15044169 0.07189708
000370 33 ca 85 be f7 64 33 bd 79 9f 8e be 3b 82 07 be
       -0.26130828 -0.04379746 -0.27856043 -0.13233273
000380 82 26 2b be 30 96 96 3e 6c 7b c9 3d c7 d4 8a be
       -0.16713908 0.2941146 0.09837994 -0.2711546
000390 cf 74 f7 3d 0f 57 8c 3d 83 82 7a be dd 5e d3 3c
       0.12082826 0.068525426 -0.24463849 0.02580207
0003a0 e6 eb 07 be 37 e3 02 3f 21 1a 01 3d 54 1a e6 3c
       -0.13273582 0.5112795 0.03151906 0.028088726
0003b0 98 f8 a5 bb 98 ae 86 3e e6 bf 68 bc aa bf 06 bf
       -0.005065035 0.2630508 -0.014205908 -0.52636206
0003c0 84 32 a4 bd 46 25 f0 bd 2a 50 8a 3e 3d 9b 90 be
       -0.080174476 -0.11725859 0.27014285 -0.28243437
0003d0 bf ba 91 bc 9c 26 ff 3d a0 01 e1 3d 30 a5 61 bd
       -0.017789243 0.12458536 0.10986638 -0.055089176
0003e0 0c 89 94 3d 39 4c 67 be 39 ab 20 3d c0 30 8a 3c
       0.07252702 -0.2258767 0.03922579 0.016868949
0003f0 df 85 02 be de d6 45 be 06 0c 1c 3e c2 41 64 3e
       -0.1274638 -0.19320247 0.15238962 0.2229071

conv1.conv2.0.bias f4 [8]
000000 9c 25 d4 bd 26 98 47 3d cc 21 3e ba 30 e4 d9 3c
       -0.10358736 0.048729084 -0.0007252961 0.026598066
000010 67 e9 ab 3c c8 5b df bd 06 20 9b bb bf 17 a7 bd
       0.020985318 -0.10906178 -0.004734042 -0.08158826

conv1.conv2.1.weight f4 [8]
000000 22 a0 84 3f 72 5e 93 3f 6d a4 6b 3f f8 42 84 3f
       1.0361369 1.1513197 0.9204777 1.0332937
000010 80 8b 6e 3f 33 f4 84 3f 9b bc 84 3f a9 e3 71 3f
       0.9318161 1.0387024 1.0370058 0.94488007

conv1.conv2.1.bias f4 [8]
000000 76 73 72 3d 07 94 e4 3d 76 d4 b8 bd 3b 32 15 bc
       0.059192143 0.111610465 -0.09024899 -0.009106214
000010 8f 55 29 be 4f 9c a4 3d cb aa 5f 3c 3f aa 0d bd
       -0.16536544 0.08037626 0.01365156 -0.034586187

conv1.conv2.1.running_mean f4 [8]
000000 65 0b 12 3d a6 e8 84 bd e8 26 19 3d 89 44 e8 be
       0.035655398 -0.06489687 0.03739062 -0.45364788
000010 50 9d 6d 3e ab 7c 50 bf 86 7e 4a bf db 37 21 3f
       0.23204541 -0.8144023 -0.7909931 0.62975854

conv1.conv2.1.running_var f4 [8]
000000 4d 5d b7 3f 41 97 d9 3e 79 01 96 3f 42 a0 18 3f
       1.4325348 0.4249821 1.17192 0.59619534
000010 d6 b8 63 3f b1 c2 f3 3f 84 05 fd 3f 92 57 fa 3f
       0.8895391 1.904379 1.9767308 1.9557974

conv1.conv3.0.weight f4 [8, 8, 3, 3]
000000 3a 80 4b 3e 73 9a 03 3e 3d e1 18 3e 42 f1 b2 be
       0.19873133 0.12851886 0.14929672 -0.3494969
000010 98 f3 82 be 9d 18 d1 3d 5d 0d 1f 3e 17 21 93 3d
       -0.25576472 0.10209773 0.15532441 0.07184046
000020 19 28 be bc a8 d8 59 bd 0c ce 47 3d 33 d8 e1 3d
       -0.02321248 -0.053185135 0.048780486 0.11027565
000030 0f 8f ba 3c 3c 8f d8 3d ba 01 2c be a2 ff 49 3d
       0.022773294 0.10574195 -0.16797534 0.049316056
000040 43 f6 c6 bc 77 02 08 be 82 46 15 3e 87 3e 06 3e
       -0.024287349 -0.1328219 0.14577678 0.1310979
000050 f3 91 05 be 21 75 c1 3d 14 2b b2 be 61 37 52 be
       -0.13043956 0.09446169 -0.3479849 -0.20528938
000060 c4 44 f1 bd e1 47 64 be 3a f1 ec 3d ef b8 0d be
       -0.11780694 -0.22293045 0.11569448 -0.13840078
000070 da ca 81 be a0 1e 1d 3e 2a 34 8f bd 8a 4a 97 bd
       -0.25350076 0.15343714 -0.069923714 -0.07387264
000080 a6 1e 0f 3c 07 c5 b3 3d 1c b0 c1 be b4 67 87 3e
       0.0087353345 0.08777814 -0.37829673 0.26446307
000090 53 0f 9d bd 59 a5 5c bd 27 ae bd be b7 87 62 be
       -0.076689385 -0.053868625 -0.3704693 -0.22122084
0000a0 55 bc b9 be 64 4a d8 bd e0 dd 24 3e ae b4 23 3e
       -0.36276498 -0.10561064 0.16100264 0.15986893
0000b0 1c 80 cc 3d fc 96 24 be a4 dd 6c 3d 32 be 94 be
       0.099853724 -0.16073221 0.05782856 -0.29051358
0000c0 0f c6 a5 be 6d 56 9b be fa 10 32 be 02 f5 78 3e
       -0.3237767 -0.30339375 -0.17389289 0.24312213
0000d0 ab a5 bf be f8 34 94 3d 7a 1b 9c 3e 2e 64 3c 3d
       -0.37431082 0.072366655 0.30489713 0.045993976
0000e0 e4 ff 6a be 13 32 c7 be f7 75 57 bc 4f eb 82 3c
       -0.22949177 -0.3890539 -0.013150684 0.015981345
0000f0 de 8f 7b be 65 76 8c bd e4 f3 43 3e 64 55 54 3d
       -0.245666 -0.068585195 0.19136006 0.051839247
000100 fe ee 19 be f3 be 8e 3d 74 f8 96 3d 56 77 20 be
       -0.15032575 0.069700144 0.073716074 -0.15670523
000110 bc bd 96 be 1e 13 bd bd 4b d2 53 3d f2 3c 9f bc
       -0.2944163 -0.09232162 0.051714223 -0.01943824
000120 a3 6b 15 3e 43 0a b0 bd b7 a7 40 bc 5d 7f 53 bd
       0.14591841 -0.08595707 -0.011758736 -0.051635135
000130 05 58 df bd bc 4b e2 bd 90 ba ee 3d 58 93 6f 3d
       -0.1090546 -0.110496014 0.11656678 0.058490127
000140 ae 98 de bd 70 e2 4f be 7c fe a6 bb 2a ff aa 3e
       -0.10868965 -0.20301223 -0.005096255 0.333978
000150 e4 67 8c 3d 15 df 04 be 45 4e fb 3c 88 f9 8a 3e
       0.06855753 -0.12975724 0.03067697 0.27143502
000160 03 4e b3 be 5a 51 07 3d c4 eb c8 bb 8e 28 80 bd
       -0.35020456 0.033036567 -0.006131621 -0.06257735
000170 24 ec af be 15 e6 ad be 94 02 1e be 05 78 61 bd
       -0.34359848 -0.339646 -0.15430671 -0.0550461
000180 16 4b 5d 3d 0b db 82 be c1 79 3e be c5 a5 a5 3e
       0.054026686 -0.25557742 -0.18601133 0.32353035
000190 50 d6 4a bd 38 5f 12 be e7 3b 8c 3e 3f 69 a2 be
       -0.04952079 -0.14294136 0.27389452 -0.3172092
0001a0 b0 69 11 bd 21 c3 96 bd 53 88 81 be 2f b1 8b 3d
       -0.035501182 -0.07361437 -0.2529932 0.068209045
0001b0 fc 1f 2c be 09 d1 04 be a9 fa 11 3e 91 79 8b be
       -0.16809076 -0.12970366 0.14255776 -0.27241185
0001c0 f6 f2 09 3e 26 25 de bb 89 99 15 3b b2 71 85 be
       0.13471588 -0.006779331 0.002282711 -0.26063305
0001d0 05 b8 39 bd 9d bf 9b bd 57 d3 8b 3d 42 5c e4 bc
       -0.04534151 -0.07604907 0.06827419 -0.027876023
0001e0 5a 1c b4 3d 71 6b 57 3e 92 12 2c 3e 35 ec 88 3d
       0.0879447 0.2103708 0.16803959 0.06685678
0001f0 62 ca 22 be 12 c1 45 bd b7 d7 9b 3c f5 4b b9 3e
       -0.15897515 -0.04827983 0.01902376 0.36190763
000200 e9 b9 33 3e bc 4c af bd a1 63 2a 3e 70 fe fd bd
       0.17551388 -0.08559558 0.16639568 -0.12402046
000210 45 9f 27 3e e8 22 3c bc 8e 05 c1 3a 44 e2 b3 bd
       0.1636935 -0.011482932 0.0014726387 -0.08783391
000220 fd 0f a8 3e a7 7b 4a be a2 32 b7 be a8 ef 5b bc
       0.32824698 -0.19773732 -0.35780817 -0.013423838
000230 79 1b 51 3d da 98 7e 3e c1 39 7a 3e 57 fb 61 be
       0.05105159 0.24862996 0.24436094 -0.22068535
000240 39 ff 62 bd 24 e3 10 3e f9 7b b1 be 1c aa a9 3e
       -0.05541918 0.14149147 -0.34664896 0.33137596
000250 9b 67 24 3e 42 45 4d be 75 b7 ff 3d 06 cf dc 3d
       0.16055147 -0.20045951 0.124861635 0.10781674
000260 46 3b 22 b8 9e 6d ed bd 18 5f 75 be 2e b1 31 bb
       -3.8679013e-05 -0.115931734 -0.23962057 -0.0027113664
000270 cf 7a 4b 3e d6 61 a7 3d 84 33 94 bc 82 b7 4c 3e
       0.19871067 0.081729576 -0.01809097 0.19991878
000280 b7 a1 99 bc 16 b6 ec bd 78 2f 87 3e 28 09 d2 bc
       -0.01875387 -0.11558168 0.26403403 -0.025639132
000290 c0 70 24 3e da 45 83 3d a5 df 11 3d 22 47 9e 3e
       0.16058636 0.064098075 0.035613675 0.30913645
0002a0 f5 fa ad bd 21 8c fb 3c 60 4f a7 3e 31 67 c2 3d
       -0.08495132 0.030706467 0.32677746 0.094923384
0002b0 46 4d ae 3e 6f c6 c6 3c f4 17 06 3e 69 fe 27 3e
       0.3404333 0.024264542 0.13095075 0.16405644
0002c0 49 f0 1c 3e 7d be 22 3e a4 32 80 bc ca 7b 6a 3c
       0.15326037 0.15892978 -0.015649147 0.01431174
0002d0 c7 bd 4d bd 0c 06 a1 be 70 5d 35 bd 7a 9c 44 3e
       -0.050229814 -0.31449926 -0.044278562 0.19200316
0002e0 5b 87 90 be 94 d6 9e be 9c f5 18 bd 43 bb 52 3e
       -0.28228268 -0.31023085 -0.037343606 0.20579247
0002f0 86 17 0d 3d 44 74 4f be a9 4a 53 be 7b 24 94 bd
       0.03444626 -0.20259196 -0.2063395 -0.072335206
000300 e6 30 25 be 5a 78 12 3e 40 1a 3e be ad 5f bc bd
       -0.16131935 0.14303723 -0.18564701 -0.09197936
000310 5e f8 50 bc 94 88 2a be 1a fd d2 bd 71 cd 01 be
       -0.012754528 -0.16653663 -0.103021815 -0.12676026
000320 73 0e 83 bd 06 97 3d 3e 8d 64 32 3e f2 b4 ba 3d
       -0.0639924 0.18514642 0.1742117 0.09116544
000330 95 b5 86 3d 66 82 f5 bd e7 17 3b be 67 20 b9 bd
       0.06577603 -0.11987762 -0.18270837 -0.090393834
000340 8f 0f 7e be 2c 2c 98 bc 90 42 cb 3d 3d 4f 5c be
       -0.24810623 -0.01857575 0.09924805 -0.21514602
000350 86 9d eb bd ef 60 ec 3d c9 d5 67 be 1c ad 85 3e
       -0.115046546 0.11541926 -0.22640146 0.26108634
000360 2b b0 75 be 26 29 43 bd 4f f2 bd bd de 9c a9 3d
       -0.23992984 -0.047646664 -0.09274732 0.08281873
000370 b4 f8 97 be 6e 4b f8 bc b1 15 86 be d8 69 45 be
       -0.29681933 -0.030309405 -0.26188424 -0.19278657
000380 ed 40 b6 3e 86 f2 c8 3d 6d 3e 12 bf 98 03 3a 3e
       0.3559641 0.09811883 -0.57126504 0.18165433
000390 ae 31 9f 3e fc 28 23 bd 5a c8 0c be 3f e7 b9 be
       0.3109259 -0.039834008 -0.13748303 -0.3630924
0003a0 7b 18 93 3e ed d9 de 3d 54 1c 7b be 79 f0 71 bd
       0.28729615 0.1088141 -0.24522525 -0.059067223
0003b0 1f e8 d2 bd 4e 72 21 be 41 6b 9a bc af 49 a9 3e
       -0.1029818 -0.1576626 -0.01884997 0.3306403
0003c0 6a 54 44 3e e7 b2 6b be 94 aa a0 be 43 9a a9 be
       0.19172826 -0.23017465 -0.3138014 -0.33125505
0003d0 92 1c be 3e fe 0d e5 ba 47 60 22 bd a6 0b 5e 3e
       0.37131172 -0.0017475483 -0.0396426 0.21684131
0003e0 c3 6e 70 bc 2a aa 2d 3e bf 82 0e 3e 7e 37 82 be
       -0.014674845 0.16959444 0.13917063 -0.25432962
0003f0 23 3c 99 be 0a 5c f4 3c 8f 05 8c 3d 10 91 02 3e
       -0.29928693 0.029829044 0.06836998 0.1275065

conv1.conv3.0.bias f4 [8]
000000 3e 88 d7 bc 6a 50 6b bc 2e 6a 9a bd 5b 38 e8 3b
       -0.026310083 -0.014362434 -0.075397834 0.007086796
000010 2d cf 94 bd e5 43 c1 bd 22 09 d9 3d 13 32 20 bb
       -0.07266078 -0.09436778 0.10597445 -0.002444391

conv1.conv3.1.weight f4 [8]
000000 f4 cf 83 3f aa 59 8a 3f 85 ca 82 3f ee cb 74 3f
       1.0297837 1.0808613 1.0218054 0.9562367
000010 93 94 65 3f 10 ec 85 3f 7e 5d 86 3f 91 cf 7b 3f
       0.8967983 1.0462666 1.0497282 0.98363596

conv1.conv3.1.bias f4 [8]
000000 fd 76 e1 3c 79 52 00 3e 0c bf 37 3e 3b 6b b8 3d
       0.027522558 0.12531461 0.17943972 0.090048276
000010 57 19 3b 3d dc dd db 3d fc d1 ac 3d ce 33 b1 3d
       0.045678463 0.10735676 0.08438489 0.08652459

conv1.conv3.1.running_mean f4 [8]
000000 79 45 a8 bf 1a 75 88 be e8 ff 81 ba 9e 8d b8 be
       -1.3146201 -0.2665184 -0.0009918185 -0.36045545
000010 3a d0 96 bf 4f 6e 25 bf 7c 09 03 be 36 ac be be
       -1.1782296 -0.6462144 -0.12796587 -0.37240762

conv1.conv3.1.running_var f4 [8]
000000 5f 93 82 3f 88 fd cd 3f 2c 5f fa 3f da 5e 5f 3f
       1.0201224 1.6092997 1.9560294 0.87254107
000010 4f 3f da 3f 2f b7 22 40 ea 22 b6 3f 0e d9 d5 3f
       1.705057 2.5424306 1.4229405 1.6706865

conv2.conv1.0.weight f4 [16, 8, 3, 3]
000000 20 a9 0f bd 6b 45 07 3d e4 ad 23 be 53 de 84 be
       -0.0350734 0.033025187 -0.15984303 -0.2595087
000010 ee 60 f3 3c 6e a0 b8 3e f5 72 81 3e a5 89 af bd
       0.029709306 0.36059898 0.25283018 -0.085711755
000020 4c 3b af 3d 23 24 9e 3c 54 9c 11 bd c9 ef 8b 3c
       0.08556232 0.01930434 -0.035549477 0.017082112
000030 6b 95 43 be 90 fe a4 bd d2 1a ad bd 69 5f 90 3d
       -0.19099967 -0.080563664 -0.08452381 0.07049448
000040 7c d4 06 3e 38 fe 3b be 2c 2d bf bd ec 5b c9 be
       0.13166994 -0.18358696 -0.09334788 -0.39327943
000050 8e c5 f4 3d a6 f6 d7 bc d0 c7 98 3e 16 aa f2 3d
       0.11951743 -0.026362728 0.29839945 0.118488476
000060 56 c2 2b 3e 0d a0 6f 3e 83 46 40 bc 04 5f 17 3e
       0.16773352 0.23400898 -0.011735561 0.1478234
000070 dc a8 f6 3d 78 07 4a 3d 75 59 a3 3e aa b4 df bd
       0.12043926 0.04932353 0.31904188 -0.10923131
000080 f1 f3 98 be 2b dc bd bd 8c f4 c5 bc 45 96 8c bc
       -0.29873613 -0.09270509 -0.02416446 -0.017161498
000090 89 b5 c3 3c b9 3a b7 bd 1b 1f 3f bc d0 c4 91 3e
       0.023890274 -0.08946747 -0.011665131 0.2847047
0000a0 f8 ed ba bd 0f 3e 0d bd 5f ec 23 be 46 05 46 bd
       -0.0912742 -0.03448301 -0.16008137 -0.048344873
0000b0 5d 0f c7 bd ff 25 ed bc 1b 22 3a be cc 95 d6 3d
       -0.09719727 -0.028948782 -0.18177073 0.1047779
0000c0 0b 0c 4d be 98 99 09 be 09 a5 1a be 5a d3 58 be
       -0.20024125 -0.13437498 -0.15102018 -0.21174374
0000d0 34 e1 0b be 58 c7 4f be 0a 89 80 be 1f 39 11 be
       -0.13660127 -0.20290887 -0.25104553 -0.14181946
0000e0 40 96 b3 bd ec 93 be 3c 16 73 2e bd df c6 14 bd
       -0.08768892 0.023263894 -0.042590223 -0.03632247
0000f0 89 43 2e 3c de 43 14 be 3f 1c 0f bd 8b 64 22 3e
       0.010636219 -0.14479014 -0.034939047 0.15858667
000100 48 02 c9 bd b5 90 ca 3d ce c9 b8 bb 8b dc 7c 3e
       -0.09814888 0.09890882 -0.0056392914 0.24693505
000110 b7 0d b6 3b 2c 86 06 3c 36 46 0f 3e da 04 ae 3e
       0.005555834 0.0082107 0.13991627 0.33988076
000120 38 14 c8 bd 2b b3 bb 3d 99 91 ae be e2 cd 8f bd
       -0.097694814 0.09165033 -0.34095457 -0.07021691
000130 60 21 40 be da 5d 83 be d4 42 6a 3e 53 34 03 be
       -0.18762732 -0.2565754 0.22877055 -0.12812929
000140 8b 39 79 3e a3 7a a3 3e 65 f0 85 3e 83 64 b0 3d
       0.24338357 0.31929502 0.2615997 0.08612921
000150 6a 2b 6b 3e 10 db 77 3e 04 52 c7 bd bb 4b 98 3a
       0.2296578 0.2420466 -0.0973244 0.0011619249
000160 15 61 66 3e f8 87 3c 3e 41 3c 27 be 37 c1 15 be
       0.22497971 0.18411243 -0.16331579 -0.14624487
000170 03 b7 8b be 7f e6 19 3e d9 b2 17 be cd e2 92 be
       -0.27288064 0.15029334 -0.14814319 -0.2868866
000180 53 c8 49 be e4 eb 5b 3e f3 da 04 3d 62 24 d2 bc
       -0.19705324 0.21476704 0.03243537 -0.025652114
000190 85 c2 41 be 65 8c fd 3c cc 39 a8 3e cb 80 92 be
       -0.1892186 0.030950734 0.32856596 -0.28613886
0001a0 3f fa e4 3d 5e 23 f3 3d 39 3d 87 be 77 53 4a 3e
       0.11180543 0.1187198 -0.26413897 0.19758402
0001b0 e7 10 2f 3d 4a 76 1f bb df ad 6c be 5f 97 b7 3d
       0.04274073 -0.002433198 -0.23113202 0.089644186
0001c0 7c 55 81 bc 4c 87 f0 bd cb 5e a4 bd 9a f3 1b 3e
       -0.015787832 -0.11744556 -0.08025893 0.15229645
0001d0 a8 ea eb bd 45 4e 25 be 7c 5e e4 bb 35 ad 07 3c
       -0.115193665 -0.16143139 -0.006969271 0.008281042
0001e0 94 e0 d1 bd 9a e6 44 bd ee 7c b3 be 60 41 55 3e
       -0.10247913 -0.04807148 -0.3505625 0.2082572
0001f0 b9 c0 b0 bd 4f 2d 67 3e 0e 6c 8b 3d 23 fb 64 3e
       -0.08630509 0.22575878 0.06807719 0.22361426
000200 f3 5a 1d be 8c c7 9a 3e 93 b3 fd 3d bc ae cc 3d
       -0.15366726 0.30230367 0.12387767 0.099942654
000210 b3 92 b6 3d 24 2e 51 3e a7 74 cb bd 82 d1 a2 bb
       0.089146994 0.20427758 -0.09934359 -0.004968823
000220 d5 30 15 3b 7a af c4 3d 65 2f 51 3e 67 3c e0 be
       0.0022764702 0.09603782 0.20428236 -0.43796083
000230 a1 75 cf bd 36 09 15 3e 10 89 07 bd ce e3 90 3c
       -0.10129858 0.14554295 -0.033089697 0.01768675
000240 75 c6 19 be 92 3d 17 be 4f 85 ab 3d f3 e4 04 be
       -0.15017112 -0.14769581 0.08375036 -0.12977962
000250 c3 98 b0 3d eb 08 08 3f a6 35 a9 3d e1 04 3a be
       0.08622887 0.5313861 0.08262186 -0.18165924
000260 5f 03 17 3e d2 af de bc 1e e3 21 be 15 5a 66 be
       0.1474738 -0.027183447 -0.15809295 -0.22495301
000270 09 7e 23 3e 6a cc 1f bd cc db 61 3e 47 c3 3d be
       0.15966047 -0.039013304 0.22056502 -0.18531524
000280 18 18 28 3d 47 e1 34 3e 74 08 3f be a5 69 94 be
       0.041038603 0.17664061 -0.18655568 -0.2898685
000290 54 af 76 be d0 eb ea bd 52 bc 1a 3e 2b 16 6e 3e
       -0.2409032 -0.11470759 0.15110901 0.23250644
0002a0 5b c7 50 3e 2f 7b 41 3e 08 3c 36 be 7c 36 34 be
       0.20388548 0.18894647 -0.17796338 -0.17598909
0002b0 14 79 ff 3e fd cb 5c 3e 3d 51 f5 3c 76 de 9c 3e
       0.49897063 0.2156219 0.029945964 0.30638474
0002c0 1f e3 e0 bc 1e 50 13 3e 8b 3c 89 bc 5a 52 10 3c
       -0.02745205 0.14386031 -0.016752502 0.008808697
0002d0 c2 35 47 3e 98 e5 1d 3e 67 34 18 3d c1 ca 35 bd
       0.194541 0.15419614 0.03715935 -0.044382814
0002e0 6d c7 5f bc 8e a5 fb bd 2a 79 eb bd 42 f6 8e 3c
       -0.013658387 -0.122874364 -0.114977196 0.01745141
0002f0 dd e7 a3 3d 89 68 41 be 4c 0b 8e be b0 58 09 3e
       0.08003209 -0.18887533 -0.27742994 0.13412738
000300 9b 86 ee bd 82 75 fa 3d 3f d2 61 be e9 78 aa bc
       -0.11646768 0.12229444 -0.22052859 -0.020809608
000310 93 49 12 3e d7 9d 84 3c d8 eb 46 be 1f 68 8b be
       0.14285879 0.016188545 -0.19425905 -0.27227876
000320 b4 3a ab be e5 5e 11 be bc e7 74 bd 93 62 13 3d
       -0.33443224 -0.14196356 -0.05979131 0.03598268
000330 5a 42 71 3e e2 bb 53 3c b7 c7 71 bd 66 78 22 be
       0.23560467 0.012923213 -0.059028354 -0.15866241
000340 42 f3 db bd 6c 7c fd 3d 8d 21 03 be bf 75 a1 3e
       -0.10739757 0.12377247 -0.12805767 0.31535146
000350 c1 b8 8a 3c ea 90 b8 bd ad 3d 96 be 2d ad 1c 3d
       0.0169338 -0.09012015 -0.2934393 0.03825109
000360 10 43 ab 3d fd 7e 2a be b4 07 73 3d 26 29 97 be
       0.083624005 -0.16650005 0.05933352 -0.2952358
000370 fe 00 8a bd f2 13 b1 3c 4f 0a a5 3e ef 58 a4 bc
       -0.067384705 0.021615956 0.32234427 -0.020061938
000380 11 99 13 be 94 32 6a be 10 73 1e be 0b 61 84 be
       -0.14413859 -0.22870857 -0.1547358 -0.25855288
000390 4c 7f a8 bd 03 b2 80 3e ea ac d8 3d 8e 3c 64 3d
       -0.08227405 0.25135812 0.10579856 0.055721812
0003a0 c7 57 0e be 31 21 a1 bd a0 02 97 3c 14 6f eb 3b
       -0.13900672 -0.07867659 0.018433869 0.0071848724
0003b0 53 35 28 bd 81 d2 2c be 01 54 83 bd 4b 55 9c 3d
       -0.04106648 -0.16877176 -0.06412507 0.07633456
0003c0 6a f9 ce bd a9 a1 c3 3d ce c3 0f 3e ce 62 c6 3d
       -0.10106166 0.095523186 0.14039537 0.09686814
0003d0 8f f7 54 bd 64 6d 66 bc 61 84 a2 be 51 e2 c4 3d
       -0.051993903 -0.014064167 -0.31741622 0.09613479
0003e0 b3 86 26 bd 2b 2e 90 be 37 af 41 bd 57 a4 5b 3e
       -0.040655803 -0.28160223 -0.04728624 0.2144941
0003f0 11 42 01 3c 3b 4c af bc e1 4d b7 bd 0e 85 6a 3e
       0.007889287 -0.021398654 -0.08950401 0.22902319

conv2.conv1.0.bias f4 [16]
000000 eb 09 a0 bd e2 76 0a bd 7b 20 d2 3d 37 e0 1c 3d
       -0.07814392 -0.03380478 0.102601014 0.038299765
000010 96 19 e8 3d 98 68 3a ba 9b 0e 80 bd de 56 b1 3c
       0.11333005 -0.00071109226 -0.06252786 0.021647867
000020 a5 19 e4 bb 87 47 ca bc f4 be a1 39 c8 7a 90 bd
       -0.006961065 -0.02469231 0.00030850584 -0.07054669
000030 3b 25 13 3d 35 ed 8d bc fc 57 ae bd cf cd ce bd
       0.035924178 -0.017325023 -0.085128754 -0.100978486

conv2.conv1.1.weight f4 [16]
000000 e7 20 84 3f 3e 73 88 3f b7 29 7a 3f bc 2f 6c 3f
       1.0322541 1.0660169 0.977199 0.92260337
000010 f4 c5 86 3f 3a 08 59 3f 58 39 81 3f 4f 15 8a 3f
       1.052916 0.8477818 1.0095625 1.0787753
000020 65 77 5f 3f 27 ab 6c 3f 2a 96 79 3f a6 d9 8d 3f
       0.87291557 0.9244866 0.9749476 1.1082046
000030 47 fc 67 3f ef 66 85 3f 79 d4 7a 3f d4 21 8e 3f
       0.9061932 1.0422038 0.9798046 1.1104074

conv2.conv1.1.bias f4 [16]
000000 15 f3 b3 3c d9 86 10 3e 86 dd 8d bb 63 2f b0 bc
       0.021966496 0.1411394 -0.004329386 -0.02150697
000010 b5 59 a4 3c 5d 42 4b bd b7 7c 0e 3d 53 8a b1 3d
       0.020062307 -0.049623836 0.034786906 0.086689614
000020 65 96 26 3b ad f3 d7 bd 29 eb 97 bd e2 7d ff 3a
       0.0025419232 -0.10544524 -0.074179 0.0019492472
000030 27 bc a6 bd 07 1b 40 3d 74 9b 41 bd ef 1c 1a 3d
       -0.08141356 0.046900775 -0.047267392 0.03762525

conv2.conv1.1.running_mean f4 [16]
000000 1f a3 fd be d4 2d 3c 3e f8 94 b9 bc ff 71 82 bd
       -0.49538514 0.18376857 -0.022654042 -0.06369399
000010 36 eb ae 3f 09 1f 82 3e 14 87 90 bf f8 e8 56 bf
       1.3665531 0.25414303 -1.1291223 -0.8394923
000020 95 97 9e be fa 16 46 3e 22 be 0a 3e 47 16 ad bf
       -0.30975023 0.19344702 0.13549092 -1.3522424
000030 af f9 cc bf 04 3a 27 3e 6c 0c 1c bf ea 82 0d c0
       -1.6013697 0.16330725 -0.60956454 -2.2111154

conv2.conv1.1.running_var f4 [16]
000000 71 58 02 40 5f 72 96 3f b7 0b ed 3f 50 0d ec 3f
       2.036648 1.1753653 1.85192 1.8441563
000010 4f 53 2e 3f d0 3c 78 3f 1a 5f 07 40 70 a4 86 3f
       0.6809587 0.9696779 2.1151795 1.0518932
000020 88 40 8a 3f 45 45 bf 3f d6 b5 87 3f 0f e4 96 3f
       1.0800943 1.4943014 1.0602367 1.1788348
000030 9f 5a 63 3f 41 d8 ec 3f 73 09 ec 3f d6 d1 87 3f
       0.8881015 1.8503495 1.8440384 1.0610912

conv2.conv2.0.weight f4 [16, 16, 3, 3]
000000 24 18 14 be 8f e4 e1 3d 0f 7d fd 3d 85 d0 3e bd
       -0.14462334 0.11029922 0.12377369 -0.04658558
000010 82 b4 97 be 24 14 e3 bc 5a 14 4f be ac 15 8f 3d
       -0.29629904 -0.027719565 -0.20222607 0.069865555
000020 01 ce 04 be 4d fc 13 3d f2 77 f4 3d b2 f2 fc 3c
       -0.12969209 0.036129285 0.1193694 0.030877445
000030 d3 c4 9a be f3 71 19 3e 41 4d 66 be 30 f1 86 bd
       -0.3022829 0.14984874 -0.22490408 -0.065889716
000040 be 23 05 bd f3 21 25 bd f5 84 51 3d dc 10 c3 3d
       -0.03250479 -0.04031558 0.05115219 0.095247
000050 b1 0a a9 be 7a 8b 12 3d c2 f9 c7 3c 92 81 26 be
       -0.3301597 0.035777546 0.024411086 -0.16260365
000060 a2 dc ac 3c 67 37 5c bd d9 67 63 bd e6 60 c3 3c
       0.0211013 -0.053763773 -0.05551896 0.023849916
000070 6f d8 94 bd e3 84 09 3e 7c b1 31 bd 43 df 4e 3e
       -0.07267844 0.13429599 -0.043382153 0.20202355
000080 e4 3c c8 3d f4 7a c5 bc 18 3a 42 bd 7f 6c b3 bd
       0.09777239 -0.02410648 -0.047418684 -0.08760928
000090 26 b1 51 3e 9a 7d d5 bd 29 81 96 3d 96 b2 91 be
       0.20477733 -0.10424347 0.07348854 -0.28456563
0000a0 c5 dd bc 3c f0 67 31 bd a2 15 72 3e bf d1 6f be
       0.023054967 -0.043312013 0.23641065 -0.23419856
0000b0 a6 6c 5f be a9 17 f7 3d 03 32 4e be 91 a9 50 3e
       -0.2181879 0.1206506 -0.20136265 0.20377184
0000c0 67 00 18 be 0b 94 f9 3d 39 04 40 bd e0 22 09 bd
       -0.14843903 0.1218644 -0.046879027 -0.033480525
0000d0 54 82 3e bd 7c 1a 47 3e 6e c4 8f bd f1 06 0e 3e
       -0.04651101 0.19443697 -0.07019888 0.13869835
0000e0 49 98 21 3e 21 18 7c bc a7 93 c5 3e 98 51 b9 3d
       0.15780748 -0.015386612 0.38589212 0.09048766
0000f0 3c f5 18 3e 78 40 6e bb fe 55 f2 bb 2b cb 0d 3e
       0.149373 -0.0036354344 -0.007395505 0.13847034
000100 bb b7 43 bc d8 f7 1f be da dc 8f 3d 0f 0a 97 be
       -0.01194566 -0.15621889 0.07024546 -0.29499862
000110 44 7d 32 be 7e f5 4c bd 7a 0d 4b bb 52 b7 70 bd
       -0.17430598 -0.050038807 -0.0030983374 -0.058768578
000120 8d d6 d5 3d be 09 0c bd 58 52 14 be 10 b4 62 be
       0.10441313 -0.03418898 -0.14484537 -0.22139001
000130 d1 b9 46 3b 4c 8b 9c bd 2f 5d 8f bd 20 c1 35 3e
       0.0030323158 -0.07643756 -0.07000195 0.17749453
000140 3d f8 95 3d 9e 4c ca bd 43 f4 40 bc df 06 26 3e
       0.07322738 -0.09877895 -0.0117769865 0.16213559
000150 03 d0 d1 3d 23 64 67 bd b0 56 6a be 96 0b 3b be
       0.10244753 -0.056491982 -0.22884631 -0.18266138
000160 24 b2 d6 bd 29 f3 41 bd 2c cd b8 3d 42 de fc 3d
       -0.104831964 -0.047351036 0.090235084 0.1234708
000170 27 e2 f9 bc ec 02 31 be ce 10 1e 3e 85 3f 6c be
       -0.030503346 -0.17286271 0.15436098 -0.23071106
000180 fd 53 5f bd 35 a0 d5 3d b6 d5 d8 bd dd a8 9c 3d
       -0.054523457 0.10430948 -0.10587637 0.076493956
000190 b7 e2 a7 3d 1c b3 b2 3d a9 03 cc bc b6 7b 32 bd
       0.08197539 0.08725569 -0.024904089 -0.04357501
0001a0 26 a9 87 3d f1 cb 48 3e 32 52 81 3d d7 91 76 3e
       0.066240594 0.19609047 0.06314506 0.24079071
0001b0 2d c3 95 bd 99 43 92 3d b0 0a 45 bd 8c 1f ad bd
       -0.073126175 0.071417995 -0.048105896 -0.08453283
0001c0 70 45 41 be e6 68 bb 3c b6 73 ba bc 00 d2 0b 3c
       -0.18874145 0.022877168 -0.022760253 0.008533955
0001d0 97 58 5f bd a1 38 a0 3d 75 b6 5a 3e ce 94 06 be
       -0.054527845 0.07823301 0.21358664 -0.13142702
0001e0 ea 11 d3 bd cc 28 55 be 2a e9 22 bd 30 3e 8d 3d
       -0.10306151 -0.20816344 -0.039773144 0.06896627
0001f0 b5 ba 5d 3d 79 c3 18 be ab 7b 16 be 6a a6 ff bc
       0.054133136 -0.14918317 -0.14695613 -0.031207282
000200 45 28 39 3e ed d0 e3 bd 0a 52 32 3d 0a de ef bd
       0.18081768 -0.11123834 0.04353527 -0.117122725
000210 bb 80 6e 3d b3 e3 cb 3c 33 e8 40 be d6 4d 4a bd
       0.058228236 0.024888849 -0.18838577 -0.049390636
000220 b8 d9 cc 3d c5 14 50 bd a5 50 a9 3d df 61 fd bc
       0.10002464 -0.050801057 0.08267335 -0.030930458
000230 5f 6d 75 bc 2e 87 97 be 44 64 9e 3d c7 24 ab bd
       -0.014979689 -0.2959532 0.07733968 -0.08356624
000240 3d 12 c3 bd fd cb e1 3c 68 9e 17 3e c5 88 f2 bb
       -0.09524963 0.02756309 0.14806521 -0.007401558
000250 1b 63 90 3d 53 ac 87 3d 59 66 7c bd 9a f5 a2 3d
       0.07050153 0.06624665 -0.061621044 0.07957001
000260 a7 d0 9f bd 6c 41 1d 3e 42 af 76 3e a8 05 58 3c
       -0.07803469 0.15356988 0.24090293 0.013184942
000270 0b 32 08 be d3 45 39 3c 40 fa fb 3c 4f 97 93 3d
       -0.1330034 0.011308151 0.030758977 0.07206594
000280 d4 23 4c be f9 37 19 bc 14 c4 91 3d 27 65 ee 3c
       -0.19935542 -0.009351724 0.07117477 0.029100968
000290 ba 51 ee bd aa 64 64 3e d5 04 00 be 77 e9 21 3d
       -0.11636682 0.22304025 -0.12501843 0.03952929
0002a0 ee ef 1d be e4 01 ee 3d 45 fd 39 3e 9a 45 2f 3e
       -0.15423557 0.11621454 0.18163021 0.17116395
0002b0 72 79 a0 3d aa 0b 3e bd 43 96 1c 3e ba ea 46 bd
       0.07835664 -0.046397842 0.15291695 -0.048563696
0002c0 ca c8 12 3e 7e 16 2d 3e 23 e7 fe 3d 4b 8d 7c 3d
       0.14334407 0.16903111 0.124464296 0.061658185
0002d0 ac d3 4c be ad cc c5 3c 0a d3 e0 3c 82 66 91 bd
       -0.20002621 0.024145449 0.027444381 -0.0709963
0002e0 4c c6 74 3d 13 44 ae 3c 70 c0 07 be 10 b7 2c bd
       0.059759423 0.021272695 -0.13257003 -0.04216677
0002f0 f3 74 71 bd 50 08 9b 3d e5 a9 89 3b 6a f0 d4 bd
       -0.058949422 0.07569945 0.004201161 -0.10397418
000300 fa a2 c6 bc 5c d5 dc 3d be 54 7c be 77 9e 60 3d
       -0.024247635 0.107828826 -0.24641702 0.054838624
000310 d5 2f 53 bd 0b 0a c8 3c 90 b3 fa bc d0 70 ea bd
       -0.051559288 0.024418851 -0.0306032 -0.114472985
000320 c4 9f c5 3d dd b1 c9 3d 84 0e 0d be 76 24 98 bd
       0.096496135 0.09848378 -0.13775069 -0.07428829
000330 50 39 82 3d c1 bc 78 3d 52 63 77 3d 10 e4 55 be
       0.06358588 0.060726885 0.060397454 -0.2088778
000340 5d ce d1 bc 23 6d a5 bd de 42 8b bd b5 6c e9 bd
       -0.025611097 -0.08077457 -0.06799863 -0.11397687
000350 b5 c0 02 be de 41 30 be 6c 3f 6f 3d 77 64 0e 3d
       -0.12768824 -0.17212626 0.058410093 0.03476378
000360 8b 8e 87 3e 2a a8 01 bd 66 8a de bd b6 55 d8 bc
       0.2647594 -0.031654514 -0.10866241 -0.026408058
000370 b0 e3 1e 3e b5 34 d8 3c 95 8d 49 bd aa b3 dc 3d
       0.15516543 0.02639232 -0.04920729 0.10776456
000380 c2 04 72 3e 97 3f 36 bd 1d 69 95 bd ad db 4a be
       0.23634627 -0.044494238 -0.072954394 -0.19810362
000390 89 f9 02 be 76 bd 5b bd 7c 00 2b be 53 44 37 be
       -0.12790503 -0.05364748 -0.16699404 -0.17897157
0003a0 49 f1 c4 bd 58 ea 18 3d 13 1f 4c 3d 01 f5 28 3e
       -0.09616334 0.037332863 0.049834322 0.16499712
0003b0 75 c1 34 bd 89 ab 5e 3e b4 f2 fd 3d 52 67 a9 3d
       -0.044129808 0.21745123 0.123998076 0.0827166
0003c0 40 dc da 3d 3a c1 92 3e ee fe 1a be 25 5e 7a bd
       0.106865406 0.28663045 -0.1513631 -0.06112494
0003d0 60 1c c7 3e 4a 72 e4 3d b1 f0 4d bd 01 91 40 be
       0.38888836 0.111546114 -0.05027837 -0.18805315
0003e0 8e 76 16 3d 31 a9 04 be 19 7a b1 3d 20 61 10 be
       0.036734156 -0.12955166 0.086658664 -0.1409955
0003f0 52 78 e5 3d b5 47 ee be b2 ae 97 3e a0 61 d7 3d
       0.1120459 -0.46539083 0.2962547 0.10516667

conv2.conv2.0.bias f4 [16]
000000 fb 44 9f bc 65 ed 7c bd 00 f3 8f bd c8 0c 76 bd
       -0.019442072 -0.061749835 -0.070287704 -0.060070783
000010 7f ba 06 3d d9 bb 0f bc 51 a9 b0 bc 08 e5 e1 3c
       0.0328927 -0.008772814 -0.021565111 0.02757503
000020 2a 7d 4f 3d ad 49 3e 3d 10 6d e1 3c 7e 5e a1 3d
       0.050656475 0.04645698 0.027517825 0.07879351
000030 0c 28 68 3b 19 5e ff 3a 44 d3 06 3d 97 1b aa 3d
       0.003542426 0.0019482999 0.032916322 0.083060436

conv2.conv2.1.weight f4 [16]
000000 f0 b1 83 3f 21 dd 83 3f fc 78 6a 3f 83 2e 7e 3f
       1.0288677 1.0301858 0.9159086 0.9928972
000010 03 33 7f 3f 6f 93 69 3f 67 45 82 3f f4 41 7d 3f
       0.9968721 0.9124059 1.017743 0.9892876
000020 88 45 88 3f 9d 30 82 3f 3c df 67 3f be 11 70 3f
       1.0646219 1.0171086 0.90575004 0.9377707
000030 1f 29 8c 3f d6 5c 85 3f bc fc 82 3f 87 af 78 3f
       1.0950049 1.0418956 1.0233378 0.97142833

conv2.conv2.1.bias f4 [16]
000000 93 a8 b9 3c 30 1d 24 3d b3 2e 36 3c 8c 18 af 3c
       0.02266339 0.040066898 0.011119532 0.02137401
000010 e6 4e a7 bc 59 1f a9 3d 6f 61 a1 3d 3a 9f e3 bb
       -0.020423364 0.08257932 0.07879912 -0.0069464715
000020 f0 12 4a 3d fa 35 9c 3d 22 60 29 3d 84 40 a0 bd
       0.049334466 0.07627483 0.041351445 -0.078248054
000030 4e 1d a6 3d 80 c3 13 3d d9 5f 72 3c 89 ff 66 3d
       0.08111058 0.036075115 0.01479336 0.05639604

conv2.conv2.1.running_mean f4 [16]
000000 af 5f 4a bf f8 fe 66 3e 10 45 a6 be b4 21 c7 be
       -0.7905225 0.225582 -0.32474566 -0.388929
000010 80 47 7e bf 54 37 c6 3e 21 10 f7 3e 26 14 ad 3f
       -0.9932785 0.38714087 0.48254493 1.3521774
000020 ea ca 6b bf 03 f0 86 bf 88 4b 4f bf ba 6d 77 3f
       -0.921065 -1.0541996 -0.80974627 0.96651804
000030 85 b6 b5 bd 62 ce 7d 3f 56 d4 86 bf cf e5 0c bf
       -0.088727035 0.9914304 -1.053355 -0.5503816

conv2.conv2.1.running_var f4 [16]
000000 c9 a3 91 3f e2 86 80 3f eb 54 08 3f b8 ad 57 3f
       1.1378108 1.0041163 0.53254575 0.8424945
000010 bb 82 ba 3f bb 92 45 40 71 cb 6b 3f 30 e9 3e 40
       1.4571146 3.0870807 0.921073 2.9829826
000020 b0 c6 cb 3f 9b a6 d8 3f 5c f1 a4 3f 65 74 bd 3f
       1.592001 1.6925844 1.2886157 1.4801146
000030 3b 98 9e 3f c3 a0 a3 3f f9 ac a7 3f ab 81 fd 3f
       1.2390207 1.2783436 1.3099662 1.9805197

conv2.conv3.0.weight f4 [16, 16, 3, 3]
000000 6b 66 0f 3e e0 39 a1 bd 59 28 ca 3d 5a c5 df 3d
       0.14003913 -0.07872367 0.09870977 0.10926314
000010 17 b1 aa bd 2a 60 00 3e d4 d6 14 bd 2c 97 cc bc
       -0.083345585 0.12536684 -0.03633769 -0.024974428
000020 25 87 ff bb 7e 67 cc 3d c3 a0 14 3b 5e 36 f2 3d
       -0.007798093 0.09980677 0.002267883 0.11826776
000030 7f 01 55 bb f2 6c f8 3d 1d 8b 5e 3d 83 94 f8 3d
       -0.0032502112 0.12130155 0.054331888 0.12137701
000040 48 da 52 3e ac b7 b2 3d 51 89 4a bd 5b e4 98 bd
       0.2059108 0.08726439 -0.04944736 -0.0746543
000050 b4 45 00 3e e3 bd 89 bd 84 ff 08 3e 90 09 45 3e
       0.1252659 -0.06725671 0.13378721 0.19241929
000060 dc e8 83 bd 32 86 ac 3c 9b 65 1a 3e d7 a1 e6 bc
       -0.06440899 0.021060083 0.15077822 -0.028153343
000070 da 9d 19 be fa ec 7e bd db 26 c5 bd e0 a1 f0 3d
       -0.15001622 -0.062237717 -0.09626552 0.11749625
000080 66 3f d5 3d a2 d9 a5 3d 92 fe 38 3d b0 db ad bd
       0.10412483 0.08098151 0.045164652 -0.08489168
000090 8c 84 93 bd 97 2c 1f 3d a1 60 f3 bd 1b d8 10 be
       -0.07203016 0.038860884 -0.11883665 -0.14144938
0000a0 09 f4 a0 bd 0f d9 07 3d b0 ed a7 bd 24 2b 3e bd
       -0.07859046 0.033165988 -0.08199632 -0.04642786
0000b0 35 06 0f bd 99 8d c4 bd bd a4 96 bc 79 e7 52 bd
       -0.03491803 -0.0959732 -0.0183891 -0.05149028
0000c0 87 5b ba bd 7b 65 c3 3d 2e 08 26 3e b8 60 96 bd
       -0.09099489 0.0954084 0.16214058 -0.073426664
0000d0 f9 57 cd 3d 5f 16 85 3e c9 98 ee bc 31 d5 b6 3c
       0.10026545 0.2599363 -0.029125588 0.022318454
0000e0 1f 01 b9 3d be e8 ec 3d 7d 7f 1f bd eb bc 1b 3e
       0.09033417 0.115678295 -0.03893994 0.15208785
0000f0 c6 1b 9d 3d d0 d9 7c 3b b5 6f 03 3e 5b 46 32 be
       0.07671313 0.0038581975 0.12835582 -0.17409651
000100 b4 0f 1f be 31 d9 10 bc 12 9d 01 3d 04 c2 82 3d
       -0.15533334 -0.008840845 0.031643935 0.06384662
000110 96 9c 94 3d 04 00 d7 3c c5 0d 3d bd 49 0b 23 3d
       0.07256429 0.026245125 -0.04615571 0.039805684
000120 92 a4 97 bd 9d 88 2a bd f2 b4 f3 bb cf b4 17 3c
       -0.07404436 -0.04163419 -0.007437342 0.009259417
000130 a1 55 36 bd fc 1c 3c 3d 7e e3 20 be f1 ba 01 bd
       -0.044515256 0.04592608 -0.15711781 -0.03167242
000140 91 f6 e7 bd 48 09 42 bd d3 6b bd b9 6c 66 3b 3e
       -0.11326326 -0.047372133 -0.00036129224 0.1830079
000150 e9 39 7a 3d 60 af bb 3d 2a 22 db 3d fb f6 85 3d
       0.061090384 0.091643095 0.10699876 0.065412484
000160 32 c4 b9 3c f6 dd 56 3e 3a 20 86 3c aa 49 02 be
       0.022676561 0.20983109 0.016372789 -0.12723413
000170 ee c2 6c 3e b6 ce 34 be 84 e0 35 be df df 86 be
       0.23121235 -0.17656979 -0.17761427 -0.26342675
000180 f7 73 c2 bd 87 d9 97 bd 61 94 c5 bd bf 2b f4 3d
       -0.09494775 -0.07414537 -0.09647442 0.119224064
000190 e8 9a 20 be bd 03 f0 3d f4 4a 80 3c 62 f2 1a bd
       -0.15684092 0.11719463 0.01566074 -0.03782881
0001a0 93 16 fd bd fc 27 02 3d ec 84 32 bc e8 a7 0a 3d
       -0.12357821 0.031776413 -0.010895949 0.033851534
0001b0 03 85 b7 3d 1b 70 c6 3d a1 34 11 3d bf 7c 0d 3d
       0.08960917 0.09689351 0.03545058 0.034542795
0001c0 7b 7c 91 bc 59 eb ff 3d cb 10 6d 3e de 60 00 bd
       -0.017759552 0.12496061 0.23150937 -0.03134238
0001d0 e6 cb 96 3d d4 7b 19 3e ec 95 44 bd 15 18 84 be
       0.07363109 0.14988643 -0.04799454 -0.25799623
0001e0 44 b8 a2 be c4 15 49 3d cf bb d0 bd 8a 99 eb bd
       -0.3178121 0.049093023 -0.10192072 -0.115038946
0001f0 b5 cb 61 be de 18 38 bd d7 d6 2b 3d d4 ec d0 3d
       -0.22050364 -0.04494559 0.041952934 0.102014214
000200 ba ab 79 bc a8 19 4c 3d e5 08 1c 3d 71 63 ab bd
       -0.015238697 0.049829155 0.03809442 -0.08368576
000210 60 d4 2c bd 7e 12 8c 3d 7f 6c 47 bd 85 79 86 3d
       -0.042194724 0.068394646 -0.048687454 0.06566147
000220 c2 0a 9f bd 02 c7 71 be 03 7a 86 3c c2 c3 14 3e
       -0.07765724 -0.23611072 0.016415602 0.145278
000230 ff a9 9c 3d db 0b 43 be f7 be 7e 3d ee a3 01 3d
       0.07649612 -0.19047491 0.062193837 0.031650476
000240 24 b8 b8 bd bd 08 b3 bd 7b 46 7f bd 4a 15 83 3d
       -0.09019497 -0.08741901 -0.062323075 0.06400545
000250 4c d7 5d 3e f3 e7 ea 3c 5b 1f 4d bd ea 81 94 bc
       0.2166416 0.028675055 -0.05007873 -0.018128354
000260 65 12 8b 3d 7a 30 ce bc 28 37 9e 3d 69 ba be 3d
       0.06790618 -0.0251696 0.07725364 0.09312899
000270 28 3b 8a bc 2c 48 5b 3c b2 64 bf 3d 5b a6 94 3d
       -0.016873911 0.013383906 0.09345378 0.07258292
000280 1b 14 bc bd 0c df 12 bc c5 6a 4a 3c 54 9e 45 be
       -0.09183522 -0.008964311 0.012354557 -0.19298679
000290 2b 30 c0 bd 11 c5 52 bd 04 ba 98 bd 72 a9 9c bd
       -0.09384187 -0.05145747 -0.07457355 -0.07649507
0002a0 dd dc 1f bd 8c e7 57 bd 43 0e ad 3d 14 f1 6f 3d
       -0.03902899 -0.052711055 0.08449986 0.05857952
0002b0 52 24 89 3d b7 2d af bc 95 64 e5 3d 36 77 cc 3c
       0.06696381 -0.021384103 0.11200825 0.024959188
0002c0 84 b6 a0 bc 12 62 18 3c e8 50 86 be cf 62 da 3d
       -0.01961828 0.009300726 -0.26233602 0.106633775
0002d0 15 0c 87 3e 20 37 f7 bd 18 6f e5 bd ff f4 34 3e
       0.26376405 -0.12071061 -0.1120283 0.17671584
0002e0 f6 14 82 bd 33 7f 5f 3e 40 ee 1c 3d a8 e9 bf b9
       -0.06351654 0.21825866 0.03831315 -0.00036604446
0002f0 b6 98 21 bd 1f 00 a2 bc 50 0f 93 bc 93 9c 20 bc
       -0.039452277 -0.019775448 -0.017951638 -0.009802955
000300 d9 34 3a bc 31 e0 d3 bd e7 fe 37 3c d9 48 78 3e
       -0.011365139 -0.103454955 0.011230207 0.24246539
000310 e9 99 cf 3d a0 2c e9 3d 43 07 a0 3e 75 db 6a 3e
       0.10136778 0.11385465 0.3125554 0.22935279
000320 ff 80 e7 3d 0b b6 62 3d 21 7c 4e bd 7a 4c 27 3d
       0.11303901 0.05534939 -0.050411347 0.040844418
000330 65 a9 c1 3d a2 88 3b 3d c0 39 bc bd 4d 06 df 3c
       0.094561376 0.0457846 -0.091907024 0.027224684
000340 09 1b 1f 3e 3a d9 05 3e ca 8f 54 3e 5b f5 89 3d
       0.15537657 0.13071147 0.20757976 0.06736251
000350 63 d7 ba 3e 3d 0a a6 3c 74 73 c2 3c e2 8e df 3d
       0.36492452 0.020268554 0.023736693 0.109159246
000360 ee 4b 9a 3d 8c 2d b9 bd 63 96 f6 bd 2c aa 48 3e
       0.07534014 -0.090418905 -0.12040403 0.19596165
000370 e5 7d bb 3d 64 e3 f7 3d c7 4b a9 be b6 f0 36 be
       0.09154872 0.12103918 -0.33065626 -0.17865261
000380 e7 f6 d6 3d f7 9b 0a 3e 29 58 5e bc 46 a4 97 bd
       0.10496312 0.13536058 -0.013570824 -0.074043795
000390 59 64 55 3e 4b 57 4b 3e c1 61 20 bd 7c d8 98 bc
       0.20839061 0.19857518 -0.039155725 -0.018657915
0003a0 49 a0 b9 bc d8 d4 53 bd 83 08 2a bb 23 1f cc bd
       -0.022659438 -0.051716655 -0.0025945015 -0.09966876
0003b0 a2 2a 8c 3d 47 27 db bd dc 64 d1 3c da 51 73 3d
       0.06844069 -0.10700851 0.025560789 0.05940423
0003c0 07 9e e7 3d eb 4c 94 3d 80 32 a7 3d db dd c4 b8
       0.11309438 0.072412334 0.08163929 -9.387332e-05
0003d0 64 dd c2 bd 4e d2 ee bb aa a6 ea bd 93 e9 df 3d
       -0.09514883 -0.007288254 -0.1145757 0.109332226
0003e0 88 27 54 3d e0 28 bb bd 27 ac a3 3d 53 35 4d bc
       0.051795512 -0.09138656 0.0799182 -0.0125249205
0003f0 fe bd fb bd f1 d5 a2 3d 3b 52 5f bc 5d 18 5b be
       -0.122920975 0.07950962 -0.013630445 -0.21396013

conv2.conv3.0.bias f4 [16]
000000 50 04 0c bc 64 7a 9e 3d 70 ab 86 bd 74 cd 32 bd
       -0.00854595 0.07738188 -0.06575668 -0.043652967
000010 2a f3 5b bd 0c 24 8c 3d 19 9c 5c 3d 91 11 9b bd
       -0.053698696 0.06842813 0.053859804 -0.0757171
000020 52 b4 59 3c 41 de 84 bd 7f 2c ad bc cb 1e 71 3c
       0.013287621 -0.06487704 -0.021139381 0.014716814
000030 35 b9 8b 3c 20 fa 74 bd 69 9c 59 bd 0d 22 3c bd
       0.017056087 -0.05980885 -0.05312768 -0.04593091

conv2.conv3.1.weight f4 [16]
000000 fe 6e 90 3f f3 f3 6c 3f f3 fe 87 3f 74 93 71 3f
       1.1283872 0.92559737 1.0624679 0.9436562
000010 24 c9 81 3f 17 d1 88 3f a9 a2 87 3f 88 e7 7e 3f
       1.0139508 1.0688809 1.0596515 0.9957204
000020 e4 2b 73 3f 7d 25 66 3f 98 19 83 3f 73 31 85 3f
       0.94988847 0.8990095 1.0242186 1.0405716
000030 7c e7 86 3f 22 90 7a 3f 18 4b 72 3f 1f 20 6f 3f
       1.0539393 0.9787618 0.94645834 0.9340839

conv2.conv3.1.bias f4 [16]
000000 d7 20 35 3d 06 1c 5a bd 78 aa e8 3a 39 ab ae 3c
       0.04422077 -0.05324938 0.0017750999 0.02132188
000010 3a 8e a5 bc 2c ae bb bc 88 68 2c 3d f0 91 94 bc
       -0.02020942 -0.0229102 0.042091876 -0.018135995
000020 5e 28 89 3d d3 c4 79 bc c8 a5 dc 3c ae e6 1f 3c
       0.066971526 -0.01524468 0.02693452 0.009759588
000030 8f 6f 7c bd 1f 25 cc bc 78 5b a2 3c ea 1f 29 3d
       -0.061629828 -0.024920044 0.019819006 0.0412902

conv2.conv3.1.running_mean f4 [16]
000000 ad e6 b1 3e c4 16 95 3f 1d 73 2b bf 95 c7 cb be
       0.34746304 1.1647573 -0.66972524 -0.39800707
000010 c9 6b 49 bf c3 ba bb be 93 35 c8 bf 4e 1b b1 bf
       -0.7868009 -0.36665925 -1.564135 -1.3836458
000020 dd 6d d1 3e 3e ac 37 bf 16 46 b7 be 80 d3 cb 3d
       0.40904132 -0.71747196 -0.3579566 0.0995245
000030 c5 31 a0 3e 41 63 08 3f 93 81 89 3d 61 8b 2c 3f
       0.3128797 0.5327645 0.067141674 0.67400175

conv2.conv3.1.running_var f4 [16]
000000 6d 53 9f 3f 44 fd cc 3f f9 d2 c6 3f 56 11 c0 3f
       1.2447335 1.601479 1.5533134 1.500529
000010 d9 69 b7 3f 2c a3 f0 3f d7 5d 86 3f d9 d2 04 40
       1.4329177 1.8799796 1.0497388 2.0753691
000020 48 90 27 40 f2 26 74 3f 36 65 91 3f 6c 31 ed 3f
       2.6181812 0.95371926 1.1359012 1.8530707
000030 c7 57 ee 3f c4 14 e1 3f 16 07 a0 3f 01 73 94 3f
       1.8620538 1.7584462 1.2502162 1.1597596
