checkpoints/ifind1_sononet_8_6classes/020_net_6classes_class.pth (torch_old, 671819 bytes, 90 tensors)

conv1.conv1.0.weight f4 [8, 1, 3, 3]
0	0xbe5eff5b	-0.21777098
1	0x3f5a0602	0.8516542
2	0x3eec5bc0	0.4616375
3	0x3e33384c	0.17501944
4	0xbee9e4cb	-0.45682368
5	0x3f06d6c3	0.5267145
6	0xbe394bde	-0.18095347
7	0x3ea1b6a7	0.31584665
8	0xbf38aba8	-0.72136927
9	0x3f05bb71	0.5223914
10	0x3f10a75d	0.56505376
11	0xbf0cb457	-0.54962677
12	0x3f1b6817	0.60705703
13	0x3f3fced6	0.7492498
14	0xbf542421	-0.8286763
15	0xbe4689be	-0.19388482
16	0x3f464af5	0.77458125
17	0x3e6a289f	0.22867058
18	0x3f3ef27c	0.7458875
19	0xbf675d62	-0.90376866
20	0xbec75b32	-0.38936764
21	0xbd8dc434	-0.069221884
22	0x3c9e6c4d	0.019338751
23	0xbd53d0ca	-0.05171279
24	0xbf4ffa28	-0.81241083
25	0xbc037976	-0.008024564
26	0x3fb2cd1c	1.3968844
27	0x3f1e9d00	0.61958313
28	0x3f48efda	0.78490984
29	0x3f952260	1.1651115
30	0xbf353266	-0.70780027
31	0xbf07f1f6	-0.5310358
32	0xba8d2fa2	-0.0010771642
33	0xbf2621a1	-0.64895064
34	0xbf6283c1	-0.8848229
35	0xbd7400e2	-0.059571154
36	0x3e044427	0.12916623
37	0xbc84f268	-0.01622887
38	0xbfa6b604	-1.3024297
39	0xbee63dbd	-0.44968978
40	0xbdbe2168	-0.092837155
41	0x3ec43a31	0.38325647
42	0x3ed04754	0.4067942
43	0x3d61e9b6	0.055154525
44	0x3f4109ba	0.75405467
45	0xbe5f1dc0	-0.21788692
46	0x3ea7cf71	0.32775453
47	0x3f1c6208	0.61087084
48	0xbf10c565	-0.565512
49	0xbf037afa	-0.5135952
50	0x3d4fe8b2	0.050759025
51	0xbec07f22	-0.37596995
52	0x3e89e3d4	0.26931632
53	0x3f770544	0.9649241
54	0xbf1a25d9	-0.60214
55	0x3f179127	0.5920586
56	0x3df1b356	0.11801784
57	0x3d99d57a	0.075114205
58	0xbe0c2f0e	-0.13689825
59	0xbcdde7dc	-0.027088098
60	0x3f3161b6	0.6928972
61	0xbec25925	-0.37958637
62	0xbc259550	-0.0101064
63	0xbe63b11a	-0.22235528
64	0xbeb68292	-0.35646492
65	0x3f2d332b	0.676562
66	0xbc65c176	-0.014023175
67	0xbf49c79d	-0.7882021
68	0xbf17f309	-0.5935522
69	0xbbbb45ee	-0.0057151234
70	0xbf2cc636	-0.67489946
71	0x3f4fec75	0.8122018

conv1.conv1.0.bias f4 [8]
0	0x3ea4278b	0.3206142
1	0xbe8cc841	-0.27496532
2	0xbea93860	-0.33050823
3	0xbe8575f6	-0.2606656
4	0xbe658062	-0.22412255
5	0x3e0a26a3	0.13491301
6	0x3df461ff	0.11932754
7	0x3e8dbdb4	0.27683794

conv1.conv1.1.weight f4 [8]
0	0x3f6bdda6	0.92135084
1	0x3f698809	0.912232
2	0x3f6cc621	0.9248982
3	0x3faba2ba	1.3409035
4	0x3f67160b	0.9026801
5	0x3f93bd41	1.1542131
6	0x3f38dde1	0.7221356
7	0x3f76c465	0.96393424

conv1.conv1.1.bias f4 [8]
0	0x3e88cc8a	0.2671855
1	0xbebc103b	-0.36731133
2	0x3f1d0f29	0.6135126
3	0x3f0cc407	0.54986614
4	0x3ed9be52	0.42528015
5	0x3ef47d1e	0.47751707
6	0xbdb8942b	-0.09012636
7	0xbdad8ce4	-0.084741384

conv1.conv1.1.running_mean f4 [8]
0	0x3ea444ec	0.32083833
1	0xbe8cde21	-0.2751322
2	0xbea89655	-0.32927194
3	0xbe84fb1d	-0.25972834
4	0xbe65b6f5	-0.22433074
5	0x3e0b3b56	0.13596854
6	0x3df54805	0.11976627
7	0x3e8e4713	0.277886

conv1.conv1.1.running_var f4 [8]
0	0x3f2803aa	0.6563059
1	0x405e4191	3.4727519
2	0x3e07cdcc	0.13262099
3	0x3f6a7deb	0.91598386
4	0x3e8bccd9	0.27304724
5	0x3edf4407	0.43606588
6	0x3de83a9e	0.11339305
7	0x3fb58fcf	1.4184512

conv1.conv2.0.weight f4 [8, 8, 3, 3]
0	0x3ce7f2ee	0.02831408
1	0x3eca4a43	0.39509782
2	0x3ce09087	0.027412666
3	0xbcf597c9	-0.029979603
4	0x3e2f3e7e	0.17113683
5	0xbdb67a01	-0.08909989
6	0x3bead01a	0.007165921
7	0x3e379843	0.17929177
8	0xbe4400e4	-0.19140965
9	0xbe9d3d7f	-0.3071098
10	0x3e6ca805	0.2311097
11	0x3e869d7b	0.26292023
12	0xbe46ec91	-0.1942618
13	0x3dfcf8ec	0.123521656
14	0x3e03c275	0.12867148
15	0xbe8dfc3d	-0.27731505
16	0xbe88e91c	-0.26740348
17	0xbe121980	-0.1426754
18	0x3de59130	0.11209333
19	0xbec7c199	-0.3901489
20	0xbe33b7bd	-0.1755056
21	0xbf0ada5b	-0.54239434
22	0xbe8ba4c6	-0.2727415
23	0xbce7ee93	-0.028312003
24	0xbe50f9fb	-0.2040786
25	0x3ee1600c	0.4401859
26	0x3eba8a13	0.36433467
27	0x3dddcc32	0.10829963
28	0xbe214bc1	-0.15751554
29	0x3e37af7d	0.17938037
30	0x3ccda32c	0.02510222
31	0xbd96fff8	-0.07373041
32	0xbd1c90bd	-0.03822397
33	0x3e866e52	0.26256043
34	0x3ec9402d	0.39306775
35	0xbd4c4efc	-0.049880013
36	0x3e2d3738	0.16915596
37	0xbda55c7e	-0.08074282
38	0xbd57a265	-0.052645106
39	0xbe4f134a	-0.20222202
40	0xbdf790a2	-0.120881334
41	0xbddf975a	-0.1091754
42	0xbea830c7	-0.32849714
43	0x3d991578	0.07474798
44	0x3e26aa02	0.1627579
45	0x3ece530b	0.40297732
46	0x3d8ead91	0.06966699
47	0xbe83799a	-0.25678712
48	0xbeb11c18	-0.34591746
49	0xbe50d3fe	-0.20393369
50	0xbe23f82c	-0.16012639
51	0x3f0b179a	0.5433289
52	0x3da2e22e	0.079532966
53	0x3e95dd72	0.29270512
54	0xbe3d4525	-0.18483408
55	0x3d5b8a80	0.05359888
56	0x3e5b05c7	0.21388923
57	0x3e28ee14	0.1649707
58	0x3da2f289	0.07956416
59	0xbe38d374	-0.18049413
60	0x3d51d131	0.05122489
61	0x3927dc09	0.0001600833
62	0xbead3953	-0.33832797
63	0xbe936202	-0.28785712
64	0xbeb38ca7	-0.35068247
65	0x3d7cff0c	0.06176667
66	0xbdc5a298	-0.09650153
67	0xbddc1737	-0.107466154
68	0xbe2cd6fc	-0.16878885
69	0xbd623ff7	-0.055236783
70	0xbe71cd83	-0.23613553
71	0xbe063d0a	-0.13109222
72	0x3e9ffbab	0.31246695
73	0xbd033164	-0.032029524
74	0x3e6cc396	0.23121485
75	0x3dde7d5e	0.10863756
76	0x3e1abd53	0.15111284
77	0x3ec31d96	0.3810851
78	0x3e84ec53	0.2596155
79	0x3edd0c58	0.4317348
80	0x3e0b2bf7	0.1359099
81	0x3da759b5	0.08171407
82	0x3e9a3451	0.3011804
83	0x3eb48a59	0.352618
84	0xbe2cd365	-0.16877516
85	0xbcda1fc9	-0.026626484
86	0xbc8297d4	-0.015941538
87	0xbe0c6d6a	-0.13713613
88	0xbeb19298	-0.34682155
89	0xbe265da5	-0.1624666
90	0xbdaad599	-0.08341522
91	0xbd5a6799	-0.053321455
92	0x3ecf07d6	0.40435666
93	0xbbbdcc6b	-0.005792191
94	0x3dcf8e13	0.101345204
95	0x3ec91c4e	0.39279407
96	0x3deb21d6	0.11481063
97	0xba914568	-0.0011083307
98	0xbe1d879a	-0.15383759
99	0xbeb98058	-0.3623073
100	0xbe7ebd02	-0.24876788
101	0x3cfdc013	0.030975377
102	0x3da78edf	0.081815474
103	0x3a44919a	0.0007498503
104	0x3e9ec96a	0.31013042
105	0x3e11cb01	0.14237596
106	0x3cdca296	0.026932996
107	0x3e990daf	0.29893252
108	0xbe2d9c0c	-0.16954058
109	0xbe48c12e	-0.19604942
110	0x3e13a70e	0.14419195
111	0x3cbf9429	0.023386078
112	0xbe2ada37	-0.16684805
113	0xbe03eb09	-0.12882628
114	0x3cce80ce	0.025207903
115	0xbc159af7	-0.009131185
116	0xbe9e623c	-0.30934322
117	0xbd529eca	-0.051420964
118	0x3f17df3b	0.59325
119	0x3f1b66b3	0.6070358
120	0xbe5a4687	-0.21315967
121	0x3e0b5704	0.13607413
122	0x3e27c1b3	0.16382484
123	0xbcc78e13	-0.024359738
124	0x3e1263fe	0.14295956
125	0xbda764d8	-0.08173531
126	0xbdca19cc	-0.098682016
127	0x3e8241ad	0.25440732
128	0x3e06266d	0.13100596
129	0xbe205694	-0.15658027
130	0x3d56b34c	0.052417085
131	0x3d7ec134	0.06219597
132	0xbdd57943	-0.104235195
133	0xbd40fee1	-0.04711807
134	0xbc1b9c05	-0.009497647
135	0xbe3bd042	-0.18341163
136	0xbe176a9c	-0.14786762
137	0xbbdc01bf	-0.0067140753
138	0xbd70ebc0	-0.05881858
139	0x3e6f06e7	0.23342477
140	0xbdb6b2a3	-0.08920791
141	0x3d25fcda	0.04052434
142	0xbd7a286e	-0.061073713
143	0x3e0d05e0	0.13771772
144	0xbe8b9c6d	-0.2726778
145	0xbd6bd431	-0.05757541
146	0xbd5c4ad6	-0.053782307
147	0x3d632427	0.0554544
148	0x3e6d67ba	0.231841
149	0xbe41eff4	-0.18939191
150	0x3e33b175	0.17548163
151	0xbca4a858	-0.020099804
152	0xbc34c2cc	-0.011032771
153	0xbe933c26	-0.28756827
154	0xbd2397e2	-0.03993977
155	0x3e074c99	0.13212813
156	0x3d59f261	0.053209666
157	0x3e64943a	0.22322169
158	0x3e6b061f	0.22951554
159	0xbe118d88	-0.14214146
160	0x3da9ccd6	0.082910225
161	0x3ebe7e95	0.3720595
162	0x3e1dcd34	0.1541031
163	0x3eb9b86d	0.36273518
164	0x3dc91691	0.09818757
165	0xbdc81748	-0.097700655
166	0x3de9dc97	0.11419027
167	0xbeb6d710	-0.35710955
168	0xbe700514	-0.23439437
169	0x3ccfec4f	0.025381235
170	0x3e5469a5	0.20743425
171	0xbdd4cbc5	-0.103904285
172	0xbe8fa4d6	-0.28055447
173	0xbda5207c	-0.080628365
174	0xbda59703	-0.08085444
175	0xbd3b88e3	-0.045784842
176	0xbccc1b60	-0.024915397
177	0xbeb5266d	-0.3538088
178	0xbc7579d8	-0.014982663
179	0xbd40886e	-0.04700511
180	0x3e1d9435	0.15388568
181	0x3e9ddb9b	0.30831608
182	0x3e179089	0.1480123
183	0x3d84fcc2	0.06493522
184	0xbe02fc9a	-0.12791672
185	0x3db6995d	0.089159705
186	0x3c526f11	0.012843863
187	0xbe095212	-0.13410214
188	0x3e665d13	0.22496442
189	0x3c817eb5	0.015807489
190	0xbe2b13ab	-0.16706721
191	0xbd99f5b6	-0.07517569
192	0x3d8a32be	0.067479596
193	0x3ba7e113	0.0051232665
194	0x3e078133	0.1323288
195	0x3f3005c5	0.68758804
196	0x3e83b0e0	0.25720882
197	0x3e88e3f0	0.26736403
198	0x3d184afc	0.037180886
199	0xbe473a1d	-0.19455762
200	0x3d95f60a	0.07322319
201	0x3d856376	0.06513111
202	0xbceba87c	-0.028766863
203	0x3d7f4c9c	0.06232892
204	0x3e895dde	0.26829427
205	0xbd70677b	-0.058692437
206	0x3d62f11c	0.05540572
207	0xbe00311f	-0.12518738
208	0xbc86fbdc	-0.016477518
209	0xbcba29e5	-0.022725055
210	0x3ddc85ca	0.10767706
211	0x3d994223	0.07483318
212	0xbcd03f69	-0.025420861
213	0xbe1a2b9f	-0.15055703
214	0xbdab0894	-0.083512455
215	0x3de2686b	0.110550724
216	0xbd63953e	-0.05556225
217	0x3dabd05a	0.08389349
218	0x3d0ba70a	0.034094848
219	0x3d959a11	0.073047765
220	0x3cef7af8	0.02923344
221	0x3d27730c	0.0408812
222	0xbd8e346a	-0.06943591
223	0x3e572829	0.21011414
224	0xbcabeddd	-0.020987445
225	0xbd4073f4	-0.04698558
226	0xbce02038	-0.027359113
227	0x3d09235f	0.033480998
228	0xbd845261	-0.06461025
229	0xbb829dee	-0.003986112
230	0x3db2c073	0.08728113
231	0xbd2a1a87	-0.041529205
232	0xbe03621e	-0.12830397
233	0x3e3eb9af	0.1862552
234	0x3e67c937	0.22635351
235	0xbdec16f2	-0.11527814
236	0xbe71c37e	-0.2360973
237	0x3e3c7dc3	0.1840735
238	0xbd03cc44	-0.032177225
239	0x3e564b0b	0.20927064
240	0xbd29afcb	-0.041427415
241	0xbdcc742e	-0.09983097
242	0xbc2f7418	-0.010708831
243	0x3df1e482	0.118111625
244	0xbaf387c7	-0.0018579894
245	0x3e20252a	0.15639177
246	0xbdac71ac	-0.08420119
247	0x3de83aa8	0.11339313
248	0x3e2a1fb3	0.16613655
249	0x3bd8a9a3	0.006612019
250	0xbe20e3e0	-0.15711927
251	0xbe319401	-0.17341615
252	0x3ec82368	0.39089513
253	0x3eb269ae	0.34846252
254	0x3d8c3e68	0.068478405
255	0x3d072c9d	0.03300153

conv1.conv2.0.bias f4 [8]
0	0xbc9edd83	-0.019392734
1	0xbd895475	-0.06705562
2	0xbc9c20d7	-0.019058628
3	0x3dc3a58d	0.09553061
4	0xbdb3160a	-0.08744438
5	0x3cdb1345	0.026742587
6	0xbded1372	-0.115759745
7	0x3d7cea44	0.06174685

conv1.conv2.1.weight f4 [8]
0	0x3f894a73	1.0725845
1	0x3f4f5716	0.8099226
2	0x3f604ed0	0.8762026
3	0x3f3a5352	0.72783387
4	0x3f84d544	1.0377584
5	0x3f8ae212	1.0850241
6	0x3f7c95b7	0.98665947
7	0x3fbd94d5	1.4811045

conv1.conv2.1.bias f4 [8]
0	0x3d95578f	0.07292091
1	0xbe64b3dd	-0.22334237
2	0x3d92e893	0.07173266
3	0xbd948060	-0.07251048
4	0x3ea23652	0.31682068
5	0x3ccf18f0	0.025280446
6	0xbe22a2a1	-0.1588235
7	0x3f1f7922	0.6229421

conv1.conv2.1.running_mean f4 [8]
0	0xbebe3440	-0.3714924
1	0x3ffecdec	1.9906592
2	0x3f334fb3	0.70043486
3	0x3fc4a9b8	1.5364294
4	0x3f59835f	0.8496608
5	0xbfafcf88	-1.3735209
6	0x3e3f51dc	0.1868357
7	0xbf298c1b	-0.6622941

conv1.conv2.1.running_var f4 [8]
0	0x40431d12	3.0486493
1	0x40fb0208	7.843998
2	0x4084cc32	4.149926
3	0x401d27cd	2.4555542
4	0x40bbf155	5.8732095
5	0x40d2e2c2	6.5901804
6	0x406ace42	3.668839
7	0x40254a70	2.5826683

conv1.conv3.0.weight f4 [8, 8, 3, 3]
0	0xbe759b8a	-0.23985115
1	0xbe544c59	-0.2073225
2	0x3d86d833	0.065842055
3	0x3e864c6b	0.26230177
4	0x3dc7208f	0.09723007
5	0x3e5480d0	0.20752263
6	0xbe540d2b	-0.20708148
7	0x3b7a9660	0.0038236603
8	0x3d4a5265	0.049394984
9	0xbeb76fbe	-0.3582744
10	0x3e4db881	0.20089914
11	0x3ef9192a	0.4865201
12	0xbe6d23df	-0.23158215
13	0xbde6f11c	-0.11276457
14	0x3c42ea46	0.011896675
15	0x3d192dd3	0.037397217
16	0x3e0e5de3	0.13903002
17	0xbe1e01d0	-0.15430379
18	0xbebd191a	-0.36933213
19	0xbc2e84ad	-0.01065175
20	0x3d35acd5	0.04435428
21	0xbe45d5a5	-0.1931978
22	0x3c986923	0.01860482
23	0x3e901a1c	0.2814492
24	0xbea1bb45	-0.31588188
25	0x3dfca625	0.12336377
26	0xbe4ac5d5	-0.1980203
27	0xbf138b9e	-0.57634914
28	0x3cdfaf91	0.027305396
29	0x3e3be3e3	0.1834865
30	0xbd9a7ad1	-0.075429566
31	0xbd91b194	-0.071139485
32	0x3e8c9b7e	0.2746238
33	0x3d14f519	0.036366556
34	0xbb361111	-0.0027781168
35	0x3dae36c8	0.085065424
36	0xbe28c8f2	-0.16482905
37	0x3e70a3f4	0.23500043
38	0x3f0c9de5	0.5492843
39	0x3e970b01	0.29500583
40	0x3ed94b8b	0.42440447
41	0x3ea8c037	0.32959148
42	0xbd95caf6	-0.07314102
43	0xbd73b71a	-0.05950079
44	0x3e5c2a35	0.21500476
45	0xbe4f8a71	-0.20267655
46	0xbcab02f9	-0.02087544
47	0xbebdaa3a	-0.37043935
48	0x3d492473	0.049107026
49	0x3d7112af	0.05885571
50	0x3e33d16f	0.17560361
51	0x3df9d7f0	0.1219939
52	0xbe761545	-0.24031551
53	0x3d004036	0.031311236
54	0xbe46b609	-0.19405378
55	0x3cd3aa8e	0.025838163
56	0x3e394677	0.18093286
57	0xbe5db24d	-0.21650048
58	0xbdd55383	-0.10416319
59	0x3e6a16ff	0.22860335
60	0xbe1fa9d9	-0.15592135
61	0xbe6c0f2e	-0.23052666
62	0xbe8bb0d3	-0.27283344
63	0x3ca582df	0.020204006
64	0xbd3a5f79	-0.045501206
65	0xbdf35eb2	-0.11883296
66	0x3d579dd1	0.05264074
67	0xbc974da3	-0.018469637
68	0xbebafc38	-0.36520553
69	0x3e2a7139	0.16644754
70	0xbcd049df	-0.02542585
71	0x3da0048b	0.078133665
72	0xbe0b6fcd	-0.13616867
73	0xbe238b24	-0.15971047
74	0x3dcfc4fa	0.10144992
75	0x3df5461a	0.119762614
76	0x3e05dd2a	0.13072649
77	0x3e900e5b	0.28135952
78	0x3b81134b	0.0039390675
79	0x3e8c2f14	0.27379668
80	0x3cc2ba0a	0.023770351
81	0x3ebdf32a	0.37099582
82	0x3c5c4730	0.013444707
83	0x3d9ea17e	0.07745646
84	0xbd084322	-0.033267148
85	0x3d550d34	0.052014545
86	0x3e4c91b2	0.19977453
87	0x3e4cea2a	0.20011202
88	0x3dbf12c6	0.093297526
89	0x3e8413f3	0.2579647
90	0x3e30d6df	0.17269467
91	0xbd3f1a7a	-0.04665611
92	0x3e500aca	0.20316616
93	0xbe9d3b56	-0.30709332
94	0xbd8c8779	-0.06861777
95	0x3d10e43e	0.03537392
96	0x3de8a04a	0.11358698
97	0xbe339f8a	-0.17541328
98	0x3b972cf8	0.004613515
99	0x3e198274	0.1499117
100	0x3e152f09	0.14568724
101	0xbbdfc51e	-0.006828918
102	0xbd35ad3b	-0.04435466
103	0x3e9bf423	0.304597
104	0xbe8ab322	-0.27089792
105	0x3e3d9160	0.18512487
106	0xbde47653	-0.11155381
107	0xbd925614	-0.07145324
108	0x3e8743fd	0.26419058
109	0x3edb15ea	0.42790157
110	0x3d9dc917	0.077043705
111	0xbc202967	-0.009775496
112	0xbe2aac44	-0.16667277
113	0x3dfa33c7	0.12216907
114	0xbc6ff28d	-0.014645231
115	0x3db9eb43	0.09078076
116	0x3e815a73	0.2526432
117	0xbe6f88fa	-0.23392096
118	0xbbe12ffd	-0.0068721757
119	0x3d2f5818	0.042808622
120	0xbd43c9e3	-0.047799956
121	0x3dbcaeee	0.09213053
122	0x3e5c509a	0.21515122
123	0xbd2105be	-0.039312117
124	0xbe650af0	-0.22367454
125	0xbdfcff07	-0.1235333
126	0x3d79f0fb	0.061020833
127	0xbd6cc0de	-0.05780112
128	0xbe1be7ee	-0.15225193
129	0xbe1b13ff	-0.15144347
130	0xbdaaa5d8	-0.083324134
131	0xbceda2fd	-0.029008383
132	0xbe1750ff	-0.14776991
133	0xbe1692db	-0.14704458
134	0x3d41e18d	0.047334243
135	0x3d362bea	0.044475473
136	0xbdb3a826	-0.08772306
137	0xbea7453f	-0.32670018
138	0xbe6a6587	-0.22890292
139	0xbe8b98b4	-0.2726494
140	0x3e4fb7e0	0.20284986
141	0xbdfe4dd6	-0.1241719
142	0x3bd3fd1b	0.0064693815
143	0xbe006a47	-0.12540542
144	0xbd3fd2af	-0.046831783
145	0xbe49faeb	-0.19724624
146	0x3e675c42	0.22593787
147	0xbca43480	-0.020044565
148	0xbe13a54e	-0.14418527
149	0xbdaf9df6	-0.085750505
150	0x3d8f6296	0.07001226
151	0x3e69866b	0.22805183
152	0xbd40661e	-0.046972387
153	0xbe4acefc	-0.19805521
154	0x3d0b1020	0.033950925
155	0xbdea5ed8	-0.11443871
156	0xbe047f3f	-0.12939166
157	0x3e7484cd	0.23878784
158	0x3e7e481e	0.24832198
159	0xbeb1186d	-0.34588948
160	0x3e8f3945	0.2797338
161	0xbcc11841	-0.023571135
162	0x3da1c8f4	0.07899657
163	0xbe8f26de	-0.2795934
164	0x3c252d50	0.010081604
165	0xbe7aaa28	-0.24478972
166	0xbe6a42d1	-0.22877051
167	0x3e587828	0.21139586
168	0xbe94c222	-0.29054362
169	0x3d3f6d6b	0.04673521
170	0xbe3d92e4	-0.18513066
171	0x3be36202	0.0069391737
172	0x3de598e5	0.11210803
173	0xbe25e265	-0.16199644
174	0xbe5dd8ef	-0.21664785
175	0xbd7a529a	-0.06111393
176	0xbc77981a	-0.015111947
177	0xbdf33dca	-0.1187702
178	0xbcc413c3	-0.023935204
179	0xbdf8a5e6	-0.121410176
180	0x3e192740	0.14956379
181	0x3e1222cb	0.14271085
182	0xbd515d1c	-0.051114187
183	0xbe015236	-0.12629017
184	0xbe0d1f1e	-0.13781402
185	0xbec0b8af	-0.37640902
186	0x3c09bc9c	0.008406784
187	0x3df81a5a	0.12114401
188	0xbd9ad953	-0.075609826
189	0x3e6365de	0.22206828
190	0xbea0cb31	-0.31405023
191	0x3dbb3979	0.091418214
192	0xbc0db5c5	-0.008649294
193	0xbdb8c1cf	-0.09021341
194	0x3f003b5d	0.5009058
195	0x3d0dd52b	0.03462712
196	0x3d150357	0.03638014
197	0x3daae7fb	0.08345028
198	0xbe306d4c	-0.17229193
199	0xbbd519dd	-0.0065033273
200	0x3d53b7ff	0.051689144
201	0xbef7f783	-0.48431024
202	0xbe2232d8	-0.15839708
203	0xbd296b5f	-0.041362163
204	0xbdecbd2b	-0.115595184
205	0xbe23ed62	-0.16008523
206	0xbf02dde1	-0.5111981
207	0xbe90e973	-0.28303108
208	0xbf401812	-0.7503673
209	0xbdba9f1e	-0.091123804
210	0x3c42dae3	0.011893007
211	0x3ed68d35	0.41904607
212	0x3ebb5c72	0.36593968
213	0x3daa0219	0.08301181
214	0x3d88c977	0.06679051
215	0x3f14e892	0.58167374
216	0xbe02b9d9	-0.12766208
217	0xbd9fe7bc	-0.07807872
218	0x3dd85700	0.10563469
219	0x3eb42cbf	0.3519039
220	0xbdd85373	-0.10562792
221	0xbdfac7fa	-0.12245174
222	0x3e8dd85c	0.27704132
223	0xbdfcae73	-0.12337961
224	0x3e808828	0.2510388
225	0x3de267f2	0.11054982
226	0xbdbab72d	-0.09116969
227	0xbd78431f	-0.060610887
228	0xbe89c004	-0.2690431
229	0x3e9e1a72	0.3087955
230	0xbe6330dc	-0.22186607
231	0x3e9f18f5	0.31073728
232	0x3dad3113	0.08456626
233	0xbe1d91ef	-0.153877
234	0x3e9f69f2	0.31135517
235	0xbd235809	-0.03987888
236	0xbd5fa75b	-0.054602962
237	0x3eaf71c6	0.3426649
238	0x3e4c157d	0.19930072
239	0x3e833c67	0.2563202
240	0x3e4a0e40	0.19731998
241	0x3e5f3c03	0.21800236
242	0x3e253571	0.16133668
243	0x3daca629	0.0843013
244	0x3db61e55	0.08892504
245	0xbe6584ec	-0.22413987
246	0x3e7652d2	0.24055031
247	0xbdac23e6	-0.084052846
248	0x3ddb851e	0.107187495
249	0x3ef164cc	0.47147214
250	0x3e707e33	0.23485641
251	0x3d13c663	0.03607787
252	0x3dccf396	0.10007398
253	0x3dd68a38	0.10475582
254	0xbda95329	-0.08267815
255	0x3d88738d	0.066626646

conv1.conv3.0.bias f4 [8]
0	0xbd7d692f	-0.06186789
1	0xbb8bdb7a	-0.004268107
2	0x3cb436a4	0.02199871
3	0xbd002278	-0.031282872
4	0x3da46b77	0.0802831
5	0x3c52159c	0.012822535
6	0xbddee88b	-0.10884198
7	0xbc510ac3	-0.012758913

conv1.conv3.1.weight f4 [8]
0	0x3f8d22d3	1.1026253
1	0x3f3188b8	0.6934924
2	0x3fa21a53	1.2664284
3	0x3f54b559	0.83089215
4	0x3faf233c	1.3682628
5	0x3f958369	1.1680728
6	0x3f54503a	0.82934916
7	0x3f7cce5f	0.987524

conv1.conv3.1.bias f4 [8]
0	0x3dcb6ab4	0.099324614
1	0xbd292b95	-0.04130133
2	0x3ea370f1	0.31922105
3	0x3db68294	0.089116246
4	0xbdac97c8	-0.084273875
5	0x3ed75156	0.42054242
6	0xbdeecbc6	-0.116599604
7	0x3e9d3e6d	0.3071169

conv1.conv3.1.running_mean f4 [8]
0	0xbcdde85f	-0.027088342
1	0xbd82cc43	-0.06386616
2	0xbeea56a5	-0.4576923
3	0x3f6a7ead	0.9159954
4	0xbef1bf45	-0.4721624
5	0xbf81fdb9	-1.0155555
6	0xbf8d3182	-1.1030734
7	0xbdeca167	-0.115542226

conv1.conv3.1.running_var f4 [8]
0	0x4016ec85	2.358186
1	0x40894515	4.289683
2	0x4060c45c	3.5119848
3	0x40c6b339	6.209378
4	0x40cdc28c	6.4299984
5	0x4061afa4	3.5263453
6	0x400e8068	2.2265873
7	0x40642324	3.5646448

conv2.conv1.0.weight f4 [16, 8, 3, 3]
0	0xbd5900bf	-0.052979227
1	0xbe715345	-0.23566921
2	0x3cd2e239	0.025742637
3	0xbe892f27	-0.26793787
4	0xbe99c9b2	-0.30036694
5	0xbdf3f85f	-0.119126074
6	0x3d86eb3a	0.06587835
7	0xb2912b8a	-1.6900021e-08
8	0x3e065021	0.13116504
9	0xbdeed5f4	-0.11661902
10	0x3b8370ff	0.004011273
11	0xbea2d6d1	-0.31804517
12	0x3d263cc6	0.0405853
13	0xbd9f5974	-0.07780734
14	0x3e4e91a7	0.2017275
15	0xbe57e064	-0.21081692
16	0x3d52740f	0.051380213
17	0xbe9136e9	-0.28362206
18	0x3d867ada	0.06566401
19	0x3e1e8ab6	0.15482602
20	0xbddb746a	-0.107155636
21	0xbeb63b52	-0.35592133
22	0x3e92d66c	0.28679216
23	0xbe79c0ef	-0.24390005
24	0xbba093d9	-0.0049004373
25	0x3dec8f77	0.11550801
26	0x3d985ada	0.074392036
27	0x3e5c57f5	0.21517928
28	0x3d367f26	0.044554852
29	0xbe8017c1	-0.25018123
30	0x3e0702ad	0.13184614
31	0xbd216667	-0.0394043
32	0x3c9c832c	0.019105516
33	0x3de05729	0.109541245
34	0x3bfbc138	0.0076829456
35	0x3e350fab	0.17681758
36	0x3c8744bf	0.016512273
37	0x3e3a16f8	0.18172824
38	0x3e9085e2	0.28227144
39	0xbd78d3a6	-0.06074872
40	0x3ea34d91	0.31895116
41	0x3d77f99e	0.060540788
42	0xbddd2c00	-0.10799408
43	0xbdacc678	-0.084362924
44	0xbdd437ba	-0.103621915
45	0xbd502181	-0.0508132
46	0xbe3a87f0	-0.18215919
47	0xbe5f5fb1	-0.21813847
48	0xbdcc72fc	-0.09982869
49	0xbedfb1de	-0.4369039
50	0xbd68a92f	-0.05680197
51	0xbe4ba00c	-0.19885272
52	0xbdc323d9	-0.09528322
53	0xbefdfe98	-0.49608302
54	0xbe0c57f8	-0.13705432
55	0xbe6f0dbe	-0.23345086
56	0xbd08541e	-0.033283345
57	0x3e89f705	0.26946273
58	0xbabe4ac0	-0.0014518127
59	0x3e659ebc	0.22423834
60	0x3bbd4882	0.005776466
61	0xbcf94669	-0.030429082
62	0x3e7f2cb4	0.24919397
63	0xbea93c24	-0.33053696
64	0xbe8e3fa8	-0.2778294
65	0xbd017dec	-0.03161423
66	0xbe7149c7	-0.235633
67	0x3dccdeb3	0.10003414
68	0x3e57d21d	0.21076246
69	0x3e369a45	0.17832287
70	0x3e4c5f20	0.19958162
71	0x3d83dfe7	0.0643919
72	0xbb41d4c7	-0.0029576288
73	0x3e8efa18	0.2792518
74	0x3cf6ed30	0.030142397
75	0x3ec3cbd5	0.3824145
76	0x3d63fb78	0.05565974
77	0xbe04ee7d	-0.12981601
78	0xbd2d4b2c	-0.042308018
79	0x3c82d604	0.015971191
80	0xbce9d7f3	-0.028545355
81	0x3e2ea697	0.17055736
82	0xbdfb1a72	-0.122609034
83	0xbd2445fe	-0.040105812
84	0x3e43cffa	0.19122306
85	0xbf0930eb	-0.5359027
86	0xbe3c5f5d	-0.18395753
87	0x3ed3b4b9	0.41348818
88	0xbd60cb72	-0.05488152
89	0x3d85802e	0.06518589
90	0xbe851b0c	-0.25997198
91	0x3e45cf08	0.19317257
92	0x3e365b5b	0.17808287
93	0x3c8941dd	0.016755039
94	0x3e4d0cd7	0.2002443
95	0xbe101995	-0.14072259
96	0xbe66e80b	-0.22549455
97	0xbd969249	-0.073521204
98	0xbcc84827	-0.024448467
99	0xbc48d2de	-0.012257306
100	0x3c3f6f37	0.0116842305
101	0xbe0bb80a	-0.13644424
102	0xbe7e5897	-0.24838482
103	0xbd382138	-0.044953555
104	0xbec68c80	-0.38779068
105	0x3de47419	0.11154956
106	0xbd4c2a1a	-0.04984484
107	0xbe2fddba	-0.17174426
108	0xbedd4a22	-0.4322062
109	0xbdb94ba5	-0.09047631
110	0xbde77d23	-0.11303165
111	0x3dd95c30	0.106132865
112	0x3d865cbb	0.06560656
113	0x3e330718	0.17483175
114	0x3e50f0ca	0.20404354
115	0xbd028e5b	-0.031874042
116	0x3e497309	0.19672789
117	0xbcc085f1	-0.023501368
118	0x3ea05ed1	0.3132234
119	0xbe108d02	-0.1411629
120	0xbe600d11	-0.21879984
121	0xbe41f87b	-0.18942444
122	0xbe19f9e1	-0.15036727
123	0xbe34f4fa	-0.17671576
124	0xbe3caea3	-0.18425994
125	0x3e3aba19	0.18235053
126	0xbe573e92	-0.21019962
127	0x3da9f06a	0.082978085
128	0x3e3c1946	0.18369016
129	0xbe1578b6	-0.14596829
130	0xbd9dd963	-0.07707479
131	0x3e90a88c	0.2825359
132	0xbe3e6df0	-0.18596625
133	0x3e619db1	0.22032811
134	0xbe88062e	-0.26567215
135	0xbec3887a	-0.3819006
136	0xbe09f240	-0.13471317
137	0x3e0899eb	0.13339965
138	0xbe2f2ced	-0.17106982
139	0x3aabfda7	0.0013121859
140	0xbccba7cf	-0.02486029
141	0xbe017e20	-0.12645769
142	0x3afe2a6b	0.0019391304
143	0x3ce76019	0.028244065
144	0xbda7dd21	-0.08196474
145	0xbed4460c	-0.41459692
146	0x3d83c251	0.06433547
147	0x3e5ba2d6	0.21448836
148	0x3d9db725	0.07700948
149	0x3e3f9d1f	0.1871228
150	0xbe10ca5e	-0.14139697
151	0x3e93f4d9	0.2889774
152	0x3e109d6b	0.1412255
153	0xbe75501d	-0.23956342
154	0x3d11c0a9	0.035584126
155	0x3e1f01d0	0.15528035
156	0x3e9dbb9b	0.30807194
157	0x3d159289	0.0365167
158	0x3d34d563	0.044148814
159	0xbdf015a4	-0.117228776
160	0xbe153e6e	-0.14574596
161	0x3d92d0eb	0.07168754
162	0x3db69d67	0.08916741
163	0x3e8d2ac6	0.27571696
164	0x3c105e6b	0.0088115735
165	0xbe4caf95	-0.19988854
166	0x3ed648ae	0.41852325
167	0xbe148545	-0.14503963
168	0xbe5cc68a	-0.21560112
169	0x3e061f8c	0.13097972
170	0xbddc9677	-0.107708864
171	0xbe1d5f9c	-0.15368503
172	0xbed2488f	-0.41070983
173	0xbdb314a9	-0.08744175
174	0xb9b9dfba	-0.0003545264
175	0x3dc45151	0.095858224
176	0x3e030e93	0.12798528
177	0xbd6018df	-0.05471122
178	0xbe18f310	-0.14936471
179	0x3eb833de	0.35977072
180	0x3e806d5e	0.2508344
181	0x3e530a9d	0.20609517
182	0x3de58cbe	0.11208485
183	0x3eaa3bca	0.3324874
184	0x3dd3b1a3	0.10336616
185	0xbdbb0bfa	-0.09133144
186	0xbdcf88e7	-0.10133534
187	0xbead793f	-0.33881566
188	0xbd215fde	-0.039398067
189	0xbd7bb2ba	-0.061449744
190	0xbe879452	-0.26480347
191	0xbcae7aa6	-0.021298718
192	0xbd700d83	-0.058606636
193	0x3e2e6357	0.17030083
194	0x3e81ed87	0.2537653
195	0x3dbe6da7	0.09298258
196	0x3ea35881	0.3190346
197	0x3d3e663d	0.04648422
198	0xbe057c03	-0.13035588
199	0xbe39a171	-0.18127991
200	0xbe89f143	-0.2694188
201	0xbdb0fa61	-0.08641506
202	0x3ce8935c	0.028390579
203	0x3daf6bc5	0.08565477
204	0xbb329d7d	-0.0027254515
205	0xbcc649f7	-0.024205191
206	0x3d821433	0.06351509
207	0x3e66c845	0.22537334
208	0x3e129910	0.14316201
209	0xbf001ecb	-0.50046986
210	0x3dbc0175	0.091799654
211	0x3b9c7eee	0.0047758734
212	0x3e2dbdfa	0.16967002
213	0x3b651636	0.0034955866
214	0xbd4689b5	-0.04847117
215	0x3f00b58c	0.5027702
216	0x3e4a4f05	0.19756706
217	0x3da06fc3	0.07833817
218	0x3e392213	0.18079405
219	0xbe22951d	-0.15877195
220	0x3c14c55c	0.009080257
221	0x3e540110	0.2070353
222	0xbe988c1b	-0.29794392
223	0x3d6047d6	0.054756008
224	0x3e9ed23b	0.31019768
225	0xbdc1ccf0	-0.09462917
226	0x3d715889	0.058922324
227	0xbde9c695	-0.1141483
228	0xbe30b7d2	-0.17257622
229	0x3cfcc051	0.030853422
230	0x3e1352d8	0.14387071
231	0xbed286be	-0.41118425
232	0xbda6ac94	-0.081383854
233	0xbcc186bd	-0.023623819
234	0xbda5389e	-0.080674395
235	0x3e119ef1	0.14220788
236	0x3e320056	0.1738294
237	0x3e9e8359	0.30959585
238	0x3e79ef31	0.2440765
239	0xbdcee1b6	-0.10101645
240	0xbe79bcc2	-0.24388412
241	0xbd5814a3	-0.052754056
242	0xbe990970	-0.29890013
243	0xbe88768c	-0.26652944
244	0xbd050f2d	-0.032485176
245	0x3e7d3231	0.24726178
246	0xbe8b2d08	-0.27182794
247	0xbe490986	-0.19632539
248	0xbe81dcad	-0.25363675
249	0x3e7f2179	0.24915113
250	0x3d95966d	0.07304082
251	0x3d3caeae	0.046065025
252	0x3d1ca889	0.038246665
253	0xbd8e3632	-0.06943931
254	0xbeaad442	-0.33365065
255	0xbbb1aea3	-0.0054224296

conv2.conv1.0.bias f4 [16]
0	0xbc8c1280	-0.017098665
1	0xbdc5893a	-0.096453145
2	0x3ce26ec5	0.02764071
3	0x3d100d9c	0.03516923
4	0xbdbee306	-0.09320645
5	0xbdd869be	-0.10567044
6	0x3c4a6dda	0.012355292
7	0x3deb90db	0.11502238
8	0xbdd7c6f2	-0.10535993
9	0xbd6c65bd	-0.057714213
10	0xbd2661de	-0.040620677
11	0xbdd5163e	-0.10404633
12	0xbd9488d9	-0.07252664
13	0x3dbd5b64	0.09245947
14	0x3db88114	0.09008995
15	0xbdb17959	-0.08665723

conv2.conv1.1.weight f4 [16]
0	0x3f9281bb	1.1445841
1	0x3f7e6b8a	0.9938284
2	0x3f45f44b	0.77325886
3	0x3f854147	1.0410546
4	0x3f9c744d	1.2222992
5	0x3f9ccf7b	1.2250818
6	0x3f656cc1	0.8961907
7	0x3f79dbdd	0.9760111
8	0x3f8d7faf	1.1054591
9	0x3f5b202b	0.8559596
10	0x3f84bd3e	1.0370252
11	0x3f8111ac	1.0083518
12	0x3f8cf07c	1.101089
13	0x3f604195	0.8760007
14	0x3f66b843	0.9012491
15	0x3f8b8b60	1.0901909

conv2.conv1.1.bias f4 [16]
0	0x3e29e14c	0.1658985
1	0xbd1ae562	-0.037816413
2	0xbe1ffd9a	-0.15624085
3	0x3da00782	0.07813932
4	0x3d08124a	0.033220567
5	0xbe1fd36c	-0.15607995
6	0x3da8a266	0.082341
7	0x3d3c3cc9	0.045956407
8	0xbd9fb530	-0.07798231
9	0xbbb4d591	-0.005518623
10	0xbc6fbbe7	-0.014632202
11	0x3df5df4b	0.120054804
12	0x3e3a5415	0.18196137
13	0xbe2cf88a	-0.16891685
14	0x3d1cfe50	0.03832847
15	0xbdcecd4f	-0.10097753

conv2.conv1.1.running_mean f4 [16]
0	0xbffac066	-1.9589965
1	0xbfa636d8	-1.2985487
2	0x3faca67d	1.3488308
3	0xbe044439	-0.1291665
4	0xbfe48402	-1.7852786
5	0xc08ad9a3	-4.339067
6	0xbeb3f396	-0.3514678
7	0x3e993f97	0.29931328
8	0xbfce6062	-1.6123164
9	0x3ed03205	0.40663162
10	0xc0273b35	-2.6129887
11	0xbf8c1a5b	-1.0945543
12	0xbf0ed4ec	-0.55793643
13	0x4011fe76	2.281156
14	0xbfbecd1c	-1.4906344
15	0xc027aa99	-2.6197875

conv2.conv1.1.running_var f4 [16]
0	0x40b93738	5.7879906
1	0x3fecb0cd	1.8491455
2	0x3fd3e56c	1.6554389
3	0x4047676b	3.1156871
4	0x40938ff1	4.611321
5	0x40c48639	6.1413846
6	0x4048e31d	3.138862
7	0x403e7382	2.9758
8	0x404f64e4	3.2405329
9	0x40590fa5	3.3915799
10	0x406d94ab	3.712199
11	0x409fb2f6	4.990596
12	0x40559228	3.3370457
13	0x4053ebb0	3.3112602
14	0x4089accc	4.3023434
15	0x404baa12	3.1822553

conv2.conv2.0.weight f4 [16, 16, 3, 3]
0	0xbd8c7cd4	-0.068597466
1	0xbc200e66	-0.009769058
2	0x3e145173	0.14484195
3	0xbdcc7bc2	-0.099845424
4	0xbe3fa9a7	-0.18717061
5	0x3df3114a	0.11868532
6	0xbe93ecbc	-0.28891551
7	0xbbf7376b	-0.007544448
8	0xbdca3f06	-0.09875302
9	0xbbc375e5	-0.005964982
10	0x3ce9b3a4	0.028528042
11	0x3cdcc60a	0.026949901
12	0x3e043801	0.12911989
13	0x3e150b47	0.14555083
14	0x3d445c53	0.04793961
15	0xbd8f7228	-0.070041955
16	0xbe5a9f31	-0.21349789
17	0xbe10a050	-0.14123654
18	0xbdd28509	-0.10279281
19	0xbe4794ee	-0.19490406
20	0x3d090dc0	0.03346038
21	0xbdc246ff	-0.09486198
22	0x3d89a75e	0.06721376
23	0xbcee8e85	-0.029120693
24	0xbe6e199c	-0.23251957
25	0xbcfb1f4a	-0.030654568
26	0xbdbfb19e	-0.0936005
27	0x3d788123	0.06067003
28	0xbe859520	-0.26090336
29	0xbe8b6885	-0.2722818
30	0x3d0d2fbf	0.034469362
31	0x3e4ab84c	0.19796866
32	0x3a739b5f	0.00092928665
33	0xbd73e42b	-0.05954377
34	0xbe147090	-0.14496064
35	0xbe43d17e	-0.19122884
36	0xbdcd9f36	-0.10040133
37	0xbdbe4ce8	-0.092920125
38	0x3d9c62e6	0.07636051
39	0x3d973a89	0.073842116
40	0x3d41bca3	0.04729904
41	0xbdaee370	-0.08539474
42	0xbdf0f0ee	-0.11764704
43	0xbdc19e93	-0.09454074
44	0xbe7e4bdd	-0.24833627
45	0xbd942efd	-0.07235525
46	0xbe5ee5ef	-0.217674
47	0xbcb990d2	-0.022652064
48	0x3d70315f	0.058640834
49	0x3e6e70c7	0.23285209
50	0x3dec27e8	0.11531049
51	0xbd511dfa	-0.05105398
52	0x3e5379db	0.20651953
53	0x3da668c3	0.081254505
54	0xbdcf894b	-0.101336084
55	0x3db2bdc4	0.08727601
56	0xbd9d2b31	-0.07674254
57	0xbd9f0757	-0.07765072
58	0xbd4cf19e	-0.05003511
59	0xbd2dca82	-0.042429455
60	0x3dcdb96a	0.100451306
61	0xbdd97885	-0.106186904
62	0xbdda601e	-0.10662864
63	0xbeb0266c	-0.34404314
64	0x3e2eab86	0.17057618
65	0x3d8cbee9	0.06872351
66	0x3d1bae2d	0.038007904
67	0xbe531cf4	-0.20616513
68	0xbe54c529	-0.20778336
69	0x3d236a8f	0.039896544
70	0xbe4f4292	-0.20240238
71	0xbdbf2d1e	-0.09334777
72	0x3b9f0f59	0.0048541245
73	0x3db03fa2	0.08605887
74	0x3e161595	0.1465667
75	0xbe83de2b	-0.25755438
76	0xbe198ed6	-0.14995894
77	0x3e16cbe6	0.14726219
78	0x3d05c831	0.03266162
79	0xbd1be43e	-0.038059466
80	0x3e2a2769	0.16616596
81	0x3e5b3f74	0.21410924
82	0x3d9ef791	0.07762063
83	0x3de84642	0.113415256
84	0xbd8ce272	-0.068791285
85	0xbe642dda	-0.22283116
86	0xbea0d4ca	-0.31412345
87	0x3d1251ac	0.03572242
88	0xbbc2c206	-0.0059435396
89	0xbc7ae0ad	-0.015312356
90	0x3d4242c1	0.047426943
91	0xbd509cb9	-0.050930712
92	0xbd9df096	-0.07711904
93	0x3d50e988	0.051003963
94	0xbd79e494	-0.061009005
95	0x3d85c6ee	0.065320835
96	0xbe2a321f	-0.16620682
97	0xbd0696c4	-0.032858625
98	0xbc19c56e	-0.00938545
99	0x3d43478a	0.047675647
100	0x3d175a0b	0.036951106
101	0xbd93bd59	-0.072138496
102	0xbc4993e1	-0.0123033235
103	0xbe01c7bd	-0.1267385
104	0xbe315fe5	-0.17321737
105	0x3d4da238	0.050203532
106	0x3d0330aa	0.03202883
107	0x3c700e5b	0.01465186
108	0x3d9c12b7	0.07620757
109	0x3e081987	0.13290988
110	0xbd89f587	-0.06736284
111	0xbe534c31	-0.20634533
112	0xbe71a1d6	-0.23596892
113	0xbdfe2f08	-0.12411314
114	0x3e337f3b	0.17529003
115	0x3d16ad90	0.036786616
116	0x3dee9e68	0.11651307
117	0xbe20c2b5	-0.15699275
118	0xbb458fb6	-0.0030145473
119	0xbdff1fc2	-0.12457229
120	0x3c978244	0.018494733
121	0x3ddf1221	0.1089213
122	0xbe1dd9fd	-0.15415187
123	0x3e9ca2ac	0.3059286
124	0xbd672b78	-0.05643794
125	0xbdf8cc8e	-0.12148391
126	0x3c2c2c34	0.010508586
127	0x3db6e9db	0.08931323
128	0xbe48a183	-0.19592862
129	0xbc00a86c	-0.007852655
130	0xbcdd6373	-0.02702496
131	0xbe51fa2c	-0.20505589
132	0x3df77630	0.12083089
133	0xbd7460cc	-0.059662625
134	0xbdb710c0	-0.08938742
135	0xbe294625	-0.16530664
136	0xbe312465	-0.1729904
137	0xbdf45dbc	-0.11931941
138	0xbde8f874	-0.11375514
139	0xbcbf0230	-0.023316473
140	0x3c306a8d	0.010767591
141	0x3db1bc20	0.0867846
142	0xbd881f99	-0.06646652
143	0x3d57f87f	0.05272722
144	0x3c479d15	0.012183447
145	0xbcc5ae83	-0.024131065
146	0xbde003c1	-0.10938216
147	0x3e48c5be	0.19606683
148	0xbd377bcd	-0.0447958
149	0xbd9bc8f3	-0.076066874
150	0x3e117880	0.14206123
151	0x3d51df6b	0.05123846
152	0x3d96d741	0.07365275
153	0xba909848	-0.0011031711
154	0x3db2484d	0.087051965
155	0x3e26f389	0.16303839
156	0x3da27e04	0.07934192
157	0x3d018c88	0.03162816
158	0xbc661c78	-0.014044873
159	0xbe3c746c	-0.18403786
160	0xbd0f7db6	-0.035031997
161	0xbdaffbfb	-0.08592983
162	0x3d0788ac	0.033089325
163	0x3df6c960	0.12050128
164	0x3d7d3f3e	0.06182789
165	0x3dfee56b	0.12446102
166	0x3e907627	0.28215143
167	0x3e331b2a	0.17490831
168	0xbeb1bc20	-0.3471384
169	0x3b891e27	0.0041845026
170	0xbcbaabd0	-0.022787005
171	0xbd18743d	-0.03722023
172	0x3d669ec4	0.056303754
173	0xbda5d63d	-0.08097503
174	0x3d925009	0.07144172
175	0x3e409045	0.18805034
176	0xbda77470	-0.081765056
177	0x3b0af232	0.0021201489
178	0xbe2c963a	-0.16854182
179	0x3dd55c4d	0.104179956
180	0xbded6ae4	-0.115926534
181	0xbe9a62fb	-0.3015364
182	0xbd8c3970	-0.06846893
183	0xbd9ec92e	-0.07753216
184	0xbe197d07	-0.149891
185	0x3d87bae9	0.06627447
186	0xbe3a2feb	-0.18182342
187	0x3d43244a	0.04764203
188	0x3e2b651c	0.16737789
189	0x3cc4d5d6	0.024027746
190	0x3e385a20	0.1800313
191	0xbd82a5d9	-0.06379289
192	0x3b5eb39a	0.0033981563
193	0x3e1b6ae1	0.1517749
194	0xbc461744	-0.012090508
195	0x3da55dbb	0.08074518
196	0xbe7d82a0	-0.2475686
197	0x3e3ee194	0.18640739
198	0xbe8a1925	-0.2697231
199	0x3e8c471b	0.27398
200	0x3e1ebb52	0.15501145
201	0xbe6af098	-0.22943342
202	0x3a000a5c	0.0004884356
203	0xbd52566e	-0.051351957
204	0xbc506973	-0.012720454
205	0xbcd2dfab	-0.025741419
206	0xbdfb8461	-0.12281109
207	0x3d50f08b	0.05101065
208	0xbe839c1d	-0.25705042
209	0xbe4cbea9	-0.19994606
210	0xbecdcb51	-0.4019418
211	0xbd7c2bb5	-0.06156512
212	0x3c047ce1	0.008086414
213	0x3dfe8f89	0.12429721
214	0x3e48d6e9	0.19613232
215	0xbc278e11	-0.010226742
216	0xbe0c61a4	-0.13709122
217	0xbe197644	-0.14986521
218	0x3cc83d5c	0.02444332
219	0x3dba0c94	0.0908443
220	0xbe100df8	-0.14067829
221	0x3df10fef	0.11770617
222	0xbdc1fe25	-0.09472302
223	0xbc9ba7a5	-0.019000838
224	0xbe343b01	-0.17600633
225	0xbb949d84	-0.004535379
226	0x3c878afb	0.016545763
227	0x3d8fc182	0.070193306
228	0x3ec5af61	0.38610366
229	0x3e4efe5a	0.20214215
230	0x3e08289a	0.13296738
231	0x3e0a29b7	0.13492475
232	0x3e75abf0	0.2399137
233	0xbe0798d3	-0.13241892
234	0x3d0ed752	0.034873314
235	0x3ccaf438	0.024774656
236	0xbd3ad631	-0.045614425
237	0x3da2478a	0.07923801
238	0x3d6965d2	0.05698187
239	0x3e406cdc	0.18791527
240	0xbe13a7d6	-0.14419493
241	0xbd69f018	-0.057113737
242	0x3e17fe9c	0.1484322
243	0x3d0da66a	0.034582533
244	0x3dd62d12	0.10457815
245	0x3e1b11d1	0.15143515
246	0xbe31a1c4	-0.17346865
247	0xbe3fa547	-0.18715392
248	0x3d59cd42	0.053174265
249	0xbe2446e9	-0.16042675
250	0x3d7ae256	0.061251007
251	0x3de1a6be	0.11018132
252	0xbd10dfc9	-0.03536967
253	0xbe1ad0a1	-0.15118648
254	0x3e43eed6	0.19134077
255	0xbd13c3f9	-0.036075566

conv2.conv2.0.bias f4 [16]
0	0xbcb58a9e	-0.022160824
1	0x3d3b0e3e	0.04566788
2	0xbd4991a7	-0.04921117
3	0xbcb452f4	-0.022012211
4	0x3d9c58bf	0.076341145
5	0x3d35b497	0.044361677
6	0xbd84520f	-0.06460964
7	0xbcbb851f	-0.022890626
8	0x3c060485	0.0081797885
9	0x3cf680fe	0.030090805
10	0xbd1cf4aa	-0.038319267
11	0x3d6ee387	0.058322456
12	0x3aaac642	0.0013029056
13	0xbd937bc1	-0.072013386
14	0x3cb6d54e	0.022318508
15	0xbda5974b	-0.080854975

conv2.conv2.1.weight f4 [16]
0	0x3f86418e	1.0488756
1	0x3f8319d2	1.0242255
2	0x3f800a81	1.0003206
3	0x3f6de660	0.9292965
4	0x3f7ececa	0.99534285
5	0x3f92cc55	1.1468607
6	0x3f6b0111	0.917985
7	0x3f6619b9	0.89883
8	0x3f6cc382	0.9248582
9	0x3f78e6e9	0.9722734
10	0x3f64f0d0	0.8942995
11	0x3f5aaab7	0.8541674
12	0x3f97ca24	1.1858563
13	0x3f8b0eef	1.0863932
14	0x3f9344d9	1.1505386
15	0x3f85317d	1.0405728

conv2.conv2.1.bias f4 [16]
0	0x3d4c6d99	0.049909208
1	0x3d0e01bd	0.034669627
2	0x3d5f9dc9	0.054593835
3	0xbd78423b	-0.060610037
4	0xbd5fd155	-0.054642994
5	0x3e4badc2	0.19890502
6	0xbc8ef59a	-0.017451096
7	0xbd95301a	-0.07284565
8	0x3dd02a96	0.101643726
9	0x3d629742	0.055320032
10	0xbdb05400	-0.08609772
11	0xbdb4d091	-0.088288434
12	0x3e1bd472	0.1521776
13	0xbe5a1520	-0.21297121
14	0x3e6b0feb	0.22955291
15	0xbcfa1d99	-0.030531691

conv2.conv2.1.running_mean f4 [16]
0	0xbfd84218	-1.689517
1	0x3ec5524c	0.3853935
2	0xbe0d5d5f	-0.1380515
3	0xbf4484df	-0.76765245
4	0x3f335e55	0.70065814
5	0xbf870a03	-1.054993
6	0x3de294be	0.110635266
7	0xc044c23d	-3.0743554
8	0x3dbce700	0.09223747
9	0xbe0ec66c	-0.1394288
10	0x3f55d05c	0.83521056
11	0x3f1e5139	0.61842686
12	0xbf298210	-0.66214085
13	0xbf05080e	-0.51965415
14	0xbf8ebf19	-1.1152068
15	0xbf10271e	-0.5630969

conv2.conv2.1.running_var f4 [16]
0	0x3fe26682	1.7687533
1	0x3fec2078	1.8447409
2	0x3fca2536	1.5792606
3	0x3fdf2cde	1.7435567
4	0x402ea959	2.7290862
5	0x401d7f27	2.4608858
6	0x400c02a4	2.1876612
7	0x3ffea93e	1.9895399
8	0x4089f6c2	4.311372
9	0x3fd388fa	1.6526177
10	0x408bb226	4.3654966
11	0x4002fcd4	2.0466814
12	0x4048d78b	3.1381557
13	0x3faf2292	1.3682425
14	0x40325573	2.7864654
15	0x407c4bfe	3.9421382

conv2.conv3.0.weight f4 [16, 16, 3, 3]
0	0xbe87a270	-0.26491117
1	0x3d31ef19	0.043440912
2	0xbe5d59bc	-0.21616262
3	0x3e24d7cf	0.1609795
4	0x3e2ada15	0.16684754
5	0x3daf44bc	0.08558032
6	0x3e38d73c	0.18050855
7	0xbe18c151	-0.14917494
8	0xbd44bf1c	-0.04803382
9	0x3d410834	0.047126964
10	0xbceebb94	-0.029142179
11	0xbd22452f	-0.03961676
12	0xbd7d9680	-0.061911106
13	0x3c663f98	0.014053248
14	0xbcd0b429	-0.025476532
15	0x3e038318	0.12842977
16	0x3b992efb	0.00467479
17	0xbdf3b8c4	-0.119004756
18	0xbdc44afa	-0.09584613
19	0xbe44a6e3	-0.19204287
20	0xbd08b3ec	-0.033374712
21	0xbc8f3d97	-0.017485423
22	0xbd2cd8ea	-0.042199053
23	0xbe6eddf0	-0.2332685
24	0x3d08fe56	0.03344568
25	0xbe1704dd	-0.14747949
26	0x3dfd9afb	0.12383076
27	0xbd601a0d	-0.054712344
28	0xbcc4a9a2	-0.024006668
29	0x3dcb7487	0.09934335
30	0xbe31214d	-0.1729786
31	0x3be759bf	0.007060259
32	0x3ce32f8a	0.02773263
33	0x3de41863	0.11137464
34	0xbdbf613c	-0.09344718
35	0x3e16c43e	0.14723298
36	0xbc4a7a1f	-0.0123582175
37	0xbd671662	-0.05641783
38	0xbe26137a	-0.16218367
39	0xbcc3ec72	-0.023916457
40	0x3e198e11	0.149956
41	0xbdab1834	-0.08354226
42	0xbdf3c1a6	-0.1190217
43	0x3d97a4e2	0.07404496
44	0xbdbfb1e5	-0.093601026
45	0x3de91cb5	0.113824286
46	0x3d9f956a	0.0779217
47	0xbc982068	-0.01857014
48	0x3e0a8a1c	0.13529247
49	0x3e77ff92	0.24218586
50	0x3e4de501	0.2010689
51	0x3eb65fdb	0.35620007
52	0x3e838abe	0.2569179
53	0xbea39d50	-0.31955957
54	0x3e14a56b	0.14516227
55	0xbdd4ff40	-0.104002476
56	0x3e0f2972	0.13980654
57	0x3e425547	0.18977843
58	0xbb1d932f	-0.0024044027
59	0x3d9b4862	0.07582165
60	0xbd096835	-0.033546645
61	0x3d4360e1	0.047699813
62	0xbdcd9498	-0.10038108
63	0x3b11e5e7	0.0022262277
64	0x3c8ddc7f	0.017317055
65	0x3db47ac7	0.088124804
66	0xbc298825	-0.010347401
67	0xbd138e69	-0.036024485
68	0xbe49a15d	-0.19690461
69	0x3e354d65	0.17705305
70	0x3c781c61	0.015143485
71	0x3db008cc	0.08595428
72	0xbe8cab43	-0.27474412
73	0xbdbe36b3	-0.09287777
74	0x3c32c84b	0.010912011
75	0x3da12b1a	0.07869549
76	0xbd8d56f9	-0.06901354
77	0xbe1330b2	-0.14374045
78	0x3e62fc0e	0.22166464
79	0xbdf93f29	-0.1217025
80	0xbe304186	-0.17212495
81	0x3cda4c98	0.02664785
82	0xbda85d9e	-0.08220981
83	0xbe32976c	-0.17440575
84	0xbe46a42c	-0.19398564
85	0x3cbb8e63	0.022895044
86	0xbd97cea8	-0.074124634
87	0xbe039886	-0.12851152
88	0xbcff28f6	-0.031147461
89	0x3c8de1bc	0.017319553
90	0x3d8adec9	0.06780774
91	0xbda6fa54	-0.08153215
92	0xbd936dc9	-0.07198674
93	0xbb97ea6b	-0.004636099
94	0x3d43d5f2	0.047811456
95	0x3c32ea3e	0.0109201055
96	0x3d832d8e	0.06405173
97	0xbd0080d1	-0.03137285
98	0x3c553e61	0.013015361
99	0xbe38f522	-0.18062261
100	0x3d03d4fe	0.032185547
101	0xbe118f1c	-0.14214748
102	0x3d6e402c	0.058166668
103	0x3e02b499	0.12764205
104	0xbd37c46c	-0.044865057
105	0xbd3667fb	-0.044532757
106	0xbb82eba3	-0.0039953752
107	0xbd5c1cca	-0.053738393
108	0xbd43cbc4	-0.047801748
109	0x3dbe91cb	0.093051516
110	0x3df3d430	0.11905706
111	0xbe1eeac4	-0.15519243
112	0x3d8ac85f	0.06776499
113	0x3dab274e	0.08357106
114	0x3e10241c	0.14076275
115	0xbe460535	-0.19337924
116	0x3da7757b	0.081767045
117	0xbdcbbaa4	-0.09947708
118	0x3de47a5b	0.1115615
119	0xbe0ea7a3	-0.13931136
120	0xbd9bd7bd	-0.07609508
121	0x3cf5b464	0.029993244
122	0xbcaa42d8	-0.020783827
123	0x3dd27b98	0.1027748
124	0xbe383c20	-0.17991686
125	0xbb12f593	-0.0022424206
126	0x3e6de1aa	0.23230615
127	0x3e2986fd	0.165554
128	0xbd6edc58	-0.058315605
129	0x3ea3d9cb	0.320021
130	0x3e83788b	0.25677904
131	0xbd4fafe8	-0.050704867
132	0x3e205ec7	0.15661155
133	0x3d37ff31	0.044921104
134	0xbdc9218d	-0.098208524
135	0x3e4349dc	0.19071144
136	0xbe36348f	-0.17793487
137	0xbda06797	-0.07832258
138	0x3d8b7ffd	0.06811521
139	0xbd00ac82	-0.031414516
140	0x3de6f6a7	0.11277514
141	0x3c89d398	0.016824529
142	0xbcdc8476	-0.026918631
143	0x3df313fa	0.118690446
144	0xbab71cf1	-0.0013970417
145	0x3d3b5835	0.045738418
146	0xbddc0862	-0.107437864
147	0x3e442dbc	0.19158071
148	0xbe0c2bf6	-0.13688645
149	0xbe0a09d2	-0.13480309
150	0x3e7968b2	0.24356344
151	0xbd1c1747	-0.038108137
152	0x3aa3aac8	0.001248681
153	0xbe1606cc	-0.1465103
154	0x3e2d3bed	0.16917391
155	0x3df28bab	0.11843046
156	0x3e00746b	0.1254441
157	0xbe2fecbf	-0.17180155
158	0xbd68aa16	-0.05680283
159	0xbe158b6c	-0.14603966
160	0xbd13bee9	-0.036070738
161	0x3e32d320	0.1746335
162	0xbd9c6f6d	-0.0763844
163	0xbba76178	-0.0051080547
164	0xbc2c0977	-0.0105003035
165	0xbe2f2575	-0.17104132
166	0xbdb39e97	-0.08770483
167	0xbd93206c	-0.07183918
168	0xbd5bf664	-0.053701773
169	0xbc816dcf	-0.015799431
170	0xbe40524a	-0.18781391
171	0xbc55a9c2	-0.013040962
172	0x3cab7476	0.020929556
173	0xbe409bb6	-0.18809399
174	0x3e56ec6e	0.20988628
175	0x3e337df5	0.17528518
176	0x3d796ad0	0.06089288
177	0xbe185735	-0.14877017
178	0x3e7c62a9	0.24647011
179	0x3d6402e3	0.055666815
180	0x3de09925	0.1096671
181	0x3d7bfddd	0.0615214
182	0x3e1b1670	0.15145278
183	0x3d856f4b	0.06515368
184	0x3e1986c7	0.1499282
185	0xbd9ce245	-0.07660345
186	0x3e618096	0.22021708
187	0x3e36415b	0.17798369
188	0x3dfef015	0.12448136
189	0xbd98ab5c	-0.07454559
190	0xbbdd70eb	-0.0067578456
191	0xbd01d356	-0.031695686
192	0x3df77d47	0.12084442
193	0xbc68dd55	-0.014212926
194	0xba662d5b	-0.0008780562
195	0xbcf88a6d	-0.030339444
196	0xbb977f02	-0.004623295
197	0x3d5c8f18	0.053847402
198	0x3e0e996f	0.13925718
199	0xbd212c49	-0.039348874
200	0x3da655e9	0.08121855
201	0x3e871b53	0.26388034
202	0xbde04503	-0.10950663
203	0xbd15e8b8	-0.03659889
204	0x3d0254a3	0.031818997
205	0xbd3ca620	-0.046056867
206	0x3d52ab5a	0.051432945
207	0xbdece2de	-0.11566709
208	0xbe3026ed	-0.17202349
209	0xbd288e17	-0.041151132
210	0xbe178b6a	-0.14799276
211	0xbc374f20	-0.011188298
212	0x3c60396a	0.013685564
213	0x3de500c8	0.1118179
214	0x3c12997a	0.0089477245
215	0x3d134f9b	0.03596459
216	0x3e117014	0.1420291
217	0x3e23fd61	0.16014625
218	0x3e3b0be0	0.18266249
219	0x3d51ab11	0.051188532
220	0x3e11777e	0.14205739
221	0xbdad0761	-0.08448673
222	0x3e0c4f6f	0.13702177
223	0xbdb3605b	-0.08758613
224	0x3e15a4c3	0.14613633
225	0xbd730abb	-0.059336405
226	0x3a5dd4e6	0.00084622053
227	0x3d400f2b	0.046889465
228	0xbe09f091	-0.13470675
229	0xbdbf3b80	-0.093375206
230	0x3da20af7	0.07912248
231	0x3dc0a5df	0.094066374
232	0xbdeceee7	-0.115690045
233	0x3e24b52e	0.1608474
234	0x3a33ee42	0.0006863811
235	0x3dd3bb52	0.10338463
236	0x3e85082b	0.25982794
237	0x3e702952	0.23453262
238	0x3cbc8cf8	0.023016438
239	0x3e157f4a	0.14599338
240	0xbcbf3f42	-0.023345593
241	0xbe31bde1	-0.1735759
242	0xbdd9f058	-0.10641545
243	0xbcaf8c1a	-0.02142911
244	0x3de22de8	0.11043912
245	0xbe162e4a	-0.14666095
246	0x3e1416bc	0.14461797
247	0xbda6a337	-0.081365995
248	0x3e0a72d0	0.1352036
249	0xbde74129	-0.11291725
250	0x3db3eedd	0.08785794
251	0xbd3b9126	-0.04579272
252	0xbd4ddde0	-0.050260425
253	0xbe379944	-0.1792956
254	0xbdc27166	-0.09494285
255	0x3d9fa7fe	0.07795714

conv2.conv3.0.bias f4 [16]
0	0xbc4841c5	-0.012222712
1	0xbd7456f9	-0.059653256
2	0x3b189130	0.0023279898
3	0x3d435739	0.047690604
4	0x3b34f446	0.0027611419
5	0x3d567d90	0.05236584
6	0xbd00e3ae	-0.031467132
7	0x3d85c674	0.065319926
8	0x3ca28fc4	0.019843943
9	0xbce54e41	-0.027991416
10	0x3d247c73	0.040157747
11	0x3d27c5e0	0.040960193
12	0xbd1246c5	-0.035712022
13	0xbc783a0e	-0.01515056
14	0x3d30117d	0.042985428
15	0xbd9653b1	-0.073401816

conv2.conv3.1.weight f4 [16]
0	0x3f8b4235	1.087958
1	0x3f40b07a	0.7526928
2	0x3f82820a	1.0195935
3	0x3f9f8dc7	1.2465142
4	0x3f970743	1.1799091
5	0x3f8620f2	1.0478804
6	0x3f8450f4	1.0337205
7	0x3f6c101e	0.9221209
8	0x3f70401e	0.93847835
9	0x3f7b907a	0.9826733
10	0x3fa7be0a	1.310487
11	0x3f45c9f2	0.7726127
12	0x3f7ea74f	0.9947404
13	0x3f7b74c5	0.9822505
14	0x3f82469c	1.0177798
15	0x3f44d0e9	0.7688127

conv2.conv3.1.bias f4 [16]
0	0x3ce8523e	0.028359529
1	0xbc590018	-0.013244651
2	0x3da76f62	0.081755415
3	0x3c2f77ac	0.010709684
4	0xbcf5806f	-0.029968468
5	0x3de43154	0.11142221
6	0xbd673eb8	-0.056456298
7	0x3e207bcd	0.15672226
8	0xbd69779d	-0.056998838
9	0xbd55f160	-0.052232146
10	0x3e78c522	0.2429395
11	0x3d4af954	0.049554184
12	0x3da26f14	0.07931343
13	0x3d09eecd	0.033675004
14	0x3d3c6ae4	0.046000376
15	0xbdc45ba9	-0.09587795

conv2.conv3.1.running_mean f4 [16]
0	0x3efd23b8	0.49441314
1	0x3f021213	0.5080883
2	0x3cd52dcd	0.026022816
3	0xbfe3727e	-1.7769315
4	0xbf9051e3	-1.127499
5	0x3fb30eb3	1.3988861
6	0x3e53e8bb	0.20694248
7	0xbfca35bb	-1.5797647
8	0xbf847f24	-1.03513
9	0xbf93ab17	-1.1536587
10	0xbf233f0d	-0.6376808
11	0x3fd33cdb	1.6502947
12	0xbf7faa77	-0.99869484
13	0xbf873d74	-1.0565629
14	0xbf8d63fd	-1.1046139
15	0x3f6faa02	0.93618786

conv2.conv3.1.running_var f4 [16]
0	0x402a2c5d	2.6589577
1	0x4018cede	2.3876262
2	0x401afb1b	2.4215763
3	0x409cde6c	4.902151
4	0x40a39343	5.1117263
5	0x406d7b57	3.710653
6	0x408813ba	4.252408
7	0x4076a40a	3.8537621
8	0x4053ee25	3.3114102
9	0x406509f0	3.5787315
10	0x406aff90	3.6718483
11	0x40884661	4.258591
12	0x40286d63	2.6316764
13	0x4017b79a	2.3705812
14	0x406f12bc	3.7355185
15	0x406fdda0	3.747902
