checkpoints/ifind1_sononet_8_6classes/021_net_6classes_class.pth (torch_old, 671819 bytes, 90 tensors)

conv1.conv1.0.weight f4 [8, 1, 3, 3]
000000 88 7a 80 3d 29 e3 a1 3f f9 92 bc 3e 86 49 50 3e
       0.06273371 1.2647449 0.3683088 0.20340547
000010 0f a9 c4 be d7 de a0 3e 0b 8e 58 be b6 96 96 3e
       -0.3841023 0.31420013 -0.21147935 0.29411858
000020 d8 00 62 bf 38 ec f3 3e a3 d7 1e 3f a6 b8 d2 be
       -0.8828254 0.47641158 0.62047786 -0.411565
000030 c0 ef 17 3f d3 8b 4b 3f 90 38 34 bf d7 6b 04 be
       0.59350204 0.7951023 -0.7039881 -0.12931763
000040 26 d2 5f 3f 97 c6 c0 3e fe e7 88 3f b0 79 38 bf
       0.87430036 0.37651512 1.0695798 -0.7206068
000050 15 d7 25 bf b8 44 0f 3f 95 fb bb 3e 99 ba 5b be
       -0.64781314 0.5596423 0.3671538 -0.214579
000060 2a 0c eb be 80 5c dd 3c 7b b6 82 3f 39 93 11 3f
       -0.45907718 0.027021646 1.0211939 0.5686527
000070 ff c6 52 3f c4 91 b0 3f bb 84 53 bf 18 a4 15 bf
       0.82334894 1.3794484 -0.82624406 -0.5845351
000080 41 6a 60 bd d7 8c 19 bf b9 02 34 bf 2a 7f d5 3d
       -0.05478883 -0.5998053 -0.70316654 0.10424645
000090 f3 55 c9 be 69 a4 7b be c5 56 a9 bf e4 fc 48 be
       -0.39323387 -0.24574436 -1.3229605 -0.1962772
0000a0 a8 1a 3b 3d 78 4c 23 3e b8 5a 7c 3f ce 91 7b 3e
       0.04567972 0.1594714 0.98575926 0.24567339
0000b0 40 1e fb 3e 1d 86 7b be ca 73 cb 3d 63 1f 00 3f
       0.49046516 -0.24562879 0.099341944 0.5004789
0000c0 ff f1 86 bf a0 ad 7e bf d3 05 f0 3e c1 71 07 bf
       -1.0542601 -0.9948368 0.46879444 -0.5290795
0000d0 03 29 4d 3e 8d 52 dd 3f c3 a9 43 bf c6 90 03 3f
       0.20035176 1.7290817 -0.7643091 0.5139278
0000e0 a8 02 91 3e cc 5b 72 bc 20 3a 2a be a6 83 b2 3d
       0.2832234 -0.014792394 -0.16623735 0.08716516
0000f0 16 12 57 3f af b2 45 be 7a 7b 1b 3e cb bc 45 bf
       0.8401197 -0.19306444 0.15183821 -0.772412
000100 44 a7 58 bf 50 13 69 3e 2b 0d fe be ac ee 99 bf
       -0.8463023 0.22761273 -0.4961942 -1.2025962
000110 23 94 80 bf 2f 1f 04 bf c7 51 8b bf 9b be ee 3e
       -1.0045208 -0.5161008 -1.0884331 0.46629795

conv1.conv1.0.bias f4 [8]
000000 16 19 a4 3e 38 b7 8c be 00 1e a9 be e7 67 85 be
       0.3205039 -0.27483535 -0.330307 -0.26055834
000010 40 77 65 be 4d 2e 0a 3e 0b 29 f4 3d 92 af 8d 3e
       -0.22408772 0.13494225 0.11921891 0.27673012

conv1.conv1.1.weight f4 [8]
000000 96 01 83 3f 20 1b 39 3f f2 04 4d 3f ff 38 82 3f
       1.0234859 0.72307014 0.8008567 1.0173644
000010 1a 89 8d 3f c0 cd a5 3f 18 f2 2c 3f bd f5 64 3f
       1.1057465 1.2953415 0.67556906 0.89437467

conv1.conv1.1.bias f4 [8]
000000 4f 12 d2 be 94 56 57 3d 69 db 2e 3f b1 3b a9 3e
       -0.41029593 0.0525728 0.68303543 0.33053353
000010 e2 1a 01 3f aa a5 a9 3f b8 82 5c be 55 0b 83 3e
       0.50431645 1.3253682 -0.2153424 0.25594583

conv1.conv1.1.running_mean f4 [8]
000000 cb e3 a3 3e 94 91 8c be 0e e9 a7 be 3c 4f 84 be
       0.3200973 -0.27454817 -0.32794994 -0.258417
000010 92 1f 66 be 7f af 0e 3e c5 a8 f7 3d 17 81 8b 3e
       -0.2247298 0.13934134 0.12092737 0.27246925

conv1.conv1.1.running_var f4 [8]
000000 e3 d7 ab 3f c4 64 be 40 bb 12 8a 3f 80 b7 80 3f
       1.3425258 5.9498005 1.0786966 1.0056
000010 ae b3 46 3f ca f2 04 3f c0 48 0d 3f 20 78 d0 41
       0.7761792 0.51932967 0.5518913 26.058655

conv1.conv2.0.weight f4 [8, 8, 3, 3]
000000 3b 50 f6 3d 71 2d 0a 3f 82 dd 82 3d 71 20 d1 3c
       0.120270215 0.5397559 0.063899055 0.025528165
000010 26 b1 98 3e a0 84 a0 bd 88 26 e8 bd 72 db 5b 3e
       0.29822654 -0.07837796 -0.11335474 0.2147043
000020 b9 2c 2f be 8f e9 07 be d6 86 e3 3e a6 ef d3 3e
       -0.17106904 -0.1327269 0.4443881 0.41393775
000030 1d 35 35 bd 4c 15 87 3e 8c 10 6d 3e 9a eb 19 be
       -0.044240106 0.26383436 0.23150843 -0.15031281
000040 6e 43 05 be a7 58 74 bd 7f 46 cd bd ff 01 b6 bd
       -0.13014004 -0.059654858 -0.10023212 -0.088870995
000050 69 d4 82 3e a9 c8 0d bf 11 43 8b bd 9f 15 1f 3e
       0.2555268 -0.5538431 -0.06799901 0.15535592
000060 03 03 00 be 22 ba 8c 3e 49 6d f0 3d 25 6a 92 3e
       -0.12501149 0.27485758 0.117395945 0.28596607
000070 cf 0e 9d bd 5e 7c c8 3d 59 c8 37 3e 7d f5 55 bd
       -0.0766884 0.09789346 0.1794752 -0.05223607
000080 f2 13 16 be 2b 04 39 3e f7 cf 5e 3e da e7 3d be
       -0.14656046 0.18067996 0.2175902 -0.18545476
000090 52 bd 4c 3e 21 08 5e 3e d9 4b a4 3e cb 71 5a be
       0.19994095 0.21682788 0.32089117 -0.21332471
0000a0 2a c9 e4 bd b3 60 88 bd c9 a7 e6 be 9a b8 2b be
       -0.111711815 -0.06659069 -0.45049885 -0.16769639
0000b0 e9 93 43 b9 7a c8 27 3f 2b 1c ce bc 62 ee 51 be
       -0.0001865175 0.6554028 -0.025159916 -0.20501092
0000c0 87 f9 a7 be 52 ce e9 be 74 85 b6 be c5 46 2d 3f
       -0.32807562 -0.45665222 -0.35648692 0.6768611
0000d0 30 40 df bd 63 c6 27 3c 72 7e cc bc 4b 8a 77 3d
       -0.10900915 0.01024017 -0.024962638 0.06043462
0000e0 d8 d0 c4 3d 1b 18 9e 3e 98 8b 68 3d 8b 79 4d be
       0.09610146 0.30877766 0.056773752 -0.20065896
0000f0 f7 5f ef 3d f9 68 96 3d fa df 5b be a3 62 a2 be
       0.11688226 0.07344241 -0.21472159 -0.3171588
000100 cb ff 9d be 57 99 1b 3e 7b 17 47 be 3f 69 3c be
       -0.30859217 0.15195213 -0.19442551 -0.18399523
000110 eb 27 48 be 20 ee 06 be d7 cd 9b be 3b 9e 16 be
       -0.19546477 -0.13176775 -0.3043048 -0.14708798
000120 f0 b2 e2 3e f8 52 a0 bd 9f 49 9a bd f2 07 6c 3e
       0.44277143 -0.07828325 -0.07533573 0.23049906
000130 e0 4e 5a 3d 15 87 57 3d bb 77 ea 3e a9 41 d5 3e
       0.053297877 0.05261906 0.45794472 0.41651657
000140 30 ca 63 3c 8f 37 89 3e ae e4 bd 3e c4 4a 4b 3e
       0.013903186 0.268002 0.3708853 0.1985274
000150 d6 71 2c 3d 93 3e ba 3d e0 b5 f0 bd 54 4e ec 3b
       0.04210075 0.09093966 -0.1175344 0.007211486
000160 cd 04 69 be 74 9c 4c be bd 9e bf ba 5f 64 74 bd
       -0.22755738 -0.19981557 -0.0014619451 -0.059666034
000170 09 43 73 3e 46 58 32 3e 83 25 90 3e 24 bf 81 3e
       0.2375604 0.17416486 0.2815362 0.2534114
000180 78 e7 be 3d dd 32 36 3e 6d 98 22 be 26 86 30 be
       0.09321493 0.1779284 -0.15878458 -0.17238674
000190 11 ff 9c be e2 29 1a be 3c d7 99 3e 57 be f4 bd
       -0.3066335 -0.1505504 0.30047023 -0.11950367
0001a0 82 2f 96 3d d0 17 8b 3e 41 59 2e be da 6f 4c bd
       0.0733328 0.27166605 -0.17026235 -0.049911357
0001b0 7e 0c 1b be 69 ee 07 be 07 e3 39 3b a2 ca 45 3e
       -0.15141484 -0.1327454 0.0028364079 0.1931558
0001c0 d0 b3 37 3c 36 50 3a bd d6 c1 14 bd d3 c1 77 3d
       0.011212304 -0.04548665 -0.03631767 0.06048758
0001d0 b4 64 33 be 0f bb 77 be e4 8d 97 3e 3a 45 ec 3e
       -0.17518884 -0.24192451 0.2960044 0.46146566
0001e0 ea e3 94 be dd 23 b4 bb 57 c3 43 3d 10 d7 87 3c
       -0.29080135 -0.0054974393 0.047793712 0.016582042
0001f0 03 71 ac bd 5e fd d0 be 35 7e da bd ab a4 7c 3e
       -0.08419993 -0.40818304 -0.10668603 0.24672191
000200 e1 a7 ca bd a6 f8 7c be 56 35 e9 bd fe a0 01 be
       -0.098953016 -0.24704227 -0.11387126 -0.1265907
000210 44 75 12 be 87 bd 9b be 4e d4 94 be 54 a5 42 be
       -0.14302546 -0.30418035 -0.29068226 -0.1900838
000220 63 77 2a be 77 ff 58 bd a4 de 77 bd d5 72 4a 3e
       -0.16647105 -0.052978005 -0.06051506 0.19770367
000230 1e 53 05 be fa 4d 92 3b 05 d4 02 be 5f 26 6e 3d
       -0.13019988 0.004464862 -0.12776192 0.058142062
000240 07 80 09 be cf 0e 99 3d 95 78 99 3d f3 39 74 bd
       -0.13427745 0.07473528 0.07493702 -0.059625577
000250 b2 e8 78 3d 42 cc c1 be c4 b7 bd bd 18 76 a4 be
       0.06076879 -0.3785115 -0.09263566 -0.32121348
000260 c0 fb 89 be 85 7a a7 be 9b f5 d6 bd a6 07 a0 3d
       -0.26949883 -0.32710662 -0.10496064 0.07813959
000270 b7 43 0c bd 91 f4 56 3d 96 32 38 3d 99 12 6b be
       -0.034244265 0.05247933 0.044970118 -0.22956313
000280 2a e1 da bd 05 1c 04 3e ca 6f 02 be bb e7 5d 3e
       -0.10687478 0.12901314 -0.12737957 0.2167043
000290 29 86 d1 3d af 86 a2 be c8 12 b8 bd a7 e4 01 bf
       0.10230667 -0.3174338 -0.08987957 -0.5073952
0002a0 e2 92 de be f6 6f 71 be ea b5 7e bd 48 95 8b 3c
       -0.43471438 -0.23577866 -0.062185206 0.017038956
0002b0 2f 19 e5 bd f9 08 1d 3e af 70 3c 3e c8 a0 84 3e
       -0.11186444 0.15335454 0.1840236 0.25903916
0002c0 76 f2 5a 3e 41 30 d3 be 87 b3 ed bc 19 64 f3 3c
       0.21381554 -0.41247752 -0.02901627 0.029710816
0002d0 82 83 94 be 23 c0 14 be 35 d5 9f be 35 ee c6 bd
       -0.29006582 -0.1452642 -0.31217352 -0.09713403
0002e0 34 07 bd be e1 ec 1d be 0a bb 4d 3e 8a a1 f0 bd
       -0.36919558 -0.15422393 0.20090881 -0.11749561
0002f0 ad d4 fa 3d 18 39 e3 bd 2a 32 41 be b6 ba 80 3d
       0.12247596 -0.11094874 -0.18866792 0.06285612
000300 0b 5a aa 3d 99 51 c8 3d 43 a8 7e 3e 9a fb 13 3f
       0.083179556 0.097811885 0.24868874 0.5780579
000310 76 af cd 3c 5e 37 c7 3c c5 bd 4f 3b 7c 2e 7d be
       0.02510808 0.024318393 0.0031698805 -0.24724764
000320 50 17 a1 bc e2 5d af bc 0a e8 fd bd b8 e7 1d bd
       -0.019664437 -0.021407072 -0.123977736 -0.038551062
000330 ba 4f 25 3e 1d bc 2e be 3f cf a8 bc 8f 7c 12 be
       0.16143695 -0.17063947 -0.020606635 -0.14305328
000340 46 ef 54 bc 1c 11 ab bc d4 d6 35 3e c1 77 08 3e
       -0.0129965 -0.020882182 0.17757732 0.13326932
000350 99 ed 0a 3d dd d5 95 bd b4 ba dc bc 3d 4e 45 3e
       0.033917997 -0.07316182 -0.026944496 0.19268127
000360 17 17 70 3e bf a9 83 3e 93 14 09 3e 82 1f 2f 3e
       0.23446308 0.25715443 0.13386755 0.17101863
000370 42 2d 80 bc ca d5 27 bd 7a ce 1d be ca c3 31 bc
       -0.01564658 -0.04097537 -0.15410796 -0.010849902
000380 cb a8 4d be 5e 4b 8c bd e3 0d 10 be 22 d5 db bd
       -0.2008392 -0.06850313 -0.14067797 -0.10734011
000390 8f 18 da bd 25 39 43 be 04 1b 24 be ad 2b 35 bc
       -0.106492154 -0.19064768 -0.1602593 -0.011057776
0003a0 ae 1d 90 be 9f 80 55 bd bf 8e 0f bd 5c 48 8d be
       -0.28147644 -0.052124616 -0.035048243 -0.27594268
0003b0 23 4b 3a be 05 ad a2 bd 9a aa 66 be 6b 78 b3 3d
       -0.18192725 -0.07943157 -0.22526017 0.08763202
0003c0 20 de 50 bd 6b bb 56 be 2d 56 8e be f2 f3 f1 bb
       -0.050993085 -0.20969932 -0.27800122 -0.007383817
0003d0 d8 27 2f 3d 54 9c c5 3e 73 5c 4d be 4d a5 14 3e
       0.042762607 0.3859583 -0.20054798 0.14516182
0003e0 46 c3 7d 3e 24 cc 4d be c7 83 b1 be 8a cb aa be
       0.24781522 -0.20097405 -0.3467085 -0.33358413
0003f0 6a 2b a0 3d c5 25 b8 bc 19 4b 8f be 13 87 96 3d
       0.078207806 -0.022478947 -0.27986982 0.07349982

conv1.conv2.0.bias f4 [8]
000000 b7 07 9f bc 75 47 89 bd f3 fe 9b bc 5c 98 c3 3d
       -0.019412858 -0.067030825 -0.019042468 0.095505446
000010 ed d8 b2 bd 13 01 db 3c ec 0e ed bd cc cc 7c 3d
       -0.087327816 0.02673391 -0.11575112 0.061718747

conv1.conv2.1.weight f4 [8]
000000 46 38 77 3f e8 fb 68 3f 16 44 7c 3f f4 09 a2 3f
       0.9657024 0.9100938 0.9854139 1.2659287
000010 01 e7 96 3f e9 4b 3c 3f 42 10 a1 3f 7d 7c 9c 3f
       1.1789247 0.7355333 1.2583086 1.2225491

conv1.conv2.1.bias f4 [8]
000000 05 f3 02 3e d9 09 ae be ca b5 7c 3e 88 44 7d 3e
       0.12788017 -0.33991888 0.24678722 0.24733174
000010 a3 f7 24 be bf da bf 3c a3 74 22 3d 84 66 01 3f
       -0.16110091 0.023419736 0.039662015 0.5054705

conv1.conv2.1.running_mean f4 [8]
000000 c7 bf 10 bf 59 f6 67 3d 0a 95 76 bf 25 ab 9b be
       -0.5654263 0.05663142 -0.96321166 -0.3040401
000010 6e ff 0b bf 27 e1 e7 bf cb c8 42 c0 db 7b f8 bf
       -0.5468663 -1.8115586 -3.0435054 -1.9412798

conv1.conv2.1.running_var f4 [8]
000000 5c f5 b9 40 2c 9c 32 40 2d a3 c9 40 2d 0f 3c 41
       5.811201 2.790782 6.301169 11.753705
000010 1e 98 39 41 d2 9c 58 40 0a ff fd 40 41 66 51 40
       11.599638 3.3845716 7.9373827 3.271866

conv1.conv3.0.weight f4 [8, 8, 3, 3]
000000 42 f7 a0 3e f2 d7 25 3e c4 8b fb bc ff fc 02 3f
       0.31438643 0.16195658 -0.030706294 0.5116729
000010 0d f9 31 3e 30 39 ca bd 42 7f cc 3c 72 bc 4e 3e
       0.17380162 -0.09874189 0.024963025 0.20189074
000020 97 50 56 bd 8e 6f da be 21 ed 16 3e 9c 8e 03 3f
       -0.05232295 -0.42663234 0.14738895 0.5138948
000030 1a 73 a9 be 00 86 a2 bd a2 bb ff 3d b4 8f 08 be
       -0.33095628 -0.07935715 0.1248696 -0.13336068
000040 02 39 23 3e be 7b c7 3c 6d c7 80 be d4 d2 2c 3c
       0.15939716 0.024350997 -0.2515215 0.010548312
000050 a9 88 01 bd 98 94 64 be 59 8c 62 bd 4f b1 2e 3e
       -0.03162447 -0.22322309 -0.055309627 0.17059825
000060 be 57 94 be 0d 5d ee 3d 98 25 82 be fa 91 fe be
       -0.28973192 0.11638842 -0.25419307 -0.49720746
000070 2e f7 03 bd c2 9c 54 3c 9e f1 3c bd b4 48 03 be
       -0.03221815 0.012976827 -0.04612886 -0.12820703
000080 d0 04 d7 3d 69 e4 c9 3d b8 30 2b bd 26 19 a8 bd
       0.10498965 0.09858019 -0.04179451 -0.08207922
000090 42 eb 1c 3e b1 e2 6b 3e f6 90 82 3e 52 21 5e 3e
       0.15324119 0.23035695 0.2550122 0.21692398
0000a0 56 ad 07 3e 24 29 ab bd 72 c4 fc 3d a2 05 81 3d
       0.13249716 -0.08357456 0.123421565 0.062999025
0000b0 33 94 a8 3e 8b 3c 11 be 0c 1b 0b 3d 3b 6f a5 be
       0.32925567 -0.14183252 0.03396134 -0.32311425
0000c0 47 76 f8 3d b8 0c 06 3e cf f8 6f 3e 02 06 c8 3d
       0.121319346 0.1309079 0.23434757 0.09766771
0000d0 4f cb 80 be 8d e2 c6 3c a3 8e 21 bb 7d 24 40 3e
       -0.25155112 0.02427795 -0.0024651669 0.18763919
0000e0 c0 eb 90 3e eb 72 a1 3d 80 fa 97 3d 8b f5 8c 3e
       0.28304863 0.07883247 0.07420826 0.27531084
0000f0 33 97 3d bd d5 c3 13 be 27 fb 76 be 15 d7 43 be
       -0.046286773 -0.14430173 -0.24119245 -0.19125016
000100 3d 07 ee bd c2 7c 27 be 00 ab a8 3d 39 b9 0b 3e
       -0.11622474 -0.16356185 0.08235741 0.13644876
000110 a2 a8 9f be e5 5c 7f 3e 45 e6 d5 bc a9 10 44 bc
       -0.31183344 0.2493778 -0.026110778 -0.011966863
000120 66 0c 32 be 47 91 52 be bc ed 1f be 43 23 28 3e
       -0.17387542 -0.20563231 -0.15618032 0.16419701
000130 e6 79 22 3e 44 b0 27 3e 80 49 4c be 2c bd ed 3d
       0.15866813 0.16375834 -0.19949913 0.11608347
000140 82 5d 47 be 48 e6 05 3d 3e 6b 93 be 43 e7 46 be
       -0.19469264 0.032690316 -0.28792757 -0.19424157
000150 59 58 5a be 77 b8 d5 bd c8 fa a6 3d f6 07 18 be
       -0.21322764 -0.104355745 0.081533015 -0.14846787
000160 7b 3f 43 be 69 e4 28 3e cd cf 87 3d aa 34 20 be
       -0.19067185 0.16493382 0.06631432 -0.1564509
000170 68 a3 df 3d 6b c8 ff be 03 24 4e be e2 36 22 bd
       0.10919839 -0.49957594 -0.20130925 -0.03960312
000180 cd cc a2 3d 88 c4 33 be dd a3 a5 bc 2e 9c 25 3e
       0.07949219 -0.1755544 -0.020219738 0.16172859
000190 f1 38 6a bc 0d c9 48 be b5 28 06 be 55 98 45 3e
       -0.014295802 -0.19607945 -0.13101466 0.19296391
0001a0 3d f2 9a be c4 07 55 3e 17 6a 3e be 29 bc 81 be
       -0.30262938 0.20803744 -0.18595158 -0.25338867
0001b0 d8 ff f6 3e 8e f4 2f 3f 4b 14 90 3e 1c aa 94 3d
       0.48242068 0.68732536 0.28140482 0.07259008
0001c0 43 c7 8a bc 8f 32 e1 3d 03 15 96 bc 49 f8 1d 3e
       -0.016940719 0.109959714 -0.018320566 0.15426745
0001d0 55 a5 44 3e 66 96 70 be 22 61 34 bc eb bc 20 3d
       0.19203694 -0.23494872 -0.011009486 0.039242666
0001e0 0e 0e 52 bd d3 d1 c6 3d 04 06 64 3e 95 f1 82 bd
       -0.051282935 0.097079895 0.2226792 -0.06393734
0001f0 b4 47 74 be 9d 7f 07 be 89 00 a7 3d 66 97 c6 bd
       -0.23855478 -0.13232274 0.08154399 -0.09696846
000200 e8 5a 64 be de 28 da bd 9f 56 ff bd 9d f6 28 be
       -0.22300303 -0.10652326 -0.124676935 -0.16500326
000210 c9 6a 97 be cb e5 8f be 03 19 00 be d2 94 27 3d
       -0.29573658 -0.28105006 -0.12509541 0.04091341
000220 62 cf 0e 3d 3f 08 52 be 69 39 ef bd ce 2f a3 bd
       0.034865744 -0.20510958 -0.11680872 -0.079681024
000230 5d 0f 9d 3e 20 cf 71 be a8 4a 8e bd 00 6b 84 be
       0.30675784 -0.23614168 -0.06947833 -0.25862885
000240 98 ae 0e be 49 1b df bd 7d 22 70 3e e3 d3 ca 3d
       -0.1393379 -0.10893876 0.23450656 0.099036954
000250 6c ef c4 3d c5 f0 e8 bd dc eb af 3d 15 56 c5 3e
       0.096159786 -0.11374048 0.085899085 0.38542238
000260 23 78 65 be f2 23 6b bd 72 d3 92 3e c0 12 8f 3e
       -0.2240911 -0.057407327 0.28676945 0.27943993
000270 18 a1 c5 be b5 8d 59 3e a8 f6 d6 3e 51 8d 78 bf
       -0.38599467 0.21245463 0.4198506 -0.9709063
000280 2b f6 d9 bd db 2b 93 be 0c 6e 82 3e fb 75 06 be
       -0.10642656 -0.28744397 0.25474584 -0.13130943
000290 f0 25 c3 3d 26 b9 86 be 64 61 89 be 52 e6 d7 3d
       0.095287204 -0.26313132 -0.26832116 0.10541977
0002a0 88 41 d2 be cc 87 73 bd 21 b8 aa be 63 99 a4 bb
       -0.4106562 -0.059455678 -0.33343604 -0.005023168
0002b0 9e bc 49 3d 3d 9d 96 be 58 dd d5 be 89 e1 89 be
       0.049252145 -0.29416838 -0.41770434 -0.26929882
0002c0 53 e2 88 be e2 4d 81 be f2 30 fe bd 09 d7 73 be
       -0.26735172 -0.25254732 -0.12411679 -0.23812498
0002d0 2a c6 ad 3e f0 0b 27 3e 49 bf 7b be 8f 04 88 3c
       0.3394025 0.16313148 -0.24584688 0.016603736
0002e0 08 8a a5 be ae 65 73 bf 58 fb fc 3c ab 87 19 bd
       -0.32331872 -0.95077026 0.030881569 -0.0374829
0002f0 38 cd 04 bf d5 8d 2d 3e ac a7 cb be 3b 34 1a 3c
       -0.5187564 0.16948636 -0.3977636 0.009411867
000300 07 8f c5 bc f6 6b d4 bd 84 64 01 3f a4 43 90 bd
       -0.024116052 -0.103721544 0.50544 -0.070441514
000310 05 ec 16 bd ad 73 1f 3d 2b aa e4 be 06 a8 66 be
       -0.03684618 0.038928676 -0.44661078 -0.22525033
000320 a0 05 9c bd e0 25 15 bf c3 5e 74 be 32 9a 0c be
       -0.076182604 -0.5826092 -0.23864274 -0.13730696
000330 60 cf 2e 3e 59 42 7b 3d 43 cd a8 be 55 a4 d2 be
       0.17071295 0.06134257 -0.32969102 -0.41141
000340 6e 5c f4 be 81 50 ab 3e cc f0 b2 be 9c fc 8a 3e
       -0.47726768 0.33459857 -0.34949338 0.2714585
000350 e6 01 04 3f a6 69 26 3d 7a c8 7d 3d 92 34 f0 3e
       0.51565397 0.040628098 0.061958767 0.46915108
000360 7b e7 32 3e 29 a8 9d 3d 98 6b 27 3e 71 66 f7 3e
       0.17471115 0.0769809 0.16349638 0.48320344
000370 df 96 90 be 0b 9c 96 be 33 b3 eb 3e f7 18 1f be
       -0.28240106 -0.29415926 0.46035156 -0.15536867
000380 10 93 d0 3e c1 c0 c9 3d ec 64 0b 3e e9 f4 38 3e
       0.407372 0.09851218 0.13612717 0.18062176
000390 ae 6e 8f be 5b 7e f7 3e 04 e6 4b be 59 fd a5 3e
       -0.2801413 0.4833859 -0.19911963 0.3241985
0003a0 55 8e e9 3d e3 70 57 be e3 0b 3d 3e d3 6b 41 be
       0.11404101 -0.21039157 0.18461566 -0.18888788
0003b0 b3 d6 1f be 66 0b f7 3d 7e c3 bc bc 65 22 ca 3d
       -0.15609245 0.12062721 -0.023042437 0.098698415
0003c0 b6 37 78 3c ad df 3e bc 11 1e 30 bd 7a 94 42 be
       0.015150001 -0.011650008 -0.042997424 -0.19001952
0003d0 fa 67 84 bd 4a b1 96 be cb 73 e3 bd 52 7c b6 be
       -0.064651445 -0.29432136 -0.1110607 -0.35641724
0003e0 78 c3 8c bd d7 fd 10 3e a2 e4 84 bb c3 a1 0f be
       -0.0687322 0.14159332 -0.0040555755 -0.14026551
0003f0 e7 59 74 bc 3c b7 e3 bd 18 5a 61 be 6c 54 87 bd
       -0.0149140125 -0.111189336 -0.22007024 -0.06607899

conv1.conv3.0.bias f4 [8]
000000 44 61 7d bd cf a8 8b bb 9b a7 b4 3c de 10 00 bd
       -0.061860338 -0.004262067 0.022052577 -0.031266086
000010 1a 59 a4 3d e7 2e 53 3c f8 ed de bd 57 40 50 bc
       0.08024807 0.0128896 -0.10885233 -0.012710652

conv1.conv3.1.weight f4 [8]
000000 96 b5 82 3f 40 b1 69 3f 9b f7 85 3f a3 19 5b 3f
       1.0211666 0.9128609 1.0466188 0.85585994
000010 fa 4c a7 3f e5 63 90 3f 29 04 9d 3f 63 6a 59 3f
       1.3070366 1.1280485 1.2266895 0.8492796

conv1.conv3.1.bias f4 [8]
000000 31 1a 0c 3e d0 76 3d 3e 71 b9 f6 3e 23 29 b5 be
       0.13681866 0.18502355 0.48188356 -0.35382947
000010 51 74 73 3e 82 8e ab 3e a6 d5 b1 3e 6b a6 8f 3e
       0.2377484 0.33507162 0.34733313 0.28056654

conv1.conv3.1.running_mean f4 [8]
000000 b5 f3 a5 3d 7d 0a ce bf 4f a7 2c c0 48 14 c4 be
       0.08103124 -1.6096951 -2.6977117 -0.38296723
000010 25 7e 25 be df de bb bf c3 9b 01 c0 9a 58 6c 3f
       -0.16161402 -1.467739 -2.025132 0.92322695

conv1.conv3.1.running_var f4 [8]
000000 10 ce 69 40 30 a6 54 40 a0 fc 96 40 d4 3d f1 3f
       3.653202 3.3226433 4.718338 1.8846993
000010 de 00 41 40 dd e6 b0 40 a1 68 98 40 1c 61 71 40
       3.015678 5.5281816 4.762772 3.771552

conv2.conv1.0.weight f4 [16, 8, 3, 3]
000000 55 6a df 3d a4 05 6f be e4 6a d1 bd 90 69 38 be
       0.10908953 -0.23341995 -0.10225466 -0.18009019
000010 1a 0f b3 be d0 7e a0 be c3 d9 66 3e cb 34 56 3d
       -0.3497246 -0.3134675 0.22544007 0.05229644
000020 ca 47 0c 3d b8 c7 52 be 09 c0 9e bd 83 f0 df be
       0.03424815 -0.20583999 -0.077514715 -0.43738183
000030 52 08 4a 3d 55 d8 be bd eb 4c 23 3e 74 b2 02 be
       0.04932434 -0.09318606 0.1594731 -0.12763387
000040 55 3e a8 3d 06 4d 78 be dd a4 a5 3d 76 2a 43 3d
       0.08215014 -0.24248132 0.08088086 0.047647916
000050 ec 4c a1 bd 94 e1 e1 be 87 1c 16 3e 66 aa 67 be
       -0.07876 -0.44117415 0.1465932 -0.22623596
000060 17 b3 34 3e 88 6d 3a 3e e3 5c b4 3d 74 9f 8e 3e
       0.17646442 0.18205845 0.08806779 0.27856028
000070 5d f9 b8 3d 59 82 77 be 98 74 49 3d 64 b8 ed bd
       0.09031937 -0.24170817 0.049183458 -0.11607435
000080 49 e6 19 bc 52 f7 b7 3d f6 ba 09 bd d2 d5 d1 3d
       -0.009393283 0.089827195 -0.033625565 0.10245861
000090 05 32 9c 3d 43 37 54 3d 90 60 3e 3e 94 e7 92 bd
       0.07626728 0.051810514 0.18591523 -0.07173076
0000a0 ce 51 07 3e ea c6 bd 3b 33 65 ae bd 7b 17 d8 bd
       0.132148 0.0057915347 -0.08515396 -0.105513535
0000b0 ef 0a 8b bd 0a fc df bb 21 31 78 be b5 fa 6f be
       -0.06789195 -0.0068354653 -0.24237491 -0.23435481
0000c0 03 dd 30 be 3a 99 f4 be 03 09 05 be a6 d6 7c be
       -0.1727181 -0.47773153 -0.12991719 -0.24691257
0000d0 19 5a 85 bd 68 12 fa be 63 f1 1c 3d d2 9d b4 bd
       -0.065113254 -0.48842168 0.03831614 -0.08819164
0000e0 7b 72 1e 3d 4a b1 e9 3e b1 2f 16 3e 8b 56 42 3e
       0.038683396 0.45643073 0.1466663 0.18978326
0000f0 89 f2 c8 3d 4c 6d 82 3d 4f 08 8b 3e c4 d1 99 be
       0.09811885 0.06368503 0.27154776 -0.3004285
000100 22 49 28 be 18 1a 63 3c de 47 c2 be fa 2e d0 3c
       -0.16434148 0.013861202 -0.37945455 0.025413025
000110 a7 18 17 3e 53 6c d6 bd f4 0e 5b b9 41 e3 cc bd
       0.14755498 -0.1046988 -0.00020891038 -0.10004283
000120 2b 38 da 3d f1 12 ac 3e 2a 60 6c 3d 63 e1 d7 3e
       0.106552444 0.336082 0.057708897 0.42164144
000130 c2 29 b6 3d 25 6c b0 bd 79 81 72 3e 58 54 05 3e
       0.088946834 -0.08614377 0.23682202 0.13020456
000140 c9 d8 43 be c4 e3 83 3e fc 02 da bd b5 9c fe bc
       -0.19125666 0.2575971 -0.106451005 -0.031080583
000150 a3 e6 c9 3e e6 45 d7 be 46 38 e7 bd e2 67 47 3f
       0.39433774 -0.42045516 -0.1129003 0.7789289
000160 86 b0 c8 3d 86 68 f5 bc fd cb e4 bd a7 1a 76 3e
       0.09799294 -0.029957067 -0.1117172 0.24033605
000170 0d 86 2e 3e bd e1 a2 be 4a c1 82 3d 6f b1 e2 bd
       0.17043324 -0.3181285 0.06384523 -0.11068999
000180 6b f9 d0 be 40 2f 58 bd 06 e6 14 3d 72 de 2b be
       -0.4081529 -0.052779436 0.03635218 -0.16784075
000190 1a 44 95 bd 45 d4 28 be 62 6a d1 be ab fe f8 bd
       -0.0728838 -0.16487224 -0.40901476 -0.12157949
0001a0 ff 51 cb be 12 53 4a 3d 8f 55 8b bd 00 ad 68 be
       -0.39710996 0.04939563 -0.068034284 -0.22722244
0001b0 9b 9d c9 be df bb 8f be e4 8e a9 be 7c a2 04 3e
       -0.39378056 -0.28073022 -0.3311683 0.12952608
0001c0 d1 6a 1b 3e f5 23 0e 3e 5b e6 de 3d 4d 62 ba bd
       0.15177466 0.13880904 0.108837806 -0.09100781
0001d0 88 96 71 3d ff 7e 8d 3d bb 9d 8d 3e a5 41 80 be
       0.05898145 0.06908988 0.276594 -0.25050083
0001e0 36 b5 9d be e0 19 64 be fa 3f a3 bd b5 94 c6 bd
       -0.30802315 -0.22275496 -0.07971187 -0.09696332
0001f0 30 a7 5b be 81 fb 45 3e 66 3e ae be 53 f2 3f 3d
       -0.21450496 0.19334222 -0.3403198 0.046861958
000200 cd 95 42 3e ff 14 81 be 3c 07 8b be ae da 66 3e
       0.19002457 -0.2521133 -0.27153957 0.22544357
000210 f5 13 cf be 09 21 54 bc a8 66 7d be 98 1a cf be
       -0.40444914 -0.012947329 -0.24746192 -0.40449977
000220 b9 e3 87 be 58 86 46 3c 45 5d bc be 6e 11 5c be
       -0.26540926 0.012116991 -0.3678991 -0.21491024
000230 8c 38 2d be d6 05 5c be 53 76 07 bd d8 83 bc bd
       -0.16916102 -0.21486601 -0.033071827 -0.09204835
000240 36 f8 d2 3d 9f b2 2f be 93 52 f0 3d 14 24 a7 3d
       0.10301249 -0.17157982 0.117345 0.08161178
000250 91 a9 60 3e 61 2a 6e 3e 1b a9 49 be e8 26 b3 3e
       0.21939684 0.23258354 -0.19693415 0.3499062
000260 23 e8 4e 3e d4 b8 df bd f9 c4 86 3e 68 e1 42 3e
       0.2020574 -0.10923925 0.26322153 0.19031298
000270 e7 78 a6 3e c7 6b 78 3e d2 67 00 3e 02 93 da bd
       0.32514116 0.24259864 0.12539604 -0.10672571
000280 9c dd 55 bd 16 90 6f 3d 6b 43 4a be ae 9f a8 3c
       -0.052213296 0.05848702 -0.1975228 0.020583954
000290 6e eb d9 bd 9b 1a dd be 88 0a d5 3d 7b 3c cb be
       -0.10640608 -0.4318436 0.10402399 -0.3969458
0002a0 d8 43 c4 be 0d fc 90 bd 43 5e 83 be 21 14 bc bd
       -0.3833301 -0.07079325 -0.25657853 -0.09183527
0002b0 2f 5e ad be e1 88 7f 3c 25 58 20 3d 92 7e 11 3e
       -0.3386092 0.015596599 0.03914656 0.14208439
0002c0 34 0f 82 3e 74 89 3d bd 3f e4 85 bd 23 16 0b 3f
       0.25402224 -0.046273664 -0.06537675 0.5433065
0002d0 68 9b 9a 3e 9b 10 81 3e 05 ca 6e 3e c3 46 91 3e
       0.3019669 0.2520798 0.23319252 0.283743
0002e0 50 a0 75 bd b9 8a a3 bd 49 d3 ae bd d8 e5 1a bf
       -0.05996734 -0.079854436 -0.08536393 -0.60506964
0002f0 86 cd 32 be 11 78 ec bd 5e 8c 41 be 7e 98 da 3d
       -0.17461213 -0.11546338 -0.18901202 0.10673617
000300 96 84 99 be 5d 34 2f 3d 57 3c 98 3d db 2a 79 bd
       -0.29983968 0.042774547 0.07433384 -0.060831886
000310 04 74 8d 3e 0d d2 17 be 6a a0 11 3d 19 a0 29 be
       0.27627575 -0.14826222 0.035553373 -0.16564979
000320 af 16 bd be 66 e3 10 bd 55 be 82 bd b2 e5 9c bd
       -0.3693137 -0.035373114 -0.06383959 -0.076609984
000330 46 ac b9 3d 8a 8e b3 bc 81 87 e5 bd a3 f4 98 3e
       0.09066062 -0.021918554 -0.11207486 0.29874143
000340 ee ce 0b 3e 11 34 fb be eb 36 df 3d c5 c7 08 bc
       0.13653156 -0.4906316 0.10899147 -0.00834841
000350 02 0a 40 3e b8 57 40 be a5 ed 96 be 13 fc 71 3e
       0.18753818 -0.18783462 -0.29478183 0.23631315
000360 63 ec 65 3e 30 f1 b4 3d 0b 52 20 3e ad 8f 9e bd
       0.22453456 0.08835065 0.15656297 -0.07742248
000370 be 52 aa 3d d7 fe 8d 3e d6 1a 82 be f2 59 34 3b
       0.08316563 0.2773349 -0.254111 0.0027519432
000380 8c fd a3 3e 52 d6 cd bd 7d f0 9d 3d dd a5 33 be
       0.32029378 -0.10050644 0.07711885 -0.1754374
000390 09 f2 14 be 93 2e 42 3d 7a e6 22 3e ae f5 e6 be
       -0.14545454 0.047407698 0.15908232 -0.45109314
0003a0 a3 f5 31 be 7a 3b 4d bd e2 b7 33 3e bd 5b 9c 3e
       -0.17378859 -0.05010555 0.17550614 0.3053874
0003b0 fb d0 a6 3e ea f6 f8 3e 58 18 d2 3e 72 62 19 3e
       0.32581314 0.4862588 0.41034198 0.1497896
0003c0 50 39 0c be fd dc 46 3d fe 02 88 be 5f d6 8d bd
       -0.13693738 0.048550595 -0.26564783 -0.06925654
0003d0 5f 10 5e 3e dd 2b ee 3e ae 5c 05 be 40 7c a5 3c
       0.21685933 0.4651784 -0.13023636 0.020200849
0003e0 cf a0 15 b9 d5 50 88 3e 64 d8 a3 3d 48 46 f9 3d
       -0.00014269653 0.2662417 0.080002576 0.12171608
0003f0 79 df 0b be 23 1a 15 be 62 c7 b4 be 79 c9 b6 bd
       -0.13659467 -0.14560752 -0.35308367 -0.089251466

conv2.conv1.0.bias f4 [16]
000000 7d 05 8c bc 65 74 c5 bd c2 5a e2 3c dc fe 0f 3d
       -0.01709246 -0.09641341 0.027631167 0.035155162
000010 c9 cf be bd a7 51 d8 bd 35 50 4a 3c 9d 76 eb 3d
       -0.093169756 -0.10562449 0.012348224 0.11497233
000020 ed af d7 bd 42 4e 6c bd 9e 52 26 bd 14 00 d5 bd
       -0.10531602 -0.05769182 -0.040606134 -0.104004055
000030 f1 78 94 bd 87 49 bd 3d 66 6e b8 3d a1 67 b1 bd
       -0.0724963 0.0924254 0.09005432 -0.08662344

conv2.conv1.1.weight f4 [16]
000000 d5 e9 85 3f 49 f5 65 3f 4b ae 8c 3f 5a 62 63 3f
       1.0461985 0.898274 1.099069 0.8882195
000010 90 2a 81 3f 8a b9 8a 3f fb 61 80 3f a4 5d 8b 3f
       1.0091114 1.0837872 1.0029901 1.0887952
000020 c3 73 98 3f 43 19 89 3f eb 4e 96 3f 94 76 87 3f
       1.1910328 1.0710834 1.1742834 1.0583062
000030 9d e8 67 3f 3d b6 88 3f c2 e4 85 3f ee 6f 84 3f
       0.90589315 1.0680615 1.0460436 1.0346658

conv2.conv1.1.bias f4 [16]
000000 79 b4 8c 3d 69 10 7c 3c 64 bb 82 be aa 81 8d bd
       0.0687036 0.015384772 -0.25533593 -0.06909497
000010 e1 bf 03 be 1e 43 a1 3c 8b ba 04 be 55 10 74 3e
       -0.12866165 0.019685324 -0.12961785 0.23834355
000020 2b 62 a7 bc 58 39 8b 3d d7 58 10 bd 03 88 91 3d
       -0.020432552 0.06798047 -0.035240974 0.0710602
000030 8a 15 94 bd ff 64 c0 3d cd fc 92 bc 2c 49 3c be
       -0.07230671 0.093942635 -0.01794281 -0.18387288

conv2.conv1.1.running_mean f4 [16]
000000 69 07 0b c0 93 93 4f c0 82 2b 99 bf 9e fd c1 3f
       -2.1723273 -3.2433822 -1.1966403 1.5155523
000010 7e 2d a4 bf bf 15 3f c0 12 5b 95 3d 66 55 81 3e
       -1.2826383 -2.9857023 0.07292761 0.25260466
000020 91 8d 66 bf 71 8c a8 be f9 fd 56 c0 a2 1f 88 bf
       -0.90059763 -0.32919648 -3.3592513 -1.0634654
000030 97 09 0c 3f 6b 4e f5 3e b8 7e 72 c0 b0 19 a4 c0
       0.5470213 0.4791139 -3.7889843 -5.1281357

conv2.conv1.1.running_var f4 [16]
000000 19 7f 1b 41 cf 86 72 40 d7 6f 7d 40 94 e4 02 41
       9.71853 3.789478 3.9599512 8.180805
000010 08 71 5e 40 91 35 b2 40 c2 df ce 40 43 70 54 40
       3.4756489 5.569039 6.464814 3.319352
000020 20 0d 27 40 fd e8 c3 40 ea b3 9f 40 54 73 75 40
       2.610176 6.122191 4.990712 3.835164
000030 0c bc 35 40 98 4e 7a 40 e5 1a d1 40 74 d3 98 40
       2.8396025 3.911047 6.534533 4.775812

conv2.conv2.0.weight f4 [16, 16, 3, 3]
000000 ed 94 59 be 2e 4a 1b be 4a 8c 8b 3b b6 87 2c be
       -0.21248217 -0.15165016 0.004258667 -0.16848645
000010 8e 72 86 be 8f 6c 07 3d 5a 9b b1 be 02 4e c0 bd
       -0.26259273 0.033062514 -0.34688836 -0.09389879
000020 e1 0d 2d be af db e4 3d 87 fc a9 3d 3a 23 fc bc
       -0.16899826 0.11174714 0.08300119 -0.030778516
000030 19 63 8a 3e 7b 4c 61 3e 42 d5 bc 3d 15 9e 69 bd
       0.2702873 0.22001831 0.09220363 -0.057035524
000040 65 ba 1c be 76 d3 71 bd 0d 7c 3e be 69 22 a7 be
       -0.15305479 -0.059039555 -0.18602009 -0.3264344
000050 5e 75 11 bd f9 a8 74 bd 53 79 11 3d 49 61 ac bc
       -0.03551232 -0.059731457 0.035516094 -0.021042483
000060 63 a2 5e be a4 c9 9c bd 86 30 36 be f7 6c c0 3c
       -0.21741633 -0.076556474 -0.17791948 0.023489458
000070 ae 67 63 be 33 66 7b be 56 43 25 be f1 f6 91 3d
       -0.2220752 -0.24550705 -0.16138968 0.071271785
000080 82 cd 1e bd 46 fe a7 bd e9 d3 d8 bd 41 8b 37 be
       -0.038770206 -0.08202796 -0.10587294 -0.17924215
000090 13 9d 17 3e db 57 ab bd 08 cd 59 3d d1 45 32 3e
       0.14806013 -0.083663665 0.05317405 0.17409445
0000a0 89 5b 94 bd ed 62 82 be d6 24 ef 3d b5 3a cd bc
       -0.072440214 -0.254661 0.11676948 -0.025052408
0000b0 69 79 1b be 22 68 f9 3c 29 be 91 bd ba 78 d9 bc
       -0.15183033 0.030445162 -0.07116348 -0.026546825
0000c0 f3 22 d7 3d 30 c1 71 3e 03 66 d2 3d d4 a9 37 be
       0.10504713 0.23608851 0.102733634 -0.17935878
0000d0 10 14 d6 3d c6 e6 92 bd 11 c6 05 bd c1 77 88 3d
       0.10453045 -0.07172923 -0.032659594 0.06663466
0000e0 fb 96 20 bd b3 90 71 bd 80 25 89 bd 41 a1 6a bd
       -0.039206486 -0.058975887 -0.06696606 -0.05728269
0000f0 ad ea 19 3e cf bc 10 be 0b bd 04 be 4e 73 48 be
       0.15030928 -0.14134525 -0.12962739 -0.19575235
000100 bf da 59 3e bc 03 40 3e 48 16 8f 3d 12 a4 af be
       0.21274851 0.18751425 0.06986672 -0.34304863
000110 40 c0 a2 be 0a cb 62 3c d5 a2 92 be 7b 55 da bd
       -0.317873 0.013842354 -0.28639856 -0.10660835
000120 da 5b d3 bd 94 36 63 bd 4b 24 22 3d 52 59 78 be
       -0.10320254 -0.05547197 0.039585393 -0.24252823
000130 ea 9b 49 be 8d fd b4 3d 3f 8d 8c ba 5d 68 88 bd
       -0.19688383 0.088374235 -0.0010723247 -0.06660531
000140 50 69 00 3e 77 32 99 3d 73 48 fb bd aa 14 7b bd
       0.12540174 0.074803285 -0.12269678 -0.061299004
000150 fe 50 1c be 6e 89 95 be c2 84 d3 be b1 15 c3 bd
       -0.15265271 -0.29206413 -0.41312224 -0.09525622
000160 5b dd 3d be 63 36 08 be f3 52 af 3d cd 44 9e bd
       -0.18541472 -0.13301997 0.08560743 -0.077279665
000170 50 81 04 be 4c 2a ee 3d a0 81 87 bd 2f ae 0c 3d
       -0.12939954 0.11629161 -0.06616521 0.034345802
000180 29 61 6c bd e8 52 28 3d 40 b8 f1 bb d7 b0 ad bd
       -0.057709847 0.04109469 -0.0073767006 -0.08480995
000190 1b d4 99 bd 22 32 08 be 1b 40 99 bb f0 d5 5b be
       -0.07511159 -0.13300374 -0.0046768314 -0.2146833
0001a0 a2 24 94 be 4c 05 1e 3e 00 9e ee 3c 37 dc 73 bd
       -0.289342 0.15431708 0.029128075 -0.059536185
0001b0 ee 41 1c be 6b bd 9e bc 73 22 06 be b8 de 1b bc
       -0.15259525 -0.01937743 -0.13099079 -0.0095135495
0001c0 40 ff 0f 3d a5 86 d4 3d 99 df 0c 3e ad db 94 3c
       0.035155535 0.10377244 0.1375717 0.018171156
0001d0 1b 40 8e 3c d5 43 88 be ea e6 8b 3d 7c c7 a9 bb
       0.017364552 -0.26614252 0.06831153 -0.005181251
0001e0 a4 30 df 3b 0e bb 82 3e b2 b5 54 3d 08 80 1e 3e
       0.0068112183 0.25533336 0.05193109 0.15478528
0001f0 08 e6 bc bd 89 c6 11 3d eb 80 26 3d 49 44 79 3c
       -0.092235625 0.03558973 0.04065029 0.015214034
000200 53 e0 16 be 70 79 59 3e 98 5c a2 3d 75 cf b6 bd
       -0.1473401 0.21237731 0.07927817 -0.08926288
000210 4d 0b e0 3d d5 e6 24 bd 5b c1 1d bc 98 aa c8 bd
       0.109396555 -0.0402592 -0.009628619 -0.09798163
000220 ab 8b 18 be b8 4b 94 bd 4c 28 2e 3d a4 23 06 3e
       -0.14897029 -0.07241005 0.0425189 0.13099533
000230 16 e2 16 3e ea 1a 13 3e 39 ed 64 3d da 76 cb 3d
       0.14734682 0.14365736 0.055890296 0.099347785
000240 bc 4b 08 bd f5 40 9c bd 40 15 4b be 9c dc 37 3e
       -0.03327535 -0.07629577 -0.19832325 0.1795525
000250 d3 ab ac bd f2 92 10 be 62 8d 1b 3e eb ff 1c 3d
       -0.0843121 -0.14118555 0.15190652 0.03833
000260 70 2c 65 3d f2 45 39 be 8a 0a e6 3a eb f3 5e 3e
       0.055950582 -0.18093088 0.0017550748 0.21772735
000270 24 08 9f bd 19 75 aa bc 27 aa be 3d 18 2f 2b be
       -0.077652246 -0.02080779 0.09309798 -0.16717184
000280 8c a6 e4 bc a2 43 b6 3c a8 57 e0 bd d0 2b 47 3e
       -0.027911447 0.022249047 -0.10954219 0.19450307
000290 22 d3 19 3e 22 a2 f9 bc 31 6b 92 3e 7f 67 06 3e
       0.15021947 -0.030472819 0.28597406 0.13125418
0002a0 a7 03 c3 be fe 9c 27 3e ad e5 be 3d f6 36 82 be
       -0.38088724 0.16368482 0.09321151 -0.25432557
0002b0 1f 13 5b bd e6 c1 f9 bd 92 57 ff 3d da 0f 8a 3e
       -0.053485032 -0.12195186 0.124678746 0.2696522
0002c0 36 c7 39 3c 16 4f e7 3d d2 78 69 bd 09 f6 50 3e
       0.0113389995 0.11294381 -0.05699999 0.20406355
0002d0 6d b3 6b 3c a8 f0 8f be f3 72 d3 bd a7 dc 4a bd
       0.01438604 -0.28113294 -0.10324659 -0.049526837
0002e0 2f 34 13 be 03 18 b3 3d 21 dd 71 be 2e 0e 19 ba
       -0.14375375 0.08744814 -0.2361951 -0.00058386
0002f0 48 70 52 3e 5a 25 72 3d 8c 27 85 3e bf 53 37 3d
       0.20550644 0.059117652 0.26006734 0.0447576
000300 55 82 99 3d 97 00 93 3e 46 60 a8 bc ed c1 13 3d
       0.07495562 0.28711388 -0.02055372 0.036073614
000310 cb be 56 be 19 84 33 3d c4 e5 b7 bd 63 c3 98 3e
       -0.20971219 0.04382715 -0.08979371 0.29836568
000320 c0 8f 04 3e 5f b4 ee bd 5e c2 5b 3d 8c 5e 3a 3d
       0.12945461 -0.11655497 0.05365216 0.045500323
000330 7c 64 22 3e 9c 1e 49 3e 6a f6 32 3e ae 2d 6d 3e
       0.15858644 0.19640583 0.17476812 0.23161957
000340 54 e6 05 be 40 42 e8 bd e3 ef 9c be c0 f0 b6 3d
       -0.13076144 -0.11340761 -0.3065177 0.08932638
000350 b3 b8 4f 3e 74 22 30 3d 73 20 39 3e 38 fb 0d 3e
       0.20285301 0.043001607 0.18078785 0.13865364
000360 78 1c c5 bd 43 4a 3a be b2 2d 4c bd 0e 6e 1d 3e
       -0.096245706 -0.18192391 -0.049848266 0.15374014
000370 21 e7 db bd 24 9b b0 3d 30 6c c5 bd c3 f1 e4 bd
       -0.10737444 0.08623341 -0.09639776 -0.11178925
000380 52 7f 93 be 32 92 1c 3d 73 f7 94 bd e2 b6 46 be
       -0.28808075 0.03822536 -0.0727376 -0.19405702
000390 f5 85 bd 3e 18 b0 24 3e 7e b8 20 3d 49 44 09 3c
       0.37016264 0.160828 0.039238445 0.008378097
0003a0 28 0f 30 3d ec bc c7 be 16 4b 7f 3d a5 7a 35 3c
       0.042983204 -0.39011323 0.062327467 0.011076604
0003b0 81 f8 fa bc 7a 5f d4 3d 9d bb bb bd 94 ab ea bc
       -0.030636074 0.10369773 -0.09166644 -0.028646268
0003c0 84 f7 75 be de 1a 32 be a4 05 9d bd 48 39 0d 3d
       -0.24020201 -0.17393062 -0.076670915 0.034478456
0003d0 59 c0 79 3d 01 72 36 3d e2 b1 db bd 58 4f 3b be
       0.060974453 0.044542316 -0.10727288 -0.18291986
0003e0 13 44 09 3d 6f 47 31 be 5e 92 0d 3d a6 02 f1 3d
       0.033512186 -0.17312406 0.034563415 0.11768083
0003f0 49 1d 7c 3d 41 41 81 bd 51 79 28 3e f1 c5 b4 bd
       0.061551366 -0.06311274 0.16452529 -0.08826817

conv2.conv2.0.bias f4 [16]
000000 9f 77 b5 bc bb fd 3a 3d be 80 49 bd 75 45 b4 bc
       -0.022151766 0.045652132 -0.049195044 -0.022005776
000010 8e 49 9c 3d 31 9e 35 3d 3e 45 84 bd 82 71 bb bc
       0.07631217 0.044340316 -0.064585194 -0.022881273
000020 a5 ec 05 3c 4c 69 f6 3c de e2 1c bd 66 c9 6e 3d
       0.008174096 0.030079506 -0.038302295 0.058297537
000030 ea ad aa 3a 3b 6d 93 bd 2d c3 b6 3c c1 85 a5 bd
       0.0013021801 -0.071985684 0.022309864 -0.08082152

conv2.conv2.1.weight f4 [16]
000000 d1 5a 5a 3f c5 92 86 3f 73 ef 90 3f d9 2f 58 3f
       0.85294825 1.051354 1.1323074 0.8444801
000010 77 a8 7e 3f c8 33 82 3f 3e 8f 45 3f 4f fb 4f 3f
       0.99475807 1.0172052 0.77171695 0.8124284
000020 e2 b8 8b 3f d2 f3 68 3f 82 bb 88 3f b4 8e 9f 3f
       1.0915797 0.9099704 1.0682223 1.2465425
000030 96 c2 81 3f 8a 71 9e 3f 74 a6 9e 3f f5 c4 61 3f
       1.0137508 1.2378399 1.2394547 0.8819116

conv2.conv2.1.bias f4 [16]
000000 16 5c 3e be bc 2e b6 bd 48 1c 65 be 4e 5e fa bd
       -0.18589815 -0.088956326 -0.2237407 -0.122250184
000010 ba 11 2a be 6f ba 3b 3e c5 b1 3f be 29 62 ee bd
       -0.16608325 0.18332838 -0.18720157 -0.11639816
000020 1a eb 4c bd 77 77 a5 bd 89 10 67 be 1a cd 85 bc
       -0.050028898 -0.08079427 -0.22564901 -0.016333152
000030 87 2a 68 bd b3 e5 9d 3c 2d 9d 9a 3e 40 8e 24 3e
       -0.056681182 0.019274568 0.3019804 0.16069889

conv2.conv2.1.running_mean f4 [16]
000000 ce c9 1d c0 6c 70 11 3f 1c a4 63 be 3b 4a 40 be
       -2.4654422 0.5681217 -0.22230572 -0.18778317
000010 59 4e b7 bd 1e dd 0b c0 fd 37 2b be 01 62 a4 bf
       -0.089504905 -2.185371 -0.16720577 -1.2842408
000020 19 e9 44 c0 c8 e2 b3 3e 0a 3a 80 3f ef 1b 3d 3f
       -3.0767272 0.35133958 1.0017712 0.7387075
000030 d1 8d fd bf e7 4c f3 be cb 93 71 3c 4f 81 43 c0
       -1.9808904 -0.4751961 0.014744709 -3.0547674

conv2.conv2.1.running_var f4 [16]
000000 24 d4 fd 3f 6c 04 1c 40 f0 ba b0 40 53 33 8e 40
       1.9830365 2.43777 5.5228195 4.443765
000010 9c 60 91 40 f0 e3 3e 40 e6 ec ff 3f 16 4a 26 40
       4.543043 2.9826622 1.9994171 2.5982718
000020 64 c9 d2 40 49 dd 3b 40 23 fb 38 40 cd 8d 2d 40
       6.587084 2.9353812 2.8903282 2.7117798
000030 e7 2f 2e 40 3b e2 1d 40 f6 b0 ae 40 dd c4 29 40
       2.7216737 2.466933 5.4591017 2.6526406

conv2.conv3.0.weight f4 [16, 16, 3, 3]
000000 d6 89 33 be 89 19 e4 3b df 3e 72 be fc 68 32 3e
       -0.17533049 0.006961052 -0.23656796 0.17422861
000010 e5 4b cf 3d 34 15 a0 3d 42 57 3e 3d d7 ab 2b be
       0.101218976 0.07816544 0.046469934 -0.1676477
000020 06 a9 18 bd c4 e3 a7 bd d3 61 98 bc ae 64 19 3d
       -0.03727057 -0.0819774 -0.018601334 0.03744953
000030 3a 7f 04 be 01 d4 7b 3d e2 dd 66 3e d9 80 3b bc
       -0.12939158 0.06148148 0.22545579 -0.011444294
000040 db 27 81 bd af 79 5d bd ff 4a b0 be 06 ad dd be
       -0.0630643 -0.054071125 -0.34432217 -0.4329607
000050 0a ca 5a 3d 04 c7 2c be 2b d9 4b be 97 5b 4e be
       0.053415336 -0.16872793 -0.19907062 -0.20152126
000060 44 52 6b be 95 74 bb be 7c fe 0a bd 4a c0 bb 3b
       -0.229806 -0.36612383 -0.0339341 0.0057297098
000070 8c 9b a4 3d ee 14 5b 3e f0 01 ba bd ff 97 ac 3d
       0.08037481 0.21394703 -0.09082401 0.084274285
000080 28 3c cb 3d 94 1e 9f 3d df 61 a0 bd 57 0c 8d 3e
       0.09923583 0.07769504 -0.078311674 0.27548477
000090 d0 4f 5b 3d 83 29 57 bd 6d ef 82 be e9 8a ab 3d
       0.053542912 -0.052529823 -0.25573292 0.083761044
0000a0 5c f6 73 3e a6 bf 37 be b3 8b a4 bd 40 70 68 3e
       0.23824447 -0.17944202 -0.08034458 0.2269907
0000b0 4e bb 4d bc a0 23 a3 3e f9 1a f7 3d c7 84 2b be
       -0.012556864 0.31863117 0.120656915 -0.1674987
0000c0 02 ef 5d 3d 02 59 36 3e 73 30 24 3e f8 df 5c 3e
       0.054183014 0.17807391 0.16034107 0.21569812
0000d0 44 71 ae 3d 66 a4 a2 be a2 1f 4b 3e 61 37 d3 bd
       0.085176975 -0.3176605 0.19836286 -0.10313297
0000e0 e2 9e 2b 3d f8 7a ae 3d 93 43 ed bd 6a 3d b3 bc
       0.04189957 0.08519548 -0.115851544 -0.02187987
0000f0 27 8d 96 bd e0 1d aa 3d 72 68 0d bd b9 2e b9 3d
       -0.073511414 0.083064795 -0.034523435 0.09042115
000100 1b 8b 4b 3d 42 51 82 3e 9c a9 b8 bd 29 03 37 be
       0.04969321 0.2545262 -0.090167254 -0.17872299
000110 30 2c 86 be ff 35 36 3e 5e e6 8f 3d 8d 8f cd 3d
       -0.26205587 0.17794035 0.07026361 0.10037146
000120 d5 a8 ae be 23 ea 0e 3d c9 b4 ea 3d 27 a7 fa 3d
       -0.34113184 0.03489126 0.11460263 0.12238913
000130 d3 c9 25 3e 1b d8 d8 3c 48 05 65 3e c4 36 07 be
       0.16190271 0.026470235 0.22365296 -0.13204485
000140 1e d5 85 be 0a 93 92 3e ca 5e 31 3e fa 77 7c 3d
       -0.26139158 0.28627807 0.17321315 0.061637856
000150 d6 89 52 be aa 7a 76 3d 5d 62 a9 3d fc 7d 1f be
       -0.20560393 0.060175575 0.082707144 -0.15575403
000160 5d 42 6d bd d0 41 8b 3d 84 07 60 bc bd 7b 82 3d
       -0.057924617 0.06799662 -0.013673667 0.063712575
000170 a8 98 d9 3d 62 98 3e be 24 62 20 bd 8b 75 d7 3d
       0.1062482 -0.18612817 -0.039156094 0.105204664
000180 b9 b5 8e 3c 52 60 58 bd 7a f7 c1 3d b4 00 89 be
       0.017420636 -0.052826233 0.094710305 -0.2675835
000190 2f a2 95 bd f5 71 00 be ac bd 97 bd 80 49 55 bd
       -0.07306325 -0.12543471 -0.07409224 -0.05207205
0001a0 19 5d d8 bd 8f 63 25 be 5b 1e c7 bd 25 0c 20 be
       -0.10564632 -0.1615126 -0.09722587 -0.15629633
0001b0 92 47 b6 bd 20 39 84 3d 2d d3 ca 3d 0f 9e 2c be
       -0.0890037 0.06456208 0.0990356 -0.1685717
0001c0 1d aa ef 3b 7a 7e 18 3d 55 1a 14 3e c0 22 50 be
       0.0073139803 0.037229992 0.1446317 -0.20325756
0001d0 d2 52 1d 3d c8 ca bc bd 54 be fc 3d 47 e3 26 bd
       0.03840906 -0.09218365 0.1234099 -0.040744092
0001e0 e4 ac 10 be ac 1b 9f bd 48 d2 e3 bd 51 b3 3d 3e
       -0.14128453 -0.0776895 -0.11124092 0.18525435
0001f0 93 af 38 bc 8b e4 18 3c cd a5 88 3d 38 2a 70 bd
       -0.011272329 0.009331833 0.06672249 -0.058634013
000200 1d b2 80 be 43 49 ac 3d fc 1f f6 3c 39 4d 76 be
       -0.2513589 0.08412411 0.030044548 -0.24052896
000210 8b 70 d1 bd 76 52 44 be 7b 83 a2 be c3 69 75 3e
       -0.10226544 -0.19172081 -0.31740937 0.23966126
000220 2d b4 c6 bd db bf b0 bc 69 52 3d 3e c3 d3 8f 3d
       -0.097023346 -0.021575859 0.18488468 0.07022812
000230 fe 26 45 3e bc a2 98 3d 5a 07 5e bc a9 e2 e9 3c
       0.19253156 0.07452914 -0.013551557 0.028550463
000240 05 f5 95 3d 40 0f 51 3d 9d a0 15 bd 45 a9 83 3e
       0.073221244 0.051039934 -0.036530126 0.2571508
000250 32 f8 00 be 6c 11 a2 bd 77 6c 88 3e 6b b8 29 bd
       -0.12594679 -0.07913479 0.26645252 -0.04143564
000260 43 ca 31 3c 04 63 14 be 10 59 eb 3e 11 a6 1c 3e
       0.010851446 -0.14490896 0.45966387 0.15297724
000270 4f 25 1d 3c 4c ac b2 bd e3 2d 2b be a3 19 96 be
       0.009591415 -0.08724269 -0.16716723 -0.29316434
000280 c4 64 8a bd b0 07 83 3e 20 ab 89 be 9d 93 c4 3c
       -0.06757501 0.25591803 -0.2688837 0.023996169
000290 39 4c 0b 3e 30 40 88 be 8b 93 f3 bd eb e9 81 ba
       0.13603295 -0.2661147 -0.11893376 -0.0009911632
0002a0 8e c5 41 3d 69 f7 10 3e 62 49 ea 3d 9d 80 57 bd
       0.047307543 0.1415688 0.11439778 -0.05261289
0002b0 53 10 76 bd aa 95 73 be 41 a2 26 3d 28 2f b1 3d
       -0.06007416 -0.23787561 0.04068208 0.086515725
0002c0 08 be 81 3d 3d e5 b0 be 0a df 10 3e 80 8b 25 bd
       0.06335074 -0.34549895 0.14147583 -0.04041624
0002d0 e8 bd 4b be f5 73 24 be d2 97 5b bd 67 b5 4a be
       -0.19896662 -0.16059859 -0.053611584 -0.19795762
0002e0 66 07 b4 bd 66 84 89 be 8c 0f 14 bd a3 90 00 bd
       -0.08790474 -0.26858824 -0.03614764 -0.031387936
0002f0 ee 64 b0 bd d4 60 6f 3e 5e 5b f6 3c c4 e0 58 bd
       -0.08613001 0.23376781 0.030072864 -0.05294873
000300 eb a5 8c 3e 59 50 99 bd 05 34 04 be 5d f1 84 bb
       0.27470335 -0.07486028 -0.12910469 -0.004057093
000310 c9 37 db bc bd be 4d 3c 01 33 3a 3e 8d 65 73 3d
       -0.026759999 0.012557683 0.18183519 0.05942302
000320 d6 6e 49 3e f7 c0 d1 3e 5d 2d 0b bc 28 0a a1 3c
       0.19671187 0.40967533 -0.008494702 0.019658163
000330 9d 68 2b 3e 9a aa 27 3d 60 f6 f6 3d a5 13 84 bd
       0.16739126 0.040934183 0.12058711 -0.064490594
000340 7e e9 27 be 48 2f 56 3c dd f7 e2 bc 2e af 58 3d
       -0.16397664 0.013072796 -0.027706081 0.05290144
000350 5d 39 05 3e 94 1e 53 3e c6 ed a7 bb 7d 6a e3 3d
       0.13010164 0.20617133 -0.0051247803 0.111042954
000360 88 a5 69 3e 1f 07 da 3e 52 43 7c 3e 73 e4 3d bc
       0.22817051 0.42583558 0.24635056 -0.011590111
000370 a1 3d 58 3d cd 24 a9 be ad e7 0a 3e cb f1 d3 bd
       0.05279315 -0.3303589 0.1356494 -0.10348853
000380 f2 20 d4 3d 70 56 c9 bd 4d 09 18 be f4 c7 47 be
       0.10357846 -0.0983094 -0.14847298 -0.1950987
000390 6b b9 ab bd 5f c4 16 3d bf ef 5f 3e c2 32 da 3d
       -0.08384975 0.036808368 0.218688 0.106542125
0003a0 a8 57 b1 bd dc 71 0e 3e b1 a2 a7 bb 7e 8a e2 3e
       -0.08659297 0.13910621 -0.00511583 0.44246286
0003b0 48 bf d3 3e b6 54 40 3e 97 22 86 3d f1 ce 9e 3d
       0.41356874 0.18782315 0.06549566 0.07754315
0003c0 93 d7 57 bd 0f b8 01 be c3 ff f1 3c 82 de e6 bd
       -0.052695822 -0.12667869 0.029540902 -0.11272909
0003d0 d3 d4 f4 3b 06 9a 5c be 98 ad 12 3e 1f a8 0a be
       0.0074716597 -0.2154313 0.14324033 -0.13540696
0003e0 ac d5 da 3d 34 60 02 be 5f 0f 86 3d 0f 73 1f bd
       0.10685286 -0.12732011 0.065459006 -0.038928088
0003f0 22 4e 96 bd 52 cd 21 be 09 71 df bd 10 e0 00 bd
       -0.073391214 -0.1580098 -0.109102316 -0.031463683

conv2.conv3.0.bias f4 [16]
000000 97 2d 48 bc 35 3d 74 bd 2e 29 18 3b ff 41 43 3d
       -0.012217901 -0.059628684 0.0023217904 0.04767036
000010 91 24 35 3b f4 5e 56 3d 3e d4 00 bd e6 b6 85 3d
       0.0027640203 0.052336648 -0.03145241 0.06529026
000020 66 76 a2 3c b0 3c e5 bc 55 68 24 3d b0 b2 27 3d
       0.019831847 -0.02798304 0.04013856 0.040941894
000030 62 33 12 bd 43 20 78 bc 92 00 30 3d be 44 96 bd
       -0.035693534 -0.015144411 0.042969294 -0.0733733

conv2.conv3.1.weight f4 [16]
000000 25 d6 59 3f c8 bd 74 3f d5 54 63 3f 25 71 8f 3f
       0.85092384 0.95602083 0.8880132 1.1206404
000010 4a 03 80 3f 4d e7 66 3f 1c a5 90 3f af 62 7d 3f
       1.0001004 0.90196687 1.1300387 0.98978704
000020 9e ed a0 3f e3 43 82 3f d6 1e 8d 3f bf f4 89 3f
       1.2572515 1.0176967 1.1025035 1.0777816
000030 47 c7 73 3f e5 74 8f 3f 55 7f 96 3f cf 19 48 3f
       0.9522595 1.1207548 1.1757609 0.7816438

conv2.conv3.1.bias f4 [16]
000000 21 d7 d1 bc 89 3a 92 bd 98 ef 8c 3c e3 c9 91 bd
       -0.025615277 -0.07140071 0.017204091 -0.07118585
000010 98 86 5f 3e 4f e3 fd bd 6b 45 a9 3e 99 f1 ce 3d
       0.21828687 -0.12396871 0.33060774 0.10104675
000020 b6 72 c7 3d 3a 50 e3 3b 86 36 c6 bc 5f 9c 3e be
       0.09738676 0.006937054 -0.02419592 -0.18614338
000030 6f c0 a6 3d 16 63 34 3e 6d ab 0b 3c 36 66 04 be
       0.081421725 0.17615923 0.008524758 -0.12929615

conv2.conv3.1.running_mean f4 [16]
000000 3d 89 83 bf b1 ca ea bd 64 ef 3c 3d 90 c3 3d bf
       -1.0276257 -0.114644416 0.04612674 -0.7412653
000010 21 10 c5 bf d3 1c f9 be 45 e8 1f bd 11 b8 97 bf
       -1.5395547 -0.48654804 -0.03903987 -1.1853048
000020 5d fb 29 3d ea ee ce bf 55 b1 ee 3e f1 5a ab bb
       0.041499484 -1.6166661 0.4661967 -0.005229347
000030 35 26 19 bf 8f c8 49 bf 9d 86 9a be 08 d3 ca 3e
       -0.59823924 -0.78821653 -0.30180827 0.3961413

conv2.conv3.1.running_var f4 [16]
000000 43 8a 86 40 a9 98 36 40 cb 63 50 40 7c bc 5a 40
       4.2043777 2.8530676 3.2560909 3.4177542
000010 de 21 a6 40 f7 ca 18 40 2e 7d 8e 40 da b9 ad 40
       5.191634 2.387388 4.4527807 5.428937
000020 e8 6f 57 40 f9 da db 3f aa 53 53 40 b8 58 af 40
       3.3662052 1.71762 3.3019814 5.47958
000030 68 ac 6f 40 e3 a3 13 40 c5 6b 93 40 fe d4 11 40
       3.7448978 2.3068779 4.6069055 2.278625
