checkpoints/ifind1_sononet_8_6classes/022_net_6classes.pth (torch_old, 671819 bytes, 90 tensors)

conv1.conv1.0.weight f4 [8, 1, 3, 3]
00000000: 11e2 e6bc a145 85be 797d 77be 8b72 e03e
00000010: 4ab3 6c3f 38ec 85bf c25e df3d 3cc7 06be
00000020: 822e 4dbe 2222 82bf 385a a33e bca4 4dbf
00000030: 1ebc 9a3e f669 02be 59f8 b6be 7897 923f
00000040: 8d20 cebc 37c7 373f 2171 303e 7371 87be
00000050: e343 b2bd dcb7 7abf 0bcb f83e 7c01 f0bc
00000060: 7c59 9dbe ccb4 a9be cffb 5dbf c1ef 81bf
00000070: 15e7 583e 199e cdbe 97c0 0bbd f353 063e
00000080: 6914 c13d 2d4d 8fbe d3a9 6e3f d267 47be
00000090: dbb7 8f3d 9895 8c3e 83e4 43be c64e de3e
000000a0: 874d d1be 47f7 80be 55d1 a5be b063 0cbe
000000b0: 7164 0c3d f376 853e fd26 a53e d346 213f
000000c0: 96a8 733f 0656 b9be ccfb 4e3e cf0e 69be
000000d0: d7e6 3fbe 7d1e 003e 8afe 603e e952 cf3d
000000e0: 808a 603c 4ff5 57bf e9a5 863e f62a 903e
000000f0: 33ec 08bf 95cc 83bd 7635 d73e db37 41bf
00000100: 500d b73e 8015 403f 19b7 6dbe b465 f83e
00000110: 77bf c9bd 5d0e 0f3d 0744 eabd 4fff 2fbe
-0.028183969 -0.26029685 -0.24168958 0.4383739 0.92461073 -1.0462713 0.109067455 -0.1316194
-0.20037273 -1.0166667 0.3190477 -0.8032949 0.30221647 -0.12735733 -0.3573635 1.1452475
-0.025162006 0.7178835 0.17230655 -0.26453742 -0.087043546 -0.979368 0.4859241 -0.029297583
-0.30732334 -0.3314575 -0.86712354 -1.0151292 0.21181901 -0.4015968 -0.034119215 0.13117962
0.09427721 -0.27988568 0.9322788 -0.19473198 0.070174895 0.2745788 -0.19130139 0.43419474
-0.4087946 -0.25188658 -0.3238627 -0.13709903 0.034275476 0.26067314 0.32256308 0.62998694
0.95179117 -0.36198443 0.2021324 -0.22759555 -0.18740402 0.1251163 0.21972099 0.10123236
0.013704896 -0.84358686 0.26298454 0.28157777 -0.5348541 -0.06435505 0.42032975 -0.75475854
0.35752344 0.75032806 -0.23214377 0.48515093 -0.09850972 0.034925807 -0.114387564 -0.17187236

conv1.conv1.0.bias f4 [8]
00000000: 6e4a 8fbc 2b20 7cbe 1c26 4bbe 5550 bd3d
00000010: d188 88be 867b 9d3e 80e0 be3c fc14 123e
-0.017491546 -0.24621646 -0.19838756 0.09243838 -0.26666883 0.30758303 0.02330041 0.14265817

conv1.conv1.1.weight f4 [8]
00000000: e7d5 863f acfe 873f 24fc 603f 94a8 823f
00000010: 1e16 7e3f 88b2 7b3f 9bb2 813f dbc0 8b3f
1.0534028 1.0624595 0.87884736 1.0207696 0.992525 0.9831929 1.0132631 1.091823

conv1.conv1.1.bias f4 [8]
00000000: e173 103d 0202 ce3d 3cee c1bd 193b 98bd
00000010: 9d28 e1bd a618 c23c 2463 033d ffcd 803e
0.03526676 0.10058977 -0.09469268 -0.07433147 -0.109940745 0.023693394 0.03207697 0.25157163

conv1.conv1.1.running_mean f4 [8]
00000000: 95e0 9dbc 8955 7cbe 559f 4ebe cf6f b73d
00000010: 8ec2 88be 4316 9f3e 673b bb3c 1799 113e
-0.019272128 -0.24642004 -0.20177968 0.08956873 -0.26710933 0.31071672 0.022855474 0.14218555

conv1.conv1.1.running_var f4 [8]
00000000: 9d69 873e eb05 fd3e bead 9440 da7b d53e
00000010: b1a2 903e 801e 3840 a651 c63d d92a 353e
0.26447764 0.49418578 4.646209 0.41696054 0.28249124 2.8768616 0.09683542 0.17692126

conv1.conv2.0.weight f4 [8, 8, 3, 3]
00000000: 9266 3dbd 7f40 2f3e 7f70 cbbd 8672 e8bc
00000010: 05d9 d03e 2b7f 903d d6d8 88be ff6a 05bd
00000020: df79 cebd 5e5c ba3e 3895 203b c571 49be
00000030: 873e 213e d87a 883e 42c2 593e 7461 23bd
00000040: 0481 51bc 2e7d a5bd 1daf 533d 5ed8 5dbb
00000050: 8e6d 32bd 9a6c bd3d 3b11 d8ba 0bc0 c53d
00000060: f919 063a 9eae 783e a92b 053d 61da f8bd
00000070: 0da1 ad3d 1b8a c8bd 6fe1 2dbe 5f35 d83d
00000080: 0b23 0c3e c4cd f13d db8c e03d aa54 6fbe
00000090: 48dd 033e 2641 35be fb11 7b3e ca54 573e
000000a0: f8cb ccbe 572b 263d 09e9 cc3d 067e fdbd
000000b0: 6cc7 94be fe80 f43c 2bf9 e93d 8bbc 53be
000000c0: cb88 203e da25 d83d 0b4f 6d3e d061 bd3e
000000d0: 4ec0 be3e 28be 3cbe f075 c3be 29d5 103c
000000e0: d15d 84be 975e 40bc c33b 693d 66bd fb3d
000000f0: 11ec 60bd 57c7 153d f819 cebd 8b3d 04bd
00000100: 34a7 48bd ecd6 4bbe 6b88 353e 70f8 c8bc
00000110: fcec adbe 9335 3e3e 7cc0 0fbb edda 5cbe
00000120: cff5 92bd 8c6e b73d 07b2 aabc ec3f 13bd
00000130: c8b2 4a3e 516e cd3d 0700 c73e df1c bdbe
00000140: 8826 aabe 1dd8 23be 636e 97bd 18e4 6e3e
00000150: dfbe 53bd b5d7 85be ce01 a83d f7cc 34be
00000160: 6798 bbbc 4250 69be a285 d23c 3739 28be
00000170: 9677 e73a 7f9e 83be c107 473e ca52 b53d
00000180: 463c ebbc adbd 643e 67e4 d8bd 1133 22be
00000190: d0f9 0d3e 3770 c1bd 55f8 b73d de28 65be
000001a0: 84da e63c b082 4f3e db8c fa3c 7232 393d
000001b0: 6cd6 0a3e fdb8 1d3e 8643 053c 3a91 99bc
000001c0: 3f3e 23be 16a1 5e3d 62b3 a2bc 533d 06bd
000001d0: 958a 863e 126d 0e3d d7f0 42be b195 513e
000001e0: ad5a 543e 3169 dd3d 91e7 8abe 336b f4bb
000001f0: b919 32be 3429 2e3e 66c3 193e 6d28 3e3c
00000200: cb4c 1dbe a4d7 bfbc 53ab 24be 3fe2 ec3c
00000210: 5b43 72be 7a0f 98be 58e3 f53e 6327 6ebe
00000220: 2b68 aebd fb08 65bc 677b 0a3e 5fe9 abbd
00000230: 8d4e 8fbc 219a 0a3e edc5 b63c 2369 053e
00000240: eeb4 633e 2f50 3cbe b678 253e 859f 26bd
00000250: 0585 22be 8057 25be f494 84bb bfcb cfbd
00000260: b5dd 56be 9f1e 883e d08c d63d 76ac 94bd
00000270: aa4f 363d 338a 2c3e 217d 703d 1fef 333e
00000280: 88c6 183e f7df b6be 2f3a b2bd 9515 3abe
00000290: f7d8 aabd d791 043e 401b 363e 105d 9fbc
000002a0: a323 ce3d d5cd dfbd f627 9dbd b697 41be
000002b0: 5447 e6bd 97c8 37be 7fee 5bbe d8d7 5ebe
000002c0: e64d 16bd 60a2 8d3d 0420 1cbe f00f a8bd
000002d0: 465f 533e 95aa 583d c2c8 3a3d fa1a 0f3e
000002e0: f6fa 893e eadf 84be 2482 4f3e 4352 1bbe
000002f0: 2f58 0e3e 2dd0 e2be 9ae2 f4bd f46d 363e
00000300: 3b64 ce3b ab74 083e 0be8 e5bd c58e d7bd
00000310: 3c82 413d e583 b83e 684d 003e 6187 fcbd
00000320: cbf6 3e3d 1669 ecbc af1a d33d c2e0 d43d
00000330: d3a8 ad3c f74b bf3d 7aaa 38be 6928 f9be
00000340: 1b3b 10be a11a a3bc 1c51 80be beeb 9c3e
00000350: 9560 b03e c4f2 94bd 53ec a03e ebc0 c33e
00000360: 4592 813e 31fd afbd 4646 1dbe 2064 863d
00000370: 11da 86be b4ca 44bd 1240 8dbe 357e 03be
00000380: bcb3 2cbe 0fab 993e e3b9 cf3d 8d22 83be
00000390: 282c df3d 9c24 6e3d 4729 83be 6a47 cc3c
000003a0: 3dc3 0bbe 6e16 fe3e 2e82 193d 1e3d 003d
000003b0: 98a6 9cbb a662 893e 5883 1abc e6ab 05bf
000003c0: 0623 9bbd 76ba e1bd 4be4 8e3e 7d71 8dbe
000003d0: 82a8 05bc 71b7 ff3d 7677 e23d 9e89 77bd
000003e0: f9c0 773d be0a 64be 0c77 053d 552a e43b
000003f0: e781 04be 00df 48be a88f 1d3e 4ae1 633e
-0.046240397 0.17114447 -0.09933566 -0.028374922 0.40790573 0.07055505 -0.26727933 -0.032572743
-0.10081839 0.36398596 0.0024503004 -0.19672306 0.15746509 0.26656222 0.2126551 -0.03988786
-0.012787107 -0.08080517 0.051680673 -0.0033850889 -0.04356151 0.0924923 -0.0016484627 0.0965577
0.00051155646 0.24285361 0.03251234 -0.121510275 0.084779836 -0.097919665 -0.16980527 0.10557055
0.13685243 0.11806825 0.10964366 -0.2337214 0.12877381 -0.17700633 0.24518578 0.21028438
-0.39999366 0.040568676 0.100053854 -0.12377553 -0.29058397 0.029846665 0.11424478 -0.20677392
0.15677182 0.105540946 0.23174684 0.36988688 0.37256092 -0.18431914 -0.38175917 0.008839884
-0.25852826 -0.011741302 0.05694176 0.12291984 -0.05491263 0.03656706 -0.10063547 -0.032285254
-0.048987582 -0.19906205 0.1772782 -0.024532527 -0.33969867 0.18575124 -0.0021934798 -0.21567889
-0.071757905 0.08956632 -0.020836843 -0.035949633 0.19794762 0.10030807 0.38867208 -0.3693609
-0.33232522 -0.1600041 -0.073941015 0.23329198 -0.0516957 -0.26141134 0.08203469 -0.17656313
-0.02289982 -0.22784522 0.025698487 -0.16428076 0.0017659541 -0.2570686 0.19436552 0.088536814
-0.028715264 0.2233798 -0.10590439 -0.15839793 0.13864827 -0.094452314 0.089829125 -0.22378871
0.028180368 0.20264697 0.030584743 0.045214124 0.13558358 0.15402599 0.008133775 -0.018746007
-0.15941714 0.054352842 -0.019860927 -0.032773327 0.26277605 0.034771986 -0.19037186 0.20467259
0.20737715 0.10811079 -0.27129796 -0.007459068 -0.17392625 0.17007905 0.15015945 0.011606318
-0.15361325 -0.023418255 -0.1608098 0.028916476 -0.23658507 -0.29699308 0.48025012 -0.23257212
-0.08515962 -0.013979192 0.13523637 -0.083941214 -0.01749351 0.13535358 0.022311175 0.13028388
0.22236988 -0.18389963 0.16159329 -0.040679473 -0.15871055 -0.1614666 -0.004046077 -0.10146283
-0.20983012 0.26585862 0.104760766 -0.07259457 0.044509567 0.16849594 0.058713082 0.17571686
0.14919484 -0.35717747 -0.08702504 -0.18172295 -0.08342164 0.12946258 0.17783833 -0.019453555
0.10065391 -0.10927931 -0.076736376 -0.1890553 -0.112440735 -0.17947613 -0.21477698 -0.21762025
-0.036695383 0.06915736 -0.15246588 -0.08206165 0.20641813 0.052897055 0.045601614 0.13975134
0.2694928 -0.25952083 0.20264488 -0.15168099 0.13900827 -0.4429945 -0.11957283 0.17815381
0.0062985695 0.13325755 -0.11225899 -0.10525278 0.04724334 0.36038128 0.12529528 -0.12330509
0.04662208 -0.028858703 0.10307824 0.10394432 0.021198666 0.09340661 -0.18033782 -0.48663643
-0.14085047 -0.019910159 -0.25061882 0.30648607 0.34448686 -0.07272866 0.314303 0.38233122
0.25306907 -0.08593214 -0.15358838 0.06562066 -0.26338246 -0.048044875 -0.27587944 -0.12841113
-0.16865438 0.3001332 0.10142877 -0.25612298 0.10897094 0.058140382 -0.2561743 0.024936397
-0.13648696 0.49626487 0.037477665 0.031308286 -0.0047806017 0.26833075 -0.009430729 -0.5221542
-0.075750396 -0.11021893 0.2790855 -0.27625647 -0.008157851 0.124861605 0.110579416 -0.060433976
0.060486767 -0.22269723 0.032584235 0.006963054 -0.12940179 -0.19616318 0.15386832 0.2225391

conv1.conv2.0.bias f4 [8]
00000000: 1828 d4bd de9b 473d 2187 3dba 9ce0 d93c
00000010: 03ed ab3c 685d dfbd 6a1a 9bbb e319 a7bd
-0.1035921 0.04873263 -0.00072299136 0.02659636 0.02098704 -0.10906488 -0.0047333734 -0.081592344

conv1.conv2.1.weight f4 [8]
00000000: aae0 833f 004e 933f 125e 743f ea04 843f
00000010: 61dd 6c3f 1bca 833f c479 833f ec15 703f
1.0302937 1.1508179 0.9545604 1.0314 0.925253 1.0296053 1.0271535 0.9378345

conv1.conv2.1.bias f4 [8]
00000000: e0ec 1c3d 1247 033e 84d1 98bd a13a 0fbd
00000010: 90bb 1dbe 2ed3 853d 527a b1bc 5901 06bd
0.03831184 0.1282008 -0.07461837 -0.034968022 -0.1540358 0.0653442 -0.021664772 -0.03271613

conv1.conv2.1.running_mean f4 [8]
00000000: bdcb d43d b970 90bd 349b 27bd 3654 07bf
00000010: 408f 313e 7e7e 5abf 4403 48bf 70dc 0a3f
0.103904225 -0.0705275 -0.040919498 -0.5286287 0.17339802 -0.8534926 -0.7812998 0.5424261

conv1.conv2.1.running_var f4 [8]
00000000: 83fa 8a3f 75ce be3e 5d94 8e3f bf3b 143f
00000010: 445f 3c3f 358b f33f 6de4 0140 efc4 ea3f
1.08577 0.3726689 1.1139027 0.57903665 0.73582864 1.9026858 2.029567 1.8341349

conv1.conv3.0.weight f4 [8, 8, 3, 3]
00000000: 8032 4f3e 612c e63d c7da fb3d 5ec2 a6be
00000010: 1852 7bbe e38e e23d 4ca2 2c3e 9e24 9a3d
00000020: 22b5 ccbc e6a7 70bd 60c0 df3c 1890 9d3d
00000030: 97be 303d e5e7 ce3d 8d6d 4fbe 9f94 3e3d
00000040: 86c3 11bd b719 0dbe 498d 143e 1b2a 133e
00000050: 8eb3 f5bd eb07 b53d cde6 b3be 2119 5cbe
00000060: 5541 f7bd 9399 63be 5f78 d93d 3b06 fdbd
00000070: 4733 80be 46fd 083e 5d9a 2dbd 9342 81bd
00000080: adca 16bb 79c0 ee3d 5f2c b3be b59e 8d3e
00000090: ff6f b8bd 664d 75bd 2d6e bebe 53e7 5ebe
000000a0: bf3f b5be 852c a8bd 9c33 303e 968a 2b3e
000000b0: 3809 e73d ee82 0bbe d322 ac3d b30e 86be
000000c0: 8d81 a0be 5635 93be a584 1dbe 8535 843e
000000d0: 7625 b8be 54c6 ae3d a847 943e 8250 e23c
000000e0: d29b 75be 5137 d2be b34e 41bd 71ab 1ebc
000000f0: cc96 84be 6e96 bcbd 20eb 273e 4279 123d
00000100: 6166 19be 5b44 b23d 5875 6e3d d8c6 29be
00000110: b5d5 9abe 7c1f d4bd f185 293d 659e 14bd
00000120: 0194 2b3e 72ef 89bd 41e0 293b 485f f2bc
00000130: 6087 b8bd 80d1 bbbd 60d7 e23d 7895 893d
00000140: 2b9a b9bd c2e2 6abe de1c f1bc ce97 ae3e
00000150: 6636 a23d 60ba d1bd e9d5 0e3d 69f0 943e
00000160: 4a53 afbe 1d7c 233d d94a 8039 2955 8ebd
00000170: 41f8 b2be da4e adbe 6e0b 29be b44e 77bd
00000180: 9ab0 693d 2591 82be df40 39be d82d a03e
00000190: b244 62bd e00b 09be ddf8 8b3e e74a 9bbe
000001a0: 2bea 83bc 229b 6fbd aba7 5ebe 232e e93d
000001b0: 0070 1dbe c57a f3bd 191f 193e c32c 87be
000001c0: 743c 1f3e 8796 4e3c e815 5bbc cb84 83be
000001d0: a7a3 f5bc e916 a8bd 5fe8 263d b814 94bd
000001e0: 424d 833d 3c9f 2d3e 3f95 f63d 8e1e 133d
000001f0: f6a8 4cbe 83de a4bd c591 04bc 92b6 b43e
00000200: fa30 383e 86aa cabd fd8b 2e3e 169c ecbd
00000210: 69a5 2c3e 28bd 98bb e7c9 483b f811 a6bd
00000220: e017 a73e c3c0 4bbe 9f39 b0be 8ec1 1fbc
00000230: 56a2 543d 73de 853e 9051 7e3e 6243 63be
00000240: 9cb4 a2bd 28ae 133e 0b2a a8be 3436 a23e
00000250: 913d 313e 477c 40be 8367 f03d cafe fc3d
00000260: e513 da3c 0011 f0bd 345e 79be 0380 41bc
00000270: 6982 493e 3d33 993d 0610 9abc 4235 503e
00000280: cecc 3fba 6a4f b5bd 08c4 8a3e e6bb 07bd
00000290: 22fe 213e 9193 923d f2f1 063d 4af2 9a3e
000002a0: e581 83bd 262b 123d 4e63 ac3e 5d28 ab3d
000002b0: deac a93e 6a63 a73c 346c 0c3e b297 233e
000002c0: 9146 213e 5625 273e ccd4 bdbc 4f54 803c
000002d0: 6077 3abd a063 9bbe db4a c3bc 9324 303e
000002e0: 7129 94be cfc7 9ebe 84b1 31bd 37d0 4e3e
000002f0: 34a8 113d a9bd 4cbe 6e88 4ebe dbfa 94bd
00000300: 4aec 1cbe 891c 1c3e 889e 3bbe d778 bdbd
00000310: ad4d 5cbc 7e31 2dbe 718f cebd 1281 04be
00000320: 5d8c 87bd 4d2d 3f3e a373 323e 4aa9 bf3d
00000330: 48b2 953d e832 ddbd 37f2 2abe 38a2 c8bd
00000340: a9d1 82be 7fd5 a7bc 6320 bb3d b320 67be
00000350: 19f0 00be 6b2f fd3d 1e89 68be 9d0f 813e
00000360: 6284 5fbe a739 28bd 433b b2bd 28e6 a23d
00000370: c161 99be ff58 fdbc eebf 87be 986b 49be
00000380: db15 b33e e98a ad3d 98c9 0dbf fbae 2f3e
00000390: 536b 953e 6f7d f6bc d749 fcbd 70eb b7be
000003a0: bd5c 943e 6350 033e c9ce 73be 6d37 5fbd
000003b0: a6b0 e3bd 4115 1fbe 7547 2cbc f48e ab3e
000003c0: f23c 413e 2b5a 6cbe 0bd9 a8be 6945 acbe
000003d0: 17da c23e 7977 253c 56f0 03bd a551 633e
000003e0: 22c6 15bc 15af 473e b806 133e cdba 8abe
000003f0: 5291 8fbe d1c3 733d 674e c73d d0f7 0d3e
0.20234108 0.11238933 0.12297588 -0.32570165 -0.24543035 0.1106241 0.16858786 0.075265154
-0.024988715 -0.05875387 0.027313411 0.07693499 0.04315051 0.10102824 -0.20256634 0.046528455
-0.035586856 -0.1377934 0.14507021 0.1437153 -0.11997138 0.08839401 -0.35137025 -0.21493961
-0.12073008 -0.22226553 0.10618662 -0.12354704 -0.25039122 0.13377866 -0.04238354 -0.06311526
-0.0023008988 0.11657805 -0.3499479 0.27660146 -0.090057366 -0.059888266 -0.37193432 -0.2176793
-0.35400197 -0.082116164 0.17207187 0.16752085 0.11281055 -0.13624164 0.0840508 -0.2618309
-0.3134884 -0.2875163 -0.15382631 0.25822082 -0.3596608 0.08533922 0.2896092 0.02762628
-0.23985222 -0.41057828 -0.047194194 -0.0096844295 -0.258963 -0.0920838 0.16398287 0.03576017
-0.1498046 0.08704444 0.058217376 -0.16579759 -0.3024117 -0.10357568 0.041387502 -0.03628387
0.16755678 -0.06735124 0.002592102 -0.02958645 -0.09010196 -0.09170818 0.11076236 0.06717962
-0.09062608 -0.22938064 -0.02943271 0.34100193 0.07920532 -0.10240626 0.03487197 0.29089668
-0.34243232 0.039913286 0.00024469828 -0.06949837 -0.34955028 -0.3384922 -0.16508266 -0.06037779
0.057053186 -0.2550136 -0.18091153 0.31284976 -0.055241294 -0.13383436 0.27338305 -0.30330583
-0.01610287 -0.058497556 -0.21743648 0.11385753 -0.15374756 -0.11888651 0.14953269 -0.26401338
0.15550405 0.012609131 -0.013371922 -0.2568725 -0.029985262 -0.08207495 0.04074895 -0.07230514
0.0641122 0.16955274 0.12040185 0.03591781 -0.19986328 -0.08050253 -0.008091395 0.3529554
0.17987433 -0.09895806 0.17045589 -0.115532085 0.16859974 -0.004661221 0.0030637921 -0.08108896
0.32635403 -0.19897752 -0.3441896 -0.009750737 0.051912628 0.26146278 0.24835801 -0.22193673
-0.07944605 0.14421904 -0.32844576 0.3168198 0.17308642 -0.18797408 0.11738493 0.12353285
0.026620815 -0.117219925 -0.24352342 -0.0118103055 0.19678654 0.07480476 -0.018806469 0.20332816
-0.000731659 -0.08853038 0.27102685 -0.03313818 0.158196 0.07157052 0.03294558 0.30262977
-0.0642126 0.03568568 0.33669513 0.08357308 0.331397 0.020433147 0.13713151 0.15975836
0.15749575 0.16322836 -0.023172759 0.015665201 -0.045524 -0.30349445 -0.023839405 0.17201452
-0.28937867 -0.31011817 -0.043382183 0.20196615 0.0355608 -0.19994225 -0.20169231 -0.072744094
-0.15324512 0.1524526 -0.18322194 -0.09251564 -0.013446254 -0.16913411 -0.10085953 -0.12939861
-0.06618569 0.18669625 0.17426924 0.09358461 0.07309395 -0.10800725 -0.1669396 -0.09796566
-0.25550583 -0.020487545 0.09137037 -0.22571068 -0.1259159 0.1236256 -0.22708556 0.25207224
-0.21827844 -0.041070607 -0.087027095 0.07954055 -0.29957393 -0.030926226 -0.26513618 -0.1966995
0.34977612 0.08473761 -0.5538573 0.17156594 0.29183444 -0.030089108 -0.12318771 -0.35921812
0.28977004 0.12823634 -0.23809351 -0.054496218 -0.111176774 -0.15535451 -0.010515084 0.33507502
0.18870905 -0.23081271 -0.3297809 -0.33646706 0.38057014 0.010099285 -0.032211624 0.22199114
-0.009141477 0.19500382 0.14358032 -0.27095643 -0.28040558 0.059512917 0.09731751 0.13864064

conv1.conv3.0.bias f4 [8]
00000000: a28c d7bc 1546 6bbc c36b 9abd 5a57 e83b
00000010: 2ed1 94bd 8645 c1bd c30a d93d ee1f 20bb
-0.026312176 -0.014359971 -0.07540085 0.0070904912 -0.0726646 -0.09437089 0.10597756 -0.0024433094

conv1.conv3.1.weight f4 [8]
00000000: 0877 833f 1c03 893f 5b65 823f a8ad 7a3f
00000010: 0d01 6b3f df13 853f 7424 843f 3db3 7c3f
1.02707 1.0704074 1.0187181 0.9792123 0.9179848 1.0396689 1.0323625 0.98710996

conv1.conv3.1.bias f4 [8]
00000000: 4af3 e73c 83b9 e53d 59a6 083e dc14 d13d
00000010: 12fe 0a3d 5cf6 b43d 9810 cc3d 8050 393d
0.028314251 0.11217024 0.13344707 0.10209057 0.033933707 0.08836052 0.099641025 0.045242786

conv1.conv3.1.running_mean f4 [8]
00000000: 1d3d a9bf 64e1 a1be 10b7 613d f13d b2be
00000010: 06aa 8bbf 5284 39bf ed7b 1cbe e371 86be
-1.3221775 -0.31617272 0.055106223 -0.34812883 -1.0911262 -0.7246753 -0.15281649 -0.26258764

conv1.conv3.1.running_var f4 [8]
00000000: 840a 693f b639 af3f 41ef e73f 732e 1f3f
00000010: 99a6 c73f 725a 3240 8ef0 953f d169 0340
0.9103167 1.3689487 1.811989 0.6218025 1.5597717 2.7867703 1.1714036 2.0533335

conv2.conv1.0.weight f4 [16, 8, 3, 3]
00000000: e8ca 28bd d68d d63c 7c35 1dbe b7fe 8bbe
00000010: 5258 ae3c 460d b53e ad69 663e 4513 dcbd
00000020: 3034 893d 55c6 153d 4fbe 0bbd 398b 1f3c
00000030: 9250 32be 66dc 9abd 9574 b9bd b146 bc3d
00000040: 3af2 113e 24a6 3ebe 93df bfbd 1c7b c8be
00000050: 8211 003e a5a9 9bbc 4f39 983e 3025 fd3d
00000060: 6697 233e b333 5a3e 33a6 dcbc 3d16 153e
00000070: 4427 fa3d 8e76 5b3d fdb6 a43e ffb8 dfbd
00000080: 957a 9bbe 2d99 d7bd b870 23bd 504c cbbc
00000090: 26a9 db3c c8f3 b7bd ddf2 2cbc 6aeb 903e
000000a0: 34e4 c1bd b697 22bd 944f 25be b439 4dbd
000000b0: 24d0 c3bd 3b47 ccbc 3552 35be 8ffa e83d
000000c0: 822d 4cbe f817 04be 0627 11be e95d 4dbe
000000d0: 7eec febd 4f77 45be 7718 74be 1fcb 04be
000000e0: 66c0 97bd 2dea dd3c 0ec9 23bd 2de1 25bd
000000f0: 68d6 c6ba 5d0d 1dbe 0dc0 50bd 89ca 033e
00000100: 0825 09be 0406 8b3d 90cd d8ba e396 803e
00000110: 345e 343c db57 d93c 0826 203e eeae b53e
00000120: a414 d3bd 5716 c33d bb2f abbe 5004 a1bd
00000130: 44f3 43be 2e4a 84be 1a03 573e e3d2 1cbe
00000140: 0492 643e 0f03 a33e 4e35 863e fae8 b63d
00000150: ae6e 6e3e 979c 743e 7fc1 d9bd 5669 813c
00000160: c905 5b3e 4eb5 303e 5cda 35be 76c2 18be
00000170: 739c 8ebe 19c9 083e 381c 14be f94f 91be
00000180: e9dd 5bbe e83f 513e 16b3 bb3c efeb 71bc
00000190: ff73 44be 5a16 153d a475 a93e 300f 94be
000001a0: 9002 023e cca5 e53d f2d0 7bbe c750 533e
000001b0: 7881 553d a359 b43a 3b4d 71be d043 bf3d
000001c0: a0ba 9fbc 30a7 02be d793 a4bd 4083 133e
000001d0: ca10 f7bd 5e9e 21be c246 23bb 1855 1e3c
000001e0: 8ddf c6bd f3f0 29bd 4152 b5be 964a 5c3e
000001f0: db4d a7bd 90e5 6e3e e262 923d f72e 6e3e
00000200: 52f6 09be b83f 993e 9055 013e 390b d83d
00000210: d458 a73d 48e6 483e 05f4 d0bd 16fb 8bbc
00000220: 7df6 c2ba b9a3 ac3d c40e 413e 3c3f dbbe
00000230: 57f9 c2bd 2c54 dc3d 58ab 34bd d808 aa3b
00000240: 3af9 1dbe 7660 19be ae98 b33d 314d f9bd
00000250: 22cd c33d 2d84 093f 518e 9c3d 0f59 3cbe
00000260: 170a 123e 7b18 0dbd e4b8 2fbe 1f36 76be
00000270: f91c 243e f923 25bd 19b6 553e 8372 3dbe
00000280: 81a0 203d 83fa 273e 9178 2ebe a180 8fbe
00000290: 52a7 6bbe 6f7a bebd 1f8e 293e 722c 7c3e
000002a0: 2e7a 583e 7a8a 453e e130 2dbe 9efa 38be
000002b0: ce91 fd3e b879 5b3e 08a7 133d 39bc 9a3e
000002c0: 064b e1bc a5ed 143e cdd3 89bc 3e6a 4c3c
000002d0: 2215 3a3e 15e6 123e 61ec e83c 9c5d 40bd
000002e0: 3ee5 83bc bf29 04be e797 00be e005 1a3c
000002f0: 1af6 963d 09b5 44be da02 91be 0419 063e
00000300: 7a48 f1bd 90b3 f63d c327 64be 71b7 94bc
00000310: 6320 153e f89a ab3c 0477 35be ae3a 86be
00000320: fe03 a4be ac81 02be 654c 2dbd d9ed 563d
00000330: d6ad 813e d03c f23c 509f 4bbd a7a7 3cbe
00000340: 3ea4 01be 0999 f03d 5299 22be 2305 933e
00000350: 9f24 373b 46bb c4bd cd07 99be 8414 243d
00000360: 6912 bc3d 549c 20be 9670 603d b454 93be
00000370: 6a37 93bd 3631 a23c c7b7 ab3e c595 adbc
00000380: 5611 0ebe 0324 68be 60a8 1cbe 7bec 85be
00000390: fe6a a5bd e3b3 7f3e b478 d13d 3d1c 653d
000003a0: bf30 15be efb0 b1bd 2a99 a33c f237 f23a
000003b0: b5a7 01bd 43ce 36be 14d1 98bd e033 963d
000003c0: 4274 edbd 641a 9e3d fe19 033e e193 a83d
000003d0: a5d9 7bbd 7b37 cebc d9c8 adbe 4cf0 9a3d
000003e0: 25db 1dbd efc7 94be 903b 56bd 0103 593e
000003f0: 7c09 8c3b 7e37 a8bc b580 acbd c615 663e
-0.04120913 0.02619068 -0.15352434 -0.2734277 0.021282349 0.3536169 0.2250125 -0.10745863
0.06699407 0.036566097 -0.03411704 0.009737783 -0.17413548 -0.07561569 -0.090554394 0.09193171
0.14252558 -0.18618065 -0.09368815 -0.39156425 0.12506679 -0.019001791 0.29731223 0.123606086
0.15975723 0.21308784 -0.026934719 0.14559264 0.122145206 0.05357986 0.3217086 -0.10923957
-0.3036696 -0.10527263 -0.03990242 -0.024816662 0.026814055 -0.089820445 -0.01055595 0.28304607
-0.094673544 -0.039695464 -0.16143638 -0.050103858 -0.09561184 -0.02493631 -0.1770714 0.11375915
-0.19939235 -0.12899768 -0.14175043 -0.20055355 -0.12447451 -0.19283794 -0.23837458 -0.1296811
-0.07409744 0.027089203 -0.039986663 -0.040497947 -0.0015170099 -0.15337129 -0.050964404 0.1287023
-0.13393033 0.06788257 -0.0016540755 0.25115117 0.011008788 0.02653115 0.15639508 0.35485023
-0.10306671 0.09525745 -0.33434853 -0.07862151 -0.19135767 -0.25837845 0.20997277 -0.15314822
0.22321326 0.3183827 0.26212543 0.089311555 0.23284408 0.2388786 -0.106326096 0.015797298
0.21388926 0.17256662 -0.17759079 -0.14917931 -0.27853736 0.13357963 -0.1446389 -0.28381327
-0.21471371 0.20434535 0.022912543 -0.014765724 -0.19184874 0.03639827 0.33097565 -0.28917837
0.1269629 0.11213264 -0.24591425 0.20636283 0.052125424 0.0013759624 -0.23564617 0.09339106
-0.01949817 -0.1275909 -0.08036011 0.14405537 -0.12063749 -0.15783069 -0.0024914 0.009663843
-0.09710608 -0.041489553 -0.35414317 0.21512827 -0.081691466 0.23329759 0.07147767 0.23260103
-0.1347287 0.29931426 0.12630296 0.105490156 0.081712395 0.19619095 -0.10202793 -0.0170875
-0.0014874485 0.08429665 0.18853289 -0.42821681 -0.09520214 0.10758242 -0.04410872 0.0051890425
-0.15427104 -0.14978203 0.08769356 -0.12172926 0.0956061 0.5371731 0.07644332 -0.18393348
0.14261661 -0.034447175 -0.17160374 -0.24044083 0.16026677 -0.04031751 0.20870246 -0.18500714
0.03921557 0.16404156 -0.1703818 -0.28027824 -0.23013046 -0.09300696 0.16558121 0.2462633
0.21140358 0.19291106 -0.16913177 -0.18064353 0.49525303 0.21433151 0.036047965 0.30221727
-0.027501594 0.14543779 -0.016824627 0.012476502 0.18172124 0.14345582 0.028433027 -0.046964273
-0.016100522 -0.1290655 -0.12557946 0.009400815 0.07371159 -0.19209684 -0.28322488 0.1309548
-0.11781402 0.120459676 -0.22280793 -0.018153878 0.14563136 0.020947918 -0.17721182 -0.26216644
-0.32034296 -0.12744778 -0.042309184 0.052472923 0.2532794 0.029570013 -0.04971248 -0.1842333
-0.1266031 0.11747939 -0.158788 0.28714857 0.0027945412 -0.09606032 -0.29888764 0.040058628
0.09183199 -0.15684634 0.05479487 -0.2877556 -0.07188304 0.019798856 0.33538648 -0.02118958
-0.138738 -0.22669987 -0.15298605 -0.26156983 -0.08077048 0.24970965 0.102281004 0.055935133
-0.14569376 -0.086763255 0.019970495 0.0018479808 -0.03165408 -0.1785212 -0.074617535 0.07334113
-0.1159444 0.07719877 0.12802884 0.08231331 -0.06148686 -0.02517294 -0.33942297 0.07565364
-0.03853907 -0.29058787 -0.052302897 0.21192552 0.0042735916 -0.020534273 -0.084229864 0.22469243

conv2.conv1.0.bias f4 [16]
00000000: 250b a0bd f777 0abd 9321 d23d 18e1 1c3d
00000010: 7c1b e83d 0d74 3aba ae0f 80bd 3258 b13c
00000020: 9b1a e4bb 6149 cabc c7c8 a139 de7b 90bd
00000030: 7626 133d 37ee 8dbc 1859 aebd 10cf cebd
-0.07814626 -0.033805814 0.1026031 0.038300604 0.11333367 -0.000711263 -0.06252991 0.0216485
-0.0069611794 -0.024693193 0.00030857904 -0.07054876 0.03592535 -0.017325504 -0.08513087 -0.10098088

conv2.conv1.1.weight f4 [16]
00000000: d253 833f 2b60 883f 1ea9 7a3f 71d1 713f
00000010: f752 863f 402f 5e3f 4556 813f 1c1b 8a3f
00000020: 9274 643f 6478 6b3f 1e54 773f e984 8a3f
00000030: c305 6b3f b21b 853f 4e5d 783f 88c6 8c3f
1.0259955 1.0654348 0.979143 0.9446021 1.0494069 0.8679085 1.0104452 1.0789523
0.8924037 0.91980577 0.9661273 1.0821811 0.91805667 1.0399077 0.9701737 1.0998087

conv2.conv1.1.bias f4 [16]
00000000: b65b 783b 7c1d 013e 3d13 15bb 96c2 21bb
00000010: 42aa 103d 0240 34bd 9b6d bc3c 4190 a03d
00000020: 82f0 753c fe78 bcbd 929c 9cbd 9dcf 003c
00000030: 339c a2bd e0d8 203d d3ae 33bd 750d 373d
0.003789646 0.12608904 -0.0022747063 -0.0024682633 0.03531862 -0.044006355 0.023001483 0.07840014
0.015010955 -0.09202765 -0.07647051 0.007861999 -0.07939949 0.039269328 -0.043867897 0.044690568

conv2.conv1.1.running_mean f4 [16]
00000000: ea65 0dbf 9c50 093e f14b 243c 64ad 1fbe
00000010: 8a56 813f 8e2a 883e 937e 7bbf f313 58bf
00000020: 8732 21be 0860 6d3e 46bd 8d3c baae 87bf
00000030: 8722 b4bf 8f19 543e db4c 19bf f4f5 08c0
-0.55233634 0.13409656 0.0100278715 -0.15593487 1.0104535 0.26594967 -0.9824001 -0.8440544
-0.15741931 0.23181164 0.017302167 -1.0600197 -1.4073037 0.20712875 -0.598829 -2.1400118

conv2.conv1.1.running_var f4 [16]
00000000: bf37 f93f 39b7 9f3f 304e bb3f b4d0 ca3f
00000010: 8da8 403f e5f4 7f3f 1f37 1040 7195 753f
00000020: 3c05 893f 5126 a23f 4c24 833f 9200 8f3f
00000030: b776 2e3f 6f53 f93f 997a e43f c76c 833f
1.9470137 1.247779 1.4633236 1.5844941 0.7525719 0.99983054 2.2533643 0.95931154
1.0704722 1.2667943 1.0245452 1.1172049 0.68149894 1.9478587 1.7849914 1.0267571

conv2.conv2.0.weight f4 [16, 16, 3, 3]
00000000: 6614 0cbe 2827 ea3d 9bb3 013e 40f9 2fbd
00000010: 5b63 95be 50db a1bc ba3e 4cbe 041c 9e3d
00000020: cfdd edbd ecbd 253d ded4 073e 5ec4 da3c
00000030: f131 99be a352 233e 41d3 5fbe 283f 75bd
00000040: 2c40 dcbc 3c86 11bd 4385 523d 39c4 ce3d
00000050: d5c2 a8be 1dc1 1a3d f132 ac3c a248 2abe
00000060: 4f31 963c e471 60bd a9c2 59bd bf33 b13c
00000070: 35cb 9abd df9e 0c3e 8d9d 59bd 8339 493e
00000080: 97bd b63d d3cc aabc 4bf2 1cbd 157f bdbd
00000090: 9e08 4e3e 1034 bdbd 5a88 c43d 7faf 8abe
000000a0: 6190 2b3d e505 e4bc 995c 853e 71e4 5ebe
000000b0: 4b85 55be 0b9b f03d 2260 4dbe aafd 563e
000000c0: 5ba9 14be 9013 e33d 8e35 4abd be0e 12bd
000000d0: dfa3 58bd 84d5 423e b517 a2bd 42fa 063e
000000e0: 30c7 173e b723 babc cc78 c23e bd12 ab3d
000000f0: 939d 133e 6604 e6bb 2992 7bbc decf 083e
00000100: d1f8 edbb 4fee 14be 4f03 993d 7d3c 98be
00000110: b402 36be 16fd 4cbd d449 523b 39a9 71bd
00000120: 0e54 d73d b6ca f2bc af11 0abe 7206 6bbe
00000130: 7e0e f63b 9168 91bd 78b7 c0bd f160 323e
00000140: 4be3 9f3d d8d2 b2bd b288 45bc 24e6 1f3e
00000150: 5f7c de3d b6cb 50bd 949c 6ebe c12b 41be
00000160: bed4 dcbd 8317 6fbd 7b5d c33d a6e3 ee3d
00000170: 96fc 16bd 088e 2cbe 41bf 0a3e 22c0 79be
00000180: 1055 25bd 858f b33d 0b38 e1bd 3b9b b53d
00000190: 80c9 b33d 8aac ab3d 2a33 a9bb 75e1 46bd
000001a0: 461d 633d 3c30 383e a49e 543d e486 703e
000001b0: 3af9 96bd a27e 9e3d f877 43bd 923e aabd
000001c0: 6ebf 41be 71a1 763c 3767 59bc f975 303c
000001d0: 9364 5abd 546b ac3d 90eb 513e 4170 0fbe
000001e0: be74 cbbd 9e7b 57be 52f9 20bd cb09 8e3d
000001f0: e60f 7a3d 3c8b 11be 33f0 13be fbfa 08bd
00000200: de56 2a3e e722 dabd 7856 5c3d 1d70 eebd
00000210: 4404 743d b74b df3c e60f 41be e58c 28bd
00000220: 6ebd ec3d ae9c f5bc 6986 ab3d 203f fdbc
00000230: 628d 6bbc 8e11 9dbe a5e3 663d c936 b4bd
00000240: da04 c2bd 631e aa3c c1d2 0b3e fdce 273b
00000250: c3bd 9d3d 8f3c 813d 1355 45bd 94bf bb3d
00000260: 60ad 8cbd 0d39 253e e990 723e 9f73 1c3c
00000270: 014b fbbd 3703 743c 9314 093d 690a a23d
00000280: d88f 48be 1469 46bc 8f26 ab3d f6dd 0e3d
00000290: ba4b e2bd c4a1 673e c695 ffbd 4a26 283d
000002a0: d08c 24be b658 e23d f588 3c3e d2b4 263e
000002b0: ea60 8d3d 2fd9 6fbd f89a 1e3e fc13 52bd
000002c0: 8db5 133e 329b 363e 5178 033e 902b 6f3d
000002d0: 45be 41be a42e 163d 1edb f83c f3b9 88bd
000002e0: ac52 933d d717 cd3c 0a43 08be e938 15bd
000002f0: 0a03 7fbd b0cd a03d 0790 ba3b 2cea c2bd
00000300: 4b62 00bd 1528 de3d 5863 7ebe cf74 7d3d
00000310: 2f93 3bbd a519 173d 28e4 f4bc 540b efbd
00000320: d7d7 cb3d b253 c53d c3e3 0cbe a261 90bd
00000330: 79bd 6d3d 4dfd 7f3d bca9 653d 4e8c 58be
00000340: 6307 cdbc 39e2 90bd e188 66bd 1f6f e7bd
00000350: 2982 f0bd bcda 1ebe 9131 6d3d 7aae 563d
00000360: 6776 823e 7b37 13bd a713 eabd 5f25 abbc
00000370: c7d3 263e e3a8 393d 78c7 3abd 89ae ea3d
00000380: 17cc 7f3e b77b 36bd 213b 8abd 3f9d 39be
00000390: 561b 06be a443 47bd a68f 1ebe 10a8 31be
000003a0: 75f5 b3bd db7c 6c3d ffeb 483d 4509 163e
000003b0: 4dc7 7dbd 0790 603e 6043 ec3d 7a5a 923d
000003c0: ef42 cf3d 0adc 8a3e beef 23be c6a1 4ebd
000003d0: d0d5 cc3e 34e6 d83d 2ce0 1cbd 4d91 2bbe
000003e0: 92db 4b3d 9376 e5bd c961 cd3d 0c0b 0dbe
000003f0: 667c d93d 97ba f1be 8ff7 973e c394 e23d
-0.13679656 0.1143325 0.1266617 -0.042962313 -0.29177365 -0.019757897 -0.19945803 0.07720187
-0.11614572 0.040464327 0.13264796 0.026704963 -0.29920915 0.15949492 -0.2185793 -0.059874684
-0.026886068 -0.035528407 0.05139662 0.1009602 -0.32961145 0.037781823 0.021020385 -0.1662927
0.018334059 -0.054796115 -0.053164158 0.02163112 -0.0755829 0.1373248 -0.053128768 0.19650845
0.0892288 -0.02084962 -0.038317006 -0.092527546 0.20120475 -0.09238446 0.095963195 -0.27087018
0.041885737 -0.027834842 0.2604721 -0.21766831 -0.20851628 0.11748322 -0.20056203 0.20995203
-0.14517729 0.110877156 -0.04936748 -0.03565859 -0.052890655 0.19026762 -0.07914678 0.13181403
0.14822078 -0.022722108 0.37982786 0.083531834 0.14415579 -0.0070195673 -0.0153546715 0.13360545
-0.0072623272 -0.14544033 0.07471334 -0.2973365 -0.17774469 -0.05004605 0.0032087462 -0.058999274
0.10514079 -0.029637676 -0.13483308 -0.22951677 0.007509052 -0.071000226 -0.09409994 0.17419793
0.078070246 -0.087316215 -0.0120565165 0.15615135 0.10863566 -0.050975524 -0.23301917 -0.18864347
-0.10782765 -0.058372032 0.09539314 0.11664514 -0.03686198 -0.16851056 0.1354952 -0.24389699
-0.040364325 0.087676086 -0.109970175 0.088674985 0.087786674 0.083825186 -0.00516357 -0.048554856
0.05544784 0.1798715 0.051909104 0.23488957 -0.07371755 0.07738997 -0.047721833 -0.083127156
-0.18920681 0.015053139 -0.013269237 0.010770314 -0.05331857 0.08418909 0.20500016 -0.14007665
-0.09934376 -0.2104325 -0.03930027 0.069354616 0.06105032 -0.1421327 -0.14447097 -0.03344248
0.166347 -0.10651188 0.0537934 -0.11642478 0.05957438 0.027257783 -0.18853721 -0.041149992
0.11559568 -0.029981937 0.08375246 -0.03091389 -0.01437697 -0.30677456 0.056369442 -0.08799512
-0.094735816 0.020766443 0.13654615 0.0025605552 0.0770221 0.06310379 -0.048176836 0.091674
-0.06869006 0.16135044 0.23688091 0.009549051 -0.12270165 0.014893345 0.033466887 0.07912142
-0.19586122 -0.0121100135 0.08356964 0.034879647 -0.110496 0.22620302 -0.12479739 0.04105214
-0.1606934 0.110520765 0.1841162 0.16279915 0.069032505 -0.05855673 0.15488803 -0.05128859
0.14424725 0.1783264 0.12838866 0.058391154 -0.18920238 0.036665574 0.03037792 -0.06676092
0.07193503 0.025035782 -0.13306823 -0.036431227 -0.062258758 0.07851732 0.005693439 -0.09517321
-0.03134374 0.10847489 -0.24842584 0.061878975 -0.045794662 0.03688969 -0.02989395 -0.116720825
0.099532776 0.09635104 -0.13758759 -0.07049872 0.058042023 0.062497426 0.056070074 -0.21147272
-0.025027936 -0.070743985 -0.05628288 -0.113004915 -0.11743576 -0.15513128 0.0579086 0.052412488
0.2548096 -0.035941582 -0.1142953 -0.020891843 0.16291724 0.04532708 -0.045600384 0.11459071
0.24980198 -0.044551577 -0.06749559 -0.18126391 -0.13096365 -0.04864849 -0.15484485 -0.17349267
-0.087870516 0.05773626 0.04905319 0.14651974 -0.061957646 0.21929942 0.11536288 0.07146163
0.101201884 0.27121 -0.16009423 -0.050447248 0.40006876 0.10590783 -0.038299724 -0.16754647
0.049769945 -0.11204257 0.10028417 -0.13773745 0.1061943 -0.4721267 0.2968106 0.1106353

conv2.conv2.0.bias f4 [16]
00000000: 2946 9fbc 57ef 7cbd 0bf4 8fbd 8c0e 76bd
00000010: 99bb 063d e7bc 0fbc 91aa b0bc c7e6 e13c
00000020: 0f7e 4f3d 4d4b 3e3d 216e e13c 935f a13d
00000030: a929 683b 3d61 ff3a 55d4 063d c61c aa3d
-0.019442635 -0.06175169 -0.070289694 -0.060072467 0.03289375 -0.008773065 -0.021565707 0.027575864
0.05065733 0.04645853 0.027518334 0.078795575 0.0035425222 0.0019483935 0.03291734 0.08306269

conv2.conv2.1.weight f4 [16]
00000000: e1b5 833f 329e 823f b362 663f 6ef2 7e3f
00000010: c83e 7f3f 808a 683f cecd 863f 58e1 7b3f
00000020: e8d6 873f 55d2 813f 90ad 6b3f b683 6e3f
00000030: d6f8 8c3f d43d 833f 5d4b 813f 5290 7a3f
1.028988 1.0204527 0.89994353 0.9958867 0.9970517 0.90836334 1.0531557 0.9839072
1.0612459 1.0142313 0.9206171 0.93169725 1.1013439 1.0253243 1.0101124 0.97876465

conv2.conv2.1.bias f4 [16]
00000000: 4563 193d 7f33 cc3c 441e 63bb 05b5 8e3b
00000010: 97a1 49bc 2af4 b23d e629 f03d 78ff 213c
00000020: abb0 4b3d 2652 643d 5f39 273d 93f4 99bd
00000030: 6c81 943d 0154 a13c 8199 a73c dc40 7d3d
0.037448186 0.024926899 -0.003465549 0.0043550753 -0.012306592 0.08737977 0.117267415 0.009887569
0.04972903 0.055742405 0.040826198 -0.07517352 0.07251248 0.019693376 0.020458939 0.061829433

conv2.conv2.1.running_mean f4 [16]
00000000: 4f40 31bf 27f2 d53e 11f4 71be 6810 9bbe
00000010: d5f3 77bf e033 9e3e ad3c ac3e 2e22 aa3f
00000020: d865 7abf f31f 6fbf 9555 33bf c356 7a3f
00000030: eadd 7e3c 3039 8d3f 6a7f 7abf 4547 eebe
-0.6923875 0.4178631 -0.2362826 -0.30285954 -0.96856433 0.30898952 0.33640042 1.3291681
-0.9781165 -0.93408126 -0.7005246 0.9778864 0.015555838 1.1033077 -0.9785067 -0.4653875

conv2.conv2.1.running_var f4 [16]
00000000: fe49 893f 5739 5a3f 1be6 0a3f ed14 583f
00000010: f2d1 a03f 8d5b 5740 986f 533f 97ae 2e40
00000020: 2589 b43f 0d47 e73f 7507 8b3f 1ecb a63f
00000030: 0a8d 873f 9299 b13f 7b65 8e3f d1a5 f03f
1.0725706 0.85243744 0.54257363 0.8440693 1.256407 3.3649628 0.82592154 2.729406
1.4104353 1.8068558 1.0861651 1.3030736 1.0589917 1.3874991 1.1124719 1.8800603

conv2.conv3.0.weight f4 [16, 16, 3, 3]
00000000: 2c79 033e 8004 b0bd ae15 e03d 9b39 d23d
00000010: 7d7a aebd dc0c 0a3e 839a 27bd b4b5 edbc
00000020: 9931 afba 38da aa3d 6586 d5bc fb12 d93d
00000030: b8ec e3ba ef80 e53d df6d ba3c 4420 0a3e
00000040: 5fc6 5e3e 9c96 a83d 803d 24bd 7557 6fbd
00000050: 8f77 143e 95c3 96bd 49b2 e93d 5044 3d3e
00000060: 6ae0 3cbd d929 a03c 89d0 0f3e d03e 11bd
00000070: b55f 14be d642 7dbd 2518 debd 66c9 de3d
00000080: f413 d73d d91a b03d 516e 353d 0449 b0bd
00000090: 5885 8dbd 863e 513d f2fb eabd a50c 12be
000000a0: 09c6 95bd c006 143d 7f69 b3bd a0e2 55bd
000000b0: e4d5 06bd 6ad0 e5bd 658e 2cbd edd6 8fbd
000000c0: 93da abbd 928d b33d 56ad 0a3e f688 8bbd
000000d0: 474a b93d cf40 6d3e 172f 33bd ee4d d43c
000000e0: 871c d73d ce6c f03d 1d33 10bd a9ee 243e
000000f0: 93dd d13d de00 513c 20ac 083e 4712 38be
00000100: 8889 29be 148e b0bc 66cf c93c 8db4 623d
00000110: ea4c 663d 0f28 de3c 58c4 40bd 830f 0b3d
00000120: e349 46bd c062 a9ba bf84 e13c 8b2a 853c
00000130: 717d dbbc c1a4 873d bc3e 1ebe d37a f3bc
00000140: 008c dfbd 257c efbc 42c0 9b3c 953f 453e
00000150: 46b9 9e3d 3a6c e53d 32aa da3d f5c6 8d3d
00000160: 1351 8c3c 9a7a 573e 0c0c 2b3c f4aa f7bd
00000170: 080f 803e 458d 2bbe 7709 29be 2ba0 7fbe
00000180: 9de5 94bd 1836 5bbd ea0b 9ebd dd77 d03d
00000190: dac5 32be 34ec c23d 348f 0c3c 393c 61bd
000001a0: b3d4 0dbe 065d fa3c 6f80 9abc 6f21 f73c
000001b0: 3731 ab3d bc5c 943d d96e 243c 12b6 4a3d
000001c0: ab36 02bd 88e9 e13d 4fb9 7d3e e36d d0bc
000001d0: 598a a93d ca93 1b3e 02ce 42bd 7144 7cbe
000001e0: 80d8 a0be 9019 813d a9a5 b3bd 7537 ebbd
000001f0: 7960 5cbe 6fa5 ecbc 375b 2d3d 9687 e83d
00000200: eb51 66bc e545 5c3d 0e27 4b3d 94f2 92bd
00000210: cf19 17bd b4ba a43d 1209 2bbd a32b 893d
00000220: cdda 9bbd d7a9 71be 61de 9c3c b11a 153e
00000230: a975 9a3d f833 56be b468 213d 912d 7b3b
00000240: f83a b6bd 19cc a3bd f5c2 7ebd bd35 833d
00000250: 1147 603e c6ac 033d 587f 46bd 33fe 5ebc
00000260: faa1 8e3d 5b0b 23bd aabf 833d c257 a13d
00000270: 1bfa 8cbc a420 473c 25e6 be3d 0ce4 ac3d
00000280: bfeb aabd c3a3 b637 be87 f83c b719 35be
00000290: 6446 a2bd bd68 16bd dff6 7ebd 928d 86bd
000002a0: dcd9 e9bc 6d2d 36bd 2a2b b83d dc1e 7a3d
000002b0: 4960 8a3d 02f0 8ebc 31f9 d13d c5ae 4a3c
000002c0: 35e2 f0bc ef65 e93b fb5f 8abe 0e10 ba3d
000002d0: dd1a 8a3e f620 e4bd 0508 d6bd d4dc 3c3e
000002e0: 5a71 70bd 1631 5c3e 30b1 363d c564 d039
000002f0: d64f 31bd f1c0 a5bc 1d8d 9ebc ee00 3fbc
00000300: 6562 15bc 513d d9bd d226 223c 89fb 7e3e
00000310: b0a7 d73d 8c1e f43d cd21 9f3e c826 6d3e
00000320: c577 023e cba4 4d3d 36a9 2dbd 8be5 333d
00000330: 8d58 c53d c8a8 6a3d 0ad9 a6bd c7b9 623c
00000340: a5d3 0f3e 85a5 e73d 5cfc 563e e3f2 803d
00000350: 33d0 b63e d8bb ad3c dc30 d03c 0504 e83d
00000360: 22e2 ab3d 4aaf 9bbd 496e dbbd b858 5b3e
00000370: 77f8 f03d e0c4 153e 66bc a7be b4ea 33be
00000380: bf21 d93d c967 053e cd05 9dbc a00f 9dbd
00000390: d6dc 4f3e b026 503e 8d44 a0bc cb09 f0bc
000003a0: f75d 9abc 4334 23bd c7b9 263b 6b11 c1bd
000003b0: edd0 8a3d eb00 d0bd 3ab9 d03c eb47 583d
000003c0: f4c8 f33d 103b 973d 98b7 ae3d 6351 24bc
000003d0: 9d61 dabd 8a4b 4bbc b8f5 e1bd 0eed dc3d
000003e0: bd32 623d a03d b7bd 14dd a23d 6c21 d2bb
000003f0: 72a9 00be 91ef a53d 1ed9 0ebc 10d0 5cbe
0.12839192 -0.08594608 0.10941635 0.102648936 -0.085194565 0.13481468 -0.04091884 -0.029017307
-0.0013366222 0.08342403 -0.02606506 0.10599323 -0.0017389273 0.11206233 0.022757469 0.13488871
0.2175536 0.082318515 -0.040097713 -0.058433015 0.14498733 -0.07361523 0.11410958 0.1848309
-0.046112455 0.019551205 0.14044394 -0.035460293 -0.14489634 -0.061831318 -0.10844449 0.108782575
0.10501853 0.08598871 0.04429466 -0.086076766 -0.06910199 0.051085018 -0.11473836 -0.14262636
-0.07313163 0.03613925 -0.08760356 -0.05221808 -0.032918826 -0.112213925 -0.042127986 -0.07023416
-0.08391299 0.08767237 0.13542685 -0.068132326 0.090473704 0.23169254 -0.04374608 0.025916066
0.10503488 0.11739503 -0.035204995 0.16106667 0.1024734 0.012756554 0.1334691 -0.17975722
-0.1655637 -0.021552123 0.024635028 0.055347968 0.056225695 0.02711871 -0.047062248 0.03395034
-0.048410308 -0.0012923107 0.027529119 0.016255638 -0.026793214 0.06623221 -0.15453619 -0.029721653
-0.10915375 -0.029234001 0.019012574 0.19262536 0.07750182 0.11202283 0.106769934 0.06922714
0.017128503 0.21042863 0.010439884 -0.120931536 0.25011468 -0.16753109 -0.16507517 -0.24963443
-0.07270358 -0.053518385 -0.07717116 0.10179112 -0.17458287 0.095177084 0.008579064 -0.054989073
-0.1385067 0.030561935 -0.01886007 0.03016731 0.08358996 0.0724425 0.010036194 0.049490042
-0.031790417 0.11030871 0.24777721 -0.025443023 0.08278341 0.15193096 -0.047559746 -0.24635483
-0.31415176 0.06303704 -0.087718315 -0.11485187 -0.21521176 -0.028887479 0.042323317 0.11353986
-0.014057617 0.053777594 0.049597792 -0.07175174 -0.036889847 0.08043423 -0.041756697 0.06697776
-0.07610092 -0.23599945 0.019149007 0.14560963 0.07541973 -0.20918262 0.039406493 0.003832672
-0.08897966 -0.07997913 -0.062197644 0.06406734 0.2190211 0.03214719 -0.04846129 -0.0136104105
0.06964488 -0.03980575 0.064330414 0.078780666 -0.017209103 0.012153778 0.0932124 0.08441934
-0.08345746 2.1772348e-05 0.030338164 -0.1768559 -0.07923582 -0.03672098 -0.062247153 -0.06569971
-0.028546266 -0.044476915 0.08992608 0.061064586 0.06756646 -0.017448429 0.102526076 0.01237077
-0.029404739 0.007122747 -0.27026352 0.090850934 0.2697362 -0.11139099 -0.10450748 0.18443614
-0.05870185 0.215031 0.044602573 0.0003974793 -0.043289028 -0.020233603 -0.019354397 -0.0116579365
-0.009117697 -0.10607398 0.009896951 0.2490064 0.10530031 0.11919889 0.31080475 0.23159325
0.12741001 0.050205987 -0.0423977 0.04392008 0.0963603 0.05728987 -0.08146866 0.013838238
0.1404558 0.11310867 0.20994705 0.06296327 0.35705718 0.021207735 0.025413923 0.11328892
0.08392741 -0.07601793 -0.107143946 0.21420562 0.11766141 0.14625883 -0.32760924 -0.17570001
0.1060214 0.13027872 -0.019167805 -0.07668996 0.20299086 0.20327258 -0.019563938 -0.029301545
-0.018843634 -0.039844763 0.0025440322 -0.0942715 0.06778131 -0.10156425 0.025478948 0.05280296
0.11903563 0.07384312 0.085311115 -0.01002917 -0.106631495 -0.012408147 -0.11033195 0.10787402
0.05522417 -0.08947301 0.079523236 -0.0064126756 -0.12564638 0.08102334 -0.008718757 -0.21563745

conv2.conv3.0.bias f4 [16]
00000000: 2b06 0cbc 787b 9e3d 80ac 86bd bace 32bd
00000010: b4f4 5bbd 1925 8c3d b89d 5c3d 9d12 9bbd
00000020: f8b6 593c 38df 84bd c12d adbc 3e20 713c
00000030: dcb9 8b3c e9fb 74bd 1d9e 59bd 6123 3cbd
-0.008546392 0.077383935 -0.065758705 -0.04365418 -0.053700164 0.06843013 0.05386135 -0.075719096
0.013288252 -0.06487888 -0.021139981 0.01471716 0.017056398 -0.059810553 -0.053129304 -0.045932177

conv2.conv3.1.weight f4 [16]
00000000: af05 8e3f ad7f 6d3f f8a7 863f d917 6f3f
00000010: f65e 803f d54f 893f 689a 863f 45f9 7b3f
00000020: 8914 793f a8b9 663f 19d0 813f b2d0 853f
00000030: 28fd 863f b8ba 7d3f c908 773f 5d03 723f
1.1095484 0.9277294 1.052001 0.93395764 1.002898 1.0727488 1.0515871 0.9842723
0.9729696 0.9012704 1.0141631 1.0454314 1.0546007 0.99113035 0.9649778 0.9453638

conv2.conv3.1.bias f4 [16]
00000000: 8397 3a3d 2d15 fbbc 29af f93a 82aa d53c
00000010: ee8d 66bc a945 d6bb a31b d43c 2cee 22bc
00000020: 7cfa 983d d16b 87bc 82ca a33c 60be e93c
00000030: fd86 65bd b80c abbc bb2b fb3c 3245 5d3d
0.04555465 -0.030649746 0.0019049394 0.026082281 -0.014071925 -0.006539066 0.025892084 -0.00994448
0.07469651 -0.016530903 0.019994024 0.02853316 -0.056036938 -0.020880088 0.0306605 0.054021068

conv2.conv3.1.running_mean f4 [16]
00000000: 1d27 c83e 1421 a03f 068c 00bf acd7 ecbe
00000010: 3a1e 18bf c60c 85be 0af0 c4bf fc71 a9bf
00000020: 786b b23e 7ca4 49bf 37c1 abbe 5d1a ac3d
00000030: 07bd 673e f885 053f b2ea 5b3e 2d5c 303f
0.3909234 1.2510095 -0.5021366 -0.46258295 -0.5942112 -0.25986308 -1.5385754 -1.323791
0.34847617 -0.7876661 -0.3354585 0.08403466 0.22630702 0.52157545 0.21476248 0.6889065

conv2.conv3.1.running_var f4 [16]
00000000: 7f8d 853f f23b cc3f 5de7 df3f 4e59 b93f
00000010: 1fa7 b33f 3b87 d33f 7aa9 863f 9dae f53f
00000020: d2f7 3140 5b78 823f f9c7 953f 88de d43f
00000030: 0d1f ea3f 6043 db3f 2254 aa3f e750 b53f
1.0433806 1.5955794 1.7492481 1.4480379 1.4035376 1.6525644 1.052047 1.9193913
2.7807508 1.019298 1.1701652 1.6630411 1.8290726 1.7129936 1.3306925 1.4165314

conv3.conv1.0.weight f4 [32, 16, 3, 3]
00000000: 0c6a 3dbe 8a73 93bc b21a 843e 4467 97bd
00000010: 78db 233e f484 04be ec92 eabc 5a2c 493d
00000020: 662d 27be b8c2 fa3d e0ae f93d 33b5 583e
00000030: aceb 53bd c9c0 93be c1c4 013e 0535 30be
00000040: 958f d0bc 385f 413e 3292 683d eb70 9a3d
00000050: 41d5 0abe 428e 0fbd 07f0 453d a743 1bbe
00000060: 5c18 c03c 1e4b c23d d9e4 65be 1900 8bbd
00000070: 000c 633c 5c51 4cbd 0918 85bd 8b87 353d
00000080: fb43 20be 6319 72bd 72b6 e73c 01ce 82bc
00000090: 41c9 193e 2536 ecbd daa2 5d3d 3a00 89bd
000000a0: 0bae 7e3e 4ae6 403c 21f0 b0bc 70b4 c8bd
000000b0: 4354 5a3c 75b1 433d b69f 043e 2123 ef3d
000000c0: c748 723c 9500 34bc e28c 10be 207f 81bb
000000d0: 86db 53bc 24f5 0d3e 62c2 53bd bf13 1cbe
000000e0: 5479 eebd 13d7 a8bc 39de c6bc 04e5 4c3d
000000f0: a982 223e 363b 05be d322 27bd 306c 3cbd
00000100: 881b fdbd 2a6f 1abc 4901 f2bc 2172 c639
00000110: 86ed a8bd 4b5f debd 3f01 283e 7bd8 3dbc
00000120: 32bc 423e 9646 1ebe 1dfb 1cbe 7457 423e
00000130: 894b 3b3e 690c 38be 9f6e 2fbd 1cb4 ab3d
00000140: 6d8f 04be 5894 6e3e 5f8d fbbc 2e38 283e
00000150: 4332 613e ee83 8d3e b829 c1bd c33e 8ebd
00000160: 7160 423d 0607 e0bd 2a47 01be f97e a1bd
00000170: 969b d7bc c4c5 0bbe fd84 b7bd 55f3 113e
00000180: 67b6 323e df32 ffbd 55f1 92bc 9e3d d63d
00000190: 9d54 5f3d e8bb 10be a840 81bd dad4 2a3e
000001a0: d3fd 3bbe 1204 8fbe 808e 65bd 565a bebd
000001b0: 29ed e13d 564e 8cbc f17f 4c3d b738 7c3e
000001c0: db94 70bd 5fed 223e 45ff 20bd 68df 6c3e
000001d0: b043 2abe 8370 6abe eed6 cfbd 8fc6 b0bd
000001e0: 8c37 14bd c5c1 4dbd 92e1 233e a02c 2cbe
000001f0: f756 893d c661 54be 8b7d 903c 3da8 363c
00000200: 41e8 5cbe 7d89 25bd 623a 363e 47e3 8c3e
00000210: bd68 abbd db07 e9bc 3061 e83d 0dd0 fc3d
00000220: a9ed 973e 240b fdbb b5e1 863e 7ba0 dcbc
00000230: 01f3 4bbd 8ab8 803d 79cd 1f3e 1f58 90bd
00000240: 2919 c4bb f613 a8bd f5af adba 4829 7fbe
00000250: 6635 e9bd 11b8 003e cce3 ce3c 4f65 ed3d
00000260: b5ba fb3d 8707 873c 5e8c 873e 01a0 a6bd
00000270: c287 f6bd 1106 4f3d bfc4 d0bc 478b a3bc
00000280: 5699 92bd 14db 30bd 1e37 b23d bb1b 913d
00000290: 3191 3bbd b7fc 3dbd 7c1f 423e 4bb2 acbd
000002a0: b5d9 a53e 1906 95bc 787d 8a3d 93a4 95bd
000002b0: 750b 473e a3e9 3e3e 3593 b23d 4ff2 0d3e
000002c0: 9cc5 673e 6b59 163e 3829 8e3e 7232 e8bc
000002d0: 4126 143e 3997 e7bb aa6a 433e e2a4 94bd
000002e0: e3b2 4fbe a29c 6ebe a14c 40be 5696 f6bd
000002f0: ca22 093e 5ad3 103c 0eba c63d c60f d5bd
00000300: edbb c43c ffb1 efbb b018 003e 734c ac3e
00000310: 838b 2e3d 3bca 52bb 2758 04be c80e 9cbd
00000320: 94a3 bbbb 14f7 26bd da79 733d b36d 023e
00000330: 18a6 20be 87db 633c 0332 0ebd 1856 f1bd
00000340: 86c9 16be d9ca 973d ad9b 35bc f5aa 433d
00000350: b347 edbd 6e17 183e 2234 053d bd2f a23c
00000360: 7e89 f93d 26e2 443d e63c 9f3d a8c3 4cbd
00000370: 820b 48be 6c2e 95bd 2e88 dabd f1d4 133e
00000380: c9e0 0ebe 4e5b babd 18f7 983d b73b d43d
00000390: 4368 75be dcf5 17be 64ee 5f3d f144 383e
000003a0: d18d 02bd bbb4 4e3d 8c41 623c 98bf 36be
000003b0: c1b2 26be 147a 45bd e064 0e3e c883 b13d
000003c0: 3479 c2bd 2187 06be cdf7 5c3e fe55 b7bd
000003d0: 5728 aebd a846 93bd 4e7a b13d d460 ea3c
000003e0: 99fa 1dbe 2653 013e c1e2 5dbd ad51 e83d
000003f0: 1c3a 953d ef4c ffbc 5309 193d eea1 c5bb
-0.18497485 -0.01799943 0.25801617 -0.07392743 0.1600169 -0.12941343 -0.028634511 0.049114563
-0.16325912 0.12244171 0.12191558 0.21162872 -0.051738426 -0.2885802 0.12672712 -0.17207725
-0.02545909 0.1888398 0.056780048 0.07541069 -0.13557912 -0.035047777 0.04832461 -0.15162526
0.023449115 0.09486984 -0.2245058 -0.06787128 0.0138578415 -0.049882278 -0.06498725 0.044318717
-0.15650932 -0.059106242 0.028285239 -0.015967371 0.15018179 -0.11533765 0.054110385 -0.06689496
0.2487108 0.011773655 -0.021598877 -0.09800041 0.013325754 0.047776658 0.1295155 0.11676622
0.014787859 -0.010986467 -0.14116243 -0.003951922 -0.012930756 0.13863045 -0.05169905 -0.15241908
-0.11644235 -0.020610368 -0.024275886 0.050023094 0.15870155 -0.13010868 -0.040804695 -0.046001613
-0.12358767 -0.009425918 -0.029541628 0.00037850536 -0.08248429 -0.108580194 0.16406725 -0.0115872575
0.19017103 -0.15456614 -0.15330167 0.18978673 0.18290533 -0.17973484 -0.042830106 0.083839625
-0.12945338 0.23298776 -0.03070706 0.16427681 0.2199183 0.27639717 -0.09431785 -0.069455646
0.047455255 -0.109388396 -0.12624803 -0.07885546 -0.026319306 -0.1364966 -0.089609124 0.1425298
0.17452393 -0.12460875 -0.017937342 0.10460971 0.054524053 -0.1413418 -0.0631116 0.16682759
-0.18358545 -0.27932793 -0.0560441 -0.09294574 0.11031563 -0.017127197 0.049926702 0.2463101
-0.05873571 0.15910862 -0.039305944 0.23132098 -0.16627383 -0.22894482 -0.101484165 -0.08631622
-0.036185786 -0.05023362 0.16004017 -0.16813898 0.0670604 -0.20740423 0.017637989 0.01114851
-0.21572973 -0.040414322 0.17795709 0.2751715 -0.083695866 -0.028446129 0.11346662 0.1234437
0.29673508 -0.0077222753 0.26344076 -0.026931992 -0.049792293 0.06285198 0.15605725 -0.07048058
-0.0059844446 -0.08206932 -0.0013251292 -0.24918091 -0.11387138 0.12570216 0.025255106 0.11591589
0.12291471 0.016483082 0.2647428 -0.08135987 -0.120376125 0.050542895 -0.02548444 -0.019963874
-0.07158153 -0.04317768 0.08701919 0.07085367 -0.045792762 -0.046383586 0.18957323 -0.08432444
0.3239266 -0.018191384 0.067622125 -0.07306781 0.19437964 0.18643813 0.08719484 0.13861965
0.22633976 0.14682548 0.27765822 -0.028344367 0.14467718 -0.0070675877 0.19083658 -0.072580114
-0.20283084 -0.23301938 -0.18779232 -0.12040393 0.13392177 0.008839453 0.09703456 -0.10403399
0.024015391 -0.00731492 0.12509418 0.33652076 0.042613517 -0.0032163996 -0.12924252 -0.07620007
-0.005726287 -0.040762976 0.05944238 0.1273716 -0.1568836 0.01390732 -0.034715664 -0.11783999
-0.14725313 0.07411737 -0.011084479 0.04777046 -0.11585941 0.14852688 0.03252042 0.019798154
0.12184428 0.048067234 0.07775287 -0.04999128 -0.1953564 -0.07284245 -0.106705055 0.144367
-0.13952936 -0.09099446 0.074690044 0.10362952 -0.23965554 -0.14839882 0.054670706 0.17995049
-0.031873528 0.050465327 0.013809573 -0.17846525 -0.16279127 -0.048212126 0.13905668 0.086677134
-0.09495774 -0.13137485 0.21578903 -0.089519486 -0.08503788 -0.07191211 0.08665906 0.028610624
-0.15427627 0.12629375 -0.054171328 0.113437034 0.07286474 -0.031164614 0.037362408 -0.0060312664

conv3.conv1.0.bias f4 [32]
00000000: 1c33 15bd 5453 693d 195d 8ebd a423 b73b
00000010: 90f7 9a3d f898 acbb a283 a6bd 72ee b5bc
00000020: f262 c6bb 3889 a7bc 5966 713d 88d4 a2bd
00000030: 7aec 88bd 8433 67bd 70fc 19bc de06 a2bd
00000040: f1b9 43bd 8fe5 1ebd f33a 863d 0215 a9bd
00000050: 20fa ce3c 856c 44bc af23 323d ef4f 2f3c
00000060: 9e18 9cbc 6ca1 dabc 3608 7e3d 565a 47bd
00000070: c2e0 c0bc dd65 85bd 0032 703d ce55 a63c
-0.036425695 0.056964234 -0.06951351 0.0055889655 0.0756675 -0.0052672587 -0.08130576 -0.022208426
-0.0060542757 -0.020451173 0.058935497 -0.07950693 -0.06685729 -0.056445614 -0.009398565 -0.07911466
-0.04778475 -0.038793143 0.065542124 -0.0825596 0.025265753 -0.011988764 0.04349106 0.01070021
-0.019054707 -0.0266883 0.06201955 -0.048670135 -0.023544673 -0.065135695 0.058641434 0.020304587

conv3.conv1.1.weight f4 [32]
00000000: 6eb8 6f3f 82d8 863f c95d 863f ec73 8e3f
00000010: 3880 723f 4161 823f 70d8 7f3f 3939 813f
00000020: 686b 703f ffc0 803f 0a00 6f3f 3370 883f
00000030: e580 803f efe3 793f b481 6d3f d942 733f
00000040: 0f61 833f 171f 813f 767b 833f f95a 843f
00000050: 791f 7e3f 44c7 813f e782 883f bb2a 883f
00000060: 3b28 803f 4d51 763f f929 773f 5f0c 823f
00000070: 73ec 7b3f 459c 813f 4941 833f 1a26 793f
0.9364079 1.0534823 1.0497371 1.1129127 0.94726896 1.018593 0.9993963 1.0095588
0.9391389 1.0058898 0.93359435 1.065924 1.0039335 0.97613424 0.92776036 0.95023876
1.0263995 1.0087613 1.0272052 1.0340263 0.99266773 1.0138936 1.0664948 1.063804
1.0012277 0.96217805 0.9654842 1.0160025 0.9840767 1.0125815 1.0254298 0.97323763

conv3.conv1.1.bias f4 [32]
00000000: d89c 42bd fddb 5d3d 4cb3 e33c 3bfa f6bb
00000010: b0e4 3e3b 87d7 a33c d22d 78bd 4753 c63a
00000020: 5357 64bc 2768 d13c 9966 4fbc d035 2b3c
00000030: 31a7 513d 203a 94bc 4dde 1dbd b35b d9bc
00000040: fed3 2a3b 0020 bbbc 3fa6 87bc a2e8 46bd
00000050: f29a 37bc 6a30 c6bc 050d 07bd 9be7 be3c
00000060: a70b c1b9 ed9a 96bb ba2c 243d f90f be3c
00000070: fa05 ae3c c528 c0bc aa3a 6fbc 4031 24bd
-0.04751286 0.054164875 0.027795456 -0.007537154 0.0029128008 0.020000232 -0.060590573 0.001513102
-0.013936835 0.025562359 -0.0126587385 0.010449842 0.051184837 -0.018094122 -0.03854208 -0.026532983
0.0026066299 -0.022842407 -0.016558765 -0.0485617 -0.011206375 -0.024193007 -0.0329714 0.023303797
-0.0003682051 -0.0045961053 0.040081717 0.023200976 0.021243084 -0.02345694 -0.014601389 -0.04008603
