checkpoints/ifind1_sononet_8_6classes/023_net_6classes_class.pth (torch_old, 671819 bytes, 90 tensors)

conv1.conv1.0.weight f4 [8, 1, 3, 3]
0	0x3d69bc37	0.05706426
1	0x3fa13f2f	1.2597407
2	0x3eb96d5a	0.3621624
3	0x3e4ba314	0.19886428
4	0xbec7ffa1	-0.39062217
5	0x3e9c89e6	0.30573958
6	0xbe608e31	-0.21929242
7	0x3e91201a	0.28344804
8	0xbf65477e	-0.89562213
9	0x3ef39da5	0.4758121
10	0x3f1ec1d5	0.62014514
11	0xbed2e965	-0.4119369
12	0x3f181090	0.5940027
13	0x3f4b96d3	0.79527014
14	0xbf344163	-0.7041227
15	0xbe040d67	-0.12895738
16	0x3f5fcd03	0.874222
17	0x3ec0a364	0.37624657
18	0x3f88b153	1.0679115
19	0xbf38eb48	-0.7223401
20	0xbf261480	-0.6487503
21	0x3f0ef8d9	0.5584846
22	0x3ebbbf5b	0.3666943
23	0xbe5b38db	-0.21408407
24	0xbeebe1e8	-0.4607079
25	0x3cd281b2	0.02569661
26	0x3f82bb0f	1.0213336
27	0x3f1128cf	0.56702894
28	0x3f529e01	0.82272345
29	0x3fb05dc3	1.3778614
30	0xbf540e50	-0.8283434
31	0xbf1641e7	-0.5869431
32	0xbd6f2708	-0.058386832
33	0xbf193edb	-0.59861535
34	0xbf3498f3	-0.7054588
35	0x3dcaab2d	0.098959304
36	0xbecdfb49	-0.40230778
37	0xbe8078ec	-0.25092256
38	0xbfa986ec	-1.32443
39	0xbe554eb4	-0.20830804
40	0x3d19dd80	0.037564754
41	0x3e1ecdb7	0.15508161
42	0x3f7a860e	0.978608
43	0x3e7821aa	0.24231592
44	0x3efb16f0	0.49040937
45	0xbe8244a3	-0.2544299
46	0x3db55996	0.08854978
47	0x3efa7d47	0.48923704
48	0xbf87ab57	-1.0599164
49	0xbf7fde81	-0.9994889
50	0x3eedb7b5	0.4642922
51	0xbf0893ba	-0.5335041
52	0x3e472f9b	0.19451754
53	0x3fdcf8cc	1.7263427
54	0xbf44ed8e	-0.7692498
55	0x3f02ed58	0.5114341
56	0x3e900453	0.281283
57	0xbc92e568	-0.017931655
58	0xbe2c2565	-0.1681114
59	0x3dae5f98	0.08514327
60	0x3f567249	0.83768135
61	0xbe47a05d	-0.19494767
62	0x3e184d28	0.14873183
63	0xbf45ce69	-0.7726808
64	0xbf58c741	-0.8467904
65	0x3e685674	0.22689229
66	0xbefdefc1	-0.4959698
67	0xbf99ee2b	-1.2025808
68	0xbf809c36	-1.0047672
69	0xbf03fa04	-0.5155337
70	0xbf8b48f3	-1.0881637
71	0x3eeeb2a8	0.4662068

conv1.conv1.0.bias f4 [8]
0	0x3ea418b2	0.3205009
1	0xbe8cb6d8	-0.2748325
2	0xbea91d9e	-0.3303041
3	0xbe856785	-0.26055542
4	0xbe6576d7	-0.22408615
5	0x3e0a2df8	0.13494098
6	0x3df42856	0.11921756
7	0x3e8daf32	0.27672726

conv1.conv1.1.weight f4 [8]
0	0x3f82cad7	1.0218152
1	0x3f399863	0.7249815
2	0x3f4c4a6c	0.7980106
3	0x3f819da5	1.0126234
4	0x3f8d4a13	1.1038231
5	0x3fa58407	1.2930917
6	0x3f302be6	0.68816984
7	0x3f651d90	0.89498234

conv1.conv1.1.bias f4 [8]
0	0xbed184d3	-0.4092165
1	0x3d50570e	0.05086427
2	0x3f2f9175	0.68581325
3	0x3ea5e9d0	0.32404947
4	0x3f01141b	0.50421304
5	0x3faa0ae9	1.328458
6	0xbe5a296f	-0.21304868
7	0x3e84a0ef	0.25904033

conv1.conv1.1.running_mean f4 [8]
0	0x3ea3c4f8	0.31986213
1	0xbe8c920c	-0.27455175
2	0xbea7e59b	-0.32792363
3	0xbe8466b3	-0.25859603
4	0xbe65fdbc	-0.22460073
5	0x3e0ec59f	0.13942574
6	0x3df7b128	0.12094337
7	0x3e8b84f5	0.27249876

conv1.conv1.1.running_var f4 [8]
0	0x3f9f6cea	1.2455113
1	0x40be3bdb	5.9448066
2	0x3f88cac8	1.0686884
3	0x3f80fa46	1.0076377
4	0x3f4caa5a	0.79947436
5	0x3f028f13	0.50999564
6	0x3f049175	0.5178445
7	0x41d084ce	26.064846

conv1.conv2.0.weight f4 [8, 8, 3, 3]
0	0x3de98f69	0.114043064
1	0x3f090346	0.5352062
2	0x3d76f0b6	0.060288154
3	0x3cb6ad16	0.02229933
4	0x3e9792fc	0.29604328
5	0xbda407d2	-0.08009304
6	0xbde725bf	-0.11286496
7	0x3e5c1a00	0.21494293
8	0xbe30367a	-0.17208281
9	0xbe0b0faf	-0.13580202
10	0x3ee2224e	0.44166797
11	0x3ed2755a	0.41105157
12	0xbd3d0e63	-0.0461563
13	0x3e86070b	0.26177248
14	0x3e6a2290	0.22864747
15	0xbe1bf035	-0.1522835
16	0xbe079d84	-0.13243681
17	0xbd812b03	-0.06307032
18	0xbdd50288	-0.104008734
19	0xbdbf0d7c	-0.09328744
20	0x3e80ccb8	0.25156188
21	0xbf0ea0eb	-0.5571429
22	0xbd929efd	-0.07159231
23	0x3e1b6a46	0.15177259
24	0xbe038065	-0.12841947
25	0x3e8b0221	0.27150062
26	0x3de88c20	0.11354852
27	0x3e9172e1	0.28407958
28	0xbd9e6ce8	-0.07735616
29	0x3dc7cc96	0.097558185
30	0x3e38903a	0.18023768
31	0xbd4e2fb1	-0.05033845
32	0xbe128fc0	-0.14312649
33	0x3e3cbc66	0.18431243
34	0x3e623bde	0.2209315
35	0xbe394de8	-0.18096125
36	0x3e54f6b7	0.20797239
37	0x3e647aa9	0.22312416
38	0x3ea6c44f	0.32571647
39	0xbe54ca8a	-0.20780388
40	0xbddb60a1	-0.1071179
41	0xbd7f7f32	-0.062377162
42	0xbee53265	-0.4476501
43	0xbe291ba6	-0.16514453
44	0x3b147300	0.0022651553
45	0x3f2956b1	0.66147906
46	0xbcbc95ba	-0.023020614
47	0xbe50ccd1	-0.20390631
48	0xbea930ee	-0.33045143
49	0xbeec7bc3	-0.46188173
50	0xbeb8be6e	-0.36082786
51	0x3f2bcb7e	0.6710738
52	0xbdeea2fb	-0.1165218
53	0x3b9ade7a	0.0047262283
54	0xbcd29491	-0.025705608
55	0x3d746282	0.059664257
56	0x3dc1ffda	0.09472628
57	0x3e9d3239	0.3070238
58	0x3d5ece8d	0.0543962
59	0xbe5089a1	-0.20365001
60	0x3de90235	0.11377374
61	0x3d8eace0	0.06966567
62	0xbe5ff086	-0.21869096
63	0xbea26f78	-0.3172567
64	0xbe9e1a5e	-0.30879492
65	0x3e1b75da	0.15181676
66	0xbe46f3cd	-0.1942894
67	0xbe3c9460	-0.18415976
68	0xbe4887bc	-0.19583029
69	0xbe06d036	-0.13165364
70	0xbe9bd345	-0.30434623
71	0xbe16bc04	-0.1472016
72	0x3ee3110b	0.4434894
73	0xbda0c7c9	-0.07850606
74	0xbd9d46e5	-0.07679538
75	0x3e6a5c7c	0.22886842
76	0x3d4dfc5f	0.050289508
77	0x3d4c134c	0.04982309
78	0x3ee957dc	0.45574844
79	0x3ed3dc59	0.4137905
80	0x3c4afa42	0.012388768
81	0x3e8897e6	0.2667839
82	0x3ebd07f0	0.36920118
83	0x3e49421c	0.19654125
84	0x3d22ff9b	0.039794546
85	0x3db47e07	0.088131
86	0xbdf6afbb	-0.12045237
87	0x3b8d24bc	0.0043073576
88	0xbe6c88c7	-0.23099051
89	0xbe5017a3	-0.20321517
90	0xbb4a03f9	-0.0030825122
91	0xbd77d212	-0.060503073
92	0x3e72b5c9	0.23702158
93	0x3e30c0d9	0.17261066
94	0x3e8f47fa	0.279846
95	0x3e807dda	0.25096017
96	0x3db862ae	0.09003197
97	0x3e328a5b	0.17435591
98	0xbe270f55	-0.16314442
99	0xbe29cab4	-0.16581231
100	0xbe9a75db	-0.30168042
101	0xbe166fde	-0.14691111
102	0x3e9bfd41	0.30466655
103	0xbdedfb44	-0.11620191
104	0x3d9bbf68	0.07604867
105	0x3e8cbd36	0.27488106
106	0xbe291be8	-0.16514552
107	0xbd339625	-0.04384436
108	0xbe1b6180	-0.15173912
109	0xbe07a255	-0.13245519
110	0x3b78a5fe	0.0037940736
111	0x3e46e419	0.1942295
112	0x3c4e8304	0.012604479
113	0xbd339b9a	-0.043849565
114	0xbd12bf33	-0.035826873
115	0x3d78469f	0.060614225
116	0xbe33d277	-0.17560755
117	0xbe7931e3	-0.24335437
118	0x3e97ee56	0.29674023
119	0x3eecc217	0.4624183
120	0xbe95c12f	-0.2924895
121	0xbb9eee94	-0.004850218
122	0x3d3fef42	0.046859033
123	0x3c6fdc89	0.014639982
124	0xbdad8ba4	-0.084739
125	0xbed1e326	-0.40993613
126	0xbddf832b	-0.1091369
127	0x3e7963cd	0.24354477
128	0xbdd139b0	-0.10216081
129	0xbe8028fc	-0.2503127
130	0xbdefc0e8	-0.11706716
131	0xbe047a48	-0.12937272
132	0xbe156ff1	-0.14593484
133	0xbe9d5991	-0.30732396
134	0xbe965d9a	-0.29368287
135	0xbe438e06	-0.19097146
136	0xbe2b87c5	-0.1675101
137	0xbd5cd352	-0.05391247
138	0xbd7bd2bb	-0.061480265
139	0x3e49607d	0.19665714
140	0xbe063bd7	-0.13108765
141	0x3b82babc	0.0039895456
142	0xbe03756c	-0.12837762
143	0x3d6c0b70	0.057628095
144	0xbe087ebe	-0.13329598
145	0x3d9a7a58	0.075428665
146	0x3d9a4392	0.07532419
147	0xbd724357	-0.05914625
148	0x3d7a86df	0.06116378
149	0xbec1a722	-0.37822825
150	0xbdbce37b	-0.09223076
151	0xbea4214b	-0.3205665
152	0xbe8994e2	-0.268714
153	0xbea6d90f	-0.32587478
154	0xbdd46e2f	-0.10372578
155	0x3da26fc3	0.07931473
156	0xbd09a93d	-0.033608664
157	0x3d5a041e	0.053226583
158	0x3d3be100	0.045868874
159	0xbe6abc4f	-0.22923397
160	0xbdd9debb	-0.106381856
161	0x3e04e955	0.12979634
162	0xbe022bd7	-0.12712036
163	0x3e5e4c1f	0.21708725
164	0x3dd1a17f	0.10235881
165	0xbea2d64f	-0.3180413
166	0xbdb85126	-0.08999853
167	0xbf01e638	-0.5074191
168	0xbedef2c8	-0.43544602
169	0xbe71e934	-0.23624116
170	0xbd7fa4aa	-0.062412895
171	0x3ca3a679	0.019976841
172	0xbde08b4c	-0.10964069
173	0x3e1ecb12	0.15507153
174	0x3e3dcc42	0.1853495
175	0x3e853431	0.2601638
176	0x3e5c232f	0.21497796
177	0xbed2fa39	-0.4120653
178	0xbce66454	-0.028124012
179	0x3cfa6cbd	0.030569429
180	0xbe9520ec	-0.2912668
181	0xbe15ce4e	-0.1462948
182	0xbea093d0	-0.31362772
183	0xbdc8e376	-0.0980901
184	0xbebd3536	-0.3695466
185	0xbe1da0c6	-0.15393361
186	0x3e4d1ad5	0.20029767
187	0xbdf08d3e	-0.1174569
188	0x3dfcc072	0.123413935
189	0xbde9459d	-0.11390231
190	0xbe43af24	-0.1910978
191	0x3d7b6490	0.0613752
192	0x3da3bb37	0.07994693
193	0x3dc129d4	0.09431806
194	0x3e7c4d4b	0.2463886
195	0x3f136d14	0.57588315
196	0x3cc83f39	0.02444421
197	0x3cd946cf	0.026523022
198	0x3b4e21be	0.0031453217
199	0xbe7cea25	-0.24698694
200	0xbc9cea5c	-0.01915472
201	0xbcb052b8	-0.021523818
202	0xbdfe4c84	-0.12416938
203	0xbd1d7ce9	-0.0384492
204	0x3e259701	0.16170885
205	0xbe2e6d93	-0.17033987
206	0xbca63dae	-0.020293083
207	0xbe125ac3	-0.14292435
208	0xbc4f2f2f	-0.012645527
209	0xbca5a571	-0.02022049
210	0x3e36485e	0.17801043
211	0x3e092faa	0.13397089
212	0x3d0f6188	0.035005122
213	0xbd954b31	-0.07289732
214	0xbcd63af5	-0.02615116
215	0x3e4687f1	0.19387795
216	0x3e73b628	0.23799956
217	0x3e851a2d	0.25996533
218	0x3e0ac39a	0.13551179
219	0x3e3017fe	0.17196652
220	0xbc76d6a5	-0.015065824
221	0xbd27f955	-0.041009266
222	0xbe1dde2f	-0.15416788
223	0xbc36510b	-0.011127721
224	0xbe4de494	-0.20106727
225	0xbd89992d	-0.06718669
226	0xbe0eeee8	-0.13958323
227	0xbdd9d2f4	-0.10635939
228	0xbdd8e441	-0.10590411
229	0xbe42c647	-0.1902095
230	0xbe237dd6	-0.15965971
231	0xbc33de4b	-0.010978292
232	0xbe901c97	-0.28146812
233	0xbd544fdc	-0.051833972
234	0xbd0d42e3	-0.034487616
235	0xbe8ce0f0	-0.27515364
236	0xbe3957bc	-0.18099874
237	0xbda046d5	-0.0782601
238	0xbe65830d	-0.22413273
239	0x3db65518	0.08902949
240	0xbd49e857	-0.049293842
241	0xbe549dfa	-0.20763388
242	0xbe8d2e15	-0.2757422
243	0xbb5ce033	-0.003370297
244	0x3d3a957d	0.04555272
245	0x3ec62118	0.38697124
246	0xbe4bfe4d	-0.19921227
247	0x3e14db6e	0.14536831
248	0x3e7c74db	0.24653952
249	0xbe4e555c	-0.2014975
250	0xbeb234b3	-0.3480583
251	0xbeabdcc4	-0.33566868
252	0x3da2d545	0.07950834
253	0xbcacdc3b	-0.021101108
254	0xbe8e86ee	-0.27837318
255	0x3d98032f	0.07422482

conv1.conv2.0.bias f4 [8]
0	0xbc9f07e2	-0.019412939
1	0xbd894712	-0.06703009
2	0xbc9bfea7	-0.019042326
3	0x3dc397f3	0.095504664
4	0xbdb2d84e	-0.08732663
5	0x3cdb006b	0.026733598
6	0xbded0e7f	-0.115750305
7	0x3d7ccbf7	0.061717954

conv1.conv2.1.weight f4 [8]
0	0x3f782f7e	0.9694747
1	0x3f6a7700	0.9158783
2	0x3f7bb936	0.98329484
3	0x3fa242da	1.2676651
4	0x3f9616c8	1.1725702
5	0x3f3ca265	0.73685294
6	0x3fa0d508	1.2565012
7	0x3f9c78e3	1.2224392

conv1.conv2.1.bias f4 [8]
0	0x3e031a61	0.12803032
1	0xbeaa2d55	-0.3323771
2	0x3e79b201	0.2438431
3	0x3e7d5b6e	0.24741909
4	0xbe2b792c	-0.16745442
5	0x3cf51c5e	0.029920753
6	0x3d247b09	0.040156398
7	0x3f0278dc	0.50965667

conv1.conv2.1.running_mean f4 [8]
0	0xbf1a5a44	-0.60293984
1	0x3d27c740	0.040961504
2	0xbf762194	-0.96144986
3	0xbe96369d	-0.29338542
4	0xbeb2d50d	-0.3492817
5	0xbfe55324	-1.7915998
6	0xc0476c65	-3.1159909
7	0xbffbaf08	-1.966279

conv1.conv2.1.running_var f4 [8]
0	0x40b6f9b5	5.717982
1	0x40344f15	2.8173268
2	0x40cb8990	6.3605423
3	0x413b5603	11.708499
4	0x413de079	11.867303
5	0x404f8c66	3.2429442
6	0x40f25e39	7.574002
7	0x404b8759	3.180136

conv1.conv3.0.weight f4 [8, 8, 3, 3]
0	0x3e9e7f53	0.30956516
1	0x3e21bc78	0.15794551
2	0xbd0f4550	-0.03497821
3	0x3f02aaac	0.51041675
4	0x3e2f4f5b	0.17120115
5	0xbdd23ccb	-0.102655016
6	0x3ce8d5d1	0.028422268
7	0x3e52e9fd	0.20597072
8	0xbd4a8e3a	-0.049452044
9	0xbedce973	-0.43146858
10	0x3e1295fe	0.1431503
11	0x3f0292f8	0.51005507
12	0xbeaa8b8b	-0.33309588
13	0xbda30b3e	-0.07961129
14	0x3e004000	0.12524414
15	0xbe09bcce	-0.1345093
16	0x3e23347b	0.15937988
17	0x3ccdcb38	0.025121316
18	0xbe7f8e5b	-0.24956648
19	0x3c3fb958	0.011701904
20	0xbcfe05e6	-0.031008672
21	0xbe673b07	-0.22581111
22	0xbd7169ad	-0.05893867
23	0x3e2ad079	0.16681089
24	0xbe95956d	-0.29215565
25	0x3de8faea	0.11375983
26	0xbe838390	-0.25686312
27	0xbefdee75	-0.4959599
28	0xbd00b7a2	-0.031425126
29	0x3c66677c	0.014062759
30	0xbd4e2b2e	-0.050334148
31	0xbe08cc9e	-0.13359305
32	0x3dcd655b	0.10029098
33	0x3dc3ff66	0.09570198
34	0xbd3718a9	-0.044701252
35	0xbdad2026	-0.084533975
36	0x3e191886	0.14950761
37	0x3e657b3e	0.22410294
38	0x3e7d227f	0.2472019
39	0x3e649e59	0.2232603
40	0x3e0ae787	0.13564883
41	0xbdaa9616	-0.08329408
42	0x3e09f7fa	0.13473502
43	0x3d95be11	0.07311643
44	0x3eac8737	0.3369691
45	0xbe11549f	-0.14192437
46	0x3d0a4e45	0.03376605
47	0xbea59e68	-0.32347417
48	0x3df82b63	0.1211765
49	0x3e065d39	0.13121499
50	0x3e70dfe3	0.23522906
51	0x3dc6dd58	0.09710187
52	0xbe80eb11	-0.2517934
53	0x3cc71a77	0.024304612
54	0xbb94e61a	-0.004544032
55	0x3e3dca6f	0.18534254
56	0x3e905140	0.2818699
57	0x3d9ecb2d	0.077535965
58	0x3d953ba2	0.07286765
59	0x3e8c3551	0.27384427
60	0xbd399957	-0.045312252
61	0xbe14031a	-0.14454308
62	0xbe780cd3	-0.24223642
63	0xbe418942	-0.18900016
64	0xbdecf9db	-0.11571094
65	0xbe25b469	-0.16182102
66	0x3da849d1	0.08217204
67	0x3e0bcf43	0.13653283
68	0xbe9f4c4a	-0.3111289
69	0x3e807a43	0.25093278
70	0xbcc01d61	-0.023451509
71	0xbc2adc7a	-0.010428542
72	0xbe3abe0d	-0.18236561
73	0xbe56174d	-0.20907326
74	0xbe2136cc	-0.1574356
75	0x3e224007	0.15844737
76	0x3e206b14	0.15665847
77	0x3e274caa	0.16337839
78	0xbe4ed2ce	-0.20197603
79	0x3def4a64	0.11684111
80	0xbe46618e	-0.19373152
81	0x3cc97853	0.024593508
82	0xbe9687ed	-0.29400578
83	0xbe4b05a1	-0.19826366
84	0xbe5fb40d	-0.21846028
85	0xbddd2d9b	-0.10799714
86	0x3da34d6c	0.079737514
87	0xbe1a4f39	-0.15069284
88	0xbe43c3cd	-0.19117661
89	0x3e2b92e5	0.16755255
90	0x3d8db36c	0.06918988
91	0xbe1ce34a	-0.15321079
92	0x3de504ab	0.11182531
93	0xbefe69c3	-0.49690065
94	0xbe4bdbc3	-0.19908051
95	0xbd1bc17e	-0.038026325
96	0x3da32b0c	0.07967195
97	0xbe3408ee	-0.17581531
98	0xbca5b905	-0.020229826
99	0x3e27fe59	0.1640562
100	0xbc76b70d	-0.015058291
101	0xbe4b9bae	-0.19883606
102	0xbe047b12	-0.12937573
103	0x3e452942	0.1925402
104	0xbe9b6867	-0.3035309
105	0x3e53a657	0.20668922
106	0xbe418807	-0.18899547
107	0xbe8304ff	-0.2558975
108	0x3ef0d652	0.47038513
109	0x3f2dd92a	0.6790949
110	0x3e8d2c4c	0.27572858
111	0x3d989db5	0.07451955
112	0xbc5d6ea2	-0.013515146
113	0x3de8005f	0.11328196
114	0xbc61b28b	-0.013775478
115	0x3e21d51c	0.15803951
116	0x3e4607fc	0.19338983
117	0xbe7050a5	-0.23468263
118	0xbc422e32	-0.011851834
119	0x3d1a3959	0.037652347
120	0xbd52f194	-0.051499918
121	0x3dc55fed	0.09637437
122	0x3e63079d	0.22170873
123	0xbd811269	-0.063023396
124	0xbe738b50	-0.23783612
125	0xbe06b691	-0.13155581
126	0x3da6dacc	0.08147201
127	0xbdc9d5d3	-0.09855237
128	0xbe663644	-0.22481638
129	0xbde190f0	-0.11013973
130	0xbe04d7ea	-0.1297299
131	0xbe2ba6b5	-0.16762812
132	0xbe974ecc	-0.29552305
133	0xbe9135a0	-0.28361225
134	0xbe02e7f6	-0.12783799
135	0x3d1afc07	0.03783801
136	0x3ce2830c	0.027650379
137	0xbe57ada1	-0.21062328
138	0xbdf6b6c3	-0.12046578
139	0xbdaf64ae	-0.08564125
140	0x3e9b077c	0.30279148
141	0xbe768ba6	-0.24076709
142	0xbd9e061b	-0.07716008
143	0xbe875430	-0.26431417
144	0xbe16020a	-0.14649215
145	0xbde8dc9c	-0.11370203
146	0x3e6d6a5b	0.23185103
147	0x3dc96ce5	0.09835223
148	0x3dc45d06	0.09588055
149	0xbde882c6	-0.11353068
150	0x3daaf8ed	0.0834826
151	0x3ec393a2	0.38198572
152	0xbe690047	-0.22754012
153	0xbd753422	-0.05986417
154	0x3e91871c	0.28423393
155	0x3e8dc37c	0.27688205
156	0xbec7cb2c	-0.39022195
157	0x3e550094	0.20801002
158	0x3ed4897c	0.41511142
159	0xbf78cdf0	-0.97189236
160	0xbdde1690	-0.10844147
161	0xbe94f80d	-0.29095498
162	0x3e833883	0.25629053
163	0xbe065a9f	-0.13120507
164	0x3dc06213	0.09393706
165	0xbe862ae4	-0.26204598
166	0xbe88a519	-0.2668846
167	0x3ddab57a	0.10679145
168	0xbed0d0c1	-0.40784267
169	0xbd67fc3d	-0.056637038
170	0xbea962c7	-0.33083174
171	0xbc2356e3	-0.009969446
172	0x3d2b698d	0.041848708
173	0xbe9b8590	-0.30375338
174	0xbed6fa1c	-0.41987693
175	0xbe8b912c	-0.27259195
176	0xbe8ae21b	-0.2712563
177	0xbe8029d5	-0.25031915
178	0xbdfc363b	-0.12315031
179	0xbe75e39e	-0.2401261
180	0x3eab8937	0.33503124
181	0x3e241247	0.16022597
182	0xbe7d785e	-0.24752948
183	0x3ca54bb8	0.020177707
184	0xbea3d1d7	-0.31996033
185	0xbf72deea	-0.9487139
186	0x3d04f3a5	0.03245892
187	0xbd1bba53	-0.03801949
188	0xbf057add	-0.521406
189	0x3e2e3dd8	0.17015779
190	0xbecb7764	-0.39739525
191	0x3c229963	0.009924266
192	0xbcbf8650	-0.023379475
193	0xbdd3efe1	-0.10348488
194	0x3f01592a	0.5052668
195	0xbd910e7d	-0.070828415
196	0xbd184308	-0.0371733
197	0x3d1e7341	0.038684133
198	0xbee5fedb	-0.44921002
199	0xbe6981d9	-0.22803439
200	0xbda1034e	-0.078619584
201	0xbf15a1a2	-0.5844976
202	0xbe76236b	-0.24036948
203	0xbe0ee302	-0.13953784
204	0x3e2d4eb6	0.16924557
205	0x3d7b11c9	0.061296258
206	0xbea905a4	-0.33012116
207	0xbed227f1	-0.41046098
208	0xbef44404	-0.47708142
209	0x3eab8615	0.33500734
210	0xbeb4c1e2	-0.3530417
211	0x3e891050	0.26770258
212	0x3f0299b2	0.5101577
213	0x3d1c77e8	0.03820029
214	0x3d808a61	0.06276394
215	0x3ef0a041	0.46997264
216	0x3e300553	0.17189531
217	0x3d993d55	0.07482401
218	0x3e27395f	0.16330479
219	0x3ef4fdaa	0.4784978
220	0xbe93bfa3	-0.28857145
221	0xbe98e0f4	-0.29859126
222	0x3eeb5b80	0.45968246
223	0xbe221bd3	-0.15830927
224	0x3ecf79bb	0.4052256
225	0x3dbd51c8	0.09244114
226	0x3e075799	0.1321701
227	0x3e3559f0	0.1771009
228	0xbe907c27	-0.2821972
229	0x3ef67031	0.4813247
230	0xbe4ecb9f	-0.20194863
231	0x3ea5bf0a	0.32372314
232	0x3de7b3a2	0.11313559
233	0xbe5a64e2	-0.21327546
234	0x3e3ec438	0.18629539
235	0xbe3fc07b	-0.18725769
236	0xbe1e1040	-0.15435886
237	0x3df6c593	0.12049403
238	0xbcb4a6b2	-0.022052143
239	0x3dcd8754	0.100355774
240	0x3c7fe71b	0.015619065
241	0xbc312631	-0.010812328
242	0xbd2ce0be	-0.04220652
243	0xbe40ad30	-0.18816066
244	0xbd8200fa	-0.063478425
245	0xbe96154b	-0.2931312
246	0xbde33ac6	-0.110951945
247	0xbeb6736d	-0.35634938
248	0xbd8ba46d	-0.06818471
249	0x3e1262e7	0.14295541
250	0xbb482ae7	-0.003054315
251	0xbe0ec30a	-0.13941589
252	0xbc7dceab	-0.015491168
253	0xbde61e1e	-0.11236213
254	0xbe60d011	-0.21954371
255	0xbd8f7300	-0.070043564

conv1.conv3.0.bias f4 [8]
0	0xbd7d610d	-0.061860133
1	0xbb8bae2f	-0.0042627077
2	0x3cb4a730	0.022052377
3	0xbd0010a0	-0.031265855
4	0x3da45821	0.08024622
5	0x3c532cba	0.012889082
6	0xbddeed75	-0.10885135
7	0xbc504041	-0.012710632

conv1.conv3.1.weight f4 [8]
0	0x3f821676	1.0163105
1	0x3f67ed92	0.9059688
2	0x3f8880b6	1.066428
3	0x3f5b476f	0.85655874
4	0x3fa6fb4d	1.3045441
5	0x3f906452	1.1280615
6	0x3f9badac	1.2162375
7	0x3f5a8872	0.8536445

conv1.conv3.1.bias f4 [8]
0	0x3e0eeefe	0.13958356
1	0x3e3efab2	0.1865032
2	0x3ef7fce6	0.48435134
3	0xbeb50bf4	-0.35360682
4	0x3e6ee67a	0.23330107
5	0x3eae5007	0.3404543
6	0x3eb0ff32	0.345697
7	0x3e901c07	0.28146383

conv1.conv3.1.running_mean f4 [8]
0	0x3d81af03	0.06332209
1	0xbfd6229a	-1.672931
2	0xc02ec93b	-2.7310321
3	0xbebd125d	-0.36928073
4	0xbe821379	-0.2540548
5	0xbfb96c1f	-1.4486121
6	0xc0043917	-2.0659845
7	0x3f670122	0.90236104

conv1.conv3.1.running_var f4 [8]
0	0x406b6ab5	3.6783879
1	0x404e40bf	3.2227018
2	0x409ad71c	4.8387585
3	0x3fe733a8	1.8062639
4	0x404797a7	3.1186311
5	0x40aeae2d	5.4587617
6	0x409ec675	4.9617257
7	0x406d05ed	3.7034867

conv2.conv1.0.weight f4 [16, 8, 3, 3]
0	0x3ddde5a2	0.108348146
1	0xbe6ff5ec	-0.23433656
2	0xbdd417bc	-0.103560895
3	0xbe394048	-0.18090928
4	0xbeb3ae93	-0.35094127
5	0xbea0ade1	-0.3138266
6	0x3e650eee	0.22368976
7	0x3d4f31fa	0.05058477
8	0x3d08cefb	0.033400517
9	0xbe5361f6	-0.20642838
10	0xbd9fa509	-0.0779515
11	0xbedf9f5d	-0.43676272
12	0x3d468ee9	0.048476133
13	0xbdbff778	-0.09373373
14	0x3e23e679	0.16005887
15	0xbe035836	-0.12826619
16	0x3da5ff2a	0.08105309
17	0xbe7867e0	-0.24258375
18	0x3da5e156	0.0809962
19	0x3d3b617d	0.04574727
20	0xbda50c6f	-0.08059012
21	0xbee3a5d0	-0.44462442
22	0x3e11ee6c	0.14251107
23	0xbe6a2fcd	-0.22869797
24	0x3e347e83	0.17626385
25	0x3e38e993	0.18057851
26	0x3db2f468	0.08738023
27	0x3e8e2e23	0.27769575
28	0x3db6baf1	0.08922375
29	0xbe788805	-0.24270637
30	0x3d45a8ab	0.048256557
31	0xbdef1b4f	-0.116751306
32	0xbc26d574	-0.010182727
33	0x3db79628	0.08964187
34	0xbd08888a	-0.03333334
35	0x3dd204c0	0.10254812
36	0x3da0ada7	0.078456216
37	0x3d5273d2	0.051379986
38	0x3e3cf937	0.18454443
39	0xbd945c7a	-0.07244201
40	0x3e0475ca	0.12935558
41	0x3b287a20	0.0025707558
42	0xbdb768a2	-0.08955504
43	0xbde50e4d	-0.11184368
44	0xbd94ccfd	-0.07265661
45	0xbbd70381	-0.006561697
46	0xbe79b34c	-0.24384803
47	0xbe721c7f	-0.23643683
48	0xbe303aa5	-0.17209871
49	0xbef4a353	-0.47780856
50	0xbe04e2da	-0.12977162
51	0xbe7e2176	-0.24817452
52	0xbd864513	-0.065561436
53	0xbef96d26	-0.48716086
54	0x3d0c666e	0.034277372
55	0xbdb997a0	-0.09062123
56	0x3d13027d	0.035891045
57	0x3ee8614f	0.4538674
58	0x3e148c3e	0.14506623
59	0x3e3edb92	0.18638447
60	0x3dc8eeab	0.09811147
61	0x3d8175d7	0.06321304
62	0x3e89be47	0.26902983
63	0xbe9ab2f3	-0.30214652
64	0xbe2a2bfa	-0.16618338
65	0x3c36bcc9	0.011153408
66	0xbec11b7c	-0.3771628
67	0x3cd9f8cc	0.026607893
68	0x3e16cfba	0.14727679
69	0xbdd5772d	-0.104231216
70	0xb97c537c	-0.00024063693
71	0xbdcda3b9	-0.10040993
72	0x3dd4ac2f	0.10384404
73	0x3eabe948	0.33576417
74	0x3d710486	0.058842205
75	0x3ed82fb4	0.42223895
76	0x3db9db3e	0.0907502
77	0xbdaccfb1	-0.084380515
78	0x3e765875	0.24057181
79	0x3e0a3e91	0.1350043
80	0xbe3df61c	-0.18550915
81	0x3e81f82c	0.25384653
82	0xbdde41ed	-0.10852418
83	0xbd045516	-0.032307707
84	0x3ec986b0	0.3936057
85	0xbed796ea	-0.42107326
86	0xbde9a4fc	-0.114084214
87	0x3f47ff95	0.7812436
88	0x3dcd4f0a	0.10024841
89	0xbcdf950e	-0.027292755
90	0xbdeb81bf	-0.114993565
91	0x3e73be46	0.23803052
92	0x3e2d0c3a	0.16899195
93	0xbea48c4c	-0.32138288
94	0x3d745eea	0.05966083
95	0xbde97c11	-0.11400617
96	0xbed170d2	-0.40906388
97	0xbd6b314a	-0.057420053
98	0x3cff3af5	0.031156043
99	0xbe2be641	-0.16787054
100	0xbd92e0f1	-0.071718104
101	0xbe27db3b	-0.16392224
102	0xbed191da	-0.40931588
103	0xbdf42c8c	-0.11922559
104	0xbecab43e	-0.3959064
105	0x3d4d53ad	0.050128628
106	0xbd84988a	-0.06474407
107	0xbe65a05a	-0.2242445
108	0xbecaadc6	-0.39585704
109	0xbe8fb563	-0.28068075
110	0xbea9967d	-0.33122626
111	0x3e007789	0.12545599
112	0x3e17f4c4	0.14839464
113	0x3e0d9469	0.13826145
114	0x3ddb483e	0.107071385
115	0xbdc2dcce	-0.095147714
116	0x3d661953	0.056176495
117	0x3d8be883	0.068314575
118	0x3e8de8dd	0.27716723
119	0xbe7ee04d	-0.24890251
120	0xbe9f9091	-0.31164983
121	0xbe6802e0	-0.22657347
122	0xbda9c8b9	-0.08290238
123	0xbdc82519	-0.09772701
124	0xbe5c6916	-0.21524462
125	0x3e466c7e	0.19377324
126	0xbeae0441	-0.3398762
127	0x3d3b97fa	0.045799233
128	0x3e3ff7b8	0.18746841
129	0xbe8043bf	-0.25051686
130	0xbe8a42ae	-0.27003998
131	0x3e67c50a	0.22633758
132	0xbece028f	-0.40236327
133	0xbc3bb1b6	-0.011455944
134	0xbe7e2a01	-0.2482071
135	0xbece5cf1	-0.40305284
136	0xbe874d20	-0.2642603
137	0x3c5b5ae1	0.013388366
138	0xbebc16b8	-0.36736083
139	0xbe5b9dc6	-0.21446905
140	0xbe2c7260	-0.16840506
141	0xbe5bfd19	-0.21483268
142	0xbd083611	-0.033254687
143	0xbdc014b8	-0.09378952
144	0x3dbc7a18	0.09202975
145	0xbe391a93	-0.18076544
146	0x3de17054	0.11007753
147	0x3d9b1c4f	0.07573759
148	0x3e5bb056	0.21453986
149	0x3e6a50fd	0.22882457
150	0xbe457bcf	-0.1928551
151	0x3eb4c944	0.35309803
152	0x3e4f8879	0.20266904
153	0xbdec547b	-0.11539551
154	0x3e834d2b	0.25644812
155	0x3e3c93a1	0.18415691
156	0x3ea5f6ae	0.32414764
157	0x3e758d91	0.23979785
158	0x3df8b10d	0.12143145
159	0xbdd2bc43	-0.10289814
160	0xbd52f95a	-0.05150733
161	0x3d65858f	0.056035575
162	0xbe4871c7	-0.19574653
163	0x3cb18b02	0.02167273
164	0xbddeade1	-0.108730085
165	0xbede99ec	-0.43476808
166	0x3dd2db01	0.10295678
167	0xbecd5fa3	-0.40112028
168	0xbec7d7eb	-0.3903192
169	0xbd9a30f9	-0.07528872
170	0xbe86fe6c	-0.26365983
171	0xbdc5e817	-0.09663408
172	0xbeaf761a	-0.34269792
173	0x3c55927c	0.013035413
174	0x3d0c56a8	0.03426233
175	0x3e0e92ff	0.13923262
176	0x3e814231	0.25245813
177	0xbd4acda3	-0.049512517
178	0xbd89618d	-0.067080595
179	0x3f0b4983	0.54409045
180	0x3e9c733f	0.30556676
181	0x3e833a8c	0.25630605
182	0x3e702d49	0.23454775
183	0x3e928a22	0.28621012
184	0xbd63cb49	-0.05561379
185	0xbda121b1	-0.07867754
186	0xbdab0b5b	-0.08351775
187	0xbf19423c	-0.5986669
188	0xbe306238	-0.17224967
189	0xbdf2ed50	-0.1186167
190	0xbe435515	-0.19075425
191	0x3dd633e5	0.10459117
192	0xbe9b74d5	-0.30362573
193	0x3d26dbf5	0.04073711
194	0x3d943b73	0.072379015
195	0xbd7eb544	-0.062184587
196	0x3e8d4825	0.27594104
197	0xbe182b4e	-0.1486027
198	0x3d1c9efa	0.03823755
199	0xbe28c626	-0.16481838
200	0xbebbfeaa	-0.3671773
201	0xbd0cca46	-0.03437259
202	0xbd806045	-0.06268362
203	0xbd97da4c	-0.07414684
204	0x3db23760	0.08701968
205	0xbcc57d60	-0.024107635
206	0xbde67c6d	-0.11254201
207	0x3e9a8fe5	0.30187908
208	0x3e0e46fb	0.13894264
209	0xbef96168	-0.48707128
210	0x3ddd84a4	0.10816315
211	0xbc05cee9	-0.008167007
212	0x3e40d98a	0.18832985
213	0xbe3f56aa	-0.18685403
214	0xbe95c093	-0.29248485
215	0x3e73b3d4	0.23799068
216	0x3e64a14a	0.22327152
217	0x3db384e1	0.08765579
218	0x3e205118	0.15655935
219	0xbd99c0db	-0.075074874
220	0x3db01ef8	0.08599657
221	0x3e8f3050	0.27966547
222	0xbe80b401	-0.25137332
223	0x3bb34403	0.005470754
224	0x3ea4bce4	0.32175362
225	0xbdcb864c	-0.099377245
226	0x3da03a15	0.07823578
227	0xbe329d14	-0.17442733
228	0xbe1229aa	-0.14273706
229	0x3d4eedc7	0.05051973
230	0x3e25a565	0.16176374
231	0xbee5875a	-0.44829828
232	0xbe2f5cbc	-0.17125219
233	0xbd45694a	-0.048196115
234	0x3e348f4b	0.17632787
235	0x3e9dab2c	0.30794656
236	0x3ea803d6	0.32815427
237	0x3ef84550	0.4849038
238	0x3ed2593f	0.41083714
239	0x3e1a1959	0.15048732
240	0xbe088a01	-0.13333894
241	0x3d5506d2	0.052008457
242	0xbe867092	-0.2625776
243	0xbd8c7ff4	-0.068603426
244	0x3e5f06b3	0.217799
245	0x3eef1ac9	0.46700123
246	0xbe051674	-0.12996846
247	0x3ca92357	0.020646734
248	0x3a948ad1	0.0011332874
249	0x3e883ea0	0.2661028
250	0x3da46b90	0.080283284
251	0x3dfaf377	0.122534685
252	0xbe0853e8	-0.13313258
253	0xbe124c9f	-0.14287041
254	0xbeb3c5bc	-0.35111797
255	0xbdb427a8	-0.08796626

conv2.conv1.0.bias f4 [16]
0	0xbc8c051e	-0.017092284
1	0xbdc57405	-0.096412696
2	0x3ce25a24	0.027630873
3	0x3d0ffe7c	0.035154805
4	0xbdbecf69	-0.09316904
5	0xbdd85147	-0.105623774
6	0x3c4a4fd2	0.012348132
7	0x3deb7602	0.114971176
8	0xbdd7af8c	-0.1053153
9	0xbd6c4d8f	-0.057691153
10	0xbd26523e	-0.040605776
11	0xbdd4ffb4	-0.10400334
12	0xbd947891	-0.07249559
13	0x3dbd4926	0.092424676
14	0x3db86e06	0.0900536
15	0xbdb16741	-0.08662272

conv2.conv1.1.weight f4 [16]
0	0x3f857c66	1.0428588
1	0x3f64b129	0.89332825
2	0x3f8d4acc	1.1038451
3	0x3f622c15	0.88348514
4	0x3f81a029	1.0127002
5	0x3f8addb4	1.0848908
6	0x3f800846	1.0002525
7	0x3f8afdad	1.0858666
8	0x3f989b2a	1.1922352
9	0x3f894ba6	1.0726211
10	0x3f96262a	1.1730397
11	0x3f87c81f	1.0607947
12	0x3f680ef1	0.906478
13	0x3f898205	1.0742804
14	0x3f85cba8	1.0452776
15	0x3f841412	1.0318625

conv2.conv1.1.bias f4 [16]
0	0x3d8294f5	0.063760675
1	0x3be49457	0.0069756913
2	0xbe830985	-0.255932
3	0xbd856b5b	-0.06514617
4	0xbe04bacc	-0.12961882
5	0x3c81fcb8	0.015867576
6	0xbe01927f	-0.1265354
7	0x3e7621a3	0.24036269
8	0xbca4fdad	-0.020140493
9	0x3d8ad38a	0.06778629
10	0xbd136289	-0.035982642
11	0x3d95cb54	0.073141724
12	0xbd8c9e93	-0.06866183
13	0x3dcb7a1e	0.099354014
14	0xbc870026	-0.016479563
15	0xbe3e532a	-0.18586412

conv2.conv1.1.running_mean f4 [16]
0	0xc0119c3d	-2.275161
1	0xc051f0df	-3.2803266
2	0xbfa43398	-1.2828245
3	0x3fcdbf02	1.6073916
4	0xbfa63048	-1.2983484
5	0xc03e1040	-2.9697418
6	0xbd3fe498	-0.046848863
7	0x3e769974	0.24081975
8	0xbf64cda4	-0.8937628
9	0xbebe454b	-0.3716224
10	0xc058fd51	-3.3904612
11	0xbf79f0db	-0.9763314
12	0x3f0b267b	0.5435559
13	0x3ee95ba6	0.45577735
14	0xc0729316	-3.7902274
15	0xc0a1a665	-5.051562

conv2.conv1.1.running_var f4 [16]
0	0x411d3606	9.825689
1	0x407024db	3.7522495
2	0x407957b4	3.895978
3	0x41066581	8.399781
4	0x4058d685	3.3880932
5	0x40b074a4	5.5142384
6	0x40cd45b5	6.414759
7	0x40502ed6	3.2528586
8	0x401f22c1	2.4864962
9	0x40c3a0f8	6.1133995
10	0x40a1ea57	5.059856
11	0x406d127a	3.7042527
12	0x40397cd7	2.8982446
13	0x4078652a	3.8811746
14	0x40cf468d	6.477362
15	0x4096d3c2	4.7133493

conv2.conv2.0.weight f4 [16, 16, 3, 3]
0	0xbe58f130	-0.21185756
1	0xbe1a9f12	-0.15099743
2	0x3ba5d368	0.005060602
3	0xbe2bc553	-0.16774492
4	0xbe858767	-0.26079866
5	0x3d0fa3c0	0.035068274
6	0xbeb0ebfc	-0.34555042
7	0xbdbd60ba	-0.09246965
8	0xbe2bd902	-0.16782
9	0x3def35fc	0.116802186
10	0x3db2af1f	0.08724808
11	0xbce71692	-0.028209005
12	0x3e8a50ef	0.27014872
13	0x3e61b297	0.22040783
14	0x3dbf5dd5	0.09344069
15	0xbd661d11	-0.056180064
16	0xbe1b6725	-0.15176065
17	0xbd72a124	-0.059235707
18	0xbe3d6c33	-0.18498306
19	0xbea69441	-0.32534984
20	0xbd097f9e	-0.03356897
21	0xbd6dca85	-0.058054466
22	0x3d180f78	0.037124127
23	0xbc9b47ee	-0.018955197
24	0xbe5f0b4e	-0.21781656
25	0xbd9d3933	-0.076769255
26	0xbe358839	-0.17727746
27	0x3ce925b1	0.028460355
28	0xbe600d36	-0.2188004
29	0xbe796cd2	-0.24357918
30	0xbe23bc30	-0.15989757
31	0x3d92a17f	0.07159709
32	0xbd218961	-0.039437655
33	0xbda5f534	-0.081034094
34	0xbdd6fbf6	-0.104972765
35	0xbe378125	-0.17920358
36	0x3e1d3ee1	0.15356018
37	0xbda365b1	-0.079783805
38	0x3d61e34d	0.05514841
39	0x3e38f203	0.1806107
40	0xbd8b82b9	-0.06812043
41	0xbe8144a9	-0.25247696
42	0x3df46c93	0.119347714
43	0xbcba476a	-0.022739131
44	0xbe18ba2e	-0.14914772
45	0x3cf76999	0.03020172
46	0xbd90f48d	-0.07077894
47	0xbcd7dc42	-0.026350144
48	0x3dd9057d	0.1059675
49	0x3e747068	0.23871005
50	0x3dd53075	0.10409633
51	0xbe37b945	-0.17941768
52	0x3dd8e6f0	0.10590923
53	0xbd8ff05e	-0.07028268
54	0xbd0fb5aa	-0.035085358
55	0x3d84f877	0.064927034
56	0xbd29e2f3	-0.0414762
57	0xbd7ee98c	-0.062234446
58	0xbd8e154b	-0.06937655
59	0xbd712799	-0.058875654
60	0x3e180db1	0.14848973
61	0xbe11c029	-0.1423346
62	0xbe04912b	-0.12946002
63	0xbe4c3e54	-0.19945651
64	0x3e577861	0.21042015
65	0x3e3e736f	0.18598722
66	0x3d886d15	0.06661431
67	0xbeb09775	-0.34490553
68	0xbea37d1e	-0.31931394
69	0x3c2370a3	0.009975585
70	0xbe9355af	-0.2877631
71	0xbddb75a7	-0.107158
72	0xbdd490af	-0.10379159
73	0xbd687cfa	-0.056759812
74	0x3d213b72	0.039363332
75	0xbe774d23	-0.24150519
76	0xbe4a034e	-0.19727823
77	0x3db74d20	0.08950257
78	0x3a895954	0.0010478892
79	0xbd84801c	-0.064697474
80	0x3e01f93d	0.12692733
81	0x3d969e92	0.07354464
82	0xbdfb00ea	-0.12256034
83	0xbd7934a4	-0.060841218
84	0xbe1c4c30	-0.15263438
85	0xbe94be65	-0.2905151
86	0xbed2d34a	-0.41176826
87	0xbdc3a46a	-0.09552844
88	0xbe3d2a3e	-0.18473145
89	0xbe081943	-0.13290887
90	0x3dae8460	0.08521342
91	0xbd9fc73f	-0.07801675
92	0xbe04cf02	-0.12969592
93	0x3deef5d3	0.11667981
94	0xbd863c6a	-0.06554492
95	0x3d127adb	0.035761695
96	0xbd692409	-0.05691913
97	0x3d2d9d9c	0.042386636
98	0xbbd6655a	-0.0065428438
99	0xbdb20de1	-0.086940534
100	0xbd9efea8	-0.077634156
101	0xbe0aab2a	-0.13541856
102	0xbb9f3527	-0.004858631
103	0xbe5cc008	-0.21557629
104	0xbe954d73	-0.29160652
105	0x3e1f7fb3	0.15576057
106	0x3cfa1ab2	0.030530307
107	0xbd6c0516	-0.057622038
108	0xbe1f385e	-0.15548846
109	0xbcb8079d	-0.022464568
110	0xbe08db1d	-0.13364835
111	0xbc2fc6b3	-0.010728526
112	0x3d06d3b0	0.032916725
113	0x3dccb578	0.0999555
114	0x3e0a078d	0.13479443
115	0x3c8e9376	0.0174043
116	0x3c903557	0.01760356
117	0xbe877870	-0.26459074
118	0x3d8c5f81	0.068541534
119	0xbbe61990	-0.0070220903
120	0x3c0ba89d	0.008524087
121	0x3e835790	0.25652742
122	0x3d5635b2	0.0522973
123	0x3e209504	0.15681845
124	0xbdbb726f	-0.09152686
125	0x3d0daeaf	0.03459042
126	0x3d255bc8	0.040370733
127	0x3c685018	0.014179252
128	0xbe17c284	-0.14820296
129	0x3e55f9c3	0.20896058
130	0x3d9c7ee2	0.076413885
131	0xbdba9710	-0.09110844
132	0x3ddbbd7a	0.10729499
133	0xbd2a9f05	-0.04165556
134	0xbc2e4cd9	-0.010638439
135	0xbdc6ac3f	-0.09700822
136	0xbe18cdfc	-0.14922327
137	0xbd954d0b	-0.072900854
138	0x3d2dfb8c	0.042476222
139	0x3e061314	0.13093215
140	0x3e169dcc	0.14708632
141	0x3e1274cd	0.14302368
142	0x3d63854f	0.055547055
143	0x3dcc304e	0.09970151
144	0xbd076e8a	-0.033064403
145	0xbd9b0998	-0.07570189
146	0xbe4ab3c6	-0.1979514
147	0x3e35c174	0.17749578
148	0xbdaea79a	-0.08528061
149	0xbe1053df	-0.14094494
150	0x3e1a3c02	0.15061954
151	0x3d1aa09a	0.037750818
152	0x3d63a206	0.05557444
153	0xbe385b39	-0.18003549
154	0x3b314555	0.0027049382
155	0x3e5f2af2	0.21793726
156	0xbd9ec876	-0.07753079
157	0xbcb12321	-0.021623196
158	0x3dbc62f7	0.091985635
159	0xbe2d48a0	-0.16922235
160	0xbcf6806e	-0.030090537
161	0x3ca0f567	0.019648267
162	0xbde302a7	-0.1108449
163	0x3e47996e	0.19492123
164	0x3e1b1d77	0.15147959
165	0xbcef878e	-0.029239442
166	0x3e9425d2	0.28935105
167	0x3e099215	0.13434632
168	0xbec24dbd	-0.37949935
169	0x3e29c350	0.16578412
170	0x3dc191db	0.09451648
171	0xbe81d459	-0.2535732
172	0xbd58be89	-0.052916083
173	0xbdf6d868	-0.12052995
174	0x3dfc9388	0.12332827
175	0x3e89aa04	0.26887524
176	0x3c4f3cdb	0.012648786
177	0x3de4055e	0.11133836
178	0xbd6dfacf	-0.058100518
179	0x3e511472	0.20417956
180	0x3c4f8ca2	0.012667807
181	0xbe900a88	-0.28133035
182	0xbdd3e85d	-0.10347054
183	0xbd53e2e2	-0.051730044
184	0xbe17e5f3	-0.14833812
185	0x3dac598b	0.084155165
186	0xbe703969	-0.234594
187	0x39feedd8	0.00048623863
188	0x3e5432d1	0.2072251
189	0x3d66a6af	0.056311306
190	0x3e84b780	0.2592125
191	0x3d3adea2	0.045622475
192	0x3d98d867	0.074631505
193	0x3e938558	0.2881267
194	0xbca000d0	-0.019531637
195	0x3d192608	0.037389785
196	0xbe563847	-0.20919906
197	0x3d31c277	0.043398347
198	0xbdb938a2	-0.09044005
199	0x3e9808ae	0.29694122
200	0x3e02b061	0.12762596
201	0xbdeefad6	-0.11668937
202	0x3d5e4ea7	0.054274227
203	0x3d3cc894	0.046089724
204	0x3e219af0	0.1578176
205	0x3e4a3820	0.19747972
206	0x3e345dc2	0.17613891
207	0x3e6e9b22	0.23301366
208	0xbe058ba6	-0.13041553
209	0xbde8677d	-0.11347864
210	0xbe9cebe2	-0.30648714
211	0x3db1592f	0.086595885
212	0x3e4bbd47	0.19896422
213	0x3d2fdd5f	0.042935725
214	0x3e37f475	0.17964347
215	0x3e0e7aeb	0.13914077
216	0xbdc78a9d	-0.09743235
217	0xbe3a27a4	-0.18179184
218	0xbd5299ca	-0.051416196
219	0x3e1a7ed8	0.1508745
220	0xbddd2ae6	-0.10799198
221	0x3dad89d1	0.08473552
222	0xbdcbae16	-0.09945314
223	0xbdeab390	-0.1146003
224	0xbe941f60	-0.28930187
225	0x3d1b1bb1	0.037868205
226	0xbd940b0d	-0.0722867
227	0xbe448b30	-0.19193721
228	0x3ebe1708	0.37126946
229	0x3e25be60	0.16185904
230	0x3d20b09a	0.03923092
231	0x3c1d0690	0.009584084
232	0x3d31f786	0.043448947
233	0xbec7a5a9	-0.38993576
234	0x3d77138d	0.06032138
235	0x3c1b7cdd	0.009490219
236	0xbcfc8cae	-0.0308288
237	0x3dcebfa5	0.10095147
238	0xbdbef819	-0.093246646
239	0xbcf31490	-0.02967289
240	0xbe7799fe	-0.24179837
241	0xbe338e45	-0.1753474
242	0xbd9f6ee9	-0.07784826
243	0x3d0ceb9b	0.03440438
244	0x3d765f32	0.06014938
245	0x3d2ec671	0.042669717
246	0xbddcad71	-0.10775269
247	0xbe3b1c84	-0.18272597
248	0x3d04eb6e	0.032451086
249	0xbe31c2d2	-0.17359474
250	0x3d0a82e0	0.03381622
251	0x3df15553	0.117838524
252	0x3d71a846	0.05899837
253	0xbd83a9a5	-0.064288415
254	0x3e28d713	0.16488294
255	0xbdb3f930	-0.08787763

conv2.conv2.0.bias f4 [16]
0	0xbcb57731	-0.022151561
1	0x3d3afd55	0.045651753
2	0xbd49805c	-0.04919468
3	0xbcb44504	-0.022005565
4	0x3d9c492e	0.076311454
5	0x3d359dc7	0.04433992
6	0xbd8444de	-0.06458448
7	0xbcbb7111	-0.022881063
8	0x3c05ec3c	0.008173998
9	0x3cf668b4	0.030079223
10	0xbd1ce27b	-0.038301926
11	0x3d6ec8ab	0.05829684
12	0x3aaaada3	0.0013021718
13	0xbd936cdb	-0.07198497
14	0x3cb6c2cd	0.022309685
15	0xbda58560	-0.0808208

conv2.conv2.1.weight f4 [16]
0	0x3f5a7481	0.8533402
1	0x3f876783	1.0578464
2	0x3f908516	1.1290615
3	0x3f5994f9	0.8499294
4	0x3f7fd8df	0.99940294
5	0x3f815490	1.0103931
6	0x3f461c40	0.77386856
7	0x3f4ee549	0.8081861
8	0x3f8c60ea	1.0967076
9	0x3f67a6c8	0.90488863
10	0x3f894427	1.0723923
11	0x3f9f3970	1.2439404
12	0x3f81ab1b	1.0130342
13	0x3f9dda17	1.2332181
14	0x3f9f0b3f	1.2425307
15	0x3f61823a	0.88089335

conv2.conv2.1.bias f4 [16]
0	0xbe3fa16d	-0.18713923
1	0xbdb98ae8	-0.090596974
2	0xbe61f59c	-0.22066349
3	0xbdf2be10	-0.11852658
4	0xbe28a1e8	-0.16468012
5	0x3e387a4c	0.18015403
6	0xbe3c64d2	-0.18397835
7	0xbdf7befa	-0.12096973
8	0xbd49404c	-0.049133584
9	0xbdb0e192	-0.08636774
10	0xbe5d5323	-0.21613745
11	0xbc89d643	-0.0168258
12	0xbd6209cb	-0.05518512
13	0x3c53fc45	0.012938564
14	0x3e9b0c32	0.30282742
15	0x3e287d3d	0.16454025

conv2.conv2.1.running_mean f4 [16]
0	0xc01d5ff6	-2.458982
1	0x3f0d9198	0.55300283
2	0xbe7e6f68	-0.24847186
3	0xbe419c64	-0.18907315
4	0xbd917af7	-0.07103532
5	0xc00cd713	-2.200627
6	0xbe40f3d3	-0.18843012
7	0xbfa38799	-1.2775756
8	0xc0447709	-3.0697653
9	0x3eae041c	0.3398751
10	0x3f803d41	1.0018693
11	0x3f41af94	0.75658536
12	0xbffe2931	-1.9856321
13	0xbef3fa52	-0.47651917
14	0x3d4c811b	0.049927812
15	0xc042c06e	-3.042995

conv2.conv2.1.running_var f4 [16]
0	0x3ffbd03c	1.9672923
1	0x401ff870	2.4995384
2	0x40aa9b8a	5.3314867
3	0x408b0c04	4.3452168
4	0x408f9de5	4.488024
5	0x4043cfe0	3.0595627
6	0x3ffb8239	1.9649116
7	0x402611a4	2.5948267
8	0x40cf8cf3	6.4859557
9	0x403efde4	2.9842463
10	0x40358d2b	2.8367412
11	0x4032c427	2.7932222
12	0x40349e5f	2.8221662
13	0x40163e0a	2.3475366
14	0x40acb309	5.396855
15	0x402b503a	2.6767716

conv2.conv3.0.weight f4 [16, 16, 3, 3]
0	0xbe32b238	-0.17450798
1	0x3bf4611e	0.0074578663
2	0xbe721328	-0.2364012
3	0x3e2fc91a	0.17166558
4	0x3dcb0c37	0.09914439
5	0x3d9e1c6a	0.07720263
6	0x3d3ac618	0.045599073
7	0xbe2c609f	-0.16833733
8	0xbd1b86d8	-0.037970394
9	0xbda9824e	-0.08276807
10	0xbc8bdfd5	-0.017074505
11	0x3d2851b5	0.041093547
12	0xbe04c6f6	-0.12966523
13	0x3d7af745	0.06127097
14	0x3e67509e	0.22589347
15	0xbc53df47	-0.012931651
16	0xbd80f495	-0.0629665
17	0xbd540a76	-0.05176779
18	0xbeb022a1	-0.3440142
19	0xbedd0d42	-0.43174177
20	0x3d6773f2	0.05650706
21	0xbe2e7f06	-0.17040643
22	0xbe4d6094	-0.20056373
23	0xbe4f8b1a	-0.20267907
24	0xbe6d192e	-0.23154137
25	0xbebc6491	-0.36795476
26	0xbd122db6	-0.035688125
27	0x3bea93f0	0.007158749
28	0x3da6f43c	0.08152053
29	0x3e5b646a	0.21425024
30	0xbdb89d1b	-0.090143405
31	0x3daf0b29	0.085470505
32	0x3dcec54d	0.10096226
33	0x3da0056d	0.07813535
34	0xbd9f64c9	-0.07782895
35	0x3e8d9d34	0.27659
36	0x3d625912	0.055260725
37	0xbd51b07f	-0.05119371
38	0xbe82c136	-0.25538033
39	0x3daef4fb	0.0854282
40	0x3e75f660	0.24019766
41	0xbe36b2b4	-0.17841607
42	0xbda00229	-0.07812912
43	0x3e6be005	0.23034675
44	0xbc1eb694	-0.009687085
45	0x3ea4750b	0.32120547
46	0x3dfdc187	0.12390428
47	0xbe2922be	-0.1651716
48	0x3d672277	0.056429353
49	0x3e37ca35	0.1794823
50	0x3e252015	0.1612552
51	0x3e5d27d8	0.2159723
52	0x3db1f385	0.08689026
53	0xbea222c2	-0.31667143
54	0x3e4a7ee6	0.1977497
55	0xbdd5618f	-0.104189985
56	0x3d2884b2	0.041142173
57	0x3dafb98a	0.08580311
58	0xbdee73b3	-0.116431616
59	0xbcbaeabd	-0.02281701
60	0xbd9cba75	-0.07652751
61	0x3da58537	0.08082049
62	0xbd12a04d	-0.035797406
63	0x3db668ee	0.089067325
64	0x3d450a96	0.0481058
65	0x3e8204fc	0.25394428
66	0xbdbd551b	-0.09244748
67	0xbe391996	-0.18076167
68	0xbe86ec16	-0.26351994
69	0x3e33e5fc	0.17568201
70	0x3d89d13e	0.06729363
71	0x3dc74ab3	0.097310446
72	0xbeae86f7	-0.34087345
73	0x3d16208d	0.036652137
74	0x3dee8eb7	0.116483144
75	0x3df56f06	0.11984067
76	0x3e22d8c1	0.15902998
77	0x3cc8ff13	0.024535691
78	0x3e626353	0.22108202
79	0xbe09275e	-0.13393924
80	0xbe861af6	-0.26192445
81	0x3e92b39d	0.2865266
82	0x3e319d5f	0.17345189
83	0x3d813f27	0.063108735
84	0xbe53d6b9	-0.20687379
85	0x3d71daa3	0.0590464
86	0x3da6ed1b	0.08150693
87	0xbe1f9aee	-0.15586445
88	0xbd6f1043	-0.058365118
89	0x3d8983b7	0.06714576
90	0xbc82ab7c	-0.01595091
91	0x3d7ea22e	0.062166385
92	0x3dda3ebe	0.106564984
93	0xbe3fb4f5	-0.18721373
94	0xbd2b46cb	-0.04181556
95	0x3dd39298	0.10330695
96	0x3c69ac05	0.014262204
97	0xbd5f7378	-0.05455348
98	0x3dc23032	0.09481849
99	0xbe88188a	-0.26581222
100	0xbd936813	-0.07197585
101	0xbdfc5dc6	-0.12322573
102	0xbd991344	-0.07474378
103	0xbd563467	-0.05229607
104	0xbdd81537	-0.105509214
105	0xbe245a66	-0.1605011
106	0xbdc6c751	-0.09705985
107	0xbe202f02	-0.15642932
108	0xbdb5ca16	-0.088764355
109	0x3d8679b5	0.065661825
110	0x3dcc81d2	0.09985699
111	0xbe2b7727	-0.16744672
112	0x3c0ab921	0.00846699
113	0x3d1d50de	0.0384072
114	0x3e15fa12	0.14646176
115	0xbe4e3b5f	-0.20139836
116	0x3d22c133	0.03973503
117	0xbdc2f7ba	-0.09519906
118	0x3df88630	0.12134969
119	0xbd2d03f8	-0.042240113
120	0xbe0df6d9	-0.13863696
121	0xbd9b39de	-0.07579397
122	0xbde2085a	-0.11036749
123	0x3e3c2520	0.18373537
124	0xbc462710	-0.012094274
125	0x3c172ecf	0.009227469
126	0x3d88c46e	0.06678091
127	0xbd6fad9e	-0.058515184
128	0xbe80e983	-0.25178155
129	0x3daf9043	0.085724376
130	0x3d03fd0a	0.03222374
131	0xbe74e6ec	-0.23916215
132	0xbdccb7fc	-0.0999603
133	0xbe417888	-0.18893635
134	0xbea1887b	-0.3154944
135	0x3e766d38	0.24065101
136	0xbdc5daa7	-0.09660845
137	0xbca27fdc	-0.019836359
138	0x3e3d6784	0.1849652
139	0x3d8e2258	0.06940144
140	0x3e44aea6	0.19207248
141	0x3d99f04d	0.07516537
142	0xbc5e7407	-0.013577468
143	0x3ceb714c	0.028740548
144	0x3d947218	0.07248324
145	0x3d47bcd2	0.048764057
146	0xbd213003	-0.03935243
147	0x3e84bf18	0.25927043
148	0xbe00fb99	-0.12595977
149	0xbda1ff1b	-0.07909986
150	0x3e88326d	0.26600972
151	0xbd29d044	-0.041458383
152	0x3c26a54c	0.010171246
153	0xbe151e43	-0.14562325
154	0x3eeb8f9c	0.46008003
155	0x3e1d4a7b	0.15360443
156	0x3c238fea	0.009983042
157	0xbdb55b38	-0.08855289
158	0xbe2bd0d4	-0.1677888
159	0xbe94dc36	-0.29074258
160	0xbd8694de	-0.06571363
161	0x3e83da3f	0.25752446
162	0xbe8b15ed	-0.27165166
163	0x3cb1313c	0.021629922
164	0x3e0a85a4	0.13527542
165	0xbe887773	-0.26653633
166	0xbdf4ea6e	-0.119587764
167	0xbaa8eb6d	-0.0012887545
168	0x3d4b5d66	0.04964962
169	0x3e13dcb8	0.14439666
170	0x3df2a657	0.11848133
171	0xbd505cb0	-0.050869644
172	0xbd707e3a	-0.05871413
173	0xbe71b3f1	-0.23603798
174	0x3d23e932	0.040017314
175	0x3dafa31b	0.08576032
176	0x3d82a1b2	0.06378497
177	0xbeb084a9	-0.34476212
178	0x3e1164b2	0.14198568
179	0xbd2468b2	-0.040138908
180	0xbe488ca0	-0.19584894
181	0xbe20d972	-0.15707949
182	0xbd559fdc	-0.052154407
183	0xbe4c0a84	-0.19925886
184	0xbdb666d8	-0.08906335
185	0xbe89d827	-0.26922724
186	0xbd25d4a0	-0.040485978
187	0xbd11c865	-0.0355915
188	0xbdb5fa7f	-0.08885669
189	0x3e6e5f97	0.23278652
190	0x3cfb605a	0.030685592
191	0xbd59f623	-0.05321325
192	0x3e8d70d6	0.2762515
193	0xbd9590f3	-0.073030375
194	0xbe030203	-0.12793736
195	0x3a9fa746	0.0012180589
196	0xbcac1b61	-0.021009149
197	0x3c7c9c35	0.015418102
198	0x3e3a0258	0.18164957
199	0x3d74579f	0.059653874
200	0x3e497284	0.1967259
201	0x3ed0b425	0.4076244
202	0xbc33c7fb	-0.010972972
203	0x3c8c4339	0.017121898
204	0x3e2f3dfe	0.17113492
205	0x3d2f77ee	0.042838983
206	0x3df8a7b0	0.12141359
207	0xbd872c8c	-0.066002935
208	0xbe2a5dca	-0.1663734
209	0x3c446c00	0.01198864
210	0xbcddaafb	-0.027059069
211	0x3d5344dc	0.05157934
212	0x3e02b956	0.12766013
213	0x3e549187	0.2075864
214	0xbb23fa31	-0.0025020952
215	0x3de7c693	0.11317172
216	0x3e69d525	0.22835214
217	0x3edb5886	0.42840976
218	0x3e7e4887	0.24832354
219	0xbc104c8e	-0.008807315
220	0x3d69946f	0.057026323
221	0xbea75872	-0.32684666
222	0x3e0ce291	0.13758303
223	0xbdd1dafa	-0.102468446
224	0x3dd2ead2	0.10298695
225	0xbdc98cad	-0.09841285
226	0xbe180eb1	-0.14849354
227	0xbe44a90f	-0.19205116
228	0xbda8e155	-0.08246104
229	0x3d1d3034	0.03837605
230	0x3e628279	0.22120084
231	0x3ddd773e	0.10813759
232	0xbdab7696	-0.08372228
233	0x3e12f73e	0.14352128
234	0xbc40fc29	-0.01177887
235	0x3ee022ba	0.43776494
236	0x3ed228c8	0.4104674
237	0x3e3c3908	0.1838113
238	0x3d73c8c7	0.059517648
239	0x3d954bd7	0.07289856
240	0xbd49969e	-0.049215905
241	0xbe0097e8	-0.12557948
242	0x3cf1ad84	0.029501684
243	0xbde6e9cc	-0.11275062
244	0x3c0523ac	0.008126181
245	0xbe5b507c	-0.21417421
246	0x3e12de1d	0.14342542
247	0xbe0be17f	-0.13660239
248	0x3ddb718c	0.10715017
249	0xbe008c52	-0.12553528
250	0x3d85fd75	0.06542484
251	0xbd1e44a8	-0.038639694
252	0xbd971ee8	-0.07378942
253	0xbe228b3a	-0.15873423
254	0xbde0df62	-0.10980107
255	0xbd0426c5	-0.032263536

conv2.conv3.0.bias f4 [16]
0	0xbc482cf5	-0.01221775
1	0xbd743c90	-0.05962807
2	0x3b182915	0.0023217846
3	0x3d43419d	0.047669996
4	0x3b35247b	0.0027640152
5	0x3d565e6a	0.052336134
6	0xbd00d3e1	-0.031452063
7	0x3d85b686	0.06528954
8	0x3ca275e2	0.019831602
9	0xbce53c0f	-0.02798274
10	0x3d2467f5	0.040138204
11	0x3d27b24e	0.04094153
12	0xbd1232fa	-0.035693146
13	0xbc781fa7	-0.015144265
14	0x3d300032	0.042968936
15	0xbd96445e	-0.07337259

conv2.conv3.1.weight f4 [16]
0	0x3f591afb	0.84806794
1	0x3f6fe3ab	0.9370677
2	0x3f6321f0	0.8872366
3	0x3f8e99f9	1.1140739
4	0x3f811008	1.0083017
5	0x3f6795bd	0.9046286
6	0x3f908f23	1.1293682
7	0x3f7e4baa	0.99334204
8	0x3fa0b434	1.2554994
9	0x3f82204e	1.0166109
10	0x3f8ddbc5	1.1082693
11	0x3f892853	1.0715431
12	0x3f749613	0.95541495
13	0x3f90005c	1.125011
14	0x3f96ea8e	1.179033
15	0x3f49ee37	0.7887911

conv2.conv3.1.bias f4 [16]
0	0xbcfe8422	-0.031068865
1	0xbd9a7d84	-0.075434715
2	0x3cb2f7f7	0.021846754
3	0xbd936a8b	-0.07198056
4	0x3e637384	0.22212034
5	0xbdf703a4	-0.12061241
6	0x3eaa8e66	0.33311766
7	0x3dd3ad7e	0.103358254
8	0x3dbef6aa	0.09324391
9	0x3bc0c1b8	0.005882468
10	0xbca7c4f4	-0.020479657
11	0xbe40a4da	-0.18812886
12	0x3da35ccd	0.07976685
13	0x3e3246b1	0.17409779
14	0x3c15fb38	0.0091541335
15	0xbe053718	-0.13009298

conv2.conv3.1.running_mean f4 [16]
0	0xbf834914	-1.0256677
1	0xbe08d455	-0.13362248
2	0x3cd2b929	0.025723057
3	0xbf42e31e	-0.76127803
4	0xbfc3bfac	-1.5292869
5	0xbefae987	-0.49006292
6	0x3c737045	0.01485831
7	0xbf97118d	-1.1802231
8	0x3d587786	0.05284836
9	0xbfcca051	-1.5986425
10	0x3ed250e6	0.41077346
11	0xbcc80775	-0.024417618
12	0xbf1ab611	-0.6043406
13	0xbf499c28	-0.787539
14	0xbea0ac8e	-0.3138165
15	0x3edf7910	0.4364705

conv2.conv3.1.running_var f4 [16]
0	0x4087d63a	4.2449007
1	0x403c628d	2.943515
2	0x40515748	3.2709522
3	0x4062c4ae	3.5432544
4	0x40aa31bb	5.3185706
5	0x401c4a9b	2.4420536
6	0x408cd7e5	4.4013543
7	0x40ae4ef3	5.4471374
8	0x4063e524	3.5608606
9	0x3fd7d654	1.6862283
10	0x4056dd62	3.3572621
11	0x40af3142	5.474763
12	0x4071c425	3.7775967
13	0x400f8b21	2.2428668
14	0x4096d6eb	4.713735
15	0x400f4301	2.2384646
