checkpoints/ifind1_sononet_8_6classes/033_net_6classes_class.pth (torch_old, 671819 bytes, 90 tensors)

conv1.conv1.0.weight f4 [8, 1, 3, 3]
000000 2a cb 55 3d fa e0 a0 3f 85 07 b7 3e c0 f4 4d 3e
       0.052195705 1.2568657 0.35747924 0.20112896
000010 98 f7 c8 be 10 3d 9a 3e 80 5e 66 be d7 96 8c 3e
       -0.392514 0.30124712 -0.22496986 0.27458832
000020 a7 47 67 bf 01 9e f4 3e 21 e1 1e 3f b9 c5 d3 be
       -0.9034371 0.47776797 0.6206227 -0.41361788
000030 36 55 18 3f c8 48 4b 3f 52 08 35 bf c9 95 06 be
       0.5950502 0.7940793 -0.7071582 -0.13143076
000040 12 f4 5e 3f ec d4 be 3e 10 17 89 3f 98 25 3a bf
       0.8709117 0.37271821 1.0710163 -0.72713614
000050 d4 bd 27 bf 56 2c 0d 3f c6 c5 b6 3e 4a 03 65 be
       -0.6552403 0.55145776 0.35697764 -0.22364536
000060 14 df f1 be da b8 50 3c 77 5c 81 3f d6 be 10 3f
       -0.47240508 0.012739385 1.0106343 0.5654119
000070 87 82 53 3f e6 68 b0 3f 6c 00 54 bf 9b c5 15 bf
       0.82621044 1.3782012 -0.82813144 -0.58504647
000080 03 ec 70 bd ef 75 18 bf 01 20 35 bf 2a d4 c2 3d
       -0.05881883 -0.5955495 -0.7075196 0.09513123
000090 d1 14 d4 be 57 3a 84 be 3e 82 a9 bf 48 fd 6e be
       -0.41422132 -0.2582576 -1.3242872 -0.23338807
0000a0 e1 80 9b 3c f8 fa 16 3e d1 e5 77 3f 8f 0d 73 3e
       0.018982353 0.14744174 0.96835047 0.23735641
0000b0 3d b2 fc 3e 70 61 79 be f4 21 d9 3d 13 e0 03 3f
       0.49354735 -0.24353576 0.10602179 0.51513785
0000c0 ac 6c 87 bf e2 78 7b bf 32 3f f8 3e da b9 0a bf
       -1.0580039 -0.9823133 0.48485714 -0.54189837
0000d0 52 a5 3e 3e 11 ad dc 3f 32 db 46 bf e9 7c 03 3f
       0.18617752 1.7240316 -0.77678216 0.5136247
0000e0 b6 74 92 3e 48 18 c3 bc 2b 6c 2c be 36 6c b2 3d
       0.28604668 -0.02381529 -0.16838138 0.08712046
0000f0 e3 a4 53 3f 27 fc 4f be 06 0b 10 3e 63 16 46 bf
       0.8267347 -0.20311032 0.14066705 -0.7737791
000100 70 fc 58 bf e2 7a 67 3e 8a 11 fe be 14 e8 99 bf
       -0.8476019 0.2260547 -0.49622756 -1.202395
000110 d8 90 80 bf 21 cb 03 bf e8 26 8b bf d4 0c ef 3e
       -1.0044203 -0.51481825 -1.0871248 0.46689475

conv1.conv1.0.bias f4 [8]
000000 eb 16 a4 3e f9 b4 8c be c4 1b a9 be ce 65 85 be
       0.32048735 -0.2748182 -0.33028996 -0.26054233
000010 7c 73 65 be 1b 2c 0a 3e e1 24 f4 3d 52 ad 8d 3e
       -0.22407335 0.13493387 0.119210966 0.27671295

conv1.conv1.1.weight f4 [8]
000000 30 20 83 3f 22 2a 39 3f e6 d5 52 3f 85 35 7d 3f
       1.0244198 0.72329915 0.82357633 0.9890979
000010 1c 85 8c 3f 70 2d a6 3f 80 19 30 3f 12 fa 66 3f
       1.0978122 1.2982616 0.6878891 0.90225327

conv1.conv1.1.bias f4 [8]
000000 9d 60 d2 be 25 ef 8d 3d 28 91 2b 3f 51 3a 9d 3e
       -0.41089335 0.06930379 0.67018366 0.30708554
000010 d1 57 03 3f 0a bb aa 3f 92 f0 58 be a4 b1 81 3e
       0.5130587 1.333833 -0.2118552 0.25330842

conv1.conv1.1.running_mean f4 [8]
000000 52 b3 a3 3e a8 8b 8c be a0 ee a7 be a4 66 84 be
       0.31972748 -0.274503 -0.32799244 -0.2585956
000010 be 05 66 be 47 1c 0f 3e 7d b5 f7 3d b5 78 8b 3e
       -0.22463128 0.1397563 0.12095163 0.2724053

conv1.conv1.1.running_var f4 [8]
000000 09 28 94 3f 97 94 bc 40 fc 7a 73 3f d3 b5 7f 3f
       1.1574718 5.8931384 0.95109534 0.99886817
000010 0f 70 59 3f 35 31 07 3f 72 2d f5 3e 0e 92 d0 41
       0.8493661 0.5280946 0.47886235 26.071316

conv1.conv2.0.weight f4 [8, 8, 3, 3]
000000 d2 de d2 3d 84 86 06 3f fc db 4b 3d f7 7c 75 3c
       0.10296406 0.52549005 0.04977034 0.014983407
000010 f4 6e 94 3e 9f 53 b0 bd 5c 5f ee bd f7 a3 58 3e
       0.289909 -0.086096995 -0.11639282 0.21156298
000020 d1 ea 34 be 5e 1b 0e be 85 f1 e0 3e 7b 90 d0 3e
       -0.176677 -0.13877627 0.43934265 0.4073523
000030 51 f0 41 bd 3c 7d 85 3e 4d b8 66 3e e6 b0 1d be
       -0.047348324 0.2607211 0.22531243 -0.15399513
000040 2e 67 08 be 40 91 85 bd d8 dd dc bd d7 a2 c8 bd
       -0.1332061 -0.06521845 -0.10784501 -0.09796684
000050 0e e1 7e 3e 17 4c 0f bf b5 1f 97 bd df 7a 18 3e
       0.24890539 -0.5597548 -0.073790945 0.14890622
000060 fb ef 04 be 6f 02 8b 3e e2 34 e6 3d 0c 90 8d 3e
       -0.1298217 0.27150294 0.11240555 0.27648962
000070 bc cf ac bd d7 0c b7 3d 1b 0c 3c 3e d5 67 4c bd
       -0.0843806 0.08937996 0.18363993 -0.04990371
000080 d0 1c 13 be 43 eb 42 3e 8e 70 62 3e b7 ad 39 be
       -0.1436646 0.19035058 0.22113249 -0.18132673
000090 a5 ef 59 3e b8 41 66 3e 4f 41 a6 3e a1 e4 53 be
       0.21282823 0.22486007 0.32471702 -0.20692684
0000a0 56 30 da bd 31 54 7c bd eb 5f e3 be 6b a5 24 be
       -0.106537506 -0.06160373 -0.44409117 -0.16078727
0000b0 3a f6 db 3b f7 07 2a 3f 2e 9b e7 bc 8e 0e 54 be
       0.006712702 0.66418403 -0.028272238 -0.20708677
0000c0 35 1f aa be 50 88 f0 be dd 85 bd be 0e 3f 2b 3f
       -0.33226934 -0.46978998 -0.37016192 0.6689309
0000d0 cf d1 f8 bd 26 25 3c 3b 8f 52 e8 bc e5 15 6e 3d
       -0.12149393 0.0028708666 -0.02835968 0.05812635
0000e0 75 4a bd 3d 39 07 9b 3e 26 34 51 3d 37 e5 52 be
       0.09242717 0.30278948 0.051075123 -0.20595251
0000f0 b3 2b dd 3d 10 3b 86 3d bb f1 61 be a0 0f a4 be
       0.107993506 0.06554234 -0.22064869 -0.3204317
000100 72 ac 9f be 55 b5 18 3e 04 4c 4a be e7 d7 3f be
       -0.31186253 0.14912923 -0.1975556 -0.18734704
000110 3c 63 4b be 09 ed 08 be c4 89 9c be 00 bf 17 be
       -0.19862074 -0.13371672 -0.30573857 -0.14818954
000120 82 e0 e5 3e 84 9d 9d bd 3f 27 a1 bd c1 c0 67 3e
       0.44897848 -0.07696059 -0.07868814 0.22632124
000130 42 11 31 3d f1 25 37 3d 68 fe e7 3e 2d 95 d1 3e
       0.04322935 0.044713918 0.45311284 0.40934125
000140 74 cd 36 3c 21 25 89 3e 49 79 bc 3e 28 c6 46 3e
       0.011157382 0.2678614 0.36811283 0.19411528
000150 38 bb 24 3d 5c fb af 3d fa 4e fd bd f9 d6 8a 3b
       0.04021761 0.08592865 -0.12368579 0.0042370525
000160 7e 76 6e be 1e ef 52 be 9a c6 9b bb 64 9f 75 bd
       -0.23287389 -0.20599028 -0.0047538998 -0.05996646
000170 6b a5 72 3e 84 3d 33 3e e7 52 8f 3e db a2 7d 3e
       0.23695914 0.17503935 0.27992937 0.24769156
000180 47 9e ba 3d 5d d7 30 3e a0 42 2e be 08 0e 1c be
       0.0911222 0.17269655 -0.17017603 -0.15239727
000190 bf 3d 94 be 16 1b 0c be bd b6 9d 3e 5a b7 e7 bd
       -0.2895336 -0.13682207 0.3080348 -0.113142684
0001a0 e8 40 a6 3d dc 60 8b 3e cb 88 26 be 30 7e 1c bd
       0.08117849 0.27222335 -0.1626312 -0.03820628
0001b0 11 e5 18 be b7 77 04 be 5a 0b d8 3b 97 54 48 3e
       -0.14931132 -0.12936293 0.00659315 0.19563518
0001c0 a5 bc 8f 3c c9 34 15 bd 72 8e e1 bc 81 ba 8c 3d
       0.017546007 -0.036427293 -0.027533744 0.0687151
0001d0 9a dd 2e be a2 e6 85 be b2 d3 95 3e c9 01 ef 3e
       -0.17076722 -0.2615252 0.29263073 0.4668105
0001e0 5b 43 98 be 6b 9e 8e 39 d1 27 53 3d 27 ac dd 3b
       -0.29738888 0.0002720238 0.051551644 0.006764907
0001f0 3e ae b3 bd e8 27 d3 be d1 a3 e1 bd 38 66 75 3e
       -0.087734684 -0.41241384 -0.110175736 0.23964775
000200 66 ad d9 bd 17 00 82 be 3e 63 f6 bd 20 cd 05 be
       -0.10628776 -0.25390694 -0.12030648 -0.1306653
000210 d1 46 17 be 86 6f 9e be 85 c2 96 be ff 24 41 be
       -0.14773108 -0.3094446 -0.29445282 -0.18861769
000220 ab 08 2a be ef b9 59 bd 9a 05 73 bd 76 fc 4a 3e
       -0.16604869 -0.053155836 -0.059331514 0.19822869
000230 93 75 05 be b5 e7 d4 3b b8 ac 01 be 73 38 6f 3d
       -0.13033132 0.006497348 -0.12663543 0.058403444
000240 ab 12 0c be 81 c8 92 3d 19 86 92 3d 84 1d 85 bd
       -0.13678996 0.07167149 0.07154483 -0.0649977
000250 98 40 65 3d dd 0c c4 be 74 fb c3 bd 4c 16 a5 be
       0.055969805 -0.38291064 -0.09569445 -0.32243574
000260 6e 39 8a be ed 4e a7 be 87 23 d5 bd 90 72 a3 3d
       -0.2699694 -0.32677403 -0.10407167 0.079808354
000270 15 ba 0e bd e1 8d 57 3d df 4c 3e 3d 9e a9 6b be
       -0.03484543 0.05262554 0.04646003 -0.23013923
000280 ce ab da bd 64 23 05 3e 31 98 04 be 3f 23 5d 3e
       -0.106773004 0.13001782 -0.12948681 0.21595477
000290 a4 06 ce 3d 96 c6 a4 be dc 97 bd bd a7 ec 01 bf
       0.1005986 -0.3218276 -0.092574805 -0.5075173
0002a0 6a d7 e1 be c3 da 76 be 4e 76 85 bd 20 e0 9e 3c
       -0.4410966 -0.24106888 -0.065167055 0.01939398
0002b0 1d bf e8 bd 39 c3 17 3e df 59 39 3e d3 46 82 3e
       -0.11364577 0.14820565 0.1810069 0.2544466
0002c0 f8 12 54 3e 22 5c d3 be b0 26 ee bc 17 05 db 3c
       0.20710361 -0.4128123 -0.029071182 0.026735825
0002d0 ef 8e 92 be 41 ea 0f be c6 c5 9d be 43 e2 d0 bd
       -0.28624675 -0.14054205 -0.30814952 -0.10199406
0002e0 63 5d be be b4 56 1c be 7b 82 47 3e 2b 9d f9 bd
       -0.37180623 -0.1526745 0.19483368 -0.121881805
0002f0 6d 72 f9 3d 36 1b e2 bd 73 51 42 be 6f 61 6d 3d
       0.12180028 -0.11040346 -0.18976383 0.057954248
000300 82 67 9f 3d 39 da b5 3d cf 32 76 3e 17 16 14 3f
       0.077834144 0.08879513 0.2404282 0.57846206
000310 43 a1 d1 3c 20 10 fb 3c 60 5f 9e 3a 71 ae 7d be
       0.02558959 0.030647337 0.0012082867 -0.24773575
000320 69 71 9a bc 48 f3 ba bc 35 2f 00 be b0 df 1f bd
       -0.018852906 -0.022821084 -0.12518008 -0.039031684
000330 fa d2 26 3e f4 61 2d be c7 ec a5 bc 6f 3e 12 be
       0.16291419 -0.16931897 -0.020254506 -0.14281629
000340 24 e8 3f bc 33 05 93 bc 46 8c 36 3e 10 fc 09 3e
       -0.0117130615 -0.017946815 0.17826948 0.1347506
000350 3c 7b 17 3d e1 71 95 bd e1 f9 cf bc 07 fd 47 3e
       0.03698276 -0.07297111 -0.025387706 0.19530116
000360 97 0e 7a 3e 8f 66 88 3e 7c b9 0f 3e 4e 65 2f 3e
       0.24419628 0.26640746 0.140356 0.17128488
000370 e1 73 7f bc 7d d1 2a bd c4 66 1e be 8a 72 43 bc
       -0.0155915925 -0.04170369 -0.1546889 -0.011929164
000380 28 33 4e be 7e f8 8b bd 1a d9 0f be d8 54 d9 bd
       -0.20136702 -0.068345055 -0.14047661 -0.10611886
000390 35 6b d9 bd 8b 55 43 be 2d 23 23 be 2e fb 21 bc
       -0.10616151 -0.19075601 -0.15931387 -0.009886546
0003a0 a6 ff 8f be dc 29 53 bd 36 dc 12 bd 6d 08 8d be
       -0.28124732 -0.051553592 -0.03585454 -0.2754549
0003b0 5e a2 37 be 3b 60 9e bd 4f 19 64 be a3 76 bc 3d
       -0.17933032 -0.07733198 -0.2227528 0.09202316
0003c0 a5 15 3e bd 67 f1 50 be 97 d9 8a be 19 91 17 ba
       -0.04640736 -0.20404588 -0.27119133 -0.0005781814
0003d0 8e 3a 45 3d 67 7f c6 3e 75 bf 4d be 00 0c 14 3e
       0.048151545 0.38769075 -0.20092566 0.14457703
0003e0 9a 04 7a 3e 3c d0 4d be 74 db b2 be e7 b5 ae be
       0.24415818 -0.20098966 -0.34933054 -0.34123155
0003f0 48 f2 bd 3d e5 88 27 bc e9 63 8a be a9 ed 98 3d
       0.09274727 -0.010225509 -0.2702935 0.07467205

conv1.conv2.0.bias f4 [8]
000000 44 04 9f bc 3b 45 89 bd a4 fc 9b bc df 95 c3 3d
       -0.019411214 -0.06702658 -0.019041367 0.0955007
000010 a2 d5 b2 bd d1 fd da 3c 91 0b ed bd 76 c8 7c 3d
       -0.087321535 0.026732357 -0.11574472 0.061714612

conv1.conv2.1.weight f4 [8]
000000 54 90 7b 3f 39 1f 6e 3f fb a7 77 3f 89 83 a3 3f
       0.982671 0.9301639 0.9674069 1.2774516
000010 ab 5f 94 3f 3c b2 3e 3f 07 39 a0 3f 40 31 9b 3f
       1.1591696 0.74490714 1.2517403 1.2124405

conv1.conv2.1.bias f4 [8]
000000 03 03 fd 3d 5e 51 a8 be 76 d6 86 3e 3b c5 84 3e
       0.1235409 -0.32874578 0.26335496 0.25931725
000010 2a 9b 21 be 06 f9 3b 3d 38 7e 03 3d 09 bc 02 3f
       -0.15781847 0.045891784 0.032102793 0.5106817

conv1.conv2.1.running_mean f4 [8]
000000 17 01 34 bf 32 6c 51 3d 0b 3a 85 bf bc 04 7b be
       -0.7031416 0.051128574 -1.0408338 -0.24513525
000010 4e 4c a5 be e1 fc e0 bf eb 2a 58 c0 9a 1f fd bf
       -0.32284778 -1.7577173 -3.3776195 -1.9775269

conv1.conv2.1.running_var f4 [8]
000000 01 e4 ab 40 af 39 2b 40 a2 f9 b6 40 6c 0e 38 41
       5.3715825 2.6753957 5.7179728 11.503521
000010 37 3b 3b 41 c8 b2 52 40 a4 35 fa 40 a0 d7 53 40
       11.701957 3.292162 7.819048 3.3100357

conv1.conv3.0.weight f4 [8, 8, 3, 3]
000000 9a 7d 9a 3e 8b 6b 1b 3e 0d c2 2f bd ad d0 04 3f
       0.3017395 0.15177743 -0.04290967 0.51880914
000010 86 d4 33 3e b4 f3 d6 bd a9 c8 f8 3c e0 08 57 3e
       0.1756154 -0.104957014 0.03036912 0.2099948
000020 b6 0b 43 bd 6c 08 e0 be 89 f3 0c 3e 3a 94 00 3f
       -0.04761859 -0.43756425 0.13764776 0.50226176
000030 fa 73 aa be 8e 55 99 bd 0e 13 07 3e 84 ef 0b be
       -0.33291608 -0.074870214 0.13190863 -0.13665587
000040 cc d1 23 3e 53 5c e7 3c 2e eb 80 be c7 19 3b 3c
       0.15998 0.028242266 -0.25179428 0.01141972
000050 cc fa 04 bd 10 1d 74 be 24 09 93 bd 6b f7 1d 3e
       -0.03246574 -0.23839211 -0.07179478 0.15426414
000060 8a 92 93 be b2 42 f1 3d 2e e9 82 be db f5 fd be
       -0.28822738 0.11780299 -0.25568527 -0.49601635
000070 ae 69 08 bd 8f 86 28 3c 1f b5 82 bd 94 0b 1a be
       -0.03330391 0.0102859875 -0.06382202 -0.15043479
000080 5c aa ad 3d 2b 09 c1 3d 79 f7 4b bd 4a db bc bd
       0.08479759 0.09425577 -0.049796555 -0.092215136
000090 c5 24 19 3e 18 3f 60 3e c8 55 75 3e 15 ef 75 3e
       0.14955433 0.21899068 0.23958504 0.24016984
0000a0 23 21 16 3e ac ac a0 bd 23 9b 0f 3e 3f 8a 9d 3d
       0.14661078 -0.078454345 0.14024024 0.07692384
0000b0 ff 80 ab 3e f0 ae 0e be 21 9f 10 3d 4e 26 a5 be
       0.33496854 -0.13933921 0.035308007 -0.32255787
0000c0 8e 69 fc 3d 81 69 09 3e a7 c8 74 3e 1f e1 c8 3d
       0.123248205 0.13419153 0.23904668 0.098085634
0000d0 a8 61 80 be 07 76 d0 3c ef df 03 bc 59 88 39 3e
       -0.25074506 0.025446905 -0.008048995 0.18118419
0000e0 e3 5c 8f 3e df b7 ad 3d 39 b8 99 3d 6e 47 8a 3e
       0.28000554 0.08482336 0.07505841 0.27007622
0000f0 05 e9 08 bd 96 52 10 be ba 48 78 be 76 48 35 be
       -0.03342535 -0.14094004 -0.24246493 -0.17703423
000100 a5 ca dc bd 25 55 19 be a6 e7 ab 3d f3 02 0d 3e
       -0.10780839 -0.14973886 0.08393793 0.13770656
000110 4a dc 9c be 0b 0b 7e 3e cb 41 06 bd 79 7a 02 bd
       -0.30636817 0.248089 -0.03277759 -0.03185508
000120 43 bb 40 be 73 6b 50 be 81 bd 18 be 51 88 1c 3e
       -0.18821435 -0.20353489 -0.1491604 0.15286376
000130 2f 23 1f 3e b3 11 29 3e 10 04 50 be a6 af f3 3d
       0.15540765 0.16510658 -0.2031405 0.11898737
000140 ee 03 45 be 3d 9b 2c 3c 75 3a 9c be 6b 3f 54 be
       -0.1923978 0.010535059 -0.3051335 -0.20727317
000150 63 57 6a be 40 d0 ee bd 15 cb 97 3d e7 e5 20 be
       -0.22884898 -0.11660814 0.07411782 -0.15712701
000160 ea b2 44 be 8e dd 2f 3e 66 94 92 3d 5a ec 16 be
       -0.19208875 0.1717436 0.07157211 -0.14738598
000170 73 75 ed 3d c3 ff fc be e7 47 47 be 08 30 11 bd
       0.11594667 -0.4941388 -0.19461022 -0.035446197
000180 bb 54 a2 3d b5 60 34 be be 93 a4 bc fa ca 2c 3e
       0.07926317 -0.17615016 -0.02008998 0.16874304
000190 e6 b2 9a bc b4 f8 56 be 3b 3e 02 be 42 d9 42 3e
       -0.018884134 -0.2099331 -0.12719052 0.1902819
0001a0 f4 de 9c be c6 03 50 3e e0 4d 48 be 4d cb 84 be
       -0.3063885 0.2031394 -0.19560957 -0.25936356
0001b0 3e 5f e8 3e bb 05 2c 3f cb 77 8c 3e 9f f2 8f 3d
       0.45385164 0.67196244 0.27435145 0.07028698
0001c0 f4 8d 8f bc 75 6e e9 3d a2 4a a0 bc a8 b5 15 3e
       -0.017523743 0.11398021 -0.019566838 0.14620078
0001d0 81 11 37 3e 78 a0 72 be ae 84 88 bc 80 a5 01 3d
       0.17877771 -0.23694026 -0.01666483 0.031651974
0001e0 41 9e 5b bd 23 2b bf 3d cf 48 5f 3e 4d 92 80 bd
       -0.05361772 0.093343996 0.21805118 -0.06277905
0001f0 ee c9 72 be d1 a2 05 be 99 30 ab 3d 73 79 cb bd
       -0.23709843 -0.13050391 0.08358879 -0.09935274
000200 0a 17 66 be 4e 9a f0 bd eb 18 10 be 7b d5 2c be
       -0.22469726 -0.11748181 -0.14072005 -0.16878311
000210 08 f8 92 be 0c 50 91 be 2b 64 01 be 0d ba 3a 3d
       -0.28704858 -0.28381383 -0.12635867 0.045587588
000220 ab 2d d6 3c c1 29 57 be 4e df 02 be 2b 69 be bd
       0.026144823 -0.21012022 -0.12780496 -0.09297403
000230 bd 94 9d 3e c8 58 80 be e7 63 c4 bd a5 d8 8a be
       0.3077754 -0.25067735 -0.09589367 -0.27118412
000240 ab bd 25 be 6f db fd bd 4a 95 65 3e 58 60 d6 3d
       -0.16185634 -0.12395369 0.2242023 0.10467595
000250 cb 69 c9 3d 25 17 ea bd d2 e4 9f 3d 35 2c be 3e
       0.098346315 -0.11430196 0.07807316 0.37143102
000260 48 f7 73 be d2 c1 72 bd 5d e3 91 3e d9 20 8e 3e
       -0.23824799 -0.059266873 0.28493777 0.27759436
000270 3a 5e cb be 88 ef 4f 3e cd 19 d1 3e e6 c1 79 bf
       -0.39720327 0.20306218 0.40839997 -0.9756149
000280 d6 3d e2 bd 35 bd 97 be 23 92 88 3e 06 69 fa bd
       -0.110469505 -0.2963654 0.26673993 -0.12227063
000290 70 b6 cb 3d 55 9d 82 be ff b2 84 be 98 dd e8 3d
       0.099469066 -0.2551066 -0.25917813 0.11370391
0002a0 01 4b cf be f8 4f 55 bd b5 69 a6 be 31 e6 74 bc
       -0.4048691 -0.052078217 -0.32502523 -0.01494746
0002b0 87 63 05 3d 3d 43 a2 be 30 ff d6 be 8a 29 8d be
       0.03256562 -0.31691924 -0.41991568 -0.27570754
0002c0 4b e7 8d be 4d 9b 80 be 19 7d fa bd a0 b7 76 be
       -0.27715525 -0.25118485 -0.12230892 -0.24093485
0002d0 90 7b a7 3e 53 e8 19 3e 21 74 84 be f8 84 05 3d
       0.32711458 0.15030031 -0.2586985 0.032597512
0002e0 0f 93 9e be 63 ba 71 bf 99 7a 0c 3d 95 73 1a bd
       -0.30971572 -0.9442503 0.034296606 -0.037707884
0002f0 8a ee 05 bf b3 7c 2f 3e 2c ee ca be dd 7f 50 3c
       -0.52317107 0.17137413 -0.39634836 0.0127257975
000300 ea e1 b9 bc 2f cb d4 bd ce 22 01 3f b0 c2 8d bd
       -0.022690732 -0.10390317 0.5044373 -0.06921899
000310 a5 ab 13 bd 42 92 24 3d 20 8e e5 be c7 4b 67 be
       -0.036052365 0.040178545 -0.44834995 -0.225875
000320 f2 20 a1 bd ed 4c 15 bf f5 94 75 be 0f 46 0d be
       -0.07867612 -0.58320504 -0.23982604 -0.13796256
000330 0f f6 29 3e 90 2c 78 3d 6b a6 a7 be 82 f6 d2 be
       0.1659777 0.060589373 -0.32744154 -0.41203696
000340 9e 0f f4 be 23 32 af 3e 3f 7d ba be a2 94 86 3e
       -0.47668165 0.3421794 -0.3642368 0.26285273
000350 a5 ed ff 3e b1 b3 1e 3d d3 c1 91 3d f9 95 f4 3e
       0.49985996 0.038745586 0.07117047 0.4777067
000360 fc b8 27 3e b4 78 8e 3d be 28 28 3e 0f 5a f0 3e
       0.1637916 0.06956616 0.16421792 0.4694371
000370 31 a8 97 be ff 9f 9a be 1c c8 ed 3e bb 37 24 be
       -0.29620507 -0.30200192 0.46441734 -0.16036884
000380 b4 c5 cf 3e d8 26 ab 3d 6f c3 01 3e 5e f3 30 3e
       0.40580523 0.08357018 0.12672208 0.17280337
000390 84 4a 92 be 6a 13 f4 3e 49 7e 51 be 1e 68 a5 3e
       -0.28572476 0.47671062 -0.2045833 0.32305998
0003a0 fd c5 ea 3d 59 64 59 be 78 cb 42 3e 59 46 3b be
       0.114635445 -0.21229686 0.1902293 -0.18288554
0003b0 c6 bc 18 be a8 7c f6 3d dd c9 a4 bc 51 a5 d4 3d
       -0.14915761 0.12035495 -0.020115787 0.10383094
0003c0 ae 06 bf 3c cb f4 79 bb ac ab 17 bd ee 75 3f be
       0.023318615 -0.0038140293 -0.037028953 -0.1869733
0003d0 92 d0 81 bd 44 a3 95 be 17 8a ea bd 7c e9 b8 be
       -0.0633861 -0.29226124 -0.1145212 -0.36115634
0003e0 e8 11 90 bd 6f 5c 16 3e 54 e5 e9 b9 48 4c 0e be
       -0.07034665 0.14683698 -0.00044612086 -0.13896286
0003f0 4c ac 91 bc eb f5 e8 bd df d0 5b be 42 13 9c bd
       -0.017782353 -0.1137503 -0.21466397 -0.07620861

conv1.conv3.0.bias f4 [8]
000000 79 5c 7d bd 8f a7 8b bb 8e a3 b4 3c 61 0f 00 bd
       -0.061855767 -0.004261918 0.022050645 -0.031264666
000010 4e 56 a4 3d 37 30 53 3c b1 eb de bd dd 40 50 bc
       0.08024274 0.012889913 -0.10884798 -0.012710777

conv1.conv3.1.weight f4 [8]
000000 1b 9f 83 3f 62 32 68 3f 93 eb 89 3f f5 63 5c 3f
       1.028293 0.9070188 1.0775017 0.8609002
000010 c5 dc a7 3f 20 7b 8e 3f ed b7 98 3f 8a a8 5b 3f
       1.3114249 1.1131325 1.193113 0.85804045

conv1.conv3.1.bias f4 [8]
000000 fb 64 25 3e cd e1 4c 3e 14 86 f6 3e 3d 84 b4 be
       0.16151802 0.20008011 0.48149168 -0.3525714
000010 94 a0 64 3e 36 35 b3 3e 97 ec a8 3e ea 8e 96 3e
       0.2232688 0.35001534 0.32993004 0.2940591

conv1.conv3.1.running_mean f4 [8]
000000 ff df 3c 3c d0 28 e3 bf 73 06 32 c0 fe 46 d5 be
       0.011528014 -1.774683 -2.7816436 -0.41655725
000010 bc 74 91 be b6 06 ba bf d8 9e 05 c0 58 d7 58 3f
       -0.28409374 -1.4533298 -2.08782 0.8470359

conv1.conv3.1.running_var f4 [8]
000000 21 0b 74 40 e8 f9 4f 40 21 cc 98 40 93 cb d9 3f
       3.8131793 3.249628 4.774918 1.7015251
000010 4e a0 3f 40 9e 29 b0 40 68 66 a4 40 ca 71 63 40
       2.9941592 5.50508 5.137501 3.5538201

conv2.conv1.0.weight f4 [16, 8, 3, 3]
000000 ce 38 d0 3d 8a 25 76 be 31 c0 e0 bd 1d a6 3d be
       0.10167085 -0.24037758 -0.109741576 -0.18520398
000010 ff 61 b6 be d2 39 a2 be fc a6 62 3e db aa 3a 3d
       -0.3562164 -0.31684738 0.22134012 0.045573097
000020 c4 96 e6 3c bd cb 53 be 54 97 9e bd c0 4e de be
       0.028148063 -0.20683189 -0.07743707 -0.43419456
000030 e4 81 43 3d c0 0a c2 bd 1b 89 25 3e 94 8e 05 be
       0.047731295 -0.09474707 0.16165583 -0.1304267
000040 d7 c2 9c 3d 84 c4 79 be ff eb ad 3d 8f 43 42 3d
       0.0765435 -0.24391371 0.08492278 0.04742771
000050 aa 80 9a bd 44 b8 e7 be aa 50 08 3e e4 2b 6b be
       -0.07544072 -0.4525777 0.13312021 -0.22965962
000060 e0 30 34 3e 3b 73 33 3e ea f2 b2 3d 7f 4a 8b 3e
       0.1759677 0.17524426 0.087377384 0.27205274
000070 94 74 ae 3d fe 96 7b be e2 8f 2f 3d 35 e6 f3 bd
       0.08518329 -0.24569318 0.042861827 -0.11909143
000080 f9 33 64 bc 24 4c b8 3d aa 56 01 bd 9d ca d1 3d
       -0.013928407 0.08998898 -0.03157679 0.102437235
000090 87 4f ae 3d 24 53 60 3d 37 e0 3f 3e 25 5a 99 bd
       0.085112624 0.05476679 0.18737875 -0.07487897
0000a0 4a e9 f5 3d e0 79 a7 bb a3 8b ce bd 39 98 04 be
       0.12007387 -0.005110964 -0.10085227 -0.12948693
0000b0 6e 4c ae bd e5 0e 7f bb 1c f5 79 be ef 4d 71 be
       -0.085106716 -0.003891879 -0.24409908 -0.23564886
0000c0 06 7b 2b be 8d 6e f3 be 2d 5b 03 be 2b 18 7e be
       -0.16746148 -0.4754528 -0.1282775 -0.24813907
0000d0 f4 f6 88 bd 95 10 f8 be 35 2c e8 3c d6 90 c3 bd
       -0.066877276 -0.4845015 0.028341392 -0.0954911
0000e0 be 55 e7 3c d5 ed e5 3e ce b2 10 3e bf 1e 36 3e
       0.028239127 0.44908014 0.14130709 0.17785166
0000f0 16 da c4 3d 68 95 7e 3d 45 13 86 3e 61 60 9e be
       0.09611909 0.062154204 0.26186576 -0.30932906
000100 b4 49 35 be 49 26 85 bb c8 98 be be 81 5d d7 3c
       -0.17703897 -0.004063402 -0.37225938 0.026289703
000110 83 c3 0f 3e 04 67 d5 bd 6c 05 4b bb 51 eb d8 bd
       0.14039426 -0.10420039 -0.0030978573 -0.10591758
000120 f0 d5 d8 3d ee ee af 3e 10 4f 85 3d 33 ed da 3e
       0.1058768 0.34361976 0.065092206 0.42759094
000130 10 6a cd 3d a7 9e a3 bd 5f 93 7a 3e 78 29 12 3e
       0.100299954 -0.07989245 0.2447028 0.14273632
000140 f5 5f 32 be 6f 22 83 3e 9d 5a d9 bd 42 d4 0d bd
       -0.17419417 0.25612208 -0.10612986 -0.034626253
000150 a5 65 ce 3e 57 ed d4 be 1e 97 ea bd 3c ee 47 3f
       0.40311924 -0.41587326 -0.114546046 0.7809789
000160 e9 03 d1 3d 93 1a b9 bc 60 22 f2 bd d6 6c 78 3e
       0.10205824 -0.02259568 -0.11822963 0.24260268
000170 69 f6 28 3e c6 64 a4 be d0 ab 79 3d 7e 7e e9 bd
       0.16500248 -0.32108134 0.06095487 -0.114010796
000180 8d 58 cd be e2 2a 78 bd e7 7e c4 3c 5c 8c 29 be
       -0.4010662 -0.06058777 0.023986293 -0.16557449
000190 22 13 8b bd e5 0e 23 be fe c7 d1 be cf 84 e3 bd
       -0.06790759 -0.1592365 -0.40972894 -0.111093156
0001a0 28 8a c8 be a4 19 4a 3d 5a 6c 63 bd 58 d6 5e be
       -0.39167905 0.04934086 -0.055523254 -0.21761453
0001b0 f4 e3 ce be 70 56 8d be 7c a8 a6 be ae 5f e8 3d
       -0.4040829 -0.2760501 -0.32550418 0.113463745
0001c0 0f fe 0f 3e d3 55 0b 3e e2 65 d8 3d 4c de cb bd
       0.1406176 0.13606958 0.105663076 -0.09954509
0001d0 58 71 77 3d 9f 87 8e 3d 93 5a 90 3e 86 83 7c be
       0.060410827 0.069594614 0.28194103 -0.24659547
0001e0 be 98 9f be 9c 58 6c be fa 5b be bd db 94 bc bd
       -0.3117122 -0.23080677 -0.09294887 -0.092080794
0001f0 3a b8 54 be a2 9a 48 3e 8c 14 ad be 4d be 28 3d
       -0.20773402 0.19590238 -0.3380474 0.04119711
000200 3d 8d 3c 3e a0 95 7e be 80 0d 8a be 32 b3 69 3e
       0.18413253 -0.24861765 -0.26963425 0.22822264
000210 b0 c6 ca be 05 c0 10 bc da 86 7e be c2 79 cf be
       -0.39604712 -0.0088348435 -0.2485613 -0.4052258
000220 39 46 88 be 43 16 96 3c 3c 61 be be 21 c5 61 be
       -0.26616076 0.018321162 -0.3718356 -0.22047855
000230 78 0b 30 be fa 21 5e be 5b cf 10 bd 3b 6f c7 bd
       -0.17191875 -0.21692649 -0.035354 -0.097380124
000240 5d 7b b8 3d 6f 0b 3a be 53 15 e7 3d e2 bd 9d 3d
       0.09007905 -0.18168424 0.11283364 0.07702233
000250 3a a9 5e 3e 3f ee 6a 3e a2 25 3a be dd 43 b8 3e
       0.21744242 0.22942446 -0.18178418 0.35989276
000260 dd 64 4e 3e da bf e8 bd fa 32 85 3e 36 47 3d 3e
       0.20155664 -0.11364718 0.26015455 0.18484196
000270 60 58 a9 3e 24 79 76 3e b5 be eb 3d e9 53 c4 bd
       0.33075237 0.24069649 0.11510984 -0.09586317
000280 89 6b 54 bd 92 19 45 3d 27 ad 41 be b5 a5 0a 3d
       -0.051860366 0.04812009 -0.18913709 0.033849437
000290 2f 5c d8 bd 8d 59 df be 32 ef e6 3d 79 93 cc be
       -0.105644576 -0.4362301 0.11276092 -0.39956263
0002a0 22 e2 cb be ce 4e 9b bd e7 56 8a be 61 15 c2 bd
       -0.39820963 -0.0758339 -0.27019426 -0.09476734
0002b0 65 e6 af be 33 d9 9d 3c 58 4b 0a 3d d7 92 10 3e
       -0.34355465 0.019268608 0.03376326 0.14118515
0002c0 1c 7b 85 3e a1 4b 4c bd 95 d2 86 bd c2 da 0c 3f
       0.26070487 -0.049876813 -0.06583134 0.550213
0002d0 79 4a 9b 3e 2b 6b 83 3e 72 57 6d 3e 45 43 8d 3e
       0.30330256 0.256677 0.23177889 0.27590385
0002e0 e1 43 4c bd 7a bf a6 bd c8 75 a9 bd 26 83 15 bf
       -0.049869422 -0.0814199 -0.08274418 -0.5840324
0002f0 ca 12 29 be da 9f e1 bd 2f ff 31 be b1 4e e8 3d
       -0.16511074 -0.110168174 -0.17382501 0.11343134
000300 cb 37 9a be dd 3c 4f 3d 88 43 9b 3d d4 da 6c bd
       -0.30120692 0.050595153 0.0758124 -0.05782588
000310 15 d1 91 3e 4d 2c 10 be b5 87 22 3d 86 83 31 be
       0.2847983 -0.140794 0.0396802 -0.17335328
000320 89 ae be be 6b b1 16 bd 2d 72 8b bd 33 26 9d bd
       -0.37242535 -0.036790293 -0.06808887 -0.076733015
000330 89 4f 9d 3d 9b fe 08 bd 1f 43 f4 bd de 88 9a 3e
       0.07681186 -0.033445936 -0.11926865 0.30182546
000340 42 67 08 3e 84 49 fa be e1 08 c6 3d be b2 87 bc
       0.1332064 -0.48884213 0.09669662 -0.016564723
000350 1a bc 3a 3e c3 aa 46 be 7c 9e 96 be 9b c6 71 3e
       0.18235818 -0.19401078 -0.2941779 0.23610918
000360 05 83 5e 3e c2 1d a7 3d 16 ea 1a 3e ce 6a 95 bd
       0.21729667 0.08159973 0.15128359 -0.07295762
000370 9f 80 b9 3d c8 f4 91 3e 77 5a 7c be 0a 53 68 3c
       0.09057736 0.28507066 -0.24643885 0.014179954
000380 06 dd a8 3e 10 10 cd bd 86 43 a3 3d bb 66 2f be
       0.32981128 -0.10012829 0.079718634 -0.17129032
000390 d8 bf 0d be 01 d6 76 3d 93 75 30 3e da ba df be
       -0.13842714 0.060262684 0.17232351 -0.43697244
0003a0 32 0c 20 be 4a 73 0f bd 03 2a 3d 3e 2f 48 a1 3e
       -0.15629652 -0.035022058 0.18473057 0.31500384
0003b0 be 07 ac 3e 3c 7a f5 3e 88 16 d0 3e cc 68 1d 3e
       0.33599657 0.4794482 0.4064219 0.15372008
0003c0 18 10 03 be e2 ec 6e 3d aa aa 81 be 12 39 82 bd
       -0.12799108 0.058331378 -0.2532552 -0.063585415
0003d0 2e 18 63 3e 05 9a f1 3e c9 7e 02 be dd 9b ab 3c
       0.22177193 0.4718782 -0.12743677 0.020948345
0003e0 bd 2d 5b 3b b6 1c 88 3e 9a a1 a6 3d 89 50 02 3e
       0.003344401 0.26584405 0.08136292 0.12726034
0003f0 14 51 05 be 1c 79 10 be 91 ca b5 be 36 b3 bf bd
       -0.1301921 -0.141087 -0.35506108 -0.09360354

conv2.conv1.0.bias f4 [16]
000000 49 03 8c bc 23 72 c5 bd 8e 57 e2 3c 9c fc 0f 3d
       -0.01709141 -0.096409105 0.02762964 0.035153016
000010 8a cd be bd 5b 4f d8 bd a4 4d 4a 3c dd 72 eb 3d
       -0.09316547 -0.10562011 0.0123476125 0.11496518
000020 9f ad d7 bd f8 49 6c bd 5e 50 26 bd d2 fd d4 bd
       -0.105311625 -0.05768773 -0.040603988 -0.10399975
000030 b2 76 94 bd 45 47 bd 3d 26 6c b8 3d 61 65 b1 bd
       -0.07249202 0.09242109 0.09005003 -0.086619146

conv2.conv1.1.weight f4 [16]
000000 d2 de 83 3f bb 6e 60 3f 51 7b 8e 3f e8 40 61 3f
       1.0302374 0.8766896 1.1131383 0.87989664
000010 2b 79 84 3f 46 6c 8a 3f 6c 9c 7b 3f 60 8b 8b 3f
       1.0349478 1.0814292 0.98285556 1.0901909
000020 63 9c 99 3f 85 9e 87 3f d2 ba 94 3f 43 c9 88 3f
       1.200085 1.0595251 1.1619513 1.068642
000030 d1 ca 69 3f 55 ae 8b 3f df 28 85 3f 53 cf 84 3f
       0.913251 1.0912577 1.0403098 1.037577

conv2.conv1.1.bias f4 [16]
000000 f8 be 58 3d 34 18 42 bb be 0d 80 be 64 28 3e bd
       0.052916497 -0.0029616477 -0.25010484 -0.04642524
000010 5c b1 ef bd 60 b1 11 3c dd 1f 0b be 08 4f 80 3e
       -0.117037505 0.008892387 -0.13586374 0.25060296
000020 e1 35 9b bc 46 04 69 3d 95 28 43 bd e3 ca ac 3d
       -0.01894659 0.05688884 -0.047646124 0.08437135
000030 bb ec 7e bd 4d 6c b9 3d f2 2a bd bc 0f dd 3e be
       -0.062237483 0.0905386 -0.023091767 -0.18639015

conv2.conv1.1.running_mean f4 [16]
000000 5a b5 1f c0 77 e5 4d c0 5c bf 97 bf 36 77 d2 3f
       -2.4954438 -3.2171304 -1.1855273 1.644263
000010 c8 31 b4 bf e1 00 41 c0 f4 49 96 be 59 9b 48 3e
       -1.4077692 -3.0156786 -0.29353297 0.1959051
000020 03 93 5d bf 3a 14 e9 be 3d 50 5b c0 ad d5 80 bf
       -0.8655245 -0.45523244 -3.4267724 -1.0065209
000030 dd 07 f6 3e 8e e3 a6 3e d5 ff 77 c0 ad 04 a0 c0
       0.48052874 0.32595485 -3.8749897 -5.000571

conv2.conv1.1.running_var f4 [16]
000000 9b 1f 20 41 90 17 81 40 7e 50 7e 40 6b c4 0f 41
       10.007716 4.0341263 3.9736629 8.985454
000010 43 44 53 40 ac 62 b2 40 4a 78 c8 40 46 c1 46 40
       3.3010414 5.574545 6.2646837 3.1055465
000020 f8 72 0d 40 ff 7d c1 40 2e 9b a1 40 5f 2d 6a 40
       2.2101421 6.0466304 5.050193 3.6590192
000030 10 01 34 40 30 28 66 40 69 c8 cd 40 bd 18 95 40
       2.8125648 3.5962029 6.430714 4.65927

conv2.conv2.0.weight f4 [16, 16, 3, 3]
000000 5e f5 58 be 2e b0 1a be df 65 85 3b da e6 2c be
       -0.2118735 -0.1510627 0.004070982 -0.16884938
000010 dd 28 85 be 55 7d 14 3d 31 f0 b0 be 20 72 be bd
       -0.2600774 0.03625234 -0.34558252 -0.09299111
000020 c4 c7 2b be 7c be fd 3d 47 39 c0 3d df 7a c5 bc
       -0.16775423 0.12389848 0.09385925 -0.024106441
000030 c5 92 84 3e 14 ac 5c 3e 23 41 c1 3d ba 4c 7a bd
       0.25893226 0.21550018 0.09436252 -0.06110833
000040 0a bc 1c be a7 4f 83 bd 2f 05 38 be 82 49 a5 be
       -0.15306106 -0.06411677 -0.17970727 -0.32282645
000050 1e 8b fe bc 1d 67 50 bd 5a ef 31 3d 29 0f 6f bc
       -0.031072196 -0.050879586 0.043441154 -0.014591017
000060 7c a6 5f be 3b 47 9a bd 81 c0 34 be 78 10 26 3d
       -0.21840852 -0.075331174 -0.1765156 0.04054305
000070 d3 e5 58 be 59 fe 77 be e0 ee 1e be 57 c1 94 3d
       -0.21181421 -0.2421812 -0.15520811 0.07263439
000080 c5 7a 34 bd dd c7 a5 bd 86 37 d3 bd 69 20 3a be
       -0.044062395 -0.080947615 -0.10313325 -0.18176426
000090 d3 44 20 3e b8 fc 9e bd fd ca 62 3d 43 ae 41 3e
       0.15651254 -0.07763046 0.055369366 0.18914132
0000a0 a6 4e 7c bd ac ca 7c be 35 10 e9 3d f2 1e ba bc
       -0.061598442 -0.24686688 0.11380044 -0.022719834
0000b0 5e 7e 12 be 78 16 e3 3c e5 ee 97 bd bf 4e 02 bd
       -0.14306018 0.027720675 -0.074186124 -0.03181338
0000c0 b5 f5 dd 3d 66 cc 73 3e 5d b4 c6 3d 3d c3 36 be
       0.108378805 0.2380844 0.0970237 -0.17847915
0000d0 8d cb d8 3d d4 af 97 bd f1 98 13 bd 6a 5d 83 3d
       0.10585699 -0.074065834 -0.03603453 0.06414302
0000e0 dd 53 3a bd 29 b8 8e bd f5 c5 96 bd 32 22 7b bd
       -0.045490135 -0.069687195 -0.07361976 -0.061311908
0000f0 0f d4 13 3e e1 77 14 be 9a cd 05 be 05 e1 57 be
       0.14436363 -0.14498855 -0.13066712 -0.21081932
000100 cf 1d 55 3e 85 83 3c 3e 91 b2 56 3d 3e 8e b3 be
       0.20812152 0.18409546 0.052416388 -0.3506946
000110 90 7b a7 be 85 36 28 bc 90 0d 99 be 95 a8 ef bd
       -0.32711458 -0.010266905 -0.2989316 -0.11702076
000120 c0 a1 da bd a9 18 7b bd 9c e7 2d 3d a6 d9 77 be
       -0.106753826 -0.061302815 0.042457208 -0.2420412
000130 23 36 4f be 76 24 bb 3d bb 16 3c 3c a3 18 5b bd
       -0.20235495 0.09137814 0.011480029 -0.053490292
000140 86 85 0a 3e ec 16 97 3d 66 54 f0 bd 90 77 61 bd
       0.13527498 0.07377419 -0.11734848 -0.055045664
000150 3b 98 19 be 5b 5d 92 be cd e8 ce be 56 f4 ba bd
       -0.14999478 -0.2858685 -0.40411988 -0.09128635
000160 5e 07 39 be df 33 04 be 4b c3 af 3d 8c a8 9f bd
       -0.18069217 -0.12910412 0.08582171 -0.0779582
000170 62 b9 04 be 09 bc ee 3d 51 72 87 bd bb 0e 15 3d
       -0.12961343 0.116569586 -0.06613601 0.036391
000180 ab 46 5f bd 2e 8d 35 3d 94 85 c7 bb 26 6f bb bd
       -0.054510754 0.044324093 -0.006088922 -0.09152059
000190 5c 4e a5 bd ff 36 10 be df 20 eb bb c4 36 5e be
       -0.080715865 -0.1408348 -0.0071755494 -0.21700579
0001a0 ea 8d 96 be 01 5a 23 3e 48 25 05 3d 31 f2 53 bd
       -0.29405147 0.15952303 0.032506257 -0.051744644
0001b0 14 d3 1e be 1b dc 9c bc f9 db 06 be 45 c6 76 bb
       -0.15510207 -0.019147923 -0.1316985 -0.00376548
0001c0 c5 e4 27 3d 70 8d d1 3d f6 f8 06 3e 0a f2 ac 3c
       0.040989656 0.10232055 0.13180909 0.021111507
0001d0 52 ec cb 3c fb 57 87 be 33 a5 92 3d 89 4d 99 bb
       0.02489296 -0.2643431 0.071604155 -0.0046784324
0001e0 49 61 49 3c 46 9e 85 3e c4 a7 7b 3d f0 b3 35 3e
       0.012291261 0.26097316 0.06143929 0.17744422
0001f0 b3 0e a4 bd 11 50 26 3d e5 de 29 3d 51 6b 42 3c
       -0.08010616 0.0406037 0.041472334 0.011866407
000200 ea 6d 1b be 23 a6 4b 3e 3c 79 8d 3d b3 d3 c4 bd
       -0.15178648 0.19887595 0.06907889 -0.09610691
000210 92 87 c6 3d e8 09 45 bd 88 96 83 bc e7 96 c2 bd
       0.09693827 -0.04810515 -0.01606299 -0.095014386
000220 84 f3 17 be 08 cd 94 bd 8b 9b 20 3d 50 b9 03 3e
       -0.14838988 -0.07265669 0.039210837 0.1286366
000230 c3 11 13 3e b7 e3 0a 3e 91 2e 50 3d 43 b8 c6 3d
       0.14362244 0.13563429 0.05082566 0.09703114
000240 ed b9 f9 bc 57 9f 97 bd 03 fc 4a be 4d cb 32 3e
       -0.030484164 -0.074034385 -0.19822697 0.17460366
000250 26 ae b3 bd 1b 1c 12 be 5e bc 1b 3e e3 30 23 3d
       -0.087734506 -0.14268534 0.15208575 0.039841544
000260 63 39 6a 3d b6 a3 35 be 5e 7d a1 3b b7 5f 59 3e
       0.057183634 -0.17738232 0.004928275 0.21227919
000270 86 a3 9c bd f6 43 b6 bc ee e2 b6 3d e1 47 36 be
       -0.07648377 -0.022249203 0.08930002 -0.17800857
000280 8f c6 1c bd 34 3b 43 3c 07 24 f1 bd 42 0a 41 3e
       -0.038275298 0.011915971 -0.1177445 0.1885157
000290 f4 b8 12 3e 93 30 19 bd 86 19 92 3e 6a 31 00 3e
       0.14328367 -0.03739984 0.28535098 0.1251885
0002a0 45 a2 c2 be 95 78 28 3e db 6b b9 3d f1 63 81 be
       -0.38014427 0.16452248 0.09053775 -0.25271562
0002b0 be 10 5c bd 24 0e f9 bd fa 8b f7 3d a1 1c 87 3e
       -0.053726904 -0.121609 0.12087245 0.2638903
0002c0 ef 79 15 3c 2c a0 d7 3d e8 5b 8b bd 5b bd 4b 3e
       0.0091233095 0.10528597 -0.06804639 0.19896452
0002d0 e3 3c 9e 3b 0f 48 91 be 64 f2 dd bd 53 5f 78 bd
       0.0048290356 -0.2837529 -0.10837248 -0.060637783
0002e0 64 23 29 be 14 d6 8b 3d d7 0c 70 be 27 ff 3c 39
       -0.16517407 0.068279415 -0.23442398 0.00018024129
0002f0 15 71 51 3e 22 9a 3c 3d f9 f3 83 3e 0e cf 44 3d
       0.20453294 0.04604543 0.25772074 0.048049025
000300 b6 b6 91 3d 75 94 95 3e 8d ea a1 bc 5b 4b 2d 3d
       0.071149275 0.29214826 -0.019765163 0.042308193
000310 86 e2 50 be aa 2a 34 3d 2c 42 b9 bd 53 93 95 3e
       -0.20398912 0.043986 -0.090458244 0.29213962
000320 10 81 f2 3d 7f f1 e9 bd 90 49 72 3d a9 38 51 3d
       0.11841023 -0.11423015 0.059152186 0.051079426
000330 21 db 1a 3e 09 bc 48 3e 02 5c 38 3e ee 01 79 3e
       0.15122654 0.1960298 0.18003848 0.24317142
000340 f0 dc 00 be db 98 df bd 82 50 9f be 4e 91 a0 3d
       -0.12584281 -0.10917827 -0.3111611 0.07840215
000350 6c 0d 43 3e 0c a9 33 3d a9 de 36 3e 88 83 10 3e
       0.19048089 0.043862388 0.17858376 0.14112675
000360 10 bb d7 bd 75 40 3c be 90 0d 6d bd 5a 1f 0f 3e
       -0.10533726 -0.18383963 -0.057874262 0.13976803
000370 a4 14 e6 bd 11 01 a3 3d 68 33 d1 bd d8 a2 f6 bd
       -0.11234406 0.07959188 -0.10214883 -0.12042779
000380 dc 3d 98 be c7 e3 03 3d 40 24 a4 bd 38 5a 45 be
       -0.29734695 0.032199647 -0.08014727 -0.19272697
000390 5b 0a bb 3e 77 4b 20 3e 2b 45 f1 3c 69 72 52 3c
       0.36531338 0.15653788 0.029451927 0.01284466
0003a0 b8 be 28 3d cd 0d ca be e0 6c 5e 3d a0 37 87 3b
       0.04119751 -0.39463654 0.05430305 0.004126504
0003b0 43 d4 0d bd a2 0b c3 3d 6f 74 cb bd df d1 10 bd
       -0.034626257 0.09523703 -0.09934317 -0.0353564
0003c0 b3 77 78 be 05 f6 34 be 08 cc a1 bd 7a de 33 3d
       -0.24264412 -0.17671974 -0.07900244 0.043913342
0003d0 d5 71 88 3d 75 9e 39 3d 2c 34 d7 bd a7 90 34 be
       0.06662337 0.045317132 -0.10507998 -0.17633305
0003e0 5b 58 0c 3d 02 b8 2d be ca 85 06 3d 52 2d f6 3d
       0.03426395 -0.16964725 0.032842435 0.12020363
0003f0 0a 55 60 3d ff 4f 8d bd 0e 75 24 3e 14 53 c4 bd
       0.0547686 -0.06900024 0.16060278 -0.095861584

conv2.conv2.0.bias f4 [16]
000000 ed 74 b5 bc 55 fb 3a 3d 54 7e 49 bd da 42 b4 bc
       -0.022150481 0.045649845 -0.04919274 -0.022004534
000010 4e 47 9c 3d de 9b 35 3d 00 43 84 bd 1f 6f bb bc
       0.07630788 0.0443381 -0.06458092 -0.022880135
000020 92 ea 05 3c e7 65 f6 3c 9b e0 1c bd 0e c5 6e 3d
       0.008173602 0.030077888 -0.038300138 0.058293395
000030 bd ab aa 3a fc 6a 93 bd e9 c0 b6 3c 80 83 a5 bd
       0.0013021153 -0.0719814 0.022308784 -0.08081722

conv2.conv2.1.weight f4 [16]
000000 32 c6 5c 3f 01 e2 88 3f d3 51 8f 3f ee bc 5f 3f
       0.8623992 1.0693971 1.1196846 0.8739766
000010 c7 b5 81 3f f2 2c 7e 3f 2c a6 4b 3f ba b3 4c 3f
       1.0133599 0.9928733 0.79550433 0.7996174
000020 ac 80 8d 3f b2 eb 67 3f 8e c1 87 3f c0 23 9e 3f
       1.1054893 0.9059402 1.0605943 1.235466
000030 8d 56 82 3f 9c c2 9c 3f ff 96 9e 3f 3d 98 5f 3f
       1.0182663 1.224689 1.238983 0.8734167

conv2.conv2.1.bias f4 [16]
000000 61 b5 40 be 57 fb be bd f8 70 4c be 18 f1 d5 bd
       -0.1881919 -0.09325283 -0.19964969 -0.104463756
000010 e4 76 2e be b7 90 32 3e 05 06 2e be 77 c3 09 be
       -0.1703754 0.17438017 -0.16994484 -0.1345347
000020 a0 31 6a bd 2c 48 a8 bd 14 d7 49 be c7 e0 62 bc
       -0.057176232 -0.08216891 -0.19710952 -0.013847536
000030 ce bd 6f bd 2d 7a 44 bb d4 a5 9a 3e 72 b0 37 3e
       -0.05853062 -0.002998005 0.30204642 0.17938402

conv2.conv2.1.running_mean f4 [16]
000000 d5 30 1e c0 91 ca d9 3e d9 3b be be 13 ad fd bd
       -2.4717305 0.42537358 -0.37155035 -0.12386527
000010 92 70 97 bd e0 da 09 c0 22 37 25 be 45 34 a4 bf
       -0.07394518 -2.153984 -0.16134313 -1.2828451
000020 58 cd 3d c0 87 5e ba 3e 03 b8 65 3f 87 2f 38 3f
       -2.9656582 0.36400244 0.89733905 0.7194752
000030 96 28 02 c0 64 20 c9 be 65 26 d2 bc 55 37 42 c0
       -2.0337272 -0.39282525 -0.025653074 -3.0346272

conv2.conv2.1.running_var f4 [16]
000000 71 3b f1 3f 09 0e 15 40 98 b4 a1 40 3d 23 8e 40
       1.8846265 2.3289816 5.053295 4.4418015
000010 7b 95 8f 40 41 40 41 40 b3 cd e7 3f 52 36 22 40
       4.486997 3.0195467 1.810965 2.5345654
000020 fd 5c c9 40 65 64 43 40 45 a4 29 40 4e 37 2b 40
       6.292601 3.0530026 2.6506512 2.6752505
000030 c9 f3 29 40 c4 8c 18 40 a1 d6 98 40 d8 75 28 40
       2.6555045 2.3835917 4.7762 2.6321926

conv2.conv3.0.weight f4 [16, 16, 3, 3]
000000 10 bf 30 be d5 22 25 3c df 6c 6e be 34 50 2a 3e
       -0.17260385 0.010079105 -0.23283719 0.16632158
000010 18 f3 c7 3d c7 b0 a0 3d 9a 33 2d 3d 0e 8d 2d be
       0.09763163 0.078462176 0.04228554 -0.1694834
000020 62 55 2e bd 08 6e b2 bd 45 50 ac bc ff 56 25 3d
       -0.042561896 -0.08712393 -0.02103437 0.04036617
000030 dd 7f 08 be 94 5f 69 3d 5b af 64 3e 3e 9b 9b bc
       -0.13330026 0.056975916 0.22332518 -0.018994924
000040 b2 e6 88 bd 30 51 4b bd 5b ee ae be 17 a1 dc be
       -0.06684627 -0.049637973 -0.34166226 -0.43091652
000050 85 bf 6b 3d b4 ff 33 be ce 1f 54 be fa e5 57 be
       0.057555694 -0.17578012 -0.20715258 -0.21083823
000060 ef a8 70 be 94 45 be be 68 fd 2a bd 7c 52 0d 3c
       -0.23501943 -0.3716246 -0.041745573 0.008625623
000070 b7 08 ab 3d e0 4d 5c 3e a3 00 b6 bd 68 da b2 3d
       0.083512716 0.21514082 -0.0888684 0.08733064
000080 4e 38 d1 3d 77 05 a2 3d 3c f4 a1 bd 64 da 8c 3e
       0.102158174 0.079111986 -0.07907912 0.2751037
000090 8d a6 5c 3d 16 d5 49 bd 6b 93 81 be 46 cb a9 3d
       0.053869773 -0.04927548 -0.25307783 0.082907245
0000a0 9d a8 78 3e 76 b4 33 be db 69 a4 bd 43 6c 6f 3e
       0.24283071 -0.17549309 -0.08028003 0.23381142
0000b0 c5 82 cf bb 2d b4 a5 3e ba 2a 01 3e 5d 3d 25 be
       -0.0063327276 0.32364026 0.12613955 -0.1613669
0000c0 1b 14 5a 3d e1 85 34 3e 01 5e 26 3e be 46 5f 3e
       0.05324183 0.17629196 0.16246797 0.2180433
0000d0 b0 62 b7 3d 08 9a a0 be 2f 74 4e 3e d5 44 d2 bd
       0.0895437 -0.31367517 0.20161508 -0.10267035
0000e0 96 ac 23 3d 16 73 b5 3d c3 d5 ec bd d2 7b bc bc
       0.039959513 0.088598415 -0.11564209 -0.02300826
0000f0 2b 0e a6 bd 9f 20 9d 3d 71 21 16 bd ae 27 b0 3d
       -0.08108171 0.076722376 -0.036652986 0.08601318
000100 59 bc 3e 3d f0 5a 82 3e b6 b6 c9 bd b9 7e 3e be
       0.04656634 0.25460005 -0.098493025 -0.18603028
000110 4e 5b 89 be fb f4 2b 3e c9 de 73 3d 61 d1 b4 3d
       -0.26827472 0.16792671 0.059538636 0.08828998
000120 09 14 b0 be 46 48 1e 3d 93 2c ef 3d 78 81 ee 3d
       -0.34390286 0.038643144 0.11678424 0.11645788
000130 7d 9d 1f 3e e3 e4 aa 3c 8c ca 63 3e c2 25 09 be
       0.15587421 0.020861095 0.22245234 -0.1339331
000140 c3 2b 86 be 84 10 93 3e 59 75 30 3e 87 f0 7c 3d
       -0.26205263 0.28723538 0.17232265 0.061752822
000150 13 36 5a be df 7d 58 3d b4 c2 95 3d c5 7a 26 be
       -0.2130969 0.052854415 0.07312527 -0.1625777
000160 7d dc 80 bd d4 b1 7d 3d b2 ca 8b bc ba a9 7b 3d
       -0.06292055 0.06193717 -0.017064426 0.06144116
000170 90 9a d8 3d e7 7f 3e be e0 3c 50 bd 99 7e c4 3d
       0.105763555 -0.18603478 -0.050839305 0.09594459
000180 c5 48 9f 3c 05 09 47 bd 11 d4 d3 3d d4 33 85 be
       0.019443879 -0.048592586 0.10343183 -0.26016104
000190 73 8d 90 bd 51 53 f4 bd 6b 7f a1 bd 9f 12 60 bd
       -0.07058229 -0.11929954 -0.07885631 -0.05470526
0001a0 de 54 e3 bd 41 ec 26 be f7 bc c8 bd 72 f6 20 be
       -0.111001715 -0.16301061 -0.09801667 -0.15719011
0001b0 09 a5 b9 bd 42 c6 84 3d ab da c6 3d 1b f6 26 be
       -0.09064681 0.06483127 0.09709676 -0.1630482
0001c0 f6 81 35 3c 3a 72 23 3d ab 24 1b 3e 17 66 49 be
       0.011078348 0.039903857 0.15150706 -0.1966785
0001d0 42 2a 31 3d 90 43 cc bd af 86 f0 3d aa af 3b bd
       0.04325319 -0.09973824 0.11744439 -0.045821823
0001e0 60 d1 04 be d1 7a 87 bd 88 62 d7 bd 96 d0 32 3e
       -0.12970495 -0.06615222 -0.1051684 0.17462382
0001f0 e4 d6 90 bc 44 70 ea 3b fd e5 93 3d 63 67 5e bd
       -0.017680593 0.0071544964 0.07221601 -0.054297816
000200 1b b9 81 be 81 4c bb 3d 15 0d 26 3d ed 50 71 be
       -0.25336537 0.09145451 0.04053982 -0.23566027
000210 f0 ac be bd 74 ea 3a be 14 34 9f be b6 09 78 3e
       -0.09310329 -0.182535 -0.3109442 0.24222454
000220 29 41 c8 bd 7f 17 90 bc eb b5 43 3e 1c 10 93 3d
       -0.09778053 -0.017589329 0.19112365 0.07180807
000230 4f d0 44 3e 67 dc 9e 3d e2 17 36 bc 0c f0 f0 3c
       0.19220088 0.07756882 -0.011114093 0.029411338
000240 e5 4f 8c 3d 2a cf 23 3d c4 e5 40 bd 5f 58 85 3e
       0.06851176 0.03999249 -0.04709412 0.26043984
000250 f9 30 04 be c0 4f a4 bd a4 7f 83 3e 2a 47 4d bd
       -0.12909307 -0.080230236 0.2568332 -0.050116695
000260 92 c2 36 ba 7a 9a 1c be a7 4a e9 3e 6d e2 14 3e
       -0.0006971742 -0.15293303 0.45564768 0.145395
000270 5d 63 8a 3c 26 76 bc bd 66 e8 37 be 36 08 91 be
       0.016893083 -0.092022225 -0.17959747 -0.28326577
000280 12 13 83 bd a7 e9 82 3e 94 b2 8d be 28 96 7e 3c
       -0.06400122 0.25568888 -0.27675307 0.01553873
000290 cd 71 05 3e 97 07 86 be 40 98 e4 bd 1a 61 ac 3b
       0.13031693 -0.26177666 -0.11161852 0.005260599
0002a0 86 78 73 3d 87 cb 1c 3e 01 a3 06 3e ef 68 4a bd
       0.059441112 0.15312015 0.13148119 -0.04941648
0002b0 be 2d 62 bd 67 69 6b be c5 e7 14 3d 79 6a aa 3d
       -0.055219404 -0.22989427 0.036353845 0.08321089
0002c0 07 1a 7a 3d d5 cc af be bd 5f 12 3e 0b b8 37 bd
       0.061059978 -0.34335962 0.14294334 -0.04485325
0002d0 60 84 40 be 54 2c 17 be 59 f3 49 bd 6d 4a 55 be
       -0.18800497 -0.14763004 -0.04930434 -0.20829172
0002e0 e2 e1 c1 bd 1b 38 8b be c5 bd 69 bd e6 4f 51 bd
       -0.09466912 -0.27191243 -0.057065744 -0.051101588
0002f0 16 da cb bd 5f f6 71 3e 89 84 f6 3c 30 83 5f bd
       -0.09953706 0.2362914 0.030092495 -0.05456847
000300 bf 0b 8f 3e d4 bf 9d bd 68 78 06 be 6f 4e 0d 3b
       0.2793865 -0.07702604 -0.13131869 0.0021561643
000310 40 a7 8e bc 67 63 96 3c 46 98 3d 3e b7 85 78 3d
       -0.017413735 0.018357946 0.18515119 0.060674395
000320 27 1f 48 3e 83 b5 ce 3e c5 e4 92 bc eb 55 19 3c
       0.19543134 0.40372857 -0.017931351 0.009358863
000330 03 9a 38 3e af 57 41 3d ec 16 f8 3d 02 29 86 bd
       0.18027501 0.047202762 0.12113747 -0.0655079
000340 69 d2 2e be e1 44 0c 3c 88 39 a9 bc 3c a4 56 3d
       -0.17072453 0.008561344 -0.020657316 0.05240272
000350 e2 9f fc 3d d9 d5 55 3e 36 12 01 3a bb 5d ed 3d
       0.12335183 0.20882358 0.0004923673 0.11590143
000360 eb 9f 6b 3e b8 83 df 3e 32 e2 7e 3e 57 5d 83 ba
       0.23010223 0.4365518 0.24890974 -0.0010022324
000370 4b 92 8c 3d cf 17 a5 be fb e8 10 3e 4d b0 d3 bd
       0.06863841 -0.32244727 0.14151375 -0.10336361
000380 ea c3 c2 3d 30 74 cf bd d1 66 19 be c5 52 42 be
       0.09510024 -0.10129583 -0.14980628 -0.18976887
000390 25 bb 9b bd 42 45 42 3d 40 6f 6e 3e 8a 89 ee 3d
       -0.07604054 0.04742933 0.23284626 0.11647327
0003a0 44 46 94 bd ad 8d 22 3e 98 57 cb bc 0a fa db 3e
       -0.072399646 0.15874358 -0.024822041 0.42964202
0003b0 7e a1 cb 3e 5f 7c 38 3e 98 10 51 3d 2e 49 7b 3d
       0.39771646 0.18016194 0.051041216 0.061349086
0003c0 80 7b 11 bd ab 16 f3 bd 9f 64 ee 3c fa 2b ec bd
       -0.03551817 -0.11869558 0.029100714 -0.11531825
0003d0 93 52 13 3c 77 14 58 be 33 3b 16 3e ee d3 0b be
       0.008991855 -0.21101557 0.1467102 -0.13655064
0003e0 bc d6 f0 3d 12 83 f5 bd 6f 77 8d 3d 99 1a 09 bd
       0.11759707 -0.1198789 0.06907546 -0.03347263
0003f0 c4 2c 96 bd 28 5d 23 be 29 a1 de bd 9a 0f 0e bd
       -0.07332757 -0.15953505 -0.108705826 -0.034682848

conv2.conv3.0.bias f4 [16]
000000 70 2a 48 bc 54 39 74 bd 26 27 18 3b 88 3f 43 3d
       -0.012217149 -0.059624985 0.0023216694 0.04766801
000010 0b 21 35 3b f4 5b 56 3d 02 d2 00 bd a6 b4 85 3d
       0.0027638103 0.052333787 -0.03145028 0.065285966
000020 f3 73 a2 3c 53 39 e5 bc 13 66 24 3d 72 b0 27 3d
       0.01983068 -0.027981436 0.040136408 0.040939756
000030 14 31 12 bd 08 1e 78 bc 4c fe 2f 3d 7e 42 96 bd
       -0.035691336 -0.015143879 0.042967126 -0.07336901

conv2.conv3.1.weight f4 [16]
000000 8c a0 58 3f b1 7f 6b 3f e7 91 61 3f 11 85 8d 3f
       0.84619975 0.91991717 0.88113254 1.1056234
000010 b7 48 82 3f ad d5 65 3f b0 d8 8e 3f bc 00 81 3f
       1.0178441 0.8977917 1.1159878 1.0078349
000020 65 c6 a1 3f 00 3c 82 3f 66 b8 8d 3f cb a6 86 3f
       1.263867 1.017456 1.1071899 1.0519651
000030 b8 19 74 3f 38 81 91 3f d1 df 98 3f 33 13 4d 3f
       0.95351744 1.136756 1.1943303 0.8010742

conv2.conv3.1.bias f4 [16]
000000 0a 0e 22 bd a2 3e 9c bd 53 59 d1 3c d4 47 93 bd
       -0.03956417 -0.07629134 0.025555288 -0.071914345
000010 ae c5 5d 3e b4 94 f8 bd 7c 2e ac 3e 04 61 d0 3d
       0.2165744 -0.12137738 0.33629215 0.10174754
000020 cf b7 9c 3d 36 28 2c 3c b2 5b f7 bc 7d 75 41 be
       0.07652246 0.010507634 -0.03019509 -0.18892474
000030 22 5d 9d 3d 10 6f 2f 3e 3a 38 1c 3c c8 3b 17 be
       0.07683779 0.1713221 0.00953489 -0.14768898

conv2.conv3.1.running_mean f4 [16]
000000 e7 3b 82 bf 07 bf f7 bd 0c 4a cd bc 6f ec 44 bf
       -1.0174531 -0.120969824 -0.025059722 -0.7692327
000010 e6 0e c6 bf 48 e8 02 bf 19 56 af bc 4c 61 84 bf
       -1.5473297 -0.51135683 -0.02140336 -1.0342193
000020 bf 8a c0 3d 7b b6 ca bf 64 19 c3 3e 50 4c 01 be
       0.09401464 -1.5836939 0.3810531 -0.12626767
000030 86 46 15 bf f5 ea 45 bf ae 9c 9a be 0e c6 f2 3e
       -0.58310735 -0.7731164 -0.30197662 0.4741673

conv2.conv3.1.running_var f4 [16]
000000 52 b7 88 40 84 87 37 40 fd b6 4b 40 b3 23 53 40
       4.272378 2.8676462 3.1830437 3.299054
000010 05 42 a4 40 29 a1 15 40 b3 10 8b 40 d2 90 b3 40
       5.133059 2.3379614 4.3457885 5.6114283
000020 72 4e 6b 40 28 60 e6 3f 0a 5a 4b 40 5c 2d a6 40
       3.676663 1.7998095 3.1773705 5.193037
000030 b6 8f 6e 40 03 ee 06 40 7d 7a 99 40 7c 9f 07 40
       3.7275214 2.108277 4.796202 2.1191092
