checkpoints/ifind1_sononet_8_6classes/034_net_6classes.pth (torch_old, 671819 bytes, 90 tensors)

conv1.conv1.0.weight f4 [8, 1, 3, 3]
-0.023589004 -0.25401235 -0.24177809 0.45593703 0.9476044 -1.0380446 0.12607919 -0.12304638
-0.21136412 -1.0444824 0.2944248 -0.81999105 0.3062793 -0.12489883 -0.35549724 1.1473147
-0.0168278 0.72402465 0.17288585 -0.2651902 -0.08818534 -0.97818595 0.48560324 -0.028952606
-0.30900586 -0.33331615 -0.86684215 -1.024251 0.20633169 -0.3925577 -0.032834798 0.1376744
0.109417826 -0.28966132 0.93609995 -0.18188393 0.06225576 0.2694925 -0.19114889 0.42266646
-0.4162985 -0.25774226 -0.33340585 -0.14895643 0.016858026 0.26568237 0.32576478 0.62662435
0.9513165 -0.36538598 0.19289085 -0.23350821 -0.19305652 0.115032524 0.20352054 0.07516349
-0.011383767 -0.8642883 0.24578519 0.2767846 -0.54345566 -0.05357597 0.4479601 -0.77320504
0.36512232 0.76518375 -0.23876241 0.5005914 -0.096545905 0.013794313 -0.1174278 -0.18464796
00000000: ba3d c1bc e80d 82be ad94 77be 9470 e93e
00000010: 3496 723f a5de 84bf e71a 013e beff fbbd
00000020: d66f 58be 99b1 85bf d9be 963e efea 51bf
00000030: a4d0 9c3e f5ca ffbd bc03 b6be 35db 923f
00000040: 74da 89bc ae59 393f fd08 313e 03c7 87be
00000050: 849a b4bd 656a 7abf fda0 f83e 042e edbc
00000060: 0436 9ebe 6aa8 aabe 5ee9 5dbf a81a 83bf
00000070: 9d48 533e 53fd c8be c87d 06bd 85fa 0c3e
00000080: 7416 e03d 7d4e 94be 3fa4 6f3f c83f 3abe
00000090: e5ff 7e3d ecfa 893e 89bc 43be bd67 d83e
000000a0: 1425 d5be cbf6 83be 2cb4 aabe 0988 18be
000000b0: d819 8a3c 8507 883e a4ca a63e 746a 203f
000000c0: 7a89 733f df13 bbbe 2e85 453e c71c 6fbe
000000d0: 9cb0 45be 2c96 eb3d b067 503e 51ef 993d
000000e0: fb82 3abc ff41 5dbf 1daf 7b3e b6b6 8d3e
000000f0: e91f 0bbf 7a72 5bbd 075b e53e c4f0 45bf
00000100: 50f1 ba3e 15e3 433f 227e 74be c226 003f
00000110: dcb9 c5bd 8b01 623c fd7d f0bd 5b14 3dbe

conv1.conv1.0.bias f4 [8]
-0.017490655 -0.24621601 -0.19838315 0.09243524 -0.26666343 0.30757415 0.02330946 0.14265828
00000000: 9048 8fbc 0d20 7cbe f424 4bbe b04e bd3d
00000010: 1c88 88be 5c7a 9d3e 7bf3 be3c 0315 123e

conv1.conv1.1.weight f4 [8]
1.0766537 1.0422225 0.8540892 1.035798 0.9839174 0.99005926 1.0217582 1.0984186
00000000: cacf 893f 8c67 853f 97a5 5a3f 0795 843f
00000010: 03e2 7b3f 8674 7d3f f9c8 823f fb98 8c3f

conv1.conv1.1.bias f4 [8]
0.050966058 0.09485598 -0.10491471 -0.06694542 -0.12269972 0.01916268 0.0040880814 0.24322394
00000000: c9c1 503d da43 c23d 86dd d6bd ae1a 89bd
00000010: fe49 fbbd 0dfb 9c3c 50f5 853b b20f 793e

conv1.conv1.1.running_mean f4 [8]
-0.01884403 -0.24665649 -0.20170116 0.089149944 -0.26697877 0.31093085 0.022396883 0.14178059
00000000: cc5e 9abc 8593 7cbe c08a 4ebe 3f94 b63d
00000010: 71b1 88be 5432 9f3e ab79 b73c ee2e 113e

conv1.conv1.1.running_var f4 [8]
0.19887185 0.5125083 4.6614366 0.39638188 0.34000683 2.7864366 0.124630064 0.12326714
00000000: 10a5 4b3e be33 033f 7d2a 9540 91f2 ca3e
00000010: 6015 ae3e fa54 3240 0c3e ff3d 7b73 fc3d

conv1.conv2.0.weight f4 [8, 8, 3, 3]
-0.031545483 0.1889711 -0.093493424 -0.011887385 0.43251738 0.07906879 -0.25803497 -0.016571993
-0.09678976 0.36014923 -0.0038120407 -0.20675687 0.14881499 0.25876954 0.1914146 -0.034262918
-0.0143961655 -0.09721743 0.04571665 -0.008093675 -0.04692215 0.087324455 -0.00539385 0.09413298
-0.006692917 0.23718801 0.028292533 -0.11885995 0.08160898 -0.108235665 -0.17249438 0.09860131
0.12570892 0.113947324 0.101620376 -0.24359225 0.12328405 -0.18038578 0.24381444 0.20474735
-0.40201375 0.04112844 0.096308395 -0.12544844 -0.29375073 0.03228758 0.11473646 -0.20802285
0.15626562 0.10699265 0.23491408 0.37130705 0.37325615 -0.18367298 -0.38591298 -0.0026484532
-0.26398546 -0.022070197 0.046036635 0.11943999 -0.07422012 0.019996323 -0.10924211 -0.034923133
-0.06526237 -0.20713882 0.18378206 -0.030006196 -0.33310547 0.19298516 -0.019080337 -0.23042852
-0.094099976 0.08032733 -0.038353752 -0.046162378 0.19914076 0.10331221 0.38413897 -0.3743982
-0.3329056 -0.13649534 -0.058271464 0.24029979 -0.046490896 -0.2611237 0.075541735 -0.17428845
-0.018494679 -0.22632268 0.022419319 -0.16835342 -0.0039604395 -0.2540089 0.1951412 0.08707454
-0.029272204 0.2216531 -0.10601391 -0.17834352 0.124675274 -0.115593165 0.082918145 -0.23564418
0.01813072 0.20079564 0.025357006 0.039894518 0.13211457 0.14996877 0.0057280753 -0.024030281
-0.162652 0.056825828 -0.02867314 -0.031110227 0.26199743 0.035704646 -0.19242637 0.20427185
0.21563108 0.11216356 -0.2653832 0.0032490625 -0.16714972 0.17586234 0.16696994 0.029489106
-0.1508547 -0.014719204 -0.14600608 0.038380057 -0.24653472 -0.30599576 0.493531 -0.25282127
-0.109492935 -0.024933357 0.11945675 -0.09679733 -0.0228775 0.12599874 0.009190258 0.12606262
0.21470016 -0.19111139 0.15143505 -0.03848864 -0.15823811 -0.16547401 -0.010235771 -0.10615609
-0.21800353 0.2681806 0.10333912 -0.07127563 0.047827043 0.17061034 0.062439587 0.17285047
0.15029576 -0.35487965 -0.08602394 -0.18134128 -0.08392915 0.1280397 0.17516603 -0.023078136
0.09940294 -0.1132023 -0.082583115 -0.19205594 -0.11653639 -0.18429029 -0.20701444 -0.2108496
-0.031204771 0.07395484 -0.14740953 -0.07572116 0.20337288 0.04988439 0.043490853 0.13667476
0.26524618 -0.26572162 0.2005551 -0.15843457 0.13104503 -0.45204404 -0.12264317 0.17919962
0.008748194 0.13903686 -0.10389562 -0.10049385 0.054535467 0.3700929 0.12733287 -0.116946094
0.046685427 -0.024225058 0.10790228 0.101747364 0.045361362 0.11131932 -0.1732497 -0.5020435
-0.14476256 -0.018594122 -0.2560296 0.30739096 0.34467384 -0.0761702 0.32019055 0.38259897
0.2563018 -0.08725206 -0.15651487 0.06911904 -0.2659597 -0.04805273 -0.27499542 -0.12988351
-0.17141916 0.3079511 0.11310038 -0.24697267 0.12693469 0.06709275 -0.2497397 0.026726225
-0.13556616 0.4989295 0.03302676 0.027612431 -0.0065170103 0.26462394 -0.0134975845 -0.5256004
-0.07883457 -0.114722535 0.27306527 -0.2812864 -0.013069422 0.12891003 0.111022264 -0.056433875
0.065782525 -0.22497611 0.03363747 0.008412523 -0.13214451 -0.19788532 0.14947753 0.21900141
00000000: d635 01bd a481 413e 7b79 bfbd 4ec3 42bc
00000010: eb72 dd3e d1ee a13d 291d 84be fdc1 87bc
00000020: b639 c6bd 7b65 b83e 6ed3 79bb 13b8 53be
00000030: f562 183e 717d 843e 3002 443e 4657 0cbd
00000040: e5dd 6bbc ef19 c7bd 6241 3b3d 559b 04bc
00000050: 7131 40bd 2ad7 b23d e5be b0bb cbc8 c03d
00000060: 4250 dbbb 6ae1 723e bec5 e73c d86c f3bd
00000070: 9c22 a73d a9aa ddbd 5ea2 30be 7cef c93d
00000080: d7b9 003e 375d e93d 581e d03d 3f70 79be
00000090: 597c fc3d 0db7 38be 7eaa 793e 4aa9 513e
000000a0: bfd4 cdbe 4c76 283d 563d c53d 8e75 00be
000000b0: 7f66 96be fb3f 043d f3fa ea3d f103 55be
000000c0: 1804 203e f61e db3d 518d 703e f51b be3e
000000d0: 6e1b bf3e c514 3cbe 6396 c5be ac91 2dbb
000000e0: 1a29 87be 8fcc b4bc e990 3c3d f49c f43d
000000f0: b800 98bd 54cf a33c 54ba dfbd 8f0b 0fbd
00000100: 47a8 85bd 331c 54be 5d31 3c3e 8ecf f5bc
00000110: cd8c aabe e79d 453e 5e4e 9cbc 74f5 6bbe
00000120: 7db7 c0bd a882 a43d d318 1dbd c314 3dbd
00000130: 8eeb 4b3e 5a95 d33d ddad c43e 1fb1 bfbe
00000140: 9a72 aabe 6fc5 0bbe 0fae 6ebd 2611 763e
00000150: 3d6d 3ebd 01b2 85be a0b5 9a3d ac78 32be
00000160: 2782 97bc 22c1 67be b8a8 b73c d764 2cbe
00000170: 93c6 81bb 740d 82be 18d3 473e 2354 b23d
00000180: 43cc efbc 08f9 623e d21d d9bd af9f 36be
00000190: c055 ff3d 1cbc ecbd fdd0 a93d b54c 71be
000001a0: e086 943c 5f9d 4d3e 7fb9 cf3c 6f68 233d
000001b0: 0b49 073e 6a91 193e 94b2 bb3b 27db c4bc
000001c0: 3f8e 26be 33c2 683d efe3 eabc e0da febc
000001d0: 8724 863e 093f 123d 6b0b 45be a42c 513e
000001e0: 65ce 5c3e 02b6 e53d 4fe0 87be 39ee 543b
000001f0: 4c29 2bbe 4215 343e 2bfa 2a3e 2393 f13c
00000200: a879 1abe d128 71bc 9e82 15be 6834 1d3d
00000210: 9973 7cbe 7aab 9cbe 18b0 fc3e ca71 81be
00000220: d53d e0bd 0a41 ccbc bea5 f43d ae3d c6bd
00000230: 9869 bbbc d005 013e bc92 163c 8f16 013e
00000240: 5cda 5b3e b4b2 43be ca11 1b3e 44a6 1dbd
00000250: 2c09 22be 0572 29be efb3 27bc 5d68 d9bd
00000260: 513c 5fbe f84e 893e 76a3 d33d f5f8 91bd
00000270: 4ae6 433d 7ab4 2e3e a7c0 7f3d b7ff 303e
00000280: 22e7 193e c9b2 b5be 522d b0bd 87b1 39be
00000290: 0ce3 abbd d71c 033e b95e 333e 5c0e bdbc
000002a0: c593 cb3d 9cd6 e7bd 5621 a9bd 50aa 44be
000002b0: a1aa eebd 98b6 3cbe 98fb 53be f5e8 57be
000002c0: 26a1 ffbc a375 973d 86f2 16be b213 9bbd
000002d0: fb40 503e 9353 4c3d 7723 323d 78f4 0b3e
000002e0: 59ce 873e aa0c 88be 515e 4d3e ac3c 22be
000002f0: ab30 063e 5172 e7be 582c fbbd 1b80 373e
00000300: 9654 0f3c ae5f 0e3e 3ac7 d4bd b8cf cdbd
00000310: 9560 5f3d d17c bd3e 8c63 023e 6f81 efbd
00000320: 3839 3f3d a173 c6bc dffb dc3d ec60 d03d
00000330: d6cc 393d 62fb e33d 5f68 31be ec85 00bf
00000340: a33c 14be b352 98bc 5016 83be 5962 9d3e
00000350: 1779 b03e 1fff 9bbd 04f0 a33e 03e4 c33e
00000360: fd39 833e 35b1 b2bd 6f45 20be 498e 8d3d
00000370: df2b 88be f0d2 44bd 33cc 8cbe 2f00 05be
00000380: 8188 2fbe c4ab 9d3e 2ca1 e73d 67e6 7cbe
00000390: 2bfb 013e ec67 893d c4bb 7fbe f5f0 da3c
000003a0: dbd1 0abe b073 ff3e 1147 073d 7733 e23c
000003b0: a58c d5bb ca7c 873e f924 5dbc bf8d 06bf
000003c0: 0574 a1bd a6f3 eabd 36cf 8b3e c504 90be
000003d0: 2121 56bc fe00 043e a45f e33d 3527 67bd
000003e0: fdb8 863d 2360 66be 72c7 093d aed4 093c
000003f0: e450 07be 73a2 4abe a310 193e e841 603e

conv1.conv2.0.bias f4 [8]
-0.1035881 0.048729975 -0.0007254859 0.026597751 0.020986374 -0.10906174 -0.00473477 -0.081589244
00000000: ff25 d4bd 1599 473d 892e 3eba 87e3 d93c
00000010: 9eeb ab3c c35b dfbd 2126 9bbb 4318 a7bd

conv1.conv2.1.weight f4 [8]
1.0419523 1.1537359 0.94010764 1.014596 0.9265694 1.0314336 1.0400131 0.94659406
00000000: b15e 853f 9ead 933f e5aa 703f 48de 813f
00000010: a733 6d3f 0406 843f 261f 853f fd53 723f

conv1.conv2.1.bias f4 [8]
0.05140657 0.11542455 -0.080554456 -0.040729802 -0.1682958 0.06005278 0.00852392 -0.034916986
00000000: b28f 523d b563 ec3d bcf9 a4bd 4bd4 26bd
00000010: bc55 2cbe e7f9 753d e9a7 0b3c 1d05 0fbd

conv1.conv2.1.running_mean f4 [8]
0.06911792 -0.17924316 -0.03234397 -0.5247285 0.21886508 -0.8218491 -0.74468654 0.56098056
00000000: b28d 8d3d 858b 37be 1c7b 04bd 9b54 06bf
00000010: 2b1e 603e b464 52bf c7a3 3ebf 6c9c 0f3f

conv1.conv2.1.running_var f4 [8]
1.2179828 0.35853073 1.1704693 0.7212398 0.759375 1.7893207 2.001899 1.9289744
00000000: dce6 9b3f 5791 b73e f0d1 953f 2ca3 383f
00000010: 6666 423f 7608 e53f 1d1f 0040 a2e8 f63f

conv1.conv3.0.weight f4 [8, 8, 3, 3]
0.2009238 0.12372544 0.1410496 -0.34474295 -0.25593853 0.10035942 0.16632117 0.077784814
-0.016643241 -0.059810486 0.031365324 0.08229072 0.031070525 0.09703139 -0.18908027 0.044279464
-0.03662077 -0.13824415 0.14577577 0.13149682 -0.13394137 0.086078264 -0.36006287 -0.22068831
-0.1161683 -0.21635102 0.12272902 -0.13727741 -0.25896922 0.13903546 -0.058107197 -0.06746653
0.0075820033 0.10401705 -0.3603857 0.27578264 -0.07440672 -0.05236943 -0.37232518 -0.22091769
-0.35799488 -0.09633864 0.16318087 0.16212092 0.1060592 -0.14388104 0.073579974 -0.27768108
-0.3214303 -0.297824 -0.16659118 0.24595685 -0.37139076 0.07347651 0.2851517 0.029570032
-0.23648596 -0.40701085 -0.032032747 0.004942898 -0.25177145 -0.07749096 0.18133518 0.054534584
-0.14366223 0.081952885 0.06796393 -0.16204852 -0.29868788 -0.10062442 0.041422527 -0.031988025
0.154854 -0.08234329 -0.010134923 -0.034582887 -0.09956627 -0.10719457 0.12517203 0.06878627
-0.1039824 -0.21698946 -0.012843115 0.34356934 0.07521902 -0.12433289 0.03333635 0.28810722
-0.34889612 0.029600065 -0.002908313 -0.06303401 -0.34416738 -0.33882275 -0.15619877 -0.051428575
0.054100543 -0.25325876 -0.17685372 0.3139822 -0.057080943 -0.14859517 0.2747157 -0.31343904
-0.027293503 -0.06427267 -0.23180372 0.09662389 -0.16429685 -0.12523462 0.14729822 -0.26747897
0.14227688 -0.0021215342 0.0016651694 -0.25726524 -0.040011086 -0.079386175 0.055976044 -0.042964187
0.07692526 0.19517049 0.15404612 0.059193157 -0.16776653 -0.051752735 0.017270124 0.36428213
0.17988534 -0.082870245 0.17525169 -0.11723596 0.17237756 -0.0011325816 0.007887555 -0.09017265
0.3248178 -0.20070115 -0.35719535 -0.013667257 0.0504373 0.24953581 0.2425393 -0.22451767
-0.06573092 0.13790852 -0.3430657 0.3318974 0.17054227 -0.19452938 0.131604 0.124344505
0.014767082 -0.10941968 -0.23649736 -0.0028468904 0.20052804 0.07747989 -0.021392275 0.20273803
-0.013428527 -0.10277316 0.2730348 -0.018287327 0.17297263 0.06645575 0.034871988 0.3111266
-0.08144802 0.029006345 0.33592272 0.083617285 0.33270854 0.019624757 0.12737273 0.16119252
0.14858556 0.15322186 -0.018670054 0.014049797 -0.04701048 -0.3095915 -0.034110427 0.17988095
-0.2877575 -0.31377947 -0.034102354 0.2097353 0.037653174 -0.19990371 -0.20349722 -0.072362736
-0.15708095 0.1462416 -0.18374328 -0.090573736 -0.011317884 -0.16487889 -0.0984017 -0.12367188
-0.059876975 0.18683401 0.17799766 0.09659931 0.070752 -0.11204717 -0.17107359 -0.096675545
-0.25232068 -0.015769063 0.097520486 -0.21502918 -0.11162275 0.11942314 -0.22299053 0.2670949
-0.23364648 -0.04672001 -0.08709126 0.09098346 -0.2901144 -0.02090719 -0.2591455 -0.18971637
0.36058307 0.093991 -0.56618315 0.18307948 0.30473405 -0.042760063 -0.12765287 -0.36978984
0.27817434 0.11733216 -0.24160965 -0.06191781 -0.10909766 -0.14919533 -0.011655772 0.33394465
0.1896115 -0.23077376 -0.32488137 -0.3257081 0.3766596 0.002027924 -0.030226659 0.22559117
-0.01198871 0.1910608 0.14703698 -0.25924203 -0.3029659 0.032774366 0.08048215 0.13759908
00000000: f8be 4d3e c363 fd3d 4e6f 103e 2682 b0be
00000010: 600a 83be 3d89 cd3d 1950 2a3e a54d 9f3d
00000020: 6857 88bc d7fb 74bd ed78 003d 0988 a83d
00000030: 9d87 fe3c 65b8 c63d 429e 41be 625e 353d
00000040: a9ff 15bd e08f 0dbe 3e46 153e 1aa7 063e
00000050: ed27 09be cd49 b03d 295a b8be 1efc 61be
00000060: a5e9 edbd 1f8b 5dbe 5a59 fb3d 7392 0cbe
00000070: 9d97 84be 505f 0e3e d001 6ebd e42b 8abd
00000080: 7472 f83b e406 d53d 7984 b8be 6233 8d3e
00000090: 8d62 98bd 5481 56bd 68a1 bebe 3f38 62be
000000a0: 1b4b b7be 314d c5bd e318 273e 0703 263e
000000b0: 9135 d93d 8d55 13be 19b1 963d 372c 8ebe
000000c0: 8392 a4be 637c 98be e196 2abe 1ddc 7b3e
000000d0: ee26 bebe da7a 963d 67ff 913e da3c f23c
000000e0: 6029 72be ba63 d0be c534 03bd 09f8 a13b
000000f0: 30e8 80be 95b3 9ebd eeaf 393e a85f 5f3d
00000100: 311c 13be ead6 a73d ac30 8b3d 0cf0 25be
00000110: 9eed 98be 2d14 cebd abaa 293d e005 03bd
00000120: 0c92 1e3e 99a3 a8bd f30c 26bc c9a6 0dbd
00000130: 67e9 cbbd d488 dbbd 192d 003e d1df 8c3d
00000140: b9f4 d4bd 7c32 5ebe ee6b 52bc 52e8 af3e
00000150: 6e0c 9a3d 3ea2 febd b28b 083d ca82 933e
00000160: 83a2 b2be d67b f23c 6599 3ebb fa17 81bd
00000170: b536 b0be 2d7a adbe 92f2 1fbe c5a6 52bd
00000180: 8898 5d3d 22ab 81be 2419 35be 46c2 a03e
00000190: b5cd 69bd 5529 18be 89a7 8c3e 157b a0be
000001a0: a096 dfbc 64a1 83bd f45d 6dbe bfe2 c53d
000001b0: 6f3d 28be 813d 00be 58d5 163e 01f3 88be
000001c0: 08b1 113e 7009 0bbb d041 da3a 45b8 83be
000001d0: aae2 23bd 3895 a2bd 2347 653d 37fb 2fbd
000001e0: fe8a 9d3d c6da 473e 44be 1d3e 8674 723d
000001f0: fdca 2bbe adfa 53bd 137a 8d3c 3083 ba3e
00000200: dd33 383e e0b7 a9bd 2e75 333e 6819 f0bd
00000210: be83 303e 2273 94ba ce3a 013c 70ac b8bd
00000220: 854e a63e 9a84 4dbe 4fe2 b6be a1ec 5fbc
00000230: 5897 4e3d 5186 7f3e 395c 783e f6e7 65be
00000240: ef9d 86bd e437 0d3e 4fa6 afbe 75ee a93e
00000250: a2a2 2e3e b632 47be 33c3 063e 55a8 fe3d
00000260: a2f1 713c 6d17 e0bd 5d2c 72be e592 3abb
00000270: 3957 4d3e c7ad 9e3d da3e afbc 8f9a 4f3e
00000280: 5303 5cbc bc7a d2bd 38cb 8b3e 4ecf 95bc
00000290: bd1f 313e f419 883d eed5 0e3d fc4b 9f3e
000002a0: 38ce a6bd b79e ed3c 10fe ab3e 8a3f ab3d
000002b0: c658 aa3e 19c4 a03c ff6d 023e a70f 253e
000002c0: d026 183e 31e6 1c3e f1f1 98bc 1f31 663c
000002d0: 108e 40bd c782 9ebe 60b7 0bbd b632 383e
000002e0: f354 93be b4a7 a0be e9ae 0bbd dac4 563e
000002f0: 373a 1a3d 8fb3 4cbe 9361 50be ea32 94bd
00000300: d4d9 20be 5cc0 153e 3327 3cbe b97e b9bd
00000310: a56e 39bc 03d6 28be d586 c9bd af47 fdbd
00000320: 8f41 75bd 6a51 3f3e 0545 363e dcd5 c53d
00000330: 6de6 903d fd78 e5bd ea2d 2fbe d4fd c5bd
00000340: 2d30 81be 1f2e 81bc d2b8 c73d 9c30 5cbe
00000350: 789a e4bd 1f94 f43d a157 64be aac0 883e
00000360: 0641 6fbe 7b5d 3fbd e75c b2bd 8955 ba3d
00000370: e089 94be 8e45 abbc b8ae 84be 0245 42be
00000380: 589e b83e 5a7e c03d 61f1 10bf 3079 3b3e
00000390: 1a06 9c3e 2d25 2fbd 6fb7 02be 1855 bdbe
000003a0: de6c 8e3e d84b f03d 8568 77be 889d 7dbd
000003b0: 986e dfbd a9c6 18be daf7 3ebc cbfa aa3e
000003c0: 8429 423e f54f 6cbe da56 a6be 36c3 a6be
000003d0: 87d9 c03e ebe6 043b e69d f7bc 5f01 673e
000003e0: 4b6c 44bc 71a5 433e dd90 163e 5fbb 84be
000003f0: 591e 9bbe 6a3e 063d d3d3 a43d c6e6 0c3e

conv1.conv3.0.bias f4 [8]
-0.026311427 -0.014360905 -0.07539825 0.007086477 -0.07266182 -0.09436906 0.10597521 -0.002444433
00000000: 108b d7bc 004a 6bbc 666a 9abd ad35 e83b
00000010: b8cf 94bd 9144 c1bd 8809 d93d c832 20bb

conv1.conv3.1.weight f4 [8]
1.0250474 1.0800592 1.0110685 0.9790874 0.8966813 1.0512158 1.0456175 0.9847947
00000000: c134 833f 613f 8a3f b16a 813f 79a5 7a3f
00000010: e88c 653f 3d8e 863f cbd6 853f 811b 7c3f

conv1.conv3.1.bias f4 [8]
0.024419451 0.11804433 0.14195655 0.10343089 0.038417812 0.10152641 0.08409917 0.06945372
00000000: 4d0b c83c 3ac1 f13d 0f5d 113e 93d3 d33d
00000010: ff5b 1d3d 14ed cf3d 303c ac3d c03d 8e3d

conv1.conv3.1.running_mean f4 [8]
-1.346762 -0.24914521 0.07301963 -0.3588416 -1.099492 -0.6923325 -0.14713857 -0.3306607
00000000: b262 acbf ec1f 7fbe 518b 953d 16ba b7be
00000010: 27bc 8cbf b43c 31bf 7eab 16be 5c4c a9be

conv1.conv3.1.running_var f4 [8]
1.0139264 1.5315369 1.8944252 0.62893206 1.6486363 2.6719348 1.3672373 1.8296026
00000000: 57c8 813f 6709 c43f 867c f23f b101 213f
00000010: 8406 d33f fb00 2b40 a201 af3f 6b30 ea3f

conv2.conv1.0.weight f4 [16, 8, 3, 3]
-0.03801818 0.031007867 -0.15458849 -0.26595503 0.028131794 0.3607228 0.24906729 -0.08953176
0.07853141 0.027572213 -0.03560517 0.0155537585 -0.18376146 -0.07805225 -0.08424925 0.07935062
0.13555586 -0.18148755 -0.08817637 -0.39280212 0.119368516 -0.020835761 0.30133298 0.124215014
0.16639593 0.22384706 -0.0230275 0.14713612 0.121036544 0.051124424 0.32264486 -0.10856547
-0.30106243 -0.09693955 -0.030974528 -0.021276645 0.023398466 -0.0903221 -0.010447133 0.2824125
-0.09357129 -0.037148513 -0.16044524 -0.049273048 -0.096306905 -0.029971851 -0.18318471 0.10396502
-0.20275526 -0.13508981 -0.15154816 -0.20875134 -0.13430242 -0.20172141 -0.24773356 -0.13770457
-0.084378265 0.026506748 -0.03682176 -0.031832736 0.0070105796 -0.14669232 -0.035210706 0.14359099
-0.11351951 0.084016 -0.0014798616 0.2528541 0.011326913 0.01558807 0.14383887 0.34274203
-0.1014406 0.09370432 -0.34090438 -0.073334515 -0.18703607 -0.25743675 0.22293887 -0.133252
0.23937772 0.319965 0.26234466 0.08583393 0.2331127 0.24451312 -0.09898777 0.011414136
0.22623883 0.18306708 -0.17203917 -0.14657277 -0.2694381 0.14026618 -0.1506244 -0.2927094
-0.1992453 0.21507728 0.029875265 -0.022788787 -0.1888004 0.03396733 0.3315329 -0.2829194
0.12245405 0.122956015 -0.2510797 0.20242704 0.047887232 -0.0005732668 -0.23400345 0.09225013
-0.014739338 -0.12101553 -0.07954415 0.15201604 -0.1144948 -0.15489584 -0.0036591175 0.0114222
-0.097296104 -0.04114883 -0.3465848 0.20772825 -0.08626391 0.22912484 0.0816357 0.23684263
-0.13679546 0.30387786 0.12460656 0.10118187 0.0874153 0.20090795 -0.10220328 -0.010896909
0.0006091624 0.09243376 0.19765122 -0.4364396 -0.10141843 0.13124979 -0.03507541 0.009249068
-0.15156713 -0.14891033 0.08991041 -0.126711 0.09126164 0.53333354 0.07954794 -0.18069568
0.14089538 -0.03363617 -0.1658481 -0.23002441 0.15464993 -0.041280676 0.2168846 -0.19044676
0.038148656 0.17199473 -0.18504138 -0.28956595 -0.24106954 -0.11153073 0.15311341 0.23850514
0.20565824 0.18690343 -0.17578493 -0.18009335 0.4969118 0.21232605 0.03909524 0.30606633
-0.0300067 0.14054842 -0.022099042 0.007499606 0.18617581 0.14755018 0.03671207 -0.049130872
-0.015098474 -0.12292646 -0.12249411 0.013669366 0.077695906 -0.1904429 -0.28081274 0.1311779
-0.120495394 0.116243824 -0.22516133 -0.020143496 0.14214471 0.014629409 -0.19022113 -0.26986888
-0.3316778 -0.1370071 -0.053522456 0.039394945 0.24135754 0.018891135 -0.056429442 -0.16977125
-0.11576924 0.11736871 -0.13756756 0.30765238 0.012467003 -0.08866435 -0.29258773 0.0389742
0.09084929 -0.16572903 0.057475016 -0.2888551 -0.064547576 0.022629883 0.3301493 -0.016210327
-0.13845944 -0.22871381 -0.1576371 -0.26149574 -0.08412545 0.24761167 0.10375008 0.055893827
-0.14483912 -0.08110499 0.022970881 0.010014718 -0.034574457 -0.17831494 -0.07009499 0.07404049
-0.11277027 0.08471566 0.13046578 0.0880011 -0.061041046 -0.024009714 -0.32516062 0.08549474
-0.04371985 -0.2857018 -0.048825033 0.21543787 0.0045044324 -0.02290255 -0.087871164 0.22580433
00000000: f3b8 1bbd 3604 fe3c 724c 1ebe 422b 88be
00000010: a674 e63c a9b0 b83e 7f0b 7f3e 6d5c b7bd
00000020: 13d5 a03d 1fdf e13c bad6 11bd 31d5 7e3c
00000030: f72b 3cbe dcd9 9fbd df8a acbd 9482 a23d
00000040: 28cf 0a3e dfd7 39be d095 b4bd 5c1d c9be
00000050: 7b77 f43d c2af aabc 5148 9a3e 7164 fe3d
00000060: b263 2a3e 2a38 653e 2ba4 bcbc daaa 163e
00000070: 02e2 f73d d867 513d b531 a53e 9357 debd
00000080: db24 9abe 3e88 c6bd 4bbe fdbc 5c4c aebc
00000090: 24ae bf3c cbfa b8bd 742a 2bbc 5f98 903e
000000a0: 4ea2 bfbd 0a29 18bd c24b 24be 89d2 49bd
000000b0: 8e3c c5bd 8787 f5bc c694 3bbe 9deb d43d
000000c0: 139f 4fbe fc54 0abe 712f 1bbe e9c2 55be
000000d0: 9386 09be 0f90 4ebe dead 7dbe 6d02 0dbe
000000e0: 83ce acbd ae24 d93c 6ad2 16bd 0b63 02bd
000000f0: 01b9 e53b 8336 16be 1a39 10bd 8409 133e
00000100: eb7c e8bd 9510 ac3d eaf7 c1ba 1876 813e
00000110: 8494 393c 1b65 7f3c 7f4a 133e e27b af3e
00000120: 17c0 cfbd 0de8 bf3d 058b aebe 6830 96bd
00000130: 6286 3fbe c0ce 83be 164a 643e 3673 08be
00000140: 6f1f 753e 74d2 a33e 0a52 863e b3c9 af3d
00000150: 18b5 6e3e a661 7a3e 1aba cabd 5b02 3b3c
00000160: 27ab 673e f075 3b3e 092b 30be 2c17 16be
00000170: caf3 89be f0a1 0f3e 483d 1abe 02de 95be
00000180: f606 4cbe 383d 5c3e f9bc f43c 8daf babc
00000190: e454 41be 5421 0b3d aebe a93e d0da 90be
000001a0: 30c9 fa3d 5dd0 fb3d 858d 80be 0949 4f3e
000001b0: 6725 443d 4947 16ba 9a9e 6fbe a3ed bc3d
000001c0: 447d 71bc fdd6 f7bd 0be8 a2bd 18aa 1b3e
000001d0: 407c eabd 049d 1ebe cecd 6fbb 2e24 3b3c
000001e0: 2e43 c7bd ad8b 28bd 9073 b1be b7b6 543e
000001f0: 22ab b0bd b49f 6a3e 9e30 a73d e086 723e
00000200: 1c14 0cbe e195 9b3e b931 ff3d 7138 cf3d
00000210: cb06 b33d d0ba 4d3e f44f d1bd f388 32bc
00000220: 32b0 1f3a e94d bd3d 1565 4a3e 0375 dfbe
00000230: 77b4 cfbd 5866 063e 3cab 0fbd 6789 173c
00000240: 6a34 1bbe f37b 18be f322 b83d 87c0 01be
00000250: 62e7 ba3d 8c88 083f 08ea a23d 4a08 39be
00000260: e146 103e 15c6 09bd 16d4 29be 858b 6bbe
00000270: 8d5c 1e3e ed15 29bd ff16 5e3e 7a04 43be
00000280: c441 1c3d 631f 303e 7d7b 3dbe fd41 94be
00000290: efda 76be 396a e4bd c3c9 1c3e b13a 743e
000002a0: 1398 523e 9d63 3f3e f700 34be 646a 38be
000002b0: 396b fe3e 006c 593e 5522 203d bab4 9c3e
000002c0: 9cd0 f5bc edeb 0f3e 0d09 b5bc 41bf f53b
000002d0: dfa4 3e3e 6517 173e 655f 163d 743d 49bd
000002e0: 975f 77bc dec0 fbbd 31de fabd 7af5 5f3c
000002f0: 081f 9f3d 7703 43be b0c6 8fbe 8053 063e
00000300: 4ac6 f6bd 3e11 ee3d b190 66be f903 a5bc
00000310: 628e 113e 30b0 6f3c 54c9 42be 412c 8abe
00000320: acd1 a9be 974b 0cbe 5d3a 5bbd 985c 213d
00000330: 6e26 773e 95c1 9a3c 8f22 67bd 84d8 2dbe
00000340: 6c18 edbd 025f f03d 83de 0cbe 9d84 9d3e
00000350: 6742 4c3c a895 b5bd 0fce 95be 69a3 1f3d
00000360: 310f ba3d dfb4 29be ec6a 6b3d d1e4 93be
00000370: 8531 84bd 4e62 b93c 5409 a93e 85cb 84bc
00000380: 50c8 0dbe f433 6abe 9f6b 21be c5e2 85be
00000390: f749 acbd ea8d 7d3e ec7a d43d edf0 643d
000003a0: b550 14be 5f1a a6bd 6e2d bc3c c614 243c
000003b0: f29d 0dbd 3198 36be f68d 8fbd 8aa2 973d
000003c0: 19f4 e6bd 677f ad3d d298 053e ec39 b43d
000003d0: 2d06 7abd 05b0 c4bc 747b a6be de17 af3d
000003e0: 9613 33bd 8247 92be c2fc 47bd bf9b 5c3e
000003f0: eb99 933b 219e bbbc ccf5 b3bd 4039 673e

conv2.conv1.0.bias f4 [16]
-0.07814392 -0.033804778 0.102601014 0.038299765 0.11333005 -0.0007111542 -0.06252786 0.021647872
-0.006961176 -0.024692336 0.00030844795 -0.07054669 0.035924185 -0.017325023 -0.08512876 -0.100978486
00000000: eb09 a0bd e176 0abd 7b20 d23d 37e0 1c3d
00000010: 9619 e83d c06c 3aba 9b0e 80bd e156 b13c
00000020: 941a e4bb 9547 cabc 2fb7 a139 c87a 90bd
00000030: 3d25 133d 35ed 8dbc fd57 aebd cfcd cebd

conv2.conv1.1.weight f4 [16]
1.0184752 1.0728649 0.98279315 0.9220974 1.0571269 0.8582425 1.0099083 1.0758742
0.8739208 0.91795397 0.97776234 1.1090715 0.90074164 1.0404232 0.9770146 1.1105473
00000000: 655d 823f a353 893f 5598 7b3f 930e 6c3f
00000010: ef4f 873f c8b5 5b3f ad44 813f 3fb6 893f
00000020: 46b9 5f3f 08ff 6a3f a24e 7a3f 0ef6 8d3f
00000030: 0197 663f 962c 853f a11d 7a3f 6a26 8e3f

conv2.conv1.1.bias f4 [16]
0.011075192 0.1404569 0.002547718 -0.0095803635 0.033331722 -0.050426174 0.025930127 0.08898891
0.002696296 -0.114363186 -0.08055794 0.00855083 -0.07915878 0.045676418 -0.04661416 0.04376553
00000000: b974 353c efd3 0f3e 9df7 263b f5f6 1cbc
00000010: d886 083d ad8b 4ebd 6b6b d43c d13f b63d
00000020: 57b4 303b 3f37 eabd 90fb a4bd c818 0c3c
00000030: 001e a2bd 3217 3b3d 7dee 3ebd 7c43 333d

conv2.conv1.1.running_mean f4 [16]
-0.5015567 0.24212196 -0.045499455 -0.13305324 1.178021 0.2746644 -1.0193037 -0.87000394
-0.14874375 0.21415165 0.14257522 -1.2271502 -1.5633088 0.24510735 -0.58396786 -2.2186625
00000000: 0566 00bf d2ee 773e a35d 3abd 1c3f 08be
00000010: 64c9 963f d0a0 8c3e 8b78 82bf 94b8 5ebf
00000020: 4850 18be 924a 5b3e 3dff 113e 4213 9dbf
00000030: 811a c8bf 6cfd 7a3e eb7e 15bf 91fe 0dc0

conv2.conv1.1.running_var f4 [16]
2.0015092 1.2806424 1.7303511 1.8314476 0.82491344 0.9584434 2.121061 1.1291983
1.0818336 1.4103615 1.1262987 1.1727132 0.7549839 1.7738812 1.8145689 1.0788898
00000000: ba18 0040 17ec a33f 257c dd3f e06c ea3f
00000010: 872d 533f 8c5c 753f 77bf 0740 9289 903f
00000020: 8679 8a3f ba86 b43f 8e2a 903f 771b 963f
00000030: a046 413f 8a0e e33f cb43 e83f 1019 8a3f

conv2.conv2.0.weight f4 [16, 16, 3, 3]
-0.13616936 0.11797445 0.13083485 -0.042009365 -0.29170957 -0.0199556 -0.19684234 0.07972569
-0.11418264 0.03319914 0.12051206 0.025297862 -0.30479574 0.15372111 -0.22974168 -0.06403531
-0.031079143 -0.040897112 0.052649025 0.099190265 -0.33232793 0.03917452 0.021410594 -0.1649339
0.0213137 -0.058136396 -0.055716485 0.01383361 -0.08499781 0.12273816 -0.044571124 0.19698943
0.087728605 -0.020016104 -0.04191665 -0.08430689 0.19619274 -0.102455385 0.08180651 -0.28405467
0.033250596 -0.030591892 0.24787359 -0.21993378 -0.21051344 0.11655313 -0.20837626 0.20001674
-0.14672032 0.121269315 -0.04637325 -0.033193685 -0.04864179 0.19364738 -0.07472154 0.13572542
0.15149431 -0.02033999 0.38364094 0.08704579 0.14694065 -0.0032818487 -0.010081963 0.1331172
-0.011650207 -0.15171096 0.07173664 -0.29933813 -0.1797626 -0.045830533 -0.0029765142 -0.06361045
0.108739 -0.03205193 -0.13917094 -0.22117417 0.0035090481 -0.07383965 -0.076698564 0.18075928
0.080997825 -0.09287909 -0.008686136 0.16272616 0.104612775 -0.056933243 -0.23038578 -0.18816747
-0.11044012 -0.054846298 0.0818973 0.118374504 -0.03839194 -0.17554384 0.1489734 -0.24239157
-0.050094962 0.10230649 -0.102916285 0.081868745 0.08964014 0.088563584 -0.011818828 -0.0405695
0.06493226 0.2022579 0.06370662 0.24449998 -0.076504014 0.07243778 -0.053480223 -0.080681965
-0.18347882 0.023656046 -0.015379401 0.017409306 -0.041713897 0.08075852 0.20987348 -0.13500208
-0.09963988 -0.21353824 -0.03817331 0.06991575 0.053216185 -0.14693101 -0.14411633 -0.03052712
0.17920786 -0.106239215 0.048537787 -0.11441477 0.06298389 0.029003682 -0.18585762 -0.03899177
0.10012125 -0.047148332 0.08599942 -0.02936859 -0.01616268 -0.30505654 0.067012474 -0.08771667
-0.09069587 0.029525751 0.14360851 0.00041745263 0.07287945 0.05682282 -0.05501039 0.085765556
-0.072704606 0.15390456 0.2369271 0.01061478 -0.12911762 0.012190761 0.034500062 0.07345621
-0.1971712 -0.0063598542 0.07545567 0.0267056 -0.1187202 0.2219938 -0.13360606 0.03217987
-0.15882073 0.11207306 0.17981458 0.17119281 0.073334515 -0.053803682 0.15744135 -0.04823291
0.14490591 0.1743496 0.12607059 0.057748504 -0.19482045 0.031022673 0.033088736 -0.074681945
0.06213859 0.025749581 -0.1399288 -0.04139121 -0.059003092 0.07833737 0.0038151625 -0.10370901
-0.031363033 0.10434147 -0.2494498 0.050808765 -0.055037644 0.024975004 -0.03493663 -0.11956994
0.093487546 0.092299186 -0.14324154 -0.07712263 0.053310517 0.05543082 0.053507034 -0.21219605
-0.030405175 -0.083326854 -0.06526807 -0.1202594 -0.1275989 -0.1676134 0.054203272 0.039746817
0.25992745 -0.037116785 -0.11955322 -0.02645549 0.15425363 0.029330198 -0.050366193 0.10772904
0.24268413 -0.041963242 -0.07060658 -0.19226125 -0.13083208 -0.052714482 -0.16615969 -0.17721802
-0.09019142 0.04787573 0.060245175 0.16115126 -0.0531248 0.22362754 0.12222649 0.076212
0.10390854 0.27876994 -0.15468085 -0.060070142 0.3951843 0.11558149 -0.043410137 -0.17581338
0.046154212 -0.12239683 0.092079826 -0.13792953 0.1130118 -0.46404925 0.29886165 0.12225915
00000000: fb6f 0bbe 979c f13d 92f9 053e 0312 2cbd
00000010: f55a 95be ed79 a3bc 0a91 49be 3947 a33d
00000020: 97d8 e9bd d2fb 073d 07cf f63d 763d cf3c
00000030: 300e 9cbe 1169 1d3e 6741 6bbe f224 83bd
00000040: b099 febc bb83 27bd 81a6 573d 4424 cb3d
00000050: e326 aabe 7675 203d 4565 af3c 6fe4 28be
00000060: 129a ae3c 6e20 6ebd f836 64bd 5ea6 623c
00000070: 5513 aebd 255e fb3d 3690 36bd 99b7 493e
00000080: 0eab b33d d0f8 a3bc cbb0 2bbd 17a9 acbd
00000090: c0e6 483e 21d4 d1bd 2c8a a73d 9d6f 91be
000000a0: c731 083d d99b fabc 93d2 7d3e 5236 61be
000000b0: d690 57be 68b3 ee3d 9660 55be 30d1 4c3e
000000c0: da3d 16be 0c5c f83d e1f1 3dbd 1af6 07bd
000000d0: 9d3c 47bd 804b 463e 9b07 99bd 9bfb 0a3e
000000e0: 5321 1b3e 0da0 a6bc 966c c43e 1045 b23d
000000f0: 9c77 163e 4914 57bb d12e 25bc e04f 083e
00000100: 83e0 3ebc 1e5a 1bbe a9ea 923d d942 99be
00000110: b013 38be ccb8 3bbd 9f11 43bb 3246 82bd
00000120: 8eb2 de3d e248 03bd d482 0ebe 7b7b 62be
00000130: 0ff8 653b 3e39 97bd 2314 9dbd f618 393e
00000140: 30e2 a53d 6437 bebd 4c50 0ebc b0a1 263e
00000150: 393f d63d d532 69bd 40ea 6bbe f9ae 40be
00000160: 6e2e e2bd 83a6 60bd c6b9 a73d 556e f23d
00000170: de40 1dbd c4c1 33be 7c8c 183e 7f35 78be
00000180: 6030 4dbd 1186 d13d c6c5 d2bd cdaa a73d
00000190: 4095 b73d d360 b53d c2a3 41bc 342c 26bd
000001a0: 34fb 843d b21c 4f3e 9e78 823d 345e 7a3e
000001b0: 23ae 9cbd 425a 943d 140e 5bbd 963c a5bd
000001c0: dfe1 3bbe 53ca c13c e2f9 7bbc f69d 8e3c
000001d0: 31dc 2abd b964 a53d 13e9 563e fc3d 0abe
000001e0: fe0f ccbd c5a9 5abe 9e5b 1cbd fd2f 8f3d
000001f0: 37f9 593d 1575 16be 3b93 13be 0314 fabc
00000200: 4482 373e f293 d9bd 8fcf 463d 4a52 eabd
00000210: b3fd 803d 2199 ed3c 7651 3ebe d6b5 1fbd
00000220: 5f0c cd3d 9c1e 41bd 7720 b03d 6696 f0bc
00000230: 9967 84bc 5f30 9cbe d63d 893d cca4 b3bd
00000240: c2be b9bd fddf f13c 1c0e 133e 8bdd da39
00000250: d241 953d 0cbf 683d 9352 61bd daa5 af3d
00000260: 27e6 94bd 2899 1d3e 059d 723e 9de9 2d3c
00000270: 6937 04be c2bb 473c f04f 0d3d 3670 963d
00000280: 3fe7 49be 5366 d0bb 8188 9a3d b4c5 da3c
00000290: 9423 f3bd 5852 633e 07d0 08be 0acf 033d
000002a0: e7a1 22be 8f86 e53d 5021 383e 2b4d 2f3e
000002b0: 6830 963d 4061 5cbd 4e38 213e df8f 45bd
000002c0: 3762 143e b488 323e a618 013e b289 6c3d
000002d0: 037f 47be 4323 fe3c 0e88 073d d9f2 98bd
000002e0: 0985 7e3d c9f0 d23c 7f49 0fbe d489 29bd
000002f0: 3aad 71bd 586f a03d ce07 7a3b 6465 d4bd
00000300: 8676 00bd fbb0 d53d c56f 7fbe da1c 503d
00000310: 276f 61bd 6198 cc3c b619 0fbd 16e1 f4bd
00000320: 6676 bf3d 5b07 bd3d e9ad 12be 78f2 9dbd
00000330: 215c 5a3d 6d0b 633d 312a 5b3d ec49 59be
00000340: 4614 f9bc 45a7 aabd 44ab 85bd 8f4a f6bd
00000350: 49a9 02be d9a2 2bbe 4004 5e3d 8fcd 223d
00000360: 3615 853e c507 18bd 52d8 f4bd 2fb9 d8bc
00000370: aaf4 1d3e e245 f03c c84c 4ebd 0ba1 dc3d
00000380: 3082 783e a6e1 2bbd 2f9a 90bd 22e0 44be
00000390: d8f8 05be 24eb 57bd c425 2abe a478 35be
000003a0: 47b6 b8bd 5719 443d a5c3 763d d604 253e
000003b0: 6499 59bd 9efe 643e e251 fa3d 0915 9c3d
000003c0: 00ce d43d efba 8e3e a864 1ebe 1c0c 76bd
000003d0: 9955 ca3e fdb5 ec3d d4ce 31bd 6c08 34be
000003e0: 330c 3d3d 30ab fabd 5994 bc3d 663d 0dbe
000003f0: bb72 e73d dd97 edbe 6504 993e 0163 fa3d

conv2.conv2.0.bias f4 [16]
-0.01944206 -0.061749827 -0.070287704 -0.060070787 0.0328927 -0.008772816 -0.021565126 0.02757503
0.050656494 0.04645699 0.02751782 0.07879351 0.0035424477 0.001948329 0.032916326 0.083060436
00000000: f444 9fbc 63ed 7cbd 00f3 8fbd c90c 76bd
00000010: 7fba 063d dbbb 0fbc 59a9 b0bc 08e5 e13c
00000020: 2f7d 4f3d af49 3e3d 0d6d e13c 7e5e a13d
00000030: 6928 683b 135f ff3a 45d3 063d 971b aa3d

conv2.conv2.1.weight f4 [16]
1.0363405 1.0183682 0.9111021 0.98894453 1.0034428 0.9034509 1.0470412 0.9870027
1.0632002 1.0095055 0.913781 0.93047184 1.0936995 1.0442029 1.0134505 0.97311693
00000000: cea6 843f e459 823f fd3d 693f 782b 7d3f
00000010: d070 803f 8f48 673f 7205 863f 35ac 7c3f
00000020: f216 883f 7a37 813f 8ded 693f 6733 6e3f
00000030: 58fe 8b3f 71a8 853f bfb8 813f 311e 793f

conv2.conv2.1.bias f4 [16]
0.02718098 0.03225264 0.0074572414 0.015789062 -0.022378813 0.081726305 0.099320754 0.00060131453
0.05245656 0.0651362 0.040179174 -0.09118587 0.082652174 0.03451376 0.013658032 0.06058369
00000000: a6aa de3c 581b 043d e05b f43b 1058 813c
00000010: c653 b7bc 1f60 a73d ae68 cb3d 89a1 1d3a
00000020: b1dc 563d 2166 853d eb92 243d a8bf babd
00000030: 8b45 a93d 4d5e 0d3d f0c5 5f3c 9a26 783d

conv2.conv2.1.running_mean f4 [16]
-0.7353064 0.264299 -0.38252586 -0.41539738 -0.9261754 0.32543653 0.51293415 1.3493832
-0.9174098 -1.0501059 -0.68250984 1.0455948 0.0035927985 1.1023868 -1.095101 -0.6170972
00000000: 0a3d 3cbf 3352 873e 6eda c3be f7ae d4be
00000010: d519 6dbf 9e9f a63e a74f 033f 97b8 ac3f
00000020: 5edb 6abf df69 86bf f7b8 2ebf 0dd6 853f
00000030: 2875 6b3b 031b 8d3f 452c 8cbf 15fa 1dbf

conv2.conv2.1.running_var f4 [16]
1.0510211 1.0926926 0.55390745 0.818735 1.2666626 3.3069057 0.9127827 2.740682
1.5483242 1.7918328 1.1703465 1.5033323 1.3099525 1.4078997 1.3432797 1.9793738
00000000: dc87 863f 5add 8b3f e1cc 0d3f 9e98 513f
00000010: 0022 a23f 58a4 5340 21ac 693f 5567 2f40
00000020: 7d2f c63f c75a e53f eacd 953f 316d c03f
00000030: 86ac a73f 0f36 b43f 97f0 ab3f 1f5c fd3f

conv2.conv3.0.weight f4 [16, 16, 3, 3]
0.13847223 -0.07219031 0.11174184 0.10764069 -0.08051283 0.1382401 -0.041235466 -0.025026988
0.0055648563 0.09278447 -0.008316078 0.10636858 -0.0001937538 0.1174126 0.042310618 0.12658638
0.21182641 0.09150627 -0.060460042 -0.07136635 0.1328466 -0.0798978 0.121750645 0.18378386
-0.05274761 0.028948456 0.15330073 -0.031368986 -0.14687619 -0.062039647 -0.09529326 0.117995806
0.10862543 0.08723554 0.04269312 -0.0869843 -0.07555184 0.04069576 -0.11620239 -0.14822051
-0.08083515 0.03307327 -0.08511422 -0.046697658 -0.030460188 -0.1030407 -0.027657721 -0.063862376
-0.08938157 0.09106755 0.14582744 -0.0740532 0.09303213 0.24504454 -0.03776338 0.016651481
0.087695725 0.11477152 -0.038997844 0.1518678 0.085187726 0.011850479 0.13750629 -0.17416783
-0.16020179 -0.011667713 0.02797756 0.057648882 0.064946815 0.02647643 -0.04695834 0.034089934
-0.06866726 -0.029182324 -0.0025938165 0.014492767 -0.036198974 0.047448095 -0.1546033 -0.029218754
-0.11338054 -0.042301137 0.008095592 0.1939026 0.07194865 0.100660145 0.105439715 0.08184068
0.028293509 0.21254523 0.014762178 -0.12636653 0.23921183 -0.17161344 -0.17162806 -0.25693056
-0.09284898 -0.07156069 -0.092988595 0.111587405 -0.16402675 0.108064 0.015964698 -0.047419846
-0.13120647 0.030753508 -0.022102037 0.028557755 0.07771245 0.08625806 0.028363416 0.037059937
-0.022101851 0.12360258 0.23689206 -0.024582125 0.08818945 0.14845085 -0.04785178 -0.2531935
-0.32111928 0.05283836 -0.094733424 -0.12011675 -0.2213675 -0.038519934 0.03939507 0.10402881
-0.015522394 0.05416108 0.046256617 -0.08185583 -0.035014424 0.07863963 -0.04347354 0.07109767
-0.06932017 -0.22808327 0.017189253 0.14686805 0.082669534 -0.19649312 0.050688915 0.015855696
-0.090074 -0.08394251 -0.0628692 0.06482597 0.21934271 0.028533634 -0.045152836 -0.014027335
0.0680642 -0.03418497 0.07152153 0.089885265 -0.018216217 0.014571512 0.092313334 0.07599141
-0.08743893 -0.005341715 0.025403138 -0.18718924 -0.08886615 -0.04518323 -0.070496835 -0.0753607
-0.03636501 -0.049304128 0.08468109 0.06583014 0.071292184 -0.019778665 0.110112555 0.020141449
-0.022007225 0.0057682144 -0.27088833 0.09743881 0.26704386 -0.114886224 -0.10885182 0.17870043
-0.061537355 0.21759348 0.04225484 0.0015576987 -0.04017745 -0.019667914 -0.018066715 -0.009676375
-0.00976756 -0.10270795 0.011604132 0.24664347 0.105551295 0.11954323 0.3148691 0.22901271
0.11666381 0.05974342 -0.046914756 0.04275068 0.10454955 0.05367366 -0.0835678 0.023846868
0.14956997 0.11804631 0.21067737 0.070082396 0.36303687 0.017587747 0.024217205 0.11265553
0.07099151 -0.09020646 -0.11762366 0.20222889 0.10322266 0.13056542 -0.3291286 -0.17671093
0.10443785 0.12673482 -0.014029671 -0.07384669 0.2027679 0.20102102 -0.024704255 -0.021399906
-0.022436623 -0.044950407 -0.00017475696 -0.09895148 0.06620885 -0.11094115 0.018409524 0.053141467
0.11041399 0.06677739 0.07974317 -0.0032951972 -0.09654767 -0.0076144817 -0.11172955 0.111699246
0.056242105 -0.09141637 0.08326578 -0.007914987 -0.12363155 0.082039915 -0.0073080948 -0.21068488
00000000: aacb 0d3e 83d8 93bd e8d8 e43d b972 dc3d
00000010: e9e3 a4bd d08e 0d3e 85e6 28bd 6605 cdbc
00000020: 6659 b63b c905 be3d 2940 08bc c5d7 d93d
00000030: 642a 4bb9 0476 f03d e64d 2d3d dc9f 013e
00000040: 06e9 583e a467 bb3d f3a4 77bd 8528 92bd
00000050: f008 083e 75a1 a3bd 6758 f93d d631 3c3e
00000060: e10d 58bd 5025 ed3c defa 1c3e c47c 00bd
00000070: b666 16be 491d 7ebd 1d29 c3bd c9a7 f13d
00000080: 0277 de3d 8ca8 b23d fbde 2e3d d324 b2bd
00000090: ecba 9abd 99b0 263d 85fb edbd 1ec7 17be
000000a0: e68c a5bd d677 073d 5d50 aebd 0b46 3fbd
000000b0: a587 f9bc 0107 d3bd 7292 e2bc 47ca 82bd
000000c0: af0d b7bd a081 ba3d ca53 153e 34a9 97bd
000000d0: a187 be3d f5ec 7a3e c6ad 1abd b068 883c
000000e0: d199 b33d 550d eb3d 34bc 1fbd 3c83 1b3e
000000f0: e776 ae3d 8328 423c 73ce 0c3e 0d59 32be
00000100: f00b 24be ef29 3fbc 3231 e53c 3c21 6c3d
00000110: d602 853d 19e5 d83c 6357 40bd e3a1 0b3d
00000120: 6ca1 8cbd c50f efbc 05fd 29bb 1273 6d3c
00000130: 6045 14bd ef58 423d 5450 1ebe 2b5c efbc
00000140: 0e34 e8bd f543 2dbd 60a3 043c 678e 463e
00000150: d059 933d e826 ce3d c7f0 d73d 169c a73d
00000160: cac7 e73c 75a5 593e 10dd 713c 3a66 01be
00000170: f2f3 743e 6fbb 2fbe 44bf 2fbe 678c 83be
00000180: 9b27 bebd 698e 92bd ce70 bebd f087 e43d
00000190: a1f6 27be a950 dd3d 66c8 823c 503b 42bd
000001a0: fd5a 06be c8ee fb3c 550f b5bc f4f1 e93c
000001b0: b427 9f3d 11a8 b03d 655a e83c 29cc 173d
000001c0: f10e b5bc 5923 fd3d d593 723e 7460 c9bc
000001d0: ac9c b43d 8003 183e 3a00 44bd 94a2 81be
000001e0: bf69 a4be 096d 583d 9903 c2bd c5ff f5bd
000001f0: 29ae 62be 14c7 1dbd ba5c 213d 0f0d d53d
00000200: a451 7ebc 02d8 5d3d 9477 3d3d 08a4 a7bd
00000210: 496b 0fbd d00d a13d 5011 32bd a89b 913d
00000220: bcf7 8dbd a98e 69be 7ad0 8c3c 9464 163e
00000230: a54e a93d 7e35 49be 2e9f 4f3d cee3 813c
00000240: b878 b8bd 0dea abbd 91c1 80bd 7ac3 843d
00000250: 609b 603e 5ebf e93c 2ef2 38bd e8d2 65bc
00000260: 3e65 8b3d 8a05 0cbd e179 923d c415 b83d
00000270: 2d3a 95bc 5abd 6e3c c60e bd3d 62a1 9b3d
00000280: 2f13 b3bd 8e09 afbb 3e1a d03c 89ae 3fbe
00000290: 75ff b5bd 0d12 39bd a560 90bd b656 9abd
000002a0: 7af3 14bd 20f3 49bd 486d ad3d f4d1 863d
000002b0: a301 923d de06 a2bc b182 e13d aeff a43c
000002c0: 7f48 b4bc 4a03 bd3b e0b1 8abe 008e c73d
000002d0: f9b9 883e 7849 ebbd b4ed debd 3ffd 363e
000002e0: 980e 7cbd d3d0 5e3e 6913 2d3d b22b cc3a
000002f0: 1c91 24bd 9b1e a1bc a600 94bc a989 1ebc
00000300: 1e08 20bc 8c58 d2bd 421f 3e3c 1b90 7c3e
00000310: 472b d83d 15d3 f43d 8636 a13e 4f82 6a3e
00000320: 70ed ee3d 84b5 743d b029 40bd 561b 2f3d
00000330: 131e d63d e9d8 5b3d 9825 abbd 825a c33c
00000340: df28 193e 44c2 f13d cfbb 573e 5c87 8f3d
00000350: f8df b93e 2e14 903c 2963 c63c f1b7 e63d
00000360: ff63 913d 2abe b8bd ace4 f0bd 1715 4f3e
00000370: 6766 d33d f1b2 053e 8b83 a8be b6f3 34be
00000380: 83e3 d53d c6c6 013e b5dc 65bc ef3c 97bd
00000390: 63a2 4f3e 74d8 4d3e 9460 cabc db4e afbc
000003a0: 02cd b7bc eb1d 38bd f73e 37b9 13a7 cabd
000003b0: 8198 873d 1d35 e3bd 92cf 963c deaa 593d
000003c0: bb20 e23d 96c2 883d 6350 a33d 3cf4 57bb
000003d0: c9ba c5bd e782 f9bb 76d2 e4bd 93c2 e43d
000003e0: 1f5e 663d 8138 bbbd 4087 aa3d ddad 01bc
000003f0: 8a32 fdbd 8b04 a83d be78 efbb c7bd 57be

conv2.conv3.0.bias f4 [16]
-0.008546005 0.07738188 -0.06575668 -0.04365298 -0.053698696 0.06842813 0.053859808 -0.07571711
0.013287637 -0.06487708 -0.021139389 0.014716815 0.017056094 -0.059808847 -0.05312768 -0.04593091
00000000: 8b04 0cbc 647a 9e3d 70ab 86bd 78cd 32bd
00000010: 2af3 5bbd 0c24 8c3d 1a9c 5c3d 9211 9bbd
00000020: 64b4 593c 46de 84bd 832c adbc cc1e 713c
00000030: 39b9 8b3c 1ffa 74bd 699c 59bd 0d22 3cbd

conv2.conv3.1.weight f4 [16]
1.1193366 0.9270454 1.0571198 0.94655246 1.0067607 1.0696477 1.059373 0.99340945
0.95890504 0.88976836 1.0119547 1.0512701 1.052669 0.99334097 0.95322615 0.9359204
00000000: 6c46 8f3f d952 6d3f b44f 873f 4351 723f
00000010: 89dd 803f 37ea 883f 8999 873f 1550 7e3f
00000020: cd7a 753f dcc7 633f bb87 813f 0590 863f
00000030: dcbd 863f 984b 7e3f a106 743f 7b98 6f3f

conv2.conv3.1.bias f4 [16]
0.04362635 -0.039564364 0.006127983 0.028973527 -0.016549172 -0.021909723 0.03357711 -0.0068005314
0.076290846 -0.018015306 0.02239218 0.024618229 -0.05827508 -0.029169679 0.026031954 0.0497617
00000000: 8bb1 323d 3e0e 22bd 3fcd c83b e459 ed3c
00000010: 2192 87bc 057c b3bc 2788 093d fed6 debb
00000020: 603e 9c3d d694 93bc ce6f b73c 2bac c93c
00000030: dab1 6ebd 40f5 eebc f740 d53c edd2 4b3d

conv2.conv3.1.running_mean f4 [16]
0.37489656 1.2314632 -0.53148973 -0.41687655 -0.7185066 -0.29704297 -1.6019204 -1.4205292
0.32236898 -0.7861283 -0.35409817 0.0625673 0.19763055 0.5203821 0.19979568 0.7528911
00000000: 71f2 bf3e 96a0 9d3f b60f 08bf d870 d5be
00000010: 0cf0 37bf 0416 98be ba0b cdbf e7d3 b5bf
00000020: 8c0d a53e b43f 49bf 5b4c b5be 4923 803d
00000030: aa5f 4a3e c337 053f 3d97 4c3e 79bd 403f

conv2.conv3.1.running_var f4 [16]
1.0853728 1.590153 1.5795372 1.547357 1.5287925 1.7870024 1.0599722 2.1131258
2.7477338 0.98246855 1.2663265 2.0685582 2.0272958 1.7083428 1.2716584 1.438036
00000000: 7fed 8a3f 228a cb3f 462e ca3f cb0f c63f
00000010: 79af c33f 7fbc e43f 2bad 873f 743d 0740
00000020: dfda 2f40 0f83 7b3f fd16 a23f 4263 0440
00000030: 37bf 0140 faaa da3f b4c5 a23f 9011 b83f

conv3.conv1.0.weight f4 [32, 16, 3, 3]
-0.18790844 -0.024475776 0.25204653 -0.07619448 0.16118315 -0.12542707 -0.031891644 0.042988196
-0.17340448 0.12114447 0.12199814 0.21221286 -0.056252524 -0.29694694 0.119123235 -0.17401415
-0.026465071 0.18370123 0.05889748 0.07837868 -0.13538566 -0.030387018 0.053403344 -0.15015507
0.019826952 0.09010328 -0.22854148 -0.0705594 0.015908374 -0.04320157 -0.07624719 0.034845535
-0.16686524 -0.059702918 0.015515079 -0.026569841 0.14580579 -0.118696816 0.051473584 -0.07161085
0.23921824 -0.0009931462 -0.02130511 -0.09814569 0.009799881 0.053803276 0.13209076 0.116797835
0.017684128 -0.01079449 -0.1453333 -0.0037100872 -0.011087082 0.13942948 -0.052653603 -0.15435594
-0.11697708 -0.023203699 -0.024457244 0.05056976 0.15891163 -0.13073947 -0.038421724 -0.045745224
-0.12298344 -0.006469027 -0.025809312 0.006224265 -0.078205384 -0.10846039 0.17036219 -0.0056825066
0.19947995 -0.14717104 -0.14765945 0.18552724 0.17791705 -0.1814805 -0.043492716 0.08050174
-0.1317769 0.22861712 -0.036474597 0.1621222 0.21892636 0.2751703 -0.09584868 -0.07165027
0.046012104 -0.110639855 -0.123687014 -0.07828026 -0.02723469 -0.13490704 -0.09450765 0.14074335
0.16595675 -0.1343209 -0.024059648 0.106110506 0.055889107 -0.14091325 -0.05619479 0.17265742
-0.18026099 -0.27040437 -0.049260408 -0.09402967 0.11674405 -0.012283983 0.05544467 0.25488782
-0.04490893 0.17173293 -0.03282277 0.24400158 -0.15753976 -0.22390544 -0.09279769 -0.07703379
-0.031728167 -0.04327462 0.16643858 -0.16920857 0.06308533 -0.21273158 0.020200683 0.014389783
-0.21312107 -0.036281347 0.17596869 0.27073932 -0.08751213 -0.034871742 0.11037775 0.1305221
0.30574 -0.002021307 0.2596409 -0.031239776 -0.05229269 0.060850974 0.15597074 -0.06852393
-0.004362403 -0.07327648 0.012039719 -0.23222503 -0.0933083 0.14629637 0.039724242 0.1320233
0.15045217 0.008897159 0.25968626 -0.07912723 -0.12555851 0.04639062 -0.021831727 -0.015201965
-0.066086456 -0.037455123 0.08653687 0.07116572 -0.059249766 -0.04349122 0.19034289 -0.0850365
0.32078156 -0.019402746 0.07363284 -0.07552798 0.18266022 0.1951396 0.087613694 0.13608491
0.23152095 0.15453759 0.28518614 -0.024011979 0.13513818 -0.018054621 0.18593097 -0.079586685
-0.21106145 -0.2365154 -0.1955336 -0.13235702 0.12628889 0.007929628 0.09465374 -0.10552216
0.026568908 -0.0051126513 0.12381844 0.34452564 0.04582829 -0.005392642 -0.12694874 -0.07785707
-0.010569277 -0.039047983 0.055338986 0.120395474 -0.16155577 0.00706538 -0.048446253 -0.12198238
-0.15018962 0.07661541 -0.011721456 0.04126195 -0.118804194 0.14537199 0.027184518 0.013704082
0.11068766 0.04071756 0.072660275 -0.05625023 -0.19880961 -0.07149283 -0.109465174 0.14085174
-0.1368489 -0.08918847 0.07645158 0.09838902 -0.23717219 -0.15063903 0.05427784 0.18309213
-0.03885599 0.04217701 0.008637104 -0.18154764 -0.17513216 -0.036457874 0.1549272 0.09614151
-0.08642056 -0.118594624 0.23111251 -0.089452356 -0.08436048 -0.070993096 0.079076275 0.025526375
-0.1553023 0.115480736 -0.06326887 0.106584616 0.08075829 -0.021154258 0.044742025 -0.0051808166
00000000: 126b 40be 6c81 c8bc 3e0c 813e da0b 9cbd
00000010: 320d 253e f46f 00be d0a0 02bd 6414 303d
00000020: f290 31be 981a f83d 29da f93d 544e 593e
00000030: 0c69 66bd 6e09 98be e2f6 f33d c430 32be
00000040: 47cd d8bc 2d1c 3c3e 7c3e 713d 0085 a03d
00000050: 8aa2 0abe 32ee f8bc 77bd 5a3d 40c2 19be
00000060: 226c a23c 1288 b83d c706 6abe 7281 90bd
00000070: 4752 823c 21f4 30bd 7d27 9cbd 31ba 0e3d
00000080: b9de 2abe 0c8b 74bd f532 7e3c ffa8 d9bc
00000090: 1d4e 153e 5117 f3bd f7d5 523d b6a8 92bd
000000a0: a0f5 743e 752c 82ba 0e88 aebc 9c00 c9bd
000000b0: ae8f 203c d360 5c3d cd42 073e b433 ef3d
000000c0: 4ede 903c 5fdb 30bc 41d2 14be ef24 73bb
000000d0: 98a6 35bc 9ac6 0e3e 4eab 57bd 7c0f 1ebe
000000e0: ae91 efbd af15 bebc 8f5a c8bc 3d22 4f3d
000000f0: bbb9 223e 91e0 05be 1960 1dbd 585f 3bbd
00000100: bede fbbd 22fa d3bb 0d6e d3bc ebf4 cb3b
00000110: 252a a0bd 7b20 debd 6d73 2e3e 5234 babb
00000120: 7944 4c3e 01b4 16be 0a34 17be dafa 3d3e
00000130: e32f 363e 06d6 39be 6b25 32bd 19de a43d
00000140: 86f0 06be 9b1a 6a3e 6366 15bd 5d03 263e
00000150: 3b2e 603e 1fe3 8c3e 504c c4bd 60bd 92bd
00000160: 3077 3c3d 2697 e2bd 9e4f fdbd 6751 a0bd
00000170: 491b dfbc 1225 0abe 3a8d c1bd 061f 103e
00000180: 91f0 293e 6b8b 09be bd18 c5bc 7750 d93d
00000190: faeb 643d 904b 10be 822c 66bd 1bcd 303e
000001a0: 5696 38be 7172 8abe 48c5 49bd a192 c0bd
000001b0: 8117 ef3d c242 49bc f319 633d a880 823e
000001c0: 6df2 37bd c2da 2f3e 2b71 06bd 8ddb 793e
000001d0: 1a52 21be 7847 65be b70c bebd e4c3 9dbd
000001e0: 65f5 01bd ba40 31bd e06e 2a3e 0345 2dbe
000001f0: e232 813d 4fd6 59be e77b a53c 20c3 6b3c
00000200: 693c 5abe c09b 14bd 2331 343e 589e 8a3e
00000210: 8f39 b3bd acd5 0ebd bb0d e23d 96a7 053e
00000220: f489 9c3e e777 04bb a7ef 843e 8fea ffbc
00000230: dc30 56bd df3e 793d cbb6 1f3e 4656 8cbd
00000240: 7df2 8ebb fb11 96bd 3e42 453c 66cc 6dbe
00000250: 6c18 bfbd b7ce 153e e3b5 223d 1e31 073e
00000260: 2210 1a3e 64c5 113c 99f5 843e 750d a2bd
00000270: 6992 00be 1704 3e3d 73d8 b2bc aa11 79bc
00000280: 5658 87bd 8b6a 19bd 3e3a b13d 55bf 913d
00000290: e2af 72bd d923 32bd 3fe9 423e 9e27 aebd
000002a0: 7b3d a43e 82f2 9ebc d0cc 963d 6aae 9abd
000002b0: 480b 3b3e add2 473e cf6e b33d d859 0b3e
000002c0: d413 6d3e 1a3f 1e3e eb03 923e c5b4 c4bc
000002d0: aa61 0a3e 49e7 93bc b064 3e3e 58fe a2bd
000002e0: 7e20 58be 1831 72be f639 48be 9988 07be
000002f0: e051 013e 45eb 013c d2d9 c13d 011c d8bd
00000300: 0aa7 d93c 0788 a7bb 8694 fd3d aa65 b03e
00000310: 72b6 3b3d c3b4 b0bb dafe 01be 8773 9fbd
00000320: c32a 2dbc c7f0 1fbd 22ab 623d e791 f63d
00000330: e06e 25be b484 e73b 946f 46bd e6d1 f9bd
00000340: 4fcb 19be 8ae8 9c3d 5a0b 40bc 4a02 293d
00000350: 9d4f f3bd 65dc 143e 11b2 de3c 1687 603c
00000360: 36b0 e23d 75c7 263d e9ce 943d a466 66bd
00000370: bf94 4bbe d56a 92bd 472f e0bd 703b 103e
00000380: 1e22 0cbe 72a8 b6bd a592 9c3d 2f80 c93d
00000390: 44dd 72be 1e41 1abe 7152 5e3d 817c 3b3e
000003a0: 7527 1fbd cdc1 2c3d a482 0d3c a0e7 39be
000003b0: d855 33be da54 15bd 3ca5 1e3e d7e5 c43d
000003c0: 43fd b0bd bde1 f2bd c2a8 6c3e cc32 b7bd
000003d0: 30c5 acbd d464 91bd bef2 a13d b01c d13c
000003e0: 9107 1fbe 2a81 ec3d 1c93 81bd 0949 da3d
000003f0: 9a64 a53d b24b adbc 6a43 373d d7c3 a9bb

conv3.conv1.0.bias f4 [32]
-0.036424667 0.056962464 -0.06951145 0.0055888174 0.075665444 -0.005267109 -0.0813037 -0.022207912
-0.006054136 -0.02045066 0.058933455 -0.07950488 -0.06685524 -0.056443997 -0.009398308 -0.079112604
-0.04778372 -0.038792115 0.06554007 -0.082557544 0.025265208 -0.011988481 0.043490034 0.010699949
-0.019054193 -0.026687754 0.062017497 -0.048669107 -0.023544159 -0.06513364 0.05863952 0.020304073
00000000: 0832 15bd 7951 693d 055c 8ebd 6622 b73b
00000010: 7cf6 9a3d b697 acbb 8e82 a6bd 5eed b5bc
00000020: c661 c6bb 2488 a7bc 3564 713d 74d3 a2bd
00000030: 66eb 88bd d231 67bd 5cfb 19bc ca05 a2bd
00000040: ddb8 43bd 7be4 1ebd df39 863d ee13 a9bd
00000050: fbf8 ce3c 556b 44bc 9b22 323d d74e 2f3c
00000060: 8a17 9cbc 47a0 dabc 0f06 7e3d 4259 47bd
00000070: aedf c0bc c964 85bd fe2f 703d ba54 a63c

conv3.conv1.1.weight f4 [32]
0.9282567 1.0492992 1.0479465 1.1170264 0.9495683 1.0145941 0.9905603 1.0199049
0.941866 1.0112463 0.9273628 1.0596733 1.0037628 0.9698906 0.921763 0.95014983
1.0259578 1.0129865 1.0279062 1.033899 0.9958362 1.0142285 1.0724276 1.08966
1.0006789 0.95609486 0.9588067 1.017657 0.99272764 1.011217 1.0205995 0.9686032
00000000: 3ba2 6d3f 704f 863f 1c23 863f b9fa 8e3f
00000010: e816 733f 38de 813f 5c95 7d3f 3e8c 823f
00000020: 211e 713f 8570 813f a667 6d3f 60a3 873f
00000030: 4d7b 803f c04a 783f a9f8 6b3f 053d 733f
00000040: 9652 833f 8ba9 813f 6e92 833f cd56 843f
00000050: 1fef 7e3f 3dd2 813f 4f45 893f fb79 8b3f
00000060: 3f16 803f a2c2 743f 5b74 753f 9642 823f
00000070: 6623 7e3f 8f6f 813f 01a3 823f 61f6 773f

conv3.conv1.1.bias f4 [32]
-0.055409066 0.043308243 0.02615336 -0.00887132 0.007879818 0.0322255 -0.06275094 0.016368989
-0.014510691 0.034590114 -0.010887307 0.0139731355 0.05265128 -0.021203846 -0.04892131 -0.024210887
0.005900471 -0.020511601 -0.0119402865 -0.05064503 -0.0080294935 -0.021955743 -0.029958982 0.026412774
-0.005513644 -0.01031249 0.038666382 0.028273473 0.02695988 -0.018224483 -0.028965605 -0.045994993
00000000: 9ef4 62bd fc63 313d 923f d63c 0359 11bc
00000010: 5a1a 013c e3fe 033d 9183 80bd 4218 863c
00000020: 40be 6dbc 5dae 0d3d ad60 32bc 94ef 643c
00000030: dea8 573d b0b3 adbc b661 48bd e955 c6bc
00000040: bd58 c13b f207 a8bc 31a1 43bc 2a71 4fbd
00000050: 238e 03bc 88dc b3bc 8a6c f5bc 9a5f d83c
00000060: ccab b4bb b8f5 28bc a460 1e3d c59d e73c
00000070: f7da dc3c 834b 95bc 4749 edbc 3f65 3cbd
