checkpoints/ifind1_sononet_8_6classes/040_net_6classes.pth (torch_old, 671819 bytes, 90 tensors)

conv1.conv1.0.weight f4 [8, 1, 3, 3]
0	0xbcbd9456	-0.023142021
1	0xbe81047f	-0.25198743
2	0xbe77d570	-0.24202514
3	0x3eea403c	0.45752132
4	0x3f735281	0.95047766
5	0xbf84a9e8	-1.0364351
6	0x3e01770b	0.12643068
7	0xbdf8293c	-0.1211724
8	0xbe571524	-0.21004158
9	0xbf849717	-1.0358609
10	0x3e9a71b3	0.3016487
11	0xbf5053ce	-0.81377876
12	0x3ea1c435	0.31595007
13	0xbdef2d9a	-0.1167862
14	0xbeb2fd19	-0.34958723
15	0x3f93de86	1.1552284
16	0xbc24b2de	-0.010052411
17	0x3f3a98ed	0.72889596
18	0x3e30f413	0.17280607
19	0xbe87b205	-0.26503006
20	0xbdb3cd7d	-0.08779428
21	0xbf7a6fbb	-0.9782674
22	0x3ef8a818	0.48565745
23	0xbceaa553	-0.028643286
24	0xbe9e5431	-0.30923608
25	0xbeaab7d0	-0.33343363
26	0xbf5ddf9e	-0.8666934
27	0xbf82c0e4	-1.0215116
28	0x3e547563	0.20747904
29	0xbec941ac	-0.39307916
30	0xbcef6e37	-0.02922736
31	0x3e0ff102	0.14056781
32	0x3de2678e	0.11054908
33	0xbe91efb0	-0.2850318
34	0x3f70be7d	0.9404066
35	0xbe37164d	-0.17879601
36	0x3d80315e	0.06259416
37	0x3e89994a	0.26874763
38	0xbe442872	-0.19156054
39	0x3ed85421	0.42251685
40	0xbed59e50	-0.41722345
41	0xbe847947	-0.25873777
42	0xbeaa20ba	-0.33228093
43	0xbe18116a	-0.14850393
44	0x3c85b20d	0.016320253
45	0x3e88a010	0.26684618
46	0x3ea70747	0.3262274
47	0x3f203298	0.625772
48	0x3f737f2b	0.9511592
49	0xbebb8958	-0.36628222
50	0x3e436344	0.19080836
51	0xbe703e13	-0.2346118
52	0xbe479e60	-0.19494009
53	0x3de5bc54	0.11217561
54	0x3e4af3ca	0.1981956
55	0x3d8dc9e2	0.06923272
56	0xbc719526	-0.014745032
57	0xbf5e0ba5	-0.8673652
58	0x3e784842	0.24246314
59	0x3e8c5d8a	0.27415115
60	0xbf0baf7c	-0.5456464
61	0xbd5eeb5b	-0.05442367
62	0x3ee4ea66	0.44710082
63	0xbf44abb2	-0.76824486
64	0x3ebd07dd	0.36920062
65	0x3f44b11b	0.7683274
66	0xbe6d5884	-0.23178297
67	0x3f01ad4e	0.50655067
68	0xbdc0356c	-0.093851894
69	0x3c834e61	0.016028585
70	0xbdeb25e4	-0.114818364
71	0xbe3d5c1a	-0.18492165

conv1.conv1.0.bias f4 [8]
0	0xbc8f473b	-0.01749002
1	0xbe7c1f9a	-0.2462143
2	0xbe4b24f4	-0.19838315
3	0x3dbd4e8b	0.092434965
4	0xbe88881b	-0.2666634
5	0x3e9d7a5c	0.30757415
6	0x3cbef3e7	0.023309661
7	0x3e12148b	0.14265649

conv1.conv1.1.weight f4 [8]
0	0x3f89d08a	1.0766766
1	0x3f856a2a	1.0423024
2	0x3f5ae035	0.8549836
3	0x3f848dc7	1.0355767
4	0x3f7b6bb4	0.98211217
5	0x3f7d507e	0.98950946
6	0x3f832168	1.024457
7	0x3f8c4e8c	1.0961471

conv1.conv1.1.bias f4 [8]
0	0x3d505907	0.050866153
1	0x3dc5c76b	0.096571766
2	0xbdd2e0f6	-0.10296814
3	0xbd8c1454	-0.06839815
4	0xbdf50de3	-0.11965539
5	0x3cc8342b	0.024438938
6	0x3c307725	0.010770594
7	0x3e801108	0.25012994

conv1.conv1.1.running_mean f4 [8]
0	0xbc9b7659	-0.018977331
1	0xbe7c2f9a	-0.24627534
2	0xbe4e9307	-0.20173274
3	0x3db75db3	0.089534186
4	0xbe88c162	-0.2671004
5	0x3e9f0e7e	0.31065744
6	0x3cb86986	0.022511255
7	0x3e114c93	0.14189367

conv1.conv1.1.running_var f4 [8]
0	0x3e47b9b4	0.19504434
1	0x3f05169f	0.5198764
2	0x40952eb6	4.661952
3	0x3ec097e3	0.3761588
4	0x3eaf27ac	0.34209955
5	0x4030c741	2.7621615
6	0x3e0e3bfe	0.13890073
7	0x3e13c608	0.14431012

conv1.conv2.0.weight f4 [8, 8, 3, 3]
0	0xbcfa0878	-0.030521616
1	0x3e434c4f	0.19072078
2	0xbdbe9976	-0.09306614
3	0xbc4e71ee	-0.012600405
4	0x3eddb4c6	0.43301982
5	0x3da179a1	0.07884527
6	0xbe846b63	-0.2586318
7	0xbc8e1ff8	-0.017349228
8	0xbdca2ae6	-0.098714635
9	0x3eb77788	0.35833383
10	0xbb80c019	-0.00392915
11	0xbe525a4e	-0.20542261
12	0x3e154f58	0.14581048
13	0x3e83c319	0.25734785
14	0x3e43b1b4	0.19110757
15	0xbd098fcf	-0.033584412
16	0xbc4ec4bb	-0.012620146
17	0xbdc28fe2	-0.095001
18	0x3d371d9b	0.04470597
19	0xbc138813	-0.009004611
20	0xbd437f5e	-0.04772889
21	0x3db1b686	0.08677392
22	0xbbbb3e7e	-0.0057142368
23	0x3dc05c34	0.09392586
24	0xbbf8e507	-0.0075956616
25	0x3e724143	0.23657708
26	0x3ce44df3	0.0278692
27	0xbdf87f8f	-0.12133705
28	0x3da35302	0.07974817
29	0xbde0ba6c	-0.10973057
30	0xbe338e65	-0.17534788
31	0x3dc50c45	0.09621481
32	0x3dfe008b	0.12402447
33	0x3de6b4ea	0.11264975
34	0x3dcdc979	0.100481935
35	0xbe7a406b	-0.24438636
36	0x3dfb08fd	0.12257574
37	0xbe38d2b5	-0.18049128
38	0x3e79e34f	0.24403118
39	0x3e51630f	0.20447944
40	0xbecdb73c	-0.4017886
41	0x3d2a42c2	0.04156757
42	0x3dc38b50	0.09548056
43	0xbe00f318	-0.12592733
44	0xbe96ab56	-0.29427594
45	0x3d031e84	0.032011524
46	0x3de7f056	0.11325137
47	0xbe577035	-0.21038897
48	0x3e1f10a6	0.15533695
49	0x3dd7bc3c	0.1053395
50	0x3e6e970c	0.23299807
51	0x3ebdb628	0.37053037
52	0x3ebecd0c	0.37265813
53	0xbe3c66c4	-0.18398577
54	0xbec6a9ff	-0.38801572
55	0xbb9e2c36	-0.0048270477
56	0xbe87f938	-0.26557326
57	0xbcc26e2a	-0.023734171
58	0x3d361f64	0.04446353
59	0x3df289bd	0.11842678
60	0xbd9c3ef8	-0.07629198
61	0x3c99e868	0.018787578
62	0xbde1b044	-0.11019948
63	0xbd2dc167	-0.04242077
64	0xbd940341	-0.07227183
65	0xbe58ca57	-0.21170937
66	0x3e358d7b	0.17729752
67	0xbd10dfc8	-0.035369664
68	0xbeab8097	-0.33496544
69	0x3e4352c1	0.19074537
70	0xbcaa44af	-0.020784704
71	0xbe6c1c80	-0.23057747
72	0xbdbdca83	-0.09267142
73	0x3da5fc07	0.08104711
74	0xbd21c4f7	-0.03949448
75	0xbd2c9b0f	-0.042140063
76	0x3e4e6c02	0.20158389
77	0x3dd34608	0.10316092
78	0x3ec4c2f2	0.3842998
79	0xbec03766	-0.37542266
80	0xbeaaefd5	-0.33386102
81	0xbe0b4e9c	-0.13604206
82	0xbd6f1c36	-0.058376513
83	0x3e7594c4	0.23982531
84	0xbd420045	-0.04736354
85	0xbe866645	-0.262499
86	0x3d98910f	0.07449543
87	0xbe310b90	-0.17289567
88	0xbc87a449	-0.01655783
89	0xbe66532a	-0.22492662
90	0x3cb30d1d	0.021856839
91	0xbe2c7926	-0.1684309
92	0xbb7a538c	-0.003819677
93	0xbe825f16	-0.2546317
94	0x3e472636	0.1944817
95	0x3db1a701	0.086744316
96	0xbcf56258	-0.02995412
97	0x3e61c22a	0.22046724
98	0xbddb617c	-0.10711953
99	0xbe37015e	-0.17871615
100	0x3dfed586	0.1244307
101	0xbdf02f16	-0.11727731
102	0x3da834ff	0.08213233
103	0xbe71ca55	-0.2361234
104	0x3c92e5ca	0.017931838
105	0x3e4c9e57	0.19982277
106	0x3cc9d284	0.024636514
107	0x3d27257d	0.040807236
108	0x3e07112b	0.13190143
109	0x3e1a1d77	0.15050302
110	0x3be83faf	0.00708767
111	0xbcc5df9a	-0.024154473
112	0xbe261314	-0.16218215
113	0x3d68ec42	0.056865938
114	0xbcf26491	-0.02958897
115	0xbd021c2f	-0.03176516
116	0x3e856270	0.26051664
117	0x3d170882	0.036873348
118	0xbe4454c0	-0.19172955
119	0x3e51bc01	0.20481874
120	0x3e5e0cf2	0.21684626
121	0x3de8463e	0.11341523
122	0xbe874a6e	-0.26423973
123	0x3b9eac22	0.004842297
124	0xbe29850d	-0.16554661
125	0x3e35819b	0.17725222
126	0x3e29c8ee	0.16580555
127	0x3cf51242	0.029915933
128	0xbe1ca457	-0.15297066
129	0xbc819ed5	-0.015822807
130	0xbe17fc66	-0.14842376
131	0x3d15d236	0.036577426
132	0xbe7b9821	-0.24569751
133	0xbe9c42d3	-0.30519733
134	0x3efcd28d	0.49379387
135	0xbe80e828	-0.2517712
136	0xbde2c711	-0.11073125
137	0xbce49cb0	-0.027906746
138	0x3df68cb0	0.12038553
139	0xbdc1dfd2	-0.094665185
140	0xbcc2f34f	-0.02379766
141	0x3e020f8f	0.12701248
142	0x3c1e4916	0.00966098
143	0x3e005f5b	0.12536375
144	0x3e5e721b	0.21723215
145	0xbe423682	-0.18966106
146	0x3e1ac820	0.15115404
147	0xbd129276	-0.035784207
148	0xbe1fff8f	-0.15624832
149	0xbe284a44	-0.1643458
150	0xbbfd7f39	-0.0077361134
151	0xbdd4cded	-0.1039084
152	0xbe5e562f	-0.21712564
153	0x3e8b36a7	0.27190134
154	0x3dd72555	0.105051674
155	0xbd93fe02	-0.072261825
156	0x3d4fe14f	0.05075198
157	0x3e308f16	0.17242083
158	0x3d7fc5ea	0.062444605
159	0x3e3238eb	0.17404525
160	0x3e1b7e37	0.15184866
161	0xbeb53852	-0.3539453
162	0xbdb0182c	-0.085983604
163	0xbe3961a6	-0.18103656
164	0xbdab0daa	-0.083522156
165	0x3e02aa64	0.12760311
166	0x3e332ad9	0.17496814
167	0xbcbd3713	-0.02309755
168	0x3dca920c	0.098911375
169	0xbde89c14	-0.113578945
170	0xbda96a9f	-0.082722895
171	0xbe42c615	-0.19020875
172	0xbdeb5dd1	-0.114925034
173	0xbe3b6565	-0.18300398
174	0xbe520391	-0.20509173
175	0xbe5659ec	-0.2093274
176	0xbcf2b482	-0.029627088
177	0x3d99103b	0.07473799
178	0xbe1622f2	-0.14661768
179	0xbd9994e1	-0.074990995
180	0x3e509702	0.20370105
181	0x3d4e24ee	0.050328188
182	0x3d33a371	0.04385704
183	0x3e0ba822	0.13638356
184	0x3e87bd6d	0.26511708
185	0xbe880fa7	-0.26574442
186	0x3e4d7d19	0.20067252
187	0xbe21f724	-0.15816933
188	0x3e068dfd	0.13140102
189	0xbee75e50	-0.45189142
190	0xbdf9c5c1	-0.12195922
191	0x3e38f5cd	0.18062516
192	0x3c09b71e	0.008405475
193	0x3e0e52f6	0.13898835
194	0xbdd32e43	-0.10311558
195	0xbdcc4dd3	-0.09975781
196	0x3d631cbf	0.055447336
197	0x3ebe1f1d	0.37133113
198	0x3e032da1	0.12810375
199	0xbdeeab66	-0.116537854
200	0x3d46e15d	0.048554767
201	0xbccff1c7	-0.025383843
202	0x3dd80fc7	0.10549884
203	0x3dce3b44	0.10069898
204	0x3d35fdb1	0.044431392
205	0x3ddf2451	0.10895599
206	0xbe33a101	-0.17541887
207	0xbf005fb9	-0.5014606
208	0xbe1195ca	-0.14217296
209	0xbc70aa73	-0.014689076
210	0xbe8369e2	-0.2566672
211	0x3e9d9247	0.30775663
212	0x3eb1e154	0.34742224
213	0xbd9b24ce	-0.07575379
214	0x3ea3ebd2	0.32015854
215	0x3ec45f9f	0.38354203
216	0x3e84b609	0.25920132
217	0xbdadd45c	-0.0848777
218	0xbe1df170	-0.15424132
219	0x3d935a18	0.071949184
220	0xbe86f0d2	-0.26355606
221	0xbd39286f	-0.045204576
222	0xbe8c3364	-0.27382958
223	0xbe0431ba	-0.12909594
224	0xbe2e6367	-0.17030106
225	0x3e9c4845	0.30523887
226	0x3ddfedd6	0.109340355
227	0xbe81a532	-0.25321347
228	0x3e0166fb	0.1263694
229	0x3d85c2e5	0.06531314
230	0xbe81315e	-0.25232977
231	0x3cdcb451	0.02694145
232	0xbe0b10aa	-0.13580576
233	0x3eff246f	0.49832484
234	0x3d052d72	0.032514043
235	0x3cdf278a	0.027240533
236	0xbbd90d4d	-0.0066239
237	0x3e873878	0.2641027
238	0xbc64d4f6	-0.0139667895
239	0xbf06a264	-0.5259154
240	0xbda20f98	-0.079131305
241	0xbdeb9be3	-0.115043424
242	0x3e8bb958	0.27289844
243	0xbe90d0d4	-0.28284323
244	0xbc7cc154	-0.015426952
245	0x3e022517	0.12709461
246	0x3de09e64	0.109677106
247	0xbd6c7ae3	-0.05773438
248	0x3d86aeee	0.06576334
249	0xbe67a321	-0.22620822
250	0x3d0599ae	0.032617263
251	0x3bf6ef2f	0.007535837
252	0xbe07d4f7	-0.13264833
253	0xbe4aac4f	-0.19792293
254	0x3e1902a9	0.14942421
255	0x3e600576	0.21877083

conv1.conv2.0.bias f4 [8]
0	0xbdd425d9	-0.10358781
1	0x3d47993a	0.048730113
2	0xba3e2e33	-0.0007254809
3	0x3cd9e3db	0.026597908
4	0x3cabeb13	0.020986116
5	0xbddf5bc8	-0.10906178
6	0xbb9b23f2	-0.0047345096
7	0xbda7181e	-0.08158897

conv1.conv2.1.weight f4 [8]
0	0x3f8533f9	1.0406486
1	0x3f93abde	1.1536825
2	0x3f7028ab	0.93812054
3	0x3f81c93f	1.013954
4	0x3f6cb317	0.9246077
5	0x3f846eb4	1.0346284
6	0x3f8559f6	1.0418079
7	0x3f7274c6	0.9470943

conv1.conv2.1.bias f4 [8]
0	0x3d53dd9b	0.05172501
1	0x3debb693	0.11509433
2	0xbdac18ca	-0.08403166
3	0xbd238b90	-0.03992802
4	0xbe2cb920	-0.16867495
5	0x3d79bfed	0.06097405
6	0x3c05b4c2	0.008160772
7	0xbd04090d	-0.032235194

conv1.conv2.1.running_mean f4 [8]
0	0x3cc6f9e9	0.024289088
1	0xbe413088	-0.1886617
2	0x3bd647aa	0.0065393047
3	0xbf059076	-0.52173555
4	0x3e79ee87	0.24407397
5	0xbf4874f5	-0.7830346
6	0xbf45a25a	-0.77200854
7	0x3f1454fb	0.5794217

conv1.conv2.1.running_var f4 [8]
0	0x3f9a33b9	1.2047035
1	0x3eb4aaf0	0.35286665
2	0x3f9379da	1.1521561
3	0x3f35317e	0.70778644
4	0x3f427e7d	0.75974256
5	0x3ff9dab6	1.951987
6	0x40053a8f	2.0816991
7	0x3ff7dffa	1.9365227

conv1.conv3.0.weight f4 [8, 8, 3, 3]
0	0x3e4b7d14	0.19871932
1	0x3df8cca4	0.12148407
2	0x3e0d7153	0.13812761
3	0xbeb1259b	-0.34599003
4	0xbe8389d9	-0.25691107
5	0x3dc9acb6	0.09847395
6	0x3e284a2b	0.16434543
7	0x3d9efb47	0.07762771
8	0xbc8221bf	-0.015885232
9	0xbd7b478d	-0.061347533
10	0x3cf368f1	0.029713126
11	0x3da94603	0.08265307
12	0x3cde3df9	0.02712916
13	0x3dc1f574	0.094706446
14	0xbe42a018	-0.19006383
15	0x3d37b547	0.044850614
16	0xbd11c07b	-0.035583954
17	0xbe0e3b32	-0.13889769
18	0x3e11918b	0.14215676
19	0x3e03ab99	0.12858428
20	0xbe092bf0	-0.13395667
21	0x3dacbaaf	0.084340446
22	0xbeb83472	-0.35977513
23	0xbe610e81	-0.21978189
24	0xbdec76a3	-0.11546066
25	0xbe5e1fda	-0.21691838
26	0x3df92dfc	0.12166974
27	0xbe0b5443	-0.13606362
28	0xbe846c22	-0.2586375
29	0x3e0e278c	0.13882273
30	0xbd6eb9db	-0.058282714
31	0xbd8be2c6	-0.06830363
32	0x3bf80fde	0.007570251
33	0x3dd1adad	0.10238204
34	0xbeba2a77	-0.36360523
35	0x3e8c15aa	0.27360278
36	0xbd957656	-0.072979614
37	0xbd51c3a4	-0.051211968
38	0xbebe987a	-0.37225705
39	0xbe6115a2	-0.21980909
40	0xbeb71b29	-0.3576291
41	0xbdc86397	-0.0978462
42	0x3e271efb	0.16320412
43	0x3e24e3b9	0.16102494
44	0x3dd6cdf0	0.10488498
45	0xbe157d16	-0.14598498
46	0x3d91731b	0.07102033
47	0xbe8f305d	-0.27966586
48	0xbea502b2	-0.3222862
49	0xbe992b6a	-0.29915935
50	0xbe2c4ca2	-0.16826108
51	0x3e7b901c	0.24566692
52	0xbebe35f0	-0.37150526
53	0x3d9658a9	0.07341129
54	0x3e9168e2	0.28400332
55	0x3cea9a04	0.028637893
56	0xbe72b6d2	-0.23702553
57	0xbed0abba	-0.40756017
58	0xbd014064	-0.03155555
59	0x3bc77a4f	0.0060875784
60	0xbe811bcb	-0.25216517
61	0xbd9ce0bc	-0.07660052
62	0x3e3b40b0	0.18286395
63	0x3d55ee5d	0.052229274
64	0xbe164138	-0.14673316
65	0x3da03914	0.07823387
66	0x3d85f8e0	0.0654161
67	0xbe28eb97	-0.1649612
68	0xbe9aa31c	-0.30202568
69	0xbdd2b2ad	-0.10287986
70	0x3d1f5ae5	0.038905043
71	0xbd0cd8e5	-0.034386534
72	0x3e1b06ae	0.15139267
73	0xbdaa470c	-0.08314332
74	0xbc1e673d	-0.009668169
75	0xbd1fe88e	-0.03904014
76	0xbdd0e42f	-0.101997726
77	0xbdde1d12	-0.108453885
78	0x3dfac7b3	0.12245121
79	0x3d89daff	0.06731223
80	0xbdd6930f	-0.10477268
81	0xbe5b882c	-0.21438664
82	0xbc2b785b	-0.010465707
83	0x3eaff4d1	0.34366468
84	0x3d9a70da	0.07541056
85	0xbe017b8c	-0.12644786
86	0x3d07f639	0.0331938
87	0x3e92b5e6	0.28654402
88	0xbeb37daf	-0.35056826
89	0x3cee6243	0.02909959
90	0xbb40b915	-0.0029407192
91	0xbd814dfc	-0.063137025
92	0xbeb0abe6	-0.34506148
93	0xbead903a	-0.338991
94	0xbe1fd6ed	-0.15609331
95	0xbd553119	-0.052048776
96	0x3d5f00e3	0.054444205
97	0xbe81defe	-0.25365442
98	0xbe362b99	-0.17790069
99	0x3ea09e83	0.31370935
100	0xbd6b1437	-0.057392325
101	0xbe17f8d7	-0.14841019
102	0x3e8c332d	0.27382794
103	0xbea16965	-0.31525722
104	0xbce422ea	-0.02784868
105	0xbd83b3c6	-0.064307734
106	0xbe702cfe	-0.23454663
107	0x3dc12d6f	0.09432494
108	0xbe27e620	-0.1639638
109	0xbdfe7e43	-0.12426426
110	0x3e185e36	0.14879689
111	0xbe88a0a9	-0.26685074
112	0x3e128fe5	0.14312704
113	0xbaaf39ed	-0.0013368704
114	0x3b9fd037	0.004877116
115	0xbe827004	-0.25476086
116	0xbd1e1987	-0.038598564
117	0xbda0389a	-0.07823296
118	0x3d6d749c	0.057972535
119	0xbd26840d	-0.040653277
120	0x3da3bf47	0.07995468
121	0x3e4aa80a	0.19790664
122	0x3e208eb5	0.15679438
123	0x3d7b7a58	0.061395973
124	0xbe29b48b	-0.16572778
125	0xbd4e845a	-0.05041919
126	0x3c91333a	0.017724622
127	0x3eba2173	0.36353645
128	0x3e36e404	0.17860419
129	0xbdaa38d9	-0.08311624
130	0x3e3079ff	0.17234038
131	0xbdf6f165	-0.12057761
132	0x3e2e7b6f	0.17039274
133	0xbb826e37	-0.003980424
134	0x3ba96b7d	0.0051702843
135	0xbdb97776	-0.090559885
136	0x3ea648c9	0.32477406
137	0xbe4de0c0	-0.20105267
138	0xbeb7295e	-0.35773748
139	0xbc6315a4	-0.01386014
140	0x3d4e5528	0.05037418
141	0x3e7f3f9d	0.2492661
142	0x3e781891	0.24228121
143	0xbe661d53	-0.22472124
144	0xbd850124	-0.06494358
145	0x3e0bd775	0.13656409
146	0xbeb1460d	-0.34623757
147	0x3ea925aa	0.33036548
148	0x3e2c81e0	0.16846418
149	0xbe496f86	-0.19671449
150	0x3e058f63	0.13042979
151	0x3dfbe294	0.12299076
152	0x3c4fcc98	0.012683056
153	0xbdddd5ff	-0.10831832
154	0xbe708423	-0.23487906
155	0xbb0fb1ad	-0.0021925971
156	0x3e4db310	0.20087838
157	0x3d9ed6ea	0.07755835
158	0xbcb999ee	-0.022656407
159	0x3e4dffb3	0.20117073
160	0xbc7bc6f4	-0.015367258
161	0xbdd7be47	-0.105343394
162	0x3e8ac965	0.27106777
163	0xbc9c7b65	-0.019101808
164	0x3e30ae13	0.17253904
165	0x3d81f816	0.06346147
166	0x3d07b0de	0.033127658
167	0x3e9eadf4	0.3099209
168	0xbdaabd15	-0.08336846
169	0x3ce10f54	0.02747313
170	0x3eab51d8	0.3346088
171	0x3dae91b9	0.08523888
172	0x3eaad656	0.3336665
173	0x3c9a532f	0.018838493
174	0x3e04a875	0.12954886
175	0x3e25bf19	0.16186179
176	0x3e17b8c7	0.1481658
177	0x3e1ebc8e	0.15501615
178	0xbc92684a	-0.017871995
179	0x3c617cc0	0.013762653
180	0xbd4972dd	-0.049181808
181	0xbe9fd889	-0.3121989
182	0xbd1727d9	-0.036903236
183	0x3e3924ee	0.18080494
184	0xbe92f84b	-0.28705058
185	0xbea09f2f	-0.31371447
186	0xbd0e4dd8	-0.034742206
187	0x3e54d386	0.20783815
188	0x3d108e67	0.035292055
189	0xbe4d9cb7	-0.20079313
190	0xbe514fd8	-0.20440614
191	0xbd951076	-0.0727853
192	0xbe226b4d	-0.15861244
193	0x3e148a0b	0.14505784
194	0xbe3cdff3	-0.18444805
195	0xbdbc6c1e	-0.09200309
196	0xbc4e9249	-0.012608119
197	0xbe297f9e	-0.16552588
198	0xbdc6b812	-0.097030774
199	0xbdf91bd7	-0.12163513
200	0xbd6c8ef6	-0.057753526
201	0x3e40eaa8	0.18839514
202	0x3e3800b3	0.17969017
203	0x3dc82991	0.09773553
204	0x3d932ac4	0.07185891
205	0xbde3dfbf	-0.111266606
206	0xbe2ee7e3	-0.17080645
207	0xbdc5cb63	-0.096579336
208	0xbe80eff9	-0.25183085
209	0xbc783659	-0.015149676
210	0x3dc3926c	0.09549412
211	0xbe5dc665	-0.21657713
212	0xbde6d162	-0.11270405
213	0x3dee0d95	0.11623684
214	0xbe67e8b6	-0.22647366
215	0x3e871405	0.2638246
216	0xbe708a33	-0.23490219
217	0xbd424db9	-0.047437403
218	0xbdb16d52	-0.08663429
219	0x3db96835	0.09053079
220	0xbe94b3ae	-0.29043335
221	0xbcaa979e	-0.02082425
222	0xbe85ea5e	-0.2615537
223	0xbe4485f4	-0.19191724
224	0x3eb7ef34	0.35924685
225	0x3dc22ba0	0.09480977
226	0xbf11a775	-0.56896144
227	0x3e390b5a	0.18070737
228	0x3e9c5d7d	0.30540076
229	0xbd2c7022	-0.042099126
230	0xbe034608	-0.12819684
231	0xbebad7e4	-0.36492836
232	0x3e8fd0b1	0.28088906
233	0x3defde07	0.1171227
234	0xbe76dc17	-0.24107395
235	0xbd812de7	-0.06307583
236	0xbde5da7f	-0.112233154
237	0xbe192e87	-0.14959155
238	0xbc78ad4f	-0.015178039
239	0x3ea89ada	0.32930642
240	0x3e404413	0.18775968
241	0xbe6ecf60	-0.23321295
242	0xbea6b324	-0.32558548
243	0xbea7fbc4	-0.3280927
244	0x3ebfa779	0.3743246
245	0xbaedbdb9	-0.0018138207
246	0xbd1388f0	-0.036019266
247	0x3e62c841	0.22146703
248	0xbc7c4a73	-0.015398609
249	0x3e3c7726	0.18404827
250	0x3e1126c2	0.14174941
251	0xbe859f88	-0.26098275
252	0xbe9a0556	-0.30082196
253	0x3d0ac8ac	0.033882782
254	0x3da6e119	0.08148403
255	0x3e0f61a1	0.14002086

conv1.conv3.0.bias f4 [8]
0	0xbcd78a72	-0.026311133
1	0xbc6b4b83	-0.014361265
2	0xbd9a6a5d	-0.075398184
3	0x3be837d9	0.0070867357
4	0xbd94cf96	-0.072661564
5	0xbdc144a3	-0.094369195
6	0x3dd90983	0.10597517
7	0xbb20341d	-0.0024445124

conv1.conv3.1.weight f4 [8]
0	0x3f8321aa	1.0244648
1	0x3f8a2d4a	1.0795071
2	0x3f81de8f	1.0146044
3	0x3f7a12e8	0.976851
4	0x3f65a2a7	0.8970131
5	0x3f869491	1.0514089
6	0x3f85c905	1.0451971
7	0x3f7b78a6	0.9823097

conv1.conv3.1.bias f4 [8]
0	0x3cc88194	0.02447585
1	0x3df64e24	0.12026623
2	0x3e17191a	0.14755669
3	0x3ddb7e2b	0.10717424
4	0x3d20fe7b	0.03930519
5	0x3dd633a6	0.1045907
6	0x3db2829c	0.08716318
7	0x3d94715e	0.072481856

conv1.conv3.1.running_mean f4 [8]
0	0xbfb04bb2	-1.37731
1	0xbe8022f4	-0.25026667
2	0x3d6950ff	0.05696201
3	0xbebf02b0	-0.37306738
4	0xbf8e99a9	-1.1140643
5	0xbf2e53cf	-0.6809663
6	0xbe1fbeb6	-0.15600094
7	0xbea9e5a8	-0.33183026

conv1.conv3.1.running_var f4 [8]
0	0x3f843857	1.0329694
1	0x3fc8de11	1.5692769
2	0x3ff6b412	1.9273703
3	0x3f285344	0.65752053
4	0x3fd15686	1.635453
5	0x40294ea7	2.6454256
6	0x3fae69c5	1.3626028
7	0x3ff1cce4	1.8890653

conv2.conv1.0.weight f4 [16, 8, 3, 3]
0	0xbd1cd4dd	-0.03828894
1	0x3cf0a985	0.029377708
2	0xbe2035ce	-0.15645525
3	0xbe875b60	-0.264369
4	0x3ce1e816	0.027576488
5	0x3eb80943	0.35944566
6	0x3e7ecfc1	0.2488394
7	0xbdb78431	-0.089607604
8	0x3d9fc4fb	0.07801243
9	0x3cd7dffa	0.026351918
10	0xbd11f0aa	-0.035629906
11	0x3c83a017	0.016067548
12	0xbe3d9a80	-0.18515968
13	0xbda0cfdc	-0.07852146
14	0xbdacd182	-0.08438398
15	0x3d9b9e91	0.075986035
16	0x3e098d4c	0.13432807
17	0xbe3af8d0	-0.18258977
18	0xbdb5a3fc	-0.08869168
19	0xbec93b38	-0.39302993
20	0x3df23b57	0.118277244
21	0xbca75d39	-0.020430194
22	0x3e9aae48	0.3021109
23	0x3e0045f0	0.12526679
24	0x3e2b717a	0.16742507
25	0x3e67fe56	0.22655615
26	0xbc9dbf9e	-0.01925641
27	0x3e14e720	0.14541292
28	0x3df3dc87	0.11907297
29	0x3d4a2c9b	0.049358945
30	0x3ea4138b	0.3204616
31	0xbde058e8	-0.109544575
32	0xbe9b04e2	-0.30277163
33	0xbdc6e665	-0.09711913
34	0xbd00450e	-0.031315856
35	0xbcb10291	-0.02160767
36	0x3cbb2cb7	0.02284847
37	0xbdbad7f6	-0.091232225
38	0xbc3b8faf	-0.011447831
39	0x3e903b9e	0.28170484
40	0xbdc0c339	-0.09412236
41	0xbd18a80b	-0.037269633
42	0xbe25cbd5	-0.16191037
43	0xbd4ccb1b	-0.049998384
44	0xbdc6fd4f	-0.097162835
45	0xbcf449f1	-0.029820414
46	0xbe3baa94	-0.18326789
47	0x3dd47aca	0.10374983
48	0xbe5021ff	-0.20325468
49	0xbe0b5089	-0.1360494
50	0xbe1c1fb3	-0.15246467
51	0xbe56a7c3	-0.20962434
52	0xbe0afe09	-0.13573469
53	0xbe502964	-0.2032829
54	0xbe7e89be	-0.24857232
55	0xbe0e21f4	-0.1388014
56	0xbdadfe07	-0.084957175
57	0x3cd8c1fa	0.026459683
58	0xbd1698d2	-0.036766835
59	0xbd02617a	-0.031831242
60	0x3c01db1c	0.007925775
61	0xbe15f0c7	-0.1464263
62	0xbd0cf64b	-0.03441457
63	0x3e1460bf	0.1449003
64	0xbde80d29	-0.11330635
65	0x3daa1bb1	0.08306063
66	0xbb5b58d8	-0.0033469703
67	0x3e807be5	0.25094524
68	0x3c15491d	0.00911167
69	0x3c32b8c2	0.0109083075
70	0x3e101dbe	0.14073846
71	0x3eaeffae	0.34179443
72	0xbdce46ab	-0.100720726
73	0x3dbed5e2	0.09318139
74	0xbeaf3010	-0.34216356
75	0xbd95ef4c	-0.07321033
76	0xbe40626b	-0.18787543
77	0xbe844c89	-0.25839642
78	0x3e6597d1	0.22421195
79	0xbe07ec6f	-0.13273786
80	0x3e74df46	0.23913297
81	0x3ea4c1a5	0.3217899
82	0x3e86ab59	0.26302603
83	0x3db004aa	0.085946396
84	0x3e6fcf46	0.23418912
85	0x3e7a68e5	0.24454077
86	0xbdc9d636	-0.098553106
87	0x3c3d2b46	0.011545962
88	0x3e6728fd	0.2257423
89	0x3e3b4222	0.18286946
90	0xbe3287fd	-0.17434688
91	0xbe182656	-0.14858374
92	0xbe8a7a2b	-0.27046332
93	0x3e0edcda	0.13951436
94	0xbe1a6617	-0.15078007
95	0xbe957b99	-0.2919586
96	0xbe4c4ef8	-0.19951999
97	0x3e5c2d96	0.21501765
98	0x3cf7a0a8	0.030227974
99	0xbcb5fac4	-0.0222143
100	0xbe4175b8	-0.18892562
101	0x3d0c9666	0.03432312
102	0x3ea9f3ab	0.33193716
103	0xbe90d8d4	-0.28290427
104	0x3dfaf59b	0.12253877
105	0x3dfcad55	0.12337748
106	0xbe80c291	-0.25148442
107	0x3e4e9c54	0.20176822
108	0x3d474305	0.0486479
109	0xb9bc2cea	-0.00035891618
110	0xbe6f6cbb	-0.23381321
111	0x3dbdce9b	0.092679225
112	0xbc65e4c5	-0.014031594
113	0xbdf783c6	-0.12085681
114	0xbda282af	-0.07935082
115	0x3e1ba432	0.15199354
116	0xbdeb2a87	-0.11482721
117	0xbe1e5b7d	-0.15464588
118	0xbb67fc5e	-0.0035398225
119	0x3c3fcc74	0.01170646
120	0xbdc68a9f	-0.096944086
121	0xbd288f09	-0.041152034
122	0xbeb13c0d	-0.34616128
123	0x3e55763e	0.20845887
124	0xbdaff1a0	-0.08591008
125	0x3e6bc805	0.2302552
126	0x3da083eb	0.07837661
127	0x3e6e6164	0.23279339
128	0xbe102d95	-0.14079888
129	0x3e9a13be	0.30093187
130	0x3df878de	0.121324286
131	0x3dca2456	0.09870212
132	0x3dac8612	0.084240094
133	0x3e4b8450	0.19874692
134	0xbdd4f54e	-0.10398351
135	0xbc344a0b	-0.011003981
136	0x3afe61b4	0.001940778
137	0x3dc1fe81	0.09472371
138	0x3e4c5720	0.1995511
139	0xbede7dc2	-0.4345532
140	0xbdcd8d11	-0.10036672
141	0x3e0b3119	0.13592948
142	0xbcfe1110	-0.031013995
143	0x3c500e3a	0.012698704
144	0xbe1bcf13	-0.15215711
145	0xbe1a067d	-0.15041538
146	0x3db46446	0.08808188
147	0xbe02d95a	-0.12778226
148	0x3db654a6	0.08902864
149	0x3f084c5c	0.53241515
150	0x3da2c407	0.079475455
151	0xbe3a73ea	-0.1820828
152	0x3e0f35c2	0.1398535
153	0xbd0475d1	-0.03233892
154	0xbe284251	-0.16431548
155	0xbe69844d	-0.22804375
156	0x3e1e90c7	0.15484916
157	0xbd27b3b1	-0.04094285
158	0x3e5fb9e9	0.21848263
159	0xbe42e05b	-0.19030897
160	0x3d1c7b20	0.03820336
161	0x3e31590c	0.17319125
162	0xbe3caa44	-0.18424326
163	0xbe945a47	-0.28975126
164	0xbe788639	-0.24269952
165	0xbde1613d	-0.11004875
166	0x3e1da000	0.15393066
167	0x3e735d46	0.2376605
168	0x3e53abf5	0.20671065
169	0x3e414864	0.18875271
170	0xbe3274ea	-0.17427412
171	0xbe39f147	-0.18158446
172	0x3efdbc3f	0.49557683
173	0x3e593b0c	0.21213931
174	0x3d1778c7	0.036980417
175	0x3e9c3ee8	0.30516744
176	0xbcfe9bdc	-0.031080179
177	0x3e0e05eb	0.13869445
178	0xbcbb6061	-0.022873105
179	0x3be1520e	0.0068762368
180	0x3e3edec3	0.18639664
181	0x3e16dca5	0.14732607
182	0x3d16843a	0.036747195
183	0xbd4bf962	-0.049798377
184	0xbc851c85	-0.01624895
185	0xbdfc1c26	-0.123100564
186	0xbdfbfad7	-0.12303703
187	0x3c578349	0.013153859
188	0x3d9f6bdf	0.07784247
189	0xbe43779a	-0.19088593
190	0xbe8fe143	-0.2810155
191	0x3e05c596	0.13063654
192	0xbdf7dbcb	-0.12102469
193	0x3ded438a	0.11585148
194	0xbe672b1e	-0.22575042
195	0xbca6ae1f	-0.0203467
196	0x3e10e1ed	0.14148684
197	0x3c5fd4fe	0.013661621
198	0xbe43d3d5	-0.19123776
199	0xbe8a8894	-0.27057326
200	0xbeaa3597	-0.3324401
201	0xbe0c9ce1	-0.1373172
202	0xbd615488	-0.055012256
203	0x3d1c35e1	0.03813732
204	0x3e778659	0.24172343
205	0x3c92920a	0.017891902
206	0xbd68fe1d	-0.056882966
207	0xbe2b8123	-0.1674848
208	0xbde9d0c5	-0.11416773
209	0x3df261e1	0.11835075
210	0xbe0a0b45	-0.13480861
211	0x3e9ee0b8	0.31030822
212	0x3c70f67c	0.014707204
213	0xbdb78a31	-0.08961905
214	0xbe95d53f	-0.29264256
215	0x3d223302	0.039599426
216	0x3db92a39	0.090412565
217	0xbe29d78d	-0.16586132
218	0x3d6f89ea	0.058481134
219	0xbe93f2c4	-0.28896153
220	0xbd847d17	-0.064691715
221	0x3cc01044	0.023445256
222	0x3ea9048b	0.3301128
223	0xbc878950	-0.016544968
224	0xbe0e553c	-0.13899702
225	0xbe6b70d4	-0.2299226
226	0xbe22580c	-0.158539
227	0xbe85cbc8	-0.26132035
228	0xbdaebb86	-0.08531861
229	0x3e7ccab7	0.24686705
230	0x3dd3b0a4	0.10336426
231	0x3d5fdcb6	0.054653846
232	0xbe14ae25	-0.14519556
233	0xbda7847f	-0.081795685
234	0x3cd0f1f7	0.025506003
235	0x3c601515	0.013676901
236	0xbd03742e	-0.03209322
237	0xbe3577c2	-0.17721465
238	0xbd8b5d0f	-0.06804859
239	0x3d9a2418	0.075264156
240	0xbde85739	-0.113447614
241	0x3dafd4e3	0.08585527
242	0x3e081a27	0.13291226
243	0x3db2f8d3	0.08738866
244	0xbd780338	-0.060549945
245	0xbcbaf399	-0.022821235
246	0xbea64035	-0.3247086
247	0x3dae6bb9	0.0851664
248	0xbd37cd99	-0.044873808
249	0xbe921e46	-0.28538722
250	0xbd4b78ff	-0.049675938
251	0x3e5b299a	0.21402588
252	0x3b86a656	0.0041091843
253	0xbcbf1290	-0.023324281
254	0xbdb48cc4	-0.088159114
255	0x3e6704a0	0.22560358

conv2.conv1.0.bias f4 [16]
0	0xbda009eb	-0.07814392
1	0xbd0a76e1	-0.033804778
2	0x3dd2207b	0.102601014
3	0x3d1ce037	0.038299765
4	0x3de81996	0.11333005
5	0xba3a6d37	-0.0007111611
6	0xbd800e9b	-0.06252786
7	0x3cb156e1	0.021647872
8	0xbbe41a2f	-0.006961129
9	0xbcca478d	-0.024692321
10	0x39a1b844	0.00030845602
11	0xbd907ac8	-0.07054669
12	0x3d13253c	0.03592418
13	0xbc8ded35	-0.017325023
14	0xbdae57fd	-0.08512876
15	0xbdcecdcf	-0.100978486

conv2.conv1.1.weight f4 [16]
0	0x3f82b0fd	1.0210263
1	0x3f891a72	1.0711195
2	0x3f7b5a19	0.98184353
3	0x3f6d2b8d	0.9264458
4	0x3f878248	1.0586634
5	0x3f5b13ed	0.8557728
6	0x3f8140b9	1.0097877
7	0x3f89eafa	1.0774834
8	0x3f5f03b2	0.87115014
9	0x3f6bc207	0.9209294
10	0x3f79fe3c	0.97653556
11	0x3f8d9326	1.1060531
12	0x3f663e82	0.8993913
13	0x3f852494	1.0401788
14	0x3f7a05ba	0.9766499
15	0x3f8e43d4	1.111445

conv2.conv1.1.bias f4 [16]
0	0x3c6a5d86	0.014304524
1	0x3e0f641a	0.1400303
2	0x3a8efccb	0.0010909078
3	0xbbd387c6	-0.0064553944
4	0x3d0992db	0.033587318
5	0xbd4d9095	-0.050186712
6	0x3cdabfc3	0.026702767
7	0x3db7fd21	0.089838274
8	0x3b24b03a	0.0025129453
9	0xbdea3a23	-0.1143687
10	0xbda800f8	-0.0820331
11	0x3b28ab0f	0.0025736724
12	0xbda4b0e6	-0.08041553
13	0x3d41034c	0.047122285
14	0xbd40e7b5	-0.047095973
15	0x3d2dbcde	0.042416446

conv2.conv1.1.running_mean f4 [16]
0	0xbf08389c	-0.5321138
1	0x3e73953d	0.23787399
2	0xbd6f3385	-0.058398742
3	0xbe0c0791	-0.13674761
4	0x3f9a0635	1.2033144
5	0x3e8c6544	0.2742101
6	0xbf84b529	-1.0367786
7	0xbf5dd1f4	-0.8664849
8	0xbe2aef5b	-0.1669287
9	0x3e5d7502	0.21626666
10	0x3e1fc93a	0.15604106
11	0xbf9cdba4	-1.2254529
12	0xbfc90f36	-1.5707767
13	0x3e5bdc44	0.21470743
14	0xbf158d34	-0.58418584
15	0xc00c99ad	-2.1968796

conv2.conv1.1.running_var f4 [16]
0	0x4000efb5	2.0146306
1	0x3fa3a587	1.278489
2	0x3fddfd9c	1.734302
3	0x3ff15258	1.8853254
4	0x3f4a6191	0.79055125
5	0x3f6aca03	0.91714495
6	0x4008d750	2.1381416
7	0x3f8cbc38	1.099494
8	0x3f87525d	1.057201
9	0x3fae5188	1.3618631
10	0x3f91a4d8	1.1378431
11	0x3f8e675d	1.1125294
12	0x3f40da2b	0.753329
13	0x3fe29915	1.7702967
14	0x3fe96c80	1.8236237
15	0x3f8641cd	1.0488831

conv2.conv2.0.weight f4 [16, 16, 3, 3]
0	0xbe0ca3d4	-0.1373437
1	0x3def7ad5	0.1169335
2	0x3e05001a	0.1298832
3	0xbd314562	-0.04327906
4	0xbe95b2f8	-0.29238105
5	0xbcaabc61	-0.02084178
6	0xbe4a2d0b	-0.19743745
7	0x3da12089	0.07867534
8	0xbdee1070	-0.11624229
9	0x3d07b456	0.033130966
10	0x3df4c404	0.119514495
11	0x3cc9515c	0.024574928
12	0xbe9ba68a	-0.30400497
13	0x3e1ceda7	0.15325032
14	0xbe6ba5c5	-0.23012455
15	0xbd813491	-0.06308854
16	0xbcf587e2	-0.02997202
17	0xbd25e215	-0.04049881
18	0x3d51317f	0.051072594
19	0x3dc9a4d8	0.098458946
20	0xbeaa3874	-0.33246195
21	0x3d1f2673	0.038855027
22	0x3cb86fc2	0.022514228
23	0xbe284667	-0.16433106
24	0x3cb62067	0.022232248
25	0xbd6a03d3	-0.057132553
26	0xbd624e9f	-0.05525076
27	0x3c963b11	0.018338712
28	0xbda68c0c	-0.081321806
29	0x3dffc91d	0.12489531
30	0xbd31833a	-0.043338038
31	0x3e4b2479	0.19838132
32	0x3db6663b	0.08906218
33	0xbca3f875	-0.020015934
34	0xbd2c41eb	-0.04205505
35	0xbdab9358	-0.08377713
36	0x3e49b74a	0.19698825
37	0xbdd61c49	-0.10454614
38	0x3d9f7dbd	0.077876545
39	0xbe921173	-0.28528938
40	0x3cedc478	0.029024348
41	0xbd126219	-0.035738084
42	0x3e7b4208	0.24536908
43	0xbe6475b2	-0.22310522
44	0xbe5a2af5	-0.2130545
45	0x3defb93d	0.11705253
46	0xbe542c6f	-0.20720075
47	0x3e4dde52	0.2010434
48	0xbe16c5ae	-0.14723846
49	0x3df85841	0.12126208
50	0xbd38cf67	-0.04511967
51	0xbd09968e	-0.033590846
52	0xbd44d8f3	-0.04805846
53	0x3e46ceea	0.19414869
54	0xbd977083	-0.07394507
55	0x3e0b34ec	0.13594407
56	0x3e1ae4d8	0.1512636
57	0xbca6b38c	-0.020349286
58	0x3ec43cac	0.3832754
59	0x3db37140	0.08761835
60	0x3e16893a	0.14700785
61	0xbb524ded	-0.0032089904
62	0xbc168137	-0.009186081
63	0x3e09f9ac	0.13474149
64	0xbc5132dc	-0.0127684735
65	0xbe1b873e	-0.1518831
66	0x3d90da56	0.07072894
67	0xbe99ca74	-0.30037272
68	0xbe37d161	-0.17950965
69	0xbd3dc5f8	-0.046331376
70	0xbb3500e4	-0.002761894
71	0xbd817d3f	-0.06322717
72	0x3ddcf4ee	0.10788904
73	0xbd05bc7b	-0.032650452
74	0xbe0f8cbc	-0.1401853
75	0xbe6238d1	-0.22091986
76	0x3b728e57	0.003701111
77	0xbd9976e3	-0.07493379
78	0xbd9b17e8	-0.07572919
79	0x3e390b94	0.18070823
80	0x3da4fdaa	0.08056195
81	0xbdc035d7	-0.09385269
82	0xbc2518e0	-0.010076731
83	0x3e2692b3	0.16266899
84	0x3dd79866	0.105271146
85	0xbd6a75b9	-0.057241175
86	0xbe6b3b7d	-0.22971912
87	0xbe402a9b	-0.18766253
88	0xbde1c5b7	-0.11024039
89	0xbd5e5627	-0.05428138
90	0x3dad38a9	0.08458073
91	0x3df7decf	0.12103044
92	0xbd147b4c	-0.036250398
93	0xbe3293ae	-0.17439148
94	0x3e19deda	0.15026417
95	0xbe778ff4	-0.24176008
96	0xbd5096c8	-0.050925046
97	0x3dd18e77	0.10232251
98	0xbdd2f8b3	-0.10301342
99	0x3da33fba	0.07971139
100	0x3db37236	0.087620184
101	0x3db15e69	0.086605854
102	0xbc6d0f14	-0.014468927
103	0xbd2d136c	-0.04225485
104	0x3d81ae64	0.063320905
105	0x3e4d2c35	0.20036395
106	0x3d7b29da	0.06131921
107	0x3e789e26	0.24279079
108	0xbd96d8d0	-0.073655725
109	0x3d9b0f1d	0.07571242
110	0xbd52576d	-0.051352907
111	0xbda49529	-0.080362625
112	0xbe3b7701	-0.18307115
113	0x3cbb6b53	0.022878325
114	0xbc94057b	-0.01806902
115	0x3c72960a	0.01480628
116	0xbd302a93	-0.043009352
117	0x3da0ff15	0.07861153
118	0x3e56d094	0.20978004
119	0xbe0b049a	-0.13575974
120	0xbdcebf44	-0.10095075
121	0xbe5ad2f6	-0.21369538
122	0xbd20d4a2	-0.039265282
123	0x3d8d4e41	0.068996914
124	0x3d5760e1	0.052582625
125	0xbe1758a6	-0.1477991
126	0xbe13158f	-0.14363693
127	0xbcf3e091	-0.029770168
128	0x3e37cd28	0.17949355
129	0xbddbe9a1	-0.107379206
130	0x3d425b02	0.047450073
131	0xbdeae75b	-0.11469909
132	0x3d7be11c	0.061493978
133	0x3ce34fc8	0.027748004
134	0xbe3f55b8	-0.18685043
135	0xbd26bc08	-0.040706664
136	0x3dc89096	0.097932026
137	0xbd4b0038	-0.049560755
138	0x3db139a6	0.08653574
139	0xbcef401f	-0.02920538
140	0xbc84ff74	-0.01623509
141	0xbe9be5cd	-0.30448762
142	0x3d88f0b6	0.06686537
143	0xbdb6e908	-0.08931166
144	0xbdb92ea7	-0.09042101
145	0x3cf2a539	0.0296198
146	0x3e12daf6	0.1434134
147	0x3a4f299d	0.0007902624
148	0x3d94f123	0.07272556
149	0x3d6b04af	0.057377513
150	0xbd6b3709	-0.057425532
151	0x3dac19b5	0.08403341
152	0xbd9861a9	-0.07440502
153	0x3e1c6497	0.15272747
154	0x3e736220	0.237679
155	0x3c44e1f4	0.012016762
156	0xbe068b20	-0.1313901
157	0x3c31bbe2	0.010848017
158	0x3d0bd831	0.034141723
159	0x3d949f8a	0.07256992
160	0xbe4a31d9	-0.19745578
161	0xbbd38c03	-0.0064558997
162	0x3d996c41	0.07491351
163	0x3cddd087	0.027076973
164	0xbdf23a35	-0.11827508
165	0x3e645fcf	0.22302173
166	0xbe075e3e	-0.13219544
167	0x3d0b4873	0.03400464
168	0xbe21f501	-0.15816118
169	0x3de73cb4	0.11290875
170	0x3e38c7fc	0.18045038
171	0x3e31cfac	0.17364377
172	0x3d9a1848	0.075241625
173	0xbd56dfa3	-0.05245937
174	0x3e23a4d7	0.1598085
175	0xbd429301	-0.047503475
176	0x3e140ce7	0.14458047
177	0x3e350639	0.17678155
178	0x3e01bcf8	0.12669742
179	0x3d6f2a8e	0.058390193
180	0xbe47fe10	-0.19530511
181	0x3cf0ec09	0.029409425
182	0x3d0485a8	0.032354027
183	0xbd992bd9	-0.074790664
184	0x3d7c3dae	0.06158226
185	0x3ccc759f	0.02495843
186	0xbe0eb227	-0.13935147
187	0xbd265724	-0.040610448
188	0xbd6e0407	-0.05810931
189	0x3da2c7e8	0.07948285
190	0x3ba5660a	0.0050475644
191	0xbdd3ebcb	-0.10347708
192	0xbcf5fc6e	-0.030027594
193	0x3dd792a5	0.10526017
194	0xbe7f74c6	-0.2494689
195	0x3d59d1d1	0.053178612
196	0xbd585b9e	-0.052821748
197	0x3cd9f644	0.026606686
198	0xbd1466e2	-0.03623093
199	0xbdf7defa	-0.12103076
200	0x3dbcb479	0.0921411
201	0x3dba069c	0.09083292
202	0xbe14c646	-0.1452876
203	0xbda16e8c	-0.07882413
204	0x3d54fcd2	0.05199892
205	0x3d5c9bf2	0.05385966
206	0x3d584dcf	0.05280858
207	0xbe58b4ed	-0.21162768
208	0xbcf2101e	-0.0295487
209	0xbdaa7d6c	-0.083247036
210	0xbd876910	-0.06611836
211	0xbdf50e53	-0.11965623
212	0xbe020fd6	-0.12701353
213	0xbe2df020	-0.16986132
214	0x3d6043c6	0.054752134
215	0x3d1ea860	0.038734794
216	0x3e8629ca	0.26203758
217	0xbd117f83	-0.035521995
218	0xbdf3264a	-0.118725374
219	0xbcdb6c5e	-0.026785072
220	0x3e1d9468	0.15388644
221	0x3ce6efde	0.02819055
222	0xbd50b0d1	-0.050949875
223	0x3dd93790	0.10606301
224	0x3e75882c	0.23977727
225	0xbd2f468e	-0.042791896
226	0xbd91a25e	-0.07111047
227	0xbe452f7d	-0.19256397
228	0xbe04a58e	-0.12953779
229	0xbd4f8ae1	-0.050669555
230	0xbe28b011	-0.16473414
231	0xbe341e12	-0.17589596
232	0xbdb571ee	-0.08859621
233	0x3d4963a3	0.049167287
234	0x3d789956	0.060693108
235	0x3e269646	0.16268262
236	0xbd495dc1	-0.049161676
237	0x3e63aedf	0.22234677
238	0x3df8c9ac	0.12147841
239	0x3da1fba6	0.07909326
240	0x3dd2dfcb	0.10296591
241	0x3e8ed3c4	0.2789594
242	0xbe1c8d50	-0.15288281
243	0xbd76dc83	-0.06026889
244	0x3eca1892	0.3947187
245	0x3ded2d9a	0.115809634
246	0xbd331e46	-0.043730043
247	0xbe34d69e	-0.17659995
248	0x3d3d197f	0.046166893
249	0xbdfb771b	-0.12278577
250	0x3dbb9c64	0.091606885
251	0xbe0d2a19	-0.1378559
252	0x3decb540	0.11558008
253	0xbeed8bf6	-0.46395844
254	0x3e98bc34	0.29831088
255	0x3dfa1f98	0.12213057

conv2.conv2.0.bias f4 [16]
0	0xbc9f44f8	-0.019442067
1	0xbd7ced63	-0.061749827
2	0xbd8ff300	-0.070287704
3	0xbd760cc9	-0.060070787
4	0x3d06ba7f	0.0328927
5	0xbc0fbbe0	-0.00877282
6	0xbcb0a958	-0.021565124
7	0x3ce1e508	0.02757503
8	0x3d4f7d2f	0.050656494
9	0x3d3e49ad	0.04645698
10	0x3ce16d0c	0.027517818
11	0x3da15e7e	0.07879351
12	0x3b682866	0.003542447
13	0x3aff5e98	0.0019483147
14	0x3d06d344	0.032916322
15	0x3daa1b97	0.083060436

conv2.conv2.1.weight f4 [16]
0	0x3f846c2a	1.0345509
1	0x3f81e356	1.0147502
2	0x3f69228d	0.91068345
3	0x3f7db5d9	0.991056
4	0x3f8063d9	1.0030471
5	0x3f682e5b	0.9069573
6	0x3f8598cb	1.0437254
7	0x3f7c85c9	0.9864164
8	0x3f8834fa	1.0641167
9	0x3f818f0c	1.012178
10	0x3f6a63bc	0.9155843
11	0x3f6e3f6b	0.9306552
12	0x3f8bfd06	1.0936592
13	0x3f859d4b	1.0438627
14	0x3f8200ed	1.0156533
15	0x3f789aaf	0.9711103

conv2.conv2.1.bias f4 [16]
0	0x3ce14bd9	0.027501987
1	0x3cfe6e61	0.031058492
2	0x3c144d34	0.00905161
3	0x3c8e20a9	0.017349558
4	0xbcb73159	-0.022362398
5	0x3da7a05f	0.08184885
6	0x3dc82427	0.097725205
7	0xbabd3d10	-0.0014437754
8	0x3d505f55	0.050872166
9	0x3d892e98	0.0669834
10	0x3d2ac2c3	0.041689645
11	0xbdb8e0bf	-0.09027242
12	0x3da7d566	0.081949994
13	0x3d0fd981	0.035119537
14	0x3c880869	0.016605573
15	0x3d71232f	0.058871444

conv2.conv2.1.running_mean f4 [16]
0	0xbf41d0ba	-0.75709116
1	0x3e831587	0.25602362
2	0xbec275dd	-0.37980548
3	0xbece9e74	-0.40355265
4	0xbf715bbf	-0.9428062
5	0x3ead8946	0.33893794
6	0x3f084612	0.5323192
7	0x3fabe26f	1.3428477
8	0xbf696669	-0.9117189
9	0xbf883df1	-1.0643903
10	0xbf329b6a	-0.69768393
11	0x3f853ad2	1.0408576
12	0xbcc3b9ef	-0.023892371
13	0x3f8b5080	1.0883942
14	0xbf8dfc3f	-1.1092604
15	0xbf1ed7fd	-0.6204832

conv2.conv2.1.running_var f4 [16]
0	0x3f86287d	1.0481106
1	0x3f8e2a81	1.1106721
2	0x3f12583b	0.5716588
3	0x3f57313c	0.840595
4	0x3fa52452	1.2901709
5	0x40542970	3.3150291
6	0x3f5f845d	0.87311345
7	0x4034175e	2.8139262
8	0x3fc70a71	1.5550061
9	0x3fdaa10b	1.7080396
10	0x3f98ba29	1.1931812
11	0x3fbc3ec0	1.470665
12	0x3fa8752f	1.3160762
13	0x3fabdfce	1.3427675
14	0x3fac5dd7	1.3466138
15	0x3ff97ea6	1.9491775

conv2.conv3.0.weight f4 [16, 16, 3, 3]
0	0x3e0e5d3b	0.13902752
1	0xbd97a181	-0.07403851
2	0x3de2658c	0.11054525
3	0x3dd95b48	0.10613114
4	0xbdaa7db1	-0.08324755
5	0x3e0bc447	0.13649093
6	0xbd2c33a3	-0.042041432
7	0xbcddd2bd	-0.027078027
8	0x3b974669	0.004616548
9	0x3dc2b92c	0.09507975
10	0xbbfe9763	-0.0077695115
11	0x3dd90a11	0.10597623
12	0xba85b834	-0.0010201992
13	0x3dedc30d	0.116094686
14	0x3d27cb3a	0.040965296
15	0x3dff62e3	0.12470033
16	0x3e561ed7	0.20910202
17	0x3db55324	0.088537484
18	0xbd72a8e5	-0.0592431
19	0xbd95d8dc	-0.07316753
20	0x3e049d8b	0.12950723
21	0xbda14c8e	-0.0787593
22	0x3df83493	0.12119403
23	0x3e3b170d	0.18270512
24	0xbd5fd835	-0.05464955
25	0x3cdb5ebe	0.026778575
26	0x3e1a5c54	0.15074283
27	0xbd020272	-0.031740613
28	0xbe172473	-0.14759998
29	0xbd808da6	-0.06277017
30	0xbdc2a566	-0.095042035
31	0x3df2acbb	0.11849352
32	0x3ddf8144	0.10913327
33	0x3db0fb54	0.08641687
34	0x3d30600a	0.04306034
35	0xbdb08727	-0.08619528
36	0xbd9b8988	-0.075945914
37	0x3d249cc3	0.040188562
38	0xbdee0b0d	-0.116232015
39	0xbe172f66	-0.14764175
40	0xbda53d03	-0.08068278
41	0x3d07c38a	0.033145465
42	0xbdaee617	-0.0853998
43	0xbd3cb0cf	-0.046067055
44	0xbd000c34	-0.031261638
45	0xbdd30a8a	-0.103047445
46	0xbcdd3fc9	-0.027007954
47	0xbd81a689	-0.06330592
48	0xbdb75603	-0.08951952
49	0x3dbc271d	0.09187148
50	0x3e166938	0.14688575
51	0xbd962e85	-0.07333092
52	0x3dc11033	0.09426918
53	0x3e7ce570	0.24696898
54	0xbd1a63a2	-0.037692674
55	0x3c7f16f0	0.015569434
56	0x3db258d1	0.08708347
57	0x3debf05a	0.11520453
58	0xbd1cf460	-0.03831899
59	0x3e1acf9b	0.15118258
60	0x3dad4eb0	0.08462274
61	0x3c30b3cf	0.010785057
62	0x3e0adb50	0.13560224
63	0xbe3545fc	-0.17702478
64	0xbe2664c7	-0.16249381
65	0xbc53b358	-0.012921177
66	0x3cdae8cf	0.02672234
67	0x3d684b40	0.05671239
68	0x3d83c45c	0.06433937
69	0x3cdbd483	0.026834732
70	0xbd3e676d	-0.046485353
71	0x3d07888d	0.03308921
72	0xbd8cb0c2	-0.068696514
73	0xbcf59976	-0.029980402
74	0xbab19ada	-0.0013550178
75	0x3c4bf7cf	0.012449219
76	0xbd1af459	-0.037830684
77	0x3d40b2c9	0.047045503
78	0xbe21620d	-0.1576006
79	0xbcf40f5e	-0.029792484
80	0xbde50c75	-0.111840166
81	0xbd27e570	-0.040990293
82	0x3c24907f	0.010044216
83	0x3e486635	0.19570239
84	0x3d95368a	0.07285793
85	0x3dcd315d	0.10019181
86	0x3dd8fb54	0.10594812
87	0x3da99386	0.08280091
88	0x3cea52f4	0.028604008
89	0x3e5a6fb4	0.21331674
90	0x3c55feae	0.013061209
91	0xbe039c5e	-0.12852618
92	0x3e71d2f0	0.23615623
93	0xbe30cd92	-0.17265919
94	0xbe310af9	-0.17289342
95	0xbe84544f	-0.25845572
96	0xbdbfa446	-0.093575045
97	0xbd921b3a	-0.07134099
98	0xbdc0de4e	-0.09417401
99	0x3de4e45a	0.11176367
100	0xbe289e18	-0.16466558
101	0x3ddbf312	0.10739721
102	0x3c84ced8	0.016211912
103	0xbd447d86	-0.04797127
104	0xbe07346a	-0.13203588
105	0x3cfe4808	0.031040207
106	0xbcb4a8ac	-0.022053085
107	0x3cea1b4d	0.028577471
108	0x3daabe99	0.08337135
109	0x3db81f8a	0.089903906
110	0x3ce7db20	0.02830273
111	0x3d1ba96a	0.038003363
112	0xbcba1c4b	-0.02271857
113	0x3df7ce83	0.12099936
114	0x3e6fc418	0.23414648
115	0xbce573b4	-0.028009273
116	0x3dacca8e	0.08437072
117	0x3e17adf2	0.14812449
118	0xbd46b528	-0.048512608
119	0xbe81fe0a	-0.2538913
120	0xbea4a0e7	-0.3215401
121	0x3d53eb2f	0.05173796
122	0xbdc4846f	-0.09595572
123	0xbdf6c837	-0.12049907
124	0xbe6338be	-0.22189614
125	0xbd2082f4	-0.039187387
126	0x3d201c5e	0.039089553
127	0x3dd26662	0.10273434
128	0xbc90f77e	-0.017696138
129	0x3d578f66	0.05262699
130	0x3d38b59e	0.04509508
131	0xbdaa09a5	-0.08302621
132	0xbd1585ec	-0.03650467
133	0x3d9e510f	0.077303044
134	0xbd361e7f	-0.044462677
135	0x3d90a02a	0.07061799
136	0xbd8db079	-0.06918425
137	0xbe696694	-0.22793037
138	0x3c8eb167	0.017418576
139	0x3e17970a	0.1480371
140	0x3daca601	0.084301
141	0xbe45a2f0	-0.19300437
142	0x3d5a750d	0.053334285
143	0x3c9bd6c8	0.019023314
144	0xbdbac1c7	-0.09118991
145	0xbdaf1e9f	-0.085507624
146	0xbd81e0a3	-0.06341674
147	0x3d83c1a1	0.06433416
148	0x3e5f6377	0.21815287
149	0x3cdfb1cd	0.027306462
150	0xbd3ca3e9	-0.046054754
151	0xbc799963	-0.015234324
152	0x3d89a0ba	0.06720109
153	0xbd04e7cb	-0.032447618
154	0x3d95957e	0.07303904
155	0x3dba10ec	0.09085259
156	0xbc8e0e50	-0.01734081
157	0x3c706dd7	0.014674625
158	0x3dbd6c8f	0.092492215
159	0x3d9af07d	0.07565401
160	0xbdb644e4	-0.088998586
161	0xbbd587cc	-0.0065164324
162	0x3cc976a3	0.024592703
163	0xbe409a32	-0.18808821
164	0xbdb78869	-0.08961565
165	0xbd3d9204	-0.04628183
166	0xbd93b75d	-0.07212708
167	0xbd9c76c2	-0.07639839
168	0xbd12b9ca	-0.035821714
169	0xbd4b364f	-0.04961234
170	0x3daea328	0.08527213
171	0x3d85c417	0.06531542
172	0x3d91014d	0.07080326
173	0xbca7c3b8	-0.020479068
174	0x3de1fc4a	0.110344484
175	0x3ca6fa05	0.02038289
176	0xbcb4e4c1	-0.022081735
177	0x3bc8d96e	0.0061294353
178	0xbe8a9a39	-0.27070788
179	0x3dc762e6	0.0973566
180	0x3e882e6f	0.26597926
181	0xbdee03a2	-0.11621787
182	0xbddfc2d9	-0.10925836
183	0x3e361306	0.17780694
184	0xbd7f0570	-0.062261045
185	0x3e5f0462	0.21779016
186	0x3d28a851	0.041176144
187	0x3ab8e034	0.0014104904
188	0xbd224e03	-0.03962518
189	0xbc93f742	-0.018062238
190	0xbc89e10b	-0.016830942
191	0xbc11482d	-0.008867306
192	0xbc1e9354	-0.00967868
193	0xbdd31843	-0.10307362
194	0x3c2fb641	0.010724605
195	0x3e7b66b9	0.24550904
196	0x3dd59228	0.10428268
197	0x3df2d82d	0.118576385
198	0x3ea02240	0.3127613
199	0x3e68875a	0.22707883
200	0x3de99c43	0.11406758
201	0x3d70c98a	0.058785953
202	0xbd466292	-0.048433848
203	0x3d2b779e	0.041862123
204	0x3dd3a776	0.10334675
205	0x3d56d8bf	0.0524528
206	0xbdad9790	-0.08476174
207	0x3cdb49e6	0.026768636
208	0x3e1b9217	0.15192448
209	0x3df6b1f9	0.12045664
210	0x3e589d52	0.21153763
211	0x3d90c532	0.07068862
212	0x3ebaa2ba	0.36452276
213	0x3c9097f7	0.017650587
214	0x3cc6216d	0.02418586
215	0x3de77782	0.11302091
216	0x3d8fc1b8	0.07019371
217	0xbdbc2321	-0.09186388
218	0xbdf31bd7	-0.118705444
219	0x3e4d350a	0.20039764
220	0x3dcd4f6c	0.10024914
221	0x3e047aab	0.12937419
222	0xbea90d4a	-0.3301795
223	0xbe363246	-0.17792615
224	0x3dd57aec	0.10423836
225	0x3e0351c4	0.1282416
226	0xbc668298	-0.014069222
227	0xbd99bfb2	-0.07507266
228	0x3e50e1c2	0.2039862
229	0x3e4cf337	0.20014654
230	0xbcdf7265	-0.027276227
231	0xbca470f0	-0.020073384
232	0xbcbd5ef9	-0.023116576
233	0xbd3f2eb4	-0.0466754
234	0x3a9e7dab	0.0012091895
235	0xbdc7b02c	-0.09750399
236	0x3d8a31bf	0.067477696
237	0xbddf8d7b	-0.10915657
238	0x3ca58933	0.020207023
239	0x3d5e3e43	0.054258596
240	0x3de40ab2	0.111348525
241	0x3d89b58b	0.0672408
242	0x3da3bb10	0.07994664
243	0xb9b20288	-0.00033952692
244	0xbdc18400	-0.09449005
245	0xbbce55b7	-0.006296839
246	0xbde3144b	-0.11087855
247	0x3de5c931	0.11220015
248	0x3d68e9c7	0.056863572
249	0xbdbc5a46	-0.09196906
250	0x3da95f55	0.08270136
251	0xbc02d6b4	-0.0079857595
252	0xbdfe796c	-0.12425503
253	0x3da5db47	0.080984645
254	0xbc0ecfed	-0.008716566
255	0xbe56cc80	-0.20976448

conv2.conv3.0.bias f4 [16]
0	0xbc0c047d	-0.008545992
1	0x3d9e7a64	0.07738188
2	0xbd86ab70	-0.06575668
3	0xbd32cd78	-0.04365298
4	0xbd5bf32a	-0.053698696
5	0x3d8c240c	0.06842813
6	0x3d5c9c1a	0.053859808
7	0xbd9b1192	-0.07571711
8	0x3c59b45b	0.013287629
9	0xbd84de46	-0.06487708
10	0xbcad2c83	-0.021139389
11	0x3c711eca	0.014716813
12	0x3c8bb938	0.017056093
13	0xbd74fa1f	-0.059808847
14	0xbd599c69	-0.05312768
15	0xbd3c220d	-0.04593091

conv2.conv3.1.weight f4 [16]
0	0x3f8feab2	1.1243498
1	0x3f6d053a	0.925861
2	0x3f871f57	1.0556439
3	0x3f71c28c	0.9443748
4	0x3f809812	1.0046408
5	0x3f88b879	1.0681297
6	0x3f87ac8d	1.0599533
7	0x3f7ed142	0.9953805
8	0x3f74f7d1	0.9569064
9	0x3f637875	0.8885568
10	0x3f818dab	1.0121359
11	0x3f86a570	1.0519238
12	0x3f87283e	1.0559156
13	0x3f7dff7b	0.9921796
14	0x3f746967	0.9547333
15	0x3f6f41e1	0.934599

conv2.conv3.1.bias f4 [16]
0	0x3d43b2ca	0.04777793
1	0xbd28fc87	-0.041256454
2	0x3b897d08	0.004195813
3	0x3ce37343	0.027764922
4	0xbc8bfa0e	-0.017087009
5	0xbcc2cff7	-0.023780806
6	0x3d115ec3	0.035490762
7	0xbbda35ab	-0.0066592298
8	0x3d99f65f	0.07517695
9	0xbc9803ca	-0.018556494
10	0x3cb02f7e	0.021507021
11	0x3cb3cba7	0.021947695
12	0xbd71dc07	-0.059047725
13	0xbce44fba	-0.027870048
14	0x3cd1548c	0.02555301
15	0x3d3d0a0a	0.046152152

conv2.conv3.1.running_mean f4 [16]
0	0x3eb34000	0.35009766
1	0x3f9b6d4a	1.2142727
2	0xbf090b53	-0.53532904
3	0xbecf4b9c	-0.40487373
4	0xbf39a4f6	-0.72517335
5	0xbe9a4083	-0.30127344
6	0xbfcbeab0	-1.5930996
7	0xbfb468ee	-1.4094522
8	0x3ea88200	0.32911682
9	0xbf48bece	-0.78416145
10	0xbeb34a86	-0.35017794
11	0x3dabbdb0	0.083857894
12	0x3e7234bc	0.23652929
13	0x3efdf8d3	0.496039
14	0x3e5d0379	0.21583356
15	0x3f403ab6	0.75089586

conv2.conv3.1.running_var f4 [16]
0	0x3f8f70ed	1.1206337
1	0x3fcfd38d	1.6236435
2	0x3fcb2e0f	1.5873431
3	0x3fce17f9	1.6101066
4	0x3fc393c1	1.5279466
5	0x3fe66f12	1.8002646
6	0x3f87fe4e	1.0624483
7	0x4005da55	2.091451
8	0x402be956	2.6861167
9	0x3f80fd71	1.0077344
10	0x3f9d5e71	1.2294446
11	0x3ffc5fda	1.9716752
12	0x3ff697b2	1.9265044
13	0x3fe1b1b2	1.7632353
14	0x3f9fc252	1.2481177
15	0x3fb84301	1.4395448
