checkpoints/ifind1_sononet_8_6classes/042_net_6classes_emb.pth (torch_old, 671819 bytes, 90 tensors)

conv1.conv1.0.weight f4 [8, 1, 3, 3]
0	0xbe13b81c	-0.14425701
1	0xbeafbd9a	-0.34324342
2	0xbe7224e3	-0.23646884
3	0x3e9d552f	0.30729052
4	0x3f603936	0.87587297
5	0xbf74b7aa	-0.9559275
6	0x3e300d25	0.17192514
7	0xbbdecf98	-0.0067996494
8	0xbdcc0802	-0.09962465
9	0xbf6d0567	-0.9258637
10	0x3e828bd3	0.25497302
11	0xbf7483f1	-0.95513827
12	0x3ebf029d	0.3730668
13	0xbd79a973	-0.060952615
14	0xbea9b67e	-0.33147043
15	0x3f913994	1.1345696
16	0x3c87e8f1	0.016590567
17	0x3f467efc	0.7753751
18	0x3e78c3ed	0.2429349
19	0xbe43da62	-0.19126275
20	0xbb681fd6	-0.0035419366
21	0xbf77c15f	-0.96779436
22	0x3f023ad8	0.5087104
23	0x3c3748f6	0.011186829
24	0xbeae172f	-0.34002063
25	0xbeb36305	-0.35036483
26	0xbf5ad03c	-0.8547399
27	0xbf89801e	-1.0742223
28	0x3e45419c	0.19263309
29	0xbeb32235	-0.34987035
30	0xbd006684	-0.031347767
31	0x3df6edd2	0.120570794
32	0x3e2f95ff	0.17147063
33	0xbe8b556b	-0.27213606
34	0x3f6c557a	0.92317927
35	0xbdf2f4a0	-0.11863065
36	0x3e43534c	0.19074744
37	0x3eadae16	0.3392188
38	0xbe2e0dee	-0.16997501
39	0x3eea554c	0.457682
40	0xbf00e8b5	-0.5035508
41	0xbed246c0	-0.41069603
42	0xbe587dc3	-0.21141724
43	0xbdbc4277	-0.09192365
44	0x3d7f445c	0.062321052
45	0x3e8726f2	0.263969
46	0x3eace42a	0.33767825
47	0x3f1c35bf	0.6101951
48	0x3f6a12dc	0.9143503
49	0xbeb9b3ea	-0.36270076
50	0x3e359a5d	0.17734666
51	0xbeb29a56	-0.34883374
52	0xbe8fe62c	-0.28105295
53	0x3d3c6fef	0.046005186
54	0x3e11bd4a	0.14232364
55	0x3cf976dc	0.030452184
56	0xbdf010ae	-0.117219314
57	0xbf66cb03	-0.9015352
58	0x3ebeccbb	0.37265572
59	0x3e9882da	0.29787332
60	0xbf095ee6	-0.5366043
61	0x3db4708a	0.088105276
62	0x3ec671b5	0.38758627
63	0xbf43bad0	-0.7645693
64	0x3ecddd7f	0.4020805
65	0x3f447b56	0.76750696
66	0xbe834fdb	-0.25646862
67	0x3f0fa792	0.56115067
68	0x3cf5e635	0.030016998
69	0xbc97f5b6	-0.018549781
70	0xbe8cbd79	-0.27488306
71	0xbe8990bc	-0.26868236

conv1.conv1.0.bias f4 [8]
0	0xbc8f454b	-0.017489096
1	0xbe7c271a	-0.24624291
2	0xbe4b2381	-0.19837762
3	0x3dbd4668	0.092419446
4	0xbe8889e5	-0.26667705
5	0x3e9d79d0	0.30756998
6	0x3cbeddd9	0.023299145
7	0x3e12224b	0.14270894

conv1.conv1.1.weight f4 [8]
0	0x3f859a99	1.0437804
1	0x3f7737eb	0.965697
2	0x3f6ab33c	0.9167974
3	0x3f8bc61a	1.0919831
4	0x3f7b76f6	0.98228395
5	0x3f76b27d	0.963661
6	0x3f870dc0	1.0551071
7	0x3f8ce839	1.1008369

conv1.conv1.1.bias f4 [8]
0	0xbca87725	-0.020564625
1	0x3e40ad78	0.18816173
2	0xbe1a2d3a	-0.15056315
3	0xbd0440e4	-0.032288447
4	0x3c94ea73	0.0181782
5	0xbd9591b2	-0.0730318
6	0x3e24aab9	0.1608075
7	0xbb3509c1	-0.0027624222

conv1.conv1.1.running_mean f4 [8]
0	0xbc9e33f0	-0.019311875
1	0xbe7c71c4	-0.24652773
2	0xbe4e678d	-0.20156689
3	0x3db7146d	0.08939443
4	0xbe8891aa	-0.26673633
5	0x3e9f0730	0.3106017
6	0x3cb5b043	0.022178775
7	0x3e116c99	0.14201583

conv1.conv1.1.running_var f4 [8]
0	0x3e815eff	0.2526779
1	0x3f20bb4a	0.6278578
2	0x4069af9d	3.6513436
3	0x3eab22b6	0.3342492
4	0x3e1ebf5d	0.15502687
5	0x3ff1d5e2	1.8893397
6	0x3e00db31	0.12583615
7	0x3e0c0071	0.13672043

conv1.conv2.0.weight f4 [8, 8, 3, 3]
0	0xbdbb1b06	-0.09136014
1	0x3dc3f7a6	0.095687196
2	0xbe6d7893	-0.23190527
3	0xbcdcbec7	-0.026946438
4	0x3ec7528b	0.38930163
5	0x3ca95111	0.020668538
6	0xbea4ab21	-0.3216181
7	0xbdf9e72a	-0.12202294
8	0xbe4ac159	-0.19800319
9	0x3eb83627	0.35978815
10	0xbc8ad259	-0.016946005
11	0xbe6700ad	-0.22558852
12	0x3e73ff60	0.23827887
13	0x3ebf58c6	0.37372416
14	0x3eb8b85a	0.3607815
15	0xbd2f8b19	-0.042857263
16	0x3c63bb16	0.013899585
17	0xbc621792	-0.013799565
18	0x3cffb93e	0.03121626
19	0xbca578a4	-0.020199127
20	0xbd6340a9	-0.055481587
21	0x3d95d8cf	0.073167436
22	0xbc9e3675	-0.019313077
23	0x3d8a2db1	0.06746996
24	0x39db87ec	0.00041872205
25	0x3e73506a	0.23761144
26	0x3c7b69d5	0.015345057
27	0xbe609509	-0.21931852
28	0x3cdfac66	0.027303886
29	0xbdfa366f	-0.12217414
30	0xbe55e1b2	-0.20886877
31	0x3dfdee6f	0.12398993
32	0x3e5ca33c	0.21546644
33	0x3da9a7e4	0.08283976
34	0x3deb0bd5	0.11476866
35	0xbe4e1022	-0.20123342
36	0x3e2f173b	0.17098705
37	0xbdfe7247	-0.124241404
38	0x3e8c33e1	0.2738333
39	0x3e5f9b41	0.21836568
40	0xbecc84c0	-0.3994503
41	0x3c69df7b	0.014274473
42	0x3dd6c9ab	0.10487684
43	0xbdfab007	-0.12240606
44	0xbea06eb8	-0.31334472
45	0xbe0455c9	-0.1292335
46	0xbc438c26	-0.011935269
47	0xbe875f2b	-0.26439795
48	0x3ccf5c25	0.025312493
49	0x3c1796ed	0.009252292
50	0x3e58a833	0.21157913
51	0x3ea465d6	0.32108945
52	0x3ebd5697	0.36980125
53	0xbe02ba00	-0.12766266
54	0xbebc5f2c	-0.3679136
55	0xbc44eab2	-0.012018846
56	0xbe5d0644	-0.21584421
57	0x3da7b344	0.08188489
58	0x3dcf5ad6	0.101247475
59	0x3e2c1ad1	0.16807105
60	0x3df8104f	0.121124856
61	0x3e0ee00f	0.13952659
62	0xbd3e1a68	-0.0464119
63	0xbe36c1fb	-0.17847435
64	0xbe205f6c	-0.156614
65	0xbda15064	-0.078766614
66	0xbc3e80f3	-0.011627424
67	0xbdb0f7e7	-0.086410336
68	0xbe441df6	-0.19152054
69	0x3e557798	0.20846403
70	0x3e065edb	0.13122122
71	0xbd05cc75	-0.03266569
72	0xbd861146	-0.065462634
73	0x3dc69da0	0.09698033
74	0xbd45d162	-0.048295386
75	0x3a8510f8	0.0010152152
76	0x3eaa2d7a	0.3323782
77	0x3e034ce5	0.12822302
78	0x3eb21f2d	0.3478941
79	0xbe801214	-0.25013793
80	0xbe887593	-0.26652202
81	0xbe2c215f	-0.16809605
82	0xbdc0499f	-0.09389042
83	0x3e13ef45	0.14446743
84	0x3be29f74	0.006915981
85	0xbd531353	-0.0515321
86	0x3e31e63c	0.17372984
87	0xbdd5268d	-0.104077436
88	0x3e37e7a8	0.17959464
89	0xbe3084f9	-0.17238225
90	0xbb0ad192	-0.0021182043
91	0xbe3e8e72	-0.18609026
92	0xbcfc2294	-0.030778207
93	0xbe8cad6c	-0.2747606
94	0x3e29fb4f	0.16599773
95	0x3d8c8c3b	0.06862684
96	0xbb3c0041	-0.0028686675
97	0x3e4da787	0.20083438
98	0xbe05af88	-0.13055241
99	0xbe500e14	-0.2031787
100	0x3e2a5826	0.16635188
101	0xbdf1e23f	-0.11810731
102	0x3e1a138e	0.15046522
103	0xbe511fdf	-0.20422314
104	0x3c973bf0	0.018461198
105	0x3e7a3f51	0.24438216
106	0xbd1c3601	-0.03813744
107	0xbc1502f3	-0.009094941
108	0x3c592dd0	0.013255551
109	0x3d72cf92	0.059279986
110	0xbca1ebfc	-0.019765846
111	0xbe39c740	-0.18142414
112	0xbe7e40ec	-0.24829453
113	0x3cc001d5	0.023438374
114	0xbdcde187	-0.100527816
115	0x3d08f4b4	0.033436492
116	0x3ea8dfac	0.32983148
117	0x3c9092ef	0.017648188
118	0xbe4a0e7d	-0.1973209
119	0x3e4bf1d9	0.19916476
120	0x3e478982	0.19486049
121	0x3dc3ba3f	0.09557008
122	0xbe92196f	-0.2853503
123	0xbd887d8a	-0.0666457
124	0xbe6af5d8	-0.22945344
125	0x3df6b38a	0.12045963
126	0x3e848321	0.25881293
127	0xbdaa840b	-0.083259664
128	0xbe83aa61	-0.25715926
129	0x3dae9cf6	0.08526032
130	0xbe705ed0	-0.23473668
131	0xbd4429a9	-0.047891293
132	0xbd9b8e40	-0.075954914
133	0xbea86dbe	-0.32896227
134	0x3ef6f305	0.48232284
135	0xbe012d77	-0.12615
136	0x3d2d6371	0.042331163
137	0xbdb8ab7c	-0.09017083
138	0x3d7aa965	0.061196703
139	0xbe11e54f	-0.1424763
140	0x3cc38c0e	0.023870494
141	0x3d48388a	0.048882045
142	0xbe1162c1	-0.14197828
143	0x3e4367b6	0.19082531
144	0x3e658550	0.22414136
145	0xbe28ce6d	-0.16484995
146	0x3e71c973	0.23612003
147	0xbd5393bc	-0.051654562
148	0xbe06a8ba	-0.13150302
149	0xbdc069f4	-0.09395209
150	0xbd33471e	-0.043768995
151	0xbe042d4c	-0.12907904
152	0xbe45890a	-0.19290558
153	0x3e67456a	0.22585073
154	0x3db9daca	0.09074934
155	0xbd51367d	-0.051077355
156	0x3de02c45	0.10945944
157	0x3e5f158b	0.21785562
158	0x3e17776d	0.14791651
159	0x3e81e9b8	0.25373626
160	0x3e8158b8	0.25263
161	0xbe78bb55	-0.24290211
162	0xbe31f808	-0.17379773
163	0xbe7c423f	-0.24634646
164	0xbddafcfb	-0.106927834
165	0x3ca9c656	0.020724457
166	0x3da3cbb4	0.07997838
167	0xbd9bd892	-0.07609667
168	0x3c6c5064	0.0144234635
169	0xbe37fa99	-0.17966689
170	0xbe03588b	-0.12826745
171	0xbe2a6f5d	-0.16644044
172	0xbe11de8c	-0.14245051
173	0xbe4e60eb	-0.20154159
174	0xbe77f7e9	-0.24215664
175	0xbe721fc4	-0.2364493
176	0x394cf031	0.00019544434
177	0xbc8358a5	-0.01603348
178	0xbe6e8626	-0.23293361
179	0xbdf9c569	-0.12195856
180	0x3db9ded0	0.09075701
181	0xbd352f1b	-0.044234376
182	0x39741aa7	0.00023279582
183	0xbc971d69	-0.018446641
184	0x3e27a42b	0.16371219
185	0xbe9f9a4a	-0.311724
186	0x3d8dfbdb	0.06932803
187	0xbe677600	-0.22603607
188	0x3dd4ab32	0.103842154
189	0xbef6e2ab	-0.4821981
190	0xbe225972	-0.15854433
191	0x3e091d1a	0.13390008
192	0xbd80d294	-0.062901646
193	0x3dafee2a	0.08590348
194	0xbe3d779e	-0.18502662
195	0xbe11d56e	-0.14241573
196	0x3bc3d55e	0.005976363
197	0x3e91b3d5	0.28457513
198	0x3dfcf7bc	0.12351939
199	0xbdfff01e	-0.124969706
200	0x3b8e94d2	0.004351237
201	0xbd15bc3a	-0.03655646
202	0x3dcde0e1	0.10052658
203	0x3d89c017	0.06726091
204	0x3ccd4103	0.025055414
205	0x3db72678	0.08942884
206	0xbe6e3eca	-0.2326614
207	0xbf0a7294	-0.5408108
208	0xbdd9d9d8	-0.106372535
209	0xbce363e8	-0.0277576
210	0xbe594c3b	-0.21220486
211	0x3e98d605	0.29850784
212	0x3e43a9bb	0.19107716
213	0xbd8f3ea9	-0.06994373
214	0x3e82ebd4	0.25570548
215	0x3e765287	0.24054919
216	0x3e83d336	0.2574708
217	0xbd3f0ba7	-0.046641972
218	0xbdb5e051	-0.088806756
219	0x3c1091b1	0.008823798
220	0xbe71bad7	-0.2360643
221	0xbd4b4c68	-0.049633414
222	0xbe8b1dcf	-0.2717118
223	0xbde179c6	-0.110095546
224	0xbe2261b0	-0.15857577
225	0x3e2e7f58	0.17040765
226	0x3c0cd1a4	0.008594904
227	0xbe907b03	-0.2821885
228	0x3d85fbf0	0.06542194
229	0x3c8665d4	0.016405977
230	0xbeb19e47	-0.3469107
231	0xbca8ebd9	-0.020620273
232	0xbdfe98fa	-0.12431522
233	0x3eb5f3cc	0.35537565
234	0x3d05a1c6	0.032624982
235	0x3d04af80	0.032393932
236	0x3b80fcb4	0.0039363746
237	0x3e82e578	0.25565696
238	0xbc9c1c11	-0.019056352
239	0xbf06cb0f	-0.5265359
240	0xbddaacf7	-0.10677522
241	0xbe032ae3	-0.12809329
242	0x3e8ea821	0.27862647
243	0xbe83cfc3	-0.25744447
244	0xbc9caea0	-0.019126236
245	0x3df139a5	0.11778573
246	0x3de380f7	0.111085825
247	0xbdaed57f	-0.08536815
248	0x3c619272	0.013767825
249	0xbe7cc544	-0.24684626
250	0xbbf70573	-0.0075384914
251	0xbd301ea4	-0.04299797
252	0xbdc6ded5	-0.097104706
253	0xbe63d358	-0.2224859
254	0x3dafea0d	0.085895635
255	0x3e4f9acc	0.20273894

conv1.conv2.0.bias f4 [8]
0	0xbdd42596	-0.103587314
1	0x3d47a1fc	0.048738465
2	0xba3d4b8b	-0.00072210346
3	0x3cd9deaf	0.026595442
4	0x3cac0688	0.020999208
5	0xbddf5bd3	-0.10906186
6	0xbb9b1fba	-0.0047340067
7	0xbda71ccf	-0.08159792

conv1.conv2.1.weight f4 [8]
0	0x3f80dd62	1.0067561
1	0x3f92d7e0	1.147213
2	0x3f66fdfd	0.90231305
3	0x3f8d3dc0	1.103447
4	0x3f7f185e	0.99646556
5	0x3f83f9f8	1.031066
6	0x3f7ef40c	0.99591136
7	0x3f6cf690	0.92563725

conv1.conv2.1.bias f4 [8]
0	0x3df15ffc	0.11785886
1	0x3dd41ce8	0.10357076
2	0xbda21717	-0.0791456
3	0xbb922493	-0.0044599264
4	0x3dfed66c	0.124432415
5	0xbd1330b0	-0.035935104
6	0xbdd763e2	-0.10517098
7	0xbbd541a6	-0.00650807

conv1.conv2.1.running_mean f4 [8]
0	0x3d4155e7	0.047201063
1	0xbe2e138e	-0.16999647
2	0xbf3ec20d	-0.7451485
3	0xbf17f7ed	-0.5936268
4	0x3ed83850	0.42230463
5	0xbf8ed935	-1.1160036
6	0xbde2c851	-0.110733636
7	0x3faf718b	1.3706526

conv1.conv2.1.running_var f4 [8]
0	0x3fb53682	1.415726
1	0x3e024924	0.12723213
2	0x3fc73b0e	1.5564897
3	0x3f86864a	1.0509732
4	0x3f7eee29	0.99582154
5	0x401b77a8	2.4291782
6	0x3f8676db	1.0505022
7	0x3fa4468b	1.2834028

conv1.conv3.0.weight f4 [8, 8, 3, 3]
0	0x3e80bee9	0.25145653
1	0x3e1abcf5	0.15111144
2	0x3e372081	0.17883493
3	0xbebb3abd	-0.3656825
4	0xbe977d03	-0.29587564
5	0x3df1b8c6	0.11802821
6	0x3dde9eee	0.10870157
7	0xbd4cf6e3	-0.050040137
8	0xbe00c24c	-0.12574118
9	0xbd9a4b48	-0.0753389
10	0x3d28ad5d	0.041180957
11	0x3dc2541b	0.09488698
12	0x3d37e6bc	0.04489778
13	0x3dc32dd1	0.09530223
14	0xbd4b19e6	-0.049585246
15	0xbccf1815	-0.025280038
16	0xbd10da67	-0.035364535
17	0xbd7c98bd	-0.0616691
18	0x3da71a30	0.08159292
19	0x3e1ffde3	0.15624194
20	0xbdb4eee7	-0.088346295
21	0xbc01fa2d	-0.007933182
22	0xbe852b65	-0.2600967
23	0xbe0fa1a8	-0.1402651
24	0xbe5f0f29	-0.21783127
25	0xbe711b97	-0.23545681
26	0x3cfbc4d0	0.030733496
27	0xbe2e93fb	-0.17048638
28	0xbe4ca437	-0.19984518
29	0x3e055bc4	0.13023287
30	0xbd475959	-0.048669193
31	0xbdd557b8	-0.10417122
32	0xbdd7b334	-0.10532227
33	0x3e15d807	0.14633189
34	0xbe977c92	-0.29587227
35	0x3dc4a23c	0.09601256
36	0xbdc646a9	-0.09681446
37	0xbde3b7fc	-0.111190766
38	0xbecbe650	-0.39824152
39	0xbe10893a	-0.14114848
40	0xbeac792f	-0.33686206
41	0xbdff0732	-0.12452544
42	0x3e919445	0.28433433
43	0x3e5323ad	0.20619078
44	0x3e224c8f	0.15849517
45	0xbe30113b	-0.17194073
46	0x3d510ab6	0.051035605
47	0xbe7f084d	-0.2490551
48	0xbe93a4b4	-0.28836596
49	0xbe565a42	-0.20932868
50	0xbd97ef4a	-0.07418688
51	0x3eb11367	0.34585115
52	0xbe5c3cfd	-0.2150764
53	0x3e55a48c	0.20863551
54	0x3ea34e9d	0.31895915
55	0x3c403465	0.011731242
56	0xbe5bc138	-0.21460426
57	0xbeb26f97	-0.3485076
58	0xbd8e92a2	-0.06961562
59	0xbcf1dc3a	-0.029523958
60	0xbe40b548	-0.18819153
61	0xbdba1109	-0.090852804
62	0x3e1a4b0d	0.15067692
63	0x3d709503	0.05873586
64	0xbe509a71	-0.20371415
65	0x3c97a771	0.01851246
66	0x3dd7b816	0.105331585
67	0xbe351f38	-0.1768769
68	0xbea9b8fd	-0.33148947
69	0xbd50af81	-0.050948624
70	0x3db102ae	0.08643089
71	0xb950cfd1	-0.00019913843
72	0x3e2fd603	0.17171483
73	0xbd4105ea	-0.04712478
74	0x3c2b48ef	0.0104544
75	0xbd0d25c7	-0.034459855
76	0xbdf4916e	-0.11941801
77	0xbdf35cef	-0.1188296
78	0x3d52a359	0.05142531
79	0x3c55d18f	0.013050451
80	0xbe1e04bc	-0.15431494
81	0xbe65a100	-0.22424698
82	0xbd8a0f72	-0.06741227
83	0x3e27c1c1	0.16382505
84	0x3dd16f6e	0.10226332
85	0xbdbe7823	-0.09300258
86	0xbdcb4724	-0.09925678
87	0x3e92dbcf	0.28683326
88	0xbeab6a8f	-0.33479735
89	0x3d1ec653	0.038763355
90	0xbdd7fa26	-0.10545759
91	0xbde7a62e	-0.11310993
92	0xbec22316	-0.37917393
93	0xbecd4118	-0.40088725
94	0xbe45e407	-0.19325267
95	0xbdda3f4e	-0.10656606
96	0x3ce3a913	0.027790582
97	0xbe82decf	-0.25560614
98	0xbe6c7a32	-0.23093489
99	0x3ea5f809	0.32415798
100	0xbd939b42	-0.072073475
101	0xbd8da66f	-0.0691651
102	0x3e8d7b2d	0.27633038
103	0xbe561916	-0.20908007
104	0x3d3faf07	0.04679778
105	0x3c5f288b	0.013620506
106	0xbdf37ec7	-0.11889415
107	0x3e14d34a	0.14533725
108	0xbd936754	-0.07197443
109	0xbd6ad20a	-0.057329215
110	0x3e3337c3	0.1750174
111	0xbe9a55bc	-0.30143535
112	0x3e2cad59	0.16863002
113	0x3c12978e	0.008947266
114	0xbd18babe	-0.037287466
115	0xbe66bbe3	-0.2253261
116	0xbc79b40e	-0.015240682
117	0xbc795e99	-0.015220308
118	0x3dc78eae	0.09744011
119	0xbc225f79	-0.009910458
120	0x3dc6ef3c	0.09713599
121	0x3e478f3f	0.19488238
122	0x3e28e5fd	0.16493984
123	0x3d23a8be	0.039955847
124	0xbe46c5a7	-0.19411336
125	0xbd540cc3	-0.051769983
126	0xbbcc50fd	-0.0062352405
127	0x3ea785f9	0.327194
128	0x3e4cecd0	0.20012212
129	0xbd067ffd	-0.032836903
130	0x3e31cb46	0.17362699
131	0xbda66699	-0.08125038
132	0x3e900f39	0.28136614
133	0x3d67d72c	0.05660169
134	0x3c8ff278	0.017571673
135	0xbe0ff551	-0.14058425
136	0x3ee02128	0.43775296
137	0xbe49c53c	-0.19704145
138	0xbe9aa15f	-0.3020124
139	0x3e1eec6c	0.15519875
140	0x3de9e84c	0.1142126
141	0x3ea5ada7	0.3235905
142	0x3ed3bddc	0.4135579
143	0xbe1f0750	-0.15530133
144	0xbd3300b3	-0.04370184
145	0x3e5ca5c4	0.2154761
146	0xbe7b8252	-0.24561432
147	0x3ecb718f	0.39735076
148	0x3e900540	0.28129005
149	0xbd91d8c6	-0.071214244
150	0x3e080a32	0.13285139
151	0x3e008b9e	0.1255326
152	0x3c93141c	0.017953925
153	0xbdb3ceff	-0.08779716
154	0xbe50fc3a	-0.20408717
155	0x3d210e22	0.03932012
156	0x3e484e20	0.19561052
157	0x3d2f0e0d	0.04273801
158	0x3ab16ea7	0.0013537005
159	0x3e7f27b9	0.24917497
160	0xbcd29e95	-0.025710383
161	0xbd8e7a44	-0.06956914
162	0x3e9d4f35	0.30724493
163	0x3bfe0297	0.0077517736
164	0x3e27851e	0.16359374
165	0x3dd9eb24	0.10640553
166	0x3e052c5a	0.130052
167	0x3eb3cd7b	0.35117707
168	0x3bbfc57f	0.005852401
169	0x3d961f0a	0.07330139
170	0x3e902f2d	0.28160992
171	0xb9f7763c	-0.00047199603
172	0x3e2c6f05	0.16839226
173	0xbdb1dcb9	-0.08684678
174	0x3d9981c8	0.07495457
175	0x3cf8745a	0.030328918
176	0xbc50f55c	-0.012753811
177	0x3e28e6f2	0.16494349
178	0xbce119c4	-0.027478106
179	0xbd6a1973	-0.057153177
180	0xbc824316	-0.01590113
181	0xbe8a1e48	-0.26976228
182	0x3d1d49b0	0.038400352
183	0x3e25bbf5	0.16184981
184	0xbe99ef0c	-0.3006519
185	0xbeafdb1e	-0.3434686
186	0xbcb14dcc	-0.021643542
187	0x3e8ab860	0.27093792
188	0x3df83ffa	0.121215776
189	0xbe7000de	-0.23437831
190	0xbe5569d5	-0.20841153
191	0xbd854575	-0.065073885
192	0xbe2a3cdd	-0.1662478
193	0x3e2b44ed	0.16725512
194	0xbe2a7163	-0.16644816
195	0xbe088c6f	-0.13334821
196	0xbd00829d	-0.031374563
197	0xbe35b725	-0.17745645
198	0xbd0aeeeb	-0.033919256
199	0xbd79c12e	-0.060975246
200	0xbc09ca14	-0.008409996
201	0x3e8e7106	0.27820605
202	0x3e7212a3	0.23639922
203	0x3e082f94	0.132994
204	0x3e23005e	0.15918109
205	0xbd4a3e72	-0.04937596
206	0xbdf0cba2	-0.1175759
207	0xbd403f32	-0.046935268
208	0xbe336f3f	-0.17522906
209	0x3cbfbf2a	0.023406584
210	0x3dd96c0c	0.106163114
211	0xbe1b2612	-0.15151241
212	0xbd464f40	-0.048415422
213	0x3e3c991d	0.18417783
214	0xbde1d4dd	-0.110269286
215	0x3ea3555c	0.31901062
216	0xbe5e2f5c	-0.21697754
217	0x3c8e59e0	0.01737684
218	0xbd81387b	-0.06309601
219	0xbd0d11ee	-0.034440927
220	0xbeb37803	-0.350525
221	0xbe17a830	-0.14810252
222	0xbe86e9b0	-0.26350164
223	0xbe8cdc2b	-0.27511725
224	0x3e117d64	0.14207989
225	0x3e0cc08e	0.13745329
226	0xbf048091	-0.51758677
227	0x3eb4d267	0.35316774
228	0x3dc843de	0.0977857
229	0xbdec74f3	-0.11545744
230	0x3d2645d5	0.04059394
231	0xbeb2f940	-0.34955788
232	0x3e65332e	0.22382805
233	0x3e34fc54	0.1767438
234	0xbe063019	-0.13104285
235	0x3ca82b28	0.020528391
236	0xbd8872d1	-0.066625245
237	0xbd893852	-0.06700195
238	0x3baf397f	0.0053474302
239	0x3eacba7c	0.33736026
240	0x3e84e4cc	0.25955808
241	0xbe7427e6	-0.23843345
242	0xbe929214	-0.28627074
243	0xbea7d54e	-0.32779926
244	0x3f20cdbb	0.6281392
245	0x3e3e3077	0.18573175
246	0x3c5c78fc	0.013456579
247	0x3e946ce3	0.28989324
248	0x3e07d43e	0.13264558
249	0x3e66354e	0.22481272
250	0x3e6a7687	0.22896777
251	0xbdd9680c	-0.106155485
252	0xbe9e0810	-0.30865526
253	0x3c3a8c7a	0.011386031
254	0x3db9787c	0.09056184
255	0x3dd185b8	0.10230583

conv1.conv3.0.bias f4 [8]
0	0xbcd76781	-0.026294472
1	0xbc6b1aac	-0.014349621
2	0xbd9a6b6e	-0.07540022
3	0x3be8eb4c	0.0071081277
4	0xbd94ceb2	-0.072659865
5	0xbdc14374	-0.09436694
6	0x3dd90a4d	0.10597668
7	0xbb200b77	-0.0024420896

conv1.conv3.1.weight f4 [8]
0	0x3f91d6a9	1.1393634
1	0x3f860f2f	1.0473384
2	0x3f861a11	1.0476705
3	0x3f81ea0b	1.0149549
4	0x3f67f688	0.9061055
5	0x3f7f9580	0.99837494
6	0x3f7f0731	0.9962035
7	0x3f6106e9	0.8790117

conv1.conv3.1.bias f4 [8]
0	0x3db91c95	0.09038655
1	0x3dcbf263	0.09958341
2	0x3e678350	0.22608685
3	0x3e328b42	0.17435935
4	0x3d0a2fe9	0.033737097
5	0x3dc1c066	0.09460525
6	0x3cdccb48	0.0269524
7	0x3e3476cb	0.17623441

conv1.conv3.1.running_mean f4 [8]
0	0xbf9c2f1e	-1.2201879
1	0xbe07469c	-0.13210529
2	0x3f130069	0.574225
3	0xbdfedcd6	-0.12444465
4	0xbf1e3829	-0.61804444
5	0xbf9859f9	-1.1902457
6	0x3e98bc66	0.29831237
7	0x3e175117	0.14777027

conv1.conv3.1.running_var f4 [8]
0	0x3f86d74c	1.0534453
1	0x3fac39d7	1.3455151
2	0x3ff5ba52	1.9197485
3	0x3f8a0b5f	1.078472
4	0x3fda9d6e	1.7079294
5	0x400f6943	2.2407997
6	0x3f367d67	0.712851
7	0x4026cc6e	2.6062274

conv2.conv1.0.weight f4 [16, 8, 3, 3]
0	0xbc0074ff	-0.007840394
1	0x3d3e610a	0.046479262
2	0xbe382259	-0.17981853
3	0xbe8f197a	-0.27949125
4	0x3d85af78	0.06527609
5	0x3ed3b4bb	0.41348824
6	0x3e916d79	0.28403834
7	0xbd7b15a1	-0.061299924
8	0x3df6e506	0.120554015
9	0x3d327ae1	0.043574218
10	0x3c48fe24	0.012267623
11	0x3d0adbcf	0.033901032
12	0xbe37cd2f	-0.17949365
13	0xbd6410f7	-0.05568024
14	0xbd97957f	-0.07401561
15	0x3e1aa0d0	0.15100408
16	0x3e5752b7	0.21027647
17	0xbe035266	-0.12824401
18	0xbc79ade3	-0.015239212
19	0xbeb27b81	-0.3485985
20	0x3e2c9337	0.16853033
21	0x3de347cb	0.11097678
22	0x3ed99098	0.4249313
23	0x3e308670	0.17238784
24	0x3d5ae882	0.053444393
25	0x3df89870	0.1213845
26	0xbe1f0161	-0.1552787
27	0x3cd722c3	0.026261693
28	0x3c5b3590	0.0133794695
29	0x3bf93710	0.007605441
30	0x3e914bc5	0.2837812
31	0xbe14d6ff	-0.1453514
32	0xbec6dafd	-0.3883895
33	0xbe0ab116	-0.13544115
34	0xbd7892e7	-0.060686972
35	0xbcc05d46	-0.023481976
36	0x3d0b5b02	0.03402234
37	0xbdda1959	-0.10649366
38	0xbc998f85	-0.018745193
39	0x3e8047a6	0.25054663
40	0xbdbbbbd8	-0.09166688
41	0x3ad06975	0.0015900569
42	0xbe48db7f	-0.19614981
43	0xbd812c58	-0.06307286
44	0xbd6bf217	-0.05760392
45	0x3dabdd83	0.083918594
46	0xbd98edc9	-0.07467229
47	0x3e4dc3de	0.20094249
48	0xbe27a09c	-0.16369861
49	0xbda5f40d	-0.081031896
50	0xbd157f90	-0.036498606
51	0xbe618495	-0.22023232
52	0xbdf2ec2a	-0.11861451
53	0xbe3daf0f	-0.18523811
54	0xbe18822d	-0.14893408
55	0x3d1b4ff9	0.037918065
56	0x3e1c0175	0.15234931
57	0xbd570014	-0.05249031
58	0x3d3f2e73	0.046675157
59	0x3dcb1fc0	0.09918165
60	0xbe27a334	-0.16370851
61	0xbe6f7503	-0.2338448
62	0xbd112a43	-0.035440695
63	0x3d8dc0c0	0.0692153
64	0xbe36a67a	-0.17836943
65	0x3d5fd264	0.054644004
66	0xbdadb90a	-0.08482559
67	0x3e5d1034	0.21588212
68	0x3d271205	0.04078867
69	0xbdeb6ac7	-0.114949755
70	0x3d72eac8	0.059305936
71	0x3ea93745	0.3304998
72	0xbe157010	-0.1459353
73	0x3e1555ab	0.14583461
74	0xbe8c8b63	-0.27450094
75	0xbdc5752a	-0.09641488
76	0xbe04c029	-0.12963928
77	0xbe2bbc23	-0.16770987
78	0x3e1be3b0	0.15223575
79	0xbe125ba2	-0.14292768
80	0x3e937158	0.28797412
81	0x3e9ae76d	0.3025469
82	0x3e87024d	0.26368943
83	0x3dd3051e	0.103037104
84	0x3e4110bb	0.18854038
85	0x3e6a3b08	0.22874081
86	0xbdfa6e56	-0.12228076
87	0x3a4fb7f6	0.00079238357
88	0x3e4be431	0.19911267
89	0x3e0dcd39	0.13847817
90	0xbe2396c7	-0.15975486
91	0xbd277c8c	-0.04089026
92	0xbdf6a467	-0.12043076
93	0x3d3520d1	0.04422075
94	0xbe2a2a33	-0.1661766
95	0xbe993d81	-0.29929736
96	0xbed35704	-0.41277325
97	0x3daeacc2	0.08529045
98	0xbd1942c9	-0.037417207
99	0x3d94d9d3	0.07268109
100	0xbdc9f669	-0.09861452
101	0x3e48d4a2	0.19612363
102	0x3eae5837	0.34051678
103	0xbe7b9e2a	-0.24572054
104	0x3dc881c5	0.097903766
105	0x3e136e64	0.1439758
106	0xbe45afea	-0.19305387
107	0x3e1a9858	0.15097177
108	0xbd1ba6fc	-0.038001046
109	0xbd3b985f	-0.04579961
110	0xbe6b774f	-0.22994731
111	0x3c4b870b	0.0124223335
112	0xbda611e8	-0.08108884
113	0xbe4b4dd1	-0.19853903
114	0xbe08af89	-0.13348211
115	0x3d6fc1f4	0.058534577
116	0xbe5d08dd	-0.21585412
117	0xbdff4427	-0.12464171
118	0x3da678a6	0.081284806
119	0x3db151e6	0.08658199
120	0xbbd6d75f	-0.006556436
121	0x3daa5de5	0.0831869
122	0xbe8ce3ea	-0.27517635
123	0x3e5f01a1	0.21777965
124	0xbdb97634	-0.090557486
125	0x3e60d0c2	0.21954635
126	0x3b5dcbc1	0.003384337
127	0x3e9afb51	0.30269864
128	0xbdb46bf6	-0.088096544
129	0x3e32ff9d	0.17480321
130	0x3dcc84e4	0.099862844
131	0x3e31ada7	0.173514
132	0xbd3d15c0	-0.04616332
133	0x3df85191	0.121249326
134	0xbe04a0ec	-0.12952012
135	0x3df84dc8	0.121242106
136	0x3dde0f8b	0.10842808
137	0x3d1c49af	0.038156208
138	0x3e940a96	0.28914326
139	0xbebbeb4c	-0.36702955
140	0xbdc15390	-0.094397664
141	0x3d68d302	0.056841858
142	0xbd996539	-0.0749001
143	0x3c9e7bfe	0.019346233
144	0xbdd3648c	-0.10321912
145	0xbdee7df3	-0.11645117
146	0x3e0c62cf	0.13709567
147	0xbd97c396	-0.07410352
148	0x3de4c0e8	0.111696064
149	0x3f0c6383	0.5483934
150	0x3de689f2	0.1125678
151	0xbe3e6b2f	-0.18595575
152	0x3e098a76	0.13431725
153	0xbda051ec	-0.07828125
154	0xbe361ad6	-0.17783675
155	0xbe825e60	-0.25462627
156	0x3e192ee9	0.14959301
157	0xbd2ae038	-0.041717738
158	0x3e311e51	0.17296721
159	0xbe489083	-0.19586377
160	0x3b23ab47	0.0024973915
161	0x3dd9f17a	0.10641761
162	0xbe07401d	-0.13208051
163	0xbe51272a	-0.20425096
164	0xbe1832d1	-0.14863135
165	0xbdb356a0	-0.08756757
166	0x3e609873	0.21933155
167	0x3e9900b8	0.2988336
168	0x3e637eb5	0.22216304
169	0x3e77e46b	0.24208228
170	0xbe01acb0	-0.12663531
171	0xbe47ee23	-0.19524436
172	0x3f03ebaf	0.515315
173	0x3e8b6f61	0.27233413
174	0x3c544bc0	0.012957513
175	0x3eafa244	0.34303486
176	0x3d0b64eb	0.03403179
177	0x3e0c1640	0.13680363
178	0x3ccc5a16	0.0249453
179	0xbc52f85c	-0.012876596
180	0x3e3aaf95	0.18231042
181	0x3dee8cae	0.11647926
182	0xbd5861cf	-0.052827653
183	0xbd52033e	-0.051272623
184	0xbd6f4452	-0.058414765
185	0xbe49e201	-0.1971512
186	0xbe04daef	-0.12974142
187	0xbd4e4b33	-0.050364684
188	0x3c8777a3	0.01653654
189	0xbe1c7e2b	-0.15282504
190	0xbe8590d6	-0.26087064
191	0x3e1fd258	0.15607584
192	0xbdd416a0	-0.10355878
193	0x3e08b425	0.1334997
194	0xbe4f723d	-0.20258422
195	0xbd314445	-0.043277998
196	0x3e0e2d83	0.13884549
197	0x3cf408d5	0.029789368
198	0xbdfc62e0	-0.123235464
199	0xbe6bc297	-0.23023449
200	0xbe7b2da0	-0.24529123
201	0xbe07a362	-0.1324592
202	0xbc8fd427	-0.017557217
203	0x3dd6b6b5	0.10484067
204	0x3e3c274e	0.18374369
205	0xbcb62717	-0.022235436
206	0xbd2e2d2b	-0.042523544
207	0xbe5ead2a	-0.21745744
208	0xbe46837b	-0.19386093
209	0x3df17551	0.117899545
210	0xbe572539	-0.21010293
211	0x3e802c1e	0.2503366
212	0x3bbef315	0.0058273175
213	0xbe13d02f	-0.14434884
214	0xbeb1240a	-0.34597808
215	0x3c126418	0.008934997
216	0x3dc7751c	0.09739134
217	0xbe1b3026	-0.15155086
218	0x3d754aa9	0.059885655
219	0xbeac62f3	-0.33669242
220	0xbdc8e5fa	-0.098094895
221	0x3bdcd65f	0.006739422
222	0x3e8fa5c9	0.28056172
223	0xbdc62947	-0.09675842
224	0xbe569474	-0.20955068
225	0xbe826b0b	-0.25472292
226	0xbe356f0f	-0.17718147
227	0xbe5a0543	-0.2129107
228	0xbc5b4f60	-0.013385624
229	0x3e9440c6	0.28955668
230	0x3e330139	0.17480935
231	0x3db01557	0.0859782
232	0xbdcb3f24	-0.099241525
233	0x3c958e87	0.018256439
234	0x3d809747	0.06278854
235	0x3d7e7f50	0.062133133
236	0x3d9dbe2e	0.077022895
237	0xbe386d2f	-0.180104
238	0xbd6ce89c	-0.05783902
239	0x3df42fc4	0.11923173
240	0xbdaa6f29	-0.08321983
241	0x3e088d2a	0.133351
242	0x3e5c6360	0.21522284
243	0x3d83471a	0.06410046
244	0xbd34349c	-0.043995485
245	0x3cd241af	0.025666086
246	0xbe9ff5a5	-0.312421
247	0x3ddc588a	0.10759075
248	0x3df84b72	0.12123765
249	0xbea660e0	-0.32495785
250	0x3d1f1a7a	0.03884361
251	0x3ed57440	0.41690254
252	0x3cf41889	0.029796856
253	0xbd2fcbc3	-0.04291893
254	0xbdb347f9	-0.08753962
255	0x3e157134	0.14593965

conv2.conv1.0.bias f4 [16]
0	0xbda009b9	-0.078143544
1	0xbd0a766d	-0.033804346
2	0x3dd21ec4	0.10259774
3	0x3d1ce0e8	0.038300425
4	0x3de81a85	0.11333183
5	0xba3a899c	-0.00071158423
6	0xbd800ea1	-0.0625279
7	0x3cb15714	0.021647967
8	0xbbe40acd	-0.0069592954
9	0xbcca4a32	-0.024693582
10	0x39a24650	0.00030951435
11	0xbd907ac7	-0.07054668
12	0x3d1325b8	0.035924643
13	0xbc8deccb	-0.017324826
14	0xbdae5842	-0.085129276
15	0xbdcece00	-0.10097885

conv2.conv1.1.weight f4 [16]
0	0x3f821097	1.0161313
1	0x3f812ba5	1.0091444
2	0x3f646137	0.8921084
3	0x3f7b1f4f	0.9809465
4	0x3f6f2a3f	0.9342384
5	0x3f7e885a	0.99426806
6	0x3f846133	1.0342163
7	0x3f900749	1.1252223
8	0x3f6ac867	0.9171204
9	0x3f7585aa	0.9590708
10	0x3f842d0f	1.0326251
11	0x3f7ba727	0.9830193
12	0x3f838956	1.0276287
13	0x3f802ecc	1.0014281
14	0x3f7a6bbd	0.97820646
15	0x3f86b169	1.0522891

conv2.conv1.1.bias f4 [16]
0	0x3c74c991	0.014940635
1	0xbc7ec489	-0.015549787
2	0xbd390bf1	-0.045177404
3	0x3cec65d4	0.02885715
4	0x3cd913b2	0.02649865
5	0x3cb46827	0.02202232
6	0x3d6e031f	0.058108445
7	0x3bfbda55	0.0076859393
8	0x3cc3ee50	0.023917347
9	0xbd3a099e	-0.045419328
10	0xbd26e887	-0.0407491
11	0xbd97bfc5	-0.07409624
12	0x3e06bbd3	0.13157587
13	0x3c5f1d5c	0.01361784
14	0x3c50aa86	0.012735968
15	0xbd602bdc	-0.054729328

conv2.conv1.1.running_mean f4 [16]
0	0xbe165a00	-0.1468277
1	0x3e1cd8d2	0.15317085
2	0x3e827d95	0.25486436
3	0xbe69cf48	-0.22832978
4	0x3fd4362c	1.6579032
5	0x3f3a4584	0.7276232
6	0x3d1847e8	0.03717795
7	0xbf424051	-0.7587939
8	0x3f6a1659	0.9144035
9	0x3eaa9cac	0.33322656
10	0x3dcebd02	0.10094644
11	0xbf78a42d	-0.9712551
12	0xbf9f311f	-1.2436866
13	0xbf882942	-1.0637591
14	0xbf8b7910	-1.089632
15	0xc01a2472	-2.4084744

conv2.conv1.1.running_var f4 [16]
0	0x3f8064b0	1.0030727
1	0x3feed20e	1.8657854
2	0x3fc99c1c	1.5750766
3	0x3f81defa	1.0146172
4	0x3fa27b8d	1.2693955
5	0x3f8f4548	1.1193018
6	0x3fde1d85	1.7352759
7	0x3f8ceb9f	1.1009406
8	0x3f811a58	1.0086164
9	0x3f9e5f4f	1.2372836
10	0x3f8f04e8	1.1173372
11	0x3fda0cc2	1.7035143
12	0x3f98703f	1.1909255
13	0x3fd18e25	1.6371504
14	0x3fe21833	1.7663635
15	0x3fd3525a	1.6509507

conv2.conv2.0.weight f4 [16, 16, 3, 3]
0	0xbe1c8636	-0.15285572
1	0x3d8eadff	0.06966781
2	0x3d9a528c	0.07535276
3	0xbc531e65	-0.012885665
4	0xbe8a7049	-0.27038792
5	0x3b339fb4	0.0027408423
6	0xbe4b8660	-0.19875479
7	0x3deeda76	0.11662762
8	0xbdb473de	-0.088111624
9	0x3db17da2	0.08666541
10	0x3e13ea26	0.1444479
11	0x399986cc	0.00029282866
12	0xbe8c8621	-0.27446082
13	0x3e050eb2	0.12993887
14	0xbe3e985d	-0.1861281
15	0xbd727624	-0.0591947
16	0xbd9059e4	-0.07048395
17	0xbdb64ab3	-0.089009665
18	0x3c9d1aed	0.019177878
19	0x3d8634a3	0.065530084
20	0xbea02cfe	-0.31284326
21	0x3d06178f	0.03273731
22	0x3da23775	0.07920734
23	0xbdee5534	-0.11637345
24	0x3d60cfb5	0.054885585
25	0x3d0ac0f0	0.033875406
26	0xbc68c8cd	-0.014208031
27	0x3c2ec75e	0.01066765
28	0xbddecfe8	-0.10879499
29	0x3d9a43fc	0.07532498
30	0xbd6ad492	-0.05733163
31	0x3e50b256	0.2038053
32	0x3cdbe2d2	0.026841555
33	0x3ce24c61	0.02762431
34	0xbd8d1028	-0.06887847
35	0xbe46fa38	-0.19431388
36	0x3e6b729b	0.22992937
37	0xbe21f003	-0.15814213
38	0xbc357694	-0.0110756345
39	0xbe91e9c7	-0.2849867
40	0xbd31e153	-0.043427777
41	0xbd8c4995	-0.06849972
42	0x3e8fe0bb	0.28101143
43	0xbe5ca3b0	-0.21546817
44	0xbe328f1b	-0.17437403
45	0x3e08e297	0.13367687
46	0xbdefc0a8	-0.11706668
47	0x3e82d4b4	0.25552905
48	0xbe423d10	-0.18968606
49	0x3ddbd41b	0.10733815
50	0x3bb4500c	0.0055027064
51	0x3cacf7ed	0.021114314
52	0xbd3199e8	-0.043359667
53	0x3e28ef5b	0.16497557
54	0xbd7cf0fd	-0.06175326
55	0x3e085cb3	0.13316612
56	0x3de9cca8	0.11415988
57	0xbd154be3	-0.036449324
58	0x3ec70b34	0.38875735
59	0x3ddbac7f	0.107262604
60	0x3de0ac99	0.109704204
61	0x3cdbcd97	0.026831431
62	0x3c0540f3	0.008133161
63	0x3e2470aa	0.16058603
64	0x3ccabba4	0.024747677
65	0xbd8d0017	-0.06884783
66	0x3dac1de7	0.08404141
67	0xbe7d21d2	-0.24719933
68	0xbd9f14ac	-0.07767615
69	0xbd5b5c96	-0.053555094
70	0x3dc70beb	0.0971907
71	0x3d28791b	0.04113112
72	0x3d55e822	0.052223332
73	0xbcabe840	-0.020984769
74	0xbde76e01	-0.113002785
75	0xbe9b3a2d	-0.30317822
76	0xbd9fcc72	-0.07802667
77	0xbdcbee52	-0.09957565
78	0xbe580f29	-0.21099533
79	0x3d9f348a	0.07773693
80	0x3d173fdd	0.03692614
81	0xbdf20dad	-0.11819015
82	0xbd828daf	-0.0637468
83	0x3df11a56	0.11772601
84	0x3dd438bd	0.103623845
85	0xbd8ee39c	-0.06977007
86	0xbe8cbcef	-0.27487895
87	0xbe1e38f6	-0.15451416
88	0xbd9408be	-0.0722823
89	0xbdc3f287	-0.09567743
90	0x3e4bc3f1	0.19898964
91	0x3db8d01d	0.090240695
92	0xbd260911	-0.04053599
93	0xbdd267e4	-0.10273722
94	0x3e0235c4	0.12715822
95	0xbe68ef6c	-0.22747582
96	0xbd7e8f26	-0.062148236
97	0x3ae00c24	0.0017093462
98	0xbe39a880	-0.18130684
99	0x3dee1b69	0.11626322
100	0x3d0d1d6e	0.034451894
101	0x3dcb0093	0.09912219
102	0xbd0845dd	-0.03326975
103	0xbd808e92	-0.06277193
104	0x3d0cad5f	0.034345027
105	0x3e00b5ca	0.12569347
106	0x3d39f7e6	0.04540243
107	0x3e05acdd	0.13054223
108	0xbdb726d3	-0.08942952
109	0x3db047bf	0.086074345
110	0xbd50a52c	-0.05093877
111	0xbd640acf	-0.05567437
112	0xbdaeb39c	-0.085303515
113	0x3c88ccd7	0.016699238
114	0x3c578f6a	0.013156751
115	0x3d04f0c2	0.032456167
116	0xbdae881e	-0.08522056
117	0x3dce0284	0.100590736
118	0x3e62c40c	0.22145098
119	0xbe0a4ff1	-0.13507058
120	0xbd862d2e	-0.06551586
121	0xbe123ef1	-0.14281823
122	0xbd72a139	-0.059235785
123	0x3e05adb6	0.13054547
124	0x3da2c1aa	0.07947095
125	0xbe1e4acf	-0.15458225
126	0xbe4185a7	-0.1889864
127	0xbd92d977	-0.071703844
128	0x3d9fb8bb	0.077989064
129	0xbd91e93c	-0.07124564
130	0x3d6b2c25	0.057415146
131	0xbde42136	-0.11139147
132	0x3d79ad6a	0.060956396
133	0x3d1959ee	0.03743928
134	0xbe4b0f28	-0.1983
135	0xbe179aba	-0.14805117
136	0x3ddd10fd	0.10794256
137	0xbd266b2b	-0.040629547
138	0x3de776b1	0.113019355
139	0x3b545d54	0.003240426
140	0xbc98ccbf	-0.018652318
141	0xbe76cac4	-0.24100786
142	0x3d388ce2	0.04505623
143	0xbdcd336a	-0.10019572
144	0xbdd42dff	-0.103603356
145	0x3d2c9fc8	0.042144567
146	0x3e47cfeb	0.19512908
147	0xbc40bbc8	-0.011763521
148	0x3daa2099	0.08306999
149	0x3d839169	0.06424219
150	0xbe240e09	-0.16020979
151	0x3d1d6504	0.038426414
152	0xbdf338af	-0.11876046
153	0x3d81a10b	0.06329545
154	0x3de18152	0.11010994
155	0x3bca99d2	0.0061828876
156	0xbe072f6f	-0.13201688
157	0xbcb32a5d	-0.021870786
158	0x3d89d5d8	0.067302406
159	0x3e0d28de	0.13785121
160	0xbe49188d	-0.19638272
161	0x3d66db2c	0.056361362
162	0x3dd925cc	0.10602912
163	0x3d389d83	0.04507209
164	0xbddbb52c	-0.10727915
165	0x3e7004f4	0.2343939
166	0xbde63e5b	-0.11242362
167	0x3cca5486	0.024698507
168	0xbe4bcf3f	-0.19903277
169	0x3d93a3a1	0.07208944
170	0x3e2bbccc	0.16771239
171	0x3e22dce9	0.15904583
172	0x3d83f72b	0.06443628
173	0xbd92ab5b	-0.0716159
174	0x3e420471	0.18947007
175	0xbe01f621	-0.12691547
176	0x3d759331	0.059954826
177	0x3e2d1151	0.16901137
178	0x3d5043e1	0.050845984
179	0xbc75fcb5	-0.015013863
180	0xbe29ad26	-0.16569957
181	0xbc4f1194	-0.012638468
182	0x3d346a69	0.044046793
183	0xbb9608e8	-0.0045786984
184	0x3d986fe5	0.07443217
185	0x3d86ddb8	0.06585258
186	0xbe280f89	-0.16412176
187	0xbc755a78	-0.014975183
188	0x3bdd071a	0.0067452313
189	0xbd14967a	-0.036276318
190	0xbdb808f0	-0.0898608
191	0xbe0af7a7	-0.13571034
192	0xbdcd2f92	-0.10018839
193	0xbbcbcf36	-0.00621977
194	0xbe9e01b5	-0.30860677
195	0x3d940b7c	0.07228753
196	0xbdba04b8	-0.09082931
197	0xbbbf4c11	-0.0058379252
198	0x39d68490	0.00040916028
199	0xbde56ede	-0.11202787
200	0x3dafd9ee	0.08586489
201	0x3dec9b74	0.11553088
202	0xbe003bb8	-0.12522781
203	0xbe049e3d	-0.12950988
204	0x3db67568	0.08909112
205	0x3d72448e	0.05914741
206	0xbc2df2f3	-0.010617006
207	0xbe5d2267	-0.21595155
208	0xbd8548a3	-0.06507995
209	0xbc8ec106	-0.017426025
210	0xbe07731d	-0.13227506
211	0xbe0c723d	-0.13715453
212	0xbdca28b5	-0.098710455
213	0xbe532dab	-0.2062289
214	0xbc0b1f60	-0.008491367
215	0xbccee027	-0.025253369
216	0x3e041d84	0.12901884
217	0xbcf73568	-0.030176833
218	0x3c329667	0.0109001165
219	0xbe2c8a10	-0.16849542
220	0x3e15b62e	0.14620277
221	0x3e1a142b	0.15046756
222	0xbe3d1ee4	-0.18468815
223	0x3dde5428	0.10855895
224	0x3e907e63	0.28221425
225	0xbd8dd98b	-0.06926259
226	0xbd3f908b	-0.046768706
227	0xbe043b09	-0.12913145
228	0xbe0f60c8	-0.14001763
229	0xbd0a1012	-0.033706732
230	0xbe1f62da	-0.15565053
231	0xbdf80da1	-0.121119745
232	0xbd05315b	-0.032517772
233	0x3dd0ff7b	0.10204979
234	0xbcbe21fc	-0.023209564
235	0x3d148a7c	0.03626488
236	0xbdf7b282	-0.120945945
237	0x3e027ee6	0.1274372
238	0xbd06e631	-0.03293437
239	0xbcac1129	-0.021004276
240	0x3d4b7cbc	0.049679503
241	0x3de8a08d	0.11358748
242	0xbe90381f	-0.28167817
243	0xbd0602a7	-0.032717373
244	0x3ed99017	0.42492744
245	0x3d97bcc3	0.0740905
246	0xbdd1cb7d	-0.102438904
247	0xbe3d1dbc	-0.18468374
248	0x3cbb3477	0.022852166
249	0xbdc4615c	-0.09588882
250	0x3e124c95	0.14287026
251	0xbde5b05c	-0.112152785
252	0x3e5c5228	0.21515715
253	0xbec441f6	-0.38331574
254	0x3e646b10	0.22306466
255	0x3e31ec94	0.17375404

conv2.conv2.0.bias f4 [16]
0	0xbc9f456c	-0.019442283
1	0xbd7ceccd	-0.06174927
2	0xbd8ff2ff	-0.0702877
3	0xbd760a88	-0.060068637
4	0x3d06ba30	0.032892406
5	0xbc0fbe34	-0.008773375
6	0xbcb0a927	-0.021565033
7	0x3ce1e4a3	0.027574843
8	0x3d4f7d9a	0.050656892
9	0x3d3e4953	0.046456646
10	0x3ce16d3f	0.027517913
11	0x3da15e76	0.07879345
12	0x3b682415	0.0035421897
13	0x3aff5cd1	0.0019482617
14	0x3d06d4d6	0.03291782
15	0x3daa1bf4	0.08306113

conv2.conv2.1.weight f4 [16]
0	0x3f815343	1.0103534
1	0x3f8498cc	1.035913
2	0x3f67da05	0.90567046
3	0x3f86e69a	1.0539124
4	0x3f82183e	1.0163648
5	0x3f842381	1.0323335
6	0x3f7a7f86	0.97850835
7	0x3f7c7121	0.9861012
8	0x3f862fc3	1.0483326
9	0x3f883b97	1.0643185
10	0x3f6f514c	0.93483424
11	0x3f6699c6	0.9007839
12	0x3f82e7ba	1.0226967
13	0x3f73d82d	0.95251733
14	0x3f802435	1.001105
15	0x3f809ca7	1.0047807

conv2.conv2.1.bias f4 [16]
0	0x3c4a3c7e	0.012343524
1	0x3d8a8aff	0.06764793
2	0xbc90c4c9	-0.01767196
3	0x3cba29f2	0.02272508
4	0x3ba19b1f	0.004931822
5	0x3d43b536	0.047780238
6	0x3d3ecefa	0.046584107
7	0x3d8531ad	0.065036155
8	0x3d3eb237	0.046556678
9	0x3d3dc69a	0.04633198
10	0x3c47a89a	0.012186194
11	0xbdc3ca8d	-0.09560118
12	0x3cc7c11f	0.02438408
13	0xbd2b3fd2	-0.04180891
14	0xbd914d36	-0.07094805
15	0x3da7f796	0.0820152

conv2.conv2.1.running_mean f4 [16]
0	0xbf437c53	-0.7636158
1	0xbc3cb122	-0.011516841
2	0x3ec50fb0	0.3848853
3	0x3dfe0b04	0.12404445
4	0xbf873799	-1.0563842
5	0x3e918029	0.2841809
6	0x3ed52bbc	0.4163493
7	0x3f0b2c1f	0.543642
8	0x3eee014f	0.46485373
9	0xbf86cc6f	-1.0531138
10	0x3dad8d01	0.0847416
11	0x3f360990	0.7110834
12	0xbe1c4e89	-0.15264334
13	0x3f18a396	0.5962461
14	0xbf541a55	-0.8285268
15	0x3f518f4a	0.81859267

conv2.conv2.1.running_var f4 [16]
0	0x3fb3df20	1.4052467
1	0x3f75e1cb	0.9604766
2	0x3f27b63d	0.6551245
3	0x3f4a7536	0.790851
4	0x3fc0d8e6	1.5066192
5	0x4008e9d9	2.139273
6	0x3f882773	1.0637039
7	0x40082402	2.1271977
8	0x3fab106c	1.3364387
9	0x3fae08e8	1.3596468
10	0x3f0db099	0.5534759
11	0x3fabc1a7	1.3418473
12	0x3f8b0cdb	1.0863298
13	0x3f85348d	1.0406662
14	0x3fad8e1c	1.3558993
15	0x3f89f9e0	1.0779381

conv2.conv3.0.weight f4 [16, 16, 3, 3]
0	0x3e0e31fd	0.13886257
1	0xbdee717d	-0.1164274
2	0x3e1b70e8	0.15179789
3	0x3d9f1a2a	0.07768662
4	0xbdbaf256	-0.09128253
5	0x3e239b8f	0.1597731
6	0xbdaf986a	-0.085739926
7	0xbdd1f792	-0.102522984
8	0xbd815f04	-0.06316951
9	0x3e03a22a	0.1285483
10	0xbcae2e1a	-0.021262217
11	0x3de7883f	0.11305284
12	0x3d416da7	0.047223713
13	0x3e1f2642	0.15541938
14	0x3d082527	0.033238556
15	0x3dfc7652	0.12327255
16	0x3e3c766f	0.18404554
17	0x3ca54a91	0.020177158
18	0xbca309ba	-0.019902099
19	0xbd3b2276	-0.04568716
20	0x3e04c149	0.12964357
21	0xbd1cb5c2	-0.038259275
22	0x3dfb1673	0.12260141
23	0x3e2fc343	0.1716433
24	0x3cc3c346	0.023896825
25	0x3d0edf42	0.034880884
26	0x3e0d740c	0.138138
27	0x3ba2267c	0.0049484354
28	0xbdf87000	-0.12130737
29	0xbd1b640a	-0.0379372
30	0xbd865aa4	-0.06560257
31	0x3e05eaf8	0.13077915
32	0x3dd0bc78	0.101921976
33	0x3dc9fd8d	0.09862814
34	0x3d78797d	0.060662735
35	0xbd8d7281	-0.069066055
36	0xbd9e455c	-0.07728073
37	0x3d8d42a5	0.06897477
38	0xbdc07d59	-0.09398908
39	0xbe0fa29a	-0.14026871
40	0xbd2706a1	-0.040777806
41	0x3ca9f6d3	0.020747578
42	0xbdd4e314	-0.10394874
43	0xbd369841	-0.044578794
44	0xbbec893e	-0.007218509
45	0xbd96ac4a	-0.0735708
46	0xbd078bec	-0.033092424
47	0xbd6f08ed	-0.05835812
48	0xbd219753	-0.039450955
49	0x3de09054	0.109650284
50	0x3e1bee61	0.15227653
51	0xbdad2d42	-0.08455898
52	0x3d374ace	0.044749074
53	0x3e4e613b	0.20154278
54	0xbcc602a5	-0.024171183
55	0x3d8d24d6	0.068917915
56	0x3e00f6ac	0.12594098
57	0x3dfcdbdf	0.123466246
58	0x3d15b3ae	0.03654831
59	0x3e571242	0.21003059
60	0x3d930940	0.07179499
61	0x3c8f186d	0.017467702
62	0x3e13d114	0.14435226
63	0xbdf78361	-0.120856054
64	0xbddfdef4	-0.10931197
65	0x3af4ad7b	0.0018667424
66	0x3cf28818	0.02960591
67	0x3d52d673	0.051474046
68	0x3ccd192b	0.025036415
69	0x3bf0f213	0.0073530762
70	0xbd985b53	-0.07439294
71	0x3bbbc000	0.0057296753
72	0xbdb705ab	-0.08936628
73	0xbd46b0d9	-0.0485085
74	0xbd86d7ac	-0.06584105
75	0x3d1e0df9	0.038587544
76	0xbd05689c	-0.032570466
77	0x3c6b30b6	0.014354875
78	0xbe172ca0	-0.14763117
79	0xbc9b06cf	-0.018924145
80	0xbe0f0dba	-0.1397008
81	0xbcd13479	-0.025537716
82	0xbc75e426	-0.015008008
83	0x3dbf61da	0.093448356
84	0x3de1fd94	0.11034694
85	0x3e0c5778	0.13705242
86	0x3d9bf6b3	0.076154135
87	0x3db1ced6	0.08682029
88	0x3cf1e585	0.029528389
89	0x3e30b9af	0.17258333
90	0x3ad4ec31	0.0016244707
91	0xbe0c433d	-0.13697524
92	0x3e5e5e9f	0.21715783
93	0xbe51f23d	-0.20502563
94	0xbe1afe45	-0.15136059
95	0xbe7e13b9	-0.24812211
96	0xbda4b66a	-0.08042605
97	0xbd725f1a	-0.059172727
98	0xbd69207a	-0.056915738
99	0x3e481c63	0.19542079
100	0xbd9b0f97	-0.07571333
101	0x3e405de2	0.18785813
102	0x3d5f636d	0.05453818
103	0x3c81601b	0.015792897
104	0xbdcdf443	-0.10056355
105	0x3dbaa5ba	0.09113641
106	0x3b318b8c	0.0027091233
107	0xba8efc48	-0.0010908926
108	0x3cbe549d	0.023233706
109	0x3d1049a0	0.035226464
110	0xbda3496f	-0.07972991
111	0x3db7bbee	0.089713916
112	0x3d356c35	0.044292647
113	0x3e05b20f	0.13056205
114	0x3e75384a	0.23947254
115	0xbc129981	-0.008947731
116	0x3e02b31f	0.12763642
117	0x3e31a4ce	0.17348024
118	0xbc9c3687	-0.01906897
119	0xbe39daf6	-0.18149933
120	0xbe86621e	-0.26246732
121	0x3e0bab11	0.13639475
122	0x3c1a8b50	0.009432629
123	0xbcbdcf48	-0.023170128
124	0xbde069fc	-0.10957715
125	0x3daf7f19	0.08569164
126	0x3dcde439	0.10053296
127	0x3e43517e	0.19074056
128	0x3d864870	0.06556785
129	0x3e01e229	0.1268393
130	0x3dd25926	0.1027091
131	0xbc467883	-0.012113693
132	0xbcb92315	-0.022599736
133	0x3dc62008	0.09674078
134	0xbc47b40f	-0.012188925
135	0x3e1b833a	0.15186778
136	0x3c3fb80a	0.011701593
137	0xbe405da4	-0.18785721
138	0x3cc54fa5	0.024085829
139	0x3e00bbad	0.12571593
140	0x3c868f10	0.01642564
141	0xbe845d3b	-0.2585238
142	0x39c8c944	0.00038296927
143	0xbd74a6c9	-0.05972937
144	0xbd5e67db	-0.054298263
145	0xbdac062a	-0.08399613
146	0xbd3f017e	-0.046632282
147	0x3d843520	0.06455445
148	0x3e4af238	0.19818962
149	0x3d8a8baf	0.06764924
150	0xbd8a1106	-0.06741528
151	0xbcf74c63	-0.030187791
152	0x3dee58ec	0.11638054
153	0xbd73dc28	-0.05953613
154	0x3cba65a4	0.022753544
155	0x3d110306	0.035403274
156	0x3d5dbb38	0.054133624
157	0x3d920842	0.07130481
158	0x3dea5020	0.11441064
159	0x3dfb6560	0.12275195
160	0xbd00ddc1	-0.03146148
161	0xba7c61dc	-0.00096276193
162	0x3dda7daf	0.106685035
163	0xbe194e68	-0.14971316
164	0xbd1fd4f3	-0.039021444
165	0x3d2de624	0.042455807
166	0x3c8017d4	0.015636362
167	0xbae01d58	-0.0017098589
168	0x3d593084	0.053024784
169	0xbc4bc078	-0.012436025
170	0x3dbe4749	0.0929094
171	0x3d64e585	0.05588295
172	0x3d32d219	0.043657396
173	0xbd3e5f57	-0.046477642
174	0x3d52eaeb	0.051493566
175	0xbc13ce8e	-0.009021414
176	0xbc9f26c3	-0.019427663
177	0xbc7b609b	-0.015342857
178	0xbe952f00	-0.2913742
179	0x3defd1f1	0.11709965
180	0x3e7f298d	0.24918194
181	0xbdb9c5ef	-0.09070956
182	0xbd92bd63	-0.07165029
183	0x3e63baf6	0.22239289
184	0xbce3f11e	-0.027824935
185	0x3e775565	0.24153669
186	0x3d015bb7	0.031581607
187	0xbc0084c4	-0.007844154
188	0xbd14100e	-0.036148123
189	0x3bce189e	0.0062895557
190	0xb9d457a2	-0.00040501083
191	0x3c92b970	0.01791069
192	0xbcf50b15	-0.02991251
193	0xbe0c926e	-0.13727733
194	0xbd50330e	-0.05082994
195	0x3e824980	0.254467
196	0x3dd0c98a	0.101946905
197	0x3d97d995	0.07414547
198	0x3e8898a4	0.26678956
199	0x3e3ffae4	0.18748051
200	0x3e159a1b	0.14609568
201	0xbbd788fe	-0.00657761
202	0xbda99fe5	-0.082824506
203	0x3c7a7591	0.015286819
204	0x3d9656eb	0.07340797
205	0x3d61e7e6	0.055152796
206	0xbd968e5b	-0.07351371
207	0x3cfd0da3	0.030890292
208	0x3dfa4268	0.12219697
209	0x3dabe693	0.08393588
210	0x3e753bb8	0.23948562
211	0x3d33fec8	0.04394415
212	0x3ea1bacf	0.31587836
213	0x3c6c456e	0.01442085
214	0x3c0fcef6	0.008777371
215	0x3d941f88	0.072325766
216	0x3da8b8f1	0.082384
217	0xbd3db777	-0.046317544
218	0xbd8d1cfd	-0.06890295
219	0x3ea0122d	0.31263867
220	0x3e35a181	0.1773739
221	0x3e180a82	0.14847758
222	0xbeb1136f	-0.3458514
223	0xbe537ed6	-0.20653853
224	0x3d3003b7	0.042972293
225	0x3dac9052	0.084259644
226	0xbd3ae2de	-0.045626514
227	0xbdf662db	-0.12030574
228	0x3e54c9a6	0.20780048
229	0x3e4583f5	0.19288619
230	0xbce4ea65	-0.0279438
231	0x3c455bca	0.01204581
232	0xba8d2d70	-0.0010770988
233	0xbd7401a9	-0.059571896
234	0xbd80502d	-0.06265292
235	0xbe07773c	-0.13229078
236	0x3d7dd7f5	0.06197353
237	0xbe0d571d	-0.13802762
238	0xbb984d6e	-0.004647902
239	0x3d419b2a	0.047267117
240	0x3d70f700	0.058829308
241	0x3cddf6c2	0.027095202
242	0x3cfb8cf2	0.030706856
243	0x3d70a57f	0.05875158
244	0xbdafd78d	-0.08586035
245	0xbbf0d7b9	-0.007349935
246	0x3c96fe59	0.01843183
247	0x3e1be63e	0.15224549
248	0x3d8aea9b	0.06783029
249	0xbc65c139	-0.014023119
250	0x3dd0c8b9	0.10194535
251	0xbc8b3321	-0.016992154
252	0xbd92fb33	-0.07176819
253	0x3e04e480	0.12977791
254	0xba2929c3	-0.00064530614
255	0xbe31d68d	-0.17367001

conv2.conv3.0.bias f4 [16]
0	0xbc0c0397	-0.008545778
1	0x3d9e7a35	0.07738153
2	0xbd86ab2f	-0.065756194
3	0xbd32ce13	-0.04365356
4	0xbd5bf318	-0.05369863
5	0x3d8c2435	0.068428434
6	0x3d5c9cce	0.053860478
7	0xbd9b1170	-0.07571685
8	0x3c59b6d3	0.013288218
9	0xbd84dd66	-0.06487541
10	0xbcad2e69	-0.021140294
11	0x3c711a40	0.014715731
12	0x3c8bb95d	0.017056162
13	0xbd74fa83	-0.05980922
14	0xbd599d11	-0.053128306
15	0xbd3c227c	-0.045931324

conv2.conv3.1.weight f4 [16]
0	0x3f7aa1c7	0.979031
1	0x3f7ae157	0.9800009
2	0x3f753ec8	0.9579892
3	0x3f772470	0.96539974
4	0x3f82ddb9	1.0223914
5	0x3f8554e8	1.0416536
6	0x3f8516f6	1.0397632
7	0x3f615e86	0.88034856
8	0x3f8f7b83	1.1209568
9	0x3f77eeb5	0.96848613
10	0x3f80acd9	1.0052749
11	0x3f6e4b58	0.93083715
12	0x3f8585fb	1.0431513
13	0x3f7d2799	0.98888546
14	0x3f8580e4	1.0429959
15	0x3f8542ec	1.0411048

conv2.conv3.1.bias f4 [16]
0	0xbcaa7feb	-0.02081295
1	0xbcd76784	-0.026294477
2	0x3caf29b6	0.021382194
3	0xbd2b085c	-0.04175602
4	0x3d74994d	0.05971651
5	0x3dad60bb	0.084657155
6	0x3d62d7f4	0.05538173
7	0xbd816766	-0.0631855
8	0x3e0ff783	0.14059262
9	0xbd91eb9b	-0.07125016
10	0x3d11005f	0.035400745
11	0xbdaf5745	-0.08561567
12	0xbcc4e835	-0.024036506
13	0x3c155bd2	0.00911613
14	0xba514086	-0.0007982332
15	0xbc42bc84	-0.011885766

conv2.conv3.1.running_mean f4 [16]
0	0x3f516452	0.817937
1	0x3fcabfed	1.5839821
2	0x3d975fd4	0.07391325
3	0xbeaea55d	-0.34110537
4	0xbf27edcb	-0.6559722
5	0xbdeba7b3	-0.115065955
6	0xbf2ec094	-0.682626
7	0xbf69f69f	-0.9139194
8	0x3ec06cda	0.37583047
9	0xbfa31ac1	-1.274254
10	0xbf3b2e17	-0.731172
11	0x3e2aa968	0.16666186
12	0xbe3795fc	-0.17928308
13	0x3e4f1799	0.20223846
14	0xbeedff13	-0.4648367
15	0x3ef4299e	0.47688

conv2.conv3.1.running_var f4 [16]
0	0x3f4af822	0.7928487
1	0x3f9b3529	1.2125598
2	0x3f995f96	1.1982296
3	0x3fea9a17	1.8328274
4	0x3f9f14bb	1.2428201
5	0x3fe519e0	1.7898521
6	0x3f4ec79c	0.8077333
7	0x3fb50ce1	1.4144555
8	0x3fcdd4f7	1.6080617
9	0x3ff2e883	1.8977207
10	0x3f88396b	1.0642523
11	0x3fb177cf	1.3864688
12	0x3fc1b596	1.5133541
13	0x3faa79a0	1.3318367
14	0x3fa296a6	1.2702224
15	0x3fddd563	1.7330745
